bfcnn/pretrained/sparse_resnet_4x5_bn_3x3/model.tflite (tflite, 210096 bytes, 99 tensors)

sparse_resnet_denoiser/level_0/batch_normalization/FusedBatchNormV3 f4 [16]
0	0xbfb17dd8	-1.386653
1	0xbf6f6d33	-0.93526
2	0xbf74471c	-0.95421004
3	0xbf919ba9	-1.1375629
4	0xbeee8031	-0.46582177
5	0xbf05bfe5	-0.5224593
6	0xbed3ab34	-0.41341555
7	0xbf064ef5	-0.5246423
8	0x3c080cda	0.008303845
9	0xbeb3b9d1	-0.35102704
10	0xbfa3e57b	-1.2804407
11	0xbf847789	-1.0348979
12	0xbf45207c	-0.7700269
13	0xbf1bfc53	-0.6093189
14	0xbf02001a	-0.50781405
15	0xbf119298	-0.5686431

sparse_resnet_denoiser/level_0/batch_normalization/FusedBatchNormV31 f4 [16]
0	0x41e8afad	29.08578
1	0x4140413c	12.015926
2	0x4211090b	36.25883
3	0x4143cb0c	12.237072
4	0x42021ded	32.529224
5	0x426bac91	58.91852
6	0x4051baa5	3.2770169
7	0x41e9db54	29.232094
8	0xbe843c63	-0.2582732
9	0x4210e55b	36.22398
10	0x426749bb	57.822002
11	0x4097d544	4.7447834
12	0x42108bd6	36.13656
13	0x424bf82d	50.99236
14	0x41a7e002	20.984379
15	0x4183fa50	16.497223

sparse_resnet_denoiser/level_0/batch_normalization_1/FusedBatchNormV3 f4 [16]
0	0xbf56e580	-0.8394394
1	0xbfad8b86	-1.3558204
2	0xbfaa6a6f	-1.3313731
3	0xbf4bb923	-0.7957937
4	0xbf938e67	-1.1527833
5	0xbf83f236	-1.0308292
6	0xbf74b5bf	-0.9558982
7	0xbf553563	-0.83284587
8	0xbf9dd1ef	-1.2329692
9	0xbf84e64b	-1.038278
10	0xbf7622e7	-0.96147007
11	0xbfd546cd	-1.6662232
12	0xbf91ae08	-1.1381235
13	0xbf3b72fb	-0.7322232
14	0xbf63c247	-0.8896832
15	0xbf6b7913	-0.9198162

sparse_resnet_denoiser/level_0/batch_normalization_1/FusedBatchNormV31 f4 [16]
0	0x3fc63a2c	1.5486503
1	0x40ce29a1	6.4425817
2	0x400339c2	2.0504003
3	0x3fa8fd45	1.3202292
4	0x412d2e22	10.823763
5	0x4007105d	2.1103737
6	0x404a0df3	3.1571014
7	0x3fd4d046	1.662606
8	0x40921e13	4.566171
9	0x4061a929	3.5259497
10	0x40b6d9a2	5.7140665
11	0x408071f3	4.01391
12	0x40a7922b	5.236593
13	0x4018631a	2.3810487
14	0x405ea212	3.478642
15	0x3f79117e	0.97292316

sparse_resnet_denoiser/level_0/batch_normalization_2/FusedBatchNormV3 f4 [16]
0	0xbf952c82	-1.1654208
1	0xbfbe70bc	-1.4878154
2	0xc0124c32	-2.2859006
3	0xbf4fe67d	-0.8121107
4	0xbf70c943	-0.940571
5	0xbf65009b	-0.8945405
6	0xbfcf1797	-1.6179074
7	0xbf49e5a0	-0.78866005
8	0xbf9bf727	-1.21848
9	0xbfa29326	-1.2701156
10	0xbfb11570	-1.3834667
11	0xbffe25a2	-1.9855235
12	0xbf50bb30	-0.81535625
13	0xbf8f716c	-1.1206489
14	0xbfbace0d	-1.4594132
15	0xbf46a5e9	-0.7759691

sparse_resnet_denoiser/level_0/batch_normalization_2/FusedBatchNormV31 f4 [16]
0	0x3ff87631	1.9411069
1	0x408060e1	4.011826
2	0x400cca65	2.1998532
3	0x3f8dc440	1.1075516
4	0x404f2517	3.2366388
5	0x3f9005a1	1.1251718
6	0x40548975	3.3208897
7	0x3fc985e0	1.574398
8	0x4068b29d	3.6359017
9	0x403afcf9	2.9216902
10	0x40648483	3.5705879
11	0x4017bc9b	2.3708866
12	0x40286b07	2.6315324
13	0x4001c88f	2.0278661
14	0x3fee5956	1.8621013
15	0x3f41764f	0.7557115

sparse_resnet_denoiser/level_0/batch_normalization_3/FusedBatchNormV3 f4 [16]
0	0xbf8991e8	-1.0747652
1	0xbf8d7379	-1.1050864
2	0xbfee94cd	-1.863916
3	0xbf9af6e0	-1.210659
4	0xbf5ebc35	-0.8700593
5	0xbfa129e8	-1.2590914
6	0xbfd4e762	-1.6633112
7	0xbeb753b4	-0.35806048
8	0xbf8f2ff9	-1.1186515
9	0xbfc98d0c	-1.5746169
10	0xbfc5376d	-1.540754
11	0xbf9d342a	-1.2281544
12	0xbf8407fc	-1.0314937
13	0xbf890fca	-1.0707943
14	0xc0023eae	-2.0350757
15	0xbf81fa9f	-1.0154608

sparse_resnet_denoiser/level_0/batch_normalization_3/FusedBatchNormV31 f4 [16]
0	0x3fbf2e0e	1.493593
1	0x3ffc84be	1.972801
2	0x3fafe73e	1.3742445
3	0x3fa7a867	1.3098267
4	0x3fc964fa	1.5733941
5	0x3fb7fe7f	1.4374541
6	0x40254df2	2.5828824
7	0x3f36fcc3	0.71479434
8	0x3fceff22	1.617161
9	0x4014f37b	2.3273609
10	0x3fce60c7	1.6123284
11	0x3fa76ed6	1.30807
12	0x4004b297	2.0734003
13	0x3faa3a73	1.3299087
14	0x3faf8e10	1.3715229
15	0x3f6dcc34	0.92889714

sparse_resnet_denoiser/level_0/batch_normalization_4/FusedBatchNormV3 f4 [16]
0	0xbf8d66a3	-1.1046947
1	0xbc9f5984	-0.019451864
2	0xbf9e637f	-1.2374114
3	0xbf8fccdb	-1.1234392
4	0xbc268f0d	-0.010165942
5	0xbfbbf85a	-1.4685166
6	0xbf221a1c	-0.6332109
7	0xbc0aab15	-0.008463641
8	0xbf79ff7b	-0.9765546
9	0x3aba965d	0.0014235486
10	0xbfb78b20	-1.4339333
11	0xbfddb6be	-1.7321393
12	0x3ba0cbeb	0.0049071214
13	0xbf7d5817	-0.9896254
14	0xc007fea0	-2.124916
15	0xbf96a64f	-1.1769503

sparse_resnet_denoiser/level_0/batch_normalization_4/FusedBatchNormV31 f4 [16]
0	0x3f8b6fe1	1.0893518
1	0x3ceee679	0.029162632
2	0x3f3e72e8	0.74394083
3	0x3f358fcf	0.7092256
4	0x3c9699b6	0.018383842
5	0x3fbf8506	1.496247
6	0x3f7bb893	0.9832851
7	0x3c8a6952	0.016895924
8	0x3fb3b1d3	1.4038643
9	0xbb09e483	-0.0021040745
10	0x3faefb46	1.3670433
11	0x3fc581b6	1.543021
12	0xbc1b1935	-0.009466459
13	0x3f80884d	1.0041596
14	0x3fb6fcf9	1.4295951
15	0x3f81986e	1.0124643

sparse_resnet_denoiser/level_0/batch_normalization_5/FusedBatchNormV3 f4 [16]
0	0xbf379504	-0.71711755
1	0xbfc2090d	-1.5159012
2	0xbf5c38a7	-0.86023945
3	0xbee985ae	-0.45609802
4	0x3b3a6bf0	0.0028445683
5	0xbf5a958e	-0.8538445
6	0xb85913aa	-5.1755145e-05
7	0x3b54ab90	0.0032450892
8	0xbdede80d	-0.11616526
9	0xba80f8b0	-0.000983974
10	0xbe90d360	-0.28286266
11	0xbf1a44e3	-0.6026136
12	0xbeac64e9	-0.33670738
13	0xbf634524	-0.88777375
14	0x3e3124e2	0.17299226
15	0xbf2dd54b	-0.67903584

sparse_resnet_denoiser/level_0/batch_normalization_5/FusedBatchNormV31 f4 [16]
0	0x3f250b55	0.64470416
1	0x3fd8797a	1.6912072
2	0x3f030d72	0.5119239
3	0x3e250deb	0.1611859
4	0xbba88f67	-0.005144048
5	0x3f594263	0.84866923
6	0x38a88b63	8.036827e-05
7	0xbbd446b4	-0.006478155
8	0x3e2adad5	0.1668504
9	0x3abea048	0.0014543617
10	0x3e8948e3	0.2681342
11	0x3e8cba68	0.27485967
12	0x3f205a6d	0.6263798
13	0x3f5750eb	0.84107846
14	0xbdee5b64	-0.11638525
15	0x3f025535	0.50911266

sparse_resnet_denoiser/level_1/batch_normalization_10/FusedBatchNormV3 f4 [16]
0	0xbced4afc	-0.02896642
1	0x3b898951	0.0041972776
2	0xba9196b2	-0.0011107533
3	0xc082bf33	-4.0858397
4	0xbf99d540	-1.2018204
5	0x3bca30c5	0.0061703646
6	0xbfb0028b	-1.3750776
7	0x3ac26539	0.0014831192
8	0xb89d6e9a	-7.5069445e-05
9	0xc05b5de8	-3.4276066
10	0xc059113d	-3.3916771
11	0xbf656b31	-0.89616686
12	0xbf2e2786	-0.6802906
13	0xc007963f	-2.1185453
14	0x3a353bfd	0.0006913541
15	0xbbc4ace3	-0.006002055

sparse_resnet_denoiser/level_1/batch_normalization_10/FusedBatchNormV31 f4 [16]
0	0x3e3e99ae	0.18613312
1	0xbbcc6879	-0.00623804
2	0x3ae97b9f	0.0017813331
3	0x405d942c	3.4621687
4	0x40028ebf	2.0399625
5	0xbd782635	-0.060583312
6	0x40180f3d	2.37593
7	0xbb6344c3	-0.0034678436
8	0x390841cf	0.00012994486
9	0x40ae41a1	5.4455113
10	0x417e9b38	15.912895
11	0x3ec8e033	0.3923355
12	0x4024e528	2.5764866
13	0x40de811d	6.953261
14	0xbb0ed407	-0.0021793859
15	0x3cc78971	0.02435753

sparse_resnet_denoiser/level_1/batch_normalization_11/FusedBatchNormV3 f4 [16]
0	0xb98de03a	-0.00027060678
1	0xbf00736a	-0.5017611
2	0xbed839ca	-0.4223159
3	0x38887cc6	6.508226e-05
4	0xbf068f5b	-0.52562493
5	0xbf2e92fd	-0.68193036
6	0xbf3ca733	-0.73692626
7	0xbf24232f	-0.64116186
8	0x38813fd6	6.16309e-05
9	0xbf8c827a	-1.0977318
10	0xbe508087	-0.2036153
11	0x370ab71b	8.2680735e-06
12	0xbe57edf5	-0.21086867
13	0xbf23a307	-0.63920635
14	0xbf2f3fda	-0.68456805
15	0xbf4f037f	-0.8086471

sparse_resnet_denoiser/level_1/batch_normalization_11/FusedBatchNormV31 f4 [16]
0	0x3ae3ead9	0.0017388716
1	0x3e2c7eb1	0.16845204
2	0x3f278f98	0.6545348
3	0xb8674eaf	-5.514797e-05
4	0x3f57a6d3	0.8423893
5	0x3f2256bd	0.634136
6	0x3f7b6c19	0.9821182
7	0x3f80b1bb	1.0054239
8	0xb8dfbae4	-0.0001066828
9	0x3fc9ac73	1.5755752
10	0x3f748f4f	0.9553117
11	0xb672ea0b	-3.619704e-06
12	0x3f427cfc	0.7597196
13	0x3fe9e688	1.8273478
14	0x3ecab410	0.39590502
15	0x401ff2f1	2.499203

sparse_resnet_denoiser/level_1/batch_normalization_6/FusedBatchNormV3 f4 [16]
0	0xbf20caec	-0.62809634
1	0xbf1c7375	-0.61113673
2	0xbf58fa2b	-0.84756726
3	0xbf4d7516	-0.80256784
4	0xbf11113f	-0.5666694
5	0xbf90b6d0	-1.130579
6	0xbf9f4ce9	-1.2445346
7	0xbedb88be	-0.42877764
8	0xbf8bae98	-1.0912657
9	0xbf5776e2	-0.84165776
10	0xbf120dee	-0.57052505
11	0xbf4ad6d1	-0.79234034
12	0xbf28ac65	-0.65888053
13	0xbf8a1578	-1.0787802
14	0xbf0c2cc9	-0.54755837
15	0xbf1cd317	-0.612596

sparse_resnet_denoiser/level_1/batch_normalization_6/FusedBatchNormV31 f4 [16]
0	0x40b0debd	5.5271897
1	0x426b4078	58.812958
2	0x419cfd45	19.623667
3	0x429aa925	77.33036
4	0x423b9b96	46.90194
5	0x427af3bf	62.738033
6	0x41fe8c33	31.818457
7	0x41944e78	18.538315
8	0x41bc1e99	23.51494
9	0x42ba989a	93.29805
10	0x4187a651	16.95621
11	0x421ce55b	39.22398
12	0x42175a51	37.8382
13	0x41b06240	22.047974
14	0x41104967	9.0179205
15	0x41a6ffaf	20.874846

sparse_resnet_denoiser/level_1/batch_normalization_7/FusedBatchNormV3 f4 [16]
0	0xbf34cde9	-0.70626694
1	0xbe9eeed6	-0.31041592
2	0xbf93169b	-1.1491274
3	0xbe9f1015	-0.31066957
4	0xbf3736ad	-0.71567804
5	0x3b73f0c1	0.0037222358
6	0xbf452005	-0.7700198
7	0xbf8e4f78	-1.1118002
8	0xbfbd3c71	-1.478407
9	0xbf3fbce9	-0.7489763
10	0xbec28c18	-0.37997508
11	0xbf4e54c6	-0.80598104
12	0xbf925fd4	-1.1435494
13	0x3ca2e8bc	0.019886367
14	0xbe2e51d9	-0.1702341
15	0xbf27a39c	-0.65484023

sparse_resnet_denoiser/level_1/batch_normalization_7/FusedBatchNormV31 f4 [16]
0	0x40b3eb52	5.6224756
1	0x41252c5c	10.32333
2	0x40b3f8ef	5.6241374
3	0x3f4cb1a3	0.7995855
4	0x40bc296c	5.8800564
5	0xbe24d57d	-0.16097064
6	0x4020dc1e	2.513435
7	0x4119721e	9.590361
8	0x410c8949	8.783517
9	0x414e789f	12.9044485
10	0x40ae91b2	5.455285
11	0x40f79c5a	7.737836
12	0x40fceb40	7.903717
13	0xbe5bbf10	-0.21459603
14	0x40076c15	2.1159718
15	0x4098754a	4.7643175

sparse_resnet_denoiser/level_1/batch_normalization_8/FusedBatchNormV3 f4 [16]
0	0x3b09ebf1	0.0021045173
1	0xbf2e6894	-0.68128324
2	0xbf76e4e3	-0.96443003
3	0xbfb2de31	-1.3974057
4	0xbf900993	-1.1252922
5	0xbc36be84	-0.011153821
6	0xbf7e9f9b	-0.9946229
7	0xbf997d75	-1.1991411
8	0xbf8dd954	-1.1081948
9	0xbbd31a0c	-0.006442314
10	0xbb7a3a32	-0.003818166
11	0xc007e807	-2.1235368
12	0xc002e458	-2.045187
13	0xc03e5809	-2.9741232
14	0xc01855aa	-2.3802285
15	0x39c5753f	0.00037662123

sparse_resnet_denoiser/level_1/batch_normalization_8/FusedBatchNormV31 f4 [16]
0	0xbc718777	-0.01474177
1	0x405f9d18	3.4939632
2	0x3fdb474f	1.7131137
3	0x3fdfc90e	1.7483232
4	0x40a88a65	5.266894
5	0x3ecc0eb7	0.39854977
6	0x400a88e6	2.1646056
7	0x40a4b947	5.147617
8	0x3ff58a35	1.9182802
9	0x3d193cb8	0.03741142
10	0x3d02b8e8	0.03191462
11	0x411a2b7a	9.635614
12	0x41307e6f	11.030868
13	0x41c77c47	24.935682
14	0x418c40de	17.531673
15	0xbaf29a35	-0.0018509092

sparse_resnet_denoiser/level_1/batch_normalization_9/FusedBatchNormV3 f4 [16]
0	0xbfb9546c	-1.4478889
1	0x3b9b7da0	0.0047452003
2	0xbf7e0aec	-0.99235415
3	0xc02c010e	-2.6875644
4	0xbaf8c8b6	-0.0018980715
5	0x3b7631ff	0.003756642
6	0x3a11dc23	0.0005564114
7	0xbfbe9c34	-1.489142
8	0x38569efd	5.1169645e-05
9	0xbfc5fa8a	-1.5467083
10	0xbb4a5113	-0.0030871078
11	0xbf9130a9	-1.1342975
12	0xc02c737e	-2.694549
13	0xc011c1be	-2.27745
14	0xbfa526a1	-1.2902414
15	0xba89a0cd	-0.0010500193

sparse_resnet_denoiser/level_1/batch_normalization_9/FusedBatchNormV31 f4 [16]
0	0x4114dcb0	9.303879
1	0xbbf5c75a	-0.007500571
2	0x3fd36810	1.6516132
3	0x4011bfc2	2.277329
4	0x3b873f6e	0.0041274345
5	0xbddc8aa5	-0.10768632
6	0xba87e207	-0.0010367044
7	0x409fda6d	4.9954133
8	0xb8b9c108	-8.857442e-05
9	0x4087a51b	4.2389045
10	0x3cc801c3	0.024414903
11	0x3fb44325	1.4082991
12	0x413c9c8a	11.788218
13	0x4136afbb	11.417903
14	0x4093b01c	4.6152477
15	0x3b942b19	0.004521739

sparse_resnet_denoiser/level_2/batch_normalization_12/FusedBatchNormV3 f4 [16]
0	0xbfb57ccb	-1.4178709
1	0xc01478a9	-2.3198645
2	0xbf1faf1a	-0.6237656
3	0xc0358b27	-2.8366182
4	0xbf25f325	-0.64824134
5	0xbedefbb1	-0.435514
6	0xbf1d6850	-0.61487293
7	0xbedbd5ca	-0.42936546
8	0xc01f767b	-2.4916065
9	0xbfa6ab2a	-1.3020985
10	0xbf0b81c1	-0.54494864
11	0xbfb42779	-1.4074546
12	0xbf335454	-0.7005055
13	0xbf84a3f3	-1.0362533
14	0xc0212ad7	-2.5182397
15	0xbf7c2e3b	-0.9850804

sparse_resnet_denoiser/level_2/batch_normalization_12/FusedBatchNormV31 f4 [16]
0	0x427bb3fc	62.925766
1	0x42c39d73	97.80752
2	0x4239e5ea	46.474525
3	0x40678708	3.6176167
4	0x40e12a19	7.036389
5	0x412dbf03	10.859134
6	0x4285d811	66.922005
7	0x416a1ad0	14.631546
8	0x416d3d82	14.827517
9	0x414a3d7d	12.640012
10	0x423b0c16	46.761803
11	0x423cb598	47.177338
12	0x41264b2a	10.393351
13	0x4149d743	12.615054
14	0x409f3976	4.9757643
15	0x41c6f851	24.871248

sparse_resnet_denoiser/level_2/batch_normalization_13/FusedBatchNormV3 f4 [16]
0	0xbf3275ae	-0.69710815
1	0xc038b09e	-2.8857799
2	0xbf650575	-0.8946145
3	0xc0c76318	-6.2308464
4	0xbf6f4a6b	-0.9347293
5	0xbf799a04	-0.97500634
6	0xbfe60e5f	-1.7973136
7	0xbf4c1e12	-0.79733384
8	0x3a855e87	0.0010175266
9	0xc01f4b34	-2.488965
10	0xbecaefd1	-0.3963609
11	0xbf80228c	-1.0010543
12	0xc0161ccf	-2.3455083
13	0xbf9d1323	-1.2271465
14	0xc039d64a	-2.9037042
15	0xba7e6515	-0.00097043935

sparse_resnet_denoiser/level_2/batch_normalization_13/FusedBatchNormV31 f4 [16]
0	0x408bf72a	4.3739214
1	0x42aae393	85.44448
2	0x40daabaa	6.833455
3	0x40b93dbc	5.788786
4	0x40bc2773	5.8798156
5	0x4181d583	16.229254
6	0x41c297fd	24.324213
7	0x408f7b52	4.4838037
8	0xbba6b20b	-0.0050871423
9	0x41983dfa	19.030262
10	0x40eee103	7.4649673
11	0x41a85ac5	21.044321
12	0x411cf717	9.810325
13	0x40da087c	6.8135357
14	0x40a44e1b	5.1345344
15	0x3c72100b	0.014774333

sparse_resnet_denoiser/level_2/batch_normalization_14/FusedBatchNormV3 f4 [16]
0	0xbf768ac9	-0.9630552
1	0xbf81d348	-1.0142603
2	0xbf40ae63	-0.75266093
3	0xc12a4d16	-10.64382
4	0xbf8d4fb3	-1.1039947
5	0xc04b1da2	-3.1736836
6	0xc0426989	-3.0376914
7	0xbfa1669c	-1.2609439
8	0xc00d34e8	-2.2063541
9	0xc0505757	-3.2553308
10	0xbf4f23f4	-0.80914235
11	0xc0350f3f	-2.8290555
12	0x3b5ef664	0.0034021372
13	0xbfe154db	-1.7604021
14	0xc066402b	-3.5976665
15	0xba6a21f4	-0.0008931451

sparse_resnet_denoiser/level_2/batch_normalization_14/FusedBatchNormV31 f4 [16]
0	0x401c9cf3	2.4470794
1	0x40b45b66	5.636157
2	0x408a5208	4.3225136
3	0x410c7614	8.778828
4	0x4057eda8	3.3738804
5	0x418a13e8	17.25972
6	0x40ca9da1	6.331742
7	0x40a2cc04	5.0874043
8	0x40d1efdf	6.560531
9	0x4146ae60	12.417572
10	0x4099c72a	4.805562
11	0x41d8c273	27.094946
12	0xbc1574aa	-0.009122053
13	0x40db663e	6.8562307
14	0x406f7309	3.7413962
15	0x3c2daf4e	0.010600878

sparse_resnet_denoiser/level_2/batch_normalization_15/FusedBatchNormV3 f4 [16]
0	0xbf5b0538	-0.8555484
1	0xbeb9e80e	-0.36309856
2	0xbba2ac43	-0.004964383
3	0xc05ca7c5	-3.4477398
4	0xbf91129b	-1.1333803
5	0x3bbc4aee	0.005746237
6	0xc028beb7	-2.6366403
7	0xba85afb4	-0.0010199458
8	0xc015c84b	-2.34035
9	0xbfd9bbd9	-1.7010452
10	0xbf124f6b	-0.5715243
11	0xc000b70d	-2.0111725
12	0xc0094d0f	-2.1453283
13	0xbf549bb4	-0.83050084
14	0xbfdfb54b	-1.7477201
15	0xbf1dd0ff	-0.6164703

sparse_resnet_denoiser/level_2/batch_normalization_15/FusedBatchNormV31 f4 [16]
0	0x3ffa6cae	1.9564416
1	0x3fe63bfa	1.7987053
2	0x3c7c15b0	0.01538603
3	0x400562c8	2.0841541
4	0x3faed107	1.365754
5	0xbc8216c4	-0.015879996
6	0x402552ad	2.5831711
7	0x3b29c1bf	0.0025902835
8	0x40b6eb48	5.716221
9	0x4089039f	4.281692
10	0x3fff870f	1.9963092
11	0x40cc218d	6.3790956
12	0x405b74da	3.429007
13	0x403d2e01	2.9559329
14	0x3fc7620a	1.5576794
15	0x3f10bb66	0.5653595

sparse_resnet_denoiser/level_2/batch_normalization_16/FusedBatchNormV3 f4 [16]
0	0x3b081599	0.0020764826
1	0xbf67a89c	-0.9049165
2	0xbb3ada65	-0.002851152
3	0xbfae8798	-1.363513
4	0x3b4ab4a3	0.0030930422
5	0xbfb5b2c7	-1.4195184
6	0xbfeb138b	-1.8365339
7	0xbb0f6ff9	-0.002188681
8	0xc01bf799	-2.4369872
9	0xc062e04d	-3.5449402
10	0xc0124db0	-2.2859917
11	0xbfec4ffc	-1.8461909
12	0xb7da6997	-2.6036794e-05
13	0xba9a84f6	-0.0011788893
14	0xc05e9c01	-3.4782717
15	0xbf89e81a	-1.0773957

sparse_resnet_denoiser/level_2/batch_normalization_16/FusedBatchNormV31 f4 [16]
0	0xbb850754	-0.0040597115
1	0x404cc2e7	3.199396
2	0x3bc3f934	0.005980635
3	0x3f28b6f3	0.6590416
4	0xbb4fad6f	-0.0031689068
5	0x40085417	2.1301324
6	0x3fb01474	1.3756242
7	0x3ba8c07d	0.0051498995
8	0x409ff87d	4.999083
9	0x40bba406	5.8637724
10	0x409cb196	4.896678
11	0x404d62be	3.2091517
12	0x381043ec	3.4395533e-05
13	0x3aedb9ce	0.0018137039
14	0x403f15f3	2.9857147
15	0x3f32e4db	0.69880456

sparse_resnet_denoiser/level_2/batch_normalization_17/FusedBatchNormV3 f4 [16]
0	0xbf049eb8	-0.51804686
1	0xbef83add	-0.4848241
2	0xbf4ce817	-0.8004164
3	0xbfb80547	-1.437661
4	0xbf3c363f	-0.7352027
5	0xbf318b6a	-0.69353354
6	0xbee51ec2	-0.4475003
7	0xbfd6e342	-1.6788104
8	0x3e46aebe	0.19402596
9	0xbf107a53	-0.5643665
10	0xbf3908c8	-0.72279024
11	0x3e797c4f	0.24363826
12	0xbf1990cc	-0.5998657
13	0xbf0c8a79	-0.5489879
14	0xbf894f0d	-1.0727249
15	0xbf137e42	-0.5761453

sparse_resnet_denoiser/level_2/batch_normalization_17/FusedBatchNormV31 f4 [16]
0	0x3f3d5308	0.7395482
1	0x3f4fc922	0.8116628
2	0x3fc58558	1.5431318
3	0x3f22a8f6	0.63539064
4	0x3f2c92b5	0.6741136
5	0x3f6ec7fb	0.93273896
6	0x3ea7b0cf	0.32752082
7	0x3fd53c66	1.6659057
8	0xbecbc854	-0.39801276
9	0x3f259e0d	0.6469429
10	0x3f87c7d7	1.0607861
11	0xbec16333	-0.37770995
12	0x3ed61e1b	0.41819844
13	0x3ef5366d	0.47893086
14	0x3f52836b	0.8223178
15	0x3e9de542	0.30838972

sparse_resnet_denoiser/level_3/batch_normalization_18/FusedBatchNormV3 f4 [16]
0	0xbf21139f	-0.62920564
1	0xbf51fb5d	-0.82024175
2	0xbfae334d	-1.3609406
3	0xbf1589ab	-0.5841319
4	0xbfe591fe	-1.7935178
5	0xbed97f10	-0.42479753
6	0xbf11073e	-0.56651676
7	0xbef01a6c	-0.46895158
8	0xbef48e49	-0.47764805
9	0xc0049dab	-2.0721233
10	0xbf0155b7	-0.50521415
11	0xbf1455a4	-0.5794318
12	0xbf233fe4	-0.63769364
13	0xbe78c51c	-0.24293941
14	0xc02f54b6	-2.7395453
15	0xbedc1076	-0.4298131

sparse_resnet_denoiser/level_3/batch_normalization_18/FusedBatchNormV31 f4 [16]
0	0x3ffbb0ac	1.9663291
1	0x405da060	3.4629135
2	0x40045dd0	2.0682259
3	0x40850368	4.156666
4	0x40aceb6d	5.4037385
5	0x412acca6	10.674963
6	0x3f81ae22	1.0131266
7	0x3fc216c8	1.5163202
8	0x41282465	10.508885
9	0x41468328	12.407021
10	0x402c93f5	2.6965306
11	0x419599e1	18.700136
12	0x42947152	74.22133
13	0x4101471c	8.079861
14	0x40adf52f	5.4361796
15	0x3f63f2f9	0.8904262

sparse_resnet_denoiser/level_3/batch_normalization_19/FusedBatchNormV3 f4 [16]
0	0xbee0795b	-0.43842587
1	0xbfd696d7	-1.6764783
2	0xc0ae8c4c	-5.454626
3	0xbef9694d	-0.4871315
4	0xbf386f55	-0.7204488
5	0xbf923b32	-1.1424315
6	0xbf1de0dc	-0.61671233
7	0xbf0a77df	-0.5408916
8	0xbf9e80aa	-1.2383015
9	0xbfad0c66	-1.3519409
10	0xbf83f04c	-1.0307708
11	0xbf1c22cb	-0.6099059
12	0xbf1deac6	-0.6168636
13	0xbfb0d122	-1.3813822
14	0xc05b7256	-3.4288535
15	0xbf509aae	-0.8148602

sparse_resnet_denoiser/level_3/batch_normalization_19/FusedBatchNormV31 f4 [16]
0	0x3f721c1f	0.9457416
1	0x4018c7cd	2.3871949
2	0x40b69410	5.705574
3	0x400a6e15	2.1629689
4	0x3ea1709b	0.31531224
5	0x40959666	4.674609
6	0x3f1aec49	0.6051679
7	0x3f958baf	1.1683253
8	0x40d355bb	6.604215
9	0x405f5607	3.4896257
10	0x4008e887	2.1391923
11	0x402de908	2.717348
12	0x402f0e07	2.7352312
13	0x3f87cad4	1.0608773
14	0x4062333f	3.5343778
15	0x3fbe0afa	1.48471

sparse_resnet_denoiser/level_3/batch_normalization_20/FusedBatchNormV3 f4 [16]
0	0xbf755cc0	-0.9584465
1	0xbf8c4d66	-1.096112
2	0xbf4892b5	-0.7834886
3	0xbec30deb	-0.38096556
4	0xbf3c341c	-0.7351701
5	0xbf538e67	-0.82639164
6	0xbe7035d2	-0.23458031
7	0xbf516ec1	-0.8180962
8	0xbeac5616	-0.33659428
9	0xbfc62451	-1.5479833
10	0xbf930b72	-1.1487868
11	0xbef0125b	-0.46889004
12	0xbf36dc1e	-0.7142962
13	0xbed68bfb	-0.41903672
14	0xbf8ea8b0	-1.1145229
15	0xbf1adcdb	-0.6049325

sparse_resnet_denoiser/level_3/batch_normalization_20/FusedBatchNormV31 f4 [16]
0	0x3f986e1e	1.1908605
1	0x3fabef42	1.3432391
2	0x3f217501	0.6306916
3	0x3f0b5f2d	0.544421
4	0x3e644b22	0.22294286
5	0x3f493eae	0.78611267
6	0x3e222f96	0.15838465
7	0x3fbdbfcc	1.4824157
8	0x3f264b3c	0.6495855
9	0x405082bc	3.2579794
10	0x3fd8e111	1.6943685
11	0x3fb590bb	1.4184793
12	0x3fa7373f	1.3063735
13	0x3e90f01a	0.28308183
14	0x3f7c848b	0.98639745
15	0x3f73009c	0.94922805

sparse_resnet_denoiser/level_3/batch_normalization_21/FusedBatchNormV3 f4 [16]
0	0xbf4426a5	-0.76621467
1	0xbf7ad81c	-0.97986007
2	0xbf6023b3	-0.8755447
3	0xbf3976c9	-0.72446877
4	0xbf301413	-0.6878063
5	0xbf33b14b	-0.701924
6	0xbf2e7dcf	-0.6816072
7	0xbf2bbccc	-0.67084956
8	0xbf11b9e6	-0.56924284
9	0xbfb039b4	-1.376761
10	0xbf30a793	-0.690057
11	0xbf51bf71	-0.8193274
12	0xbfc99a96	-1.5750301
13	0xbece9ab1	-0.40352395
14	0xc06295ff	-3.540405
15	0xbf811147	-1.0083398

sparse_resnet_denoiser/level_3/batch_normalization_21/FusedBatchNormV31 f4 [16]
0	0x3f5fa06e	0.8735417
1	0x3f1750ad	0.59107476
2	0x3efcef19	0.49401167
3	0x3ef02ed6	0.46910733
4	0x3e226593	0.1585906
5	0x3ed3d009	0.41369656
6	0x3ee6fc65	0.45114437
7	0x3f151d22	0.5824758
8	0x3ebcfe6f	0.36912867
9	0x402a1643	2.6576087
10	0x3f097b0a	0.5370337
11	0x3f4054d5	0.75129443
12	0x40109969	2.2593634
13	0x3e45a5ee	0.19301578
14	0x4035252a	2.8303933
15	0x3fa20e30	1.266058

sparse_resnet_denoiser/level_3/batch_normalization_22/FusedBatchNormV3 f4 [16]
0	0xbf35fbc2	-0.71087277
1	0xbf3e17d0	-0.74255085
2	0xbfa627ae	-1.2980859
3	0xbf55a082	-0.8344804
4	0xbf0abbbc	-0.5419271
5	0xbf339d11	-0.7016154
6	0xbf1c2683	-0.60996264
7	0xbf14baf7	-0.58097786
8	0xbf19b3fc	-0.6004026
9	0xbf4c4267	-0.7978882
10	0xbf4155fe	-0.7552184
11	0xbf5d293f	-0.8639106
12	0xbf772770	-0.9654455
13	0xbf1b3977	-0.6063456
14	0xc0a12b4d	-5.0365357
15	0xbf3274fd	-0.6970976

sparse_resnet_denoiser/level_3/batch_normalization_22/FusedBatchNormV31 f4 [16]
0	0x3f0eed29	0.5583063
1	0x3ebf15ff	0.3732147
2	0x3f2c4d56	0.67305505
3	0x3ec3fab7	0.38277218
4	0x3de91089	0.11380107
5	0x3eaba02e	0.33520645
6	0x3e9f0395	0.3105742
7	0x3e9615c7	0.2931349
8	0x3eb53cc6	0.3539793
9	0x3f89d307	1.0767525
10	0x3eb4dc85	0.35324493
11	0x3ee215a7	0.44157144
12	0x3f86a17f	1.0518035
13	0x3e67de0a	0.22643295
14	0x405ccac2	3.4498754
15	0x3f1a17fb	0.6019284

sparse_resnet_denoiser/level_3/batch_normalization_23/FusedBatchNormV3 f4 [16]
0	0xbf152bb2	-0.582698
1	0xbf1a1125	-0.6018241
2	0xbf54ad04	-0.830765
3	0xbf50242f	-0.8130521
4	0xbf17e155	-0.59328204
5	0xbed4c1ac	-0.4155401
6	0xbf051a27	-0.5199303
7	0x389ed457	7.5735785e-05
8	0xbf00d73e	-0.50328434
9	0xbea684f7	-0.3252332
10	0xbefc4a80	-0.4927559
11	0xbe4f9372	-0.2027109
12	0xbe388023	-0.1801763
13	0xbf170e00	-0.5900574
14	0xbfabb56d	-1.3414742
15	0x3888b908	6.51945e-05

sparse_resnet_denoiser/level_3/batch_normalization_23/FusedBatchNormV31 f4 [16]
0	0x3e929ec0	0.28636742
1	0x3e89efc9	0.26940754
2	0x3ec75f9c	0.38940132
3	0x3e951b66	0.29122466
4	0x3df80a99	0.12111396
5	0x3e1e1653	0.15438204
6	0x3e7f2703	0.24917226
7	0xb82046b3	-3.8212816e-05
8	0x3e518d08	0.20463955
9	0x3e9782d4	0.29592
10	0x3e3fded0	0.1873734
11	0x3d930b96	0.07179944
12	0x3dd238f8	0.10264772
13	0x3decfa9b	0.11571237
14	0x3f237e72	0.63864815
15	0xb86c1d3c	-5.629401e-05

sparse_resnet_denoiser/model/depthwise_conv2d_2/depthwise f4 [1, 5, 5, 1]
0	0x3b4293d6	0.0029690168
1	0x3c5a024a	0.01330621
2	0x3cb3b7ce	0.02193823
3	0x3c5a024a	0.01330621
4	0x3b4293d6	0.0029690168
5	0x3c5a024a	0.01330621
6	0x3d744317	0.059634294
7	0x3dc95c2b	0.09832033
8	0x3d744317	0.059634294
9	0x3c5a024a	0.01330621
10	0x3cb3b7ce	0.02193823
11	0x3dc95c2b	0.09832033
12	0x3e25fe48	0.16210282
13	0x3dc95c2b	0.09832033
14	0x3cb3b7ce	0.02193823
15	0x3c5a024a	0.01330621
16	0x3d744317	0.059634294
17	0x3dc95c2b	0.09832033
18	0x3d744317	0.059634294
19	0x3c5a024a	0.01330621
20	0x3b4293d6	0.0029690168
21	0x3c5a024a	0.01330621
22	0x3cb3b7ce	0.02193823
23	0x3c5a024a	0.01330621
24	0x3b4293d6	0.0029690168

sparse_resnet_denoiser/level_0/conv2d/Conv2D f4 [16, 3, 3, 1]
0	0x3e3c6008	0.18396008
1	0xbdb9baef	-0.09068858
2	0x3cab91df	0.02094358
3	0xbed757e5	-0.42059246
4	0xbea1d3ec	-0.31606996
5	0x3e31e48d	0.17372341
6	0x3e0b9b3f	0.1363344
7	0x3e257c55	0.1616071
8	0xbdfc2f95	-0.12313763
9	0x3d03680a	0.03208164
10	0x3b93154c	0.004488623
11	0x3d8b397d	0.067980744
12	0xbee37cb4	-0.44431078
13	0xbf0463ee	-0.5171498
14	0x3e486edf	0.19573544
15	0x3b20bcf9	0.00245267
16	0x3dcaafd7	0.0989682
17	0x3e05f301	0.1308098
18	0x3d87a386	0.066229865
19	0xbd516aef	-0.05112737
20	0x3d013345	0.031543035
21	0xbec53cd5	-0.38522974
22	0x3b671ef8	0.0035266262
23	0x3cb52392	0.022111688
24	0xbc8b9823	-0.017040318
25	0x3e95b45c	0.29239166
26	0xbdc8b167	-0.09799462
27	0xbba155e7	-0.0049235704
28	0xbdddf2a8	-0.10837299
29	0x3e0d09dd	0.13773294
30	0x3c47769d	0.012174276
31	0xbea17247	-0.315325
32	0x3de9ff01	0.11425591
33	0xbe193d30	-0.14964747
34	0xbe923de8	-0.28562856
35	0x3ceed6a2	0.02915508
36	0x3d4cfd55	0.050046284
37	0x3ad3a077	0.0016145845
38	0xbcd4e119	-0.025986241
39	0x3d8c6134	0.068544775
40	0x3e5a4bdb	0.21317999
41	0x3c5e073c	0.0135515295
42	0xbdff8184	-0.12475875
43	0xb94cee32	-0.0001954369
44	0xbc7e447c	-0.015519258
45	0x3d0ea495	0.034824926
46	0x3c2d616e	0.010582311
47	0xbd8b57c1	-0.06803847
48	0xbc13dd45	-0.009024923
49	0xbe4b1ebe	-0.19835946
50	0xbceb570a	-0.028728027
51	0x3db7de96	0.08978002
52	0x3e14cdd0	0.14531636
53	0x3c400e19	0.011722111
54	0x3cda6935	0.026661495
55	0x3de0b2b2	0.109715834
56	0xbbf88e81	-0.007585347
57	0x3f436b1d	0.76335317
58	0x3f626c8c	0.8844688
59	0x3d14ec0d	0.036357928
60	0x3d859030	0.06521642
61	0x3c185353	0.00929721
62	0xba59d6e6	-0.00083099154
63	0xbd6df09f	-0.058090802
64	0xbca326ee	-0.019916024
65	0xbb74a9cb	-0.003733265
66	0xbce301e7	-0.027710868
67	0x3ed56257	0.4167659
68	0xbc4d6939	-0.012537294
69	0xbcace776	-0.021106463
70	0xbd20efbf	-0.03929114
71	0xbc6a73a9	-0.014309802
72	0xbe2386df	-0.15969418
73	0xbb912758	-0.004429739
74	0xbaf23e25	-0.0018481655
75	0xbc0d2bc6	-0.008616393
76	0xbbac3fd4	-0.0052566323
77	0xbb2721fc	-0.0025502434
78	0xbc3992d5	-0.011326511
79	0xbb98e4c5	-0.0046659433
80	0xbb060038	-0.0020446908
81	0x3b0ac6d4	0.002117564
82	0x3b8cf2c2	0.0043014
83	0x3b7b35f8	0.0038331728
84	0x3c9e2c1f	0.019308148
85	0x3c7d04c2	0.015443029
86	0x3c373811	0.011182801
87	0x3d6fb7aa	0.058524765
88	0x3cefb1b5	0.029259542
89	0x3cbafcc4	0.022825606
90	0xbc1bafae	-0.0095023345
91	0x3d62cdba	0.055371977
92	0xbb3d9530	-0.0028928034
93	0x3ca412de	0.020028528
94	0xbf0a28a2	-0.5396825
95	0x3e548c51	0.20756651
96	0x3d8ff9db	0.07030078
97	0x3c760c49	0.015017577
98	0x3db0847e	0.08619021
99	0x3d87d7eb	0.0663298
100	0xbd469ff0	-0.048492372
101	0xbcdb7eef	-0.026793925
102	0xba8b71e8	-0.0010638805
103	0xbec74bac	-0.3892492
104	0xbe97afc2	-0.2962628
105	0x3a7d6179	0.00096657086
106	0xbeacd70c	-0.33757818
107	0xbebffc23	-0.37497053
108	0x3c3547fa	0.011064524
109	0xbd372bd1	-0.04471952
110	0x3d16b89e	0.03679716
111	0x3dc3b6ea	0.095563725
112	0x3eee04d5	0.46488062
113	0xbd86b277	-0.06577008
114	0xbe4f3853	-0.2023633
115	0x3d7c843e	0.061649553
116	0xbdf0fa5d	-0.11766503
117	0xbdaf7fc3	-0.085692905
118	0xbcedac5a	-0.029012848
119	0x3d31d1fe	0.043413155
120	0x3f03e14e	0.5151566
121	0xbdda9e95	-0.10674778
122	0xbddde250	-0.10834181
123	0xbd5f6c48	-0.054546624
124	0xbe6081fa	-0.21924582
125	0x3dd7305a	0.10507269
126	0xbe6d7541	-0.2318926
127	0xbd9fa9f2	-0.07796086
128	0x3d4782d3	0.048708748
129	0x3edd448d	0.43216363
130	0x3e29ce8a	0.16582695
131	0xbd69e585	-0.057103653
132	0x3c82b695	0.015956203
133	0x3cf565c2	0.029955748
134	0xbca77300	-0.020440578
135	0xbc4c0f96	-0.012454888
136	0xbc3b4a2b	-0.011431257
137	0x3c84582d	0.016155327
138	0x3e53a807	0.20669566
139	0xbdfa1e2a	-0.122127846
140	0xbe7e49b8	-0.24832809
141	0x3f1067a4	0.56408143
142	0x3ac70692	0.0015184453
143	0x3d04883e	0.032356493

sparse_resnet_denoiser/level_0/depthwise_conv2d_3/depthwise f4 [1, 3, 3, 32]
0	0x3e0a64ad	0.13514967
1	0x3d27be92	0.040953226
2	0xbd29396f	-0.04131454
3	0xbd576a6b	-0.052591722
4	0x3a79d5c1	0.0009530448
5	0x3ece80d3	0.4033266
6	0x3a59ac2b	0.0008303548
7	0xbe55bd2a	-0.20872942
8	0x3c99619a	0.018723298
9	0x3c3a7c52	0.011382179
10	0x3edd9bc6	0.43282908
11	0xba2d9b87	-0.00066226016
12	0x3c460ffe	0.012088774
13	0x3c460dab	0.01208822
14	0x3da974bf	0.08274221
15	0x3c499c05	0.012305264
16	0x389f1047	7.584743e-05
17	0x389f0f89	7.5846045e-05
18	0x3c21a1e1	0.009865255
19	0x3c21a062	0.009864898
20	0xba1d0bef	-0.0005990853
21	0x3aa48ecb	0.0012554763
22	0x3a52c0be	0.0008039585
23	0xba705edb	-0.0009169408
24	0xbde2c2e1	-0.110723265
25	0x3cb93ab9	0.022611009
26	0xbe6fd5ee	-0.23421451
27	0x3c281862	0.01025972
28	0xbc99d886	-0.018780004
29	0xbd3fdd4e	-0.046841912
30	0xbcd6c27f	-0.02621579
31	0x3c24feca	0.010070512
32	0x3d494df5	0.04914661
33	0xbc2d26d9	-0.010568344
34	0x3d6e56a4	0.058188096
35	0x3be64c20	0.007028118
36	0x3a871da3	0.0010308515
37	0x3d36730e	0.04454332
38	0x3a8f933d	0.0010953915
39	0xbe9332a2	-0.28749567
40	0x3cce5cb1	0.025190683
41	0x3c34c0d9	0.011032307
42	0x3de81b7d	0.11333368
43	0xba240063	-0.0006256161
44	0x3c3f40c6	0.011673158
45	0x3c3f3bc9	0.011671969
46	0x3c7e00db	0.015503134
47	0x3c4111d2	0.011784034
48	0x38902571	6.873429e-05
49	0x3890253a	6.873389e-05
50	0x3c1d4904	0.009599928
51	0x3c1d49a5	0.009600078
52	0xbe3d4591	-0.18483569
53	0x3d1641de	0.03668391
54	0x3aa21745	0.0012366554
55	0xbd13dcb3	-0.036099147
56	0x3e6d3e6f	0.23168348
57	0xbcab0163	-0.020874685
58	0xbe41fc62	-0.18943933
59	0xbd6db919	-0.05803785
60	0x3d806bf6	0.06270592
61	0x3dad21ee	0.08453737
62	0x3ee9273e	0.45537752
63	0x3c17918c	0.00925101
64	0x3d086596	0.033300005
65	0xbd7c6e9f	-0.061628934
66	0xbc918a35	-0.017766098
67	0x3cfa394c	0.0305449
68	0x3a853fcc	0.0010166108
69	0xbdeabb06	-0.11461453
70	0x3a84dc1a	0.0010136396
71	0xbc6cfa74	-0.01446401
72	0x3d274e98	0.040846437
73	0x3c2d79e3	0.010588142
74	0x3daf408d	0.08557234
75	0xba4651f1	-0.0007565311
76	0x3c3929e5	0.011301492
77	0x3c392732	0.011300849
78	0x3ca1d0f5	0.019752959
79	0x3c3873dd	0.011258093
80	0xb8c63855	-9.4518684e-05
81	0xb8c638bd	-9.451944e-05
82	0x3c16aead	0.009196919
83	0x3c16a8b3	0.009195494
84	0xbd8eb52c	-0.069681495
85	0x3ca4125f	0.020028291
86	0x3ab070f2	0.0013461395
87	0x3cf66eb9	0.030082094
88	0xbd868440	-0.065681934
89	0xbd8b5d2e	-0.06804882
90	0x3dd42254	0.1035811
91	0xb9f53ff1	-0.00046777682
92	0xbe763b93	-0.24046163
93	0xbb95fceb	-0.0045772693
94	0xbb2822e1	-0.0025655555
95	0x3c2888e6	0.010286545
96	0xbf39025e	-0.7226924
97	0x3c786cdb	0.015162672
98	0xbf0312a1	-0.512003
99	0x3e9f0890	0.3106122
100	0x3a87c954	0.0010359683
101	0x3d41e70d	0.047339488
102	0x3aa2e47e	0.0012427715
103	0xbec4468b	-0.3833507
104	0xbe8b51c2	-0.27210814
105	0x3c34378a	0.01099957
106	0xbe520cf0	-0.20512748
107	0xba66a853	-0.0008798886
108	0x3c41027f	0.01178038
109	0x3c40ffd8	0.011779748
110	0xbecd99c6	-0.40156382
111	0x3c4176d0	0.011808112
112	0xb8c2ee48	-9.295024e-05
113	0xb8c2edea	-9.294956e-05
114	0x3c2109cc	0.009828996
115	0x3c210918	0.009828828
116	0x3fa09bf2	1.2547591
117	0xbe924e04	-0.28575146
118	0x3a9e075a	0.0012056634
119	0xbd891e31	-0.06695212
120	0xbf0e7caf	-0.55659
121	0x3f035011	0.51294047
122	0xbe283b80	-0.16428947
123	0xbe79bc58	-0.24388254
124	0x3d83e6f8	0.06440538
125	0x3e23a9e0	0.15982771
126	0xbd11081d	-0.035408128
127	0x3c22afda	0.009929622
128	0xbf00312e	-0.5007504
129	0xbe3d1eee	-0.1846883
130	0xbacb442f	-0.0015507991
131	0x3ca77af0	0.020444363
132	0x3a907d96	0.0011023756
133	0xbec86158	-0.39136767
134	0x3abe2cf4	0.0014509247
135	0xbb086e6d	-0.0020817772
136	0xbcbf192f	-0.023327438
137	0x3c2e4cca	0.010638425
138	0xbc40dcd2	-0.011771398
139	0xba511300	-0.00079755485
140	0x3c3b9f31	0.011451528
141	0x3c3b982d	0.011449856
142	0x3e40d627	0.18831693
143	0x3c3afe65	0.011413191
144	0x388f7d57	6.842118e-05
145	0x3889b199	6.565749e-05
146	0x3c1d9630	0.009618327
147	0x3c1d981d	0.009618786
148	0x3d76887e	0.060188763
149	0xbc70cbf2	-0.014697062
150	0x3abd0e66	0.0014423847
151	0xbec6b0b1	-0.3880668
152	0x3d1ba1b5	0.037996013
153	0x3e27e928	0.16397536
154	0x3f3943c9	0.72369057
155	0xbf14d663	-0.5813963
156	0x3edb730b	0.42861208
157	0x3eb82e3d	0.35972777
158	0x3def0810	0.1167146
159	0x3c16dfdf	0.009208648
160	0x3ccd5bef	0.025068251
161	0x3cbd79b3	0.02312932
162	0xbcf3343a	-0.02968799
163	0x3cab5823	0.02091605
164	0x3a92404d	0.0011158079
165	0xbc5b0822	-0.013368638
166	0x3ab87440	0.0014072731
167	0x3bf363fd	0.007427691
168	0xbb49a7d6	-0.0030770204
169	0x3c271fd7	0.010200462
170	0xbd76a18e	-0.060212664
171	0xba7609cd	-0.00093856157
172	0x3c374f61	0.011188359
173	0x3c374e9c	0.0111881755
174	0x3b3121d9	0.0027028231
175	0x3c356ebb	0.0110737635
176	0xb8d82677	-0.00010306847
177	0xb8d82618	-0.00010306778
178	0x3c18873f	0.009309589
179	0x3c188718	0.009309553
180	0xbd2b3843	-0.041801702
181	0x399ec575	0.00030283225
182	0x3ac01aef	0.0014656464
183	0x3b01bfa6	0.001979807
184	0xbd06b8b1	-0.03289098
185	0xbb32f8df	-0.0027308983
186	0xbdba3ac4	-0.0909324
187	0xbc59defe	-0.013297794
188	0xbebca449	-0.3684409
189	0xbd5edb35	-0.05440827
190	0xbe3e4968	-0.1858269
191	0x3c29e402	0.010369303
192	0x3ab90702	0.0014116468
193	0xbdbaaf73	-0.091154955
194	0x3d001d72	0.03127808
195	0xbd3659a7	-0.044519093
196	0x3a8bab85	0.0010655975
197	0xbd1e16d2	-0.038595982
198	0x3ab536b9	0.0013825513
199	0xbc359966	-0.011083936
200	0x3dd968e5	0.1061571
201	0x3c25abd7	0.010111771
202	0x3cd2dde4	0.025740571
203	0xba520248	-0.0008011204
204	0x3c2905c0	0.010316312
205	0x3c2904cb	0.010316084
206	0x3e4e8287	0.2016698
207	0x3c21fbcf	0.009886696
208	0x3881b6b9	6.185234e-05
209	0x3881b6c6	6.1852435e-05
210	0x3c012bda	0.00788399
211	0x3c012b6a	0.007883886
212	0xbe5ed5c7	-0.21761237
213	0x3d2946d8	0.041327327
214	0x3aae2f3b	0.0013289222
215	0xbdb929e1	-0.09041191
216	0x3e867985	0.26264587
217	0x3db8937f	0.09012508
218	0xbc974e92	-0.018470082
219	0x3c65f7c8	0.014036126
220	0xbdc10ba7	-0.09426051
221	0xbd327a70	-0.043573797
222	0xbc6bfe45	-0.014403884
223	0x3c1721d3	0.009224373
224	0x3e5b3d5c	0.21410125
225	0xbe8e71fd	-0.2782134
226	0x3ddf5e6d	0.10906682
227	0xbc501e65	-0.012702559
228	0x3a913ddb	0.0011081056
229	0x3e068407	0.13136302
230	0x3ac4a2cc	0.001500213
231	0xb9c868f8	-0.0003822518
232	0x3ba1e270	0.0049403235
233	0x3c201699	0.009771013
234	0x3b77bda0	0.0037802234
235	0xba38c24f	-0.0007047997
236	0x3c2501f9	0.010071271
237	0x3c24ff43	0.010070625
238	0x3dfa53ea	0.122230366
239	0x3c1e603d	0.0096665
240	0x388796fc	6.465425e-05
241	0x3887976c	6.465506e-05
242	0x3bfe91fe	0.0077688685
243	0x3bfe916d	0.007768801
244	0x3ce88ce2	0.02838749
245	0xbc080f1e	-0.0083043855
246	0x3ac00fb3	0.0014653116
247	0xbe0b6dd0	-0.13616109
248	0xbdd3e5fe	-0.10346602
249	0x3da3df6a	0.08001597
250	0xbe7317d2	-0.23739555
251	0xbdcda90a	-0.10042007
252	0xbdb8edb4	-0.09029713
253	0xbd3ec14d	-0.046571065
254	0x3d0a6af8	0.03379342
255	0x3bfc5e9c	0.007701708

sparse_resnet_denoiser/level_0/conv2d_1/Conv2D f4 [16, 1, 1, 32]
0	0xbe5df62c	-0.21675938
1	0xbca04d3f	-0.019568084
2	0xbdae1a06	-0.08501057
3	0x3e786673	0.24257831
4	0xb88e9717	-6.79923e-05
5	0xbc24ede1	-0.01006648
6	0xb88b3297	-6.6374596e-05
7	0xbec812bd	-0.39076796
8	0x3a1757c8	0.00057732733
9	0xb8843f64	-6.306058e-05
10	0x3d6caff2	0.057784982
11	0xb885bb2c	-6.376798e-05
12	0xb887b428	-6.470858e-05
13	0xb887c416	-6.4738255e-05
14	0xbc45c089	-0.01206983
15	0xb87f2c21	-6.0837836e-05
16	0x3880cf5d	6.14214e-05
17	0x3880cf12	6.1420855e-05
18	0xb889a6d4	-6.563743e-05
19	0xb8888f7d	-6.511712e-05
20	0x3e2c63dc	0.16834968
21	0xbf1e8e1a	-0.6193558
22	0xb87fa913	-6.09542e-05
23	0xbdc7a5d2	-0.097484246
24	0x3cd94b52	0.026525173
25	0x3e24911a	0.16070977
26	0x3d3e5590	0.046468318
27	0xbe8a234f	-0.26980063
28	0x3d8363bf	0.064155094
29	0xbd5de617	-0.05417451
30	0x3d3a2479	0.04544494
31	0x385ac11e	5.2155105e-05
32	0x3d85bd64	0.06530264
33	0xbc8c4111	-0.01712087
34	0xbd282e4a	-0.04105977
35	0x39f2a280	0.0004627891
36	0x387ffdce	6.103311e-05
37	0xbdefe236	-0.11713068
38	0x38803d2a	6.114908e-05
39	0x3e3f67d9	0.18691958
40	0x3af909eb	0.0019000148
41	0x383fa9a3	4.5695935e-05
42	0xbd2922c8	-0.041292936
43	0xb88064b2	-6.1222716e-05
44	0x38a10c26	7.679341e-05
45	0x38a53a7b	7.878706e-05
46	0x3e03ead2	0.12882546
47	0x3902db99	0.00012479573
48	0xb885e4b6	-6.384535e-05
49	0xb885e4b6	-6.384535e-05
50	0xb877ae4c	-5.9051716e-05
51	0xb877296e	-5.8927973e-05
52	0x3dce35a7	0.10068827
53	0x3b94d8c0	0.00454244
54	0xb883f7f6	-6.292753e-05
55	0x3d2accfa	0.041699387
56	0x3cc9dcd0	0.024641424
57	0x3ced6026	0.028976511
58	0xbd0fe5e6	-0.035131358
59	0x3e1c8fe1	0.1528926
60	0xbe05e64b	-0.13076131
61	0xbc9656de	-0.018351968
62	0xbd2ddb42	-0.04244543
63	0x385779f8	5.1373587e-05
64	0xbe348348	-0.17628205
65	0xbb7f5be8	-0.0038964693
66	0x3c75b5ce	0.014996959
67	0xbb7ca9aa	-0.0038553276
68	0xb8863689	-6.399776e-05
69	0xbdb6232b	-0.088934265
70	0xb8898c4d	-6.558802e-05
71	0x3c2301b5	0.009949137
72	0xba3a33f9	-0.00071030814
73	0xb88edd51	-6.812311e-05
74	0xbe31f6aa	-0.17379251
75	0xb884fb32	-6.341039e-05
76	0xb88fe5ac	-6.861551e-05
77	0xb8900e9d	-6.869177e-05
78	0xbca70da5	-0.020392248
79	0xb887c03c	-6.473108e-05
80	0xb886246b	-6.396401e-05
81	0xb88624df	-6.396486e-05
82	0xb8861f58	-6.395456e-05
83	0xb8861e56	-6.3952684e-05
84	0x3ddccfaa	0.10781796
85	0xbd25714c	-0.04039125
86	0xb891316f	-6.9233465e-05
87	0x3d0503c0	0.03247428
88	0xbcc793bf	-0.024362443
89	0xbf169906	-0.58827245
90	0xbe000c9d	-0.12504812
91	0x3e4fc526	0.2029005
92	0x3e3f37cb	0.18673627
93	0x39c35964	0.000372599
94	0x3a62c255	0.00086501735
95	0x38947860	7.0796115e-05
96	0x3d8ba0ec	0.06817803
97	0x3d9532ed	0.07285104
98	0x3b7b7bb6	0.0038373298
99	0xb94f4eba	-0.00019770386
100	0xb883bfe4	-6.282309e-05
101	0x3e172097	0.14758526
102	0xb8806388	-6.122055e-05
103	0x3d7d5c52	0.06185562
104	0x3a59e571	0.00083120825
105	0x38743097	5.8219386e-05
106	0x3e2a277c	0.16616625
107	0x388a8e0b	6.60681e-05
108	0xb834dc9b	-4.31208e-05
109	0xb8350ca7	-4.3165546e-05
110	0xbc5bcf72	-0.013416158
111	0x37c7e4b2	2.3829143e-05
112	0x388948eb	6.546251e-05
113	0x388948ff	6.546266e-05
114	0xb88c0ff0	-6.678689e-05
115	0xb88c11c2	-6.679028e-05
116	0xbd8a5439	-0.067543454
117	0x3b38c243	0.002819196
118	0xb88460b2	-6.3122614e-05
119	0xbda501fb	-0.08057018
120	0xbe92afdd	-0.28649798
121	0x3dfdc711	0.123914845
122	0x3deb07d0	0.114760995
123	0xbe46f876	-0.19430718
124	0x3db03a71	0.08604897
125	0x3e958088	0.29199624
126	0x3e2f1289	0.17096914
127	0x38118f28	3.470402e-05
128	0xbc641ebe	-0.013923345
129	0xbad5c2ab	-0.0016308626
130	0x3ddb3037	0.107025556
131	0xba41fde0	-0.0007400196
132	0x3881f155	6.196151e-05
133	0xbb8aa6d7	-0.0042313146
134	0x3881dbdb	6.1921506e-05
135	0x3be4b254	0.006979266
136	0xbae9022a	-0.0017777134
137	0xb88a805b	-6.604261e-05
138	0xbc6e2f24	-0.014537606
139	0x3882612c	6.216983e-05
140	0xb884aa10	-6.325927e-05
141	0xb88633fe	-6.399302e-05
142	0x395f8b39	0.00021318802
143	0xb88bc7c9	-6.6652494e-05
144	0x3883268f	6.253749e-05
145	0x3883275f	6.2539e-05
146	0x388307ec	6.248042e-05
147	0xb8896904	-6.55223e-05
148	0xbce35838	-0.027752027
149	0x3acd2308	0.0015650699
150	0xb887858e	-6.462178e-05
151	0xbe32ea41	-0.17472173
152	0xbbf3bf1e	-0.0074385544
153	0xba649c74	-0.0008720823
154	0xbdaa34c5	-0.08310846
155	0x3c0e4334	0.008683015
156	0xbb04026d	-0.0020143047
157	0xbab8a467	-0.0014087082
158	0x3ad06153	0.0015898146
159	0x3878fffc	5.936621e-05
160	0x3e436dbf	0.19084834
161	0xbcb6199b	-0.022229007
162	0xbbcf00c6	-0.006317231
163	0x372ebbb8	1.0414915e-05
164	0x3885c80f	6.379198e-05
165	0x3d8ee487	0.06977182
166	0x38835237	6.2618805e-05
167	0x3e25ade7	0.1617962
168	0xbc3c187b	-0.011480446
169	0xb84ca371	-4.8789607e-05
170	0x3d97ff4d	0.07421742
171	0x38825bb5	6.215965e-05
172	0x3596f2c8	1.124653e-06
173	0x3624a568	2.4534183e-06
174	0xbe5b6caf	-0.21428178
175	0x381e2112	3.7700935e-05
176	0x3880de9e	6.144981e-05
177	0x3880de8c	6.144968e-05
178	0x38909a8d	6.8952424e-05
179	0x389d379f	7.4967036e-05
180	0xbe43d25c	-0.19123214
181	0x3d0341c0	0.032045126
182	0x38811a8c	6.156144e-05
183	0x3d4005a4	0.04688038
184	0xbe83fb65	-0.25777736
185	0xbdb46441	-0.088081844
186	0x3dee4294	0.116337925
187	0x3e052f4f	0.13006328
188	0x3dbb86c0	0.09156561
189	0x3c98a7a7	0.01863463
190	0x3c831cf0	0.01600501
191	0x3874ee8e	5.8396305e-05
192	0xbd8d326c	-0.06894383
193	0xbb793aaa	-0.0038029351
194	0xbca314d0	-0.019907385
195	0x3ca4b1bd	0.020104283
196	0xb8a3ad58	-7.8047335e-05
197	0x3ca77376	0.020440798
198	0xb8a3ae09	-7.804862e-05
199	0xbd9a2cac	-0.07528052
200	0xbe6c4d63	-0.23076396
201	0x380b9796	3.3281358e-05
202	0xbd17276b	-0.036902826
203	0x389ca05c	7.468529e-05
204	0x387207aa	5.7704434e-05
205	0x3863da99	5.4324602e-05
206	0xbd76434b	-0.06012277
207	0xb7e9c74a	-2.7868566e-05
208	0x38a0df36	7.670971e-05
209	0x38a0df5f	7.671001e-05
210	0x387ee192	6.0768398e-05
211	0x3878e9a8	5.9345417e-05
212	0x3d32e1ce	0.043672375
213	0xbcf431b1	-0.029808851
214	0xb8a40f31	-7.822959e-05
215	0xbbbe4915	-0.005807052
216	0xbe329372	-0.17439058
217	0xbd1c91cb	-0.038224977
218	0x3e361740	0.17782307
219	0xbd4b500d	-0.04963689
220	0x3cebae15	0.028769532
221	0x3db7de47	0.08977943
222	0x3d658971	0.056039277
223	0x39039714	0.00012549415
224	0x3e087f9b	0.13329928
225	0x3ea9708b	0.33093676
226	0x3dd35709	0.10319335
227	0x39da16fc	0.00041597325
228	0x38835d39	6.263931e-05
229	0x3d0a3986	0.033746265
230	0xb88a8276	-6.604653e-05
231	0x3e0b6c9e	0.13615653
232	0xba647b64	-0.00087158964
233	0x3892d228	7.000967e-05
234	0x3b954cf4	0.0045562927
235	0xb880c5e6	-6.140377e-05
236	0xb85c4292	-5.2514086e-05
237	0xb85cbd70	-5.2628515e-05
238	0xbc13bffb	-0.00901794
239	0xb84c887c	-4.87645e-05
240	0x3880e332	6.145834e-05
241	0x3880e31f	6.14582e-05
242	0xb89c8696	-7.463728e-05
243	0xb89c8c1f	-7.464759e-05
244	0xbd3f2039	-0.04666159
245	0x3ba5cbff	0.0050597186
246	0xb88a25ce	-6.5873945e-05
247	0x3eb03fa4	0.34423554
248	0xbdcb032e	-0.09912716
249	0x3dde1143	0.10843136
250	0xbbea9f3c	-0.0071600955
251	0x3c945e0a	0.018111248
252	0x3c26f45f	0.010190099
253	0x3d161009	0.036636386
254	0x3dde7284	0.10861686
255	0xb8572c53	-5.1301275e-05

sparse_resnet_denoiser/level_0/depthwise_conv2d_4/depthwise f4 [1, 3, 3, 32]
0	0x3eb75cf9	0.3581312
1	0x3d21ca09	0.039499316
2	0xbab55b5d	-0.0013836432
3	0xbe87feb5	-0.26561514
4	0xbc6b25b4	-0.014352251
5	0x3e3ba51c	0.18324703
6	0xbd569c37	-0.05239507
7	0xbbf3ecf3	-0.007444018
8	0x3a8fabc8	0.0010961229
9	0x3b6b164b	0.0035871442
10	0xbb3b5878	-0.0028586667
11	0xbe9a43a1	-0.30129722
12	0x3d1fd414	0.039020613
13	0xbd5c9cd0	-0.053860486
14	0xbc9eb056	-0.019371193
15	0x393ae8cd	0.00017825067
16	0xbf179359	-0.5920921
17	0x3ab4a105	0.0013780898
18	0xbe35a3f6	-0.17738327
19	0x3b1f4114	0.0024300264
20	0x3e9a5c40	0.30148506
21	0x3b8593f3	0.004076475
22	0x3eb57080	0.35437393
23	0x3bb2e1bd	0.005459039
24	0xbe601167	-0.21881638
25	0xbe3aa021	-0.18225147
26	0xbb959512	-0.0045648897
27	0xba310eee	-0.0006754239
28	0xbebdf339	-0.37099627
29	0xba100fbd	-0.0005495509
30	0x3be843b0	0.007088147
31	0xbd084bdd	-0.033275474
32	0x3e4ec62b	0.20192783
33	0x3e18bc9a	0.14915696
34	0xbaaa4bbc	-0.0012992541
35	0x3bd5e0d4	0.0065270457
36	0xbecaef73	-0.3963581
37	0x3ea4963a	0.32145864
38	0xbcde70ee	-0.027153458
39	0xbcb0a358	-0.021562263
40	0x3d4c374f	0.049857434
41	0x3b5d6a58	0.003378531
42	0xbb363cf6	-0.0027807332
43	0xbe08a8e8	-0.13345683
44	0x3d3650b1	0.044510547
45	0xbc1e13fa	-0.0096483175
46	0xbded171d	-0.11576674
47	0xbeab0ce1	-0.33408263
48	0xbca5300a	-0.020164508
49	0xbf112151	-0.5669146
50	0x3e81c1ca	0.25343162
51	0x3b24ac33	0.0025127053
52	0x3e6af758	0.22945917
53	0x3b84cfe8	0.0040531047
54	0x3ecdef3e	0.4022159
55	0x3ba5d412	0.005060681
56	0xbdb8247a	-0.08991332
57	0xbcb53375	-0.022119263
58	0xbb96648e	-0.004589624
59	0xbca28be0	-0.019842088
60	0x3cd566ea	0.02605005
61	0xba2833f0	-0.00064164307
62	0xbd60e92f	-0.05490988
63	0xbd73a144	-0.059479967
64	0x3e221b98	0.15830839
65	0x3d9df895	0.07713429
66	0xba99d6f0	-0.001173703
67	0x3b80f275	0.003935153
68	0xbd3c5f28	-0.045989186
69	0x3e7a702f	0.24456857
70	0xbb14d4a1	-0.0022709745
71	0xbd8561e1	-0.065128095
72	0x3e2caa3b	0.16861813
73	0x3b6b5e2d	0.0035914287
74	0xbb2a4f1a	-0.002598709
75	0xbdcfbd77	-0.101435594
76	0x3e0f2dda	0.13982335
77	0xbcf6c6ae	-0.030124035
78	0xbd3eaea8	-0.046553284
79	0xbf0d92a4	-0.5530188
80	0xbcd2d1cd	-0.025734806
81	0xbde6e47c	-0.11274049
82	0x3eac42eb	0.33644804
83	0x3b2b3edf	0.0026130003
84	0xbaf73926	-0.0018861636
85	0x3b851975	0.0040618726
86	0x3d97e8bb	0.07417437
87	0x3e23a1da	0.1597971
88	0xbe23aa0a	-0.15982834
89	0xb850ec5d	-4.9811195e-05
90	0xbb98856b	-0.0046545765
91	0xbcc7e4b5	-0.024401048
92	0x3e56aa0e	0.20963308
93	0xba0a888c	-0.00052846293
94	0x3cf37db2	0.029723022
95	0xbd450cfa	-0.04810808
96	0x3ec1b15c	0.37830627
97	0x3e9ba44e	0.30398792
98	0xba932262	-0.0011225457
99	0xbea5a399	-0.32351378
100	0x3b0c1589	0.002137514
101	0x3e422940	0.18961048
102	0xbeaf9846	-0.34295863
103	0xbc0da9c7	-0.008646435
104	0x3b1091b3	0.00220595
105	0x3b5f2ce2	0.0034053852
106	0xbb363726	-0.0027803867
107	0xbd6a1596	-0.057149492
108	0xbb9a9fbb	-0.0047187484
109	0xbdbd1bce	-0.09233819
110	0xbd4e4db3	-0.05036707
111	0xbadcd6b4	-0.0016848654
112	0xbcc60664	-0.02417297
113	0x391d1123	0.0001497907
114	0xbe3a00b9	-0.18164338
115	0x3b113c65	0.0022161242
116	0x3efb9dfd	0.49143973
117	0x3b82e632	0.0039947266
118	0x3e2b2610	0.16713738
119	0x3bad02ca	0.0052798735
120	0xbda551e1	-0.08072258
121	0xbf159b5e	-0.58440197
122	0xbb920119	-0.0044556973
123	0xbce1ec2e	-0.02757844
124	0x3da80296	0.08203618
125	0xba33c0e7	-0.0006857053
126	0xb9fc0637	-0.00048069816
127	0xbcc979e0	-0.024594247
128	0x3ee4b75f	0.4467115
129	0x3d5f5b01	0.054530147
130	0xba88a422	-0.0010424892
131	0x3b6efaf9	0.003646551
132	0xbbae0134	-0.005310202
133	0x3e9d48b5	0.30719534
134	0x3de50a53	0.1118361
135	0xbeb14e97	-0.34630272
136	0x3ca5129b	0.020150473
137	0x3b5005cf	0.0031741743
138	0xbb307a55	-0.0026928384
139	0xbdc5411f	-0.096315615
140	0x3ec45a97	0.38350365
141	0xbefd7633	-0.4950424
142	0xbe4c1fa5	-0.19933946
143	0xbe1af176	-0.15131173
144	0xbc2ac8f2	-0.010423886
145	0xbd73d27f	-0.059526917
146	0x3ccc1c8d	0.024915958
147	0x3b178b96	0.0023123971
148	0x3e8346ac	0.25639856
149	0x3b815b7c	0.0039476734
150	0x3e6e0b18	0.2324642
151	0x3ba25046	0.004953417
152	0x3db7d11c	0.08975431
153	0xbe5d972a	-0.21639696
154	0xbb936fa4	-0.0044993926
155	0xbedad539	-0.427408
156	0x3efe7316	0.4969718
157	0xba4f4cb5	-0.00079078536
158	0xbeebbe1e	-0.46043485
159	0xbe711505	-0.23543175
160	0x3ca23fbd	0.019805783
161	0x3d135c04	0.035976425
162	0xba68ddf8	-0.00088831736
163	0x3b168615	0.0022968103
164	0x3e219b9b	0.15782015
165	0x3e0ae416	0.1356357
166	0x3c182836	0.009286931
167	0xbc0d2a63	-0.008616063
168	0x3eb85b79	0.36007288
169	0x3b60b082	0.0034284894
170	0xbb2176e5	-0.0024637517
171	0xbe99cef9	-0.3004072
172	0x3dc92de0	0.09823203
173	0x3c839255	0.016060987
174	0xbd89a0e2	-0.06720139
175	0xbeff87bd	-0.49908248
176	0xbb02839b	-0.0019914869
177	0xba980780	-0.0011598915
178	0x3e7becca	0.24602047
179	0x3b1d388f	0.002399001
180	0x3c4c9274	0.012486089
181	0x3b822608	0.003971819
182	0x3d6c19c9	0.05764178
183	0x3ba2f3c7	0.004972908
184	0xbe39fbbe	-0.18162438
185	0xbeb29e10	-0.34886217
186	0xbb95d674	-0.004572684
187	0xbe5eed97	-0.21770321
188	0x3e486623	0.19570212
189	0xba2ecabe	-0.0006667784
190	0xbe8b97c1	-0.27264217
191	0xbe2b51af	-0.16730379
192	0xbd381876	-0.044945203
193	0x3d8d7c56	0.06908481
194	0xba8bfea8	-0.0010680752
195	0x3b32bb2d	0.002727221
196	0x3e1354a5	0.14387758
197	0x3e0990c5	0.13434131
198	0xbe1c241d	-0.15248151
199	0xbb80d5d0	-0.0039317384
200	0x3c2a9cc7	0.010413355
201	0x3b678721	0.0035328346
202	0xbb41b6c8	-0.002955841
203	0xbe2d147a	-0.16902342
204	0xbd9b2c11	-0.075767644
205	0xbe3a320a	-0.18183151
206	0xbc1ef850	-0.009702757
207	0x3c1d7f2c	0.00961284
208	0xbc83ee01	-0.0161047
209	0xbda55c2b	-0.0807422
210	0xbdf420de	-0.119203314
211	0x3b1f0eaa	0.0024270215
212	0xbb99f764	-0.0046986807
213	0x3b86e60b	0.0041167787
214	0x3b42fac3	0.0029751516
215	0x3bb425ec	0.0054976847
216	0xbde4e806	-0.111770675
217	0xbe6dccbc	-0.23222631
218	0xbb9bb73b	-0.0047520674
219	0xbd28f1c6	-0.041246198
220	0x3e089d57	0.1334127
221	0xba0a715c	-0.0005281174
222	0xbe648fd5	-0.22320493
223	0xbcbb765c	-0.022883587
224	0xbc2443fd	-0.010025975
225	0x3d6b373a	0.057425715
226	0xba77ed1a	-0.0009457633
227	0x3ba6b9de	0.005088075
228	0xbc5f6fc0	-0.013637483
229	0x3e059da2	0.13048413
230	0x3c1dd3ff	0.009633063
231	0xbb715e68	-0.0036829952
232	0x3c8d7dbd	0.01727187
233	0x3b5a52bf	0.003331348
234	0xbb3e9405	-0.0029079926
235	0xbed95588	-0.42448068
236	0x393c0303	0.00017930199
237	0xba8a299a	-0.0010540963
238	0xbcd18997	-0.025578303
239	0xbe45d5ce	-0.19319841
240	0xbc7ef9bb	-0.01556247
241	0xbd891d14	-0.06694999
242	0x3ce44d45	0.027868876
243	0x3b24d8a7	0.002515355
244	0xbb339624	-0.0027402723
245	0x3b85d390	0.004084058
246	0xb9f37d76	-0.00046442047
247	0x3babbe9c	0.0052412283
248	0xbed18980	-0.40925217
249	0xbdd66941	-0.10469294
250	0xbb9d4405	-0.0047993683
251	0xbd267b45	-0.040644903
252	0xbd2bd306	-0.041949295
253	0xba25d3b8	-0.0006325799
254	0xbf0b56a7	-0.54429096
255	0xbbc50fae	-0.006013832
