bfcnn/pretrained/resnet_color_1x6_bn_16x3x3_256x256_l1_relu/model.tflite (tflite, 75320 bytes, 48 tensors)

resnet_denoiser/denoiser_head/channelwise_multiplier_7/mul f4 [1, 1, 4, 3]
00000000: fa08 61be ee8e 4dbe ce25 023c 7ba5 a43e
00000010: 0084 443c f3d3 b8be 7f08 8e39 653b 643e
00000020: d8fc 8c3e f42f b23d d985 303c 9b06 91bc
-0.2197608 -0.20074055 0.007943584 0.32157502 0.011994362 -0.36099204 0.0002709068 0.22288282
0.27536654 0.087005526 0.010774099 -0.017703345

resnet_denoiser/denoiser_head/conv2d_19/Conv2D/ReadVariableOp/resource f4 [1, 1, 4, 12]
00000000: 0051 ac3c 2775 c9bc 324a cb3a 0ffd 62bd
00000010: 1f36 f2bb d4db 1dbc 60d4 a836 f888 c43c
00000020: c886 bb3c bb7f 17bc d1b9 1e3b 0cca aabd
00000030: 5c73 e73e fd84 10bf a614 4ab8 2ab8 cbbe
00000040: c267 a53e 45af 15bb 078d 4abf 00ce 8fbc
00000050: 6079 41bb 8d0e 3e3b 05bc 70ba 0ca6 403d
00000060: fb36 f4bd f70d 183e 5edd e137 8ba5 3c3e
00000070: 0333 b93e f5a1 6a3c 2561 5bbb e9af 91ba
00000080: 8b97 aa3b 42a6 c6be 426c e03e 8815 5d3b
00000090: e9e8 353a d51d baba 4491 2fb8 b738 653c
000000a0: 5d2c 28bd 7c86 c83c 5a47 a23b af10 b93b
000000b0: 29e9 ac3b 03d3 613c 857b a83b 8174 73bb
0.021034718 -0.024591995 0.0015509783 -0.055417117 -0.0073917056 -0.009634931 5.031514e-06 0.023991093
0.022891417 -0.009246762 0.0024219642 -0.08339319 0.452052 -0.56452924 -4.8179783e-05 -0.39788944
0.32305723 -0.0022840064 -0.7912144 -0.017554283 -0.0029521808 0.0029000372 -0.00091832905 0.047033355
-0.11924549 0.14849077 2.6925172e-05 0.18422525 0.3617173 0.01432084 -0.003347465 -0.0011115047
0.0052060536 -0.3879872 0.43832594 0.0033734757 0.00069393084 -0.0014199564 -4.185854e-05 0.013990573
-0.041057933 0.02447819 0.0049523534 0.005647741 0.0052768183 0.013783219 0.005141678 -0.00371483

resnet_denoiser/denoiser_head/channelwise_multiplier_6/add f4 [12]
00000000: 30ec 613f 600b de3e af05 803f 4af4 0b3f
00000010: 91cb 563f 5877 803f 8c63 473f 4631 803f
00000020: 1410 803f f17a 103f d4da 2f3f 00e5 cf3d
0.8825102 0.43368053 1.0001734 0.5466963 0.8390437 1.0036421 0.7788627 1.0015037
1.0004907 0.56437594 0.6869328 0.101511

resnet_denoiser/level_0/batch_normalization/FusedBatchNormV3 f4 [16]
00000000: 9671 91be a1b4 f3be 6a0b 1abf d829 2cbf
00000010: 4fa8 febe 469f 1ebf 7e99 58be 6ed0 14bf
00000020: f867 87bf c163 7cbf c2c2 09bf b39d c9be
00000030: dfca dbbe 4153 42bf 1fb8 0ebf 717b adbe
-0.28406972 -0.47598746 -0.60173666 -0.6725135 -0.49737784 -0.6196178 -0.21152303 -0.5813054
-1.0578604 -0.9858971 -0.538128 -0.39378127 -0.42928216 -0.75908285 -0.55749696 -0.3388324

resnet_denoiser/level_0/batch_normalization/FusedBatchNormV31 f4 [16]
00000000: 7a51 a63f 2c30 a23f 0efb ff3f 80a3 0b40
00000010: 77d0 403f b214 ef3f 46e8 ef3f 4da8 7640
00000020: 53d4 5e3f 8898 983f 2be3 623f 060a cf3f
00000030: 976c 5a40 4ba8 3340 9093 3b40 d6f4 923f
1.2993615 1.2670951 1.9998491 2.1818542 0.7531809 1.8678191 1.8742759 3.8540223
0.8704273 1.1921549 0.8862788 1.6174934 3.4128778 2.8071468 2.9308815 1.1480968

resnet_denoiser/level_0/batch_normalization_1/FusedBatchNormV3 f4 [32]
00000000: c4c9 72be 2d11 c5be 5938 f0be ecfa 63be
00000010: e43d 2fbf 3551 a2be d2f6 37bf 515f 0abf
00000020: 620c f8be 8aaf bbbe 56fd 84be dba5 48be
00000030: acde 73be 7c7b efbe 038d a2be b839 9dbe
00000040: 8155 dabe 94b3 05bf f62b 14bf d4b4 68be
00000050: b160 28be 027a fabe 769a ddbe fad9 8bbe
00000060: 9c6d 1abf 74e4 a1be 968d d1be 4826 79be
00000070: 74f1 8fbe a4b6 1cbe 141e 02bf edd7 7dbe
-0.2370978 -0.38489667 -0.4691799 -0.22263688 -0.6845381 -0.3170258 -0.7186099 -0.5405169
-0.48446947 -0.36657363 -0.2597453 -0.19594519 -0.23815411 -0.467739 -0.31748208 -0.30708098
-0.4264336 -0.5222714 -0.5787958 -0.2272523 -0.16443135 -0.4892121 -0.43281907 -0.2731474
-0.603235 -0.31619608 -0.40928334 -0.2433101 -0.28113902 -0.15304047 -0.50827146 -0.247894

resnet_denoiser/level_0/batch_normalization_1/FusedBatchNormV31 f4 [32]
00000000: 0994 493f 6f20 2f3f 6ae1 c43f 4f2f ac3f
00000010: 39cc f43f 629c 313f b270 813f 3ed6 a03f
00000020: 70f3 273f 1ae1 213f e8f3 fa3e 3694 493f
00000030: fbcd be3f bee3 373f 1c00 353f 0cf5 883f
00000040: 7c35 633f b520 943f 5427 713f 9926 ed3e
00000050: 0538 443e f3df c53f eca8 803f 1a62 633f
00000060: 8f05 863f af20 953f 0380 293f ed8f b13f
00000070: dc4b 803f e0b9 243f bc92 d03f a933 813f
0.7874151 0.68408865 1.5381291 1.3451937 1.9124824 0.69379246 1.0112517 1.2565382
0.6560583 0.632341 0.4901421 0.78741777 1.490661 0.7183188 0.7070329 1.0699782
0.88753486 1.1572481 0.94200635 0.4631851 0.19161995 1.5458969 1.0051551 0.88821566
1.0470446 1.1650599 0.66210955 1.3872048 1.002315 0.6434612 1.629478 1.009389

resnet_denoiser/level_0/batch_normalization_10/FusedBatchNormV3 f4 [16]
00000000: 7d26 debe 0a95 1ebf 0621 55bf 8225 62bf
00000010: 46f4 1bbf 7bcb 72bf 800b 20bf 84fa 03bf
00000020: 3e5a 48bf 0acc 48bf ce46 2dbf 2e47 0cbf
00000030: 611a 61bf cb13 eabe b114 40bf 5ba1 c6be
-0.4338874 -0.61946166 -0.83253515 -0.8833848 -0.60919607 -0.94841737 -0.6251755 -0.5155413
-0.782627 -0.7843634 -0.67686164 -0.5479611 -0.87930876 -0.45718226 -0.7503157 -0.3879498

resnet_denoiser/level_0/batch_normalization_10/FusedBatchNormV31 f4 [16]
00000000: 046b 0a3f 74e0 203f 11f9 3d3f 5d7c 2c3f
00000010: f35b 8e3f c15c 443f 12cf 503f d568 7f3f
00000020: 61b1 503f e878 493f 9755 d63f ba4f 463f
00000030: a9e9 853f 0406 ff3e efb0 403f 6f79 413f
0.5406954 0.6284249 0.7420817 0.67377263 1.1121811 0.7670403 0.81565964 0.99769336
0.8152066 0.78700113 1.674487 0.77465403 1.0461932 0.49809277 0.7526998 0.7557592

resnet_denoiser/level_0/batch_normalization_11/FusedBatchNormV3 f4 [32]
00000000: 934f 40b9 3283 87bf ec9f ffbe 89d4 87b8
00000010: 045c a0be 6d59 16bf 88a7 adbe be71 0bbf
00000020: c32e 6138 78d6 d2be 0ca7 5cb9 36d9 8ebe
00000030: 050c b8be deea 50be 38bc 03bf fd31 d0b7
00000040: 1f2f 0bbf 3028 45bf 3658 22bf 18e6 03bf
00000050: e021 11bf 5310 cabe 29f7 72bf 1b16 04bf
00000060: 2f27 08bf 6f7c 0e37 cf89 30bf 2fea 113a
00000070: c817 d0be a725 f639 777a dc39 7918 a339
-0.0001834019 -1.0586913 -0.49926698 -6.4768894e-05 -0.31320202 -0.587302 -0.3391688 -0.5447043
5.368773e-05 -0.41179252 -0.00021043065 -0.27900094 -0.3594667 -0.20402095 -0.51459074 -2.481881e-05
-0.54368776 -0.77014446 -0.6341585 -0.5152297 -0.56692314 -0.3946558 -0.94908386 -0.5159623
-0.5318479 8.4928315e-06 -0.6896028 0.0005566207 -0.40643144 0.0004694883 0.00042052913 0.00031108016

resnet_denoiser/level_0/batch_normalization_11/FusedBatchNormV31 f4 [32]
00000000: b990 d03d 8c27 1540 335c 8c3f 3d01 253d
00000010: 3a8b 183f 7806 953f 2f01 9e40 f646 943f
00000020: b821 1dbd d729 773f 3845 003e f129 213f
00000030: ac18 4f3f 7855 1640 0ad2 843f e079 883c
00000040: af76 7b3f 21ad 673f 0d9a 2a3f 8817 823f
00000050: d15c 853f 1299 aa3f 3116 0e40 adaf 1d40
00000060: 3d0d 8b3f f53d a4bb 4ddc 2140 be6c 8fbe
00000070: 2fbe 483f 7574 8bbe aa7c 80be c0b4 38be
0.10183854 2.3305387 1.0965637 0.040284384 0.5958744 1.1642599 4.9376445 1.1584156
-0.038362235 0.9654822 0.12526405 0.6295462 0.8089702 2.3489666 1.0376599 0.016659677
0.9822797 0.9049855 0.6664131 1.0163431 1.041895 1.3327963 2.2201045 2.4638474
1.0863415 -0.0050122687 2.529071 -0.2801265 0.784152 -0.27237287 -0.2509511 -0.180377

resnet_denoiser/level_0/batch_normalization_2/FusedBatchNormV3 f4 [16]
00000000: e99d 29bf 3c39 01bf 2dc3 cdbe 0764 96be
00000010: 4f08 f3bf 6b9c 43bf 800d eabf 678a 04bf
00000020: 9ddb c7bf a648 6cbf f0c1 58bf 1146 62bf
00000030: 64fe 44bf e69e 68bf 9bbc 04bf 8038 c3bf
-0.66256577 -0.5047796 -0.4018797 -0.2937319 -1.898691 -0.7641055 -1.828537 -0.51773685
-1.5613896 -0.9229835 -0.84670925 -0.8838816 -0.7695067 -0.9086746 -0.5185029 -1.5251617

resnet_denoiser/level_0/batch_normalization_2/FusedBatchNormV31 f4 [16]
00000000: 95d4 7740 dac9 1240 b3cb df3f c509 1840
00000010: b704 d23f 6919 5c40 6730 993f e6d9 cf3f
00000020: 1ccf 8b40 e224 2140 9b0a 993f cd7b 4040
00000030: 9d78 143f 37ae 0b40 281c 0f40 089c 6a3f
3.87235 2.29357 1.7484039 2.3755963 1.6407689 3.439051 1.1967896 1.6238372
4.369032 2.5178761 1.1956362 3.0075562 0.5799654 2.1825082 2.2360935 0.91644335

resnet_denoiser/level_0/batch_normalization_3/FusedBatchNormV3 f4 [32]
00000000: 5db1 2abf 44a2 2abf 0491 18bf a5c1 8dbe
00000010: 11f2 fdbe cab2 ffbe c956 4dbf 139f c7be
00000020: 19ad 55bf b5ed 0dbf 83cb 4cbf bbee 6fbf
00000030: bc82 bfbe a2d0 edbe f85c 49bf 43fc 10bf
00000040: e82b 88bf 7af0 00bf d57c dcbe ca09 f2be
00000050: daa3 f0be d9a7 33bf 590a 0ebf 40a3 6fbe
00000060: cfb6 30bf 59ef 41bf e9d6 0ebf 4ec1 3bbf
00000070: 1f11 dcbe 585f 1cbf 3765 f0be 42c0 24bf
-0.66676885 -0.6665385 -0.59596276 -0.27686802 -0.49598745 -0.49941093 -0.8021055 -0.38988551
-0.8346725 -0.5544084 -0.79998034 -0.9372365 -0.3740443 -0.46448237 -0.78657484 -0.5663492
-1.0638399 -0.5036694 -0.4306399 -0.47273093 -0.4700001 -0.7017799 -0.5548454 -0.23402119
-0.69028944 -0.7575584 -0.55796677 -0.73341835 -0.42981812 -0.61082983 -0.4695222 -0.6435586

resnet_denoiser/level_0/batch_normalization_3/FusedBatchNormV31 f4 [32]
00000000: 512f b23f 9e15 1140 1f51 a53f 8418 923f
00000010: 1f16 d03f e346 8040 965e 4440 c855 113f
00000020: 0225 3240 9124 d53f 5315 b03f 1b42 923f
00000030: 4bf2 3b3f 344a 773f 1f77 9e3f 3713 973f
00000040: d5a1 df3f 7f6b 4c3f 419e e83f c013 c13f
00000050: d0f2 383f 20f5 a63f 3a4c c13f 1c4d 573f
00000060: 221a 533f 202d 773f 2d7f e73f 5dd9 ba3f
00000070: d45d d03f 51be ba3f decc c03f 53fe c13f
1.392069 2.2669444 1.2915381 1.1413732 1.6256751 4.008653 3.068273 0.56771517
2.7835088 1.6651784 1.3756508 1.1426424 0.73416585 0.965976 1.2380103 1.1802739
1.7471262 0.79851526 1.8173295 1.5084152 0.722455 1.3043556 1.5101388 0.84102035
0.8246175 0.9655323 1.8085686 1.4597584 1.6278634 1.458933 1.506252 1.5155739

resnet_denoiser/level_0/batch_normalization_4/FusedBatchNormV3 f4 [16]
00000000: 46b1 59bf a00d afbf 1787 2fbf a455 68bf
00000010: bbe4 24bf 1cd8 8dbf 95db 1ebf c42a 6dbf
00000020: b51c 6abf 981c 18bf d39e d0be c7ce 10bf
00000030: 3cd6 52bf e53c 64bf 320d 50bf d999 6bbe
-0.8503612 -1.3676033 -0.68565506 -0.9075568 -0.64411515 -1.1081576 -0.62053806 -0.9264338
-0.91450053 -0.5941863 -0.40746173 -0.5656552 -0.82358146 -0.8915542 -0.81270134 -0.23007907

resnet_denoiser/level_0/batch_normalization_4/FusedBatchNormV31 f4 [16]
00000000: d04d 3640 630f ea3f 9de4 0740 af9e ec3f
00000010: 5f1b a43f d6fb ad3f 9e42 bf3f 374f 5b40
00000020: 9dfe 2d40 8da8 0140 786a 4440 56f1 1f40
00000030: e5ae 843f c265 0540 25dd 0a40 5255 eb40
2.8484993 1.8285946 2.1233284 1.8485926 1.2820853 1.3592479 1.4942205 3.42671
2.7186654 2.0259125 3.0689983 2.499105 1.0365874 2.0843358 2.1697476 7.354165

resnet_denoiser/level_0/batch_normalization_5/FusedBatchNormV3 f4 [32]
00000000: 7002 9ebe 4097 0bbf 5075 37bf 960d 29bf
00000010: 75c9 02bf 3a48 69bf bf27 0fbf c18e 8bbe
00000020: 129d 9ebe eec0 1abf a965 b5be 53ac f4be
00000030: 429e 0abf aae6 fcbe 0040 16bf 92ed 0bbf
00000040: b8c1 30bf 3279 b4be a579 36bf 7381 f0be
00000050: 20d9 c1be cd5a bebe cb3d b7be ca15 e8be
00000060: 8ee1 bcbe 60a0 35bf 32be 03bf f962 ffbe
00000070: 6990 12bf 23e2 3abf da94 0fbf 451c 22bf
-0.30861235 -0.54527664 -0.7166338 -0.66036355 -0.5108865 -0.91125834 -0.5592002 -0.2725735
-0.3097921 -0.6045064 -0.35429123 -0.47787723 -0.5414773 -0.49394733 -0.58691406 -0.5465938
-0.6904559 -0.35248715 -0.71279365 -0.46973762 -0.37860966 -0.3717865 -0.35789332 -0.45329124
-0.36890835 -0.7094784 -0.5146209 -0.49880198 -0.572516 -0.7300131 -0.56086504 -0.63324386

resnet_denoiser/level_0/batch_normalization_5/FusedBatchNormV31 f4 [32]
00000000: c68f 983f c43f dd3f 04a5 033f 844e ce3f
00000010: ea5a ec3f 8baa b03f 508b da3f 42da 8d3f
00000020: 60df 8c3f 4e46 1440 67c4 a43f 59e3 763f
00000030: c1d9 343f 10a3 0e40 47ae d93f 8868 5b3f
00000040: 7a5f 983f d99e 913f b3fa 0640 7191 893f
00000050: e5bc 723f 4f99 443f fc8c 0b3f 4622 e33f
00000060: dcfc 793f b602 0540 6b70 a23f 8d65 dd3f
00000070: 0417 613f d0e9 cb3f 8e39 723f 2b9d 3440
1.1918876 1.7285085 0.5142367 1.6117711 1.8465245 1.3802046 1.7073765 1.1082232
1.1005669 2.316791 1.2872437 0.96440655 0.70644766 2.2287025 1.700631 0.8570638
1.1904137 1.1376601 2.1090515 1.074751 0.9481948 0.7679643 0.54512 1.7744834
0.9765146 2.0782905 1.2690557 1.7296616 0.87925744 1.5930729 0.9461907 2.8220928

resnet_denoiser/level_0/batch_normalization_6/FusedBatchNormV3 f4 [16]
00000000: b80f 31bf 3a32 6dbf ec4b 8bbf e43a 8ebe
00000010: 670d acbf 00af 76bf a7ad 04bf 3be6 41bf
00000020: 1faf adbf 77e2 42bf 798e ecbe 31e8 abbe
00000030: 4f0d 25bf d99f 3dbf 6d8a 2bbf 22e0 8dbf
-0.6916461 -0.92654765 -1.0882545 -0.27779305 -1.344159 -0.9636078 -0.5182747 -0.7574193
-1.3569068 -0.7612681 -0.46202448 -0.33575585 -0.6447343 -0.74072033 -0.67008096 -1.1084025

resnet_denoiser/level_0/batch_normalization_6/FusedBatchNormV31 f4 [16]
00000000: 4d1e bc3f 65f4 8f3f b571 4f3f 409f ba3f
00000010: d3f0 ca3f 7079 2e40 4aae e83f 80a7 be3f
00000020: 4b58 773f 422e c53f 1595 6e3f 743a 173f
00000030: f2b6 3740 308b 8f3f 8149 173f dcc0 763f
1.4696747 1.1246458 0.8103288 1.4579849 1.5854744 2.726162 1.8178189 1.4894867
0.966191 1.5404742 0.9319623 0.5907357 2.870541 1.1214352 0.59096533 0.9638803

resnet_denoiser/level_0/batch_normalization_7/FusedBatchNormV3 f4 [32]
00000000: ab5f 08bf feb2 38bf 279a 1abf db1a edbe
00000010: 5e9e 27bf 314a 07bf b08a c7be 78d0 efb9
00000020: 38c1 1fbf 6bef 01bf 5845 16bf bfca e5be
00000030: a5ad 0bbf 8e22 13bf 688d f3be 904d fd39
00000040: 166d 2cb8 55ed e1be 16ad 3cbf bbe5 2abe
00000050: cace 15bf 55a1 eabe b48d 1bbf 35c5 e5be
00000060: 2f56 07bf 3398 a4be 4567 f3be c7d7 f3be
00000070: 1a8c 05bf 36a3 c8be bebd cabe 52a0 fcbe
-0.5327098 -0.7214812 -0.6039147 -0.46309552 -0.65476024 -0.5284758 -0.38972998 -0.00045740954
-0.62404203 -0.5075595 -0.5869956 -0.44881245 -0.54561836 -0.574746 -0.47568822 0.0004831371
-4.110959e-05 -0.44126382 -0.7370161 -0.16689198 -0.5851866 -0.45826212 -0.60763097 -0.4487702
-0.5286588 -0.3214737 -0.47539726 -0.47625563 -0.52166903 -0.3918702 -0.39597887 -0.49341065

resnet_denoiser/level_0/batch_normalization_7/FusedBatchNormV31 f4 [32]
00000000: 2691 9d3f 2665 873f 1592 da3f 77f9 c73f
00000010: 3cec 843f 01ec f03f 1c53 ce3f 1bb1 923e
00000020: ac64 993f 15c9 673f 275b 803f 253d 473f
00000030: fa5a 553f e015 893f 416b 2a40 902a 85be
00000040: 523c bc3c 38cd fc3e 748c a03f efa3 183f
00000050: 1b5e aa3f c8bd a33f 2131 513f c9c5 aa3f
00000060: da9c 013f 92ae 973f 4b50 a03f 2ef0 b13f
00000070: 853c bc3f fe4a c03f f022 863f fa80 583f
1.2309921 1.0577743 1.7075831 1.5623006 1.0384593 1.8822023 1.6119113 0.28650746
1.1983848 0.905412 1.0027817 0.77827674 0.83341944 1.0709801 2.6627963 -0.26009035
0.022977982 0.4937532 1.2542863 0.5962514 1.3309969 1.2792292 0.8171559 1.3341609
0.5062996 1.185015 1.2524503 1.3901422 1.4705969 1.5022886 1.0479412 0.845718

resnet_denoiser/level_0/batch_normalization_8/FusedBatchNormV3 f4 [16]
00000000: 0c87 c4bf cf52 3cbf bd4b 58c0 3fc2 8abf
00000010: 10f7 b9bf 3a79 edbe 13f9 12bf 6165 00bf
00000020: 7d82 2abf 4bf8 36bf 0f05 9abf 9264 10bf
00000030: f076 6ebf 2506 e5bf 2fa6 97bf 821c 65c0
-1.5353713 -0.73563856 -3.3796227 -1.0840529 -1.4528522 -0.4638155 -0.5741131 -0.5015469
-0.6660536 -0.71472615 -1.2032794 -0.5640346 -0.93150234 -1.78925 -1.184759 -3.579865

resnet_denoiser/level_0/batch_normalization_8/FusedBatchNormV31 f4 [16]
00000000: 17a4 1a40 5181 be3f 1cef 5940 511b 2f3f
00000010: 1341 9b3f 906f 343f e352 953f 96ec 0e3f
00000020: 9f34 373f 3085 2a40 0197 1c3f c3e8 513f
00000030: b715 973f 9f35 513f 5d48 7f3f c7b1 6540
2.4162652 1.4883214 3.405219 0.68401057 1.2129234 0.7048273 1.166592 0.5582975
0.7156467 2.6643791 0.61167914 0.8199579 1.1803502 0.81722444 0.9971979 3.5889757

resnet_denoiser/level_0/batch_normalization_9/FusedBatchNormV3 f4 [32]
00000000: 46f9 edbe 4cb3 01bf 2b01 6039 3b81 bdbe
00000010: b7e9 14bf d2dd 03bf 0d89 9fbe 07b6 03bf
00000020: 65c2 20bf 0696 91be 7e4a 32bf bb09 21bf
00000030: 655b 1fbf dff5 00bf c518 11bf cb5a c138
00000040: 9c2e b2be 5b49 a6be fd11 c0be 33e9 cfbe
00000050: e8f5 503a 975b 2ebf 34fe 0cbf c55d bbbe
00000060: ec51 69bf 0375 9cbe 922d 06bf 0982 30bf
00000070: 21cf 1dbf ae21 06bf 0f34 1cbf b6a8 1cbf
-0.46479243 -0.5066421 0.0002136274 -0.37012658 -0.5816912 -0.51510346 -0.3115925 -0.51449627
-0.6279662 -0.2843477 -0.69644916 -0.6290547 -0.6224883 -0.5037517 -0.5667842 9.219869e-05
-0.34801185 -0.3247784 -0.37513724 -0.40607604 0.0007971213 -0.68108505 -0.55075383 -0.36594978
-0.9114063 -0.30558023 -0.52413285 -0.6894842 -0.6164418 -0.5239514 -0.61016935 -0.6119493

resnet_denoiser/level_0/batch_normalization_9/FusedBatchNormV31 f4 [32]
00000000: 29b1 ee3f e3c2 7d3f f969 d8bd 907c 2840
00000010: 7bc8 0e40 db14 eb3f 4986 983f 0e5a 0540
00000020: cd3d c13f b989 bb3f b55c 4840 94c4 e73f
00000030: 6376 0640 acad fd3e 782b 1f40 3dcc 53bd
00000040: 13a2 4a3f 72fa 323f e986 013f fae5 8040
00000050: 288a a6be 2cc5 1c40 0d7b 123f e4fd af3e
00000060: f305 763f e2c0 0d40 0bd4 ab3f 48c3 a13f
00000070: d470 983f f580 ba3f 45cc 3f3f e949 7c3f
1.8647815 0.991255 -0.10567088 2.6326027 2.2309864 1.836574 1.191598 2.0836215
1.5096985 1.4651405 3.1306584 1.8106866 2.1009758 0.49546564 2.4870281 -0.05170845
0.79153556 0.699134 0.5059648 4.0280733 -0.3252728 2.4495344 0.5721901 0.3437339
0.9610283 2.2148976 1.3424085 1.263772 1.1909432 1.4570605 0.74921066 0.9855028

resnet_denoiser/level_0/conv2d_18/Conv2D f4 [16]
00000000: 0000 0000 0000 0000 0000 0000 0000 0000
00000010: 0000 0000 0000 0000 0000 0000 0000 0000
00000020: 0000 0000 0000 0000 0000 0000 0000 0000
00000030: 0000 0000 0000 0000 0000 0000 0000 0000
0.0 0.0 0.0 0.0 0.0 0.0 0.0 0.0
0.0 0.0 0.0 0.0 0.0 0.0 0.0 0.0

resnet_denoiser/level_0/conv2d/Conv2D i1 [16, 7, 7, 3]
00000000: 0100 ff00 00fc 00ff f9fc ff00 0101 fc02
00000010: 0100 0201 fe00 00fd 01fe f705 fef1 0000
00000020: fc06 00f4 0500 fb01 01ff 0000 f704 fdf1
00000030: 0000 00ed 0931 0606 0409 01f8 0302 fefc
00000040: fdfd fefb fbee 062c b50e 7ff3 0e33 0203
00000050: 0000 0300 00ff f804 fff0 0502 00f8 0a2b
00000060: 0608 020a 00f8 0301 fe00 00fd 01fe f806
00000070: 00f3 0200 fe08 00f7 0400 fb01 0100 0100
00000080: fd00 00fd 0200 f900 00fd 0400 f802 00fe
00000090: 0202 ffff 0502 f404 0eea 0608 e302 0be8
000000a0: 0104 f002 06fd 0304 f800 03d7 0212 b5ff
000000b0: 07af fa05 b9ff 0bd1 0113 f506 0ae5 0007
000000c0: b401 0b93 fbf7 9200 e084 fdf5 b2f5 05e7
000000d0: 0002 db00 0caa fe00 92f7 cecf 14b7 8cf5
000000e0: cf9b f403 dafe 01e8 0208 b6f8 008f fbde
000000f0: 8ffd c981 f5e7 b7f9 01e7 0000 f107 0dd2
1 0 -1 0 0 -4 0 -1
-7 -4 -1 0 1 1 -4 2
1 0 2 1 -2 0 0 -3
1 -2 -9 5 -2 -15 0 0
-4 6 0 -12 5 0 -5 1
1 -1 0 0 -9 4 -3 -15
0 0 0 -19 9 49 6 6
4 9 1 -8 3 2 -2 -4
-3 -3 -2 -5 -5 -18 6 44
-75 14 127 -13 14 51 2 3
0 0 3 0 0 -1 -8 4
-1 -16 5 2 0 -8 10 43
6 8 2 10 0 -8 3 1
-2 0 0 -3 1 -2 -8 6
0 -13 2 0 -2 8 0 -9
4 0 -5 1 1 0 1 0
-3 0 0 -3 2 0 -7 0
0 -3 4 0 -8 2 0 -2
2 2 -1 -1 5 2 -12 4
14 -22 6 8 -29 2 11 -24
1 4 -16 2 6 -3 3 4
-8 0 3 -41 2 18 -75 -1
7 -81 -6 5 -71 -1 11 -47
1 19 -11 6 10 -27 0 7
-76 1 11 -109 -5 -9 -110 0
-32 -124 -3 -11 -78 -11 5 -25
0 2 -37 0 12 -86 -2 0
-110 -9 -50 -49 20 -73 -116 -11
-49 -101 -12 3 -38 -2 1 -24
2 8 -74 -8 0 -113 -5 -34
-113 -3 -55 -127 -11 -25 -73 -7
1 -25 0 0 -15 7 13 -46

resnet_denoiser/level_0/conv2d_1/Conv2D f4 [16, 1, 1, 16]
00000000: 0769 a2bf 0a46 923c 1dd3 843b 0b8f d53d
00000010: 346a b0be 6895 0d3e 5c6e 99bd 36f7 ab3e
00000020: 314b f8bd 7b62 ab3d 9cc0 29ba ca23 453f
00000030: 520a acb9 57e2 a3ba 8060 f93e be18 84bd
00000040: d536 5e3e e5ea 8fbc 6518 143e 1a42 303e
00000050: abbd df3a dd6d 20bc 8dfb 99bc 1feb 133e
00000060: a3f1 debe 953a 9ebb 4cd6 6f3f 76f3 023f
00000070: 2271 e1be 0d23 15be ee9b 773e d0fb 1c3a
00000080: 72ee 0bbf 7c17 26bc c26f cd3e b4ed acbe
00000090: 03fc b7bd 482c 9a3c 866e b2be 4f55 81bf
000000a0: 9ea0 f83e 0c9c 8bba e395 503b 2f61 2cbd
000000b0: 4123 9c3d cb86 8bbf 6d82 9d3e bcde bfbc
000000c0: 6fc6 8d3e 69b5 d4bb b604 ae3d 2b4b 54bd
000000d0: b7d3 be3e 8229 dc3c 14e9 b5bd 7de8 97be
000000e0: 8005 b73a 3981 c33e a8ce c2be df04 993f
000000f0: 1e78 8b3f d56f 2bbd 6410 dfbd 74c2 143f
00000100: 4725 c83a 8560 b23d b96d c63e f0bb c13a
00000110: bf66 debe 4594 453a 703a ad3d 6601 24be
00000120: e277 ed3d 6499 743b e187 7b3f 6401 a13e
00000130: c2cb 8ebe 6597 483e c628 583b 8203 363b
00000140: 67c4 b2be 4e2c 3f3d bbd1 16be eeb1 40bc
00000150: 97eb 87be 0bfb 993b 8a38 adbb 58b0 a93e
00000160: 6fa9 edbb 67a3 f2bd 6511 113f ec90 a4bf
00000170: 3334 92bf 0712 a53d 26db 9c3d 76b3 0ebf
00000180: 5a4b 1539 2a68 93bd 8a2c 74bc 3582 28be
00000190: 5fd7 c7bc 4999 dbbe 593f 6a3e 3035 b43d
000001a0: 17cc 75bd 1825 433b aab4 833b 5b01 a1bc
000001b0: 1f89 39bc 3ad9 fd3d 7e1d 20be f7b6 503e
000001c0: c64b 403e 0fd3 3b3f d1a6 16be 379b 23bf
000001d0: a9dd 13bf e0b0 403f 025a 4b3f 7c62 eb3e
000001e0: 408a 0b3f 52ea 923e bf1c a43e 326e b43e
000001f0: 30ec 843e 60fa a8be 9065 80bf cf8e 90bd
00000200: f606 203a a738 b63e dd72 b2bb a444 5bbe
00000210: 4394 aa3e 7424 e13e 5e87 c53d e627 9d3e
00000220: 5d35 263e 142e 9b3e c5fc 24bf 0f4e 50be
00000230: 18f9 833d 3cb7 4abd 69a5 b8be 2d17 463a
00000240: 1b65 debd 14b5 bb3c 9b2c 25be 359c 03bf
00000250: ceff bebf 9176 583f c00d 043e d7a1 4a3e
00000260: 8be2 ec3e 52f5 51bd a409 293d 6928 243f
00000270: 6769 b73e 9975 aebd e199 23bf 2136 e83c
00000280: bbfc a53f 952b 4b3d dbe9 06be c530 38be
00000290: b581 b53e ef3b 4cbe 1474 243e 1abe 9fbe
000002a0: fc30 0e3e 4aae 02bd 636f e93c cb25 43bf
000002b0: 7413 4f3a 0d99 9abd 9c10 13bf d6ed 1e3e
000002c0: fcd8 dbbf 2ae8 00bb 90aa e73e ef60 a9be
000002d0: 67d3 62bf e21f f43d 7305 bcbe f91a 193f
000002e0: 6183 86be 9915 82be 2513 fbbe d60b 9f3f
000002f0: 625a a5be cf39 0f3d e883 4f3f 5511 d83d
00000300: dffe 9a3f 2706 0b3d 8e8d 04be 5252 153d
00000310: 2882 bf3e 0654 183e 8bc3 2d3e 474e b9be
00000320: 92d3 913e 92c3 093e 52ea ec3c ef66 12bf
00000330: 442f 01be 926f a6bd 4ebc cebe 0401 c4bb
00000340: c8ff 49be e558 26bf 517f b03d 6ca1 3b3f
00000350: 723e 153f cb2f 70bf ecf7 47bf 46e3 00bf
00000360: 18f3 fabe 720e 45be 5308 e6be d0ac a6be
00000370: 84b4 afbe 2762 b73e 423f 853f 69c6 f93d
00000380: 79cb c03e 3d3d ccbd 9fbf ccbd b59a 8d3e
00000390: 941a f43c b12c aa3d 6362 e73c 6501 283f
000003a0: a572 afbe 73b0 853d 428d 08b9 db89 b3bc
000003b0: 2098 033b 0a40 443f 48eb 35be ef13 1c3d
000003c0: 3d9f 6c3e c71f 5b3b 4f7c 0fbd 4644 babe
000003d0: cc4e 953b f9b4 f83a da1c d0bd 60fd 1dbc
000003e0: 6ffd 1ebc 445a 8dbc 2516 fe3c 8d8f fabc
000003f0: 45ec 5fbe 4a21 e13c c1d8 923e a58c 603e
-1.2688302 0.017855663 0.004053487 0.10427674 -0.34456027 0.13826525 -0.074917525 0.33587044
-0.121237166 0.08368393 -0.00064755394 0.77007735 -0.00032814086 -0.0012503368 0.48706436 -0.06450032
0.21700604 -0.017568061 0.14462431 0.17212716 0.0017070075 -0.009791818 -0.018796707 0.1444516
-0.4354373 -0.004828761 0.93686366 0.5115274 -0.44031626 -0.14564152 0.24180576 0.0005988451
-0.54660714 -0.010137435 0.40124327 -0.33775103 -0.08983614 0.018819943 -0.34849948 -1.0104159
0.4856004 -0.0010651364 0.003182762 -0.04208487 0.07623912 -1.090051 0.3076357 -0.023421638
0.27690455 -0.0064913523 0.08496992 -0.0518295 0.372709 0.026875261 -0.08882347 -0.29669562
0.0013963431 0.38184527 -0.3804829 1.1954612 1.0896032 -0.0418547 -0.10891798 0.5810921
0.0015269899 0.08709816 0.38755587 0.0014780741 -0.43437764 0.00075370475 0.08458412 -0.16016158
0.115951315 0.0037322873 0.9825421 0.31446373 -0.2788983 0.19589002 0.0032983287 0.0027773087
-0.34915468 0.04667311 -0.14728443 -0.011761172 -0.26546928 0.004699116 -0.005286281 0.33142352
-0.007252864 -0.11847573 0.56667167 -1.2856727 -1.142218 0.08060079 0.07658987 -0.55742586
0.00014237818 -0.07197602 -0.014903197 -0.1645592 -0.02439469 -0.42890385 0.22875728 0.08799207
-0.06000909 0.0029776748 0.0040193396 -0.019653967 -0.011324196 0.12394948 -0.1563625 0.20382296
0.18778905 0.73368925 -0.14712073 -0.63908714 -0.577601 0.7526989 0.79434216 0.45973575
0.5450783 0.28694397 0.32053182 0.35240322 0.25961447 -0.3300352 -1.0030994 -0.070584886
0.0006104553 0.35590097 -0.0054458217 -0.21412903 0.3331624 0.43973124 0.0964496 0.30694503
0.16231294 0.30308592 -0.64448196 -0.20342277 0.06443995 -0.049491152 -0.36063698 0.0007556554
-0.10859128 0.022913493 -0.16130297 -0.5141023 -1.4921815 0.8455592 0.1289587 0.197883
0.4626659 -0.051259346 0.04126896 0.6412416 0.35822603 -0.08518524 -0.63906676 0.028346123
1.2967752 0.04960211 -0.13175146 -0.17987354 0.3545052 -0.19944738 0.16059905 -0.31199723
0.13885874 -0.031904496 0.028495496 -0.7622954 0.0007899322 -0.07548723 -0.5744722 0.15520415
-1.7175593 -0.001966963 0.45247316 -0.33081767 -0.88603824 0.11920144 -0.36722907 0.5980678
-0.2627211 -0.25407103 -0.49038044 1.2425487 -0.3229552 0.03496724 0.8106065 0.10550181
1.210903 0.033941414 -0.12944624 0.03645546 0.3740399 0.14875802 0.16969125 -0.36192533
0.28481728 0.1345351 0.028920326 -0.57188314 -0.12615687 -0.08126749 -0.4037804 -0.0059815664
-0.19726479 -0.6497939 0.08618034 0.73293185 0.5829841 -0.93822926 -0.78112674 -0.5034679
-0.4901359 -0.19243792 -0.44928226 -0.3255372 -0.3431741 0.35817072 1.040993 0.12196047
0.37655237 -0.09972618 -0.09997486 0.27657095 0.02979783 0.083093055 0.028245157 0.6562713
-0.34267154 0.06527796 -0.00013022593 -0.02191632 0.0020079687 0.76660216 -0.17765534 0.038104948
0.2310762 0.0033435689 -0.03503066 -0.36380213 0.0045565125 0.0018974832 -0.10161753 -0.009642929
-0.009703978 -0.017254956 0.031016419 -0.030586028 -0.21867473 0.027481694 0.28680995 0.21928652

resnet_denoiser/level_0/conv2d_17/Conv2D f4 [32]
00000000: 0000 0000 0000 0000 0000 0000 0000 0000
00000010: 0000 0000 0000 0000 0000 0000 0000 0000
00000020: 0000 0000 0000 0000 0000 0000 0000 0000
00000030: 0000 0000 0000 0000 0000 0000 0000 0000
00000040: 0000 0000 0000 0000 0000 0000 0000 0000
00000050: 0000 0000 0000 0000 0000 0000 0000 0000
00000060: 0000 0000 0000 0000 0000 0000 0000 0000
00000070: 0000 0000 0000 0000 0000 0000 0000 0000
0.0 0.0 0.0 0.0 0.0 0.0 0.0 0.0
0.0 0.0 0.0 0.0 0.0 0.0 0.0 0.0
0.0 0.0 0.0 0.0 0.0 0.0 0.0 0.0
0.0 0.0 0.0 0.0 0.0 0.0 0.0 0.0

resnet_denoiser/level_0/conv2d_2/Conv2D i1 [32, 3, 3, 16]
00000000: 05f5 81e8 01d7 0302 eb07 fff2 fc06 1b02
00000010: 00f9 02c2 0823 03fb 0102 fcfe 0103 ffff
00000020: 0602 cc04 fcff 1606 0300 ffff fe02 23ff
00000030: 03f9 ff19 04b6 0001 14fb ff00 0000 11ff
00000040: 0001 6100 040a 011d 0100 fe03 01e3 b3ff
00000050: 0015 fd08 fa00 0000 0206 00ff 00f9 feff
00000060: 0004 ceff 001b e400 0900 00fc 0000 132d
00000070: 0002 01fe 0003 00f8 0301 0000 ff07 ee00
00000080: 0301 f200 fb01 0004 0500 01ff fe02 3404
00000090: e7ff 6ffc 0000 00e0 0116 1ffa 0011 97f5
000000a0: 00fc 0700 01fe 02dc 0430 00f5 fd18 deff
000000b0: fcf7 0064 fe84 00e8 0106 02fb 0107 fbbc
000000c0: 00ef 00ea 001f 03d3 011b fffa fb1e feff
000000d0: 04ee fd00 03fe 08b6 d63e 006a 8855 01ff
000000e0: 01f2 fd2d 04e3 09df 011e 00f1 fe12 04ff
000000f0: e300 f48e 017e 0adf fe00 1001 f70d fdf7
5 -11 -127 -24 1 -41 3 2
-21 7 -1 -14 -4 6 27 2
0 -7 2 -62 8 35 3 -5
1 2 -4 -2 1 3 -1 -1
6 2 -52 4 -4 -1 22 6
3 0 -1 -1 -2 2 35 -1
3 -7 -1 25 4 -74 0 1
20 -5 -1 0 0 0 17 -1
0 1 97 0 4 10 1 29
1 0 -2 3 1 -29 -77 -1
0 21 -3 8 -6 0 0 0
2 6 0 -1 0 -7 -2 -1
0 4 -50 -1 0 27 -28 0
9 0 0 -4 0 0 19 45
0 2 1 -2 0 3 0 -8
3 1 0 0 -1 7 -18 0
3 1 -14 0 -5 1 0 4
5 0 1 -1 -2 2 52 4
-25 -1 111 -4 0 0 0 -32
1 22 31 -6 0 17 -105 -11
0 -4 7 0 1 -2 2 -36
4 48 0 -11 -3 24 -34 -1
-4 -9 0 100 -2 -124 0 -24
1 6 2 -5 1 7 -5 -68
0 -17 0 -22 0 31 3 -45
1 27 -1 -6 -5 30 -2 -1
4 -18 -3 0 3 -2 8 -74
-42 62 0 106 -120 85 1 -1
1 -14 -3 45 4 -29 9 -33
1 30 0 -15 -2 18 4 -1
-29 0 -12 -114 1 126 10 -33
-2 0 16 1 -9 13 -3 -9

resnet_denoiser/level_0/conv2d_3/Conv2D f4 [16, 1, 1, 32]
00000000: 3f35 3e3e e184 1b3d 0759 3d3e 5213 abbc
00000010: e06a 1e3d a3c7 1dbc 475b 8e3e ae36 043e
00000020: 0e37 783d 53c5 0cbe 2fb3 0bbf f0b3 a73d
00000030: a02a c8bd bb4b 93be 4be4 8cbe 8788 19be
00000040: d8bf 0a3e 1c39 3a3e d63a 81bc 0ccf 93be
00000050: fbd9 12be d0d2 b23d 34d9 8bbd 4e46 433e
00000060: d7fe 15be 0c5c 93bd 998a a03d fcbe 30be
00000070: a896 123d ace6 0d3e 2993 66be 66fd 533d
00000080: 45ad 3dbc a909 c7bd c75b a2bd 690a abbb
00000090: ab43 e9bc 0244 123e 208c d7bd fda1 05bd
000000a0: d8cb a23a a3e0 b4bd 6945 8e3d ef04 acbd
000000b0: 496b 063d fe6e 383e d300 f83b f2ca f93c
000000c0: f82c 443d 0f9e 8abc 95ae 1dbd edb0 483d
000000d0: c067 56bd b9fd dbbc 003b bc3c c90f 42bc
000000e0: b9b1 fa3b 3b06 c53c 5a51 a33b 8075 063d
000000f0: ee5d cc3c db1e 9c3a d719 be3d b590 e4bb
00000100: dce0 14be af9e 0dbd 458e 6d3d adc2 88bd
00000110: 578d 4ebe 8d9e 13be 8f13 7d3e 5bc6 89be
00000120: 9f35 b33d fd37 97be f45f b3bd 21bf 26bb
00000130: c85a d13d b52b d4be 4242 083c e23d 83bd
00000140: c166 a53e 1971 893d 6758 cf3c c44f 0bbe
00000150: cdf6 e6bd fee5 b83c 66b7 d83d c3ad 9bbc
00000160: 5884 023e e621 fd3d 0895 923c 99f4 86be
00000170: cabd b13d 8311 34bd a040 b5bd c323 f3bc
00000180: 4498 913b edeb b73e 3d46 eb3e 2367 053e
00000190: f808 2b3c 81d7 04bf d621 ee3e 74a3 45be
000001a0: 757e c5bc f356 993d 0c12 f7bd a029 2b3e
000001b0: baf2 5ebd ecd6 3ebf f6b3 72be 7349 16be
000001c0: 7d72 bfbd 50f3 d43e 482b 7fbe 36ae c0bf
000001d0: 24be 073f d24c ef3d b5a4 ab3e 16e3 6dbe
000001e0: 50e6 333f 7ec3 d63d e971 bbbe 03c2 cabe
000001f0: 5667 1d3d fe73 c53e b303 0dbe 5405 79bd
00000200: b097 30bf 3880 383e 10fd 91bc 7e84 87bd
00000210: 5ca9 1bbf bea3 edbd 0bd7 72be e66f 57bf
00000220: 94df d83e 3e49 9b3e 7c34 ad3e 7ecc e9ba
00000230: 2a02 4e3e 6d48 5fbf 7794 5d3f c782 a83d
00000240: a92e a7be 3cb9 ca3d 06dc 123f 1789 8cbe
00000250: 9ed0 89bf 988e 1bbc 9dbe b93e f4d6 bfbe
00000260: 0639 973e a06e cebe d107 ee3e 6594 553d
00000270: f8ab d4bc 53d0 b33d 8511 59be 85f0 023e
00000280: 21e9 9b3c f477 87bd 493a 3abc 94fc c43c
00000290: e806 dbbc 8e03 013e 25f6 9cbd ba68 f8bb
000002a0: 960a c33c f790 6b3b c9c0 863b ad53 4b35
000002b0: dec9 0bba f7b2 573e 3150 47b9 5102 963c
000002c0: cdfe 853b 7e69 bdbc 99bc 04bd c394 7b3c
000002d0: 7fd9 1e3d 0ce9 1d3c f13f 2dbe 5c3f 613a
000002e0: fea1 973d 66ed b2bc cb5b 24bd 1518 513c
000002f0: 2ebf 9aba d60e e9bb 8906 c63d aed5 a9bb
00000300: 2893 293d cb83 d63b 3a57 773b 65cd 1bbb
00000310: 0c9e 453d fda9 1fba 145b ff3c 2e87 233d
00000320: 34ec f93b a420 343d c1f3 c33b 4973 03bd
00000330: 145b 1f3c 9723 f3bd b4ba fc38 d575 40bd
00000340: fd6c c2bc d087 13bd de69 26bd 2468 c83d
00000350: 6829 9ebd 163a 20bb b1bb 403e 5262 ecbc
00000360: 5d14 c5bd be35 1abd a78b 243d 4caa 7e3c
00000370: b9a7 b53c c88f d53d 5d73 5ebd 5936 3b3c
00000380: 9630 963e e749 a53e adf5 c5ba 7fd0 afbd
00000390: fed4 7cbc e773 f9be 3233 52be fe22 9dbe
000003a0: f422 a23e aeed f93e b435 303a be4f 813c
000003b0: 8043 df3b f9dd 9dbe b475 bd3e 7994 893c
000003c0: a5e1 cebe cdab 0bbe 2c51 c0bd 7895 d0bd
000003d0: 7a59 343b b4ae 013c be46 e23e 8995 5e3d
000003e0: 761d 183f a6b1 97be 1e41 24be c069 f93d
000003f0: 7510 003e a1bf 313f 033b 493e 1725 85bc
0.18575 0.03796852 0.18490992 -0.020883236 0.038676143 -0.009630117 0.27804014 0.12911484
0.06059938 -0.13747148 -0.5457029 0.08188617 -0.09773755 -0.28768715 -0.27517924 -0.14993487
0.13549745 0.18185848 -0.015775125 -0.28868902 -0.14340965 0.087316155 -0.068285376 0.19069788
-0.14647995 -0.07195291 0.078389354 -0.17260355 0.03578821 0.13857526 -0.22517075 0.05175533
-0.011576955 -0.097186394 -0.079276614 -0.005219747 -0.02847465 0.14283755 -0.105247736 -0.032625187
0.0012420369 -0.088319086 0.06946833 -0.083993785 0.03281716 0.1801109 0.0075684576 0.03049228
0.047894448 -0.016921071 -0.038496573 0.048996855 -0.052345037 -0.026854383 0.022977352 -0.011844584
0.0076505807 0.024050822 0.004984063 0.0328269 0.024947133 0.0011911051 0.09282272 -0.0069752582
-0.14538902 -0.03457516 0.057997007 -0.066777565 -0.20171104 -0.14415951 0.24714492 -0.26909146
0.08750462 -0.29534903 -0.08758536 -0.0025443512 0.10222393 -0.41439596 0.008316578 -0.064082876
0.32304958 0.06711025 0.025310708 -0.13604647 -0.11277542 0.022570606 0.105818555 -0.019003754
0.12745798 0.12359981 0.01789333 -0.26358488 0.086787775 -0.043962013 -0.08850217 -0.029680138
0.0044432003 0.35922185 0.45952025 0.13027625 0.01043915 -0.5189133 0.4651019 -0.19300634
-0.024108151 0.07487287 -0.12063989 0.16715097 -0.0544307 -0.74546695 -0.23701462 -0.14676456
-0.09348009 0.41591883 -0.24918854 -1.5053165 0.53024507 0.11684574 0.335241 -0.23231158
0.70273304 0.10486506 -0.36610344 -0.39601144 0.038428627 0.38565058 -0.13770942 -0.060796097
-0.68981457 0.18017662 -0.017820865 -0.06617068 -0.60805297 -0.11603497 -0.23714845 -0.8415512
0.42358077 0.30329317 0.33829105 -0.0017837433 0.20118013 -0.8721989 0.86554664 0.08228069
-0.32652786 0.09898612 0.5736698 -0.2744834 -1.076679 -0.009494446 0.3627824 -0.37468684
0.29535693 -0.40318775 0.46490338 0.052143473 -0.025960907 0.08779969 -0.2119809 0.12787063
0.019032063 -0.06614676 -0.011366435 0.02404622 -0.026736692 0.12599012 -0.07664136 -0.0075808438
0.023808759 0.003594456 0.0041123373 7.574516e-07 -0.000533251 0.21064363 -0.00019007993 0.018311651
0.0040892125 -0.023121592 -0.032406423 0.015355292 0.03878164 0.009638082 -0.16918923 0.000859251
0.074039444 -0.021841716 -0.040126603 0.012762089 -0.0011806244 -0.0071123643 0.09669215 -0.0051829433
0.041400105 0.0065464727 0.00377412 -0.0023773548 0.04824643 -0.0006090699 0.03117136 0.03992384
0.0076270346 0.04397644 0.0059799855 -0.032092366 0.009726305 -0.118720226 0.000120510726 -0.046987373
-0.02373361 -0.036018193 -0.040628307 0.09785488 -0.07722741 -0.0024448684 0.18821599 -0.028855477
-0.096230246 -0.03764891 0.040172245 0.015543532 0.022174703 0.10427815 -0.054309238 0.011426532
0.29333943 0.32282946 -0.0015103124 -0.08584689 -0.015431641 -0.4872124 -0.20527342 -0.3069076
0.31667292 0.48814148 0.00067218696 0.015785094 0.0068134665 -0.30833414 0.37003863 0.01679443
-0.40406528 -0.13639756 -0.09390482 -0.10184759 0.0027519152 0.007915188 0.44194597 0.054341827
0.59419954 -0.29627723 -0.16040465 0.12178373 0.12506278 0.6943303 0.19651417 -0.016253037

resnet_denoiser/level_0/conv2d_4/Conv2D f4 [16, 1, 1, 16]
00000000: 107e d3be fcad da3e c814 363f 8766 893d
00000010: f150 a9bd 7334 acbc 074f 833d 1208 edbd
00000020: 9392 673e 791a 87bd 34f2 8a3e 6f52 32bf
00000030: a63f b1bd 2eea c5be 43c0 fdbd 285b 813e
00000040: 3383 bdbc 5a9f 143e 991c d03d 05bd d33d
00000050: da1a a0bd d310 46bd a254 083e 1fbe d83e
00000060: ab34 16be db2c 483c 0900 3f3e 8305 16be
00000070: 0d89 5abe 5ab1 f43d 7a95 06be 92fd 8bbe
00000080: bf98 f4be d0d0 e33d 2c14 bfbe cee5 6ebc
00000090: 3028 78bd 3dc2 68bd 3c3c 88bc 36d4 883d
000000a0: 669f 09be 4182 b6bd 6d07 fa3c 1760 403e
000000b0: 7fd4 1fbd f11d 263c d675 ee3e 0e03 30bc
000000c0: 154a f83c a041 bbbb fa92 1cbe 1438 08bc
000000d0: 04d9 e7bc 71e7 fd3e e7c0 6cbe b8ff 27be
000000e0: 815e 823e b947 cd3e f975 a33d eec6 5a3d
000000f0: 5825 483d 74bc 583e f903 153c ea69 f53d
00000100: 1012 aabd 1a14 abbd 234f 073e a60e 8c3e
00000110: 80c0 13bf 8e9b 2cbf 5412 48be c031 6abb
00000120: 2284 20be 5dd6 98be aac1 20bf 1cdd 863c
00000130: 187f f8bd b8dd 353e 5f7e 913e 1fd4 293e
00000140: fe9a 093f 7d97 c2be b703 61bf 8c7c c2bd
00000150: 5352 833d 7cb2 c9bc cad2 b3bb 8862 bd3d
00000160: de71 3fbe 4970 963d 706e c8be db97 683f
00000170: e165 fe3d 1e58 c23e 8495 fe3d 9127 73be
00000180: cdcb f3bd 86da ddbd 5424 34bb af1f c8be
00000190: be3e 22be 5919 dabd 2a85 a2be 943a b03c
000001a0: af76 dcbe dd52 8ebe 6d85 8e3c 2f31 a43d
000001b0: 3448 a7be dea4 d1bd 596b ff3e 4860 3b3e
000001c0: 97c1 8c3c 8523 d93e 4e04 a93d 56ab 65bd
000001d0: 1279 eb39 b5a8 fc3c dc8d 053f 30c8 813e
000001e0: 1bb3 a53e 35df e83d 2691 06bf 0b76 1dbc
000001f0: 4ca2 4f3e de52 00bd 29e8 a1be 883f 913e
00000200: 0e2b 7ebe 5af9 acbe 3b34 6cbe a00c 123d
00000210: 5c2e 083e 720b bb3d ac64 3dbe d681 21be
00000220: 5fe2 9d3d a094 abbe 67cf 3fbf 1568 a2be
00000230: 4db5 c63d a8a8 66bb a8dd 4f3e 72c9 d63d
00000240: b79a 5d3e 14c8 003f 5ce2 583e ae80 4a3e
00000250: 5432 16be 655b 1abe 530e e73e a420 cc3e
00000260: 8fef 4dbe 0fb3 063b 7afb b73e f349 383f
00000270: 1760 82be f6b1 c2be f1a4 34bc 7b12 4b3e
00000280: 810d 65bd de79 1e3d be21 363d 4620 c4bd
00000290: f2f7 373f 54bc dd3a 9b17 a3bc 44f7 843e
000002a0: 0191 bcbe de8b 403c 58fe 163e 0a82 31bf
000002b0: bc47 8f3e 8875 923e 4e7a 20be 6efc 943e
000002c0: 802a c2bd a35d f3bd 55f8 9c3e 7bb0 4bbe
000002d0: 036d 22bd a0e8 883d e812 97be ccf0 17bf
000002e0: 06ac 7a3e 91aa 1cbd 8488 a9be 9ed8 153e
000002f0: ee84 633e 019a eebd abec 733e 8247 513e
00000300: eabb 5abd 46fc 7f3b a50b 72bd b7ff 123e
00000310: 024d 61be b2f6 7d3e 6170 0b3d 63bb 953c
00000320: 6bd9 733e a4d0 743d 9972 67bf c7a8 db3b
00000330: f148 f53e 45ec 5cbe e378 79be ed1e d63e
00000340: f89c 9fbf ce6d 1d3e 2745 c0be 059e 82be
00000350: ec4f 52be 325d d3ba d9ee f7bc 6039 c33d
00000360: 4df8 9abc 1d8a ffbd 5ade b53d 93ce 3f3f
00000370: b19e a9be b01e 623e b098 883e 0cca 083e
00000380: e5d7 923f 581d ecbd 471a c73e d184 493e
00000390: c3d7 013e d67f ac3d 723d 433c 9c46 e6bc
000003a0: e136 4b3d 1ba6 e33d 07d0 1ebe ed3b 16bf
000003b0: 4195 593e 198a 75be fcd0 96be 05af 63bd
000003c0: 1a6a 893f 0c48 d7be d3b1 ef3b 39fe 01bb
000003d0: 1071 5bbe fdc6 e5bd 3158 a9bd 64c7 a3be
000003e0: 3fdf eebd a8fe 18bd 584d 6e3e 3c9a 4f3b
000003f0: 5ecb 23bf fcae e2be 8111 3dbe 8870 10be
-0.41307116 0.42710865 0.7112546 0.06709009 -0.082673915 -0.021021103 0.06411558 -0.11573805
0.22614507 -0.06596846 0.2713791 -0.69657034 -0.08654718 -0.38655227 -0.12390187 0.2526486
-0.02313385 0.14513913 0.101617046 0.10338787 -0.078176215 -0.04835589 0.13313535 0.4233255
-0.14668529 0.012217726 0.18652357 -0.1465054 -0.21341343 0.119478896 -0.13142958 -0.27341896
-0.47772786 0.11123812 -0.37320077 -0.014581157 -0.0605852 -0.056825865 -0.016630284 0.06681101
-0.13439712 -0.08911563 0.030521119 0.18786655 -0.03902101 0.0101389745 0.46574277 -0.010742916
0.030308763 -0.00571461 -0.15290442 -0.008314151 -0.028301723 0.49590638 -0.23120461 -0.16406143
0.25462726 0.40093783 0.07981486 0.05341237 0.04886374 0.21165639 0.009095185 0.11983092
-0.083042264 -0.083534434 0.13213782 0.27354926 -0.57715607 -0.6742486 -0.19538242 -0.003573522
-0.15675405 -0.29851046 -0.6279551 0.016462855 -0.12133616 0.1776036 0.28416726 0.16584824
0.53752124 -0.380062 -0.87896293 -0.09496412 0.064121865 -0.02462124 -0.0054877745 0.09247309
-0.1869578 0.073456354 -0.39146757 0.90856713 0.124217756 0.37957853 0.124308616 -0.23745562
-0.11904106 -0.10832696 -0.0027487474 -0.39086673 -0.15844247 -0.10649366 -0.3174222 0.021512307
-0.43059298 -0.27797595 0.017397607 0.080171935 -0.32672274 -0.10236524 0.49886587 0.18298447
0.017182155 0.42409912 0.08252774 -0.0560716 0.00044912897 0.030842165 0.52169585 0.25348043
0.3236321 0.11370698 -0.5256523 -0.009610663 0.20276755 -0.03132903 -0.31622437 0.28368783
-0.24821112 -0.3378399 -0.230668 0.03565657 0.13298935 0.091330424 -0.18495435 -0.15772185
0.077091925 -0.3351183 -0.74925846 -0.31720033 0.09702549 -0.0035195742 0.20299399 0.104876414
0.2164105 0.50305295 0.21180099 0.1977565 -0.14667636 -0.15073927 0.45128116 0.39868653
-0.20110916 0.0020553505 0.3593405 0.7198784 -0.25463936 -0.38026398 -0.011025653 0.19831268
-0.05592108 0.03869044 0.044465773 -0.09576468 0.7186271 0.0016917088 -0.019908717 0.259699
-0.3682938 0.011752097 0.14745462 -0.6933905 0.27984416 0.28605294 -0.15671656 0.2909884
-0.094807625 -0.11883094 0.30658212 -0.1989154 -0.039654743 0.06684995 -0.29506612 -0.593518
0.24479684 -0.038248602 -0.33111966 0.14633414 0.22218677 -0.11650468 0.2382075 0.20437434
-0.053401865 0.0039060279 -0.059093136 0.1435536 -0.22002032 0.24801138 0.03404272 0.01827783
0.23813407 0.059769288 -0.9040924 0.0067034694 0.47907212 -0.21574505 -0.24362521 0.4182047
-1.2469778 0.15373918 -0.3755276 -0.25511184 -0.205383 -0.0016125797 -0.030265259 0.09532428
-0.018917227 -0.12477515 0.08880301 0.7492458 -0.33128884 0.22082019 0.2667899 0.13358325
1.1472136 -0.115290344 0.38887236 0.19679572 0.12679963 0.0842282 0.011916505 -0.028109841
0.049612883 0.111156665 -0.15509044 -0.5868519 0.21248342 -0.23978461 -0.29456317 -0.055586834
1.0735505 -0.42047155 0.0073148995 -0.0019835366 -0.21429849 -0.11219595 -0.08268774 -0.3198806
-0.116636746 -0.037352234 0.23271692 0.0031677624 -0.6398219 -0.44274127 -0.18463708 -0.14105427

resnet_denoiser/level_0/conv2d_5/Conv2D i1 [32, 3, 3, 16]
00000000: e505 01eb c608 01e1 fafe 04fa f801 fffe
00000010: f9df 01f6 e601 f2fc f1eb 07fe ee01 f9dc
00000020: 0900 fdc7 c9e1 eed9 f4f8 0224 ff02 0201
00000030: 0ffe 00fe 01ff c5d2 06fe 0af0 fa02 f5e5
00000040: fbfa fffc 0aff 00a7 0681 ffea f001 f6ec
00000050: 00d3 00fa d2fd ceff e000 0eff fa02 fcd6
00000060: fdfe 01f7 c300 00da f501 15e4 fc03 02f8
00000070: fcdd 00fc fbff d4e5 01fb 01ff fc00 fbe2
00000080: 09fd 00f9 a0f7 fccb fc00 0619 eb03 06e9
00000090: fbe6 0102 ff24 fe37 fffa 000f fffc ff01
000000a0: 2eff 0004 fefa 0112 ff0b 0028 000c ff24
000000b0: 5bba 0001 fecf 0001 f9fa 0001 0000 0101
000000c0: fba8 0501 f625 f303 669d b55a 10ff f1f7
000000d0: feff 0d02 fffb fe02 03c1 f451 16fc f8ff
000000e0: 0201 00d5 fefe fc00 31b9 af48 1100 f701
000000f0: fcf7 0302 ff6f ff2c f701 0181 0005 06ff
-27 5 1 -21 -58 8 1 -31
-6 -2 4 -6 -8 1 -1 -2
-7 -33 1 -10 -26 1 -14 -4
-15 -21 7 -2 -18 1 -7 -36
9 0 -3 -57 -55 -31 -18 -39
-12 -8 2 36 -1 2 2 1
15 -2 0 -2 1 -1 -59 -46
6 -2 10 -16 -6 2 -11 -27
-5 -6 -1 -4 10 -1 0 -89
6 -127 -1 -22 -16 1 -10 -20
0 -45 0 -6 -46 -3 -50 -1
-32 0 14 -1 -6 2 -4 -42
-3 -2 1 -9 -61 0 0 -38
-11 1 21 -28 -4 3 2 -8
-4 -35 0 -4 -5 -1 -44 -27
1 -5 1 -1 -4 0 -5 -30
9 -3 0 -7 -96 -9 -4 -53
-4 0 6 25 -21 3 6 -23
-5 -26 1 2 -1 36 -2 55
-1 -6 0 15 -1 -4 -1 1
46 -1 0 4 -2 -6 1 18
-1 11 0 40 0 12 -1 36
91 -70 0 1 -2 -49 0 1
-7 -6 0 1 0 0 1 1
-5 -88 5 1 -10 37 -13 3
102 -99 -75 90 16 -1 -15 -9
-2 -1 13 2 -1 -5 -2 2
3 -63 -12 81 22 -4 -8 -1
2 1 0 -43 -2 -2 -4 0
49 -71 -81 72 17 0 -9 1
-4 -9 3 2 -1 111 -1 44
-9 1 1 -127 0 5 6 -1

resnet_denoiser/level_0/conv2d_6/Conv2D f4 [16, 1, 1, 32]
00000000: ae5e babc d0b1 a33d a391 b5bc 54f4 bb3d
00000010: 79cc 4a3e 5260 a9bc 522a 9a3c 7c5c 72be
00000020: 7c0f 9cbc b858 85bd fac1 643c f1f4 0fbd
00000030: af39 b83d d1f2 1fba e4b0 62be dc2f 79bd
00000040: 09d5 a73d 794b 85bc a75e 123e fdaa 45bd
00000050: be57 0c3e 6589 4d3d c45e 91bd 4ebd 27be
00000060: d3f0 06bd 375e 883a a09d 9fbd 4ed6 663d
00000070: 1b90 dcbc 26b8 85bd fdbe b7be cb6c 233d
00000080: e4f6 8c3b dd83 bbbc e1a3 9fbc 69ae 13bd
00000090: c5cc 1e3b 0a0c 723b 94bb 88bc 7d9a 403c
000000a0: 1c21 ef3a 4b20 14bb d85d 5a3c ef1c 99bc
000000b0: fef6 0cbc fb48 b2ba 5098 b73c 26f4 9eba
000000c0: 8bb5 55bc 4559 5d3b 66ba 13bb 84e4 313b
000000d0: eaad 24ba 20c0 113c 7172 17b9 473f b4b5
000000e0: 42c1 193b e0e3 0f3b a10e af3a 2764 8b3c
000000f0: c871 843c 1b23 49bd c64a 6f3c 1895 24bb
00000100: e0e1 083d 953d b3bd 6291 c63d 511f 383e
00000110: 82af c0bd 1df8 cc3c 19d8 8ebd 1c8d a4bb
00000120: f741 ef3a 6cb6 11bc f0b8 0bbe 866a 39bc
00000130: 1fec 2fbd b5c1 91bc 865a 363e 116b be39
00000140: 74ad ba3c 2a9b 05bd ce3b 73bc ccc4 42bd
00000150: 1443 d73a a31d e4bb 5cdf 63bc ee1e e43b
00000160: af05 e7bc c9cc b9bd e307 4a3c 422c bb3c
00000170: 6a8b 79bd 7239 b3bc c4a7 adbc e1ff 98bc
00000180: 65e9 643d 38f4 7c3b d5c4 703d 0ab9 733e
00000190: edb8 43bc 146b f4bb 99ef 893c 92ec 193d
000001a0: 1d94 be3d b10c bcbd 8b27 1bbe 5e2c 2bbd
000001b0: 1f06 82be 21c3 00bf 3302 933e 32a5 2dbf
000001c0: 8f2c c8bd 79a1 63bb 0bd4 2dbe f5bd 153d
000001d0: 8e41 063e 7e49 5ebd 1289 1abe 5574 58bb
000001e0: aaab ed3d 805f 98be 6bfa 2fbd 6385 1dbe
000001f0: 6d61 91be a362 283e bd7e a63e c22c 7b3e
00000200: 7ce8 0d3e f3b7 56bc 5057 e6bc b55b 08be
00000210: 2be8 f0ba 703c 943d 9b66 fcbc ed03 48be
00000220: cd59 dbbd 53c9 c1bd 61e4 77bd 2bea cb3e
00000230: 0ef9 443e bad7 933d 9c12 573e eee4 bd3d
00000240: 7f91 763e f348 18bf 7ee8 20bc 8737 74bb
00000250: aafe 45be 9b0e 653b 652f c13c dfa0 963d
00000260: d2c7 66be 3786 a33b 4a3c b03d bb41 80be
00000270: 917a 193e d2b8 7c3c 546b b638 9cdd c9bc
00000280: 6a79 8cb8 134c 88bc 2107 17bc c1ba 74bb
00000290: 737a 043b 63a2 23bc 0d91 87bc c01b 713a
000002a0: 5b4a 23bb b31b db39 8193 633c 4fdf 6f39
000002b0: bd0d 493a b9c2 c7b9 3aa9 a2b8 5379 dc38
000002c0: 9559 59bb 4560 f0b9 6a10 543c b133 87ba
000002d0: 87b6 913c 6df5 80bc 7e2f 78bc 5922 8dbc
000002e0: 6ee3 b439 45be 423c 4814 6cbc 3794 563c
000002f0: 3738 db3b add2 57bc f139 62bc 3e61 82ba
00000300: d098 883c 4080 ef3c 14b4 d03a 9ddb 28bb
00000310: 9e20 b0bc f7a4 54bc 1cdb 873c 7aa2 b0bc
00000320: 6d71 f0bb 0189 0cbd bd5c 2f3b aa96 f93b
00000330: ecb8 a83c 263b 453c 2db8 69bc 580e b4bc
00000340: c9de a0bb 275f 13bd daf2 b23c 2aee 4cba
00000350: dcb7 25bd 57d7 293d eca4 093c 2a9c 13bd
00000360: 9467 5bbb 4666 0a3c 5802 a0bc 454b 4bbc
00000370: 6f00 993c 183e bd3c 95c6 f23a f8fc 0c3c
00000380: 2ad1 3a3e e745 943d 5f0a 333d 76bf 67bd
00000390: 4b69 28be bd4f 32be fba4 c9bc 99da 97bd
000003a0: 1b49 b3bd fdd3 59be ca7c 80bc f98d e83d
000003b0: 46e0 513c 1715 49bc bbc9 a63e 61bb 64be
000003c0: 673f 9e3d 091b 89be e175 573e 432e b43d
000003d0: 8a9d 99be 1aea b23d 0c2a 4abd 3fe9 9ebe
000003e0: 68b2 1d3d 1b97 b3bd 0111 6ebe 215f bdbd
000003f0: bc04 16be 269d ab3e e64f 2dbe 6420 6b3d
-0.022750225 0.079928994 -0.022164172 0.09177461 0.19804563 -0.020675812 0.018819008 -0.23668092
-0.019050352 -0.065110624 0.013962263 -0.035145704 0.08995377 -0.0006101551 -0.22137791 -0.060836658
0.0819493 -0.01627134 0.1429392 -0.04825877 0.13705346 0.050179858 -0.07098153 -0.16380808
-0.03294451 0.0010404055 -0.077937365 0.05635672 -0.026924184 -0.06529264 -0.358879 0.039898675
0.0043018926 -0.022890026 -0.019487323 -0.036055002 0.002423094 0.0036933445 -0.016691007 0.011755583
0.001824412 -0.0022602256 0.013328038 -0.018690554 -0.008603809 -0.0013602072 0.022411495 -0.0012127205
-0.0130437715 0.0033775133 -0.0022541522 0.0027144263 -0.0006282019 0.008895904 -0.00014443115 -1.3429461e-06
0.0023461138 0.0021955892 0.00133558 0.01701553 0.016167536 -0.049105745 0.01460523 -0.002511328
0.033418536 -0.0875198 0.09695698 0.17980696 -0.094084755 0.025020653 -0.06974811 -0.0050217044
0.0018253912 -0.00889359 -0.13644767 -0.011316901 -0.042949792 -0.017792562 0.1780797 0.00036319395
0.022787787 -0.03261868 -0.0148458015 -0.04755096 0.0016423189 -0.006961541 -0.0139082335 0.006961695
-0.028200952 -0.09072263 0.012330982 0.022848252 -0.06092397 -0.021877978 -0.021198161 -0.0186767
0.055886645 0.0038597714 0.058781464 0.23801056 -0.011945945 -0.007459054 0.016837882 0.037579127
0.09305594 -0.09182108 -0.15151803 -0.04179036 -0.25395295 -0.50297743 0.28712615 -0.67830193
-0.09774124 -0.0034733696 -0.16975419 0.03655811 0.13110945 -0.054269306 -0.1509135 -0.0033028324
0.11605008 -0.2976036 -0.042963427 -0.15382914 -0.28394642 0.16443877 0.3251857 0.24528793
0.13858217 -0.01310538 -0.028117806 -0.13316233 -0.0018379738 0.0723809 -0.030810645 -0.19532748
-0.107104875 -0.09462228 -0.060520533 0.39827093 0.19235632 0.07218881 0.21003193 0.092721805
0.2407894 -0.5948631 -0.009821055 -0.0037264542 -0.19335428 0.0034951332 0.02358217 0.073549025
-0.22537163 0.004990365 0.08605249 -0.25050148 0.14988162 0.015424924 8.698428e-05 -0.024641804
-6.698335e-05 -0.016637838 -0.009218008 -0.003734276 0.0020214587 -0.0099874465 -0.016548658 0.00091975555
-0.0024916145 0.00041791573 0.013890148 0.00022876005 0.00076695887 -0.00038101317 -7.756283e-05 0.00010513016
-0.0033164967 -0.00045848094 0.012943367 -0.0010315088 0.017787231 -0.015742028 -0.015148042 -0.017228292
0.00034501724 0.011886184 -0.014409132 0.013096861 0.006690051 -0.013172788 -0.01380776 -0.0009947193
0.01667443 0.029235959 0.0015922808 -0.0025765665 -0.021499928 -0.012978784 0.016583972 -0.02156185
-0.00733774 -0.034310345 0.0026758157 0.0076168375 0.02059599 0.012038028 -0.014265102 -0.021979496
-0.0049093706 -0.035979416 0.021844316 -0.00078174716 -0.040458545 0.04146513 0.008401137 -0.0360376
-0.0033478485 0.008447235 -0.019532368 -0.012408082 0.018676965 0.023100898 0.0018522317 0.008605234
0.18243852 0.07239895 0.043711063 -0.056579076 -0.16446416 -0.1741323 -0.024614802 -0.07414741
-0.08754178 -0.21272273 -0.015684504 0.11355204 0.012809819 -0.012273095 0.32575783 -0.22337104
0.07726937 -0.2677844 0.21041061 0.08797886 -0.30003005 0.087360576 -0.049356505 -0.31037328
0.03850022 -0.087690555 -0.23248674 -0.0924666 -0.14650244 0.33518332 -0.1692501 0.057403937
