bfcnn/pretrained/resnet_color_1x9_bn_32x32_1x3x1_128x128_erf_relu/superres_model.tflite (tflite, 171688 bytes, 69 tensors)

denoiser_head/resnet_backbone/level_0/batch_normalization_17/FusedBatchNormV3 f4 [64]
000000 db 14 6e 39 7a 38 f9 be e0 a4 c8 be ea 34 07 bf
       0.00022705218 -0.486759 -0.3918829 -0.52815115
000010 c5 3f a5 bf 2c d8 c5 be db f5 c1 bf 5b 4d 96 bf
       -1.2910086 -0.3864149 -1.5153154 -1.1742357
000020 cc 43 c5 39 e9 a2 f7 be db 1a d1 be ec 16 a6 be
       0.0003762528 -0.48366478 -0.40840802 -0.32439363
000030 d5 c5 c3 be a3 f1 95 b9 b6 4a 0d b9 70 d9 91 be
       -0.3823687 -0.00028599528 -0.0001347464 -0.28486204
000040 f0 31 81 be b6 76 ee be e4 71 3e be 69 73 57 b8
       -0.25233412 -0.46574944 -0.18598133 -5.136748e-05
000050 36 7d 2c be d2 64 37 bf ae 94 3a be d5 8f 96 be
       -0.16844639 -0.71638215 -0.1822078 -0.2940661
000060 8c 6b 48 be bf 71 06 38 35 38 69 38 45 17 fc be
       -0.19572276 3.2054024e-05 5.5603876e-05 -0.49236503
000070 af eb 86 be 27 a3 99 be d8 d5 a5 be 93 8f 3b be
       -0.26351687 -0.30007288 -0.32389712 -0.18316488
000080 36 91 c2 bd f8 39 d6 bd f1 23 6d be 61 bc 0a be
       -0.09500353 -0.104602754 -0.23158242 -0.13548423
000090 c0 6a e2 bd a1 d6 e8 be 51 0f 84 be a8 0b 04 be
       -0.11055517 -0.4547625 -0.25792935 -0.12895072
0000a0 1f 6a 12 be 1e 20 00 be 04 27 e2 bd ee eb d6 bd
       -0.14298294 -0.12512252 -0.11042598 -0.10494219
0000b0 25 41 11 be 11 5a e2 bd aa 9b 4d be f4 6c cb bd
       -0.14185007 -0.11052335 -0.20078912 -0.099328905
0000c0 b7 39 4a be a9 52 8f be 5e 24 8e b8 b0 f3 02 b9
       -0.19748579 -0.27992752 -6.7778616e-05 -0.00012488547
0000d0 69 6e 2c bf 7c 67 a3 bf 54 d9 9e b8 d0 34 42 be
       -0.6735597 -1.2765956 -7.5745076e-05 -0.18965459
0000e0 57 b6 55 be e1 1f 63 bf 91 ec 84 36 06 d1 35 be
       -0.20870338 -0.8872052 3.9614465e-06 -0.17755517
0000f0 e1 57 0a b9 b6 4c 17 38 04 77 72 b8 7f bd 68 be
       -0.00013193443 3.6072648e-05 -5.7808138e-05 -0.22728537

denoiser_head/resnet_backbone/level_0/batch_normalization_17/FusedBatchNormV31 f4 [64]
000000 a6 99 f7 be 71 31 98 40 d6 29 76 40 c1 83 dc 40
       -0.48359412 4.7560353 3.8463035 6.8910832
000010 37 61 d1 40 cb c0 ee 3f 4e cf 47 41 84 bb 39 40
       6.543117 1.8652586 12.4881115 2.90207
000020 bf 00 2d bf 22 ff 06 40 79 19 80 40 89 bf 88 40
       -0.67579263 2.109322 4.0031095 4.2733808
000030 fc a3 9f 40 25 cc 16 3f 36 b1 b4 3e 3a fa 0e 40
       4.9887676 0.5890525 0.3529145 2.2340226
000040 52 31 ee 3f a0 6b 29 40 cc 51 d3 3f 07 6c e4 3d
       1.8608801 2.647194 1.6509337 0.11153417
000050 da 96 f0 3f 7e f0 ac 3f e9 4b ff 3f f3 7a c2 3f
       1.8796036 1.3510892 1.9945041 1.5193771
000060 82 a3 09 40 3a 8b 98 bd d2 2e 0d be f8 b1 19 40
       2.1506047 -0.0744843 -0.13787392 2.4014874
000070 ba c7 c0 3f 97 29 ed 3f fa 4a d5 3f fa bb d2 3f
       1.5060952 1.8528317 1.6663506 1.6463616
000080 9b 22 14 40 c8 44 ec 3f bd ac e6 3f 2b 38 36 40
       2.3146122 1.845849 1.8021466 2.8471782
000090 bf 36 0a 40 6f e9 d5 3f 13 f3 10 40 9f 26 ba 3f
       2.1595914 1.6711863 2.264836 1.4543036
0000a0 99 f7 01 40 c1 22 02 40 c8 7c c7 3f 7c 12 e5 3f
       2.0307372 2.0333712 1.5584955 1.7896266
0000b0 68 d5 09 40 80 53 de 3f e6 01 d2 3f 2b 55 0a 40
       2.1536503 1.7369232 1.6406829 2.1614482
0000c0 f5 33 62 40 14 67 39 40 4b 68 13 3f fe 8f 54 3f
       3.5344212 2.8969164 0.57581013 0.83032215
0000d0 73 23 03 41 58 e4 8e 40 ed 55 26 3f d8 ba 3b 40
       8.196155 4.465374 0.6497486 2.933279
0000e0 f2 65 10 40 30 d3 d5 40 7e d5 03 bd 3b 9b 74 40
       2.2562222 6.6820297 -0.032186024 3.8219745
0000f0 c3 90 64 3f 41 d5 98 be 93 3e fa 3e ba c1 6e 40
       0.8928339 -0.298502 0.48875865 3.7305741

denoiser_head/resnet_backbone/level_0/batch_normalization_16/FusedBatchNormV3 f4 [32]
000000 da 8e 6d be f8 9f 7b be ae fd ba bd 05 a1 9d be
       -0.23199025 -0.24572742 -0.09130417 -0.3078691
000010 ca 97 36 bf 34 e1 96 be 08 a8 49 be b5 52 c5 be
       -0.7132536 -0.2946869 -0.19693005 -0.38539663
000020 e0 1b 52 be 2f 65 b6 be 89 12 1d be a6 5b d6 be
       -0.20518446 -0.35624072 -0.15339102 -0.41866797
000030 b1 90 13 be ab d2 a0 be 51 d4 8d be 68 2a 71 be
       -0.14410664 -0.31410727 -0.27701047 -0.23551333
000040 79 01 3a bd d0 f9 63 bd 47 3f a9 bd de 6f 50 bd
       -0.04541156 -0.05565816 -0.08264022 -0.050887935
000050 ff f8 36 bd d8 92 60 bd eb c0 58 bd b9 c1 98 bd
       -0.044671055 -0.05482754 -0.052918356 -0.07458825
000060 c8 d7 9d bd bc aa 64 be 4d 79 a8 bd db d1 e7 bd
       -0.07707173 -0.22330755 -0.08226261 -0.11319324
000070 e7 3d 3e bd f8 ac 3f be 36 85 4f bd 99 8f 83 bd
       -0.046445753 -0.18718326 -0.05066415 -0.064238735

denoiser_head/resnet_backbone/level_0/batch_normalization_16/FusedBatchNormV31 f4 [32]
000000 f2 a6 98 40 2d d3 c1 40 7e dd 32 40 7b 85 8f 40
       4.770379 6.0570283 2.7947688 4.485044
000010 b1 e8 80 40 69 13 e0 40 93 e0 8a 40 c4 9e 53 41
       4.0284047 7.0023694 4.339914 13.226261
000020 24 3d 7c 40 25 af fe 40 d7 e6 19 40 3f e7 36 41
       3.9412317 7.95888 2.4047143 11.431457
000030 09 7e 37 40 89 73 86 40 e3 cd 3a 40 ec e6 92 40
       2.8670676 4.2016034 2.9188163 4.5906887
000040 a7 92 a4 3f 28 30 6d 3f 80 5a d0 3f 70 33 fd 3f
       1.2857255 0.92651606 1.6277618 1.9781322
000050 0f 5d 66 3f 8c 9a 73 3f 17 b1 6b 3f 30 19 ac 3f
       0.89985746 0.95157695 0.9206709 1.3445187
000060 cf a6 f4 3f 5b 6d 0f 3f 82 e9 70 40 8d 31 42 40
       1.9113406 0.5602624 3.7642522 3.0342743
000070 30 27 7d 3f 41 b9 0e 3f 6f 44 a0 3f 6c 14 b8 3f
       0.9888792 0.55751425 1.2520884 1.4381232

denoiser_head/resnet_backbone/level_0/batch_normalization_15/FusedBatchNormV3 f4 [64]
000000 8c 1f 24 bf 3c 19 93 bf 50 41 b9 be 06 08 0b bf
       -0.64110637 -1.1492076 -0.36182642 -0.5430912
000010 24 57 a7 c0 20 e0 2b 39 82 cc 5e bf be 25 e0 be
       -5.2293873 0.00016391324 -0.87030804 -0.43778795
000020 d3 81 86 be 12 3d a5 be 00 9e 91 be d5 2f ba bf
       -0.26270923 -0.32273155 -0.28440857 -1.4545847
000030 1e 81 bd be 02 77 e9 b9 cf 9d 81 bf d8 4d 56 be
       -0.3701257 -0.0004452989 -1.0126284 -0.20928133
000040 4a fd 2b bf 25 78 53 be be 6e 16 bf cc 0f 92 be
       -0.67183363 -0.206513 -0.5876273 -0.28527677
000050 f0 1a 8b be e3 d4 44 be 5b 9e 81 be e3 db 33 be
       -0.2716899 -0.19221835 -0.25316128 -0.17564349
000060 c8 99 ae b8 0f 34 41 be cb c2 4c bf 85 81 f2 bf
       -8.3256105e-05 -0.18867515 -0.7998473 -1.8945776
000070 60 60 ea be 5b d3 59 be 52 94 9e b8 76 6b 44 be
       -0.45776653 -0.21272032 -7.561654e-05 -0.19181618
000080 6b fa d4 bd 8f 68 b3 bd 5c f9 ab be c8 8c 30 37
       -0.10399326 -0.08760177 -0.33588684 1.0523196e-05
000090 cf d4 96 bd 11 8e ab bd 4a 16 9e be 77 b3 ac bd
       -0.07364809 -0.083767064 -0.3087638 -0.08432668
0000a0 85 80 cd be df 3e 5c be 67 f0 02 be c2 0f a0 be
       -0.40137115 -0.21508358 -0.12787019 -0.31262022
0000b0 96 6c e3 bd 14 9f 98 bd 62 90 01 bf 56 bf ff bd
       -0.111046955 -0.07452217 -0.50610936 -0.12487666
0000c0 b0 4a b4 be fc 3d 6b c0 3f ae 62 bf b2 34 47 39
       -0.35213232 -3.6756582 -0.8854713 0.0001899775
0000d0 c5 35 82 be 79 3f 84 be 3f 87 e2 be 77 cb 5f c0
       -0.25431648 -0.25829676 -0.4424381 -3.4967935
0000e0 2a 5f 34 bf 03 1c 23 bf 40 53 09 bf 67 89 1d bf
       -0.7045771 -0.6371462 -0.53642654 -0.61537784
0000f0 16 81 4a bf e6 57 f1 be 38 75 4b bf 4e 91 e9 be
       -0.7910322 -0.47137374 -0.79475737 -0.4561867

denoiser_head/resnet_backbone/level_0/batch_normalization_15/FusedBatchNormV31 f4 [64]
000000 ce 8a 43 40 40 3b 61 40 e0 66 10 40 72 23 28 40
       3.055347 3.5192413 2.256279 2.6271634
000010 03 b6 c4 40 30 4e 84 be 18 41 3c 40 47 d4 da 3f
       6.147218 -0.25840902 2.941473 1.7096032
000020 29 ac 10 40 49 69 3c 40 54 99 0b 40 82 ba 15 40
       2.2605078 2.943926 2.1812334 2.3395085
000030 88 a5 10 40 3f b5 eb 3e 92 ea 42 40 4a a0 ef 3f
       2.2601032 0.46036717 3.045567 1.8720791
000040 00 33 19 40 b6 4a dc 3f 92 47 1a 40 26 8b 03 40
       2.3937378 1.72103 2.4106183 2.055368
000050 35 37 f4 3f a5 60 c8 3f 5f 33 eb 3f 07 3b 81 3f
       1.9079348 1.5654494 1.8375052 1.0096139
000060 2c 5a 03 3e 53 12 ab 3f 94 53 06 40 5e fb fa 3f
       0.12827367 1.3364967 2.0988512 1.9607961
000070 b1 fb 1e 40 0f b2 02 40 be b5 dd 3d ed bd d1 3f
       2.484112 2.0421178 0.1082568 1.6386086
000080 f6 76 9d 3f 89 3c 9c 3f 68 41 1b 40 89 16 20 bd
       1.2301929 1.2205974 2.425867 -0.03908399
000090 68 73 1f 3f 97 3a bb 3f ff 44 0a 40 b6 de 92 3f
       0.6228547 1.4627255 2.1604612 1.1474216
0000a0 91 f7 4a 40 7e 27 9d 3f f2 8f 9d 3f 34 18 0a 40
       3.1713603 1.2277677 1.2309554 2.1577272
0000b0 84 f7 a1 3f c2 46 b0 3f 9e 54 03 40 b1 05 90 3f
       1.2653661 1.3771594 2.0520396 1.1251737
0000c0 f0 d7 1a 40 f5 0c 11 41 01 e3 dd 40 d0 6a 12 bf
       2.4194298 9.065663 6.9339604 -0.5719423
0000d0 2f c5 18 40 3c 12 21 40 53 85 6b 40 17 0f d0 40
       2.3870351 2.516738 3.6800125 6.501842
0000e0 4b 24 68 40 08 98 5c 40 a0 71 89 40 34 95 93 40
       3.6272151 3.4467793 4.2951202 4.6119633
0000f0 a3 30 a5 40 65 dd 24 40 ff 86 a8 40 83 24 46 40
       5.162187 2.5760128 5.266479 3.0959785

denoiser_head/resnet_backbone/level_0/batch_normalization_14/FusedBatchNormV3 f4 [32]
000000 c5 e4 07 bf 58 63 9f be 7e 80 8e be 17 95 94 be
       -0.5308345 -0.3113048 -0.27832407 -0.29019997
000010 20 1b c5 be 42 bd d5 bf 6c b4 ca be 55 e5 1e bf
       -0.38497257 -1.6698382 -0.39590776 -0.6206868
000020 84 13 51 be 13 fa 55 bf be d6 81 be b4 4b e4 be
       -0.20417601 -0.8358471 -0.25359148 -0.44589007
000030 46 6a a8 be d4 cf b8 be f6 0b c4 be b0 99 94 be
       -0.3289358 -0.3609606 -0.38290375 -0.29023504
000040 ab 0a 27 be de 0a eb bd 65 48 95 be 27 1b 8a be
       -0.16312663 -0.11476682 -0.29156795 -0.2697384
000050 13 e3 0c be e4 4a 06 be de 5d 7d be 55 20 86 be
       -0.13758497 -0.13114506 -0.24742839 -0.26196542
000060 1b 87 88 be 87 25 6e be 79 64 32 be fb 50 be be
       -0.26665577 -0.23256503 -0.1742114 -0.37171158
000070 5b 56 48 be f9 87 07 be 6d 68 51 be 30 e3 3d be
       -0.19564192 -0.13235463 -0.20449992 -0.18543696

denoiser_head/resnet_backbone/level_0/batch_normalization_14/FusedBatchNormV31 f4 [32]
000000 c7 ef a6 40 f2 62 0c 41 47 45 bb 40 09 fe da 40
       5.2167697 8.774157 5.8522067 6.84351
000010 33 1b d1 40 dd 3c c8 40 60 30 25 41 48 9e 9d 41
       6.53457 6.2574296 10.32431 19.702286
000020 17 39 46 41 d2 84 6f 40 6e ca cd 40 b1 80 07 41
       12.388938 3.7424817 6.4309607 8.468919
000030 af af c8 40 ab 02 d9 40 c6 73 e4 40 b8 64 cd 40
       6.2714458 6.7815757 7.1391325 6.418545
000040 78 6e f8 3f ff 3a 28 40 fd a4 dd 3f 7a 4a b0 40
       1.9408712 2.6286008 1.7315975 5.5090914
000050 05 2f 35 40 f2 89 64 40 2c e8 1c 40 b0 d0 af 40
       2.8309948 3.5709195 2.4516706 5.4942245
000060 51 36 99 40 be bf da 40 97 c1 79 40 69 25 14 40
       4.7878804 6.835906 3.9024408 2.3147833
000070 dd e2 7a 40 88 5d 37 40 b2 c7 89 40 02 7c 45 40
       3.9200966 2.8650837 4.305627 3.0856938

denoiser_head/resnet_backbone/level_0/batch_normalization_13/FusedBatchNormV3 f4 [64]
000000 9f da 18 be 62 3b 58 be 76 c3 00 bf af ed 69 bf
       -0.14927147 -0.21116403 -0.5029825 -0.913783
000010 8e 8b 29 bf 68 c5 21 bf af af 97 bf 29 ec 42 bf
       -0.6622857 -0.63191843 -1.1850489 -0.761416
000020 38 91 81 bf 0c 62 2a bf 1d 4c 82 be a4 d6 66 be
       -1.0122442 -0.6655586 -0.25448695 -0.22542816
000030 78 63 5b bf bf 78 d2 bf eb 7e 6b be c2 45 fb be
       -0.8569865 -1.6443099 -0.22997634 -0.49076658
000040 c8 5e de b8 92 4b 63 bf f6 d8 72 37 39 a4 92 be
       -0.00010603439 -0.88787186 1.4474839e-05 -0.28640917
000050 7e 43 3b be 81 50 63 be c8 60 0b bf 56 9b 14 bf
       -0.18287465 -0.22198679 -0.5444455 -0.58049524
000060 37 93 b8 be 02 69 7a ba c3 01 97 be e0 6d 82 be
       -0.36049816 -0.00095523905 -0.29493532 -0.25474453
000070 56 79 6b be 58 e4 64 be 5e 15 69 be b6 01 85 be
       -0.22995505 -0.22352731 -0.22762057 -0.25977868
000080 ec f4 17 be 3b 03 0d be a6 a0 b4 be 51 4a df bd
       -0.14839524 -0.13770764 -0.35278815 -0.109028466
000090 25 1f 17 be 37 01 d6 bd ba 0d d7 bd a0 03 4d bf
       -0.14757974 -0.104494505 -0.10500665 -0.80083656
0000a0 39 16 eb bd 63 4e c7 be e0 7a 92 37 1e ad 18 39
       -0.11478848 -0.38926992 1.7461774e-05 0.00014560341
0000b0 22 0e 81 be b8 27 16 be 50 fd a2 be 4e 50 46 be
       -0.25206095 -0.14663589 -0.31833887 -0.19366571
0000c0 a5 08 2b bf e3 f4 c0 bf 5b 3d 80 bf 24 24 da be
       -0.66810066 -1.5074733 -1.0018724 -0.42605698
0000d0 bf e2 d4 bf e8 b3 c4 bf bc c7 66 39 0b a4 e5 be
       -1.6631697 -1.5367403 0.00022008916 -0.44851717
0000e0 a8 37 06 bf fc 82 3d bf 9c 99 0d c0 c9 98 5f bf
       -0.52428675 -0.7402799 -2.2125006 -0.87342507
0000f0 8e 64 3b bf 19 a6 89 be df 32 3f bf 1d 7d a3 39
       -0.7320031 -0.26884535 -0.74687 0.00031183

denoiser_head/resnet_backbone/level_0/batch_normalization_13/FusedBatchNormV31 f4 [64]
000000 38 62 43 40 5a a8 6f 40 ba 88 c9 40 84 1f 9d 40
       3.0528698 3.7446504 6.2979403 4.910097
000010 0d 26 7d 40 a8 b1 84 40 2f de e5 40 dc 62 b9 40
       3.9554474 4.1466866 7.183372 5.793318
000020 00 0b 9a 40 31 1f 96 40 72 ba 50 40 e9 4e 42 40
       4.813843 4.6913075 3.2613797 3.0360663
000030 2e 8a df 40 02 af 09 41 b2 48 3f 40 46 cd 15 40
       6.9856176 8.6052265 2.988812 2.340654
000040 9a 8b c7 3e b5 ed 78 40 30 95 81 bd 43 e4 51 40
       0.38973695 3.8895085 -0.063272834 3.279557
000050 db 89 69 40 cc cd 02 40 3d 86 89 40 ba 82 60 40
       3.649039 2.0438108 4.2976365 3.507979
000060 32 5c 49 40 22 5d 3d 41 46 27 1e 40 db 18 5e 40
       3.1462522 11.8352375 2.471147 3.470267
000070 a6 4b 19 40 9b 42 67 40 6e be 37 40 39 02 07 40
       2.3952422 3.6134403 2.870998 2.1095107
000080 e7 99 dd 3f 8f 2e ad 3f a8 73 96 3f 11 a1 b5 3f
       1.7312592 1.3529834 1.1754045 1.4189779
000090 bc 48 ff 3f d0 33 bd 3f 01 62 b7 3f 80 09 f6 3f
       1.9944072 1.4781437 1.4326783 1.9221649
0000a0 69 a4 ce 3f 2f 72 2b 40 f4 2b 80 bd f5 ad 8c be
       1.6143924 2.6788442 -0.062583834 -0.2747647
0000b0 53 5a 11 40 a6 20 0f 40 c5 2d 17 40 c2 ce a9 3f
       2.271138 2.2363677 2.3621686 1.3266222
0000c0 78 5d 60 40 3d fb 8c 40 a5 96 1b 41 1f 6d 46 40
       3.5057049 4.4056687 9.724278 3.1004102
0000d0 b6 cf 1c 41 33 cd 17 41 1d a6 2a bf 67 b7 4d 40
       9.800711 9.487597 -0.6665972 3.214319
0000e0 f2 d9 a1 40 c3 f1 c4 40 56 12 c4 40 61 16 93 40
       5.0578547 6.154512 6.1272383 4.596482
0000f0 e8 c4 91 40 b5 36 0c 40 30 9d ca 40 36 88 49 bf
       4.5552864 2.190839 6.331688 -0.78723466

denoiser_head/resnet_backbone/level_0/batch_normalization_12/FusedBatchNormV3 f4 [32]
000000 20 1f 81 bd c7 a9 3e be 8e 9e 0c be 56 31 76 be
       -0.06304765 -0.18619452 -0.13732359 -0.24042258
000010 55 e0 d3 bd d4 0b 2b be b0 5b 28 be 40 ae 2a be
       -0.10345522 -0.16703731 -0.16441226 -0.16668034
000020 e5 f1 76 bd 7f dc 77 bd af b8 47 be 1f af 88 be
       -0.060289282 -0.060513016 -0.19504045 -0.26696107
000030 25 42 d9 bd 76 21 4f be 9d a9 02 be f6 d5 fd bd
       -0.10608319 -0.20227608 -0.12760015 -0.123943254
000040 d9 1f 8b be ef 54 fa be bf 8c f3 bd 20 58 3e be
       -0.27172735 -0.48892924 -0.118920796 -0.18588305
000050 4c bf 55 be 42 f0 0e be 8a 1b 5e be d3 93 8e be
       -0.20873755 -0.13958839 -0.21690193 -0.27847156
000060 be 25 27 be ed e9 84 be 6b 62 be be 1b 98 00 be
       -0.16322991 -0.2595972 -0.37184462 -0.12558024
000070 03 9f 3a be e9 3e 83 be 94 51 14 be 69 f1 3c be
       -0.1822472 -0.25633934 -0.14484245 -0.18451466

denoiser_head/resnet_backbone/level_0/batch_normalization_12/FusedBatchNormV31 f4 [32]
000000 9a 12 8a 3f 13 41 56 40 4a 5c c4 40 d2 49 6e 40
       1.0786927 3.3477218 6.1362658 3.7232556
000010 e3 42 08 40 ab 0d 9b 40 45 9e 05 40 2d db d1 3f
       2.1290824 4.8454185 2.087785 1.6395012
000020 d1 c2 ae 3f 36 c4 c8 3f 10 af da 3f c4 7a 3e 40
       1.3653203 1.5684879 1.7084675 2.976243
000030 59 b8 b7 40 59 ed 97 40 99 9e 71 40 8b b4 04 40
       5.7412534 4.747723 3.775305 2.0735195
000040 87 d9 45 40 65 1a 3a 40 ee c6 7b 40 31 1f 50 40
       3.0914018 2.907861 3.9340167 3.2519038
000050 a1 58 12 40 66 03 f1 40 73 7e 02 41 b8 84 1f 40
       2.2866595 7.531665 8.155871 2.4924755
000060 e3 db 9a 40 d9 82 49 40 68 7d b3 40 29 ab d1 40
       4.8393416 3.1486113 5.6090584 6.5521436
000070 36 2c 84 40 b2 10 5c 40 c6 79 ac 40 83 9f 82 40
       4.130397 3.438519 5.389865 4.0819716

resnet_backbone/level_0/batch_normalization_11/FusedBatchNormV3 f4 [64]
000000 6e b4 9d be 49 0e a6 be 46 ea 73 be d3 85 86 be
       -0.3080172 -0.32432774 -0.23819837 -0.26273975
000010 96 c5 e9 bd 01 7a d9 be 9b 61 83 be 37 10 ba be
       -0.1141464 -0.42475894 -0.25660405 -0.36340496
000020 06 e4 98 be a4 58 cf be d7 4b 97 be 86 e0 8a be
       -0.29861468 -0.40497315 -0.2955005 -0.27124423
000030 a1 4d b5 be ff 0e bd be 95 83 02 b9 d4 52 5d bf
       -0.3541079 -0.36925504 -0.00012446784 -0.8645451
000040 9a 3f 35 bf 61 27 48 bf 46 36 4f bf 29 4b 16 bf
       -0.70800173 -0.7818509 -0.8094219 -0.58708435
000050 3c fa 4e bf c7 ca 1d bf 16 c4 2b bf 44 5e 02 bf
       -0.8085058 -0.6163754 -0.6709608 -0.5092509
000060 d1 93 e4 be 1b a7 09 bf 3f 32 3d bf a6 66 c7 be
       -0.44644025 -0.5377061 -0.73904794 -0.38945502
000070 25 5d fb be 23 24 6d bf 20 08 4d bf d9 02 f7 be
       -0.490945 -0.92633265 -0.8009052 -0.4824436
000080 a0 33 9e be 2e 22 9f bd 28 6d 9d be 3b 7f 5d be
       -0.30898762 -0.07770191 -0.30747342 -0.21630566
000090 ae 20 d0 be d4 23 04 38 18 4b ae b7 03 2b ec bd
       -0.40649933 3.150462e-05 -2.0777385e-05 -0.11531641
0000a0 4b 0a 75 be 53 c0 20 be 5e b5 db be 6c fd 20 be
       -0.23929708 -0.15698366 -0.4291181 -0.15721673
0000b0 b9 03 6e be 9f a0 ff be 92 da 2c be 13 a2 3f be
       -0.23243608 -0.49927232 -0.16880253 -0.1871417
0000c0 ae 5e bf be eb 71 a0 bd b0 4c bc bd ad 93 00 be
       -0.37376922 -0.07834228 -0.091943145 -0.12556334
0000d0 1f bd a5 bd 66 bf 49 be 70 58 9c be f9 8d 11 be
       -0.080927126 -0.19701919 -0.30536222 -0.14214315
0000e0 91 7c ef be e4 7c a1 b5 45 84 1e be 9c d5 3c bf
       -0.46774724 -1.2031783e-06 -0.15480144 -0.7376344
0000f0 2a bd 38 be 54 75 9d be 4a b6 49 be ad e9 8f be
       -0.1804091 -0.30753577 -0.19698444 -0.28107968

resnet_backbone/level_0/batch_normalization_11/FusedBatchNormV31 f4 [64]
000000 ac 36 be 3f 4d e7 61 40 22 d5 24 40 70 9d 33 40
       1.4860435 3.5297425 2.5755086 2.8064842
000010 f3 b4 d1 3f 5b c1 4e 40 22 d2 0a 40 88 24 42 40
       1.6383346 3.2305515 2.1690755 3.0334797
000020 06 54 84 40 d6 2e 82 40 92 33 09 40 7c 50 2a 40
       4.135257 4.0682173 2.1437726 2.6611624
000030 bb a0 76 40 2e 9c 97 40 d6 7e d9 3e 66 15 eb 3f
       3.8535602 4.737815 0.4247958 1.8365905
000040 f0 82 b8 40 03 94 af 40 36 74 9a 40 13 a9 64 40
       5.7659836 5.486818 4.826686 3.5728195
000050 46 84 aa 40 24 a7 9d 40 22 ba ab 40 ca 00 ae 40
       5.3286467 4.926653 5.3664713 5.4375963
000060 82 09 91 40 8e c3 62 40 6b 31 b8 40 f6 97 0d 40
       4.5324106 3.5431857 5.7560325 2.2124
000070 37 34 6f 40 5d a5 bf 40 fd f6 c8 40 21 45 b1 40
       3.737562 5.988936 6.28015 5.5396886
000080 b6 6e d9 3f d2 fb 9f 3f a7 ec e1 3f ee 05 b4 3f
       1.6986911 1.2498724 1.7650346 1.406431
000090 bb 77 12 40 f5 2e 18 be 2f 81 cc 3d d4 0b 97 3f
       2.2885578 -0.14861663 0.09985577 1.1800485
0000a0 40 a3 fd 3f 26 22 a3 3f 9d 85 93 3f 93 0c 02 40
       1.9815445 1.2744796 1.152515 2.0320175
0000b0 3f a4 37 3f 0e 92 89 40 6f 32 0a 40 da 0d 14 40
       0.71734995 4.299079 2.1593282 2.3133454
0000c0 61 9e 17 40 37 96 02 3f 59 d9 90 3f ef 69 a2 3f
       2.3690417 0.5101046 1.1316329 1.2688578
0000d0 75 b7 99 3f a4 59 be 3f f3 28 c2 3f 97 c6 ae 3f
       1.2009112 1.4871106 1.5168747 1.3654355
0000e0 c3 f9 db 3e 2d 37 02 3c ac e0 0f 40 bb 74 30 3f
       0.4296399 0.007947725 2.248088 0.68928117
0000f0 c4 f6 8f 3f 9b 8a 30 40 33 2f bc 3f 77 37 00 40
       1.1247182 2.7584598 1.4701904 2.0033853

resnet_backbone/level_0/batch_normalization_10/FusedBatchNormV3 f4 [32]
000000 11 10 b8 be 28 79 6a be 7e e3 c9 bd 81 bb ef be
       -0.35949758 -0.2289778 -0.09857844 -0.46822742
000010 08 bc fc bd 19 0d 37 be ba 48 d7 bd 56 96 d8 bd
       -0.123405516 -0.1787609 -0.10511918 -0.10575549
000020 30 72 a7 be 55 44 cf bd 6f 46 2b be 18 b7 62 be
       -0.32704306 -0.10120455 -0.16726087 -0.22140157
000030 5d 20 76 be bf e7 12 be aa e1 65 be c4 ae 90 be
       -0.24035783 -0.14346217 -0.22449365 -0.28258336
000040 2d 6e 16 be f4 15 b4 bd a9 3c ad be 33 f4 0d bf
       -0.14690466 -0.0879325 -0.33835343 -0.55450743
000050 ed 37 35 bd a8 ba 64 bd 4d bf b8 37 e1 75 74 be
       -0.044242788 -0.05584207 2.202359e-05 -0.23873092
000060 8c f2 b2 bd e1 c0 0a bf 95 e9 33 38 b8 10 94 38
       -0.087376684 -0.5420056 4.2894466e-05 7.060304e-05
000070 01 9d 19 be ec 54 10 be 98 c4 73 bd df 54 29 38
       -0.15001298 -0.14094895 -0.05951366 4.0371782e-05

resnet_backbone/level_0/batch_normalization_10/FusedBatchNormV31 f4 [32]
000000 45 51 e2 40 af f6 24 40 70 f9 91 41 e4 bc 62 41
       7.0724206 2.5775564 18.246796 14.171116
000010 c7 96 ab 40 3f c3 a8 40 36 f9 3f 40 64 4c da 40
       5.3621554 5.2738338 2.9995856 6.821825
000020 b9 01 bf 40 84 c6 f7 40 4b 69 57 41 20 3d bd 40
       5.9689603 7.742983 13.463206 5.9137115
000030 0e eb cc 40 37 ec 03 40 21 73 cb 3f a7 47 f8 40
       6.403693 2.0612924 1.589451 7.7587466
000040 c4 a0 f5 3f 18 4b c0 40 16 59 06 40 39 e2 bb 3f
       1.9189687 6.0091667 2.0991874 1.4678413
000050 c3 68 2d 40 b6 6f d6 3f 5a 7b be bd 2e 5d 1c 40
       2.7095191 1.6752841 -0.09300871 2.4431872
000060 4a c8 51 40 76 34 2e 40 66 6f 2e be 90 2d 8b be
       3.2778497 2.721952 -0.17034683 -0.271832
000070 ec cf 16 40 e5 9d be 3f 11 8b 13 40 98 be 50 be
       2.3564405 1.4891936 2.305363 -0.20385206

resnet_backbone/level_0/batch_normalization_9/FusedBatchNormV3 f4 [64]
000000 a8 9f 25 b9 2c d1 f9 be cc 51 00 bf 0a 42 54 be
       -0.00015795103 -0.48792398 -0.5012481 -0.20728317
000010 e9 39 43 be 6f 10 df be 25 6c 23 be a3 b6 83 be
       -0.1906506 -0.43567225 -0.15959223 -0.25725278
000020 c0 60 d2 be 40 07 01 bf 51 38 75 b9 48 70 e1 b8
       -0.4108944 -0.5040169 -0.00023386 -0.0001074975
000030 44 9b bc be dc 03 a4 be f9 50 85 be 81 64 b1 be
       -0.36837208 -0.32034194 -0.2603834 -0.3464699
000040 ff 58 d3 be 0f 53 f4 be e9 b9 3b bf ab a9 bd be
       -0.41278836 -0.4771962 -0.7333055 -0.3704351
000050 89 ab a8 be cb 88 fd be c3 ec ad be f6 4f 06 bf
       -0.3294337 -0.49518427 -0.33969697 -0.5246576
000060 75 89 e2 be 56 5b d3 be 1b 4b cd be 3e ff 81 bf
       -0.44245496 -0.4128062 -0.40096363 -1.0156019
000070 f4 bf 47 bf 0b c0 32 bf 99 37 3e bf f3 c9 8d be
       -0.7802727 -0.69824284 -0.74303585 -0.27693138
000080 01 f9 35 b7 d7 c5 a0 bd ec d3 da be f9 bd 3e bf
       -1.0846416e-05 -0.07850235 -0.4273981 -0.74508625
000090 bd 84 49 37 04 3f 69 b7 6f 3a cd bd 46 d0 a4 38
       1.2011439e-05 -1.3902554e-05 -0.10020911 7.858923e-05
0000a0 88 0c 1f bf fe 5d 1a 39 6c 50 e6 bd fc 7c e8 37
       -0.62128496 0.000147216 -0.11245808 2.7714756e-05
0000b0 9f cb 60 be 7e 16 82 bd 06 cb 83 be ab c8 0f 35
       -0.21952675 -0.06351946 -0.25740832 5.356366e-07
0000c0 77 ca a0 be d6 ed 81 bd 7b 0a 40 be 2e cb 20 be
       -0.31404468 -0.06344192 -0.18753998 -0.15702507
0000d0 ba 60 f4 bd dd 22 91 b7 e4 01 37 be 07 ce ce bd
       -0.11932512 -1.7301581e-05 -0.17871815 -0.1009789
0000e0 30 71 fc bd b4 ff 29 be 26 ea 6c be 73 93 a1 37
       -0.12326276 -0.16601449 -0.23136196 1.9261357e-05
0000f0 d8 ad 9e bd 1e 34 e6 bd 9e a7 22 be 7a a7 02 be
       -0.07748002 -0.11240409 -0.15884253 -0.127592

resnet_backbone/level_0/batch_normalization_9/FusedBatchNormV31 f4 [64]
000000 82 6b 08 3f 74 b1 1b 40 be cf 41 40 d8 2f 44 40
       0.53289044 2.4327059 3.0283046 3.0654202
000010 92 f9 46 40 ab 96 90 40 a7 ba 05 40 2c 7c 29 40
       3.1089826 4.518392 2.0895174 2.6482038
000020 24 75 33 40 79 70 54 40 01 44 33 3f 0e 0c d1 3e
       2.8040247 3.3193648 0.7002564 0.4082951
000030 dd 77 50 40 88 11 a2 40 65 87 25 40 cf a3 13 40
       3.2573159 5.06464 2.5863888 2.306873
000040 98 36 76 40 af 4d 96 40 14 c4 6a 40 be fb 90 40
       3.8470821 4.696983 3.6682177 4.5307302
000050 7a 66 f5 3f a2 4e ab 40 94 8a 55 40 b7 8e b4 40
       1.9171898 5.3533487 3.3365831 5.6424212
000060 c5 ec ec 40 f5 01 ba 40 64 e7 90 40 70 a3 35 40
       7.4039025 5.812739 4.528246 2.8381004
000070 8b d2 ae 40 f7 a8 28 40 7a 4b 61 40 91 ed 13 40
       5.463201 2.6353128 3.5202317 2.311375
000080 30 9b 86 3d 71 80 e7 3f 5a 72 9b 3f 89 d4 81 3f
       0.065725684 1.8086072 1.2144272 1.0142986
000090 58 99 9e bd d3 67 bb 3d eb 23 a5 3f 76 65 a4 be
       -0.07744092 0.09150662 1.2901586 -0.3210866
0000a0 cc 6a b0 40 6d 7c b6 be 16 a1 97 3f 65 c4 46 be
       5.5130367 -0.35641804 1.1846035 -0.19410856
0000b0 93 e3 04 40 46 79 7b 3f 17 01 b6 40 c3 98 7b bb
       2.07639 0.98231924 5.687633 -0.0038390614
0000c0 c8 4e 29 40 95 64 df 3f bd ea 17 40 9b 95 b9 3f
       2.6454334 1.745257 2.3737023 1.4498781
0000d0 84 43 17 40 ea d2 bd 3d 14 08 14 40 8b 1a 41 3f
       2.3634958 0.09268744 2.312993 0.75431126
0000e0 6d 31 0b 40 43 6b ba 3f 4d fc dc 3f 2e 2b f9 bd
       2.1748917 1.4563984 1.7264496 -0.12166439
0000f0 72 96 83 3f 8f cf bb 3f 95 f2 62 3f a7 cc bc 3f
       1.0280287 1.4672717 0.886514 1.4749955

resnet_backbone/level_0/batch_normalization_8/FusedBatchNormV3 f4 [32]
000000 e2 9d 11 be 05 f3 05 be 87 8a 21 b6 75 f3 8d be
       -0.14220384 -0.13080986 -2.4071503e-06 -0.27724805
000010 b2 4b 5d be e5 b9 9e be 79 75 ea be 7d 20 97 be
       -0.21610907 -0.310012 -0.4579275 -0.29516974
000020 56 a0 4e be c3 38 4d be 02 85 56 be 34 32 3f be
       -0.20178351 -0.20041184 -0.20949176 -0.18671495
000030 cb 5b 1f be 04 91 04 be d3 da 63 bd 54 02 87 bd
       -0.1556236 -0.12945944 -0.05562861 -0.06592241
000040 fe e3 ea bd da cb 9b b8 dc 1d f2 bd ef 30 9a bc
       -0.11469267 -7.428946e-05 -0.118221015 -0.018822161
000050 8a 3a f4 b9 80 99 1c b8 fa a9 26 be c6 e1 90 bd
       -0.00046582922 -3.7336256e-05 -0.16275778 -0.07074313
000060 e1 73 73 b8 be d0 91 be 05 7c f6 bd af 3f 52 bd
       -5.8043635e-05 -0.2847957 -0.120353736 -0.051330265
000070 45 c3 95 bd b4 96 97 be 19 96 d7 bd 3e ce d4 bd
       -0.07312635 -0.29607165 -0.10526676 -0.103909

resnet_backbone/level_0/batch_normalization_8/FusedBatchNormV31 f4 [32]
000000 f1 b0 cb 40 ea 5f 86 40 8b 45 3b 3c fa e6 bd 40
       6.3653493 4.1992083 0.011430155 5.9344454
000010 b4 25 ec 40 cf 7c 77 40 ee fc e1 40 b9 74 f8 40
       7.3796024 3.8669927 7.062125 7.7642484
000020 e8 c9 7a 40 d1 bc 7a 40 bd 2d ab 40 97 c7 12 41
       3.9185734 3.9177744 5.3493333 9.173728
000030 9a 57 e1 40 ae f1 10 41 83 01 d1 3f 00 bb 83 40
       7.0419436 9.059004 1.6328586 4.116577
000040 96 6c 5e 3f 8e d8 e4 3e ed cc 05 40 30 ac d7 3f
       0.8688444 0.44696468 2.0906327 1.6849422
000050 eb 4d 79 3e da 97 50 3e a4 44 b0 3f 4e 79 b5 3f
       0.2434613 0.20370427 1.3770947 1.4177644
000060 7f 2d 51 3e 96 d3 cc 40 d0 62 0b 41 20 5e 2f 40
       0.20427512 6.4008284 8.711624 2.74012
000070 32 c6 ca 3f 27 cc 0d 3f 08 f1 15 40 3c fe a0 40
       1.5841734 0.55389637 2.3428364 5.0310345

resnet_backbone/level_0/batch_normalization_7/FusedBatchNormV3 f4 [64]
000000 b7 43 99 be a2 92 8f be cc 06 84 be a2 23 82 be
       -0.29934475 -0.2804156 -0.25786436 -0.2541781
000010 59 70 a3 be d2 65 c6 be a8 47 45 be 59 85 dd be
       -0.31921652 -0.38749558 -0.19265616 -0.432658
000020 e0 28 78 be d7 d3 78 be c4 96 ae be 5c d5 1c be
       -0.24234343 -0.2429956 -0.340994 -0.15315765
000030 60 69 73 be b7 c3 23 bf 06 4e a4 be 48 5d 1d be
       -0.23770666 -0.6397051 -0.32090777 -0.15367615
000040 19 07 05 bf 30 da 00 bf c8 fe 0b bf 8b 36 e0 be
       -0.51963955 -0.5033293 -0.5468564 -0.43791613
000050 2a ce 12 bf 91 26 f7 be 06 2f f4 be 87 91 08 bf
       -0.5734583 -0.4827161 -0.47692126 -0.5334706
000060 35 7c fb be 69 9a e3 be 37 ff c3 be e0 85 fa be
       -0.491182 -0.44453743 -0.3828065 -0.48930264
000070 6a 7e 09 bf b7 69 17 bf c9 7c c2 be 2f c9 e1 be
       -0.5370852 -0.59145683 -0.3798583 -0.44098803
000080 94 2e b1 bd 19 6b eb bd 3a 50 12 be 17 9a bc 37
       -0.08651462 -0.11495037 -0.14288417 2.24831e-05
000090 df 12 36 be 2a d5 3d be d0 2a f1 bd ea b7 a4 36
       -0.17780636 -0.18538347 -0.11775744 4.9089913e-06
0000a0 a6 f2 05 bf 67 1d de be 9c bd 6b be da 4f a8 be
       -0.5232338 -0.43381807 -0.23021549 -0.32873422
0000b0 cb e9 19 b7 cd ee cd bd 47 fb b5 b8 a4 e0 e1 bd
       -9.173945e-06 -0.10055313 -8.6775566e-05 -0.11029175
0000c0 7b c3 de bd dc f1 75 be a7 46 c2 bd df b5 1a be
       -0.10877129 -0.24018043 -0.09486132 -0.15108441
0000d0 3d 72 6a bd db 8d 31 be 56 40 ad bf 14 22 1e be
       -0.057237852 -0.1733927 -1.3535259 -0.15442687
0000e0 37 58 ea be 9f 8f 94 b4 99 eb 61 be 91 d1 0e 37
       -0.45770428 -2.7671646e-07 -0.2206253 8.512653e-06
0000f0 49 d3 ad bd c2 24 e6 35 2b 18 c0 bc a7 7d 7c bd
       -0.08487565 1.7147033e-06 -0.023449024 -0.06164327

resnet_backbone/level_0/batch_normalization_7/FusedBatchNormV31 f4 [64]
000000 b9 a2 0e 40 8c b7 11 40 c0 1d 7a 40 3f e9 a4 40
       2.2286818 2.2768278 3.9080658 5.1534724
000010 6d 31 18 40 bb d5 4d 40 9a f3 73 40 b3 20 16 40
       2.3780167 3.21617 3.8117433 2.3457458
000020 52 41 30 40 e7 26 5b 40 79 d6 38 40 a4 d1 27 40
       2.7539868 3.4242494 2.8880904 2.6221704
000030 80 6a 28 40 75 71 3c 40 3f 84 3b 40 4e 48 20 40
       2.6315002 2.9444249 2.9299467 2.5044131
000040 c5 4c b1 40 6b 77 f1 40 f8 45 0a 40 c5 64 b8 40
       5.5406213 7.5458274 2.1605206 5.762301
000050 ea 57 98 40 ee 09 92 40 fe ef a8 40 cf c5 33 40
       4.7607317 4.563712 5.279296 2.8089483
000060 51 3a ce 40 69 6e b0 40 cf e3 32 40 26 22 aa 40
       6.4446187 5.513478 2.7951543 5.3166685
000070 f3 5f c7 40 68 84 a5 40 be 5d 1c 40 7d 98 e7 40
       6.2304626 5.172413 2.4432216 7.2373643
000080 cb e1 be 3f 3f db 41 3f 15 61 92 3f 01 4c 66 be
       1.4912657 0.7572517 1.1435877 -0.2248993
000090 43 b8 4a 40 e3 36 47 40 33 75 71 40 f9 02 6d bd
       3.1674964 3.112725 3.7727783 -0.057864163
0000a0 41 ec 90 40 b9 3c 50 40 c3 99 87 40 43 05 ab 3f
       4.5288396 3.2537062 4.2375197 1.3360981
0000b0 87 e0 d8 3d 91 7b 05 40 f4 27 fd 3e 62 6d 61 40
       0.105897 2.085667 0.49444544 3.5223012
0000c0 c9 39 62 40 1b 9e cb 3f 8f 38 f9 3f fd ef c2 3f
       3.534777 1.5907625 1.9470385 1.5229489
0000d0 d6 be 90 3f 46 d3 1a 40 a9 4e 17 40 a0 7c 24 40
       1.1308239 2.419145 2.364176 2.5701065
0000e0 02 bb 0b 40 38 1e 3e 3b 3f dd 8f 3f e8 54 c7 bd
       2.183289 0.002900971 1.1239394 -0.097329915
0000f0 a1 98 14 3f bc 3a 90 bc 1b 42 0f 40 be d4 a6 3f
       0.58045393 -0.017606132 2.2384098 1.3033674

resnet_backbone/level_0/batch_normalization_6/FusedBatchNormV3 f4 [32]
000000 d9 59 97 bd f2 3f c0 be 2e 5a 57 be fa ae 05 be
       -0.07390184 -0.37548786 -0.21030495 -0.1305503
000010 4d 5a 44 bd 6b 90 a3 be bf 0a 86 be 63 07 45 be
       -0.04793768 -0.3194612 -0.26180074 -0.19241099
000020 e0 87 e3 be fd 8a e8 bd 47 5e 52 be a2 f4 41 be
       -0.44439602 -0.11354635 -0.20543776 -0.18940976
000030 43 f8 c8 bd 93 ff c7 be a5 f6 c3 bd 9f f1 58 be
       -0.09812977 -0.39062175 -0.09568528 -0.21185921
000040 96 d4 40 38 88 3d 3a bd c2 87 27 bd 36 88 f5 36
       4.5974353e-05 -0.045468837 -0.040900953 7.317426e-06
000050 d8 2c 2c bd 6f e9 02 36 e1 9e 80 bd 3a a2 7b b8
       -0.042034954 1.9507386e-06 -0.06280304 -5.999415e-05
000060 45 c7 c4 bd 29 59 0c be 90 01 a5 bd 2e bd c6 b6
       -0.0960832 -0.13705887 -0.08056939 -5.9228832e-06
000070 d1 18 2f bd 9a 25 ee bd a9 80 57 38 56 ac a9 bd
       -0.042748276 -0.11628266 5.137982e-05 -0.082848236

resnet_backbone/level_0/batch_normalization_6/FusedBatchNormV31 f4 [32]
000000 20 2b d6 40 c5 73 2e 41 b4 cb d8 3f c4 96 5e 40
       6.6927643 10.903264 1.6937165 3.477952
000010 5c 7f b5 40 24 3c a8 40 4d 17 84 40 4e a3 bb 40
       5.671797 5.2573414 4.1278443 5.8636847
000020 30 6d 67 41 e0 4d bb 40 1a 71 c6 40 e5 88 14 41
       14.464157 5.853256 6.2013063 9.2834215
000030 b3 44 81 40 5c 60 62 41 9a 86 09 40 79 fb 03 41
       4.039636 14.148525 2.1488404 8.248895
000040 a7 6d 17 be 7d bd d7 40 a4 e3 0c 40 74 98 63 bd
       -0.14787923 6.741881 2.201394 -0.055565313
000050 15 84 3b 40 d3 e7 43 bc 42 ee 51 40 0f 14 57 3e
       2.9299366 -0.011957127 3.280167 0.21003745
000060 bc 5c 95 3f 0d 5b 0b 3f ce 59 87 40 cc f1 49 3d
       1.1668925 0.5443581 4.2297125 0.04930286
000070 40 67 1a 40 9f 2d 06 40 bb b9 74 be d1 ef 20 40
       2.4125519 2.0965345 -0.23898976 2.5146372

resnet_backbone/level_0/batch_normalization_5/FusedBatchNormV3 f4 [64]
000000 bc 06 a5 37 58 92 55 be c8 af 0d 39 7b 7a 92 be
       1.9672669e-05 -0.20856607 0.00013512291 -0.2860907
000010 c1 82 59 b8 27 83 77 be c5 2f 0a bf d5 1a 8a be
       -5.1858606e-05 -0.24171124 -0.5397914 -0.26973596
000020 db 17 82 be 31 5c 11 be ed f3 7c be 82 f5 68 be
       -0.25408825 -0.14195324 -0.24702425 -0.22749904
000030 8b 88 a0 be 1e b2 01 be c7 aa 9b be f2 1d 61 be
       -0.31354174 -0.12665603 -0.3040373 -0.2198408
000040 a5 0f ac be e4 aa 2f bf 82 b4 d0 be ef 6b ce be
       -0.33605686 -0.68620133 -0.40762717 -0.40316722
000050 d2 6d b6 b8 3b 04 24 bf 60 ef fe be 0d 8c 59 b9
       -8.698892e-05 -0.64068955 -0.49792004 -0.00020746906
000060 cf 51 76 39 fb 9b e1 be e5 b9 6d 3a f7 3b 0a bf
       0.00023490864 -0.44064316 0.0009068533 -0.5399775
000070 9b 56 f4 be c3 86 c8 be bf a4 cf be d2 a7 cc be
       -0.47722325 -0.39165315 -0.4055538 -0.39971787
000080 80 61 40 b8 f3 19 87 37 ac 7d 7f be 5c 16 1c be
       -4.586717e-05 1.6105338e-05 -0.24950284 -0.15242904
000090 95 65 79 b3 ca 5f 15 be 69 8c af 37 99 b5 b4 b7
       -5.806722e-08 -0.14587322 2.092701e-05 -2.1542235e-05
0000a0 da c6 8b be 95 90 64 be 29 69 7d bf 54 37 78 be
       -0.2730015 -0.22320779 -0.98988587 -0.24239856
0000b0 b5 81 2a be ac 2d 55 be 27 73 b1 be 55 df 36 be
       -0.16651042 -0.20818204 -0.34658167 -0.17858632
0000c0 fc bb 6e be 34 97 16 be a1 33 62 be df ab 34 bf
       -0.23313898 -0.14706117 -0.22090007 -0.70574754
0000d0 9f 77 0b be 8b 8f dc bd 70 ac 80 be 5e bd 30 be
       -0.1361985 -0.10769566 -0.2513156 -0.17259738
0000e0 c0 7d 9a be 2a ae af bd e7 ce f3 34 53 54 66 be
       -0.30174065 -0.08578141 4.5412818e-07 -0.22493105
0000f0 81 71 b7 b9 fb b7 2f be 46 ba 55 be 65 34 08 be
       -0.00034989047 -0.17160027 -0.20871839 -0.13301237

resnet_backbone/level_0/batch_normalization_5/FusedBatchNormV31 f4 [64]
000000 04 74 9f bd 37 90 7c 3f ec 8c dd be 2a 32 29 40
       -0.077858 0.98657554 -0.43271577 2.6436868
000010 05 59 13 3e 03 4a ab 3f 21 28 46 40 5b b8 ea 3f
       0.14389427 1.3381962 3.0961993 1.8337511
000020 88 94 0b 40 60 50 3a 40 8c ba 38 40 26 08 01 40
       2.1809406 2.9111557 2.886386 2.0161223
000030 ea 50 61 40 68 7e bb 3f ba 8c 64 40 7a 59 37 40
       3.5205636 1.4647951 3.5710893 2.8648362
000040 4d 35 6f 40 7f 8d 9c 40 79 19 7d 40 9a 11 aa 40
       3.7376282 4.8922725 3.9546797 5.3146486
000050 a1 18 a6 3e 5c cb 1c 40 1a 70 88 40 6a 13 36 3f
       0.32440665 2.449912 4.2636843 0.71123374
000060 5b df 53 bf c9 46 85 40 d1 3f c7 bf 8f e0 8d 40
       -0.8276269 4.164891 -1.556635 4.433662
000070 9c 13 9f 40 96 63 8c 40 31 42 7d 40 24 e0 90 40
       4.9711437 4.3871565 3.957165 4.527361
000080 1b 9e 95 3e 0c 30 d2 bd 46 49 a0 3f 6b d0 21 40
       0.29222187 -0.102630705 1.2522361 2.5283458
000090 7f 91 e3 39 f7 d1 6e 3f 53 b4 15 be f5 91 02 3e
       0.00043405217 0.9328913 -0.1461957 0.1275099
0000a0 90 4c 6f 40 f4 f0 5d 3f 3b a1 6f 40 ae e0 ec 3f
       3.739048 0.8669579 3.7442157 1.8506067
0000b0 39 aa 86 3f 85 c2 0c 40 cd ee e9 40 e0 04 c7 40
       1.0520698 2.1993725 7.3104005 6.219345
0000c0 27 05 17 40 c0 13 da 3f 22 44 14 40 e4 f4 22 40
       2.3596895 1.7037277 2.3166585 2.546197
0000d0 b0 e8 84 40 63 7a 12 3f cb eb a1 3f 28 d5 df 3f
       4.153404 0.57218 1.2650083 1.7486925
0000e0 e7 e8 23 40 66 0f 9c 3f 33 3d 3f bb 7f 9d 08 3f
       2.5610902 1.2192199 -0.0029180765 0.5336532
0000f0 51 3b 02 3e d7 8a 90 3f fa f1 1e 40 26 5a d4 3f
       0.1271794 1.129237 2.483519 1.6590011

resnet_backbone/level_0/batch_normalization_4/FusedBatchNormV3 f4 [32]
000000 ca 16 88 be 7d c8 c2 bd 0e 4e 85 be d9 35 00 be
       -0.26579887 -0.09510896 -0.26036114 -0.12520541
000010 20 bb db b6 f9 11 a5 be a9 54 8c be d0 4f 05 be
       -6.548493e-06 -0.32240275 -0.2740834 -0.13018727
000020 6c f7 75 bd 2a 5e 16 be ca 9c b3 be d5 94 d9 bd
       -0.060050413 -0.14684358 -0.35080558 -0.106240906
000030 87 8f ea b8 05 5a af bd b1 6c a6 39 6c 2b a3 be
       -0.000111847236 -0.08562092 0.0003174297 -0.31869066
000040 4e a1 12 b8 86 16 c3 bd 25 39 bb bc fb 25 71 bd
       -3.495934e-05 -0.095257804 -0.022854397 -0.05887411
000050 d5 92 cf bd 74 0c b7 b7 95 b2 3f bd 31 18 5a be
       -0.10135428 -2.1821099e-05 -0.04680117 -0.21298291
000060 df 9e 1d 38 79 6c 2a bd 57 8c a6 36 88 9e b6 bd
       3.7579677e-05 -0.041607354 4.963523e-06 -0.08916956
000070 5c ad 5d bd 2b 32 27 be 8a 0f ce bd 2f 57 aa bd
       -0.054120407 -0.16327731 -0.100615576 -0.0831741

resnet_backbone/level_0/batch_normalization_4/FusedBatchNormV31 f4 [32]
000000 95 b0 ad 40 67 c6 b2 41 d0 03 32 41 37 77 75 41
       5.4278054 22.346876 11.125931 15.341605
000010 5e c5 ce 3c 45 43 10 41 62 b4 08 41 28 c9 d5 40
       0.025240596 9.016423 8.544039 6.680805
000020 ee 44 c5 40 ff c4 0e 41 f4 de f9 40 3a 38 e0 40
       6.1646643 8.923095 7.808466 7.0068636
000030 f5 69 eb 3e ad 85 f5 40 bd 93 d2 be 5c a3 1b 41
       0.45979276 7.672568 -0.4112834 9.727383
000040 85 ac a5 3e 5b a9 91 3f 43 e8 7c 40 7f 35 82 40
       0.32358184 1.1379808 3.9516761 4.0690303
000050 8a 31 a6 3f 6e e5 e1 3d d0 58 f2 3f 11 7b 15 3f
       1.2983868 0.11030088 1.8933353 0.5839091
000060 e3 c2 19 be 53 9a 1b 40 cb ad 05 bd 2c 0c 05 40
       -0.1501575 2.4312942 -0.032636445 2.078868
000070 6d e7 ac 40 85 30 78 40 35 d8 4c 40 ca 62 ab 40
       5.40325 3.8779614 3.2006962 5.355809

resnet_backbone/level_0/batch_normalization_3/FusedBatchNormV3 f4 [64]
000000 c4 cf 1b be 8b 3e ed be 63 7c 78 be 50 46 04 bf
       -0.15215975 -0.4633678 -0.242662 -0.5166979
000010 fe 1d 86 be 30 54 14 bf 31 fc f0 be 06 82 6f be
       -0.26194757 -0.5794096 -0.47067407 -0.23389444
000020 f2 bf 2a bf 02 13 c7 37 c6 76 3e bf ba ff db be
       -0.66699135 2.37315e-05 -0.74399984 -0.4296854
000030 86 ee 20 b9 2b 43 de 37 f7 58 f1 be 3c ae 75 be
       -0.00015347646 2.649574e-05 -0.47138187 -0.23992246
000040 c1 d2 1d b8 ab f9 81 b9 75 5a 90 b9 07 77 e5 be
       -3.7627997e-05 -0.00024790814 -0.00027533216 -0.44817373
000050 3b 85 56 b7 6e e0 14 38 36 06 ef be 6e 22 a5 be
       -1.2786414e-05 3.5494966e-05 -0.46684426 -0.3225283
000060 af a3 f8 be aa 61 a2 38 0a 2b 7d b9 78 f3 15 bf
       -0.4856238 7.742953e-05 -0.00024143994 -0.5857463
000070 f8 7e d8 be d0 f8 3b bf 12 03 7c bf 86 33 d0 39
       -0.4228437 -0.7342653 -0.98442185 0.0003971124
000080 ff f9 7f be 48 41 21 be 22 2c c1 b6 3b 7f 04 b6
       -0.2499771 -0.15747559 -5.756986e-06 -1.974359e-06
000090 7e 77 a7 be f2 a5 eb b5 f9 d2 5c be 31 db 3a be
       -0.32708353 -1.7557161e-06 -0.21564855 -0.18247677
0000a0 a1 57 db b5 4d 12 71 be e0 63 b7 be ab f2 2e bf
       -1.6342275e-06 -0.23542137 -0.35818386 -0.6833903
0000b0 99 19 19 b9 63 37 7d be 22 fb 82 be 4c a2 c2 be
       -0.00014600753 -0.2472816 -0.25582224 -0.38014448
0000c0 a8 b7 f7 be 8d a2 c0 be f8 77 bb be 05 dc 99 be
       -0.48382306 -0.37624016 -0.36614966 -0.30050674
0000d0 4c 05 b2 be d1 ee b4 be df a5 35 be 4b c6 cc be
       -0.34769666 -0.35338452 -0.17739056 -0.39995036
0000e0 50 cb c9 be d5 b3 11 bf 6c 2c 11 be 4d 66 c7 be
       -0.39412928 -0.56915027 -0.14177102 -0.38945237
0000f0 86 f8 21 be 99 64 b1 be 52 d8 7d be 42 fc e1 bb
       -0.1581746 -0.34647062 -0.24789551 -0.0068965266

resnet_backbone/level_0/batch_normalization_3/FusedBatchNormV31 f4 [64]
000000 72 d2 a6 3f d9 22 05 3f b1 1c 9e 3f 5b 0c e8 3e
       1.3032973 0.520063 1.2352506 0.45321926
000010 d1 9d bf 3f 84 ad 64 3f 93 07 83 3f ee 06 ac 3f
       1.4970037 0.89327264 1.0236686 1.3439615
000020 46 69 82 3f 4c b2 5f bd 5c 77 23 3f 2c 4f 86 3f
       1.0188377 -0.054613397 0.63854 1.0492911
000030 e2 43 54 3e 83 9c 93 bd 69 df 75 3f c3 5c ff 3f
       0.2072902 -0.072075866 0.9604402 1.9950184
000040 74 55 9f 3d d6 b8 f5 3e fd db e5 3e b1 58 65 40
       0.07779971 0.4799258 0.448944 3.5835383
000050 df cf fd 3c 92 f0 bb bd 34 d4 41 40 05 b0 01 40
       0.03098291 -0.091767445 3.0285769 2.0263684
000060 d3 23 16 40 7a 9a 44 be d1 cd d7 3e e0 ae 87 40
       2.3459365 -0.19199553 0.42149213 4.240097
000070 cc fb 8c 40 1f a8 84 40 68 52 14 40 12 29 07 bf
       4.405737 4.1455226 2.3175297 -0.52797043
000080 1f 1a 80 3f f2 50 38 3f 05 2c 89 3c 0b 4f e0 3b
       1.0007972 0.7199851 0.016744623 0.00684536
000090 e3 c1 72 3f d7 8a ce 3b 82 00 b6 3e c2 72 97 3f
       0.948271 0.006303172 0.35547262 1.1831896
0000a0 95 64 ae 3b 7f 45 9b 3f 31 65 58 3f 07 5e 6c 3f
       0.005322049 1.2130584 0.84529406 0.92330974
0000b0 ee 1b c0 3e 13 7e 8b 3f e6 f2 a2 3f 4f 3c 80 3f
       0.3752131 1.089785 1.2730377 1.0018405
0000c0 3f 62 f0 3e e1 bf 31 3f 0a 8f 95 3f 96 fe 16 3f
       0.46949956 0.6943341 1.1684277 0.5898222
0000d0 f1 fa 27 3f 26 7d 9d 3e 9d f8 3e 3f 66 85 60 3f
       0.6561728 0.30759543 0.74598104 0.8770355
0000e0 36 d8 61 3f 97 c8 73 3f c0 07 2e 3f 98 67 69 3f
       0.88220537 0.9522795 0.67980576 0.91173697
0000f0 98 49 22 3f a8 a3 89 3f a8 bb cb 3f f7 e6 38 3e
       0.63393545 1.0753069 1.5916643 0.18056856

resnet_backbone/level_0/batch_normalization_2/FusedBatchNormV3 f4 [32]
000000 e3 66 53 bf 0d 99 37 bf bd 54 80 bf 16 30 cf bd
       -0.8257887 -0.7171791 -1.002586 -0.101165935
000010 35 e5 89 be 43 b4 04 bf d2 9b 16 bf fa 89 bf 38
       -0.26932684 -0.5183756 -0.5883151 9.13329e-05
000020 02 42 c7 be f8 b2 f3 bd 64 ec 9a be ff 44 4c be
       -0.38917547 -0.1189937 -0.30258477 -0.19948195
000030 da 17 00 b7 25 0a 83 be b0 44 6c b9 ca 8b 01 be
       -7.634948e-06 -0.25593677 -0.00022532302 -0.12650982
000040 d1 c8 e9 be 81 8b fc be 24 67 03 be 93 58 de be
       -0.45661023 -0.49325183 -0.12832314 -0.43426952
000050 ab d2 9d be 61 42 d5 bd 74 91 a1 bd 22 cd 39 bf
       -0.3082479 -0.104130514 -0.07889071 -0.7257863
000060 87 30 89 be 1b 00 1e 38 71 59 67 be ab 7d 06 be
       -0.26794836 3.7670234e-05 -0.22592713 -0.13133876
000070 80 ba 39 be 7f 8a 24 be 97 90 1d be 7f 9f 11 bf
       -0.1813755 -0.16068457 -0.15387188 -0.56883997

resnet_backbone/level_0/batch_normalization_2/FusedBatchNormV31 f4 [32]
000000 63 d7 f1 40 0a 4f c8 40 dd 21 98 40 99 db 23 41
       7.5575423 6.2596483 4.7541337 10.241113
000010 95 0c 23 41 ce 29 27 41 28 71 27 40 97 5e f2 be
       10.190572 10.447706 2.6162815 -0.4733779
000020 9b f5 84 40 5f 5f ab 40 1f 10 42 40 f7 70 c8 40
       4.154981 5.355392 3.032234 6.2637897
000030 c7 81 2f 3d 00 2b 13 41 13 c6 69 3f 3e 2b 1d 41
       0.042848375 9.197998 0.9131786 9.823057
000040 dd b9 32 40 e6 b1 7d 40 69 07 fb 40 20 26 61 40
       2.7925942 3.963983 7.8446546 3.517952
000050 f8 07 1b 40 9c 80 36 41 1c 9a f5 40 fb 11 18 40
       2.4223614 11.406399 7.675062 2.3760974
000060 8a 6c d8 40 21 b0 4e be af 19 28 40 2f b7 cd 40
       6.7632494 -0.20184375 2.6265676 6.4286113
000070 22 ab b9 40 4f db 80 40 97 ed 06 41 a4 b3 24 40
       5.80214 4.026771 8.433005 2.5734644

resnet_backbone/level_0/batch_normalization_1/FusedBatchNormV3 f4 [64]
000000 8c 1b 68 bf de d2 6f bf 0a ee 31 be a6 f6 d5 b6
       -0.90667033 -0.9368113 -0.17375961 -6.3766083e-06
000010 ab a2 53 be ba e6 cf 38 f9 0c 5f be 49 6d bd be
       -0.20667522 9.913505e-05 -0.21782292 -0.3699744
000020 d3 ab e8 be b9 74 f9 be fe e9 5f 38 eb fe fb be
       -0.4544359 -0.48721865 5.3385265e-05 -0.49217924
000030 65 15 02 bf 0c be 06 bf 02 6a 85 be 06 bc 93 37
       -0.50813895 -0.5263374 -0.2605744 1.761132e-05
000040 57 59 d8 be ae eb 56 bf ce 59 e7 be 88 ae 80 be
       -0.4225566 -0.8395337 -0.45185703 -0.25133157
000050 e4 d6 24 bf 9f d7 fc be 87 35 a1 be 50 48 3f bf
       -0.643904 -0.49383256 -0.3148615 -0.74719715
000060 77 43 aa be f5 0e 38 bf 0a 33 2a bf 58 20 e7 be
       -0.33254597 -0.7189782 -0.6648413 -0.45141864
000070 7f 98 2c bf c0 98 da be af f4 28 bf 9b 60 0f bf
       -0.6742019 -0.42694664 -0.6599836 -0.56006783
000080 e7 4f 02 bf 08 60 05 37 11 41 87 be 95 41 7c be
       -0.5090317 7.949777e-06 -0.2641683 -0.24634393
000090 a9 d6 04 bf 66 dc 56 bf 12 d1 96 b5 fe c3 2e b6
       -0.51890045 -0.8393005 -1.1236718e-06 -2.6042103e-06
0000a0 ea de 91 be 2f 8d bb 35 a6 28 51 be ef e2 7e bf
       -0.28490382 1.3973676e-06 -0.20425662 -0.99565023
0000b0 42 a6 17 bf 81 6a 84 bf e7 d0 50 be 70 42 b9 be
       -0.59238064 -1.0345002 -0.2039219 -0.361835
0000c0 22 40 89 be 51 a8 0d bf 94 b1 14 bf 83 6e bd be
       -0.26806742 -0.55334955 -0.5808346 -0.36998376
0000d0 5a 62 64 be cf 19 e1 be 3f 15 da be fc 81 53 be
       -0.22303143 -0.43965003 -0.42594334 -0.20655054
0000e0 86 8e c8 36 3a f8 c6 be b1 50 00 bf ee 61 ae be
       5.9770564e-06 -0.38861257 -0.50123125 -0.3405909
0000f0 61 b8 63 bd 38 52 2d b7 98 29 b9 be 43 df a0 be
       -0.05559576 -1.0330747e-05 -0.36164546 -0.31420335

resnet_backbone/level_0/batch_normalization_1/FusedBatchNormV31 f4 [64]
000000 ff 51 23 3f 8f 8a f8 3e a9 f0 8e 3f cf f1 76 3c
       0.6379699 0.48543212 1.1167194 0.0150723
000010 04 38 0b 40 8b 4f 05 be f0 fb 89 3f 51 fc 82 3f
       2.175294 -0.13018624 1.078001 1.0233251
000020 d4 5c ad 3f bf e3 a4 3f 45 c0 e7 bd 72 fc 73 3f
       1.3543954 1.2882003 -0.113159694 0.95307076
000030 4b a9 83 3f 36 c5 ac 3f cc 0a a8 3f bd b6 0c bd
       1.0286039 1.3497684 1.3128295 -0.03435396
000040 84 d5 03 40 d9 88 c4 3f f7 8b 59 40 b7 97 f7 3f
       2.059907 1.5354263 3.3991678 1.9343175
000050 df b1 0f 3f 4b c1 76 3f e3 33 84 3f 12 00 9d 3f
       0.56130785 0.9638869 1.0328335 1.2265646
000060 80 ea 0a 40 92 4e cd 3f db 1c fa 3f ef 69 89 3f
       2.1705627 1.6039603 1.9540056 1.0735453
000070 06 ba a5 3f b3 96 32 40 a5 a9 3f 3f 19 e0 b9 3f
       1.2947395 2.790448 0.7486823 1.4521514
000080 97 54 cc 3e ab d3 c2 bc ee ed a7 3f 7a 46 7e 3e
       0.39908287 -0.023782572 1.3119485 0.24831572
000090 cd e2 5e 3f 1f b2 fd 3e 6d 8d 71 3b 75 7a 07 3c
       0.8706482 0.49549958 0.0036857978 0.008268942
0000a0 c7 b3 36 3f bb 4d ae bb a3 74 11 3f 3a f6 81 3f
       0.7136807 -0.005319325 0.568186 1.0153267
0000b0 ad 28 82 3f 60 82 35 3f ba 34 35 3f fa c1 73 3f
       1.0168663 0.7090206 0.7078358 0.9521786
0000c0 23 db e1 3e 78 41 18 3f c4 14 30 3f d5 f8 53 3f
       0.441125 0.594749 0.68781686 0.8280156
0000d0 16 1a 1b 3f 03 09 3f 3f 37 79 6f 3f 53 90 13 3f
       0.6058668 0.74623126 0.93544334 0.57642096
0000e0 f0 7e 26 bc bb 58 8a 3f f7 52 10 3f d5 3e 79 3f
       -0.0101621 1.0808328 0.56376594 0.973615
0000f0 a9 5a 44 3f 31 b1 ce 3c 19 76 43 3e 30 d8 46 3f
       0.76700836 0.025230976 0.1908802 0.77673626

resnet_backbone/level_0/batch_normalization/FusedBatchNormV3 f4 [32]
000000 0c aa ca be 88 21 0d 39 6a b8 91 37 53 ea 52 be
       -0.3958286 0.00013459299 1.7371221e-05 -0.205972
000010 a7 b2 fd be 1d ad b2 be 39 2d 50 bf 20 d5 02 b9
       -0.49550363 -0.348977 -0.81319004 -0.00012477161
000020 f0 29 c7 be 1f b8 fb be 77 35 80 be 8f 64 76 bf
       -0.38899183 -0.4916391 -0.2504079 -0.9624719
000030 bd 85 d3 be b6 0e 08 b8 93 09 1d bf 7c a5 09 bf
       -0.41312972 -3.2438627e-05 -0.61342734 -0.53768134
000040 1b 67 fe be 0f 00 30 bf 70 c4 ca 38 3f e8 8d bf
       -0.49688038 -0.6875009 9.6687e-05 -1.1086501
000050 e5 f3 13 38 bd 96 1d b8 aa 05 4d be 17 76 b3 b7
       3.5274676e-05 -3.7572103e-05 -0.20021692 -2.1393453e-05
000060 cf ca 85 be a7 22 9b be c1 d5 a3 37 59 2c 06 bc
       -0.26131293 -0.30299875 1.9530651e-05 -0.008189284
000070 84 65 ca bd 0f 0c 05 bf 22 c2 8e be d0 dc 69 be
       -0.09882644 -0.51971525 -0.27882487 -0.2283814

resnet_backbone/level_0/batch_normalization/FusedBatchNormV31 f4 [32]
000000 15 b0 fd 41 19 17 f6 be 21 83 97 bd da ef d6 3f
       31.710978 -0.48064497 -0.07398058 1.6791947
000010 75 04 fd 41 1a d2 0c 42 de 2e 17 41 f1 64 e2 3e
       31.627176 35.205177 9.448942 0.44217637
000020 af 33 8d 41 a7 e4 10 42 93 6b 0e 41 ca ad 20 40
       17.650236 36.223293 8.901263 2.5106072
000030 66 96 2e 41 f1 67 31 3e eb fb 82 41 74 b9 40 40
       10.911718 0.17324807 16.373007 3.0113192
000040 2f 1b 69 3f 8f 39 96 40 b3 0f 9f be 13 07 ce 3f
       0.91057104 4.694526 -0.31066665 1.6095909
000050 b6 27 48 be 6f 1f 16 3e a9 92 4e 41 f7 e8 cc 3d
       -0.19546399 0.14660428 12.910806 0.10005372
000060 06 9c 2a 40 0e de 40 40 fe 68 cb bd 58 1c e5 3e
       2.665773 3.0135531 -0.09932135 0.44748187
000070 c9 f3 37 40 18 58 3a 40 f1 86 1b 41 53 af 13 41
       2.8742545 2.9116268 9.720445 9.230304

denoiser_head/conv2d_29/Conv2D f4 [3, 1, 1, 32]
000000 a2 70 26 bb 4f b8 47 3b 37 90 81 ba 8a 90 72 ba
       -0.0025396724 0.0030474847 -0.0009884898 -0.00092531054
000010 b8 56 83 3c 8a 79 5c 38 6c 2c 6f 3a 96 3f 56 b9
       0.016032562 5.256528e-05 0.0009123746 -0.00020432318
000020 a5 18 4a 3b 93 12 6b ba c4 c4 97 3c fe 23 1a 3c
       0.0030837443 -0.00089673063 0.018526442 0.009407995
000030 58 a4 b7 bd 0a d3 65 b9 e9 5b 93 3c 38 64 3b ba
       -0.08966893 -0.0002191776 0.017988162 -0.00071484176
000040 90 58 b9 39 9b 01 3a bd f8 72 2d b9 d5 07 c5 ba
       0.00035351934 -0.045411687 -0.00016541395 -0.0015032241
000050 0e e2 15 be ba 57 09 39 3e 0f 34 3a 27 5a 8c 39
       -0.14637014 0.00013098019 0.00068687263 0.0002677005
000060 1c ff c1 ba 00 a9 a3 b4 9e cb d7 39 16 10 04 bd
       -0.001480076 -3.048408e-07 0.00041159702 -0.032241903
000070 49 e6 1f 3a 19 a6 31 39 a6 25 10 3a ac 70 3f 39
       0.0006099684 0.00016941912 0.0005498774 0.00018257153
000080 53 b7 9d 38 0a ec 4a bc 52 55 d8 3a 60 86 26 ba
       7.52049e-05 -0.012385378 0.001650492 -0.0006352421
000090 29 54 63 3c 6b 3e a1 38 14 97 8a 38 75 6c 98 ba
       0.013875046 7.6887045e-05 6.608493e-05 -0.0011629002
0000a0 b0 a5 ff ba 0e 61 10 ba f4 c5 e7 bc c6 ce c0 ba
       -0.0019504335 -0.00055076263 -0.028292634 -0.0014710061
0000b0 d0 61 bc bb 2e 3b a6 b9 16 96 81 3c 58 a3 59 3a
       -0.005748965 -0.0003170608 0.015818637 0.0008302233
0000c0 98 0a 05 ba ec 30 83 3d b2 f5 e9 39 28 a2 fc b9
       -0.0005075126 0.064058155 0.0004462428 -0.00048186
0000d0 a1 38 19 be d7 0f f1 b9 63 9a ab 3a e3 c5 a2 ba
       -0.14963008 -0.00045978904 0.0013092275 -0.0012418594
0000e0 3f 28 49 3a 84 24 07 39 f3 6b 47 3a f1 fb 04 bd
       0.00076735386 0.00012888206 0.0007607333 -0.032466833
0000f0 ca c9 9f b8 6b c1 b8 3a 40 a3 03 b9 4a 19 7e 39
       -7.619297e-05 0.0014095729 -0.00012553949 0.00024232749
000100 aa 7f 7b 3b 3a e9 af 3a 04 2c 5c 3a 15 ad 30 39
       0.0038375654 0.0013420947 0.0008398893 0.00016849146
000110 9c 97 97 3c 92 7c 4c b8 88 bc 97 b9 6a 1f 79 b9
       0.01850491 -4.8753405e-05 -0.0002894143 -0.00023758193
000120 73 6d 04 3b 24 73 27 ba 98 52 5c 3c b2 1a cc bb
       0.0020206838 -0.0006387702 0.013447426 -0.0062287683
000130 e1 03 d7 3d 03 08 55 ba 65 c9 9b 3c c5 c2 36 3a
       0.10498787 -0.0008126499 0.01901693 0.0006971772
000140 f8 c0 6a b8 d0 85 da bc e6 e4 8a b8 b2 92 ce ba
       -5.5969664e-05 -0.026675135 -6.6229884e-05 -0.0015760271
000150 f9 e3 1e be 46 c2 4d b8 ba 73 28 3a 7e 85 6d b9
       -0.15516652 -4.905674e-05 0.0006425936 -0.00022651811
000160 31 46 17 ba 94 7a 0d 3a c8 69 a3 39 e7 fc 07 bd
       -0.0005770652 0.00053969887 0.00031168596 -0.03320017
000170 e5 f2 97 b9 69 9b a0 3a 21 b5 a2 39 ec 21 46 39
       -0.00028981935 0.0012253347 0.00031034 0.00018895388

denoiser_head/conv2d_29/Conv2D1 f4 [3]
000000 00 00 00 00 00 00 00 00 00 00 00 00
       0.0 0.0 0.0
