bfcnn/pretrained/resnet_color_laplacian_3x5_non_shared_bn_16x3x3_128x128_residual/model.tflite (tflite, 189472 bytes, 150 tensors)

resnet_denoiser/level_0/batch_normalization/FusedBatchNormV3 f4 [16]
0	0xbf0228bc	-0.50843406
1	0x3e657d30	0.22411036
2	0xbef218ba	-0.4728449
3	0x3dcb1cc5	0.09917597
4	0x3e747724	0.23873574
5	0xbe26ac45	-0.16276653
6	0xbf05379b	-0.5203797
7	0xbead5a0c	-0.33857763
8	0x3e913603	0.2836152
9	0xbc737730	-0.0148599595
10	0xbd6291d3	-0.05531485
11	0x3e8e3f19	0.27782515
12	0x3efc3f06	0.49266833
13	0x3d92ccd7	0.07167976
14	0x3e4f1252	0.20221832
15	0xbea5c972	-0.32380253

resnet_denoiser/level_0/batch_normalization/FusedBatchNormV31 f4 [16]
0	0x3f9a1796	1.2038448
1	0x40643734	3.5658693
2	0x400598fd	2.0874627
3	0x40400621	3.000374
4	0x407e3108	3.9717426
5	0x3f7b8acd	0.9825867
6	0x3fe320a9	1.7744342
7	0x408846bc	4.2586346
8	0x4031f36e	2.7804828
9	0x3fe9a330	1.8252926
10	0x40c98123	6.2970138
11	0x3fdd0c3f	1.7269362
12	0x40a821b2	5.254113
13	0x3fee7fc0	1.8632736
14	0x4088b042	4.271516
15	0x405be3b7	3.4357736

resnet_denoiser/level_0/batch_normalization_1/FusedBatchNormV3 f4 [16]
0	0xbe3423c7	-0.17591773
1	0xbde9c1d9	-0.11413927
2	0xbddf792c	-0.109117836
3	0xbdfa165c	-0.12211296
4	0xbcd74137	-0.026276214
5	0xbe2a505a	-0.16632214
6	0xbd9bccbc	-0.07607409
7	0xbd32f6c4	-0.043692365
8	0xbdc53f54	-0.096312195
9	0xbd2850f8	-0.041092843
10	0xbcd0452d	-0.02542361
11	0xbddf628f	-0.109074704
12	0xbc429d35	-0.011878301
13	0xbca5dc31	-0.020246597
14	0xbd756892	-0.05991418
15	0xbd7eddad	-0.062223125

resnet_denoiser/level_0/batch_normalization_1/FusedBatchNormV31 f4 [16]
0	0x3f666da8	0.9001107
1	0x3fe509e8	1.7893648
2	0x3fe27308	1.7691355
3	0x3fc42370	1.5323315
4	0x412e2d3e	10.886045
5	0x3f1685a6	0.5879768
6	0x402a6755	2.662557
7	0x407e2836	3.9712043
8	0x3fa9f6ae	1.3278406
9	0x4099f042	4.8105783
10	0x40ee0897	7.4385486
11	0x3ff63635	1.9235293
12	0x4117eada	9.494837
13	0x40e3edc8	7.122776
14	0x4019cd23	2.4031456
15	0x40590b0c	3.3912992

resnet_denoiser/level_0/batch_normalization_10/FusedBatchNormV3 f4 [16]
0	0xbc8ca647	-0.017169131
1	0xbca024ad	-0.019548738
2	0xbcef9587	-0.029246105
3	0xb410d765	-1.3489405e-07
4	0xbc676408	-0.01412297
5	0x3420629e	1.4937038e-07
6	0xbc9def74	-0.01927922
7	0xbc6e37ef	-0.014539703
8	0xbcbdd900	-0.023174763
9	0xbc9431a5	-0.018090079
10	0xbcb707f4	-0.02234266
11	0xbcc14313	-0.023591554
12	0xbc5f7297	-0.01363816
13	0xbd31c252	-0.04339821
14	0xb431418e	-1.6508258e-07
15	0xbd31430e	-0.04327684

resnet_denoiser/level_0/batch_normalization_10/FusedBatchNormV31 f4 [16]
0	0x4149b51c	12.606716
1	0x40eaa69d	7.3328385
2	0x41239cb9	10.225762
3	0x3fca9e1e	1.5829504
4	0x40f00d3a	7.5016146
5	0xbfdccb87	-1.7249612
6	0x4106c6d7	8.423545
7	0x40eefaf3	7.4681334
8	0x40f24997	7.571483
9	0x4123a5ca	10.227976
10	0x41180fb7	9.503837
11	0x4124a957	10.291343
12	0x4118e55c	9.555996
13	0x411e59e0	9.896942
14	0x3fe5330a	1.7906201
15	0x40dfe0c0	6.9961853

resnet_denoiser/level_0/batch_normalization_11/FusedBatchNormV3 f4 [32]
0	0xbdbf5147	-0.09341674
1	0xbe167496	-0.14692912
2	0xbe1bcbd8	-0.15214479
3	0xbded5078	-0.11587614
4	0xbd909837	-0.07060283
5	0xbec36dce	-0.38169712
6	0xbdff33e3	-0.124610685
7	0xbe1b58b1	-0.15170552
8	0xbd9cfc65	-0.07665328
9	0xbd91b99b	-0.071154796
10	0xbda22476	-0.079171106
11	0xbd2388a0	-0.039925218
12	0xb325a15e	-3.856382e-08
13	0x34a7f61b	3.128524e-07
14	0xbd37bfca	-0.04486064
15	0xbda522af	-0.08063256
16	0xbddadf99	-0.10687179
17	0xbddc6d31	-0.10763014
18	0xbd88fa2e	-0.06688343
19	0xbdcfbc64	-0.101433545
20	0xbe04d70c	-0.12972659
21	0xbe52fe26	-0.20604762
22	0xbcb67baf	-0.022275774
23	0xb3aca54f	-8.0394436e-08
24	0xbe46c3d6	-0.19410643
25	0xbdc5786a	-0.09642108
26	0xbdac12f6	-0.08402054
27	0xbea42d34	-0.32065737
28	0xbe13eec0	-0.14446545
29	0xbdd64fbb	-0.10464426
30	0xbe8e6211	-0.27809194
31	0xbe3973ea	-0.18110624

resnet_denoiser/level_0/batch_normalization_11/FusedBatchNormV31 f4 [32]
0	0x40c4743e	6.1391897
1	0x40772a5f	3.8619611
2	0x400ebb44	2.2301798
3	0x3fe093ee	1.7545145
4	0x4101dd8e	8.1165905
5	0x3fd93b04	1.6971135
6	0x40b6d7c4	5.7138386
7	0x40b17f80	5.546814
8	0x403100ef	2.765682
9	0x4007855b	2.1175144
10	0x4005cb59	2.0905364
11	0x40790547	3.890947
12	0x402c26e2	2.6898732
13	0xc0296aae	-2.6471362
14	0x402b6d36	2.6785407
15	0x4034b73c	2.8236837
16	0x40768d34	3.8523684
17	0x40b4c75e	5.649337
18	0x40c8e53f	6.277984
19	0x40476d05	3.116029
20	0x402696b6	2.6029487
21	0x40a1bb4d	5.054114
22	0x40321698	2.782629
23	0xc05f4ec5	-3.4891827
24	0x40b8f9bb	5.7804847
25	0x408d165a	4.4089785
26	0x40da0fce	6.8144293
27	0x4004d51d	2.0755074
28	0x40117015	2.272466
29	0x40d693bf	6.7055354
30	0x3fdafe35	1.7108828
31	0x404f3ecd	3.238208

resnet_denoiser/level_0/batch_normalization_12/FusedBatchNormV3 f4 [16]
0	0xbd5681b1	-0.052369777
1	0x3c917bb2	0.017759178
2	0xbd97c4bf	-0.07410573
3	0x3b1c37d8	0.0023836996
4	0x3b838047	0.0040130946
5	0xbd366c7d	-0.044537056
6	0xbd22f372	-0.03978295
7	0xbb7304ae	-0.0037081647
8	0x3cc0ce09	0.023535745
9	0xbaa464e4	-0.0012542275
10	0xba1ad96b	-0.00059070316
11	0x3da6b077	0.08139127
12	0x3d22780a	0.03966526
13	0x3be95a3a	0.0071213515
14	0x3c31dda9	0.010856071
15	0xbc00ed0e	-0.007869018

resnet_denoiser/level_0/batch_normalization_12/FusedBatchNormV31 f4 [16]
0	0x3dfdf2f4	0.12399855
1	0x3e90ad0a	0.28257018
2	0x3ea780af	0.32715365
3	0x3d93b095	0.07211415
4	0x3d88bb9f	0.06676411
5	0x3e89a81a	0.26886064
6	0x3e0ae933	0.13565521
7	0x3d3f0b01	0.046641354
8	0x3e6c4686	0.23073778
9	0x3e1dc207	0.15406047
10	0x3d89b7e9	0.06724531
11	0x3f018408	0.5059209
12	0x3ed89557	0.42301437
13	0x3e3d8ee3	0.18511538
14	0x3e6ad1c5	0.22931583
15	0x3daaffe0	0.083495855

resnet_denoiser/level_0/batch_normalization_13/FusedBatchNormV3 f4 [16]
0	0xb4820448	-2.4217502e-07
1	0xbd1ea551	-0.038731877
2	0xbc73033d	-0.014832315
3	0xbcd4009d	-0.025879199
4	0xbcb72d72	-0.022360537
5	0xbcabf313	-0.02098993
6	0xbd9a425c	-0.07532188
7	0xbcdf4cc8	-0.027258292
8	0x344a69ed	1.8851252e-07
9	0xbc104a39	-0.008806759
10	0xbc1bfbca	-0.00952048
11	0xbc6ad129	-0.014332094
12	0xbcc83343	-0.024438506
13	0xbce37354	-0.027764954
14	0xbc77389e	-0.015089182
15	0xb45a401d	-2.0326156e-07

resnet_denoiser/level_0/batch_normalization_13/FusedBatchNormV31 f4 [16]
0	0x3f9c4a20	1.2210121
1	0x40cb5e65	6.355273
2	0x4161c320	14.110138
3	0x40ee17ff	7.440429
4	0x4104c223	8.297397
5	0x410a52a2	8.645174
6	0x41237463	10.215915
7	0x40e87271	7.26397
8	0xbf952200	-1.1651001
9	0x41f4878c	30.566185
10	0x416db71d	14.857205
11	0x413e57c8	11.896431
12	0x415539e2	13.326632
13	0x40be3667	5.944141
14	0x41094503	8.579349
15	0x3fa23589	1.2672588

resnet_denoiser/level_0/batch_normalization_14/FusedBatchNormV3 f4 [32]
0	0x3457ef3d	2.011047e-07
1	0xb44abf9f	-1.8882427e-07
2	0xbe2c3471	-0.1681688
3	0xbe2032b5	-0.15644343
4	0xbd578ba7	-0.052623417
5	0xb489f609	-2.5697253e-07
6	0xbe36559d	-0.17806096
7	0x34799cd3	2.3246984e-07
8	0xbdcaccc1	-0.09902335
9	0xbd8b5158	-0.068026245
10	0xb4832734	-2.4429175e-07
11	0xbc79e036	-0.01525121
12	0x3489dc6b	2.5678614e-07
13	0xb444ca2b	-1.8327471e-07
14	0xbdedb426	-0.11606626
15	0xbd551e75	-0.052031
16	0xb492d8b9	-2.7352306e-07
17	0xbcea34bf	-0.028589604
18	0xbe5e4b60	-0.21708441
19	0xbd75748f	-0.059925612
20	0xbd9a78e4	-0.07542589
21	0xbd2974f6	-0.04137131
22	0x34b63102	3.39358e-07
23	0xb4b96225	-3.4530345e-07
24	0xbd8ef0b6	-0.06979506
25	0xb416fddd	-1.4062194e-07
26	0xbd039f63	-0.032134425
27	0xbda6dbcd	-0.081473924
28	0x34b34e6c	3.3398408e-07
29	0xbe09c788	-0.13455021
30	0xbd9df197	-0.07712095
31	0xbe604f70	-0.21905303

resnet_denoiser/level_0/batch_normalization_14/FusedBatchNormV31 f4 [32]
0	0xbfa9866c	-1.3244147
1	0x3fa97ac4	1.324059
2	0x3f483ae2	0.7821485
3	0x400bb3ca	2.1828485
4	0x40053e05	2.0819104
5	0x3faa9651	1.3327123
6	0x4027162b	2.610728
7	0xbfaf89c9	-1.3713924
8	0x400460ea	2.0684152
9	0x3f465744	0.77476907
10	0x3fb63edf	1.4237937
11	0x3fc65de7	1.5497407
12	0xbfaa0fdb	-1.3286089
13	0x3fb1b18e	1.388231
14	0x3fe84987	1.8147439
15	0x413e82c7	11.906928
16	0x3fe43881	1.7829744
17	0x3fed39c8	1.8533258
18	0x3f4590e9	0.7717424
19	0x3fc24345	1.5176779
20	0x40235d3f	2.5525663
21	0x413ed4ae	11.926924
22	0xbfcf43e1	-1.619259
23	0x3fdfba85	1.7478796
24	0x406d9d8e	3.7127414
25	0x3fdd4352	1.728617
26	0x3fb88944	1.441689
27	0x3fb89393	1.4420036
28	0xbfd44f01	-1.658661
29	0x3f639f96	0.88915384
30	0x4139a125	11.601842
31	0x3f7f32d3	0.99686927

resnet_denoiser/level_0/batch_normalization_15/FusedBatchNormV3 f4 [16]
0	0xbcf2dbc6	-0.029645812
1	0x3c513d97	0.012771032
2	0xbc9a53c9	-0.01883878
3	0x3b19566c	0.0023397459
4	0x3b4e80ce	0.003150988
5	0xbc3fa8fc	-0.011698004
6	0xbc9c4cdc	-0.019079618
7	0xbb95cdf1	-0.0045716693
8	0x3c34a7a7	0.0110263
9	0xb9fe45c9	-0.0004849865
10	0xba241849	-0.0006259722
11	0x3aa61bb6	0.0012673053
12	0x3bdd5294	0.006754229
13	0x3b2c58ad	0.0026297972
14	0x3b5a5f6c	0.0033321036
15	0xbc18461c	-0.009294059

resnet_denoiser/level_0/batch_normalization_15/FusedBatchNormV31 f4 [16]
0	0x3d8fc1ce	0.07019387
1	0x3e501460	0.20320272
2	0x3daa53a3	0.08316734
3	0x3d90f76b	0.07078441
4	0x3d56b80c	0.052421615
5	0x3d90a058	0.07061833
6	0x3d853dcb	0.06505927
7	0x3d6b87c4	0.057502523
8	0x3ddd62db	0.10809871
9	0x3d740211	0.059572283
10	0x3d91f0f4	0.07126036
11	0x3c011073	0.007877457
12	0x3d938516	0.072031185
13	0x3d8c005b	0.06836005
14	0x3d9025fe	0.070384964
15	0x3dc9f777	0.09861653

resnet_denoiser/level_0/batch_normalization_2/FusedBatchNormV3 f4 [32]
0	0xbe0cca16	-0.13748965
1	0xbe3e0c7f	-0.18559454
2	0xbdecf5aa	-0.11570294
3	0xbd6905ac	-0.056890175
4	0xbe00608f	-0.12536834
5	0xbe0061c4	-0.12537295
6	0xbd90d08b	-0.070710264
7	0xbdf8a9c3	-0.121417545
8	0xbe60848c	-0.21925563
9	0xbda0e28f	-0.078557126
10	0xbe350b98	-0.17680204
11	0xbe5a136d	-0.21296473
12	0xbdcbf3d6	-0.099586174
13	0xbe4948da	-0.19656697
14	0xbd321155	-0.04347356
15	0xbdefe5d4	-0.11713758
16	0xbe04c39d	-0.12965246
17	0xbdb54ef1	-0.088529475
18	0xbe0cbc6e	-0.13743755
19	0xbdf37694	-0.11887851
20	0xbd5033c6	-0.050830625
21	0xbe021bce	-0.12705919
22	0xbd71861f	-0.0589658
23	0xbe04ddb6	-0.12975201
24	0xbd84ddc4	-0.06487611
25	0xbd4d885f	-0.05017888
26	0xbe3d0a60	-0.18460989
27	0xbe92ebf7	-0.28695652
28	0xbdc34a85	-0.09535698
29	0xbe4f2016	-0.20227084
30	0xbdff415f	-0.124636404
31	0xbda71b82	-0.081595436

resnet_denoiser/level_0/batch_normalization_2/FusedBatchNormV31 f4 [32]
0	0x3fab9d7e	1.3407438
1	0x3eb61047	0.35559294
2	0x3fc12693	1.5089897
3	0x3f84eba3	1.0384411
4	0x3f80a05a	1.0048935
5	0x3f5e41c7	0.8681912
6	0x40411419	3.0168517
7	0x3f4a0da3	0.7892706
8	0x40061014	2.0947313
9	0x3fee1c19	1.8602325
10	0x3fb8c06b	1.4433721
11	0x3f4e0578	0.80477095
12	0x4030edde	2.7645183
13	0x3f21126c	0.62918735
14	0x4072684c	3.7876158
15	0x3fb83c13	1.4393333
16	0x3f92160d	1.1412979
17	0x3f142ac0	0.5787773
18	0x3f9a78c4	1.2068105
19	0x3eb4d830	0.35321188
20	0x3f89bb20	1.0760231
21	0x3f8cc4e1	1.0997583
22	0x3f19e5bc	0.6011617
23	0x3f8d7773	1.1052078
24	0x40213f9b	2.5195072
25	0x3fbcf724	1.4762921
26	0x3f1fc474	0.6240914
27	0x3fd30917	1.6487149
28	0x3fe71042	1.8051836
29	0x3f9a37b9	1.2048255
30	0x3f8dc6e2	1.1076319
31	0x3f743db0	0.9540663

resnet_denoiser/level_0/batch_normalization_3/FusedBatchNormV3 f4 [16]
0	0xbec3ff62	-0.3828078
1	0x3dabfd82	0.08397962
2	0xbf0c9527	-0.5491509
3	0x3d7058a0	0.05867827
4	0x3e2a93d5	0.16657956
5	0xbe1f8a77	-0.15580164
6	0xbe187e93	-0.14892034
7	0xbe4acd5e	-0.19804904
8	0x3df83686	0.121197745
9	0xbc611d2a	-0.013739863
10	0xbc70f9b5	-0.014707972
11	0x3e4d7684	0.20064741
12	0x3e49827c	0.19678682
13	0x3cee9598	0.029124066
14	0x3df77933	0.12083664
15	0xbe171c36	-0.14756855

resnet_denoiser/level_0/batch_normalization_3/FusedBatchNormV31 f4 [16]
0	0x3f680962	0.9063932
1	0x3fab0933	1.3362182
2	0x401b2838	2.4243298
3	0x3fe3399d	1.7751957
4	0x40315d2c	2.7713118
5	0x3f70c74f	0.9405412
6	0x3f01ff3e	0.50780094
7	0x401f6d97	2.4910638
8	0x3f98168e	1.1881883
9	0x3fd806cf	1.6877078
10	0x3fd65108	1.6743479
11	0x3f9fa476	1.2472064
12	0x40065058	2.0986538
13	0x3f41cee5	0.7570632
14	0x40235b9f	2.552467
15	0x3fc86c5a	1.5658066

resnet_denoiser/level_0/batch_normalization_4/FusedBatchNormV3 f4 [16]
0	0xbe74b393	-0.23896627
1	0xbe9c8cd0	-0.3057618
2	0xbeb0c358	-0.34524035
3	0xbd908bdb	-0.07057925
4	0xbddd20f2	-0.107972994
5	0xbe27b71e	-0.16378447
6	0xbda2f244	-0.07956365
7	0xbdca6dd4	-0.09884229
8	0xbd9de744	-0.07710126
9	0xbdcfb5e9	-0.101421185
10	0xbd5b13a2	-0.05348552
11	0xbd2cfc61	-0.042232875
12	0xbe89672b	-0.26836523
13	0xbe007dfc	-0.12548059
14	0xbdbc206a	-0.0918587
15	0xbd9708f0	-0.073747516

resnet_denoiser/level_0/batch_normalization_4/FusedBatchNormV31 f4 [16]
0	0x402c656c	2.6936903
1	0x3fcb3c4d	1.5877777
2	0x402e1910	2.7202797
3	0x40d7f4a6	6.7486143
4	0x40d2297c	6.567564
5	0x4053bca6	3.3083892
6	0x4096f544	4.7174397
7	0x404f24d6	3.2366233
8	0x40958667	4.6726565
9	0x4017b4c0	2.370407
10	0x40a05027	5.009784
11	0x40da2d38	6.81802
12	0x405852ce	3.380054
13	0x41096e5e	8.589445
14	0x40370f04	2.8602915
15	0x409e64a1	4.949784

resnet_denoiser/level_0/batch_normalization_5/FusedBatchNormV3 f4 [32]
0	0xbe3e752e	-0.18599388
1	0xbe88a6e9	-0.26689842
2	0xbe119f00	-0.1422081
3	0xbe184070	-0.14868331
4	0xbd43a445	-0.04776408
5	0xbe3b477c	-0.18288988
6	0xbe048fad	-0.12945433
7	0xbe464582	-0.19362453
8	0xbe1c4f14	-0.15264541
9	0xbdee7101	-0.116426475
10	0xbde97e29	-0.11401016
11	0xbe48cb70	-0.19608855
12	0xbe711177	-0.23541819
13	0xbe630c37	-0.22172628
14	0xbd737b8c	-0.059443995
15	0xbe12d625	-0.14339502
16	0xbdc50d5e	-0.0962169
17	0xbe160d9c	-0.14653629
18	0xbe098755	-0.13430531
19	0xbe66beb0	-0.22533679
20	0xbe833903	-0.25629434
21	0xbe2e434f	-0.17017864
22	0xbd7e3210	-0.062059462
23	0xbe3edb98	-0.18638456
24	0xbebe0186	-0.37110537
25	0xbe25e4b7	-0.16200529
26	0xbe55e5f6	-0.20888504
27	0xbe27a095	-0.16369851
28	0xbe443c11	-0.19163539
29	0xbd91e3be	-0.071235165
30	0xbe075a63	-0.13218074
31	0xbeaf5ff9	-0.3425291

resnet_denoiser/level_0/batch_normalization_5/FusedBatchNormV31 f4 [32]
0	0x3f99e8a7	1.2024125
1	0x3f52f049	0.82397896
2	0x3f7ddd72	0.99166024
3	0x3f4104ab	0.7539775
4	0x3f824078	1.0175924
5	0x3f5d1a0a	0.8636786
6	0x3ff66197	1.9248532
7	0x3f988e53	1.1918434
8	0x3f907626	1.1286056
9	0x3f7377c6	0.95104635
10	0x3f61db7f	0.8822555
11	0x3f907ab3	1.1287445
12	0x3f2a7905	0.6659091
13	0x4021bf30	2.5272942
14	0x3febebc8	1.843133
15	0x3faf8e8c	1.3715377
16	0x3f71608c	0.94287944
17	0x3f433f15	0.7626813
18	0x3fc0d79a	1.5065796
19	0x3fc266f8	1.5187674
20	0x3f28c4e0	0.6592541
21	0x3f0127ba	0.5045124
22	0x3f318a51	0.6935168
23	0x3f8fb9d8	1.122859
24	0x3ff5b376	1.9195392
25	0x3fce507c	1.6118312
26	0x3f65465e	0.89560497
27	0x3fa16081	1.2607576
28	0x3fa8ca55	1.3186747
29	0x3fa506fb	1.2892755
30	0x3f0d4e4d	0.551976
31	0x3f792178	0.97316694

resnet_denoiser/level_0/batch_normalization_6/FusedBatchNormV3 f4 [16]
0	0xbe644891	-0.22293307
1	0x3df909ba	0.12160058
2	0xbebf0f3e	-0.37316316
3	0x3c9982d9	0.01873915
4	0x3d9c2133	0.0762352
5	0xbe226d45	-0.15861996
6	0xbdf4791e	-0.11937164
7	0xbdfd2701	-0.12360955
8	0x3e3ed892	0.18637303
9	0xbc43ffda	-0.011962855
10	0xbc513dcb	-0.01277108
11	0x3eb111fb	0.3458403
12	0x3dfe4a09	0.12416465
13	0x3cea23e4	0.028581567
14	0x3d909316	0.070593044
15	0xbe3ca89a	-0.18423691

resnet_denoiser/level_0/batch_normalization_6/FusedBatchNormV31 f4 [16]
0	0x3f07212a	0.5278498
1	0x3ff7a7f9	1.9348136
2	0x3fd2ddf7	1.6473988
3	0x3f11216b	0.56691617
4	0x3fa25762	1.2682917
5	0x3f75224d	0.95755464
6	0x3ed067fd	0.40704337
7	0x3fc70278	1.5547628
8	0x3fe9dfff	1.8271483
9	0x3fbc165d	1.4694325
10	0x3fba17d9	1.4538528
11	0x400994e4	2.1497126
12	0x3fa97e4e	1.324167
13	0x3f3e32b4	0.74296117
14	0x3fbede3a	1.4911568
15	0x3ffa39a1	1.9548837

resnet_denoiser/level_0/batch_normalization_7/FusedBatchNormV3 f4 [16]
0	0xbe8a041c	-0.2695626
1	0xbd8d0ad1	-0.06886829
2	0xbd94df68	-0.07269174
3	0xbd1ab091	-0.037766043
4	0xbe24b0a0	-0.16083002
5	0xbe676de6	-0.22600517
6	0xbe64fde5	-0.22362478
7	0xbdc6941d	-0.09696219
8	0xbe46ef6d	-0.19427271
9	0xbd8a53ef	-0.0675429
10	0xbed6be7b	-0.419422
11	0xbd7b1ee5	-0.06130876
12	0xbd9007ef	-0.07032763
13	0xbd30c6d7	-0.04315838
14	0xbd6c5cf3	-0.05770583
15	0xbda5c4e4	-0.080941945

resnet_denoiser/level_0/batch_normalization_7/FusedBatchNormV31 f4 [16]
0	0x400fe874	2.2485628
1	0x4095520c	4.6662655
2	0x408324a0	4.098221
3	0x40a75335	5.228907
4	0x4038d492	2.8879743
5	0x3f9b980a	1.2155774
6	0x409bee57	4.872844
7	0x40779765	3.8686154
8	0x3fc02216	1.5010402
9	0x408568a4	4.1690235
10	0x3f9ea607	1.2394418
11	0x409e98f4	4.956171
12	0x405bf514	3.4368334
13	0x40e80150	7.25016
14	0x4091e6e6	4.559436
15	0x4081bb06	4.05408

resnet_denoiser/level_0/batch_normalization_8/FusedBatchNormV3 f4 [32]
0	0xbde439a8	-0.111438096
1	0xbdac4794	-0.0841209
2	0xbe13d882	-0.1443806
3	0xbf03bcc2	-0.51459897
4	0xbebcc8e6	-0.36872023
5	0xbe574556	-0.21022543
6	0xbe190692	-0.14943913
7	0xbe2fd8fb	-0.17172615
8	0xbd9a1fe5	-0.07525615
9	0xbdbc70ce	-0.09201203
10	0xbde7ac1c	-0.11312124
11	0xbe409aad	-0.18809004
12	0xbe2555de	-0.16146037
13	0xbe1ca2e6	-0.15296516
14	0xbe83b2fc	-0.25722492
15	0xbe25beab	-0.16186015
16	0xbe11fabd	-0.14255805
17	0xbe71ae2d	-0.23601599
18	0xbeb78ba4	-0.35848725
19	0xbdbb5b97	-0.09148329
20	0xbe5d4de4	-0.21611744
21	0xbe73553a	-0.2376298
22	0xbdf95a57	-0.12175434
23	0xbe823e08	-0.2543795
24	0xbdc11508	-0.094278395
25	0xbe3ddc3d	-0.18541045
26	0xbdfc9ee5	-0.12334994
27	0xbe2c8235	-0.16846545
28	0xbdfef77a	-0.12449546
29	0xbe3c4929	-0.18387283
30	0xbe0563cf	-0.13026355
31	0xbe1fdf83	-0.15612607

resnet_denoiser/level_0/batch_normalization_8/FusedBatchNormV31 f4 [32]
0	0x401bef6d	2.4364884
1	0x402dfad9	2.7184355
2	0x3fdb626f	1.7139415
3	0x3fc24a2b	1.5178884
4	0x3fb78a46	1.4339073
5	0x3f83763c	1.0270457
6	0x4021900f	2.5244176
7	0x3f5f781f	0.87292665
8	0x40625a99	3.5367796
9	0x3ffbf37b	1.9683679
10	0x4031a72f	2.775829
11	0x3fe6b095	1.8022639
12	0x3fa11ed8	1.2587538
13	0x3f9df01d	1.2338902
14	0x3f6bd3ef	0.9212026
15	0x3ff480c0	1.9101791
16	0x40038aa0	2.055336
17	0x3f5a57cd	0.85290223
18	0x3fc27a6b	1.5193609
19	0x404f282a	3.2368264
20	0x3f9c1dca	1.2196591
21	0x3fc39853	1.5280861
22	0x3fbde5d8	1.4835768
23	0x3fa83be6	1.314328
24	0x4075ae7d	3.838775
25	0x3fe7e6cd	1.811731
26	0x401cec03	2.451905
27	0x40371d86	2.861177
28	0x3fec9dc5	1.8485647
29	0x3fe3efde	1.7807577
30	0x401b3ae7	2.42547
31	0x40231ce8	2.5486393

resnet_denoiser/level_0/batch_normalization_9/FusedBatchNormV3 f4 [16]
0	0xbd6178fd	-0.055047024
1	0x3cce17ae	0.025157776
2	0xbd920cb7	-0.071313314
3	0x3be649e4	0.0070278514
4	0x3c805229	0.015664177
5	0xbd28f5d8	-0.04125008
6	0xbce311b0	-0.027718395
7	0xbce62965	-0.02809591
8	0x3c9c37d6	0.019069593
9	0xbb072cf2	-0.0020626155
10	0xbb135987	-0.0022483782
11	0x3d41ffd7	0.04736313
12	0x3d1e320c	0.038621947
13	0x3bd6b0bb	0.0065518296
14	0x3c3d5680	0.011556268
15	0xbcd10ce3	-0.02551884

resnet_denoiser/level_0/batch_normalization_9/FusedBatchNormV31 f4 [16]
0	0x3e057738	0.1303376
1	0x3eccf2ee	0.4002909
2	0x3ea130e0	0.314826
3	0x3e59b771	0.21261384
4	0x3e856d1e	0.26059812
5	0x3e7efe8a	0.24901786
6	0x3dc191dd	0.09451649
7	0x3eb4efa5	0.35339084
8	0x3e3f7093	0.18695287
9	0x3e81b807	0.25335714
10	0x3e830c6f	0.25595424
11	0x3e96bc3f	0.29440495
12	0x3ed2e2f5	0.4118878
13	0x3e2e6602	0.170311
14	0x3e79f703	0.24410634
15	0x3e8aa2c1	0.27077296

resnet_denoiser/level_1/batch_normalization_16/FusedBatchNormV3 f4 [16]
0	0x3ee75513	0.45182094
1	0x3e9500c1	0.29102138
2	0xbeabfb01	-0.33589938
3	0xbe6591b2	-0.2241886
4	0x3eed41cb	0.4633926
5	0x3e8fa30c	0.28054082
6	0x3eace404	0.33767712
7	0x3f123b68	0.57121897
8	0x3e3a406d	0.18188639
9	0xbe6080be	-0.21924111
10	0x3e90b847	0.28265592
11	0x3e8bf370	0.27334166
12	0x3e7330fb	0.23749153
13	0x3f010502	0.50398266
14	0x3f2026b7	0.62559074
15	0x3d1e47d9	0.038642738

resnet_denoiser/level_1/batch_normalization_16/FusedBatchNormV31 f4 [16]
0	0x3faa63c9	1.3311702
1	0x410f4299	8.953759
2	0x408e6329	4.4496045
3	0x403bb309	2.9328024
4	0x4086f880	4.2178345
5	0x409a4084	4.8203754
6	0x4097a9e0	4.7394867
7	0x3fba1d6a	1.4540226
8	0x3eab5f6d	0.33471242
9	0x3fc63d3f	1.5487441
10	0x403f4a77	2.98892
11	0x3f95af18	1.1694059
12	0x4093c214	4.617441
13	0x400a745a	2.1633515
14	0x40a9d841	5.307648
15	0x3e9ed9bc	0.31025493

resnet_denoiser/level_1/batch_normalization_17/FusedBatchNormV3 f4 [16]
0	0xbe2cc006	-0.16870126
1	0xbca51cde	-0.020155367
2	0xbe1581b4	-0.14600259
3	0xbe49d3f7	-0.19709764
4	0xbe7d1016	-0.24713168
5	0xbd089d07	-0.033352878
6	0xbe20d92a	-0.15707842
7	0xbd2429aa	-0.040078796
8	0xbe3aca51	-0.1824124
9	0xbe6b1072	-0.22955492
10	0xbd06f5a5	-0.03294911
11	0xbcb2960f	-0.02180007
12	0xbcababe4	-0.020955987
13	0xbd8e6251	-0.06952346
14	0xbce4a18d	-0.027909065
15	0xbcb65c9c	-0.022260956

resnet_denoiser/level_1/batch_normalization_17/FusedBatchNormV31 f4 [16]
0	0x3fb947aa	1.4474995
1	0x41731dee	15.194807
2	0x3f99275d	1.1965138
3	0x40171a4f	2.3609807
4	0x4006ff4d	2.1093323
5	0x40c7f91f	6.2491603
6	0x403b92df	2.9308393
7	0x41559ad7	13.350303
8	0x40174529	2.3635962
9	0x3fce5a54	1.6121316
10	0x40215f27	2.5214326
11	0x40e91458	7.2837334
12	0x414fe3cd	12.993115
13	0x40357d22	2.8357625
14	0x419605d9	18.752855
15	0x413ab4d9	11.669152

resnet_denoiser/level_1/batch_normalization_18/FusedBatchNormV3 f4 [32]
0	0xbe5d7281	-0.21625711
1	0xbe06caa9	-0.13163246
2	0xbdaf0429	-0.08545715
3	0xbd9d41cc	-0.076785654
4	0xbbe49851	-0.0069761653
5	0xbe252d63	-0.16130595
6	0xbeeb120e	-0.45912212
7	0xbdb48cbe	-0.08815907
8	0xbe7662b5	-0.24061091
9	0xbe0d3a7d	-0.13791843
10	0xbdc9ea75	-0.09859172
11	0xbc35f6cf	-0.011106207
12	0xbe180395	-0.14845116
13	0xbc403073	-0.011730301
14	0xbe0d0d2c	-0.13774556
15	0xbe36e3cc	-0.17860335
16	0xbe2dec52	-0.1698468
17	0xbe0132c4	-0.12617022
18	0xbd55bba4	-0.0521809
19	0xbdf14462	-0.11780621
20	0xbeb29606	-0.34880084
21	0xbe968535	-0.29398504
22	0xbd665d35	-0.056241233
23	0xbe8128b3	-0.25226364
24	0xbd7435dd	-0.05962168
25	0xbd9cdabc	-0.07658908
26	0xbda6c7b1	-0.08143557
27	0xbe6dbc45	-0.2321635
28	0xbdf72bc1	-0.12068892
29	0xbe8b7f98	-0.27245784
30	0xbdd8b262	-0.10580899
31	0xbe2ffeaa	-0.1718699

resnet_denoiser/level_1/batch_normalization_18/FusedBatchNormV31 f4 [32]
0	0x3fd89c6a	1.6922734
1	0x3fc70879	1.5549461
2	0x40afd0ae	5.4942236
3	0x3fafbe62	1.3729975
4	0x408e1f45	4.441317
5	0x401a86f0	2.414486
6	0x4042499f	3.0357435
7	0x3fd91d49	1.6962062
8	0x3fffa1bc	1.9971232
9	0x40178cfa	2.3679795
10	0x40276528	2.615549
11	0x40524fdb	3.286124
12	0x3ff2b9f6	1.8963001
13	0x403c684c	2.9438658
14	0x4018d78b	2.3881557
15	0x3f8a2a52	1.0794165
16	0x3f1c4a45	0.61050826
17	0x4000fc3a	2.0153947
18	0x4012f45b	2.2961643
19	0x3fa22e63	1.2670406
20	0x3ed616e2	0.41814333
21	0x3eb1d006	0.34729022
22	0x3f9d9a55	1.2312723
23	0x3fc3ec94	1.5306573
24	0x400549d5	2.0826313
25	0x3fd42154	1.6572671
26	0x3fcd21b9	1.6025916
27	0x3fa01823	1.2507366
28	0x3f7ad521	0.9798146
29	0x3f02dc57	0.5111746
30	0x3fb51b6e	1.4148996
31	0x3fbb6e1e	1.464298

resnet_denoiser/level_1/batch_normalization_19/FusedBatchNormV3 f4 [16]
0	0x3f4bcc4f	0.79608625
1	0x3d6ac58b	0.057317298
2	0xbe41cce1	-0.18925811
3	0xbdd571af	-0.10422074
4	0x3eb24902	0.34821326
5	0x3dfceccf	0.12349855
6	0x3e9d3cec	0.30710542
7	0x3eb89929	0.36054352
8	0x3ed006d7	0.40630218
9	0xbf67a7ff	-0.90490717
10	0x3ecd5cc1	0.40109828
11	0x3e8f9619	0.28044203
12	0x3df281f7	0.11841195
13	0x3f9776c4	1.1833119
14	0x3e9a9457	0.301913
15	0x3e278cd2	0.16362312

resnet_denoiser/level_1/batch_normalization_19/FusedBatchNormV31 f4 [16]
0	0x40161bf5	2.3454564
1	0x3fe1b923	1.7634624
2	0x402073db	2.5070713
3	0x3fae83e8	1.3634005
4	0x404ad87d	3.1694634
5	0x4007cef3	2.1220062
6	0x4089eec4	4.310396
7	0x3f6af1ec	0.91775393
8	0x3f3f6885	0.7476886
9	0x40cc8e45	6.392367
10	0x4087b95e	4.241378
11	0x3f999279	1.1997825
12	0x401357be	2.3022304
13	0x40a28a49	5.0793805
14	0x4023ef8b	2.5614955
15	0x3fa82740	1.3136978

resnet_denoiser/level_1/batch_normalization_20/FusedBatchNormV3 f4 [16]
0	0xbf150a34	-0.58218694
1	0xbe1392f8	-0.14411533
2	0xbe76d9d5	-0.24106534
3	0xbdfa0799	-0.122084804
4	0xbf21cf68	-0.632071
5	0xbe065e9a	-0.13122025
6	0xbf4bb002	-0.7956544
7	0xbe0cf037	-0.1376351
8	0xbdc5e021	-0.0966189
9	0xbdb73ece	-0.08947526
10	0xbe520ffb	-0.20513909
11	0xbde1bfa1	-0.110228784
12	0xbed9db3c	-0.42550075
13	0xbdd817eb	-0.10551437
14	0xbe8c0250	-0.27345514
15	0xbe441c59	-0.19151439

resnet_denoiser/level_1/batch_normalization_20/FusedBatchNormV31 f4 [16]
0	0x4053ff85	3.3124707
1	0x40391a07	2.8922136
2	0x408650d6	4.1973677
3	0x408a1a1f	4.3156886
4	0x40024d95	2.0359852
5	0x4007d9b5	2.1226628
6	0x3faf8b77	1.3714436
7	0x40af2b23	5.4740157
8	0x40c40337	6.1253924
9	0x4107745a	8.465906
10	0x407d1459	3.954367
11	0x41087da4	8.530674
12	0x403fc0cc	2.9961424
13	0x40c66706	6.200076
14	0x403c6cfc	2.9441519
15	0x4033b51b	2.8079288

resnet_denoiser/level_1/batch_normalization_21/FusedBatchNormV3 f4 [32]
0	0xbd9a158b	-0.0752364
1	0xbe065f49	-0.13122286
2	0xbe155c1e	-0.14585921
3	0xbe4a1a38	-0.19736564
4	0xbe16496e	-0.14676449
5	0xbe105b85	-0.14097412
6	0xbe3b9fa5	-0.18322618
7	0xbe3326a0	-0.17495203
8	0xbe05dd0a	-0.13072601
9	0xbe1d1095	-0.15338357
10	0xbddd7ffb	-0.10815426
11	0xbd60a81b	-0.054847818
12	0xbe314141	-0.17310049
13	0xbd614318	-0.054995626
14	0xbe80c1b4	-0.25147784
15	0xbe37b5ea	-0.17940488
16	0xbea6ba89	-0.3256419
17	0xbe90b538	-0.2826326
18	0xbe5561ea	-0.20838133
19	0xbe030d53	-0.12798052
20	0xbe2e03ea	-0.1699368
21	0xbdb7c45c	-0.089729995
22	0xbe04232f	-0.12904046
23	0xbe204e2d	-0.15654822
24	0xbe48d7ed	-0.19613619
25	0xbe4ddd27	-0.20103894
26	0xbe3b5b4e	-0.18296549
27	0xbdd2a9fb	-0.102863275
28	0xbe1b3ed4	-0.15160686
29	0xbe0704f4	-0.13185483
30	0xbe3051f4	-0.17218763
31	0xbdd27f81	-0.10278226

resnet_denoiser/level_1/batch_normalization_21/FusedBatchNormV31 f4 [32]
0	0x401a79f7	2.4136941
1	0x3fb59844	1.4187093
2	0x3f975ee1	1.182583
3	0x3fb93304	1.4468694
4	0x3ff7716e	1.9331491
5	0x3fc7b0a6	1.5600784
6	0x3f5198c3	0.8187372
7	0x3fb4e51d	1.413242
8	0x3feac68b	1.834184
9	0x3fd21080	1.6411285
10	0x4024ee53	2.5770462
11	0x3fb5b303	1.4195255
12	0x3f552be2	0.83270085
13	0x3fa72fbf	1.3061446
14	0x3f833552	1.0250647
15	0x3fa4c45e	1.2872427
16	0x3f8c2bfa	1.095092
17	0x3f9c9c63	1.2235225
18	0x3f814721	1.0099832
19	0x3fb4b384	1.4117284
20	0x3f37a8e2	0.7174207
21	0x3febacd7	1.8412122
22	0x4033bb60	2.8083115
23	0x3f041109	0.51588494
24	0x3f746b7e	0.9547652
25	0x3f838659	1.0275375
26	0x3fc9b347	1.5757836
27	0x3effac99	0.4993637
28	0x3f8fef6f	1.1244944
29	0x3fa5f6d5	1.2965952
30	0x3f6d4131	0.926776
31	0x3f6939ae	0.9110364

resnet_denoiser/level_1/batch_normalization_22/FusedBatchNormV3 f4 [16]
0	0x3f1c59b7	0.61074394
1	0x3d0920ce	0.03347855
2	0xbdec579f	-0.1154015
3	0xbdbabe9d	-0.09118388
4	0x3da5e5f7	0.08100503
5	0x3dcedd61	0.101008184
6	0x3db3eb20	0.08785081
7	0x3e86dc0f	0.26339766
8	0x3e8044bf	0.2505245
9	0xbef68e9f	-0.48155686
10	0x3e82cdfb	0.25547776
11	0x3e11a8e9	0.1422459
12	0x3dcce954	0.10005441
13	0x3f933b54	1.150248
14	0x3efcb13f	0.49353978
15	0x3d9c5446	0.076332614

resnet_denoiser/level_1/batch_normalization_22/FusedBatchNormV31 f4 [16]
0	0x3fe65290	1.7993946
1	0x3f83d7d0	1.0300236
2	0x3fc3ac99	1.5287048
3	0x3f98af72	1.1928542
4	0x3f3cc09a	0.73731387
5	0x3fde270c	1.7355666
6	0x3f9dd419	1.2330352
7	0x3f2ba409	0.6704717
8	0x3eec0b18	0.46102214
9	0x4059b6a3	3.4017723
10	0x402ce5d1	2.7015269
11	0x3f1bca34	0.6085541
12	0x3ff90005	1.9453131
13	0x409dff9e	4.9374533
14	0x4085fe5b	4.1872993
15	0x3f1ce45c	0.6128595

resnet_denoiser/level_1/batch_normalization_23/FusedBatchNormV3 f4 [16]
0	0xbd54c151	-0.051942173
1	0xbe132661	-0.14370109
2	0xbd6785cd	-0.056524087
3	0xbdd10923	-0.10206821
4	0xbd9e07f2	-0.07716359
5	0xbf06e635	-0.5269502
6	0xbd380960	-0.044930816
7	0xbe2bed13	-0.16789655
8	0xbeb64ccc	-0.35605466
9	0xbdef664c	-0.116894335
10	0xbd90fa70	-0.07079017
11	0xbe49d425	-0.19709833
12	0xbdbd7e6c	-0.09252629
13	0x340042cc	1.194523e-07
14	0xbda36e92	-0.07980074
15	0xbeb0320d	-0.34413186

resnet_denoiser/level_1/batch_normalization_23/FusedBatchNormV31 f4 [16]
0	0x4166ce82	14.425417
1	0x41098041	8.593812
2	0x41456d47	12.339179
3	0x4103e6cf	8.24385
4	0x40de50f0	6.94738
5	0x4066aa3d	3.6041405
6	0x40faec33	7.841333
7	0x4003bb9c	2.0583258
8	0x40c399eb	6.112539
9	0x410211f9	8.129388
10	0x40cb9ba0	6.362747
11	0x40afda4a	5.4953966
12	0x4103af04	8.230228
13	0xc0405c8b	-3.0056484
14	0x4165f320	14.371857
15	0x40858523	4.172502

resnet_denoiser/level_1/batch_normalization_24/FusedBatchNormV3 f4 [32]
0	0xbe8922fd	-0.26784506
1	0xbd7c5218	-0.06160173
2	0xbece4acd	-0.40291443
3	0xbe014fdd	-0.12628122
4	0xbe1e550e	-0.15462133
5	0xbe8ff3f0	-0.28115797
6	0xbe86114a	-0.26185066
7	0xbe0eb061	-0.1393447
8	0xbdeb0797	-0.11476057
9	0xbe15b062	-0.14618066
10	0xbe4ee8f5	-0.20206054
11	0xbe6232f0	-0.22089744
12	0xbe128921	-0.14310123
13	0xbec190d6	-0.37805814
14	0xbd9e2f60	-0.0772388
15	0xbe14d21f	-0.1453328
16	0xbe1ec69b	-0.1550545
17	0xbe285e23	-0.1644216
18	0xbe639906	-0.22226343
19	0xbedb9707	-0.42888662
20	0xbe9d1b15	-0.30684724
21	0xbde5d7e3	-0.11222818
22	0xbe012e9c	-0.12615436
23	0xbdf3c0bf	-0.11901998
24	0xbe99c4f0	-0.30033064
25	0xbe672c43	-0.22575478
26	0xbde7ea22	-0.11323954
27	0xbdcaddd5	-0.09905592
28	0xbe6d9efc	-0.23205179
29	0xbe9957a4	-0.29949677
30	0xbda0c758	-0.07850522
31	0xbce0bab9	-0.027432786

resnet_denoiser/level_1/batch_normalization_24/FusedBatchNormV31 f4 [32]
0	0x4034801f	2.82032
1	0x3fcc303e	1.5952222
2	0x3f80bcad	1.0057579
3	0x3fc5bc9c	1.5448184
4	0x3f80a912	1.0051596
5	0x3fcd4332	1.6036131
6	0x4017fcb9	2.3748
7	0x3fdd1882	1.7273104
8	0x3fd60969	1.6721622
9	0x3fa7f614	1.3121972
10	0x401ffbae	2.4997363
11	0x400089e1	2.0084155
12	0x3ffa3521	1.9547464
13	0x3f98c3a9	1.1934711
14	0x3ff76fa5	1.9330946
15	0x403ea92d	2.9790757
16	0x3fe86384	1.815537
17	0x3f5141d9	0.817411
18	0x3f65d1a7	0.8977303
19	0x3f5e02a7	0.867228
20	0x3f2a221b	0.6645829
21	0x3ff719a7	1.9304703
22	0x3fd41499	1.6568786
23	0x3f3818e9	0.7191301
24	0x3f9eafaf	1.2397364
25	0x400bcb78	2.1842937
26	0x3f75badb	0.95988244
27	0x3ffe718a	1.9878399
28	0x3fefe81c	1.8742709
29	0x3f29225b	0.6606805
30	0x3fad7f5f	1.3554496
31	0x400a1356	2.1574302

resnet_denoiser/level_1/batch_normalization_25/FusedBatchNormV3 f4 [16]
0	0x3ec213fd	0.37905875
1	0x3ceb6317	0.028733773
2	0xbccf5571	-0.025309296
3	0xbd24fd0f	-0.040280398
4	0x3dbf009a	0.093262866
5	0x3ce304d2	0.02771226
6	0x3ccdf36d	0.025140489
7	0x3e75d7e2	0.24008134
8	0x3dfde3e6	0.12396984
9	0xbe5e8e7c	-0.21734041
10	0x3df70db6	0.12063162
11	0x3e066aa1	0.13126613
12	0x3ce40d6c	0.027838431
13	0x3ea9fd07	0.33200857
14	0x3e3253c3	0.17414765
15	0x3d70ff6a	0.05883733

resnet_denoiser/level_1/batch_normalization_25/FusedBatchNormV31 f4 [16]
0	0x3f8ef32a	1.1167958
1	0x3f62509f	0.8840427
2	0x3eaba843	0.3352681
3	0x3f06e5b0	0.52694225
4	0x3f595092	0.84888566
5	0x3ef3cbca	0.47616416
6	0x3eb4aa2b	0.35286078
7	0x3f1c7267	0.61112064
8	0x3e699ba4	0.22813278
9	0x3fc48547	1.5353173
10	0x3fa34722	1.2756083
11	0x3f0fc3bf	0.5615806
12	0x3f0a8f5e	0.5412501
13	0x3fb66b57	1.4251508
14	0x3fbd1ef0	1.4775066
15	0x3ef1dd8a	0.47239333

resnet_denoiser/level_1/batch_normalization_26/FusedBatchNormV3 f4 [16]
0	0xbd30375a	-0.043021537
1	0xbd8129fd	-0.06306837
2	0xbd29d591	-0.04146344
3	0xbd1d3ba9	-0.038386974
4	0xbd375663	-0.04476012
5	0xbd710c6d	-0.05884974
6	0xbd7308e4	-0.05933465
7	0xbdcd7ad8	-0.10033196
8	0xbd50c03f	-0.05096459
9	0xbd372e67	-0.044721987
10	0xbd7c5129	-0.061600838
11	0xbd1c82cd	-0.03821068
12	0xbd4e878a	-0.05042223
13	0xbd2394ce	-0.039936833
14	0xbdad5fe8	-0.08465558
15	0xbd5a269d	-0.05325948

resnet_denoiser/level_1/batch_normalization_26/FusedBatchNormV31 f4 [16]
0	0x40bb467d	5.8523545
1	0x41180110	9.500259
2	0x4125fcc2	10.374208
3	0x41114713	9.079852
4	0x40fe1a7c	7.940733
5	0x411867fb	9.525386
6	0x40d0309d	6.5059342
7	0x41352493	11.321429
8	0x40ed28cc	7.41123
9	0x414e0c32	12.877977
10	0x40b3c263	5.617479
11	0x4112318a	9.1370945
12	0x41491f44	12.570133
13	0x4146e8fe	12.431883
14	0x40b361d3	5.6056914
15	0x40b7bedb	5.742048

resnet_denoiser/level_1/batch_normalization_27/FusedBatchNormV3 f4 [32]
0	0xbdd9c327	-0.106329255
1	0xbe9fcb21	-0.31209663
2	0xbe4bde20	-0.19908953
3	0xbe2daf52	-0.1696141
4	0xbdb388fe	-0.087663636
5	0xbe409090	-0.18805146
6	0xbe2dd04f	-0.16973995
7	0xbeb6a19f	-0.35670182
8	0xbe279370	-0.16364837
9	0xb41845e7	-1.4181533e-07
10	0xbe14a261	-0.14515068
11	0xbe86fac3	-0.2636319
12	0xbdc2eb62	-0.09517552
13	0xbe38ae6a	-0.18035284
14	0xb53d72fe	-7.057532e-07
15	0xbec14d90	-0.37754488
16	0xbe0d7830	-0.13815379
17	0xbe2a9e49	-0.16661943
18	0xbe83cfa7	-0.25744364
19	0xbe6838a2	-0.22677854
20	0xbdee678d	-0.116408445
21	0xbe2aa59c	-0.16664737
22	0xbe2c4dcf	-0.16826557
23	0xbe040e63	-0.12896113
24	0xbe1d8534	-0.15382844
25	0xbdd06f3a	-0.10177465
26	0xbe373c17	-0.17894016
27	0xbd9f0a1e	-0.077656016
28	0xbe43cef6	-0.19121918
29	0xbe50705d	-0.20355363
30	0xbdacfdb6	-0.08446829
31	0xbe15fb99	-0.14646758

resnet_denoiser/level_1/batch_normalization_27/FusedBatchNormV31 f4 [32]
0	0x407a38cc	3.9097166
1	0x400aa779	2.1664717
2	0x3f616fcb	0.8806121
3	0x3fbac062	1.458996
4	0x3fa135d6	1.2594554
5	0x40b19a0a	5.5500536
6	0x4042a3ea	3.0412545
7	0x3f472e62	0.7780515
8	0x4019362d	2.3939316
9	0x3fd09e4a	1.6298306
10	0x40438b63	3.0553825
11	0x4016d85a	2.356955
12	0x40088c5d	2.133567
13	0x40bb6602	5.856202
14	0xbfd05bd1	-1.627802
15	0x3f4dd962	0.80409825
16	0x4014715e	2.3194194
17	0x3fe653ae	1.7994287
18	0x402ae122	2.669991
19	0x3fb546fa	1.4162285
20	0x405e7186	3.475679
21	0x40700956	3.7505698
22	0x404e98d7	3.2280786
23	0x3fe96d3b	1.823646
24	0x4038c964	2.887292
25	0x4037ee2a	2.8739114
26	0x40078292	2.1173444
27	0x3fa7159a	1.3053467
28	0x40132291	2.2989848
29	0x3fb0e73b	1.3820566
30	0x40899168	4.299
31	0x4003e804	2.061036

resnet_denoiser/level_1/batch_normalization_28/FusedBatchNormV3 f4 [16]
0	0x3e65eb9a	0.22453156
1	0x3c55838c	0.0130318515
2	0xbc9d7b53	-0.019223845
3	0xbcd22ef5	-0.025657156
4	0x3d77c0b4	0.06048651
5	0x3d1b9afd	0.037989605
6	0x3ca3cec4	0.019996054
7	0x3dd5a5dd	0.104320265
8	0x3e3ae21b	0.18250315
9	0xbd90ae59	-0.07064504
10	0x3d897d9f	0.067134134
11	0x3da8f26b	0.082493626
12	0x3cb92c81	0.022604229
13	0x3e008451	0.12550475
14	0x3d9a00a2	0.07519652
15	0x3d52d39e	0.051471345

resnet_denoiser/level_1/batch_normalization_28/FusedBatchNormV31 f4 [16]
0	0x3f29598a	0.6615225
1	0x3ecd48e3	0.4009467
2	0x3e826228	0.25465512
3	0x3eabd96c	0.33564317
4	0x3f0cf107	0.5505528
5	0x3f271ae3	0.652754
6	0x3e8fb21c	0.28065574
7	0x3e87f571	0.26554444
8	0x3eabf430	0.33584738
9	0x3eff82c5	0.49904457
10	0x3f35bc43	0.7099039
11	0x3eb4b24f	0.3529229
12	0x3ee10409	0.4394839
13	0x3f09ea3f	0.53873056
14	0x3f2352e6	0.6379837
15	0x3ed395f0	0.4132533

resnet_denoiser/level_1/batch_normalization_29/FusedBatchNormV3 f4 [16]
0	0xbc914e96	-0.017737668
1	0xbd0026e3	-0.031287085
2	0xbe5fb628	-0.21846831
3	0xb47736f9	-2.3023667e-07
4	0x3444c73e	1.8326406e-07
5	0xbceced9f	-0.0289219
6	0xbe36edc9	-0.17864145
7	0xbcd8ff71	-0.026488991
8	0xbcdcba5d	-0.026944334
9	0xbd83c872	-0.06434716
10	0xbd288951	-0.04114658
11	0xbd32e91a	-0.043679334
12	0xbd5c61f6	-0.05380436
13	0xbf323a9b	-0.69620675
14	0xbd19f25a	-0.03758464
15	0xbe784cd4	-0.24248058

resnet_denoiser/level_1/batch_normalization_29/FusedBatchNormV31 f4 [16]
0	0x41150535	9.313771
1	0x41172a1f	9.447783
2	0x40325550	2.786457
3	0x40172381	2.361542
4	0xc0187b64	-2.3825312
5	0x412c60b2	10.773607
6	0x4089b0e6	4.302844
7	0x413e5e0f	11.897964
8	0x4171f40e	15.122084
9	0x40ed54b2	7.416589
10	0x40cc4013	6.3828216
11	0x40cb87e5	6.3603387
12	0x40c7af3d	6.2401414
13	0x409afa38	4.8430443
14	0x4179d8f4	15.615467
15	0x40215c4f	2.521259

resnet_denoiser/level_1/batch_normalization_30/FusedBatchNormV3 f4 [32]
0	0xbe05d5e4	-0.13069874
1	0xbdcda69e	-0.10041545
2	0x34f5879c	4.5733475e-07
3	0xbecb7385	-0.39736572
4	0xbc9dfa1d	-0.019284302
5	0xbdb4deba	-0.08831544
6	0xbef9c4d6	-0.48782986
7	0xbe7416d0	-0.23836827
8	0xbed43e4b	-0.41453776
9	0xb5011ffc	-4.810279e-07
10	0xbe0ed74d	-0.13949318
11	0xbdca10aa	-0.0986646
12	0xbe18a227	-0.14905606
13	0xb51cf711	-5.847406e-07
14	0xbed04036	-0.4067399
15	0x34a4775f	3.0634234e-07
16	0xb40042c3	-1.1945217e-07
17	0xbe0a6dbc	-0.13518423
18	0xbd8c79b6	-0.06859152
19	0xbd6f2452	-0.058384247
20	0xb40c961e	-1.3093128e-07
21	0x34907181	2.6904675e-07
22	0xbbfb4a7c	-0.0076687913
23	0xb4312295	-1.649699e-07
24	0xbe498c5b	-0.19682448
25	0xbe2073f1	-0.15669228
26	0xbe214294	-0.15748054
27	0x349d57a7	2.9307304e-07
28	0xb4633804	-2.1161401e-07
29	0xb6625faa	-3.3732308e-06
30	0xb4820c56	-2.4223363e-07
31	0xb465e46d	-2.1410388e-07

resnet_denoiser/level_1/batch_normalization_30/FusedBatchNormV31 f4 [32]
0	0x3f411f4e	0.7543839
1	0x40e75c7a	7.2300386
2	0xbfa972f6	-1.3238208
3	0x3f758e14	0.9591992
4	0x4017ed95	2.3738759
5	0x410177f9	8.09179
6	0x3f499e08	0.7875676
7	0x3f294f5a	0.66136706
8	0x3f3c3b3c	0.73527884
9	0x3fb0bd78	1.3807821
10	0x4090e5e3	4.5280623
11	0x4010e4e3	2.2639701
12	0x3f69cfde	0.91332805
13	0x3fa82b46	1.3138206
14	0x3fa8e270	1.3194103
15	0xbfa5ee8a	-1.2963421
16	0x3f8717c5	1.0554129
17	0x3f6ef848	0.933476
18	0x3fede550	1.8585606
19	0x403466cc	2.8187742
20	0x3f7e9051	0.9943896
21	0xbf60db45	-0.8783458
22	0x40a786f3	5.2352233
23	0x3f7b36e9	0.9813066
24	0x3f7f5140	0.9973335
25	0x3f6f1b1d	0.93400747
26	0x3f71d547	0.9446606
27	0xbf6a34db	-0.914869
28	0x3f63b10d	0.88942033
29	0x4078f772	3.8901029
30	0x3f6f773f	0.9354133
31	0x3f74f9c1	0.95693594

resnet_denoiser/level_1/batch_normalization_31/FusedBatchNormV3 f4 [16]
0	0x38131409	3.506619e-05
1	0x3ba7b61d	0.005118145
2	0xbb8ed421	-0.004358784
3	0xbbf0e16d	-0.0073510916
4	0x3b71d92a	0.0036903122
5	0x3c187636	0.009305527
6	0x3c17a3be	0.009255348
7	0x3d0770aa	0.03306643
8	0x3d938ac3	0.07204201
9	0xbc3b34a1	-0.011426122
10	0xb7a78c41	-1.9973262e-05
11	0x3c8bcb54	0.017064728
12	0xb74f8c24	-1.23707905e-05
13	0x38a1eeb0	7.721537e-05
14	0xb7346ad6	-1.0753711e-05
15	0x3cace586	0.021105539

resnet_denoiser/level_1/batch_normalization_31/FusedBatchNormV31 f4 [16]
0	0x38d8a9db	0.00010331321
1	0x3e213f5f	0.1574683
2	0x3d6c80e3	0.057740103
3	0x3dc4f2a3	0.09616592
4	0x3d099524	0.033589497
5	0x3e23baa2	0.15989164
6	0x3e05058a	0.12990394
7	0x3dac612c	0.084169716
8	0x3e07c168	0.13257372
9	0x3da54e20	0.08071542
10	0xb95d770a	-0.00021120548
11	0x3d958431	0.07300604
12	0xb97c3406	-0.00024051973
13	0x39adc62e	0.00033144787
14	0xb8bf5666	-9.123683e-05
15	0x3e2d84e3	0.16945224

resnet_denoiser/level_2/batch_normalization_32/FusedBatchNormV3 f4 [16]
0	0xbf1d4726	-0.6143669
1	0x3eeb7ad7	0.45992157
2	0xbf8655f9	-1.0494987
3	0xbe1cebe8	-0.15324366
4	0x3e516db8	0.2045201
5	0xbf15d811	-0.58532816
6	0xbe830e8a	-0.2559703
7	0x3d7765e2	0.060399897
8	0x3f11023b	0.5664403
9	0xbefc06ce	-0.49223942
10	0x3f245234	0.6418793
11	0xbe87d1b8	-0.2652719
12	0x3f7ebd2c	0.99507403
13	0xbfa50a67	-1.28938
14	0x3ece6e28	0.40318418
15	0x3f0f431b	0.5596177

resnet_denoiser/level_2/batch_normalization_32/FusedBatchNormV31 f4 [16]
0	0x3ed19af0	0.4093852
1	0xbf544984	-0.82924676
2	0x411c6288	9.7740555
3	0x3ec7990e	0.3898396
4	0x3f6ad0ad	0.91724664
5	0x3f44bc7f	0.7685012
6	0x408b31f8	4.3498497
7	0x3d07d7fd	0.033164967
8	0x400add81	2.1697695
9	0x3fe9874c	1.8244414
10	0x3e60e6ca	0.21963039
11	0x3fe29fce	1.7705019
12	0x3ec97cee	0.39353126
13	0x3fb01c4b	1.3758634
14	0x3e98f5a6	0.29874915
15	0x3faae6c6	1.3351676

resnet_denoiser/level_2/batch_normalization_33/FusedBatchNormV3 f4 [16]
0	0xbe9962e8	-0.29958272
1	0xbf1c84ea	-0.6114031
2	0xbc95f6ad	-0.0183061
3	0xbd872224	-0.06598309
4	0xbeda14a7	-0.4259388
5	0xbe4d0000	-0.20019531
6	0xbe7d7a7d	-0.24753757
7	0xb2d4f4ae	-2.4791316e-08
8	0xbcfb6e50	-0.03069225
9	0xbdc54d84	-0.096339256
10	0xbdbedbbe	-0.09319256
11	0xbdc61172	-0.09671296
12	0xbec7eb0f	-0.39046523
13	0xbd8e52d1	-0.0694939
14	0xbed03165	-0.40662685
15	0xbcd734fc	-0.026270382

resnet_denoiser/level_2/batch_normalization_33/FusedBatchNormV31 f4 [16]
0	0x3ff17d4f	1.8866366
1	0x3f461b60	0.7738552
2	0x40e018e0	7.0030365
3	0x3ffd2736	1.9777591
4	0x3ecfd674	0.40593302
5	0x3f0527e2	0.5201398
6	0x3fb3a124	1.4033551
7	0x3ea46128	0.32105374
8	0x40870b31	4.220116
9	0x3f7dfd76	0.99214876
10	0x40785ca9	3.8806555
11	0x3f906a7d	1.1282498
12	0x3f1d3663	0.6141111
13	0x3f87ac93	1.059954
14	0x3ff724cd	1.9308106
15	0x3f1401a3	0.57815

resnet_denoiser/level_2/batch_normalization_34/FusedBatchNormV3 f4 [32]
0	0xbe1bed6b	-0.15227287
1	0xbdc683ea	-0.09693129
2	0xbdcf2cf2	-0.101159945
3	0xbe88a8aa	-0.2669118
4	0xbdc12c1c	-0.09432241
5	0xbe03e3e9	-0.1287991
6	0xbe98e1d0	-0.2985978
7	0xbe998496	-0.29983968
8	0xbe217bd9	-0.157699
9	0xbc9f0716	-0.019412559
10	0xb4111269	-1.3510875e-07
11	0xbd69d0a3	-0.057083737
12	0xbe4b904c	-0.19879264
13	0xbd535fd7	-0.051605072
14	0xbd777987	-0.060418632
15	0xbe1ec501	-0.15504839
16	0xbe63ed74	-0.2225855
17	0xbe1bfc9d	-0.15233083
18	0xbf2fb864	-0.6864073
19	0xbe92eca3	-0.28696164
20	0xbe8feb7a	-0.28109342
21	0xbf20ed95	-0.6286252
22	0xbdcdce3e	-0.10049103
23	0xbdd73e52	-0.105099335
24	0xbe9479a6	-0.2899906
25	0xbe5ae150	-0.21375012
26	0x34a4f49c	3.0725357e-07
27	0xbd2353be	-0.039874785
28	0xbe036480	-0.12831306
29	0xbe87f575	-0.26554456
30	0xbf03d090	-0.51490116
31	0xbeeaf2e3	-0.45888433

resnet_denoiser/level_2/batch_normalization_34/FusedBatchNormV31 f4 [32]
0	0x3ea47bdb	0.32125744
1	0x3f059efe	0.5219573
2	0x3f7af339	0.9802738
3	0x3f1d527b	0.6145398
4	0x3e90b37f	0.28261945
5	0x3f2fafe3	0.68627757
6	0x3fbb6cdf	1.46426
7	0x3edd82bf	0.43263814
8	0x3eb30748	0.34966493
9	0x3f4e0db1	0.8048964
10	0x3e36b4e9	0.17842449
11	0x3ee4ff7b	0.44726166
12	0x3f1e2c43	0.6178629
13	0x3f4d96de	0.8030833
14	0x3ea7e243	0.32789811
15	0x3edaca44	0.4273244
16	0x3f481705	0.78160125
17	0x3f0dd856	0.5540823
18	0x3ebfb9dd	0.3744649
19	0x3fadbc5c	1.3573108
20	0x3e52abd1	0.20573355
21	0x3f1a1240	0.601841
22	0x3edc30d2	0.43005997
23	0x3e413983	0.18869595
24	0x3f9c7ecb	1.2226194
25	0x3eea18c1	0.4572201
26	0xbe408e76	-0.18804345
27	0x3ee6ee3a	0.45103627
28	0x3f3c5fd2	0.7358371
29	0x3f770e41	0.96506125
30	0x3eb66da4	0.35630524
31	0x3ecd04dc	0.4004277

resnet_denoiser/level_2/batch_normalization_35/FusedBatchNormV3 f4 [16]
0	0xbebf6697	-0.37382957
1	0xbf3e191c	-0.74257064
2	0xbe5af24b	-0.2138149
3	0xbe7fcc8a	-0.24980369
4	0x3e62fff7	0.22167955
5	0xbf9a15d9	-1.2037917
6	0xbe079ca9	-0.13243355
7	0x3ff738b6	1.9314182
8	0x3df3d3d5	0.11905638
9	0xbf015272	-0.50516427
10	0x3fe90f35	1.8207766
11	0xbebf72da	-0.37392312
12	0x3eb8f969	0.36127785
13	0xbfd69f76	-1.6767414
14	0x400fabc4	2.2448587
15	0x3fb078d3	1.3786873

resnet_denoiser/level_2/batch_normalization_35/FusedBatchNormV31 f4 [16]
0	0x3e7f14b6	0.24910244
1	0x3fab6008	1.3388681
2	0x3ffee20a	1.9912732
3	0x3f22aeda	0.6354805
4	0x3f7e8430	0.9942045
5	0x3fca4e10	1.5805073
6	0x40100880	2.2505188
7	0x3f87bf31	1.0605222
8	0x3ee97f59	0.4560497
9	0x3fefa90b	1.8723463
10	0x3f1f7da6	0.623011
11	0x401fb916	2.4956717
12	0x3e124e98	0.14287794
13	0x3fe504ba	1.7892067
14	0x3fd4e9bc	1.663383
15	0x405284b6	3.28935

resnet_denoiser/level_2/batch_normalization_36/FusedBatchNormV3 f4 [16]
0	0xbe4a5a97	-0.1976112
1	0xbe8ba4fa	-0.27274305
2	0xbee53b99	-0.44772032
3	0xbead03e8	-0.33792043
4	0xbe8337ce	-0.25628513
5	0xbd9e3ec9	-0.07726819
6	0xbd8cc28a	-0.06873043
7	0xbe7c2b65	-0.24625929
8	0xbe168fde	-0.14703318
9	0xbe469f97	-0.19396816
10	0xbeb3a59f	-0.35087296
11	0xbdc15f32	-0.09441985
12	0xbeb67d5e	-0.35642523
13	0xbdfac065	-0.122437276
14	0xbe0a8c97	-0.13530193
15	0xbf2f2f08	-0.6843114

resnet_denoiser/level_2/batch_normalization_36/FusedBatchNormV31 f4 [16]
0	0x3f644c75	0.89179164
1	0x3ee08e27	0.43858454
2	0x3f8bc4eb	1.091947
3	0x3f083bc6	0.5321621
4	0x3f451240	0.7698097
5	0x3f280e2d	0.6564663
6	0x3f76c9b0	0.964015
7	0x3fe5e392	1.7960074
8	0x3fbb2c62	1.462292
9	0x3f16d146	0.58913076
10	0x3f237420	0.6384907
11	0x3fd92e57	1.6967267
12	0x40ba294f	5.8175426
13	0x3fba39c2	1.4548876
14	0x403ff957	2.9995935
15	0x3f33af73	0.7018959

resnet_denoiser/level_2/batch_normalization_37/FusedBatchNormV3 f4 [32]
0	0xbe41e9c7	-0.18936835
1	0xbc411204	-0.01178408
2	0xbba83e51	-0.005134382
3	0xbe127eb5	-0.14306147
4	0xbe74e4d7	-0.2391542
5	0xbe202e18	-0.15642583
6	0xbe471a6d	-0.19443674
7	0xbe4fde86	-0.2029973
8	0xbe05c308	-0.1306268
9	0xbea9e54f	-0.3318276
10	0xbdf6e86f	-0.12056052
11	0xbe58b6cc	-0.21163481
12	0xbf073d84	-0.5282824
13	0xbde93d78	-0.11388677
14	0xbe8cae38	-0.27476668
15	0xbd8b07d3	-0.06788602
16	0xbe0e99cc	-0.13925856
17	0xbe722303	-0.23646168
18	0xbedc760c	-0.43058813
19	0xbe7aa379	-0.24476422
20	0xbeed2d44	-0.46323597
21	0xbe7e4108	-0.24829495
22	0xbeaf0583	-0.34183893
23	0xbecc9efc	-0.39965045
24	0xbefd97ef	-0.4952998
25	0xbed0dea0	-0.4079485
26	0xbda4c9c1	-0.08046294
27	0xbe24f942	-0.1611071
28	0xbd7cd39b	-0.06172524
29	0xbe2bbfdd	-0.16772409
30	0xbd293f38	-0.041320056
31	0xbef9ba90	-0.48775148

resnet_denoiser/level_2/batch_normalization_37/FusedBatchNormV31 f4 [32]
0	0x3efb82b7	0.49123165
1	0x3ed01317	0.40639564
2	0x3ef96685	0.4871103
3	0x3ef99cdf	0.48752496
4	0x3e7355f9	0.23763265
5	0x3e879211	0.26478627
6	0x3f63b1a7	0.8894295
7	0x3e98fe89	0.29881695
8	0x3f24b873	0.6434395
9	0x3e9ccb41	0.3062382
10	0x3ea86d6d	0.32895985
11	0x3e8e928f	0.2784619
12	0x3f05d544	0.5227854
13	0x3e6691b8	0.22516525
14	0x3efc1163	0.49232015
15	0x3f1f2282	0.6216203
16	0x3e8285fc	0.25492847
17	0x3ec7efe6	0.39050215
18	0x3fb7138d	1.4302841
19	0x3f254e5c	0.6457269
20	0x3e8086f1	0.25102952
21	0x3f15b8a3	0.5848486
22	0x3ec3ea31	0.3826461
23	0x3f32c4b5	0.698314
24	0x3f36dc4d	0.714299
25	0x3ebbf4f6	0.36710328
26	0x3f0141fe	0.5049132
27	0x3ebcdd67	0.36887667
28	0x3eb2b09c	0.34900367
29	0x3ea505ed	0.32231084
30	0x3e874927	0.26422998
31	0x3f1a3a18	0.60244894

resnet_denoiser/level_2/batch_normalization_38/FusedBatchNormV3 f4 [16]
0	0xbd689617	-0.05678376
1	0xbc9e6e1e	-0.019339617
2	0xbc738c55	-0.014865001
3	0xbd379efa	-0.044829346
4	0x3e125b88	0.14292729
5	0xbf334724	-0.70030427
6	0xbd08c82a	-0.033394016
7	0x3f2982b9	0.6621509
8	0xb728cc2d	-1.0061119e-05
9	0xbd874bb1	-0.06606234
10	0x3f5b04b3	0.85554045
11	0xbd2d4a5c	-0.042307243
12	0x3e7710da	0.24127522
13	0xbf33c908	-0.70228624
14	0x3ff1ea62	1.8899653
15	0x3db86193	0.09002986

resnet_denoiser/level_2/batch_normalization_38/FusedBatchNormV31 f4 [16]
0	0x3d1afc0c	0.037838027
1	0x3d0ed381	0.034869675
2	0x3e0dc2e6	0.13843879
3	0x3de98efd	0.11404226
4	0x3f241946	0.64101064
5	0x3f6b619a	0.91945803
6	0x3f11469c	0.56748366
7	0x3eba2735	0.36358038
8	0xb821a571	-3.853947e-05
9	0x3e7abb0b	0.24485414
10	0x3e95e1cc	0.29273832
11	0x3e9092eb	0.2823709
12	0x3dc36b3c	0.09541938
13	0x3f3fd81a	0.7493912
14	0x3fb340d5	1.400416
15	0x3e5bf417	0.21479832

resnet_denoiser/level_2/batch_normalization_39/FusedBatchNormV3 f4 [16]
0	0xbdb02ae5	-0.086019315
1	0xbe3f5e9f	-0.18688439
2	0xbda64c0e	-0.08119975
3	0xbe89bb39	-0.26900652
4	0xbceed6d2	-0.029155169
5	0xbd22fa4f	-0.039789494
6	0xbd31172b	-0.043234985
7	0xbd6ea7e5	-0.058265585
8	0xbd8c30c1	-0.068452366
9	0xbe0c818d	-0.13721295
10	0xbe5653c3	-0.2093039
11	0xbd8b1eab	-0.06792959
12	0xbd3004f2	-0.042973466
13	0xbcc021e6	-0.023453664
14	0xbd0818be	-0.03322672
15	0xbded9536	-0.11600725

resnet_denoiser/level_2/batch_normalization_39/FusedBatchNormV31 f4 [16]
0	0x4089e61b	4.309339
1	0x3ff023ae	1.8760889
2	0x40438d35	3.0554936
3	0x4008fa2c	2.1402693
4	0x3fb57622	1.4176676
5	0x3f5c94b1	0.86164385
6	0x3f788b9a	0.97088015
7	0x408cecf0	4.403923
8	0x3fe00f15	1.7504603
9	0x3fee13f7	1.8599843
10	0x3fbee65f	1.4914054
11	0x3fa74fd5	1.3071238
12	0x3f118ef2	0.5685874
13	0x3f5548e2	0.83314335
14	0x3fbfce77	1.4984883
15	0x40205c71	2.5056422

resnet_denoiser/level_2/batch_normalization_40/FusedBatchNormV3 f4 [32]
0	0xbea4818b	-0.32130083
1	0xbe234306	-0.15943536
2	0xbed9c227	-0.4253094
3	0xbf254c02	-0.64569104
4	0xbd857917	-0.06517237
5	0xbe92c232	-0.28663784
6	0xbec65887	-0.38739416
7	0xbd394103	-0.045228016
8	0xbe858c5a	-0.26083642
9	0xbece91ce	-0.40345615
10	0xbe6e2c88	-0.23259175
11	0xbf166c6e	-0.587592
12	0xbe1f43c8	-0.155532
13	0xbe901bc1	-0.28146175
14	0xbd79d236	-0.06099149
15	0xbe674dba	-0.22588244
16	0x3dbeb95c	0.09312698
17	0xbdf0d57c	-0.11759469
18	0xbe5398b0	-0.20663714
19	0xbe209df6	-0.15685257
20	0xbf247f71	-0.6425696
21	0xbd94034b	-0.072271906
22	0xbee6c4a4	-0.450719
23	0xbe8ce8ca	-0.27521354
24	0xbe53d103	-0.206852
25	0xbd354463	-0.04425467
26	0xbeadc81a	-0.33941728
27	0xbeba7f40	-0.3642521
28	0xbf1aa64c	-0.6041
29	0xbe240d6e	-0.16020748
30	0xbf385203	-0.7200014
31	0xbe3b3b26	-0.18284282

resnet_denoiser/level_2/batch_normalization_40/FusedBatchNormV31 f4 [32]
0	0x3ed9037a	0.42385465
1	0x3fa28aa4	1.269856
2	0x3fcc13ec	1.594358
3	0x3eec5dba	0.46165258
4	0x3f652be5	0.895201
5	0x3e8ba1ee	0.2727198
6	0x3fa23ff5	1.2675768
7	0x3f4dbe47	0.80368465
8	0x3f700805	0.93762237
9	0x3f69e067	0.91358036
10	0x3eb200e5	0.34766307
11	0x3fab02b7	1.3360204
12	0x3f1da94b	0.61586446
13	0x3f9c4098	1.2207212
14	0x3f223bfc	0.6337278
15	0x3ea0f46f	0.31436488
16	0x3f96b433	1.1773742
17	0x3eaeade7	0.34117052
18	0x3fd021bf	1.6260298
19	0x3f26fae6	0.6522659
20	0x3f8df4b1	1.1090299
21	0x3f1c334b	0.61015767
22	0x3f37ed84	0.71846795
23	0x400b5e11	2.1776164
24	0x3f1b4599	0.6065307
25	0x3f1f77bd	0.6229208
26	0x3f50723b	0.814243
27	0x3ee9f220	0.4569254
28	0x3fffc90e	1.9983232
29	0x3f918e8a	1.1371624
30	0x3f8e883f	1.1135329
31	0x3e930868	0.2871735

resnet_denoiser/level_2/batch_normalization_41/FusedBatchNormV3 f4 [16]
0	0xbdd54ec2	-0.104154125
1	0xbca726ea	-0.020404298
2	0xbc8ce11e	-0.017197188
3	0xbd30c031	-0.043152038
4	0x3df7661c	0.12080023
5	0xbe0dd755	-0.13851674
6	0xbc56de7d	-0.013114569
7	0x3f3a7698	0.7283721
8	0x3d0181ae	0.031617813
9	0xbcf0d91c	-0.0294004
10	0x3eeab3e9	0.45840386
11	0xbdea9b07	-0.1145535
12	0x3dc49658	0.09598988
13	0xbe25d301	-0.16193773
14	0x3e1e981c	0.15487713
15	0x3d992157	0.07477062

resnet_denoiser/level_2/batch_normalization_41/FusedBatchNormV31 f4 [16]
0	0x3d8e2360	0.06940341
1	0x3d16b063	0.03678931
2	0x3e2400a0	0.16015863
3	0x3de0d1e2	0.10977532
4	0x3f0ab1ad	0.5417736
5	0x3e3a3aa1	0.18186428
6	0x3e64364a	0.22286335
7	0x3eccc528	0.39994168
8	0x3df80a2f	0.12111317
9	0x3ddf2ba3	0.10896995
10	0x3e209d8d	0.15685101
11	0x3f43ba6e	0.76456344
12	0x3d1b7e10	0.03796202
13	0x3e30f25a	0.1727995
14	0x3deb074a	0.11476
15	0x3e36ac62	0.17839196

resnet_denoiser/level_2/batch_normalization_42/FusedBatchNormV3 f4 [16]
0	0xbe83a8ac	-0.25714624
1	0xbd715222	-0.05891622
2	0xbdaad7ac	-0.083419174
3	0xbdce5636	-0.10075037
4	0xbc96a9ed	-0.018391574
5	0xbd69a4fb	-0.057042103
6	0xbd568033	-0.052368354
7	0xbd1c25f6	-0.03812214
8	0xb285f99b	-1.5596745e-08
9	0xbd81b14e	-0.06332646
10	0xbd4ebe5f	-0.05047452
11	0xbd63e089	-0.055634055
12	0xbd0f88d6	-0.035042606
13	0xbe3b06c0	-0.18264294
14	0xbcb67b4f	-0.022275595
15	0xbd0133cb	-0.031543534

resnet_denoiser/level_2/batch_normalization_42/FusedBatchNormV31 f4 [16]
0	0x4099c643	4.805452
1	0x4003ccf1	2.0593836
2	0x3f0cc239	0.5498386
3	0x3f58d76e	0.8470372
4	0x404423c2	3.0646825
5	0x3f4dc91f	0.8038501
6	0x3fcc90bf	1.5981673
7	0x40398004	2.8984385
8	0x3e9b6be8	0.30355763
9	0x406e741d	3.725837
10	0x404c5de6	3.193231
11	0x40297581	2.6477969
12	0x3f7fbb14	0.99894834
13	0x405f497f	3.4888608
14	0x3fd65edb	1.6747698
15	0x40aafb3d	5.3431687

resnet_denoiser/level_2/batch_normalization_43/FusedBatchNormV3 f4 [32]
0	0xbe02eb8e	-0.1278517
1	0xbe20f0c0	-0.15716839
2	0xbe5f06d9	-0.21779956
3	0xbe20be3c	-0.15697569
4	0xbe347f69	-0.17626728
5	0xbdd0a5d6	-0.10187881
6	0xbd0d00c9	-0.034424577
7	0xbd31ee44	-0.04344012
8	0xbe35c6a1	-0.17751552
9	0xbda9d48c	-0.08292493
10	0xbe8c90e6	-0.274543
11	0xbe125f90	-0.14294267
12	0xbe1504b5	-0.14552577
13	0xbea9d356	-0.3316905
14	0xbe1237f6	-0.1427916
15	0xbe795513	-0.2434886
16	0xbde1897a	-0.1101255
17	0xbeb7af48	-0.35875916
18	0xbea26ab7	-0.31722042
19	0xbec2e415	-0.38064638
20	0xbd33570c	-0.043784186
21	0xbdee53a2	-0.116370454
22	0xbe0d1095	-0.13775857
23	0xbe50378f	-0.20333694
24	0xbe5949db	-0.2121958
25	0xbea0104b	-0.3126243
26	0xbcc8c22b	-0.024506649
27	0xbda67f1c	-0.08129713
28	0xbd681289	-0.0566583
29	0xbd35a50d	-0.044346858
30	0xbea0e94f	-0.31428
31	0xbd35181b	-0.044212442

resnet_denoiser/level_2/batch_normalization_43/FusedBatchNormV31 f4 [32]
0	0x3f4d01a8	0.8008065
1	0x3ea51dd3	0.32249317
2	0x3ff3fe5a	1.9061997
3	0x400b554d	2.1770813
4	0x3f41e353	0.75737494
5	0x3f9c9f2c	1.2236075
6	0x3ebcf268	0.3690369
7	0x3ef4d744	0.47820485
8	0x3f74c6e4	0.95615983
9	0x3f29edd6	0.66378534
10	0x409dddfe	4.9333487
11	0x3f4633c6	0.7742275
12	0x3f8d158b	1.1022199
13	0x3fd4f8bd	1.6638409
14	0x3fa082ae	1.253988
15	0x3ff6bce4	1.9276395
16	0x3f8e934f	1.1138705
17	0x40573603	3.3626716
18	0x40232a36	2.5494514
19	0x407c62b4	3.9435244
20	0x3f64917b	0.89284486
21	0x3fdd8578	1.7306356
22	0x3f48be33	0.7841522
23	0x40023339	2.0343764
24	0x3fb5fc7e	1.421768
25	0x40199673	2.3998077
26	0x3f39c93e	0.72572696
27	0x3f837a7b	1.0271753
28	0x3f5de853	0.86682624
29	0x3f6d47e4	0.9268782
30	0x3f9df5d2	1.2340643
31	0x3f4c9e12	0.79928696

resnet_denoiser/level_2/batch_normalization_44/FusedBatchNormV3 f4 [16]
0	0xbda09df1	-0.07842625
1	0xbd9e19e7	-0.07719784
2	0xbcb3341e	-0.021875437
3	0xbc28f42e	-0.010312123
4	0x3dd48f00	0.103788376
5	0xbd2a2b0a	-0.04154495
6	0xbc4b13fd	-0.012394902
7	0x3ebb2233	0.3654953
8	0x3c954510	0.018221408
9	0xbcd157fe	-0.025554653
10	0x3e95f2a3	0.2928668
11	0xbc4bf314	-0.012448091
12	0x3dbf2923	0.09334018
13	0xbe1bbbbe	-0.15208337
14	0x3ea8e494	0.3298689
15	0x3d5cb439	0.05388281

resnet_denoiser/level_2/batch_normalization_44/FusedBatchNormV31 f4 [16]
0	0x3d560e1f	0.05225956
1	0x3e0e8795	0.13918908
2	0x3e509df1	0.2037275
3	0x3cd6e709	0.026233213
4	0x3eee5315	0.46547762
5	0x3d5f6bb2	0.054546066
6	0x3e57b05b	0.21063368
7	0x3e4d819d	0.20068975
8	0x3d8ef220	0.069797754
9	0x3dc1fa79	0.09471602
10	0x3dcd3aad	0.10020957
11	0x3daa26fe	0.083082184
12	0x3d173342	0.036914118
13	0x3e262dd2	0.16228417
14	0x3e7a4a64	0.2444244
15	0x3e03a45a	0.12855664

resnet_denoiser/level_2/batch_normalization_45/FusedBatchNormV3 f4 [16]
0	0xbcc4dcc8	-0.024031058
1	0xbc4a1beb	-0.012335758
2	0xbd9260b8	-0.07147354
3	0xbf40daa6	-0.7533363
4	0xbe90f3b7	-0.2831094
5	0xbf2527fa	-0.64514124
6	0xbcb0b56c	-0.021570884
7	0xbcdbbb39	-0.026822673
8	0xbd05ce81	-0.03266764
9	0xbdb64439	-0.08899731
10	0xbcab2df3	-0.020895934
11	0xbe39d0b1	-0.18146016
12	0xbf155f46	-0.583485
13	0xbc6727cc	-0.014108609
14	0xbc1a67f4	-0.009424198
15	0xbc943916	-0.018093627

resnet_denoiser/level_2/batch_normalization_45/FusedBatchNormV31 f4 [16]
0	0x3f2b2af8	0.6686244
1	0x3f88d091	1.068865
2	0x404f3107	3.2373674
3	0x40c14087	6.039127
4	0x402f1b35	2.7360356
5	0x4105dc1c	8.366238
6	0x3f1e388f	0.6180505
7	0x3f12fde4	0.57418656
8	0x3eec2b31	0.46126702
9	0x3fafda5d	1.3738514
10	0x3f12c557	0.57332367
11	0x40099db2	2.15025
12	0x40945173	4.6349425
13	0x3f9d3416	1.228152
14	0x3f226b21	0.63444716
15	0x3f0df2fd	0.55448896

resnet_denoiser/level_2/batch_normalization_46/FusedBatchNormV3 f4 [32]
0	0xbd3a0be1	-0.045421485
1	0xbe7886c0	-0.24270153
2	0xbebcce57	-0.36876175
3	0xbd098277	-0.033571687
4	0xbdc484f2	-0.0959567
5	0xbba7bfe1	-0.0051193093
6	0xbce2b2ff	-0.027673243
7	0xbd00b741	-0.031424765
8	0xbc9cb7d5	-0.019130627
9	0xbcb1669c	-0.021655373
10	0xbd0321a6	-0.03201451
11	0xbdde8a97	-0.10866278
12	0xbd32ab76	-0.04362055
13	0xbdd3fb7c	-0.10350701
14	0xbd1f12f5	-0.03883644
15	0xbdadc6a9	-0.08485157
16	0xbe8314d1	-0.2560182
17	0xbc1d22e5	-0.009590839
18	0xbd621f2c	-0.05520551
19	0xbdf74245	-0.12073187
20	0xbe256eac	-0.16155499
21	0xbcc9481f	-0.024570523
22	0xbdb2833d	-0.08716438
23	0xbe7d80d1	-0.24756171
24	0xbd75f403	-0.06004716
25	0xbd4e740d	-0.050403643
26	0xbd83768e	-0.06419097
27	0xbe5673ff	-0.20942686
28	0xbe0428d5	-0.12906201
29	0xbd957403	-0.07297518
30	0xbd775f02	-0.06039334
31	0xbde55437	-0.11197703

resnet_denoiser/level_2/batch_normalization_46/FusedBatchNormV31 f4 [32]
0	0x3e6e3881	0.23263742
1	0x3f8294e5	1.0201689
2	0x3f20213a	0.625507
3	0x3e2fa422	0.17152455
4	0x3f8ab4b0	1.0836391
5	0x3f0b0a31	0.54312426
6	0x3e3f2377	0.18665873
7	0x3e661098	0.22467268
8	0x3e731f2f	0.23742364
9	0x3efd0b70	0.4942279
10	0x3ed76df4	0.42076075
11	0x3fc5b6b3	1.544638
12	0x3e6bea33	0.23038559
13	0x40079ef9	2.119078
14	0x3f551d49	0.8324781
15	0x3f8bfa4d	1.0935761
16	0x4022bd85	2.5428174
17	0x3f9f8b1d	1.2464329
18	0x3fdd5aad	1.7293297
19	0x3f0307e7	0.51183933
20	0x3f862ff2	1.0483382
21	0x3e98eecb	0.29869685
22	0x3f92b32d	1.146093
23	0x3fb4771f	1.4098853
24	0x3f510f88	0.81664324
25	0x3e62b1aa	0.22138086
26	0x3f80c9ee	1.0061624
27	0x40054931	2.0825922
28	0x3f20e79c	0.6285341
29	0x3f3a579a	0.7278992
30	0x3f471f64	0.77782273
31	0x3f915cd2	1.1356452

resnet_denoiser/level_2/batch_normalization_47/FusedBatchNormV3 f4 [16]
0	0xbe161511	-0.14656474
1	0xbd9efde3	-0.07763269
2	0xbcab1422	-0.020883624
3	0xbce08f08	-0.027411953
4	0x3dd206f6	0.10255234
5	0xbd6fceeb	-0.05854694
6	0xbc5d3dce	-0.013503505
7	0x3e9d8d8b	0.3077205
8	0x3c848b27	0.016179634
9	0xbcad3679	-0.021144139
10	0x3e87bc30	0.26510763
11	0xb48ef816	-2.6630067e-07
12	0x3e76bc64	0.24095303
13	0xbde1be64	-0.11022642
14	0x3e6e289b	0.23257677
15	0x3d3e0795	0.04639395

resnet_denoiser/level_2/batch_normalization_47/FusedBatchNormV31 f4 [16]
0	0x3dc803fc	0.09766385
1	0x3e0f551d	0.13997312
2	0x3e47288e	0.19449064
3	0x3d8ed099	0.069733806
4	0x3eeb7c7e	0.45993418
5	0x3d9d6d53	0.076868676
6	0x3e6afae9	0.22947277
7	0x3e2d0579	0.16896619
8	0x3d7ddb41	0.061976675
9	0x3da07fda	0.07836886
10	0x3db9c6d5	0.09071127
11	0x35ee8de8	1.7773682e-06
12	0x3dc3286c	0.09529194
13	0x3df0e29d	0.11761973
14	0x3e30782e	0.17233345
15	0x3de2b112	0.1106893
