bfcnn/pretrained/resnet_color_laplacian_3x5_non_shared_bn_16x3x3_128x128_residual/model.tflite (tflite, 189472 bytes, 150 tensors)

resnet_denoiser/level_0/batch_normalization/FusedBatchNormV3 f4 [16]
-0.52083075 0.23522376 -0.47444257 0.10518344 0.23915131 -0.15628013 -0.51582974 -0.33829328
0.28435686 -0.013090994 -0.044485252 0.27716365 0.5016464 0.075393155 0.21139663 -0.32843068
00000000: 2a55 05bf 7fde 703e 23ea f2be 6a6a d73d
00000010: 15e4 743e e607 20be 6b0d 04bf c734 adbe
00000020: 3997 913e 9c7b 56bc 2b36 36bd 65e8 8d3e
00000030: e66b 003f ba67 9a3d 5c78 583e 1128 a8be

resnet_denoiser/level_0/batch_normalization/FusedBatchNormV31 f4 [16]
1.186696 3.4077525 2.025417 2.9754825 3.7351515 0.92838216 1.7236134 4.159007
2.7207034 1.7546357 5.8298182 1.6853527 4.9050255 1.6762733 4.1800756 3.210795
00000000: a8e5 973f 9e18 5a40 6fa0 0140 4e6e 3e40
00000010: b90c 6f40 74aa 6d3f 5d9f dc3f 9616 8540
00000020: 0120 2e40 e797 e03f df8d ba40 a3b9 d73f
00000030: f8f5 9c40 2090 d63f 2ec3 8540 aa7d 4d40

resnet_denoiser/level_0/batch_normalization_1/FusedBatchNormV3 f4 [16]
-0.17463052 -0.11261517 -0.1107654 -0.13093878 -0.028100105 -0.17566302 -0.077749 -0.047333404
-0.099476896 -0.04127178 -0.025580619 -0.11034943 -0.012984299 -0.020502154 -0.06074282 -0.066181555
00000000: 58d2 32be c8a2 e6bd f8d8 e2bd d114 06be
00000010: 3132 e6bc 02e1 33be de3a 9fbd ace0 41bd
00000020: 8bba cbbd 990c 29bd 728e d1bc e2fe e1bd
00000030: 19bc 54bc 22f4 a7bc 77cd 78bd 328a 87bd

resnet_denoiser/level_0/batch_normalization_1/FusedBatchNormV31 f4 [16]
0.8634193 1.7012912 1.7078768 1.4666556 10.623344 0.5598847 2.5290272 3.6510267
1.2660112 4.720685 7.003381 1.8582677 9.055342 6.6329722 2.3577628 3.1901143
00000000: 0c09 5d3f e9c3 d93f b59b da3f 5fbb bb3f
00000010: 38f9 2941 9b54 0f3f 95db 2140 6caa 6940
00000020: a80c a23f da0f 9740 b21b e040 b7db ed3f
00000030: aee2 1041 4f41 d440 96e5 1640 d52a 4c40

resnet_denoiser/level_0/batch_normalization_10/FusedBatchNormV3 f4 [16]
-0.017421879 -0.020693554 -0.02698618 -2.6024975e-07 -0.0154671995 3.033065e-07 -0.01994987 -0.0148923835
-0.022490231 -0.018553996 -0.02305111 -0.026472408 -0.014369226 -0.04408372 -2.7596374e-07 -0.048100777
00000000: 54b8 8ebc 8785 a9bc 1f12 ddbc 74b8 8bb4
00000010: 236a 7dbc 21d6 a234 e96d a3bc 2fff 73bc
00000020: 6f3d b8bc 8dfe 97bc aed5 bcbc aadc d8bc
00000030: e76c 6bbc 2191 34bd 2b28 94b4 5205 45bd

resnet_denoiser/level_0/batch_normalization_10/FusedBatchNormV31 f4 [16]
11.742867 6.7845416 9.645486 1.5844904 7.099412 -1.4303368 8.037023 7.1783175
7.2051587 9.963537 8.763676 9.690553 9.268681 8.752508 1.4768156 6.2333155
00000000: c9e2 3b41 f71a d940 e953 1a41 95d0 ca3f
00000010: 622e e340 4715 b7bf a597 0041 c7b4 e540
00000020: a990 e640 a66a 1f41 0438 0c41 810c 1b41
00000030: 844c 1441 460a 0c41 4b08 bd3f 5277 c740

resnet_denoiser/level_0/batch_normalization_11/FusedBatchNormV3 f4 [32]
-0.09300842 -0.15399891 -0.14744769 -0.11542108 -0.08486377 -0.3852729 -0.124343015 -0.15950555
-0.078460045 -0.0764256 -0.0857391 -0.04380028 -2.5344877e-07 4.0029127e-07 -0.050854415 -0.08573826
-0.10125533 -0.1117975 -0.074481934 -0.11776878 -0.13674656 -0.22737737 -0.025998872 3.6530378e-07
-0.21272561 -0.09849307 -0.0952871 -0.32843277 -0.15091623 -0.110301465 -0.28664204 -0.20143421
00000000: 337b bebd e4b1 1dbe 87fc 16be e361 ecbd
00000010: 0ecd adbd 7d42 c5be 8da7 febd 6c55 23be
00000020: a9af a0bd 0685 9cbd fb97 afbd ec67 33bd
00000030: bc11 88b4 9de7 d634 b84c 50bd 8a97 afbd
00000040: f45e cfbd 16f6 e4bd fc89 98bd c230 f1bd
00000050: 4a07 0cbe 9dd5 68be 96fb d4bc f81e c434
00000060: bed4 59be bcb6 c9bd e225 c3bd 5728 a8be
00000070: c989 1abe bce5 e1bd bfc2 92be c544 4ebe

resnet_denoiser/level_0/batch_normalization_11/FusedBatchNormV31 f4 [32]
5.498186 3.5541375 2.120885 1.6747478 7.081894 1.511163 4.6596713 5.1748757
2.142307 1.9526503 1.9179436 3.4823465 1.8069177 -1.8559713 2.2370875 2.5560946
3.4167309 4.8334193 5.4687686 2.9633546 2.329574 4.568686 2.3714828 -2.3452606
5.220821 3.77185 5.9771953 1.9158 2.107632 6.213378 1.489019 2.9256158
00000000: 24f1 af40 fd76 6340 94bc 0740 235e d63f
00000010: e09e e240 ca6d c13f 071c 9540 9598 a540
00000020: 8f1b 0940 72f0 f93f 2d7f f53f c4de 5e40
00000030: 1449 e73f 7890 edbf 712c 0f40 0e97 2340
00000040: b8ab 5a40 5fab 9a40 2700 af40 9aa7 3d40
00000050: be17 1540 ad32 9240 60c6 1740 c018 16c0
00000060: f710 a740 fe65 7140 2f45 bf40 ef38 f53f
00000070: 71e3 0640 fed3 c640 2d98 be3f 4a3d 3b40

resnet_denoiser/level_0/batch_normalization_12/FusedBatchNormV3 f4 [16]
-0.053962868 0.018394854 -0.07472148 0.0025560514 0.0042347466 -0.04375678 -0.039009362 -0.0038167401
0.023365516 -0.0011463021 -0.00051989587 0.08588013 0.04152172 0.008100222 0.011363807 -0.008204594
00000000: 2b08 5dbd ceb0 963c 9307 99bd 6d83 273b
00000010: a1c3 8a3b 4f3a 33bd 48c8 1fbd 4622 7abb
00000020: 0a69 bf3c 843f 96ba 9f49 08ba ece1 af3d
00000030: ae12 2a3d cbb6 043c 432f 3a3c 906c 06bc

resnet_denoiser/level_0/batch_normalization_12/FusedBatchNormV31 f4 [16]
0.12295265 0.26649135 0.3189894 0.072306894 0.06613981 0.25993717 0.1303474 0.046923343
0.22355936 0.1536432 0.068132676 0.52221245 0.4059933 0.1800984 0.22470354 0.08020951
00000000: 99ce fb3d 8e71 883e 9452 a33e a315 943d
00000010: 4f74 873d 7c16 853e ca79 053e b132 403d
00000020: bfec 643e a554 1d3e 2589 8b3d b7af 053f
00000030: 5bde cf3e b76b 383e af18 663e e244 a43d

resnet_denoiser/level_0/batch_normalization_13/FusedBatchNormV3 f4 [16]
-4.8038345e-07 -0.035852812 -0.01571913 -0.028640138 -0.023229599 -0.01941238 -0.07492082 -0.026926827
3.2124717e-07 -0.008585745 -0.010659318 -0.016499123 -0.023819083 -0.031073065 -0.01455925 -4.4826635e-07
00000000: b3f3 00b5 66da 12bd 68c5 80bc b99e eabc
00000010: 004c bebc b606 9fbc 1670 99bd a695 dcbc
00000020: e077 ac34 39ab 0cbc 6ca4 2ebc 2b29 87bc
00000030: 3d20 c3bc f18c febc ec89 6ebc 42a9 f0b4

resnet_denoiser/level_0/batch_normalization_13/FusedBatchNormV31 f4 [16]
1.1363895 5.8848295 13.327106 6.9641733 7.6532636 7.8280654 9.786464 6.692923
-1.0349505 29.142801 13.66108 11.018173 12.761466 5.7701354 7.9338207 1.1329074
00000000: 3675 913f 8650 bc40 d43b 5541 82da de40
00000010: 89e7 f440 837f fa40 5b95 1c41 6d2c d640
00000020: 4279 84bf 7524 e941 c993 5a41 704a 3041
00000030: f72e 4c41 f3a4 b840 dce1 fd40 1c03 913f

resnet_denoiser/level_0/batch_normalization_14/FusedBatchNormV3 f4 [32]
2.6989292e-07 -3.0003983e-07 -0.17065026 -0.14624225 -0.05766186 -2.3259842e-07 -0.17039348 2.8831363e-07
-0.09709084 -0.070306495 -2.2592705e-07 -0.017817255 3.1723178e-07 -2.3451224e-07 -0.11464074 -0.045003127
-2.121431e-07 -0.02947945 -0.21883753 -0.075142406 -0.07622727 -0.044740163 3.203435e-07 -3.5355416e-07
-0.08181244 -3.039023e-07 -0.0350064 -0.083591044 4.1074608e-07 -0.13588445 -0.08320488 -0.21461125
00000000: cde5 9034 2915 a1b4 f1be 2ebe 87c0 15be
00000010: d82e 6cbd 2bc0 79b4 a17b 2ebe 86c9 9a34
00000020: 90d7 c6bd dafc 8fbd 5b96 72b4 7ef5 91bc
00000030: 0150 aa34 3cce 7bb4 c4c8 eabd 3355 38bd
00000040: 74c9 63b4 e37e f1bc f216 60be 43e4 99bd
00000050: 0b1d 9cbd 7641 37bd adfb ab34 1dd0 bdb4
00000060: 488d a7bd 0428 a3b4 df62 0fbd c831 abbd
00000070: 8384 dc34 4b25 0bbe 5267 aabd 0dc3 5bbe

resnet_denoiser/level_0/batch_normalization_14/FusedBatchNormV31 f4 [32]
-0.891209 0.9444483 0.7913446 2.0597708 1.9229518 0.97854954 2.3132946 -0.98730946
1.8617247 0.75462645 0.94377095 1.5350256 -0.9617875 0.9098136 1.7968997 9.322024
1.1696728 1.79092 0.7634719 1.3911278 1.9946674 10.365297 -1.2068007 1.1694765
3.385793 1.2427431 1.4146795 1.3883692 -1.1574571 0.8868375 9.765052 0.8907328
00000000: 4626 64bf 5dc7 713f 8f95 4a3f 49d3 0340
00000010: 4923 f63f 3982 7a3f 050d 1440 50c0 7cbf
00000020: ff4c ee3f 332f 413f f99a 713f b87b c43f
00000030: b537 76bf 8be9 683f cf00 e63f 0327 1541
00000040: d7b7 953f de3c e53f e572 433f 7a10 b23f
00000050: 4351 ff3f 42d8 2541 7278 9abf 68b1 953f
00000060: d5b0 5840 3512 9f3f 3814 b53f 15b6 b13f
00000070: 8e27 94bf c807 633f a73d 1c41 1107 643f

resnet_denoiser/level_0/batch_normalization_15/FusedBatchNormV3 f4 [16]
-0.029874947 0.013147186 -0.019070318 0.0023834172 0.0032953245 -0.011308215 -0.018780775 -0.0045301607
0.010867671 -0.00042885687 -0.00053634646 0.0020331568 0.0069700074 0.0029612153 0.0034984488 -0.009439332
00000000: 4ebc f4bc 4b67 573c 5b39 9cbc 1b33 1c3b
00000010: 5ff6 573b 1746 39bc 24da 99bc be71 94bb
00000020: 510e 323c 32d8 e0b9 9a99 0cba b63e 053b
00000030: a964 e43b f310 423b 3b46 653b 6ea7 1abc

resnet_denoiser/level_0/batch_normalization_15/FusedBatchNormV31 f4 [16]
0.0680691 0.19046693 0.081412055 0.067423336 0.051467575 0.06717645 0.06275481 0.055694193
0.103980996 0.057481315 0.07028854 0.012363045 0.068151705 0.065838955 0.06917699 0.09228051
00000000: d067 8b3d c309 433e 5dbb a63d 3f15 8a3d
00000010: aacf 523d ce93 893d 9885 803d 981f 643d
00000020: fdf3 d43d 8771 6b3d 70f3 8f3d 5e8e 4a3c
00000030: 1f93 8b3d 93d6 863d aaac 8d3d 90fd bc3d

resnet_denoiser/level_0/batch_normalization_2/FusedBatchNormV3 f4 [32]
-0.14782639 -0.18683836 -0.116074905 -0.060894534 -0.13087986 -0.13262238 -0.07903798 -0.12680247
-0.22989029 -0.08657072 -0.18544932 -0.21558866 -0.10709995 -0.20025139 -0.051727682 -0.12305369
-0.1371031 -0.09432414 -0.14818525 -0.12770748 -0.052494884 -0.13424787 -0.06178523 -0.1355209
-0.06873974 -0.053748768 -0.19863708 -0.30127153 -0.10342356 -0.22639492 -0.13229999 -0.08425492
00000000: cd5f 17be 8e52 3fbe aeb8 edbd 8c6c 79bd
00000010: 5f05 06be 29ce 07be aade a1bd 82d8 01be
00000020: 5c68 6bbe fd4b b1bd 6de6 3dbe 46c3 5cbe
00000030: 3857 dbbd b30e 4dbe 68e0 53bd 9303 fcbd
00000040: c164 0cbe 042d c1bd e0bd 17be c0c5 02be
00000050: e004 57bd 4678 09be 8212 7dbd fec5 0abe
00000060: 6cc7 8cbd ab27 5cbd 8567 4bbe 4340 9abe
00000070: bbcf d3bd 12d4 67be a679 07be d88d acbd

resnet_denoiser/level_0/batch_normalization_2/FusedBatchNormV31 f4 [32]
1.2693049 0.34223542 1.4742283 0.9829487 0.9846395 0.808535 2.7823434 0.7406822
1.9656004 1.7710637 1.403197 0.7915839 2.5809803 0.6096923 3.226427 1.3242885
1.0575047 0.56492144 1.1550963 0.3585179 1.0363477 1.0077436 0.5782181 0.9887704
2.3460393 1.4072962 0.6075748 1.5613433 1.6955277 1.1352988 1.0355848 0.8934688
00000000: 9578 a23f 7b39 af3e 83b3 bc3f 87a2 7b3f
00000010: 5611 7c3f 26fc 4e3f ea11 3240 599d 3d3f
00000020: cb98 fb3f 37b2 e23f f69b b33f 3ea5 4a3f
00000030: c82e 2540 cb14 1c3f c87d 4e40 4982 a93f
00000040: 505c 873f b19e 103f 32da 933f a88f b73e
00000050: 0ba7 843f befd 803f 1a06 143f 0f20 7d3f
00000060: 8225 1640 4822 b43f 068a 1b3f 19da c73f
00000070: 0d07 d93f 7951 913f 0b8e 843f 5fba 643f

resnet_denoiser/level_0/batch_normalization_3/FusedBatchNormV3 f4 [16]
-0.38439485 0.08837166 -0.5552366 0.060686473 0.16987683 -0.14695926 -0.14577408 -0.1934567
0.12467589 -0.012291199 -0.01234881 0.20582314 0.21054764 0.0332222 0.123337924 -0.1527535
00000000: 67cf c4be 33fc b43d fc23 0ebf 6192 783d
00000010: 31f4 2d3e 7d7c 16be cd45 15be 8319 46be
00000020: 1356 ff3d 0661 49bc aa52 4abc 4dc3 523e
00000030: cd99 573e 0014 083d 9898 fc3d 6a6b 1cbe

resnet_denoiser/level_0/batch_normalization_3/FusedBatchNormV31 f4 [16]
0.87583125 1.280265 2.3703303 1.7167296 2.6531975 0.87301147 0.48709515 2.3783734
1.1928889 1.6474361 1.6183189 1.2515514 2.058704 0.7386545 2.4388366 1.4933445
00000000: 7a36 603f b9df a33f 7eb3 1740 ccbd db3f
00000010: fdcd 2940 ae7d 5f3f 8964 f93e 4537 1840
00000020: 95b0 983f 30df d23f 1325 cf3f d632 a03f
00000030: cec1 0340 7618 3d3f e615 1c40 ea25 bf3f

resnet_denoiser/level_0/batch_normalization_4/FusedBatchNormV3 f4 [16]
-0.23472735 -0.30689058 -0.3362804 -0.07329076 -0.11606112 -0.16535571 -0.079027474 -0.101030976
-0.079896994 -0.10370217 -0.05653967 -0.043876436 -0.27008548 -0.13256067 -0.092261635 -0.079958916
00000000: 5e5c 70be c320 9dbe f22c acbe 7719 96bd
00000010: 74b1 edbd 0253 29be 28d9 a1bd 54e9 cebd
00000020: 09a1 a3bd ce61 d4bd 2496 67bd c7b7 33bd
00000030: a548 8abe fcbd 07be abf3 bcbd 80c1 a3bd

resnet_denoiser/level_0/batch_normalization_4/FusedBatchNormV31 f4 [16]
2.544004 1.5620123 2.7149403 6.4690905 6.10443 3.235578 4.5301642 3.122043
4.4976325 2.2186928 4.763271 5.978995 3.2825031 8.009285 2.6807196 4.501615
00000000: f6d0 2240 05f0 c73f 95c1 2d40 ca02 cf40
00000010: 7e57 c340 b613 4f40 1bf7 9040 8dcf 4740
00000020: 9bec 8f40 10ff 0d40 b76c 9840 ed53 bf40
00000030: 8814 5240 0826 0041 e990 2b40 3b0d 9040

resnet_denoiser/level_0/batch_normalization_5/FusedBatchNormV3 f4 [32]
-0.19765452 -0.280181 -0.14717431 -0.15651864 -0.054048263 -0.19191702 -0.13699602 -0.20424822
-0.15410183 -0.13169849 -0.12661062 -0.19999811 -0.24205764 -0.24498056 -0.068136975 -0.15113556
-0.098114245 -0.15640563 -0.14610276 -0.23321812 -0.2693207 -0.18525873 -0.06722234 -0.1967679
-0.38110936 -0.16234747 -0.21357495 -0.17190717 -0.18989988 -0.07319416 -0.13232784 -0.35353717
00000000: f265 4abe e273 8fbe ddb4 16be 6c46 20be
00000010: b661 5dbd e585 44be af48 0cbe 7226 51be
00000020: dfcc 1dbe f8db 06be 37a6 01be 4ecc 4cbe
00000030: f5dd 77be 2fdc 7abe 668b 8bbd 48c3 1abe
00000040: 1ff0 c8bd cc28 20be f69b 15be bbd0 6ebe
00000050: 67e4 89be 77b4 3dbe deab 89bd 867d 49be
00000060: c420 c3be 6a3e 26be 64b3 5abe 6f08 30be
00000070: 1d75 42be d2e6 95bd f380 07be d302 b5be

resnet_denoiser/level_0/batch_normalization_5/FusedBatchNormV31 f4 [32]
1.1276631 0.8002401 0.936674 0.69460166 0.92370206 0.78455955 1.7715609 1.0942925
1.0707228 0.8596081 0.79763645 1.0981705 0.6404081 2.3147662 1.6814902 1.2394027
0.8725241 0.6932257 1.3673284 1.4207963 0.6254125 0.4837998 0.64481455 1.017201
1.7326988 1.4492097 0.86488265 1.124954 1.1556864 1.177749 0.5306997 0.9577284
00000000: 4457 903f 89dc 4c3f dec9 6f3f 6ad1 313f
00000010: bd77 6c3f e5d8 483f 82c2 e23f c711 8c3f
00000020: 720d 893f 470f 5c3f e731 4c3f da90 8c3f
00000030: c9f1 233f 2125 1440 123b d73f bfa4 9e3f
00000040: bd5d 5f3f 3d77 313f 9e04 af3f a7dc b53f
00000050: 091b 203f 9bb4 f73e 9112 253f a433 823f
00000060: 13c9 dd3f b47f b93f f368 5d3f 7efe 8f3f
00000070: 88ed 933f 7bc0 963f efdb 073f b02d 753f

resnet_denoiser/level_0/batch_normalization_6/FusedBatchNormV3 f4 [16]
-0.22919108 0.12446648 -0.37364298 0.01995494 0.07718759 -0.15250584 -0.11938375 -0.12226954
0.18279548 -0.010620226 -0.011161211 0.34097105 0.12971759 0.03224803 0.073508844 -0.1871939
00000000: 11b1 6abe 48e8 fe3d 224e bfbe 8b78 a33c
00000010: 8714 9e3d 7e2a 1cbe 787f f4bd 7468 fabd
00000020: bd2e 3b3e 7500 2ebc 83dd 36bc c293 ae3e
00000030: b0d4 043e 8316 043d ce8b 963d c2af 3fbe

resnet_denoiser/level_0/batch_normalization_6/FusedBatchNormV31 f4 [16]
0.52220446 1.8031808 1.595099 0.5644955 1.2055436 0.9059609 0.39891347 1.5031924
1.7489723 1.4234692 1.4626832 2.0733473 1.2683597 0.7169951 1.4535357 1.8300397
00000000: 31af 053f a1ce e63f 342c cc3f c782 103f
00000010: 414f 9a3f 0eed 673f 633e cc3e 9c68 c03f
00000020: 53de df3f 3d34 b63f 3439 bb3f b9b1 0440
00000030: 9c59 a23f fe8c 373f 750d ba3f be3e ea3f

resnet_denoiser/level_0/batch_normalization_7/FusedBatchNormV3 f4 [16]
-0.27025136 -0.07210151 -0.07615132 -0.041367434 -0.16056621 -0.23037487 -0.23659396 -0.10045009
-0.19258644 -0.069353856 -0.4076878 -0.062145293 -0.07506311 -0.04922498 -0.060769834 -0.08757389
00000000: 635e 8abe f5a9 93bd 39f5 9bbd e670 29bd
00000010: 786b 24be 64e7 6bbe b045 72be c7b8 cdbd
00000020: 6135 45be 6509 8ebd 75bc d0be 108c 7ebd
00000030: b0ba 99bd 22a0 49bd cae9 78bd f159 b3bd

resnet_denoiser/level_0/batch_normalization_7/FusedBatchNormV31 f4 [16]
2.1445446 4.4303246 3.850312 4.965027 2.7567065 1.1618131 4.6814985 3.6895592
1.4075512 4.049649 1.2582191 4.8059645 3.2488222 6.3829494 4.0459585 3.7874582
00000000: 3840 0940 38c5 8d40 836b 7640 80e1 9e40
00000010: e16d 3040 4bb6 943f d6ce 9540 bd21 6c40
00000020: a32a b43f b996 8140 530d a13f 76ca 9940
00000030: b4ec 4f40 1f41 cc40 7e78 8140 b765 7240

resnet_denoiser/level_0/batch_normalization_8/FusedBatchNormV3 f4 [32]
-0.12070263 -0.09701069 -0.15461299 -0.500878 -0.36659768 -0.21500307 -0.15258242 -0.18208219
-0.083033204 -0.10077815 -0.12888801 -0.18702601 -0.17651342 -0.16045983 -0.2740754 -0.16714564
-0.15717296 -0.22902556 -0.38508928 -0.10395989 -0.22647093 -0.25276452 -0.13127215 -0.2579282
-0.103944466 -0.19764642 -0.13453318 -0.17843357 -0.13504489 -0.19042778 -0.13563357 -0.16026525
00000000: f132 f7bd 8aad c6bd de52 1ebe 8a39 00bf
00000010: b1b2 bbbe c429 5cbe 913e 1cbe c173 3abe
00000020: 500d aabd c664 cebd 38fb 03be bf83 3fbe
00000030: efbf 34be 954f 24be 9c53 8cbe 3a28 2bbe
00000040: f3f1 20be ad85 6abe 6c2a c5be ece8 d4bd
00000050: ffe7 67be 5a6a 81be 356c 06be 2a0f 84be
00000060: d6e0 d4bd d363 4abe 11c3 09be 4ab7 36be
00000070: 3549 0abe 80ff 42be 87e3 0abe 931c 24be

resnet_denoiser/level_0/batch_normalization_8/FusedBatchNormV31 f4 [32]
2.2412748 2.3173537 1.5871966 1.621254 1.3455495 0.94361925 2.3728976 0.8198701
2.8874066 1.8145329 2.4232287 1.6570663 1.1845443 1.2271636 0.8840606 1.7121515
1.9000722 0.8173758 1.4294709 2.7591279 1.1087745 1.4290062 1.3956003 1.2452488
3.5081935 1.6152462 2.2418954 2.5290003 1.7039914 1.6983953 2.1019254 2.1969502
00000000: 0c71 0f40 864f 1440 4229 cb3f 4085 cf3f
00000010: f73a ac3f 0891 713f 8edd 1740 02e3 513f
00000020: 45cb 3840 9d42 e83f 2e16 1b40 c01a d43f
00000030: 269f 973f b213 9d3f cc51 623f c827 db3f
00000040: 9135 f33f 8a3f 513f e7f8 b63f 8d95 3040
00000050: 53ec 8d3f ade9 b63f 08a3 b23f 5064 9f3f
00000060: 3e86 6040 63c0 ce3f 377b 0f40 24db 2140
00000070: 641c da3f 0465 d93f f285 0640 d59a 0c40

resnet_denoiser/level_0/batch_normalization_9/FusedBatchNormV3 f4 [16]
-0.055983223 0.026967952 -0.07198154 0.00754114 0.016593972 -0.041447185 -0.028088128 -0.0290897
0.018376976 -0.0018388074 -0.002024712 0.04795226 0.040859632 0.00746593 0.012177137 -0.027711382
00000000: aa4e 65bd e5eb dc3c 0f6b 93bd ab1b f73b
00000010: 15f0 873c 86c4 29bd 1319 e6bc 864d eebc
00000020: 508b 963c 2304 f1ba 08b1 04bb 9769 443d
00000030: 6e5c 273d c3a4 f43b 9d82 473c fb02 e3bc

resnet_denoiser/level_0/batch_normalization_9/FusedBatchNormV31 f4 [16]
0.12755595 0.3906922 0.30729252 0.2133276 0.25917065 0.24621697 0.093854755 0.3576313
0.17582941 0.24646246 0.26533967 0.29158396 0.3995195 0.16599572 0.24078602 0.27091122
00000000: 079e 023e cf08 c83e 7255 9d3e 8d72 5a3e
00000010: 04b2 843e 4d20 7c3e ec36 c03d 731b b73e
00000020: a00c 343e a860 7c3e 9ada 873e 7e4a 953e
00000030: d28d cc3e c8fa 293e 9c90 763e e0b4 8a3e

resnet_denoiser/level_1/batch_normalization_16/FusedBatchNormV3 f4 [16]
0.46038955 0.2849268 -0.34071323 -0.23290673 0.46352282 0.29093495 0.34313518 0.55073285
0.19016406 -0.22069728 0.26524043 0.27566418 0.23565556 0.48316026 0.59302866 0.045184128
00000000: 2eb8 eb3e ede1 913e f771 aebe 1a7f 6ebe
00000010: dd52 ed3e 6df5 943e 6aaf af3e d4fc 0c3f
00000020: 5eba 423e 78fe 61be 98cd 873e db23 8d3e
00000030: b14f 713e c860 f73e bad0 173f fe12 393d

resnet_denoiser/level_1/batch_normalization_16/FusedBatchNormV31 f4 [16]
1.3158364 8.854668 4.2672606 3.019037 4.085862 4.628066 4.680285 1.4119143
0.3431017 1.5115395 2.8798668 1.1481185 4.422319 2.066448 5.0964923 0.33546346
00000000: 546d a83f b8ac 0d41 668d 8840 e737 4140
00000010: 62bf 8240 1e19 9440 e5c4 9540 9cb9 b43f
00000020: 07ab af3e 207a c13f bd4f 3840 8cf5 923f
00000030: a383 8d40 af40 0440 7716 a340 dec1 ab3e

resnet_denoiser/level_1/batch_normalization_17/FusedBatchNormV3 f4 [16]
-0.17026523 -0.021139596 -0.1508058 -0.19726071 -0.2538464 -0.03622352 -0.1602751 -0.044424914
-0.18833975 -0.23217382 -0.033688508 -0.023419326 -0.021967206 -0.076761454 -0.029126886 -0.024880867
00000000: 025a 2ebe f22c adbc d66c 1abe b6fe 49be
00000010: 28f8 81be 1d5f 14bd 281f 24be e6f6 35bd
00000020: 23dc 40be f9be 6dbe f6fc 09bd e3d9 bfbc
00000030: 92f4 b3bc 1c35 9dbd 829b eebc f6d2 cbbc

resnet_denoiser/level_1/batch_normalization_17/FusedBatchNormV31 f4 [16]
1.4020557 14.522883 1.1214042 2.2082655 1.987967 5.732427 2.849513 12.227852
2.173343 1.5882453 2.3677232 6.1243114 12.589155 2.579026 17.211475 10.201266
00000000: 9076 b33f bb5d 6841 2c8a 8f3f 3954 0d40
00000010: b475 fe3f 0b70 b740 6c5e 3640 48a5 4341
00000020: 0d18 0b40 9f4b cb3f c788 1740 5cfa c340
00000030: 2e6d 4941 c30e 2540 1ab1 8941 6338 2341

resnet_denoiser/level_1/batch_normalization_18/FusedBatchNormV3 f4 [32]
-0.21744399 -0.13768697 -0.1034176 -0.08360729 -0.009413148 -0.1744059 -0.4733797 -0.094926015
-0.23985557 -0.1504073 -0.111007154 -0.020041028 -0.14473435 -0.023612244 -0.14072669 -0.19110477
-0.18518405 -0.13808689 -0.059227247 -0.12388019 -0.3536125 -0.30539906 -0.063783556 -0.26596257
-0.0675212 -0.0835423 -0.09764633 -0.2281683 -0.13319 -0.27950084 -0.11168885 -0.17508613
00000000: a3a9 5ebe d0fd 0cbe 9bcc d3bd 4d3a abbd
00000010: 9b39 1abc 7697 32be d35e f2be 9268 c2bd
00000020: b39c 75be 5f04 1abe b857 e3bd 152d a4bc
00000030: 3e35 14be 776e c1bc a81a 10be f8b0 43be
00000040: e3a0 3dbe a666 0dbe 4598 72bd e6b4 fdbd
00000050: b30c b5be 445d 9cbe f4a0 82bd 3f2c 88be
00000060: 8e48 8abd 3a18 abbd cdfa c7bd f3a4 69be
00000070: f662 08be bc1a 8fbe 20bd e4bd c749 33be

resnet_denoiser/level_1/batch_normalization_18/FusedBatchNormV31 f4 [32]
1.5611874 1.5000457 4.5183344 1.2357882 4.1485333 2.208093 2.953912 1.5601245
1.8328986 2.1090083 2.2442293 2.9534338 1.7851499 2.6095645 2.1733263 0.9780532
0.58961916 1.9166873 2.079504 1.2390448 0.41349864 0.33922955 1.1637094 1.4078146
1.8140032 1.5097691 1.4453824 1.1834807 0.89033264 0.5008328 1.3546485 1.3906671
00000000: fdd4 c73f 7f01 c03f 3296 9040 4f2e 9e3f
00000010: c9c0 8440 6551 0d40 e50c 3d40 29b2 c73f
00000020: 6c9c ea3f fef9 0640 74a1 0f40 0f05 3d40
00000030: cb7f e43f 1b03 2740 c717 0b40 b261 7a3f
00000040: 48f1 163f 0256 f53f 9816 0540 0599 9e3f
00000050: 18b6 d33e 7faf ad3e 6ef4 943f 4533 b43f
00000060: 4231 e83f 1d40 c13f 4a02 b93f 4c7c 973f
00000070: d7ec 633f 9436 003f 1f65 ad3f 6101 b23f

resnet_denoiser/level_1/batch_normalization_19/FusedBatchNormV3 f4 [16]
0.7755911 0.052294493 -0.1955073 -0.09456677 0.33858916 0.12422785 0.31111783 0.33655325
0.39707872 -0.9062778 0.36114895 0.2719215 0.114815876 1.173135 0.28065282 0.16992398
00000000: 238d 463f c032 563d 1133 48be 39ac c1bd
00000010: 8f5b ad3e 2c6b fe3d d64a 9f3e b550 ac3e
00000020: e74d cb3e d201 68bf 84e8 b83e 4b39 8b3e
00000030: 9624 eb3d 4a29 963f bab1 8f3e 8d00 2e3e

resnet_denoiser/level_1/batch_normalization_19/FusedBatchNormV31 f4 [16]
2.216712 1.6251554 2.4486299 1.225815 2.9845967 1.9761627 4.243576 0.86282194
0.71642554 6.20703 3.9212003 1.1325306 2.154638 5.0174294 2.4119322 1.2615776
00000000: 9cde 0d40 1805 d03f 5ab6 1c40 82e7 9c3f
00000010: a203 3f40 e6f2 fc3f 60cb 8740 e6e1 5c3f
00000020: aa67 373f fd9f c640 f2f4 7a40 c3f6 903f
00000030: 97e5 0940 c88e a040 195d 1a40 607b a13f

resnet_denoiser/level_1/batch_normalization_20/FusedBatchNormV3 f4 [16]
-0.5869491 -0.16175283 -0.24112198 -0.14509648 -0.6280874 -0.13470833 -0.7894893 -0.14050639
-0.10740085 -0.0880101 -0.21207523 -0.116619006 -0.45148405 -0.11604794 -0.27009243 -0.19265069
00000000: 4c42 16bf 89a2 25be aee8 76be 2c94 14be
00000010: 56ca 20bf fbf0 09be f91b 4abf e8e0 0fbe
00000020: faf4 dbbd a43e b4bd 402a 59be f2d5 eebd
00000030: eb28 e7be 8baa edbd 8e49 8abe 3946 45be

resnet_denoiser/level_1/batch_normalization_20/FusedBatchNormV31 f4 [16]
3.2728238 2.5666287 4.239631 3.6447482 1.982232 2.0002522 1.3545407 5.1455555
5.3289385 7.9984956 3.6443472 8.145624 2.87137 5.6420937 2.9460073 2.6725483
00000000: f275 5140 a543 2440 0fab 8740 8e43 6940
00000010: c7b9 fd3f 2204 0040 9761 ad3f 64a8 a440
00000020: aa86 aa40 adf3 ff40 fc3c 6940 7a54 0241
00000030: 87c4 3740 088c b440 628b 3c40 080b 2b40

resnet_denoiser/level_1/batch_normalization_21/FusedBatchNormV3 f4 [32]
-0.07756204 -0.14143072 -0.15895478 -0.22523028 -0.1526124 -0.16509007 -0.18599097 -0.1928079
-0.13946305 -0.15730338 -0.10702972 -0.06267382 -0.19008444 -0.071121305 -0.26836354 -0.19179323
-0.33277318 -0.29415125 -0.21819492 -0.14111716 -0.17584154 -0.101474494 -0.12682407 -0.16406737
-0.2102707 -0.21639436 -0.1776239 -0.113174185 -0.16537063 -0.12994587 -0.18936194 -0.109982945
00000000: d9d8 9ebd 37d3 10be 0bc5 22be c4a2 66be
00000010: 6d46 1cbe 5f0d 29be 6b74 3ebe 6f6f 45be
00000020: 67cf 0ebe 2314 21be 6632 dbbd 225b 80bd
00000030: 7fa5 42be 0ca8 91bd f266 89be 7265 44be
00000040: 3f61 aabe fe9a 96be 7d6e 5fbe 0481 10be
00000050: ce0f 34be dcd1 cfbd 2bde 01be 4701 28be
00000060: 3451 57be 7c96 5dbe 0ae3 35be dec7 e7bd
00000070: eb56 29be 8810 05be 19e8 41be bd3e e1bd

resnet_denoiser/level_1/batch_normalization_21/FusedBatchNormV31 f4 [32]
2.1035123 1.2867999 1.0762863 1.3212924 1.7287744 1.3112442 0.7947561 1.2182386
1.5902892 1.4440023 2.0965416 1.1506717 0.7711903 1.1191173 0.9930929 1.1809756
1.0254889 1.1514322 0.95410615 1.2531588 0.67255306 1.5643417 2.4462795 0.49561757
0.844548 0.91148686 1.3953276 0.46701714 0.98605597 1.1837538 0.8805269 0.8264395
00000000: f29f 0640 dcb5 a43f c0c3 893f 1c20 a93f
00000010: 7b48 dd3f dad6 a73f 2375 4b3f 3eef 9b3f
00000020: 998e cb3f 11d5 b83f bd2d 0640 3649 933f
00000030: ba6c 453f 3c3f 8f3f 563b 7e3f 352a 973f
00000040: 3843 833f 2162 933f 4d40 743f 8267 a03f
00000050: 702c 2c3f 593c c83f d88f 1c40 96c1 fd3e
00000060: 4c34 583f 3457 693f 189a b23f df1c ef3e
00000070: 2a6e 7c3f 3f85 973f 366a 613f 8a91 533f

resnet_denoiser/level_1/batch_normalization_22/FusedBatchNormV3 f4 [16]
0.571795 0.031868596 -0.1176539 -0.08147404 0.0831584 0.10131914 0.08614825 0.2524148
0.24060845 -0.4692143 0.2357887 0.13865894 0.09653448 1.1183125 0.4555524 0.08074206
00000000: 2861 123f a588 023d 87f4 f0bd dddb a6bd
00000010: f44e aa3d 6980 cf3d 7e6e b03d 833c 813e
00000020: 1062 763e db3c f0be 9872 713e 9cfc 0d3e
00000030: dfb3 c53d dd24 8f3f 2a3e e93e 185c a53d

resnet_denoiser/level_1/batch_normalization_22/FusedBatchNormV31 f4 [16]
1.6342434 0.99038 1.4735553 1.0561014 0.73302484 1.6117407 1.1750423 0.64711607
0.43411553 3.2136142 2.5600927 0.577503 1.8115689 4.7829566 3.9150202 0.5994585
00000000: e32e d13f 8b89 7d3f 769d bc3f 552e 873f
00000010: 84a7 3b3f 854d ce3f c967 963f 66a9 253f
00000020: 6444 de3e dbab 4d40 8fd8 2340 3dd7 133f
00000030: 7de1 e73f fb0d 9940 b18f 7a40 1d76 193f

resnet_denoiser/level_1/batch_normalization_23/FusedBatchNormV3 f4 [16]
-0.056414306 -0.14634079 -0.059271466 -0.10143202 -0.081426494 -0.5135076 -0.04726026 -0.16961294
-0.37383306 -0.12508045 -0.07999568 -0.19903217 -0.10046328 1.8080765e-07 -0.08409462 -0.34457147
00000000: b012 67bd 5cda 15be a3c6 72bd 97bb cfbd
00000010: efc2 a6bd 3c75 03bf f993 41bd 04af 2dbe
00000020: 0c67 bfbe 1715 00be c6d4 a3bd 17cf 4bbe
00000030: b1bf cdbd 0724 4234 cd39 acbd ac6b b0be

resnet_denoiser/level_1/batch_normalization_23/FusedBatchNormV31 f4 [16]
13.458221 8.013825 11.025817 7.6673784 6.4517913 3.5187244 6.9300923 1.9427775
5.7748485 7.2824545 5.4185696 5.2314057 7.276558 -2.5249145 13.121609 3.848709
00000000: e054 5741 a138 0041 bf69 3041 2a5b f540
00000010: 1375 ce40 c832 6140 51c3 dd40 efac f83f
00000020: 8fcb b840 de09 e940 ec64 ad40 ad67 a740
00000030: 90d9 e840 3398 21c0 1cf2 5141 4051 7640

resnet_denoiser/level_1/batch_normalization_24/FusedBatchNormV3 f4 [32]
-0.26830688 -0.0656397 -0.41336522 -0.14232935 -0.1580147 -0.30034742 -0.28379294 -0.14303799
-0.107920945 -0.14501747 -0.21653901 -0.2263321 -0.13630262 -0.38157734 -0.077104285 -0.18735006
-0.16502415 -0.15846185 -0.22354536 -0.42090183 -0.3078808 -0.107173495 -0.1468923 -0.1340877
-0.324529 -0.24736905 -0.121223964 -0.11020501 -0.20189607 -0.29927692 -0.082002655 -0.037149943
00000000: 855f 89be 1b6e 86bd 9ba4 d3be c9be 11be
00000010: 9bce 21be 23c7 99be 4f4d 91be 8d78 12be
00000020: a805 ddbd 767f 14be 67bc 5dbe 9ac3 67be
00000030: ea92 0bbe 1b5e c3be dae8 9dbd b2d8 3fbe
00000040: 17fc 28be d343 22be 13e9 64be 7280 d7be
00000050: 8da2 9dbe c77d dbbd ef6a 16be 494e 09be
00000060: aa28 a6be 504e 7dbe 4544 f8bd 2ab3 e1bd
00000070: d8bd 4ebe d33a 99be 02f1 a7bd 8a2a 18bd

resnet_denoiser/level_1/batch_normalization_24/FusedBatchNormV31 f4 [32]
2.4622319 1.3924475 0.9332725 1.3421824 0.96196055 1.5227364 2.1410718 1.5751455
1.5410064 1.2029971 2.3422732 1.9686651 1.61344 1.0943717 1.594533 2.819778
1.6135174 0.77962816 0.8193151 0.8399164 0.620419 1.6803459 1.4404157 0.6800425
1.2131355 2.016248 0.81105673 1.6920953 1.8342434 0.5986976 1.261999 1.8537313
00000000: 3595 1d40 b83b b23f f2ea 6e3f a2cc ab3f
00000010: 0c43 763f 07e9 c23f 5207 0940 5e9e c93f
00000020: b33f c53f cffb 993f cee7 1540 38fd fb3f
00000030: 3485 ce3f 5f14 8c3f a819 cc3f 3e77 3440
00000040: bd87 ce3f b695 473f a2be 513f c304 573f
00000050: c8d3 1e3f 9315 d73f 8b5f b83f 4417 2e3f
00000060: 0648 9b3f 350a 0140 6aa1 4f3f 9496 d83f
00000070: 7dc8 ea3f 3f44 193f 2f89 a13f 1147 ed3f

resnet_denoiser/level_1/batch_normalization_25/FusedBatchNormV3 f4 [16]
0.3406211 0.02558932 -0.026649544 -0.03874232 0.09245748 0.02876767 0.025487041 0.22702672
0.12119367 -0.20263454 0.11294624 0.12778585 0.027054228 0.29373688 0.16093282 0.062279914
00000000: e465 ae3e b2a0 d13c 2550 dabc 44b0 1ebd
00000010: 595a bd3d 2daa eb3c 33ca d03c b179 683e
00000020: 6334 f83d 6e7f 4fbe 5c50 e73d 4bda 023e
00000030: d4a0 dd3c ae64 963e 93cb 243e 3919 7f3d

resnet_denoiser/level_1/batch_normalization_25/FusedBatchNormV31 f4 [16]
0.9735271 0.79523915 0.33377203 0.5021945 0.81499445 0.45762357 0.34763741 0.5820286
0.21866253 1.387829 1.2263218 0.5322175 0.5077004 1.2562953 1.3830577 0.4623888
00000000: 1239 793f cb94 4b3f 2be4 aa3e d28f 003f
00000010: 7aa3 503f a34d ea3e 88fd b13e d4ff 143f
00000020: 12e9 5f3e 61a4 b13f 1df8 9c3f 683f 083f
00000030: a7f8 013f 49ce a03f 0908 b13f 3abe ec3e

resnet_denoiser/level_1/batch_normalization_26/FusedBatchNormV3 f4 [16]
-0.045829296 -0.06683876 -0.041627724 -0.042209208 -0.045746848 -0.064607136 -0.0637479 -0.10663561
-0.055522416 -0.045230016 -0.06325888 -0.039284702 -0.04890682 -0.043254573 -0.089099854 -0.05625002
00000000: 80b7 3bbd c3e2 88bd d581 2abd 90e3 2cbd
00000010: 0c61 3bbd bf50 84bd 428e 82bd c563 dabd
00000020: 796b 63bd 1c43 39bd df8d 81bd ffe8 20bd
00000030: 8552 48bd b52b 31bd fc79 b6bd 6c66 66bd

resnet_denoiser/level_1/batch_normalization_26/FusedBatchNormV31 f4 [16]
4.860236 8.813793 9.872899 8.279203 7.4840555 8.457096 6.1397243 10.657027
6.5120525 12.877566 5.234381 8.574623 12.269602 10.823445 5.4335647 5.4098186
00000000: 0e87 9b40 4c05 0d41 65f7 1d41 9e77 0441
00000010: 627d ef40 4450 0741 9f78 c440 2f83 2a41
00000020: bc62 d040 830a 4e41 0d80 a740 a831 0941
00000030: 4a50 4441 d52c 2d41 c3df ad40 3c1d ad40

resnet_denoiser/level_1/batch_normalization_27/FusedBatchNormV3 f4 [32]
-0.12658314 -0.31790268 -0.20962857 -0.16676171 -0.10305322 -0.175332 -0.16250907 -0.35759392
-0.16630122 -1.0383349e-06 -0.1472098 -0.2769381 -0.101172484 -0.18750535 7.301235e-07 -0.37601343
-0.14047787 -0.17265993 -0.2751939 -0.25074276 -0.12501699 -0.18743257 -0.1742737 -0.13889824
-0.15730263 -0.10766934 -0.2049904 -0.08681815 -0.20520931 -0.21864647 -0.09705128 -0.17027265
00000000: 039f 01be 24c4 a2be dfa8 56be 95c3 2abe
00000010: 910d d3bd 3b8a 33be c768 26be 8d16 b7be
00000020: de4a 2abe ea5c 8bb5 2abe 16be d5ca 8dbe
00000030: 8533 cfbd 6701 40be b4fd 4335 d584 c0be
00000040: 6ed9 0fbe c4cd 30be 37e6 8cbe 5b61 80be
00000050: 7404 00be 53ee 3fbe ce74 32be 573b 0ebe
00000060: f113 21be be81 dcbd 01e9 51be b7cd b1bd
00000070: 6422 52be dce4 5fbe d2c2 c6bd f45b 2ebe

resnet_denoiser/level_1/batch_normalization_27/FusedBatchNormV31 f4 [32]
3.456174 2.004697 0.82818943 1.3052568 1.1594176 5.1609635 2.822457 0.7214362
2.0655754 1.1754586 2.6294677 2.2524488 1.880499 5.1995106 -1.2460828 0.76895195
1.9930815 1.6795269 2.4472556 1.3594873 3.1122367 3.1923397 3.0771756 1.625014
2.4202363 2.645348 1.9368497 1.1811913 2.1152477 1.3705931 3.406069 1.8097316
00000000: f431 5d40 f54c 0040 3904 543f a812 a73f
00000010: cc67 943f 9d26 a540 23a3 3440 0bb0 383f
00000020: 6332 0440 6d75 963f 3349 2840 1f28 1040
00000030: 31b4 f03f 6462 a640 a47f 9fbf 09da 443f
00000040: 4b1d ff3f bdfa d63f d69f 1c40 ae03 ae3f
00000050: e32e 4740 4b4f 4c40 72f0 4440 7500 d03f
00000060: 27e5 1a40 624d 2940 b1ea f73f 4731 973f
00000070: 3860 0740 986f af3f 09fd 5940 49a5 e73f

resnet_denoiser/level_1/batch_normalization_28/FusedBatchNormV3 f4 [16]
0.20155105 0.012446512 -0.019796476 -0.024852887 0.060429305 0.037794728 0.020152152 0.10000151
0.17728902 -0.06660561 0.060488597 0.0790258 0.022524154 0.11248688 0.06920703 0.05336883
00000000: 6663 4e3e 74ec 4b3c 382c a2bc 4898 cbbc
00000010: b884 773d a5ce 1a3d 2016 a53c 97cd cc3d
00000020: 418b 353e 8668 88bd e4c2 773d 47d8 a13d
00000030: 9384 b83c 855f e63d 6abc 8d3d 4699 5a3d

resnet_denoiser/level_1/batch_normalization_28/FusedBatchNormV31 f4 [16]
0.5760518 0.38680017 0.24794087 0.3221538 0.5326724 0.6012221 0.27487075 0.25637397
0.31987205 0.45617694 0.65675914 0.3291359 0.42268896 0.48109975 0.59476566 0.39622965
00000000: 2178 133f ac0a c63e 36e4 7d3e 58f1 a43e
00000010: 385d 083f b1e9 193f dcbb 8c3e 7343 833e
00000020: 45c6 a33e 0690 e93e 5e21 283f 8084 a83e
00000030: b06a d83e b552 f63e 9042 183f 9dde ca3e

resnet_denoiser/level_1/batch_normalization_29/FusedBatchNormV3 f4 [16]
-0.019978108 -0.033627182 -0.21595636 -2.979379e-07 2.9521354e-07 -0.031045703 -0.1794373 -0.026664097
-0.027121978 -0.066225424 -0.04248849 -0.043191377 -0.05343914 -0.6051703 -0.03815492 -0.24813472
00000000: 21a9 a3bc a8bc 09bd aa23 5dbe 46f4 9fb4
00000010: d77d 9e34 8f53 febc 69be 37be aa6e dabc
00000020: e92e debc 32a1 87bd 6908 2ebd 71e9 30bd
00000030: 00e3 5abd 71ec 1abf 5548 1cbd 0717 7ebe

resnet_denoiser/level_1/batch_normalization_29/FusedBatchNormV31 f4 [16]
8.056712 8.275874 2.6683238 1.792539 -1.8003812 9.828827 3.8887804 10.477417
13.984753 6.847273 6.1738453 6.0017624 6.019806 5.302589 14.816575 2.4452653
00000000: 4be8 0041 fb69 0441 d1c5 2a40 eb71 e53f
00000010: e472 e6bf e042 1d41 c7e1 7840 80a3 2741
00000020: 8cc1 5f41 dc1c db40 2490 c540 700e c040
00000030: 40a2 c040 cfae a940 b110 6d41 3a7f 1c40

resnet_denoiser/level_1/batch_normalization_30/FusedBatchNormV3 f4 [32]
-0.13157839 -0.061968014 8.000971e-07 -0.41772208 -0.020441722 -0.09377932 -0.51501137 -0.24856922
-0.44022804 -6.4190584e-07 -0.14257309 -0.1058497 -0.15539366 -5.431839e-07 -0.42828488 7.099643e-07
-4.3648026e-07 -0.14371595 -0.0682669 -0.06073504 -2.6729884e-07 2.4925768e-07 -0.01969352 -4.5347662e-07
-0.2186008 -0.1657168 -0.15001282 2.586467e-07 -5.226937e-07 -0.012450925 -2.7297796e-07 -6.3111725e-07
00000000: 7cbc 06be 2cd2 7dbd 41c6 5635 abdf d5be
00000010: 6675 a7bc 5f0f c0bd c9d7 03bf ee88 7ebe
00000020: 9265 e1be 6f4f 2cb5 aefe 11be bac7 d8bd
00000030: 841f 1fbe 50cf 11b5 2848 dbbe 6094 3e35
00000040: 6455 eab4 462a 13be 84cf 8bbd 4ec5 78bd
00000050: 4681 8fb4 b7d1 8534 4e54 a1bc 5a75 f3b4
00000060: e3d8 5fbe aab1 29be f69c 19be 22dc 8a34
00000070: 3d4f 0cb5 f7fe 4bbc ce8d 92b4 0c6a 29b5

resnet_denoiser/level_1/batch_normalization_30/FusedBatchNormV31 f4 [32]
0.75074255 5.7870007 -0.90216434 0.9477912 2.0666835 6.773051 0.7917873 0.6098318
0.7445373 0.8630994 3.8287637 1.8241329 0.91136116 0.9129993 1.3000816 -0.9081948
0.70747507 0.9046196 1.5033206 2.4850383 0.7137301 -0.70452917 2.1863022 0.6996527
0.9214646 0.9298668 0.90572876 -0.7127444 0.69170076 9.675072 0.718616 0.68581617
00000000: aa30 403f 1c2f b940 3ef4 66bf 72a2 723f
00000010: 8b44 0440 d5bc d840 93b2 4a3f f01d 1c3f
00000020: ff99 3e3f 15f4 5c3f 770a 7540 307d e93f
00000030: f74e 693f 52ba 693f 1369 a63f 747f 68bf
00000040: 161d 353f 2695 673f cf6c c03f de0a 1f40
00000050: 04b7 363f 065c 34bf 60ec 0b40 701c 333f
00000060: 1be5 6b3f c00b 6e3f d7dd 673f 6b76 36bf
00000070: 4d13 313f 18cd 1a41 38f7 373f a691 2f3f

resnet_denoiser/level_1/batch_normalization_31/FusedBatchNormV3 f4 [16]
2.0913274e-05 0.0046504536 -0.0042897295 -0.0069981418 0.0036211463 0.009236961 0.009055607 0.030873602
0.069472395 -0.010324477 -3.7339391e-06 0.016662918 -3.2638834e-06 -4.3591128e-05 3.2964504e-06 0.021376712
00000000: ea6e af37 d562 983b dc90 8cbb ab50 e5bb
00000010: c150 6d3b 9f56 173c f85d 143c a3ea fc3c
00000020: 8b47 8e3d ff27 29bc 9694 7ab6 ac80 883c
00000030: 1709 5bb6 9ed5 36b8 9638 5d36 371e af3c

resnet_denoiser/level_1/batch_normalization_31/FusedBatchNormV31 f4 [16]
5.977209e-05 0.14452212 0.053726695 0.090712905 0.031919688 0.14693758 0.12351641 0.079150684
0.12534492 0.070711575 -4.0541505e-05 0.06939968 -6.125013e-05 -0.0001864367 2.8329716e-05 0.15870851
00000000: cbb3 7a38 9bfd 133e 8610 5c3d b0c7 b93d
00000010: 38be 023d ce76 163e 2cf6 fc3d c119 a23d
00000020: 6b5a 003e 3bd1 903d 1c0b 2ab8 6b21 8e3d
00000030: 6a73 80b8 387e 43b9 9aa5 ed37 7c84 223e

resnet_denoiser/level_2/batch_normalization_32/FusedBatchNormV3 f4 [16]
-0.61673075 0.42043644 -1.0373703 -0.17513488 0.20527236 -0.5657227 -0.28747544 0.08243724
0.56224245 -0.5025552 0.65155977 -0.16635221 0.9864997 -1.2748885 0.4075474 0.5507302
00000000: 11e2 1dbf 7243 d73e 8dc8 84bf 8f56 33be
00000010: eb32 523e 34d3 10bf fb2f 93be dbd4 a83d
00000020: 1fef 0f3f 75a7 00bf 9fcc 263f 3c58 2abe
00000030: 3f8b 7c3f 8c2f a3bf 0eaa d03e a8fc 0c3f

resnet_denoiser/level_2/batch_normalization_32/FusedBatchNormV31 f4 [16]
0.4147749 -0.7338953 9.851753 0.3959724 0.90190375 0.72847515 4.0406094 0.044628844
2.179478 1.8742257 0.21922599 1.7680949 0.38510755 1.3740774 0.30487978 1.319562
00000000: 605d d43e 90e0 3bbf c8a0 1d41 e5bc ca3e
00000010: 2ae3 663f 597d 3a3f ac4c 8140 bccc 363d
00000020: 917c 0b40 a1e6 ef3f c77c 603e ef50 e23f
00000030: d12c c53e c5e1 af3f 3419 9c3e 68e7 a83f

resnet_denoiser/level_2/batch_normalization_33/FusedBatchNormV3 f4 [16]
-0.29695526 -0.61448693 -0.018660463 -0.065513425 -0.42638958 -0.20512255 -0.2714703 2.1792754e-08
-0.029953139 -0.1074335 -0.099037 -0.092892356 -0.38720697 -0.06328775 -0.4048869 -0.028921364
00000000: 850a 98be 044f 1dbf d4dd 98bc e72b 86bd
00000010: bc4f dabe a50b 52be 28fe 8abe c632 bb32
00000020: 4960 f5bc 1806 dcbd e9d3 cabd 593e bebd
00000030: fe3f c6be 029d 81bd 564d cfbe 7fec ecbc

resnet_denoiser/level_2/batch_normalization_33/FusedBatchNormV31 f4 [16]
1.8022568 0.7425762 6.8587794 1.8813304 0.40329075 0.53258157 1.3721054 -0.1627406
4.216845 0.9736271 3.5992887 1.1041938 0.59369236 1.030262 1.8842561 0.57508427
00000000: 5ab0 e63f 7919 3e3f 1f7b db40 6fcf f03f
00000010: 207c ce3e 4457 083f 26a1 af3f 79a5 26be
00000020: 65f0 8640 a03f 793f bf5a 6640 3956 8d3f
00000030: 39fc 173f a0df 833f 4e2f f13f b938 133f

resnet_denoiser/level_2/batch_normalization_34/FusedBatchNormV3 f4 [32]
-0.16161868 -0.10593228 -0.10579749 -0.27962843 -0.10712364 -0.14295736 -0.30736053 -0.31121334
-0.16452338 -0.020503953 -3.1591296e-07 -0.061136477 -0.20427892 -0.058135953 -0.063666664 -0.16412213
-0.23381515 -0.15640223 -0.70405686 -0.3007541 -0.29007193 -0.6287573 -0.10182185 -0.10146001
-0.3087402 -0.22063857 -1.7652427e-07 -0.040045775 -0.13689806 -0.27806044 -0.5212445 -0.45011446
00000000: 5e7f 25be 06f3 d8bd 5bac d8bd 752b 8fbe
00000010: a463 dbbd 6a63 12be 5c5e 9dbe 5b57 9fbe
00000020: d178 28be e8f7 a7bc bf9a a9b4 3e6a 7abd
00000030: 7e2e 51be f71f 6ebd ab63 82bd a20f 28be
00000040: 3d6d 6fbe e827 20be 123d 34bf 71fc 99be
00000050: 4f84 94be 3df6 20bf f987 d0bd 44ca cfbd
00000060: 3213 9ebe 14ef 61be 9f8a 3db4 0a07 24bd
00000070: 012f 0cbe f05d 8ebe 4870 05bf 6775 e6be

resnet_denoiser/level_2/batch_normalization_34/FusedBatchNormV31 f4 [32]
0.30933022 0.48087677 0.8758021 0.6091542 0.29064342 0.6104698 1.4372147 0.38978043
0.3404938 0.7059467 0.13973005 0.41282028 0.6000178 0.735108 0.30174896 0.41683012
0.75736094 0.49813864 0.36857325 1.3062185 0.19654736 0.578804 0.42683643 0.18250358
1.2015936 0.46150917 0.10970858 0.4108938 0.6760449 0.8991565 0.35237953 0.3934247
00000000: 8860 9e3e 7b35 f63e 9134 603f 88f1 1b3f
00000010: 37cf 943e c047 1c3f a7f6 b73f 4d91 c73e
00000020: 3455 ae3e ecb8 343f 6515 0f3e 2e5d d33e
00000030: c49a 193f 0a30 3c3f d77e 9a3e c26a d53e
00000040: 68e2 413f 070c ff3e a2b5 bc3e 2b32 a73f
00000050: b643 493e 802c 143f 4e8a da3e 38e2 3a3e
00000060: d2cd 993f ee4a ec3e e4ae e03d ac60 d23e
00000070: 4711 2d3f 1f2f 663f 176b b43e f66e c93e

resnet_denoiser/level_2/batch_normalization_35/FusedBatchNormV3 f4 [16]
-0.37547535 -0.70686483 -0.20596907 -0.2715932 0.22075915 -1.2068127 -0.15169719 1.9358695
0.11331246 -0.50087696 1.8407595 -0.2363634 0.34549403 -1.7214785 2.2817209 1.3674346
00000000: 4e3e c0be 18f5 34bf 8ee9 52be 440e 8bbe
00000010: b00e 623e d778 9abf 8256 1bbe 92ca f73f
00000020: 5d10 e83d 7939 00bf 029e eb3f 3f09 72be
00000030: 98e4 b03e 6859 dcbf b707 1240 1908 af3f

resnet_denoiser/level_2/batch_normalization_35/FusedBatchNormV31 f4 [16]
0.25252146 1.233872 1.9560579 0.6140605 0.96994793 1.554 2.1321788 1.0480169
0.43924466 1.867967 0.61934805 2.5122175 0.13487318 1.8554131 1.7069193 3.2764041
00000000: 7e4a 813e 85ef 9d3f 1b60 fa3f 1233 1d3f
00000010: 824e 783f 79e9 c63f 9e75 0840 6b25 863f
00000020: ade4 e03e 8b19 ef3f 988d 1e3f 2cc8 2040
00000030: 321c 0a3e 2d7e ed3f 557c da3f 9bb0 5140

resnet_denoiser/level_2/batch_normalization_36/FusedBatchNormV3 f4 [16]
-0.20290938 -0.28346995 -0.44287908 -0.33524892 -0.24902453 -0.07611795 -0.07045122 -0.24114853
-0.15038754 -0.1950506 -0.35807636 -0.09112493 -0.36869282 -0.11453961 -0.14332402 -0.6833978
00000000: 7ac7 4fbe f922 91be 0cc1 e2be bfa5 abbe
00000010: 4900 7fbe bae3 9bbd bb48 90bd a4ef 76be
00000020: 31ff 19be 58bb 47be c955 b7be b59f babd
00000030: 4ec5 bcbe be93 eabd 88c3 12be 29f3 2ebf

resnet_denoiser/level_2/batch_normalization_36/FusedBatchNormV31 f4 [16]
0.87115884 0.4492719 1.047181 0.53444415 0.7521594 0.66950434 0.95641536 1.7085835
1.4077802 0.58992547 0.6086727 1.6749977 5.427048 1.417726 2.7794726 0.68369853
00000000: 4404 5f3f f706 e63e 070a 863f 55d1 083f
00000010: 858d 403f a364 2b3f a3d7 743f ddb2 da3f
00000020: 2432 b43f 5b05 173f f9d1 1b3f 5366 d63f
00000030: 61aa ad40 0c78 b53f e1e2 3140 de06 2f3f

resnet_denoiser/level_2/batch_normalization_37/FusedBatchNormV3 f4 [32]
-0.18742618 -0.013869723 -0.008678992 -0.139542 -0.24277027 -0.15923037 -0.20989864 -0.2071705
-0.13369885 -0.33352256 -0.12787709 -0.21355319 -0.5211048 -0.12547909 -0.2698312 -0.062901646
-0.14312302 -0.23154227 -0.46486464 -0.25752816 -0.46798867 -0.25184447 -0.34861514 -0.39793155
-0.4919536 -0.41389465 -0.084170006 -0.16800019 -0.060382668 -0.16998768 -0.0430859 -0.4889657
00000000: a6ec 3fbe d63d 63bc 5532 0ebc 19e4 0ebe
00000010: c598 78be 490d 23be abef 56be 8124 54be
00000020: 5ae8 08be 78c3 aabe 36f2 02be b0ad 5abe
00000030: 2067 05bf 977d 00be 5127 8abe 94d2 80bd
00000040: d78e 12be 6b19 6dbe bd02 eebe bbda 83be
00000050: 369c efbe c2f1 80be af7d b2be afbd cbbe
00000060: 58e1 fbbe 00ea d3be 5361 acbd 3e08 2cbe
00000070: d153 77bd 4011 2ebe d77a 30bd b659 fabe

resnet_denoiser/level_2/batch_normalization_37/FusedBatchNormV31 f4 [32]
0.46491852 0.33717787 0.46518186 0.46637374 0.23068607 0.28417334 0.85606927 0.27720928
0.589524 0.2905381 0.3150565 0.2727394 0.507085 0.20944135 0.4812999 0.5923081
0.24163775 0.379855 1.3841997 0.6161443 0.24181029 0.54529303 0.36257875 0.6901796
0.7112123 0.3353438 0.46948344 0.34907338 0.3103642 0.3085901 0.23303935 0.6012281
00000000: cd09 ee3e 94a2 ac3e 512c ee3e 8ac8 ee3e
00000010: f838 6c3e 2b7f 913e 5b27 5b3f 60ee 8d3e
00000020: 0beb 163f 69c1 943e 164f a13e 80a4 8b3e
00000030: 53d0 013f cb77 563e f16c f63e 81a1 173f
00000040: e36f 773e 5b7c c23e 752d b13f a2bb 1d3f
00000050: 1e9d 773e 5398 0b3f eca3 b93e 9caf 303f
00000060: 0212 363f 2fb2 ab3e 2260 f03e bfb9 b23e
00000070: 0ee8 9e3e 86ff 9d3e dea1 6e3e 16ea 193f

resnet_denoiser/level_2/batch_normalization_38/FusedBatchNormV3 f4 [16]
-0.055102322 -0.020542527 -0.014631621 -0.049678266 0.14618038 -0.672686 -0.038728274 0.67667675
3.027072e-05 -0.06208802 0.89532286 -0.027101092 0.23735157 -0.68693405 1.8790177 0.089285985
00000000: f9b2 61bd cd48 a8bc 77b9 6fbc 707b 4bbd
00000010: 4fb0 153e 2635 2cbf 8aa1 1ebd b03a 2d3f
00000020: e0ed fd37 0250 7ebd e133 653f 1c03 debc
00000030: 4a0c 733e e9da 2fbf a783 f03f 92db b63d

resnet_denoiser/level_2/batch_normalization_38/FusedBatchNormV31 f4 [16]
0.037058406 0.03585813 0.13895436 0.112320416 0.6422717 0.86621076 0.5443451 0.36633083
0.00011734147 0.23155063 0.3012433 0.28804734 0.09265677 0.7403789 1.4056635 0.21393123
00000000: 8eca 173d f9df 123d 0d4a 0e3e 3f08 e63d
00000010: eb6b 243f fdbf 5d3f 335a 0b3f b78f bb3e
00000020: 3915 f638 9c1b 6d3e 903c 9a3e f17a 933e
00000030: d5c2 bd3d 7989 3d3f c8ec b33f ca10 5b3e

resnet_denoiser/level_2/batch_normalization_39/FusedBatchNormV3 f4 [16]
-0.09134215 -0.18939835 -0.08440128 -0.2722011 -0.029861985 -0.04096127 -0.045127574 -0.06393431
-0.06980086 -0.14791374 -0.21107543 -0.06847177 -0.042814896 -0.026035458 -0.032581292 -0.1266354
00000000: 9811 bbbd a4f1 41be 94da acbd f15d 8bbe
00000010: 1fa1 f4bc 01c7 27bd b1d7 38bd feef 82bd
00000020: c1f3 8ebd b376 17be 2824 58be ed3a 8cbd
00000030: ac5e 2fbd 5048 d5bc f673 05bd b6ac 01be

resnet_denoiser/level_2/batch_normalization_39/FusedBatchNormV31 f4 [16]
4.175273 1.826985 3.0038238 2.1253927 1.3911046 0.82164013 0.9279448 4.205812
1.6913882 1.7930133 1.4609319 1.2845912 0.5845312 0.8265761 1.3483502 2.4369733
00000000: d69b 8540 a5da e93f a63e 4040 6f06 0840
00000010: b70f b23f 0257 523f ca8d 6d3f 0396 8640
00000020: 697f d83f 7681 e53f d1ff ba3f 7c6d a43f
00000030: d6a3 153f 7e9a 533f bd96 ac3f 5ff7 1b40

resnet_denoiser/level_2/batch_normalization_40/FusedBatchNormV3 f4 [32]
-0.33693036 -0.16636688 -0.45162404 -0.65636486 -0.06767106 -0.2999931 -0.40539774 -0.04890535
-0.27111018 -0.44574445 -0.2439806 -0.59497344 -0.16030307 -0.2812341 -0.06631679 -0.23507844
0.07241269 -0.12281661 -0.21782418 -0.16524294 -0.6495918 -0.07101377 -0.4471418 -0.3136256
-0.21641394 -0.05078384 -0.33803338 -0.3667589 -0.63811463 -0.16847648 -0.7199218 -0.18230888
00000000: 2382 acbe 145c 2abe 443b e7be 8707 28bf
00000010: 2097 8abd b298 99be 4b90 cfbe fa50 48bd
00000020: f4ce 8abe 9e38 e4be 0dd6 79be 2e50 18bf
00000030: 7d26 24be eafd 8fbe 19d1 87bd 67b8 70be
00000040: 1b4d 943d 4687 fbbd 4d0d 5fbe 7235 29be
00000050: a64b 26bf ab6f 91bd c5ef e4be 8993 a0be
00000060: 9e9b 5dbe b702 50bd b612 adbe d3c7 bbbe
00000070: 7b5b 23bf 1985 2cbe cc4c 38bf 2eaf 3abe

resnet_denoiser/level_2/batch_normalization_40/FusedBatchNormV31 f4 [32]
0.39985758 1.1676387 1.5736696 0.43860492 0.77237093 0.26614666 1.2117047 0.71566164
0.91557735 0.90457994 0.33696416 1.2805578 0.58234113 1.1683103 0.6013865 0.29037476
1.0293415 0.32487214 1.4817863 0.60359246 1.0310271 0.5707871 0.6772519 2.0048082
0.5907906 0.5694518 0.7703656 0.4430765 1.9159082 1.0491061 1.06773 0.28109285
00000000: 22ba cc3e 2f75 953f 016e c93f d390 e03e
00000010: 1aba 453f 6044 883e 2419 9b3f 9a35 373f
00000020: 4763 6a3f 8d92 673f 9186 ac3e 51e9 a33f
00000030: 4f14 153f 318b 953f 77f4 193f 00ac 943e
00000040: 76c1 833f a455 a63e 2cab bd3f 0985 1a3f
00000050: b2f8 833f 1a1f 123f 6160 2d3f c74e 0040
00000060: 0e3e 173f 98c7 113f ae36 453f ecda e23e
00000070: 7b3c f53f 1c49 863f 60ab 883f 67eb 8f3e

resnet_denoiser/level_2/batch_normalization_41/FusedBatchNormV3 f4 [16]
-0.104765154 -0.02145736 -0.01639045 -0.047668815 0.12251218 -0.14101571 -0.015776241 0.7356851
0.030922323 -0.02924598 0.46175966 -0.070623554 0.09284914 -0.16047315 0.1612483 0.07383692
00000000: 1d8f d6bd 58c7 afbc 4445 86bc 6040 43bd
00000010: aae7 fa3d 6c66 10be 2d3d 81bc dc55 3c3f
00000020: d050 fd3c 4495 efbc c36b ec3e 15a3 90bd
00000030: b127 be3d 1353 24be 461e 253e d037 973d

resnet_denoiser/level_2/batch_normalization_41/FusedBatchNormV31 f4 [16]
0.07045855 0.03745502 0.1556577 0.107777126 0.53828096 0.18158445 0.22174291 0.39827603
0.11986736 0.10906976 0.1553652 0.7506313 0.036246244 0.17295828 0.12062729 0.17691493
00000000: 924c 903d 6f6a 193d bb64 1f3e 41ba dc3d
00000010: c8cc 093f 46f1 393e 9310 633e d6ea cb3e
00000020: 057d f53d f75f df3d 0e18 1f3e 5f29 403f
00000030: f176 143d fa1b 313e 710b f73d 3029 353e

resnet_denoiser/level_2/batch_normalization_42/FusedBatchNormV3 f4 [16]
-0.26763746 -0.060997803 -0.084625885 -0.10991699 -0.018512147 -0.061570246 -0.054799844 -0.038567927
3.7610492e-09 -0.06450916 -0.051573765 -0.062679276 -0.036539443 -0.19313405 -0.02300896 -0.034111105
00000000: c707 89be d5d8 79bd 5650 adbd 291c e1bd
00000010: c9a6 97bc 1531 7cbd cd75 60bd 67f9 1dbd
00000020: 8a3a 8131 611d 84bd 033f 53bd fe5d 80bd
00000030: 62aa 15bd efc4 45be 497d bcbc 16b8 0bbd

resnet_denoiser/level_2/batch_normalization_42/FusedBatchNormV31 f4 [16]
4.596405 2.044773 0.54502386 0.8456485 3.0091298 0.8070986 1.5641587 2.9370885
-0.0762598 3.5872889 3.2149343 2.7149713 0.9802253 3.3923733 1.7420834 5.1078286
00000000: c015 9340 90dd 0240 af86 0b3f 6c7c 583f
00000010: 9595 4040 049e 4e3f 5a36 c83f 42f9 3b40
00000020: 192e 9cbd 2496 6540 7cc1 4d40 17c2 2d40
00000030: 0cf0 7a3f a51c 5940 97fc de3f 5573 a340

resnet_denoiser/level_2/batch_normalization_43/FusedBatchNormV3 f4 [32]
-0.11724975 -0.15772492 -0.22789408 -0.16983485 -0.17906944 -0.116037935 -0.03586922 -0.04737188
-0.19280854 -0.078619756 -0.26131657 -0.14147353 -0.12970313 -0.3270992 -0.13921484 -0.25373012
-0.12053651 -0.3975204 -0.32218492 -0.41588658 -0.044592466 -0.117120944 -0.14641502 -0.21621287
-0.2091676 -0.30311677 -0.03153288 -0.078480914 -0.056110747 -0.04452578 -0.3331036 -0.039549973
00000000: a320 f0bd a482 21be 115d 69be 30e9 2dbe
00000010: fb5d 37be 4ca5 edbd 9aeb 12bd 0409 42bd
00000020: 9a6f 45be 6503 a1bd 49cb 85be 70de 10be
00000030: e6d0 04be 8c79 a7be 568e 0ebe eae8 81be
00000040: d9db f6bd cb87 cbbe 6cf5 a4be 16ef d4be
00000050: 97a6 36bd 1bdd efbd d2ed 15be e866 5dbe
00000060: 0830 56be 1f32 9bbe 9f28 01bd 9aba a0bd
00000070: 62d4 65bd aa60 36bd 8e8c aabe 27ff 21bd

resnet_denoiser/level_2/batch_normalization_43/FusedBatchNormV31 f4 [32]
0.7389502 0.30724216 1.7991701 2.141798 0.7180268 1.1639917 0.37218276 0.45822576
0.9243184 0.63613963 4.3681426 0.6997613 1.0052831 1.5576133 1.1483284 1.7237955
1.0568495 3.0730197 2.4105172 3.5335722 0.78326607 1.4809966 0.7564219 1.9335693
1.3603354 2.3268795 0.687724 0.9469291 0.8312437 0.86509705 1.185907 0.7422191
00000000: d72b 3d3f d84e 9d3e 354b e63f 3813 0940
00000010: 9bd0 373f aefd 943f bd8e be3e 919c ea3e
00000020: 21a0 6c3f 0cda 223f d3c7 8b40 8e23 333f
00000030: 1ead 803f df5f c73f 6dfc 923f 55a5 dc3f
00000040: d846 873f 5bac 4440 ea45 1a40 0c26 6240
00000050: 2084 483f 4c91 bd3f dea4 413f 337f f73f
00000060: 781f ae3f 98eb 1440 ae0e 303f f269 723f
00000070: 63cc 543f 0077 5d3f cdcb 973f 1202 3e3f

resnet_denoiser/level_2/batch_normalization_44/FusedBatchNormV3 f4 [16]
-0.077175 -0.07607645 -0.020638825 -0.011631384 0.10543698 -0.041352812 -0.014956354 0.3690344
0.017793283 -0.024660017 0.29309425 -0.007867475 0.090213105 -0.15090759 0.32561854 0.05287438
00000000: ed0d 9ebd f8cd 9bbd c112 a9bc 8f91 3ebc
00000010: 58ef d73d 9161 29bd 7f0b 75bc 14f2 bc3e
00000020: 38c3 913c ce03 cabc 7310 963e 95e6 00bc
00000030: a6c1 b83d 8587 1abe 79b7 a63e ce92 583d

resnet_denoiser/level_2/batch_normalization_44/FusedBatchNormV31 f4 [16]
0.051903117 0.13279569 0.1960039 0.026298055 0.46325776 0.053249583 0.210219 0.19978325
0.06897392 0.0919669 0.098615475 0.08362044 0.035217192 0.1626485 0.24359006 0.12668821
00000000: 5d98 543d 98fb 073e 3fb5 483e 056f d73c
00000010: 1f30 ed3e 3c1c 5a3d a643 573e fb93 4c3e
00000020: 3342 8d3d 2459 bc3d e9f6 c93d 3141 ab3d
00000030: e73f 103d 548d 263e ac6f 793e 8eba 013e

resnet_denoiser/level_2/batch_normalization_45/FusedBatchNormV3 f4 [16]
-0.024942726 -0.012735088 -0.06578015 -0.79719883 -0.2879974 -0.65845025 -0.023192361 -0.026810465
-0.032678697 -0.101598054 -0.020931657 -0.17027387 -0.615566 -0.014410202 -0.00963097 -0.019847017
00000000: b054 ccbc d5a6 50bc beb7 86bd 3915 4cbf
00000010: 6574 93be 3290 28bf e8fd bdbc 9fa1 dbbc
00000020: 19da 05bd a412 d0bd de78 abbc 465c 2ebe
00000030: bc95 1dbf c518 6cbc 37cb 1dbc 3696 a2bc

resnet_denoiser/level_2/batch_normalization_45/FusedBatchNormV31 f4 [16]
0.65282273 1.1046305 2.9698575 6.1640115 2.6394286 8.200814 0.6316481 0.58465195
0.46270627 1.3498464 0.59302855 1.9620609 4.7736554 1.099852 0.6255284 0.55383605
00000000: 641f 273f 8864 8d3f 2512 3e40 953f c540
00000010: 66ec 2840 8936 0341 b1b3 213f c0ab 153f
00000020: d6e7 ec3e c4c7 ac3f b8d0 173f d024 fb3f
00000030: c9c1 9840 f3c7 8c3f a122 203f 33c8 0d3f

resnet_denoiser/level_2/batch_normalization_46/FusedBatchNormV3 f4 [32]
-0.0476494 -0.24867806 -0.38471106 -0.034748398 -0.08406672 -0.0055567436 -0.029668624 -0.03365559
-0.019921402 -0.024595052 -0.03199506 -0.11455612 -0.045901675 -0.109413795 -0.038566288 -0.09152086
-0.24743672 -0.013858192 -0.05170177 -0.11609033 -0.15707026 -0.026273044 -0.08979715 -0.2556711
-0.0653275 -0.05286284 -0.062720895 -0.21060723 -0.13832657 -0.072920516 -0.053888746 -0.12856235
00000000: 042c 43bd 76a5 7ebe d9f8 c4be 5654 0ebd
00000010: 2c2b acbd 5815 b6bb 9d0b f3bc 72da 09bd
00000020: 3532 a3bc 907b c9bc 410d 03bd 669c eabd
00000030: 6503 3cbd 5714 e0bd aff7 1dbd 4a6f bbbd
00000040: 0d60 7dbe 780d 63bc 3cc5 53bd c4c0 edbd
00000050: 07d7 20be 913a d7bc 91e7 b7bd 53e7 82be
00000060: 6dca 85bd b586 58bd d073 80bd 6ca9 57be
00000070: 7ba5 0dbe 5a57 95bd 72ba 5cbd d9a5 03be

resnet_denoiser/level_2/batch_normalization_46/FusedBatchNormV31 f4 [32]
0.22295538 0.97580284 0.591982 0.17195809 0.8877628 0.50039846 0.17605737 0.22064246
0.22903042 0.49732697 0.40581298 1.4264069 0.21793377 1.9700083 0.7770275 1.0348612
2.2209523 1.1113989 1.5819299 0.48028436 0.9856179 0.29207525 1.0967364 1.3197327
0.8054086 0.21412574 0.91639924 1.980121 0.61861455 0.6655705 0.6573081 1.0514454
00000000: 6a4e 643e 37ce 793f 228c 173f c815 303e
00000010: 6c44 633f 1d1a 003f 6248 343e 19f0 613e
00000020: f386 6a3e a4a1 fe3e b8c6 cf3e 8094 b63f
00000030: 082a 5f3e 3b29 fc3f 46eb 463f 5576 843f
00000040: 1524 0e40 5242 8e3f ae7c ca3f d5e7 f53e
00000050: 7451 7c3f e38a 953e dc61 8c3f 00ed a83f
00000060: 422f 4e3f c743 5b3e 2499 6a3f 9b74 fd3f
00000070: 865d 1e3f d462 2a3f 5845 283f c395 863f

resnet_denoiser/level_2/batch_normalization_47/FusedBatchNormV3 f4 [16]
-0.14680451 -0.07653694 -0.019519595 -0.030566053 0.101469584 -0.0577062 -0.016053353 0.3085146
0.015770549 -0.020263255 0.26688394 1.0342071e-06 0.23875453 -0.10967717 0.22981663 0.045343336
00000000: ec53 16be 66bf 9cbd 8fe7 9fbc a965 fabc
00000010: 49cf cf3d 565d 6cbd 5282 83bc a0f5 9d3e
00000020: 3d31 813c 20ff a5bc 03a5 883e 16cf 8a35
00000030: 117c 743e 6d9e e0bd 0d55 6b3e efb9 393d

resnet_denoiser/level_2/batch_normalization_47/FusedBatchNormV31 f4 [16]
0.098731615 0.1335995 0.18537475 0.06910853 0.4458262 0.074307665 0.22563782 0.16701978
0.061132994 0.075569645 0.08979666 -1.0992199e-05 0.09320446 0.11821028 0.17192218 0.108643666
00000000: cd33 ca3d 4fce 083e e1d2 3d3e c688 8d3d
00000010: 5543 e43e 9e2e 983d 9a0d 673e 3c07 2b3e
00000020: 9766 7a3d 42c4 9a3d 50e7 b73d 236b 38b7
00000030: fbe1 be3d 3b18 f23d 5e0c 303e 9280 de3d

resnet_denoiser/level_2/conv2d_34/Conv2D i1 [16, 5, 5, 3]
-4 -6 -9 20 -2 -8 23 0
-30 12 0 -18 -4 -5 -9 20
-1 -25 23 -4 -26 12 -32 -60
28 -2 -28 15 -1 -17 37 0
-40 15 -37 -63 -5 -98 -127 12
-29 -60 31 0 -33 21 0 -14
21 0 -26 24 -32 -63 31 -3
-29 18 0 -11 -3 0 -7 15
0 -11 19 -1 -25 8 0 -18
-5 -8 -9 30 -45 0 1 -57
42 3 -33 84 4 -37 15 31
-44 0 -40 -62 36 -103 -78 6
-4 -64 92 -70 -44 40 -2 -46
53 -59 -62 86 -88 -51 17 0
-107 127 -31 -55 44 -29 -44 70
-2 -40 34 -72 -59 0 -13 -48
35 -20 -12 7 -1 -9 36 29
-34 9 -2 -51 32 0 -27 90
0 -47 12 18 -49 2 2 -5
-2 -6 -5 9 -12 -3 15 3
-2 0 2 -8 -1 -7 -9 9
-29 0 26 -6 0 -42 -15 -6
31 -1 -2 3 -22 -7 16 -9
8 -58 127 90 -72 -39 -14 -1
-8 -2 13 -1 -6 4 -13 -1
27 -16 -11 -27 1 -1 17 0
-2 3 -1 -5 0 -3 -3 6
-13 0 16 4 -2 2 -3 -4
-3 2 1 -8 9 2 7 0
9 3 3 30 24 0 5 7
-54 -7 -27 -49 -28 -36 -5 0
-5 0 21 25 0 0 5 -43
00000000: fcfa f714 fef8 1700 e20c 00ee fcfb f714
00000010: ffe7 17fc e60c e0c4 1cfe e40f ffef 2500
00000020: d80f dbc1 fb9e 810c e3c4 1f00 df15 00f2
00000030: 1500 e618 e0c1 1ffd e312 00f5 fd00 f90f
00000040: 00f5 13ff e708 00ee fbf8 f71e d300 01c7
00000050: 2a03 df54 04db 0f1f d400 d8c2 2499 b206
00000060: fcc0 5cba d428 fed2 35c5 c256 a8cd 1100
00000070: 957f e1c9 2ce3 d446 fed8 22b8 c500 f3d0
00000080: 23ec f407 fff7 241d de09 fecd 2000 e55a
00000090: 00d1 0c12 cf02 02fb fefa fb09 f4fd 0f03
000000a0: fe00 02f8 fff9 f709 e300 1afa 00d6 f1fa
000000b0: 1fff fe03 eaf9 10f7 08c6 7f5a b8d9 f2ff
000000c0: f8fe 0dff fa04 f3ff 1bf0 f5e5 01ff 1100
000000d0: fe03 fffb 00fd fd06 f300 1004 fe02 fdfc
000000e0: fd02 01f8 0902 0700 0903 031e 1800 0507
000000f0: caf9 e5cf e4dc fb00 fb00 1519 0000 05d5
