bfcnn/pretrained/resnet_color_laplacian_3x5_non_shared_bn_16x3x3_128x128_residual/model.tflite (tflite, 189472 bytes, 150 tensors)

resnet_denoiser/level_0/batch_normalization/FusedBatchNormV3 f4 [16]
0	0xbf0211bd	-0.50808316
1	0x3e683bf4	0.2267912
2	0xbef0bf65	-0.47021022
3	0x3dcec5ea	0.10096343
4	0x3e7015e1	0.23445846
5	0xbe24f9a6	-0.16110858
6	0xbf044ab3	-0.5167648
7	0xbeac98e3	-0.33710393
8	0x3e908f4b	0.28234324
9	0xbc556087	-0.013023502
10	0xbd4838de	-0.048882358
11	0x3e8ca7f1	0.2747188
12	0x3efafb69	0.49019936
13	0x3d925d3d	0.0714669
14	0x3e4c4cc2	0.19951156
15	0xbea526f3	-0.32256278

resnet_denoiser/level_0/batch_normalization/FusedBatchNormV31 f4 [16]
0	0x3f9a30f5	1.204619
1	0x40621ffb	3.533202
2	0x40057a07	2.085573
3	0x403c1760	2.9389267
4	0x407ab557	3.917318
5	0x3f77c797	0.96788925
6	0x3fe23412	1.7672141
7	0x40882b70	4.2553024
8	0x403132dc	2.7687292
9	0x3fe2da49	1.7722865
10	0x40c319de	6.0969076
11	0x3fdb7147	1.7143945
12	0x40a669b7	5.2004046
13	0x3fea952d	1.8326775
14	0x40890f1f	4.283096
15	0x405abe1b	3.417853

resnet_denoiser/level_0/batch_normalization_1/FusedBatchNormV3 f4 [16]
0	0xbe34f772	-0.17672518
1	0xbde5cd9e	-0.11220859
2	0xbddf49e2	-0.10902764
3	0xbdfb4765	-0.12269477
4	0xbcd9bcb3	-0.026579237
5	0xbe2c57f0	-0.1683042
6	0xbd9c321d	-0.07626746
7	0xbd377775	-0.044791657
8	0xbdc6c89f	-0.09706234
9	0xbd26509c	-0.04060422
10	0xbcceb9ba	-0.025235046
11	0xbde161aa	-0.11004956
12	0xbc440298	-0.011963509
13	0xbca403d9	-0.020021366
14	0xbd77e816	-0.06052407
15	0xbd80c506	-0.06287579

resnet_denoiser/level_0/batch_normalization_1/FusedBatchNormV31 f4 [16]
0	0x3f660227	0.89847034
1	0x3fe4e786	1.7883155
2	0x3fe1c498	1.7638121
3	0x3fc2e5d1	1.5226384
4	0x412e6955	10.900716
5	0x3f1529e5	0.5826705
6	0x402760b7	2.615278
7	0x40794498	3.8948116
8	0x3fa8c066	1.3183715
9	0x409bf446	4.8735685
10	0x40ef69ac	7.4816494
11	0x3ff55f20	1.9169655
12	0x4117c238	9.484917
13	0x40e4a27f	7.144836
14	0x4019ab59	2.4010832
15	0x4056bf7c	3.3554373

resnet_denoiser/level_0/batch_normalization_10/FusedBatchNormV3 f4 [16]
0	0xbc8cec2c	-0.01720246
1	0xbca24a39	-0.019810783
2	0xbce7e173	-0.028305745
3	0xb4036110	-1.2235637e-07
4	0xbc6d475e	-0.014482347
5	0x3406fa83	1.2570858e-07
6	0xbc9df09e	-0.019279774
7	0xbc70b34a	-0.014691183
8	0xbcbdc6a2	-0.023166005
9	0xbc944ecc	-0.01810398
10	0xbcb8fe96	-0.022582334
11	0xbcc08553	-0.023501074
12	0xbc616eda	-0.013759339
13	0xbd34e96a	-0.044167913
14	0xb442764e	-1.8110697e-07
15	0xbd36ab77	-0.044597115

resnet_denoiser/level_0/batch_normalization_10/FusedBatchNormV31 f4 [16]
0	0x4145b850	12.357498
1	0x40e8d5f9	7.2761197
2	0x412222e6	10.13352
3	0x3fce611d	1.6123387
4	0x40ef244f	7.473182
5	0xbfc8d7ce	-1.5690858
6	0x41060d63	8.378268
7	0x40ec0558	7.3756523
8	0x40ef4ad3	7.477884
9	0x4123a079	10.226678
10	0x4115fb62	9.373873
11	0x41231cdc	10.194546
12	0x4117523d	9.457578
13	0x411ac022	9.671907
14	0x3fdfce63	1.7484859
15	0x40dbb0d1	6.865334

resnet_denoiser/level_0/batch_normalization_11/FusedBatchNormV3 f4 [32]
0	0xbdbf721b	-0.09347936
1	0xbe14d6c2	-0.14535049
2	0xbe189b37	-0.1490296
3	0xbdee3f38	-0.11633152
4	0xbd8dda92	-0.069264546
5	0xbec42978	-0.38312888
6	0xbe00e532	-0.12587431
7	0xbe1cafb9	-0.15301408
8	0xbda004b6	-0.078133985
9	0xbd9370df	-0.07199263
10	0xbda41059	-0.080109306
11	0xbd27aadf	-0.04093444
12	0xb467ac48	-2.1576227e-07
13	0xb3757336	-5.714829e-08
14	0xbd3ae502	-0.045628555
15	0xbda73d9d	-0.08166049
16	0xbddc4fea	-0.1075743
17	0xbde1dba9	-0.11028225
18	0xbd8a07d6	-0.06739776
19	0xbdda3234	-0.10654107
20	0xbe063e72	-0.13109758
21	0xbe552532	-0.2081497
22	0xbcc224b6	-0.023699146
23	0x34c37c46	3.6412e-07
24	0xbe48e911	-0.19620158
25	0xbdc6a122	-0.096987024
26	0xbdb14808	-0.08656317
27	0xbea493d9	-0.3214405
28	0xbe14cae2	-0.14530519
29	0xbdd9512c	-0.106111854
30	0xbe8eea0e	-0.27912945
31	0xbe3cba89	-0.18430533

resnet_denoiser/level_0/batch_normalization_11/FusedBatchNormV31 f4 [32]
0	0x40c278b3	6.077234
1	0x40723b61	3.7848742
2	0x400f8695	2.2425892
3	0x3fdbf485	1.7183996
4	0x40fbce95	7.8689675
5	0x3fd675cb	1.6754698
6	0x40b15f66	5.5428953
7	0x40afe01f	5.4961085
8	0x402a5c01	2.6618655
9	0x40053f3e	2.081985
10	0x40032e77	2.049711
11	0x4072f121	3.7959673
12	0x402210c6	2.5322738
13	0xc01d2183	-2.4551704
14	0x40260996	2.594335
15	0x4032ab07	2.7916887
16	0x40737c9b	3.8044803
17	0x40aff2c3	5.498384
18	0x40c65ca6	6.1988096
19	0x40444207	3.06653
20	0x4024678a	2.5688195
21	0x409f2ba2	4.9740763
22	0x402d5674	2.7084017
23	0xc04f5ff4	-3.2402315
24	0x40b6b11a	5.709119
25	0x408a99ce	4.331275
26	0x40d3c08f	6.6172557
27	0x40044909	2.0669577
28	0x401024ea	2.252253
29	0x40d416a1	6.6277623
30	0x3fd7c717	1.6857632
31	0x404cda81	3.2008364

resnet_denoiser/level_0/batch_normalization_12/FusedBatchNormV3 f4 [16]
0	0xbd565e82	-0.052336223
1	0x3c92d284	0.017922647
2	0xbd96dbf7	-0.07366174
3	0x3b230836	0.002487672
4	0x3b83e0b8	0.0040245913
5	0xbd36c034	-0.044616893
6	0xbd2213ad	-0.039569546
7	0xbb72b0b7	-0.00370316
8	0x3cbf5380	0.023355246
9	0xba94342e	-0.0011307055
10	0xba0da65f	-0.00054035144
11	0x3da63a14	0.08116546
12	0x3d22c5f4	0.039739564
13	0x3bec2d3f	0.007207542
14	0x3c2ea9cd	0.010660601
15	0xbc00abfe	-0.007853506

resnet_denoiser/level_0/batch_normalization_12/FusedBatchNormV31 f4 [16]
0	0x3dfe1ffa	0.12408443
1	0x3e8ef5c0	0.27921867
2	0x3ea747cc	0.32671964
3	0x3d944d61	0.07241321
4	0x3d89b683	0.067242645
5	0x3e893d16	0.26804417
6	0x3e0a90f0	0.13531852
7	0x3d3f7821	0.046745423
8	0x3e6a862c	0.22902745
9	0x3e1d9046	0.15387067
10	0x3d8a06e3	0.06739595
11	0x3f01ab11	0.5065165
12	0x3ed7da48	0.42158723
13	0x3e3d43a1	0.1848283
14	0x3e6a5a7e	0.22886083
15	0x3daa6cbc	0.08321521

resnet_denoiser/level_0/batch_normalization_13/FusedBatchNormV3 f4 [16]
0	0xb4503762	-1.9391658e-07
1	0xbd1dba32	-0.038507648
2	0xbc7706e6	-0.015077328
3	0xbcdb82f9	-0.026795851
4	0xbcbd5c55	-0.023115316
5	0xbcb54787	-0.022128833
6	0xbd998d1b	-0.07497617
7	0xbce101d6	-0.027466696
8	0x3476edc3	2.2997033e-07
9	0xbc0fdc7a	-0.008780593
10	0xbc1fabca	-0.009745548
11	0xbc730074	-0.014831651
12	0xbcc65524	-0.02421052
13	0xbce7dff8	-0.028305039
14	0xbc7647c3	-0.015031758
15	0xb480aac2	-2.39661e-07

resnet_denoiser/level_0/batch_normalization_13/FusedBatchNormV31 f4 [16]
0	0x3f932272	1.1494887
1	0x40c7e484	6.246645
2	0x415f2425	13.946324
3	0x40eaef1a	7.341687
4	0x410231e2	8.137178
5	0x41065331	8.39531
6	0x4123949b	10.223781
7	0x40e4a51c	7.145155
8	0xbf92d0c1	-1.1469957
9	0x41f1e337	30.235945
10	0x416bd7af	14.740157
11	0x413b6ba7	11.713782
12	0x415166e2	13.087618
13	0x40bdd457	5.9321704
14	0x4106a81a	8.41604
15	0x3f9bacfd	1.2162167

resnet_denoiser/level_0/batch_normalization_14/FusedBatchNormV3 f4 [32]
0	0x3476b614	2.2976775e-07
1	0xb49aabd9	-2.880977e-07
2	0xbe2c854b	-0.16847722
3	0xbe1e566b	-0.15462653
4	0xbd591c7c	-0.05300568
5	0xb46a4ba1	-2.1820462e-07
6	0xbe33726d	-0.17524119
7	0x340798ab	1.2628395e-07
8	0xbdca0cdb	-0.09865733
9	0xbd8c88ce	-0.06862031
10	0xb440ed35	-1.7967689e-07
11	0xbc80e93b	-0.015736213
12	0x343bfd98	1.7507989e-07
13	0xb482dc7b	-2.4374808e-07
14	0xbded98fa	-0.116014436
15	0xbd57a9ff	-0.052652355
16	0xb496569d	-2.8002697e-07
17	0xbceaa47f	-0.028642891
18	0xbe5e9982	-0.21738246
19	0xbd839e49	-0.06426675
20	0xbd9a0703	-0.07520869
21	0xbd287645	-0.041128416
22	0x34b3ca43	3.3488513e-07
23	0xb4a13706	-3.0028622e-07
24	0xbd912b1a	-0.07088299
25	0xb4a4134e	-3.0561426e-07
26	0xbd040b22	-0.03223718
27	0xbda7d51f	-0.081949465
28	0x34b28299	3.3250106e-07
29	0xbe096d84	-0.13420683
30	0xbda03f6b	-0.07824596
31	0xbe5f3338	-0.21796882

resnet_denoiser/level_0/batch_normalization_14/FusedBatchNormV31 f4 [32]
0	0xbf9ad602	-1.209656
1	0x3f9ccd35	1.2250124
2	0x3f47e979	0.78090626
3	0x400aa239	2.1661513
4	0x40044590	2.0667458
5	0x3f9b724a	1.2144253
6	0x402495ef	2.5716512
7	0xbfa3a6d7	-1.278529
8	0x4001f80d	2.0307648
9	0x3f444bd0	0.7667818
10	0x3f9d715e	1.2300222
11	0x3fc61df8	1.5477896
12	0xbf98ea6b	-1.1946539
13	0x3fa0ed13	1.2572349
14	0x3fea6aeb	1.8313879
15	0x4137f3c8	11.497017
16	0x3fd1ed35	1.6400515
17	0x3fed0677	1.8517598
18	0x3f4549af	0.7706556
19	0x3fbe9460	1.488903
20	0x401d86e7	2.4613588
21	0x413b4137	11.703422
22	0xbfd62fc3	-1.6733326
23	0x3fcfc581	1.6232148
24	0x406c3a63	3.6910636
25	0x3fcd6cc3	1.6048816
26	0x3fb98e85	1.4496619
27	0x3fb83da9	1.4393817
28	0xbfc88bca	-1.566766
29	0x3f6399f1	0.8890677
30	0x4137d79a	11.490137
31	0x3f7c7795	0.9861997

resnet_denoiser/level_0/batch_normalization_15/FusedBatchNormV3 f4 [16]
0	0xbcf1cbee	-0.029516187
1	0x3c5345dd	0.012895075
2	0xbc994837	-0.018711193
3	0x3b1e7a62	0.0024181833
4	0x3b4dcc32	0.0031402227
5	0xbc3f0dd8	-0.011661015
6	0xbc9b57fe	-0.018962856
7	0xbb9494b4	-0.0045343284
8	0x3c330213	0.0109257875
9	0xb9e3c5c5	-0.00043444164
10	0xba156624	-0.0005699119
11	0x3ab44560	0.0013753586
12	0x3bdd1fbd	0.0067481683
13	0x3b2e2522	0.0026572426
14	0x3b5644dd	0.0032694854
15	0xbc16e152	-0.009208994

resnet_denoiser/level_0/batch_normalization_15/FusedBatchNormV31 f4 [16]
0	0x3d8f51c7	0.0699802
1	0x3e4db70e	0.20089361
2	0x3da9f791	0.08299173
3	0x3d9028e1	0.07039047
4	0x3d56e748	0.05246666
5	0x3d8f795a	0.07005568
6	0x3d84cf4b	0.064848505
7	0x3d6a71b6	0.05723735
8	0x3ddb6cc3	0.10714104
9	0x3d722845	0.059120435
10	0x3d9193f0	0.07108295
11	0x3c0c9fa5	0.008582984
12	0x3d929d99	0.071589656
13	0x3d8b8dd3	0.0681416
14	0x3d8fbf43	0.07018902
15	0x3dc7d6e6	0.097577855

resnet_denoiser/level_0/batch_normalization_2/FusedBatchNormV3 f4 [32]
0	0xbe0e1a2a	-0.13877168
1	0xbe3e3386	-0.18574342
2	0xbdea5888	-0.11442667
3	0xbd6afea2	-0.057371743
4	0xbe0233c6	-0.12715062
5	0xbe01bc55	-0.12669499
6	0xbd92f232	-0.07175101
7	0xbdfaf731	-0.12254179
8	0xbe624bc4	-0.22099215
9	0xbda1cec9	-0.07900769
10	0xbe3437ab	-0.1759936
11	0xbe58e8ce	-0.21182558
12	0xbdce70b7	-0.100800924
13	0xbe4a0b39	-0.19730844
14	0xbd3a9888	-0.04555562
15	0xbdf0333a	-0.11728521
16	0xbe055086	-0.13018999
17	0xbdb76964	-0.089556485
18	0xbe0d6699	-0.13808669
19	0xbdf603b8	-0.12012428
20	0xbd5106ba	-0.051031806
21	0xbe05282c	-0.13003606
22	0xbd7279cc	-0.059198186
23	0xbe076b1a	-0.1322445
24	0xbd826bb2	-0.063681975
25	0xbd4b3dac	-0.04961936
26	0xbe40c0a8	-0.18823493
27	0xbe93140c	-0.28726232
28	0xbdc74dcd	-0.09731636
29	0xbe50b34c	-0.20380896
30	0xbe008afa	-0.12553015
31	0xbda920e3	-0.08258226

resnet_denoiser/level_0/batch_normalization_2/FusedBatchNormV31 f4 [32]
0	0x3fab3b08	1.337739
1	0x3eb577a0	0.3544283
2	0x3fc01837	1.500739
3	0x3f84f48b	1.0387129
4	0x3f7e620c	0.9936836
5	0x3f5ad24c	0.8547714
6	0x403e1f95	2.9706776
7	0x3f48e8d7	0.78480285
8	0x4004848f	2.0705907
9	0x3fecab37	1.8489751
10	0x3fb8c975	1.443648
11	0x3f4e46dc	0.8057687
12	0x402fe8c0	2.748581
13	0x3f206ff1	0.6267081
14	0x406bb774	3.683072
15	0x3fb56ff5	1.4174792
16	0x3f9043d8	1.1270704
17	0x3f13ccf0	0.57734585
18	0x3f98e75a	1.1945603
19	0x3eb3b076	0.35095567
20	0x3f897962	1.0740168
21	0x3f89d6ce	1.0768678
22	0x3f19f289	0.60135704
23	0x3f8ab600	1.0836792
24	0x4021ae65	2.5262692
25	0x3fbc9c55	1.4735209
26	0x3f1d9794	0.61559415
27	0x3fd13399	1.6343871
28	0x3fe27ec2	1.7694933
29	0x3f98dfdb	1.1943315
30	0x3f8d7442	1.1051104
31	0x3f72834d	0.947316

resnet_denoiser/level_0/batch_normalization_3/FusedBatchNormV3 f4 [16]
0	0xbec397bd	-0.38201705
1	0x3dae7834	0.08519021
2	0xbf0bbf19	-0.54588467
3	0x3d777baf	0.06042069
4	0x3e289c4a	0.1646587
5	0xbe1e00a8	-0.15429938
6	0xbe160abc	-0.14652532
7	0xbe47e6d2	-0.19521645
8	0x3df86614	0.12128845
9	0xbc47bd4d	-0.012191129
10	0xbc5aca8e	-0.013353957
11	0x3e4c14c7	0.19929801
12	0x3e489fdd	0.19592233
13	0x3cf1a11c	0.029495768
14	0x3df1cb1f	0.118063204
15	0xbe15f285	-0.14643295

resnet_denoiser/level_0/batch_normalization_3/FusedBatchNormV31 f4 [16]
0	0x3f67ddc4	0.9057276
1	0x3fa9e13e	1.3271863
2	0x401af544	2.4212198
3	0x3fe11f88	1.7587748
4	0x40301227	2.751108
5	0x3f6d4eab	0.9269816
6	0x3f0046eb	0.5010821
7	0x401db61c	2.46424
8	0x3f983dc6	1.1893852
9	0x3fd45a97	1.6590146
10	0x3fd531f8	1.6655874
11	0x3f9f3279	1.2437278
12	0x40050602	2.0784917
13	0x3f41a239	0.7563816
14	0x40223665	2.53457
15	0x3fc69a9d	1.5515934

resnet_denoiser/level_0/batch_normalization_4/FusedBatchNormV3 f4 [16]
0	0xbe74a64b	-0.2389156
1	0xbe9c446a	-0.30520946
2	0xbeaf753d	-0.34269133
3	0xbd90b33d	-0.07065437
4	0xbde0adc4	-0.10970643
5	0xbe284f3a	-0.16436473
6	0xbda3c776	-0.079970285
7	0xbdca8792	-0.09889139
8	0xbd9ff432	-0.078102484
9	0xbdd0656a	-0.10175593
10	0xbd5e8734	-0.05432816
11	0xbd2c3b26	-0.042048596
12	0xbe88adf3	-0.26695213
13	0xbe00c0e8	-0.12573588
14	0xbdbbd4ba	-0.09171434
15	0xbd99ffed	-0.07519517

resnet_denoiser/level_0/batch_normalization_4/FusedBatchNormV31 f4 [16]
0	0x402bff66	2.6874633
1	0x3fcb51a7	1.5884293
2	0x402e7b6c	2.726283
3	0x40d7547d	6.7290635
4	0x40cf3a42	6.4758615
5	0x405319db	3.298453
6	0x40956a26	4.6692076
7	0x404ed600	3.2318115
8	0x4093fee0	4.6248627
9	0x40163d23	2.3474815
10	0x409ef0ce	4.966895
11	0x40d760ec	6.7305813
12	0x4057f946	3.3745894
13	0x41085166	8.519873
14	0x4036edd9	2.858267
15	0x409c5d0f	4.8863597

resnet_denoiser/level_0/batch_normalization_5/FusedBatchNormV3 f4 [32]
0	0xbe401a1b	-0.18759958
1	0xbe8a0e05	-0.2696382
2	0xbe12411c	-0.1428265
3	0xbe19bd6a	-0.15013662
4	0xbd4a8567	-0.04944363
5	0xbe3c3d83	-0.1838284
6	0xbe06ad94	-0.13152152
7	0xbe481c36	-0.19542012
8	0xbe1c7d95	-0.1528228
9	0xbdf1da2f	-0.11809193
10	0xbded4175	-0.115847506
11	0xbe481935	-0.19540866
12	0xbe73148e	-0.2373831
13	0xbe6885c1	-0.22707273
14	0xbd7b519b	-0.061357122
15	0xbe14efd6	-0.14544615
16	0xbdc2a9cc	-0.095050424
17	0xbe1707fc	-0.1474914
18	0xbe0ba79f	-0.13638161
19	0xbe68d969	-0.22739185
20	0xbe82feec	-0.25585115
21	0xbe2f33fc	-0.17109674
22	0xbd820eea	-0.06350501
23	0xbe3f46c6	-0.18679342
24	0xbebf6380	-0.373806
25	0xbe244a0a	-0.16043869
26	0xbe560db8	-0.20903671
27	0xbe29fbcc	-0.16599959
28	0xbe440e03	-0.1914597
29	0xbd905263	-0.07046964
30	0xbe075d59	-0.13219203
31	0xbeae91f9	-0.34095743

resnet_denoiser/level_0/batch_normalization_5/FusedBatchNormV31 f4 [32]
0	0x3f983ef4	1.1894212
1	0x3f512b05	0.8170627
2	0x3f7d1890	0.98865604
3	0x3f3f7540	0.74788284
4	0x3f7f8211	0.9980784
5	0x3f5c888a	0.8614584
6	0x3ff2df3b	1.8974375
7	0x3f977039	1.1831123
8	0x3f902474	1.1261125
9	0x3f6f0264	0.9336302
10	0x3f610066	0.8789123
11	0x3f901083	1.1255039
12	0x3f29b26b	0.6628787
13	0x4020d0a4	2.5127344
14	0x3fe58a38	1.7932806
15	0x3fadb064	1.3569455
16	0x3f6fece1	0.93720824
17	0x3f42ad19	0.76045376
18	0x3fbf768a	1.495805
19	0x3fc1e2c4	1.5147328
20	0x3f29283c	0.6607702
21	0x3f006583	0.50154895
22	0x3f302db0	0.68819714
23	0x3f8dcc66	1.1078002
24	0x3ff3138d	1.8990341
25	0x3fca4657	1.5802716
26	0x3f64a382	0.89311993
27	0x3f9f4f07	1.2445992
28	0x3fa48f70	1.2856274
29	0x3fa365ee	1.2765481
30	0x3f0d4737	0.5518679
31	0x3f794032	0.9736358

resnet_denoiser/level_0/batch_normalization_6/FusedBatchNormV3 f4 [16]
0	0xbe6462d6	-0.22303328
1	0x3dfa124a	0.122105196
2	0xbebdd4ff	-0.37076566
3	0x3c9fb3dc	0.019494943
4	0x3d999549	0.07499177
5	0xbe21d818	-0.1580509
6	0xbdf1ef80	-0.11813259
7	0xbdfaee86	-0.12252526
8	0x3e3d3fd6	0.18481383
9	0xbc2cd5e4	-0.010549042
10	0xbc3eb86d	-0.01164065
11	0x3ead75f8	0.33879066
12	0x3dfc9d82	0.1233473
13	0x3cec7020	0.02886206
14	0x3d8e2cf5	0.069421686
15	0xbe3a27a8	-0.1817919

resnet_denoiser/level_0/batch_normalization_6/FusedBatchNormV31 f4 [16]
0	0x3f075ee3	0.5287916
1	0x3ff37e31	1.9022886
2	0x3fd27ed8	1.644496
3	0x3f114606	0.5674747
4	0x3fa060ef	1.2529582
5	0x3f7313b9	0.9495197
6	0x3eced735	0.40398565
7	0x3fc5f8a6	1.5466506
8	0x3fe7fa78	1.8123312
9	0x3fb7c032	1.4355528
10	0x3fb9d7a5	1.4518934
11	0x40074fac	2.1142378
12	0x3fa77eee	1.3085611
13	0x3f3d7936	0.7401308
14	0x3fbec367	1.4903382
15	0x3ff68f80	1.9262543

resnet_denoiser/level_0/batch_normalization_7/FusedBatchNormV3 f4 [16]
0	0xbe8a325b	-0.26991543
1	0xbd8e2ed4	-0.069425255
2	0xbd978b38	-0.07399601
3	0xbd1b49e8	-0.03791228
4	0xbe251709	-0.16122068
5	0xbe6800ac	-0.22656506
6	0xbe65c061	-0.22436668
7	0xbdc658d6	-0.09684913
8	0xbe461099	-0.19342269
9	0xbd8a52c0	-0.067540646
10	0xbed691f3	-0.41908225
11	0xbd7a3066	-0.061081313
12	0xbd8ff42c	-0.07028994
13	0xbd3485e0	-0.044072986
14	0xbd6fc16f	-0.058534082
15	0xbda891cb	-0.08230933

resnet_denoiser/level_0/batch_normalization_7/FusedBatchNormV31 f4 [16]
0	0x400e040f	2.2189977
1	0x4092fe28	4.593525
2	0x40812e9b	4.036939
3	0x40a6344e	5.193885
4	0x4037e7e2	2.873528
5	0x3f9b5875	1.213637
6	0x409c4d1a	4.884412
7	0x40765b1e	3.8493114
8	0x3fbddba9	1.483266
9	0x40842ce9	4.130482
10	0x3f9e7689	1.2379924
11	0x409d3109	4.9122357
12	0x405b1990	3.4234352
13	0x40e2b487	7.084537
14	0x408ec46b	4.461477
15	0x40808edf	4.0174403

resnet_denoiser/level_0/batch_normalization_8/FusedBatchNormV3 f4 [32]
0	0xbde475fe	-0.11155318
1	0xbdb28ee9	-0.08718664
2	0xbe141074	-0.14459401
3	0xbf03ad8c	-0.51436687
4	0xbebbede9	-0.3670495
5	0xbe54c974	-0.20779973
6	0xbe18b768	-0.14913714
7	0xbe2f4627	-0.17116605
8	0xbd9dd561	-0.077067144
9	0xbdbdeb47	-0.09273391
10	0xbdf04251	-0.11731399
11	0xbe3e171c	-0.18563503
12	0xbe2878a8	-0.16452277
13	0xbe1ce200	-0.15320587
14	0xbe85043e	-0.259798
15	0xbe255358	-0.16145074
16	0xbe13a8af	-0.14419816
17	0xbe6e9824	-0.23300225
18	0xbeba0f67	-0.36339876
19	0xbdb96723	-0.09052875
20	0xbe5f275d	-0.2179236
21	0xbe722047	-0.23645125
22	0xbdf7da17	-0.12102144
23	0xbe80417a	-0.25049955
24	0xbdc50cb4	-0.096215636
25	0xbe3ec2dd	-0.18629022
26	0xbdfd3c62	-0.12365033
27	0xbe2d4622	-0.16921285
28	0xbdfcfe66	-0.1235321
29	0xbe3c04d2	-0.18361214
30	0xbe0653ef	-0.13117956
31	0xbe20a09a	-0.15686265

resnet_denoiser/level_0/batch_normalization_8/FusedBatchNormV31 f4 [32]
0	0x401ad3c7	2.4191759
1	0x40289c7c	2.634551
2	0x3fd8d164	1.6938901
3	0x3fc5b671	1.5446302
4	0x3fb68fbe	1.4262617
5	0x3f81ecb0	1.0150356
6	0x401ff800	2.4995117
7	0x3f5d51bc	0.8645284
8	0x405c26eb	3.4398754
9	0x3ff7e92d	1.9368035
10	0x402ec3fd	2.7307122
11	0x3fe6310d	1.7983719
12	0x3fa095ad	1.2545677
13	0x3f9fa696	1.2472713
14	0x3f6bcf97	0.9211363
15	0x3ff05381	1.8775483
16	0x40026c78	2.0378704
17	0x3f59afc7	0.8503384
18	0x3fc45f96	1.534167
19	0x404d4a50	3.2076607
20	0x3f9a58b7	1.2058324
21	0x3fc09c3b	1.5047678
22	0x3fbc81d2	1.4727118
23	0x3fa6023d	1.2969433
24	0x4073ef27	3.8114717
25	0x3fe2bf1b	1.7714571
26	0x4019da03	2.4039314
27	0x4036390b	2.8472316
28	0x3fe98c08	1.8245859
29	0x3fe2b272	1.7710707
30	0x4019f549	2.405596
31	0x401f9aa9	2.4938147

resnet_denoiser/level_0/batch_normalization_9/FusedBatchNormV3 f4 [16]
0	0xbd610e83	-0.05494548
1	0x3cd14672	0.025546286
2	0xbd909b64	-0.070608884
3	0x3bf01c25	0.007327574
4	0x3c800a2e	0.015629854
5	0xbd29bcda	-0.04143987
6	0xbce29bfd	-0.027662272
7	0xbce5e5c7	-0.028063668
8	0x3c9b1629	0.018931465
9	0xbaf2b63a	-0.0018517443
10	0xbb07a950	-0.0020700283
11	0x3d4059b4	0.046960548
12	0x3d1f9161	0.038957004
13	0x3bda749a	0.006666732
14	0x3c3a6b21	0.011378081
15	0xbcd12315	-0.025529424

resnet_denoiser/level_0/batch_normalization_9/FusedBatchNormV31 f4 [16]
0	0x3e0565b1	0.13027073
1	0x3ecbc517	0.39798805
2	0x3ea05900	0.31317902
3	0x3e5a6a88	0.21329701
4	0x3e85b47f	0.2611427
5	0x3e7eeebb	0.24895756
6	0x3dc1bcd6	0.09459846
7	0x3eb56061	0.35425094
8	0x3e3e1a2e	0.18564674
9	0x3e810520	0.25199223
10	0x3e84310b	0.25818667
11	0x3e960bdf	0.29305932
12	0x3ed39a20	0.41328526
13	0x3e2f101a	0.17095986
14	0x3e7a203d	0.2442636
15	0x3e8a8007	0.27050802

resnet_denoiser/level_1/batch_normalization_16/FusedBatchNormV3 f4 [16]
0	0x3ee74a5a	0.45173913
1	0x3e93355f	0.28751656
2	0xbeaaf474	-0.33389628
3	0xbe641f04	-0.22277457
4	0x3eecd6e0	0.46257687
5	0x3e8fe721	0.28106025
6	0x3eaca28a	0.33717757
7	0x3f10616e	0.56398666
8	0x3e3aa797	0.18227993
9	0xbe607fdf	-0.21923779
10	0x3e8e6030	0.2780776
11	0x3e8c3684	0.27385342
12	0x3e751bfd	0.23936458
13	0x3eff342b	0.49844489
14	0x3f1dc13c	0.6162298
15	0x3d1e0ff4	0.038589433

resnet_denoiser/level_1/batch_normalization_16/FusedBatchNormV31 f4 [16]
0	0x3fa9eadf	1.3274802
1	0x411073ec	9.028301
2	0x408e343c	4.4438763
3	0x403c780b	2.9448268
4	0x4086466a	4.1960955
5	0x4098fa39	4.7805448
6	0x4096c858	4.711956
7	0x3fba3680	1.4547882
8	0x3eab5a37	0.33467266
9	0x3fc5d9d6	1.5457103
10	0x403da9ed	2.9634964
11	0x3f94df8e	1.1630723
12	0x40928ef4	4.5799503
13	0x40097d9d	2.1482918
14	0x40a933bf	5.2875667
15	0x3e9f5938	0.31122756

resnet_denoiser/level_1/batch_normalization_17/FusedBatchNormV3 f4 [16]
0	0xbe2dbf5e	-0.16967532
1	0xbca2e23d	-0.01988327
2	0xbe16324d	-0.14667626
3	0xbe4906ab	-0.1963145
4	0xbe7d77fd	-0.24752803
5	0xbd099c50	-0.033596337
6	0xbe1f1ad7	-0.15537582
7	0xbd267364	-0.04063739
8	0xbe3a87c3	-0.18215851
9	0xbe6c2191	-0.2305968
10	0xbd067cef	-0.03283399
11	0xbcb55d37	-0.022139175
12	0xbcaac7b7	-0.020847185
13	0xbd90beb2	-0.07067622
14	0xbce2a56a	-0.027666766
15	0xbcb7935f	-0.02240914

resnet_denoiser/level_1/batch_normalization_17/FusedBatchNormV31 f4 [16]
0	0x3fb7e8f0	1.4367962
1	0x4174b1b0	15.293381
2	0x3f97e327	1.1866196
3	0x4015c759	2.3402922
4	0x40057a75	2.0855992
5	0x40ca1b3f	6.315826
6	0x403b8376	2.9298987
7	0x41537b8f	13.217666
8	0x40156797	2.3344476
9	0x3fcd3986	1.603318
10	0x402293aa	2.5402627
11	0x40e17ec0	7.0467224
12	0x41511a8d	13.068982
13	0x40340acb	2.8131588
14	0x41957dea	18.686481
15	0x4137cc95	11.487447

resnet_denoiser/level_1/batch_normalization_18/FusedBatchNormV3 f4 [32]
0	0xbe5eedf1	-0.21770455
1	0xbe07f854	-0.13278323
2	0xbdb53a2d	-0.08848987
3	0xbda03776	-0.07823078
4	0xbc03c9d3	-0.008043724
5	0xbe2849ac	-0.16434354
6	0xbeeaf366	-0.45888823
7	0xbdaf70bd	-0.08566425
8	0xbe791756	-0.24325308
9	0xbe0f0cd7	-0.13969742
10	0xbdce4184	-0.1007109
11	0xbc5e1be6	-0.013556456
12	0xbe176413	-0.14784269
13	0xbc721203	-0.014774802
14	0xbe0c8338	-0.13721931
15	0xbe373e19	-0.17894782
16	0xbe314975	-0.17313178
17	0xbe02d2f6	-0.12775788
18	0xbd542aa5	-0.05179848
19	0xbdf56655	-0.11982409
20	0xbeb32289	-0.34987286
21	0xbe9744a4	-0.29544556
22	0xbd6d192f	-0.057885345
23	0xbe824e83	-0.25450525
24	0xbd7c98e5	-0.06166925
25	0xbd9a3dc8	-0.07531315
26	0xbdaf83bb	-0.085700475
27	0xbe6e7355	-0.23286183
28	0xbdfe5ffa	-0.1242065
29	0xbe8c5676	-0.27409714
30	0xbdde6bc5	-0.10860399
31	0xbe2d86bc	-0.16945928

resnet_denoiser/level_1/batch_normalization_18/FusedBatchNormV31 f4 [32]
0	0x3fd534d8	1.6656752
1	0x3fc53607	1.5407113
2	0x40a95d81	5.292664
3	0x3fabfc8a	1.3436444
4	0x408b59b4	4.3547
5	0x4017a700	2.3695679
6	0x404191cb	3.0245235
7	0x3fd7a8a8	1.6848345
8	0x3ffb0573	1.9611038
9	0x40152570	2.33041
10	0x4025b3a4	2.5890894
11	0x404cba5d	3.1988747
12	0x3feea6f3	1.8644699
13	0x40375a5c	2.86489
14	0x4016b72e	2.3549304
15	0x3f87e03c	1.0615306
16	0x3f1b5215	0.6067212
17	0x3fff6ed0	1.9955692
18	0x4010f531	2.2649653
19	0x3fa189e1	1.2620202
20	0x3ed5d8ea	0.41767055
21	0x3eb0a901	0.3450394
22	0x3f9d679d	1.2297245
23	0x3fc186c2	1.511925
24	0x4003bf48	2.05855
25	0x3fd2f75c	1.6481738
26	0x3fc9d3f1	1.5767804
27	0x3f9d8cbe	1.2308576
28	0x3f7613a8	0.96123743
29	0x3f017a91	0.50577646
30	0x3fb28d98	1.3949461
31	0x3fba91bd	1.4575726

resnet_denoiser/level_1/batch_normalization_19/FusedBatchNormV3 f4 [16]
0	0x3f4977f8	0.7869868
1	0x3d62f2c7	0.05540731
2	0xbe405333	-0.18781738
3	0xbdcf2a98	-0.10115546
4	0x3eb21bf4	0.34786952
5	0x3dfc8587	0.12330156
6	0x3e9b62f5	0.30348936
7	0x3eb3d7bc	0.3512553
8	0x3ecf1cb2	0.4045158
9	0xbf66b7a0	-0.9012394
10	0x3ec7e36c	0.39040697
11	0x3e8e6cd8	0.27817416
12	0x3df32dc0	0.118739605
13	0x3f95b3a5	1.1695448
14	0x3e97d8bd	0.29657546
15	0x3e25ec23	0.1620336

resnet_denoiser/level_1/batch_normalization_19/FusedBatchNormV31 f4 [16]
0	0x40140246	2.3126388
1	0x3fdeb333	1.7398437
2	0x401ffaec	2.49969
3	0x3fab2812	1.3371603
4	0x4049f4dc	3.15557
5	0x4006390e	2.0972323
6	0x4087b7b2	4.2411737
7	0x3f67f31f	0.9060535
8	0x3f3e21f9	0.7427059
9	0x40cb54a5	6.3540826
10	0x408523a3	4.1606
11	0x3f9738dd	1.1814228
12	0x4011676e	2.2719378
13	0x40a14d9e	5.0407248
14	0x4022dd7f	2.544769
15	0x3fa745c8	1.306817

resnet_denoiser/level_1/batch_normalization_20/FusedBatchNormV3 f4 [16]
0	0xbf13d175	-0.5774148
1	0xbe150bcd	-0.14555283
2	0xbe76af88	-0.24090397
3	0xbdff930e	-0.1247922
4	0xbf21be7c	-0.6318128
5	0xbe076675	-0.13222678
6	0xbf4a701d	-0.7907732
7	0xbe0bbae4	-0.13645512
8	0xbdc8e3f3	-0.09809103
9	0xbdb8174d	-0.08988819
10	0xbe550250	-0.20801663
11	0xbde44f33	-0.111479186
12	0xbedc21b2	-0.42994457
13	0xbdd9c174	-0.106326014
14	0xbe8d3b9b	-0.27584538
15	0xbe411ead	-0.18859358

resnet_denoiser/level_1/batch_normalization_20/FusedBatchNormV31 f4 [16]
0	0x405503e4	3.3283625
1	0x40370ad9	2.860037
2	0x4085ef0e	4.1854315
3	0x4086c872	4.2119684
4	0x40015ee3	2.0214164
5	0x4006fa0e	2.1090121
6	0x3fb00df7	1.3754262
7	0x40af0fc5	5.470675
8	0x40bff7db	5.999006
9	0x4105d08c	8.363415
10	0x4077eb79	3.873747
11	0x410803da	8.50094
12	0x403fcfeb	2.9970653
13	0x40c66cdc	6.2007885
14	0x403cbb43	2.9489295
15	0x403235f3	2.7845428

resnet_denoiser/level_1/batch_normalization_21/FusedBatchNormV3 f4 [32]
0	0xbd9f028b	-0.07764157
1	0xbe0a3f37	-0.13500677
2	0xbe178909	-0.14798369
3	0xbe4ee2e1	-0.20203735
4	0xbe199296	-0.14997324
5	0xbe16ba44	-0.14719492
6	0xbe3ba3ce	-0.18324205
7	0xbe35fa77	-0.17771326
8	0xbe05beb1	-0.13061024
9	0xbe1d8346	-0.15382108
10	0xbddda94d	-0.10823307
11	0xbd6418a2	-0.055687554
12	0xbe32098b	-0.17386453
13	0xbd6a866a	-0.057257093
14	0xbe828bd3	-0.25497302
15	0xbe39b5ea	-0.18135801
16	0xbea65357	-0.32485458
17	0xbe909412	-0.2823797
18	0xbe5847bb	-0.21121113
19	0xbe06dd97	-0.13170467
20	0xbe2e6eea	-0.17034498
21	0xbdb5e1f3	-0.08880987
22	0xbe011ecb	-0.12609403
23	0xbe21a63c	-0.1578607
24	0xbe4993db	-0.19685309
25	0xbe526bb8	-0.20548904
26	0xbe3a9b9f	-0.18223427
27	0xbdd57a2c	-0.10423693
28	0xbe1eb42f	-0.15498422
29	0xbe06c6e5	-0.1316181
30	0xbe34b6d8	-0.17647874
31	0xbdd5bbe4	-0.10436228

resnet_denoiser/level_1/batch_normalization_21/FusedBatchNormV31 f4 [32]
0	0x4016fff9	2.3593733
1	0x3fb31d9a	1.3993409
2	0x3f9728b1	1.1809293
3	0x3fb69b0c	1.4266067
4	0x3ff1a7d7	1.8879346
5	0x3fc1571e	1.5104711
6	0x3f51457e	0.8174666
7	0x3fafa5ca	1.372247
8	0x3fe7b21e	1.8101232
9	0x3fcd3bea	1.6033909
10	0x40216e71	2.5223658
11	0x3fad401a	1.3535187
12	0x3f54c471	0.83112246
13	0x3fa2675e	1.2687795
14	0x3f8285ef	1.0197123
15	0x3fa3cd08	1.2796946
16	0x3f8bffe5	1.0937468
17	0x3f99bfe4	1.2011685
18	0x3f803cd7	1.0018567
19	0x3fb318e8	1.3991976
20	0x3f351b07	0.70744365
21	0x3fe5cc86	1.7953041
22	0x403063c8	2.7560902
23	0x3f0323ca	0.51226485
24	0x3f6ff814	0.9373791
25	0x3f80c5df	1.0060385
26	0x3fc6f0c8	1.5542231
27	0x3f0054a5	0.5012916
28	0x3f8dfbeb	1.1092504
29	0x3fa3e13f	1.2803115
30	0x3f6aa736	0.91661394
31	0x3f652ffb	0.8952634

resnet_denoiser/level_1/batch_normalization_22/FusedBatchNormV3 f4 [16]
0	0x3f1a3e22	0.6025106
1	0x3d062d5b	0.032758098
2	0xbde924e0	-0.113839865
3	0xbdb50e47	-0.08840614
4	0x3da66b93	0.08125987
5	0x3dcd70b8	0.10031265
6	0x3db33763	0.087507986
7	0x3e846846	0.25860804
8	0x3e7faf04	0.24969107
9	0xbef793b1	-0.48354867
10	0x3e7d94e2	0.24763826
11	0x3e10c1fb	0.14136498
12	0x3dccc045	0.0999761
13	0x3f9085f3	1.1290878
14	0x3ef98a03	0.48738107
15	0x3d9b8291	0.07593263

resnet_denoiser/level_1/batch_normalization_22/FusedBatchNormV31 f4 [16]
0	0x3fe2a0f5	1.770537
1	0x3f83aa5a	1.0286362
2	0x3fc1ef30	1.5151119
3	0x3f9595a0	1.1686287
4	0x3f3cb3d5	0.737119
5	0x3fda653e	1.7062147
6	0x3f9c87ed	1.2228981
7	0x3f2ac542	0.6670724
8	0x3eeab8e9	0.458442
9	0x405a3063	3.4092033
10	0x4028e70c	2.639102
11	0x3f19b2e1	0.6003857
12	0x3ff4da98	1.912921
13	0x409bb930	4.866356
14	0x4085d2c5	4.1819787
15	0x3f1cc685	0.61240417

resnet_denoiser/level_1/batch_normalization_23/FusedBatchNormV3 f4 [16]
0	0xbd55eb6f	-0.05222648
1	0xbe12b5ed	-0.14327212
2	0xbd6b21c0	-0.057405233
3	0xbdcee029	-0.10101349
4	0xbda144df	-0.07874464
5	0xbf06c128	-0.52638483
6	0xbd376cdb	-0.044781547
7	0xbe2bd9ea	-0.16782346
8	0xbeb6bf78	-0.35692954
9	0xbdf71e44	-0.120663196
10	0xbd93e1d7	-0.0722081
11	0xbe4c2184	-0.1993466
12	0xbdc11a1a	-0.094288066
13	0x33f3e28c	1.1356778e-07
14	0xbda1829d	-0.07886241
15	0xbeb0db62	-0.34542376

resnet_denoiser/level_1/batch_normalization_23/FusedBatchNormV31 f4 [16]
0	0x4165c9fc	14.361813
1	0x4109a233	8.602099
2	0x4141eed8	12.120811
3	0x4102d3d3	8.176715
4	0x40daa5fd	6.8327622
5	0x4064983a	3.5717912
6	0x40f86669	7.7625012
7	0x400303cc	2.0471067
8	0x40c0ba71	6.022759
9	0x40fe50e8	7.9473763
10	0x40c55b9f	6.167434
11	0x40ad8e6d	5.423636
12	0x410019bf	8.006286
13	0xc038ff03	-2.8905647
14	0x4165055d	14.313809
15	0x4084a7da	4.1454897

resnet_denoiser/level_1/batch_normalization_24/FusedBatchNormV3 f4 [32]
0	0xbe899d75	-0.26877943
1	0xbd7d7721	-0.06188119
2	0xbed07a49	-0.40718296
3	0xbe043f1d	-0.12914701
4	0xbe1fc41c	-0.15602154
5	0xbe91202f	-0.28344867
6	0xbe87b98b	-0.26508746
7	0xbe153247	-0.1456996
8	0xbde864cd	-0.11347351
9	0xbe1985ca	-0.14992443
10	0xbe4a6fb0	-0.19769168
11	0xbe690c3e	-0.22758576
12	0xbe15a2cc	-0.14612883
13	0xbec40fd3	-0.38293323
14	0xbd9dc6f9	-0.07703967
15	0xbe1cce88	-0.1531316
16	0xbe20e72f	-0.1571319
17	0xbe286808	-0.16445935
18	0xbe67e974	-0.22647649
19	0xbedb7b22	-0.4286738
20	0xbe9ddd68	-0.30832982
21	0xbde31e53	-0.11089768
22	0xbe037da7	-0.12840901
23	0xbdfb5be8	-0.12273389
24	0xbe9b7c36	-0.30368203
25	0xbe6a142e	-0.2285926
26	0xbde8d278	-0.11368269
27	0xbdd01ad4	-0.10161367
28	0xbe66d8e9	-0.22543682
29	0xbe994b5a	-0.299403
30	0xbda7c03b	-0.08190962
31	0xbce66b92	-0.028127465

resnet_denoiser/level_1/batch_normalization_24/FusedBatchNormV31 f4 [32]
0	0x403181b5	2.7735417
1	0x3fc7ca5f	1.5608634
2	0x3f7f842a	0.9981104
3	0x3fbe030d	1.4844681
4	0x3f7e7386	0.99395025
5	0x3fcd1cbe	1.6024396
6	0x4016b60c	2.3548613
7	0x3fd8d8c4	1.6941152
8	0x3fd3c5fd	1.6544796
9	0x3fa68d7a	1.3011925
10	0x4020e67b	2.5140674
11	0x3fffafd4	1.9975533
12	0x3ff0cdfa	1.8812859
13	0x3f976b3d	1.1829602
14	0x3fefc415	1.8731714
15	0x403c82c9	2.9454825
16	0x3fe4d968	1.7878847
17	0x3f4da6e2	0.8033277
18	0x3f61b33c	0.88164115
19	0x3f5ffd05	0.8749545
20	0x3f29bb4c	0.6630142
21	0x3ff48c27	1.9105271
22	0x3fce82c7	1.613366
23	0x3f3638f6	0.71180665
24	0x3f9cad21	1.2240335
25	0x400b6692	2.1781354
26	0x3f6fd415	0.93682986
27	0x3ff9313f	1.9468154
28	0x3ff263d9	1.8936721
29	0x3f294433	0.6611969
30	0x3fac058e	1.3439195
31	0x40085216	2.1300101

resnet_denoiser/level_1/batch_normalization_25/FusedBatchNormV3 f4 [16]
0	0x3ebf857b	0.37406525
1	0x3ce37f94	0.027770795
2	0xbccdfff1	-0.025146456
3	0xbd21e1b7	-0.0395219
4	0x3dbee800	0.09321594
5	0x3ce2fd0b	0.02770855
6	0x3cd08e37	0.025458438
7	0x3e70c2dd	0.23511834
8	0x3dfe22a9	0.12408955
9	0xbe5abadc	-0.21360344
10	0x3df2d367	0.11856728
11	0x3e05be85	0.13060959
12	0x3ce5b64f	0.028041033
13	0x3ea5ffd5	0.32421747
14	0x3e2da9e0	0.16959333
15	0x3d6fee04	0.0585766

resnet_denoiser/level_1/batch_normalization_25/FusedBatchNormV31 f4 [16]
0	0x3f8cb37f	1.0992278
1	0x3f5f3d5f	0.8720302
2	0x3eab5aec	0.33467805
3	0x3f05be47	0.52243465
4	0x3f58778c	0.84557414
5	0x3ef14d6e	0.47129387
6	0x3eb62806	0.3557741
7	0x3f1b425d	0.6064814
8	0x3e694d0c	0.22783297
9	0x3fc0c426	1.505986
10	0x3fa1bd0a	1.2635815
11	0x3f0e0146	0.55470693
12	0x3f095a1a	0.5365311
13	0x3fb2dd23	1.3973736
14	0x3fba43ea	1.4551976
15	0x3ef1e1d4	0.47242606

resnet_denoiser/level_1/batch_normalization_26/FusedBatchNormV3 f4 [16]
0	0xbd326fa6	-0.043563507
1	0xbd859b32	-0.06523742
2	0xbd2d0073	-0.042236757
3	0xbd20c3ac	-0.039249107
4	0xbd3c883b	-0.046028357
5	0xbd7683c6	-0.060184263
6	0xbd78bf54	-0.06072934
7	0xbdcfb668	-0.10142213
8	0xbd52c235	-0.05145474
9	0xbd370024	-0.04467787
10	0xbd785cd8	-0.060635418
11	0xbd1f4507	-0.03888419
12	0xbd4ed1a3	-0.050492894
13	0xbd275435	-0.04085179
14	0xbdaed590	-0.085368276
15	0xbd5cfebe	-0.05395388

resnet_denoiser/level_1/batch_normalization_26/FusedBatchNormV31 f4 [16]
0	0x40b5c16f	5.6798625
1	0x4116085b	9.37704
2	0x412311a2	10.191805
3	0x410e7ed6	8.905966
4	0x40fb3de1	7.8513036
5	0x41147a73	9.279895
6	0x40ca9c97	6.331615
7	0x41337886	11.216925
8	0x40e6f85c	7.2178173
9	0x414dc768	12.861183
10	0x40b225f3	5.5671325
11	0x410fec9d	8.995267
12	0x4148e713	12.556415
13	0x4140e0f2	12.054918
14	0x40b0e7d4	5.5282993
15	0x40b5a15c	5.675947

resnet_denoiser/level_1/batch_normalization_27/FusedBatchNormV3 f4 [32]
0	0xbde03c03	-0.10948946
1	0xbea045af	-0.31303164
2	0xbe48f8ac	-0.19626111
3	0xbe2bb110	-0.16766763
4	0xbdb6bd5f	-0.089228384
5	0xbe41d353	-0.1892827
6	0xbe2a9d33	-0.16661529
7	0xbeb74540	-0.3579502
8	0xbe22b69d	-0.15889974
9	0xb4db5476	-4.0853382e-07
10	0xbe0b2a59	-0.13590373
11	0xbe8899ee	-0.2667994
12	0xbdc3c8f0	-0.0955981
13	0xbe397e41	-0.18114568
14	0xb3e9ca63	-1.0886722e-07
15	0xbec1c559	-0.37845877
16	0xbe094a8e	-0.13407347
17	0xbe2e6d22	-0.17033818
18	0xbe8491ac	-0.2589239
19	0xbe6cc827	-0.23123227
20	0xbdf4b310	-0.11948216
21	0xbe2ce065	-0.16882475
22	0xbe2b3c31	-0.1672218
23	0xbe099bf9	-0.13438405
24	0xbe1ecc82	-0.15507701
25	0xbdcb92df	-0.09940123
26	0xbe39ad5c	-0.18132538
27	0xbd9fe298	-0.07806891
28	0xbe490366	-0.19630203
29	0xbe52381f	-0.20529221
30	0xbdb19fe3	-0.08673074
31	0xbe1bf640	-0.15230656

resnet_denoiser/level_1/batch_normalization_27/FusedBatchNormV31 f4 [32]
0	0x4077475a	3.86373
1	0x40087148	2.1319141
2	0x3f60967f	0.8772964
3	0x3fb6b1f1	1.4273053
4	0x3f9e0544	1.2345357
5	0x40adeb5b	5.43498
6	0x403fc689	2.9964926
7	0x3f45478f	0.77062315
8	0x40149c51	2.3220408
9	0x3fc0fcff	1.5077208
10	0x403e28b9	2.9712355
11	0x40176245	2.365373
12	0x40090529	2.14094
13	0x40bc713d	5.888823
14	0xbfd10d57	-1.6332196
15	0x3f4c291b	0.7975022
16	0x40104e02	2.2547612
17	0x3fe36c75	1.7767473
18	0x40276e82	2.6161199
19	0x3fb57323	1.4175762
20	0x4059a8ab	3.4009197
21	0x406b3b37	3.6754892
22	0x404c2d65	3.1902707
23	0x3fe6e4c1	1.803856
24	0x4033c828	2.8090916
25	0x403504c3	2.8284156
26	0x4004fee3	2.078057
27	0x3fa58377	1.2930745
28	0x400f8a9b	2.2428348
29	0x3fb0db9a	1.3817017
30	0x40842bcf	4.1303477
31	0x40030fcd	2.0478394

resnet_denoiser/level_1/batch_normalization_28/FusedBatchNormV3 f4 [16]
0	0x3e6512bd	0.2237043
1	0x3c513028	0.012767829
2	0xbc9c1f2f	-0.019057838
3	0xbcce9ed9	-0.025222229
4	0x3d776024	0.06039442
5	0x3d1aafda	0.03776536
6	0x3ca5c955	0.020237604
7	0x3dd24ff9	0.1026916
8	0x3e3a8bde	0.18217418
9	0xbd8e510b	-0.069490515
10	0x3d87e071	0.06634606
11	0x3da75562	0.08170582
12	0x3cbb9ef3	0.022902941
13	0x3dfb888b	0.12281903
14	0x3d96be2f	0.073604934
15	0x3d512d64	0.05106868

resnet_denoiser/level_1/batch_normalization_28/FusedBatchNormV31 f4 [16]
0	0x3f2849e0	0.65737724
1	0x3ecd45b2	0.40092236
2	0x3e81dd95	0.25364366
3	0x3eaab49c	0.3334092
4	0x3f0c3f9e	0.5478457
5	0x3f24710a	0.64234984
6	0x3e90cd0f	0.28281447
7	0x3e879faf	0.26489016
8	0x3eab40c4	0.3344785
9	0x3efad8b9	0.4899347
10	0x3f350196	0.70705545
11	0x3eb1ab3f	0.34700963
12	0x3ee05e5c	0.4382199
13	0x3f078364	0.5293486
14	0x3f21ae70	0.63156796
15	0x3ed2e123	0.4118739

resnet_denoiser/level_1/batch_normalization_29/FusedBatchNormV3 f4 [16]
0	0xbc938d57	-0.018011732
1	0xbcfe9776	-0.031078082
2	0xbe60e6d6	-0.21963057
3	0xb46b97a9	-2.1941254e-07
4	0x347adfcf	2.3364485e-07
5	0xbcf184e9	-0.029482322
6	0xbe371ebf	-0.17882822
7	0xbcd7aafa	-0.026326645
8	0xbcdbfd0f	-0.026854066
9	0xbd837def	-0.06420504
10	0xbd29aa36	-0.04142209
11	0xbd32ae99	-0.04362354
12	0xbd5b0f59	-0.053481434
13	0xbf2e8d64	-0.68184495
14	0xbd1a709d	-0.037705053
15	0xbe78ded7	-0.24303757

resnet_denoiser/level_1/batch_normalization_29/FusedBatchNormV31 f4 [16]
0	0x41109645	9.036687
1	0x41152e13	9.323749
2	0x40325d8b	2.7869594
3	0x40146abb	2.3190143
4	0xc016a4e6	-2.3538146
5	0x412884bf	10.532409
6	0x40882011	4.2539144
7	0x413a4be6	11.64353
8	0x416f2ea5	14.948888
9	0x40ec2527	7.379535
10	0x40c747b7	6.2275043
11	0x40c860b0	6.2618027
12	0x40c51328	6.1585884
13	0x4099b3ea	4.803212
14	0x4178218b	15.508189
15	0x40216ee8	2.5223942

resnet_denoiser/level_1/batch_normalization_30/FusedBatchNormV3 f4 [32]
0	0xbe05ec75	-0.13078482
1	0xbdc4d8c4	-0.09611657
2	0x34ff2d4d	4.7530412e-07
3	0xbec6f170	-0.38856077
4	0xbca35272	-0.019936774
5	0xbdb9a1f6	-0.09064095
6	0xbef34969	-0.47516945
7	0xbe784244	-0.24244028
8	0xbeceed61	-0.4041548
9	0xb4f8aba3	-4.6318482e-07
10	0xbe10bdfb	-0.14134972
11	0xbdcbfafe	-0.09959982
12	0xbe17a956	-0.1481069
13	0xb49a7e2d	-2.877654e-07
14	0xbeca99d6	-0.39570493
15	0x3525b2d1	6.17275e-07
16	0xb40b40f7	-1.2969018e-07
17	0xbe085935	-0.1331528
18	0xbd8d847c	-0.06910035
19	0xbd732231	-0.05935878
20	0xb4d3d385	-3.9455713e-07
21	0x34e87853	4.3300915e-07
22	0xbc198e91	-0.009372369
23	0xb483ec94	-2.4572785e-07
24	0xbe4bacab	-0.19890086
25	0xbe20b6d8	-0.1569475
26	0xbe229c33	-0.15879898
27	0x343165eb	1.6521487e-07
28	0xb49ada35	-2.8843502e-07
29	0xb8a8b803	-8.045139e-05
30	0xb4c1f8b3	-3.6130004e-07
31	0xb4cbeac6	-3.7982517e-07

resnet_denoiser/level_1/batch_normalization_30/FusedBatchNormV31 f4 [32]
0	0x3f4087d6	0.7520727
1	0x40e481ae	7.14083
2	0xbf973066	-1.1811645
3	0x3f71f7aa	0.9451853
4	0x4016606a	2.3496346
5	0x40fbb83f	7.866241
6	0x3f465a4c	0.7748153
7	0x3f26fe20	0.65231514
8	0x3f39fc64	0.7265074
9	0x3f98d4d2	1.1939948
10	0x408eb126	4.4591246
11	0x400c69f4	2.1939669
12	0x3f686b56	0.9078878
13	0x3f9cb574	1.2242875
14	0x3fa68f00	1.301239
15	0xbfa3c80d	-1.2795426
16	0x3f5bdc2c	0.8588283
17	0x3f6c696f	0.9234838
18	0x3fe3b3e7	1.7789277
19	0x403318bb	2.7983844
20	0x3f67bf5e	0.9052638
21	0xbf63ffe8	-0.89062357
22	0x408a1963	4.315599
23	0x3f64a98e	0.8932122
24	0x3f7c2454	0.9849293
25	0x3f6df6ad	0.9295452
26	0x3f7175f3	0.943206
27	0xbf6083ed	-0.877013
28	0x3f5f88c2	0.8731805
29	0x41568347	13.40705
30	0x3f6860c3	0.90772647
31	0x3f5faf5b	0.87376946

resnet_denoiser/level_1/batch_normalization_31/FusedBatchNormV3 f4 [16]
0	0xb6910b03	-4.3226187e-06
1	0x3ba2d421	0.0049691354
2	0xbb8cc9ce	-0.004296518
3	0xbbebe7a0	-0.0071992427
4	0x3b6e44a9	0.0036356843
5	0x3c17d8ee	0.009268029
6	0x3c18eec4	0.00933427
7	0x3d04a0b8	0.032379836
8	0x3d92fed4	0.07177511
9	0xbc351b8c	-0.011053931
10	0xb59c9d79	-1.1668736e-06
11	0x3c8bbe61	0.017058553
12	0x3624bec3	2.4548942e-06
13	0xb89bbea5	-7.426486e-05
14	0x35e6ec72	1.720515e-06
15	0x3caaf336	0.020867925

resnet_denoiser/level_1/batch_normalization_31/FusedBatchNormV31 f4 [16]
0	0xb7551c94	-1.2702443e-05
1	0x3e1fc7d3	0.1560357
2	0x3d6a38bc	0.057183012
3	0x3dc2e64b	0.09516581
4	0x3d0715cc	0.03297977
5	0x3e216c46	0.1576396
6	0x3e059305	0.13044365
7	0x3dab0e0f	0.08352291
8	0x3e06f1cb	0.13178174
9	0x3d9f9c18	0.077934444
10	0xb750a1f0	-1.243547e-05
11	0x3d945fff	0.07244872
12	0x3845032b	4.697141e-05
13	0xb9a7d082	-0.00032008073
14	0x3777ae2a	1.4762898e-05
15	0x3e2c5753	0.16830187

resnet_denoiser/level_2/batch_normalization_32/FusedBatchNormV3 f4 [16]
0	0xbf1c4e7d	-0.61057264
1	0x3ee83ca1	0.45358756
2	0xbf85d07f	-1.0454253
3	0xbe1f53a2	-0.15559247
4	0x3e5362b2	0.20643118
5	0xbf147681	-0.5799332
6	0xbe8ab4e5	-0.27091137
7	0x3d8375aa	0.06418927
8	0x3f10e5e6	0.566008
9	0xbefb5127	-0.49085352
10	0x3f23cb2e	0.639819
11	0xbe701a4b	-0.2344753
12	0x3f7d5caf	0.9896955
13	0xbfa41223	-1.2818035
14	0x3ecdc34d	0.40188065
15	0x3f0e0818	0.554811

resnet_denoiser/level_2/batch_normalization_32/FusedBatchNormV31 f4 [16]
0	0x3ed2e6b4	0.41191638
1	0xbf505159	-0.81374127
2	0x411aee45	9.683171
3	0x3eca128b	0.39467272
4	0x3f67c28e	0.9053124
5	0x3f4490e7	0.76783603
6	0x4088962c	4.2683315
7	0x3d10fbd6	0.03539642
8	0x40094bf7	2.1452615
9	0x3febaff3	1.841307
10	0x3e617f85	0.22021301
11	0x3fe5722d	1.7925469
12	0x3ec9715e	0.39344305
13	0x3fafcadc	1.3733783
14	0x3e99a1f4	0.30006373
15	0x3fab1c4a	1.3368008

resnet_denoiser/level_2/batch_normalization_33/FusedBatchNormV3 f4 [16]
0	0xbe99976e	-0.29998344
1	0xbf1d56aa	-0.61460364
2	0xbc935af2	-0.017987702
3	0xbd888dc4	-0.06667665
4	0xbedafb79	-0.42769983
5	0xbe4ef315	-0.20209916
6	0xbe7db041	-0.24774267
7	0xb2956ffb	-1.7396806e-08
8	0xbcfb3511	-0.030664952
9	0xbdc7b8e3	-0.09752061
10	0xbdc0b02a	-0.09408601
11	0xbdc2a2e6	-0.09503727
12	0xbec92b1e	-0.39290708
13	0xbd8d62bf	-0.069036
14	0xbece6bd9	-0.40316656
15	0xbcdda2b3	-0.02705512

resnet_denoiser/level_2/batch_normalization_33/FusedBatchNormV31 f4 [16]
0	0x3feead60	1.864666
1	0x3f44b621	0.76840407
2	0x40e101f8	7.0314903
3	0x3ff980a0	1.9492378
4	0x3ecf9d12	0.40549523
5	0x3f055bfb	0.52093476
6	0x3fb3e450	1.405405
7	0x3e5da271	0.21643998
8	0x40876857	4.231487
9	0x3f809d89	1.0048076
10	0x4075e6b7	3.8422067
11	0x3f903635	1.1266543
12	0x3f1c2562	0.6099454
13	0x3f862ce1	1.0482446
14	0x3ff697db	1.9265093
15	0x3f10b637	0.5652804

resnet_denoiser/level_2/batch_normalization_34/FusedBatchNormV3 f4 [32]
0	0xbe1fd4d8	-0.15608537
1	0xbdc8e3d0	-0.09809077
2	0xbdcf1f17	-0.10113352
3	0xbe8882f3	-0.26662406
4	0xbdc7c779	-0.09754843
5	0xbe05617e	-0.13025472
6	0xbe9cd9c2	-0.30634886
7	0xbe9ba1f5	-0.30397
8	0xbe225c90	-0.15855622
9	0xbca080a4	-0.01959259
10	0xb48f2b70	-2.666743e-07
11	0xbd699610	-0.057027876
12	0xbe49eb60	-0.19718695
13	0xbd5982d7	-0.053103294
14	0xbd7b68b2	-0.061379142
15	0xbe23038e	-0.15919325
16	0xbe641fe1	-0.22277786
17	0xbe247188	-0.16058934
18	0xbf30d292	-0.69071305
19	0xbe946f00	-0.28990936
20	0xbe902c9b	-0.2815903
21	0xbf21fc99	-0.6327606
22	0xbdc811e0	-0.097690344
23	0xbdd589d1	-0.10426677
24	0xbe954708	-0.29155755
25	0xbe5e315c	-0.21698517
26	0xb43c4caf	-1.7536762e-07
27	0xbd22f32c	-0.039782688
28	0xbe04cc5d	-0.12968583
29	0xbe86f3c7	-0.26357862
30	0xbf041910	-0.5160074
31	0xbeeb2df4	-0.45933497

resnet_denoiser/level_2/batch_normalization_34/FusedBatchNormV31 f4 [32]
0	0x3ea1f6b3	0.3163353
1	0x3f0621df	0.52395433
2	0x3f787e8a	0.97068083
3	0x3f1c7edf	0.6113109
4	0x3e912c6c	0.28354204
5	0x3f2d59e5	0.67715293
6	0x3fb83dc0	1.4393845
7	0x3ed8dd7f	0.42356488
8	0x3eb2f2ba	0.3495081
9	0x3f4daa4a	0.80337965
10	0x3e7d62c9	0.24744715
11	0x3ee42296	0.44557637
12	0x3f1e7d37	0.6190981
13	0x3f4abd55	0.7919515
14	0x3ea40f8b	0.32043108
15	0x3ed7b0ed	0.4212717
16	0x3f48004a	0.7812544
17	0x3f05dc33	0.5228912
18	0x3ebfdb83	0.37472162
19	0x3fac4cb0	1.3460903
20	0x3e52fb18	0.20603597
21	0x3f179fda	0.5922829
22	0x3edab3ad	0.42715207
23	0x3e3ee226	0.18640956
24	0x3f9c69e6	1.2219818
25	0x3eed547e	0.46353525
26	0x3de0e15d	0.10980485
27	0x3ee25e45	0.44212547
28	0x3f3be42f	0.73395056
29	0x3f7b340c	0.9812629
30	0x3eb6eac0	0.35725975
31	0x3eca665d	0.39531222

resnet_denoiser/level_2/batch_normalization_35/FusedBatchNormV3 f4 [16]
0	0xbebe838f	-0.37209746
1	0xbf3cce56	-0.73752344
2	0xbe59b59e	-0.21260688
3	0xbe812ce1	-0.25229552
4	0x3e6b502e	0.22979805
5	0xbf998c83	-1.1996006
6	0xbe10dfe6	-0.1414791
7	0x3ff701dd	1.9297444
8	0x3df5141e	0.11966728
9	0xbefd55dc	-0.49479568
10	0x3fe9554c	1.8229156
11	0xbea8add7	-0.3294513
12	0x3eb741b1	0.35792306
13	0xbfd73e85	-1.6815954
14	0x400e5a7b	2.2242725
15	0x3fb01a5b	1.3758043

resnet_denoiser/level_2/batch_normalization_35/FusedBatchNormV31 f4 [16]
0	0x3e808737	0.2510316
1	0x3fa95c2d	1.3231255
2	0x3ffc108a	1.9692547
3	0x3f23d4ec	0.6399677
4	0x3f80ff39	1.0077888
5	0x3fcb4cc5	1.5882803
6	0x400ea909	2.229067
7	0x3f883592	1.0641348
8	0x3ee838cb	0.4535583
9	0x3fed9482	1.8560946
10	0x3f209e08	0.62741137
11	0x40213141	2.5186312
12	0x3e11b417	0.14228855
13	0x3fe69f2a	1.8017323
14	0x3fd49377	1.6607503
15	0x4054284e	3.31496

resnet_denoiser/level_2/batch_normalization_36/FusedBatchNormV3 f4 [16]
0	0xbe4f0320	-0.20216036
1	0xbe8dd1e6	-0.27699202
2	0xbee4dfd5	-0.4470202
3	0xbeab8622	-0.33500773
4	0xbe826e8d	-0.2547497
5	0xbd9dce24	-0.07705334
6	0xbd8c99d9	-0.068652816
7	0xbe79fef2	-0.2441366
8	0xbe19e39f	-0.15028237
9	0xbe48443c	-0.1955728
10	0xbeb49bf6	-0.3527524
11	0xbdbb5fb1	-0.09149111
12	0xbeb8d948	-0.36103272
13	0xbdf32810	-0.11872876
14	0xbe09f4ea	-0.13472334
15	0xbf305fd6	-0.68896234

resnet_denoiser/level_2/batch_normalization_36/FusedBatchNormV31 f4 [16]
0	0x3f6364bd	0.8882559
1	0x3ee20c2a	0.44149905
2	0x3f8b0ae4	1.0862699
3	0x3f07fa1a	0.53116
4	0x3f464636	0.77450883
5	0x3f28da6a	0.65958273
6	0x3f77ef43	0.9684946
7	0x3fe7100b	1.8051771
8	0x3fb7667d	1.4328152
9	0x3f16cc6e	0.58905685
10	0x3f2283fb	0.63482636
11	0x3fd6873e	1.6760023
12	0x40b78cca	5.735936
13	0x3fbb96b0	1.4655361
14	0x403c7f74	2.9452791
15	0x3f32fa6f	0.6991338

resnet_denoiser/level_2/batch_normalization_37/FusedBatchNormV3 f4 [32]
0	0xbe4342b1	-0.1906841
1	0xbc40a3a9	-0.01175777
2	0xbbcb5593	-0.0062052696
3	0xbe1076ac	-0.1410777
4	0xbe742a08	-0.23844159
5	0xbe211861	-0.15731956
6	0xbe422d61	-0.18962623
7	0xbe4deb0e	-0.20109197
8	0xbe04d63a	-0.12972346
9	0xbeaa75f9	-0.3329313
10	0xbdf49241	-0.11941958
11	0xbe561fd5	-0.2091058
12	0xbf0530d9	-0.5202766
13	0xbdedf24c	-0.1161848
14	0xbe8b1340	-0.27163124
15	0xbd96c60d	-0.07361994
16	0xbe0ce280	-0.13758278
17	0xbe6ba7a8	-0.23013175
18	0xbeda81ec	-0.42677248
19	0xbe80920e	-0.2511143
20	0xbeeca059	-0.46216086
21	0xbe803fdd	-0.25048724
22	0xbeaff699	-0.34367827
23	0xbeccedd8	-0.4002521
24	0xbefe1d79	-0.4963186
25	0xbed0ef06	-0.4080736
26	0xbda61fd3	-0.08111539
27	0xbe264df8	-0.1624068
28	0xbd7d5093	-0.06184442
29	0xbe2bed60	-0.1678977
30	0xbd290a5c	-0.041269645
31	0xbeff2a04	-0.49836743

resnet_denoiser/level_2/batch_normalization_37/FusedBatchNormV31 f4 [32]
0	0x3ef95f20	0.48705387
1	0x3eccf5f6	0.40031403
2	0x3ef1928e	0.47182125
3	0x3ef926ed	0.4866251
4	0x3e726b1c	0.23673671
5	0x3e88bcb4	0.2670647
6	0x3f6515ec	0.89486575
7	0x3e955cd8	0.29172397
8	0x3f225782	0.63414776
9	0x3e9b09e5	0.30280986
10	0x3ea82b58	0.3284557
11	0x3e8f4e2a	0.27989322
12	0x3f0611cf	0.52370924
13	0x3e627724	0.22115761
14	0x3efa3b6f	0.4887347
15	0x3f1ebc3c	0.6200597
16	0x3e81c1c5	0.25343147
17	0x3ec87be0	0.3915701
18	0x3fb79fee	1.4345682
19	0x3f21f363	0.63262004
20	0x3e8077c7	0.25091383
21	0x3f1305da	0.57430804
22	0x3ec10a05	0.37702957
23	0x3f31fa89	0.6952291
24	0x3f36fbe5	0.7147811
25	0x3eb8ea17	0.36116096
26	0x3efefc4b	0.4980186
27	0x3ebaee3b	0.3650988
28	0x3eaacca0	0.3335924
29	0x3ea27ed2	0.3173738
30	0x3e83141a	0.25601274
31	0x3f1b888c	0.6075523

resnet_denoiser/level_2/batch_normalization_38/FusedBatchNormV3 f4 [16]
0	0xbd62fcb0	-0.055416763
1	0xbc9ee564	-0.019396491
2	0xbc75b6de	-0.014997212
3	0xbd3891fe	-0.045061104
4	0x3e17b983	0.14816861
5	0xbf30c9ba	-0.6905781
6	0xbd12bb71	-0.03582329
7	0x3f293647	0.66098446
8	0xb7a0c5ab	-1.9165533e-05
9	0xbd8432d2	-0.06455006
10	0x3f5ac2ea	0.85453665
11	0xbd186768	-0.03720799
12	0x3e75110f	0.23932289
13	0xbf3385cb	-0.70126027
14	0x3ff2ec2b	1.8978323
15	0x3db657fc	0.089035004

resnet_denoiser/level_2/batch_normalization_38/FusedBatchNormV31 f4 [16]
0	0x3d192269	0.03738633
1	0x3d0e87da	0.034797527
2	0x3e0e3e8f	0.13891052
3	0x3dea16af	0.11430108
4	0x3f265943	0.6497995
5	0x3f6a1195	0.9143308
6	0x3f107d51	0.5644122
7	0x3eba9eb5	0.3644921
8	0xb898568d	-7.264046e-05
9	0x3e77f42d	0.2421424
10	0x3e96962f	0.29411456
11	0x3e91a3bf	0.2844524
12	0x3dc2d8eb	0.0951403
13	0x3f40591e	0.7513598
14	0x3fb560b8	1.4170141
15	0x3e5bad06	0.21452722

resnet_denoiser/level_2/batch_normalization_39/FusedBatchNormV3 f4 [16]
0	0xbdb21373	-0.08695116
1	0xbe3ff605	-0.18746193
2	0xbda43583	-0.08018019
3	0xbe8b2358	-0.27175403
4	0xbced8b13	-0.02899698
5	0xbd21166c	-0.039328024
6	0xbd30cffb	-0.043167096
7	0xbd71df59	-0.05905089
8	0xbd8b71f0	-0.06808841
9	0xbe0c54d4	-0.13704234
10	0xbe56d400	-0.20979309
11	0xbd89b001	-0.06723023
12	0xbd30935c	-0.043109283
13	0xbcc516ac	-0.024058662
14	0xbd08215c	-0.03323494
15	0xbdedad84	-0.11605361

resnet_denoiser/level_2/batch_normalization_39/FusedBatchNormV31 f4 [16]
0	0x4089638f	4.293403
1	0x3feea911	1.8645345
2	0x40423a9e	3.0348277
3	0x40099849	2.1499197
4	0x3fb4d066	1.4126098
5	0x3f5ca818	0.8619399
6	0x3f76ac26	0.9635643
7	0x408cfd72	4.405938
8	0x3fe0190b	1.7507643
9	0x3fed2b32	1.8528807
10	0x3fc0b142	1.5054095
11	0x3fa7b7a3	1.3102916
12	0x3f10d8c1	0.5658074
13	0x3f518e87	0.81858104
14	0x3fbb1bf6	1.4617908
15	0x4020d312	2.5128827

resnet_denoiser/level_2/batch_normalization_40/FusedBatchNormV3 f4 [32]
0	0xbea66761	-0.32500747
1	0xbe26c0a2	-0.16284421
2	0xbed9276b	-0.42412886
3	0xbf252f22	-0.64525044
4	0xbd8a7980	-0.067614555
5	0xbe94e426	-0.29080313
6	0xbec94091	-0.39307073
7	0xbd3eef8f	-0.04661518
8	0xbe85c72e	-0.26128525
9	0xbeca2ca4	-0.39487183
10	0xbe6fa38c	-0.23402232
11	0xbf183fcc	-0.59472346
12	0xbe1f1932	-0.15536955
13	0xbe920baa	-0.28524524
14	0xbd7aec60	-0.06126058
15	0xbe66edcf	-0.22551654
16	0x3dca85ed	0.098888256
17	0xbdefa536	-0.11701433
18	0xbe5b7dc0	-0.21434689
19	0xbe1f3a14	-0.15549499
20	0xbf255c36	-0.6459383
21	0xbd933241	-0.071873195
22	0xbee71491	-0.45132878
23	0xbe925dce	-0.28587192
24	0xbe58dd30	-0.21178126
25	0xbd1f6828	-0.03891769
26	0xbeacf9c1	-0.33784297
27	0xbeb7383e	-0.35785097
28	0xbf1d7538	-0.61506987
29	0xbe1f2c4b	-0.1554424
30	0xbf36953d	-0.7132147
31	0xbe376f08	-0.17913449

resnet_denoiser/level_2/batch_normalization_40/FusedBatchNormV31 f4 [32]
0	0x3ed7a749	0.42119816
1	0x3fa04a37	1.2522649
2	0x3fcd9927	1.6062363
3	0x3eeb0c39	0.45907763
4	0x3f5ad4e1	0.8548108
5	0x3e8bb768	0.27288365
6	0x3fa2863c	1.2697215
7	0x3f4e0f14	0.8049176
8	0x3f6e2e3d	0.93039304
9	0x3f66a9a7	0.9010262
10	0x3eb1c9bf	0.34724233
11	0x3faaddcc	1.3348937
12	0x3f1dfe17	0.61715835
13	0x3f9e2d75	1.2357622
14	0x3f20186d	0.6253727
15	0x3e9eb271	0.30995515
16	0x3f9934d9	1.1969253
17	0x3ead52bd	0.33852187
18	0x3fcbe6f0	1.5929852
19	0x3f249527	0.6429009
20	0x3f8d4f34	1.1039796
21	0x3f1a8e47	0.6037335
22	0x3f35f418	0.7107558
23	0x4009baa5	2.1520169
24	0x3f19b322	0.6003896
25	0x3f1fcb36	0.6241945
26	0x3f4eab15	0.807298
27	0x3ee9f432	0.4569412
28	0x3ffeed21	1.9916116
29	0x3f8bbaba	1.091636
30	0x3f8deabd	1.1087261
31	0x3e92bfa6	0.2866184

resnet_denoiser/level_2/batch_normalization_41/FusedBatchNormV3 f4 [16]
0	0xbdd4222d	-0.10358081
1	0xbca1b409	-0.019739168
2	0xbc8d3727	-0.017238213
3	0xbd311f25	-0.043242592
4	0x3dfa1013	0.12210097
5	0xbe0cecc4	-0.13762194
6	0xbc66e1ba	-0.014091903
7	0x3f39d822	0.7259542
8	0x3d024a54	0.031809166
9	0xbced0d36	-0.028936964
10	0x3ee926cf	0.4553742
11	0xbdcbae9d	-0.09945414
12	0x3dc10ec6	0.09426646
13	0xbe23b81f	-0.15988205
14	0x3e1d62ec	0.15369767
15	0x3d970874	0.07374659

resnet_denoiser/level_2/batch_normalization_41/FusedBatchNormV31 f4 [16]
0	0x3d8f1d16	0.069879696
1	0x3d110c7b	0.035412293
2	0x3e237fe8	0.15966761
3	0x3de0a440	0.10968828
4	0x3f091524	0.53547883
5	0x3e3a95ea	0.1822125
6	0x3e635a58	0.22202432
7	0x3eccf69a	0.40031892
8	0x3df6e924	0.12056187
9	0x3dde4f1d	0.108549334
10	0x3e207e08	0.15673077
11	0x3f42a452	0.7603198
12	0x3d197f02	0.03747464
13	0x3e2f6a69	0.17130436
14	0x3deb0659	0.1147582
15	0x3e35f46f	0.17769025

resnet_denoiser/level_2/batch_normalization_42/FusedBatchNormV3 f4 [16]
0	0xbe856092	-0.2605024
1	0xbd7151af	-0.05891579
2	0xbdaa5007	-0.08316045
3	0xbdd44fc4	-0.103667766
4	0xbc97e2f0	-0.01854083
5	0xbd6667a8	-0.056251198
6	0xbd5d02f1	-0.053957883
7	0xbd1c0520	-0.038090825
8	0xb1f0d3a8	-7.008982e-09
9	0xbd82de60	-0.06390071
10	0xbd50ff77	-0.05102488
11	0xbd6560e5	-0.05600061
12	0xbd0e1cb3	-0.03469534
13	0xbe39c7b0	-0.18142581
14	0xbcb3f394	-0.021966733
15	0xbd026443	-0.0318339

resnet_denoiser/level_2/batch_normalization_42/FusedBatchNormV31 f4 [16]
0	0x409a808a	4.828191
1	0x40031498	2.048132
2	0x3f0cc24f	0.5498399
3	0x3f5bd049	0.8586469
4	0x4044bf9c	3.074195
5	0x3f5032f9	0.8132778
6	0x3fcf79e9	1.6209079
7	0x403b1227	2.922983
8	0x3e36e19a	0.17859498
9	0x406eaac7	3.7291734
10	0x404cb9de	3.1988444
11	0x402bbe67	2.6834962
12	0x3f7ecb5c	0.9952905
13	0x405dfb05	3.468446
14	0x3fd77314	1.6831994
15	0x40ab2d54	5.349283

resnet_denoiser/level_2/batch_normalization_43/FusedBatchNormV3 f4 [32]
0	0xbdfd777c	-0.123763055
1	0xbe1fbfa6	-0.15600452
2	0xbe5aa82f	-0.2135322
3	0xbe212cdb	-0.15739767
4	0xbe34319c	-0.1759705
5	0xbdd03473	-0.10166254
6	0xbd0b36b6	-0.033987723
7	0xbd32b25e	-0.043627135
8	0xbe3b1e91	-0.18273379
9	0xbdad60d1	-0.08465732
10	0xbe853b5b	-0.26021847
11	0xbe120839	-0.14260949
12	0xbe0e0652	-0.13869599
13	0xbea668bc	-0.3250178
14	0xbe0ff137	-0.1405686
15	0xbe8278b0	-0.25482702
16	0xbde0e5ee	-0.109813556
17	0xbeb7d4bd	-0.35904494
18	0xbea7e2ea	-0.3279031
19	0xbebdd4f7	-0.37076542
20	0xbd348914	-0.04407604
21	0xbdf3f4b5	-0.119119085
22	0xbe0cd1ff	-0.13751982
23	0xbe53f9a3	-0.20700698
24	0xbe53b981	-0.20676233
25	0xbe9e436f	-0.30910823
26	0xbcd67c94	-0.02618245
27	0xbda74764	-0.081679136
28	0xbd614335	-0.054995734
29	0xbd34b699	-0.04411945
30	0xbea11d84	-0.3146783
31	0xbd39cdc2	-0.04536224

resnet_denoiser/level_2/batch_normalization_43/FusedBatchNormV31 f4 [32]
0	0x3f4b0e00	0.7931824
1	0x3ea35a38	0.3190477
2	0x3ff33ef6	1.9003589
3	0x400b9391	2.1808817
4	0x3f3cf673	0.7381355
5	0x3f9d1f58	1.227519
6	0x3ebd10ca	0.36926872
7	0x3ef18f72	0.47179753
8	0x3f748d88	0.9552846
9	0x3f28c084	0.65918756
10	0x4099e624	4.8093433
11	0x3f41e39f	0.7573795
12	0x3f8bf246	1.0933311
13	0x3fd53809	1.6657726
14	0x3f9a6c40	1.2064285
15	0x3ff3f196	1.9058101
16	0x3f8e166f	1.1100596
17	0x40540bdb	3.3132236
18	0x40234ac5	2.5514386
19	0x4078f809	3.8901389
20	0x3f5f0783	0.87120837
21	0x3fd971e1	1.6987878
22	0x3f49610a	0.78663695
23	0x40006ed1	2.0067637
24	0x3fb40c7b	1.4066309
25	0x401a0b84	2.4069529
26	0x3f3761e5	0.7163375
27	0x3f825e87	1.0185097
28	0x3f5b27f4	0.8560784
29	0x3f6977a3	0.91198176
30	0x3f9eb57a	1.2399132
31	0x3f492e00	0.78585815

resnet_denoiser/level_2/batch_normalization_44/FusedBatchNormV3 f4 [16]
0	0xbd9e0386	-0.07715516
1	0xbd9e1897	-0.07719534
2	0xbcb42db3	-0.021994447
3	0xbc295cf2	-0.010337101
4	0x3dd89ab3	0.105763815
5	0xbd26927e	-0.04066705
6	0xbc5b881a	-0.013399148
7	0x3eba7514	0.3641745
8	0x3c964242	0.018342141
9	0xbccd6ee4	-0.02507729
10	0x3e950bff	0.29110715
11	0xbc324f10	-0.010883108
12	0x3dbd00e5	0.09228686
13	0xbe1af1bb	-0.15131275
14	0x3ea858ba	0.32880193
15	0x3d5a3289	0.05327085

resnet_denoiser/level_2/batch_normalization_44/FusedBatchNormV31 f4 [16]
0	0x3d553462	0.05205191
1	0x3e0dd025	0.13848932
2	0x3e509c78	0.20372188
3	0x3cd6cd2e	0.026220884
4	0x3eed7b53	0.4638315
5	0x3d5c8afe	0.05384349
6	0x3e582d1f	0.21110962
7	0x3e4da3b0	0.20081973
8	0x3d8e6055	0.069519676
9	0x3dc0a832	0.09407081
10	0x3dcd3226	0.10019331
11	0x3daa6510	0.083200574
12	0x3d1645d0	0.036687672
13	0x3e260389	0.16212286
14	0x3e7b643c	0.24549955
15	0x3e036f60	0.12835455

resnet_denoiser/level_2/batch_normalization_45/FusedBatchNormV3 f4 [16]
0	0xbcc6ac16	-0.024251979
1	0xbc5204c9	-0.012818524
2	0xbd8ad375	-0.067786135
3	0xbf415bb7	-0.7553057
4	0xbe8ef7f9	-0.27923563
5	0xbf247b29	-0.6425043
6	0xbcb7a842	-0.022419099
7	0xbcddce2b	-0.027075848
8	0xbd069ea2	-0.032866128
9	0xbdb7c29b	-0.08972665
10	0xbcae2415	-0.02125744
11	0xbe37f665	-0.17965086
12	0xbf1643de	-0.5869731
13	0xbc6b74fa	-0.014371151
14	0xbc1df5aa	-0.00964109
15	0xbc9b5a1b	-0.018963864

resnet_denoiser/level_2/batch_normalization_45/FusedBatchNormV31 f4 [16]
0	0x3f2a5e1e	0.6654986
1	0x3f8ae945	1.0852438
2	0x4047ac1d	3.11988
3	0x40c16056	6.0430098
4	0x402c3e3b	2.6912982
5	0x410505b2	8.31389
6	0x3f2172c6	0.63065755
7	0x3f155244	0.5832865
8	0x3eecacde	0.46225637
9	0x3faf081f	1.3674353
10	0x3f139829	0.5765405
11	0x4007e297	2.123205
12	0x40957959	4.671063
13	0x3f9f342a	1.2437794
14	0x3f21e6b1	0.6324263
15	0x3f0f39a5	0.55947334

resnet_denoiser/level_2/batch_normalization_46/FusedBatchNormV3 f4 [32]
0	0xbd3c448c	-0.04596381
1	0xbe79e9f7	-0.24405657
2	0xbebd3ac5	-0.369589
3	0xbd09b0b2	-0.033615775
4	0xbdc54d08	-0.09633833
5	0xbbaa138b	-0.005190318
6	0xbce5b3b2	-0.028039787
7	0xbd032035	-0.032013137
8	0xbc9ddad2	-0.01926938
9	0xbcb4d657	-0.022074861
10	0xbd011dc1	-0.031522516
11	0xbde46ecf	-0.111539476
12	0xbd3589f8	-0.04432103
13	0xbdd7ddb5	-0.10540334
14	0xbd16604d	-0.036712933
15	0xbdb8d239	-0.09024472
16	0xbe83120a	-0.255997
17	0xbc2dfb5b	-0.01061901
18	0xbd5f1eff	-0.05447292
19	0xbdf37c1e	-0.11888908
20	0xbe24e577	-0.16103159
21	0xbccb28fe	-0.02479982
22	0xbdb169f7	-0.08662789
23	0xbe80236f	-0.25027034
24	0xbd7cd431	-0.0617258
25	0xbd51138f	-0.051044043
26	0xbd836113	-0.06415
27	0xbe535d8a	-0.20641151
28	0xbe0744b7	-0.13209806
29	0xbd91f101	-0.07126046
30	0xbd6db598	-0.05803451
31	0xbde438c0	-0.11143637

resnet_denoiser/level_2/batch_normalization_46/FusedBatchNormV31 f4 [32]
0	0x3e6cb405	0.23115547
1	0x3f8234c9	1.0172359
2	0x3f1ea415	0.6196912
3	0x3e2e8b44	0.17045313
4	0x3f88f878	1.0700827
5	0x3f090517	0.5352339
6	0x3e3c6154	0.18396503
7	0x3e6768e0	0.225986
8	0x3e6fa0bc	0.23401159
9	0x3efadf18	0.48998332
10	0x3ed204bc	0.41019237
11	0x3fc5559f	1.5416754
12	0x3e69d9fb	0.22837059
13	0x4006bee0	2.1054
14	0x3f4baa1d	0.7955645
15	0x3f9006c2	1.1252062
16	0x401f5998	2.4898434
17	0x3f98a848	1.1926355
18	0x3fd9f3e2	1.7027552
19	0x3f0241dd	0.5088175
20	0x3f852aba	1.0403664
21	0x3e995105	0.29944625
22	0x3f8fe075	1.1240374
23	0x3fb140d8	1.3847914
24	0x3f525ae1	0.8216992
25	0x3e610ae3	0.21976809
26	0x3f7dc2b5	0.99125224
27	0x40059010	2.0869179
28	0x3f21abd0	0.6315279
29	0x3f36bf6f	0.71385854
30	0x3f3fb17f	0.7488021
31	0x3f8ba4a1	1.0909616

resnet_denoiser/level_2/batch_normalization_47/FusedBatchNormV3 f4 [16]
0	0xbe1451a4	-0.14484268
1	0xbd9f3457	-0.07773655
2	0xbcab8e37	-0.020941837
3	0xbce05d10	-0.027388126
4	0x3dd500c2	0.10400535
5	0xbd6c6f1e	-0.057723157
6	0xbc6e3702	-0.014539482
7	0x3e9c8a90	0.30574465
8	0x3c85775a	0.016292263
9	0xbca9ae90	-0.02071312
10	0x3e86da65	0.26338497
11	0x369da556	4.6982123e-06
12	0x3e7481f5	0.238777
13	0xbde03210	-0.10947049
14	0x3e6cfa51	0.23142363
15	0x3d3be7d1	0.045875374

resnet_denoiser/level_2/batch_normalization_47/FusedBatchNormV31 f4 [16]
0	0x3dc81fa2	0.097716585
1	0x3e0eceab	0.13946025
2	0x3e46a0a3	0.19397216
3	0x3d8e476b	0.06947216
4	0x3ee98887	0.45611975
5	0x3d9c852f	0.0764259
6	0x3e6a92ef	0.22907613
7	0x3e2ca54b	0.1685993
8	0x3d7cede1	0.061750297
9	0x3d9f210f	0.07769977
10	0x3db9a7b1	0.09065188
11	0xb816a61e	-3.5917496e-05
12	0x3dc26724	0.09492329
13	0x3df0366b	0.117291294
14	0x3e30f06e	0.17279217
15	0x3de2605e	0.11053537
