bfcnn/pretrained/unet_laplacian_v6/denoiser_model.tflite (tflite, 724888 bytes, 80 tensors)

hydra/unet_laplacian_backbone/unet_laplacian/conv2d/Conv2D/ReadVariableOp f4 [5, 5, 3, 32]
-0.19933979 -0.16960934 0.026867632 -0.00014173596 0.07307755 -0.2716668 -0.04161447 -0.1784956
-0.061346386 0.110398635 0.061379477 0.21260457 -0.20896757 -0.04913847 -0.024392677 0.05694006
0.13801147 -0.06990279 0.0009683738 0.0037194542 0.036554255 -0.019623619 0.040248767 0.22060984
-0.6101592 -0.06112463 -0.102719285 0.10032724 0.061385762 0.026799418 -0.0028215605 0.002744329
0.019137844 0.10538237 0.028312284 0.004687643 -0.14221701 -0.27454272 0.20445497 0.3251213
0.034153685 0.16172603 0.060486756 0.13661249 0.031244 0.110438064 -0.004930625 0.017480843
0.058693506 -0.07247197 -0.0014883373 0.01514073 0.060688116 -0.062738106 0.17649435 -0.038352393
-0.4588624 -0.16680506 -0.07278951 0.15735061 -0.007682486 0.018094275 0.042572927 -0.3177438
0.05017052 0.06478655 -0.04154453 0.024730125 0.09160718 -0.24772154 -0.17559081 -0.20699126
-0.07332125 -0.01478274 -0.016997034 0.049835667 0.38213468 -0.071481414 -0.03853625 -0.06013562
-0.18540558 0.106691666 -0.012720926 -0.022440031 -0.015832372 -0.20011328 0.14609845 -0.28989625
-0.37031946 0.0005586639 0.100270614 0.0693298 0.09120179 -0.08990597 0.10950934 -0.5068332
-0.089460306 0.23370162 0.07053589 -0.026753865 0.19132641 -0.354717 -0.15365732 -0.19320011
-0.005849594 0.09981766 -0.024701707 0.19797875 -0.4101711 0.06704696 0.062466454 0.11997758
0.038354333 -0.121828705 -0.042472024 -0.014493889 0.05628361 -0.13228087 0.050543893 0.3281494
-0.72462636 -0.12455474 -0.10576396 0.25949112 0.083162226 -0.18042305 0.11833694 -0.05643605
0.059793036 -0.20638789 0.063228264 -0.031308893 -0.19210494 -0.242897 0.15680967 0.19887681
0.070915915 0.15304267 0.0036350458 0.082886145 -0.076565444 0.20663154 0.018527558 0.118273064
0.094128266 -0.21854794 0.09093155 0.032519758 0.0639283 -0.2952839 0.13245685 0.07737058
-0.45982757 -0.2103299 -0.05850892 0.16727169 -0.046941977 0.1587611 0.11267406 -0.40347394
0.053700123 -0.030700713 0.023969999 0.044763505 0.112689525 -0.22309369 -0.2066774 -0.10339043
-0.07294778 -0.09545767 -0.027546404 0.11113059 0.40242866 -0.025177592 -0.025135031 -0.062269673
-0.08995338 0.28387862 -0.07285881 -0.021207133 -0.01136966 -0.30948249 0.21528986 -0.34239674
-0.35591304 0.13297641 0.15914743 0.19470593 0.06360515 0.06348902 0.059184413 -0.5862411
-0.08667706 -0.29671776 0.048240464 -0.06614285 0.10439129 -0.26236627 -0.18895581 -0.20466721
-0.030122817 0.016764604 -0.112026244 0.14727044 -0.470269 0.070208654 0.079921804 0.1562453
-0.008384373 0.03250494 -0.104613304 -0.0736365 0.02117927 -0.111028604 0.02579966 0.4832409
-0.67388 -0.07514382 -0.1154788 0.21405236 0.0054761474 0.2084601 -0.05328031 -0.1090576
0.038773157 0.2671365 0.041335184 -0.077948466 -0.31425014 -0.21885164 0.23846684 0.4215801
0.080147386 0.12843028 -0.1066349 0.14134562 -0.08458613 0.15101284 0.046314605 0.025257744
0.10129992 -0.29574636 0.12203684 0.06362558 0.074280865 -0.20567863 0.11934036 0.09827694
-0.5222221 -0.16648301 -0.10544482 0.17384121 -0.12954535 -0.28475645 -0.10613001 -0.40404427
00000000: bb1f 4cbe 12ae 2dbe 8219 dc3c f59e 14b9
00000010: afa9 953d e917 8bbe ef73 2abd 8dc7 36be
00000020: 5946 7bbd ae18 e23d 0c69 7b3d 03b5 593e
00000030: 98fb 55be 6c45 49bd 27d3 c7bc fb39 693d
00000040: e152 0d3e 3229 8fbd 77da 7d3a 16c2 733b
00000050: eab9 153d b6c1 a0bc e4db 243d 8ce7 613e
00000060: 6533 1cbf d25d 7abd 7d5e d2bd 5e78 cd3d
00000070: a36f 7b3d 748a db3c eee9 38bb 33da 333b
00000080: f8c6 9c3c b6d2 d73d 2aef e73c cd9a 993b
00000090: 56a1 11be dd90 8cbe a55c 513e 4d76 a63e
000000a0: bce4 0b3d 829b 253e f6c0 773d 25e4 0b3e
000000b0: 6bf3 ff3c 5a2d e23d 1591 a1bb fc33 8f3c
000000c0: 9a68 703d 2f6c 94bd 5014 c3ba d310 783c
000000d0: 1a94 783d d67c 80bd efba 343e 6617 1dbd
000000e0: 03f0 eabe f2ce 2abe ab12 95bd 8520 213e
000000f0: 5dbd fbbb 723a 943c f360 2e3d 51af a2be
00000100: 9a7f 4d3d d0ae 843d 992a 2abd d596 ca3c
00000110: 8c9c bb3d b7aa 7dbe 14ce 33be 84f5 53be
00000120: 7429 96bd 4e33 72bc 5d3d 8bbc 7c20 4c3d
00000130: 28a7 c33e d964 92bd 30d8 1dbd c550 76bd
00000140: f6da 3dbe 2981 da3d 6e6b 50bc 28d4 b7bc
00000150: e4b2 81bc 7fea 4cbe d59a 153e 486d 94be
00000160: 839a bdbe 4d73 123a ae5a cd3d c8fc 8d3d
00000170: 01c8 ba3d 9f20 b8bd 6f46 e03d d2bf 01bf
00000180: f736 b7bd 7a4f 6f3e 1f75 903d ec2a dbbc
00000190: 12eb 433e 779d b5be 5858 1dbe 40d6 45be
000001a0: f3ad bfbb 346d cc3d 3c5b cabc f1ba 4a3e
000001b0: f201 d2be eb4f 893d d3dc 7f3d ceb6 f53d
000001c0: 6f19 1d3d 5481 f9bd 25f7 2dbd c777 6dbc
000001d0: a589 663d a374 07be 1d07 4f3d 3303 a83e
000001e0: 1d81 39bf 8e16 ffbd c69a d8bd 05dc 843e
000001f0: f550 aa3d d2c0 38be a35a f23d 7d29 67bd
00000200: 8be9 743d 5957 53be d27d 813d c13d 00bd
00000210: 28b7 44be feb9 78be b792 203e 5da6 4b3e
00000220: 5d3c 913d 38b7 1c3e f339 6e3b 36c0 a93d
00000230: 58ce 9cbd 3897 533e 1bc7 973c 2639 f23d
00000240: 52c6 c03d 08cb 5fbe 523a ba3d 7033 053d
00000250: d7ec 823d 742f 97be c5a2 073e 7774 9e3d
00000260: 856e ebbe b960 57be 0da7 6fbd 4549 2b3e
00000270: 3b46 40bd 4592 223e a8c1 e63d 2394 cebe
00000280: a9f4 5b3d 1080 fbbc bb5c c43c f059 373d
00000290: c4c9 e63d ac72 64be 3ea3 53be 5dbe d3bd
000002a0: a565 95bd 507f c3bd ffa8 e1bc 6f98 e33d
000002b0: 210b ce3e 3d41 cebc fbe7 cdbc 7c0e 7fbd
000002c0: 7a39 b8bd 8a58 913e 0037 95bd 95ba adbc
000002d0: cf47 3abc 7d74 9ebe f274 5c3e a04e afbe
000002e0: 3c3a b6be f82a 083e 8bf7 223e fe60 473e
000002f0: 6b43 823d 8806 823d 5b6b 723d e613 16bf
00000300: be83 b1bd 64eb 97be cb97 453d e775 87bd
00000310: 1acb d53d df54 86be a27d 41be 4894 51be
00000320: 20c4 f6bc ec55 893c 046e e5bd 10ce 163e
00000330: 19c7 f0be 8ec9 8f3d 0bae a33d c5fe 1f3e
00000340: 9c5e 09bc e623 053d 803f d6bd bcce 96bd
00000350: 2680 ad3c f762 e3bd cf59 d33c 5a6b f73e
00000360: 6683 2cbf 01e5 99bd 2680 ecbd 8b30 5b3e
00000370: 4171 b33b 9176 553e 743c 5abd 9759 dfbd
00000380: 9ad0 1e3d 1ec6 883e 154f 293d 72a3 9fbd
00000390: 65e5 a0be a51a 60be a730 743e 59d9 d73e
000003a0: 5024 a43d 3a83 033e 6663 dabd e8bc 103e
000003b0: 7e3b adbd 1ca3 1a3e 62b4 3d3d 54e9 ce3c
000003c0: 5576 cf3d 116c 97be 73ee f93d 214e 823d
000003d0: 9120 983d 6b9d 52be b868 f43d 6c45 c93d
000003e0: 59b0 05bf 867a 2abe 74f3 d7bd 6e03 323e
000003f0: 89a7 04be 99cb 91be b15a d9bd e4de cebe

hydra/unet_laplacian_backbone/unet_laplacian/convolutional_self_attention_1/layer_normalization_9/mul_4/ReadVariableOp f4 [128]
0.972433 0.8849146 0.008994968 1.4479792 2.0114107 0.38659036 0.31581917 1.5749909
0.2903978 0.030917084 0.6277884 2.6223216 0.2069119 1.4493129 0.7085381 0.24450573
0.7665186 0.43108025 0.22033794 0.2523873 2.1373541 0.86898667 0.295104 0.35131374
0.5939734 1.998392 0.019075427 0.48542482 0.39959234 0.83308285 0.26777926 1.1455328
1.9666188 0.4957348 0.9580268 2.0591094 0.34531495 0.688962 0.120673195 0.6011406
0.08811508 0.773106 0.90190285 -0.0010642214 0.022505343 1.2643042 0.12619098 1.369618
0.6024418 0.8532479 0.40048724 0.54035926 0.64925927 0.36264795 1.512852 0.22346944
0.49216136 0.3175352 0.08531816 0.56275314 0.25850436 0.39841324 0.95890003 1.0976479
0.3522432 1.0022858 0.40595 0.5740672 0.89153063 0.5060448 0.45812297 0.1954432
0.35546163 0.5689736 0.3755257 0.5903637 0.2622741 0.5257102 1.4167721 0.8299709
0.32649007 0.18985136 0.5126443 0.41138896 2.1420188 -0.004444802 0.75271887 3.2345529
0.054721486 2.1571689 0.53426224 1.3435469 2.1874554 1.6615483 1.9367163 1.146572
0.4272545 0.2782086 -0.002726563 1.9208761 0.060160708 1.0415365 1.2241402 0.092623524
0.37651244 0.30551398 0.21878627 0.48374996 0.36632478 0.47794488 0.58940697 -0.0030063244
0.10373645 0.78476465 0.6208169 1.4396371 0.39753246 1.0378847 0.49671566 1.3823831
0.20261487 0.46769467 0.18858913 0.96907777 0.52195567 0.3993495 0.48362294 0.12533636
00000000: 5ef1 783f c389 623f a15f 133c 6257 b93f
00000010: f4ba 0040 2cef c53e 0db3 a13e 4d99 c93f
00000020: 05af 943e d345 fd3c beb6 203f 1ed4 2740
00000030: b7e0 533e 1683 b93f c162 353f b65f 7a3e
00000040: 903a 443f 8db6 dc3e 45a0 613e e838 813e
00000050: 69ca 0840 e975 5e3f df17 973e 65df b33e
00000060: a40e 183f 4fcb ff3f 1244 9c3c 9a89 f83e
00000070: 5e97 cc3e eb44 553f 5d1a 893e d2a0 923f
00000080: 2aba fb3f f4d0 fd3e 3f41 753f 73c8 0340
00000090: 1fcd b03e d05f 303f 8223 f73d 5ae4 193f
000000a0: ae75 b43d 46ea 453f 1be3 663f 587d 8bba
000000b0: 205d b83c b8d4 a13f 3538 013e a54f af3f
000000c0: a039 1a3f 746e 5a3f aa0c cd3e fc54 0a3f
000000d0: db35 263f feac b93e 22a5 c13f 2cd5 643e
000000e0: 93fc fb3e f993 a23e 4abb ae3d 9710 103f
000000f0: af5a 843e d2fc cb3e 797a 753f ba7f 8c3f
00000100: 3959 b43e e74a 803f aed8 cf3e 11f6 123f
00000110: 5a3b 643f 278c 013f 188f ea3e 4322 483e
00000120: 11ff b53e 41a8 113f e844 c03e 1322 173f
00000130: ca48 863e f294 063f ca58 b53f f978 543f
00000140: b529 a73e 6568 423e a83c 033f 93a1 d23e
00000150: d616 0940 b4a5 91bb 2fb2 403f ea02 4f40
00000160: a323 603d 0e0f 0a40 69c5 083f 58f9 ab3f
00000170: 45ff 0b40 9dad d43f 52e6 f73f dfc2 923f
00000180: 1ac1 da3e 5c71 8e3e 23b0 32bb 45df f53f
00000190: 136b 763d 1151 853f a0b0 9c3f 67b1 bd3d
000001a0: 3dc6 c03e 546c 9c3e 8209 603e 13ae f73e
000001b0: ec8e bb3e 31b5 f43e 60e3 163f c105 45bb
000001c0: c773 d43d 56e6 483f dbed 1e3f 0746 b83f
000001d0: 6089 cb3e 68d9 843f 8451 fe3e eef1 b03f
000001e0: 467a 4f3e ad75 ef3e 821d 413e 7b15 783f
000001f0: e39e 053f 8a77 cc3e 6d9d f73e 2d58 003e

hydra/unet_laplacian_backbone/unet_laplacian/convolutional_self_attention_2/layer_normalization_10/mul_4/ReadVariableOp f4 [128]
0.4553653 0.9849844 0.23900042 1.0342411 2.2253785 0.41318932 0.53572226 1.4933714
0.25879434 0.0033431784 0.6852557 1.0984952 0.19996664 1.0790834 0.5274251 0.003451718
0.7833659 -0.010778461 0.2274531 0.28626937 1.8203104 0.6613847 0.007733508 0.4531447
0.436672 2.128213 0.24776627 0.8411974 1.3226205 0.5357716 0.18897049 0.713883
1.5258228 0.51158416 0.8445812 2.1782203 1.3051025 0.6535215 0.42038676 0.37035382
0.015861573 0.45611468 0.3315814 0.0035234597 0.30789834 0.858691 0.27542934 0.9968899
0.00010190126 0.60990167 0.14921449 0.26805663 0.5543877 0.43455765 1.5300853 0.16224888
0.24156718 1.3168037 0.00064637314 0.97194993 1.3783387 0.53671575 0.6742957 0.9176874
0.43302435 0.5164872 0.34304807 0.49041733 0.7148915 1.9029204 0.8041401 0.5487858
0.41009298 0.19978061 0.12343813 0.37978044 0.59516615 0.45887148 0.87670505 0.8018464
0.3000636 0.0053304327 0.3907955 0.26171812 2.2060554 0.03342711 0.39893553 1.7296128
0.60754025 1.4797938 0.8708182 0.85292053 1.3348441 1.506198 0.98740166 0.66955656
0.3373148 0.28785115 0.06253491 1.724258 1.9588617e-05 1.1555395 0.77055794 0.3918579
0.35722676 0.28270954 0.46795258 0.0044987504 0.71006584 -0.008261816 0.12340632 0.48559514
0.37436548 1.442811 0.27088255 1.7460382 0.733519 0.48969644 0.25335562 1.4569818
0.3982063 0.43797445 0.24627955 0.61763436 0.47819397 0.6429009 0.28368762 0.6098927
00000000: a425 e93e f027 7c3f 87bc 743e 0362 843f
00000010: 9a6c 0e40 8d8d d33e 1825 093f cb26 bf3f
00000020: b180 843e 3a19 5b3b eb6c 2f3f 7e9b 8c3f
00000030: 0ec4 4c3e 681f 8a3f 5505 073f 3836 623b
00000040: ab8a 483f 2498 30bc 77e9 683e e691 923e
00000050: eeff e83f 8250 293f 5e69 fd3b 9502 e83e
00000060: 7993 df3e a434 0840 71b6 7d3e b658 573f
00000070: a14b a93f 5428 093f 7b81 413e 09c1 363f
00000080: 294e c33f 2ef7 023f 7936 583f f667 0b40
00000090: 990d a73f 2f4d 273f ef3c d73e 049f bd3e
000000a0: 21f0 813c dd87 e93e 0ac5 a93e d8e9 663b
000000b0: daa4 9d3e 2cd3 5b3f 1305 8d3e 2d34 7f3f
000000c0: d3b3 d538 8422 1c3f afcb 183e b83e 893e
000000d0: 5aec 0d3f 577e de3e d6d9 c33f 9224 263e
000000e0: 635d 773e 068d a83f 5e71 293a b6d1 783f
000000f0: 676d b03f 3466 093f a59e 2c3f 90ed 6a3f
00000100: 5eb5 dd3e 8138 043f ffa3 af3e fb17 fb3e
00000110: 2103 373f e592 f33f 20dc 4d3f 3a7d 0c3f
00000120: b5f7 d13e 4a93 4c3e 21cd fc3d 9572 c23e
00000130: cf5c 183f 34f1 ea3e be6f 603f ce45 4d3f
00000140: f0a1 993e e9aa ae3b 5916 c83e ebff 853e
00000150: 0330 0d40 deea 083d 4741 cc3e f463 dd3f
00000160: c287 1b3f e269 bd3f f1ed 5e3f 0059 5a3f
00000170: 2cdc aa3f 19cb c03f 5bc6 7c3f 0f68 2b3f
00000180: 87b4 ac3e 3a61 933e 4e12 803d 7cb4 dc3f
00000190: 3c52 a437 b8e8 933f 4943 453f 99a1 c83e
000001a0: 6de6 b63e 4ebf 903e 7b97 ef3e 416a 933b
000001b0: e0c6 353f 915c 07bc 74bc fc3d ed9f f83e
000001c0: d5ac bf3e 08ae b83f 1eb1 8a3e 2e7e df3f
000001d0: e7c7 3b3f 7eb9 fa3e d4b7 813e 617e ba3f
000001e0: b2e1 cb3e 303e e03e b530 7c3e 491d 1e3f
000001f0: d7d5 f43e 2795 243f 813f 913e ee21 1c3f

hydra/unet_laplacian_backbone/unet_laplacian/convolutional_self_attention/layer_normalization_8/mul_4/ReadVariableOp f4 [128]
1.1558504 0.81043357 0.42968908 0.48712558 1.7321746 1.0026133 1.3709376 0.96671766
1.5144955 0.56757665 0.39512172 1.9363006 0.5018787 1.2739416 -0.0048906044 0.5405359
0.6341229 0.9868113 0.56995964 0.3175725 0.93352157 0.51534027 0.19828211 0.00078469154
1.0121899 1.4198056 0.50483894 1.1701827 0.7642793 1.8536096 1.1188236 1.7708297
1.174519 1.2655101 2.2839208 0.80201614 1.0992492 1.974752 0.4026692 1.4477781
0.288446 0.78853726 0.9674871 0.8844138 0.7134103 1.6829224 0.90167683 1.1752058
0.55767256 0.71805465 0.34976912 1.6089375 0.88358253 0.5810778 1.8791844 1.0671992
1.1573844 1.0638747 1.594381 0.8082895 0.7565296 1.6682018 1.0009476 -5.215426e-05
0.77168775 1.4885017 0.8261051 0.8971183 0.23861867 0.9999866 0.82713544 0.4912139
0.9029658 0.29115096 0.6700304 0.71125126 0.28444585 0.5004042 0.0021933143 0.5243332
0.73457074 0.57632476 0.58346856 1.8198705 2.2141879 0.7334419 0.19571714 0.00056429533
0.30221185 1.0477635 0.25185 1.2963634 2.3772547 1.1149923 3.1223967 1.9724318
0.07094123 0.557414 0.52970463 2.4814355 0.001970223 2.4111207 0.7335728 0.32229328
0.71418154 0.5075628 1.051898 0.5903703 0.3980725 0.5201492 0.7505567 0.9048855
0.45401368 0.7063699 0.6013001 1.333134 0.5569139 0.8350924 -0.0007946552 1.333973
1.4486277 0.75880015 0.36582363 1.5536088 1.1914473 0.62947375 1.7616976 0.851366
00000000: e8f2 933f 9378 4f3f 3500 dc3e 8668 f93e
00000010: e6b7 dd3f a255 803f e27a af3f cf7a 773f
00000020: fdda c13f b44c 113f 654d ca3e b3d8 f73f
00000030: 1f7b 003f 8510 a33f 5d41 a0bb 9060 0a3f
00000040: e155 223f aa9f 7c3f e0e8 113f dd98 a23e
00000050: 45fb 6e3f 57ed 033f 770a 4b3e c2b3 4d3a
00000060: 708f 813f 31bc b53f 203d 013f 8cc8 953f
00000070: cfa7 433f 1443 ed3f 9d35 8f3f 8caa e23f
00000080: a356 963f 3cfc a13f c22b 1240 ee50 4d3f
00000090: 33b4 8c3f acc4 fc3f a82a ce3e cb50 b93f
000000a0: 32af 933e 94dd 493f 3cad 773f f168 623f
000000b0: 0fa2 363f 006a d73f 4bd4 663f 256d 963f
000000c0: a1c3 0e3f 6ed2 373f f014 b33e aaf1 cd3f
000000d0: 7732 623f 84c1 143f 1d89 f03f fc99 883f
000000e0: 2c25 943f 0c2d 883f ad14 cc3f 10ec 4e3f
000000f0: edab 413f a387 d53f 0d1f 803f 36c0 5ab8
00000100: 548d 453f 3987 be3f a07b 533f 8ba9 653f
00000110: 7458 743e 1fff 7f3f 26bf 533f 6380 fb3e
00000120: c428 673f bd11 953e 1d87 2b3f 9014 363f
00000130: e3a2 913e 7d1a 003f b5bd 0f3b b33a 063f
00000140: d40c 3c3f 058a 133f 325e 153f 84f1 e83f
00000150: 41b5 0d40 d9c2 3b3f 136a 483e 38ed 133a
00000160: 83bb 9a3e 1d1d 863f 7cf2 803e 3cef a53f
00000170: f124 1840 11b8 8e3f 59d5 4740 a578 fc3f
00000180: a349 913d afb2 0e3f b99a 073f d7cf 1e40
00000190: db1e 013b cd4f 1a40 6dcb 3b3f a003 a53e
000001a0: 9ad4 363f a3ef 013f 98a4 863f 8222 173f
000001b0: 29d0 cb3e 7f28 053f 7c24 403f 93a6 673f
000001c0: 7b74 e83e a8d4 343f ceee 193f 23a4 aa3f
000001d0: e991 0e3f 9ec8 553f 6850 50ba a1bf aa3f
000001e0: a26c b93f ba40 423f 3c4d bb3e a7dc c63f
000001f0: 5881 983f 3125 213f 4f7f e13f 1ff3 593f

hydra/unet_laplacian_backbone/unet_laplacian/decoder_0_0/layer_normalization_16/mul_4/ReadVariableOp f4 [32]
0.873056 0.6910848 1.2514265 2.1228187 4.6182346 1.8017374 1.4751102 2.0417671
3.4250503 0.37819177 1.0376508 2.4525247 0.86853236 2.019969 2.975765 1.1950299
1.2466037 3.4139843 1.4457692 0.8589907 1.2265424 2.090413 1.4931761 2.3577976
0.6058447 1.5990126 0.277997 2.2802162 1.7313308 3.0571618 3.7226572 1.5220925
00000000: 9980 5f3f efea 303f be2e a03f 43dc 0740
00000010: 94c8 9340 559f e63f 69d0 bc3f 50ac 0240
00000020: 0634 5b40 5aa2 c13e bed1 843f 2af6 1c40
00000030: 2358 5e3f 2c47 0140 ef72 3e40 bdf6 983f
00000040: b690 9f3f b87e 5a40 f70e b93f d1e6 5b3f
00000050: 57ff 9c3f 54c9 0540 6520 bf3f 28e6 1640
00000060: a318 1b3f 72ac cc3f 9f55 8e3e 10ef 1140
00000070: 3f9c dd3f 8aa8 4340 0440 6e40 edd3 c23f

hydra/unet_laplacian_backbone/unet_laplacian/decoder_0_1/layer_normalization_17/mul_4/ReadVariableOp f4 [32]
0.5866339 0.40371418 1.439378 2.250285 1.7056657 1.3262556 1.4506096 1.2639617
2.5242543 0.6425436 0.6718111 1.6531478 1.5456015 1.6038744 2.100994 2.7823544
0.8924831 2.167704 0.67220724 0.79081315 0.77956563 1.2949804 1.313794 1.1692457
0.042846013 1.5989077 0.06593696 2.1749997 1.4330517 1.9630132 1.2133207 0.8892371
00000000: a42d 163f a0b3 ce3e 8a3d b83f ab04 1040
00000010: 4153 da3f bec2 a93f 93ad b93f 7fc9 a13f
00000020: 628d 2140 bd7d 243f d0fb 2b3f 599a d33f
00000030: 45d6 c53f c24b cd3f b076 0640 1812 3240
00000040: c679 643f aabb 0a40 c615 2c3f bb72 4a3f
00000050: 9d91 473f ebc1 a53f 672a a83f d8a9 953f
00000060: 4d7f 2f3d 02a9 cc3f f509 873d 3233 0b40
00000070: 3d6e b73f 0444 fb3f 184e 9b3f 0ba5 633f

hydra/unet_laplacian_backbone/unet_laplacian/decoder_0_2/layer_normalization_18/mul_4/ReadVariableOp f4 [32]
0.11288672 0.66616845 1.4810762 1.5895823 1.7351137 1.1237761 0.5969834 0.8672817
1.5953418 0.19463429 0.25453973 1.4670752 0.6842535 0.79544497 1.694043 2.4154098
0.44544297 1.471994 0.0850753 0.556072 0.35213244 1.4607555 1.1289645 0.0022164576
0.0007086998 0.6085471 -0.00046101573 1.213691 1.6543771 1.5429009 0.75821996 0.5015911
00000000: 2731 e73d 048a 2a3f e893 bd3f 6f77 cb3f
00000010: 3518 de3f e5d7 8f3f e7d3 183f 2c06 5e3f
00000020: 2934 cc3f 364e 473e 0853 823e 1fc9 bb3f
00000030: 3d2b 2f3f 48a2 4b3f 67d6 d83f 1396 1a40
00000040: 1a11 e43e 4d6a bc3f f53b ae3d bc5a 0e3f
00000050: b44a b43e 09fa ba3f e981 903f fd41 113b
00000060: 0ac8 393a bec9 1b3f 7cb4 f1b9 3a5a 9b3f
00000070: a1c2 d33f c77d c53f b41a 423f 4668 003f

hydra/unet_laplacian_backbone/unet_laplacian/decoder_1_0/layer_normalization_12/mul_4/ReadVariableOp f4 [64]
1.4202569 4.6702666 3.4959543 2.5137906 2.0299916 0.9434747 0.23965584 1.5012217
5.079456 2.960766 2.014918 1.2935152 1.5742457 2.2451203 1.2210963 4.2145953
3.523707 0.372563 1.5471205 1.1717539 1.6640395 2.0652847 1.5064794 1.7930574
3.5636246 2.9597664 3.1222963 3.640375 2.2678046 0.45972797 1.1411428 1.5845186
1.6992425 0.586372 2.2028375 1.5950106 1.5112531 0.41111374 2.6978607 2.498432
1.6127317 2.392161 4.38824 1.1948715 2.0560634 3.4468002 3.404355 2.0803223
0.46851054 2.4043117 2.7348378 2.300925 3.0080857 2.9860585 1.5664555 4.4419513
2.6213813 0.22876428 3.9552782 1.5920713 2.9274442 1.4348849 1.5992279 3.627041
00000000: faca b53f d372 9540 b7bd 5f40 f2e1 2040
00000010: 62eb 0140 8f87 713f 5768 753e 0828 c03f
00000020: e78a a240 317d 3d40 6bf4 0040 e891 a53f
00000030: e280 c93f 0db0 0f40 e24c 9c3f f7dd 8640
00000040: 6a84 6140 94c0 be3e 0b08 c63f 08fc 953f
00000050: 3fff d43f a02d 0440 51d4 c03f e882 e53f
00000060: 6d12 6440 d06c 3d40 b4d3 4740 e7fb 6840
00000070: b623 1140 7761 eb3e f810 923f 81d1 ca3f
00000080: c780 d93f 7a1c 163f 4afb 0c40 4f29 cc3f
00000090: be70 c13f 807d d23e c0a9 2c40 4fe6 1f40
000000a0: fe6d ce3f 2a19 1940 766c 8c40 8df1 983f
000000b0: 8b96 0340 6098 5c40 f4e0 5940 0024 0540
000000c0: 9de0 ef3e 3ee0 1940 9507 2f40 5b42 1340
000000d0: 7a84 4040 951b 3f40 9d81 c83f 7724 8e40
000000e0: b6c4 2740 2f41 6a3e 4723 7d40 fec8 cb3f
000000f0: 3f5b 3b40 4faa b73f 80b3 cc3f 7121 6840

hydra/unet_laplacian_backbone/unet_laplacian/decoder_1_1/layer_normalization_13/mul_4/ReadVariableOp f4 [64]
1.6768277 2.4425378 2.4065282 0.7825607 1.5062274 1.1037788 0.93288344 1.2365419
3.6481152 1.5998513 2.6231883 1.5050027 1.1943806 2.9549103 0.33184135 2.1247818
3.185862 0.000992235 2.4350631 1.0196706 3.1526103 0.99058175 0.5081191 0.8668183
2.5461884 1.6007358 2.213843 1.4405614 2.6012244 0.0026305774 1.8456444 1.1010822
1.070749 0.32618228 1.6747663 1.1777072 1.3748121 2.055111 2.0438194 1.7267357
0.5620104 1.7857721 3.053343 1.118122 1.6351103 2.6424766 2.641234 0.5468989
2.293218 1.1871755 2.7637792 1.4554554 1.6837922 2.110103 1.7069823 1.958109
0.08905468 0.90906054 1.3842335 0.36172858 1.0587977 1.8530679 1.643445 1.8989912
00000000: 4aa2 d63f 8a52 1c40 8f04 1a40 e655 483f
00000010: 0fcc c03f a048 8d3f 73d1 6e3f 0147 9e3f
00000020: b87a 6940 edc7 cc3f 51e2 2740 eea3 c03f
00000030: 77e1 983f 401d 3d40 1ce7 a93e 6dfc 0740
00000040: 2ae5 4b40 e20d 823a 13d8 1b40 9184 823f
00000050: 5ec4 4940 c496 7d3f 1814 023f cee7 5d3f
00000060: c0f4 2240 e9e4 cc3f 9baf 0d40 5164 b83f
00000070: 767a 2640 c465 2c3b 133e ec3f 43f0 8c3f
00000080: 4e0e 893f 5d01 a73e be5e d63f 1cbf 963f
00000090: d8f9 af3f f086 0340 f0cd 0240 ad05 dd3f
000000a0: eadf 0f3f 2e94 e43f f969 4340 9f1e 8f3f
000000b0: 4b4b d13f 561e 2940 fa09 2940 9101 0c3f
000000c0: 15c4 1240 5ef5 973f c2e1 3040 5d4c ba3f
000000d0: 8186 d73f ed0b 0740 657e da3f 51a3 fa3f
000000e0: 4d62 b63d 31b8 683f 902e b13f 7d34 b93e
000000f0: af86 873f 5431 ed3f 685c d23f 2512 f33f

hydra/unet_laplacian_backbone/unet_laplacian/decoder_1_2/layer_normalization_14/mul_4/ReadVariableOp f4 [64]
-0.88695484 1.5872097 1.5607729 0.5713686 1.390955 1.4149426 -0.026638914 0.78592926
1.8876389 1.1168722 1.424119 0.6370075 -0.10271685 1.931122 0.022858648 1.4273583
2.28824 0.08788752 1.7402472 0.6475483 2.401277 0.0031658902 0.026479473 -0.36721754
1.5681775 1.1135195 1.410681 1.3745767 1.6837202 -0.026164902 1.1123042 0.17908818
0.12538753 0.01882784 -0.83003676 0.94664294 1.1456966 1.3169476 1.2431049 1.1050003
-0.00027225458 -1.1134523 2.2372673 -0.28558514 0.85695535 1.3350306 1.6135697 0.0028561044
1.3100725 0.24427548 1.635693 1.1422528 1.3537283 1.4728893 1.4198394 1.8068241
0.49268603 0.7631611 1.271047 -0.009946606 0.9173035 0.90141386 1.070241 1.0453147
00000000: 790f 63bf b029 cb3f 68c7 c73f 3645 123f
00000010: d00a b23f d71c b53f da39 dabc a932 493f
00000020: 279e f13f abf5 8e3f 8849 b63f ec12 233f
00000030: 365d d2bd 012f f73f 0f42 bb3c adb3 b63f
00000040: 8672 1240 5ffe b33d 6cc0 de3f bac5 253f
00000050: 86ae 1940 d37a 4f3b 7beb d83c f003 bcbe
00000060: 0aba c83f cf87 8e3f 3291 b43f 21f2 af3f
00000070: 2584 d73f c757 d6bc fc5f 8e3f e462 373e
00000080: 9765 003e d83c 9a3c 4a7d 54bf 3157 723f
00000090: 30a6 923f bd91 a83f 101e 9f3f a670 8d3f
000000a0: 64bd 8eb9 9b85 8ebf 632f 0f40 3738 92be
000000b0: 6d61 5b3f 48e2 aa3f 7489 ce3f 7b2d 3b3b
000000c0: 75b0 a73f 5a23 7a3e 635e d13f 5735 923f
000000d0: f846 ad3f a387 bc3f 4cbd b53f 0346 e73f
000000e0: 5841 fc3e 875e 433f abb1 a23f 17f7 22bc
000000f0: 67d4 6a3f 0fc3 663f a8fd 883f dfcc 853f

hydra/unet_laplacian_backbone/unet_laplacian/encoder_0_0/layer_normalization/mul_4/ReadVariableOp f4 [32]
1.2372304 1.2241393 1.6658857 1.690815 1.3765811 1.1446878 1.3624845 1.3883562
1.1354171 1.1416745 2.077555 1.3357496 0.98999625 0.6418423 1.6444206 1.1954688
1.9489366 2.0045402 1.3026663 2.4763741 1.8773279 1.4612627 1.4315307 1.1374325
1.0795732 1.5744057 1.0653417 1.4001391 1.3549314 1.1085268 1.2139819 1.0382768
00000000: 915d 9e3f 99b0 9c3f be3b d53f a06c d83f
00000010: cf33 b03f 2185 923f e465 ae3f a8b5 b13f
00000020: 5955 913f 6422 923f a9f6 0440 d8f9 aa3f
00000030: 6570 7d3f c74f 243f 607c d23f 1f05 993f
00000040: c176 f93f 634a 0040 c5bd a63f ea7c 1e40
00000050: 484c f03f a80a bb3f 663c b73f 6397 913f
00000060: 742f 8a3f 2086 c93f 1e5d 883f c237 b33f
00000070: 646e ad3f 35e4 8d3f c263 9b3f 41e6 843f

hydra/unet_laplacian_backbone/unet_laplacian/encoder_0_1/layer_normalization_1/mul_4/ReadVariableOp f4 [32]
0.6167796 1.7101319 1.6398604 1.1019105 0.92843217 0.7113177 0.73979586 1.1401633
1.1179962 1.1812893 1.4506521 0.7947906 1.1423675 0.8244952 1.8727324 0.7078827
0.7660829 1.812723 1.2926085 1.1937366 0.670784 0.6296724 0.5475989 0.9123039
0.6164568 1.3741041 1.3361125 0.89055705 1.1504663 1.1061682 0.7460658 0.7191025
00000000: 45e5 1d3f 9ae5 da3f f2e6 d13f 670b 8d3f
00000010: bbad 6d3f eb18 363f 4363 3d3f dff0 913f
00000020: 801a 8f3f 7d34 973f f8ae b93f 6677 4b3f
00000030: 1939 923f 1e12 533f b2b5 ef3f cd37 353f
00000040: 021e 443f 4f07 e83f 3274 a53f 5ccc 983f
00000050: 80b8 2b3f 3632 213f 712f 0c3f c08c 693f
00000060: 1dd0 1d3f a5e2 af3f bc05 ab3f 8cfb 633f
00000070: 7b42 933f eb96 8d3f 2bfe 3e3f 1a17 383f

hydra/unet_laplacian_backbone/unet_laplacian/encoder_0_2/layer_normalization_2/mul_4/ReadVariableOp f4 [32]
0.39223698 0.8876586 1.528158 0.7436055 0.6271955 0.62716043 0.4835975 0.78832257
0.81766236 0.94290924 0.2049926 0.63221806 0.47623938 0.6723124 1.8039247 0.6133662
0.5386826 1.2332448 0.38466617 0.7459231 0.4681239 0.44536263 0.48868766 0.6433873
0.5337797 0.9323112 0.91546017 0.7668333 0.91957974 0.112722844 0.6187088 0.57282466
00000000: 49d3 c83e 983d 633f ae9a c33f ee5c 3e3f
00000010: e28f 203f 968d 203f 179a f73e 82cf 493f
00000020: 5252 513f 8062 713f 95e9 513e 0bd9 213f
00000030: a6d5 f33e aa1c 2c3f 01e7 e63f 9105 1d3f
00000040: 1ae7 093f f7da 9d3f f7f2 c43e d1f4 3e3f
00000050: f0ad ef3e 9206 e43e 4535 fa3e 08b5 243f
00000060: c9a5 083f f2ab 6e3f 995b 6a3f 304f 443f
00000070: 9469 6b3f 3cdb e63d b363 1e3f a3a4 123f

hydra/unet_laplacian_backbone/unet_laplacian/encoder_1_0/layer_normalization_4/mul_4/ReadVariableOp f4 [64]
2.2587607 1.1725633 1.9788895 0.40696344 3.023483 1.0950892 2.542768 1.5035012
1.1614598 2.4557407 0.5537737 1.3557403 2.498934 2.2492368 1.8711436 2.4607527
1.5295157 0.82232165 3.87028 1.1464002 1.6512568 1.9267987 3.9602206 2.1592896
1.3667972 1.7850744 0.855789 3.1116421 1.7661455 1.3268183 1.5855801 2.0417955
1.6325685 2.018508 0.86877525 1.3190018 1.6417859 2.0400698 1.3520291 0.97022724
1.1602005 2.2016845 2.37387 0.9806703 0.73118305 2.3518498 0.99328846 2.2276886
3.1255376 1.7593375 1.6609589 0.60487145 1.0232526 0.52084213 4.635975 1.8344305
1.6254606 1.9121734 2.1279938 2.0634394 1.078216 1.7237362 0.61384034 3.3083417
00000000: 898f 1040 8e16 963f 404c fd3f 835d d03e
00000010: bf80 4140 e22b 8c3f b6bc 2240 ba72 c03f
00000020: b7aa 943f db2a 1d40 1dc4 0d3f e688 ad3f
00000030: 89ee 1f40 7ff3 0f40 a281 ef3f f97c 1d40
00000040: 2cc7 c33f ac83 523f abb2 7740 3ebd 923f
00000050: 625c d33f 57a1 f63f 4174 7d40 cd31 0a40
00000060: 36f3 ae3f 517d e43f fd14 5b3f 2525 4740
00000070: 0e11 e23f 2fd5 a93f 4af4 ca3f c7ac 0240
00000080: 01f8 d03f 3c2f 0140 0e68 5e3f 0dd5 a83f
00000090: 0a26 d23f 8190 0240 4a0f ad3f d060 783f
000000a0: 7381 943f 66e8 0c40 7ced 1740 350d 7b3f
000000b0: d02e 3b3f b584 1640 2748 7e3f 7392 0e40
000000c0: cf08 4840 f931 e13f 4d9a d43f dbd8 1a3f
000000d0: f1f9 823f e955 053f e859 9440 9ece ea3f
000000e0: 180f d03f 19c2 f43f 0d31 0840 640f 0440
000000f0: fb02 8a3f 63a3 dc3f a424 1d3f dfbb 5340

hydra/unet_laplacian_backbone/unet_laplacian/encoder_1_1/layer_normalization_5/mul_4/ReadVariableOp f4 [64]
2.0064032 1.9670199 1.6115478 0.1412081 1.6828699 0.09652166 1.9064198 2.0616343
1.826402 1.6642679 0.6427606 0.8140408 0.9217924 1.4227741 1.1659675 1.921513
0.12695625 2.2908165 2.5803363 1.4377288 1.9011114 1.2791214 2.2756038 1.4521134
0.7383641 1.2111795 2.0887775 2.2416492 1.8717635 0.7268689 1.4855785 1.1805699
1.227324 1.5119655 1.4021242 1.2579085 1.2366722 1.1122308 1.0128831 0.8806523
1.7959569 0.6098171 1.8960233 1.2937288 0.6739111 1.3328689 1.8651724 2.3472648
1.7883744 2.6950765 0.7327061 0.3624975 1.573728 2.0514576 2.2867374 1.1041383
1.243877 0.93140584 1.7299099 1.3428394 0.4316238 2.6256738 0.43724284 2.5765033
00000000: e968 0040 4fc7 fb3f 3347 ce3f db98 103e
00000010: 4868 d73f 26ad c53d 9005 f43f d1f1 0340
00000020: 8ac7 e93f bb06 d53f f58b 243f fa64 503f
00000030: 96fa 6b3f 761d b63f 6c3e 953f 23f4 f53f
00000040: d200 023e bd9c 1240 3b24 2540 7f07 b83f
00000050: 9e57 f33f 40ba a33f 7ea3 1140 dade b93f
00000060: 6e05 3d3f ee07 9b3f 88ae 0540 2e77 0f40
00000070: f295 ef3f 1514 3a3f 7027 be3f ea1c 973f
00000080: f418 9d3f 1688 c13f ce78 b33f 2503 a13f
00000090: 464b 9e3f 945d 8e3f 27a6 813f 6e72 613f
000000a0: eae1 e53f f91c 1c3f e4b0 f23f e898 a53f
000000b0: 7085 2c3f 739b aa3f f8bd ee3f 9639 1640
000000c0: 74e9 e43f 227c 2c40 a192 3b3f 4699 b93e
000000d0: eb6f c93f 154b 0340 e859 1240 6754 8d3f
000000e0: 5d37 9f3f 9d70 6e3f b06d dd3f 29e2 ab3f
000000f0: cbfd dc3e 0a0b 2840 4bde df3e 6ee5 2440

hydra/unet_laplacian_backbone/unet_laplacian/encoder_1_2/layer_normalization_6/mul_4/ReadVariableOp f4 [64]
1.2520908 1.5819 0.909175 0.05573359 1.225723 0.03008396 1.2664897 1.4536254
1.3900967 1.0846899 0.46289137 0.51607907 1.3229355 0.8325023 0.7589796 1.7306423
0.09417535 1.405072 2.0218956 0.9883404 1.4041479 0.58567667 1.6927785 0.9315336
0.47801474 0.715447 1.1536673 1.7902497 1.2227707 1.0163686 0.9345963 1.1501329
1.0970666 1.1013619 0.9233039 1.1947135 0.5446531 0.7571548 0.68512905 0.74928564
1.0172718 0.7450253 1.6454124 1.2269205 0.31971678 0.4469723 1.1159941 1.4567237
1.0979363 2.0593503 0.23653346 0.09284353 1.0446615 1.169647 2.0996845 1.2511969
0.97181886 0.64270043 1.2361387 1.1179053 0.2643219 2.2864904 0.30401534 1.8719435
00000000: 8344 a03f b37b ca3f b1bf 683f e848 643d
00000010: 7ee4 9c3f a372 f63c 561c a23f 6610 ba3f
00000020: b0ee b13f 1ed7 8a3f 1900 ed3e c21d 043f
00000030: f355 a93f df1e 553f 7d4c 423f b085 dd3f
00000040: 02df c03d 66d9 b33f bd66 0140 e003 7d3f
00000050: 1ebb b33f e8ee 153f f7ac d83f fc78 6e3f
00000060: 59be f43e 8927 373f 5fab 933f e726 e53f
00000070: c083 9c3f 5e18 823f b441 6f3f 8e37 933f
00000080: ae6c 8c3f 6df9 8c3f a55d 6c3f 5fec 983f
00000090: 636e 0b3f e6d4 413f 9e64 2f3f 2fd1 3f3f
000000a0: f635 823f fab9 3e3f e09c d23f bb0b 9d3f
000000b0: ebb1 a33e 8ed9 e43e e5d8 8e3f ec75 ba3f
000000c0: 2d89 8c3f 65cc 0340 d435 723e c024 be3d
000000d0: 78b7 853f feb6 953f 3b61 0640 3827 a03f
000000e0: 1fc9 783f 0488 243f cb39 9e3f 8517 8f3f
000000f0: 3355 873e dc55 1240 e6a7 9b3e d89b ef3f

hydra/unet_laplacian_backbone/unet_laplacian/layer_normalization_11/mul_4/ReadVariableOp f4 [128]
0.682673 0.8047478 0.893199 1.4459345 2.8368623 0.53112173 0.093318 2.097428
0.33376372 0.6144255 0.6544727 1.0442005 0.5317813 1.629465 0.8689211 0.94720304
0.6832604 0.41440496 0.82091653 0.14101219 1.2412171 0.73130894 0.7242973 0.12894075
0.55319464 0.79312664 0.7100833 0.5614508 0.81478745 0.57227874 0.50249135 0.82649547
0.6911561 0.79744303 0.5305655 3.3133547 0.95224273 0.24105445 1.0943416 0.48896885
0.20775096 0.7030283 0.7691592 0.8313056 0.7981322 1.119558 0.4394014 1.5022417
0.6500238 0.68791234 0.6117399 0.60929507 0.64938855 0.67064327 0.7103002 0.5859056
0.6188021 0.90023565 0.33543125 0.75294113 0.6897284 0.7565387 0.64472747 0.5688495
0.70284694 0.43960214 0.7071944 0.84331334 0.6994574 1.1794438 0.7042166 -1.4895536e-06
0.73748976 0.6934068 0.5876521 0.8020974 0.21951488 0.8319494 0.9401412 0.7022444
0.32752693 0.8097024 0.71063316 0.60585576 1.4933519 0.89343506 0.70772463 1.3378224
-0.00013031875 1.3512876 0.6625748 1.1318735 1.9059639 1.9177961 0.936556 0.7530773
0.08238406 0.45270592 0.60462767 2.09306 0.58447504 0.6921452 0.6046145 0.8194492
0.6315146 0.48975977 0.6295831 0.6685285 -3.2742577e-05 0.9216246 0.6118278 0.6276574
0.1538373 0.6338159 0.7127841 1.7468532 0.8846495 0.5386032 0.7135086 1.7578593
0.7227137 0.9171083 0.82974833 0.69820404 0.826595 0.7170064 0.4277249 0.6831685
00000000: a8c3 2e3f f403 4e3f b1a8 643f 6214 b93f
00000010: 278f 3540 98f7 073f 821d bf3d 433c 0640
00000020: 14e3 aa3e fd4a 1d3f 868b 273f 5da8 853f
00000030: d222 083f 4f92 d03f 9d71 5e3f e67b 723f
00000040: 27ea 2e3f e32c d43e 9627 523f 8065 103e
00000050: 34e0 9e3f 1037 3b3f 8c6b 393f 0b09 043e
00000060: 2a9e 0d3f 590a 4b3f 05c8 353f 3dbb 0f3f
00000070: e995 503f dc80 123f 46a3 003f 3595 533f
00000080: 9bef 303f 3a25 4c3f 24d3 073f 010e 5440
00000090: 2ec6 733f fad6 763e 6313 8c3f 205a fa3e
000000a0: abbc 543e aaf9 333f 9ee7 443f 72d0 543f
000000b0: 6452 4c3f ad4d 8f3f 38f9 e03e 7549 c03f
000000c0: f667 263f 061b 303f fc9a 1c3f c3fa 1b3f
000000d0: 543e 263f 47af 2b3f 3cd6 353f e9fd 153f
000000e0: d069 1e3f d875 663f a5bd ab3e c0c0 403f
000000f0: 0a92 303f 85ac 413f dc0c 253f 1fa0 113f
00000100: c7ed 333f 8813 e13e b10a 353f 62e3 573f
00000110: a40f 333f 04f8 963f 8a47 343f acec c7b5
00000120: 21cc 3c3f 1c83 313f 5e70 163f 4156 4d3f
00000130: 82c8 603e a3fa 543f 18ad 703f 4ac6 333f
00000140: 9cb1 a73e a848 4f3f 0eec 353f 5d19 1b3f
00000150: 2826 bf3f 29b8 643f 712d 353f c43d ab3f
00000160: 2ca6 08b9 fef6 ac3f 819e 293f 3be1 903f
00000170: a0f6 f33f 587a f53f 22c2 6f3f adc9 403f
00000180: f9b8 a83d 12c9 e73e e1c8 1a3f b2f4 0540
00000190: 28a0 153f 6e30 313f 04c8 1a3f 6cc7 513f
000001a0: f1aa 213f cbc1 fa3e 5c2c 213f af24 2b3f
000001b0: 1355 09b8 97ef 6b3f bfa0 1c3f 28ae 203f
000001c0: 8687 1d3e c241 223f 0579 363f e398 df3f
000001d0: 6478 623f e6e1 093f 80a8 363f 8901 e13f
000001e0: c403 393f 9cc7 6a3f 636a 543f 80bd 323f
000001f0: bb9b 533f bb8d 373f c2fe da3e 21e4 2e3f

hydra/unet_laplacian_backbone/unet_laplacian/layer_normalization_15/mul_4/ReadVariableOp f4 [64]
0.7216045 0.76723254 0.6159258 0.7880909 0.76520693 1.0436642 0.5635359 0.880825
0.31770828 1.0832858 0.51807594 1.4469603 0.5474963 0.66445976 0.98116344 0.8592289
0.5511181 0.81521547 0.7374805 0.982685 0.74671733 0.64087707 1.1752051 1.0623192
0.5797139 0.84739846 0.6737 0.8762024 1.422865 0.73820275 0.8307125 0.84819037
0.49372345 1.1352551 1.2112176 0.53738934 0.76658 0.85902804 0.34116158 0.9332738
0.63450265 0.93978 0.64175093 0.43085882 1.0380334 0.8604011 0.93708086 1.0453029
0.61635983 0.6670068 0.88562757 0.4342958 0.77019066 0.6443953 1.0003377 0.6280149
0.8689117 0.97694457 0.87590444 1.0154265 0.9437345 0.74968123 0.79670775 0.73696715
00000000: 13bb 383f 5a69 443f 50ad 1d3f 53c0 493f
00000010: 9ae4 433f ca96 853f e443 103f bf7d 613f
00000020: a9aa a23e 1ca9 8a3f a0a0 043f ff35 b93f
00000030: b828 0c3f 091a 2a3f 872d 7b3f 6df6 5b3f
00000040: 1316 0d3f f6b1 503f 86cb 3c3f 3f91 7b3f
00000050: de28 3f3f 8510 243f 1f6d 963f 13fa 873f
00000060: 2168 143f 1bef 583f 9a77 2c3f cd4e 603f
00000070: 7120 b63f dbfa 3c3f 93a9 543f 0123 593f
00000080: 52c9 fc3e 0a50 913f 2e09 9b3f 5992 093f
00000090: 963e 443f 43e9 5b3f bbac ae3e 08eb 6e3f
000000a0: c46e 223f 6c95 703f ca49 243f 8799 dc3e
000000b0: 47de 843f 3f43 5c3f 88e4 6f3f 7ccc 853f
000000c0: c2c9 1d3f f5c0 2a3f 7db8 623f 055c de3e
000000d0: 372b 453f 17f7 243f 110b 803f 96c5 203f
000000e0: ff70 5e3f 0a19 7a3f 463b 603f 7ff9 813f
000000f0: 9698 713f 1ceb 3f3f 0af5 4b3f e1a9 3c3f

hydra/unet_laplacian_backbone/unet_laplacian/layer_normalization_19/mul_4/ReadVariableOp f4 [32]
0.5090626 0.8484111 0.80795896 0.88172245 0.89970374 0.7233965 0.6974809 0.9074913
0.7751898 0.9909965 1.0416402 0.7352883 0.89753115 1.0127397 0.75106585 0.9490852
0.85313374 0.35611647 0.77705365 0.910618 0.84026796 0.7997618 0.570194 0.9255422
0.91338265 0.8245001 0.5904123 0.9178962 0.80778337 0.5797048 0.7294931 1.0757815
00000000: ed51 023f 7831 593f 66d6 4e3f 90b8 613f
00000010: fc52 663f 8330 393f 1c8e 323f 5a51 683f
00000020: d772 463f f2b1 7d3f 7754 853f db3b 3c3f
00000030: 9ac4 653f 74a1 813f da45 403f 3ff7 723f
00000040: f966 5a3f e654 b63e fdec 463f 431e 693f
00000050: cd1b 573f 30bd 4c3f 3cf8 113f 55f0 6c3f
00000060: 72d3 693f 7012 533f 4325 173f 3ffb 6a3f
00000070: e4ca 4e3f 8967 143f 0fc0 3a3f 35b3 893f

hydra/unet_laplacian_backbone/unet_laplacian/layer_normalization_3/mul_4/ReadVariableOp f4 [32]
0.9387907 1.2370391 1.6072693 1.2882465 1.2085435 0.9880079 0.8621143 1.3255861
1.0919123 1.0931453 1.0179387 0.6150876 1.0476629 0.6858259 1.5387896 0.8818008
0.8090689 0.9669436 0.8398633 0.5627059 0.83686835 0.9798226 0.9537396 1.2174253
0.6916539 0.9884645 0.78384644 0.9485582 0.5623103 0.65651196 0.90350556 0.802163
00000000: 9654 703f 4c57 9e3f 00bb cd3f 43e5 a43f
00000010: 8eb1 9a3f 16ee 7c3f 86b3 5c3f ceac a93f
00000020: c8c3 8b3f 2fec 8b3f d14b 823f 6276 1d3f
00000030: d119 863f 4992 2f3f 0ff7 c43f b2bd 613f
00000040: 241f 4f3f 9e89 773f 4801 573f 7e0d 103f
00000050: 013d 563f a7d5 7a3f 4728 743f 98d4 9b3f
00000060: 3b10 313f 020c 7d3f 29aa 483f b6d4 723f
00000070: 91f3 0f3f 2b11 283f 244c 673f 8e5a 4d3f

hydra/unet_laplacian_backbone/unet_laplacian/layer_normalization_7/mul_4/ReadVariableOp f4 [64]
1.0836371 0.9345515 0.8012041 0.9446152 0.9335886 0.9501792 1.0855639 0.9658401
0.78940594 2.1887732 0.7521939 1.0913541 1.3783011 0.39372116 1.2179563 1.186482
1.5794424 0.89139545 0.6033865 1.1083567 0.899802 0.6764847 1.1219386 3.478298
1.3156073 0.8910056 1.9239028 1.1703643 1.1777164 1.1476542 1.0161821 1.0803957
0.9958061 0.9142886 1.3240434 3.8385825 0.712241 1.3177556 1.1255642 0.8925968
1.2632991 0.96551067 1.3336794 0.82057685 1.0617337 1.0746875 0.9600124 2.884137
1.7401625 0.79620534 1.0390639 0.95582557 2.149604 2.0020347 0.9638583 1.6405945
0.72189385 1.2012035 2.1788244 2.6116729 1.1463479 0.09776096 0.81161004 0.56282
00000000: 9fb4 8a3f c43e 6f3f b61b 4d3f 4dd2 713f
00000010: aaff 6e3f f23e 733f c2f3 8a3f 4c41 773f
00000020: 8216 4a3f dc14 0c40 c88f 403f 7eb1 8b3f
00000030: 2c6c b03f d295 c93e fee5 9b3f a4de 973f
00000040: 2b2b ca3f 7e32 643f 8a77 1a3f a2de 8d3f
00000050: 6d59 663f 1a2e 2d3f af9b 8f3f 6f9c 5e40
00000060: d265 a83f f118 643f 7242 f63f 7fce 953f
00000070: 69bf 963f 55e6 923f 4112 823f 684a 8a3f
00000080: 26ed 7e3f d10e 6a3f 417a a93f 56ab 7540
00000090: 6d55 363f 37ac a83f 7d12 903f 3981 643f
000000a0: c9b3 a13f b52b 773f 02b6 aa3f 5311 523f
000000b0: e4e6 873f 5c8f 893f 5fc3 753f b395 3840
000000c0: a5bd de3f 1dd4 4b3f 0c00 853f fcb0 743f
000000d0: 1d93 0940 5621 0040 6bbf 763f 00ff d13f
000000e0: 09ce 383f 09c1 993f dc71 0b40 a625 2740
000000f0: 87bb 923f e636 c83d adc5 4f3f f914 103f

hydra/unet_laplacian_backbone/unet_laplacian/convolutional_self_attention_1/channel_learnable_multiplier/Mul f4 [1, 1, 32, 128]
-0.02494967 0.027592093 0.009638233 0.031904142 -0.04555495 -0.12776622 -0.0032435718 0.017027246
0.005142 0.021881463 -0.0004557058 0.03207118 -0.019725665 0.0049014967 -0.0045640045 0.0136765065
0.019960765 -0.048742622 -0.0 0.043174427 0.00022537864 -0.069843814 -0.012042415 0.0003521107
0.041768055 0.01486575 0.026213001 0.0 0.04943659 -0.01258497 0.017658005 0.021021243
0.06453888 0.0020333906 0.025547417 -0.188921 0.046575367 0.03846824 -0.0009830794 0.0072125387
-0.008489561 -0.035611838 0.026180588 -0.0017051933 0.028909499 -0.01998197 0.03288184 -0.02517143
0.057223126 -0.0008522855 -0.005417225 0.014177323 -0.003498761 -0.007269697 -0.022609452 -0.00646391
0.046168845 -0.01711739 0.030059807 -0.0 -0.0010022231 0.015326644 -0.010102827 0.0
-0.026445698 -0.0055996506 -0.01973555 -0.0055055367 -0.0056709917 0.0275371 -0.010667021 -0.039731044
0.040198077 -0.06651191 0.012619491 0.03992686 -0.075934015 -0.0036528837 -0.010047359 -0.0012257196
0.067348994 -0.025173936 0.014198482 -0.0 -0.055652242 -0.0016033109 -0.026101919 0.09882511
0.017354196 -0.00498731 0.0054454193 -0.11866997 -0.10394421 0.049987007 -0.23741668 -0.06618748
-0.11709983 0.004591506 -0.005568808 -0.15387098 0.0 -0.0013291404 0.043303434 0.00045896653
0.024216363 0.00032108068 -0.018285159 0.009559619 -0.01054421 -0.0022942207 0.024781505 0.031359367
-0.09473752 -0.004157937 0.049535114 0.031924568 -0.009467277 -0.02652577 0.009062037 -0.12416307
-0.013164302 0.01769604 -0.07500014 0.012996979 -0.008673836 -0.005172219 -0.019912973 -0.017365362
-0.0027186847 0.05876192 -0.020988578 -0.030437885 -0.08043901 -0.018836336 -0.08255294 0.10754965
-0.046525918 -0.01531976 0.006741155 -0.070418805 -0.0020343992 0.20659201 -0.00022743674 0.01967718
-0.02103682 0.04258665 -0.0 -0.004990635 0.0014442316 -0.011938702 -0.045262996 0.040092584
-0.0036872854 0.007084831 -0.037766825 -0.0 0.048704546 0.15195818 0.014277758 0.0026875418
-0.0062675537 0.0018565593 0.03398176 -0.09743057 0.0054175677 0.12296104 0.043280274 -0.005831841
0.010127531 -0.069243066 -0.004734912 0.016515722 -0.026474452 -0.00982119 0.04627847 0.18042979
-0.008620978 0.00332416 0.0070433975 0.017931849 0.010036162 0.014391074 0.0055267005 0.06177309
0.058042355 -0.022395438 0.023688572 -0.0 -0.009769065 0.0005357039 -0.015071555 -0.0
0.031297922 -0.026058162 0.02943884 -0.0026764164 -0.0023355715 0.062838465 0.0069134627 0.025412973
0.0051543075 -0.0045835935 0.012272866 -0.009570607 0.037057765 0.040139977 0.02884871 -0.0006947399
-0.001384388 -0.018984623 0.0033637034 0.0 0.010013299 0.0032605885 0.010711591 0.08984171
-0.04947817 -0.017316455 0.021247022 -0.040841464 0.0098833665 -0.030658066 0.03521936 -0.0017688781
-0.017445693 -0.032310877 0.036919497 0.03786962 0.0 0.009222796 -0.011052487 0.048575804
-0.010646744 -0.0037048513 0.012338181 -0.006243384 -0.04078083 0.013161949 0.05140725 0.0034053663
-0.02837156 0.005538545 0.006624683 0.066588216 0.007695155 0.005648771 -0.008608914 0.11959279
-0.012271392 0.00075302686 0.037440456 0.011942981 -0.05635971 0.025033973 0.017241172 -0.113179155
00000000: 4063 ccbc d008 e23c aee9 1d3c ebad 023d
00000010: d497 3abd 26d5 02be 1b92 54bb b97c 8b3c
00000020: 397e a83b c140 b33c cceb eeb9 125d 033d
00000030: b897 a1bc bc9c a03b a58d 95bb 6d13 603c
00000040: c284 a33c 58a6 47bd 0000 0080 abd7 303d
00000050: 9e53 6c39 460a 8fbd 8d4d 45bc 809b b839
00000060: fb14 2b3d 7a8f 733c a6bc d63c 0000 0000
00000070: 067e 4a3d 3131 4ebc 85a7 903c be34 ac3c
00000080: f62c 843d a242 053b d148 d13c 8274 41be
00000090: d0c5 3e3d e090 1d3d acda 80ba 2957 ec3b
000000a0: cd17 0bbc b8dd 11bd ac78 d63c cb80 dfba
000000b0: 9dd3 ec3c 3ab1 a3bc 1caf 063d 5134 cebc
000000c0: cc62 6a3d e96b 5fba fa82 b1bb 0148 683c
000000d0: 784b 65bb a336 eebb 7537 b9bc 35cf d3bb
000000e0: 8b1b 3d3d c539 8cbc fc3f f63c 0000 0080
000000f0: 075d 83ba 9b1c 7b3c 5486 25bc 0000 0000
00000100: a6a4 d8bc 467d b7bb 73ac a1bc ca67 b4bb
00000110: bad3 b9bb 7c95 e13c bbc4 2ebc 05bd 22bd
00000120: bda6 243d 6537 88bd fbc1 4e3c 598a 233d
00000130: 4b83 9bbd 3865 6fbb ae9d 24bc 53a8 a0ba
00000140: 45ee 893d 9239 cebc c0a0 683c 0000 0080
00000150: 9bf3 63bd 3026 d2ba b1d3 d5bc d264 ca3d
00000160: 632a 8e3c 976c a3bb 7d6f b23b 3e09 f3bd
00000170: b4e0 d4bd 2dbf 4c3d 5c1d 73be 4d8d 87bd
00000180: 09d2 efbd 5874 963b 8c7a b6bb 5b90 1dbe
00000190: 0000 0000 8d36 aeba f15e 313d 72a1 f039
000001a0: 6561 c63c b856 a839 c2ca 95bc f39f 1c3c
000001b0: 9fc1 2cbc a35a 16bb 9502 cb3c ae72 003d
000001c0: bf05 c2bd 4e3f 88bb 55e5 4a3d 56c3 023d
000001d0: a31c 1bbc 924c d9bc f078 143c 3549 febd
000001e0: 16af 57bc 49f7 903c ac99 99bd 48f1 543c
000001f0: b41c 0ebc b87b a9bb 8820 a3bc ce41 8ebc
00000200: f62b 32bb 57b0 703d 3df0 abbc df58 f9bc
00000210: 35bd a4bd a94e 9abc 8411 a9bd fe42 dc3d
00000220: f691 3ebd bbff 7abc e8e4 dc3b bc37 90bd
00000230: 8e53 05bb db8c 533e 167c 6eb9 0a32 a13c
00000240: 6955 acbc 576f 2e3d 0000 0080 7b88 a3bb
00000250: 5f4c bd3a 8c9a 43bc b165 39bd 1f38 243d
00000260: 62a6 71bb df27 e83b 63b1 1abd 0000 0080
00000270: 6b7e 473d ed9a 1b3e 42ed 693c 7821 303b
00000280: 0d60 cdbb cb57 f33a 7530 0b3d ae89 c7bd
00000290: da85 b13b ffd2 fb3d a846 313d 0719 bfbb
000002a0: f2ed 253c 4fcf 8dbd 5227 9bbb fb4b 873c
000002b0: f3e0 d8bc 0ee9 20bc 7e8e 3d3d 96c2 383e
000002c0: 013f 0dbc 26da 593b 4dcc e63b d0e5 923c
000002d0: b76e 243c 8ac8 6b3c 5319 b53b c805 7d3d
000002e0: d2bd 6d3d a376 b7bc 890e c23c 0000 0080
000002f0: 6e0e 20bc 7b6e 0c3a afee 76bc 0000 0080
00000300: 4032 003d ed77 d5bc b929 f13c d166 2fbb
00000310: 6310 19bb 74b1 803d 548a e23b de2e d03c
00000320: 77e5 a83b f831 96bb 2214 493c 09ce 1cbc
00000330: e2c9 173d d169 243d 2154 ec3c 351f 36ba
00000340: 5a74 b5ba a485 9bbc 9471 5c3b 0000 0000
00000350: d20e 243c 99af 553b ab7f 2f3c eefe b73d
00000360: 9fa9 4abd 3ddb 8dbc 3c0e ae3c 6149 27bd
00000370: d8ed 213c a026 fbbc 2d42 103d b3d9 e7ba
00000380: 45ea 8ebc 6958 04bd e638 173d 2d1d 1b3d
00000390: 0000 0000 361b 173c 7e15 35bc 6cf7 463d
000003a0: ae6f 2ebc 17cd 72bb 1526 4a3c 4d95 ccbb
000003b0: cd09 27bd 37a5 573c 6990 523d 912c 5f3b
000003c0: 796b e8bc af7c b53b de13 d93b 675f 883d
000003d0: a427 fc3b 5319 b93b 670c 0dbc 11ed f43d
000003e0: f30d 49bc c766 453a 2a5b 193d 7eac 433c
000003f0: 70d9 66bd 0c14 cd3c 5c3d 8d3c 79ca e7bd

hydra/unet_laplacian_backbone/unet_laplacian/convolutional_self_attention_2/channel_learnable_multiplier/Mul f4 [1, 1, 32, 128]
-0.0023984744 -0.0012769846 -0.03585247 -0.027703458 -0.03932061 -0.008053392 0.01788703 0.06916808
-0.0028238317 -0.0039773304 -0.014668617 0.012818661 -0.065741 0.028072922 0.012898487 0.020574808
0.0040933494 0.016880032 0.0 0.017210666 0.0012507588 -0.011651761 0.030630792 -0.009717403
0.019399129 -0.004132443 -0.0051516704 -0.0025445898 -0.008508374 0.08725033 -0.0 -0.0
-0.065585695 0.0015055414 -0.0048057265 0.049223155 -0.0030246226 0.017943913 0.022248065 -0.009079355
0.051730532 0.0011226676 0.008504983 -0.009146351 0.0 0.054126997 -0.0009203502 -0.0052129775
0.06529542 0.04549447 0.012643607 -0.0020298765 -0.0 -0.00091206486 -0.015951127 0.021724138
0.0012702227 0.00269277 0.0067285756 0.004675678 -0.0 0.0 -0.0019393419 -0.023103127
-0.00776505 -0.012019349 -0.003177937 -0.0035958102 0.00292826 -0.00412533 0.0028714905 0.01200398
-0.010509665 -0.03524306 0.006583927 0.0009819736 -0.028906219 0.030914247 -0.02426448 0.045428086
-0.014309759 0.024645487 0.018317606 -0.01012761 -0.08717908 0.01429221 -0.009749634 -0.03778243
-0.021512115 0.0 -0.02624517 0.056867585 0.06059738 0.033123117 -0.012136543 0.018337175
0.081597626 -0.017870259 0.042475145 -0.0025638163 0.032563034 -0.002149502 0.010309597 0.008129463
0.007485428 -0.04000086 0.013426368 -0.0018123384 0.016316717 -0.011478372 0.0002812932 0.0007297835
-0.0005699573 0.009960093 -0.014736707 0.009783126 0.03524355 -0.03756939 -0.0 0.027834741
0.0 -0.035885688 -0.009133018 0.0049173934 -0.007326642 0.060544893 -0.027409675 -0.032919627
-0.0010569254 -0.015252803 0.02924947 -0.007258111 0.0023038178 -0.03954814 -0.054813016 0.04529573
0.0075801895 -0.0043278923 -0.006763192 0.03997238 0.01229694 0.07728327 -0.037600625 0.015340431
-0.011163909 0.032524314 0.0 0.012061139 -0.01593612 -0.033444013 -0.020348279 0.015598066
0.038780663 -0.006802844 0.032877117 -0.014444364 -0.017210895 0.025565602 -0.0 -0.0
-0.00947391 0.0015925386 -0.006930939 0.039581545 -0.0038581686 0.06728789 0.0043237857 -0.009918482
-0.05909192 0.0036856425 0.0074003967 0.016421122 0.0 -0.003294769 0.002310567 0.062167592
-0.041964363 -0.030113747 0.017831774 0.00078790163 0.0 0.0037781757 0.0068863514 -0.0011555318
0.0015869782 -0.0033430338 0.024144698 -0.007718136 -0.0 0.0 -0.015606299 0.0077413134
-0.03238844 -0.026419848 0.017993867 -0.009835609 0.010769919 -0.01223046 -0.009234137 -0.007994033
-0.009472135 0.016464526 -0.0033208658 0.0030743647 0.03331027 0.028046478 -0.029756105 -0.014864323
0.027695177 0.0205833 -0.00963734 0.011309409 0.011625733 0.0049648024 -0.022115635 0.037516735
-0.005201737 0.0 0.014857477 0.015360318 0.0017027637 -0.010792498 -0.0821295 0.21441746
-0.034665674 0.005938699 -0.02061532 0.008511735 -0.016309893 -0.005936375 0.01817856 0.016704489
0.0003667778 -0.03327789 0.006320838 0.00053166837 0.0028365282 -0.026747327 0.011039162 0.0048213843
-0.00026104267 0.0016129618 0.012297372 0.0063458653 0.0072941994 0.049670957 0.0 0.08566713
-0.0 0.008650684 0.0070514516 -0.014159477 -0.008033142 -0.017329996 -0.03284538 -0.051618457
00000000: b92f 1dbb 7e60 a7ba 0ada 12bd 5df2 e2bc
00000010: a60e 21bd 60f2 03bc d287 923c ffa7 8d3d
00000020: 0910 39bb 4454 82bb a454 70bc 5c05 523c
00000030: 38a3 86bd 2ff9 e53c 2d54 533c 808c a83c
00000040: 8121 863b fe47 8a3c 0000 0000 62fd 8c3c
00000050: 80f0 a33a 07e7 3ebc 6ded fa3c be35 1fbc
00000060: ecea 9e3c 7269 87bb 58cf a8bb 22c3 26bb
00000070: b566 0bbc 4db0 b23d 0000 0080 0000 0080
00000080: cb51 86bd 9655 c53a 5b79 9dbb 389e 493d
00000090: bf38 46bb 1dff 923c 9341 b63c 93c1 14bc
000000a0: 65e3 533d 7926 933a 7c58 0b3c 94da 15bc
000000b0: 0000 0000 45b4 5d3d a843 71ba a0d1 aabb
000000c0: 9bb9 853d 6958 3a3d 2227 4f3c ad07 05bb
000000d0: 0000 0080 a317 6fba f0ab 82bc d2f6 b13c
000000e0: 9a7d a63a 2f79 303b 627b dc3b 6e36 993b
000000f0: 0000 0080 0000 0000 8431 feba c542 bdbc
00000100: f671 febb ceec 44bc ef44 50bb afa7 6bbb
00000110: 0de8 3f3b c72d 87bb 9e2f 3c3b 57ac 443c
00000120: bb30 2cbc 075b 10bd fcbd d73b 91b5 803a
00000130: bccc ecbc e03f fd3c 4ec6 c6bc cd12 3a3d
00000140: 7b73 6abc 55e5 c93c ce0e 963c 46ee 25bc
00000150: f28a b2bd e029 6a3c eebc 1fbc c0c1 1abd
00000160: 2d3a b0bc 0000 0000 1c00 d7bc fced 683d
00000170: f534 783d 1bac 073d 5ad8 46bc d837 963c
00000180: a81c a73d a664 92bc 6bfa 2d3d b305 28bb
00000190: d160 053d a9de 0cbb 95e9 283c 7031 053c
000001a0: 5248 f53b f1d7 23bd 45fa 5b3c fc8b edba
000001b0: a3aa 853c c80f 3cbc 897a 9339 f14e 3f3a
000001c0: 3069 15ba a82f 233c 3b72 71bc 6849 203c
000001d0: 8a5b 103d 5ce2 19bd 0000 0080 af05 e43c
000001e0: 0000 0000 dffc 12bd a7a2 15bc 1622 a13b
000001f0: 5414 f0bb ecfd 773d 418a e0bc bbd6 06bd
00000200: 8888 8aba e5e6 79bc 969c ef3c 73d5 edbb
00000210: a6fb 163b 3bfd 21bd 9d83 60bd 0488 393d
00000220: 3d63 f83b fed0 8dbb c49d ddbb 14ba 233d
00000230: 1b79 493c b146 9e3d 1d03 1abd 6e56 7b3c
00000240: d4e8 36bc 3738 053d 0000 0000 159c 453c
00000250: 778c 82bc 97fc 08bd 6fb1 a6bc 088f 7f3c
00000260: 79d8 1e3d 64ea debb 28aa 063d 0ea8 6cbc
00000270: ddfd 8cbc f46e d13c 0000 0080 0000 0080
00000280: 7538 1bbc babc d03a ee1c e3bb 4220 223d
00000290: 54d9 7cbb 3cce 893d 8bae 8d3b 2181 22bc
000002a0: 5e0a 72bd d28a 713b 077f f23b 9785 863c
000002b0: 0000 0000 0ded 57bb e26c 173b 72a3 7e3d
000002c0: d3e2 2bbd 1bb1 f6bc f113 923c 2f8b 4e3a
000002d0: 0000 0000 459b 773b e7a6 e13b 3775 97ba
000002e0: 2702 d03a cd16 5bbb 1acb c53c 6be8 fcbb
000002f0: 0000 0080 0000 0000 90b1 7fbc d8aa fd3b
00000300: bea9 04bd 706e d8bc e067 933c 8925 21bc
00000310: 5074 303c 4462 48bc c74a 17bc 68f9 02bc
00000320: 0431 1bbc 9de0 863c e2a2 59bb 487b 493b
00000330: 5a70 083d bac1 e53c 13c3 f3bc 7d89 73bc
00000340: ffe0 e23c 4f9e a83c efe5 1dbc 194b 393c
00000350: dc79 3e3c c8af a23b d92b b5bc 26ab 193d
00000360: 5573 aabb 0000 0000 c66c 733c d8a9 7b3c
00000370: 452f df3a 04d3 30bc 8333 a8bd 4090 5b3e
00000380: 98fd 0dbd 6b99 c23b 76e1 a8bc ce74 0b3c
00000390: 539c 85bc ec85 c2bb 34eb 943c dad7 883c
000003a0: 154c c039 664e 08bd 081f cf3b a95f 0b3a
000003b0: 0ce5 393b 361d dbbc 9add 343c b4fc 9d3b
000003c0: 8edc 88b9 046a d33a eb7a 493c faf0 cf3b
000003d0: 2e04 ef3b c673 4b3d 0000 0000 4072 af3d
000003e0: 0000 0080 99bb 0d3c dd0f e73b 27fd 67bc
000003f0: 719d 03bc a3f7 8dbc e188 06bd e06d 53bd
