bfcnn/pretrained/resnet_color_1x5_non_shared_bn_16x3x3_128x128/model.tflite (tflite, 63584 bytes, 52 tensors)

resnet_denoiser/level_0/batch_normalization/FusedBatchNormV3 f4 [16]
0.12958008 -0.32175067 0.8505952 -0.13605511 -0.6572785 -0.33276504 -0.44924143 0.7079935
0.50823075 0.5275481 0.5181792 0.3658846 0.21282943 -0.5678011 -0.59925485 0.5048645
00000000: a4b0 043e 81bc a4be 9bc0 593f 0852 0bbe
00000010: 6743 28bf 2e60 aabe f902 e6be 103f 353f
00000020: 691b 023f 640d 073f 64a7 043f 3a55 bb3e
00000030: f5ef 593e 6a5b 11bf c468 19bf cd3e 013f

resnet_denoiser/level_0/batch_normalization/FusedBatchNormV31 f4 [16]
0.06439047 2.9113376 1.4201784 2.1672525 0.47425684 0.10335374 0.62742704 1.1713187
1.1961743 2.7950943 1.4683725 1.0066319 0.30312243 0.29205877 0.3854461 0.804916
00000000: 27df 833d 5b53 3a40 68c8 b53f 44b4 0a40
00000010: cbd1 f23e 20ab d33d 0f9f 203f c5ed 953f
00000020: 3d1c 993f d3e2 3240 a1f3 bb3f 50d9 803f
00000030: dd32 9b3e ba88 953e 3159 c53e fa0e 4e3f

resnet_denoiser/level_0/batch_normalization_1/FusedBatchNormV3 f4 [16]
-0.34827098 -0.16126326 -0.06507249 -0.1479215 -0.06667323 -0.06840063 -0.040860254 -0.12576349
-0.02242412 -0.18525195 1.0979054e-25 -0.08723434 -0.026175305 -0.07709643 -0.14239104 -0.10963728
00000000: 9350 b2be 3222 25be ba44 85bd bc78 17be
00000010: f98b 88bd a115 8cbd 155d 27bd 25c8 00be
00000020: cab2 b7bc b0b2 3dbe 03ea 0716 eba7 b2bd
00000030: 986d d6bc bce4 9dbd f5ce 11be 8389 e0bd

resnet_denoiser/level_0/batch_normalization_1/FusedBatchNormV31 f4 [16]
2.1506138 3.4325473 2.4559197 1.969915 3.7644053 1.4038047 4.415326 1.5142273
5.9409246 1.5263274 -0.01838514 1.8539517 8.175545 1.587954 1.5857266 1.9452022
00000000: a8a3 0940 dbae 5b40 ca2d 1d40 2d26 fc3f
00000010: 04ec 7040 dfaf b33f 5a4a 8d40 33d2 c13f
00000020: 0e1c be40 b25e c33f 6f9c 96bc 4a4e ed3f
00000030: 08cf 0241 1442 cb3f 17f9 ca3f 63fc f83f

resnet_denoiser/level_0/batch_normalization_10/FusedBatchNormV3 f4 [16]
-0.04290513 -0.12256041 -0.2595079 -0.035590578 -0.08210874 -0.083006926 -0.0345742 -0.09831349
-0.08736417 -0.13302131 -0.066414684 -0.07680846 -0.09531635 -0.1071666 -0.5013137 -0.09936704
00000000: 4abd 2fbd f400 fbbd 38de 84be 6dc7 11bd
00000010: a128 a8bd 89ff a9bd ad9d 0dbd 9558 c9bd
00000020: fceb b2bd bd36 08be 6c04 88bd c14d 9dbd
00000030: 3835 c3bd 2a7a dbbd 1856 00bf f280 cbbd

resnet_denoiser/level_0/batch_normalization_10/FusedBatchNormV31 f4 [16]
1.3447853 2.26797 1.6462463 2.1655312 0.76350623 2.74923 3.033279 1.4319537
1.449847 1.9202625 2.0267763 1.4767752 3.8727088 2.830134 3.4022768 1.0467343
00000000: ed21 ac3f 6c26 1140 33b8 d23f 1098 0a40
00000010: 2575 433f 62f3 2f40 3e21 4240 424a b73f
00000020: 9694 b93f 29cb f53f b4b6 0140 f806 bd3f
00000030: 76da 7740 ea20 3540 e7be 5940 64fb 853f

resnet_denoiser/level_0/batch_normalization_11/FusedBatchNormV3 f4 [32]
-0.0950107 -0.12934826 -0.13363166 -0.30105373 -0.45614102 -0.10525179 -0.30292198 -0.16225454
-0.7320895 -0.2679653 -0.086183555 -0.17852925 -0.18858604 -0.09351977 -0.38818243 -0.6070681
-0.12719893 -0.19453773 -0.23126043 -0.14090285 -0.23164262 -0.2860058 -0.16348921 -0.14642996
-0.17814673 -0.061610773 -0.16060007 -0.0630864 -0.56934065 -0.53102803 -0.19085498 -0.39063135
00000000: f894 c2bd df73 04be bdd6 08be b723 9abe
00000010: 518b e9be 408e d7bd 9718 9bbe 0e26 26be
00000020: 386a 3bbf bf32 89be 0181 b0bd 5fd0 36be
00000030: b31c 41be 4b87 bfbd d9bf c6be d168 1bbf
00000040: 7040 02be e634 47be 89cf 6cbe d648 10be
00000050: b933 6dbe 5a6f 92be b769 27be bcf1 15be
00000060: 196c 36be 945b 7cbd 5874 24be 7133 81bd
00000070: 4fc0 11bf 74f1 07bf 7d6f 43be d500 c8be

resnet_denoiser/level_0/batch_normalization_11/FusedBatchNormV31 f4 [32]
0.8932781 0.66682774 0.7068841 0.6768033 2.086163 1.3340343 0.5581845 1.1466367
2.3286817 0.6400453 2.4491348 2.2797012 1.325467 1.4569913 2.075116 3.0672321
1.524792 3.2754292 2.063482 2.115565 1.12654 3.0870087 1.0299003 1.6947398
1.6834328 0.98802596 0.79911155 1.4070157 3.2578013 2.0343394 1.5195442 2.476369
00000000: e0ad 643f 39b5 2a3f 5bf6 343f fb42 2d3f
00000010: b283 0540 a3c1 aa3f 2ee5 0e3f fec4 923f
00000020: 1f09 1540 02da 233f a0be 1c40 a0e6 1140
00000030: e7a8 a93f b17e ba3f b3ce 0440 884d 4440
00000040: 622c c33f a2a0 5140 1710 0440 6b65 0740
00000050: 7632 903f 8d91 4540 c6d3 833f 3ced d83f
00000060: ba7a d73f 45ef 7c3f 9392 4c3f 1719 b43f
00000070: d17f 5040 9e32 0240 6d80 c23f d47c 1e40

resnet_denoiser/level_0/batch_normalization_12/FusedBatchNormV3 f4 [16]
0.3268633 -0.016081892 0.15196258 -0.014001778 -0.51873034 -1.2679607 -0.17462666 0.16469432
0.1323776 0.019873908 0.055859856 0.12748365 0.20370802 -0.5011024 -0.5219973 0.07272078
00000000: a05a a73e 2cbe 83bc 149c 1b3e b767 65bc
00000010: 83cb 04bf 894c a2bf 55d1 32be a1a5 283e
00000020: fe8d 073e 9bce a23c 4ecd 643d 138b 023e
00000030: d698 503e 3f48 00bf 9da1 05bf a2ee 943d

resnet_denoiser/level_0/batch_normalization_12/FusedBatchNormV31 f4 [16]
0.16242376 0.14551583 0.25372115 0.22303747 0.374288 0.39381686 0.24388997 0.2724736
0.3115645 0.10529739 0.15829092 0.3507366 0.29013124 0.25775108 0.33575332 0.11594025
00000000: 6a52 263e 1a02 153e bde7 813e ef63 643e
00000010: ada2 bf3e 5da2 c93e 4bbe 793e a981 8b3e
00000020: 6285 9f3e 28a6 d73d 0417 223e bf93 b33e
00000030: 158c 943e f3f7 833e dce7 ab3e 1572 ed3d

resnet_denoiser/level_0/batch_normalization_13/FusedBatchNormV3 f4 [16]
-0.9306342 -0.02225518 -0.33668005 -0.03623067 -1.0604677 -0.25463384 -0.07084735 -0.6907403
-0.14077407 -0.03998462 -0.56527287 -0.11728506 -0.07446003 -1.0653691 -0.061568864 -0.059528507
00000000: 0b3e 6ebf 7f50 b6bc 5461 acbe 9c66 14bd
00000010: 68bd 87bf 5e5f 82be 6a18 91bd 5bd4 30bf
00000020: 1427 10be eac6 23bd b9b5 10bf 2633 f0bd
00000030: 807e 98bd 045e 88bf a22f 7cbd 2ad4 73bd

resnet_denoiser/level_0/batch_normalization_13/FusedBatchNormV31 f4 [16]
4.301938 5.83312 2.3191528 1.9272958 3.8763645 1.7289021 1.906895 3.3755355
1.3549764 2.9258769 3.9147341 1.4676268 0.8874089 4.557487 1.8980463 1.1918561
00000000: 7aa9 8940 eba8 ba40 006d 1440 a1b1 f63f
00000010: 5b16 7840 aa4c dd3f 2315 f43f c608 5840
00000020: de6f ad3f 9141 3b40 018b 7a40 32db bb3f
00000030: 3b2d 633f efd6 9140 2ef3 f23f be8e 983f

resnet_denoiser/level_0/batch_normalization_14/FusedBatchNormV3 f4 [32]
-0.06846231 -0.06606124 -0.29748148 -0.13791314 -0.044396773 -0.07106782 2.149903e-08 -0.41559765
-0.2398567 -0.040947463 -0.11179972 -0.14769542 -0.047937818 -0.091034606 -0.10730202 -0.13984387
-0.08798184 -0.239351 -0.10013837 -0.081197836 -0.12401998 -0.14293288 -0.036874745 -0.025328243
-0.10702395 -0.06358631 -0.033569872 -0.54228765 -0.09896545 -0.11379229 -0.08406184 -0.08210492
00000000: f835 8cbd 1e4b 87bd 7e4f 98be 1a39 0dbe
00000010: 64d9 35bd 018c 91bd deac b832 37c9 d4be
00000020: ff9c 75be 87b8 27bd 40f7 e4bd 783d 17be
00000030: 725a 44bd 5a70 babd 29c1 dbbd 3b33 0fbe
00000040: d32f b4bd 6e18 75be 5915 cdbd 0d4b a6bd
00000050: 30fe fdbd ff5c 12be f909 17bd 2d7d cfbc
00000060: 5f2f dbbd 8a39 82bd 9080 09bd 5dd3 0abf
00000070: 66ae cabd ef0b e9bd 9d28 acbd a026 a8bd

resnet_denoiser/level_0/batch_normalization_14/FusedBatchNormV31 f4 [32]
0.29132366 0.627955 1.858399 1.459471 1.3323771 0.3879145 -0.055161525 1.0008715
0.59976244 1.1364186 0.8319331 0.60694414 0.4266063 0.60824794 0.18350221 0.8200638
0.72169614 1.6602036 1.0083289 0.3632462 1.215117 0.80470645 0.44710758 0.69593775
0.37475884 1.1286992 0.42652854 0.8392867 0.38945323 0.70030886 0.5210871 1.4255646
00000000: 6028 953e a9c1 203f 05e0 ed3f f2cf ba3f
00000010: 558b aa3f bb9c c63e 0df1 61bd 8f1c 803f
00000020: 088a 193f 2a76 913f 91f9 543f b160 1b3f
00000030: 246c da3e 23b6 1b3f 01e8 3b3e b4ef 513f
00000040: 14c1 383f 8d81 d43f ec10 813f 68fb b93e
00000050: f488 9b3f 3e01 4e3f 49eb e43e fa28 323f
00000060: 64e0 bf3e 3779 903f f361 da3e 7edb 563f
00000070: 6a66 c73e 7147 333f f765 053f e778 b63f

resnet_denoiser/level_0/batch_normalization_15/FusedBatchNormV3 f4 [16]
0.34062022 -0.008768284 0.12853213 -0.005417687 -0.44245923 -1.1606916 -0.12416423 0.09188323
0.08893175 0.021361904 0.030962434 0.08346442 0.10923426 -0.39704943 -0.3297497 0.07290964
00000000: c665 ae3e d9a8 0fbc ed9d 033e da86 b1bb
00000010: 048a e2be 8b91 94bf d149 febd 462d bc3d
00000020: d921 b63d 29ff ae3c eea4 fd3c 65ef aa3d
00000030: 36b6 df3d 104a cbbe f4d4 a8be a651 953d

resnet_denoiser/level_0/batch_normalization_15/FusedBatchNormV31 f4 [16]
0.1692598 0.07933918 0.21460098 0.08629959 0.31925482 0.36050004 0.1734123 0.15201347
0.20931017 0.11318121 0.08773874 0.22962964 0.15557696 0.20422955 0.21209797 0.11624135
00000000: 7152 2d3e 947c a23d 5cc0 5b3e d7bd b03d
00000010: 5e75 a33e 7693 b83e fe92 313e 6ba9 1b3e
00000020: 6855 563e 8dcb e73d 5eb0 b33d 0824 6b3e
00000030: 914f 1f3e 8d21 513e 3630 593e f20f ee3d

resnet_denoiser/level_0/batch_normalization_2/FusedBatchNormV3 f4 [32]
-0.043672606 -0.14742555 -0.34181145 -0.077897385 -0.3642493 -0.37290743 -0.123451754 -0.1769992
-0.2967272 -0.2561375 -0.2380821 -0.5041799 -0.096453436 -0.15189931 -0.026375443 -0.11844244
-0.28454524 -0.18176663 -0.08590161 -0.09667843 -0.06950376 -0.35296917 -0.36051288 -0.31670168
-0.16158879 -0.27163053 -0.25060356 -0.32146508 -0.17005011 -0.12123172 -0.1960142 -0.08153993
00000000: 0ce2 32bd b9f6 16be e901 afbe aa88 9fbd
00000010: e27e babe b9ed bebe 46d4 fcbd 473f 35be
00000020: a1ec 97be 7424 83be cbcb 73be ef11 01bf
00000030: 6189 c5bd 7e8b 1bbe 5011 d8bc f391 f2bd
00000040: eaaf 91be 0821 3abe 2fed afbd 57ff c5bd
00000050: fd57 8ebd 60b8 b4be 2595 b8be b926 a2be
00000060: 8877 25be 2813 8bbe 1c4f 80be 1297 a4be
00000070: 9e21 2ebe 5648 f8bd f2b7 48be 68fe a6bd

resnet_denoiser/level_0/batch_normalization_2/FusedBatchNormV31 f4 [32]
1.4636492 0.65748185 0.54133296 1.1353356 0.98463935 0.84490716 0.9097227 0.44260126
0.9762646 0.69072807 0.6269252 1.4527521 0.7615738 0.7387576 1.7118777 0.71857786
0.58010143 0.7646485 1.020405 0.92599005 1.8320968 0.9219436 1.7399999 1.1483624
0.9000285 0.89551294 0.825402 1.3337185 1.5879296 1.7339759 1.9319441 1.468323
00000000: db58 bb3f bb50 283f cc94 0a3f ad52 913f
00000010: 5311 7c3f d64b 583f 96e3 683f a29c e23e
00000020: 7aec 793f 8ed3 303f 2b7e 203f c8f3 b93f
00000030: 80f6 423f 381f 3d3f cf1e db3f b8f4 373f
00000040: 8781 143f 01c0 433f a29c 823f af0d 6d3f
00000050: 2682 ea3f 7f04 6c3f 51b8 de3f 8afd 923f
00000060: 4568 663f 5640 653f 8c4d 533f 4ab7 aa3f
00000070: 4741 cb3f ecf2 dd3f f249 f73f 02f2 bb3f

resnet_denoiser/level_0/batch_normalization_3/FusedBatchNormV3 f4 [16]
0.96869105 -0.13917422 0.46932378 -0.049230836 -0.8679265 -1.2954447 -0.54374003 0.99921894
0.12276428 0.07217581 0.118636936 0.2680722 0.82021296 -0.6706894 -0.3836954 0.39641166
00000000: 23fc 773f b083 0ebe 354b f03e 46a6 49bd
00000010: 6e30 5ebf 22d1 a5bf 8c32 0bbf d0cc 7f3f
00000020: d76b fb3d e9d0 933d ecf7 f23d c240 893e
00000030: 7af9 513f 4db2 2bbf b973 c4be 78f6 ca3e

resnet_denoiser/level_0/batch_normalization_3/FusedBatchNormV31 f4 [16]
0.48135853 1.259308 0.7835967 0.7842092 0.62624913 0.40235317 0.75940716 1.6531279
0.28893855 0.38240722 0.33618334 0.7375276 1.1681888 0.3449812 0.24679632 0.63200736
00000000: a074 f63e 0131 a13f cb99 483f efc1 483f
00000010: dd51 203f 3c01 ce3e 8268 423f b299 d33f
00000020: c1ef 933e e1ca c33e 3920 ac3e 9cce 3c3f
00000030: 3687 953f 60a1 b03e 2db8 7c3e 3ccb 213f

resnet_denoiser/level_0/batch_normalization_4/FusedBatchNormV3 f4 [16]
-0.09285364 -0.06605685 -0.24087274 -0.0685343 -0.08380775 -0.18644524 -0.23970446 -0.18344392
-0.14442861 -0.19729044 -0.23344551 -0.15489489 -0.46919447 -0.13967504 -0.1140623 -0.14094312
00000000: 0d2a bebd d048 87bd 58a7 76be b65b 8cbd
00000010: 66a3 abbd 80eb 3ebe 1675 75be b9d8 3bbe
00000020: 18e5 13be 8106 4abe 570c 6fbe c49c 1ebe
00000030: 423a f0be f906 0fbe 7f99 e9bd 6553 10be

resnet_denoiser/level_0/batch_normalization_4/FusedBatchNormV31 f4 [16]
1.8676612 2.038138 2.0119414 3.0018604 2.1946762 1.5805342 2.8451846 2.3713064
2.0809362 1.577629 2.4341547 1.5934366 1.2343851 2.072834 1.2920542 1.5790174
00000000: 860f ef3f da70 0240 a6c3 0040 7b1e 4040
00000010: 9375 0c40 f24e ca3f 8117 3640 7cc3 1740
00000020: 0f2e 0540 bfef c93f 31c9 1b40 bbf5 cb3f
00000030: 5500 9e3f 50a9 0440 0862 a53f 3e1d ca3f

resnet_denoiser/level_0/batch_normalization_5/FusedBatchNormV3 f4 [32]
-0.33376497 -0.15765914 -0.35932973 -0.41074142 -0.37113142 -0.24252857 -0.14367737 -0.071267195
-0.3909745 -0.11950479 -0.21196291 -0.27910903 -0.19047847 -0.18392263 -0.217813 -0.30808917
-0.22277416 -0.048937604 -0.61149037 -0.22529933 -0.4805381 -0.20237948 -0.12184699 -0.12654047
-0.19120939 -0.23939326 -0.24367589 -0.081684016 -0.3563468 -0.44039094 -0.10601647 -0.10213497
00000000: 3ee3 aabe 6671 21be 11fa b7be b34c d2be
00000010: f004 bebe 6959 78be 2920 13be 89f4 91bd
00000020: cf2d c8be edbe f4bd ce0c 59be 61e7 8ebe
00000030: ca0c 43be 3756 3cbe 5f0a 5fbe ddbd 9dbe
00000040: e91e 64be cc72 48bd a28a 1cbf deb4 66be
00000050: 1709 f6be 913c 4fbe ea8a f9bd d393 01be
00000060: 65cc 43be 8223 75be 2c86 79be f349 a7bd
00000070: 1673 b6be ec7a e1be 2a1f d9bd 242c d1bd

resnet_denoiser/level_0/batch_normalization_5/FusedBatchNormV31 f4 [32]
0.7759106 0.90177006 1.1847789 1.5868913 0.5360404 1.3263782 0.6144325 1.1927449
0.7212441 1.0280466 0.6558804 0.37045327 0.6013101 0.9735616 1.0954458 0.9033459
0.71105814 0.8419165 1.0591202 1.2595967 0.799949 1.1385375 0.97271967 1.0012282
0.77219486 1.0581552 1.4224259 1.8164804 0.9828407 2.0534213 1.1048049 1.333659
00000000: 14a2 463f 67da 663f d6a6 973f 411f cb3f
00000010: f239 093f c3c6 a93f 734b 1d3f ddab 983f
00000020: 74a3 383f 0897 833f c7e7 273f 0dac bd3e
00000030: 75ef 193f 553b 793f 9137 8c3f ad41 673f
00000040: e807 363f d787 573f 4091 873f 773a a13f
00000050: 75c9 4c3f 99bb 913f 2804 793f 3f28 803f
00000060: 90ae 453f a171 873f 0d12 b63f 6e82 e83f
00000070: 739b 7b3f 416b 0340 3f6a 8d3f 57b5 aa3f

resnet_denoiser/level_0/batch_normalization_6/FusedBatchNormV3 f4 [16]
0.7474452 -0.07127087 0.3746724 -0.06601821 -0.9112789 -1.998895 -0.37350315 1.0145055
0.14146326 0.033913396 0.1660154 0.3706155 0.44379407 -0.95017195 -1.007241 0.8110082
00000000: 9258 3f3f 76f6 91bd 10d5 bf3e 8e34 87bd
00000010: 9349 69bf cbdb ffbf ce3b bfbe 51db 813f
00000020: bfdb 103e c6e8 0a3d f1ff 293e 51c1 bd3e
00000030: fa38 e33e 783e 73bf 46ed 80bf 3c9e 4f3f

resnet_denoiser/level_0/batch_normalization_6/FusedBatchNormV31 f4 [16]
0.37141785 0.64488935 0.62556404 1.051619 0.65753 0.6208383 0.5216481 1.6784184
0.3329486 0.17968245 0.47044042 1.0196477 0.632074 0.4887381 0.6478665 1.2930073
00000000: 7b2a be3e 7817 253f f724 203f 749b 863f
00000010: e353 283f 42ef 1e3f bb8a 053f 6ad6 d63f
00000020: 3d78 aa3e adfe 373e 91dd f03e d183 823f
00000030: 9acf 213f e13b fa3e 94da 253f 4381 a53f

resnet_denoiser/level_0/batch_normalization_7/FusedBatchNormV3 f4 [16]
-0.092208154 -0.1412885 -0.25954998 -0.057796553 -0.39308184 -0.20690082 -0.26451787 -0.13774809
-0.153302 -0.1196215 -0.37141657 -0.23468389 -0.17245477 -0.38180688 -0.264836 -0.12169352
00000000: a1d7 bcbd efad 10be bce3 84be 14bc 6cbd
00000010: 0642 c9be cfdd 53be e36e 87be d60d 0dbe
00000020: 33fb 1cbe 1efc f4bd 502a bebe f950 70be
00000030: fc97 30be 317c c3be 9698 87be 743a f9bd

resnet_denoiser/level_0/batch_normalization_7/FusedBatchNormV31 f4 [16]
3.0501435 2.3291163 0.7460557 1.0990229 1.2472565 1.8769019 1.1514503 3.055964
1.0028536 1.4076362 1.3485614 1.6778736 0.815991 1.7461016 0.98435766 1.2904488
00000000: 8d35 4340 3e10 1540 82fd 3e3f c8ac 8c3f
00000010: 1aa6 9f3f 523e f03f b962 933f ea94 4340
00000020: 825d 803f 6c2d b43f a99d ac3f 90c4 d63f
00000030: c9e4 503f 4280 df3f ddfe 7b3f 6d2d a53f

resnet_denoiser/level_0/batch_normalization_8/FusedBatchNormV3 f4 [32]
-0.103134915 -0.13851051 -0.4128605 -0.19594479 -0.090517275 -0.19182482 -0.48987147 -0.18704315
-0.24335758 -0.30605257 -0.262187 -0.17350088 -0.09011901 -0.2552962 -0.32333615 -0.536409
-0.41302842 -0.17075755 -0.5010189 -0.19965675 -0.092317685 -0.30498818 -0.4432373 -0.21538535
-0.05471332 -0.21877085 -0.27119422 -0.20232598 -0.3036697 -0.19257039 -0.63437027 -0.32105014
00000000: 6638 d3bd b3d5 0dbe 7462 d3be c0a5 48be
00000010: 1f61 b9bd ba6d 44be 6fd0 fabe 3d88 3fbe
00000020: bb32 79be ecb2 9cbe 603d 86be 37aa 31be
00000030: 5190 b8bd 2fb6 82be 518c a5be 1a52 09bf
00000040: 7678 d3be 11db 2ebe c642 00bf d272 4cbe
00000050: 0e11 bdbd 6927 9cbe 00f0 e2be fa8d 5cbe
00000060: 131b 60bd 7705 60be f8d9 8abe 8b2e 4fbe
00000070: 987a 9bbe 2c31 45be 1766 22bf af60 a4be

resnet_denoiser/level_0/batch_normalization_8/FusedBatchNormV31 f4 [32]
1.802102 0.6815633 0.4971471 0.9463982 0.79122627 1.2193933 0.6471283 0.7991742
0.9887044 0.9249152 0.63691884 2.0059652 0.91707397 0.66981953 1.1833315 2.0161536
1.8322945 0.85360104 0.78725797 1.3269522 1.0843084 2.0431483 1.6722467 0.88185996
0.9182444 1.6502494 0.965812 0.9373721 1.0920988 1.1144141 0.99557126 1.1983198
00000000: 47ab e63f ef7a 2e3f 118a fe3e 2747 723f
00000010: ce8d 4a3f 1415 9c3f 33aa 253f ae96 4c3f
00000020: bb1b 7d3f 3ec7 6c3f 1d0d 233f bc61 0040
00000030: 5cc5 6a3f 4b79 2b3f 6877 973f a908 0140
00000040: a088 ea3f 9985 5a3f bd89 493f 92d9 a93f
00000050: 9eca 8a3f f1c2 0240 2e0c d63f 93c1 613f
00000060: 1112 6b3f 5f3b d33f 753f 773f 9ef7 6f3f
00000070: e5c9 8b3f 1fa5 8e3f c2dd 7e3f 8b62 993f

resnet_denoiser/level_0/batch_normalization_9/FusedBatchNormV3 f4 [16]
0.4827849 -0.03728375 0.140593 -0.019780533 -0.51236624 -1.4394774 -0.39863622 0.22786272
0.084915355 0.029181 0.0815661 0.087431796 0.31177536 -0.56656474 -0.57018805 0.24974272
00000000: 952f f73e d8b6 18bd 9df7 0f3e c90a a2bc
00000010: 6f2a 03bf cc40 b8bf 0c1a ccbe d854 693e
00000020: 1ae8 ad3d fe0c ef3c 210c a73d 710f b33d
00000030: 05a1 9f3e 630a 11bf d8f7 11bf 8ebc 7f3e

resnet_denoiser/level_0/batch_normalization_9/FusedBatchNormV31 f4 [16]
0.23990376 0.3373593 0.23473817 0.31508857 0.36969596 0.4470883 0.5567499 0.3769807
0.19985716 0.15460892 0.23113513 0.24054477 0.44404623 0.2914228 0.36675006 0.39817
00000000: 55a9 753e 5cba ac3e 345f 703e 4a53 a13e
00000010: ca48 bd3e c2e8 e43e 2987 0e3f 9d03 c13e
00000020: 5ba7 4c3e cd51 1e3e b0ae 6c3e 5e51 763e
00000030: 075a e33e 5f35 953e aac6 bb3e f0dc cb3e

resnet_denoiser/level_0/conv2d/Conv2D i1 [16, 5, 5, 3]
-2 0 0 -6 -2 -1 -4 0
22 -1 -4 0 0 -5 1 0
0 -4 12 17 16 45 36 57
10 5 28 0 -5 0 0 7
7 41 45 56 76 81 127 32
33 68 0 -5 12 0 0 0
13 27 12 19 58 86 0 17
34 0 -3 1 0 0 -2 0
0 0 7 5 4 1 0 0
2 0 0 1 -4 6 3 -5
3 -4 -10 3 2 -4 2 -2
-6 4 2 -7 1 -4 -9 -4
-4 -10 -24 -3 0 -5 -2 -4
2 -4 -10 4 -6 -12 -13 0
127 9 3 -13 -15 -1 -4 5
1 -5 9 10 -25 -5 -15 -20
0 5 -6 10 -1 -8 1 3
-4 6 -1 -5 10 1 -9 4
-3 -6 1 -1 -4 6 -12 4
-2 -9 -5 -4 -15 -9 -6 -3
0 -3 0 9 0 -14 -9 -5
-17 -12 0 5 0 -13 6 1
3 15 16 5 -17 0 0 16
0 3 94 -8 117 60 17 -22
24 27 26 -10 -2 -2 2 0
-1 -43 15 127 23 23 17 18
3 0 0 4 -16 -9 0 -1
7 3 -22 0 0 -14 0 3
-6 10 -6 2 3 -8 0 0
-9 -3 4 -6 0 4 -1 1
5 -7 0 -14 -13 -3 -37 -4
-14 -3 0 6 0 -9 0 -4
00000000: fe00 00fa feff fc00 16ff fc00 00fb 0100
00000010: 00fc 0c11 102d 2439 0a05 1c00 fb00 0007
00000020: 0729 2d38 4c51 7f20 2144 00fb 0c00 0000
00000030: 0d1b 0c13 3a56 0011 2200 fd01 0000 fe00
00000040: 0000 0705 0401 0000 0200 0001 fc06 03fb
00000050: 03fc f603 02fc 02fe fa04 02f9 01fc f7fc
00000060: fcf6 e8fd 00fb fefc 02fc f604 faf4 f300
00000070: 7f09 03f3 f1ff fc05 01fb 090a e7fb f1ec
00000080: 0005 fa0a fff8 0103 fc06 fffb 0a01 f704
00000090: fdfa 01ff fc06 f404 fef7 fbfc f1f7 fafd
000000a0: 00fd 0009 00f2 f7fb eff4 0005 00f3 0601
000000b0: 030f 1005 ef00 0010 0003 5ef8 753c 11ea
000000c0: 181b 1af6 fefe 0200 ffd5 0f7f 1717 1112
000000d0: 0300 0004 f0f7 00ff 0703 ea00 00f2 0003
000000e0: fa0a fa02 03f8 0000 f7fd 04fa 0004 ff01
000000f0: 05f9 00f2 f3fd dbfc f2fd 0006 00f7 00fc

resnet_denoiser/level_0/conv2d_1/Conv2D f4 [16, 1, 1, 16]
9.920215e-06 -0.046042986 -0.28651807 0.00283536 -0.16782452 -0.0003048594 0.14136387 0.0027300585
0.00078474806 0.09245965 -0.14243443 -0.05781572 0.43072057 0.07472344 0.34468284 -0.23591088
0.001353269 -0.03130902 0.17393802 -0.1402402 0.73943186 -0.24791786 -0.33546492 0.032502644
-0.0060505243 -0.16043366 -0.09325658 0.14859577 -0.81440175 -0.0520574 -0.08302928 0.03866405
2.664316e-05 -0.14036338 0.44805047 0.13516961 -0.34313843 -0.0001850962 0.111813515 -0.23474178
-0.064748295 -0.28402793 -0.5308379 -0.27751312 -0.27449778 -0.23111814 0.34341568 0.49804938
5.0549068e-05 -0.43084675 0.2869867 -0.025164489 -0.33298585 -6.8646536e-05 -0.12921646 0.055289205
-1.2050526 0.2747853 -0.7873185 0.232516 0.29436514 -0.23481311 0.01954914 -0.20890066
-9.960252e-05 0.0050528245 0.25481412 0.23871464 -0.4966427 -0.0057514035 -0.0026708615 -0.28803244
-0.116191454 -0.15654483 0.14648877 0.10580973 -0.00021585042 0.29963735 -0.07547994 -0.08721006
-0.18454929 0.17741656 -0.11890493 -0.20887813 0.16832697 -0.00037783323 -0.27069846 0.23189993
-0.47644943 0.3374218 0.2372211 -0.07419344 0.00015926271 0.07518958 0.36804682 0.0052663325
-0.009053386 -0.013741346 -0.4171409 -0.43515572 -0.313651 0.025315385 0.18593284 -0.022817269
0.31679884 0.035549283 0.00063390506 -0.26394692 0.015768252 0.14122845 -0.09756884 0.28006896
-0.00023332496 0.042099252 -0.07589043 -0.043438558 0.28627118 0.024425535 0.17244266 0.15141578
0.7642078 -0.032007746 0.14228348 -0.35474133 0.39798248 -0.045455646 0.22561234 0.60070777
0.2458547 0.30951166 -0.14432321 0.04013621 0.42434484 -0.40854922 0.2128591 0.16394544
0.023482444 0.11549498 0.060407292 0.1308586 0.42016748 -0.5773709 0.111810535 -0.4029656
-0.0001607597 -0.1060136 0.025844626 0.14570862 0.2550418 0.011121227 0.6090687 -0.28765142
-0.27773485 0.3505366 0.13906549 0.29294723 -0.0004157205 0.013431561 0.034838628 0.010655044
0.0 0.0 0.0 0.0 0.0 0.0 0.0 0.0
0.0 0.0 0.0 0.0 0.0 0.0 0.0 0.0
-0.00031854966 0.31533867 0.10430801 0.011829754 0.11147726 0.00032004828 0.16334382 0.13619563
-0.048629206 0.6745542 -0.24055292 0.022301601 0.011847658 0.18082532 0.15183334 0.54704744
-0.007418091 -0.0017715237 -0.13588142 0.011366105 -0.09535549 -0.10284911 0.052175514 -0.09327552
0.23414434 -0.33529356 -0.17455722 0.06515947 0.070371866 0.1443175 -0.37375993 0.12069454
-2.2104217e-05 -5.0048e-06 0.14424595 -0.23999795 -0.117146604 0.0007148523 0.342559 0.23167127
0.17515609 -0.14326985 0.11566169 -0.025767937 -0.39621207 0.32121876 0.48004568 0.104644395
0.0006737919 -0.11494394 -0.316042 -0.41573024 -0.00095123105 -0.27658856 -0.33063766 0.74126005
-0.032230098 -0.58867574 -0.23883553 0.44338396 -0.3712869 -0.11720682 -0.27529767 -0.4022748
-0.19323128 0.3924396 -0.11435904 -0.20410247 -0.1950088 0.481578 -0.042302754 -0.19699478
-0.25592184 -0.3875525 0.21914907 0.42360014 -0.20895393 0.027809752 -0.1103937 0.3508619
00000000: 006f 2637 9297 3cbd 7fb2 92be 72d1 393b
00000010: 31da 2bbe 89d5 9fb9 b1c1 103e c8ea 323b
00000020: 8db7 4d3a 7c5b bd3d 55da 11be 2dd0 6cbd
00000030: 6887 dc3e 9a08 993d 457a b03e 9f92 71be
00000040: 2c60 b13a e33d 00bd cf1c 323e 219b 0fbe
00000050: 684b 3d3f 2ede 7dbe 0fc2 abbe 7e21 053d
00000060: 7a43 c6bb b948 24be 4efd bebd 7d29 183e
00000070: a27c 50bf 243a 55bd 410b aabd 325e 1e3d
00000080: c07f df37 6bbb 0fbe df66 e53e e769 0a3e
00000090: d7af afbe 6216 42b9 7cfe e43d 2660 70be
000000a0: c19a 84bd 1c6c 91be fee4 07bf 3316 8ebe
000000b0: f98a 8cbe 3caa 6cbe 2ed4 af3e 5400 ff3e
000000c0: a604 5438 f297 dcbe ecef 923e c225 cebc
000000d0: 1f7d aabe 54f6 8fb8 5251 04be ef76 623d
000000e0: 2a3f 9abf a9b0 8c3e b58d 49bf ad18 6e3e
000000f0: 07b7 963e d972 70be 8525 a03c 0eea 55be
00000100: b2e1 d0b8 2a92 a53b ff76 823e 9c71 743e
00000110: f447 febe 4576 bcbb 9f09 2fbb fd78 93be
00000120: c9f5 edbd 4a4d 20be 2701 163e c6b2 d83d
00000130: e855 62b9 116a 993e 3a95 9abd 309b b2bd
00000140: 7dfa 3cbe b0ac 353e 6e84 f3bd 26e4 55be
00000150: e85d 2c3e eb17 c6b9 fd98 8abe 2d77 6d3e
00000160: 2ef1 f3be 8dc2 ac3e 17ea 723e bbf2 97bd
00000170: c2ff 2639 fffc 993d a270 bc3e 3391 ac3b
00000180: a754 14bc 6223 61bc 7e93 d5be bbcc debe
00000190: dd96 a0be 3662 cf3c 2e65 3e3e 48eb babc
000001a0: 7533 a23e 209c 113d a62c 263a 0d24 87be
000001b0: 6c2c 813c 319e 103e 2cd2 c7bd 3365 8f3e
000001c0: b1a8 74b9 4470 2c3d 716c 9bbd a1ec 31bd
000001d0: 2392 923e 0f18 c83c cf94 303e bd0c 1b3e
000001e0: 1fa3 433f 8e1a 03bd c3b2 113e a8a0 b5be
000001f0: 5cc4 cb3e b32f 3abd ec06 673e fcc7 193f
00000200: 56c1 7b3e 5078 9e3e 77c9 13be de65 243d
00000210: ba43 d93e 5d2d d1be bcf7 593e 50e1 273e
00000220: 415e c03c a288 ec3d a36d 773d ccff 053e
00000230: 3120 d73e 94ce 13bf ecfc e43d 8251 cebe
00000240: 9a91 28b9 a91d d9bd 1cb8 d33c a434 153e
00000250: d794 823e cf35 363c edeb 1b3f 0c47 93be
00000260: 4333 8ebe 8979 b33e 2f67 0e3e 2efd 953e
00000270: 10f5 d9b9 0d10 5c3c f3b2 0e3d 7e92 2e3c
00000280: 0000 0000 0000 0000 0000 0000 0000 0000
00000290: 0000 0000 0000 0000 0000 0000 0000 0000
000002a0: 0000 0000 0000 0000 0000 0000 0000 0000
000002b0: 0000 0000 0000 0000 0000 0000 0000 0000
000002c0: 0303 a7b9 1274 a13e 709f d53d 96d1 413c
000002d0: 314e e43d 27cc a739 9a43 273e de76 0b3e
000002e0: 6b2f 47bd 96af 2c3f 8153 76be d9b1 b63c
000002f0: ae1c 423c 462a 393e 337a 1b3e 4d0b 0c3f
00000300: 7513 f3bb 7932 e8ba 8024 0bbe e638 3a3c
00000310: bd49 c3bd 8ea2 d2bd feb5 553d 3c07 bfbd
00000320: 89c3 6f3e 99ab abbe 21bf 32be 5472 853d
00000330: 201f 903d f7c7 133e 765d bfbe b32e f73d
00000340: 726c b9b7 e8ee a7b6 36b5 133e 06c2 75be
00000350: 8fea efbd ed64 3b3a e563 af3e 3c3b 6d3e
00000360: 1e5c 333e 55b5 12be 09e0 ec3d 4817 d3bc
00000370: 4fdc cabe c976 a43e 8cc8 f53e cd4f d63d
00000380: 69a1 303a ba67 ebbd 42d0 a1be 98da d4be
00000390: 095c 79ba 049d 8dbe 5749 a9be 38c3 3d3f
000003a0: b503 04bd 74b3 16bf 4d91 74be 3903 e33e
000003b0: 5119 bebe 210a f0bd d1f3 8cbe f6f6 cdbe
000003c0: 6cde 45be d8ed c83e 1335 eabd 3d00 51be
000003d0: 63b0 47be 6491 f63e a745 2dbd 00b9 49be
000003e0: 3008 83be 486d c6be 9d68 603e 1ee2 d83e
000003f0: 05f8 55be 47d1 e33c 1816 e2bd 2ca4 b33e

resnet_denoiser/level_0/conv2d_2/Conv2D i1 [32, 3, 3, 16]
21 -12 0 26 72 4 -1 0
0 -3 0 0 -8 -1 3 0
5 0 3 1 27 0 -7 0
14 -2 0 0 59 0 -39 0
23 0 8 -69 0 4 -4 -2
1 -8 0 4 1 0 0 -3
20 -40 20 28 0 2 -49 -4
-3 0 0 0 0 -4 -49 0
0 -57 -30 -54 -117 0 40 0
-40 0 0 0 28 -21 -127 82
0 0 0 -1 -1 1 2 -4
1 -2 0 18 3 0 12 0
3 -64 10 -2 0 0 1 0
-9 1 0 23 0 -6 13 8
0 -8 2 -1 0 0 -9 0
-24 0 0 39 2 0 0 8
8 0 -5 -12 0 0 0 -22
4 0 0 18 0 0 1 0
0 1 0 0 0 0 0 51
7 2 0 0 1 5 0 6
0 4 0 73 0 0 -16 0
12 3 0 -2 0 0 26 3
0 0 0 -2 60 0 -3 22
5 10 0 8 -16 0 32 12
0 3 10 0 60 0 48 37
23 0 0 57 0 127 36 1
-15 5 0 51 0 0 105 -1
-48 3 0 24 -1 0 99 41
0 0 0 -20 55 0 48 0
10 7 0 1 -10 0 70 2
0 1 0 -9 0 2 -2 123
0 0 0 29 0 25 32 11
00000000: 15f4 001a 4804 ff00 00fd 0000 f8ff 0300
00000010: 0500 0301 1b00 f900 0efe 0000 3b00 d900
00000020: 1700 08bb 0004 fcfe 01f8 0004 0100 00fd
00000030: 14d8 141c 0002 cffc fd00 0000 00fc cf00
00000040: 00c7 e2ca 8b00 2800 d800 0000 1ceb 8152
00000050: 0000 00ff ff01 02fc 01fe 0012 0300 0c00
00000060: 03c0 0afe 0000 0100 f701 0017 00fa 0d08
00000070: 00f8 02ff 0000 f700 e800 0027 0200 0008
00000080: 0800 fbf4 0000 00ea 0400 0012 0000 0100
00000090: 0001 0000 0000 0033 0702 0000 0105 0006
000000a0: 0004 0049 0000 f000 0c03 00fe 0000 1a03
000000b0: 0000 00fe 3c00 fd16 050a 0008 f000 200c
000000c0: 0003 0a00 3c00 3025 1700 0039 007f 2401
000000d0: f105 0033 0000 69ff d003 0018 ff00 6329
000000e0: 0000 00ec 3700 3000 0a07 0001 f600 4602
000000f0: 0001 00f7 0002 fe7b 0000 001d 0019 200b

resnet_denoiser/level_0/conv2d_3/Conv2D f4 [16, 1, 1, 16]
0.22599131 -0.464033 -0.09616901 0.0650236 -0.3631695 -0.08385833 -0.10567576 0.08126564
-0.25019798 0.28355008 -0.68591666 -0.13658592 0.07817463 0.24875419 0.14056212 0.031862102
-0.030186238 0.10724227 -0.1270714 0.6362425 -0.17809814 0.42347628 0.07970658 0.3234103
-0.37718117 0.34383994 0.2336713 0.1745988 -0.044396255 0.23027056 0.05383029 0.12879193
-0.018555097 0.22040166 0.0021536427 -0.43571424 0.24206503 0.19291545 -0.3017217 -0.42477208
0.118523896 0.22285293 -0.2946005 -0.24230571 0.34216157 0.40631434 0.028391162 -0.45951173
0.0031457047 0.289195 -0.5841579 0.0011816414 0.034572728 -0.1347392 0.65543664 0.032013796
-0.31248 -0.11575276 -0.020069651 -0.10187037 0.1490419 0.03954486 -0.24842148 -0.034554992
0.06431638 0.19618541 -0.118467905 -0.072702736 -0.39069578 -0.6432397 0.065829284 -2.6787347e-07
-1.0151396 0.11543078 -0.2590207 -0.6865922 0.15044159 0.15424067 -0.0021945147 -0.57915443
0.0029784387 0.121676534 0.875756 0.32985246 0.5655772 0.32852283 0.19200711 -0.24467434
0.015327085 -0.4978507 0.7860496 -0.79185736 0.035957832 -0.25502256 -0.0024851095 -0.017055636
-0.009562561 0.003844125 0.12518886 -0.0842113 0.10593842 0.3558813 -0.08010258 -0.07150782
0.22981326 -0.051256523 0.45553195 0.19645984 0.45300996 0.01924554 0.36178705 0.4966507
0.37621236 0.10637022 -0.061101437 -0.46466148 -0.11462065 -0.21705882 -0.11985409 -0.0423348
0.21043874 0.17239189 -0.15037656 0.16144566 -0.07511375 0.19472523 -0.30431914 -0.057756193
0.09849731 -0.0016776941 -0.01618377 0.08582111 0.47737885 -0.13548307 -0.043959547 -0.52083886
0.11185216 -0.2775822 0.3038264 -0.084734395 -0.20112932 -0.3981039 -0.64083165 -0.0012903161
-0.909426 -0.6767306 0.08086564 -0.33732376 0.059553936 0.6410137 0.7370795 0.05588344
-0.3224465 -0.5109307 0.16964681 0.07877061 -0.31668323 0.02283714 0.021793555 -0.09493293
0.4156203 -0.09377251 0.23001222 0.16414525 0.1107429 0.57594377 -0.24752007 -0.24667212
0.069086656 -0.0859304 -0.5976175 -0.43562117 -0.045691397 -0.2322526 0.1736534 0.16169353
0.5064461 -0.7223161 -0.16355503 0.11742744 0.19539313 -0.11808479 0.11136106 0.5010268
-0.09758725 0.8875846 -0.15370843 -0.18138559 -0.7430407 -0.097884946 0.21494164 -0.41210833
0.009612714 -0.3459488 -0.3030681 0.10489259 0.057678718 0.47143906 0.273331 -0.009635018
-0.03584159 0.25763458 -0.0809907 0.17281614 -0.16250165 0.235755 0.291696 -0.47415367
-0.061355412 -0.4507786 -0.5207395 0.035680957 0.011302928 0.39370465 0.04754827 -0.36524945
-0.24639693 -0.29940853 -0.40478167 -0.8801396 0.64098173 -0.48649794 -0.003951194 -0.09246541
0.19768657 -0.0833581 -0.17859742 0.49030325 0.057116564 0.07984816 -0.25374693 -0.6064104
0.15641382 0.079123355 -0.30865064 -0.0028082626 0.123934165 -0.35785195 0.0057874 -0.59367394
0.23779412 -0.32144308 -0.13184175 0.17966981 -0.406695 -0.06843579 0.01481969 -0.23670226
-0.2551763 -0.4001747 0.13207579 -0.44325277 0.19868708 -0.0006111808 -0.109992534 -0.552478
00000000: 446a 673e bc95 edbe 42f4 c4bd 182b 853d
00000010: 5af1 b9be ebbd abbd 886c d8bd 9a6e a63d
00000020: f319 80be 7a2d 913e 3c98 2fbf 2edd 0bbe
00000030: 051a a03d 6bb9 7e3e 84ef 0f3e d681 023d
00000040: 2149 f7bc d6a1 db3d 011f 02be cae0 223f
00000050: 5c5f 36be e2d1 d83e 343d a33d 0996 a53e
00000060: e41d c1be ca0b b03e 8747 6f3e 07ca 323e
00000070: d9d8 35bd 0ccc 6b3e 267d 5c3d 08e2 033e
00000080: dc00 98bc f9b0 613e 2124 0d3b f015 dfbe
00000090: e5df 773e a18b 453e 447b 9abe ba7b d9be
000000a0: a8bc f23d 8f33 643e e0d5 96be fd1e 78be
000000b0: cd2f af3e 6f08 d03e 9594 e83c 1f45 ebbe
000000c0: 2b28 4e3b 5e11 943e 5f8b 15bf 4ee1 9a3a
000000d0: 229c 0d3d 13f9 09be b2ca 273f e620 033d
000000e0: 61fd 9fbe c80f edbd 1c69 a4bc 6aa1 d0bd
000000f0: 719e 183e cbf9 213d 3362 7ebe 8989 0dbd
00000100: 4eb8 833d d4e4 483e 4d9f f2bd 2ce5 94bd
00000110: 4709 c8be 5bab 24bf 81d1 863d 40d0 8fb4
00000120: 18f0 81bf f966 ec3d 5c9e 84be 82c4 2fbf
00000130: 5c0d 1a3e 44f1 1d3e d9d1 0fbb 7743 14bf
00000140: e931 433b 8c31 f93d 8c31 603f 6ce2 a83e
00000150: abc9 103f 2534 a83e 839d 443e e98b 7abe
00000160: 741e 7b3c 49e6 febe 8c3a 493f 2ab7 4abf
00000170: 8548 133d 5192 82be 38dd 22bb 43b8 8bbc
00000180: 4aac 1cbc b7ed 7b3b 8231 003e f976 acbd
00000190: 3ef6 d83d 1336 b63e d20c a4bd b172 92bd
000001a0: 2b54 6b3e 5cf2 51bd 7c3b e93e c52c 493e
000001b0: ecf0 e73e d3a8 9d3c 273c b93e 0049 fe3e
000001c0: e89e c03e a1d8 d93d 8045 7abd 1ce8 edbe
000001d0: 3bbe eabd ab44 5ebe 1076 f5bd 4167 2dbd
000001e0: 417d 573e 8087 303e 50fc 19be 0352 253e
000001f0: 3dd5 99bd 0d66 473e b8cf 9bbe c291 6cbd
00000200: f5b8 c93d 13e6 dbba d393 84bc fac2 af3d
00000210: 006b f43e 13bc 0abe ed0e 34bd b255 05bf
00000220: bf12 e53d 411f 8ebe 228f 9b3e 3a89 adbd
00000230: d8f4 4dbe 46d4 cbbe 8b0d 24bf d31f a9ba
00000240: 24d0 68bf 373e 2dbf e29c a53d b3b5 acbe
00000250: d4ee 733d 7919 243f 3eb1 3c3f 09e6 643d
00000260: b517 a5be 5bcc 02bf e5b7 2d3e 7c52 a13d
00000270: 4e24 a2be f414 bb3c 6688 b23c 326c c2bd
00000280: 2fcc d43e cd0b c0bd 5388 6b3e b115 283e
00000290: 2ccd e23d 0d71 133f e775 7dbe 9e97 7cbe
000002a0: 4e7d 8d3d 47fc afbd 76fd 18bf bd09 dfbe
000002b0: e726 3bbd a0d3 6dbe 32d2 313e fd92 253e
000002c0: 74a6 013f b5e9 38bf f87a 27be cc7d f03d
000002d0: 2315 483e 70d6 f1bd 4411 e43d 4b43 003f
000002e0: d3db c7bd bf38 633f be65 1dbe 25bd 39be
000002f0: ea37 3ebf e777 c8bd a919 5c3e ddff d2be
00000300: a57e 1d3c 3320 b1be be2b 9bbe edd1 d63d
00000310: 8540 6c3d 7660 f13e 0af2 8b3e 32dc 1dbc
00000320: a2ce 12bd aee8 833e 74de a5bd b7f6 303e
00000330: d566 26be c269 713e 2e59 953e 45c4 f2be
00000340: d04f 7bbd 74cc e6be 2f4f 05bf 3226 123d
00000350: eb2f 393c a893 c93e fac1 423d fa01 bbbe
00000360: 7a4f 7cbe 134c 99be 8b3f cfbe d450 61bf
00000370: 6117 243f 4216 f9be 0579 81bb 815e bdbd
00000380: 596e 4a3e a7b7 aabd 3ee2 36be 0709 fb3e
00000390: 0ff3 693d 6f87 a33d 1eeb 81be b63d 1bbf
000003a0: f22a 203e 6d0b a23d 7507 9ebe d40a 38bb
000003b0: 32d1 fd3d 5f38 b7be 3ba4 bd3b 04fb 17bf
000003c0: 4d80 733e 3094 a4be 8601 07be 5dfb 373e
000003d0: 543a d0be 1028 8cbd 49ce 723c 1462 72be
000003e0: 78a6 82be b3e3 ccbe e03e 073e 07f2 e2be
000003f0: a074 4b3e a637 20ba c443 e1bd 336f 0dbf

resnet_denoiser/level_0/conv2d_4/Conv2D f4 [16, 1, 1, 16]
0.067354016 -0.01773965 0.2553158 -0.17620455 0.08037687 -0.40774798 -0.44540656 0.12722518
-0.16245091 0.3733492 -0.8420628 -0.03172792 -0.13739578 0.002864736 -0.26755077 -0.15266411
-0.19251283 0.3951548 0.07427714 -0.09821188 -0.0994751 -0.030820508 0.70315593 0.5086812
-0.019901326 -0.6235561 0.1603799 -0.044774115 -0.26708475 0.054725613 0.08818204 -0.460577
-0.2636545 -0.47222522 -0.19105086 -0.34147504 0.15795955 0.7518255 0.10739978 -0.0077645774
0.39512268 -0.81860566 0.016201708 0.12655571 -0.19753535 -0.27342775 0.3579463 0.2766467
-0.14931104 -0.006922865 0.49661157 0.45477617 0.0032893957 -0.079776555 0.09307057 -3.4421417e-05
-0.07793739 -0.033261437 0.41695657 -0.19548057 0.45306024 0.1590556 -0.04441412 -0.26492432
-0.03351972 0.49696654 0.04578344 -0.31741673 -0.048722155 0.38950527 -0.32952595 0.003909607
0.00027978388 -0.6054984 -1.0180278 -0.008250191 0.033243533 0.020724509 0.2760452 0.13584468
-0.2946849 0.050953936 0.25284243 -0.37235627 -0.39708817 0.23756409 -0.24579288 0.016125338
-0.000873178 -0.15165988 0.13631403 0.77321434 0.16492397 -0.10377337 0.33330515 0.045578565
-0.071153454 -0.00047492498 0.17327523 0.30477136 -0.04278943 -0.008300045 0.03218552 -0.5527813
0.43233028 -0.0017009602 0.15539251 0.13145193 -0.07169886 0.6211051 0.2799069 0.08916811
0.11890987 0.0753963 0.09802195 0.15398392 0.13854717 0.22589563 0.58153695 0.10017883
0.045316428 -0.6534544 0.66239053 0.1986434 0.077368855 0.07082251 1.0273844 0.028415954
0.07757131 0.2025903 -0.3865198 0.14188808 0.057871174 -0.6257546 -0.16668493 0.24592026
-0.08434704 0.97522646 -0.31278172 -0.13716029 0.008559701 -0.33013543 0.028231265 0.26253217
0.50018305 -0.267204 -0.44051737 -0.001119549 0.37412637 -0.6207301 -0.57367337 0.36811185
-0.16268851 0.39179587 0.020444667 0.011558161 0.28423506 0.0043273834 0.13517079 -0.44701672
0.022162389 -0.013224745 0.038524963 -0.050875526 0.57561773 0.29097965 -0.41623 -0.13328423
-0.034235924 -0.10552111 -0.2651952 0.002254845 -0.37850732 -0.044473864 -0.100161605 0.018487744
-0.14282684 0.14663087 0.7328234 -0.00911348 -0.5269611 -0.06128329 0.38807067 -0.20114675
-0.15770093 0.06877702 0.06285798 -0.5634102 -0.12422569 -0.2057005 -0.10334117 -0.4567031
-0.44934195 -0.043655 -0.13352992 -0.12622282 0.38933936 0.32386944 -0.11933244 0.15756525
0.43796545 0.24319313 0.013980032 -0.3376555 0.15602066 0.65338236 0.15340762 0.3740379
-0.31029892 0.065445036 -0.23105057 1.0937524 -0.05092608 0.11713706 0.010349041 0.66799843
0.0007712983 0.13181444 -0.21712306 0.22318773 0.042797927 0.060931344 0.19338718 0.16312228
0.3683399 0.0001752332 -0.49624753 0.13183303 0.09089392 -0.3566925 -0.15743655 -0.032373752
0.0017389203 0.2322349 -0.039237 0.33242303 0.11804443 -0.6658137 -0.17646539 -0.5406149
0.57362986 -0.10589525 0.5387853 0.06303194 0.29486993 -0.25396836 0.41465044 -0.36543408
-0.57004577 -0.19567198 -0.3628273 0.78641075 0.7186033 -0.46271676 -0.47757673 0.13532265
00000000: e7f0 893d be52 91bc c1b8 823e f76e 34be
00000010: a19c a43d 58c4 d0be 540c e4be 5147 023e
00000020: 8859 26be a027 bf3e 6d91 57bf 23f5 01bd
00000030: 7bb1 0cbe 4bbe 3b3b 6afc 88be fb53 1cbe
00000040: 1522 45be bb51 ca3e 9d1e 983d 4f23 c9bd
00000050: 9ab9 cbbd 4a7b fcbc 0702 343f ee38 023f
00000060: 1b08 a3bc 5fa1 1fbf a13a 243e 1065 37bd
00000070: 55bf 88be f727 603d c998 b43d c0d0 ebbe
00000080: b9fd 86be 81c7 f1be d6a2 43be d1d5 aebe
00000090: 26c0 213e a377 403f 6af4 db3d ff6d febb
000000a0: 854d ca3e 2490 51bf 72b9 843c d297 013e
000000b0: b546 4abe b9fe 8bbe bd44 b73e a3a4 8d3e
000000c0: fee4 18be 33d9 e2bb df43 fe3e 6cd8 e83e
000000d0: e792 573b e461 a3bd c89b be3d b75f 10b8
000000e0: a39d 9fbd 253d 08bd 557b d53e 0f2c 48be
000000f0: 83f7 e73e 79df 223e 95eb 35bd 29a4 87be
00000100: f94b 09bd 6672 fe3e 6b87 3b3d 7284 a2be
00000110: e290 47bd 3c6d c73e a0b7 a8be 291c 803b
00000120: f5af 9239 f101 1bbf bc4e 82bf cf2b 07bc
00000130: 5f2a 083d 72c6 a93c cc55 8d3e de1a 0b3e
00000140: f0e0 96be 13b5 503d 9074 813e 7ba5 bebe
00000150: 244f cbbe 0044 733e 21b1 7bbe 4919 843c
00000160: fce5 64ba ba4c 1bbe e895 0b3e 60f1 453f
00000170: d4e1 283e 2287 d4bd f9a6 aa3e 97b0 3a3d
00000180: e7b8 91bd 5aff f8b9 106f 313e fe0a 9c3e
00000190: f843 2fbd e9fc 07bc f7d4 033d 1383 0dbf
000001a0: 655a dd3e c1f2 deba 371f 1f3e 569b 063e
000001b0: dad6 92bd be00 1f3f f54f 8f3e c59d b63d
000001c0: 0587 f33d 6069 9a3d bbbf c83d f6ad 1d3e
000001d0: 4fdf 0d3e 2f51 673e 9bdf 143f 8f2a cd3d
000001e0: b89d 393d ca48 27bf 6d92 293f 2d69 4b3e
000001f0: 9073 9e3d 640b 913d 5581 833f 93c8 e83c
00000200: b5dd 9e3d d573 4f3e ece5 c5be 1c4b 113e
00000210: 530a 6d3d 7431 20bf 74af 2abe 85d2 7b3e
00000220: 24be acbd 71a8 793f ed24 a0be bf73 0cbe
00000230: fd3d 0c3c 8307 a9be 4145 e73c 9e6a 863e
00000240: ff0b 003f f6ce 88be 7e8b e1be d5bd 92ba
00000250: 7e8d bf3e 2be8 1ebf 42dc 12bf 2879 bc3e
00000260: d197 26be 7899 c83e 937b a73c 715e 3d3c
00000270: 4287 913e b9cc 8d3b 366a 0a3e 60df e4be
00000280: e68d b53c 9aac 58bc 5acc 1d3d db62 50bd
00000290: af5b 133f 49fb 943e 191c d5be a97b 08be
000002a0: f83a 0cbd 741b d8bd aac7 87be 06c6 133b
000002b0: b6cb c1be 3a2a 36bd 8721 cdbd 9c73 973c
000002c0: 3341 12be 6726 163e 509a 3b3f b550 15bc
000002d0: ece6 06bf 3004 7bbd 33b1 c63e 6af9 4dbe
000002e0: 5a7c 21be f7da 8c3d afbb 803d a73b 10bf
000002f0: 0a6a febd 27a3 52be 89a4 d3bd fdd4 e9be
00000300: 2610 e6be 96cf 32bd 11bc 08be 8e40 01be
00000310: 7d57 c73e 37d2 a53e 9164 f4bd c958 213e
00000320: 023d e03e 9f07 793e 810c 653c 2fe1 acbe
00000330: e1c3 1f3e 1144 273f e316 1d3e e581 bf3e
00000340: 80df 9ebe 0c08 863d 8598 6cbe 1400 8c3f
00000350: de97 50bd 8ee5 ef3d 068f 293c f201 2b3f
00000360: f430 4a3a 5dfa 063e 8255 5ebe 538b 643e
00000370: e14c 2f3d 2593 793d 4a07 463e 8709 273e
00000380: 0c97 bc3e cebe 3739 2814 febe 3dff 063e
00000390: 9726 ba3d 66a0 b6be 0c37 21be 579a 04bd
000003a0: 7cec e33a fcce 6d3e fab6 20bd 5a33 aa3e
000003b0: 47c1 f13d c472 2abf 58b3 34be bd65 0abf
000003c0: 68d9 123f 9cdf d8bd d5ed 093f e416 813d
000003d0: 31f9 963e 2408 82be 104d d43e 2d1a bbbe
000003e0: 85ee 11bf 3c5e 48be 80c4 b9be 3752 493f
000003f0: 63f6 373f 36e9 ecbe f084 f4be 0592 0a3e

resnet_denoiser/level_0/conv2d_5/Conv2D i1 [32, 3, 3, 16]
0 0 -7 0 -5 0 -6 -70
-83 -20 -15 0 0 0 0 -23
-23 0 -46 3 15 7 -13 0
0 0 -8 1 0 -2 42 13
0 3 1 0 0 0 0 -81
-15 -24 0 0 -1 0 0 4
48 -16 0 0 0 -40 -21 -16
-127 0 -4 9 0 0 -30 -39
-45 16 -3 -4 24 0 -104 -18
-91 12 0 0 12 -10 0 0
0 0 5 0 0 0 -49 -19
-81 -2 4 0 18 0 0 0
17 0 0 5 4 -12 -3 -44
-52 -34 0 43 1 0 0 -19
-39 34 -61 26 12 8 0 1
1 0 0 0 12 0 18 26
0 0 11 0 5 0 -1 -26
0 -24 0 0 28 0 0 0
23 0 13 0 -6 0 5 0
0 0 0 1 0 0 0 9
0 0 11 -6 -24 0 13 41
2 0 12 1 33 0 -16 0
8 -12 21 0 -13 -7 0 0
-5 11 0 0 0 0 0 0
28 17 17 0 0 6 15 0
3 16 0 0 0 4 0 36
0 2 5 0 2 0 0 4
32 127 0 -49 38 0 -50 0
49 0 64 -1 0 -26 0 40
0 13 5 0 25 0 -16 2
29 15 0 0 -8 0 0 0
-27 0 6 4 0 0 0 12
00000000: 0000 f900 fb00 faba adec f100 0000 00e9
00000010: e900 d203 0f07 f300 0000 f801 00fe 2a0d
00000020: 0003 0100 0000 00af f1e8 0000 ff00 0004
00000030: 30f0 0000 00d8 ebf0 8100 fc09 0000 e2d9
00000040: d310 fdfc 1800 98ee a50c 0000 0cf6 0000
00000050: 0000 0500 0000 cfed affe 0400 1200 0000
00000060: 1100 0005 04f4 fdd4 ccde 002b 0100 00ed
00000070: d922 c31a 0c08 0001 0100 0000 0c00 121a
00000080: 0000 0b00 0500 ffe6 00e8 0000 1c00 0000
00000090: 1700 0d00 fa00 0500 0000 0001 0000 0009
000000a0: 0000 0bfa e800 0d29 0200 0c01 2100 f000
000000b0: 08f4 1500 f3f9 0000 fb0b 0000 0000 0000
000000c0: 1c11 1100 0006 0f00 0310 0000 0004 0024
000000d0: 0002 0500 0200 0004 207f 00cf 2600 ce00
000000e0: 3100 40ff 00e6 0028 000d 0500 1900 f002
000000f0: 1d0f 0000 f800 0000 e500 0604 0000 000c

resnet_denoiser/level_0/conv2d_6/Conv2D f4 [16, 1, 1, 16]
-0.027051406 -0.40683684 -0.1392772 -0.14920464 -0.08595414 -0.25913554 0.37778515 0.28540576
-0.3880577 -0.13611208 0.24313846 -0.20546442 -0.0003534003 0.031439967 -0.19353473 -0.15995507
-0.0113297785 -0.06773636 0.089453615 0.03956012 3.9357466e-05 -0.14856422 0.5763734 0.15780565
-0.14443225 0.099774145 0.30561668 -0.039870355 0.09311379 0.6720904 -0.22137271 -0.42961255
-0.09717805 -0.33066753 0.35277483 -0.023438055 0.34485844 -0.70557487 0.69190663 0.11062866
0.71211714 0.006622268 1.2131728 -0.34096423 -0.11469239 -0.023355875 -0.3438156 -0.06211116
-0.1878997 -0.14604518 -0.2553779 0.12395345 -0.2262522 0.021117281 -0.20308922 -0.43197402
-0.3434417 0.17856748 0.13642663 -0.32138482 0.52026516 -0.0076403315 -0.16399229 -0.038638875
-0.63008755 -0.5217481 -0.7547687 -0.082320824 -0.63959265 -0.3100057 -0.011555207 0.21775891
-0.7435935 -0.46018377 0.17968786 -0.74637485 0.6352088 -0.055919252 -0.2598668 -0.19421504
0.32409218 0.13870008 -0.36388618 -0.64705306 0.025595115 0.39832872 -0.16063423 0.017355138
-0.5856694 0.047567196 0.025982596 -0.04491211 -0.41380298 0.19962725 0.16338561 0.054498795
0.48798656 0.099037565 0.30732155 -0.1716747 0.3608855 0.12268697 0.004120983 -0.00023417515
0.07084589 0.30010158 -0.019793045 0.31306908 -0.30563858 -0.030174641 -0.03202242 -0.027824543
-0.26094002 0.20524234 -0.04676449 0.02379382 -0.20528725 -0.11396294 -0.19388117 0.13708784
-0.11592129 0.15709047 -0.40063208 0.042262692 0.4619316 0.27563232 -0.08532853 -0.45246422
-0.08074094 -0.015915371 -0.48070884 0.007593775 0.08241584 -0.3244494 0.15652683 0.40509045
-0.15845993 -0.6444884 -0.47892934 -0.15453221 -0.4930966 -0.3680767 0.16676804 0.3993624
-0.30165142 0.05620151 0.114018604 0.11939816 0.09602686 -1.0193338 -0.12011634 -0.20784837
0.3765236 0.060578503 0.014141413 -0.019856296 -0.33399034 -0.047349565 0.036452126 -0.052608974
-0.3801356 -0.0001232485 0.5311651 -0.109216504 -0.5874949 -0.22995004 -0.9909186 -0.04789698
-0.00027421155 0.12538931 -0.42831403 0.007527701 0.10840763 -0.21155271 0.055837497 -0.024467317
0.0030288107 0.15971655 0.38800603 -0.14572702 -0.14872524 -0.23554741 0.25340256 0.22325918
-0.06993269 -0.24731193 -0.023045138 -0.124432676 0.36577296 0.37318027 -0.2773177 0.13624653
-0.25246137 -0.27760395 0.20719948 -0.0002628194 -0.123373635 -0.5886396 0.077727884 0.024261184
0.03809338 -0.054449357 0.016802248 0.08134462 0.075138934 0.1144213 -0.09499162 0.09756064
-0.80666006 0.00016424996 -0.0043317624 -0.57525504 -0.58247477 0.49531773 -0.024202425 0.07108508
-0.3902306 -0.74575967 -0.4890674 0.040528495 -0.23451509 -0.76148164 -0.07915842 0.23400532
-0.008448247 0.19664387 0.2787812 -0.23406428 -0.110994145 0.21402955 -0.37993017 0.09016891
-0.039732702 -0.018882282 -0.24518165 -0.10868926 0.021622352 -0.031782556 -0.19969092 -0.030706478
0.15896547 -0.030327247 0.25754377 -0.10014012 0.4739764 0.06581764 -0.08040738 -0.15390317
0.38650915 0.20287168 0.08264569 -0.12226761 -0.29958043 0.072656475 -0.35593152 0.021270774
00000000: e99a ddbc eb4c d0be af9e 0ebe 1ac9 18be
00000010: b908 b0bd 6aad 84be 0e6d c13e b420 923e
00000020: 80af c6be f760 0bbe 4af9 783e 4465 52be
00000030: 9648 b9b9 32c7 003d f82d 46be 43cb 23be
00000040: 89a0 39bc 5cb9 8abd 7533 b73d cb09 223d
00000050: c213 2538 3821 18be 358d 133f ce97 213e
00000060: 0ce6 13be 6356 cc3d ca79 9c3e 194f 23bd
00000070: 71b2 be3d 1e0e 2c3f 87af 62be 2df6 dbbe
00000080: 4905 c7bd 414d a9be e79e b43e 2a01 c0bc
00000090: 4991 b03e 8ea0 34bf cb20 313f 4791 e23d
000000a0: 4f4d 363f 9cff d83b 3f49 9b3f dd92 aebe
000000b0: d8e3 eabd d254 bfbc 9908 b0be 4668 7ebd
000000c0: c768 40be de8c 15be e4c0 82be 4edb fd3d
000000d0: a8ae 67be 26fe ac3c 9ff6 4fbe b32b ddbe
000000e0: 97d7 afbe 65da 363e 6cb3 0b3e 8d8c a4be
000000f0: 1930 053f bf5b fabb 98ed 27be cc43 1ebd
00000100: 6b4d 21bf 4991 05bf 8638 41bf d297 a8bd
00000110: 58bc 23bf 11b9 9ebe 0d52 3dbc 31fc 5e3e
00000120: 255c 3ebf 359d ebbe 1800 383e 6c12 3fbf
00000130: 0b9d 223f 960b 65bd 430d 85be 4fe0 46be
00000140: 69ef a53e 6507 0e3e 4a4f babe 45a5 25bf
00000150: d9ac d13c bef1 cb3e 4d7d 24be 5d2c 8e3c
00000160: 6eee 15bf d2d5 423d 74d9 d43c c3f5 37bd
00000170: fcdd d3be 166b 4c3e 8f4e 273e 213a 5f3d
00000180: 60d9 f93e 35d4 ca3d 4059 9d3e 7ecb 2fbe
00000190: fcc5 b83e 4e43 fb3d 5009 873b ea8c 75b9
000001a0: a617 913d eaa6 993e 0625 a2bc 974a a03e
000001b0: a97c 9cbe cf30 f7bc f129 03bd 4cf0 e3bc
000001c0: ee99 85be 0c2b 523e 1f8c 3fbd 42eb c23c
000001d0: d236 52be 6765 e9bd c988 46be c160 0c3e
000001e0: 2468 edbd 53dc 203e a61f cdbe a51b 2d3d
000001f0: 4c82 ec3e ae1f 8d3e b9c0 aebd 64a9 e7be
00000200: 825b a5bd f460 82bc 781f f6be 34d5 f83b
00000210: a3c9 a83d 3b1e a6be 9248 203e 0468 cf3e
00000220: 5243 22be 31fd 24bf 3a36 f5be b13d 1ebe
00000230: 2877 fcbe 8d74 bcbe 3ec5 2a3e 3a79 cc3e
00000240: 0e72 9abe 8e33 663d 9682 e93d 0687 f43d
00000250: bba9 c43d 8879 82bf 8eff f5bd 34d6 54be
00000260: b4c7 c03e 2a21 783d 63b1 673c aca9 a2bc
00000270: c800 abbe 9ef1 41bd d34e 153d 827c 57bd
00000280: 22a1 c2be 443c 01b9 70fa 073f e7ac dfbd
00000290: 1166 16bf 0678 6bbe d7ac 7dbf a02f 44bd
000002a0: 0dc4 8fb9 0e66 003e fa4b dbbe efaa f63b
000002b0: d204 de3d 46a1 58be dcb5 643d af6f c8bc
000002c0: 037f 463b bc8c 233e baa8 c63e 7739 15be
000002d0: 6e4b 18be 5733 71be fbbd 813e 0e9e 643e
000002e0: df38 8fbd 573f 7dbe 28c9 bcbc 8fd6 febd
000002f0: 9846 bb3e 7c11 bf3e 96fc 8dbe 3684 0b3e
00000300: 9e42 81be 1b22 8ebe 1a2c 543e 06cb 89b9
00000310: 51ab fcbd 16b1 16bf cc2f 9f3d 64bf c63c
00000320: ce07 1c3d 4a06 5fbd dea4 893c 0298 a63d
00000330: 71e2 993d b755 ea3d f78a c2bd dfcd c73d
00000340: 4681 4ebf 833a 2c39 75f1 8dbb ea43 13bf
00000350: 111d 15bf 499a fd3e 2a44 c6bc 0e95 913d
00000360: 4ecc c7be 1bea 3ebf 0b67 fabe 3501 263d
00000370: b924 70be 76f0 42bf cf1d a2bd 179f 6f3e
00000380: 846a 0abc 035d 493e 69bc 8e3e 8cae 6fbe
00000390: e650 e3bd 902a 5b3e 3586 c2be 7aaa b83d
000003a0: c2be 22bd 04af 9abc e610 7bbe 7a98 debd
000003b0: 5c21 b13c 6d2e 02bd c77b 4cbe 278c fbbc
000003c0: d8c7 223e d970 f8bc c7dc 833e 4316 cdbd
000003d0: 09ad f23e 66cb 863d a0ac a4bd cb98 1dbe
000003e0: 87e4 c53e 98bd 4f3e 2542 a93d 7167 fabd
000003f0: 9b62 99be ebcc 943d a83c b6be 0c40 ae3c
