bfcnn/pretrained/unet_laplacian_v10.6/denoiser_model.tflite (tflite, 948976 bytes, 78 tensors)

hydra/unet_laplacian_backbone/unet_laplacian/conv2d/Conv2D/ReadVariableOp f4 [5, 5, 3, 32]
000000 f6 36 28 bc fb 5d 7e bd 47 a9 2a bd a9 e8 ad bd
       -0.01026701 -0.062101346 -0.04166534 -0.08491642
000010 ae d6 31 3d 07 12 3a 3c a0 bf 17 bd b4 81 0a 3d
       0.043417625 0.011356837 -0.037047982 0.0338151
000020 15 1f 29 bc d9 f4 05 be 67 48 c5 3d 4c 93 59 bb
       -0.010322352 -0.13081683 0.0963295 -0.0033199368
000030 50 63 98 3d 1b 11 1b 3e 3a f6 a3 bd 19 f0 92 3d
       0.07440817 0.15143244 -0.08005948 0.07174701
000040 ef 51 9f bd 79 f4 51 bd da 5d 62 3d 16 4a 8d bc
       -0.077792995 -0.051258538 0.055265285 -0.017247241
000050 7f 07 1f 3b 55 45 a9 3c 3b e2 a9 bd 0f 19 7c bb
       0.0024265943 0.020662943 -0.08295103 -0.0038467085
000060 73 ba 87 3d 4f 82 4a 3c 4b 9c 8c 3d b3 1a 22 3c
       0.06627359 0.01236017 0.06865748 0.009894061
000070 6b 43 2d 3d 3c fc 92 3c c5 24 2e bc e0 ec e9 3d
       0.042300623 0.01794254 -0.010628884 0.114221334
000080 77 9d 1b bc e3 14 1f 3d e6 85 6d bd 23 8a 07 bc
       -0.009497992 0.03883828 -0.057989024 -0.00827268
000090 60 1e 49 bd 29 4f 95 3d d8 9d 48 3b 6a 7b 49 bc
       -0.049101233 0.07290489 0.003061166 -0.012297491
0000a0 01 a3 94 3c 1a 69 57 bd 83 e7 71 bd 73 75 90 3b
       0.018144133 -0.052590467 -0.059058677 0.0044085323
0000b0 16 c2 e7 3c ed 0a fb 3d 72 a9 ce 3c 90 0f ad 3d
       0.02829079 0.12257943 0.025227282 0.08450234
0000c0 4c 0a 2e bd 43 ea 8e bc 58 6d 06 3d 2e f1 57 bd
       -0.04249029 -0.017445689 0.032819122 -0.05272024
0000d0 4a d4 c9 bc 9f 87 b2 bd 25 ff 02 be 3c 45 bc bc
       -0.02463736 -0.08717274 -0.12792642 -0.022982232
0000e0 18 9d c2 3c cf 68 31 3d 32 43 08 3d b7 59 1e bd
       0.023756549 0.043312844 0.033267207 -0.038659777
0000f0 1d 5f 78 3c 00 38 d6 3c df 82 0a 3d db 48 2a 3c
       0.0151593955 0.02614975 0.033816215 0.010393347
000100 9a 03 c9 3b 78 f9 21 3d e0 fe 54 3d 09 c8 b0 3c
       0.0061344625 0.039544553 0.05200088 0.02157976
000110 42 04 17 bd 1f f8 0b 3e 1b 4d 9e 3a 7d 87 b3 bc
       -0.036869295 0.1366887 0.0012077423 -0.021915192
000120 5c f8 79 bc bd ba ea 3d ff bc da 3c 2b ef 1a 3d
       -0.015256967 0.11461399 0.026701448 0.037825745
000130 b9 51 91 bd 93 84 d4 3c 04 de 3e bc 8a 83 2d 3b
       -0.070956655 0.025942123 -0.011649612 0.0026476108
000140 87 07 94 3c 72 b7 06 3e de 7a 77 bd ea d3 e6 bb
       0.018069996 0.13155916 -0.06041991 -0.007044305
000150 5b d5 15 bd 35 09 ce bc a7 99 a4 3d 66 a4 36 bc
       -0.036580425 -0.025150875 0.08037119 -0.011147594
000160 fa c2 bf bc 1d a4 65 bd 49 d0 fa bc f8 cc 2f bc
       -0.023408402 -0.056064714 -0.030616896 -0.010730021
000170 c3 45 42 bc ed 6f e6 bc 80 77 b3 bb ca 12 9a 3c
       -0.011857453 -0.028129542 -0.005476892 0.018807787
000180 0e 25 45 3a 8b 34 e7 bc 96 1e bd 3d 0a b9 aa bd
       0.0007520475 -0.028223297 0.092343494 -0.08336075
000190 3a 61 ba 3c 21 78 10 bd d2 ca c2 3c 2f 30 b3 bc
       0.02275144 -0.035270814 0.023778353 -0.021873562
0001a0 9c 6d 60 bd 88 ab 3f bd 5b a0 28 bd 81 c3 83 3c
       -0.05479203 -0.046794444 -0.041168552 0.016084434
0001b0 a4 86 56 3d 46 50 27 bd 20 f9 86 3c bb 4f 5a 3d
       0.052374497 -0.04084804 0.016476214 0.053298693
0001c0 69 6d f2 3d b7 77 aa bc 49 c9 b1 bd 2a e1 cf bc
       0.118372746 -0.020809038 -0.0868097 -0.025375921
0001d0 50 bb eb 3d b9 21 da 3d 05 3e 1f 3d 0e dd f4 3b
       0.115103364 0.10650963 0.038877506 0.007472641
0001e0 3d 78 08 3d 9f 83 d6 bd 3f b2 93 3c 05 3d 60 3d
       0.033317793 -0.104743235 0.01802933 0.054745693
0001f0 ef c0 4f 3d 9f fd cd 3d 40 2a 32 bd af 00 94 bc
       0.050721105 0.1005814 -0.043497324 -0.018066732
000200 3a 33 58 3c 92 7d 2f 3d a1 81 b4 3d e0 70 4b 3d
       0.013195807 0.042844363 0.08813787 0.049668193
000210 03 0f 44 3b 8e 60 1c bd ac d1 d6 3c 3a 7e 5a 3c
       0.0029916174 -0.03817802 0.026223026 0.013335759
000220 23 03 a3 3a bc 91 64 bc 01 7d e3 bd 50 91 5c 3c
       0.0012436848 -0.013950761 -0.11107827 0.01346238
000230 87 36 c8 3c af 88 8e bc 18 96 ad 3d 75 be ab 3b
       0.024440063 -0.01739916 0.08475894 0.00524121
000240 e3 4d c3 3d 5d 32 80 bc b5 6e 15 bd 8e e7 8d bc
       0.0953634 -0.015649015 -0.03648253 -0.017322328
000250 e8 b6 53 bd e8 d6 b9 bc 05 dd fa 3b 27 2c ba 3b
       -0.051688105 -0.022685483 0.007655742 0.005681533
000260 a9 28 df 39 5c 16 99 3d 14 fc 59 ba 2d c0 17 bd
       0.0004256417 0.07474968 -0.00083154556 -0.037048507
000270 c6 1a a6 bb c0 45 6c 3a e3 d4 d6 bc 40 17 66 3c
       -0.0050691096 0.0009013079 -0.02622456 0.014043629
000280 24 86 90 3c 32 53 1a 3d 4d 52 17 3e 75 7e ac 3d
       0.017642088 0.037676997 0.14777489 0.08422557
000290 13 e7 d4 3c c8 45 61 bd 26 17 f7 3c dc a8 23 3c
       0.025989091 -0.05499819 0.030162405 0.00998899
0002a0 29 29 37 3d d2 8b dd 3d 4e 28 88 bc 9e 55 35 3c
       0.044716988 0.10817684 -0.016620781 0.011067776
0002b0 32 bf b5 bd aa fb 48 be 3c ff 6a bd e3 57 61 bc
       -0.08874358 -0.19627252 -0.057372317 -0.013753864
0002c0 be 90 d0 3d a6 d0 62 bc 9c 92 b1 bd c2 0a 3d 3c
       0.101838574 -0.013843691 -0.08670542 0.011538209
0002d0 be a5 08 3d 5f d5 4e 3d 7f 2d 67 3d 5c 90 dc 3b
       0.03336119 0.050496455 0.056439873 0.006731076
0002e0 a4 f4 b9 bd e0 fe 36 3d 95 7e 60 3b bd b1 83 bd
       -0.090798646 0.04467666 0.0034255136 -0.06430385
0002f0 b2 66 37 bc 89 00 37 bb ae e6 a9 bd d3 ee 93 3c
       -0.011193918 -0.0027923903 -0.08295952 0.018058216
000300 54 1e 92 3b 63 ee d6 3d be 6e 10 3e db 32 bb bd
       0.004459182 0.104946874 0.14104745 -0.09140559
000310 b4 2e 47 3d 51 48 bd bc 8c 56 a7 bd de 44 90 bb
       0.048628524 -0.023105772 -0.081708044 -0.004402741
000320 20 0b 24 3e 1c 22 15 bd a3 91 91 bd 51 71 e4 bb
       0.16019869 -0.036409482 -0.07107856 -0.006971516
000330 ff 9e 2f 3d 42 d5 73 3d 2d 62 4e bc a8 68 b6 3d
       0.04287624 0.05952955 -0.012596649 0.0890668
000340 70 0e 02 be 6a 59 99 3d 20 16 bd bd 46 f9 91 3a
       -0.1270082 0.074877575 -0.09232736 0.0011136911
000350 22 0f d8 3c 83 e2 7e 3b dd c0 c1 bd 1f 68 7b 3c
       0.026374403 0.0038892336 -0.09460614 0.015344649
000360 9e 89 16 bc b0 fe 26 bd 8c e2 fc bb 40 b0 c1 3b
       -0.009188084 -0.040770233 -0.007717436 0.005910903
000370 78 c7 44 3c 68 0e 6f 3d 24 af d8 bb 85 dd 96 bd
       0.012010448 0.05836335 -0.0066126753 -0.0736647
000380 d2 81 90 bb e9 c4 5a 3d d5 24 0a 3e bf 05 5b 3d
       -0.004410007 0.053410444 0.13490613 0.053472277
000390 54 4d d7 bc 3f ae ae bb f6 ab be bd fa a7 34 3d
       -0.02628199 -0.0053308303 -0.09310143 0.044105507
0003a0 41 c7 ef bd 4a e4 91 bc 3a 5a e4 bd b5 46 a4 bc
       -0.117079265 -0.017809052 -0.11150022 -0.020053247
0003b0 02 d8 4b 3d d4 b8 ae 3d 12 04 d4 3c 12 bc 2f 3d
       0.049766548 0.08531347 0.025880847 0.042903967
0003c0 6b a9 29 be e6 d3 b2 3d 1a 61 c0 bd ca e2 01 bd
       -0.16568534 0.08731823 -0.09393521 -0.031710424
0003d0 a1 a1 94 3c d3 ca 7b bd 51 00 46 bd db 3f b3 bb
       0.018143477 -0.061472725 -0.048340145 -0.0054702586
0003e0 26 49 b4 bc 64 93 15 3e 27 d6 84 bd 73 59 a4 3c
       -0.022007536 0.14607006 -0.06486159 0.020062184
0003f0 f9 ff cb 3b d1 0b 84 3d 0e 60 94 3d 9d c0 49 bd
       0.0062255827 0.06447566 0.072448835 -0.049255956

hydra/unet_laplacian_backbone/unet_laplacian/decoder_0_0/layer_normalization_16/mul_4/ReadVariableOp f4 [32]
000000 39 d9 30 40 b3 c1 c8 3f 21 b4 9d 3f 4b 1f da 3f
       2.7632582 1.5684112 1.2320596 1.70408
000010 8b b3 d5 3f 60 ca 13 40 a9 60 fd 3f fd ea b1 3f
       1.6695417 2.309227 1.9795123 1.3899838
000020 ff 00 c8 3f b7 1b 6e 3f 21 d8 7a 3f 04 7c 81 3f
       1.5625304 0.9301104 0.97986037 1.0115972
000030 a9 1c 9d 3f 37 8d 2c 40 0f 3e 9a 3f 21 40 ab 3f
       1.2274371 2.696119 1.2050189 1.3378946
000040 c5 b7 37 40 39 48 88 3f 00 eb d9 3f 83 5a 8b 3f
       2.8705914 1.0647041 1.7024841 1.0886997
000050 d3 f9 9e 3f 06 87 93 3f 3a fb a9 3f e8 56 aa 3f
       1.241999 1.1525581 1.3279793 1.3307772
000060 e4 13 7a 3f d1 f7 d5 3f e1 23 a1 3f 93 02 f7 3f
       0.976866 1.6716253 1.2589074 1.929766
000070 4d 36 81 3f 23 a7 ab 3f 48 7d d0 3f 7f c5 8a 3f
       1.0094696 1.3410381 1.6288233 1.0841521

hydra/unet_laplacian_backbone/unet_laplacian/decoder_0_1/layer_normalization_17/mul_4/ReadVariableOp f4 [32]
000000 40 88 7c 3f b0 31 ee 3e aa bb bd 3f ec 4a 05 40
       0.986454 0.46522284 1.4822896 2.0826979
000010 ff 0d 15 40 0b 33 8c 40 48 02 9d 3f 30 c0 3d 40
       2.3289793 4.381231 1.2266321 2.9648552
000020 ad b2 4b 40 86 16 7d 3f 0d 50 59 40 78 d7 17 40
       3.1827805 0.98862493 3.395511 2.3725262
000030 5a 86 80 3f 01 19 2e 40 73 bb 28 40 9e 6d 49 40
       1.0041001 2.720276 2.636441 3.1473155
000040 72 19 1c 40 2d ac 82 40 c6 be 08 40 42 5f 64 3f
       2.439053 4.0835176 2.136644 0.8920785
000050 31 f0 96 3f 07 2a 8b 3f 73 47 17 40 26 a6 8e 3f
       1.1792051 1.0872201 2.363736 1.1144454
000060 a2 ba c3 3e 43 ef 5d 40 24 33 47 3f ef 47 7e 3f
       0.38228327 3.4677284 0.7781241 0.9932851
000070 a9 98 44 3f b5 fa 1c 40 cf 98 af 3f b5 91 61 3f
       0.7679544 2.452802 1.3718508 0.88112956

hydra/unet_laplacian_backbone/unet_laplacian/decoder_0_2/layer_normalization_18/mul_4/ReadVariableOp f4 [32]
000000 66 62 87 3f fd 20 90 bd d2 cf ad 3f 17 09 31 3f
       1.0576904 -0.07037542 1.3579047 0.69154495
000010 b3 be e6 3f 73 2a 2b 3e 32 b2 92 3f 1f 38 59 3e
       1.8026947 0.16715412 1.1460631 0.21212815
000020 b1 90 50 3f 8e 30 67 3f 54 c4 4a 3f af ec 7b 3f
       0.8147078 0.90308464 0.7920582 0.98408026
000030 94 f5 31 3f a5 c8 20 40 fe bd 2c 40 69 15 b8 3f
       0.6951535 2.5122464 2.6990962 1.4381534
000040 39 4d 01 40 bc 22 44 40 38 a7 0f 40 08 8e ef 3e
       2.0203383 3.06462 2.2445812 0.4678805
000050 9b cc 96 3f 76 e5 29 3f 21 82 84 3f 29 46 68 3f
       1.1781191 0.66365755 1.0352212 0.90732056
000060 f5 79 8f 3e 7b d2 41 40 6c e0 13 3f 7c 8a 83 3f
       0.28022733 3.0284717 0.57764316 1.0276637
000070 42 e3 72 3e 48 d3 f8 3f be 12 0a 3e 32 07 76 3f
       0.23719504 1.9439478 0.13483712 0.9610473

hydra/unet_laplacian_backbone/unet_laplacian/decoder_1_0/layer_normalization_12/mul_4/ReadVariableOp f4 [64]
000000 2f 12 8d 40 ef c7 7d 3f 0d 0c d4 3f cc fd c9 3f
       4.4084697 0.991332 1.6566178 1.5780578
000010 5b 7e 4f 40 66 f0 6a 3f d0 42 0b 40 e2 b9 0a 40
       3.2420871 0.9177307 2.175953 2.1675954
000020 d6 56 8a 3f 76 22 84 3f 68 70 32 40 b3 ca 03 40
       1.080775 1.0323017 2.7881107 2.0592468
000030 48 e5 31 40 01 d1 19 40 c0 b1 b0 3f e8 73 8e 40
       2.7796192 2.4033816 1.3804245 4.4516487
000040 1e cd 8c 3f 75 99 ac 3f 25 6e ae 3f 2a 1e 4e 40
       1.1000097 1.3484331 1.3627363 3.220591
000050 8f 9b 53 40 bb 50 a9 3f 00 b2 30 40 cd ed 0e 40
       3.3063695 1.3227762 2.7608643 2.2332642
000060 7a 27 6f 3f 9b ac b9 3f 56 d1 85 40 35 fa 51 40
       0.9341961 1.45058 4.1818037 3.2808964
000070 f1 a6 9e 3f 9b e3 b5 3f 33 58 ed 3f fc f9 f3 3f
       1.2394696 1.4210085 1.8542541 1.9060664
000080 6b f6 65 40 4e 2e 84 40 15 92 ef 3f 7a 6e 67 40
       3.5931652 4.1306524 1.8716456 3.616118
000090 10 c3 7d 40 2b dc cc 3f f8 9e 80 40 47 ff 7d 40
       3.9650307 1.600469 4.0194054 3.968706
0000a0 6f 95 bc 3f 5d 02 47 40 29 9a f1 3f b3 20 0c 40
       1.4733104 3.1095192 1.8875171 2.1894958
0000b0 95 4d 7d 3f d3 72 c4 3f be 34 9f 3f c2 5d 8a 3f
       0.98946506 1.5347542 1.2437971 1.0809863
0000c0 95 30 d6 3f 66 a8 d3 3f ac 39 0b 40 04 79 86 3f
       1.6733576 1.6535766 2.175395 1.0505681
0000d0 56 e5 64 3f df 13 ff 3f 39 11 9f 3f 99 b5 af 3f
       0.8941244 1.9927939 1.2427131 1.3727294
0000e0 0c 78 41 40 77 63 54 40 4a 7e 13 40 01 40 29 40
       3.022952 3.3185709 2.304583 2.6445315
0000f0 5c 92 8e 3f dc 9a d9 3f 5b f4 79 3f 45 38 b4 3f
       1.1138415 1.7000384 0.9763848 1.4079672

hydra/unet_laplacian_backbone/unet_laplacian/decoder_1_1/layer_normalization_13/mul_4/ReadVariableOp f4 [64]
000000 60 12 15 40 3f 22 97 3e 33 c3 8b 40 33 56 15 40
       2.3292465 0.29518315 4.367578 2.3333862
000010 f9 8a 2b 40 d5 e7 97 3f aa 25 19 40 9a 94 00 40
       2.6803572 1.1867625 2.3929238 2.00907
000020 37 e0 53 3f 40 41 92 3f f9 0e 9d 3f 49 40 a7 3f
       0.82764 1.1426163 1.2270194 1.3066493
000030 bc 51 16 40 9f ba 24 40 2d ce 87 3e 0c 7f 37 40
       2.3487387 2.5738904 0.26524487 2.8671293
000040 fd 55 4c 3e 36 f7 d0 3f 69 6e 84 3f 10 28 bd 3e
       0.19954677 1.6325443 1.0346195 0.36944628
000050 74 0b 42 40 ff b7 6f 3f b1 7b e4 3f 5c bd 2d 40
       3.031949 0.9364013 1.7850248 2.7146826
000060 fe 6f 15 40 29 a0 20 3f af 3f f7 3f 15 f4 d4 3f
       2.3349605 0.62744385 1.931631 1.6636988
000070 eb 5f 05 40 65 43 5b 40 cd 9b 99 3f 1e 44 79 3f
       2.0839794 3.4259884 1.2000672 0.97369564
000080 d7 18 65 40 2c 16 34 40 4a 59 a8 3f cf 1a 5a 40
       3.579641 2.8138533 1.3152249 3.4078863
000090 17 85 72 40 43 c1 08 40 63 54 47 3f 94 b7 14 40
       3.7893732 2.1367958 0.7786314 2.3237047
0000a0 98 ca f5 3f d8 e1 05 40 e1 cb ad 3f 30 fb cf 3f
       1.9202452 2.0919094 1.3577844 1.6248531
0000b0 65 ea 3e 3f 15 a5 e8 3e a9 5c ce 3e 57 cb 8a 3e
       0.7457641 0.45438448 0.4030507 0.2710826
0000c0 34 dc 33 3f 03 f6 6e 3f 0b e3 00 40 b3 c1 81 3f
       0.7025788 0.93344134 2.0138576 1.0137237
0000d0 32 ad d8 3f 45 4c 29 40 fc c4 65 3f 87 dc 10 40
       1.6927855 2.6452801 0.897537 2.26346
0000e0 6c a6 c5 3f 9a a2 1e 40 e0 bb 12 40 a6 eb 13 40
       1.5441413 2.4786744 2.292717 2.3112578
0000f0 21 49 72 3f ab c4 8f 3f 36 8a da 3f 02 66 3b 40
       0.94642836 1.1231893 1.7073429 2.928101

hydra/unet_laplacian_backbone/unet_laplacian/decoder_1_2/layer_normalization_14/mul_4/ReadVariableOp f4 [64]
000000 c0 d5 c2 3f 2b 59 b0 39 62 d9 6f 40 17 4e 1a 40
       1.5221481 0.0003363577 3.747643 2.4110162
000010 62 aa 02 40 8f 87 6e 3e 34 c9 ac 3f cb c2 b8 3f
       2.0416493 0.23293899 1.3498902 1.4434446
000020 2d 68 10 3a cb ea 75 3f 27 d3 84 3f fa af 8f 3f
       0.00055086875 0.9606139 1.0376939 1.1225579
000030 5f ad 1b 40 cc 65 e8 3f 49 46 02 3e e9 51 0c 40
       2.4324567 1.8156066 0.12722124 2.1924994
000040 d5 54 41 3e 91 6a 1f 3f 02 ae b6 3f 51 55 2f 3e
       0.18880017 0.6227198 1.4271853 0.1712239
000050 9f 2f 2f 40 db c1 22 3f 8d a0 9c 3f 54 aa 70 3f
       2.7372816 0.6357705 1.2236496 0.940099
000060 10 1d 0e 40 59 14 0e 3f b3 74 ab 3f f8 96 96 3d
       2.2205238 0.554998 1.3394989 0.07353014
000070 11 4b be 3f 4b 4d ad 3f 52 97 ef 3f 85 00 84 3f
       1.4866658 1.3539213 1.8718054 1.0312659
000080 60 01 f9 3f 18 42 e2 3f fc ef b4 3f d2 04 f7 3f
       1.9453545 1.767642 1.4135737 1.9298346
000090 34 bc 00 40 e5 d9 bc 3f cf 22 ec 3e ba 34 39 3f
       2.011487 1.4753996 0.46120307 0.7234608
0000a0 1a 93 f8 3f 46 54 b9 3f ae 5d 93 3f 24 57 b3 3e
       1.9419892 1.4478843 1.1512964 0.3502742
0000b0 c4 8f 34 3f dc 79 b0 3f 23 5f b2 3d c5 b8 55 3f
       0.7053187 1.3787189 0.08709552 0.8348506
0000c0 c0 11 24 3f 98 01 e6 3f 78 b9 9a 3e 5f d9 62 3f
       0.64089584 1.7969236 0.30219626 0.8861293
0000d0 38 a8 a2 3f a1 6a 8b 3f f4 a4 cc 3f 34 38 94 3e
       1.2707586 1.0891916 1.598784 0.2894913
0000e0 02 62 d8 3f 2d 9c e0 3f 74 4b 9e 3f 4f a1 9d 3f
       1.690491 1.7547661 1.2366776 1.2314852
0000f0 7d 5b 3c 3f 7e 7f 5f 3f df 35 a8 3f e8 af 99 3f
       0.735771 0.8730391 1.314144 1.2006807

hydra/unet_laplacian_backbone/unet_laplacian/encoder_0_0/layer_normalization/mul_4/ReadVariableOp f4 [32]
000000 03 a1 b8 3f 9e 91 8e 3f 1d 87 71 3f 28 c4 71 3f
       1.4424137 1.1138189 0.9434679 0.94439936
000010 df 31 9b 3f 9c 50 83 3f 8b c5 67 3f f0 1e db 3f
       1.2124594 1.0258975 0.905358 1.7118816
000020 b6 f0 98 3f 19 da 98 3f f0 63 84 3f 2c aa a4 3f
       1.1948459 1.1941558 1.0342999 1.2864432
000030 d5 2b 69 3f c2 cb 59 3f 9e eb c4 3f 3e c1 8a 3f
       0.9108251 0.85076535 1.5384405 1.0840223
000040 43 46 b6 3f 37 ad ba 3f 3c 28 91 3f 10 48 c0 3f
       1.4240192 1.4584111 1.1340404 1.5021992
000050 01 7a 81 3f 54 ad 4e 3f e3 27 8a 3f 7d 8b a0 3f
       1.0115358 0.8073323 1.0793422 1.2542568
000060 00 4e 8d 3f 45 6b 7c 3f 6d 46 5b 3f e4 25 84 3f
       1.1039429 0.9860118 0.85654336 1.0324063
000070 b9 89 83 3f dc e1 76 3f 49 74 e6 3f 0f 8e cb 3f
       1.0276405 0.96438384 1.8004237 1.5902728

hydra/unet_laplacian_backbone/unet_laplacian/encoder_0_1/layer_normalization_1/mul_4/ReadVariableOp f4 [32]
000000 29 e9 05 40 b6 2e 0b 3f 63 d5 8c 3f 06 ba db 3f
       2.092356 0.5436815 1.100262 1.7166145
000010 06 7e 9f 3f d9 85 e6 3e b1 90 99 3f 40 9a 08 40
       1.2460334 0.45023993 1.1997281 2.1344147
000020 c0 39 0d 3a a0 c6 dc 3e bd 67 83 3f e4 04 cf 3f
       0.00053873286 0.4312029 1.0266033 1.6173368
000030 53 0f b4 3e 89 7f 3e 3f a9 83 72 3f 31 80 1f 3f
       0.3516794 0.74413353 0.9473215 0.6230498
000040 0d 8a 00 40 8e 7e d7 3f 6c bf 8d 3f f8 8a 89 3e
       2.008426 1.6835496 1.1074042 0.26863837
000050 0c e5 9d 3e 7d eb 9c 3f 3e 99 bf 3e 99 96 06 40
       0.3083881 1.2259365 0.37421602 2.1029418
000060 f6 7b a6 3f 91 6c 5c 3f 96 1c f1 3d e9 64 c7 3f
       1.300658 0.8610316 0.117730305 1.557767
000070 1f 2b 18 3f a7 f3 16 3f 4c 3c 0b 40 82 f1 54 3f
       0.594408 0.58965534 2.1755552 0.8318101

hydra/unet_laplacian_backbone/unet_laplacian/encoder_0_2/layer_normalization_2/mul_4/ReadVariableOp f4 [32]
000000 26 c2 e0 3f e2 cb 43 3e f3 09 dc 3f a4 ed 80 3f
       1.7559249 0.19120744 1.7190536 1.0072522
000010 ed fe ef 3d f2 f3 eb 3e a0 dc 5c 3f 14 6e ac 3f
       0.11718545 0.46084553 0.8627415 1.3471093
000020 1b 25 87 3e 7c 61 18 3f c4 f3 9c 3f a8 61 f5 3e
       0.26395497 0.5952375 1.2261891 0.47926068
000030 b6 2e 82 3f 5e 2d f7 3e a3 1c f5 3f c6 8b d7 3e
       1.0170505 0.482768 1.9149364 0.42098826
000040 a5 63 e8 3f 9e 84 be 3e 69 ee bc 3f 31 30 a3 3f
       1.8155409 0.37210554 1.4760257 1.2749082
000050 9a 7a b9 3e 7b f2 8a 3f 1e f3 e6 3e 1d cb c7 3f
       0.3622635 1.0855249 0.4510736 1.560886
000060 d8 86 a9 3f ad 34 7f 3f 21 af 08 3e 74 50 7c 3f
       1.3244276 0.9968975 0.13348056 0.9856026
000070 4e 0c 92 3e 8f 99 17 3f c0 68 ac 3f 72 ec 5a 3b
       0.28525013 0.59218687 1.3469467 0.0033405093

hydra/unet_laplacian_backbone/unet_laplacian/encoder_1_0/layer_normalization_4/mul_4/ReadVariableOp f4 [64]
000000 e3 f8 85 3f 50 76 6e 3f b3 e8 3b 3f 06 bc 0d 40
       1.0466579 0.9314928 0.73401946 2.214601
000010 d5 f4 22 3f 77 d2 6b 3f ac 72 95 3f 3a 2a 0f 40
       0.63654834 0.9211802 1.167562 2.2369523
000020 ae ad ef 3f 63 b2 84 3f 7d fd 0d 40 f4 03 f7 3f
       1.8724878 1.0366939 2.2185967 1.9298081
000030 d9 c8 9f 3f 89 15 35 3f 29 72 06 3f 25 41 31 3f
       1.2483169 0.70735985 0.52517945 0.6924003
000040 48 e8 a4 3f 5d fd 6c 3f b7 58 93 3f 44 7c 8e 3f
       1.2883387 0.925741 1.1511449 1.1131673
000050 f0 bf 83 3f ac 97 35 3f a5 d3 80 3f 48 66 93 3f
       1.029295 0.7093456 1.0064589 1.1515589
000060 8c 58 5c 3f 19 93 f8 3f 51 b6 b0 3f ef 26 47 3f
       0.8607261 1.9419891 1.3805639 0.7779378
000070 60 b5 d8 3e 82 46 e0 3f cd 11 22 40 4f 90 73 3f
       0.42325878 1.7521517 2.5323365 0.9514207
000080 dc f8 75 3f ae 8a d5 3f 68 77 a2 3f 2a f8 79 3f
       0.96082854 1.6682947 1.269269 0.97644293
000090 89 44 6f 3f 36 7b 06 40 07 f5 4d 3f c8 bb 5a 3f
       0.9346395 2.1012702 0.8045201 0.8544278
0000a0 da 4c d0 3f 61 d8 b1 3f b0 2e a6 3f 6e 23 73 3f
       1.6273453 1.3894159 1.2982998 0.94975936
0000b0 1d 74 59 3f b5 bf 14 40 2d b3 ac 3f c7 ea 5d 3f
       0.849428 2.3242009 1.349218 0.86686367
0000c0 ee ed 77 3f 5e 66 8d 3f c1 42 92 3f 0b c1 65 3f
       0.96847427 1.1046865 1.1426622 0.89747685
0000d0 86 8b dd 3f 6c 64 98 3f 1f ff c9 3f 15 56 ce 3f
       1.7308204 1.1905646 1.5780982 1.612002
0000e0 21 46 6f 3f 83 ed fa 3f 02 ed 44 3f 43 a5 21 3f
       0.93466383 1.9603733 0.76924145 0.63142794
0000f0 19 08 9f 3f 91 6e 5a 3f bd 7c b0 3f e5 87 2e 40
       1.2424346 0.8532496 1.3788067 2.7270443

hydra/unet_laplacian_backbone/unet_laplacian/encoder_1_1/layer_normalization_5/mul_4/ReadVariableOp f4 [64]
000000 47 ad b7 3f b4 bc 04 3e e8 30 04 3f 53 28 bb 3f
       1.4349755 0.1296261 0.51637125 1.4621681
000010 95 0c a1 3f 52 6f 47 3f 75 de a6 3e 44 e4 65 3f
       1.2581965 0.77904236 0.32591596 0.8980143
000020 af 46 40 3f 37 14 9a 3e 29 82 6f 3f d1 ca 87 3f
       0.75107855 0.30093548 0.93557984 1.060877
000030 64 92 d4 3f 4b b7 14 3f 07 f9 6d 3f a3 ca fe 3f
       1.6607175 0.5809218 0.9295811 1.990559
000040 48 c8 92 3f b4 bc e0 3f cc bb 9d 3f 71 40 67 3f
       1.1467371 1.7557588 1.2322936 0.90332705
000050 b9 c0 df 3e c2 a9 86 3f 01 2c 1a 3f a0 f6 85 3f
       0.43701723 1.0520556 0.60223395 1.0465889
000060 df db c7 3e 5b 2e a2 3f b4 79 2b 3f 17 07 5e 3f
       0.39034936 1.2670397 0.6698258 0.8672957
000070 10 e9 ec 3e e8 68 90 3f fd 1a 62 3f 4f 5b 9f 3f
       0.46271563 1.1282015 0.8832243 1.244974
000080 b2 e2 57 3f 55 a3 f5 3c 1a 66 8b 3f a1 41 83 3f
       0.84330285 0.02998511 1.0890534 1.0254403
000090 1a 44 aa 3f 58 6e 90 3f 5a 78 87 3f b4 bc 5b 3f
       1.3302033 1.1283674 1.0583603 0.85834813
0000a0 a5 38 97 3e 3e b3 94 3f 43 3b e6 3e c4 cc 1b 3f
       0.29535404 1.16172 0.44967088 0.6085932
0000b0 64 6d aa 3f e8 b3 75 3f 9c 74 8d 3f 29 92 ab 3e
       1.3314633 0.9597764 1.1051211 0.3350995
0000c0 e8 3a 36 3f 91 14 18 40 c3 44 13 3f ed 39 7f 3e
       0.71183634 2.3762553 0.575268 0.2492444
0000d0 01 72 88 3f 66 1f f1 3e 3f c5 ef 3f a4 8c 24 3f
       1.0659791 0.47094268 1.873207 0.642771
0000e0 10 db bd 3e da b4 9f 3f 99 dd 56 3e 9e b8 91 3f
       0.37081194 1.2477067 0.2098297 1.1384466
0000f0 e8 10 8f 3f 94 a9 2b 3f 75 ff 81 3e bd a9 3a 3f
       1.1177034 0.6705563 0.2539021 0.7291525

hydra/unet_laplacian_backbone/unet_laplacian/encoder_1_2/layer_normalization_6/mul_4/ReadVariableOp f4 [64]
000000 d3 b1 c9 3f 2b aa 14 3a 8d 4f d6 3e a4 9b 7b 3f
       1.5757393 0.0005671109 0.41857567 0.98284364
000010 6b c5 82 3f 18 7e 87 3f 18 e4 8d 3d 0d f4 b5 3f
       1.0216497 1.0585356 0.06928271 1.4215103
000020 4b 5b 52 3f d8 ff 3c 3e 28 6b 48 3f 33 03 af 3f
       0.8217055 0.18456972 0.7828851 1.3672851
000030 e9 ac 9e 3f de a9 08 3f a9 ad 6a 3f af 22 b6 3f
       1.2396518 0.53384197 0.91671234 1.4229335
000040 ca df 91 3f 4e 88 06 40 2e 02 8e 3f 48 7f 4e 3f
       1.139642 2.1020694 1.1094415 0.80662966
000050 c2 69 97 3e bf 89 84 3f 1d 1b 5a 3f 67 c2 87 3f
       0.29572874 1.0354537 0.8519762 1.0606202
000060 e6 0c 8a 3e b1 c0 b5 3f 08 a8 5b 3f 0e 59 80 3f
       0.26962966 1.419943 0.8580327 1.0027177
000070 a2 c8 ac 3e aa 32 85 3f da ee 38 3f 5b 25 97 3f
       0.3374682 1.0406086 0.7223946 1.1808275
000080 58 6c 9b 3f 56 fb 56 3f 0e 31 7a 3f ab 0a 69 3f
       1.2142439 0.8397726 0.977311 0.91031903
000090 e6 5d ac 3f ef 80 86 3f 1e b6 9b 3f fa 2a 79 3f
       1.3466156 1.0508097 1.2164953 0.973312
0000a0 b6 ee 11 ba 53 fe 93 3f a7 d5 91 3e 17 07 d3 3e
       -0.0005566882 1.1561989 0.28483316 0.41216347
0000b0 cf cf b9 3f cc 63 65 3f 41 59 68 3f 20 c8 2a 3e
       1.4516543 0.896054 0.9076119 0.16677904
0000c0 95 ae f6 3e b3 38 f8 3f 5b 4b c6 3e c4 9d 80 3e
       0.4818007 1.9392303 0.38729367 0.25120366
0000d0 0b 8f c0 3f 76 2d d1 3e 53 85 93 3f b6 e9 28 3f
       1.5043653 0.40854996 1.1525062 0.65981615
0000e0 46 4e b1 3e 18 81 86 3f 49 b1 39 ba b6 2a 6f 3f
       0.3463003 1.0508146 -0.00070836075 0.93424547
0000f0 89 ff 84 3f 21 dc 62 3f 2c fd e5 3d 33 eb 68 3f
       1.0390483 0.8861714 0.11229929 0.90983886

hydra/unet_laplacian_backbone/unet_laplacian/encoder_2_0/layer_normalization_8/mul_4/ReadVariableOp f4 [128]
000000 87 23 17 3f a2 f4 6e 3f d6 de c8 3f 83 93 c2 3f
       0.59038585 0.9334203 1.5693004 1.5201267
000010 63 61 10 40 34 b7 29 40 a9 c8 6b 3f 0b cd a1 3f
       2.255944 2.6518068 0.9210306 1.2640699
000020 84 90 cf 3f b2 9a 29 3f d4 38 df 3e 87 8d f9 3e
       1.6215978 0.6625167 0.43598044 0.4874079
000030 c8 4e 12 40 ca 5e b2 3a 93 fc 7d 3f ca d1 9e 3f
       2.2860584 0.0013608572 0.9921352 1.2407773
000040 12 38 47 40 0c 7b 4b 3f 72 ea be 3f 50 b7 be 3f
       3.1127973 0.7948463 1.4915297 1.4899693
000050 0f 4d 97 3f 50 c3 ed 3f 72 c6 54 3e b8 f2 31 40
       1.1820391 1.857523 0.20778826 2.7804394
000060 60 6a bb 3f 1c 9c 2a 40 b6 a0 83 40 ec 68 15 40
       1.4641838 2.6657782 4.113368 2.334529
000070 f3 f3 f5 3d d7 55 54 40 c4 da 54 3f 02 83 bb 3f
       0.1200942 3.3177392 0.8314631 1.4649355
000080 4b b0 a4 ba 52 ae 01 40 0f e8 b8 3f 7c ea 92 3d
       -0.0012564746 2.0262647 1.4445819 0.071736306
000090 08 0a f4 3f 30 4f 2c 3f f1 26 92 3f 66 8d cc 3f
       1.9065561 0.6730833 1.1418134 1.5980651
0000a0 82 70 47 40 fb d1 90 3f 71 4d d4 3f 99 bd 78 40
       3.116242 1.1314081 1.6586133 3.8865721
0000b0 cd 49 ff 3f 51 37 dd 3f 6c 9f 47 3f 88 0d 8c 3f
       1.9944397 1.7282506 0.77977633 1.094163
0000c0 76 21 16 40 69 7b 0a 3e 44 d8 0f 40 e9 ea 84 40
       2.3457923 0.1352364 2.2475748 4.1536756
0000d0 7f 12 c1 3f 5a 07 02 40 07 ad 96 3f 41 d3 5a 40
       1.508377 2.0316987 1.1771554 3.419144
0000e0 28 d8 c0 3f 3d 25 22 40 ad d0 15 40 93 22 a2 3f
       1.5065966 2.5335228 2.3408616 1.2666801
0000f0 c1 c9 c4 3f 72 3e 34 40 16 8b 01 3f 23 ed 9b 3f
       1.537407 2.8163114 0.50602853 1.2181743
000100 93 99 88 3f 1c ca 9b 40 6c ef 91 3f f2 2d 01 40
       1.0671867 4.8684216 1.1401191 2.0184293
000110 14 84 ea 3f 2a 76 92 3f 45 01 e8 3f 69 32 b1 3f
       1.8321557 1.1442311 1.8125387 1.3843509
000120 ed 5d 98 3f d7 a3 39 ba b7 cd dc 3f 35 61 11 40
       1.1903664 -0.0007081604 1.7250279 2.271558
000130 d6 9b 57 40 70 5a c4 3f c0 6f 27 40 b2 5a a7 3f
       3.3688865 1.5340099 2.6161957 1.3074553
000140 c1 d1 c8 3f 00 ee 64 40 d8 63 97 3f 45 69 73 40
       1.5689012 3.5770264 1.1827345 3.8033001
000150 05 8d 21 3f 63 d8 42 40 11 3a ea 3f e3 2d a2 3e
       0.63105804 3.0444572 1.829897 0.31675634
000160 9f e7 91 3f d0 e7 88 3f f7 31 22 40 c9 f8 89 39
       1.139881 1.0695744 2.5342996 0.00026316036
000170 b2 32 22 40 8a 1f c9 3f 34 0d 9d 3e e2 6e 1a 3f
       2.5343442 1.571275 0.30674136 0.60325444
000180 40 0f 9e 3f 91 00 93 3f 94 37 9a 3f 1c f3 6a 3f
       1.2348404 1.1484548 1.2048211 0.91777205
000190 12 ec 48 40 22 8a a7 39 cc 7a 7f 3f 2c 4c 0b 40
       3.1394086 0.0003195564 0.9979675 2.1765242
0001a0 f1 f3 4b 3e 2a 94 55 3f 07 fc a3 3f 42 16 ba 40
       0.19917275 0.83429205 1.2811288 5.815217
0001b0 f0 44 03 be 6d 3e 4a 3f c7 d3 ac 3f 32 9c c4 3f
       -0.12819266 0.79001504 1.3502129 1.5360167
0001c0 c8 3e be 3f d2 82 b7 3f 86 a3 82 3f 03 17 33 bb
       1.4862909 1.4336798 1.0206153 -0.0027326948
0001d0 da 6c c2 3f 0e 74 90 3f 06 22 30 40 43 99 d3 3f
       1.5189469 1.1285417 2.7520766 1.6531147
0001e0 38 f0 a0 3f e8 fb 24 40 2b ad fc 3f 92 c0 38 3f
       1.2573309 2.5778751 1.9740347 0.7216884
0001f0 3e aa f4 3e 4f 83 af 3f 18 0d 3f 40 de b6 4b 3f
       0.47786134 1.3711947 2.9851742 0.7957591

hydra/unet_laplacian_backbone/unet_laplacian/encoder_2_1/layer_normalization_9/mul_4/ReadVariableOp f4 [128]
000000 82 23 40 38 e3 ee 7c 3e 1a 71 23 3f e4 d8 53 3f
       4.5809436e-05 0.24700503 0.63844454 0.82752824
000010 e9 8c da 3f e2 be a7 3f 21 3c 86 bd 09 25 62 3e
       1.7074252 1.3105128 -0.065544374 0.2208444
000020 3a 2d 3b 3e d1 f7 8a 3f 19 8a 95 3a 00 7a 7b 3d
       0.18278971 1.0856878 0.0011408954 0.061395645
000030 5d 47 2f bf 7b 25 47 3e 2d 8f 08 3e 1c 96 0f 40
       -0.68468267 0.19447891 0.13335867 2.243537
000040 5e 16 a4 3f 10 29 1d 3f 11 c0 fb 3f df cb 73 3b
       1.2819326 0.6139078 1.9667989 0.0037200374
000050 76 c8 54 be be 30 da 3f 68 00 4a 3a 89 a6 a4 3f
       -0.20779595 1.7046125 0.0007705749 1.2863322
000060 f3 d7 db 3a f3 1a db 3f 01 a0 7a be 39 0a d7 3f
       0.0016772732 1.7117599 -0.24475099 1.6799995
000070 25 4a 8b bb 7b 9b d5 3f 19 9b db ba 42 9c 03 3f
       -0.004250782 1.6688074 -0.0016754597 0.51410306
000080 4d 50 08 3e 45 5e 9a 3e f6 02 98 3f c7 ad cc be
       0.13311882 0.30150047 1.1875904 -0.39976332
000090 3f 6e 5c 3f 8a 35 2e 3d 91 72 3e 3f b6 f1 98 3f
       0.8610572 0.042531528 0.74393564 1.1948764
0000a0 09 d1 af 3f 5f 15 8a bd ca a8 30 3f 2e c9 f2 3f
       1.3735667 -0.067423575 0.6900755 1.8967645
0000b0 eb d2 96 3f 65 5a 9c 3f 9f 6f 6a 38 ab ad 08 3d
       1.1783117 1.2215086 5.5893903e-05 0.033368748
0000c0 1e 00 a8 be 78 c0 8e ba 3f 82 b8 3f d6 7c 18 40
       -0.3281259 -0.00108911 1.4414748 2.3826194
0000d0 de 61 81 ba ad c6 3b be 42 65 4b 3f 4e 9d 23 40
       -0.0009871086 -0.18337508 0.7945138 2.556476
0000e0 73 aa 85 3f f3 62 9a ba 4f f2 c6 3f 9f d2 b6 3f
       1.0442642 -0.0011778757 1.5542697 1.4283026
0000f0 8f 9d 67 3f 83 e7 0d 40 ac a5 19 bc 85 87 32 3f
       0.9047479 2.2172554 -0.009377878 0.69738036
000100 f8 2e 57 3f f2 f3 ab 3f 78 0c 9b 3f 4d af 9a 3f
       0.84056044 1.3433821 1.211318 1.2084748
000110 12 92 aa ba 0b b4 93 3d f3 e1 af 3f fd e7 88 3f
       -0.0013013503 0.07212075 1.3740829 1.0695797
000120 e0 1d f0 3f 24 50 e1 3f 88 5f c6 ba 1b d4 da 3f
       1.8759117 1.7602582 -0.0015134672 1.709598
000130 e9 fb b5 3f 04 18 88 3f a2 8b 0e 40 30 7b d0 3e
       1.4217502 1.0632329 2.2272725 0.40718985
000140 d2 5d ee 3e b1 f3 ca 3f 50 b9 bf 3f 6c 01 d8 3f
       0.46555954 1.5855619 1.4978428 1.6875434
000150 9b 7e 94 b9 7b 8d 80 3f 61 c2 19 40 b9 5c e6 3c
       -0.00028323088 1.0043176 2.402489 0.028120385
000160 e4 95 8a 3f c3 af fa 3f 7a a3 da 3f 0c b0 13 3e
       1.0826993 1.9584888 1.7081139 0.14422625
000170 11 92 83 3c 02 fa ae 3f c4 2a 80 3e 94 e5 83 3f
       0.01606086 1.3670046 0.25032628 1.0304437
000180 69 fc 9f 3f c2 d7 4a bc c5 e1 30 3f fe 7a ac 3a
       1.2498904 -0.012380542 0.69094497 0.0013159213
000190 9f 44 93 3f b5 e5 59 3d ba 3d 86 3f 85 09 71 3f
       1.1505316 0.05319758 1.0487587 0.9415515
0001a0 41 30 48 bb 41 82 ec 3e 0e 24 17 3b 96 ec a9 3f
       -0.003054634 0.46193126 0.0023062262 1.3275325
0001b0 4d 5e a0 bb 95 da ac 3f 45 e8 12 be cd 97 9d 3e
       -0.004894054 1.3504206 -0.14346416 0.30779877
0001c0 2a 39 ad 3f 97 5c 6c 3f 76 d3 e0 39 36 a3 c8 3f
       1.353307 0.9232878 0.0004288216 1.5674808
0001d0 e3 a8 13 3a ec a8 ac 3f ef 5b 3d 3f 2c e8 a7 3f
       0.0005632771 1.3489051 0.73968405 1.3117728
0001e0 84 b6 2d 3a db f1 df 3f ab 27 8c 3f 0a 29 62 3f
       0.0006626623 1.7495683 1.0949606 0.8834387
0001f0 de 5d bb 3e 6c 27 4a 3f c0 fe 82 3f 5f 5b ab 3e
       0.36595052 0.78966403 1.0233994 0.33468148

hydra/unet_laplacian_backbone/unet_laplacian/encoder_2_2/layer_normalization_10/mul_4/ReadVariableOp f4 [128]
000000 d9 5f d6 bb a2 9f a4 3e e2 8f 59 3b b5 35 bc ba
       -0.0065421876 0.3215304 0.0033197333 -0.0014359268
000010 2e 76 52 bf 6f c0 27 3f e8 64 c0 39 f3 81 1f 3b
       -0.8221158 0.65528005 0.00036696275 0.002433893
000020 92 e3 d0 bd eb 7c 10 3f be 10 1b 3c 49 bb 2d bc
       -0.101996556 0.5644061 0.009464441 -0.010603734
000030 9c 30 66 be 0f d9 ce bd 96 81 2f bb 6c 38 80 3f
       -0.2247948 -0.100999944 -0.002678012 1.0017219
000040 b6 97 3a 3f 70 c6 9a 3b b9 cb a1 3a b6 d2 f6 3b
       0.7288774 0.0047233626 0.0012344039 0.007532443
000050 0d 27 17 3e e9 a7 c9 3e 1d 05 81 3c ff be f5 be
       0.1476099 0.39385918 0.015749509 -0.4799728
000060 12 ec 5b b9 c2 69 81 3f c7 b2 33 3e ab 4a 1b 3f
       -0.0002097341 1.01104 0.17548667 0.6066081
000070 cf 13 eb 3c af ae 41 bf 7f b4 20 3c 76 42 31 bd
       0.028695969 -0.7565717 0.009808659 -0.043276273
000080 7e 0b 96 39 60 77 19 be 23 f1 15 3f b2 f0 4c 3b
       0.00028618792 -0.14986944 0.5857107 0.0031271395
000090 ec a0 b2 bb 11 69 59 3a 3b 80 ea ba 32 b1 4e 3e
       -0.0054513123 0.0008293549 -0.0017890999 0.20184782
0000a0 7b 87 53 be b1 29 04 3c 87 fb c4 3b d2 59 81 3f
       -0.2065715 0.008066581 0.0060114297 1.0105536
0000b0 6d e3 4f 3f 23 f3 d7 3b 61 6a 15 3c dd dc 70 3a
       0.812064 0.0065902635 0.009119601 0.00091881846
0000c0 36 05 64 3b 11 c8 84 bb 2d 65 86 3e 61 c1 c1 3e
       0.0034793145 -0.00405217 0.26249066 0.3784285
0000d0 09 b8 f1 3b a0 98 11 bd 76 7d 73 3e 66 0d 8d 3f
       0.007376675 -0.035545945 0.23778328 1.1019714
0000e0 a0 88 76 3a 01 41 3d 3a 2e fa 2d 3f 87 ff ae 3b
       0.0009404514 0.0007219464 0.6795987 0.00534052
0000f0 3d 47 5e 3a 65 2e a9 3f a3 15 cc 3b 90 b0 89 be
       0.0008479243 1.3217283 0.0062281652 -0.2689252
000100 27 8c 15 bb 81 7c 48 3f ce 3c 06 3d 1d b2 f4 bd
       -0.0022819133 0.7831498 0.03277283 -0.11948035
000110 6d 00 d5 3b 44 f2 1c bb dc 94 37 bc ec 56 70 bb
       0.006500295 -0.0023948113 -0.011204924 -0.0036672903
000120 33 cd 47 bc 1b fa ae ba db ef 1f 3c 78 01 d9 3b
       -0.012194919 -0.0013349684 0.009761776 0.0066224895
000130 42 43 56 bf 2a f5 cb bd 4a 6b 77 3f 49 a7 d0 bd
       -0.8369638 -0.09958871 0.96648085 -0.10188157
000140 63 a5 5b 3b 1b 8a 34 3f f5 96 2c bf 1f 7d 4b be
       0.0033515326 0.7052323 -0.6741784 -0.19871949
000150 35 ff 10 be 98 f0 1c bf 63 26 68 bf ae 2b 75 bc
       -0.14159854 -0.61304617 -0.90683573 -0.014964027
000160 6f 52 15 3f 06 74 5c be 22 7f 4e 3f cb 7e 04 3b
       0.5832891 -0.21528634 0.8066274 0.0020217176
000170 82 f1 34 ba c0 fa d0 3c 81 2a b1 bb a1 9c ec 3e
       -0.00069024425 0.025510192 -0.005406678 0.46213248
000180 e1 5f ff be 17 eb 81 bb f9 ae c9 3a f1 0e 1f 3b
       -0.49877837 -0.0039647925 0.0015387229 0.002427038
000190 20 e5 06 3f da e0 87 bd 66 b0 8d bb 39 cb 1c be
       0.52693367 -0.06634684 -0.004324007 -0.15311898
0001a0 0b 19 1c bc 8c 19 11 3b 67 79 b2 bb 0d 32 48 3f
       -0.009527455 0.0022140471 -0.005446601 0.7820137
0001b0 82 da 96 3b e7 20 10 bf b1 43 3b ba 20 c2 58 bb
       0.004603685 -0.56300205 -0.00071435707 -0.0033074692
0001c0 a6 fe 44 bd 41 a7 09 3f 50 8a 4a ba 59 be 41 3f
       -0.048094414 0.53770834 -0.00077262986 0.7568107
0001d0 12 73 1f ba 0a 3f 92 3e e9 82 8b ba c8 3f d5 ba
       -0.00060825155 0.2856372 -0.0010643873 -0.0016269619
0001e0 4e 0b c0 3d f9 fd 53 3d 0f 1c dd 3a 5f 77 dd be
       0.09377156 0.05175588 0.0016869324 -0.43255135
0001f0 44 6a a0 3c b2 62 3e 3d d1 cf 1b bf d8 fa 24 3e
       0.019581921 0.046480842 -0.6086398 0.16111314

hydra/unet_laplacian_backbone/unet_laplacian/layer_normalization_11/mul_4/ReadVariableOp f4 [128]
000000 e8 76 35 3f c1 22 c5 3e e9 55 63 3f e9 87 49 3f
       0.7088456 0.38503078 0.88802963 0.7872301
000010 10 75 92 3e f4 14 2f 3f f5 f7 5a 3f 63 3e 59 3f
       0.28604937 0.68391347 0.855346 0.8486082
000020 97 eb 7b 3f b1 03 1f 3f b0 8e 7c 3f 86 df 75 3f
       0.98406357 0.6211501 0.98655224 0.96044195
000030 ae 26 a7 3f 55 28 47 3f 1f fb 3e 3f 31 60 d8 3e
       1.3058679 0.77795917 0.7460193 0.42260888
000040 96 03 45 3f f5 02 74 3f 31 cc ea 3e 48 16 76 3f
       0.76958597 0.9531701 0.4585891 0.9612775
000050 d2 a3 2b 3f 0f 85 f8 3e b7 99 9c 3f 64 ae 3f 3f
       0.67046845 0.48539016 1.223441 0.74875474
000060 bd c8 8c 3f 02 8e 39 3f 11 90 fe 3e 34 8b c0 3e
       1.099876 0.7248231 0.4971929 0.37606204
000070 04 3b 2e 3f 28 24 ae 3e 0c d1 93 3f 38 88 85 3f
       0.680588 0.3401196 1.1548171 1.0432196
000080 95 fb 34 3f 23 a0 88 3f 42 7e 54 3f 68 24 52 3f
       0.70696384 1.067387 0.83005154 0.820868
000090 eb 73 53 3f 6f aa 5f 3f 36 3b 47 3f 3e 7b 68 3f
       0.8259875 0.87369436 0.77824724 0.9081305
0000a0 46 af 24 3f e6 b8 6e 3f 10 99 4d 3f 0c 77 d6 3e
       0.64329946 0.9325088 0.8031168 0.418877
0000b0 67 dd 5b 3f 32 d7 25 3f be cb 6f 3f be da 4a 3f
       0.8588471 0.64781487 0.9367026 0.79240024
0000c0 14 d8 75 3f 48 e9 6a 3f 06 30 54 3f ec 2c 86 3f
       0.96032834 0.9176221 0.8288578 1.0482459
0000d0 c8 11 84 3f e5 8a 47 3f f0 31 23 3f 5f 8c db 3e
       1.0317926 0.7794631 0.63748074 0.42880532
0000e0 21 b4 94 3f 59 12 7c 3f 17 df 08 3f 68 9a 34 3f
       1.1617471 0.98465496 0.5346541 0.70548105
0000f0 64 9d 4d 3f 53 53 17 3f d1 d5 4f 3f ec cc 7a 3f
       0.80318284 0.5911152 0.8118563 0.97968936
000100 90 d3 cd 3e 1b d8 2a 3f ed 75 35 3f 08 68 9c 3f
       0.40200472 0.66736 0.70883065 1.2219248
000110 6f 8a 6c 3f c3 2b 50 3f f5 0c 59 3f db a7 8d 3f
       0.9239873 0.81316775 0.84785396 1.106685
000120 54 99 89 3e 46 bd 69 3f 77 4e 7e 3f 3d 67 0f 3f
       0.26874793 0.91304433 0.9933848 0.56016904
000130 37 1a 92 3e 1c c7 33 3f 6f a5 68 3f 47 53 4c 3f
       0.28535625 0.7022569 0.9087743 0.7981457
000140 7a 11 47 3f 67 57 a2 3e 56 e1 e8 3e f3 70 40 3f
       0.7776104 0.31707308 0.45484418 0.75172347
000150 b7 ea 63 3f 80 e5 8f 3e 8e 82 51 3f 9f 09 81 3f
       0.8903002 0.28104782 0.81839836 1.0081061
000160 65 16 14 3f 03 21 12 3f 29 7e 34 3f fc d3 fa 3e
       0.5784667 0.5708162 0.70505005 0.48989856
000170 f8 23 15 3f 98 f2 4c 3f 86 48 57 3f 6e 18 2e 3f
       0.5825801 0.8005767 0.84095037 0.68006027
000180 13 a5 58 3f 26 59 60 3f 1b df 5c 3f a4 10 5e 3f
       0.84626883 0.8763603 0.8627793 0.8674414
000190 b5 f8 aa 3e 8e b3 6b 3f ac 03 38 3f 75 45 70 3f
       0.33392873 0.92070854 0.718806 0.93855983
0001a0 b0 ef 40 3f f9 51 89 3f d4 56 65 3f 23 18 29 3f
       0.75365734 1.0728141 0.89585614 0.66052455
0001b0 f9 06 6e 3f 3c 2e 5f 3f 1e 87 49 3f 5d ec 38 3f
       0.9297939 0.87179923 0.787218 0.7223566
0001c0 93 04 8a 3e 84 fe dc 3e 19 83 25 3f 7e 00 2e 3f
       0.26956615 0.4316293 0.64653164 0.679695
0001d0 9e ce 43 3f 3d f6 4c 3f f8 b9 82 3f a9 84 10 3f
       0.7648715 0.8006323 1.0213003 0.56452423
0001e0 b1 81 89 3f bd 46 7b 3f aa f4 39 3f cb 4d 53 3f
       1.0742704 0.98154813 0.7263895 0.8254058
0001f0 ad e3 0e 3f de 4d 4b 3f b4 c8 24 3f 5f 3c 65 3f
       0.55816156 0.7941569 0.6436875 0.89545244

hydra/unet_laplacian_backbone/unet_laplacian/layer_normalization_15/mul_4/ReadVariableOp f4 [64]
000000 e2 98 0e 3f bf f0 2f 3f 97 9a 5e 3f f4 20 0f 3f
       0.5570203 0.68726724 0.86954635 0.5590966
000010 d4 0e 9c 3f 16 4b 11 3f 62 12 67 3f 72 90 47 3f
       1.2192025 0.567552 0.90262425 0.7795478
000020 36 38 48 3f 4e 81 18 3f 05 92 67 3f 7f 36 2b 3f
       0.7821077 0.59572303 0.90457183 0.6688003
000030 40 74 68 3f a6 77 f6 3e 81 53 39 3f 24 9d 25 3e
       0.90802383 0.4813816 0.7239304 0.16173226
000040 a3 79 56 3f 2a 37 47 3f 56 09 84 3f e3 e3 4f 3f
       0.8377935 0.7781855 1.0315349 0.812071
000050 91 76 f3 3e 2d 9d 51 3f 54 78 21 3f e5 c5 a7 3f
       0.47551396 0.81880456 0.6307423 1.3107268
000060 e0 8f 1c 3f dd 72 47 3f 48 8a 10 3f 15 ef 05 3f
       0.61157036 0.7790964 0.56461 0.52317935
000070 70 ee 32 3f 6b ce 1d 3f 0b 9f 6b 3f 1d 4d 3e 3f
       0.69895077 0.61643094 0.92039555 0.74336416
000080 7c 81 1e 3f a2 10 d9 3f bb 4c 52 3f 7c cd 35 3f
       0.6191633 1.6958201 0.8214833 0.7101667
000090 de 4c 0e 3f 9f 8c d8 3e c0 1e 36 3f 12 f2 37 3f
       0.5558604 0.42294785 0.7114067 0.71853745
0000a0 5a 46 3b 3f e1 d9 09 3f e3 4b 42 3f 7b 97 4a 3f
       0.7315422 0.5384808 0.75897044 0.7913739
0000b0 4f 2c 16 3f aa 0b 8e 3f 03 4f 76 3f 80 fb 14 3f
       0.5866136 1.109731 0.9621431 0.5819626
0000c0 30 12 76 3f 03 fc 26 3f 42 c4 48 3f 7b a4 86 3f
       0.961215 0.6522829 0.78424466 1.0518945
0000d0 12 33 b2 3f b2 96 32 3f 34 cc c3 3e 2d 75 49 3f
       1.3921835 0.6976119 0.38241732 0.7869442
0000e0 ab 20 9c 3e 6d 08 c6 3e 06 b9 5e 3e 87 84 57 3f
       0.30493674 0.38678303 0.21750268 0.84186596
0000f0 27 86 2f 3f 0a c1 81 3f 3a 6c 98 3f c5 1d 16 3f
       0.68564075 1.0137036 1.1908028 0.58639175

hydra/unet_laplacian_backbone/unet_laplacian/layer_normalization_19/mul_4/ReadVariableOp f4 [32]
000000 5a 9a 45 3f d7 2f 01 3f 9e 86 8c 3f 27 8b 55 3f
       0.77188647 0.5046362 1.0978582 0.83415455
000010 11 20 86 3f fe 83 1f 3f c2 f3 3f 3f 78 d5 99 3f
       1.0478536 0.6231078 0.7498132 1.201827
000020 ae 31 33 3f f7 05 3b 3f 35 a2 3f 3f 98 88 80 3f
       0.6999768 0.73055977 0.74856883 1.0041685
000030 48 a2 8f 3f 6d 2b 66 3f d3 e9 b4 3f 0e e0 1b 3f
       1.1221399 0.8991001 1.4133857 0.60888755
000040 25 41 d0 3e ef cc 81 3f d9 ed d0 3e 91 d6 56 3f
       0.406747 1.0140666 0.40806463 0.8392115
000050 a2 7b 8d 3f e5 c7 9a 3f 9d 5f 00 3f 0e d9 85 3f
       1.1053355 1.2092253 0.50145894 1.0456865
000060 53 b4 3c 3f b2 d0 72 3f 5d 6b 70 3f c0 0c 3c 3f
       0.7371265 0.94849694 0.93913823 0.73456955
000070 0e 62 ea 3e b5 54 85 3f ae 77 5e 3f 01 22 14 3f
       0.45777935 1.0416476 0.86901367 0.57864386

hydra/unet_laplacian_backbone/unet_laplacian/layer_normalization_3/mul_4/ReadVariableOp f4 [32]
000000 01 7a a5 3f 3d 28 b4 3f ce 14 c8 3f 93 5e 66 3f
       1.2927858 1.407478 1.5631349 0.8998806
000010 7b e6 8f 3f f2 6f 59 3f 4b 13 9f 3f 47 23 70 3f
       1.1242212 0.8493644 1.2427763 0.9380383
000020 05 d0 76 3f b7 10 a0 3f 04 67 92 3f 9a dc 7c 3f
       0.9641116 1.2505101 1.1437688 0.9877411
000030 1c f2 94 3f 5a 49 5f 3f ce 89 83 3f 33 e0 92 3f
       1.1636386 0.872213 1.027643 1.147467
000040 2c d6 72 3f 93 4e a7 3f e0 07 ac 3f 85 af 42 3f
       0.9485805 1.3070854 1.3439903 0.7604907
000050 ec 39 71 3f d9 db 8c 3f 3a ef 46 3f 34 e7 81 3f
       0.94229007 1.1004592 0.7770878 1.0148683
000060 04 8d a6 3f 1e a9 aa 3f 89 59 38 3f 80 f7 82 3f
       1.3011785 1.333286 0.7201162 1.0231781
000070 50 3e 71 3f 13 bc 5a 3f 84 cd 6e 3f d8 55 80 3f
       0.94235706 0.8544323 0.9328234 1.0026197

hydra/unet_laplacian_backbone/unet_laplacian/layer_normalization_7/mul_4/ReadVariableOp f4 [64]
000000 aa 87 f8 3e 15 d1 81 3f 98 4d 8a 3f 39 26 3f 3f
       0.48541003 1.0141932 1.080493 0.746677
000010 eb bc 41 3f 75 27 03 3f cc 08 90 3f 82 fd 2f 3f
       0.7567889 0.5123208 1.1252685 0.687462
000020 e4 d6 5e 3f bf 4f 86 3f ff 76 b1 3f 3d d9 17 3f
       0.8704665 1.0493087 1.386444 0.59315854
000030 a6 5a cc 3f de d3 8a 3f 24 7d e1 3e 96 e2 34 3f
       1.5965164 1.0845907 0.44040787 0.7065824
000040 73 cd 29 3f 56 ee 6f 3f 43 4f 15 3f c4 a9 6b 3f
       0.66329116 0.93723047 0.5832407 0.92055917
000050 d0 b8 8a 3f 77 2c eb 3e 50 e0 5b 3f 89 e7 43 3f
       1.083765 0.4593236 0.8588915 0.7652517
000060 55 73 94 3f e2 de 3e 3f a3 55 31 3f a2 64 09 3f
       1.1597697 0.7455884 0.69271296 0.5366918
000070 b7 91 94 3f f7 90 60 3f 60 36 77 3f 4d 7a cd 3f
       1.1606969 0.877212 0.96567345 1.6052948
000080 12 a9 45 3f e3 ce 8e 3f 7d 3d 57 3f e9 c9 60 3f
       0.77211106 1.1156887 0.840782 0.8780809
000090 79 9a 50 3f 13 86 6c 3f 5f e8 43 3f 20 a2 3d 3f
       0.81485707 0.9239208 0.76526445 0.7407551
0000a0 e5 7b a2 3f 38 9a 9f 3f 52 44 7b 3f 67 6c 80 3f
       1.269406 1.2468939 0.98151124 1.0033082
0000b0 eb dd 43 3f 6c 3b 89 3f 3c 9a e8 3e 1a 6e 89 3f
       0.76510495 1.0721259 0.4543017 1.0736725
0000c0 61 e9 8e 3f 02 86 93 3e 01 1e 97 3f 42 f1 97 3f
       1.1164972 0.28813177 1.1806031 1.1870501
0000d0 7b 31 83 3f a3 27 62 3f 62 37 0d 3f cf 9f 69 3f
       1.0249475 0.8834173 0.5516263 0.91259474
0000e0 b8 8a 7e 3f 09 df 8f 3f fa 0e 86 3f 4a c3 4a 3f
       0.9943042 1.123994 1.047332 0.7920424
0000f0 47 37 77 3f d7 6f 38 3f 9e 77 58 3f eb 22 83 3f
       0.9656872 0.72045654 0.8455752 1.0245031

hydra/denoiser_head/conv2d_9/Conv2D_2 f4 [3, 1, 1, 32]
000000 c6 d4 8d 39 79 10 1a bf 2d d5 08 3d 89 8f 2e 3c
       0.00027052144 -0.60181385 0.033406425 0.010654339
000010 25 5b c8 be 39 50 0d 3f 79 8f 21 3e ba 17 4a be
       -0.39132038 0.55200535 0.15777387 -0.19735613
000020 64 39 29 be 47 29 04 bf 84 d3 0e bf c6 bb 05 3e
       -0.16525799 -0.51625484 -0.557915 0.13059911
000030 00 46 b7 3d 58 b0 86 3b ce 46 1e 3d 19 fa 52 bd
       0.08948898 0.0041103773 0.038641743 -0.051508043
000040 50 31 8a be 52 f9 20 bd a2 60 00 3f 00 2b 18 3e
       -0.26990747 -0.03930027 0.5014745 0.14860153
000050 e2 1d 97 be 6d 3d 14 bf 4f 72 b5 be 4e 26 ce be
       -0.29514986 -0.5790623 -0.35438773 -0.402636
000060 13 d9 2d 3e bf b0 2a bd 37 be 58 3d f1 ac f3 be
       0.16977338 -0.041672464 0.052915778 -0.4759288
000070 73 f4 5e ba 2f 15 0f 3f 42 e8 31 bc 1d 6f 3b 3c
       -0.00085050537 0.558917 -0.010858597 0.011440066
000080 a9 54 28 bf b4 9c 1d bc 90 c9 60 3e 7c 66 06 be
       -0.6575418 -0.0096198805 0.2195189 -0.13125032
000090 74 f8 79 bf fc 8b 28 3f 0f 91 58 be 65 a6 86 3b
       -0.97644734 0.658386 -0.21149085 0.0041091912
0000a0 b1 29 34 bf 0a 72 7d 3d 27 f9 b4 be 32 3a 34 3e
       -0.70376116 0.061876334 -0.35346338 0.17600325
0000b0 5e 62 c0 bd cf df a7 be e5 a6 ab 3e 74 76 b4 bc
       -0.09393762 -0.3278794 0.33525768 -0.02202914
0000c0 b8 f0 3f bc 9d 44 66 bc bc 8f f0 3e 1d 94 d1 be
       -0.011715107 -0.014054445 0.4698466 -0.40933314
0000d0 17 45 02 bf a8 ac 0a 3c f9 53 5c be de d0 e1 be
       -0.5088667 0.008464016 -0.21516408 -0.44104666
0000e0 2d 4f 6f bd a3 2e a1 3b 33 5e 95 3e 38 89 90 3e
       -0.058425117 0.0049188896 0.2917343 0.2822969
0000f0 0f 39 14 3c a0 d5 a3 3b 87 a0 f0 be ab 89 11 3c
       0.009046807 0.0049998313 -0.46997473 0.00888292
000100 b2 cd 58 bc 96 35 95 bc b1 bb 4f 3e c0 4d b9 bc
       -0.013232635 -0.018214028 0.20286442 -0.022620082
000110 94 b5 3a bf 45 a3 08 be cf dd 84 bc f9 5c 20 3c
       -0.72933316 -0.13343532 -0.016219048 0.009787791
000120 3e 82 ce 3e 40 1f 3e 3e 57 52 8e be 63 86 13 3f
       0.40333742 0.18566608 -0.27797195 0.5762693
000130 02 7d dc be 08 48 eb bb d2 62 97 3c 80 c8 0f be
       -0.43064123 -0.0071802177 0.018479738 -0.14041328
000140 31 2f 10 3b c7 3f ee 3e 31 c5 9c 3e 55 a7 99 bd
       0.0022000785 0.46533033 0.30619195 -0.07502619
000150 8d 46 ad 3e cd 49 41 bb 4d c5 09 3d 6e e5 32 bf
       0.33842888 -0.0029493452 0.033635426 -0.6988133
000160 8b 54 1e bd 5e 04 a5 3e d7 7a 92 3c 89 d1 1c bd
       -0.038654845 0.32229894 0.01788084 -0.038285766
000170 98 07 97 3e 3d a4 3b bc 94 2b 89 be a0 e4 1f bf
       0.2949798 -0.011452732 -0.2679106 -0.6245823

hydra/denoiser_head/conv2d_9/Conv2D_21 f4 [3]
000000 00 00 00 00 00 00 00 00 00 00 00 00
       0.0 0.0 0.0
