bfcnn/pretrained/resnet_color_1x18_bn_32x32_1x3x1_256x256_erf_relu/denoiser_model.tflite (tflite, 477080 bytes, 197 tensors)

resnet_backbone/level_0/batch_normalization_9/FusedBatchNormV3 f4 [64]
0	0x3f9506ab	1.164266
1	0x3a68845e	0.0008869822
2	0x3ac92686	0.0015346564
3	0x409e82af	4.9534526
4	0x3f821ef3	1.0165695
5	0x3f81933e	1.012306
6	0x3f7009f1	0.9376517
7	0x3efc2131	0.49244073
8	0x40a6d465	5.213427
9	0x393f45b4	0.00018241146
10	0xb8113522	-3.4620178e-05
11	0xb99b5aea	-0.0002963164
12	0x3a18db4b	0.0005831017
13	0x3aa459a4	0.0012538922
14	0x40386545	2.881181
15	0x3f871bb9	1.0555335
16	0x4184903e	16.57043
17	0x405ba558	3.4319668
18	0x40895d14	4.292612
19	0x40912989	4.53632
20	0x40b90025	5.7812676
21	0x4074addd	3.8231118
22	0x40314a2b	2.7701519
23	0x40a5b612	5.1784754
24	0x409981e1	4.7971044
25	0x40928290	4.578438
26	0x413f11fe	11.941893
27	0x4061b32b	3.5265605
28	0x40cac826	6.336932
29	0x40b8a597	5.7702136
30	0x40c67a49	6.2024274
31	0x40bec5f3	5.9616637
32	0x41078fc7	8.472602
33	0x3fd1a763	1.6379207
34	0x40aefe73	5.4685607
35	0x3ff447f1	1.9084455
36	0x412686f5	10.4079485
37	0x3d6eff0d	0.058348704
38	0x403e84e8	2.976862
39	0x4080d953	4.026529
40	0x408e7b28	4.4525337
41	0x3fad20e0	1.3525658
42	0x4053aa4a	3.3072686
43	0x3fdd8ab2	1.7307951
44	0x4083d06a	4.119191
45	0x3fccb622	1.5993083
46	0x3fe597ba	1.7936928
47	0x3f1dceee	0.61643875
48	0x3b831e1b	0.0040013916
49	0x3f298348	0.66215944
50	0xba8683d2	-0.0010262674
51	0xbb09064a	-0.002090829
52	0x3f3ca23e	0.7368506
53	0xbac52e0a	-0.0015043628
54	0xb9ba7d14	-0.00035569875
55	0x38e3115d	0.00010827438
56	0x3ab39ac9	0.0013702746
57	0x3a934941	0.0011237041
58	0x3ab33af2	0.0013674183
59	0x3f2b0aa9	0.6681314
60	0x39dfa35e	0.00042655593
61	0x3ebd40a0	0.36963367
62	0xb9ee316d	-0.00045431723
63	0x3f565027	0.8371605

resnet_backbone/level_0/batch_normalization_9/FusedBatchNormV31 f4 [64]
0	0xbe505504	-0.20344931
1	0xb212c18e	-8.542328e-09
2	0xb2484150	-1.16563825e-08
3	0xb8790731	-5.9372924e-05
4	0xbf0ab8a7	-0.5418801
5	0xbebcf794	-0.36907637
6	0xb70cb68e	-8.387155e-06
7	0xb687928e	-4.0403747e-06
8	0xb8804acb	-6.117447e-05
9	0xb0b35e5f	-1.3050786e-09
10	0x2f84a14f	2.4125277e-10
11	0x316d8daa	3.4568566e-09
12	0xb1c78662	-5.80694e-09
13	0xb21a3269	-8.975442e-09
14	0xbea3ddd1	-0.3200517
15	0xbe4d3d12	-0.20042828
16	0xb9389db2	-0.00017606354
17	0xbf60da63	-0.8783323
18	0xbf82059e	-1.0157964
19	0xbf712126	-0.94191206
20	0xbf1f0277	-0.62113136
21	0xbee9e804	-0.45684826
22	0xbeea2ec3	-0.457388
23	0xbf2f21b0	-0.6841078
24	0xbf0af2f1	-0.5427695
25	0xbf2d6cd4	-0.67744184
26	0xb8f14515	-0.00011504643
27	0xbf4e9ee2	-0.80711186
28	0xbf16da1e	-0.5892657
29	0xbf9a42ad	-1.2051598
30	0xbf81a242	-1.0127642
31	0xbf1d538a	-0.61455595
32	0xbe0d38d2	-0.13791206
33	0xbf176782	-0.59142315
34	0xb8b99433	-8.849092e-05
35	0xbf5f417e	-0.8720931
36	0xb991ed5f	-0.0002783341
37	0xb5257261	-6.1633733e-07
38	0xb8381e21	-4.389708e-05
39	0xb87a3ca8	-5.9661135e-05
40	0xb885bb8a	-6.376866e-05
41	0xbf2dfef3	-0.67967147
42	0xb84309a3	-4.6500598e-05
43	0xbf5250e1	-0.8215466
44	0xb8837b78	-6.2695646e-05
45	0xbf39e7e3	-0.72619456
46	0xbef91317	-0.48647377
47	0xb6cf8545	-6.1845953e-06
48	0xb3204546	-3.7315907e-08
49	0xbe564a44	-0.20926768
50	0x323bcec4	1.0931846e-08
51	0x32ebc24f	2.7445962e-08
52	0xbf1c67e0	-0.61096
53	0x31bd4866	5.5088547e-09
54	0x3207886d	7.889054e-09
55	0xb119cc2f	-2.2380495e-09
56	0xb225656f	-9.627327e-09
57	0xb28f382a	-1.6672931e-08
58	0xb2887583	-1.5885922e-08
59	0xbeb3f9a1	-0.3515139
60	0xb0e609e3	-1.6737512e-09
61	0xbe7b803e	-0.2456064
62	0x319dca3b	4.5922923e-09
63	0xbed4878e	-0.4150967

resnet_backbone/level_0/batch_normalization_8/FusedBatchNormV3 f4 [32]
0	0x40890759	4.282147
1	0x40d90018	6.7812614
2	0x3c4327ed	0.0119113745
3	0x40f6a4a8	7.7075996
4	0x411a213e	9.633116
5	0x40769600	3.8529053
6	0x40dcab51	6.8959126
7	0x402b319a	2.6749024
8	0x40f0a9f2	7.5207453
9	0x4027765b	2.6165988
10	0x3fea4e27	1.83051
11	0x3fe02536	1.7511356
12	0x40920d84	4.56415
13	0x40e0f3ec	7.0297756
14	0x4001bd5a	2.027182
15	0x403542f6	2.832212
16	0x400c8ad6	2.1959739
17	0x3fd64057	1.6738385
18	0x4037a9e2	2.8697438
19	0x40cc4cea	6.384389
20	0x386c39a0	5.6320452e-05
21	0x40bae08c	5.8399105
22	0x4087e874	4.2471256
23	0x411247a7	9.142493
24	0x40428924	3.0396204
25	0x3fbebe56	1.4901836
26	0x3f8af323	1.085545
27	0x40737495	3.8039906
28	0x418dad13	17.709509
29	0x4121fe68	10.124611
30	0x403873d1	2.8820689
31	0x3f93e123	1.1553081

resnet_backbone/level_0/batch_normalization_8/FusedBatchNormV31 f4 [32]
0	0xbedb123f	-0.42787358
1	0xbf042293	-0.51615256
2	0xb4d2c58a	-3.9259277e-07
3	0xbf434738	-0.76280546
4	0xbe8db3ad	-0.27676144
5	0xbe529e22	-0.20568135
6	0xbeaacaa8	-0.3335774
7	0xbf15bfb3	-0.58495635
8	0xbf1b1023	-0.605715
9	0xbe99d012	-0.30041558
10	0xbf19a031	-0.6001006
11	0xbebca8fe	-0.3684768
12	0xbeb979b3	-0.36225662
13	0xbe842ecf	-0.25816962
14	0xbef97357	-0.4872081
15	0xbe9a7651	-0.30168393
16	0xb8e2398b	-0.00010787238
17	0xbf3e28fe	-0.742813
18	0xbfbf5143	-1.4946674
19	0xbe93ef56	-0.28893536
20	0xb11ac132	-2.2519768e-09
21	0xbeadf136	-0.33973092
22	0xb91cc6f6	-0.00014951438
23	0xb9d36871	-0.0004032287
24	0xbfc2f2dd	-1.5230366
25	0xb89828db	-7.255535e-05
26	0xb84f74e9	-4.9461527e-05
27	0xbf7e443d	-0.99322873
28	0xba76b746	-0.0009411465
29	0xbe70fff9	-0.23535146
30	0xb9177c0e	-0.00014446696
31	0xbf686fc2	-0.9079553

resnet_backbone/level_0/batch_normalization_7/FusedBatchNormV3 f4 [64]
0	0x3c23fc90	0.010008946
1	0x3eebdf30	0.46068716
2	0x3fd3141b	1.6490511
3	0x3f1aa70d	0.6041115
4	0x3a3d7da0	0.00072284974
5	0x3b8c911e	0.0042897603
6	0x3a9b358c	0.001184152
7	0x3a3b91d4	0.0007155214
8	0x3f9b57a6	1.2136123
9	0x3a08d86a	0.00052202365
10	0x40a382df	5.1097255
11	0x3d103617	0.035207834
12	0x3901892b	0.00012353498
13	0x3fe1beb8	1.7636328
14	0x3b0b75c4	0.002127991
15	0x3fe15368	1.7603579
16	0x40ccdfe6	6.4023314
17	0x405ddca6	3.4665923
18	0x3fa670e4	1.3003201
19	0x40a62bd2	5.192849
20	0x40034678	2.051176
21	0x4096f956	4.7179365
22	0x40562df1	3.346554
23	0x406e4f03	3.7235725
24	0x4091d693	4.557443
25	0x3f2906f1	0.66026217
26	0x400b16dd	2.1732705
27	0x40827569	4.0768323
28	0x3f9de845	1.2336508
29	0x40634243	3.5509193
30	0x3f3f6e68	0.7477784
31	0x4091a9e0	4.5519867
32	0x3fadbfa3	1.3574108
33	0x40a2c1b3	5.086145
34	0x3fd59985	1.6687475
35	0x4128d707	10.552497
36	0x40596249	3.3966238
37	0x40c317ff	6.096679
38	0x402a9bc5	2.6657574
39	0x3e30afd7	0.17254578
40	0x40535090	3.3017921
41	0x3f81ecd4	1.0150399
42	0x3f319dd5	0.6938146
43	0x3f9bdfc9	1.2177669
44	0x3f9a5b0d	1.2059036
45	0x407d1b2e	3.954784
46	0x40ece1cd	7.4025636
47	0x3ff1f8e2	1.8904078
48	0xb9748dc5	-0.00023322467
49	0x3ea5d653	0.3239008
50	0xb9333232	-0.0001708947
51	0xb8b71284	-8.729569e-05
52	0x3f1351b6	0.57546556
53	0x39b575f5	0.00034610895
54	0x3ede172e	0.4337706
55	0x3ecab659	0.39592245
56	0x3b070d48	0.0020607281
57	0x3f0075c6	0.5017971
58	0x3f76b646	0.9637188
59	0x3ea5c3ee	0.32376045
60	0xb91bc444	-0.00014855067
61	0x3f0655c9	0.5247465
62	0x3f04568c	0.5169456
63	0x3f17518c	0.59108806

resnet_backbone/level_0/batch_normalization_7/FusedBatchNormV31 f4 [64]
0	0xb3d74fb6	-1.0026217e-07
1	0xb6b174ee	-5.2886235e-06
2	0xbe8e3b0e	-0.2777943
3	0xb6e343d9	-6.7730257e-06
4	0xb1ea6fcf	-6.8230075e-09
5	0xb2e4ce66	-2.6636553e-08
6	0xb22825aa	-9.787451e-09
7	0xb239dbde	-1.0818409e-08
8	0xb7742359	-1.4551763e-05
9	0xb1e83791	-6.758406e-09
10	0xb9762656	-0.0002347467
11	0xb4ca04ca	-3.7628917e-07
12	0xb078a960	-9.046257e-10
13	0xbe8b80c2	-0.27246672
14	0xb28d6430	-1.646012e-08
15	0xbe2c1f43	-0.168088
16	0xb8a988c8	-8.0840255e-05
17	0xbf542c62	-0.8288022
18	0xbf5e911a	-0.8694016
19	0xbf50c2d6	-0.81547296
20	0xbee7ad4d	-0.45249406
21	0xbf93b877	-1.1540669
22	0xbee91e90	-0.4553113
23	0xbf66a302	-0.9009248
24	0xbf338654	-0.70126843
25	0xbf9d21e5	-1.2275969
26	0xbe71ca6c	-0.23612374
27	0xbf88dbb4	-1.0692048
28	0xbf75bd8d	-0.95992357
29	0xbf5d7812	-0.8651134
30	0xbf900607	-1.1251839
31	0xbf62fa7d	-0.88663465
32	0xbf078e7e	-0.529518
33	0xb8831478	-6.2503794e-05
34	0xbf72400b	-0.9462897
35	0xb95083cc	-0.00019885524
36	0xbf12abbc	-0.57293296
37	0xbe744ced	-0.2385747
38	0xb7edcb7f	-2.8347362e-05
39	0xb5f5f4a5	-1.8325123e-06
40	0xb80ca97e	-3.3536453e-05
41	0xb72572dc	-9.861509e-06
42	0xbf1ee741	-0.62071615
43	0xbf9b0532	-1.211096
44	0xbf8c4a39	-1.0960151
45	0xb83821ce	-4.39005e-05
46	0xb8eb298e	-0.000112134134
47	0xb7a98808	-2.0209714e-05
48	0x31528f5c	3.0640512e-09
49	0xbe6d0129	-0.23144974
50	0x3141e06f	2.8212772e-09
51	0x303bf165	6.8373246e-10
52	0xbf228d31	-0.6349669
53	0xb1a16bcb	-4.6979713e-09
54	0xbf0633d1	-0.52422816
55	0xbe259bb8	-0.16172683
56	0xb2db14fb	-2.5504496e-08
57	0xbeca8bd9	-0.3955982
58	0xbf4c7f95	-0.79882175
59	0xbf2f8217	-0.68557876
60	0x30fc03d7	1.8336505e-09
61	0xbdbf2177	-0.09332555
62	0xbf5584bd	-0.8340567
63	0xbea71c84	-0.32638943

resnet_backbone/level_0/batch_normalization_6/FusedBatchNormV3 f4 [32]
0	0x40f795ed	7.7370515
1	0x40cf5c59	6.480023
2	0x3f31b65f	0.694189
3	0x3f507bda	0.8143898
4	0x402ee0c5	2.7324688
5	0x40813b62	4.038499
6	0x40afdd0f	5.4957347
7	0x4123c24a	10.234934
8	0x41764a69	15.393167
9	0x401c5d65	2.4432003
10	0x40076447	2.1154954
11	0x40c4e266	6.1526365
12	0x40999413	4.7993255
13	0x408f43d7	4.477031
14	0x40bce4a3	5.9029098
15	0x40917ceb	4.546499
16	0x41067818	8.40432
17	0x404e24e1	3.221001
18	0x412bd1b1	10.738694
19	0x40007232	2.00697
20	0x3ec7f304	0.39052594
21	0x4040dc0a	3.01343
22	0x3ee9dc01	0.45675662
23	0x3e89f26d	0.2694277
24	0x3f8996dc	1.0749164
25	0x406612b8	3.5948925
26	0x3f9b865e	1.2150381
27	0x401b7c39	2.429457
28	0xba26246b	-0.0006337824
29	0x3bbc03a1	0.0057377373
30	0x3e18f142	0.14935783
31	0x3fed9111	1.8559896

resnet_backbone/level_0/batch_normalization_6/FusedBatchNormV31 f4 [32]
0	0xbe92c56e	-0.28666252
1	0xba275fc6	-0.0006384816
2	0xc004796d	-2.0699112
3	0xb83789ff	-4.375912e-05
4	0xbf32e073	-0.6987373
5	0xbea34d55	-0.31894937
6	0xbf238cc3	-0.6388666
7	0xbe0d91f5	-0.1382521
8	0xbec07065	-0.3758575
9	0xbf25294c	-0.6451614
10	0xbe444e3b	-0.19170468
11	0xbf1fe219	-0.6245437
12	0xbedeebf7	-0.43539402
13	0xbf169314	-0.58818173
14	0xb9a40eed	-0.00031291638
15	0xbf05b928	-0.5223565
16	0xba004511	-0.0004893104
17	0xbe4a99fb	-0.19785301
18	0xbeb650e3	-0.35608587
19	0xbf1865f7	-0.59530586
20	0xbf6bfac6	-0.92179525
21	0xbedc1c03	-0.4299012
22	0xbfa8d016	-1.3188503
23	0xb76c6a3d	-1.4091432e-05
24	0xbe975c16	-0.29562443
25	0xbfc7ee00	-1.5619507
26	0xbf39b1b6	-0.7253679
27	0xbf041053	-0.5158741
28	0x32d5afca	2.4876403e-08
29	0xb4e0af17	-4.1850646e-07
30	0xb71fea95	-9.531756e-06
31	0xbe365236	-0.17804798

resnet_backbone/level_0/batch_normalization_5/FusedBatchNormV3 f4 [64]
0	0xbaa031fc	-0.0012221928
1	0x3adfb32d	0.0017066948
2	0x3f878d4e	1.0589998
3	0xb826ed72	-3.9798622e-05
4	0x40e3a092	7.113351
5	0x3f2a4262	0.6650754
6	0x3f74f7b8	0.9569049
7	0x3f325af5	0.6967004
8	0x3e630919	0.22171439
9	0x3f7126bf	0.94199747
10	0x3fc9138b	1.5709089
11	0x3f472cca	0.7780272
12	0xbabbcbad	-0.0014327668
13	0x3f04d3b1	0.51885515
14	0xb9ac2f8e	-0.00032841827
15	0x401ee10a	2.4824853
16	0x40a62e2a	5.1931353
17	0x413ce0e4	11.804905
18	0x4087a680	4.2390747
19	0x40e378d7	7.108501
20	0x40c287ed	6.0790925
21	0x407e44a5	3.9729397
22	0x40fd954f	7.924476
23	0x40b8e5e9	5.778065
24	0x4114e819	9.306664
25	0x4084100f	4.1269603
26	0x40b376fc	5.6082745
27	0x40b3532d	5.6039033
28	0x4133d6b7	11.239921
29	0x41398bdc	11.596645
30	0x3fc45f32	1.5341551
31	0x40b98597	5.7975574
32	0x4036573c	2.8490744
33	0x405cb931	3.4488032
34	0x3fffa386	1.9971778
35	0x4114afcb	9.292918
36	0x40669e67	3.603418
37	0x3f80273d	1.0011975
38	0x40b1ac7e	5.552306
39	0x3eebb3a4	0.46035492
40	0x4083a7aa	4.114217
41	0x3f016081	0.5053788
42	0x4061930b	3.5245998
43	0x405de8b4	3.467328
44	0x3dc9fbd5	0.09862486
45	0x406b5656	3.6771445
46	0x40094818	2.1450253
47	0x40de6b83	6.950624
48	0x3f222aa7	0.6334633
49	0x3f4b34b7	0.7937731
50	0x37a2549e	1.9351308e-05
51	0x3a6757bb	0.00088250235
52	0x3ebe9131	0.37220147
53	0x3f3e0547	0.742268
54	0xba816e22	-0.0009874741
55	0x3f0fc96f	0.5616674
56	0x3f153cfc	0.5829618
57	0xb91869e9	-0.00014535304
58	0xb9caed64	-0.00038705312
59	0xba863b25	-0.0010241015
60	0xb8b1cb11	-8.477842e-05
61	0x3f34c915	0.70619327
62	0x3f53480e	0.8253182
63	0x3fae390c	1.3611159

resnet_backbone/level_0/batch_normalization_5/FusedBatchNormV31 f4 [64]
0	0x31ff02e0	7.4218036e-09
1	0xb20b5cdf	-8.111981e-09
2	0xbf218258	-0.63089514
3	0x2f81dcfd	2.3621985e-10
4	0xb9853849	-0.00025409673
5	0xbdd7061a	-0.10499211
6	0xbf37ceb6	-0.7179979
7	0xbe3885db	-0.18019812
8	0xb5db6423	-1.6345915e-06
9	0xbf537adc	-0.82609344
10	0xbe881be9	-0.26583794
11	0xbe38230b	-0.17982118
12	0x322e9c33	1.0163649e-08
13	0xb69159c4	-4.331787e-06
14	0x313e62dc	2.7704834e-09
15	0xb7dbd7ba	-2.620729e-05
16	0xbed07694	-0.40715468
17	0xb929b326	-0.00016183834
18	0xbf220733	-0.63292235
19	0xbdd61da3	-0.104548715
20	0xbeb84be8	-0.35995412
21	0xbf296e9c	-0.661844
22	0xb8b009bc	-8.394147e-05
23	0xbee18985	-0.44050232
24	0xb8d4064e	-0.00010110122
25	0xbebc5b68	-0.36788487
26	0xbf3b4950	-0.7315874
27	0xbf21dad9	-0.6322456
28	0xb9145c5b	-0.00014148785
29	0xb911bb43	-0.00013898038
30	0xbf1790a9	-0.5920511
31	0xbf0a49aa	-0.5401865
32	0xbe715189	-0.2356626
33	0xb837b82c	-4.3802123e-05
34	0xbf2cab58	-0.6744895
35	0xbcb48483	-0.022035843
36	0xbecbbc48	-0.39792085
37	0xbea938c9	-0.33051136
38	0xb89ba789	-7.422182e-05
39	0xb68eef35	-4.259777e-06
40	0xb84dcbc9	-4.90656e-05
41	0xbf1f1b1b	-0.62150735
42	0xb8225a53	-3.870793e-05
43	0xbe90b04e	-0.2825951
44	0xb551e864	-7.819674e-07
45	0xbf835371	-1.0259839
46	0xbf092b34	-0.5358155
47	0xb8fdca50	-0.00012101664
48	0xbedbf594	-0.429608
49	0xbf023ee2	-0.508772
50	0xaf79bc64	-2.2713348e-10
51	0xb2185271	-8.8663095e-09
52	0xbefd3983	-0.4945794
53	0xbe9233cd	-0.28555146
54	0x327fc1d5	1.4887026e-08
55	0xbe963aa0	-0.29341602
56	0xbeaaedce	-0.33384556
57	0x311cf6c6	2.2841262e-09
58	0x31bdb536	5.5212253e-09
59	0x32570a77	1.25170265e-08
60	0x2fec5cc3	4.299406e-10
61	0xb704120d	-7.872016e-06
62	0xbe4bda49	-0.19907488
63	0xbe00d2ae	-0.12580368

resnet_backbone/level_0/batch_normalization_4/FusedBatchNormV3 f4 [32]
0	0x40c49097	6.14265
1	0x40b22fd3	5.568338
2	0x3f9f7efd	1.2460629
3	0xba5592f2	-0.0008147202
4	0x4099805c	4.796919
5	0x4038c654	2.887105
6	0x3c5e3c3e	0.013564168
7	0x408d5d13	4.4176116
8	0x40123893	2.284703
9	0xbb1cb7c9	-0.0023913255
10	0x3f1854c9	0.5950437
11	0x3fa91a35	1.3211123
12	0x410f80c6	8.968939
13	0x412c2e7a	10.761347
14	0x40d224d7	6.566997
15	0x40f02e7a	7.5056734
16	0x406a71dc	3.6631994
17	0x40ad734c	5.4203243
18	0x406c39b1	3.6910212
19	0x409a93d2	4.8305445
20	0x403bb2e7	2.9327943
21	0x3f8630b4	1.0483613
22	0x40cd15da	6.4089174
23	0x3a3ff480	0.0007322505
24	0x41676948	14.463203
25	0x418a3239	17.274523
26	0x40f91e03	7.7849135
27	0x4064db72	3.5758939
28	0x407db1b0	3.9639702
29	0x4097b16d	4.7404084
30	0x3b047a4f	0.0020214503
31	0x40e9e35f	7.3090053

resnet_backbone/level_0/batch_normalization_4/FusedBatchNormV31 f4 [32]
0	0xbebff83d	-0.37494078
1	0xbe970ba6	-0.29501075
2	0xb872b7d7	-5.786851e-05
3	0x32d6df5d	2.5014453e-08
4	0xb9a39e47	-0.00031207709
5	0xbf15b94f	-0.58485883
6	0xb5b1d065	-1.3248178e-06
7	0xbe6bcc8f	-0.23027252
8	0xbf13b6d0	-0.57700825
9	0x33c407ff	9.128416e-08
10	0xbfcb4777	-1.5881184
11	0xbe9fa596	-0.3118102
12	0xbe78f42e	-0.24311897
13	0xbf3019e7	-0.68789524
14	0xbe966dfd	-0.2938079
15	0xbe1e8d22	-0.15483525
16	0xbe82162a	-0.25407535
17	0xbf0c9595	-0.54915744
18	0xbf8bd1fa	-1.0923455
19	0xbf5af4da	-0.85529864
20	0xbf915fab	-1.135732
21	0xb830a5a4	-4.2115935e-05
22	0xb9d6fe55	-0.00041006753
23	0xb37a073f	-5.821425e-08
24	0xba745007	-0.00093197863
25	0xbded09f7	-0.11574166
26	0xbf0d8522	-0.5528127
27	0xbf5beb05	-0.85905486
28	0xbf0c2dc1	-0.54757315
29	0xbeac1941	-0.33613017
30	0xb3b78db8	-8.54738e-08
31	0xb9e5ae26	-0.00043808034

resnet_backbone/level_0/batch_normalization_35/FusedBatchNormV3 f4 [64]
0	0x3f71358d	0.94222337
1	0x3f3ed70d	0.7454689
2	0x3fb027c7	1.3762139
3	0x3d702a6c	0.058634207
4	0x3a23a462	0.00062424515
5	0x3a6101b0	0.00085833203
6	0xbaba8f1e	-0.0014233326
7	0xbac8bd38	-0.0015315181
8	0x407196ca	3.7748284
9	0x410a34ac	8.637859
10	0x3a04efd3	0.0005071137
11	0x4000a884	2.0102854
12	0x3f7def30	0.99193096
13	0x39dde226	0.00042320899
14	0x3bdf67f1	0.0068178107
15	0x3c9a143b	0.018808475
16	0x40a32231	5.0979238
17	0x3f7c7a36	0.9862398
18	0x3fe1ead5	1.764979
19	0x40be371a	5.9442263
20	0x40302f7f	2.752899
21	0x40fe6f70	7.951103
22	0x40b539bf	5.663299
23	0x3a295860	0.0006460007
24	0x400afb56	2.1715903
25	0x3fc4aafa	1.5364678
26	0x4058b283	3.3858955
27	0x40500131	3.2500727
28	0x401ccae6	2.449884
29	0x409762b3	4.7307982
30	0x41145002	9.269533
31	0x3f360443	0.7110025
32	0x409bfa5e	4.8743124
33	0x3fcd6c87	1.6048745
34	0x40af8f32	5.48623
35	0x3f93b584	1.1539769
36	0xba2d0bd5	-0.00066011894
37	0x406a97ab	3.665507
38	0x3e9c3319	0.30507734
39	0x40861eee	4.1912756
40	0x40c52120	6.1602936
41	0x40d78ca3	6.7359176
42	0x40d29d43	6.581697
43	0x39204a00	0.00015286356
44	0x3d050f4d	0.032485295
45	0x3f2dac6d	0.67841226
46	0x3a7c52d0	0.0009625377
47	0x408d16a9	4.409016
48	0x3fbb1f6e	1.4618967
49	0x3a28cc1a	0.0006439105
50	0x4024f150	2.5772285
51	0xba38e7fe	-0.00070536125
52	0xba5efcfe	-0.00085063267
53	0x3c6ebd72	0.0145715345
54	0x40732fc6	3.7997909
55	0x3ffd0f8c	1.977037
56	0x40315e90	2.7713966
57	0x3a3f095a	0.0007287465
58	0x3f944c3d	1.1585766
59	0xbae50683	-0.0017473254
60	0x3f938336	1.1524417
61	0x3fe2bbe6	1.7713592
62	0x3fd18b46	1.6370628
63	0x3fd3387f	1.6501616

resnet_backbone/level_0/batch_normalization_35/FusedBatchNormV31 f4 [64]
0	0xbef45f06	-0.47728747
1	0xbf2e96cf	-0.68198866
2	0xbe8fede4	-0.28111184
3	0xb502dda3	-4.87513e-07
4	0xb24bd0d0	-1.1863634e-08
5	0xb229c81e	-9.882596e-09
6	0x3238f835	1.0766645e-08
7	0x323c7d17	1.0971482e-08
8	0xb86a1746	-5.5811623e-05
9	0xbf29a3d3	-0.662656
10	0xb1c3db45	-5.700175e-09
11	0xb7d94ddd	-2.5904674e-05
12	0xbedf5ab5	-0.4362389
13	0xb19c5468	-4.5497934e-09
14	0xb3eb8f95	-1.0969158e-07
15	0xb432f392	-1.6666152e-07
16	0xbf26562d	-0.64975244
17	0xbeb71a39	-0.35762194
18	0xbf2287af	-0.63488287
19	0xbf1a5e7e	-0.60300434
20	0xbf51bb82	-0.8192674
21	0xbf4ca80e	-0.7994393
22	0xb89353ad	-7.025092e-05
23	0xb203ce30	-7.672085e-09
24	0xbec2263e	-0.379198
25	0xb787d812	-1.619387e-05
26	0xbf0e00ef	-0.55470175
27	0xbeefd86e	-0.4684481
28	0xbf2b5061	-0.66919523
29	0xbf1f1b53	-0.6215107
30	0xbf0070a9	-0.50171906
31	0xbf7128ec	-0.94203067
32	0xb826e618	-3.9791776e-05
33	0xb7378a89	-1.0939905e-05
34	0xbe8d6db0	-0.27622747
35	0xbeb31d44	-0.34983265
36	0x31c5f3ba	5.761163e-09
37	0xb7f1d09e	-2.8826584e-05
38	0xb6170e79	-2.2509178e-06
39	0xbf86fe32	-1.0546324
40	0xb8664f91	-5.4910375e-05
41	0xbf098f71	-0.537345
42	0xbf168a2f	-0.588046
43	0xb0b76371	-1.3343265e-09
44	0xb4543c7d	-1.9766044e-07
45	0xb68bf39f	-4.170884e-06
46	0xb2230918	-9.489916e-09
47	0xbf7f638d	-0.9976128
48	0xbe8efa31	-0.27925256
49	0xb1479418	-2.9042493e-09
50	0xb7b55862	-2.1618038e-05
51	0x31bdeaba	5.5273093e-09
52	0x316bd6ea	3.4319165e-09
53	0xb41769f2	-1.4101514e-07
54	0xb800f510	-3.074581e-05
55	0xbe5232fd	-0.20527263
56	0xb7afa3fb	-2.0937985e-05
57	0xb198f22c	-4.451314e-09
58	0xbe33ce74	-0.17559224
59	0x322b4a5f	9.97042e-09
60	0xbecc0e70	-0.39854765
61	0xbe9cdf19	-0.3063896
62	0xbe88c116	-0.26709813
63	0xbe822b7e	-0.25423807

resnet_backbone/level_0/batch_normalization_34/FusedBatchNormV3 f4 [32]
0	0x3fa4c895	1.2873713
1	0x4043d821	3.0600665
2	0x4058f083	3.3896797
3	0x3fe56726	1.7922103
4	0x4002bddf	2.0428388
5	0x4003bdd3	2.058461
6	0x4153342b	13.200236
7	0x40e198eb	7.0499167
8	0x411a303e	9.636778
9	0x40117bde	2.2731853
10	0x40e60a89	7.188786
11	0x411e24f4	9.884022
12	0x3eb904c0	0.36136436
13	0x4106cff4	8.42577
14	0x3ffeffc3	1.9921802
15	0x40d7ac9f	6.739822
16	0x4095cbef	4.681144
17	0x402232e5	2.5343564
18	0x40ac8986	5.3917875
19	0x401c395d	2.4410012
20	0x40950013	4.656259
21	0x409acaf7	4.837276
22	0x40938e03	4.6110854
23	0x40338eb8	2.8055859
24	0x40c10d6d	6.032889
25	0x3f93f59d	1.155933
26	0x3f6e0ccd	0.9298828
27	0x4111cdbc	9.112728
28	0x4095876f	4.6727824
29	0x4085ee73	4.1853576
30	0x403fca93	2.9967391
31	0x408953d6	4.291484

resnet_backbone/level_0/batch_normalization_34/FusedBatchNormV31 f4 [32]
0	0xbf126bd6	-0.57195795
1	0xbe757c73	-0.23973255
2	0xbee3ebe1	-0.445159
3	0xbf126ed5	-0.57200366
4	0xbee28cc5	-0.44248024
5	0xbefb9303	-0.491356
6	0xbea533a8	-0.32265973
7	0xbebbb5f0	-0.36662245
8	0xbefa7feb	-0.4892572
9	0xbf1fef54	-0.6247456
10	0xbe9a0532	-0.3008209
11	0xbebad628	-0.36491513
12	0xbf3b8117	-0.7324385
13	0xbf1a6926	-0.60316694
14	0xbedf281b	-0.43585286
15	0xbf13f581	-0.57796484
16	0xbe80d0e8	-0.25159383
17	0xbe569296	-0.20954356
18	0xbee2dd2a	-0.4430936
19	0xbe6c7aa7	-0.23093663
20	0xbe9b3192	-0.30311257
21	0xbda55b18	-0.080740154
22	0xbdfbf602	-0.12302782
23	0xbee996cb	-0.45622858
24	0xbe81c9f8	-0.25349402
25	0xbeba9d75	-0.36448255
26	0xbe8efc25	-0.27926746
27	0xbe193c49	-0.14964403
28	0xbf006426	-0.50152814
29	0xbecd9a2a	-0.4015668
30	0xbe8369c5	-0.25666633
31	0xbe974f92	-0.29552895

resnet_backbone/level_0/batch_normalization_33/FusedBatchNormV3 f4 [64]
0	0x3ca0d818	0.019634292
1	0x39cccfba	0.0003906468
2	0x3fa886d7	1.316615
3	0xbac360c2	-0.0014906155
4	0x3f65d488	0.8977742
5	0x3a8ac5da	0.0010587529
6	0x3f3835d1	0.7195712
7	0x3be35934	0.006938124
8	0x3f858592	1.0431387
9	0x3ff269d7	1.893855
10	0x40802a35	4.005152
11	0x3eec8119	0.46192244
12	0x3a87161f	0.0010306275
13	0x3f667bfc	0.90032935
14	0x401b7aad	2.4293625
15	0x3d144cd5	0.036206085
16	0x402d87e7	2.7114198
17	0x410b5275	8.707631
18	0x4107b5be	8.481871
19	0x4019adb1	2.4012263
20	0x40af8a19	5.4856076
21	0x3f99feb3	1.2030853
22	0x3f82de89	1.0224162
23	0x403d0f26	2.9540496
24	0x40874955	4.2277017
25	0x3f1cda3d	0.61270505
26	0x40cc8105	6.3907495
27	0x3fe6cdf0	1.8031597
28	0x40add3d0	5.432106
29	0x4047cedb	3.1220005
30	0x40b4445e	5.6333456
31	0x40a2bf90	5.085884
32	0x40f3710b	7.607549
33	0x4126be47	10.421454
34	0x3fab1b05	1.3367621
35	0x40d32e00	6.599365
36	0x3fb28c4c	1.3949065
37	0x3aaa97f8	0.0013015261
38	0x402056d2	2.505299
39	0x40fd7cf9	7.9215055
40	0x40d74068	6.726612
41	0x4100d5ae	8.052168
42	0x410572f2	8.340563
43	0x41124b5e	9.1434
44	0x4125d34f	10.364089
45	0x3f7e993a	0.99452555
46	0x3f555181	0.8332749
47	0x412425d3	10.259234
48	0x400516e8	2.079523
49	0x409c73dc	4.889143
50	0x4034b9bd	2.8238366
51	0x3f3f7edf	0.74802965
52	0x39ad8d12	0.00033102237
53	0x3f1e5830	0.61853313
54	0x3b535cf2	0.0032251445
55	0x3b4c2b19	0.0031153618
56	0x3fa59f63	1.2939266
57	0x3fbc848b	1.4727949
58	0x3addbaca	0.0016916629
59	0x40ec6561	7.3873754
60	0xba12ed0e	-0.0005604782
61	0x3986cf94	0.0002571313
62	0x3a603004	0.0008552077
63	0x3f3c65a7	0.7359261

resnet_backbone/level_0/batch_normalization_33/FusedBatchNormV31 f4 [64]
0	0xb4541430	-1.9751383e-07
1	0xb1e49226	-6.6522885e-09
2	0xbf10d94d	-0.56581575
3	0x32d3f62e	2.4675582e-08
4	0xbf494277	-0.7861704
5	0xb1d276d6	-6.1253145e-09
6	0xbf237498	-0.6384978
7	0xb3870f4c	-6.28921e-08
8	0xbe43eeec	-0.1913411
9	0xb7e5c654	-2.7391281e-05
10	0xb8bb122e	-8.920241e-05
11	0xbe99377a	-0.29925138
12	0xb1e3ce7e	-6.630045e-09
13	0xbec50803	-0.38482675
14	0xb8301ec3	-4.199032e-05
15	0xb4e933d2	-4.3437336e-07
16	0xbe86ecee	-0.26352638
17	0xb95ec3f1	-0.00021244564
18	0xb94cfe46	-0.0001954968
19	0xb80ede0c	-3.4062235e-05
20	0xb8bb7374	-8.93836e-05
21	0xbeae874e	-0.34087604
22	0xbef2a5d8	-0.47392154
23	0xbf2d80ad	-0.6777447
24	0xbf5ca1ce	-0.86184394
25	0xbee8274b	-0.45342478
26	0xb8fd0038	-0.00012064021
27	0xbf33f6d0	-0.7029848
28	0xbef79111	-0.48352864
29	0xbf2a7f8f	-0.6660089
30	0xb8c98910	-9.609957e-05
31	0xb8b4515f	-8.5982254e-05
32	0xb93d6a92	-0.00018064145
33	0xba193dd3	-0.00058456993
34	0xbe46caee	-0.19413349
35	0xbe7b0fba	-0.24517718
36	0xbf22a94d	-0.6353958
37	0xb234e84b	-1.0530196e-08
38	0xb7c2903e	-2.319377e-05
39	0xb9473f46	-0.0001900169
40	0xb918761f	-0.00014539853
41	0xb9559103	-0.00020367284
42	0xb92e1858	-0.00016603002
43	0xb99b1d19	-0.00029585583
44	0xba34a194	-0.0006890532
45	0xb71070c9	-8.609329e-06
46	0xbe93376c	-0.2875322
47	0xba522847	-0.0008016866
48	0xb7c0fc5d	-2.30057e-05
49	0xb8ce23ef	-9.8295386e-05
50	0xb81795cf	-3.6140726e-05
51	0xbf3fc35a	-0.7490746
52	0xb175b944	-3.5757504e-09
53	0xbecbe44f	-0.39822623
54	0xb875ca9d	-5.860125e-05
55	0xb293836e	-1.717282e-08
56	0xb73da466	-1.1303555e-05
57	0xb754f0f3	-1.2692285e-05
58	0xb285d931	-1.5582005e-08
59	0xb98a3f4b	-0.00026368568
60	0x31c79a42	5.8091993e-09
61	0xb1383c64	-2.6809852e-09
62	0xb1c5b341	-5.7538334e-09
63	0xbde964cf	-0.11396181

resnet_backbone/level_0/batch_normalization_32/FusedBatchNormV3 f4 [32]
0	0x419385ec	18.440392
1	0x402f4c4f	2.7390325
2	0x4186551e	16.791561
3	0x405d002b	3.4531353
4	0x41069554	8.411457
5	0x40226a0e	2.537723
6	0x4034a19c	2.8223639
7	0x3f9b8527	1.215001
8	0x4039c4f6	2.9026465
9	0x403c6771	2.9438136
10	0x3fd0ed72	1.6322463
11	0x406337f2	3.5502896
12	0x40a9d8f7	5.307735
13	0x3f7e2fb2	0.9929153
14	0x408ef59a	4.4674807
15	0x41b95f92	23.171665
16	0x4133f374	11.246937
17	0x403f07f2	2.98486
18	0x4141e4af	12.118331
19	0x407f7dbe	3.9920497
20	0x41a18231	20.18857
21	0x414e71aa	12.90275
22	0x401906ee	2.391048
23	0x4026b979	2.6050704
24	0x4143014a	12.187815
25	0x41058c4d	8.346753
26	0x40de9005	6.9550805
27	0x4186ff40	16.874634
28	0x408823ae	4.2543554
29	0x4115b8b1	9.357591
30	0x402d0208	2.703249
31	0x413f5d71	11.960313

resnet_backbone/level_0/batch_normalization_32/FusedBatchNormV31 f4 [32]
0	0xba888aa8	-0.0010417299
1	0xbf3a7fa2	-0.72851
2	0xba67ef57	-0.0008847615
3	0xbe5c956d	-0.21541376
4	0xbf12e341	-0.5737801
5	0xbf00c970	-0.5030737
6	0xbf2160fd	-0.6303862
7	0xbf1b46c8	-0.6065488
8	0xbf1a87ba	-0.6036335
9	0xbf8f8f4c	-1.1215606
10	0xbf59a0d3	-0.85011023
11	0xbf0f3a2a	-0.55948126
12	0xbeb78ce8	-0.3584969
13	0xbf97894b	-1.1838773
14	0xbeda8271	-0.42677644
15	0xbaac6498	-0.0013152538
16	0xba1ff241	-0.00061014673
17	0xbf50aac0	-0.81510544
18	0xba178f97	-0.00057815894
19	0xb93f18cc	-0.00018224417
20	0xba7f213f	-0.0009732432
21	0xbf01a86d	-0.5064762
22	0xbfd6283e	-1.6731031
23	0xbf15513e	-0.5832709
24	0xba1a100a	-0.0005877024
25	0xbeb784ad	-0.3584341
26	0xbe926678	-0.28593802
27	0xba6a12a7	-0.0008929171
28	0xb959f4c7	-0.0002078592
29	0xbe92c62c	-0.28666818
30	0xbee48057	-0.44629166
31	0xba2fdd35	-0.00067086826

resnet_backbone/level_0/batch_normalization_31/FusedBatchNormV3 f4 [64]
0	0x3c128b77	0.008944384
1	0x4046621e	3.0997386
2	0x408faced	4.489859
3	0x3f41f810	0.7576914
4	0x4098c98a	4.774602
5	0x4100fc51	8.061601
6	0x3fa11adf	1.2586325
7	0x40dedcba	6.964444
8	0x3f97ea99	1.1868469
9	0x40934f50	4.6034317
10	0x3fc54835	1.5412661
11	0x40cdacbc	6.4273357
12	0x4105dad3	8.365924
13	0x3fe81c32	1.8133605
14	0x3fb4ea6c	1.413404
15	0x4104790f	8.279555
16	0x408e153b	4.4400916
17	0x40811fde	4.03514
18	0x3fe1a102	1.7627261
19	0x4116d4b3	9.4269285
20	0x4132cf4f	11.175612
21	0x40b90c9d	5.7827897
22	0x409de457	4.9341235
23	0x40b05f2b	5.511617
24	0x404105ee	3.015987
25	0x40b2a320	5.5824127
26	0x40d19e88	6.550602
27	0x4029ab82	2.651093
28	0x413ed62a	11.927286
29	0x40b40b85	5.626406
30	0x4142e3f9	12.180657
31	0x41102c4d	9.010816
32	0x3fbdbfbd	1.4824139
33	0x3f85d264	1.0454831
34	0x4199c860	19.22284
35	0x40db2444	6.848177
36	0x4090f26f	4.529594
37	0x401eca91	2.4811137
38	0x3ff64e9f	1.9242743
39	0x3dec8a66	0.11549835
40	0x3a964d26	0.0011467084
41	0x405f88e8	3.492731
42	0x40855b38	4.167385
43	0x40ab0812	5.344735
44	0x3eeb8be8	0.46005177
45	0x40103a22	2.2535481
46	0x40de4d44	6.946932
47	0xb9bd99eb	-0.00036163567
48	0x3fd69bd0	1.67663
49	0x3f9d826a	1.2305424
50	0x3913b302	0.00014085698
51	0x376b952b	1.4041822e-05
52	0xb8286549	-4.014865e-05
53	0x3a2de21d	0.000663312
54	0x3bb1e52c	0.0054289307
55	0x40082e69	2.1278327
56	0xbab08060	-0.0013465993
57	0x3b977a14	0.004622707
58	0xb8fd9687	-0.00012092018
59	0x3bb01cdf	0.0053745355
60	0x3f2aef2f	0.66771215
61	0xb77db92a	-1.5123087e-05
62	0x3a91c060	0.0011119954
63	0x388b776a	6.650279e-05

resnet_backbone/level_0/batch_normalization_31/FusedBatchNormV31 f4 [64]
0	0xb3789bbc	-5.788364e-08
1	0xb7faa1d7	-2.9877685e-05
2	0xb8310bc0	-4.221103e-05
3	0xb6dd1c37	-6.589598e-06
4	0xbf2da7cc	-0.6783416
5	0xb8b0a9f1	-8.423988e-05
6	0xb72ff851	-1.04886285e-05
7	0xb88ebf20	-6.8066875e-05
8	0xbe7a098b	-0.24417703
9	0xb82d6bff	-4.1346993e-05
10	0xbe692fd0	-0.22772145
11	0xbf2d8594	-0.6778195
12	0xb8bf0fa4	-9.110503e-05
13	0xbe592215	-0.21204408
14	0xbe34cedb	-0.17657034
15	0xbf5c6ad4	-0.86100507
16	0xbf1c5f89	-0.61083275
17	0xbf52fd52	-0.82417786
18	0xbee8105d	-0.45324984
19	0xb8bc93d0	-8.992071e-05
20	0xb8e3899b	-0.000108498345
21	0xbf98f76e	-1.195051
22	0xbf34e77c	-0.7066572
23	0xbf3062c1	-0.68900687
24	0xbf409677	-0.7522959
25	0xbf383926	-0.719622
26	0xbf37e87a	-0.71839106
27	0xbe6d2c05	-0.23161323
28	0xbf8433c4	-1.0328298
29	0xbf88722f	-1.0659846
30	0xb90c6e73	-0.00013392586
31	0xbf5217b9	-0.8206745
32	0xb7321131	-1.06136295e-05
33	0xbf354981	-0.70815283
34	0xbc143b8f	-0.009047403
35	0xb8ded431	-0.00010625309
36	0xb8360b9d	-4.3402997e-05
37	0xb7a0d51a	-1.917272e-05
38	0xb7626eec	-1.3496476e-05
39	0xb51de7c7	-5.882434e-07
40	0xb20b559e	-8.110332e-09
41	0xb80eb5c3	-3.4024717e-05
42	0xbec30321	-0.38088325
43	0xbf176306	-0.5913547
44	0xb637a75a	-2.7366536e-06
45	0xb78b227e	-1.6586153e-05
46	0xb8dab073	-0.00010427916
47	0x310fe510	2.0939446e-09
48	0xbe2d8bd5	-0.16947873
49	0xbefc4e03	-0.49278268
50	0xb0becfb8	-1.3883357e-09
51	0xae90c7d2	-6.583857e-11
52	0x2fb00d04	3.2023462e-10
53	0xb194ba35	-4.328536e-09
54	0xb2dc5852	-2.5651534e-08
55	0xb790edf1	-1.7276938e-05
56	0x3205aa6f	7.780371e-09
57	0xb2f52107	-2.8536773e-08
58	0x303b4a21	6.8135547e-10
59	0xb332fa88	-4.167171e-08
60	0xbf16465e	-0.5870112
61	0x2ee6714a	1.0479313e-10
62	0xb22fbea1	-1.0229685e-08
63	0xafc68211	-3.6108408e-10

resnet_backbone/level_0/batch_normalization_30/FusedBatchNormV3 f4 [32]
0	0x40ca303b	6.3183875
1	0x40b7bd1e	5.7418356
2	0x40e042d8	7.0081596
3	0x4099f429	4.8110547
4	0x40bedba1	5.96431
5	0x40d24b45	6.571688
6	0x40be665b	5.9499946
7	0x3ffc5322	1.971287
8	0x4007ce10	2.121952
9	0x40516055	3.2715046
10	0x40527ef2	3.2889981
11	0x40d46b76	6.638118
12	0x409fb31d	4.9906144
13	0x4026dca9	2.607218
14	0x40ccf0c0	6.4043884
15	0x40388402	2.883057
16	0x4080338b	4.006292
17	0x401e157b	2.470061
18	0x4023eaa7	2.561197
19	0x40f34ce5	7.6031365
20	0x400390cc	2.0557127
21	0x40cb7da5	6.3590875
22	0x407d0dc1	3.9539645
23	0x414eab94	12.916889
24	0x3f4b9dce	0.79537666
25	0x4168f22a	14.559122
26	0x3f254a03	0.6456606
27	0x4105990f	8.349868
28	0x412f3cb3	10.952319
29	0x4134af0d	11.292737
30	0x41110373	9.063342
31	0x41168c18	9.409203

resnet_backbone/level_0/batch_normalization_30/FusedBatchNormV31 f4 [32]
0	0xbf196bf8	-0.5993037
1	0xbebc0eb5	-0.3672997
2	0xbee7ea1c	-0.452958
3	0xbec3def3	-0.38256034
4	0xbeb6324c	-0.35585248
5	0xbec29e9d	-0.38011637
6	0xbea89253	-0.32924137
7	0xbeaabd06	-0.33347338
8	0xbeb3673c	-0.350397
9	0xbec1e022	-0.37866312
10	0xbef63836	-0.4808976
11	0xbee57ae2	-0.44820315
12	0xbed6bbe9	-0.4194024
13	0xbe5d5cda	-0.21617451
14	0xbef91b8f	-0.48653838
15	0xbe96e28b	-0.29469714
16	0xbe6d9962	-0.23203042
17	0xbe881bd3	-0.26583728
18	0xb9a71f95	-0.00031876253
19	0xbe4469c2	-0.19180968
20	0xbe879f16	-0.2648856
21	0xbea20e16	-0.31651372
22	0xbe95cf2f	-0.2925963
23	0xbaab89bb	-0.0013087312
24	0xbde69703	-0.11259272
25	0xbc36c9e5	-0.011156534
26	0xbf9d5e5d	-1.2294422
27	0xb9ea2209	-0.00044657316
28	0xba816124	-0.0009870869
29	0xba50cb07	-0.0007964824
30	0xbe1abf1a	-0.15111962
31	0xba098c6a	-0.00052470586

resnet_backbone/level_0/batch_normalization_3/FusedBatchNormV3 f4 [64]
0	0x3f3f5c52	0.74750245
1	0xb77bd203	-1.5009663e-05
2	0x3f0b4224	0.543978
3	0x3f4fc9d4	0.8116734
4	0x3ea18710	0.31548357
5	0xba3ae9ee	-0.0007130195
6	0x3ed538db	0.4164494
7	0x3f636f00	0.8884125
8	0xbaf0f14c	-0.0018382459
9	0x3f1ec0af	0.6201276
10	0x3e9abc54	0.30221808
11	0x3f319a3b	0.6937596
12	0x3f123703	0.5711519
13	0xb998c76f	-0.0002914029
14	0x3f182fe0	0.5944805
15	0x3f42cf0e	0.7609719
16	0x3fad348d	1.3531662
17	0x3fbf1741	1.4928972
18	0x402b5016	2.676763
19	0x4007f1ed	2.124141
20	0x3f34d0a6	0.7063087
21	0x3fabb578	1.3414755
22	0x3fcfe0dd	1.6240498
23	0x407e178b	3.970187
24	0x402f0a2b	2.7349956
25	0x4049d1fc	3.1534414
26	0x3fea7d11	1.8319417
27	0x3f86a469	1.0518924
28	0x40435dde	3.0526042
29	0x3f95316a	1.1655705
30	0x3fe88573	1.8165725
31	0x3f6e565b	0.9310052
32	0x416c0533	14.751269
33	0x402de0c2	2.7168431
34	0x3eef62c4	0.4675504
35	0x410578c5	8.341985
36	0x402e8f7b	2.7275074
37	0x412b49ab	10.705485
38	0x3bd687fa	0.0065469714
39	0x40bd5494	5.9165745
40	0x40d21808	6.5654335
41	0x3fc9f40b	1.5777601
42	0x41348c68	11.284279
43	0x3f8d86dc	1.1056781
44	0x405a2a52	3.408833
45	0x401ec73c	2.4809103
46	0x3e36ead2	0.17863014
47	0x4001df23	2.0292442
48	0x3a9140e6	0.0011081963
49	0xba8a52eb	-0.0010553276
50	0x3db90790	0.090346456
51	0x3f2eea30	0.6832609
52	0x40223865	2.534692
53	0x3a514e08	0.0007984345
54	0xb83ef736	-4.5529763e-05
55	0x400a38ae	2.1597095
56	0x3ebcc4c7	0.3686888
57	0x3f7b4516	0.9815229
58	0x3d479f57	0.048735943
59	0xbb1f765d	-0.0024332025
60	0xbb0c059f	-0.0021365655
61	0x3a293165	0.0006454199
62	0x3ec71f1b	0.3889092
63	0xbac0d765	-0.001471263

resnet_backbone/level_0/batch_normalization_3/FusedBatchNormV31 f4 [64]
0	0xbf028593	-0.5098507
1	0x35087d2c	5.0846097e-07
2	0xbeccf0a2	-0.40027338
3	0xbe86710e	-0.2625813
4	0xbf4367a3	-0.7633001
5	0x32025b03	7.58769e-09
6	0xbe4f5ccc	-0.20250243
7	0xbf3069b6	-0.689113
8	0x3293a9d9	1.719029e-08
9	0xbc14750d	-0.00906111
10	0xbe1ba622	-0.15200093
11	0xbf0b9ef6	-0.5453943
12	0xb70c68a3	-8.369013e-06
13	0x313aab8d	2.7164078e-09
14	0xbf054a86	-0.5206684
15	0xbe643ee2	-0.22289613
16	0xbedd2d78	-0.43198752
17	0xbec92b49	-0.39290836
18	0xbf0cacd7	-0.5495123
19	0xbf9f6d79	-1.2455283
20	0xbf579575	-0.8421243
21	0xbf73f86c	-0.95300937
22	0xbe4fba5d	-0.20285936
23	0xbf0bc4b7	-0.5459704
24	0xbf18fb9b	-0.5975892
25	0xb8306ecf	-4.206487e-05
26	0xbf13df21	-0.5776234
27	0xbf86f0b3	-1.0542206
28	0xbe95a5ef	-0.2922816
29	0xbf4315f2	-0.7620536
30	0xbf7345e2	-0.9502851
31	0xbf628245	-0.88480026
32	0xba180e33	-0.00058004557
33	0xbf416676	-0.7554697
34	0xbf2004eb	-0.62507504
35	0xb928933c	-0.00016076578
36	0xbe47f568	-0.19527209
37	0xb9672afb	-0.00022045888
38	0xb38dd9a3	-6.605412e-08
39	0xb8b81bc8	-8.7789784e-05
40	0xb8dc86a1	-0.00010515494
41	0xbf215fd1	-0.6303683
42	0xb9ae5a07	-0.00033254942
43	0xbf84f3fa	-1.0386956
44	0xb81a5487	-3.6795183e-05
45	0xb7de0ede	-2.6471385e-05
46	0xb6024ba7	-1.9415545e-06
47	0xbf0a78c2	-0.5409051
48	0xb2bf4dff	-2.2270795e-08
49	0x31fc7dfd	7.3484885e-09
50	0xb55d9fac	-8.256127e-07
51	0xbe9f1d62	-0.31077105
52	0xbdc8b485	-0.09800056
53	0xb1efb876	-6.9767863e-09
54	0x304527e0	7.172485e-10
55	0xbdf9e110	-0.122011304
56	0xbf5bb26d	-0.8581913
57	0xbed46bd3	-0.41488513
58	0xbae32c89	-0.0017331998
59	0x330a7bab	3.2243104e-08
60	0x32927fb3	1.7054708e-08
61	0xb10c42e3	-2.0410702e-09
62	0xbf564f0e	-0.8371438
63	0x322085a5	9.343613e-09

resnet_backbone/level_0/batch_normalization_29/FusedBatchNormV3 f4 [64]
0	0x3dae7da2	0.08520056
1	0xba52b009	-0.00080370955
2	0x3f343011	0.70385844
3	0x38ca9f1d	9.661748e-05
4	0xbafb052d	-0.0019151323
5	0x3a4cc4a7	0.0007811286
6	0xb8c10ed7	-9.205721e-05
7	0xb9d84560	-0.0004125042
8	0x40479f15	3.1190846
9	0x3fcf5c0c	1.6199965
10	0x3f19acb6	0.6002916
11	0x3f46cc81	0.776558
12	0x3f5d94bc	0.86555076
13	0x40578a1d	3.3678048
14	0x3ef6da1e	0.48213285
15	0x3e4df44f	0.20112728
16	0x41581a24	13.506382
17	0x39e3cc32	0.0004344895
18	0x3a19f2a5	0.00058726437
19	0x3ff96b82	1.9485934
20	0x40e888fb	7.2667212
21	0x3f8405ae	1.0314233
22	0x3b912382	0.0044292817
23	0x41148498	9.2823715
24	0x40090cac	2.1413984
25	0x3f78bbe0	0.97161674
26	0x401a3634	2.4095583
27	0x40d6010c	6.687628
28	0x40ee7c01	7.452637
29	0x3f95e08c	1.1709151
30	0x40e8f1e4	7.2795277
31	0x411d1fdd	9.820279
32	0x3f851e9f	1.039997
33	0x4016a003	2.3535163
34	0xb9426a74	-0.00018540939
35	0x3f8da848	1.106698
36	0x406a222f	3.6583364
37	0x3f66cabd	0.90153104
38	0x408aadb1	4.3337026
39	0x402f1d4f	2.7361639
40	0x3fd10eae	1.6332605
41	0x4096bfb1	4.7109
42	0x3b13b94a	0.002254086
43	0x3fe9ad78	1.8256063
44	0x3e3e7c1e	0.18602034
45	0x3f832dc4	1.0248342
46	0x40207df3	2.5076873
47	0x40b1777a	5.5458345
48	0x406bebe5	3.6862729
49	0x3f340992	0.70327103
50	0x3819167d	3.6498986e-05
51	0x3e867399	0.2626007
52	0x39a8c77c	0.00032192084
53	0x3f2fa143	0.6860544
54	0x3f67366b	0.9031741
55	0xb7fe2fbc	-3.0301388e-05
56	0x3f20da05	0.6283267
57	0x3f28b487	0.6590046
58	0x39d6a27c	0.0004093832
59	0x3f5eace7	0.8698258
60	0x3fa7b888	1.310319
61	0xba397251	-0.00070742244
62	0xba61799d	-0.00086011906
63	0x3e892805	0.26788345

resnet_backbone/level_0/batch_normalization_29/FusedBatchNormV31 f4 [64]
0	0xb52de017	-6.4773616e-07
1	0x31ee4ac7	6.935213e-09
2	0xbf3beeb7	-0.73411125
3	0xb71f6cc8	-9.502466e-06
4	0x3285b34d	1.5564774e-08
5	0xb24fa608	-1.2086737e-08
6	0x304ff76c	7.565777e-10
7	0x37238d55	9.7484635e-06
8	0xb82b1949	-4.0793126e-05
9	0xb78f7bd6	-1.7104594e-05
10	0xbf8b8d16	-1.0902431
11	0xbf0b6787	-0.54454845
12	0xb718e724	-9.113723e-06
13	0xb8443f1e	-4.6788824e-05
14	0xbeb95d91	-0.36204198
15	0xb60dd62c	-2.1135302e-06
16	0xb99190ca	-0.0002776443
17	0xb1e06ee4	-6.531865e-09
18	0xb8301e4e	-4.1989893e-05
19	0xbe5e7452	-0.2172406
20	0xbec5f00f	-0.38659713
21	0xbf02f1bf	-0.51150125
22	0xb2947ac5	-1.7285297e-08
23	0xb911c3c6	-0.00013901209
24	0xbf15c633	-0.58505553
25	0xbf5ea637	-0.86972374
26	0xbeef1d44	-0.46702015
27	0xb8a797de	-7.991468e-05
28	0xbeb8b402	-0.36074835
29	0xbef65615	-0.4811255
30	0xbf0254da	-0.50910723
31	0xb91f35cc	-0.00015183463
32	0xb75b1b1f	-1.3059732e-05
33	0xbd4579e0	-0.048211932
34	0x31659259	3.3407075e-09
35	0xbf506b8f	-0.8141412
36	0xbdbf8e32	-0.093532935
37	0xb740fa2c	-1.15023395e-05
38	0xb8cd53c7	-9.7907665e-05
39	0xbf380457	-0.7188162
40	0xbf5177d5	-0.81823474
41	0xb8e8dc73	-0.00011103684
42	0xb29da46e	-1.835198e-08
43	0xb7e0c8c4	-2.679637e-05
44	0xb5ef4534	-1.7827028e-06
45	0xbf37d393	-0.7180721
46	0xb8256667	-3.9434435e-05
47	0xb926eb3c	-0.00015918625
48	0xb907ede8	-0.0001296323
49	0xbed1885e	-0.40924352
50	0xaf935261	-2.6797678e-10
51	0xb6495902	-3.0003143e-06
52	0xb1b27eb2	-5.1948854e-09
53	0xbe2516c1	-0.16121961
54	0xbf02f95a	-0.5116173
55	0x2f8154e7	2.352529e-10
56	0xbf0775fe	-0.52914417
57	0xbe9a2afe	-0.30110925
58	0xb1a1db2f	-4.710635e-09
59	0xbf5cb813	-0.86218375
60	0xbf0ea473	-0.5571968
61	0x31924cd1	4.2578923e-09
62	0x32569590	1.2490446e-08
63	0xb654a379	-3.1685615e-06

resnet_backbone/level_0/batch_normalization_28/FusedBatchNormV3 f4 [32]
0	0x40148743	2.3207557
1	0x40139574	2.305997
2	0x3fe7d86c	1.8112922
3	0x3ffc3250	1.9702854
4	0x411a77a9	9.654214
5	0xba2f31db	-0.0006683149
6	0x4108cb2d	8.549603
7	0x411c1de2	9.757296
8	0x3fba11f1	1.4536725
9	0x3f3e5576	0.74349153
10	0x40977373	4.732843
11	0x41972fdf	18.898375
12	0x413e8ec6	11.909857
13	0x41211cbd	10.069516
14	0x414f03e0	12.938446
15	0x400e1987	2.220308
16	0x40e023cb	7.0043693
17	0x3f1007a3	0.5626165
18	0x4157a8ba	13.478693
19	0x4102a504	8.165287
20	0x4097a2d1	4.738625
21	0x3fc0fc9d	1.5077091
22	0x40b3ac89	5.6148114
23	0x40070dc9	2.1102164
24	0x3f5e78af	0.869029
25	0x3ebf27f5	0.37335172
26	0x3f0887e8	0.53332376
27	0x400f3251	2.237446
28	0x3f29e8a6	0.6637062
29	0x408155d0	4.041725
30	0x3ff00547	1.875161
31	0x40930053	4.5937896

resnet_backbone/level_0/batch_normalization_28/FusedBatchNormV31 f4 [32]
0	0xb8e330b5	-0.00010833276
1	0xbf87d25d	-1.0611073
2	0xbf4672e6	-0.7751907
3	0xbe919235	-0.2843186
4	0xbe7a8eb9	-0.24468507
5	0x32fa499c	2.9137304e-08
6	0xbeb633ee	-0.35586494
7	0xbe19dc22	-0.1502538
8	0xbf2a4522	-0.6651174
9	0xc0074583	-2.1136177
10	0xbec66838	-0.38751388
11	0xbe7acf27	-0.24493085
12	0xba27b656	-0.00063977146
13	0xba023764	-0.00049673603
14	0xba42e5e4	-0.0007434769
15	0xbf094c51	-0.53632075
16	0xb9b029f4	-0.00033600593
17	0xbf650dc4	-0.8947413
18	0xbe899b18	-0.2687614
19	0xb9ec91fe	-0.000451222
20	0xb971e544	-0.00023068959
21	0xbf39bcf9	-0.72553974
22	0xbeca9555	-0.39567056
23	0xbfbd0d15	-1.4769617
24	0xc0063e1f	-2.0975416
25	0xb79801d0	-1.8120656e-05
26	0xbfb04213	-1.3770164
27	0xbe40f1d1	-0.18842246
28	0xb7f331fd	-2.8991135e-05
29	0xba2915eb	-0.00064501044
30	0xbf13c389	-0.5772024
31	0xbeb01c05	-0.34396377

resnet_backbone/level_0/batch_normalization_27/FusedBatchNormV3 f4 [64]
0	0x40b15769	5.54192
1	0x3ca7f98b	0.020504734
2	0x3b8bc770	0.004265718
3	0x375b751e	1.3080686e-05
4	0x3ffdee6d	1.9838387
5	0xba027325	-0.00049762643
6	0x3b1ca4df	0.0023901982
7	0xb998992d	-0.00029105824
8	0x3a99d36a	0.001173598
9	0x3a58421f	0.0008249599
10	0xba6db137	-0.00090672396
11	0x3e743412	0.23847988
12	0xba6c9acf	-0.0009025754
13	0x3f5f1b77	0.87151283
14	0x3f9a1b15	1.2039515
15	0x40a56d51	5.1695943
16	0x3c193830	0.009351775
17	0x4117408c	9.4532585
18	0x409926a6	4.785968
19	0x401914a2	2.3918843
20	0x41441088	12.254036
21	0x40e34654	7.102335
22	0x410b1b09	8.6941
23	0x40862892	4.1924524
24	0x41400bf4	12.002918
25	0x40b852d1	5.7601094
26	0x40a46225	5.1369805
27	0x40820019	4.062512
28	0x4105a777	8.353385
29	0x41112b38	9.073051
30	0x410644ab	8.391765
31	0x41453996	12.326559
32	0x411a542e	9.645552
33	0x4084fd88	4.1559486
34	0x40a42a8d	5.130194
35	0x40f9a6b5	7.8016
36	0x400994c3	2.1497047
37	0x38e64192	0.00010979468
38	0x40a0674e	5.0126104
39	0x3c822033	0.015884494
40	0x40c80125	6.2501397
41	0x40f424d1	7.629494
42	0x412376fc	10.216549
43	0x41118bcb	9.096629
44	0x40434d35	3.0515873
45	0x3a136319	0.00056223717
46	0x41261ff7	10.382804
47	0x40909e90	4.519356
48	0x405adfac	3.4199018
49	0x3eaf5338	0.34243178
50	0x39141e83	0.00014125746
51	0x400bc1e7	2.1837099
52	0x40116ff5	2.2724583
53	0x40ea3759	7.3192563
54	0x40b7b401	5.740723
55	0x3f9ccf7c	1.2250819
56	0x409f3992	4.9757776
57	0x40f6f811	7.7177815
58	0x3f339bf0	0.70159817
59	0x40fa45e1	7.82103
60	0x40fb1f19	7.847546
61	0x3cfd5537	0.030924423
62	0x3cf47c76	0.029844504
63	0x40fc9729	7.893452

resnet_backbone/level_0/batch_normalization_27/FusedBatchNormV31 f4 [64]
0	0xb8ea75d9	-0.0001117994
1	0xb479ff11	-2.3282725e-07
2	0xb34dc2b4	-4.7907363e-08
3	0xae6d780e	-5.399419e-11
4	0xb7d19e53	-2.4988467e-05
5	0x31a89618	4.906507e-09
6	0xb2be0abc	-2.2123793e-08
7	0x3137cc8c	2.6746276e-09
8	0xb230cf02	-1.02916164e-08
9	0xb22cf00a	-1.0066296e-08
10	0x32330780	1.0420877e-08
11	0xb62b4f7d	-2.5527254e-06
12	0x3214ba7e	8.657137e-09
13	0xbf3aa009	-0.72900444
14	0xb767c3bb	-1.3814245e-05
15	0xbeff4e6b	-0.49864516
16	0xb3db3c37	-1.0208935e-07
17	0xbf723a5b	-0.94620293
18	0xbf2570b5	-0.646251
19	0xb7cc9f0c	-2.4392757e-05
20	0xb94d096f	-0.00019553838
21	0xbf45ff05	-0.77342254
22	0xb8fdf796	-0.000121100966
23	0xbf05b4df	-0.5222911
24	0xb93a2f28	-0.0001775591
25	0xbf4dbec9	-0.8036924
26	0xbf87a16e	-1.059614
27	0xbf50938a	-0.81475127
28	0xbf69a805	-0.91272
29	0xbf5d1eaf	-0.86374944
30	0xbf63e1af	-0.8901624
31	0xb94de83a	-0.00019636835
32	0xb8a8fe8d	-8.058278e-05
33	0xb7ef71e4	-2.8544055e-05
34	0xbedc92da	-0.4308079
35	0xb8747656	-5.8284342e-05
36	0xb7645bff	-1.36112785e-05
37	0xb0202c99	-5.827104e-10
38	0xbee7d4bd	-0.45279494
39	0xb3b7257a	-8.5284185e-08
40	0xb83a19ae	-4.436977e-05
41	0xbf393743	-0.7234995
42	0xb8b6205a	-8.684462e-05
43	0xb88f88f6	-6.844282e-05
44	0xb7a8efac	-2.0138767e-05
45	0xb124b6ff	-2.3969162e-09
46	0xb8b06c3b	-8.4124935e-05
47	0xbf02d094	-0.51099515
48	0xb7ceb8ce	-2.464317e-05
49	0xb603a3f9	-1.9615966e-06
50	0xb085c169	-9.731994e-10
51	0xbe927d99	-0.28611448
52	0xbe5cdca8	-0.21568549
53	0xb8983f72	-7.2597424e-05
54	0xb850164a	-4.9611823e-05
55	0xb706d839	-8.037366e-06
56	0xb8303175	-4.200773e-05
57	0xb8a6c693	-7.952484e-05
58	0xb690a1c2	-4.3103655e-06
59	0xb8a77f39	-7.9868776e-05
60	0xb8a24ede	-7.739452e-05
61	0xb4290604	-1.574154e-07
62	0xb452923f	-1.9610978e-07
63	0xb89f1106	-7.584882e-05

resnet_backbone/level_0/batch_normalization_26/FusedBatchNormV3 f4 [32]
0	0x40fe6b52	7.9506006
1	0x40939b9c	4.6127453
2	0x40ac3227	5.381122
3	0x40e38ae2	7.1107035
4	0x4172321d	15.137235
5	0x4008976d	2.1342423
6	0x4122d65d	10.177335
7	0x419e7f80	19.812256
8	0x4121da69	10.115823
9	0x40d23da2	6.5700235
10	0x40894bb6	4.290492
11	0x40b248ea	5.5714006
12	0x4162fabb	14.1862135
13	0x40f03812	7.5068445
14	0x4111b64a	9.107004
15	0x40c9fdc3	6.312227
16	0x4006552b	2.0989482
17	0x40f97fbc	7.7968426
18	0x401e52e8	2.4738102
19	0x412041e0	10.016083
20	0x400cd343	2.2003944
21	0x418994a8	17.197586
22	0x41972389	18.892351
23	0x414e6953	12.900714
24	0x40d0abe6	6.5209837
25	0x41dedd77	27.858137
26	0x40c2b169	6.0841565
27	0x41de2f68	27.773148
28	0x418a191d	17.262262
29	0x418caed9	17.585375
30	0x419c4737	19.534773
31	0x41b4b1bd	22.586786

resnet_backbone/level_0/batch_normalization_26/FusedBatchNormV31 f4 [32]
0	0xbf00f444	-0.5037272
1	0xbeef5fd2	-0.46752793
2	0xbef8dcaa	-0.48605853
3	0xbf35d1bb	-0.7102315
4	0xbf89f394	-1.0777459
5	0xbf8e7ced	-1.1131874
6	0xbeb791ce	-0.35853428
7	0xba873e4b	-0.0010318247
8	0xbf02d9c0	-0.5111351
9	0xbece7693	-0.4032484
10	0xbed90a19	-0.42390516
11	0xbeedcd9e	-0.46445936
12	0xba573c14	-0.00082105515
13	0xbee7ce5b	-0.45274624
14	0xbf4dee66	-0.8044189
15	0xbf1b21de	-0.6059855
16	0xbea59338	-0.32338881
17	0xbe4902ba	-0.19629946
18	0xbf3f3caa	-0.7470194
19	0xba067cfd	-0.0005130319
20	0xbf2b4bed	-0.6691273
21	0xba60a22f	-0.0008569089
22	0xba928243	-0.0011177737
23	0xba279722	-0.0006393065
24	0xbf318e64	-0.69357896
25	0xbacbd816	-0.001555207
26	0xbf42801e	-0.7597674
27	0xbacdeda6	-0.0015711084
28	0xba5dc810	-0.00084602926
29	0xba5fdfcf	-0.0008540125
30	0xba832bad	-0.0010007523
31	0xba9c93d6	-0.0011945914

resnet_backbone/level_0/batch_normalization_25/FusedBatchNormV3 f4 [64]
0	0x3f0bda81	0.54630286
1	0x3f11f91e	0.5702075
2	0x409b4760	4.852463
3	0x3f27592b	0.65370435
4	0x40a2802d	5.0781465
5	0x3efa781b	0.48919758
6	0x4062c0a9	3.543009
7	0x3ff2edc8	1.8978815
8	0x408856e5	4.2606072
9	0x40a1ad83	5.0524306
10	0x40f55ca8	7.6675606
11	0x3f99fe07	1.2030648
12	0x3f8729d6	1.0559642
13	0x3f8d0e92	1.1020072
14	0x40969ca8	4.706623
15	0x3f90d760	1.1315727
16	0x40aa00fd	5.3126206
17	0x4095b678	4.678524
18	0x4080bb03	4.0228286
19	0x409e1099	4.939526
20	0x3fb974a8	1.4488726
21	0x410a7dea	8.655741
22	0x41609472	14.036242
23	0x40fbc0af	7.867271
24	0x40eedaef	7.4642253
25	0x40145c5f	2.318138
26	0x4105c023	8.359408
27	0x408e32dd	4.443709
28	0x408a131f	4.314834
29	0x404929b8	3.1431713
30	0x403420c2	2.8144994
31	0x40230794	2.5473375
32	0x39c47c05	0.00037476435
33	0x40a3e858	5.1221123
34	0x40e2d215	7.088145
35	0x41043ab1	8.264329
36	0x405795c0	3.368515
37	0x40e26af3	7.0755553
38	0x3f07d9a0	0.53066444
39	0x40d66605	6.6999536
40	0x40dcf3b4	6.904749
41	0x40b94b12	5.790414
42	0x3f9b1823	1.2116741
43	0x3b28b06b	0.002573992
44	0x40d18d9a	6.5485353
45	0x40d1a6a0	6.55159
46	0x40b5905a	5.673871
47	0x403930a1	2.893593
48	0x3f8553c7	1.0416192
49	0x3f0e5544	0.55598855
50	0x4031598c	2.7710905
51	0x40914368	4.5394783
52	0x3f9d67f5	1.229735
53	0x4075cf79	3.8407881
54	0x401404d1	2.312794
55	0x3e245ce1	0.16051055
56	0x3fe283b3	1.7696441
57	0x3d3e69ec	0.046487734
58	0x3cefacc3	0.029257184
59	0x3f741bf5	0.9535516
60	0x404fc8b2	3.2466245
61	0x3f4f1bf2	0.80902016
62	0x3b08eb85	0.0020892334
63	0x3f45b617	0.7723097

resnet_backbone/level_0/batch_normalization_25/FusedBatchNormV31 f4 [64]
0	0xbeda34af	-0.4261832
1	0xb6cde14a	-6.135703e-06
2	0xbeed06f6	-0.46294373
3	0xbe9e6f12	-0.30944115
4	0xb8aef5fa	-8.342783e-05
5	0xb6b8c575	-5.5066143e-06
6	0xb842024a	-4.6255336e-05
7	0xb7beebfc	-2.2759654e-05
8	0xbf10085d	-0.5626276
9	0xbef7b67c	-0.48381412
10	0xb93cc4a1	-0.00018002327
11	0xbec96e95	-0.3934218
12	0xbf020bbc	-0.50799155
13	0xbe05eb7d	-0.13078113
14	0xb88c589c	-6.692225e-05
15	0xbee47520	-0.4462061
16	0xbf2f9867	-0.6859192
17	0xbf5c0e09	-0.85958916
18	0xbf5aaa0f	-0.8541574
19	0xbf25da0f	-0.64785856
20	0xbf2eaddf	-0.68234056
21	0xb8c58cb0	-9.419897e-05
22	0xb9483e25	-0.00019096637
23	0xbf72bbed	-0.94818
24	0xbf51a142	-0.81886685
25	0xbf797609	-0.9744573
26	0xbf678855	-0.904424
27	0xbf6d1d85	-0.9262317
28	0xbf75717d	-0.95876294
29	0xbfaa2674	-1.3292985
30	0xbf94717c	-1.1597133
31	0xbf2b915d	-0.6701868
32	0xb19a92dd	-4.4986863e-09
33	0xb908b7f2	-0.00013038496
34	0xb9855ddd	-0.0002543767
35	0xb9dcd93b	-0.0004212352
36	0xb85cc6df	-5.26373e-05
37	0xb9638707	-0.00021698709
38	0xb697f5a1	-4.5287456e-06
39	0xb96b75f5	-0.00022455289
40	0xb9567fdc	-0.00020456262
41	0xbde4f3f9	-0.111793466
42	0xbf4adfdc	-0.7924783
43	0xb2554561	-1.2414007e-08
44	0xb93334b4	-0.00017090404
45	0xb94bc3bf	-0.0001943251
46	0xb91ad3cc	-0.00014765485
47	0xbeaf9591	-0.34293798
48	0xb746941a	-1.1836202e-05
49	0xb6c53751	-5.877497e-06
50	0xb86b1ddf	-5.6056186e-05
51	0xb92ba931	-0.0001637086
52	0xb7846386	-1.578197e-05
53	0xb8deef9a	-0.00010630414
54	0xb8252b28	-3.9379258e-05
55	0xb5d2600d	-1.5674174e-06
56	0xb7bad5d4	-2.22725e-05
57	0xb4f4adb5	-4.557493e-07
58	0xb44d2f8f	-1.9109414e-07
59	0xbf1dee46	-0.616917
60	0xb8a14fea	-7.6919634e-05
61	0xbf3c0b37	-0.7345461
62	0xb2c2acbe	-2.2663126e-08
63	0xb70c1af9	-8.35093e-06

resnet_backbone/level_0/batch_normalization_24/FusedBatchNormV3 f4 [32]
0	0x4088cdb1	4.275109
1	0x40332340	2.7990265
2	0x4064ed82	3.5769963
3	0x40c4898d	6.141791
4	0x400d1f79	2.205046
5	0x4067dd11	3.6228678
6	0x3fac0264	1.343823
7	0x40109ab2	2.2594419
8	0x4095210e	4.660285
9	0x40868de1	4.204819
10	0x403e2dd0	2.9715462
11	0x4017f574	2.3743563
12	0x408acaed	4.337271
13	0x3ff74835	1.9318911
14	0x3fe6ec09	1.8040782
15	0x3fe2afb9	1.7709876
16	0x4161962e	14.099165
17	0x41861142	16.758427
18	0x418e7111	17.805208
19	0x40a7b499	5.2407956
20	0x3f858169	1.0430118
21	0x3f119e01	0.5688172
22	0x41a9e68d	21.237574
23	0x40063190	2.096775
24	0x414e4903	12.892825
25	0x402f1b39	2.7360365
26	0x418e3e05	17.780283
27	0x418d72aa	17.680988
28	0x418ddd43	17.733038
29	0x41121526	9.130163
30	0x4187905e	16.945492
31	0x4016f08e	2.3584323

resnet_backbone/level_0/batch_normalization_24/FusedBatchNormV31 f4 [32]
0	0xbeff4213	-0.49855098
1	0xbf03dbe5	-0.5150741
2	0xbf021100	-0.5080719
3	0xbe52b1bc	-0.20575613
4	0xbee644eb	-0.44974455
5	0xbf2d4f67	-0.67699283
6	0xbf39540d	-0.72393876
7	0xbed7ef5f	-0.42174813
8	0xbec621d0	-0.38697672
9	0xbef0173e	-0.46892732
10	0xbecfb865	-0.4057037
11	0xbee69d24	-0.45041764
12	0xbf0487d0	-0.51769733
13	0xbf028807	-0.5098881
14	0xbedae4d1	-0.42752698
15	0xbef04029	-0.4692395
16	0xbaef4725	-0.0018255456
17	0xbc13bf4a	-0.009017775
18	0xbc845bd9	-0.016157078
19	0xbefe770b	-0.49700198
20	0xc0456b47	-3.0846727
21	0xbdba3c56	-0.090935394
22	0xbc8abd69	-0.01693602
23	0xbf21bcf5	-0.6317895
24	0xbab79421	-0.0014005938
25	0xbf0168a6	-0.50550306
26	0xbbfe271b	-0.0077561266
27	0xbbb38e95	-0.0054796436
28	0xbc117d12	-0.008879917
29	0xba0a3c56	-0.0005273273
30	0xbb5cb59d	-0.0033677586
31	0xbf06df8f	-0.52684873

resnet_backbone/level_0/batch_normalization_23/FusedBatchNormV3 f4 [64]
0	0x40158a1a	2.336554
1	0x404135ed	3.0189164
2	0x3ef87428	0.4852612
3	0x3a51359c	0.00079807057
4	0x40438a03	3.0552986
5	0x41098aca	8.596384
6	0x3fb17cb8	1.3866186
7	0x41466c98	12.401512
8	0x40cac101	6.33606
9	0x40b9cc7b	5.806211
10	0x40874a64	4.227831
11	0x4131b9ed	11.107892
12	0x3ef6bef8	0.48192573
13	0x41024f47	8.144355
14	0x40ad636d	5.418387
15	0x3bc5bb26	0.0060342727
16	0x4131533b	11.08282
17	0x4106d6fa	8.4274845
18	0x3f8ec3e6	1.1153533
19	0x410c5dc6	8.772894
20	0x411c7f0e	9.781019
21	0x416a8060	14.656342
22	0x40f6fc61	7.718308
23	0x40eea80b	7.458013
24	0x40fc7b8e	7.8900824
25	0x40dec5c6	6.9616423
26	0x40584354	3.3791094
27	0x411d7410	9.840836
28	0x40d43832	6.63186
29	0x40e225bb	7.067106
30	0x408f8b0b	4.485723
31	0x41281c81	10.506959
32	0x408533b1	4.16256
33	0xba397ea2	-0.00070760597
34	0x408ae417	4.340343
35	0x3fbb8d72	1.4652541
36	0x3f111b57	0.5668234
37	0x40621cb6	3.5330024
38	0x38b58168	8.654856e-05
39	0x3f7619a5	0.9613288
40	0x40d887e1	6.766587
41	0xba90fbb6	-0.0011061344
42	0x4063d83f	3.5600736
43	0x40c33c3b	6.1011024
44	0x40901e53	4.5037017
45	0xbb0e3fda	-0.002170554
46	0x404341c7	3.0508897
47	0x4036a91b	2.8540714
48	0x3aa4e0a9	0.0012579161
49	0x3b11ef19	0.0022267757
50	0xbb2a8fe7	-0.0026025714
51	0x3f4d2981	0.80141455
52	0x4030b0c7	2.7607896
53	0x4023853e	2.5550075
54	0xbab1b1cb	-0.0013557015
55	0x3b025b0c	0.0019890694
56	0x3a288bf5	0.00064295466
57	0x3f29cbf5	0.6632684
58	0x3f8efaa3	1.1170238
59	0x400d7cda	2.2107453
60	0x3f876801	1.0578614
61	0xb9b373aa	-0.00034227717
62	0xba2219ee	-0.00061836734
63	0x3f72bcb9	0.9481922
