bfcnn/pretrained/resnet_color_1x18_bn_32x32_1x3x1_256x256_erf_relu/superres_model.tflite (tflite, 478168 bytes, 197 tensors)

superres_head/resnet_backbone/level_0/batch_normalization_71/FusedBatchNormV3 f4 [64]
00000000: 3916 c141 8971 5e41 202c ad41 a6eb be41
00000010: 515e c041 1366 e941 b198 b841 3ad6 d041
00000020: 4866 c041 24cc a941 8ac2 b541 ce1d 8e40
00000030: 4827 9241 1bd4 9b41 2c4b bb41 c921 0642
00000040: 90f5 c341 a803 db41 f1a3 d241 8843 c041
00000050: 8241 bb41 1a5f c841 8bf2 c041 d350 c041
00000060: f72b c341 eb07 d641 27c8 ed41 37e8 d441
00000070: aa19 a041 c164 d641 71d0 c341 cfe4 bb41
00000080: 247a ca41 a30b df41 ae45 af41 7f98 ca41
00000090: cf9c f141 82dc dd41 b659 ea41 72ad cf41
000000a0: ef89 b441 3474 f241 e1de e041 5c67 cc41
000000b0: 4cbb c741 92c6 c541 55b3 b441 7f18 c041
000000c0: 00a3 c941 ab8d d341 06a1 d241 c4f2 d241
000000d0: 2c55 0642 4e1c c441 b6fa df41 32ad cf41
000000e0: f845 d441 5996 d941 f1c9 e641 03ac c741
000000f0: 9a74 d241 f7b5 d241 f676 0342 af9a e141
24.13585 13.902719 21.646545 23.865063 24.046053 29.17484 23.074556 26.104603
24.049942 21.224678 22.71999 4.4411383 18.26918 19.478567 23.411705 33.532993
24.494904 27.376785 26.33005 24.032974 23.406986 25.046436 24.11843 24.039465
24.396467 26.753866 29.72273 26.613386 20.012531 26.799196 24.476778 23.486723
25.309639 27.880682 21.909023 25.324461 30.201567 27.73267 29.293804 25.95969
22.56735 30.30674 28.108828 25.550468 24.966454 24.721958 22.587564 24.011961
25.20459 26.444174 26.328625 26.368538 33.583176 24.51382 27.997417 25.959568
26.534164 27.198412 28.848604 24.95899 26.306934 26.33885 32.866173 28.20053

superres_head/resnet_backbone/level_0/batch_normalization_71/FusedBatchNormV31 f4 [64]
00000000: 7ceb 2dba c4f2 acb9 4afe 0cba e653 3aba
00000010: 6c73 2eba 7646 7fba d6aa 2bba 87c5 4fba
00000020: 1126 33ba 51b7 1eba 9ab1 13ba dd91 9ebf
00000030: 565b eab9 652b f5b9 f918 21ba f0d7 92ba
00000040: 2808 28ba 3b7e 3cba df06 27ba 90a0 12ba
00000050: 4968 20ba cfef 1eba 8811 1eba c7fe 07ba
00000060: 4cb4 ffb9 d0dc 20ba 4889 44ba 6320 27ba
00000070: 38d6 e8b9 ce83 26ba 2a55 1bba 0b60 0bba
00000080: 5eb4 0db7 4b4a 03b7 181e edb6 d0c4 08b7
00000090: 0d7f 26b7 84f9 06b7 c454 15b7 5629 e8b6
000000a0: c4c0 e4b6 f149 0bb7 9441 08b7 95ee 11b7
000000b0: f64d 02b7 f4d4 06b7 478e d4b6 ca3a 0cb7
000000c0: df39 cfb6 da51 02b7 8e27 f7b6 a755 0fb7
000000d0: cc33 44b7 8f28 b3b6 c80d 13b7 5939 11b7
000000e0: ebb0 f3b6 2330 0cb7 f941 05b7 d926 fcb6
000000f0: 8a66 27b7 60ec 02b7 2524 32b7 8a4d 09b7
-0.0006634516 -0.0003298727 -0.0005378468 -0.0007107839 -0.00066547724 -0.00097379775 -0.0006548589 -0.0007925857
-0.00068339804 -0.0006054538 -0.00056340697 -1.2388264 -0.0004470001 -0.00046762373 -0.0006145384 -0.001120327
-0.0006409907 -0.00071904407 -0.00063715683 -0.00055933837 -0.00061190553 -0.0006062956 -0.0006029834 -0.0005187806
-0.00048771722 -0.0006136419 -0.0007497263 -0.00063753704 -0.00044410094 -0.0006352038 -0.0005925471 -0.0005316741
-8.44625e-06 -7.825506e-06 -7.066654e-06 -8.152056e-06 -9.923952e-06 -8.045117e-06 -8.900828e-06 -6.918951e-06
-6.8173704e-06 -8.302261e-06 -8.1215e-06 -8.698223e-06 -7.7667555e-06 -8.036604e-06 -6.3346556e-06 -8.358338e-06
-6.175818e-06 -7.767661e-06 -7.3657784e-06 -8.543407e-06 -1.169457e-05 -5.3393373e-06 -8.7650915e-06 -8.656026e-06
-7.2625603e-06 -8.355858e-06 -7.942778e-06 -7.5147077e-06 -9.97785e-06 -7.803639e-06 -1.0618042e-05 -8.18389e-06

superres_head/resnet_backbone/level_0/batch_normalization_70/FusedBatchNormV3 f4 [32]
00000000: 10dd 0f41 a74c 053f b475 1041 44e0 c140
00000010: afd8 c440 b97b 1041 bccd 0141 0b9e 5941
00000020: 757a 2641 d392 0a41 db3e c240 374a bd40
00000030: 3b46 ce40 98eb cc40 cf86 cf40 4ab6 0b3f
00000040: 6f02 d741 0f8f e841 0e24 cd41 2296 d241
00000050: 0a40 dc41 45e5 e641 c699 2b42 6b77 f241
00000060: 7f33 0142 60a1 d241 c9b1 1f42 0c95 e841
00000070: 5e02 0642 2135 bd41 1248 be41 7c11 e541
8.99147 0.5207009 9.028736 6.058626 6.1514506 9.030206 8.112728 13.601085
10.404897 8.660846 6.070173 5.9153094 6.446073 6.403759 6.485206 0.54575026
26.876188 29.069853 25.642605 26.323307 27.53127 28.861948 42.90017 30.30831
32.30029 26.328796 39.92362 29.072777 33.50231 23.650942 23.78519 28.633537

superres_head/resnet_backbone/level_0/batch_normalization_70/FusedBatchNormV31 f4 [32]
00000000: c7ff 37bf 2945 b6bf d61d b0be f92a 07bf
00000010: 1f31 f8be 791e 90be afba 6ebf cfd8 59be
00000020: 2c86 c7be 7b0f 94be 5d7d 01bf 7764 eabe
00000030: b117 ecbe eabe 0dbf d8c5 27bf ab58 e9bf
00000040: 257f 4bbc 3070 52bc b14e fcbb 5f99 07bc
00000050: c911 07bc a66e 28bc 8cdb 47bc a5d2 22bc
00000060: 7298 65bc 8b24 09bc 506e 05bc e03d cebb
00000070: dcd5 12bc 210b 9ebb e1de 0abc e301 16bc
-0.7187466 -1.4239856 -0.34397763 -0.52799946 -0.48474976 -0.2814825 -0.93253607 -0.21274112
-0.38969553 -0.2891806 -0.50581914 -0.45779774 -0.46111825 -0.55369437 -0.6553626 -1.8230184
-0.01242045 -0.01284413 -0.0076998104 -0.008276313 -0.008243986 -0.010280287 -0.01219834 -0.009937917
-0.014013397 -0.008370529 -0.008143976 -0.006293997 -0.008962121 -0.004823104 -0.00847599 -0.009155723

superres_head/resnet_backbone/level_0/batch_normalization_69/FusedBatchNormV3 f4 [64]
00000000: 7e80 cf41 34ea d541 5d45 d141 72f0 9e41
00000010: 70d0 a841 1b74 ab41 650b de41 4ceb 9741
00000020: b97f 3440 1581 b141 9a62 a441 8784 ac41
00000030: 4474 bf41 a06c c341 2e23 a541 9acd b841
00000040: 050f d741 64b5 d341 36b9 ca41 cdc0 ca41
00000050: 80bc c441 302d db41 7592 c741 7ae7 b541
00000060: 8837 cf41 adac dc41 f6b0 bb41 fe3f ca41
00000070: 80b9 bf41 d806 b841 a4a2 db41 3d5e d841
00000080: 5dae e441 91f2 b641 7728 f641 1f45 ae41
00000090: d0d0 b241 a807 bd41 58b0 c241 dc6e d941
000000a0: bf13 bc41 ef7e d241 3c22 ee41 2ad4 c041
000000b0: 2e25 df41 b703 d741 328e cf41 77eb bd41
000000c0: 1e9b a841 f5e7 d441 c1d4 df41 3120 c341
000000d0: 3b0b d541 4415 c441 39b0 d941 650c ac41
000000e0: 35bd ca41 2474 b141 a39d c241 f5d1 b541
000000f0: 9ee1 c041 08a9 ca41 6162 d241 9aa8 d541
25.93774 26.739357 26.158869 19.867405 21.101776 21.431692 27.755564 18.989891
2.8202956 22.188028 20.548145 21.56471 23.93177 24.42804 20.642178 23.100391
26.882334 26.46357 25.340435 25.344141 24.592041 27.397064 24.946512 22.738026
25.902115 27.584314 23.461407 25.281246 23.965576 23.003342 27.454414 27.046015
28.585138 22.86844 30.769758 21.78375 22.35196 23.628738 24.336105 27.17913
23.509642 26.31198 29.766716 24.103596 27.893154 26.876814 25.944431 23.739973
21.07574 26.61326 27.978884 24.390718 26.630484 24.510384 27.211046 21.506052
25.342386 22.18171 24.326971 22.727518 24.110165 25.332535 26.298037 26.707325

superres_head/resnet_backbone/level_0/batch_normalization_69/FusedBatchNormV31 f4 [64]
00000000: 6076 aab9 398a beb9 061e b0b9 91b9 60b9
00000010: ba1c 8ab9 8c0d 8db9 b7da d9b9 a0ba 5ab9
00000020: 88a6 babe 36fb 8eb9 39be 58b9 9a06 79b9
00000030: 8d63 99b9 1784 b7b9 589c 70b9 1f60 9bb9
00000040: 14a2 8bb9 4c12 96b9 e907 84b9 0eb1 8ab9
00000050: c3e1 8eb9 b72e 9ab9 e75c 7db9 398e 65b9
00000060: 988c 85b9 c574 97b9 8809 7cb9 23b9 7eb9
00000070: 87d4 81b9 1e3f 67b9 8739 9bb9 e7a5 95b9
00000080: dd4b 26b7 6df5 03b7 8f37 19b7 69fe eab6
00000090: faf8 e6b6 c0bf ffb6 b7f4 f0b6 daed 02b7
000000a0: 6fb8 edb6 4fd2 24b7 0bd1 38b7 e1a6 09b7
000000b0: 519f 15b7 25ee e7b6 4083 f7b6 94f6 cdb6
000000c0: 49ad 06b7 a91b edb6 1175 09b7 ebd9 cbb6
000000d0: 859c 1fb7 4cb4 c7b6 c279 23b7 09b0 07b7
000000e0: 3cda 06b7 a22d b7b6 12d3 04b7 da8f feb6
000000f0: 76f1 fbb6 9e86 1cb7 4e6e 2bb7 13d0 ebb6
-0.00032513123 -0.00036342608 -0.00033591705 -0.00021431434 -0.00026342814 -0.0002690371 -0.0004155242 -0.00020859623
-0.36455178 -0.00027271517 -0.00020670229 -0.0002374895 -0.00029256605 -0.00035002895 -0.00022946426 -0.0002963552
-0.00026632904 -0.00028623862 -0.00025182895 -0.00026453327 -0.00027252556 -0.00029407974 -0.00024162569 -0.00021892124
-0.00025472487 -0.00028887964 -0.00024036143 -0.00024292296 -0.00024763143 -0.0002205339 -0.00029606765 -0.00028543102
-9.912034e-06 -7.865351e-06 -9.132446e-06 -7.0033607e-06 -6.883519e-06 -7.621915e-06 -7.181046e-06 -7.803983e-06
-7.0846213e-06 -9.824128e-06 -1.1015926e-05 -8.204691e-06 -8.918186e-06 -6.91206e-06 -7.376453e-06 -6.1381816e-06
-8.0273685e-06 -7.0663705e-06 -8.193093e-06 -6.0752404e-06 -9.513581e-06 -5.9516515e-06 -9.743906e-06 -8.087613e-06
-8.037834e-06 -5.4591374e-06 -7.916957e-06 -7.5865364e-06 -7.5084927e-06 -9.329668e-06 -1.0218077e-05 -7.027769e-06

superres_head/resnet_backbone/level_0/batch_normalization_68/FusedBatchNormV3 f4 [32]
00000000: b697 f241 182f cc41 592e e741 a2cf e841
00000010: c5f3 ce41 dc06 d841 d40c d441 3f2e c841
00000020: c410 d241 e5ba d341 dedf d641 d761 d641
00000030: f864 583f 1e5c 0240 cbdd 3841 31c1 df41
00000040: 5e2c 5b42 8bba f541 a1c1 1742 313e ee41
00000050: 9a97 cc41 30c9 df41 2188 d241 8386 de41
00000060: 9cff cd41 48af e941 4997 9f41 4998 d441
00000070: c198 f241 26f8 de41 c015 cd41 2b6e 0a42
30.324078 25.522995 28.89763 29.101383 25.869028 27.00335 26.506264 25.022581
26.258186 26.466257 26.85931 26.797773 0.84529066 2.0368724 11.554149 27.969332
54.793327 30.716085 37.93909 29.780367 25.574024 27.973236 26.31647 27.81568
25.74981 29.210587 19.94887 26.574358 30.324587 27.871166 25.63562 34.607586

superres_head/resnet_backbone/level_0/batch_normalization_68/FusedBatchNormV31 f4 [32]
00000000: 35b4 e1bd 7d0b c8bc 6e7f 6dbd fa19 9bbd
00000010: 44fc ffbc 93f1 90bd fb6e ecbe 4e1c 53bc
00000020: 5468 7fbd 0021 09bd e326 4ebd 1898 6bbd
00000030: 4fc4 3dbf a89d 2ebf 585a 2bbf c59e 8bbc
00000040: 21bb 89bc ac52 12bc d8f8 89bc 61e9 e9bb
00000050: 5b81 16bc da10 0abc e761 3bbc 3ac1 ecbb
00000060: bc5e 30bc d60d 5dbc f7a2 e2bb be4d 03bc
00000070: 0fb8 29bc e97c f7bb a0f3 f6bb c906 1abc
-0.110207 -0.02441954 -0.057982855 -0.07573314 -0.03124822 -0.070773266 -0.4617842 -0.012885166
-0.062355354 -0.033478737 -0.050330054 -0.057518095 -0.7412767 -0.68209314 -0.6693473 -0.01704348
-0.016812863 -0.008930843 -0.01684229 -0.0071384166 -0.009186114 -0.008426869 -0.011436916 -0.007225183
-0.010764774 -0.013492068 -0.0069163996 -0.008014141 -0.010358824 -0.0075527322 -0.0075363666 -0.009401032

superres_head/resnet_backbone/level_0/batch_normalization_67/FusedBatchNormV3 f4 [64]
00000000: 6b05 bf41 6562 9e41 2d87 c541 cd81 ae41
00000010: 956c a341 fc8d af41 eee1 ab41 7688 ad41
00000020: d551 aa41 2522 c341 272f c041 02ba 0042
00000030: 798d bc41 55d0 b341 d8f5 c641 6fec d641
00000040: 1427 d041 11c8 c741 057d cb41 830d cd41
00000050: bca8 cb41 2028 dc41 cd33 d341 9495 d641
00000060: eb69 da41 ee88 b441 ac4a f841 dc55 cc41
00000070: bc3c b541 e2eb c341 3a86 d241 3e27 c541
00000080: b5b7 e241 bf28 e141 6704 d841 713f b941
00000090: d1d0 cd41 d9b0 cc41 a889 e241 361d d841
000000a0: ada7 bf41 6fd2 e63f 5634 ec41 f596 c741
000000b0: ca69 bd41 a8e4 d541 fb11 dc41 3b33 e041
000000c0: 8afc d641 8008 dc41 0ae7 d641 4dd7 c541
000000d0: eeeb 1640 7948 e741 b778 cc41 7703 c841
000000e0: c4b1 e841 4e1c d041 b9bf ec41 8ffb 3240
000000f0: fca3 dc41 4144 bd41 ae7e cd41 5c09 d941
23.877645 19.798044 24.691004 21.81338 20.428019 21.944328 21.485317 21.691631
21.289957 24.391672 24.023024 32.18165 23.569078 22.476725 24.87004 26.865446
26.019081 24.972689 25.436045 25.631598 25.45739 27.519592 26.400293 26.823036
27.301718 22.56686 31.03646 25.541924 22.654655 24.490177 26.31554 24.644161
28.3397 28.144896 27.00215 23.155977 25.726961 25.586351 28.317215 27.014263
23.956873 1.8032969 29.525555 24.94871 23.676655 26.736649 27.50878 28.025015
26.87331 27.50415 26.862812 24.730127 2.35815 28.910387 25.558943 25.001692
29.0868 26.01382 29.593615 2.796604 27.58007 23.658327 25.686855 27.12957

superres_head/resnet_backbone/level_0/batch_normalization_67/FusedBatchNormV31 f4 [64]
00000000: 29e9 2bb7 17e6 fdb6 f33e 4ab7 af5b 25b7
00000010: c2bd 13b7 85fe e2b6 8f58 1eb7 2769 37b7
00000020: 2690 30b7 0865 2fb7 325b 05b7 bcf6 82b7
00000030: 07b4 2fb7 2bdb 18b7 94a7 42b7 8305 49b7
00000040: d1db 1bb7 798a 28b7 4118 0fb7 b4f1 17b7
00000050: 17a2 17b7 9c43 17b7 b921 4cb7 5090 19b7
00000060: 9915 19b7 ff48 0ab7 21e1 80b7 0771 0cb7
00000070: 4ecf 30b7 b2b6 ebb6 fcfc 27b7 60d7 3fb7
00000080: d036 3cba 0f15 2dba b309 30ba 82e3 f3b9
00000090: a3db 15ba c0c7 11ba 1620 22ba b87d 0bba
000000a0: 8463 14ba bffd f6bf 9b87 58ba 75e0 05ba
000000b0: ff57 efb9 df02 1bba b4fb 31ba 4faa 2dba
000000c0: 91e0 16ba 64a3 1eba 5844 0eba df88 07ba
000000d0: 0078 f9be 86b4 35ba 549d fcb9 3838 0bba
000000e0: fb24 36ba 76fb 08ba a3cf 41ba d273 cbbe
000000f0: ca83 24ba 9a28 f2b9 78bc 08ba 4266 0dba
-1.0246681e-05 -7.5667735e-06 -1.2054795e-05 -9.856113e-06 -8.806064e-06 -6.764955e-06 -9.438153e-06 -1.0932133e-05
-1.052398e-05 -1.0454336e-05 -7.948651e-06 -1.5612102e-05 -1.0472729e-05 -9.110935e-06 -1.1602318e-05 -1.1981817e-05
-9.2899e-06 -1.0045821e-05 -8.529111e-06 -9.056577e-06 -9.038041e-06 -9.016043e-06 -1.2167199e-05 -9.153111e-06
-9.124539e-06 -8.242437e-06 -1.5363623e-05 -8.3709665e-06 -1.0538684e-05 -7.0248143e-06 -1.0012878e-05 -1.1434633e-05
-0.00071797986 -0.0006602564 -0.00067153125 -0.00046518078 -0.00057166273 -0.0005561076 -0.0006184591 -0.0005321163
-0.0005660581 -1.9296187 -0.0008259953 -0.0005106994 -0.00045651195 -0.00059132086 -0.0006789521 -0.0006624804
-0.0005755509 -0.0006051569 -0.0005427054 -0.00051702367 -0.48724365 -0.0006931502 -0.00048182404 -0.00053108064
-0.00069482595 -0.0005225459 -0.0007393306 -0.397368 -0.00062757416 -0.00046188087 -0.00052160723 -0.0005393961

superres_head/resnet_backbone/level_0/batch_normalization_66/FusedBatchNormV3 f4 [32]
00000000: e61f 0542 cae7 1442 432b e341 a784 fd41
00000010: 5621 0f42 957b f041 78f4 0442 a909 e341
00000020: bddb dc41 b9af ff41 09f7 ed41 25c1 0342
00000030: 6596 f241 2a25 bd41 990f ed41 4228 f141
00000040: 9109 2441 b792 b93f 012e 6a41 894a 6941
00000050: b57d d440 dfe8 7b3f 3ddf d940 350d 5841
00000060: 1785 5b3f d41f 103f 8ed9 3e41 9265 4741
00000070: 581e 3a41 6021 5641 3c3c 5f41 e9e4 2341
33.28115 37.226357 28.396124 31.689772 35.782555 30.060343 33.23874 28.379717
27.607294 31.960802 29.745623 32.938618 30.323435 23.643147 29.632616 30.144657
10.252336 1.4497899 14.636231 14.580697 6.640345 0.9840221 6.808501 13.503224
0.85749954 0.56298566 11.928114 12.462297 11.632408 13.383148 13.952206 10.243386

superres_head/resnet_backbone/level_0/batch_normalization_66/FusedBatchNormV31 f4 [32]
00000000: 90de 6fbc 4a7a 60bc 1bee 53bc 56ad 6fbc
00000010: 6a41 25bc f617 18bc f7c4 59bc 4e60 46bc
00000020: 7230 2cbc 43cf 28bc a726 6ebc 174a 34bc
00000030: e340 edbb 3ff5 c2bb 66da 0ebc 3c9b f4bb
00000040: 3ae6 aebe 8a5c 2dbf 6c41 04be f574 99bd
00000050: 40a2 e0be dcd6 42bf ac96 babe 3faa 51be
00000060: cb47 18c0 deb5 cebe 931e 36be 28cf 2ebe
00000070: e796 a5be feb6 acbd 8048 adbd 8719 8fbe
-0.014640465 -0.013701031 -0.012935187 -0.014628729 -0.010086397 -0.0092830565 -0.013291589 -0.012107922
-0.010509597 -0.010303321 -0.014535583 -0.0110039925 -0.007240401 -0.005949646 -0.008719062 -0.0074647944
-0.34160024 -0.6771933 -0.12915581 -0.07493011 -0.43873787 -0.761091 -0.3644308 -0.204751
-2.379382 -0.4037313 -0.177851 -0.17071211 -0.32341692 -0.084333405 -0.08461094 -0.27949163

superres_head/resnet_backbone/level_0/batch_normalization_65/FusedBatchNormV3 f4 [64]
00000000: 1428 cd41 dbed b341 b114 d741 0438 ac41
00000010: 3b7b d741 2f9a ae41 4f5c d041 325d ca41
00000020: 5cd4 bc41 4035 c041 db67 bf41 efd2 9a41
00000030: a992 2c40 9e80 9841 cc5c ca41 3ec9 ba41
00000040: 811c d741 5710 dc41 591d de41 0b53 bd41
00000050: 8289 cf41 1b05 c341 7e1e d841 52e8 cb41
00000060: 495c e741 3361 bc41 6e79 c841 394f ba41
00000070: bd70 cc41 c3d2 ce41 085f c641 8f8c c441
00000080: 1788 b341 e08a d841 3183 5e41 7fe6 cd41
00000090: 9ed0 dc41 6f24 c241 30a6 be41 1c11 c841
000000a0: ead0 c941 64e3 c341 c216 d841 7be0 a641
000000b0: 96b2 be41 3a72 c841 d7a1 ca41 1271 ea41
000000c0: 7665 e541 edae d441 7e5e c041 d0dc 4940
000000d0: 057b d641 828a c441 8007 c341 968c ce41
000000e0: e8d6 cf41 dbd1 ce41 49e9 bb41 213e 5240
000000f0: 7f85 d341 721e cf41 2d53 ce41 47c6 d141
25.64457 22.49114 26.885103 21.527351 26.935171 21.825285 26.045073 25.295506
23.603691 24.026001 23.92571 19.352995 2.6964514 19.062801 25.295311 23.348263
26.888918 27.507978 27.76433 23.665548 25.942142 24.377493 27.014889 25.488438
28.920061 23.54746 25.059292 23.288683 25.555048 25.852911 24.796402 24.568632
22.44145 27.06781 13.907029 25.737547 27.601864 24.26779 23.831146 25.008354
25.227009 24.48603 27.011112 20.85961 23.8372 25.055775 25.329023 29.30521
28.674541 26.585413 24.046139 3.1541023 26.810068 24.56763 24.378662 25.818645
25.979935 25.852468 23.488909 3.285042 26.440184 25.889866 25.790613 26.221815

superres_head/resnet_backbone/level_0/batch_normalization_65/FusedBatchNormV31 f4 [64]
00000000: 374f 47ba 899e 13ba 7b84 2fba 1cce 08ba
00000010: af21 34ba 4ac6 00ba fbe4 32ba 29ee 3aba
00000020: 4e68 28ba 9fa1 0fba 5cfe 27ba d93c dbb9
00000030: 8ef6 77bf 06ea d6b9 3fdc 30ba 6902 1dba
00000040: 6824 18ba 6515 1aba 9e86 21ba 158f 03ba
00000050: b50d 11ba e50b f8b9 42a0 13ba dfd2 1fba
00000060: 22cc 31ba bf24 f0b9 1826 0dba 898f 05ba
00000070: 52af 0aba 8066 16ba 0300 0dba b1c4 fbb9
00000080: 09d2 e4b9 fe51 29ba f3a7 2abf 1a1a 27ba
00000090: 4b71 25ba 0a02 06ba 328a 1dba a189 0fba
000000a0: cf1e 11ba e2c9 13ba 129d 2eba 4a2b d9b9
000000b0: 5820 05ba 4f16 1bba d5ec 16ba ea6c 58ba
000000c0: 062a 4eba 365c 39ba 6c76 21ba b316 9dbf
000000d0: 9678 1fba dcf3 0fba e49b 0bba 8c43 1eba
000000e0: abb0 32ba 0077 27ba 3164 04ba 645a 91bf
000000f0: a1bd 35ba 9226 38ba ffb4 2aba 3cee 45ba
-0.00076030515 -0.00056312286 -0.00066954613 -0.0005218701 -0.00068714743 -0.000491236 -0.0006824282 -0.00071308255
-0.0006424234 -0.00054791005 -0.0006408447 -0.0004181627 -0.9686059 -0.00040991622 -0.00067466864 -0.0005989434
-0.0005803765 -0.0005877822 -0.0006161722 -0.00050185743 -0.00055333535 -0.00047311108 -0.0005631485 -0.0006096791
-0.00067824323 -0.00045803745 -0.00053843996 -0.0005094936 -0.0005290407 -0.00057373196 -0.0005378725 -0.00048020997
-0.00043644037 -0.0006459056 -0.6666252 -0.0006374434 -0.00063111325 -0.0005111998 -0.00060096674 -0.00054755254
-0.0005535902 -0.0005637688 -0.00066609785 -0.00041421718 -0.0005078367 -0.0005916105 -0.00057573366 -0.00082559756
-0.00078645383 -0.00070709304 -0.0006159309 -1.2272552 -0.00060833374 -0.0005491355 -0.0005325659 -0.0006037287
-0.0006816487 -0.0006388277 -0.000505033 -1.135571 -0.0006932859 -0.00070247904 -0.0006511956 -0.00075504533

superres_head/resnet_backbone/level_0/batch_normalization_64/FusedBatchNormV3 f4 [32]
00000000: b439 5c41 baa5 3641 5533 2541 e24e 8e41
00000010: 969c 6441 bf9f 3a40 ce2d 7541 9f7d 7941
00000020: 525c 7c41 5269 2b41 4dde 3c41 b249 6f41
00000030: 0bc9 8441 2587 343f 7958 3b41 f2e0 2b41
00000040: c109 9340 3422 853f f6f0 a240 087f d340
00000050: 6c78 3f3f 1ea9 8940 c6f2 5040 b5b1 5940
00000060: f342 303f c35f 4140 1a76 1041 abfe 8b40
00000070: 45a7 3541 929d 563f f88b 7140 2781 ad40
13.764088 11.415461 10.325032 17.788517 14.288229 2.9160001 15.323683 15.593169
15.772539 10.713213 11.804273 14.955492 16.598166 0.70518714 11.7091 10.742418
4.5949407 1.0401063 5.091914 6.6092567 0.74793124 4.301894 3.2648177 3.4014714
0.68852156 3.0214698 9.028833 4.3748374 11.353337 0.83834183 3.774168 5.4220157

superres_head/resnet_backbone/level_0/batch_normalization_64/FusedBatchNormV31 f4 [32]
00000000: 3c11 a4be f99e 09bf 0678 a7be 243a 59be
00000010: 2346 a3be c02e e0bf ac9e 67be cbfc 93be
00000020: 5e96 89be 6908 b9be 54b7 05bf 02d6 95be
00000030: cdc4 b5be 39b7 b8bf d64f fcbe 66b7 3abf
00000040: 75c8 92be cf09 b1bf a1b8 a6be f250 5cbe
00000050: 5d76 51bf 78eb b1be 9a7b abbe 8c31 61be
00000060: b5c1 03bf eef5 88be 25b1 38be 842c a4be
00000070: 0a10 25bd 80e6 16bf 23ec 6dbe 0a21 86be
-0.320444 -0.537582 -0.32708758 -0.21213585 -0.31889448 -1.7514267 -0.22619122 -0.28903803
-0.26872534 -0.3613923 -0.5223286 -0.29264838 -0.3550171 -1.4430915 -0.4927966 -0.72936094
-0.28668562 -1.3831118 -0.32562736 -0.21515253 -0.81821233 -0.3474996 -0.33492738 -0.21991557
-0.5146745 -0.2675013 -0.18036325 -0.32065213 -0.0402985 -0.58945465 -0.2323461 -0.26197082

superres_head/resnet_backbone/level_0/batch_normalization_63/FusedBatchNormV3 f4 [64]
00000000: f3f3 c041 e111 e041 21b5 bb41 075b a341
00000010: ee7b a141 f66e b941 24d4 c741 f209 bb41
00000020: 3ece b241 5779 aa41 8e79 b441 a83a aa41
00000030: 11fa bd41 1b7c c841 7b77 ca41 decb c241
00000040: b6bc c341 4433 e541 da81 c441 165c db41
00000050: b273 df41 d4c9 d441 05c5 cc41 99cd c841
00000060: 4ec4 de41 751c b541 a377 ee41 4be6 1e42
00000070: ef46 ec41 a499 dc41 e655 b641 d651 bc41
00000080: f5a2 c141 c395 ee41 7f3a be41 9b30 f141
00000090: 2e0c d241 ad6e d541 73b8 6542 73cc b741
000000a0: 95b4 da41 e726 e241 e687 d041 abf3 d841
000000b0: 9f4a db41 9fe9 c641 6dbe d541 7510 f041
000000c0: bea8 d341 ddcc da41 b05d d441 9011 f941
000000d0: 00e4 d641 3ee6 d141 d122 dd41 3d5b bf41
000000e0: b0f4 c341 5599 d941 b869 ba41 dfbf d241
000000f0: a1a4 d541 359b c941 06cc e041 f4eb d741
24.119116 28.00873 23.463442 20.419447 20.185513 23.17918 24.978584 23.379856
22.350704 21.309248 22.559353 21.27864 23.747103 25.060598 25.30834 24.349545
24.467144 28.650032 24.563404 27.419964 27.931492 26.598549 25.5962 25.10039
27.845852 22.638895 29.808416 39.724895 29.534636 27.57502 22.791943 23.539959
24.204569 29.823126 23.778563 30.148733 26.255947 26.67904 57.430126 22.974829
27.338175 28.268995 26.066357 27.118979 27.411436 24.864073 26.717981 30.008036
26.457394 27.35003 26.545746 31.133575 26.861328 26.237423 27.642 23.91955
24.494476 27.19987 23.30162 26.343687 26.705385 25.200785 28.09962 26.990211

superres_head/resnet_backbone/level_0/batch_normalization_63/FusedBatchNormV31 f4 [64]
00000000: 272f 07b7 419d 4db7 0a1e fab6 ca1c dab6
00000010: bc35 d0b6 9284 16b7 2a00 24b7 7633 0eb7
00000020: a4d5 f2b6 504a 0db7 0481 fcb6 b769 f1b6
00000030: 5239 0db7 e1a8 11b7 61a3 26b7 338a 23b7
00000040: 33ef 26b7 bc07 1ab7 ee82 03b7 6451 1cb7
00000050: b2ef 26b7 dd27 62b7 e808 17b7 5a70 07b7
00000060: 7570 26b7 c8c9 e3b6 ecd7 51b7 3172 68b7
00000070: b044 64b7 4157 0eb7 aa9d 44b7 10c7 eab6
00000080: 7a52 49b7 4049 39b7 6ce7 1bb7 e3f7 24b7
00000090: 1ff2 3cb7 1520 30b7 7387 cdb7 e061 30b7
000000a0: 050d 40b7 431c 2fb7 1622 09b7 c79d 32b7
000000b0: 55e5 24b7 f37e e8b6 db5f 54b7 5dd2 4fb7
000000c0: e5fc 2eb7 a9d7 61b7 23aa 53b7 6c6a 25b7
000000d0: 6c95 96b7 87ee 3ab7 d56c 2cb7 f471 2ab7
000000e0: ed3a f2b6 690b 18b7 0e01 f5b6 b07a 03b7
000000f0: 34f2 09b7 4ccd 33b7 5b9f 6eb7 5423 31b7
-8.057606e-06 -1.2255566e-05 -7.4540776e-06 -6.5002578e-06 -6.2051386e-06 -8.971563e-06 -9.7752e-06 -8.475841e-06
-7.237033e-06 -8.421557e-06 -7.5252046e-06 -7.1946665e-06 -8.417601e-06 -8.681994e-06 -9.932411e-06 -9.747734e-06
-9.950064e-06 -9.180916e-06 -7.838693e-06 -9.317275e-06 -9.950179e-06 -1.3479931e-05 -9.002375e-06 -8.072786e-06
-9.9205545e-06 -6.7886176e-06 -1.2507644e-05 -1.3854865e-05 -1.3605852e-05 -8.484175e-06 -1.1719219e-05 -6.9969174e-06
-1.1999737e-05 -1.1043914e-05 -9.292602e-06 -9.832877e-06 -1.1262046e-05 -1.0497887e-05 -2.4500978e-05 -1.0513206e-05
-1.1447123e-05 -1.0437393e-05 -8.173773e-06 -1.0646362e-05 -9.828557e-06 -6.9289176e-06 -1.2658503e-05 -1.23871405e-05
-1.043009e-05 -1.3461257e-05 -1.2616193e-05 -9.859545e-06 -1.7950973e-05 -1.1142e-05 -1.0277338e-05 -1.0159321e-05
-7.219022e-06 -9.062563e-06 -7.3016918e-06 -7.836774e-06 -8.222229e-06 -1.0717031e-05 -1.4223008e-05 -1.0558248e-05

superres_head/resnet_backbone/level_0/batch_normalization_62/FusedBatchNormV3 f4 [32]
00000000: 0918 e341 c288 f741 e967 4442 e928 e741
00000010: 0c0f e441 d256 ee41 cce2 fc41 a0bb df41
00000020: e128 c841 6bcb cc41 4615 d641 335a ce41
00000030: 99ee f141 38f5 2a42 5257 cb41 e8ed cb41
00000040: 0404 d341 49b6 5b42 55b8 dc41 3b06 c941
00000050: f6c2 d941 7d6f d641 62b0 0242 ced3 dc41
00000060: 5c99 e741 d83f de41 4c82 e541 ab67 ea41
00000070: f401 e641 7d06 0842 2ea6 cc41 beae e341
28.386736 30.941776 49.101475 28.894976 28.507347 29.792393 31.61074 27.966614
25.01996 25.599325 26.760387 25.794043 30.241503 42.73947 25.417637 25.491165
26.37696 54.928013 27.590006 25.128042 27.220196 26.804438 32.67225 27.60342
28.949883 27.781174 28.688622 29.30062 28.750954 34.006336 25.581142 28.460323

superres_head/resnet_backbone/level_0/batch_normalization_62/FusedBatchNormV31 f4 [32]
00000000: b4eb 0bbc bd77 f1bb ca89 45bc aeaa 48bc
00000010: d4ed 53bc 2ebe 4cbc e0c5 54bc 2595 3dbc
00000020: 4276 24bc ad6e 16bc b62c 10bc c051 20bc
00000030: 3d1e 0bbc 9dc6 2dbc e7f6 3fbc a81d 21bc
00000040: a4a4 48bc 57c0 cdbc c4cf 61bc f27d 40bc
00000050: 57c5 43bc 3925 21bc b1a6 62bc 358a 71bc
00000060: 74fd 58bc 2a3a 06bc 273d 01bc 0b05 6bbc
00000070: c81b 1bbc 27bd c7bb 8fca 13bc 5e7f dfbb
-0.008540083 -0.0073690102 -0.012056777 -0.012247724 -0.012935121 -0.012496514 -0.01298663 -0.011571203
-0.0100379605 -0.009181661 -0.008799722 -0.009785116 -0.008491096 -0.010606435 -0.011716581 -0.009833731
-0.012246285 -0.025116129 -0.013782445 -0.011748778 -0.011948905 -0.009835535 -0.013833688 -0.014742424
-0.013244022 -0.008192578 -0.007888115 -0.014344464 -0.009467073 -0.0060955468 -0.009020462 -0.0068206033

superres_head/resnet_backbone/level_0/batch_normalization_61/FusedBatchNormV3 f4 [64]
00000000: 9f04 d141 cb9b c541 0b7c a440 7475 c241
00000010: 8ed8 ad41 816b d741 3f41 cd41 a33a c241
00000020: ccb5 cf41 11a4 c541 d064 b441 667f 9a41
00000030: c551 c341 a1b0 cf41 112d a141 a33f b941
00000040: 99be dd41 1068 ae41 9f1d c041 2696 d441
00000050: c6e7 ca41 fa51 d241 26b4 b141 9b06 b441
00000060: 388e b041 ddb5 ca41 2b75 ba41 dd61 c441
00000070: c8f4 cd41 2170 c541 32bd d341 7146 e641
00000080: 07cc c441 2fec c141 10b7 e441 2543 c241
00000090: ad9b e341 544e cd41 ccc0 b741 1ba5 d441
000000a0: e541 c041 8e45 c141 8d5b c341 c934 b941
000000b0: cdd1 cb41 37ff c741 774f b941 c3ef c541
000000c0: 239c c441 423a e341 156e cd41 58fb d641
000000d0: bbc6 dd41 b259 bf41 7b2b cd41 d90f dc41
000000e0: 29a6 c941 11c1 c841 0c3d bc41 4bf2 c641
000000f0: 6e03 c041 b408 c641 2483 bd41 5252 c641
26.127256 24.70107 5.140142 24.30735 21.73074 26.927492 25.656858 24.278631
25.963768 24.70511 22.549225 19.312206 24.414927 25.961245 20.147005 23.156073
27.718065 21.800812 24.014463 26.573315 25.36317 26.290028 22.212963 22.503225
22.069443 25.3388 23.30721 24.547785 25.744522 24.67975 26.46738 28.784395
24.599623 24.240324 28.589386 24.282785 28.451014 25.663246 22.96914 26.580618
24.032175 24.158962 24.419703 23.150774 25.477442 24.999617 23.163801 24.742071
24.576239 28.403446 25.678751 26.872726 27.722036 23.918797 25.64623 27.507738
25.206133 25.09427 23.529808 24.868307 24.001675 24.75425 23.689034 24.790195

superres_head/resnet_backbone/level_0/batch_normalization_61/FusedBatchNormV31 f4 [64]
00000000: 68d9 37ba 67a4 28ba bb88 76bf fe00 2aba
00000010: 95a9 07ba 633c 52ba a88a 29ba 1e29 11ba
00000020: 9193 38ba 0c14 18ba fda4 01ba 4a4d f2b9
00000030: 1a7d 15ba ab84 33ba 6e39 d6b9 c56c 17ba
00000040: 4a5a 22ba 05bf e0b9 c25e f0b9 5b51 0eba
00000050: 6a4c 06ba 3829 15ba 48cb dab9 3f0c e8b9
00000060: 8982 04ba 4154 0dba 8a5d f4b9 0f1b 0bba
00000070: 3640 0eba 1f2c 00ba 02b7 15ba 993c 1eba
00000080: 677d 02b7 fd76 23b7 7eba 13b7 c86e 01b7
00000090: 36f9 22b7 1c80 efb6 0ac7 e3b6 8f91 17b7
000000a0: 3da9 efb6 bf75 07b7 b510 edb6 2270 ecb6
000000b0: 5186 11b7 3f0d eab6 9473 0cb7 7254 17b7
000000c0: 8d54 18b7 e7b1 28b7 9573 0bb7 94b8 34b7
000000d0: f0be 41b7 4db2 ceb6 ce02 0eb7 cf79 25b7
000000e0: 8af8 0cb7 3a08 eab6 ba39 b6b6 a49f 17b7
000000f0: 529e eab6 48bd 09b7 e166 f2b6 b29d d0b6
-0.0007013292 -0.0006433189 -0.96302384 -0.0006485133 -0.0005175111 -0.00080198626 -0.00064675 -0.0005537438
-0.0007041032 -0.0005801327 -0.00049455446 -0.00046215422 -0.00057025405 -0.0006848077 -0.0004086005 -0.0005776401
-0.00061932637 -0.0004286693 -0.00045846967 -0.0005428993 -0.0005123081 -0.0005690041 -0.00041731657 -0.00044259612
-0.00050548516 -0.0005391278 -0.00046609 -0.0005306461 -0.00054264383 -0.0004889387 -0.0005711169 -0.00060362514
-7.777801e-06 -9.743261e-06 -8.805304e-06 -7.714792e-06 -9.713976e-06 -7.137669e-06 -6.7882984e-06 -9.034192e-06
-7.142457e-06 -8.074042e-06 -7.0650954e-06 -7.046402e-06 -8.6739465e-06 -6.9752855e-06 -8.37156e-06 -9.019963e-06
-9.079592e-06 -1.0055001e-05 -8.311957e-06 -1.07718115e-05 -1.15481525e-05 -6.1600354e-06 -8.464513e-06 -9.863127e-06
-8.402518e-06 -6.974701e-06 -5.430743e-06 -9.037471e-06 -6.9921743e-06 -8.209907e-06 -7.2241387e-06 -6.217241e-06

superres_head/resnet_backbone/level_0/batch_normalization_60/FusedBatchNormV3 f4 [32]
00000000: 1120 a941 08a2 0d41 c14c 3341 30a2 7f41
00000010: 3210 5d41 b8b3 8441 539c b041 f3b5 363f
00000020: 76c1 9d41 8aa4 9841 04c0 c041 ea31 5441
00000030: d0b6 6841 9e4d a241 3cb2 9141 0c8b b341
00000040: 72b2 df41 2e19 1742 0bb9 0342 eb26 e641
00000050: 7835 d841 7b53 f041 505d df41 ac73 0d42
00000060: bc39 e841 00db b341 13f4 1242 d01f 1942
00000070: ed73 e741 bd9c e041 3fe4 e741 c4ab 0042
21.140657 8.852058 11.206239 15.977097 13.816454 16.587753 22.07633 0.7137138
19.719463 19.080341 24.093758 13.262186 14.544632 20.287899 18.212029 22.442894
27.962132 37.77459 32.930706 28.769003 27.026108 30.040762 27.920563 35.36296
29.02819 22.481934 36.738354 38.281067 28.931604 28.076532 28.986448 32.16774

superres_head/resnet_backbone/level_0/batch_normalization_60/FusedBatchNormV31 f4 [32]
00000000: 978b 6fbe 06a7 83bf 0fb4 f9be c25c f4be
00000010: 5a21 18bf 316f e2be f48a 93be d68b f1bf
00000020: 7755 bdbe 463c 9dbe bbbd 36be 4664 33bf
00000030: 9e88 12bf 9d5f 6abe 300f abbe 1813 5dbe
00000040: f668 2ebc 99d3 69bc e8f2 0fbc 6f59 6bbc
00000050: baa0 1abc 4fa7 fdbb d266 0cbc 5145 12bc
00000060: 1351 38bc 9fcc cbbb 2556 36bc 31e2 1cbc
00000070: 777b 18bc 44ee e5bb 68b2 3dbc 9775 fbbb
-0.23393093 -1.0285347 -0.48770186 -0.4772702 -0.5942589 -0.44225457 -0.2881695 -1.88708
-0.36979267 -0.30710047 -0.17845814 -0.7007488 -0.5723971 -0.22888036 -0.33410025 -0.21589315
-0.010645142 -0.01427164 -0.008785941 -0.014364584 -0.009437734 -0.007740892 -0.008569436 -0.008927659
-0.011249798 -0.006219461 -0.011128937 -0.009575413 -0.00930678 -0.007016929 -0.01157818 -0.00767393

superres_head/resnet_backbone/level_0/batch_normalization_59/FusedBatchNormV3 f4 [64]
00000000: 84f5 df41 224c d041 0c24 c341 5325 c641
00000010: efde ab41 1b6e c741 000b d341 131c cb41
00000020: 947b b541 dbb9 dd41 b432 c941 f90c ca41
00000030: b478 c941 9bf6 d041 1520 c141 1560 de41
00000040: 1728 d041 95ff cc41 34f2 d141 8cfd c741
00000050: d3ae e541 3fc0 dd41 65e1 d941 c91e dc41
00000060: 2078 bf41 3efc c441 ad24 da41 7d3f ca41
00000070: 0f96 d641 7860 da41 f05e df41 df16 d441
00000080: 9605 d041 5e0c d241 acb2 e341 5b85 c841
00000090: abeb d041 d928 ea41 798e df41 057e c641
000000a0: 42c1 dd41 d963 ca41 905e c741 f3b8 ea41
000000b0: a07b ed41 5fb1 bb41 0527 eb41 0aa3 c341
000000c0: 65e9 ed41 a56d da41 48f8 dc41 427a cd41
000000d0: 76cb cf41 87d7 bc41 737a e441 543d b141
000000e0: 7a92 c841 2e13 e241 693c df41 9fff db41
000000f0: dd93 c841 0297 c441 9f09 ef41 6d10 bf41
27.99488 26.037174 24.392601 24.768225 21.483854 24.928762 26.380371 25.388708
22.68534 27.71575 25.149757 25.256334 25.183937 26.120413 24.140665 27.796915
26.019575 25.624796 26.243263 24.998802 28.710363 27.71887 27.235056 27.515032
23.933655 24.623165 27.267908 25.281 26.82327 27.297104 27.921356 26.511168
26.002728 26.256039 28.462242 25.065115 26.115072 29.269945 27.944567 24.811533
27.719364 25.298754 24.921173 29.340307 29.685364 23.461607 29.394053 24.454609
29.738962 27.303537 27.621231 25.684696 25.974346 23.605238 28.55979 22.154945
25.071522 28.259365 27.904497 27.499815 25.072199 24.573734 29.879698 23.88302

superres_head/resnet_backbone/level_0/batch_normalization_59/FusedBatchNormV31 f4 [64]
00000000: bc7f 19b7 d1f2 2ab7 be7a d0b6 b0f7 28b7
00000010: b925 05b7 c1ce f8b6 493a d4b6 c971 33b7
00000020: cc55 18b7 d834 07b7 c258 33b7 7f77 00b7
00000030: edff 0fb7 5a97 10b7 b7fb 11b7 d071 54b7
00000040: 91a3 1bb7 fda6 00b7 f4c5 28b7 6b75 ccb6
00000050: 6017 12b7 07b3 0ab7 5103 38b7 3f4d c0b6
00000060: 02c9 d1b6 b5f5 e7b6 a4a3 09b7 9e19 2fb7
00000070: 6d17 23b7 b72b d8b6 0f8e f5b6 740b 2cb7
00000080: c212 24b7 2a5c 24b7 bf8a 1cb7 527d 00b7
00000090: 6be0 69b7 ef94 0db7 cd0d 28b7 99d3 ffb6
000000a0: 70e4 2ab7 5aee 20b7 b2b0 13b7 0cc5 24b7
000000b0: b86c 2bb7 b71e 4cb7 27db 19b7 e360 25b7
000000c0: 8432 23b7 385b 32b7 6a0e 30b7 51e2 0cb7
000000d0: a797 3ab7 71c6 17b7 8b6f 30b7 f055 d9b6
000000e0: 9968 c7b6 ab5c 08b7 36b8 11b7 6a5f 20b7
000000f0: 302d 38b7 257e 1fb7 dea8 3bb7 2ac3 03b7
-9.149251e-06 -1.0189325e-05 -6.213172e-06 -1.007125e-05 -7.936201e-06 -7.4150453e-06 -6.3248776e-06 -1.0695724e-05
-9.079882e-06 -8.058931e-06 -1.0689897e-05 -7.657217e-06 -8.583052e-06 -8.618308e-06 -8.70128e-06 -1.2662684e-05
-9.276803e-06 -7.6682745e-06 -1.005967e-05 -6.093343e-06 -8.707721e-06 -8.267124e-06 -1.0968027e-05 -5.7310385e-06
-6.2520858e-06 -6.9129405e-06 -8.203937e-06 -1.0436777e-05 -9.721011e-06 -6.4423907e-06 -7.318107e-06 -1.02546655e-05
-9.779529e-06 -9.79662e-06 -9.330629e-06 -7.658573e-06 -1.3940134e-05 -8.438931e-06 -1.0016794e-05 -7.6242254e-06
-1.0185977e-05 -9.592239e-06 -8.803023e-06 -9.82104e-06 -1.0217707e-05 -1.2166499e-05 -9.170536e-06 -9.857325e-06
-9.727319e-06 -1.0630865e-05 -1.04937735e-05 -8.397344e-06 -1.1121773e-05 -9.046505e-06 -1.0516388e-05 -6.4771084e-06
-5.942839e-06 -8.127808e-06 -8.685563e-06 -9.5589585e-06 -1.0977776e-05 -9.506509e-06 -1.1185386e-05 -7.853649e-06

superres_head/resnet_backbone/level_0/batch_normalization_58/FusedBatchNormV3 f4 [32]
00000000: 9a51 e541 6b2c d841 bdf4 e641 922d 0a42
00000010: 17bc cf41 6ea7 fe41 f12a 1a42 dc0f d641
00000020: 74f9 c341 ae88 e541 fc73 eb41 1c7c f341
00000030: 5be1 c841 9058 f241 8459 2c42 1a1d ef41
00000040: fde4 d641 c160 e441 0cb8 f741 208c 2942
00000050: 55e6 e141 ddc8 f241 e8aa df41 14eb ce41
00000060: b9fe 0042 ee83 0942 807e d541 eacd da41
00000070: ac4d ff41 4f55 f541 01e9 0042 b448 fc41
28.664845 27.021688 28.869501 34.544502 25.96684 31.831753 38.541935 26.757744
24.496803 28.691738 29.431633 30.4356 25.110037 30.293243 43.087418 29.88921
26.86181 28.547243 30.964867 42.38684 28.237467 30.348078 27.95845 25.864784
32.248753 34.378838 26.686768 27.350544 31.912926 30.666655 32.227543 31.5355

superres_head/resnet_backbone/level_0/batch_normalization_58/FusedBatchNormV31 f4 [32]
00000000: 3eff d0bb 23b7 5dbc 0af8 09bc 7fb5 68bc
00000010: 4be4 46bc c640 4cbc d36c 3bbc fcf1 eebb
00000020: 4720 46bc bd3d 0ebc b3e4 09bc bde6 55bc
00000030: eca4 29bc d984 d6bb 3c7d 1cbc 9692 25bc
00000040: 40a2 51bc 82e8 31bc e448 1cbc ea04 6cbc
00000050: 1dfd 39bc 6619 34bc c2dc d1bb 4726 38bc
00000060: 8377 21bc 8415 1cbc 0d2e 04bc c12f 11bc
00000070: 03ff 31bc 14da 2cbc 8e6e e7bb 327f 87bc
-0.0063780835 -0.013532433 -0.0084209535 -0.014203428 -0.01213939 -0.012466615 -0.01143952 -0.0072920304
-0.012092656 -0.008681712 -0.008416343 -0.013055501 -0.010354262 -0.0065465984 -0.009551343 -0.01010575
-0.012795031 -0.010858657 -0.009538863 -0.0144054685 -0.011351851 -0.010992384 -0.00640449 -0.011239595
-0.009855154 -0.009526614 -0.00806762 -0.008861483 -0.010864022 -0.010550041 -0.0070627397 -0.016540144

superres_head/resnet_backbone/level_0/batch_normalization_57/FusedBatchNormV3 f4 [64]
00000000: d37b b141 8fa1 ab41 8fc6 d241 2270 b241
00000010: f821 aa41 fa29 d241 9a5d d141 ee0e b041
00000020: 56c3 c541 1496 cd41 bff2 c141 e2df ae41
00000030: 9841 d041 375c b141 2203 b941 84d7 bc41
00000040: fbd5 b441 a7f1 b541 3523 cd41 dcfd ca41
00000050: e0cd b841 75e6 bc41 a354 ba41 7f10 d241
00000060: 0c92 cd41 a5bb d541 d50d cf41 eb65 c641
00000070: 6929 c441 aeda d241 3880 b241 97a7 d041
00000080: 0f12 c541 2ca6 b541 547a bc41 16f5 dc41
00000090: 88b7 c241 5dc2 ca41 f3b5 d241 c423 e041
000000a0: 71b0 b941 0d66 bc41 1831 e241 42a6 c041
000000b0: 1c37 d341 6931 d841 974c ca41 81ed c141
000000c0: be00 ce41 6d35 e341 622a cc41 9e1e d141
000000d0: e117 cf41 289c c941 a56f cd41 2b08 d341
000000e0: 849e dc41 c05d da41 2973 f441 0810 a441
000000f0: 31a4 f341 1b9f e941 753c e241 006d c541
22.185461 21.453886 26.346952 22.304752 21.266586 26.270496 26.170704 22.00729
24.720379 25.69828 24.243528 21.859318 26.032028 22.170027 23.12653 23.605232
22.604483 22.742994 25.64219 25.373955 23.100525 23.612528 23.291327 26.258055
25.696312 26.716623 25.881754 24.799765 24.52022 26.356777 22.312607 26.081831
24.633818 22.706139 23.55973 27.61967 24.339615 25.344904 26.338842 28.017464
23.211153 23.54983 28.273972 24.08118 26.401909 27.024126 25.287397 24.240969
25.750362 28.401087 25.520695 26.13995 25.88666 25.201248 25.679514 26.378988
27.5774 27.295776 30.55623 20.507828 30.455172 29.202688 28.27952 24.678223

superres_head/resnet_backbone/level_0/batch_normalization_57/FusedBatchNormV31 f4 [64]
00000000: 19f6 0fb7 db4d feb6 488b 34b7 87e2 e2b6
00000010: 6a4c 29b7 292d 2fb7 a369 e7b6 2561 ecb6
00000020: be77 36b7 4fed 01b7 f15d 26b7 20ed 1eb7
00000030: ea8a 53b7 9fe5 e8b6 4f30 0ab7 8f48 1ab7
00000040: 150c fcb6 e410 f9b6 60c0 0fb7 a5fd 1bb7
00000050: 0392 05b7 c613 18b7 cb54 06b7 4f83 d9b6
00000060: c5a6 26b7 3173 13b7 0879 eab6 f49a feb6
00000070: 743a 15b7 c812 33b7 9d03 21b7 2ac0 29b7
00000080: 620b 34b7 1323 04b7 cb75 26b7 ddbb 54b7
00000090: d202 1eb7 748d 7cb7 5baf 3bb7 c32f 38b7
000000a0: bec1 46b7 8b80 03b7 abbb 41b7 d684 22b7
000000b0: b0be 23b7 f816 04b7 8fb5 21b7 a59a c8b6
000000c0: 2409 02b7 fe88 2ab7 40ae 3db7 76a0 5eb7
000000d0: cfd6 f2b6 ee64 1cb7 9977 fdb6 58eb 33b7
000000e0: 15d3 1ab7 f3b8 eeb6 a6b4 4cb7 cfb0 c4b6
000000f0: 534f 37b7 8fb8 39b7 c97c 1cb7 2ee0 1db7
-8.580763e-06 -7.5788535e-06 -1.0761265e-05 -6.761696e-06 -1.00909765e-05 -1.04413275e-05 -6.896634e-06 -7.044657e-06
-1.0875925e-05 -7.744252e-06 -9.9162435e-06 -9.472744e-06 -1.26089235e-05 -6.94087e-06 -8.236689e-06 -9.196009e-06
-7.511592e-06 -7.4227446e-06 -8.568255e-06 -9.297776e-06 -7.961414e-06 -9.06451e-06 -8.006765e-06 -6.4823903e-06
-9.9332e-06 -8.788703e-06 -6.9878333e-06 -7.587829e-06 -8.894702e-06 -1.0673604e-05 -9.597189e-06 -1.0117927e-05
-1.0731486e-05 -7.8759795e-06 -9.921797e-06 -1.2679925e-05 -9.4181905e-06 -1.5053305e-05 -1.1186897e-05 -1.0978375e-05
-1.1846829e-05 -7.838137e-06 -1.1547391e-05 -9.686881e-06 -9.759955e-06 -7.873161e-06 -9.63862e-06 -5.9784675e-06
-7.750732e-06 -1.0164686e-05 -1.1305849e-05 -1.3269591e-05 -7.237169e-06 -9.321824e-06 -7.5539106e-06 -1.0724027e-05
-9.228262e-06 -7.1144837e-06 -1.2201408e-05 -5.8618384e-06 -1.0926119e-05 -1.106983e-05 -9.327378e-06 -9.410125e-06

superres_head/resnet_backbone/level_0/batch_normalization_56/FusedBatchNormV3 f4 [32]
00000000: eeb5 f941 d20a 0d42 2b96 e741 6961 0242
00000010: ea3c 1342 3f03 fc41 527c fa41 c52c f441
00000020: 524f ee41 d1d7 d441 4428 0f42 2e01 e641
00000030: 7692 e641 0e04 cf41 935a e541 aa90 0a42
00000040: 4650 ec41 8a14 0542 a3e9 d041 b414 cc41
00000050: d58c f141 2ede ca41 a210 e241 9dd3 0942
00000060: 1b0f eb41 a09c e841 0ee5 f441 3f14 fb41
00000070: 2c93 e641 9df8 3a42 5830 fa41 0855 ee41
31.213833 35.260567 28.948324 32.595127 36.809486 31.501585 31.310703 30.52186
29.78873 26.60538 35.78932 28.750576 28.821514 25.87698 28.669226 34.641273
29.539196 33.270058 26.11408 25.510109 30.193766 25.358486 28.258121 34.456654
29.382376 29.076477 30.611843 31.384886 28.821861 46.742786 31.273605 29.79152

superres_head/resnet_backbone/level_0/batch_normalization_56/FusedBatchNormV31 f4 [32]
00000000: 237e 29bc c911 83bc 54d0 14bc eff5 71bc
00000010: ca7c 2bbc 67bc d7bb 271b f1bb 23f0 1bbc
00000020: 6865 37bc da97 38bc 4760 47bc 4f54 f6bb
00000030: d521 4fbc 95cc c6bb 2c10 d1bb f2d2 16bc
00000040: d2ea 2bbc 0216 0fbc c71b dbbb 8aec 2fbc
00000050: 80d6 16bc 57db 2cbc b9b3 66bc 919c 6abc
00000060: 7b61 26bc 15f9 0ebc 53c1 36bc f007 1fbc
00000070: 9a3f c7bb 7941 c1bc c683 48bc 3e20 bfbb
-0.010345015 -0.015999692 -0.009082872 -0.014768108 -0.010466764 -0.0065837386 -0.007357973 -0.009517702
-0.011193611 -0.011266673 -0.01216895 -0.0075173746 -0.0126423435 -0.0060668685 -0.0063801017 -0.009205567
-0.010492997 -0.008733274 -0.006686661 -0.010737548 -0.009206414 -0.010550342 -0.014080935 -0.014319555
-0.010155077 -0.008726378 -0.0111544905 -0.009706482 -0.00608058 -0.02359079 -0.0122384485 -0.005832701

superres_head/resnet_backbone/level_0/batch_normalization_55/FusedBatchNormV3 f4 [64]
00000000: dc8e c641 9659 b941 7617 b241 7d5f c541
00000010: fa7d dc41 743f d841 2f28 cc41 511d d141
00000020: 1d57 a141 e1f3 d441 45ac c841 701f ad41
00000030: 66db b341 184e d941 7fbc ae41 95b9 9b41
00000040: b463 c441 a2ae b641 a658 bc41 dd3a c341
00000050: 4f51 c241 65d3 e041 27af b241 6278 cf41
00000060: b481 b241 bc2b df41 c78b f041 8da1 1142
00000070: b59c db41 13bd ef41 a71f cd41 a7c6 d941
00000080: bbf8 c241 ce8b d241 b5d4 da41 0755 b841
00000090: 74be ce41 80d2 d541 7b96 d441 e1c6 c541
000000a0: eb4a e241 6aa3 db41 1e6c d841 8177 da41
000000b0: e79a fd41 4af0 e341 d0ea c941 6897 d141
000000c0: 131b d241 6f02 d641 7f6a f441 511c c741
000000d0: 0819 ef41 cd9c d441 da40 e641 af5c da41
000000e0: 3cc0 cb41 1a95 dc41 d475 b441 2cdc cc41
000000f0: 59d0 0742 8153 bf41 2ed5 ca41 3543 ca41
24.819756 23.168743 22.261456 24.671625 27.561512 27.030983 25.51962 26.139315
20.167536 26.619081 25.084116 21.64035 22.482128 27.163132 21.84204 19.465616
24.548683 22.83527 23.543285 24.403742 24.289701 28.10322 22.335524 25.93378
22.313332 27.896355 30.06825 36.407764 27.451517 29.967321 25.640455 27.221998
24.37145 26.318264 27.35386 23.041517 25.842995 26.727783 26.573477 24.722109
28.286581 27.454792 27.052792 27.308352 31.700636 28.492329 25.239655 26.198929
26.26322 26.751188 30.552 24.888826 29.887222 26.576563 28.781666 27.295256
25.468864 27.572803 22.557533 25.607506 33.953465 23.915773 25.354092 25.282816

superres_head/resnet_backbone/level_0/batch_normalization_55/FusedBatchNormV31 f4 [64]
00000000: 0363 28b7 26b8 27b7 0d88 22b7 9dad 54b7
00000010: eb9c 37b7 39df 3db7 a0d4 37b7 269f 45b7
00000020: 3845 c7b6 d9a5 56b7 9383 58b7 c7e3 00b7
00000030: b34e 13b7 c673 2ab7 21ac 0db7 5223 dab6
00000040: 8ca1 21b7 8ef5 0fb7 dc4d 20b7 709f 14b7
00000050: eb60 1fb7 c8ab 69b7 378e 09b7 0792 27b7
00000060: 9d42 ffb6 19c9 f7b6 42e4 79b7 b384 53b7
00000070: 3132 22b7 2212 26b7 8233 fdb6 c84f eeb6
00000080: 4213 04b7 0592 36b7 024e 05b7 2046 0ab7
00000090: dee2 1bb7 9d7c e5b6 935f 2bb7 a977 f3b6
000000a0: 7b69 04b7 028d 00b7 d2e6 10b7 8ae6 dbb6
000000b0: df44 46b7 2973 31b7 d8df 19b7 326a eab6
000000c0: 12bd 17b7 b9c8 32b7 d5e5 3bb7 7adc d8b6
000000d0: 9237 1fb7 12a9 04b7 a1d2 27b7 cd0f 07b7
000000e0: e84a f8b6 b52e 13b7 80a2 beb6 f97b 1cb7
000000f0: c5e6 35b7 4e15 09b7 96dd ebb6 1622 0bb7
-1.0036633e-05 -9.996851e-06 -9.687629e-06 -1.2676607e-05 -1.0944185e-05 -1.1317251e-05 -1.0957156e-05 -1.177917e-05
-5.9387203e-06 -1.2794008e-05 -1.2905238e-05 -7.682428e-06 -8.780206e-06 -1.0159745e-05 -8.444332e-06 -6.501018e-06
-9.633961e-06 -8.580637e-06 -9.554871e-06 -8.858609e-06 -9.499704e-06 -1.3927878e-05 -8.198948e-06 -9.987975e-06
-7.607347e-06 -7.3845845e-06 -1.4894702e-05 -1.26074765e-05 -9.667639e-06 -9.898593e-06 -7.545984e-06 -7.1022405e-06
-7.872297e-06 -1.0882043e-05 -7.94558e-06 -8.241768e-06 -9.291542e-06 -6.8392387e-06 -1.0214647e-05 -7.2558946e-06
-7.892372e-06 -7.6622255e-06 -8.636811e-06 -6.553547e-06 -1.1817755e-05 -1.0576835e-05 -9.171628e-06 -6.986106e-06
-9.044323e-06 -1.0656361e-05 -1.11995805e-05 -6.4629685e-06 -9.490077e-06 -7.907178e-06 -1.00030165e-05 -8.050306e-06
-7.399696e-06 -8.772758e-06 -5.6813587e-06 -9.327189e-06 -1.0842171e-05 -8.170797e-06 -7.0293418e-06 -8.292982e-06

superres_head/resnet_backbone/level_0/batch_normalization_54/FusedBatchNormV3 f4 [32]
00000000: 949a fa41 052c 0c42 8057 0c42 6b6e c741
00000010: ca35 f841 02c9 b341 8147 1042 30d0 0442
00000020: 5b8b d441 799f 2842 49a8 0142 483e 0b42
00000030: 5f05 fe41 9b80 e041 f9fa c141 360e d841
00000040: d355 1642 829a da41 10c0 c141 12d2 ef41
00000050: 371d 0b42 6b75 f841 86e2 ea41 0a2d c541
00000060: 48a5 db41 745d c841 f883 1a42 0c99 d341
00000070: 4f22 f841 6f8b d141 ab2d de41 93c7 1142
31.325478 35.042988 35.08545 24.928915 31.026264 22.473148 36.069828 33.20331
26.568045 42.155735 32.41434 34.81082 31.752623 28.062796 24.247545 27.006939
37.583813 27.325443 24.21878 29.977573 34.77853 31.057333 29.360607 24.646992
27.455704 25.045631 38.628876 26.44973 31.016752 26.193083 27.772299 36.444897

superres_head/resnet_backbone/level_0/batch_normalization_54/FusedBatchNormV31 f4 [32]
00000000: ae7b 5abc 67ff 4ebc d05d 35bc 39ca ffbb
00000010: 0f62 02bc 7a0d 1dbc c3e0 54bc 5d22 58bc
00000020: 414d 34bc 13e8 8fbc 3317 2ebc e6f0 85bc
00000030: 6f5e 1cbc 7fc3 1fbc 4eb9 01bc cca6 fbbb
00000040: 0d13 35bc 85fb 0abc 2487 30bc dae4 23bc
00000050: bc62 06bc bf3b 09bc 644f d4bb efc4 04bc
00000060: 7094 0abc e078 33bc 54a4 64bc 2b5d dcbb
00000070: 9e9b 2cbc 033f 06bc 74a2 10bc 0fe5 2dbc
-0.013335152 -0.012634135 -0.01106973 -0.0078060892 -0.007957949 -0.009585733 -0.0129930405 -0.013191787
-0.011004747 -0.017566716 -0.010625648 -0.01635022 -0.009543999 -0.0097512 -0.007917715 -0.007679796
-0.011051905 -0.0084828185 -0.010774408 -0.010003293 -0.008202251 -0.008376061 -0.0064791907 -0.008103593
-0.008458242 -0.010954112 -0.0139551945 -0.0067249737 -0.010535149 -0.008193734 -0.008827794 -0.010613694

resnet_backbone/level_0/batch_normalization_9/FusedBatchNormV3 f4 [64]
00000000: ab06 953f 5e84 683a 8626 c93a af82 9e40
00000010: f31e 823f 3e93 813f f109 703f 3121 fc3e
00000020: 65d4 a640 b445 3f39 2235 11b8 ea5a 9bb9
00000030: 4bdb 183a a459 a43a 4565 3840 b91b 873f
00000040: 3e90 8441 58a5 5b40 145d 8940 8929 9140
00000050: 2500 b940 ddad 7440 2b4a 3140 12b6 a540
00000060: e181 9940 9082 9240 fe11 3f41 2bb3 6140
00000070: 26c8 ca40 97a5 b840 497a c640 f3c5 be40
00000080: c78f 0741 63a7 d13f 73fe ae40 f147 f43f
00000090: f586 2641 0dff 6e3d e884 3e40 53d9 8040
000000a0: 287b 8e40 e020 ad3f 4aaa 5340 b28a dd3f
000000b0: 6ad0 8340 22b6 cc3f ba97 e53f eece 1d3f
000000c0: 1b1e 833b 4883 293f d283 86ba 4a06 09bb
000000d0: 3ea2 3c3f 0a2e c5ba 147d bab9 5d11 e338
000000e0: c99a b33a 4149 933a f23a b33a a90a 2b3f
000000f0: 5ea3 df39 a040 bd3e 6d31 eeb9 2750 563f
1.164266 0.0008869822 0.0015346564 4.9534526 1.0165695 1.012306 0.9376517 0.49244073
5.213427 0.00018241146 -3.4620178e-05 -0.0002963164 0.0005831017 0.0012538922 2.881181 1.0555335
16.57043 3.4319668 4.292612 4.53632 5.7812676 3.8231118 2.7701519 5.1784754
4.7971044 4.578438 11.941893 3.5265605 6.336932 5.7702136 6.2024274 5.9616637
8.472602 1.6379207 5.4685607 1.9084455 10.4079485 0.058348704 2.976862 4.026529
4.4525337 1.3525658 3.3072686 1.7307951 4.119191 1.5993083 1.7936928 0.61643875
0.0040013916 0.66215944 -0.0010262674 -0.002090829 0.7368506 -0.0015043628 -0.00035569875 0.00010827438
0.0013702746 0.0011237041 0.0013674183 0.6681314 0.00042655593 0.36963367 -0.00045431723 0.8371605

resnet_backbone/level_0/batch_normalization_9/FusedBatchNormV31 f4 [64]
00000000: 0455 50be 8ec1 12b2 5041 48b2 3107 79b8
00000010: a7b8 0abf 94f7 bcbe 8eb6 0cb7 8e92 87b6
00000020: cb4a 80b8 5f5e b3b0 4fa1 842f aa8d 6d31
00000030: 6286 c7b1 6932 1ab2 d1dd a3be 123d 4dbe
00000040: b29d 38b9 63da 60bf 9e05 82bf 2621 71bf
00000050: 7702 1fbf 04e8 e9be c32e eabe b021 2fbf
00000060: f1f2 0abf d46c 2dbf 1545 f1b8 e29e 4ebf
00000070: 1eda 16bf ad42 9abf 42a2 81bf 8a53 1dbf
00000080: d238 0dbe 8267 17bf 3394 b9b8 7e41 5fbf
00000090: 5fed 91b9 6172 25b5 211e 38b8 a83c 7ab8
000000a0: 8abb 85b8 f3fe 2dbf a309 43b8 e150 52bf
000000b0: 787b 83b8 e3e7 39bf 1713 f9be 4585 cfb6
000000c0: 4645 20b3 444a 56be c4ce 3b32 4fc2 eb32
000000d0: e067 1cbf 6648 bd31 6d88 0732 2fcc 19b1
000000e0: 6f65 25b2 2a38 8fb2 8375 88b2 a1f9 b3be
000000f0: e309 e6b0 3e80 7bbe 3bca 9d31 8e87 d4be
-0.20344931 -8.542328e-09 -1.16563825e-08 -5.9372924e-05 -0.5418801 -0.36907637 -8.387155e-06 -4.0403747e-06
-6.117447e-05 -1.3050786e-09 2.4125277e-10 3.4568566e-09 -5.80694e-09 -8.975442e-09 -0.3200517 -0.20042828
-0.00017606354 -0.8783323 -1.0157964 -0.94191206 -0.62113136 -0.45684826 -0.457388 -0.6841078
-0.5427695 -0.67744184 -0.00011504643 -0.80711186 -0.5892657 -1.2051598 -1.0127642 -0.61455595
-0.13791206 -0.59142315 -8.849092e-05 -0.8720931 -0.0002783341 -6.1633733e-07 -4.389708e-05 -5.9661135e-05
-6.376866e-05 -0.67967147 -4.6500598e-05 -0.8215466 -6.2695646e-05 -0.72619456 -0.48647377 -6.1845953e-06
-3.7315907e-08 -0.20926768 1.0931846e-08 2.7445962e-08 -0.61096 5.5088547e-09 7.889054e-09 -2.2380495e-09
-9.627327e-09 -1.6672931e-08 -1.5885922e-08 -0.3515139 -1.6737512e-09 -0.2456064 4.5922923e-09 -0.4150967

resnet_backbone/level_0/batch_normalization_8/FusedBatchNormV3 f4 [32]
00000000: 5907 8940 1800 d940 ed27 433c a8a4 f640
00000010: 3e21 1a41 0096 7640 51ab dc40 9a31 2b40
00000020: f2a9 f040 5b76 2740 274e ea3f 3625 e03f
00000030: 840d 9240 ecf3 e040 5abd 0140 f642 3540
00000040: d68a 0c40 5740 d63f e2a9 3740 ea4c cc40
00000050: a039 6c38 8ce0 ba40 74e8 8740 a747 1241
00000060: 2489 4240 56be be3f 23f3 8a3f 9574 7340
00000070: 13ad 8d41 68fe 2141 d173 3840 23e1 933f
4.282147 6.7812614 0.0119113745 7.7075996 9.633116 3.8529053 6.8959126 2.6749024
7.5207453 2.6165988 1.83051 1.7511356 4.56415 7.0297756 2.027182 2.832212
2.1959739 1.6738385 2.8697438 6.384389 5.6320452e-05 5.8399105 4.2471256 9.142493
3.0396204 1.4901836 1.085545 3.8039906 17.709509 10.124611 2.8820689 1.1553081

resnet_backbone/level_0/batch_normalization_8/FusedBatchNormV31 f4 [32]
00000000: 3f12 dbbe 9322 04bf 8ac5 d2b4 3847 43bf
00000010: adb3 8dbe 229e 52be a8ca aabe b3bf 15bf
00000020: 2310 1bbf 12d0 99be 31a0 19bf fea8 bcbe
00000030: b379 b9be cf2e 84be 5773 f9be 5176 9abe
00000040: 8b39 e2b8 fe28 3ebf 4351 bfbf 56ef 93be
00000050: 32c1 1ab1 36f1 adbe f6c6 1cb9 7168 d3b9
00000060: ddf2 c2bf db28 98b8 e974 4fb8 3d44 7ebf
00000070: 46b7 76ba f9ff 70be 0e7c 17b9 c26f 68bf
-0.42787358 -0.51615256 -3.9259277e-07 -0.76280546 -0.27676144 -0.20568135 -0.3335774 -0.58495635
-0.605715 -0.30041558 -0.6001006 -0.3684768 -0.36225662 -0.25816962 -0.4872081 -0.30168393
-0.00010787238 -0.742813 -1.4946674 -0.28893536 -2.2519768e-09 -0.33973092 -0.00014951438 -0.0004032287
-1.5230366 -7.255535e-05 -4.9461527e-05 -0.99322873 -0.0009411465 -0.23535146 -0.00014446696 -0.9079553

resnet_backbone/level_0/batch_normalization_7/FusedBatchNormV3 f4 [64]
00000000: 90fc 233c 30df eb3e 1b14 d33f 0da7 1a3f
00000010: a07d 3d3a 1e91 8c3b 8c35 9b3a d491 3b3a
00000020: a657 9b3f 6ad8 083a df82 a340 1736 103d
00000030: 2b89 0139 b8be e13f c475 0b3b 6853 e13f
00000040: e6df cc40 a6dc 5d40 e470 a63f d22b a640
00000050: 7846 0340 56f9 9640 f12d 5640 034f 6e40
00000060: 93d6 9140 f106 293f dd16 0b40 6975 8240
00000070: 45e8 9d3f 4342 6340 686e 3f3f e0a9 9140
00000080: a3bf ad3f b3c1 a240 8599 d53f 07d7 2841
00000090: 4962 5940 ff17 c340 c59b 2a40 d7af 303e
000000a0: 9050 5340 d4ec 813f d59d 313f c9df 9b3f
000000b0: 0d5b 9a3f 2e1b 7d40 cde1 ec40 e2f8 f13f
000000c0: c58d 74b9 53d6 a53e 3232 33b9 8412 b7b8
000000d0: b651 133f f575 b539 2e17 de3e 59b6 ca3e
000000e0: 480d 073b c675 003f 46b6 763f eec3 a53e
000000f0: 44c4 1bb9 c955 063f 8c56 043f 8c51 173f
0.010008946 0.46068716 1.6490511 0.6041115 0.00072284974 0.0042897603 0.001184152 0.0007155214
1.2136123 0.00052202365 5.1097255 0.035207834 0.00012353498 1.7636328 0.002127991 1.7603579
6.4023314 3.4665923 1.3003201 5.192849 2.051176 4.7179365 3.346554 3.7235725
4.557443 0.66026217 2.1732705 4.0768323 1.2336508 3.5509193 0.7477784 4.5519867
1.3574108 5.086145 1.6687475 10.552497 3.3966238 6.096679 2.6657574 0.17254578
3.3017921 1.0150399 0.6938146 1.2177669 1.2059036 3.954784 7.4025636 1.8904078
-0.00023322467 0.3239008 -0.0001708947 -8.729569e-05 0.57546556 0.00034610895 0.4337706 0.39592245
0.0020607281 0.5017971 0.9637188 0.32376045 -0.00014855067 0.5247465 0.5169456 0.59108806

resnet_backbone/level_0/batch_normalization_7/FusedBatchNormV31 f4 [64]
00000000: b64f d7b3 ee74 b1b6 0e3b 8ebe d943 e3b6
00000010: cf6f eab1 66ce e4b2 aa25 28b2 dedb 39b2
00000020: 5923 74b7 9137 e8b1 5626 76b9 ca04 cab4
00000030: 60a9 78b0 c280 8bbe 3064 8db2 431f 2cbe
00000040: c888 a9b8 622c 54bf 1a91 5ebf d6c2 50bf
00000050: 4dad e7be 77b8 93bf 901e e9be 02a3 66bf
00000060: 5486 33bf e521 9dbf 6cca 71be b4db 88bf
00000070: 8dbd 75bf 1278 5dbf 0706 90bf 7dfa 62bf
00000080: 7e8e 07bf 7814 83b8 0b40 72bf cc83 50b9
00000090: bcab 12bf ed4c 74be 7fcb edb7 a5f4 f5b5
000000a0: 7ea9 0cb8 dc72 25b7 41e7 1ebf 3205 9bbf
000000b0: 394a 8cbf ce21 38b8 8e29 ebb8 0888 a9b7
000000c0: 5c8f 5231 2901 6dbe 6fe0 4131 65f1 3b30
000000d0: 318d 22bf cb6b a1b1 d133 06bf b89b 25be
000000e0: fb14 dbb2 d98b cabe 957f 4cbf 1782 2fbf
000000f0: d703 fc30 7721 bfbd bd84 55bf 841c a7be
-1.0026217e-07 -5.2886235e-06 -0.2777943 -6.7730257e-06 -6.8230075e-09 -2.6636553e-08 -9.787451e-09 -1.0818409e-08
-1.4551763e-05 -6.758406e-09 -0.0002347467 -3.7628917e-07 -9.046257e-10 -0.27246672 -1.646012e-08 -0.168088
-8.0840255e-05 -0.8288022 -0.8694016 -0.81547296 -0.45249406 -1.1540669 -0.4553113 -0.9009248
-0.70126843 -1.2275969 -0.23612374 -1.0692048 -0.95992357 -0.8651134 -1.1251839 -0.88663465
-0.529518 -6.2503794e-05 -0.9462897 -0.00019885524 -0.57293296 -0.2385747 -2.8347362e-05 -1.8325123e-06
-3.3536453e-05 -9.861509e-06 -0.62071615 -1.211096 -1.0960151 -4.39005e-05 -0.000112134134 -2.0209714e-05
3.0640512e-09 -0.23144974 2.8212772e-09 6.8373246e-10 -0.6349669 -4.6979713e-09 -0.52422816 -0.16172683
-2.5504496e-08 -0.3955982 -0.79882175 -0.68557876 1.8336505e-09 -0.09332555 -0.8340567 -0.32638943
