bfcnn/pretrained/resnet_color_1x5_non_shared_bn_16x3x3_128x128_skip_input/model.tflite (tflite, 63760 bytes, 52 tensors)

resnet_denoiser/level_0/batch_normalization/FusedBatchNormV3 f4 [16]
000000 79 92 e3 3e 31 1a 6a 3e 1c ef 97 3e 93 5f b9 be
       0.44447687 0.22861554 0.29674613 -0.3620573
000010 bd 55 91 3d f2 20 28 bd 5d f6 cd 3d e1 7c 89 3e
       0.070964314 -0.041047044 0.10056756 0.26853088
000020 0e b2 31 3e a9 94 7e 3e 48 54 f5 3e 4c 6b 09 3f
       0.17353079 0.24861397 0.47915864 0.5367935
000030 ec a4 a5 be 9b 65 01 3f 5d e6 11 3f cd 23 91 3e
       -0.32352388 0.5054566 0.5699213 0.28347626

resnet_denoiser/level_0/batch_normalization/FusedBatchNormV31 f4 [16]
000000 d6 b2 29 41 48 ae 0a 40 28 c2 b3 40 4e c5 21 41
       10.606161 2.1668873 5.6174507 10.11067
000010 f2 93 e9 40 5e 66 88 40 4a cb b0 41 37 e7 dd 41
       7.2993097 4.262496 22.099262 27.737898
000020 eb 2b 46 42 22 64 5a 40 ff 6b 5e 41 c0 ac 97 41
       49.54289 3.4123616 13.901366 18.95935
000030 42 dc 9b 41 15 ca 9b 41 65 5d 66 40 e2 9a 3a 42
       19.482548 19.473673 3.5994503 46.651253

resnet_denoiser/level_0/batch_normalization_1/FusedBatchNormV3 f4 [16]
000000 ea 67 f3 be e3 b8 6c bd da 84 8d be 09 ad 3c be
       -0.47540218 -0.05779351 -0.2764042 -0.18425383
000010 56 7d 09 be 09 f0 9d bd bf 72 1a bf e0 1f b8 bd
       -0.13426718 -0.07711799 -0.6033134 -0.08990455
000020 7f 67 56 bd ff 55 56 bd d2 af ba bc 21 ae 94 be
       -0.052344795 -0.052328106 -0.022788916 -0.290391
000030 55 5c 16 bd 0f 12 a9 bd cd 96 0c bd 31 b6 83 be
       -0.03670915 -0.082553975 -0.034323502 -0.2572494

resnet_denoiser/level_0/batch_normalization_1/FusedBatchNormV31 f4 [16]
000000 3a 98 c4 3f f7 8f 80 41 6e a1 49 40 e4 49 a8 3f
       1.5358956 16.070295 3.150478 1.314755
000010 d2 6d 3d 41 16 e9 91 41 20 ba e8 3f 90 0c 5e 40
       11.839312 18.238811 1.8181801 3.4695168
000020 10 36 1c 41 9f 49 fb 41 32 02 04 42 7d e4 cd 3f
       9.763199 31.410948 33.002144 1.6085354
000030 09 c8 78 41 9c 29 3c 41 00 93 7d 41 ae 55 5b 40
       15.548837 11.760159 15.848389 3.4271045

resnet_denoiser/level_0/batch_normalization_10/FusedBatchNormV3 f4 [16]
000000 00 00 00 00 07 31 4a bd 95 95 ee be ab b0 8a bd
       0.0 -0.049363162 -0.46598497 -0.06771978
000010 73 a1 93 be 18 ae eb bd 29 b8 36 be 00 00 00 00
       -0.28834113 -0.11507815 -0.17843689 0.0
000020 04 96 2f bd 91 8b 5c be 36 34 d1 bd 7b 30 e6 bd
       -0.042867675 -0.21537615 -0.102150366 -0.11239716
000030 00 00 00 00 06 1f b4 bd bc 29 83 bd 79 33 93 bd
       0.0 -0.0879498 -0.064044446 -0.07187552

resnet_denoiser/level_0/batch_normalization_10/FusedBatchNormV31 f4 [16]
000000 35 5d ae bd 3a ec bb 41 f4 00 86 40 49 ee 8a 41
       -0.085138716 23.490345 4.1876163 17.36635
000010 29 86 03 41 5e 94 92 41 ac e7 32 41 12 35 65 bb
       8.220254 18.322445 11.1815605 -0.003497426
000020 dd 58 97 41 d5 7d 0b 41 d1 ab 8c 41 1d 1a a0 41
       18.91839 8.718221 17.583895 20.01275
000030 b2 c8 0c bd 84 69 9b 41 ed e3 7c 41 df ea 8f 41
       -0.034371085 19.426521 15.805646 17.989683

resnet_denoiser/level_0/batch_normalization_11/FusedBatchNormV3 f4 [32]
000000 af cd db bd ad 7c c2 bd cf 9b fc bd 14 ad 1b be
       -0.107325904 -0.09496436 -0.12334406 -0.15202743
000010 2e ac 92 bd 46 17 6a bd 16 4f ad bd f3 2c 2e be
       -0.07161747 -0.0571511 -0.0846235 -0.17009334
000020 39 e9 55 be 83 1d 61 bd 03 11 b3 bd a2 b3 94 bd
       -0.20889749 -0.054959785 -0.08743479 -0.07260825
000030 38 82 19 bd f7 a5 41 bd cc 5e 29 be b4 7c 1d be
       -0.037477702 -0.047277417 -0.16540068 -0.15379602
000040 4f f2 5f be 62 21 0a be 95 f6 7b be 81 98 fd bd
       -0.21869777 -0.13489297 -0.24605782 -0.123826034
000050 9f 94 7f be 60 61 09 be ef 11 90 bd be cf 68 be
       -0.24959038 -0.13416052 -0.070346706 -0.22735497
000060 ea 75 1f be a2 a1 a0 be d3 6c 4b be 5e 17 6f be
       -0.15572324 -0.31373316 -0.19865732 -0.23348758
000070 00 00 00 00 30 82 0d be a8 a3 e3 bd 3d 15 08 be
       0.0 -0.13819194 -0.11115199 -0.13289352

resnet_denoiser/level_0/batch_normalization_11/FusedBatchNormV31 f4 [32]
000000 8e f0 db 3f 7a 1b ef 3f f1 d1 ae 3f ab 8d 11 40
       1.7182786 1.868026 1.3657819 2.2742717
000010 28 e3 6e 3f 43 d3 d0 40 c2 b8 86 40 35 1d 22 40
       0.9331536 6.525789 4.2100534 2.5330327
000020 9f 76 f4 3f 4e 27 07 40 c5 aa 0f 40 32 0e d6 40
       1.90987 2.111774 2.244798 6.689233
000030 10 e6 82 40 7d bb ab 3f 6f c7 2f 40 7a f1 b2 3f
       4.090584 1.3416592 2.7465475 1.3979943
000040 3b 6b b6 3f 17 4a 2c 40 58 6f 25 40 c6 5c 3f 40
       1.4251474 2.692022 2.584921 2.9900374
000050 e9 44 d1 3f 7c 23 1e 40 79 5f 3c 40 f4 ec 91 40
       1.6349155 2.4709158 2.9433272 4.560175
000060 c0 f3 9d 40 03 7f 27 40 a5 f0 c0 3f f6 4a 96 3f
       4.9360046 2.6171272 1.5073439 1.1741626
000070 64 04 9e bd 9c a8 37 40 3f 61 23 40 eb 8e cf 40
       -0.07715681 2.869666 2.5528104 6.486196

resnet_denoiser/level_0/batch_normalization_12/FusedBatchNormV3 f4 [16]
000000 d0 74 3a 3d 2c 41 27 3e a5 df f5 3c 87 15 a9 bc
       0.045521557 0.16333455 0.030013869 -0.020640148
000010 ae b2 7b 3c a9 f5 61 bc 9a 04 bf 3b dc 83 ae 3b
       0.015362425 -0.01379148 0.005829406 0.0053257775
000020 5b 15 ab 3a db 09 e6 3d 22 ec a0 3c 3b 6a a1 3c
       0.0013052629 0.112323485 0.019643847 0.019703975
000030 c0 3a e8 bb 3a 92 92 3c 2e 6e 4c 3d eb b4 81 3b
       -0.0070870817 0.017891992 0.049909763 0.0039583347

resnet_denoiser/level_0/batch_normalization_12/FusedBatchNormV31 f4 [16]
000000 f1 09 8b 3f 45 29 c6 3f 68 73 11 3f 35 8e 13 3f
       1.0862409 1.5481344 0.5681672 0.57638866
000010 b9 42 ca 3f 2f 51 b7 3f 53 f7 a3 3f 13 d5 0c 3f
       1.5801612 1.432165 1.2809852 0.55012625
000020 29 cc be 3e 73 56 c5 3f 7b e5 11 3f f1 28 32 3f
       0.37265137 1.5417007 0.56990784 0.6959372
000030 43 83 da 3e 79 77 30 3f da 63 a1 3e 44 c3 26 3f
       0.4267827 0.689323 0.31521493 0.651417

resnet_denoiser/level_0/batch_normalization_13/FusedBatchNormV3 f4 [16]
000000 3f 45 d9 bb 7b 04 f5 bb e5 a2 5a bb a0 b1 45 ba
       -0.006630569 -0.0074773408 -0.0033361253 -0.0007541422
000010 00 00 00 00 20 2c ae bc cb 05 ec bd 79 4f 85 bc
       0.0 -0.021261275 -0.115245424 -0.016273247
000020 00 00 00 00 85 5a bb bc 65 b4 ff bc c4 c1 05 bc
       0.0 -0.022870312 -0.031213949 -0.008163873
000030 00 00 00 00 25 2a a3 bc 98 5a f1 bc 6f 67 02 bd
       0.0 -0.019917557 -0.029462144 -0.031836923

resnet_denoiser/level_0/batch_normalization_13/FusedBatchNormV31 f4 [16]
000000 e9 ff 27 42 9f 8f 71 41 fa 45 5a 42 65 92 31 42
       41.999912 15.097564 54.568336 44.392963
000010 91 2b cb 3d 0c 1b 5d 41 71 b5 9d 3f 51 f9 9a 41
       0.09920419 13.819103 1.2320997 19.371737
000020 14 23 c1 bb 81 86 ff 40 4f d5 dc 40 a7 77 43 41
       -0.005894074 7.985169 6.9010386 12.216712
000030 03 98 c7 bd 98 5d 1a 41 7b c2 92 40 63 64 07 41
       -0.09745791 9.64785 4.5862403 8.462008

resnet_denoiser/level_0/batch_normalization_14/FusedBatchNormV3 f4 [32]
000000 aa 1c e7 bc 46 52 65 bc bc 0b 07 bb 00 00 00 00
       -0.02821191 -0.013996666 -0.002060636 0.0
000010 4c 08 36 bc f2 73 05 bd 64 8a 35 bc 00 00 00 00
       -0.011110377 -0.032581277 -0.011080358 0.0
000020 3a 48 7e bc 00 00 00 00 ba 83 45 bc 00 00 00 00
       -0.01552015 0.0 -0.012055332 0.0
000030 00 00 00 00 12 0f a5 bc 87 ab 91 bc 9b 05 2a bc
       0.0 -0.020148788 -0.017781986 -0.010377313
000040 00 00 00 00 60 43 c5 bb 03 30 c7 bd ae 8f 7b bc
       0.0 -0.0060199946 -0.097259544 -0.01535408
000050 de 5f e4 bd 00 00 00 00 8f 2a fc bb 00 00 00 00
       -0.11151098 0.0 -0.007695503 0.0
000060 00 00 00 00 00 00 00 00 a5 dc 7d bc 00 00 00 00
       0.0 0.0 -0.0154945 0.0
000070 63 b9 45 bc 00 00 00 00 00 00 00 00 fd 6a 18 bd
       -0.012068125 0.0 0.0 -0.037211407

resnet_denoiser/level_0/batch_normalization_14/FusedBatchNormV31 f4 [32]
000000 5b 0d a7 40 14 64 03 40 81 1f 24 42 09 6f c9 3d
       5.2203803 2.0529833 41.030766 0.098356314
000010 b9 16 8c 41 dc 76 17 41 c1 8e ca 3f 70 57 35 bd
       17.511095 9.466518 1.5824815 -0.04427284
000020 2c e8 8b 41 e8 3c 4f 3e e6 fe 38 40 55 72 72 bd
       17.488365 0.20238078 2.8905578 -0.059191067
000030 01 2f 04 3e fa 4a 02 41 ca 6f b8 3f 5a 7c d0 40
       0.12908556 8.143305 1.4409115 6.5151796
000040 80 fc 4c 3d e3 d3 bf 40 ff e6 fd 3f 4a c4 cd 41
       0.05004549 5.994615 1.983612 25.720844
000050 44 fa c9 3f 81 a0 fd 3d 66 b5 5b 42 4b 14 e3 3d
       1.57795 0.12384129 54.927147 0.11087855
000060 7d 02 ce 3d c0 df b3 3a fc 47 a8 41 25 9d d2 bd
       0.10059068 0.0013723299 21.035149 -0.10283879
000070 0e 57 21 41 6f 43 a9 3d ee 86 cb bb 17 1a 98 40
       10.083754 0.08264815 -0.006211153 4.753185

resnet_denoiser/level_0/batch_normalization_15/FusedBatchNormV3 f4 [16]
000000 54 6d 49 3c cd 5c 02 3d 8a 38 8f 3c 05 85 47 bc
       0.012294132 0.031826783 0.017483015 -0.01217771
000010 f2 61 bb 3b d6 c8 16 bb ca 95 04 3b ab 2e a5 3b
       0.005718463 -0.002300789 0.0020230883 0.0050409636
000020 e2 42 65 3a 33 aa 4b 3c ac 92 86 3c 60 15 5e 3c
       0.0008745623 0.012430715 0.01642736 0.013554901
000030 aa e9 ab bb 9c f4 35 3c 8d 91 44 3d e2 76 27 3b
       -0.005246361 0.011105683 0.04799037 0.0025553037

resnet_denoiser/level_0/batch_normalization_15/FusedBatchNormV31 f4 [16]
000000 d0 33 96 3e b1 73 9a 3e 18 73 a9 3e a4 1d ae 3e
       0.29336405 0.3016639 0.33095622 0.3400699
000010 eb 93 16 3f 62 a8 74 3e f1 9d e3 3e 04 4d 05 3f
       0.58819455 0.23892358 0.44456437 0.5207064
000020 e9 ad 7f 3e 91 b6 2e 3e bf 03 f4 3e 43 1f f5 3e
       0.24968685 0.17061831 0.47659108 0.47875413
000030 37 c2 a1 3e 74 11 db 3e f4 2e 9b 3e b7 4e d7 3e
       0.31593487 0.42786753 0.3030926 0.42052242

resnet_denoiser/level_0/batch_normalization_2/FusedBatchNormV3 f4 [32]
000000 4f 25 74 bd 4e 30 fd bc f2 9e 02 bc d0 fe 93 be
       -0.059605893 -0.030906823 -0.007972466 -0.28905344
000010 50 0e 34 bd a7 63 b6 bc 7c b6 9f bd 47 66 b9 bd
       -0.043958962 -0.022264315 -0.07798478 -0.09052711
000020 10 4f 3d be 79 ce 87 bc d4 5a 3e bd 84 88 d6 bd
       -0.18487191 -0.016577946 -0.04647334 -0.10475257
000030 f3 c7 c5 bd 75 05 77 bd e8 e3 bc bb ad f3 90 bd
       -0.09657278 -0.06030794 -0.005764473 -0.070777275
000040 70 cc 1a bd 35 7a 8c bd 62 c5 ac bd 9a 52 41 bd
       -0.037792623 -0.06859247 -0.08436085 -0.047197916
000050 f1 c4 cc bc 62 bc 88 be 68 b7 9c bd 8e 0a 75 bd
       -0.024996253 -0.26706225 -0.076521695 -0.05982452
000060 44 1f e8 bd 35 84 05 bd 3c cb 3e be 4c 25 37 bd
       -0.113340884 -0.032596786 -0.18632215 -0.044713303
000070 93 42 48 bd 0c ab 23 be 4c 2c 74 bd 09 e5 23 bd
       -0.048891615 -0.15983218 -0.059612557 -0.040013347

resnet_denoiser/level_0/batch_normalization_2/FusedBatchNormV31 f4 [32]
000000 3e 85 5e 40 13 43 61 40 f4 ae e2 3f 04 d3 58 3f
       3.4768825 3.519719 1.7709641 0.84696984
000010 af c6 93 40 e0 62 56 40 0c 99 61 3f e2 6b 09 40
       4.6180034 3.3497849 0.88124156 2.1472096
000020 69 31 80 3f 11 5a 0d 40 23 db 27 40 1f 41 97 3f
       1.0015079 2.2086222 2.62275 1.1816748
000030 6d af e8 3f dd 33 b0 3f 2c 4f 98 40 83 51 53 40
       1.8178536 1.3765827 4.7596645 3.30185
000040 3f 2c 20 40 7a 8f fb 3f 1f f5 05 40 e8 f8 75 40
       2.5027006 1.965316 2.093086 3.843317
000050 1b fa aa 40 46 92 63 3f 9a 58 e6 3f 35 f6 10 40
       5.3430305 0.8889507 1.7995789 2.2650273
000060 06 40 a0 3f 16 a2 7f 40 8e 6b 1d 40 26 f0 22 40
       1.2519538 3.994268 2.4596896 2.5459075
000070 cf 77 97 3f 9d e2 ef 3f b9 53 42 40 c3 4e 10 40
       1.1833438 1.8741032 3.03636 2.2548072

resnet_denoiser/level_0/batch_normalization_3/FusedBatchNormV3 f4 [16]
000000 2f 99 f9 3e 28 9c 27 3f 62 cc 30 3f 93 87 c4 be
       0.48749682 0.6547265 0.69061863 -0.38384685
000010 13 4a 35 3e d2 72 58 bd 0f ec 3a 3d ad 75 df 3d
       0.17704038 -0.052843876 0.04563528 0.10911117
000020 67 32 07 3e f1 60 e9 3e e9 5b 6d 3e db 2f 84 3e
       0.1320282 0.45581773 0.23179592 0.2581776
000030 f8 20 cc be e0 49 a7 3e 37 09 9b 3f 8c c0 65 3d
       -0.39868903 0.3267355 1.2112187 0.05609183

resnet_denoiser/level_0/batch_normalization_3/FusedBatchNormV31 f4 [16]
000000 93 1f 3a 41 10 95 c6 40 22 2d 51 41 aa 81 2b 41
       11.632709 6.205696 13.073519 10.719156
000010 6f ae 91 41 d5 99 af 40 48 73 20 41 8a 54 34 41
       18.210173 5.4875283 10.028145 11.270639
000020 98 c6 16 42 fc 33 c8 40 24 32 d7 40 5b e6 11 41
       37.69394 6.2563457 6.7248707 9.118739
000030 65 12 c0 41 df 68 49 41 43 ca f4 40 f4 b1 13 41
       24.008982 12.588103 7.64969 9.230946

resnet_denoiser/level_0/batch_normalization_4/FusedBatchNormV3 f4 [16]
000000 d9 37 bd be 24 84 80 be 92 61 7d bd d5 57 a7 be
       -0.3695667 -0.25100815 -0.06186063 -0.32684198
000010 4e 99 c1 bd 10 7a 09 be 74 59 25 be e0 40 74 be
       -0.09453069 -0.1342547 -0.16147405 -0.23852873
000020 5a df a1 bd f2 f9 5b be 81 f7 0c bd 2e a3 13 bf
       -0.07903929 -0.21482065 -0.034415726 -0.5767087
000030 2d 09 77 bd ea 66 d8 bd 9d f3 70 be 50 72 a2 be
       -0.060311485 -0.10566504 -0.23530431 -0.3172784

resnet_denoiser/level_0/batch_normalization_4/FusedBatchNormV31 f4 [16]
000000 34 bc 46 40 4e 60 cd 40 10 60 42 41 d7 81 58 40
       3.105237 6.418006 12.148453 3.3829248
000010 5b 43 c7 40 4f 08 b7 40 25 20 98 40 46 5b 98 40
       6.226972 5.719764 4.753924 4.761142
000020 47 2a 5f 40 07 2b 55 40 8c 27 33 41 d0 f1 4f 40
       3.4869554 3.3307512 11.197155 3.249134
000030 64 ad 80 41 9c dd 17 41 85 70 23 40 bd a6 ae 40
       16.084663 9.491604 2.5537426 5.457854

resnet_denoiser/level_0/batch_normalization_5/FusedBatchNormV3 f4 [32]
000000 6d 46 38 be f2 55 c2 bb b7 08 37 bd dd 1d 7b be
       -0.17995615 -0.0059306556 -0.044686045 -0.2452311
000010 d7 73 d7 bd cc 00 a6 bd 4d c5 ae bd f3 f8 02 be
       -0.105201416 -0.08105621 -0.08533726 -0.12790279
000020 54 4e 1b bd bb 2e 51 bc 94 5d 59 bd 5b 7b 5c bd
       -0.037916496 -0.012767489 -0.05306776 -0.05382858
000030 91 de a4 bd cc 01 b3 bd c7 72 b9 bd 3f 92 ef bc
       -0.08050264 -0.08740577 -0.09055095 -0.02924454
000040 89 97 28 bd 13 41 aa bd 94 01 b3 bc c5 a2 a3 bd
       -0.04116014 -0.08313193 -0.021851338 -0.0799003
000050 89 28 d0 bd 94 2e 8a be 51 d0 64 be b1 df 61 be
       -0.101639815 -0.2698866 -0.22345091 -0.22057988
000060 b4 72 40 bd a3 b4 87 bd 3a 78 6a be 57 e9 da bd
       -0.04698439 -0.066262506 -0.22897425 -0.10689037
000070 6e c2 0e be 22 f4 63 be 95 8e f9 bc eb 41 4d be
       -0.13941357 -0.22261098 -0.030463496 -0.20044677

resnet_denoiser/level_0/batch_normalization_5/FusedBatchNormV31 f4 [32]
000000 46 72 0e 40 26 70 94 40 2d 84 d5 3f 3e cf e8 3f
       2.2257247 4.63869 1.6680962 1.8188245
000010 42 29 a8 3f d4 a7 b8 3f 09 2f 27 40 ec 0f 09 40
       1.3137591 1.4426217 2.6122458 2.1415968
000020 12 7e 08 40 3b 5b 63 40 f2 04 b3 40 53 a4 1a 40
       2.1326947 3.5524433 5.5943537 2.4162796
000030 2e e5 fb 3f 94 ac 0f 40 03 15 18 40 7b 72 0f 40
       1.9679315 2.2449083 2.3762825 2.2413623
000040 5f 85 15 41 60 57 cf 3f 5a f7 98 40 90 08 95 40
       9.345061 1.619854 4.7801943 4.657295
000050 11 7d 47 40 7e 31 2f 40 42 16 05 40 c8 4f 0f 40
       3.1170084 2.7373958 2.0794835 2.2392445
000060 53 b0 bc 40 98 35 dc 3f 39 db ac 3f 58 b3 8d 40
       5.896524 1.7203856 1.3504401 4.4281425
000070 8e 9e 03 40 53 39 1f 40 84 b9 98 40 1b 72 f0 3f
       2.0565524 2.4878738 4.772646 1.8784822

resnet_denoiser/level_0/batch_normalization_6/FusedBatchNormV3 f4 [16]
000000 7d 0f 72 3e 00 1d 0a 3f de 46 3a 3e 09 9b 33 be
       0.23638721 0.539505 0.18191096 -0.1753961
000010 88 b3 8b 3d 31 d4 0f bd 46 c7 72 3c b7 df 89 3d
       0.06821352 -0.03511447 0.014818018 0.06732123
000020 c8 38 20 3d f4 25 5d 3e 40 99 dd 3d 3a 78 dd 3d
       0.03911665 0.21596509 0.10820246 0.10813947
000030 e0 b6 11 be 12 30 b8 3d 59 22 4b 3f a4 3e 1f 3d
       -0.14229918 0.08993544 0.79349285 0.038878098

resnet_denoiser/level_0/batch_normalization_6/FusedBatchNormV31 f4 [16]
000000 9e 80 b4 40 8b a2 a3 40 fe 63 5c 40 c4 bc 9c 40
       5.6407003 5.1135917 3.443603 4.8980427
000010 17 86 e0 40 2a 5f 69 40 73 65 50 40 bd 86 de 40
       7.0163684 3.6464334 3.256192 6.9539475
000020 33 af 32 41 13 b6 3d 40 37 e8 48 40 d1 71 74 40
       11.167773 2.964238 3.1391733 3.8194468
000030 92 1b 09 41 78 c1 5d 40 e1 5d a0 40 4b bd cc 40
       8.569231 3.4649334 5.01146 6.398107

resnet_denoiser/level_0/batch_normalization_7/FusedBatchNormV3 f4 [16]
000000 05 a3 cc bd 31 23 a3 bd a2 3e 33 be 68 06 a9 bc
       -0.09992031 -0.079656966 -0.17504361 -0.020632938
000010 42 e9 1e bd 1c c6 e7 bd 91 52 54 bd ce 8e b0 bd
       -0.03879667 -0.11317083 -0.051836554 -0.08620988
000020 da e0 32 bd 7b 0c 5d be 52 ad 1b bd 20 43 80 bd
       -0.043671466 -0.21586792 -0.038007088 -0.06262803
000030 20 6a b2 bd 76 0f 32 bd da e4 44 be af 7a 1b be
       -0.08711648 -0.043471776 -0.19227925 -0.15183519

resnet_denoiser/level_0/batch_normalization_7/FusedBatchNormV31 f4 [16]
000000 b4 0c 80 41 ab 4f 98 41 7f 1e 3d 41 1b 63 04 42
       16.006203 19.0389 11.819945 33.096783
000010 13 a0 cd 41 b3 bd 96 41 83 38 a4 41 b3 9b 57 41
       25.703161 18.842627 20.527594 13.4755125
000020 a7 9d 9f 41 fe df 90 40 8b fb 3a 42 f0 f0 b2 41
       19.951979 4.527343 46.745647 22.367645
000030 c2 da 41 41 49 a5 b4 41 4f 5f b7 40 39 00 3f 41
       12.115908 22.580706 5.7303843 11.937554

resnet_denoiser/level_0/batch_normalization_8/FusedBatchNormV3 f4 [32]
000000 98 cf e5 bd 86 02 d9 bc 0a c4 ef bd 32 f5 7e bd
       -0.11221236 -0.026490461 -0.11707313 -0.062245555
000010 3b 41 0e bd b7 66 37 bd 71 87 9c bd ca 8c 2a be
       -0.034730177 -0.04477569 -0.07643021 -0.1665527
000020 1f 6e 0a be 02 6f 39 be dc 16 a0 bd 98 f2 b9 bd
       -0.1351857 -0.18108752 -0.0781686 -0.09079474
000030 23 a5 a8 bd b5 62 e7 bd 7e 45 49 bd 76 72 7a bd
       -0.08234622 -0.11298124 -0.04913854 -0.061144315
000040 4a 4c 25 bd 39 53 13 be 2c a3 40 be b5 ee 47 be
       -0.040355958 -0.14387216 -0.18812245 -0.19524653
000050 9c ce a5 bd d3 af 35 bd 7a 8b cb bd 77 4f 3d be
       -0.08096048 -0.044357132 -0.099387124 -0.18487345
000060 e5 23 01 be 5a 1f 50 bd 36 03 23 be fe af f1 bd
       -0.12611349 -0.05081115 -0.15919194 -0.11801146
000070 7d cf 9c bd a6 0d d7 bd a9 d4 c3 bc 92 9d b6 bd
       -0.07656763 -0.1050065 -0.023905115 -0.08916773

resnet_denoiser/level_0/batch_normalization_8/FusedBatchNormV31 f4 [32]
000000 4d e5 ba 3f e1 0c 17 40 db 88 75 3f 8a 23 54 40
       1.4601227 2.360161 0.9591195 3.3146691
000010 ea 4e 14 40 51 3f 18 40 46 01 44 40 ac 1a b3 3f
       2.3173165 2.3788645 3.0625777 1.3992515
000020 2b fb 97 3f c7 b7 05 40 ce d9 69 3f 89 81 f8 3f
       1.1873525 2.0893419 0.9134797 1.9414531
000030 e2 d8 0a 40 b9 c6 c6 3f 60 6c f9 40 49 6c 8d 40
       2.1694875 1.5529395 7.7944794 4.4194684
000040 36 92 9b 40 76 6d 87 3f a4 ed d8 3f e4 df 6c 40
       4.861598 1.058028 1.6947522 3.7011652
000050 77 a3 c0 40 8b d5 ee 40 63 8f de 3f e5 bb eb 3f
       6.019954 7.4635673 1.7387508 1.8416716
000060 87 8a 01 40 0b 70 1e 41 ba dc 04 40 ac 47 92 3f
       2.02408 9.902354 2.075972 1.1428123
000070 9b 6d 3d 40 a0 15 cf 3f 43 a1 a2 40 2a 08 3f 40
       2.9598148 1.6178474 5.0821853 2.9848733

resnet_denoiser/level_0/batch_normalization_9/FusedBatchNormV3 f4 [16]
000000 3b af 04 3e 72 18 26 3f bc f5 46 3e b4 42 1f be
       0.1295747 0.6488105 0.19429678 -0.15552789
000010 44 ea 3e 3d 55 4c 09 bd e4 fa 80 3c 47 62 a5 3d
       0.04661013 -0.03352006 0.015744634 0.080753855
000020 2b fa 63 3c 3f 6f 14 3e bf e7 af 3d b3 fa 01 3e
       0.013914625 0.14495562 0.08589124 0.1269329
000030 49 14 02 be 0a ee 6e 3d 0b 64 50 3e bc 00 a8 3c
       -0.1270305 0.05833248 0.20350663 0.020508163

resnet_denoiser/level_0/batch_normalization_9/FusedBatchNormV31 f4 [16]
000000 22 e2 45 40 b5 c9 c4 40 77 65 6b 40 95 fb 8a 40
       3.091927 6.1496224 3.678068 4.3432107
000010 a3 6a 99 40 78 c6 5e 40 8e 6d 5d 40 a8 76 05 41
       4.794267 3.4808636 3.4598117 8.341469
000020 53 3f 7e 40 09 ab fe 3f f4 7a 1f 40 92 76 8f 40
       3.972615 1.9895946 2.4918795 4.483224
000030 c8 ca f4 40 e6 d4 0f 40 41 84 a4 3f f2 ff 57 40
       7.6497536 2.2473693 1.2852861 3.3749967

resnet_denoiser/level_0/conv2d/Conv2D i1 [16, 5, 5, 3]
000000 00 00 00 00 00 00 00 00 fe 00 00 00 00 00 00 00
       0 0 0 0 0 0 0 0 -2 0 0 0 0 0 0 0
000010 00 00 00 00 00 01 fe 00 02 fe 00 02 ff 00 00 ff
       0 0 0 0 0 1 -2 0 2 -2 0 2 -1 0 0 -1
000020 fa 00 00 ff 9f 7f fc 07 00 00 04 00 fe 00 00 00
       -6 0 0 -1 -97 127 -4 7 0 0 4 0 -2 0 0 0
000030 05 00 00 00 ff 00 04 fc 00 02 00 00 00 00 00 01
       5 0 0 0 -1 0 4 -4 0 2 0 0 0 0 0 1
000040 00 00 00 00 ff 01 00 ff 01 00 00 00 00 00 fb 00
       0 0 0 0 -1 1 0 -1 1 0 0 0 0 0 -5 0
000050 00 f6 ff 00 fe 00 02 00 00 00 fc 00 00 fe 00 03
       0 -10 -1 0 -2 0 2 0 0 0 -4 0 0 -2 0 3
000060 ed f6 00 00 00 00 00 00 00 f4 00 00 f0 00 00 7f
       -19 -10 0 0 0 0 0 0 0 -12 0 0 -16 0 0 127
000070 60 ce f1 00 00 fd 00 00 00 00 02 fe 00 05 f2 00
       96 -50 -15 0 0 -3 0 0 0 0 2 -2 0 5 -14 0
000080 00 00 00 00 00 00 00 ff 00 00 00 00 00 fb 00 00
       0 0 0 0 0 0 0 -1 0 0 0 0 0 -5 0 0
000090 00 00 00 00 00 00 00 00 00 fe 00 00 ff 00 fe ff
       0 0 0 0 0 0 0 0 0 -2 0 0 -1 0 -2 -1
0000a0 00 ff 00 00 00 00 fe 00 00 00 00 00 00 f8 00 00
       0 -1 0 0 0 0 -2 0 0 0 0 0 0 -8 0 0
0000b0 f9 00 00 fa ff fd 00 00 fa fc f2 23 7f 00 00 e7
       -7 0 0 -6 -1 -3 0 0 -6 -4 -14 35 127 0 0 -25
0000c0 00 fe f5 00 ff 00 00 fe fe 04 fb f2 00 00 fa 00
       0 -2 -11 0 -1 0 0 -2 -2 4 -5 -14 0 0 -6 0
0000d0 00 fb 00 ff 00 01 00 ff 07 00 fc 00 ff fe 02 00
       0 -5 0 -1 0 1 0 -1 7 0 -4 0 -1 -2 2 0
0000e0 fe 02 ff fe 04 ff ff 04 fd 00 03 fd 00 01 ff 00
       -2 2 -1 -2 4 -1 -1 4 -3 0 3 -3 0 1 -1 0
0000f0 04 00 ff 09 00 00 0e fe ff 04 fc fe 01 ff 00 09
       4 0 -1 9 0 0 14 -2 -1 4 -4 -2 1 -1 0 9

resnet_denoiser/level_0/conv2d_1/Conv2D f4 [16, 1, 1, 16]
000000 d1 a2 3d 3e b0 79 4c b8 da 10 7d b8 61 4e b7 be
       0.18519141 -4.875072e-05 -6.0335595e-05 -0.35801986
000010 51 61 cb b7 e6 86 3c be bb 5e 1c 3f f6 c5 c1 be
       -2.4244802e-05 -0.18410835 0.6108205 -0.37846345
000020 ca 34 22 b9 57 21 8a b8 4a 54 72 be d6 84 b4 b8
       -0.0001546919 -6.586563e-05 -0.23664966 -8.6078115e-05
000030 fe 32 49 38 a7 a9 c9 b7 90 4e 9a b8 3e 81 07 be
       4.7969625e-05 -2.4040068e-05 -7.357926e-05 -0.13232896
000040 21 22 15 bd 70 98 18 b5 9e 6f 3a 37 f2 ac 01 3e
       -0.0364095 -5.684624e-07 1.1112452e-05 0.1266363
000050 0a 22 9e bd c8 c5 19 b9 18 49 79 3a cc f4 3d bd
       -0.07721336 -0.00014664896 0.0009509488 -0.046376035
000060 98 96 2a bd 78 99 55 38 bc 8b a6 bc af bb f3 3c
       -0.041647524 5.0926086e-05 -0.020330302 0.02975258
000070 ec 58 3e 3e f6 29 20 3e 16 fe dc 3d e0 db 85 ba
       0.18588609 0.15641007 0.107906505 -0.0010212623
000080 e2 d7 ab bc 89 73 8a 38 08 0e 0b be d0 19 c9 3c
       -0.020976964 6.601873e-05 -0.13579571 0.024548441
000090 bc bb 80 3d 27 ad 48 3a 99 c3 e6 bc 26 e4 97 ba
       0.062858075 0.0007655196 -0.02816944 -0.0011588379
0000a0 11 62 3a b9 d6 a5 c0 b7 15 3f be bd 5c 2e 20 be
       -0.00017774875 -2.2965407e-05 -0.09289376 -0.15642685
0000b0 8b 06 33 3b 06 76 d1 bd 47 92 f0 bd 27 8d 45 bc
       0.0027317132 -0.10227589 -0.1174665 -0.012057579
0000c0 8e fd 46 3a 38 e7 c1 38 ce f2 83 3e ef 85 b4 bd
       0.0007590883 9.246025e-05 0.25771183 -0.08814608
0000d0 58 94 10 39 2c 9b 74 bc f7 4b 84 3c f3 c1 e6 3b
       0.00013788173 -0.014929574 0.016149504 0.0070421635
0000e0 00 16 86 34 14 19 2c 38 e4 0a a3 3d f8 8d 9a 3e
       2.4975452e-07 4.103135e-05 0.079610616 0.3018644
0000f0 11 65 0a 38 77 c2 a2 3e 6c f0 c8 3d c9 e3 98 3b
       3.299589e-05 0.3178899 0.09811482 0.004665826
000100 d1 99 c8 3b 2a 33 a2 b7 8d 4d 1c 3e bc cf 1b 3e
       0.006121852 -1.933573e-05 0.15263958 0.15215963
000110 09 f8 94 b9 96 bd e0 bd 24 c4 c1 3d d6 f3 7d bc
       -0.0002841356 -0.10973661 0.09461239 -0.01550003
000120 2c b2 6e 39 c7 83 ee b8 b8 02 9c 3d 60 3c bb b8
       0.00022763823 -0.0001137327 0.07617706 -8.9281006e-05
000130 c7 70 8f 38 6a 0d f7 bc cd e7 3f bd 94 9d 71 bc
       6.839778e-05 -0.030157764 -0.04685192 -0.014747042
000140 e4 c5 2c b8 8e 36 0e be 7c 57 d6 bd d3 33 06 3d
       -4.1192296e-05 -0.13887998 -0.10465905 0.032764267
000150 66 bb 83 be 75 f8 94 bd de dc 7a 3c 55 e5 99 b8
       -0.2572891 -0.07273952 0.015311448 -7.338325e-05
000160 65 66 76 3d 44 b0 93 bc af ae cd ba 23 c5 3b 3d
       0.060156245 -0.018028386 -0.0015692319 0.0458423
000170 3a 8e 59 be 96 5f 8f 3d b4 ca ac bd 49 09 3d 3d
       -0.21245661 0.070006534 -0.084371 0.046151433
000180 b8 88 7b bd c6 87 0a b9 4f 0d 3f b9 b7 08 ec 3e
       -0.061409682 -0.00013211285 -0.00018220137 0.461004
000190 42 05 de b7 a2 2f f8 3e 01 e5 19 bf c6 6c a3 3e
       -2.646691e-05 0.4847384 -0.6011506 0.31918925
0001a0 dd 1e e4 b8 28 34 25 b9 63 8b a5 3e 23 f9 ac b8
       -0.00010877636 -0.00015755056 0.32332906 -8.2480045e-05
0001b0 4b 3f ee 38 0d 56 cb b8 4b e4 83 b9 56 0d 5b 3e
       0.000113605136 -9.6958225e-05 -0.0002515636 0.21391806
0001c0 83 46 3f bc 43 f9 d6 b8 2d 4f f2 b9 13 9b 8a be
       -0.011674526 -0.00010250744 -0.00046216827 -0.27071437
0001d0 1f 4e 2d 37 8f 0f 99 39 61 1f 84 bd b1 4b 57 3d
       1.03297925e-05 0.00029194026 -0.064512976 0.05256242
0001e0 62 73 09 bd 4f 86 7b b9 9f 68 c2 bd 98 4d 63 3c
       -0.033557303 -0.00023987259 -0.09492611 0.01387348
0001f0 1b 68 4c 3d 34 f7 67 b8 73 0d 93 b9 b6 66 46 3d
       0.04990397 -5.5304918e-05 -0.00028048045 0.048437797
000200 38 41 63 3b 8f 70 f7 3d 34 b3 6a b9 0e 1b 2a b9
       0.0034676325 0.12082016 -0.00022382737 -0.00016222542
000210 1b ca f8 3d 3b bd 4b bd 0b b2 c7 bc 8e e1 55 bd
       0.121479236 -0.04974101 -0.02437689 -0.05221706
000220 30 cc ff 38 92 3c ce bc f1 f5 af 3c 25 21 ae 3d
       0.000121973804 -0.025175367 0.021479579 0.085024156
000230 ca 77 18 3d 4f b2 af 3c e8 65 06 be e2 09 30 3d
       0.037223615 0.021447329 -0.13124812 0.042978175
000240 25 fb b6 3c f8 41 18 3c 37 11 1e be 74 49 23 3c
       0.022336552 0.009293072 -0.15436254 0.009966243
000250 e2 6c 14 39 f9 59 8f 3c ca 1b 69 39 22 a3 40 bc
       0.00014154942 0.017498957 0.00022230964 -0.011757644
000260 f3 19 d0 3c c1 bd 18 3d 1a 0b 84 3c ed 07 67 bc
       0.025402999 0.03729034 0.016118575 -0.014101011
000270 78 ea 18 be 55 8c 45 bd f1 d0 c1 3b ca 04 d8 3c
       -0.14933193 -0.048229534 0.0059148003 0.026369471
000280 99 c9 d6 bb 36 ae a7 38 83 79 d2 3d 86 07 79 3c
       -0.006554794 7.99563e-05 0.10277083 0.015199548
000290 e9 8f 1b bd b0 06 40 3d 49 04 48 3d a6 88 3a 3d
       -0.03797904 0.046881378 0.04883221 0.045540474
0002a0 76 a6 46 3c ce 74 f2 3c 8d 60 b1 3c 6c 80 07 3d
       0.012124648 0.029596712 0.021652484 0.033081457
0002b0 34 26 4e 3d 9f 23 92 bd 06 20 c4 bc 0a a2 93 bb
       0.050329402 -0.071357004 -0.023941051 -0.0045054005
0002c0 a1 da ef be 74 9b 0c b8 fb 00 12 b7 2f ce b4 bd
       -0.46846488 -3.3523378e-05 -8.702506e-06 -0.08828389
0002d0 e7 dd e6 37 91 27 d1 3e 4a 85 24 38 0e 08 77 be
       2.7521468e-05 0.408505 3.9224782e-05 -0.24124166
0002e0 36 66 2c 39 15 6c 38 b8 36 29 68 3f f6 61 20 be
       0.00016441275 -4.3969678e-05 0.9068788 -0.15662369
0002f0 70 31 a7 38 c4 55 4a b8 08 d7 07 b9 64 e3 c1 be
       7.972389e-05 -4.824043e-05 -0.00012954709 -0.37868798
000300 34 a9 41 bc 9a 9b 0f 3e ac 76 e8 bd d3 aa 9d bc
       -0.011820126 0.14024201 -0.1135076 -0.019246494
000310 3d ab e8 3c 21 f1 ba bc 61 c0 46 3a 84 e6 a3 3c
       0.028401965 -0.022820057 0.0007581767 0.02000738
000320 27 26 ee bc 73 64 bc 3d fa 88 b8 bc 9c 9f 5e bc
       -0.029070927 0.09198847 -0.022526253 -0.0135878585
000330 c6 22 5d b9 f1 99 77 3c 78 dd 36 bd 75 53 aa 3c
       -0.00021089157 0.015112386 -0.044644803 0.020791749
000340 ee a2 8e 39 80 ea f7 37 ce f6 b0 b6 71 e6 30 bc
       0.00027205743 2.9553892e-05 -5.2739406e-06 -0.010797129
000350 c7 39 d0 3d 39 9d 72 3d 0e 0e 98 bd 6e 4f 05 bd
       0.1016727 0.05923197 -0.07424556 -0.032546453
000360 78 2b 9a 3c cf c5 49 bb 2c 3e 12 bd e3 c1 3d 3c
       0.018819556 -0.003078807 -0.035703823 0.011581871
000370 b9 c3 67 bd fe 1f df 3b f2 2e 25 3c 90 9f 27 bd
       -0.05658314 0.0068092337 0.010081993 -0.040923655
000380 12 47 a8 3d d0 26 4b 3d df 6c af b8 31 23 87 3c
       0.082166806 0.04959756 -8.364929e-05 0.016496273
000390 66 9f fb bc 16 ed f1 3c 81 2b 86 bb 9b f5 d7 3c
       -0.030715656 0.029531997 -0.0040945415 0.026362231
0003a0 90 f5 9f b9 01 6e e7 bd 60 18 48 bc 6a 8c 1e bd
       -0.00030509802 -0.113002785 -0.012212843 -0.038708128
0003b0 4d 94 9e 3c ae 6c 87 b9 a8 88 40 3c 6d 43 05 b9
       0.019357825 -0.0002583018 0.011751331 -0.00012708986
0003c0 1e 44 ac bd d3 49 3e b8 fe 37 60 b8 f4 ec 1d 36
       -0.0841143 -4.5368284e-05 -5.345791e-05 2.3532748e-06
0003d0 08 3b 85 38 07 76 b4 3d 0f ca 08 3d 14 c7 11 3e
       6.3529296e-05 0.088115744 0.033395823 0.14236099
0003e0 37 33 f2 be d5 f0 31 b8 fc 4d 4c bc c6 16 04 b8
       -0.473047 -4.242438e-05 -0.012469765 -3.1492462e-05
0003f0 8b 70 cb bd 47 ac f6 37 2b 70 d6 3d 35 63 05 be
       -0.09933575 2.9405708e-05 0.10470613 -0.13026126

resnet_denoiser/level_0/conv2d_2/Conv2D i1 [32, 3, 3, 16]
000000 02 00 00 00 00 00 01 00 f7 ff 04 fc 00 ff 03 00
       2 0 0 0 0 0 1 0 -9 -1 4 -4 0 -1 3 0
000010 00 00 7f 00 01 00 00 00 f2 00 02 00 00 00 f8 fa
       0 0 127 0 1 0 0 0 -14 0 2 0 0 0 -8 -6
000020 03 fc 00 5b 00 fd 00 0c fa fb 04 00 fc 00 05 00
       3 -4 0 91 0 -3 0 12 -6 -5 4 0 -4 0 5 0
000030 00 fd 00 00 00 f8 00 00 00 11 ff 00 00 00 06 fd
       0 -3 0 0 0 -8 0 0 0 17 -1 0 0 0 6 -3
000040 18 00 36 00 fd 00 eb 0f f2 fd 00 01 00 00 00 fe
       24 0 54 0 -3 0 -21 15 -14 -3 0 1 0 0 0 -2
000050 00 04 47 00 02 fd 16 07 00 ff fd 03 00 04 00 fc
       0 4 71 0 2 -3 22 7 0 -1 -3 3 0 4 0 -4
000060 00 00 00 00 fe 00 03 00 ff ff ff 00 f7 fa 0b 00
       0 0 0 0 -2 0 3 0 -1 -1 -1 0 -9 -6 11 0
000070 02 00 0e 00 05 00 fa 00 ff 04 f1 00 00 fc 00 03
       2 0 14 0 5 0 -6 0 -1 4 -15 0 0 -4 0 3
000080 00 00 00 11 00 fb 00 00 00 fe ff 00 fd ff 05 02
       0 0 0 17 0 -5 0 0 0 -2 -1 0 -3 -1 5 2
000090 00 fd f1 00 00 fc 00 09 00 ff 00 00 03 0a 12 01
       0 -3 -15 0 0 -4 0 9 0 -1 0 0 3 10 18 1
0000a0 00 00 00 00 00 00 fd 00 00 f1 01 00 07 01 00 00
       0 0 0 0 0 0 -3 0 0 -15 1 0 7 1 0 0
0000b0 ff 00 00 00 07 f5 00 00 00 fc 00 00 1a 17 00 00
       -1 0 0 0 7 -11 0 0 0 -4 0 0 26 23 0 0
0000c0 01 00 00 e8 05 fe f7 00 00 02 fb 00 01 00 06 00
       1 0 0 -24 5 -2 -9 0 0 2 -5 0 1 0 6 0
0000d0 00 25 00 81 00 0d f7 0e 00 fa 00 00 2c 01 00 00
       0 37 0 -127 0 13 -9 14 0 -6 0 0 44 1 0 0
0000e0 df 03 00 00 0a fd 00 00 fe fc f3 00 06 0c 00 00
       -33 3 0 0 10 -3 0 0 -2 -4 -13 0 6 12 0 0
0000f0 00 07 f5 00 ff 00 00 06 01 01 00 00 00 00 00 f5
       0 7 -11 0 -1 0 0 6 1 1 0 0 0 0 0 -11

resnet_denoiser/level_0/conv2d_3/Conv2D f4 [16, 1, 1, 16]
000000 1d 8e a9 bd 61 9d f4 bb 91 35 d8 3d f0 05 7d 3d
       -0.08279059 -0.00746505 0.10557092 0.06177324
000010 8a c9 1a 3d 93 27 18 bd 33 f1 e5 3d e2 66 09 38
       0.03778986 -0.037147116 0.11227646 3.2759162e-05
000020 23 2c 40 bc 5a d4 09 bd 21 ee 1a be 19 31 82 bd
       -0.011729273 -0.03364978 -0.15129901 -0.06357021
000030 f8 eb 88 3d 74 d8 08 bd 19 e9 37 bc 44 ab 18 3d
       0.066856325 -0.03340955 -0.011225008 0.037272707
000040 a3 3b f5 bd 7e 5b 23 b9 4d 74 0d b9 e8 3c 8e 3d
       -0.119742654 -0.00015578975 -0.00013490133 0.06945211
000050 f4 f8 a3 bc 51 9e a4 bc 01 a4 11 be d8 3c bb 3d
       -0.020016171 -0.020095022 -0.14222719 0.091424644
000060 10 ad ee 3d 33 97 55 3d df 72 1d bd a6 95 11 be
       0.11654103 0.052146148 -0.038439628 -0.14217243
000070 1d 0c 35 3e 51 1a c7 bc b3 2f 64 bd d5 16 17 3e
       0.17680402 -0.02430454 -0.055709552 0.14754803
000080 f0 56 b1 ba 94 c3 b4 3d 31 8e e4 bd e9 72 2e bd
       -0.0013529938 0.08826366 -0.11159933 -0.042590056
000090 88 d3 38 3d 67 db 81 3d 6a 83 2a 3d c0 8d c2 bd
       0.045123607 0.06340676 0.041629232 -0.09499693
0000a0 24 a8 92 bd 40 ac be bc 95 c9 38 bd 1e bd 20 3d
       -0.071609765 -0.023275495 -0.04511412 0.039242856
0000b0 2a 2b 2c 3e 8d af 80 3d 6c 1e a9 3c 2a 94 c4 3d
       0.16813341 0.06283484 0.02064439 0.095985726
0000c0 71 86 da 3d 4e df 14 bd 7c b1 cb 37 1f 01 c4 3b
       0.10670174 -0.036345772 2.4282133e-05 0.005981579
0000d0 bc de d0 bd d3 44 02 3e af c3 5b be bc 83 97 3c
       -0.10198733 0.12721567 -0.21461366 0.018495433
0000e0 95 2e 36 3d 15 bf c1 3d 77 cf a0 3d 4c bd 07 bd
       0.044478018 0.09460274 0.07852071 -0.033139512
0000f0 de 90 14 bd 13 1f cc bc da 7d a2 39 cf e0 23 3c
       -0.03627097 -0.024917161 0.00030992815 0.010002329
000100 5c 7e ed bb ab af 24 bc df c2 13 3e f4 44 07 bd
       -0.007247729 -0.010051648 0.14429806 -0.033024743
000110 f8 90 9a bb 46 7a dc 3c f1 b3 7a bd d8 7e 39 bb
       -0.0047169887 0.026913773 -0.06120676 -0.0028304365
000120 3e 15 1c 3d c8 97 8d bd de c1 77 3c 7a 61 00 3d
       0.038106196 -0.069137156 0.015121905 0.03134296
000130 95 5a e6 3c 0d 7d ab bd 37 99 dd bc c9 e8 b6 3c
       0.028119365 -0.08373461 -0.027050598 0.022327797
000140 56 15 50 3d bd aa 76 3d 4a 18 27 be 2d ef a7 3a
       0.050801598 0.060221422 -0.1631786 0.0012812369
000150 cb 63 ab 3c 27 f7 bf 3c 78 9a 8a 3c bf 68 48 bd
       0.020921608 0.023433281 0.01691936 -0.04892802
000160 cc b1 01 bd 07 84 06 bd 21 8b 0d 3e 7d 90 9c bb
       -0.0316637 -0.032840755 0.13822605 -0.0047779665
000170 0e b9 12 3d 76 9d 09 3e 1e a2 76 bd c6 b2 a9 3c
       0.035821013 0.13438973 -0.0602132 0.020715129
000180 18 9a d3 bd 4b 57 3e 39 5e 1b 4d be 6b c2 3d bd
       -0.103321254 0.00018152331 -0.20029971 -0.04632799
000190 1a 61 f5 3d 56 0c d1 bc 28 ef 32 3e 9f 10 16 be
       0.11981411 -0.025518578 0.17474043 -0.14654778
0001a0 f2 24 20 bd a6 a3 01 be b1 8a 45 be 17 d4 dd 3d
       -0.039097734 -0.12660083 -0.19291188 0.108314686
0001b0 a7 22 ad 3d 73 b9 0e 3e 7e 95 51 3c 54 30 5f bd
       0.08453875 0.13937931 0.012791989 -0.05448945
0001c0 61 6e c5 3d 2c ec 0d 3d 4b 64 4a 3d 2b 36 c3 bc
       0.09640194 0.03464906 0.049412053 -0.02382954
0001d0 55 e3 5c bd f9 11 31 ba bb ee ec 38 fa 50 91 bd
       -0.05392774 -0.00067546923 0.00011297824 -0.07095523
0001e0 cd 10 7d bd bc 01 00 bc 50 7c 8a 3c 41 33 29 3d
       -0.0617836 -0.0078129135 0.01690498 0.041308645
0001f0 43 70 06 3d 73 11 70 bd fd cd 0f 3d 13 7c 0d 3d
       0.032821905 -0.05861039 0.035108555 0.034542155
000200 fd 51 6c bc 2d 84 a3 3c f8 1c 5e 3d 89 70 1c 39
       -0.014423844 0.019960487 0.054226846 0.00014919242
000210 e3 34 e0 3c 1a 23 fe bb 85 63 16 bd 6b eb b2 bb
       0.027368968 -0.0077556493 -0.036716003 -0.005460193
000220 99 58 ab bc e8 25 ee bb 34 a9 fd bb c5 e4 bb bb
       -0.02091627 -0.0072677024 -0.007741118 -0.0057340586
000230 4f 8e 88 3d c1 97 8f 3b 9a ff c7 3d e1 b6 a9 bc
       0.06667768 0.004382104 0.09765549 -0.020717086
000240 7a eb 62 3b 0c 44 54 37 6e 8d 92 3c 2b 5b 68 bd
       0.0034625218 1.2652028e-05 0.017889705 -0.05672757
000250 c4 4d 74 bc 24 38 2b 3d 5b ff 80 b7 1a be 5d be
       -0.014911119 0.041801587 -1.5377698e-05 -0.21654549
000260 04 c3 8b 3c 69 12 a4 3d ae ab 4c be c4 6e 32 3b
       0.017060764 0.08011324 -0.19987366 0.0027226666
000270 cd 5f d7 be 6b 0b 49 bd 15 04 8e bd 5b 0f 00 3e
       -0.42065278 -0.049083155 -0.06934372 0.12505858
000280 04 50 a5 b8 45 cd 01 be e2 2e c7 3c 2c 44 00 3e
       -7.882717e-05 -0.1267596 0.024314348 0.12526006
000290 6d f3 7b 3d 9c 9d 26 3d 42 ff 04 3c b2 20 89 3e
       0.061511446 0.04067765 0.008117499 0.26782757
0002a0 58 be fb bd 6b 03 9f 3d 82 92 81 3e 8c 84 04 bc
       -0.122921646 0.07764324 0.2530709 -0.008088242
0002b0 7c 5f ba 36 76 46 57 bc e6 b3 01 bd 40 32 0b be
       5.554348e-06 -0.013139358 -0.031665705 -0.13593388
0002c0 9d c1 b1 bc 63 f6 0d bd 8f ea c7 3b 21 a4 93 3c
       -0.021698767 -0.0346588 0.0061009596 0.018022599
0002d0 fe a1 2d bd b0 07 e9 b6 50 d9 36 b9 fb 5c 0c bb
       -0.042390816 -6.944836e-06 -0.00017437828 -0.0021417725
0002e0 e2 b5 cc 3c 16 34 91 3b 47 bf 80 3d 87 05 fd bc
       0.024989072 0.004431258 0.06286483 -0.030886425
0002f0 0e a1 86 bc 82 16 1f bd 61 55 7b 3b 39 5f 22 bd
       -0.016434219 -0.038839824 0.003835045 -0.039641593
000300 37 6d 77 3c 2b f2 23 bd 33 0b 44 bd ac a5 9d bc
       0.015101722 -0.04002587 -0.047862243 -0.019244038
000310 a7 f2 0c 3d c4 00 69 bd fe bb 1f bd 03 a3 71 3c
       0.0344111 -0.056885496 -0.038997643 0.014748338
000320 83 9e aa bc 29 77 f1 bc 68 7e 89 b8 66 ed 53 bd
       -0.020827537 -0.029475765 -6.556214e-05 -0.051740073
000330 fe 3a 49 bc 32 66 4d bb 69 a1 34 3c cc aa 6b 3c
       -0.012282131 -0.003134143 0.011024811 0.014383983
000340 a6 42 13 bd b4 da e1 3c 43 47 b2 bd f7 f2 58 3c
       -0.035952233 0.027570106 -0.08704998 0.013241521
000350 8d 10 1d b9 5d 33 06 be cd 9d db 3d 58 96 26 bd
       -0.00014978852 -0.13105531 0.107234575 -0.040670723
000360 b3 71 41 bc bd 9b de 3d 7a 9d 74 b7 6a 42 5e b7
       -0.011806893 0.108695485 -1.4580199e-05 -1.3247694e-05
000370 d8 58 c3 b8 c8 d9 4c 3c a3 bd df bc 8b e8 5c 3a
       -9.314873e-05 0.012503095 -0.027312106 0.00084269856
000380 b6 32 1c 3d a7 53 77 3d c6 46 b6 bb 42 e2 1e 3e
       0.0381343 0.06038251 -0.005562636 0.15515998
000390 aa 49 31 bd db 94 de b8 0d e4 13 b9 40 6a 81 3c
       -0.043283142 -0.000106135114 -0.00014103968 0.015797734
0003a0 fd a1 2a 3d 27 58 c0 bc 5f 5d 0f 3e b3 09 a9 3c
       0.04165839 -0.023479534 0.14000462 0.020634508
0003b0 9c 90 1e 38 5d d4 94 bc 1b 5e dd 3c 27 9d b0 bc
       3.7804813e-05 -0.018167669 0.027022412 -0.021559311
0003c0 4c ca ff 3d d2 8e 4a 3a 4a 4c 20 39 45 0a b5 bc
       0.12489757 0.00077269704 0.00015287209 -0.022099623
0003d0 49 62 93 b9 44 c8 3a bd 0f 42 ef bd 14 7c 3c 3b
       -0.00028111253 -0.045601144 -0.116825216 0.002876048
0003e0 67 61 d2 bc c1 80 1b 3d de b8 93 bc da 73 a3 3d
       -0.02568121 0.037964586 -0.018032487 0.07981081
0003f0 19 d2 8c be 78 5a af bd ea 44 1f be 1a 98 6e bd
       -0.27504042 -0.085621774 -0.15553632 -0.058250524

resnet_denoiser/level_0/conv2d_4/Conv2D f4 [16, 1, 1, 16]
000000 8e 62 90 3c 08 d6 7e 36 17 15 d7 b7 ce a7 68 bd
       0.01762512 3.7973532e-06 -2.5639818e-05 -0.056800656
000010 80 bd 22 3d 99 76 fb bd f1 e6 bb be 58 ad ec 3c
       0.039731503 -0.1227848 -0.36699632 0.02889125
000020 18 9b cf bd ad df 4c 38 ae cc 9b bc d4 04 de bc
       -0.10137004 4.8845704e-05 -0.019018497 -0.027101912
000030 fc 38 31 bd 37 1e d9 3c a2 2f ce 3d 5a ef b7 bc
       -0.043267235 0.026503665 0.10067679 -0.022452999
000040 bb 46 80 3b 8a 41 85 3e 1e 29 4a be 7c 4d ea 3d
       0.0039146817 0.26026565 -0.19742247 0.1144056
000050 0c 17 eb 3b 5a e0 13 3d 88 c7 65 3c be fb 21 be
       0.0071743783 0.03610263 0.014024623 -0.15818688
000060 cf 9f 8a bc 2e cb c1 b8 fd e3 d8 bb da 50 54 3e
       -0.016921906 -9.240802e-05 -0.006618975 0.20733967
000070 dd a4 8d bc b6 36 de 3c 2b 9e 86 bd b3 c4 85 bd
       -0.017290527 0.027125698 -0.06573137 -0.06531658
000080 72 27 d7 38 f1 b2 46 3d b5 9e e9 bc 10 da 3a 3d
       0.00010259346 0.048510496 -0.02851806 0.045618117
000090 06 ff 00 3c 56 6b e1 3d 5b cb cb 3b c2 ab 09 38
       0.007873302 0.11006801 0.00621931 3.2823307e-05
0000a0 c4 63 ba bb 91 f4 5c 3c 5c 54 82 bc 31 bb 35 be
       -0.0056881625 0.013486044 -0.015909366 -0.17747189
0000b0 c4 ff a4 bd 84 9e e7 3c bd 44 2a bd dd 48 b8 3c
       -0.08056596 0.028273828 -0.04156946 0.022495681
0000c0 30 83 eb 3c d6 93 03 3b 88 75 17 b8 c2 9f a4 b7
       0.028749079 0.002007713 -3.6110665e-05 -1.9624717e-05
0000d0 a9 de dc 3b e8 b5 57 39 6e ba aa 38 cc 3e 7d b8
       0.0067404103 0.00020571763 8.140957e-05 -6.0378385e-05
0000e0 dd 26 96 b8 9d d0 f3 bc d2 6e 9f 3e 16 a4 4a 39
       -7.159796e-05 -0.02976256 0.31139237 0.00019325348
0000f0 7d 52 a2 be da c8 c5 be 86 62 57 39 5d ce 50 bd
       -0.3170356 -0.386298 0.000205407 -0.050978053
000100 78 6d a8 3c 57 51 55 3e e0 f9 8e bd e5 28 5a 3d
       0.020560011 0.2083181 -0.069812536 0.053261656
000110 81 f2 54 bb 1e e1 bd bd 82 1a 20 3e 2e fd 41 b9
       -0.0032493176 -0.09271453 0.15635112 -0.00018500231
000120 5e 42 f3 bc 2d 1e 1b b9 c2 2e 0a be b4 a0 c4 38
       -0.029694732 -0.00014793193 -0.13494399 9.3759416e-05
000130 19 77 01 39 ec d9 b6 bd eb 46 5a 3c af 44 89 3d
       0.00012346766 -0.08928284 0.013322572 0.067025535
000140 95 c0 71 3b 0c c6 d3 bd 02 e7 c4 3b a2 02 cb bd
       0.003688847 -0.10340509 0.0060089836 -0.099126115
000150 62 2b d3 3b 98 1a 39 3d 68 f8 23 3d dd ad 32 3d
       0.0064443806 0.045191377 0.04003182 0.04362284
000160 2f 32 9f 3d 99 f5 cb 3b ef 65 76 3d bc 3b 9c 39
       0.07773244 0.006224346 0.060155805 0.00029799144
000170 1d ef 83 b8 d6 a2 bf ba b8 96 1c bd 02 8e 95 3c
       -6.291105e-05 -0.0014620672 -0.038229674 0.018256191
000180 fe 31 60 3e 88 bc 8f b8 6a 15 8d b9 b6 28 ca 37
       0.2189407 -6.853888e-05 -0.0002690957 2.4099234e-05
000190 ed c2 1e be b5 24 92 3d 8e 2b ec 38 62 91 ad b8
       -0.15504046 0.071359076 0.000112614696 -8.2763625e-05
0001a0 4a d7 ea 3c 32 10 55 bd b4 0a 63 bd 61 24 ca 3b
       0.028667111 -0.0520174 -0.05543013 0.0061688875
0001b0 97 5e 59 bb ce 4c 06 3d ae f9 7c bb 32 4b 96 3d
       -0.0033167952 0.03278809 -0.003860097 0.07338561
0001c0 f1 fb 81 bd 5b cb 01 bd ed 28 25 3d 95 74 8b 3b
       -0.06346882 -0.031688076 0.040322233 0.004255841
0001d0 22 ef 7e bd 37 c4 57 3e 35 19 02 39 47 46 b0 bd
       -0.062239774 0.21070944 0.00012407156 -0.08607154
0001e0 a0 89 90 bd 8a 18 6b 3d fb 6a 71 bd fc 72 95 3d
       -0.070575 0.05739645 -0.058939915 0.07297322
0001f0 d6 10 de bc e2 9e 86 bb f7 1d 84 3d 4f 14 ef 3d
       -0.027107637 -0.004108296 0.06451028 0.116737954
000200 0e db 74 3d 89 78 96 3e f3 96 5e 3e 54 27 2c bd
       0.05977922 0.29388836 0.2173727 -0.042029694
000210 34 fc bc 3d b4 ad 1a 3e 71 ad a3 3b 12 fc 5e 3d
       0.092277914 0.15105325 0.004995041 0.05443961
000220 63 b4 33 3d 6c 76 ed b8 70 90 29 bb ac 05 60 3d
       0.043873202 -0.000113230984 -0.0025873445 0.05469291
000230 76 23 ea 3b 51 e7 d9 3c b4 ad 68 3e df ff 16 bd
       0.0071453406 0.026599558 0.22722512 -0.03686511
000240 bb 08 ba bd e1 84 a0 be 28 3e 89 be a0 7c 81 3d
       -0.090836965 -0.3135138 -0.26805234 0.063225985
000250 81 61 03 be 3e ee 3e be 94 d5 28 3c ad 60 12 bb
       -0.12830164 -0.1864557 0.010304827 -0.0022335455
000260 89 21 0b bd 4d fb 24 3c 2b c7 47 bc bb ad 8f bc
       -0.03396753 0.01006968 -0.012193481 -0.017538896
000270 6d 99 cd 3c 0a f9 8b bc 6d 5e 5a be 30 b8 5f 39
       0.025097573 -0.017086525 -0.21325083 0.00021335552
000280 fe e4 94 3b 0b e6 57 bd 3b 79 a4 bb 8d e8 94 3c
       0.0045438996 -0.05270962 -0.0050193346 0.018177295
000290 28 d1 34 3b 22 a5 cd 3c 8a 2f da 3c 6a 72 45 3c
       0.0027590487 0.025103156 0.026633997 0.012051204
0002a0 82 f5 bf bc c4 6e 5a 3c 0d 9e b9 3c 82 c6 8b bd
       -0.023432497 0.013332073 0.022658372 -0.06824972
0002b0 5d 3b bf 3c 39 4d 36 3c 0b d3 20 3c 47 5c 9d bc
       0.023343736 0.01112681 0.009815942 -0.01920904
0002c0 60 ff f2 3d 06 ea 9f bd 88 53 0d bb b9 0a fb 3d
       0.11865115 -0.07808308 -0.002156468 0.122579046
0002d0 6a 9e 0a 3c 1e 23 9f be e0 50 0b b8 51 78 de 37
       0.00846062 -0.3108148 -3.3215503e-05 2.6520489e-05
0002e0 bf 48 87 3d 2d 2e 02 be 11 af 78 be 02 30 80 bd
       0.06605672 -0.12712927 -0.24285533 -0.06259157
0002f0 5a a6 b9 bc 9c 0b d9 3a 74 19 62 38 9a 01 ea be
       -0.02266233 0.0016559246 5.3906304e-05 -0.45704347
000300 95 7c 1c 3c 1d 29 22 3d 81 29 1f bc 77 ac 27 3d
       0.009551187 0.03958999 -0.009714485 0.04093596
000310 2b 13 cc bb f1 10 11 3d 02 74 6e bc e6 27 67 3c
       -0.006227871 0.035416547 -0.014554026 0.014108634
000320 fe 4d 9d bc c3 53 a6 bd 89 7c d5 bc d7 8f 30 b9
       -0.019202229 -0.08121445 -0.02606036 -0.00016838252
000330 20 11 95 39 8a fe cb bc e6 17 98 bc 3e 80 96 3c
       0.00028432254 -0.024901647 -0.018566083 0.018371698
000340 9b 6c 96 3c 23 7f 39 3c 7e 03 8d bc 89 8e e8 3d
       0.018362334 0.011321816 -0.01721358 0.113553114
000350 67 e7 5d 3c aa ea 8d 38 3e 50 fd bc 2c 95 73 be
       0.01354394 6.7671135e-05 -0.030922052 -0.23787373
000360 cd 4a ae 3d ae df eb bd 12 c4 b2 39 23 af 47 bb
       0.08510361 -0.11517273 0.0003409689 -0.003046938
000370 24 2b 6b 3b 55 6a db 3b 93 15 31 3d 60 e2 b8 3d
       0.0035883868 0.0066960254 0.043233465 0.090275526
000380 18 7b 3e bd 42 45 1f 3a 8a 9a 23 bd 43 c7 0f 3e
       -0.04650411 0.0006075689 -0.0399423 0.14040856
000390 82 3f aa 38 68 be 16 39 c4 5f bb 3e 40 fe c0 3d
       8.118061e-05 0.00014376047 0.365965 0.09423494
0003a0 eb e0 4b 3e 0a c2 3b 3e 62 f5 92 be d8 93 05 39
       0.19910018 0.18335739 -0.28702837 0.00012738944
0003b0 41 7b d5 b8 a1 02 b9 3c e1 f4 b6 bd 77 2a e8 3d
       -0.00010179589 0.022584261 -0.08933426 0.113362245
0003c0 67 f2 c1 3c e8 57 8d 3c 13 6b ee bc 31 bd af bc
       0.023675157 0.017253831 -0.029103791 -0.021452518
0003d0 19 85 84 3d cd 3c ce bb 21 b3 7a bd a4 7b e2 3c
       0.06470699 -0.006293869 -0.061205987 0.027646847
0003e0 03 c2 05 3c 58 c7 e1 b9 28 fc 1c 3e 0b 54 e6 3a
       0.008163932 -0.00043063867 0.15330565 0.0017572654
0003f0 92 a1 1f 3d 52 3b 3c bc cd f0 bd bd 86 89 61 3e
       0.038972445 -0.011488752 -0.09274445 0.22025117

resnet_denoiser/level_0/conv2d_5/Conv2D i1 [32, 3, 3, 16]
000000 fc 00 fe 00 00 fa 00 00 00 06 00 fb 00 02 ff 00
       -4 0 -2 0 0 -6 0 0 0 6 0 -5 0 2 -1 0
000010 f3 0d ff fc 00 00 00 00 0f 0e fb fe 01 00 fd f7
       -13 13 -1 -4 0 0 0 0 15 14 -5 -2 1 0 -3 -9
000020 ff 00 00 fe fe 00 02 00 0b 18 00 fa 00 01 fe ff
       -1 0 0 -2 -2 0 2 0 11 24 0 -6 0 1 -2 -1
000030 fb 07 fb 00 00 00 00 00 00 04 00 fc 01 05 fb ff
       -5 7 -5 0 0 0 0 0 0 4 0 -4 1 5 -5 -1
000040 8f 00 09 00 04 81 0d 8b 1c 1f e4 84 2b 0b 00 87
       -113 0 9 0 4 -127 13 -117 28 31 -28 -124 43 11 0 -121
000050 00 00 00 00 fd 00 00 00 19 1f 00 fa 01 06 f7 f7
       0 0 0 0 -3 0 0 0 25 31 0 -6 1 6 -9 -9
000060 fe 00 00 00 00 fd 00 fe 03 08 fe fc 07 00 00 fc
       -2 0 0 0 0 -3 0 -2 3 8 -2 -4 7 0 0 -4
000070 f6 0d fb f5 00 00 00 00 0a 0c 00 f5 00 01 fe f4
       -10 13 -5 -11 0 0 0 0 10 12 0 -11 0 1 -2 -12
000080 00 00 ff 00 00 ff 03 fe 14 1f 00 fb 0d 00 fe fd
       0 0 -1 0 0 -1 3 -2 20 31 0 -5 13 0 -2 -3
000090 fc 00 00 01 01 0f 07 00 00 ff 00 04 00 fd 00 fb
       -4 0 0 1 1 15 7 0 0 -1 0 4 0 -3 0 -5
0000a0 f5 01 00 03 00 04 f6 01 01 fa 03 08 ff fe 00 00
       -11 1 0 3 0 4 -10 1 1 -6 3 8 -1 -2 0 0
0000b0 fd f2 00 00 f0 0b f4 01 01 00 00 04 ff ff 0a ff
       -3 -14 0 0 -16 11 -12 1 1 0 0 4 -1 -1 10 -1
0000c0 fd 06 0d 0b 01 06 08 00 00 00 00 ff 0a 00 0b 1b
       -3 6 13 11 1 6 8 0 0 0 0 -1 10 0 11 27
0000d0 5b 01 00 0a c1 7f 20 46 01 92 00 25 ec e0 16 29
       91 1 0 10 -63 127 32 70 1 -110 0 37 -20 -32 22 41
0000e0 00 06 01 0c f6 00 fa 06 ff 00 03 04 09 fe 30 1e
       0 6 1 12 -10 0 -6 6 -1 0 3 4 9 -2 48 30
0000f0 f2 09 fc 02 02 07 0b 01 ff 00 00 04 00 0f 00 fb
       -14 9 -4 2 2 7 11 1 -1 0 0 4 0 15 0 -5
