bfcnn/pretrained/resnet_color_laplacian_3x5_non_shared_bn_16x3x3_128x128_skip_input/model.tflite (tflite, 189664 bytes, 150 tensors)

resnet_denoiser/level_0/batch_normalization/FusedBatchNormV3 f4 [16]
7.365183e-05 5.0435276e-05 -1.4605742e-05 3.9239636e-05 -2.7888178e-05 -0.0001256917 -3.3035503e-05 -0.00013247905
0.00018065565 0.00021863022 -8.968551e-06 -0.00019391246 -0.00018510045 4.3535845e-05 0.00016237008 -6.9941365e-05
00000000: 8675 9a38 778a 5338 2f0b 75b7 3d95 2438
00000010: 68f1 e9b7 1ccc 03b9 9a8f 0ab8 13ea 0ab9
00000020: 626e 3d39 1a40 6539 a277 16b7 fb54 4bb9
00000030: 8617 42b9 429a 3638 e341 2a39 7cad 92b8

resnet_denoiser/level_0/batch_normalization/FusedBatchNormV31 f4 [16]
2.0669487 5.591724 8.540569 5.58983 9.01514 4.933831 15.564743 4.825918
7.042095 7.5680537 5.4492054 9.737576 10.008601 4.4551888 8.674602 6.9415936
00000000: e348 0440 67ef b240 2ca6 0841 e3df b240
00000010: 033e 1041 f2e1 9d40 3009 7941 ec6d 9a40
00000020: d858 e140 7f2d f240 e45f ae40 1ccd 1b41
00000030: 3b23 2041 e890 8e40 2bcb 0a41 8921 de40

resnet_denoiser/level_0/batch_normalization_1/FusedBatchNormV3 f4 [16]
-0.16055529 -0.2741538 -0.13596044 -0.1685772 -0.082240865 -0.18934892 -0.21087614 -0.1963705
-0.11134982 -0.10415561 -0.1048383 -0.113211304 -0.19600593 -0.18905315 -0.19762695 -0.07464234
00000000: 9b68 24be e35d 8cbe 3739 0bbe 809f 2cbe
00000010: e66d a8bd afe4 41be eaef 57be 5915 49be
00000020: 600b e4bd 894f d5bd 76b5 d6bd 54db e7bd
00000030: c7b5 48be 2697 41be b85e 4abe 15de 98bd

resnet_denoiser/level_0/batch_normalization_1/FusedBatchNormV31 f4 [16]
1.4430275 1.3341335 1.9164436 0.7498375 4.291624 1.2382717 0.6709211 0.64897394
1.6990083 1.0484625 1.436109 1.2215788 1.0560488 1.162955 1.1153872 1.7843142
00000000: 20b5 b83f e3c4 aa3f 064e f53f 5af5 3f3f
00000010: fc54 8940 b07f 9e3f 7cc1 2b3f 2823 263f
00000020: 1b79 d93f 0534 863f 6bd2 b73f b25c 9c3f
00000030: 9b2c 873f b6db 943f 02c5 8e3f 6864 e43f

resnet_denoiser/level_0/batch_normalization_10/FusedBatchNormV3 f4 [16]
-0.046111602 -0.27521238 -0.027906256 -0.08074857 -0.08588605 -0.062707715 -0.07930949 1.3154063e-06
-0.07056999 -0.056241482 -0.04350346 -0.038692042 -0.08621868 -0.06623866 -0.049998924 -0.1266263
00000000: 85df 3cbd a3e8 8cbe a99b e4bc 825f a5bd
00000010: 06e5 afbd e76c 80bd 046d a2bd 048d b035
00000020: 0087 90bd 785d 66bd af30 32bd 8c7b 1ebd
00000030: 6b93 b0bd 22a8 87bd accb 4cbd 53aa 01be

resnet_denoiser/level_0/batch_normalization_10/FusedBatchNormV31 f4 [16]
7.885541 5.665648 7.1187897 5.800002 3.6989226 10.894104 4.5431385 -1.3078953
9.164326 6.680765 7.849415 10.412842 10.253014 6.102716 8.00227 5.344339
00000000: 5a56 fc40 fd4c b540 20cd e340 9e99 b940
00000010: 26bb 6c40 404e 2e41 6461 9140 1d69 a7bf
00000020: 14a1 1241 d4c8 d540 682e fb40 009b 2641
00000030: 580c 2441 7349 c340 4c09 0041 d304 ab40

resnet_denoiser/level_0/batch_normalization_11/FusedBatchNormV3 f4 [32]
-0.11605164 -0.36823815 -0.19464071 -0.092598535 -0.08568192 -0.11126773 -0.2935524 -0.29509613
-0.06706941 5.8826214e-07 -1.6369698e-06 -0.08325424 -0.062226225 -0.0785557 -0.096192636 -0.08979075
-0.16486509 -0.10218542 -0.2211672 -0.12512062 -0.099138305 -0.25371164 -0.09968568 -0.13039653
-3.0190329e-06 -1.422767e-06 -0.12728105 -0.13249637 -0.12558036 2.5483214e-06 -0.11910981 -3.1539041e-06
00000000: 7bac edbd b689 bcbe e54f 47be 4da4 bdbd
00000010: 017a afbd 56e0 e3bd 804c 96be d716 97be
00000020: b05b 89bd 11e9 1d35 dbb5 dbb5 3381 aabd
00000030: ede0 7ebd d0e1 a0bd a500 c5bd 36e4 b7bd
00000040: 65d2 28be 9746 d1bd a879 62be 9f1f 00be
00000050: 0609 cbbd 7ee6 81be 0128 ccbd ab86 05be
00000060: 979a 4ab6 e7f5 beb5 f755 02be 21ad 07be
00000070: 2398 00be d403 2b36 d8ef f3bd a9a7 53b6

resnet_denoiser/level_0/batch_normalization_11/FusedBatchNormV31 f4 [32]
0.6821518 0.61436015 0.87065995 0.70574224 0.3259045 0.48631877 0.48563242 0.7228336
1.3961022 -0.08748833 0.23129445 0.7458083 0.6290223 0.3886124 0.37597603 1.6205171
0.38360864 0.8887667 0.44067198 0.9058487 1.1085126 1.5515999 0.68248403 1.6549325
0.44132283 0.19600187 0.38360855 0.9054609 2.0374877 -0.37660688 0.38953805 0.45281243
00000000: 80a1 2e3f b546 1d3f 92e3 5e3f 86ab 343f
00000010: f4dc a63e c6fe f83e d0a4 f83e 9f0b 393f
00000020: 7ab3 b23f 152d b3bd 74d8 6c3e 4bed 3e3f
00000030: 9b07 213f 34f8 c63e ee7f c03e 1b6d cf3f
00000040: 5a68 c43e 3786 633f c29f e13e b3e5 673f
00000050: bee3 8d3f d39a c63f 46b7 2e3f d4d4 d33f
00000060: 11f5 e13e b7b4 483e 5768 c43e 49cc 673f
00000070: 3366 0240 9ed2 c0be 8871 c73e 08d7 e73e

resnet_denoiser/level_0/batch_normalization_12/FusedBatchNormV3 f4 [16]
1.6372218e-05 8.020394e-06 -8.2363897e-07 2.4229669e-06 -1.5274258e-06 -1.1670335e-05 -2.322561e-06 -1.6340628e-05
8.335445e-06 1.1521435e-05 -4.4071427e-07 -8.290549e-06 -1.473655e-05 6.0292905e-06 4.3545742e-06 -2.7745539e-06
00000000: 1257 8937 548f 0637 0a18 5db5 419a 2236
00000010: f301 cdb5 b5cb 43b7 4bdd 1bb6 3b13 89b7
00000020: 77d8 0b37 304c 4137 4f9b ecb4 a317 0bb7
00000030: 003d 77b7 364f ca36 821d 9236 7932 3ab6

resnet_denoiser/level_0/batch_normalization_12/FusedBatchNormV31 f4 [16]
0.4594699 0.88920134 0.48158866 0.34519616 0.49380264 0.45810345 1.0939656 0.59525853
0.3249161 0.39882568 0.26773825 0.4163058 0.79682463 0.6170242 0.23264219 0.27536085
00000000: a43f eb3e b3a2 633f ca92 f63e 8dbd b03e
00000010: b3d3 fc3e 898c ea3e 1107 8c3f dd62 183f
00000020: 675b a63e e132 cc3e fd14 893e 0926 d53e
00000030: b3fc 4b3f 4cf5 1d3f c139 6e3e 19fc 8c3e

resnet_denoiser/level_0/batch_normalization_13/FusedBatchNormV3 f4 [16]
-0.023589093 -0.011768147 1.6316361e-06 -0.031802624 -0.032956116 1.3859983e-06 -0.011598428 -0.037293855
-0.044963162 -0.06506633 -0.026682252 -0.008007051 -0.058595914 -0.028895967 -0.05660631 -0.009219411
00000000: ea3d c1bc 30cf 40bc 97fe da35 7843 02bd
00000010: fefc 06bd 8a06 ba35 5507 3ebc 71c1 18bd
00000020: 4b2b 38bd 7f41 85bd bd94 dabc 0230 03bc
00000030: 4502 70bd 3cb7 ecbc 05dc 67bd 030d 17bc

resnet_denoiser/level_0/batch_normalization_13/FusedBatchNormV31 f4 [16]
3.0624602 4.850168 -1.0975986 7.6167893 2.0248742 -0.92179835 4.6809397 4.116668
3.0119576 3.7977216 5.330627 4.938614 1.6673225 3.7230885 1.3072605 7.1598988
00000000: 59ff 4340 9434 9b40 1c7e 8cbf bdbc f340
00000010: 8a97 0140 fafa 6bbf 42ca 9540 bfbb 8340
00000020: eac3 4040 df0d 7340 7f94 aa40 2009 9e40
00000030: d36a d53f 1547 6e40 5054 a73f e41d e540

resnet_denoiser/level_0/batch_normalization_14/FusedBatchNormV3 f4 [32]
-0.02436317 -0.036685232 -0.024655042 -0.0022995695 -0.0060473653 -0.030777719 -8.4825353e-07 -8.6401184e-07
-1.0080205e-06 7.692105e-08 -0.01654634 -0.04182734 -7.9654416e-07 -0.0072567477 -0.0036950689 -0.01265739
2.507561e-06 -0.05218143 -0.12121676 -0.014684539 6.54727e-07 1.9654478e-06 -0.032873932 -1.2329951e-06
-1.3182115e-06 -1.3656712e-06 -1.5228337e-06 -1.4260037e-06 -0.03783187 -0.053509153 -1.3895478e-06 -0.11486849
00000000: 4595 c7bc 4143 16bd 5ff9 c9bc 60b4 16bb
00000010: fa28 c6bb 8e21 fcbc 8ab3 63b5 71ee 67b5
00000020: 524b 87b5 cb2f a533 318c 87bc 2553 2bbd
00000030: 19d2 55b5 03ca edbb f828 72bb f160 4fbc
00000040: 9247 2836 32bc 55bd 7e40 f8bd 6c97 70bc
00000050: 7fc0 2f35 23e6 0336 d1a6 06bd 647d a5b5
00000060: 67ed b0b5 1b4c b7b5 2b64 ccb5 1d65 bfb5
00000070: 97f5 1abd 6a2c 5bbd 8080 bab5 2c40 ebbd

resnet_denoiser/level_0/batch_normalization_14/FusedBatchNormV31 f4 [32]
0.91557866 0.557057 0.55350804 6.199428 3.891615 1.0378984 0.26618633 0.29306006
0.35269848 -0.02855778 0.734041 0.72166055 0.28997895 3.7211742 3.3580768 3.9445508
-0.6459571 3.7006068 0.7044099 1.0272664 -0.17671156 -0.5600225 1.2249438 0.32738778
0.3791981 0.36174107 0.41882822 0.36389524 0.81978685 1.0975213 0.4167823 0.7246818
00000000: 5d63 6a3f 4a9b 0e3f b4b2 0d3f b761 c640
00000010: 3810 7940 dbd9 843f 9349 883e f80b 963e
00000020: e594 b43e 01f2 e9bc 1cea 3b3f bfbe 383f
00000030: 1f78 943e b827 6e40 bbea 5640 8573 7c40
00000040: 725d 25bf bed6 6c40 3554 343f 777d 833f
00000050: e0f3 34be a25d 0fbf f5ca 9c3f 5f9f a73e
00000060: 4126 c23e 2036 b93e a770 d63e 7a50 ba3e
00000070: 8ddd 513f 947b 8c3f 7d64 d53e bf84 393f

resnet_denoiser/level_0/batch_normalization_15/FusedBatchNormV3 f4 [16]
4.954258e-06 1.7728802e-06 -3.1368765e-07 8.900966e-07 -7.842136e-07 -2.5685943e-06 -5.6335436e-11 -2.2441131e-06
2.8503516e-06 2.5448555e-06 -1.8582949e-07 -1.4604567e-06 -7.886244e-10 1.915827e-06 2.1273822e-06 -9.902255e-07
00000000: c13c a636 b3f3 ed35 e768 a8b4 f9ee 6e35
00000010: c082 52b5 1d60 2cb6 10c4 77ae 9299 16b6
00000020: ab48 3f36 49c8 2a36 6c88 47b4 e904 c4b5
00000030: 82c6 58b0 a891 0036 26c4 0e36 e4e7 84b5

resnet_denoiser/level_0/batch_normalization_15/FusedBatchNormV31 f4 [16]
0.13903596 0.19655374 0.1834186 0.12680218 0.2535336 0.10082568 2.6534603e-05 0.08174905
0.11110765 0.0880928 0.11288794 0.073336646 4.264209e-05 0.19605874 0.11365631 0.09827628
00000000: 715f 0e3e 6245 493e 16d2 3b3e 6ed8 013e
00000010: 28cf 813e b27d ce3d a096 de37 0c6c a73d
00000020: 688c e33d ff69 b43d cb31 e73d 8631 963d
00000030: 98da 3238 9fc3 483e a4c4 e83d 1345 c93d

resnet_denoiser/level_0/batch_normalization_2/FusedBatchNormV3 f4 [32]
-0.07011591 -0.025601624 -0.063104205 -0.040451914 -0.1374506 -0.03504941 -0.12798281 -0.024133714
-0.08104099 -0.06995467 -0.048591554 -0.091584966 -0.077427834 -0.03557451 -0.053089604 -0.07014973
-0.10253199 -0.037627965 -0.2594228 -0.056167666 -0.054240394 -0.050641295 -0.12838693 -0.074269824
-0.11896122 -0.09640054 -0.13379852 -0.16111585 -0.10731587 -0.1044254 -0.06235487 -0.053497612
00000000: ee98 8fbd 7fba d1bc c73c 81bd e8b0 25bd
00000010: dabf 0cbe f88f 0fbd ed0d 03be 11b4 c5bc
00000020: d2f8 a5bd 6544 8fbd f007 47bd e690 bbbd
00000030: 7c92 9ebd 94b6 11bd 7c74 59bd a9aa 8fbd
00000040: 4bfc d1bd c81f 1abd 11d3 84be 1110 66bd
00000050: 2d2b 5ebd 3f6d 4fbd dd77 03be c71a 98bd
00000060: f1a1 f3bd a56d c5bd 7b02 09be 8efb 24be
00000070: 6cc8 dbbd fcdc d5bd d267 7fbd 5020 5bbd

resnet_denoiser/level_0/batch_normalization_2/FusedBatchNormV31 f4 [32]
0.5842417 0.3857826 0.498292 0.32229242 0.792813 0.5494656 0.72944635 0.33488175
0.51732993 0.5152186 0.8016823 0.71463615 0.8961254 0.5853949 0.8666068 0.41321287
0.44077498 0.63956696 0.9656833 0.67858225 0.44772005 0.3859675 0.6502904 0.745296
1.0737437 1.2299274 0.82023966 1.0751327 0.38618687 0.86491007 0.819939 0.87514967
00000000: dd90 153f 4c85 c53e 2120 ff3e 8303 a53e
00000010: cbf5 4a3f c7a9 0c3f ffbc 3a3f 9f75 ab3e
00000020: bc6f 043f 5ee5 033f 0d3b 4d3f 65f2 363f
00000030: 7968 653f 71dc 153f f1d9 5d3f a390 d33e
00000040: 42ad e13e a9ba 233f 0537 773f 91b7 2d3f
00000050: 903b e53e 889d c53e 6f79 263f b8cb 3e3f
00000060: 6f70 893f 436e 9d3f 3afb 513f f39d 893f
00000070: 49ba c53e bf6a 5d3f 86e7 513f cf09 603f

resnet_denoiser/level_0/batch_normalization_3/FusedBatchNormV3 f4 [16]
3.5628585e-05 1.1382725e-05 -2.947963e-06 8.115675e-06 -7.102842e-06 -7.544534e-05 -1.44708965e-05 -9.036463e-05
1.8389595e-05 6.2114515e-05 -6.9376747e-06 -4.130507e-05 -4.8088776e-05 9.321605e-06 5.742595e-05 -1.356438e-05
00000000: e76f 1538 6ef8 3e37 9ed5 45b6 8f28 0837
00000010: f354 eeb6 6938 9eb8 07c8 72b7 2482 bdb8
00000020: 5b43 9a37 7a43 8238 2cca e8b6 fb3e 2db8
00000030: eeb2 49b8 fd63 1c37 a5dc 7038 9292 63b7

resnet_denoiser/level_0/batch_normalization_3/FusedBatchNormV31 f4 [16]
0.99987 1.2620099 1.7237792 1.1560937 2.296002 2.9614928 6.8180685 3.2917695
0.71683705 2.150142 4.215364 2.074192 2.6002133 0.9539058 3.0679638 1.3462448
00000000: 7bf7 7f3f 8a89 a13f cca4 dc3f e1fa 933f
00000010: b2f1 1240 1989 3d40 9e2d da40 5aac 5240
00000020: a282 373f ed9b 0940 43e4 8640 90bf 0440
00000030: e569 2640 2c33 743f 8559 4440 c051 ac3f

resnet_denoiser/level_0/batch_normalization_4/FusedBatchNormV3 f4 [16]
-0.0495775 -0.13889383 -0.25867617 -0.11611819 -0.20488027 -0.15123825 -0.056016665 -0.15809608
-0.0786382 -0.053021535 -0.085996345 -0.05798875 -0.098860115 -0.07839502 -0.07376793 -0.17346807
00000000: c711 4bbd 2f3a 0ebe 3471 84be 60cf edbd
00000010: 22cc 51be 33de 1abe bb71 65bd f0e3 21be
00000020: 110d a1bd 1c2d 59bd da1e b0bd 9d85 6dbd
00000030: 2c77 cabd 918d a0bd a413 97bd 9da1 31be

resnet_denoiser/level_0/batch_normalization_4/FusedBatchNormV31 f4 [16]
5.3908386 2.6816068 3.3343961 5.674403 6.0847883 5.438635 7.4229727 4.591349
6.3342752 4.6687675 3.4306502 6.535158 7.6934085 4.462953 5.839741 5.328662
00000000: c081 ac40 729f 2b40 bf66 5540 b694 b540
00000010: 96b6 c240 4c09 ae40 fe88 ed40 55ec 9240
00000020: 62b2 ca40 8b66 9540 c68f 5b40 0420 d140
00000030: 6730 f640 83d0 8e40 29df ba40 6684 aa40

resnet_denoiser/level_0/batch_normalization_5/FusedBatchNormV3 f4 [32]
-0.08013298 -0.035908747 -0.12259092 -0.23884998 -0.061507348 -0.05794915 -0.079014085 -0.071063206
-0.116291784 -0.059089627 -0.08189939 -0.06983459 -0.0626322 -0.06386995 -0.06949476 -0.056678254
-0.38897526 -0.1310869 -0.12217457 -0.16059488 -0.09630444 -0.2302831 -0.3785478 -0.111666046
-0.080632366 -0.20426534 -0.34940386 -0.12763706 -0.20070128 -0.26617494 -0.2129681 -0.14766851
00000000: c31c a4bd 0d15 13bd f310 fbbd 1795 74be
00000010: 21ef 7bbd 175c 6dbd 23d2 a1bd 9689 91bd
00000020: 632a eebd f707 72bd deba a7bd 7005 8fbd
00000030: 5045 80bd 40ce 82bd 4553 8ebd 7527 68bd
00000040: c427 c7be a53b 06be a936 fabd fc72 24be
00000050: 433b c5bd 55cf 6bbe 04d1 c1be 2bb1 e4bd
00000060: 9522 a5bd ef2a 51be 10e5 b2be 4ab3 02be
00000070: a384 4dbe 1548 88be 4f14 5abe 6a36 17be

resnet_denoiser/level_0/batch_normalization_5/FusedBatchNormV31 f4 [32]
0.5595573 0.8185718 0.3483076 1.1805097 0.6948952 0.40748057 0.4070444 0.47444654
0.33177534 0.36788303 0.51550907 0.24222107 0.3821292 0.26798522 0.3622844 0.5118775
0.85184276 1.3442808 0.897108 0.814945 1.1716987 0.69677365 0.5680797 0.624566
0.57942593 0.39085528 0.86086893 0.8824702 0.7852037 0.63846314 0.38603982 0.6595846
00000000: 263f 0f3f ec8d 513f 6055 b23e f11a 973f
00000010: a7e4 313f 4ba1 d03e 2068 d03e a8ea f23e
00000020: 75de a93e 2a5b bc3e 67f8 033f cd08 783e
00000030: 70a6 c33e 5c35 893e 577d b93e 670a 033f
00000040: 5e12 5a3f 6511 ac3f dfa8 653f 3ca0 503f
00000050: 39fa 953f c25f 323f ac6d 113f 8fe3 1f3f
00000060: 4255 143f 2f1e c83e e861 5c3f 91e9 613f
00000070: 1c03 493f 5272 233f 03a7 c53e 89da 283f

resnet_denoiser/level_0/batch_normalization_6/FusedBatchNormV3 f4 [16]
4.9307953e-05 1.9792302e-05 -2.063959e-06 8.701348e-06 -6.965093e-06 -6.742982e-05 -1.5561314e-05 -9.31146e-05
3.262731e-05 4.9997525e-05 -3.7551956e-06 -3.2172822e-05 -5.0876617e-05 1.7170156e-05 3.7785994e-05 -2.2010772e-05
00000000: 03d0 4e38 a507 a637 8c82 0ab6 01fc 1137
00000010: b1b5 e9b6 1c69 8db8 ab89 82b7 8546 c3b8
00000020: 4fd9 0838 6fb4 5138 c501 7cb6 4ef1 06b8
00000030: 5a64 55b8 a108 9037 677c 1e38 c6a3 b8b7

resnet_denoiser/level_0/batch_normalization_6/FusedBatchNormV31 f4 [16]
1.3837663 2.1943538 1.2068801 1.23954 2.2514384 2.6468728 7.3315673 3.3919501
1.2718283 1.7306995 2.2816463 1.6155698 2.7509825 1.7571119 2.018709 2.1845052
00000000: 411f b13f 4b70 0c40 0c7b 9a3f 3fa9 9e3f
00000010: 9117 1040 5d66 2940 339c ea40 b615 5940
00000020: 45cb a23f 9087 dd3f 7e06 1240 feca ce3f
00000030: 1910 3040 0be9 e03f 8732 0140 efce 0b40

resnet_denoiser/level_0/batch_normalization_7/FusedBatchNormV3 f4 [16]
-0.09118264 -0.12879987 -0.13411613 -0.29543164 -0.0639453 -0.10441209 -0.09524596 -0.06424604
-0.1491616 -0.15960667 -0.14829263 -0.09156658 -0.086169995 -0.124471396 -0.054582853 -0.110898905
00000000: f7bd babd 1de4 03be bd55 09be d142 97be
00000010: c1f5 82bd 01d6 d5bd 5010 c3bd 6e93 83bd
00000020: d2bd 18be ee6f 23be 06da 17be 4287 bbbd
00000030: e579 b0bd dcea febd 4592 5fbd f71e e3bd

resnet_denoiser/level_0/batch_normalization_7/FusedBatchNormV31 f4 [16]
3.7501228 3.3267798 3.009936 2.876043 2.4309146 3.2897983 3.332624 2.7511044
2.6705332 3.3584073 6.168232 4.5997148 6.653084 6.2521257 9.125844 2.076597
00000000: 0302 7040 f6e9 5440 cba2 4040 1711 3840
00000010: 1b94 1b40 0e8c 5240 b649 5540 1812 3040
00000020: 04ea 2a40 25f0 5640 2862 c540 dd30 9340
00000030: 10e6 d440 6a11 c840 7503 1241 f7e6 0440

resnet_denoiser/level_0/batch_normalization_8/FusedBatchNormV3 f4 [32]
-0.048382554 -0.05136976 -0.085483275 -0.24741243 -0.078979604 -0.2659976 -0.09224986 -0.09917017
-0.15310246 -0.15113221 -0.101500444 -0.13667347 -0.060575943 -0.1747106 -0.038800687 -0.14684632
-1.7121865e-06 -1.6385827e-06 -0.16202405 -0.14725462 -0.21737668 -1.478171e-06 -0.028706511 -0.060919136
-0.09586326 -0.07836921 -0.101073444 -0.15922628 -2.1050837e-06 -0.17490052 -0.051306274 -0.09363413
00000000: c92c 46bd 1969 52bd db11 afbd af59 7dbe
00000010: 0fc0 a1bd d630 88be 7fed bcbd bb19 cbbd
00000020: e4c6 1cbe 67c2 1abe 77df cfbd 21f4 0bbe
00000030: 7b1e 78bd 56e7 32be 78ed 1ebd e25e 16be
00000040: 48ce e5b5 46ed dbb5 a2e9 25be eac9 16be
00000050: fe97 5ebe 9265 c6b5 eb29 ebbc 5886 79bd
00000060: f553 c4bd 0980 a0bd 98ff cebd 370c 23be
00000070: 1045 0db6 1f19 33be 8726 52bd 40c3 bfbd

resnet_denoiser/level_0/batch_normalization_8/FusedBatchNormV31 f4 [32]
0.40347123 0.9335069 0.3052162 0.92663133 0.6906608 1.6143526 0.27886218 0.6232869
0.4440446 1.1212586 0.8473601 0.87428653 0.58422506 0.60579807 0.5867466 0.65216744
0.34641594 0.35908592 1.8167208 0.8655236 0.6153786 0.30611977 0.78619266 1.9068149
0.7622217 1.033627 0.96003085 0.808835 0.44210732 0.83616763 1.2735337 0.7402175
00000000: c893 ce3e 4ffa 6e3f 4c45 9c3e b637 6d3f
00000010: 25cf 303f 1ba3 ce3f 06c7 8e3e bb8f 1f3f
00000020: d059 e33e 6785 8f3f 97ec 583f 3ed1 5f3f
00000030: c68f 153f 9515 1b3f 0635 163f 72f4 263f
00000040: 6e5d b13e 1cda b73e 4f8a e83f f492 5d3f
00000050: 7489 1d3f bbbb 9c3e ec43 493f 8312 f43f
00000060: f620 433f e44d 843f 95c4 753f d00f 4f3f
00000070: e45b e23e 150f 563f 2703 a33f e57e 3d3f

resnet_denoiser/level_0/batch_normalization_9/FusedBatchNormV3 f4 [16]
1.9649295e-05 8.649603e-06 -2.0711145e-06 4.993679e-06 -3.669035e-06 -2.538614e-05 -4.3638065e-06 -6.383685e-05
1.4624981e-05 1.4717451e-05 -1.4611671e-06 -8.661416e-06 -1.38149835e-05 6.9717885e-06 2.0622696e-05 -1.1030877e-05
00000000: 8ad4 a437 c31d 1137 7afd 0ab6 608f a736
00000010: 8b39 76b6 52f4 d4b7 d06c 92b6 26e0 85b8
00000020: d15d 7537 f9ea 7637 521d c4b5 8050 11b7
00000030: e7c6 67b7 35ef e936 e7fe ac37 4211 39b7

resnet_denoiser/level_0/batch_normalization_9/FusedBatchNormV31 f4 [16]
0.5514345 0.95896244 1.2110225 0.711409 1.1860036 0.99650884 2.0558932 2.3254337
0.5700862 0.5094574 0.8876719 0.43493012 0.74699616 0.713474 1.1017737 1.0947564
00000000: d02a 0d3f 907e 753f c902 9b3f e61e 363f
00000010: f7ce 973f 341b 7f3f c193 0340 e8d3 1440
00000020: 2bf1 113f cd6b 023f 773e 633f 29af de3e
00000030: 243b 3f3f 3ba6 363f ec06 8d3f fa20 8c3f

resnet_denoiser/level_1/batch_normalization_16/FusedBatchNormV3 f4 [16]
-0.00036864102 1.5704025e-07 -0.0003258307 -0.00026350157 0.00026079614 -0.0002040658 -0.0002808114 8.6551566e-08
-1.0056165e-07 0.00089491357 0.00046380778 8.940773e-05 7.394884e-07 5.6745124e-05 0.00039288262 -0.0007232807
00000000: 2946 c1b9 e59e 2834 42d4 aab9 9526 8ab9
00000010: 77bb 8839 7ffa 55b9 de39 93b9 3ade b933
00000020: 5af4 d7b3 a298 6a3a 3a2b f339 6980 bb38
00000030: 4281 4635 9d01 6e38 d0fb cd39 8c9a 3dba

resnet_denoiser/level_1/batch_normalization_16/FusedBatchNormV31 f4 [16]
52.051167 -0.07951747 61.59125 92.74469 62.59701 22.336573 13.11321 -0.035712063
-0.009170356 50.01274 57.17665 24.842632 0.24162309 15.305305 46.3298 55.86328
00000000: 6534 5042 0eda a2bd 715d 7642 487d b942
00000010: 5763 7a42 4db1 b241 b5cf 5141 d046 12bd
00000020: 433f 16bc 0c0d 4842 e4b4 6442 b6bd c641
00000030: 0b6c 773e 87e2 7441 b751 3942 0074 5f42

resnet_denoiser/level_1/batch_normalization_17/FusedBatchNormV3 f4 [16]
-0.310342 -7.4497154e-07 -0.10033928 -0.2801731 -0.08212377 -0.072612256 -0.17277724 -0.45021224
-0.18282878 -0.25411803 -0.107077874 -0.20624804 -0.28289694 -0.11610965 -0.51438224 -0.16365413
00000000: 26e5 9ebe 0efa 47b5 ae7e cdbd d972 8fbe
00000010: 8230 a8bd bcb5 94bd 84ec 30be 3882 e6be
00000020: 7837 3bbe c21b 82be a54b dbbd b032 53be
00000030: ded7 90be e5ca edbd 8eae 03bf f394 27be

resnet_denoiser/level_1/batch_normalization_17/FusedBatchNormV31 f4 [16]
2.2325795 0.9482192 1.8550723 0.8604578 4.6984363 4.984309 2.8668323 0.97960174
3.7432487 2.7821875 1.4395267 3.8009188 1.366486 2.4362843 0.68753386 2.407663
00000000: 95e2 0e40 7ebe 723f 0273 ed3f f646 5c3f
00000010: 9759 9640 767f 9f40 2e7a 3740 2ec7 7a3f
00000020: 6391 6f40 5c0f 3240 6942 b83f 4142 7340
00000030: 03e9 ae3f 15ec 1b40 3802 303f 2717 1a40

resnet_denoiser/level_1/batch_normalization_18/FusedBatchNormV3 f4 [32]
-0.29859784 -0.04284653 -0.1095832 -0.06770914 -0.090828024 -0.12208831 -0.049067736 -0.05531632
-0.06143967 -0.11127709 -0.06644029 -0.19176972 -0.086663425 -0.08131447 -0.21809103 -0.043882355
-0.24778336 -0.24812537 -0.08183778 -0.083652414 -0.05082856 -0.1453515 -0.07286295 -0.064676195
-1.6178402e-06 -0.13648632 -0.032912467 -0.22883478 -1.5777074e-06 -0.28752586 -0.07338361 -0.20079373
00000000: d1e1 98be d87f 2fbd 286d e0bd 17ab 8abd
00000010: 0b04 babd 7009 fabd 40fb 48bd 5e93 62bd
00000020: 2aa8 7bbd 3ee5 e3bd d911 88bd 485f 44be
00000030: 987c b1bd 3388 a6bd 4153 5fbe fcbd 33bd
00000040: ecba 7dbe 9414 7ebe 919a a7bd f551 abbd
00000050: 9c31 50bd 06d7 14be 2c39 95bd f474 84bd
00000060: 9124 d9b5 12c3 0bbe 39cf 06bd aa53 6abe
00000070: 9dc1 d3b5 9736 93be 254a 96bd df9c 4dbe

resnet_denoiser/level_1/batch_normalization_18/FusedBatchNormV31 f4 [32]
0.95713276 0.77102405 0.42106372 0.5179868 0.97084385 0.27057472 0.40977314 0.86474967
1.1216378 0.8679212 1.2443328 0.68888795 0.6060763 0.37324888 0.4602999 0.37796474
0.9327485 1.7448105 1.0878819 1.058487 1.7002422 1.6214885 0.59765136 1.6408595
0.3006012 1.1488913 0.730541 1.3798965 0.29469424 1.2959304 0.8394123 0.8789554
00000000: a706 753f d561 453f aa95 d73e c89a 043f
00000010: 3989 783f c588 8a3e c9cd d13e 3c60 5d3f
00000020: d491 8f3f 1530 5e3f 4c46 9f3f f65a 303f
00000030: d127 1b3f 7a1a bf3e 6eac eb3e 9884 c13e
00000040: 9bc8 6e3f f355 df3f b73f 8b3f 817c 873f
00000050: 89a1 d93f ef8c cf3f aeff 183f af07 d23f
00000060: 67e8 993e df0e 933f bc04 3b3f 73a0 b03f
00000070: 2ae2 963e 0ce1 a53f b9e3 563f 3903 613f

resnet_denoiser/level_1/batch_normalization_19/FusedBatchNormV3 f4 [16]
-8.158593e-05 -1.2944175e-05 -1.2934723e-05 -2.1516109e-05 4.208875e-05 -0.00024426635 -0.0001766353 -8.165225e-06
0.000101462836 5.3648528e-05 6.479462e-05 1.3895985e-05 2.5503488e-05 1.1306734e-05 6.73172e-05 -4.9248974e-05
00000000: 1d19 abb8 cf2a 59b7 3602 59b7 7e7d b4b7
00000010: 7488 3038 e010 80b9 2d37 39b9 60fd 08b7
00000020: 72c8 d438 ab04 6138 59e2 8738 cd22 6937
00000030: 53f0 d537 0eb2 3d37 a62c 8d38 af90 4eb8

resnet_denoiser/level_1/batch_normalization_19/FusedBatchNormV31 f4 [16]
11.519694 6.5536995 2.4450293 7.5726976 10.102199 26.736774 8.248413 3.3690197
9.25247 2.9982314 7.987718 3.8608885 8.332546 3.0497751 7.9382043 3.803814
00000000: ab50 3841 e8b7 d140 5c7b 1c40 8a53 f240
00000010: 9ba2 2141 eae4 d541 80f9 0341 059e 5740
00000020: 1e0a 1441 06e3 3f40 639b ff40 cc18 7740
00000030: 1c52 0541 842f 4340 c505 fe40 b071 7340

resnet_denoiser/level_1/batch_normalization_20/FusedBatchNormV3 f4 [16]
-1.2881274e-06 -0.065866776 -0.36519673 -0.07230494 -0.058759842 -0.18213098 -0.093524195 -0.098858915
-0.21013385 -0.17684503 -0.15682492 -0.0693807 -0.45375556 -0.49942932 -0.48358467 -0.22575861
00000000: b8e3 acb5 29e5 86bd 11fb babe 9d14 94bd
00000010: 29ae 70bd 8b80 3abe 9d89 bfbd 8b76 cabd
00000020: 542d 57be dd16 35be b696 20be 7817 8ebd
00000030: a652 e8be 33b5 ffbe 6998 f7be 442d 67be

resnet_denoiser/level_1/batch_normalization_20/FusedBatchNormV31 f4 [16]
1.6889327 5.35252 2.2537048 9.189712 4.7061443 5.9972157 5.434603 4.2044463
3.8879766 6.567422 3.8156726 9.961155 1.7138652 2.0929525 2.2371695 7.219332
00000000: f22e d83f d847 ab40 b33c 1040 0f09 1341
00000010: bc98 9640 31e9 bf40 45e8 ad40 d38a 8640
00000020: 9cd4 7840 5228 d240 fb33 7440 e460 1f41
00000030: ef5f db3f eff2 0540 c92d 0f40 c504 e740

resnet_denoiser/level_1/batch_normalization_21/FusedBatchNormV3 f4 [32]
-0.1337233 -0.17362598 -0.14644095 -2.034378e-06 -0.37682658 -0.33966804 -0.11501907 -0.15652393
-0.19817577 -0.4077986 -1.916586e-06 -0.18853043 -0.07069461 -0.1793302 -0.1770595 -0.33353335
-0.49875727 -0.03523659 -0.2127537 -0.018058546 -6.2713466e-06 -3.836978e-06 -4.054216e-06 4.8980346e-06
-0.21160327 2.695332e-06 -0.15477745 -0.08767765 -0.08394505 -0.43603563 -0.40149194 -0.5063985
00000000: c3ee 08be 02cb 31be 9ef4 15be 5986 08b6
00000010: 6aef c0be f8e8 adbe 1e8f ebbd cf47 20be
00000020: 97ee 4abe faca d0be b29e 00b6 1f0e 41be
00000030: 56c8 90bd 56a2 37be 164f 35be e2c4 aabe
00000040: 1d5d ffbe 3e54 10bd 1bdc 59be 84ef 93bc
00000050: 756e d2b6 64bf 80b6 7309 88b6 cc59 a436
00000060: 87ae 58be 73e1 3436 fb7d 1ebe 5790 b3bd
00000070: 62eb abbd 1040 dfbe 5a90 cdbe 55a3 01bf

resnet_denoiser/level_1/batch_normalization_21/FusedBatchNormV31 f4 [32]
0.8419126 0.4881835 3.0665565 0.2639406 1.4587283 1.2863824 0.72718287 1.105684
1.5165527 0.8531582 0.277556 2.6619213 1.0439022 0.9807381 0.58432853 1.2075008
1.1328797 0.6964633 0.9649117 1.0683272 0.73606366 0.4781339 0.4940877 -0.5756503
1.1241474 -0.36142343 1.4541476 2.1239984 1.1702807 0.9359709 1.0823431 1.3519307
00000000: 9687 573f 30f3 f93e 7642 4440 3923 873e
00000010: 9cb7 ba3f 2ea8 a43f a828 3a3f 0e87 8d3f
00000020: 661e c23f 9368 5a3f d21b 8e3e eb5c 2a40
00000030: 969e 853f a711 7b3f 8e96 153f 638f 9a3f
00000040: 3402 913f 6b4b 323f 7404 773f f2be 883f
00000050: ab6e 3c3f f7cd f43e 10f9 fc3e d15d 13bf
00000060: 10e4 8f3f 7e0c b9be 8221 ba3f 97ef 0740
00000070: c2cb 953f ca9b 6f3f 388a 8a3f 110c ad3f

resnet_denoiser/level_1/batch_normalization_22/FusedBatchNormV3 f4 [16]
-3.147049e-05 -6.0781963e-06 -2.027361e-05 -1.6307764e-05 2.1374612e-05 -8.4144085e-05 -0.00011121717 -7.746834e-06
3.0945193e-05 2.2158929e-05 2.333233e-05 1.1975375e-05 6.2781955e-06 9.727882e-06 3.0910218e-05 -4.7814978e-05
00000000: 2eff 03b8 4ff3 cbb6 3f11 aab7 a8cc 88b7
00000010: a14d b337 8376 b0b8 433d e9b8 66f8 01b7
00000020: 26cb 0138 f0e1 b937 ccb9 c337 d8e9 4837
00000030: 4aa9 d236 ef34 2337 98a5 0138 f18c 48b8

resnet_denoiser/level_1/batch_normalization_22/FusedBatchNormV31 f4 [16]
4.4435577 3.0775476 3.8322682 5.7394843 5.1299343 9.21027 5.193558 3.196195
2.8219194 1.238365 2.87635 3.3272045 2.0514116 2.6238737 3.6449282 3.693092
00000000: a031 8e40 8af6 4440 e243 7540 dba9 b740
00000010: 6c28 a440 445d 1341 a131 a640 758e 4c40
00000020: 549a 3440 bf82 9e3f 1e16 3840 ebf0 5440
00000030: 544a 0340 8ced 2740 8146 6940 9f5b 6c40

resnet_denoiser/level_1/batch_normalization_23/FusedBatchNormV3 f4 [16]
-0.16609369 -0.11805891 -0.06359923 -0.14971954 -0.37594974 -0.07308035 -0.08753733 -0.079823226
-0.062228233 -0.13924812 -0.27006403 -0.23715356 -0.3555853 -0.20265894 -0.05169795 -0.08266808
00000000: 7714 2abe dfc8 f1bd 5040 82bd 1450 19be
00000010: 7c7c c0be 27ab 95bd c646 b3bd 5c7a a3bd
00000020: 08e3 7ebd 0f97 0ebe d545 8abe 62d8 72be
00000030: 470f b6be d385 4fbe 3bc1 53bd e24d a9bd

resnet_denoiser/level_1/batch_normalization_23/FusedBatchNormV31 f4 [16]
6.196601 7.19246 14.718942 3.615699 3.3576696 12.641345 12.928843 15.649168
11.543891 9.754246 6.4849916 3.2717874 2.841182 2.8505044 11.112405 14.691766
00000000: 8e4a c640 a228 e640 c980 6b41 9d67 6740
00000010: 0fe4 5640 f342 4a41 8adc 4e41 fe62 7a41
00000020: c7b3 3841 6411 1c41 0d85 cf40 f764 5140
00000030: edd5 3540 aa6e 3640 69cc 3141 7911 6b41

resnet_denoiser/level_1/batch_normalization_24/FusedBatchNormV3 f4 [32]
-0.3202159 -0.24896845 -0.3879846 -6.9281255e-06 -1.0273341e-05 -0.15281503 -0.30008656 -0.712628
-0.45497605 -0.35228875 -0.47259566 -0.4337502 -0.40865085 5.723746e-06 -6.9791754e-06 -0.33520588
-0.26452628 -0.5133981 -0.06824906 4.8539255e-06 -0.121433295 -0.09292711 -0.1757217 -0.35047483
-5.7102666e-06 -0.21226983 -7.749655e-06 -0.08997075 -0.15183248 6.112434e-06 -0.24327491 -0.19710898
00000000: 57f3 a3be 96f1 7ebe eba5 c6be 2578 e8b6
00000010: aa5b 2cb7 8b7b 1cbe f2a4 99be ca6e 36bf
00000020: 9ff2 e8be 315f b4be 0ff8 f1be 8214 debe
00000030: af3a d1be 9b0e c036 a92e eab6 1ba0 abbe
00000040: fd6f 87be 0f6e 03bf 2ac6 8bbd e7de a236
00000050: 05b2 f8bd 9250 bebd 64f0 33be 7071 b3be
00000060: d19a bfb6 435d 59be 8404 02b7 9642 b8bd
00000070: f979 1bbe 6919 cd36 0f1d 79be f0d6 49be

resnet_denoiser/level_1/batch_normalization_24/FusedBatchNormV31 f4 [32]
0.9101664 4.123598 1.1722788 0.85907567 1.1761594 1.5067782 1.0860986 1.570576
1.0284438 1.8109239 1.2610371 1.8295249 1.6402533 -0.741233 0.7918611 2.2866495
1.6827049 0.9518273 1.098922 -0.56551474 0.9970603 2.7879431 0.99241847 0.71134067
0.67615366 2.0826197 0.8669286 2.1467774 1.2900519 -0.7278696 1.8195451 0.7979315
00000000: aa00 693f 84f4 8340 3b0d 963f 62ec 5b3f
00000010: 648c 963f 1cde c03f 4705 8b3f a208 c93f
00000020: 0ca4 833f 5bcc e73f aa69 a13f df2d ea3f
00000030: d2f3 d13f 72c1 3dbf 69b7 4a3f 7758 1240
00000040: e062 d73f f4aa 733f 7aa9 8c3f 93c5 10bf
00000050: 583f 7f3f a96d 3240 230f 7e3f 6c1a 363f
00000060: 6818 2d3f a449 0540 08ef 5d3f cd64 0940
00000070: 6c20 a53f a955 3abf dbe6 e83f 3d45 4c3f

resnet_denoiser/level_1/batch_normalization_25/FusedBatchNormV3 f4 [16]
-1.1479763e-05 -3.995924e-06 -1.1860654e-05 -2.7301332e-06 7.3913134e-06 -1.278274e-05 -4.0772484e-05 -2.6876685e-06
1.6060727e-05 1.6059643e-05 1.7756664e-05 3.509222e-06 2.273953e-06 4.1765707e-06 1.677105e-05 -2.0099345e-05
00000000: 3599 40b7 ba14 86b6 1ffd 46b7 5537 37b6
00000010: e602 f836 7375 56b7 1f03 2bb8 cb5d 34b6
00000020: 26ba 8637 d2b7 8637 25f4 9437 fa7f 6b36
00000030: 379a 1836 7824 8c36 8eaf 8c37 049b a8b7

resnet_denoiser/level_1/batch_normalization_25/FusedBatchNormV31 f4 [16]
1.6209232 2.02337 2.2419147 0.96084183 1.7737597 1.39919 1.9039667 1.1085243
1.4645824 0.8975079 2.1890395 0.9750042 0.7429891 1.1265663 1.9776655 1.5524007
00000000: 697a cf3f e57e 0140 887b 0f40 bbf9 753f
00000010: 8f0a e33f a818 b33f 2eb5 f33f 20e4 8d3f
00000020: 7077 bb3f 14c3 653f 3919 0c40 e099 793f
00000030: 8934 3e3f 5333 903f 2524 fd3f 11b5 c63f

resnet_denoiser/level_1/batch_normalization_26/FusedBatchNormV3 f4 [16]
-0.01192254 -0.039547257 -0.04780955 -0.037793223 -0.009921438 -0.17078567 -0.030378476 -0.04684117
-0.096715175 -0.029868681 -0.08281615 -0.02426358 -4.3256424e-07 -0.24620984 -6.73723e-07 -0.049243145
00000000: c256 43bc 4efc 21bd f2d3 43bd 11cd 1abd
00000010: 878d 22bc 70e2 2ebe 48dc f8bc 87dc 3fbd
00000020: 9b12 c6bd 2aaf f4bc 839b a9bd 6ac4 c6bc
00000030: 2d3b e8b4 6f1e 7cbe e4d9 34b5 2eb3 49bd

resnet_denoiser/level_1/batch_normalization_26/FusedBatchNormV31 f4 [16]
13.384531 7.6515684 4.9799147 7.4273376 13.871606 1.7065208 7.8631077 7.1133866
6.4900007 7.008077 7.2764554 10.920689 2.0926318 1.6441995 2.5927927 6.0053678
00000000: 0a27 5641 a6d9 f440 765b 9f40 c0ac ed40
00000010: 19f2 5d41 466f da3f 949e fb40 dda0 e340
00000020: 16ae cf40 2b42 e040 b9d8 e840 24bb 2e41
00000030: aeed 0540 2175 d23f 51f0 2540 f92b c040

resnet_denoiser/level_1/batch_normalization_27/FusedBatchNormV3 f4 [32]
-0.16473988 -3.2579403e-06 2.9244816e-06 -0.057851437 2.1840485e-06 -0.0908934 -2.461583e-06 -3.3561505e-06
-0.053474266 3.647639e-06 -0.105247974 -0.27501994 -2.3934883e-06 2.908225e-06 -0.26920906 -3.0613844e-06
-2.2437966e-06 -0.16878383 -0.076376095 -0.17580764 -0.06134386 -0.14854833 -0.2824063 2.9362704e-06
-2.0941936e-06 -0.2263852 -2.6598034e-06 -2.7792635e-06 -0.1740165 1.4382645e-06 -0.16160537 -1.8760023e-06
00000000: 92b1 28be fda2 5ab6 3642 4436 a1f5 6cbd
00000010: ab91 1236 5226 babd ad31 25b6 3a3a 61b6
00000020: d507 5bbd f6c9 7436 408c d7bd 6acf 8cbe
00000030: d19f 20b6 ed2a 4336 c5d5 89be 2f72 4db6
00000040: 2294 16b6 abd5 2cbe 126b 9cbd eb06 34be
00000050: b343 7bbd 0e1d 18be 8f97 90be be0c 4536
00000060: f989 0cb6 86d1 67be 137f 32b6 6283 3ab6
00000070: 6231 32be 640a c135 e17b 25be f3ca fbb5

resnet_denoiser/level_1/batch_normalization_27/FusedBatchNormV31 f4 [32]
7.588225 1.1528114 -1.0645268 7.079967 -0.94257367 8.115613 0.99773675 1.273639
2.470258 -1.1049118 1.1743296 1.8489014 1.0668124 -1.1416229 1.2792323 1.0734473
0.91175956 2.9494078 4.8698826 0.7103383 2.571147 0.75046957 0.93544346 -0.9767115
0.92774534 1.0115414 0.9107349 0.9868269 4.638172 -0.50700253 1.3835433 0.7855163
00000000: bdd2 f240 538f 933f 6a42 88bf 178f e240
00000010: 824c 71bf 8dd9 0141 ad6b 7f3f 9a06 a33f
00000020: b518 1e40 c06d 8dbf 6f50 963f cda8 ec3f
00000030: 4f8d 883f b320 92bf e2bd a33f b966 893f
00000040: 1369 693f 19c3 3c40 14d6 9b40 bbd8 353f
00000050: ac8d 2440 c61e 403f 3979 6f3f c409 7abf
00000060: b880 6d3f 307a 813f ec25 693f b0a0 7c3f
00000070: e86b 9440 ebca 01bf f217 b13f 9917 493f

resnet_denoiser/level_1/batch_normalization_28/FusedBatchNormV3 f4 [16]
-6.551289e-06 -1.8233397e-06 -8.043375e-06 -4.7127005e-06 -2.0090432e-09 1.05957065e-08 -5.0749546e-05 -1.6911132e-06
-1.2517879e-08 1.0080282e-05 1.7381873e-05 2.8839886e-06 2.9440453e-06 3.3491908e-06 8.253902e-06 -1.2224277e-05
00000000: 25d3 dbb6 7ab9 f4b5 08f2 06b7 ca21 9eb6
00000010: 760f 0ab1 6908 3632 e9db 54b8 35fa e2b5
00000020: 370e 57b2 7b1e 2937 4acf 9137 8c8a 4136
00000030: 5092 4536 a9c2 6036 3d7a 0a37 df16 4db7

resnet_denoiser/level_1/batch_normalization_28/FusedBatchNormV31 f4 [16]
0.9250368 0.9233451 1.5203655 1.6585475 -0.00048212006 -0.0011597947 2.3698673 0.69745076
-0.0011415106 0.5633361 2.1427958 0.80130786 0.9619754 0.9033886 0.9733175 0.94416106
00000000: 36cf 6c3f 5860 6c3f 569b c23f 494b d43f
00000010: 0fc5 fcb9 4104 98ba e8ab 1740 228c 323f
00000020: bd9e 95ba cb36 103f 9123 0940 8322 4d3f
00000030: 0544 763f 7a44 673f 562b 793f 8ab4 713f

resnet_denoiser/level_1/batch_normalization_29/FusedBatchNormV3 f4 [16]
-0.014406184 8.9811044e-07 -5.60597e-07 -0.0148817 -0.033980608 -0.038711388 -0.05952607 6.788665e-07
-0.008629461 4.2251307e-07 -0.0097325295 6.4502836e-07 -5.4776154e-07 -6.379294e-07 -5.217893e-07 -0.061495654
00000000: ea07 6cbc ae15 7135 ef7b 16b5 60d2 73bc
00000010: 402f 0bbd d58f 1ebd 9cd1 73bd 5a3b 3635
00000020: 9562 0dbc c1d5 e234 3075 1fbc 0326 2d35
00000030: e309 13b5 2d3e 2bb5 1611 0cb5 dee2 7bbd

resnet_denoiser/level_1/batch_normalization_29/FusedBatchNormV31 f4 [16]
6.403425 -1.3602462 1.1127445 8.022865 3.184226 2.8221512 7.6059995 -1.2006159
5.022275 -0.9017466 9.779165 -1.1104696 1.3133215 1.1147583 0.9478513 4.10207
00000000: dce8 cc40 8c1c aebf 696e 8e3f a85d 0041
00000010: 5cca 4b40 209e 3440 5964 f340 c8ad 99bf
00000020: 7ab6 a040 ddd8 66bf 7677 1c41 de23 8ebf
00000030: eb1a a83f 66b0 8e3f 62a6 723f 2844 8340

resnet_denoiser/level_1/batch_normalization_30/FusedBatchNormV3 f4 [32]
-2.450734e-06 -2.4116923e-06 -2.5975712e-06 -1.8480755e-06 -1.3735101e-06 -2.3830705e-06 -0.030891096 1.7763304e-06
1.0314782e-07 -0.0410838 1.9542451e-06 1.92164e-06 1.5594144e-06 -0.08871146 -8.7580156e-07 -1.0348897e-06
-0.020281997 -0.037189353 -1.1820263e-06 -0.009044155 -0.04056485 -1.3079022e-06 -0.027396983 1.4099927e-06
-0.028475842 -0.015288526 -1.765329e-06 1.6388725e-06 -1.7128834e-06 -6.2494496e-07 -1.4631261e-06 -5.6298666e-07
00000000: 4a77 24b6 8fd8 21b6 ef51 2eb6 640b f8b5
00000010: 7359 b8b5 d7ec 1fb6 530f fdbc 3f6a ee35
00000020: 1d82 dd33 7d47 28bd ad25 0336 86f5 0036
00000030: 124d d135 5bae b5bd a018 6bb5 8ae6 8ab5
00000040: 6e26 a6bc dd53 18bd 1da6 9eb5 ef2d 14bc
00000050: 5427 26bd 2d8b afb5 a36f e0bc fb3e bd35
00000060: 2b46 e9bc ba7c 7abc 3ef0 ecb5 3bf7 db35
00000070: 3ae6 e5b5 e4c1 27b5 a160 c4b5 2620 17b5

resnet_denoiser/level_1/batch_normalization_30/FusedBatchNormV31 f4 [32]
1.9741275 2.3253405 2.1684372 2.1297247 2.2748222 2.4810703 4.228454 -2.0460436
-1.943794 4.0456734 -2.1542695 -1.8804727 -2.251483 15.232068 2.0739765 2.105326
16.749453 3.5515559 1.3324711 4.050074 3.671536 1.2284063 23.90143 -1.4090188
14.344836 14.24148 1.6104779 -1.4000748 1.3510972 1.3717767 1.6456709 1.69346
00000000: 36b0 fc3f 61d2 1440 adc7 0a40 694d 0840
00000010: b096 1140 dbc9 1e40 7f4f 8740 61f2 02c0
00000020: 3ece f8bf 2876 8140 8ddf 09c0 54b3 f0bf
00000030: 4c18 10c0 8db6 7341 08bc 0440 a9bd 0640
00000040: e1fe 8541 b14c 6340 6a8e aa3f 359a 8140
00000050: 72fa 6a40 6b3c 9d3f 2136 bf41 ba5a b4bf
00000060: 7384 6541 1add 6341 2424 ce3f a735 b3bf
00000070: c1f0 ac3f 6196 af3f 58a5 d23f 4cc3 d83f

resnet_denoiser/level_1/batch_normalization_31/FusedBatchNormV3 f4 [16]
-5.3909077e-10 -4.795807e-07 -4.7272314e-07 4.2359714e-12 2.9966507e-09 3.8411838e-10 -1.1295896e-06 -8.431548e-08
5.0954596e-10 5.607769e-06 3.405304e-07 3.1833267e-07 1.5282544e-07 7.438067e-07 7.853201e-07 -2.5600987e-06
00000000: 242f 14b0 89bc 00b5 93ca fdb4 3d0a 952c
00000010: a3ed 4d31 db2b d32f 679c 97b5 ed10 b5b3
00000020: 1c10 0c30 5e2a bc36 24d2 b634 4fe7 aa34
00000030: 5618 2434 02aa 4735 c9ce 5235 29ce 2bb6

resnet_denoiser/level_1/batch_normalization_31/FusedBatchNormV31 f4 [16]
7.6119184e-05 0.24289484 0.08935199 -1.4907672e-06 0.00071911566 -4.2045223e-05 0.05274865 0.034768883
4.646577e-05 0.31338918 0.041978423 0.088448636 0.049937304 0.2006255 0.09260698 0.19773442
00000000: 2da2 9f38 6db9 783e 2dfe b63d 5f16 c8b5
00000010: 0983 3c3a b759 30b8 f80e 583d d169 0e3d
00000020: 3ee4 4238 8c74 a03e 91f1 2b3d 8f24 b53d
00000030: 0f8b 4c3d c570 4d3e baa8 bd3d e47a 4a3e

resnet_denoiser/level_2/batch_normalization_32/FusedBatchNormV3 f4 [16]
0.88852495 0.044313185 0.8832467 0.000116214906 0.6869197 -0.3304287 -0.63085705 0.3182252
0.67989403 1.1110308 -0.68851894 0.13236217 -0.55925626 0.78367096 -0.6936879 0.7781125
00000000: 5f76 633f be81 353d 751c 623f 67b8 f338
00000010: f8d9 2f3f f32d a9be d97f 21bf 6aee a23e
00000020: 890d 2e3f 4236 8e3f c742 30bf f389 073e
00000030: 6b2b 0fbf a99e 483f 8895 31bf 6132 473f

resnet_denoiser/level_2/batch_normalization_32/FusedBatchNormV31 f4 [16]
6.818593 31.64151 9.39053 0.015855672 12.402746 29.981358 26.640648 10.723301
15.407866 6.0146337 13.658943 25.016743 10.451315 1.6383054 13.875147 17.672478
00000000: ea31 da40 d021 fd41 9c3f 1641 c1e3 813c
00000010: a671 4641 d2d9 ef41 0c20 d541 a492 2b41
00000020: 9e86 7641 e177 c040 088b 5a41 4a22 c841
00000030: 9638 2741 feb3 d13f 9a00 5e41 3c61 8d41

resnet_denoiser/level_2/batch_normalization_33/FusedBatchNormV3 f4 [16]
-0.46187812 -0.56256354 -0.25642648 -0.21110576 -0.23349985 -0.7702069 -1.0443914e-06 -0.04410283
-0.17354353 -0.10791953 -0.06022399 -0.0964738 -0.4737553 -0.27421305 -0.51545644 -0.13192649
00000000: 4a7b ecbe 2a04 10bf 554a 83be 1c2c 58be
00000010: 961a 6fbe 482c 45bf 042d 8cb5 2ba5 34bd
00000020: 65b5 31be ea04 ddbd 6ead 76bd 0e94 c5bd
00000030: 0e90 f2be a765 8cbe f4f4 03bf bd17 07be

resnet_denoiser/level_2/batch_normalization_33/FusedBatchNormV31 f4 [16]
1.0140585 1.8436141 1.5443332 1.8400085 2.0241194 1.9519339 0.42058262 4.161491
1.9859316 2.728024 8.131988 6.5675898 1.1894088 0.92214197 1.0727795 4.3459086
00000000: abcc 813f 8cfb eb3f b6ac c53f 6685 eb3f
00000010: 2c8b 0140 f8d8 f93f 9b56 d73e ef2a 8540
00000020: 0233 fe3f f297 2e40 9f1c 0241 b229 d240
00000030: 8c3e 983f 7f11 6c3f d750 893f af11 8b40

resnet_denoiser/level_2/batch_normalization_34/FusedBatchNormV3 f4 [32]
-3.6187562e-06 -0.058262493 -0.15903997 -0.54050094 -1.5942915e-06 -0.11432566 -0.13482876 -0.1922484
-4.847983e-06 -4.8232446e-06 -0.08989097 -0.19656688 1.366076e-06 -0.26781082 -0.24527095 -0.10739377
-1.7691651e-06 -7.945021e-07 -0.14607069 -0.108286045 2.1623002e-06 -0.040552024 -0.051562548 -0.17501159
-0.4040426 -0.122220874 -0.26010644 -0.17971958 1.6747136e-06 -0.19400616 -0.2893066 -0.13438302
00000000: c2d9 72b6 a7a4 6ebd 60db 22be 455e 0abf
00000010: 70fb d5b5 9223 eabd 8d10 0abe c4dc 44be
00000020: dbab a2b6 5bd7 a1b6 c218 b8bd d448 49be
00000030: 045a b735 801e 89be 4f28 7bbe 44f1 dbbd
00000040: 0d74 edb5 c545 55b5 8e93 15be 13c5 ddbd
00000050: 091c 1136 e119 26bd 4033 53bd 3d36 33be
00000060: acde cebe f04e fabd ac2c 85be 6908 38be
00000070: b9c6 e035 8da9 46be ff1f 94be b49b 09be

resnet_denoiser/level_2/batch_normalization_34/FusedBatchNormV31 f4 [32]
0.26585156 1.4164381 0.72660834 0.7141531 0.13510168 1.0849808 1.7882469 0.9397306
0.3041039 0.34054634 0.7317609 0.98215485 -0.11084101 1.4488412 1.3565028 0.9128588
0.17139672 0.06374761 0.9312641 0.7391857 -0.19772543 1.1336218 0.6170522 1.022494
0.9326094 0.32762137 0.9541341 0.93373823 -0.10395013 1.18081 0.90570986 0.31313956
00000000: b21d 883e d84d b53f 0103 3a3f bdd2 363f
00000010: 1858 0a3e a7e0 8a3f 46e5 e43f 2f92 703f
00000020: 82b3 9b3e 175c ae3e af54 3b3f 806e 7b3f
00000030: 9d00 e3bd a173 b93f e2a1 ad3f 1db1 693f
00000040: 9f82 2f3e 1b8e 823d 5367 6e3f 463b 3d3f
00000050: 8978 4abe 851a 913f 22f7 1d3f 15e1 823f
00000060: 7dbf 6e3f fdbd a73e 2242 743f 7809 6f3f
00000070: cee3 d4bd c824 973f 9adc 673f d453 a03e

resnet_denoiser/level_2/batch_normalization_35/FusedBatchNormV3 f4 [16]
0.68716943 0.009120978 0.32026997 0.015473125 0.5645678 -0.06647672 -0.22695883 0.20978191
0.2850771 0.76875424 -0.1863364 0.030389816 -0.514821 2.9717178 -0.3536786 0.37977773
00000000: 56ea 2f3f 2870 153c 6dfa a33e fd82 7d3c
00000010: 8487 103f f224 88bd e567 68be 12d1 563e
00000020: a0f5 913e 14cd 443f f8ce 3ebe 10f4 f83c
00000030: 4fcb 03bf a030 3e40 5d15 b5be 3a72 c23e

resnet_denoiser/level_2/batch_normalization_35/FusedBatchNormV31 f4 [16]
5.273379 6.5127664 3.405056 2.1110613 10.193609 6.0317473 9.5843115 7.069065
6.4604626 4.1616983 3.69657 5.7437415 9.620915 6.2125325 7.07428 8.625505
00000000: 85bf a840 9568 d040 70ec 5940 a11b 0740
00000010: 0619 2341 1304 c140 5759 1941 c835 e240
00000020: 1cbc ce40 a22c 8540 9a94 6c40 bbcc b740
00000030: 45ef 1941 11cd c640 8060 e240 1202 0a41

resnet_denoiser/level_2/batch_normalization_36/FusedBatchNormV3 f4 [16]
-9.444703e-07 -0.38567388 -0.5671705 -0.23215872 -0.35614818 -0.88245535 -0.28802916 -0.5799246
-0.37356362 -0.41539136 -0.26814947 -0.17748605 -0.06352459 -0.20740388 -0.14158823 -0.2853834
00000000: 8187 7db5 0c77 c5be 1632 11bf 04bb 6dbe
00000010: 0e59 b6be 98e8 61bf 8f78 93be f075 14bf
00000020: bb43 bfbe 2dae d4be e34a 89be e7be 35be
00000030: 2e19 82bd af61 54be 81fc 10be c61d 92be

resnet_denoiser/level_2/batch_normalization_36/FusedBatchNormV31 f4 [16]
0.59811753 1.6108779 0.7918018 2.3264802 2.467173 0.6169373 2.1541095 2.4114883
1.485978 1.9870957 1.164834 3.5479898 1.3038051 2.376986 3.4377725 2.3638961
00000000: 3b1e 193f 3f31 ce3f 86b3 4a3f 0de5 1440
00000010: 2ae6 1d40 9aef 1d3f eedc 0940 d355 1a40
00000020: 8734 be3f 2759 fe3f 4819 953f 4412 6340
00000030: 16e3 a63f 8a20 1840 7704 5c40 134a 1740

resnet_denoiser/level_2/batch_normalization_37/FusedBatchNormV3 f4 [32]
-3.1328864e-06 -0.18453391 -0.31086674 -0.1847779 -0.16312641 -0.086617604 -0.2633419 -0.16709828
-0.13450779 -0.22960602 -4.0986247e-06 -0.14168619 3.7754412e-06 -0.2827452 -0.21719427 -0.13199301
-0.20690374 5.0891485e-06 -0.2433339 -0.16617234 -0.24553649 6.834344e-06 -7.736835e-06 -0.18106562
-7.1145532e-06 -0.23677099 -0.33220884 -0.15746635 -0.37350568 -0.17374185 -0.1228185 -0.08653481
00000000: 943e 52b6 75f6 3cbe ed29 9fbe 6b36 3dbe
00000010: 9c0a 27be 9264 b1bd c0d4 86be d01b 2bbe
00000020: 69bc 09be d71d 6bbe eb86 89b6 2f16 11be
00000030: 965d 7d36 fbc3 90be 2d68 5ebe 2d29 07be
00000040: 93de 53be 74c3 aa36 862c 79be 1529 2abe
00000050: eb6d 7bbe 9152 e536 74cd 01b7 4469 39be
00000060: 8cb9 eeb6 1874 72be 4717 aabe dc3e 21be
00000070: 233c bfbe 62e9 31be 4488 fbbd 2a39 b1bd

resnet_denoiser/level_2/batch_normalization_37/FusedBatchNormV31 f4 [32]
0.295775 0.6920621 1.0671886 1.0815314 1.8188392 1.3559909 0.8178159 0.7184259
1.1294893 0.53836906 0.3444148 1.4128267 -0.40520087 0.60847366 0.65381575 0.6402312
1.1483564 -0.52539027 0.8984744 1.4159235 0.704351 -0.60625535 0.7996539 2.0144327
0.66155946 1.1097268 1.597297 0.6376352 1.8548263 1.8916512 1.6582339 1.0281183
00000000: d26f 973e fb2a 313f a399 883f 9f6f 8a3f
00000010: b9cf e83f 1c91 ad3f 625c 513f c3ea 373f
00000020: 1b93 903f 8ed2 093f 2357 b03e 81d7 b43f
00000030: 7d76 cfbe eec4 1b3f 7860 273f 31e6 233f
00000040: 58fd 923f fa7f 06bf 6b02 663f fb3c b53f
00000050: 5950 343f 8d33 1bbf 1eb6 4c3f 77ec 0040
00000060: f65b 293f 870b 8e3f 3a74 cc3f 0f3c 233f
00000070: f36a ed3f a021 f23f 0241 d43f 6199 833f

resnet_denoiser/level_2/batch_normalization_38/FusedBatchNormV3 f4 [16]
0.22876684 0.0027506573 0.065371856 0.011297439 0.10748603 -0.01993303 -0.07013009 0.08821042
0.096323885 0.2775219 -0.06624856 0.00875012 -0.35335827 0.49215043 -0.12080309 0.04562002
00000000: db41 6a3e 5f44 343b aee1 853d e518 393c
00000010: a321 dc3d 984a a3bc 5da0 8fbd aaa7 b43d
00000020: 7545 c53d 5a17 8e3e 53ad 87bd aa5c 0f3c
00000030: 60eb b4be 24fb fb3e 9c67 f7bd 0fdc 3a3d

resnet_denoiser/level_2/batch_normalization_38/FusedBatchNormV31 f4 [16]
1.75557 1.9640857 0.6950225 1.5413556 1.9407245 1.8086182 2.9615445 2.972445
2.182907 1.5023819 1.314249 1.6537923 6.6035185 1.0288663 2.4163036 1.0361211
00000000: 85b6 e03f 2967 fb3f ffec 313f 244b c53f
00000010: a969 f83f cd80 e73f f289 3d40 8a3c 3e40
00000020: c0b4 0b40 0d4e c03f 5039 a83f 77af d33f
00000030: 0650 d340 e4b1 833f b8a4 1a40 9e9f 843f

resnet_denoiser/level_2/batch_normalization_39/FusedBatchNormV3 f4 [16]
3.7646873e-07 -8.493463e-08 -0.05116252 -0.039765947 -3.098906e-07 -0.021538965 -0.0677917 -0.048185986
-0.0527671 -0.23804255 -0.04139439 2.4623677e-07 -0.041281104 -0.01908925 -2.6372373e-07 -0.017467488
00000000: 781d ca34 4f65 b6b3 ca8f 51bd 9ee1 22bd
00000010: 0a5f a6b4 7c72 b0bc 60d6 8abd ab5e 45bd
00000020: 5122 58bd 6dc1 73be 2a8d 29bd 8632 8434
00000030: 6016 29bd 0f61 9cbc ea95 8db4 fa17 8fbc

resnet_denoiser/level_2/batch_normalization_39/FusedBatchNormV31 f4 [16]
-0.39860365 0.16471726 3.4515042 4.533504 0.28159836 2.6502488 6.085799 4.6303387
2.4830375 1.5782328 3.3194437 -0.22658129 4.703474 1.364971 0.31880805 2.7110806
00000000: c715 ccbe a4ab 283e 72e5 5c40 7712 9140
00000010: a92d 903e ad9d 2940 debe c240 bc2b 9440
00000020: 16ea 1e40 8803 ca3f c471 5440 ed04 68be
00000030: dc82 9640 5fb7 ae3f cf3a a33e 5882 2d40

resnet_denoiser/level_2/batch_normalization_40/FusedBatchNormV3 f4 [32]
-0.20906557 -0.2275709 -2.2394224e-06 -0.05203076 -0.07865535 -0.105635054 -0.13000695 -0.18005389
1.5824057e-06 -0.049263988 7.5679367e-07 -0.070051156 -0.2423741 -0.06693804 -0.07759815 -0.14791687
-0.23175709 -0.21922128 -0.06607101 -0.036334757 -0.20045674 -0.37135598 -0.23403378 -2.8048883e-06
-0.22634803 -0.18887801 -0.11356717 -0.06042814 2.0647042e-06 -0.06565124 -0.122417554 -0.35321343
00000000: 4915 56be 5908 69be fc48 16b6 351e 55bd
00000010: 0e16 a1bd 3157 d8bd 8b20 05be 0c60 38be
00000020: 0c63 d435 09c9 49bd 7726 4b35 fb76 8fbd
00000030: eb30 78be d016 89bd c7eb 9ebd 8577 17be
00000040: bb51 6dbe 8b7b 60be 3d50 87bd c1d3 14bd
00000050: 8844 4dbe 5f22 bebe 8da6 6fbe 9d3b 3cb6
00000060: c7c7 67be 3d69 41be e895 e8bd 7f83 77bd
00000070: 598f 0a36 2874 86bd 0eb6 fabd 64d8 b4be

resnet_denoiser/level_2/batch_normalization_40/FusedBatchNormV31 f4 [32]
2.4243946 2.7999604 1.4966793 3.4946907 1.6802162 4.2296762 3.6942267 3.3031898
-1.0516697 2.4109766 -0.62543505 2.9736607 2.887858 2.838304 3.221667 1.748548
1.8894984 2.1712835 2.004872 6.287469 2.6477807 3.0057175 1.6159942 1.7862586
2.7675552 2.7065277 2.4452052 3.7954886 -1.4504639 5.1267138 11.620055 1.5522469
00000000: 4829 1b40 8d32 3340 3093 bf3f 03a9 5f40
00000010: 5311 d73f 8259 8740 366e 6c40 7667 5340
00000020: 1d9d 86bf 714d 1a40 831c 20bf 7550 3e40
00000030: aad2 3840 c6a6 3540 cb2f 4e40 6cd0 df3f
00000040: 15db f13f 4ff6 0a40 d34f 0040 f232 c940
00000050: 3d75 2940 ad5d 4040 e6d8 ce3f 1fa4 e43f
00000060: a01f 3140 c037 2d40 3e7e 1c40 49e9 7240
00000070: cda8 b9bf 0a0e a440 bfeb 3941 07b0 c63f

resnet_denoiser/level_2/batch_normalization_41/FusedBatchNormV3 f4 [16]
0.13878068 7.313801e-09 0.056500025 0.00909586 0.035932727 -0.010660029 -0.015732741 0.025913116
0.031056428 0.09747545 -0.039949134 0.0047356505 -0.1405478 0.56350166 -0.034428 0.052534204
00000000: 861c 0e3e e04c fb31 926c 673d cd06 153c
00000010: 322e 133d 67a7 2ebc f3e1 80bc be47 d43c
00000020: 0d6a fe3c 35a1 c73d b4a1 23bd 842d 9b3b
00000030: c3eb 0fbe a541 103f 6004 0dbd 1b2e 573d

resnet_denoiser/level_2/batch_normalization_41/FusedBatchNormV31 f4 [16]
1.065011 5.2223672e-06 0.6006987 1.240985 0.6487868 0.96723497 0.6643826 0.87319976
0.70380574 0.5276893 0.79251707 0.8950482 2.626541 1.1780299 0.688629 1.1931559
00000000: 4852 883f cb3b af36 64c7 193f 99d8 9e3f
00000010: e416 263f b69c 773f fa14 2a3f 058a 5f3f
00000020: 9d2c 343f a516 073f 66e2 4a3f e121 653f
00000030: 3f19 2840 afc9 963f fd49 303f 55b9 983f

resnet_denoiser/level_2/batch_normalization_42/FusedBatchNormV3 f4 [16]
-0.017793434 1.7633636e-07 -0.05820388 -0.0063601006 -0.019863693 -0.021620966 -0.014546258 2.63471e-07
1.0947009e-07 9.873679e-09 -0.043246526 2.2342994e-07 -0.035541985 -0.029138977 -0.019543067 -0.03262325
00000000: 89c3 91bc f856 3d34 3167 6ebd 6468 d0bb
00000010: 2fb9 a2bc 741e b1bc 6e53 6ebc 2e73 8d34
00000020: d215 eb33 e6a0 2932 4523 31bd f4e7 6f34
00000030: 7994 11bd ddb4 eebc c818 a0bc f59f 05bd

resnet_denoiser/level_2/batch_normalization_42/FusedBatchNormV31 f4 [16]
3.9660904 -0.3553852 2.4782648 3.1618254 4.785156 1.4018719 0.9910709 -0.50912154
-0.28806654 -0.021126445 2.6141057 -0.3797328 0.7794402 4.6328716 5.274053 4.8128695
00000000: 6dd4 7d40 0df5 b5be e49b 1e40 595b 4a40
00000010: ff1f 9940 8a70 b33f d3b6 7d3f ca55 02bf
00000020: 757d 93be 5e11 adbc 824d 2740 566c c2be
00000030: 6589 473f 7c40 9440 0bc5 a840 0703 9a40

resnet_denoiser/level_2/batch_normalization_43/FusedBatchNormV3 f4 [32]
-0.10623421 2.1105038e-06 -1.7294823e-06 -0.019720491 -0.1654404 -0.030941596 -0.052426957 -0.065641895
-0.18344317 -0.20782343 -0.022702686 -0.16784309 -3.2230398e-06 -0.100020975 -2.1000549e-06 2.4461172e-06
-0.055731893 1.1754245e-06 -0.05712728 -0.008616796 -0.12736996 -0.11399323 -3.1574823e-06 -0.23951931
2.0005348e-06 -0.05792762 -0.11365763 3.182461e-06 -2.7129856e-06 -0.018273078 1.9943827e-06 -0.14114094
00000000: 5291 d9bd 2ea2 0d36 8f20 e8b5 de8c a1bc
00000010: 3569 29be 3b79 fdbc a6bd 56bd 426f 86bd
00000020: 87d8 3bbe aacf 54be fcfa b9bc 0fdf 2bbe
00000030: 674b 58b6 ccd7 ccbd abee 0cb6 f927 2436
00000040: 2047 64bd 47c3 9d35 4bfe 69bd 762d 0dbc
00000050: 456d 02be 4875 e9bd 22e5 53b6 8d44 75be
00000060: ed40 0636 8345 6dbd 55c5 e8bd 4392 5536
00000070: bd10 36b6 6cb1 95bc 3cd7 0536 4087 10be

resnet_denoiser/level_2/batch_normalization_43/FusedBatchNormV31 f4 [32]
2.897973 -2.4334576 2.718409 16.677284 15.231961 4.6433406 10.7521715 6.4203978
8.364178 4.5107603 4.8814225 7.281319 2.9687912 19.155334 2.7340105 -2.4348667
7.2766175 -2.0080078 13.974367 12.243408 13.506604 3.3650334 2.2196188 4.6110787
-2.2090352 12.098703 13.73856 -2.2330263 2.5561554 8.331012 -2.5218344 7.4438086
00000000: 6478 3940 c5bd 1bc0 6afa 2d40 146b 8541
00000010: 1db6 7341 3f96 9440 e508 2c41 e673 cd40
00000020: acd3 0541 2658 9040 9d34 9c40 9100 e940
00000030: ad00 3e40 203e 9941 07fa 2e40 dbd4 1bc0
00000040: 0dda e840 3383 00c0 0297 5f41 00e5 4341
00000050: 0d1b 5841 b55c 5740 3c0e 0e40 f58d 9340
00000060: d560 0dc0 4a94 4141 24d1 5b41 e7e9 0ec0
00000070: 0d98 2340 d34b 0541 bc65 21c0 ae33 ee40

resnet_denoiser/level_2/batch_normalization_44/FusedBatchNormV3 f4 [16]
0.031902447 0.000100097 0.007169071 0.00015257923 0.01263269 -0.0016531814 -0.00093933224 0.0010297116
0.0010774604 0.075748526 -0.009112814 0.0012365992 -0.007979417 0.013508196 -0.001343459 0.0021025722
00000000: 24ac 023d 2beb d138 87ea ea3b adfd 1f39
00000010: 58f9 4e3c 90af d8ba 853d 76ba 63f7 863a
00000020: 9239 8d3a 0b22 9b3d ea4d 15bc 6215 a23a
00000030: 1abc 02bc 7b51 5d3c 0117 b0ba 4fcb 093b

resnet_denoiser/level_2/batch_normalization_44/FusedBatchNormV31 f4 [16]
0.24482128 0.071473524 0.07622034 0.020817004 0.22809078 0.15000102 0.039667338 0.034698404
0.024417577 0.41006926 0.1807814 0.23371992 0.14911842 0.028239593 0.026871871 0.047753587
00000000: 6eb2 7a3e b660 923d 6919 9c3d 6c88 aa3c
00000010: a190 693e de99 193e 387a 223d ea1f 0e3d
00000020: 5f07 c83c 99f4 d13e c21e 393e 4654 6f3e
00000030: 80b2 183e b856 e73c 6622 dc3c 4499 433d

resnet_denoiser/level_2/batch_normalization_45/FusedBatchNormV3 f4 [16]
-0.00057370175 -0.005669456 -0.00080956885 -0.0027644977 -0.00088848005 -0.0011179755 -4.3160037e-07 -0.002870867
-4.02815e-07 3.3193538e-07 -0.0006409094 -4.0208857e-07 5.247309e-07 -1.6958442e-07 -0.00054289313 -5.4705276e-07
00000000: 7964 16ba d8c6 b9bb 3f39 54ba 932c 35bb
00000010: e3e8 68ba 0889 92ba b4b6 e7b4 2825 3cbb
00000020: 7942 d8b4 da34 b234 b402 28ba a2de d7b4
00000030: 3cdb 0c35 0317 36b4 f150 0eba 2ed9 12b5

resnet_denoiser/level_2/batch_normalization_45/FusedBatchNormV31 f4 [16]
5.492765 2.4099336 4.9032316 1.0538331 14.4317255 2.4536402 0.66339123 1.4594454
0.5658989 -0.48757955 7.6109886 0.49646163 -0.6501158 0.23461601 13.7294445 0.76245207
00000000: bbc4 af40 5a3c 1a40 46e7 9c40 01e4 863f
00000010: 59e8 6641 7108 1d40 02d4 293f 1bcf ba3f
00000020: c0de 103f 07a4 f9be 388d f340 3830 fe3e
00000030: fd6d 26bf 2e3f 703e ceab 5b41 0f30 433f

resnet_denoiser/level_2/batch_normalization_46/FusedBatchNormV3 f4 [32]
-0.005397766 -0.019921195 -0.002991145 -6.607912e-07 1.2853515e-06 -0.012284033 -0.00028033773 -0.039849814
-0.009348965 -0.0036903797 -0.060852714 6.696556e-07 -7.813667e-07 -0.012014501 -0.0047699274 -0.0074084126
-1.4620502e-06 -0.034303904 -1.1449789e-06 1.2451576e-06 -1.0800551e-06 -1.3661395e-06 -0.02003739 -3.7054424e-06
-0.034086514 -0.022277365 -0.010391882 -9.944142e-07 -0.014384604 -0.110467285 -1.566585e-06 -1.2826888e-06
00000000: bedf b0bb c631 a3bc 1607 44bb 3a61 31b5
00000010: 5784 ac35 f842 49bc 4bfa 92b9 8f39 23bd
00000020: 672c 19bc 4cda 71bb b240 79bd 62c2 3335
00000030: 1cbf 51b5 78d8 44bc 0d4d 9cbb 45c2 f2bb
00000040: aa3b c4b5 4082 0cbd 2dad 99b5 4a1f a735
00000050: 69f6 90b5 325c b7b5 7425 a4bc 04ab 78b6
00000060: 4d9e 0bbd 057f b6bc b642 2abc d077 85b5
00000070: 67ad 6bbc ac3c e2bd 7343 d2b5 da28 acb5

resnet_denoiser/level_2/batch_normalization_46/FusedBatchNormV31 f4 [32]
36.332764 40.799538 56.950382 3.1463103 -3.3481436 2.3959982 57.43158 17.302572
6.341419 41.346832 34.56649 -3.0657227 3.2486255 4.426875 35.47711 8.389149
4.174297 4.5550213 4.2823596 -3.71913 3.898242 4.1313686 34.97061 4.005088
5.1371503 4.9663935 33.035503 3.9145586 7.791934 23.54833 3.9862533 3.9521353
00000000: c054 1142 ba32 2342 31cd 6342 265d 4940
00000010: fc47 56c0 0958 1940 f0b9 6542 ab6b 8a41
00000020: e8ec ca40 2863 2542 1644 0a42 cd34 44c0
00000030: 7be9 4f40 f6a8 8d40 90e8 0d42 f439 0641
00000040: d793 8540 bcc2 9140 1709 8940 3a06 6ec0
00000050: cc7c 7940 2c34 8440 e8e1 0b42 ae29 8040
00000060: 8963 a440 b2ec 9e40 5b24 0442 2188 7a40
00000070: 8657 f940 fb62 bc41 c61e 7f40 c9ef 7c40

resnet_denoiser/level_2/batch_normalization_47/FusedBatchNormV3 f4 [16]
0.0039234743 1.622969e-05 0.0054936875 2.9501489e-06 0.00021013374 -0.00070661533 -0.0025157207 0.0007764735
0.0032725648 0.0049494826 -0.00062823197 0.0006095132 -0.00517001 0.008561013 -0.0021759544 0.0032588497
00000000: 7d90 803b fe24 8837 6404 b43b 2cfb 4536
00000010: 5957 5c39 273c 39ba cade 24bb 418c 4b3a
00000020: 8778 563b 452f a23b efaf 24ba bdc7 1f3a
00000030: 3069 a9bb 7e43 0c3c 759a 0ebb 6d92 553b

resnet_denoiser/level_2/batch_normalization_47/FusedBatchNormV31 f4 [16]
0.03010897 0.011588697 0.058407947 0.0004025008 0.0037940901 0.06411455 0.10623711 0.026164992
0.074163385 0.026794326 0.0124629615 0.11519932 0.096616544 0.017897248 0.043523442 0.07401494
00000000: 16a7 f63c 85de 3d3c 2c3d 6f3d be06 d339
00000010: 45a6 783b 7d4e 833d d892 d93d f757 d63c
00000020: f9e2 973d c67f db3c 7331 4c3c 9fed eb3d
00000030: e5de c53d 409d 923c a345 323d 2595 973d

resnet_denoiser/level_0/conv2d/Conv2D i1 [16, 5, 5, 3]
0 0 0 0 0 0 0 0
0 0 0 0 0 0 0 1
0 0 0 0 2 -7 -13 0
-1 -2 0 0 0 0 2 4
2 0 0 4 58 127 68 -12
-9 -2 0 0 0 1 0 0
0 0 1 -3 -10 -11 0 -3
-3 0 0 1 1 0 0 2
1 2 0 0 0 0 0 0
0 0 0 1 0 0 1 0
0 0 1 0 2 0 1 1
0 0 1 0 0 0 -1 0
0 -2 0 6 0 0 3 0
2 0 -2 -3 -15 -9 -1 -66
127 50 -6 -4 0 0 0 1
2 0 0 0 -2 -5 -14 -7
-4 -1 -2 0 0 0 1 1
0 0 0 0 0 -1 -2 0
0 -1 1 0 0 1 0 0
0 -2 -2 -3 -4 -6 -7 -1
-2 -2 -2 -1 -1 -4 -3 -3
-8 -11 -10 -25 -27 -10 -10 -10
-12 -6 -6 -4 0 -1 -5 -9
-6 -8 0 0 127 -7 -4 0
-1 -1 -1 0 0 0 2 0
1 3 8 7 3 3 5 4
3 3 -1 -2 -2 0 -1 0
6 4 0 3 3 2 2 2
1 0 0 0 0 0 -1 0
0 0 0 0 0 0 0 2
0 0 1 5 7 2 3 0
-2 0 0 0 0 -2 1 9
00000000: 0000 0000 0000 0000 0000 0000 0000 0001
00000010: 0000 0000 02f9 f300 fffe 0000 0000 0204
00000020: 0200 0004 3a7f 44f4 f7fe 0000 0001 0000
00000030: 0000 01fd f6f5 00fd fd00 0001 0100 0002
00000040: 0102 0000 0000 0000 0000 0001 0000 0100
00000050: 0000 0100 0200 0101 0000 0100 0000 ff00
00000060: 00fe 0006 0000 0300 0200 fefd f1f7 ffbe
00000070: 7f32 fafc 0000 0001 0200 0000 fefb f2f9
00000080: fcff fe00 0000 0101 0000 0000 00ff fe00
00000090: 00ff 0100 0001 0000 00fe fefd fcfa f9ff
000000a0: fefe feff fffc fdfd f8f5 f6e7 e5f6 f6f6
000000b0: f4fa fafc 00ff fbf7 faf8 0000 7ff9 fc00
000000c0: ffff ff00 0000 0200 0103 0807 0303 0504
000000d0: 0303 fffe fe00 ff00 0604 0003 0302 0202
000000e0: 0100 0000 0000 ff00 0000 0000 0000 0002
000000f0: 0000 0105 0702 0300 fe00 0000 00fe 0109
