bfcnn/pretrained/resnet_color_1x18_bn_16x3x3_256x256_l1_relu/model.tflite (tflite, 209816 bytes, 132 tensors)

resnet_denoiser/denoiser_head/channelwise_multiplier_19/mul f4 [1, 1, 4, 3]
000000 ef 3b 1b 3d bb 6e 88 37 e6 79 37 b8 de 6d 53 be
       0.037898954 1.6264026e-05 -4.3744127e-05 -0.2064738
000010 bb a8 a2 3e 56 e2 08 3c 34 8d 68 3e 6c a8 98 3a
       0.31769356 0.008354744 0.22710115 0.0011646873
000020 bf 78 6e be fd ae 12 39 88 8f 88 be b6 ff 5d 3e
       -0.23288248 0.00013988833 -0.26672006 0.21679577

resnet_denoiser/denoiser_head/conv2d_55/Conv2D/ReadVariableOp/resource f4 [1, 1, 4, 12]
000000 8c 93 e4 3c 3e 43 00 3c 61 71 b0 3b 57 28 90 b8
       0.027902387 0.007828532 0.0053846096 -6.873969e-05
000010 3e 1c 73 39 9e 4d e8 bd 24 6a d0 b8 0f 59 1b bd
       0.00023184807 -0.11342929 -9.937983e-05 -0.03792673
000020 1b 1b dc 39 40 78 44 3b b8 52 49 bc c3 f6 9c bb
       0.00041981865 0.00299789 -0.012287788 -0.0047901585
000030 46 a0 88 bc b4 5a a5 3c 47 44 48 bc 1f 19 43 3a
       -0.016677987 0.020184852 -0.01222331 0.0007442403
000040 69 f8 07 3a f7 ac ea 3b cc ce e6 ba 4d a9 21 3d
       0.00051868573 0.0071617323 -0.0017609238 0.0394681
000050 a6 0a f4 38 5d 53 f9 bd 38 7b e2 bb 80 4b 92 bc
       0.0001163681 -0.121741034 -0.0069116615 -0.017858267
000060 af a1 96 3d 9f 57 31 bf f7 f2 02 3f 76 43 37 3a
       0.073550574 -0.69274324 0.51151985 0.00069909485
000070 9c 23 71 3a 42 16 90 3b 4d f6 37 3b 37 6e b7 bc
       0.00091987266 0.0043971846 0.002807039 -0.022391422
000080 65 24 46 3a 6d 40 11 3d 14 65 69 bc 74 a3 b8 3c
       0.0007558524 0.03546183 -0.01424529 0.022538878
000090 cc ab e9 bc e3 60 2f 3c 3b f5 cd bb bb b6 9e 38
       -0.028524302 0.010704252 -0.0062853373 7.568063e-05
0000a0 1a 63 93 39 60 f3 07 bf 6b d5 b4 39 bd 6b 01 3f
       0.0002811186 -0.53105736 0.00034491284 0.5055502
0000b0 fa 7e e7 b8 58 e3 c0 bd a5 2f 08 3f e4 bf 04 bf
       -0.000110385896 -0.094183624 0.531977 -0.518553

resnet_denoiser/denoiser_head/channelwise_multiplier_18/add f4 [12]
000000 c9 09 69 3f f9 d1 46 3f 7e 9a 71 3f 63 01 80 3f
       0.91030556 0.7766414 0.9437636 1.0000423
000010 09 fd 7f 3f 06 f4 35 3f b9 fe 7f 3f 37 02 6c 3f
       0.99995476 0.71075475 0.9999805 0.9219088
000020 6a 03 80 3f d9 c4 5f 3f d8 6f 48 3f 48 3d 60 3f
       1.0001042 0.8740974 0.7829566 0.8759351

resnet_denoiser/level_0/batch_normalization/FusedBatchNormV3 f4 [16]
000000 ae a9 ac be c1 b4 4d be 7b 77 5f be 39 61 42 bf
       -0.33723205 -0.20088483 -0.21822922 -0.759296
000010 09 ae c4 bf d2 fc 9c be 48 82 31 be 43 71 7e be
       -1.5365611 -0.30661637 -0.17334855 -0.24847893
000020 94 ed 48 bf 7c bd d4 be 42 b0 c2 be e2 40 74 bf
       -0.78487515 -0.41550815 -0.380251 -0.95411503
000030 8c c4 77 be 98 47 f9 be 69 b8 9d be 49 11 07 bf
       -0.2419607 -0.48687434 -0.30804756 -0.5276075

resnet_denoiser/level_0/batch_normalization/FusedBatchNormV31 f4 [16]
000000 4b df 85 40 e5 53 8e 3f ad c7 11 40 ce 33 b3 3f
       4.1835074 1.1119353 2.2778122 1.4000185
000010 49 fe e4 3f 10 bd 82 3f de 30 62 3f 6a 67 73 40
       1.7890102 1.0213947 0.88355815 3.803187
000020 17 d7 5c 40 ee c0 25 40 64 6d fa 3f a6 ea 67 3f
       3.450628 2.5899005 1.9564633 0.9059242
000030 0c da 3d 40 43 1b 07 40 c3 e9 04 40 45 27 b2 3f
       2.9664335 2.111039 2.0767677 1.3918234

resnet_denoiser/level_0/batch_normalization_1/FusedBatchNormV3 f4 [32]
000000 e5 8f c4 be a6 1b 45 be ba fc 3d be eb 51 02 bf
       -0.38391033 -0.19248828 -0.18553439 -0.50906247
000010 0b af 3e be 12 72 9f be a9 fb a9 be ea 3d 85 be
       -0.18621461 -0.31141716 -0.33199814 -0.260238
000020 9a e1 00 bf d7 42 82 b9 8a 02 8a be 3c 73 69 be
       -0.5034424 -0.00024845332 -0.26955062 -0.22797865
000030 e0 5c a0 38 75 b7 2a bf 72 e4 88 be cc 47 1a be
       7.646694e-05 -0.66686183 -0.2673679 -0.15066451
000040 70 80 6e be e2 41 55 39 92 5c 04 bf 1d 75 1c bf
       -0.23291183 0.00020337806 -0.5170375 -0.611162
000050 ce 1d 44 39 bc f9 4e be ff 09 01 ba bd a9 00 bf
       0.0001870312 -0.20212454 -0.0004922449 -0.50259
000060 2c fe 69 b9 a7 27 9a be ff 6c c4 b8 82 2b 26 be
       -0.00022315298 -0.30108377 -9.3663104e-05 -0.16227534
000070 28 79 df be b7 01 f2 be f5 0f e6 be cb 2b 99 be
       -0.43647122 -0.47266933 -0.4493405 -0.29916224

resnet_denoiser/level_0/batch_normalization_1/FusedBatchNormV31 f4 [32]
000000 ac 79 92 3f 38 50 cc 3f e3 0f 68 3f 05 40 0a 3f
       1.1443381 1.5961981 0.9064924 0.54003936
000010 9f 64 90 3f 7d 48 a7 3f 96 d6 28 3f 9f f2 08 3f
       1.1280707 1.3068997 0.6595243 0.5349521
000020 84 cd 3d 3f 46 03 da 3d 42 cd 6e 3f b6 70 e2 3f
       0.74141717 0.106451556 0.9328195 1.7690647
000030 e7 26 32 bd 9d f8 36 40 c9 53 c1 3f 9b 81 5e 3f
       -0.04349413 2.8589242 1.5103694 0.8691651
000040 c5 2f ff 3f 90 7e d8 bd 84 9d 11 40 8a 88 60 3f
       1.9936453 -0.10571015 2.275239 0.8770834
000050 65 d6 ce bd 39 46 58 3f 9e 05 75 3e 9f 41 51 3f
       -0.10099486 0.8448215 0.23927924 0.81740755
000060 d0 18 df 3d 33 35 89 3f 56 1f 3d 3d 05 6d 8f 3f
       0.108934045 1.071936 0.046172462 1.1205145
000070 02 d8 ac 3f 10 2a cd 3f c4 ec 8e 3f 3e 4f f0 3e
       1.350342 1.6028461 1.1166005 0.46935457

resnet_denoiser/level_0/batch_normalization_10/FusedBatchNormV3 f4 [16]
000000 5c 8f bb be 6a 96 1d bf ab 3f 5e be 3c 3a 23 bf
       -0.36632812 -0.6155764 -0.21703975 -0.63760734
000010 a8 60 38 bf 7f f9 14 bf 92 ad 01 3a a6 0a 93 bf
       -0.72022486 -0.581932 0.00049468235 -1.1487625
000020 14 42 e0 bf 15 7c 27 bf bc cd 76 bf 23 78 f7 39
       -1.7520165 -0.6542371 -0.96407676 0.0004720102
000030 1d a0 1e bf 03 a8 31 bf 57 fa 4d bf 13 51 06 bf
       -0.61963063 -0.6939699 -0.80460113 -0.5246746

resnet_denoiser/level_0/batch_normalization_10/FusedBatchNormV31 f4 [16]
000000 d5 51 c6 3f 27 5b 25 40 1f cc 95 40 e3 70 e6 3f
       1.5493723 2.5836885 4.681167 1.80032
000010 80 a7 e4 3f dc 0c cf 3f 3c 11 73 be 18 93 09 40
       1.7863617 1.6175799 -0.23737043 2.149603
000020 21 ef 9e 3f d7 7a 5b 40 78 b9 b4 3f 44 c0 87 be
       1.2416726 3.4293725 1.41191 -0.26513875
000030 65 50 34 40 2e 8f 87 40 18 9e 57 40 e4 5a b1 3f
       2.817407 4.236228 3.3690243 1.3855863

resnet_denoiser/level_0/batch_normalization_11/FusedBatchNormV3 f4 [32]
000000 83 7a 01 bf 6d 47 0f ba a5 7e 23 ba 9a f7 70 ba
       -0.50577563 -0.00054656604 -0.0006236828 -0.0009192169
000010 31 8f f0 be b7 9e 30 3a 5f d3 15 bf 51 6d 07 ba
       -0.46984246 0.00067375175 -0.5852565 -0.0005166131
000020 22 a3 af be 6b ee 3b bf 1b e2 27 ba 5e 4a 61 bf
       -0.34304148 -0.7341067 -0.0006404237 -0.880041
000030 8d 51 91 be 1f 97 18 bf 6a 15 3b bf fa 4c 4e be
       -0.2838253 -0.5960559 -0.7307955 -0.20146552
000040 4f 52 27 bf e2 f4 96 be 7e d3 b3 be bd 21 05 ba
       -0.6535997 -0.29483706 -0.35122293 -0.0005078575
000050 59 0b 8d be 8c ca c4 be 3b ac 0c bf 68 19 19 bf
       -0.2754772 -0.3843578 -0.549503 -0.5980439
000060 86 00 8a be de 83 0e bf 92 c9 ce 39 24 ef de 39
       -0.26953524 -0.55669963 0.00039441563 0.00042521313
000070 90 79 ba be 64 29 61 ba 04 6a bf be e8 18 0f bf
       -0.3642087 -0.00085892365 -0.3738557 -0.5589738

resnet_denoiser/level_0/batch_normalization_11/FusedBatchNormV31 f4 [32]
000000 71 c0 0b 40 a7 71 b8 3e f5 69 d8 3e dc 81 17 3f
       2.1836207 0.3602421 0.4226834 0.59182525
000010 5a 09 98 3f 4d 62 ee be 0a 47 5c 40 8f 81 b3 3e
       1.1877854 -0.46559373 3.4418359 0.35059783
000020 26 da dd 3f 14 b7 47 3f 6b e9 cc 3e f8 61 14 40
       1.7332199 0.7801373 0.40021834 2.3184795
000030 68 fc 0c 40 5b 64 47 40 3e c6 5d 40 85 0d ab 3f
       2.2029057 3.1155002 3.4652247 1.3363501
000040 f1 3d 51 40 10 f5 8e 3f a8 aa c8 3f cf 96 ab 3e
       3.2694056 1.1168537 1.567708 0.33513495
000050 47 c5 9c 3f 55 86 e8 3f a1 2a d2 3f 31 77 29 3f
       1.2247704 1.8165995 1.6419259 0.66197497
000060 06 38 9d 3f b1 79 66 40 94 92 98 be 7b e9 9f be
       1.2282722 3.6011775 -0.2979933 -0.3123282
000070 b3 14 9c 3f 74 5b 1d 3f 6b 32 a7 3f 34 36 06 40
       1.2193817 0.6146767 1.3062261 2.0970583

resnet_denoiser/level_0/batch_normalization_12/FusedBatchNormV3 f4 [16]
000000 a7 2b 18 bf b0 d0 65 bf 67 54 2b bf 5a 68 af bf
       -0.5944161 -0.89771557 -0.6692566 -1.370372
000010 67 8a 25 be c8 f9 f7 be e2 dc 6d bf 15 d3 8e bf
       -0.16166078 -0.48432755 -0.92915165 -1.1158167
000020 9c 67 86 bf 53 b3 9e 39 2a 8e 11 c0 c8 a0 58 bf
       -1.0500369 0.00030269715 -2.274302 -0.8462033
000030 42 a1 0f bf 3a 2c 20 bf 9a 58 1b 3a a7 a0 8d bf
       -0.56105435 -0.62567484 0.00059259834 -1.1064652

resnet_denoiser/level_0/batch_normalization_12/FusedBatchNormV31 f4 [16]
000000 68 4e 60 40 c4 1b 49 40 16 47 55 40 b6 7a e2 3f
       3.5047855 3.1423197 3.3324637 1.7693698
000010 15 ad 6d 40 07 0e 88 40 b3 84 2f 40 b7 e9 2c 40
       3.713689 4.2517123 2.7424743 2.7017648
000020 58 3d d7 3f 9b 18 68 be e5 b6 02 40 e9 e5 24 40
       1.6815596 -0.22665636 2.042413 2.5765326
000030 79 dc fb 3f 32 5d d7 3f d7 e8 ca be 0f 0d 25 40
       1.9676658 1.6825316 -0.39630768 2.578922

resnet_denoiser/level_0/batch_normalization_13/FusedBatchNormV3 f4 [32]
000000 fd b7 07 bf ee b0 af be 9d 96 c3 be f9 28 b0 be
       -0.5301512 -0.34314674 -0.38200846 -0.3440626
000010 d0 80 5f bf 26 70 ed ba f5 25 e4 be 2d 67 9b ba
       -0.8730593 -0.0018115088 -0.4456021 -0.001185631
000020 28 49 25 bf 93 57 05 bf 92 ce 1b bf 14 62 9d ba
       -0.6456475 -0.5208675 -0.60862076 -0.0012007379
000030 33 86 35 bf eb fe 93 3a 85 2a 5b 3a bc 97 c1 3a
       -0.70907897 0.0011291181 0.0008360523 0.0014769952
000040 c3 dc 01 bf 91 f4 30 bf 6a cf 28 bf cb 4b 0f bf
       -0.5072748 -0.6912318 -0.6594149 -0.55975026
000050 e8 ed 1b bf 52 dc c0 3a 1d 70 d3 3a 24 b9 9b ba
       -0.6090989 0.0014714098 0.0016131435 -0.0011880738
000060 69 e7 ed be bc ac 0d bf cb 56 00 bf c9 f1 f7 be
       -0.46465614 -0.55341697 -0.50132436 -0.48426655
000070 d6 73 9c ba 04 48 f0 be a3 6b 6f 39 b9 93 fb be
       -0.0011936377 -0.46929944 0.00022832914 -0.4913614

resnet_denoiser/level_0/batch_normalization_13/FusedBatchNormV31 f4 [32]
000000 dc 10 81 40 b0 b0 1a 40 50 a4 11 40 e9 28 b4 3f
       4.033308 2.4170341 2.2756538 1.4074985
000010 65 d5 08 40 88 3e 55 3f 48 fc 34 40 39 25 16 3f
       2.1380246 0.8329854 2.827898 0.5865055
000020 27 03 91 40 0b 9f ae 3f f7 1e 95 40 0b 55 1d 3f
       4.531635 1.3642286 4.66003 0.6145789
000030 d2 ed 97 40 0c 11 26 bf 52 e4 06 bf 96 d7 3d bf
       4.747781 -0.6486976 -0.5269214 -0.74157083
000040 04 a5 f7 3f c0 34 07 40 cf 49 24 40 9e 0b f9 3f
       1.9347234 2.1125946 2.567005 1.945667
000050 d7 44 37 40 94 14 32 bf 2d 95 45 bf 98 28 30 3f
       2.8635767 -0.6956265 -0.7718075 0.6881194
000060 38 24 e5 3f 51 a1 e1 3f 6b 2c 1e 40 07 4e 15 40
       1.7901678 1.7627355 2.471461 2.3328874
000070 bf 66 20 3f 61 1a 15 40 21 76 21 be 43 8a 4c 40
       0.6265678 2.329735 -0.15767719 3.1959388

resnet_denoiser/level_0/batch_normalization_14/FusedBatchNormV3 f4 [16]
000000 2d 2b 36 bf 14 89 3a c0 0e 05 32 c0 bf 13 8a 3a
       -0.7115963 -2.9146166 -2.7815585 0.0010534449
000010 e0 eb 1b bf 70 28 0c bf f5 36 8b bf eb 72 b9 bf
       -0.6090679 -0.547492 -1.0876147 -1.4488195
000020 2b 38 94 bf 31 e0 8a bf 77 5a 33 bf dc 41 8d bf
       -1.1579641 -1.0849668 -0.70059913 -1.1035724
000030 a4 70 ab bf b9 c2 2d bf 0e 9b 4c 3a 0d 64 97 b9
       -1.339375 -0.6787525 0.00078050874 -0.00028875508

resnet_denoiser/level_0/batch_normalization_14/FusedBatchNormV31 f4 [16]
000000 85 d4 07 40 3e f2 79 40 82 8c 7e 40 34 98 d3 be
       2.1223462 3.9054103 3.977326 -0.4132706
000010 46 c8 fd 3f c4 58 89 40 6e 03 85 3f 1d d1 27 40
       1.9826744 4.2920856 1.0391672 2.6221383
000020 a8 d0 a5 3f 56 75 f9 3f 14 8c 14 40 48 b9 8d 40
       1.2954302 1.9488933 2.3210497 4.4288673
000030 79 1f 7a 40 f7 a3 85 40 55 4f fe be 80 f5 59 3e
       3.908171 4.1762652 -0.496699 0.21285057

resnet_denoiser/level_0/batch_normalization_15/FusedBatchNormV3 f4 [32]
000000 7a 3d fe be e1 39 05 bf 2a a5 4b 3a ea 20 8e 3a
       -0.49656278 -0.5204144 0.0007768447 0.0010843549
000010 02 40 86 be 03 89 75 3a 86 aa c5 be 20 b6 ff be
       -0.2622071 0.00093664246 -0.38606662 -0.49943638
000020 66 32 1d b9 f3 fb cc be e6 0c cd be 16 08 f2 be
       -0.00014991462 -0.40035972 -0.40048903 -0.47271794
000030 37 58 02 bf 13 1e df be 5d 61 b4 be a3 53 d0 be
       -0.50915855 -0.43577632 -0.35230532 -0.4068881
000040 3e d3 22 bf 66 29 90 ba 6d 6c d8 be fd aa f8 be
       -0.6360358 -0.0010998666 -0.42270222 -0.48567954
000050 44 6f fb be 65 bd bb be a6 d9 14 3a 50 1d f1 be
       -0.49108326 -0.36667934 0.0005678184 -0.47092676
000060 13 5c 7c 3a 7a 67 20 bf 80 9b 9c be ce 1d 1d 3a
       0.0009626757 -0.6265789 -0.30587387 0.0005993516
000070 36 8b 85 3a 89 ff 89 ba c0 90 00 bf 28 0f 46 bf
       0.0010188583 -0.0010528426 -0.5022087 -0.77366877

resnet_denoiser/level_0/batch_normalization_15/FusedBatchNormV31 f4 [32]
000000 32 82 89 3f 1b 5b 28 40 e0 9c d8 be ef 2d 1a bf
       1.0742857 2.6305606 -0.42307186 -0.6022634
000010 ea cf ee 3f 8f 08 0a bf 88 be b0 3f 9c cb 39 40
       1.86572 -0.5391931 1.3808146 2.9030523
000020 d2 45 bd 3d 60 be d1 3f 29 97 c8 3f 6e 55 cd 3f
       0.09241833 1.6386223 1.567113 1.6041696
000030 21 98 80 40 05 0b b0 3f 3c 7e 25 40 e5 f4 4e 40
       4.0185704 1.3753363 2.5858297 3.2336972
000040 6e 30 df 3f 67 a5 21 3f be 41 0e 40 c6 10 0d 40
       1.7436655 0.6314301 2.2227626 2.2041488
000050 1a 85 09 40 ca 5a 74 3f 5e 91 ac be 15 72 01 40
       2.1487489 0.95451033 -0.33704656 2.022588
000060 dc a1 00 bf 04 12 65 40 8e c5 9a 3f 35 a3 b6 be
       -0.5024698 3.5792246 1.2091539 -0.35671392
000070 84 47 0b bf f8 1f 13 3f a4 e2 3e 40 55 b4 01 40
       -0.54406 0.57470655 2.982583 2.0266316

resnet_denoiser/level_0/batch_normalization_16/FusedBatchNormV3 f4 [16]
000000 51 70 36 bf 59 44 12 bf 4f 80 36 bf bf 4d 74 bf
       -0.7126513 -0.5713554 -0.71289533 -0.9543113
000010 96 24 80 bf ad 66 61 bf 6f 2e 06 c0 b3 4d 8b be
       -1.0011165 -0.88047296 -2.096584 -0.27207717
000020 08 c2 b9 bf 39 7e 04 bf cc 01 20 bf a0 36 eb 39
       -1.4512339 -0.517551 -0.6250274 0.00044863392
000030 11 21 7c ba 9c 36 a7 bf 40 e0 92 bf 65 0e 4f bf
       -0.00096179644 -1.306354 -1.1474686 -0.8088134

resnet_denoiser/level_0/batch_normalization_16/FusedBatchNormV31 f4 [16]
000000 44 05 24 40 9d 48 a2 40 ab a9 62 40 4e 28 3f 40
       2.5628214 5.071364 3.5416057 2.986835
000010 a3 94 b1 40 9b 0b 29 40 a8 84 a9 40 cf 4b e1 3f
       5.549394 2.6413333 5.2974434 1.760126
000020 b4 8a 4a 3f bd 22 0a 40 95 8a 35 40 dd c1 97 be
       0.79117894 2.1583703 2.8365834 -0.29640093
000030 55 b5 da 3e 2a c9 3f 40 9c 03 49 40 00 29 52 40
       0.4271647 2.996653 3.1408453 3.2837524

resnet_denoiser/level_0/batch_normalization_17/FusedBatchNormV3 f4 [32]
000000 57 b1 f6 be 36 4f 83 ba 37 f4 55 b9 66 33 d1 be
       -0.48182175 -0.0010018114 -0.0002040424 -0.40859526
000010 c9 5f 41 3a d7 36 49 3a f8 65 58 bf ea d0 10 ba
       0.0007376639 0.0007675713 -0.8453059 -0.00055242947
000020 51 a7 1e bf e0 cb 28 bf 72 46 ec be 74 09 09 bf
       -0.61974055 -0.6593609 -0.46147496 -0.5353005
000030 9d 2c d2 b9 9e ea 0b bf 96 6d 8a be 35 c4 87 be
       -0.0004008756 -0.5465487 -0.27036732 -0.26516882
000040 ff e7 97 ba 63 4c 30 3a ea 23 0d bf eb cb 0a 3a
       -0.0011589526 0.00067252497 -0.55132926 0.00052946684
000050 a6 16 e4 be 9b d9 1f b9 2e 08 06 bf a0 a1 3c bf
       -0.4454853 -0.00015244486 -0.5235623 -0.7368412
000060 c9 d9 27 ba 25 a2 38 bf bb 89 e6 be 6b 22 0d bf
       -0.0006402997 -0.7212241 -0.45026955 -0.5513064
000070 b9 03 de b6 1f d6 26 bf 3f aa 08 bf 4c 3b aa 3a
       -6.616549e-06 -0.6517047 -0.53384775 0.0012987643

resnet_denoiser/level_0/batch_normalization_17/FusedBatchNormV31 f4 [32]
000000 98 ae 7e 40 c3 61 25 3f 0f eb 25 3e f6 5b 0b 40
       3.9794064 0.646023 0.16202949 2.1774879
000010 89 bf f6 be de 34 0c bf e6 4e 35 40 98 ed c3 3e
       -0.48193005 -0.5476817 2.8329406 0.38267207
000020 6f 82 47 40 d4 d3 29 40 5e 18 f6 3f d5 e3 01 40
       3.117336 2.653554 1.9226186 2.0295308
000030 ca f6 9c 3e b1 5c 84 40 63 d2 88 3f ba c5 d5 3f
       0.30657035 4.136315 1.0689205 1.6700966
000040 20 a9 38 3f e6 17 e5 be 58 65 e7 3f a1 67 ba be
       0.72133064 -0.44744796 1.8077803 -0.36407188
000050 52 54 0d 40 79 f3 ee 3d 6c 40 7d 40 7f ad 36 40
       2.2082715 0.116675325 3.957057 2.8543394
000060 99 ad dc 3e 2c e0 34 40 aa 33 e5 3f eb 9c 00 40
       0.43101195 2.8261824 1.7906392 2.0095775
000070 e9 ef 9f 3b 61 63 3f 40 2a 52 10 40 21 31 49 bf
       0.0048808944 2.9904406 2.255015 -0.7859059

resnet_denoiser/level_0/batch_normalization_18/FusedBatchNormV3 f4 [16]
000000 9a 22 bf bf 4c 01 3d ba 49 44 69 bf 55 b8 a6 39
       -1.4932435 -0.0007209971 -0.9111982 0.00031799325
000010 42 4b 5f bf ab 2c b2 bf f7 b0 09 bf 7c 8b cf b8
       -0.8722421 -1.3919882 -0.5378565 -9.89651e-05
000020 a6 09 ab bf 8d b6 a6 bf 08 5f ac bf 56 6c 9a bf
       -1.336232 -1.302446 -1.3466501 -1.2064312
000030 72 f1 17 bf 8d ef 24 ba de 86 9f be d2 19 d3 bf
       -0.5935279 -0.00062917994 -0.31157583 -1.6492255

resnet_denoiser/level_0/batch_normalization_18/FusedBatchNormV31 f4 [16]
000000 26 78 33 40 80 97 f7 3e 05 7f 01 40 2a bc 8b be
       2.8042083 0.48357773 2.0233777 -0.27291995
000010 9d e5 f9 3f 15 90 07 40 cb a6 8a 40 7b fd c3 3d
       1.9523197 2.118169 4.3328605 0.09569832
000020 2f fa 0c 41 f7 e7 ba 40 cd eb dd 3f 70 bd c4 3f
       8.81108 5.840816 1.7337586 1.5370312
000030 eb 8b ee 3f 43 bf f0 3e ca d8 5b 40 63 ca c3 3f
       1.863645 0.4702092 3.4351068 1.5296139

resnet_denoiser/level_0/batch_normalization_19/FusedBatchNormV3 f4 [32]
000000 93 a2 05 3a aa e8 0a 3a 50 6b 3b ba c7 c9 8a 39
       0.0005097773 0.0005298952 -0.00071494747 0.00026471747
000010 47 7d dd be e6 19 4a ba 07 f1 59 3a af fa 1a bf
       -0.43259642 -0.00077095476 0.0008313809 -0.6053876
000020 1e ca 38 bf 5c f5 d8 be 81 f4 9b b9 7d 0f ea be
       -0.72183406 -0.42374694 -0.00029746073 -0.45714942
000030 b0 29 48 ba 9b 3a 69 36 9d 61 1b ba 8f 4a cb be
       -0.00076356065 3.4753818e-06 -0.0005927326 -0.3970532
000040 13 b0 e6 b9 89 e2 22 ba 21 da 3e ba bf 50 42 bf
       -0.00044000204 -0.0006213566 -0.00072804285 -0.7590446
000050 cb 20 f7 be 06 05 af b9 38 6e 9e be 85 cf 27 ba
       -0.48267207 -0.00033382344 -0.30943465 -0.0006401467
000060 5a 6d 51 39 72 3e a5 be 12 de c4 b9 b3 fe 21 ba
       0.0001997253 -0.32274204 -0.00037549488 -0.0006179616
000070 9e 86 d1 b9 eb 7e 39 bf d2 22 2c ba 4d 65 03 bf
       -0.00039963884 -0.72459286 -0.0006566468 -0.5132645

resnet_denoiser/level_0/batch_normalization_19/FusedBatchNormV31 f4 [32]
000000 69 88 5b be dd 6d 43 be 44 1c 92 3e e2 cb da bd
       -0.21438755 -0.19084878 0.2853719 -0.10683419
000010 38 a4 a6 3f 8c 36 ab 3e fc 15 b1 be 4a 39 eb 3f
       1.3018866 0.33440053 -0.34587085 1.8376858
000020 39 62 68 40 82 91 99 3f d7 c3 0f 3e c4 3a ae 3f
       3.630995 1.199753 0.1403955 1.3611684
000030 7e 9b a6 3e 78 04 ea ba 82 ec 76 3e 57 15 6f 3f
       0.32540506 -0.0017854115 0.24113658 0.93391937
000040 5b 84 41 3e a2 1b 98 3e a5 dd a1 3e d2 9e 66 40
       0.18898146 0.29708582 0.31614414 3.6034436
000050 c4 21 c5 3f 51 0e 20 3e 37 ec 7e 3f 25 04 91 3e
       1.540093 0.15630461 0.99579185 0.28323475
000060 c6 d2 c1 bd b8 f8 53 3f 69 21 28 3e ca 13 86 3e
       -0.0946403 0.8280139 0.16418995 0.26186973
000070 c2 37 22 3e b5 cd b3 3f 16 6b 8d 3e 9e 51 6a 3f
       0.15841582 1.4047152 0.27620763 0.9153079

resnet_denoiser/level_0/batch_normalization_2/FusedBatchNormV3 f4 [16]
000000 23 38 16 ba 22 8a 3e bf 99 51 5e bf 0c 8c 1a bf
       -0.0005730411 -0.74429524 -0.8684326 -0.60369945
000010 5a fc 31 bf 96 48 0c bf 46 5b cb bf a9 ad 73 bf
       -0.6952568 -0.5479826 -1.588723 -0.9518686
000020 4e 70 e6 be ad 1a a9 bf bd 4e 7a be 85 27 1b bf
       -0.45007557 -1.3211266 -0.24444099 -0.60607177
000030 6a 3e 0d bf 9f 8a 10 ba 1a 18 f3 be 3c e5 23 bf
       -0.5517336 -0.000551382 -0.47479326 -0.6402166

resnet_denoiser/level_0/batch_normalization_2/FusedBatchNormV31 f4 [16]
000000 ab ef 55 3e c6 81 86 40 d4 bd 68 40 76 db 12 40
       0.20892207 4.2033415 3.6365862 2.2946448
000010 17 18 43 40 57 6f 56 40 01 9a e4 3f 34 c7 0e 40
       3.0483453 3.3505456 1.7859498 2.2309084
000020 06 9f 3e 40 d7 37 a6 40 64 ee 18 40 9d 66 0a 40
       2.978456 5.1943164 2.3895502 2.162513
000030 a3 bc 37 40 f2 07 79 3e 48 74 2f 40 3c 88 85 40
       2.8708885 0.24319437 2.7414722 4.17288

resnet_denoiser/level_0/batch_normalization_20/FusedBatchNormV3 f4 [16]
000000 66 fe 1f bf 54 1a 37 b9 43 97 54 39 ec aa 45 bf
       -0.62497556 -0.00017462048 0.00020274245 -0.7721393
000010 54 78 f0 bf 03 9e 11 bf 2f 7b e2 be fd 6f 4e bf
       -1.8786721 -0.5688173 -0.44234607 -0.8063963
000020 d4 94 a3 bf 82 78 91 bf b3 65 34 bf b2 2a 31 bf
       -1.2779794 -1.1364901 -0.7046768 -0.6920577
000030 0c 20 91 bf 6f cf 87 bf 26 c8 fd 38 e1 26 e8 39
       -1.1337905 -1.0610179 0.00012101261 0.00044279455

resnet_denoiser/level_0/batch_normalization_20/FusedBatchNormV31 f4 [16]
000000 38 9e 47 40 fd ab 11 3e ec ca 1c be e3 0f 22 40
       3.119032 0.14225765 -0.15311784 2.5322196
000010 02 59 a9 3f 9b 93 50 40 ed 52 38 40 dd 9e 18 40
       1.3230288 3.2590091 2.8800614 2.3846962
000020 d7 0b 40 40 45 61 17 40 39 f7 29 40 47 21 41 40
       3.0007226 2.3653119 2.6557143 3.017656
000030 41 fe cf 3f 4a b2 6c 3f 79 69 a2 bd 64 14 92 be
       1.6249467 0.9245955 -0.079302736 -0.28531182

resnet_denoiser/level_0/batch_normalization_21/FusedBatchNormV3 f4 [32]
000000 ff c5 fe be 3a 42 08 bf a7 a5 00 bf b8 fc f1 be
       -0.49760434 -0.53226054 -0.50252765 -0.47263122
000010 1b 8a 6d ba 8b 9b 55 ba 4c fa 17 ba 93 02 6a ba
       -0.0009061412 -0.0008148483 -0.000579749 -0.0008926775
000020 9f 9b 6b ba 74 f7 3d bf 31 a7 0e bf 04 ad 6a 38
       -0.0008987728 -0.7420571 -0.55723864 5.595108e-05
000030 ce f0 06 bf 88 95 dc be 70 3f 53 3a fd e2 1e ba
       -0.5271119 -0.43082833 0.0008058464 -0.00060610456
000040 cf 7e 8f 3a 2b 68 85 3a 98 c3 35 ba 4b c1 60 ba
       0.0010947826 0.0010178139 -0.0006933748 -0.0008573725
000050 fa 2d ed b9 13 a3 16 bf a0 46 3f bf d2 f2 14 ba
       -0.00045238418 -0.5884258 -0.7471714 -0.0005681935
000060 ab 76 34 ba 1e 9f 1c ba ca 0c 3d ba fd db ea be
       -0.0006884138 -0.0005974638 -0.00072116836 -0.45870963
000070 82 5a 38 3a 0b b0 08 be 2d 88 15 bf 0e 0a 44 be
       0.00070325297 -0.13348405 -0.5841091 -0.1914446

resnet_denoiser/level_0/batch_normalization_21/FusedBatchNormV31 f4 [32]
000000 a4 0c 36 40 f7 5b 5d 40 97 77 74 40 42 f3 79 40
       2.8445215 3.458738 3.8197992 3.9054723
000010 2a 3a 05 3f 20 c1 f6 3e 67 0e c5 3e 0e 03 0f 3f
       0.52041876 0.48194218 0.3848755 0.55864036
000020 b0 9f 09 3f f4 f7 75 40 a8 f2 3e 40 65 30 38 bd
       0.5375929 3.8432589 2.9835606 -0.044968028
000030 37 2d 76 40 9d 3d 0b 40 b3 a9 ec be ca 27 d6 3e
       3.8465097 2.1756356 -0.4622322 0.41827232
000040 aa a3 27 bf 0a c7 22 bf fe 45 e4 3e 16 6c 07 3f
       -0.65484107 -0.6358496 0.4458465 0.528993
000050 c9 32 a4 3e 49 0a 0f 40 ce df 83 40 c5 26 b8 3e
       0.32069996 2.2350028 4.12107 0.3596708
000060 b6 b1 e5 3e c6 87 d8 3e b0 8c ea 3e ce b1 4e 40
       0.44862145 0.42291087 0.4581046 3.2296023
000070 0a b1 e3 be b8 9b 53 3e c9 84 c1 3f f8 59 6b 40
       -0.44471008 0.2066487 1.5118648 3.6773663

resnet_denoiser/level_0/batch_normalization_22/FusedBatchNormV3 f4 [16]
000000 de 2e 48 bf 58 90 93 be 7b c6 7d be 21 c6 93 bf
       -0.78196514 -0.28821063 -0.24782746 -1.1544839
000010 fa 2a fc be 4b ca c3 bf ca aa 0a bf 82 13 ab 39
       -0.4925154 -1.529611 -0.54166853 0.00032630196
000020 65 f1 68 bf a0 1b 2a bf cf 15 70 bf 40 18 0d bf
       -0.9099334 -0.664484 -0.9378328 -0.5511513
000030 37 e3 a5 be 33 04 05 bf 12 b3 8b bf 91 5f f9 bf
       -0.32399914 -0.5195953 -1.0914023 -1.948229

resnet_denoiser/level_0/batch_normalization_22/FusedBatchNormV31 f4 [16]
000000 de f4 13 40 3b 27 a7 3f c5 4c e3 40 47 99 9f 3f
       2.3118205 1.3058847 7.1031213 1.2468652
000010 bb 68 ef 3f a3 66 72 40 6f d0 2b 40 f7 7f 7e be
       1.8703836 3.7875144 2.6845968 -0.24853502
000020 3b 05 1a 40 42 0f 19 40 7b 8f b9 3f 71 7b 3f 40
       2.4065692 2.3915563 1.4496912 2.9919093
000030 2c 9d 15 41 93 51 36 40 32 3c ba 3f 25 ea 0f 40
       9.350872 2.848729 1.454962 2.248666

resnet_denoiser/level_0/batch_normalization_23/FusedBatchNormV3 f4 [32]
000000 c5 cf 21 bf 9a 2b d5 3a d9 05 9f 3a 42 3d d2 be
       -0.63207656 0.0016263605 0.001213248 -0.4106236
000010 13 eb 41 bf 7f 42 cf 3a ea b6 05 bf 82 2e ba ba
       -0.7574932 0.0015812664 -0.5223223 -0.0014204534
000020 2d 40 71 bf fc 57 0c 3b 51 66 9e 3a 7f b8 2a bb
       -0.9423855 0.0021414747 0.0012084936 -0.002604991
000030 f0 16 dd be d5 9e e0 3a 24 c1 8a 3a 1b 4e f0 3a
       -0.43181562 0.0017137179 0.0010586125 0.0018333824
000040 1e d5 d1 ba 45 4f c1 3a 27 6d 4a bf 6c 6a 39 bf
       -0.0016008948 0.0014748356 -0.79072803 -0.7242801
000050 20 39 10 bf 00 77 38 bf 46 2b e3 ba d4 9b 11 bf
       -0.56337166 -0.7205658 -0.0017331622 -0.568784
000060 75 45 38 bf 85 5d dd be 26 ae 52 ba f0 d1 57 be
       -0.71980983 -0.43235412 -0.00080368144 -0.21076179
000070 1e 43 0d bf 8d a0 d2 3a 4f e1 84 ba 9b 8d 22 bf
       -0.5518054 0.0016069576 -0.0010137948 -0.6349732

resnet_denoiser/level_0/batch_normalization_23/FusedBatchNormV31 f4 [32]
000000 d0 ea 59 40 f3 72 84 bf d3 7e 3b bf 82 84 56 40
       3.4049568 -1.034758 -0.73240393 3.3518376
000010 3f 6d 7f 40 c3 48 81 bf 1b 6e 6d 40 1b d5 78 3f
       3.9910429 -1.010033 3.7098453 0.97200173
000020 75 57 f7 40 68 9c 96 bf c4 87 36 bf 2b 35 9f 3f
       7.729426 -1.1766481 -0.7130091 1.24381
000030 62 5e 0e 40 88 13 72 bf 1e 23 32 bf 66 2c 88 bf
       2.2245107 -0.9456105 -0.69584835 -1.0638549
000040 e8 a9 67 3f 66 74 60 bf f5 d9 bb 40 ba ac f1 3f
       0.9049363 -0.8767761 5.870356 1.8880837
000050 f4 52 54 40 7b 94 af 3f 87 5f 7b 3f fa 9f 1f 40
       3.317563 1.3717188 0.9819264 2.4941392
000060 fb 91 6b 40 86 d1 19 40 64 e2 05 3f f9 2a 23 40
       3.680785 2.4034133 0.5229857 2.5494978
000070 24 af ba 3f e9 47 74 bf 8e a4 2d 3f 3e 11 a6 3f
       1.4584699 -0.95422226 0.67829216 1.2974012

resnet_denoiser/level_0/batch_normalization_24/FusedBatchNormV3 f4 [16]
000000 3b 77 b2 bf c0 91 be b9 a0 82 22 bf 5d 8d cd be
       -1.3942636 -0.00036348216 -0.6348057 -0.40146914
000010 4a 12 4a bf d1 05 00 bf a4 93 90 39 24 f0 85 bf
       -0.78934157 -0.50008875 0.0002757582 -1.046391
000020 f4 27 37 bf 7d b7 95 bf 9c 40 cf be 88 b6 8f bf
       -0.7154534 -1.1696621 -0.4047898 -1.1227579
000030 20 9d fb bf a3 cc 46 bf ec ea 13 bf 13 9f 4d bf
       -1.9657326 -0.77656 -0.5778034 -0.80320853

resnet_denoiser/level_0/batch_normalization_24/FusedBatchNormV31 f4 [16]
000000 db b6 71 40 8b 67 ac 3e 62 dd 72 40 17 d5 b0 40
       3.7767856 0.33672747 3.7947621 5.526012
000010 f6 81 6b 40 8e 22 7c 40 98 d3 53 be 9e cf 11 40
       3.6798072 3.939609 -0.20686185 2.278297
000020 41 eb 0e 40 26 8e 0a 40 65 75 f7 3f 58 29 15 40
       2.2331088 2.164926 1.9332701 2.3306484
000030 45 47 6b 40 be 10 b4 3f 6f dc 20 40 10 b7 18 40
       3.676225 1.4067609 2.5134542 2.3861732

resnet_denoiser/level_0/batch_normalization_25/FusedBatchNormV3 f4 [32]
000000 35 02 54 bf 64 25 8d 3a 9d f6 1c bf a8 8a 81 ba
       -0.8281587 0.001076859 -0.613138 -0.0009883242
000010 0b 4b b3 be 62 f2 58 b9 f6 6c 90 3a 75 51 6c bf
       -0.3501819 -0.0002068966 0.0011018801 -0.92311794
000020 21 ec e3 be 7f 3b e3 be d7 23 4f ba 2a 15 f5 be
       -0.4451609 -0.4438133 -0.0007901764 -0.4786771
000030 64 49 8e 3a c5 f1 56 bf ef 69 27 ba 4b 76 a8 3a
       0.0010855612 -0.8396266 -0.000638633 0.0012852637
000040 e6 25 20 bf ce 15 39 bf c3 d6 b5 be 46 a3 ba b4
       -0.6255783 -0.72298896 -0.35515413 -3.4763997e-07
000050 ee 41 01 bf f3 58 cb be ca 74 a9 ba ec dc a1 3a
       -0.50491226 -0.397163 -0.0012928483 0.0012349165
000060 ad c8 2e bf 33 c7 4b bf ed 99 2f bf 88 b0 61 ba
       -0.68274957 -0.7960083 -0.6859425 -0.0008609374
000070 19 74 a3 3a 04 3e 56 bf af 00 08 ba 55 54 e3 be
       0.0012470513 -0.8368838 -0.000518809 -0.44400278

resnet_denoiser/level_0/batch_normalization_25/FusedBatchNormV31 f4 [32]
000000 b8 48 3f 40 71 24 28 bf c5 df ba 40 6a a1 2b 3f
       2.9888134 -0.65680605 5.8398156 0.67043173
000010 8d 1d 69 3f 8f 34 0b 3e 99 fb 34 bf 29 d2 5a 40
       0.91060716 0.13594268 -0.7069641 3.4190772
000020 d5 11 54 40 88 24 e0 3f da 63 0a 3f 61 20 09 40
       3.3135884 1.7511148 0.5405861 2.1426013
000030 14 28 36 bf b3 68 18 40 de 7a da 3e 67 13 46 bf
       -0.71154904 2.3813903 0.42671865 -0.77373356
000040 32 8e f7 3f f2 7d ec 3f ad 9b 27 40 15 c9 7d 39
       1.934027 1.8475935 2.6188767 0.00024202869
000050 94 76 38 40 99 da b5 3f 33 87 4a 3f 7f 65 3b bf
       2.8822374 1.4207336 0.7911255 -0.73201746
000060 82 95 55 40 ea 62 cd 3f d0 cc 19 40 32 46 09 3f
       3.3372502 1.6045811 2.4031258 0.53622735
000070 8f 57 48 bf 49 2c 12 40 70 89 c0 3e 26 5e 07 40
       -0.78258604 2.283953 0.37604856 2.1151214

resnet_denoiser/level_0/batch_normalization_26/FusedBatchNormV3 f4 [16]
000000 29 31 e7 be 71 62 75 39 f6 b7 f0 b9 6c 26 e8 b9
       -0.45154694 0.00023401693 -0.0004591343 -0.00044279115
000010 be 82 23 ba 89 70 0d 3a 16 fe 9d be cb 1e 00 bf
       -0.00062374386 0.0005395492 -0.30857915 -0.50046986
000020 6c 99 6d bf 01 42 99 bf 1f e6 19 bf d0 16 a5 bf
       -0.9281223 -1.1973268 -0.6011676 -1.2897587
000030 a7 43 29 bf 0b 2f 9d bf d8 0b 99 bf 2a 13 43 bf
       -0.66118854 -1.2279981 -1.195674 -0.7620112

resnet_denoiser/level_0/batch_normalization_26/FusedBatchNormV31 f4 [16]
000000 01 2b 73 40 66 b8 70 be 45 c0 b9 3e d0 7a ba 3e
       3.7994998 -0.23507842 0.36279503 0.36421824
000010 24 4e f6 3e aa e3 9c be d4 d7 9f 3f c9 01 45 40
       0.48106492 -0.30642444 1.248774 3.078234
000020 11 ce b8 3f ea ad f6 3f 53 42 18 40 d9 6d 25 40
       1.4437886 1.9271824 2.379048 2.5848296
000030 2a e6 73 40 01 3f 13 40 3b b9 a5 3f f9 0a 4b 40
       3.810923 2.3007205 1.2947153 3.1725447

resnet_denoiser/level_0/batch_normalization_27/FusedBatchNormV3 f4 [32]
000000 8b f7 d7 39 9d e5 6c 39 7b 98 29 39 e8 be 00 ba
       0.0004119243 0.00022592251 0.000161739 -0.000491126
000010 93 03 15 ba e2 68 19 ba ce 87 1d bf 6e 45 5f bf
       -0.00056844315 -0.00058521156 -0.61535347 -0.87215316
000020 b9 4b 0f bf 4f 65 08 bf 80 ef b8 b9 7d d9 cc 39
       -0.5597492 -0.53279585 -0.00035273656 0.00039071954
000030 35 c9 b0 39 8f f1 2c bf 42 a6 18 ba cf 09 81 bf
       0.00033719247 -0.6755609 -0.0005823114 -1.0081118
000040 d4 4d fc 38 57 3c 94 39 c5 26 bd 39 c9 63 e0 b9
       0.00012030793 0.00028273716 0.00036077775 -0.00042798955
000050 de 9a 78 39 48 2c d4 b8 33 94 52 b9 d8 9b 66 bf
       0.00023708816 -0.00010117196 -0.00020082369 -0.9008155
000060 86 df 2a 39 8c d6 6d b9 e8 38 0b bf 61 19 1e b9
       0.00016295732 -0.00022682006 -0.5438371 -0.00015077509
000070 8d cd 19 ba af 6b 0c bf 3a a7 1a 3a 82 2c 55 bf
       -0.0005867116 -0.5485181 0.00058995525 -0.8327104

resnet_denoiser/level_0/batch_normalization_27/FusedBatchNormV31 f4 [32]
000000 fb a4 95 be b7 b7 2d be 50 84 fc bd e8 22 b7 3e
       -0.29227433 -0.16964613 -0.12329924 0.3576882
000010 62 71 c9 3e 1a 13 cb 3e 03 b5 0e 40 db 7c 6b 40
       0.39344317 0.3966301 2.229798 3.6794956
000020 df 41 fd 3f a4 a6 6e 40 b2 b0 91 3e b5 f9 95 be
       1.9785727 3.728921 0.2845512 -0.29292074
000030 93 f3 64 be 10 9b 01 40 92 4a c8 3e 50 97 ba 3f
       -0.22358541 2.0250893 0.39119393 1.4577427
000040 0e 3f aa bd 23 b2 4a be 85 b7 86 be db 24 a0 3e
       -0.08312808 -0.19794516 -0.2631189 0.31278118
000050 cb b2 2f be 73 87 91 3d 70 f6 1d 3e 71 cf 3e 40
       -0.17158048 0.07105913 0.1542604 2.9814112
000060 e8 84 f6 bd ac 22 30 3e a9 29 29 40 51 dd d6 3d
       -0.120370686 0.17200726 2.6431677 0.104914315
000070 93 f4 c9 3e 29 90 35 40 e5 1d c9 be 0e 09 d5 3f
       0.39444408 2.8369238 -0.3928062 1.6643388

resnet_denoiser/level_0/batch_normalization_28/FusedBatchNormV3 f4 [16]
000000 b9 06 0d bf 6b 94 30 bf 6d d5 93 be c2 52 71 bf
       -0.5508838 -0.6897647 -0.28873768 -0.94266903
000010 42 ec 44 c0 fd d2 83 bf e3 30 07 bf 07 2d 3d bf
       -3.07692 -1.0298764 -0.5280897 -0.7389683
000020 bc 30 88 39 52 d8 a1 be cd a7 26 bf d8 83 8f be
       0.0002597625 -0.31610352 -0.65099794 -0.28030276
000030 3f be 2d bf 13 24 8d b8 89 8c 97 bf be 1e 05 bf
       -0.6786842 -6.730123e-05 -1.1839763 -0.52000034

resnet_denoiser/level_0/batch_normalization_28/FusedBatchNormV31 f4 [16]
000000 4c 02 ed 3f e4 6f 5e 40 ab d8 70 3f ef 49 a9 3f
       1.8516326 3.4755793 0.9408061 1.3225688
000010 a2 bc 42 40 88 fc 81 3f b2 20 cf 3f 6f 57 b2 3f
       3.0427632 1.0155191 1.6181853 1.3932933
000020 da 5a 3d be 1a ae 2e 40 66 57 6f 3f c2 22 c7 3f
       -0.18491688 2.7293763 0.93492734 1.5557482
000030 b1 6f 1a 41 c7 b1 7e 3d cc dd e7 3f ba e3 5a 3f
       9.652268 0.06218126 1.8114562 0.85503733

resnet_denoiser/level_0/batch_normalization_29/FusedBatchNormV3 f4 [32]
000000 c9 ee 55 bf f1 99 5e bf f1 33 20 bf 95 2e 2d ba
       -0.8356748 -0.86953646 -0.62579256 -0.00066063675
000010 11 c6 b4 39 50 0f 3d 3a 60 eb 61 ba 08 7f 2b bf
       0.00034479846 0.00072120596 -0.00086181425 -0.6699071
000020 b6 45 29 bf bb a6 41 3a af da e9 39 3a fa 28 ba
       -0.66121995 0.00073872105 0.00044604155 -0.0006445978
000030 1a e5 f2 be b9 46 50 3a a6 86 15 bf fa 57 da b9
       -0.47440416 0.0007945109 -0.5840858 -0.00041645748
000040 de bc 21 ba bb d1 68 ba 4a ed 42 bf 01 8f 13 bf
       -0.0006169806 -0.000888135 -0.76143324 -0.5764008
000050 43 07 12 b9 b5 47 8f ba 6a d6 4b bf ee 77 10 ba
       -0.0001392635 -0.0010931405 -0.79624045 -0.0005511035
000060 a4 1c 10 bf e7 33 6a 3a 2c 49 90 ba a4 11 66 ba
       -0.562937 0.00089341257 -0.0011008135 -0.00087764324
000070 63 e9 7f bf 80 af 36 3a 9a a8 05 bf a1 08 20 bf
       -0.99965495 0.00069689006 -0.5221039 -0.62513167

resnet_denoiser/level_0/batch_normalization_29/FusedBatchNormV31 f4 [32]
000000 b4 53 4b 40 86 dc 43 40 d9 dd fc 3f 69 99 ec 3e
       3.1769838 3.0603347 1.9755203 0.46210793
000010 30 38 71 be 6c 23 0e bf ab 62 1a 3f 54 0f f4 3f
       -0.2355659 -0.555228 0.60306805 1.9067178
000020 1c 2f af 3f ae 21 0b bf fc a0 a1 be 5f a5 ed 3e
       1.3686252 -0.54348266 -0.31568134 0.4641523
000030 79 df 18 40 5a de 06 bf 5e 8c 5c 40 fc a4 95 3e
       2.3886397 -0.5268303 3.4460673 0.29227436
000040 c2 12 e0 3e 4c 33 1e 3f ae 95 01 40 f2 03 81 40
       0.4376431 0.6179702 2.0247607 4.0317316
000050 a8 19 d7 3d ab 01 48 3f c6 d2 c8 3f 54 ca c7 3e
       0.105029404 0.78127545 1.5689323 0.39021552
000060 54 3c 36 40 8c b2 26 bf a7 79 47 3f 09 38 1f 3f
       2.8474321 -0.6511619 0.7792 0.6219488
000070 1d 33 b2 40 ed bc f8 be 0f 84 a8 40 ac 54 1f 40
       5.5687394 -0.4858164 5.2661204 2.489543

resnet_denoiser/level_0/batch_normalization_3/FusedBatchNormV3 f4 [32]
000000 23 39 00 3a b2 24 2a bf 51 6e ab 39 cf 7a 0a bf
       0.00048913265 -0.6646224 0.00032697854 -0.5409364
000010 4e b2 88 be e9 fc e1 be e9 8c 3b 3a 32 0c 9a be
       -0.26698536 -0.44138268 0.0007154481 -0.3008743
000020 6e 99 56 be 81 8d aa be e3 b4 a2 be 68 80 ce b9
       -0.20956966 -0.33311084 -0.3177863 -0.00039387052
000030 94 25 f8 be 08 c4 5d be 12 b3 70 be 4d 00 91 be
       -0.4846617 -0.21656811 -0.2350581 -0.28320542
000040 66 f7 76 38 53 fa 2a ba 2e ff 02 bf 46 2a 1f be
       5.888138e-05 -0.00065222866 -0.51170623 -0.1554347
000050 dc 14 69 be b3 fe 52 be 06 a4 72 be f0 51 82 be
       -0.22761863 -0.20604973 -0.23695382 -0.25453138
000060 a4 92 55 be e4 6c de be eb 08 95 38 bd 8b 05 3a
       -0.2085672 -0.43442452 7.106535e-05 0.000509437
000070 d9 70 af be fd 9a b5 be 27 88 d2 39 5f c9 1f ba
       -0.34265783 -0.3546981 0.00040155763 -0.0006095375

resnet_denoiser/level_0/batch_normalization_3/FusedBatchNormV31 f4 [32]
000000 56 b0 90 be 03 92 ee 3f 85 e1 4f be 24 7c e4 3f
       -0.28259534 1.8638309 -0.20300873 1.7850385
000010 02 57 86 3f c3 61 d5 3f 3b 84 b8 be 9c 4b 8c 3f
       1.0495303 1.667046 -0.36038384 1.0960574
000020 49 0a fd 3f d5 4b 99 3f 74 ae 61 3f 94 d5 85 3e
       1.9768764 1.1976267 0.8815682 0.2613951
000030 e0 16 7f 3f 0a 54 8f 3f e1 37 82 3f 08 78 97 3f
       0.9964428 1.1197522 1.0173303 1.1833506
000040 e1 a3 21 bd 7b e9 aa 3e 91 f9 bc 3f 05 9b 40 3f
       -0.039462928 0.33381256 1.4763662 0.7523654
000050 05 1b 32 3f e4 43 3c 3f 23 3c 1f 3f ab 40 83 3f
       0.6957248 0.7354109 0.62201136 1.025411
000060 27 2b ab 3f 70 64 93 3f 8b e3 26 bd ab 77 a0 be
       1.3372544 1.1515026 -0.040744346 -0.313413
000070 79 5b c5 3f d5 5f 57 3f f4 73 56 be ae 81 b0 3e
       1.541854 0.84130603 -0.2094267 0.34473938

resnet_denoiser/level_0/batch_normalization_30/FusedBatchNormV3 f4 [16]
000000 5a 38 fb be 9e f3 d1 be 1e 3c 00 bf e0 03 c0 be
       -0.4906643 -0.41006178 -0.5009173 -0.37502956
000010 f2 2a 41 bf 47 52 29 bf 45 31 0b ba 1f 51 35 bf
       -0.75456154 -0.6614117 -0.0005309771 -0.70826906
000020 f6 c3 02 c0 7b 2d 79 bf c0 77 a9 be 87 43 b3 be
       -2.0432105 -0.9733502 -0.33099174 -0.35012457
000030 a9 64 e8 39 79 74 87 bf c0 86 16 bf c2 94 28 bf
       0.00044325486 -1.058242 -0.5879936 -0.65851986

resnet_denoiser/level_0/batch_normalization_30/FusedBatchNormV31 f4 [16]
000000 9c 53 85 40 c4 8f eb 3f e1 34 88 3f 9b cb 35 3f
       4.166456 1.8403249 1.0641137 0.710138
000010 bb d1 a5 40 09 df 96 3f 15 4e be 3e 9d 47 6d 3f
       5.181852 1.1786815 0.37168947 0.926874
000020 e9 e8 06 40 c0 50 65 41 73 a6 aa 3f bd 33 a0 40
       2.1079657 14.332214 1.3332046 5.0063157
000030 98 98 7b be 2d 42 13 40 db dd 8b 3f 36 11 61 40
       -0.24569929 2.300914 1.092708 3.5166755

resnet_denoiser/level_0/batch_normalization_31/FusedBatchNormV3 f4 [32]
000000 62 8f 03 3a f8 14 35 bf 9b e1 28 ba 5a d8 21 bf
       0.0005018619 -0.7073512 -0.0006442309 -0.6322075
000010 6f d8 f5 be 67 62 22 3a 29 f8 1c 3a f8 3c 36 bf
       -0.48016688 0.00061944727 0.00059879065 -0.7118678
000020 ad b0 2e 3a fd ca 31 ba 47 de bc be 60 da 75 ba
       0.00066639 -0.0006782262 -0.36888334 -0.0009378549
000030 cf d1 8c 39 b7 85 1a bf 6d 29 22 39 42 76 f9 39
       0.000268592 -0.6036028 0.00015464956 0.0004758109
000040 69 89 da b8 b7 54 f7 be 79 e0 4a ba ed 0e 0d bf
       -0.00010420645 -0.4830682 -0.00077391375 -0.551009
000050 2e 21 e9 be 52 07 fb be b0 a1 a8 be 83 4e bb be
       -0.45533127 -0.49029022 -0.32935858 -0.36583337
000060 7a 3c 3f 3a 34 47 b9 39 d4 bb 01 3a 46 c9 26 ba
       0.00072950835 0.00035339 0.0004948948 -0.00063623895
000070 24 c2 a0 be df ef 11 ba 8f 1b 2c ba 37 80 ce b9
       -0.31398118 -0.00055670546 -0.0006565386 -0.0003938691

resnet_denoiser/level_0/batch_normalization_31/FusedBatchNormV31 f4 [32]
000000 dd 9d c5 be 63 ff 40 40 27 4d f2 3e ac 1e 8a 3f
       -0.38597003 3.0155876 0.47324488 1.079061
000010 d7 8c 80 3f 44 4e e8 be eb b2 e1 be d9 c7 1e 40
       1.0042981 -0.45372212 -0.44081816 2.4809477
000020 9b 3b e6 be af a3 fa 3e 36 ec 0c 40 fa 44 20 3f
       -0.4496735 0.48953006 2.2019172 0.6260525
000030 1b 69 77 be 54 a9 13 40 8c f5 fb bd 93 a2 ad be
       -0.24161188 2.30721 -0.12302694 -0.33913097
000040 19 00 a0 3d f6 68 40 40 b9 5e 08 3f f8 48 ae 3f
       0.078125186 3.0064063 0.53269535 1.3616018
000050 32 2c 16 40 b7 62 1f 40 d5 68 8a 3f 58 80 83 3f
       2.3464475 2.4904 1.0813242 1.0273542
000060 cc 96 02 bf e1 10 7d be 97 76 ad be 5a 45 dd 3e
       -0.5101135 -0.2471347 -0.3387954 0.43216974
000070 ea b2 b1 3f 5d 3a ce 3e 03 5a ea 3e 1e f9 94 3e
       1.3882725 0.40278903 0.45771798 0.2909631

resnet_denoiser/level_0/batch_normalization_32/FusedBatchNormV3 f4 [16]
000000 ce 1b f4 be 6e bc ba 39 79 fb ef be 43 d5 87 bf
       -0.47677463 0.00035617076 -0.46871546 -1.0611957
000010 11 c2 cc bf 4a b8 13 bf 5f 1e e0 b9 6f 9f 81 be
       -1.5996724 -0.5770308 -0.00042747238 -0.2531695
000020 fe 64 ba 39 89 a4 1f bf 7c 3d 0e bf e4 63 82 bf
       0.0003555193 -0.62360436 -0.5556257 -1.0186734
000030 6b 42 99 bf 29 53 9c bf e4 f6 bd be 6b 9e f4 be
       -1.1973394 -1.2212878 -0.37102425 -0.47777113

resnet_denoiser/level_0/batch_normalization_32/FusedBatchNormV31 f4 [16]
000000 05 17 13 40 f2 a5 88 be e2 db 48 40 4d 4f 56 3f
       2.29828 -0.26689106 3.1384206 0.83714753
000010 f9 bf ea 3f 44 58 1a 41 a0 38 91 3e 27 74 38 3f
       1.8339835 9.646549 0.28363514 0.72052234
000020 6d a6 87 be db be 9b 40 3e c4 55 40 cd a1 a8 3f
       -0.2649416 4.867048 3.3401027 1.3174378
000030 b1 f0 85 41 e9 db f4 3f 6b f1 a8 40 02 54 3d 40
       16.742525 1.9129611 5.27947 2.9582524

resnet_denoiser/level_0/batch_normalization_33/FusedBatchNormV3 f4 [32]
000000 8f ab 26 be fc 53 04 bf 9b c1 9e 39 a7 4c b7 38
       -0.16276382 -0.5169065 0.00030280356 8.7403976e-05
000010 21 1b 42 38 00 89 0f 3a e7 18 e8 b8 6a 1d c5 38
       4.627847e-05 0.00054754317 -0.000110672605 9.399171e-05
000020 c0 e0 43 bf f7 55 22 bf f8 af e9 be d0 c1 c1 b9
       -0.76514816 -0.6341242 -0.45642066 -0.0003695623
000030 a0 15 84 39 13 17 d2 be 0e 1d 8b 39 01 be a6 b9
       0.00025193114 -0.4103323 0.00026533793 -0.0003180355
000040 9b a6 25 be 9a be 39 39 f9 fc a8 39 4f 20 16 b9
       -0.16176836 0.0001771398 0.00032231936 -0.0001431715
000050 3a cb aa be 4b 3e 9f b9 82 d1 82 be eb 0b 95 38
       -0.33358175 -0.00030373255 -0.25550467 7.1070936e-05
000060 48 43 18 bf e9 b8 1d bf 4a c9 22 bf b1 c7 2e b9
       -0.59477663 -0.61610276 -0.6358839 -0.00016668324
000070 1c d5 85 b9 ac f0 38 be 92 aa 0b b9 15 2a 2d be
       -0.00025526516 -0.18060559 -0.00013319615 -0.16910584

resnet_denoiser/level_0/batch_normalization_33/FusedBatchNormV31 f4 [32]
000000 a6 27 36 3f a1 c4 04 40 5e 84 3d be 20 54 83 bd
       0.7115425 2.0745013 -0.18507525 -0.0641253
000010 9a ab f7 bc ce 84 9e be 75 f0 9e 3d 73 0b 89 bd
       -0.030233193 -0.30960697 0.07760707 -0.06691637
000020 5c 92 b1 3f ea 5f 86 3f 12 fe d6 3f 71 aa 83 3e
       1.387279 1.0498021 1.6796286 0.25715974
000030 24 a8 22 be 2f c7 cc 3f f5 3a 28 be 21 29 41 3e
       -0.15884453 1.5998286 -0.1642874 0.18863346
000040 1b 17 d9 3e 0e 51 e5 bd 88 46 66 be d6 1a c5 3d
       0.4240044 -0.111971006 -0.22487843 0.09624259
000050 7c 56 d3 3f 28 17 40 3e 21 98 86 3f 59 1a 4e bd
       1.6510768 0.18758833 1.0515176 -0.050318096
000060 4b 12 af 3f 9a 21 bd 3f 16 7b a3 3f f6 7e e2 3d
       1.3677458 1.4775879 1.2771938 0.11059372
000070 6f c6 28 3e 74 c6 cf 3e a6 3f bc 3d 3a 12 26 3f
       0.16481946 0.40581095 0.091918275 0.6487156

resnet_denoiser/level_0/batch_normalization_34/FusedBatchNormV3 f4 [16]
000000 30 d8 14 bf c2 76 9f be 5b 56 f2 be cb df b4 39
       -0.58142376 -0.31145293 -0.4733151 0.00034499014
000010 90 e2 84 bf ea 94 dc b9 28 f8 47 be ff ef 0c bf
       -1.0381641 -0.0004207262 -0.19528258 -0.55053705
000020 d6 0f ab be dd fe 78 bf b9 41 69 bf c4 c8 5b b9
       -0.3341052 -0.9726389 -0.9111591 -0.00020960259
000030 23 37 a0 bf 8c d4 c1 be 52 f5 e2 b8 dd 85 65 bf
       -1.2516826 -0.37857473 -0.00010822214 -0.89657384

resnet_denoiser/level_0/batch_normalization_34/FusedBatchNormV31 f4 [16]
000000 66 09 48 40 1f 6d 1f 40 c5 88 59 40 2f 24 3f be
       3.1255736 2.4910352 3.3989727 -0.18666147
000010 07 7e a2 3f ca bf 8f 3e a5 bc c5 3f 07 41 99 3f
       1.269471 0.2807601 1.5448195 1.197297
000020 47 19 f9 3f 82 df 41 3f f8 d0 c1 3f 47 ca 16 3e
       1.9460839 0.7573167 1.5141897 0.147256
000030 c8 d3 10 40 8f 2f 1b 40 33 3f a3 3d cd af a6 3f
       2.262926 2.4247777 0.07971039 1.30224

resnet_denoiser/level_0/batch_normalization_35/FusedBatchNormV3 f4 [32]
000000 8c bf 88 3a b8 cb 29 bf f5 24 d2 3a 86 52 b6 3a
       0.0010433062 -0.66326475 0.0016032743 0.0013910092
000010 4d 6f 0b bf 1c a8 90 3a 52 c5 10 bf 5e f6 3a 3a
       -0.54466707 0.0011036429 -0.56551087 0.00071320485
000020 fa 68 8e ba 3e cc 8f 3a f6 b7 8c 3a 2e 0c 66 3a
       -0.0010865026 0.0010970903 0.0010735977 0.00087756186
000030 47 2b f1 ba 37 df 54 3a 84 75 97 3a bd 6f be 3a
       -0.0018399738 0.000812042 0.0011555408 0.001452915
000040 f8 00 84 3a 90 0e 4c bf 58 9a 70 bf 80 c4 99 3a
       0.001007109 -0.7970972 -0.9398551 0.0011731535
000050 2e 3c 9b 3a 69 e0 2f bf c7 55 a4 ba 31 50 aa ba
       0.0011843496 -0.687018 -0.0012537771 -0.001299387
000060 09 0c b1 ba 76 3f 9b 3a a4 63 45 bf 71 5b d9 3a
       -0.0013507615 0.0011844474 -0.77105165 0.0016583038
000070 68 04 33 bf e4 4e 6a b9 66 72 71 ba 6f 22 72 ba
       -0.699286 -0.00022345368 -0.0009210467 -0.00092366984

resnet_denoiser/level_0/batch_normalization_35/FusedBatchNormV31 f4 [32]
000000 0b c3 38 bf 43 0c e9 3f b2 01 72 bf ff 56 61 bf
       -0.7217261 1.8206867 -0.94533837 -0.8802337
000010 04 f3 33 40 3a 48 59 bf 98 ad f6 3f 0a 68 07 bf
       2.8117075 -0.84875834 1.9271727 -0.52893126
000020 ea 3a 50 3f 7f da 40 bf e4 89 3f bf f8 34 25 bf
       0.81339896 -0.753334 -0.7481978 -0.6453395
000030 a2 c0 a0 3f 5d 32 13 bf c0 9d 51 bf 8f e9 79 bf
       1.2558787 -0.57498723 -0.8188133 -0.9762201
000040 a3 4c 3f bf a8 25 04 40 26 35 08 40 f8 f1 64 bf
       -0.74726313 2.0647984 2.128244 -0.89431715
000050 6b 1f 5a bf 64 eb 66 40 56 d9 5c 3f 1e 99 71 3f
       -0.8520419 3.608117 0.8626913 0.94374263
000060 75 a6 6a 3f 5c df 4f bf 63 4e 43 40 83 f7 8b bf
       0.91660243 -0.81200194 3.0516593 -1.093491
000070 ab d7 e6 3f de 00 30 3e 4b 2d 23 3f a3 b2 26 3f
       1.8034567 0.17187831 0.63740987 0.6511633

resnet_denoiser/level_0/batch_normalization_4/FusedBatchNormV3 f4 [16]
000000 3e ea 13 bf 31 c1 1d c0 54 40 a8 be 35 15 2b bf
       -0.577793 -2.4649165 -0.32861578 -0.66829234
000010 c0 d7 a0 bf c7 f6 12 bf cf 07 b7 be 40 75 d3 be
       -1.2565842 -0.574078 -0.35748145 -0.41300392
000020 d5 9c 2d bf e5 32 46 bf 5c c5 60 bf 39 e9 b8 be
       -0.6781743 -0.7742141 -0.87801147 -0.36115435
000030 cc 0b 9a bf 0d 03 ac bf e1 78 21 bf 91 5b 28 bf
       -1.203485 -1.3438431 -0.6307507 -0.6576472

resnet_denoiser/level_0/batch_normalization_4/FusedBatchNormV31 f4 [16]
000000 d0 7e b0 40 3c 47 5b 40 6e 53 86 40 62 68 97 40
       5.51548 3.4262228 4.1976843 4.731492
000010 5c 1b 13 40 d0 bc 4a 40 7e 00 56 40 fa b7 50 40
       2.298545 3.1677742 3.34378 3.261229
000020 16 b7 3a 40 13 63 1d 40 ee 1f 87 40 35 12 1c 40
       2.9174247 2.459172 4.2226477 2.4386113
000030 92 00 2e 40 18 89 50 40 55 a5 8b 40 d7 d7 d9 3f
       2.7187848 3.2583675 4.363932 1.7018994

resnet_denoiser/level_0/batch_normalization_5/FusedBatchNormV3 f4 [32]
000000 12 6b 7c be 07 28 f6 38 0b 44 c3 be 91 77 8e b9
       -0.24650219 0.0001173765 -0.3813785 -0.00027173435
000010 b1 b9 ae 38 c9 44 73 be d5 13 61 be b2 2b 9f be
       8.331554e-05 -0.23756708 -0.21980222 -0.31088024
000020 d6 58 3e be b7 32 87 be cf 34 8a be 26 7b a8 be
       -0.18588576 -0.2640588 -0.26993415 -0.32906455
000030 c5 64 82 be 48 3e 0c ba 71 1f 27 ba 9e 51 05 ba
       -0.25467506 -0.0005349857 -0.00063752296 -0.0005085709
000040 f8 c9 7f 39 04 71 bc be 00 95 31 be 8a 64 fc b9
       0.00024393934 -0.36804974 -0.17341995 -0.00048140093
000050 9c 1e 91 be 5b a4 d5 be 41 39 97 be 65 25 b1 be
       -0.28343666 -0.41726956 -0.2953587 -0.34598842
000060 f3 97 00 be 48 07 9f be c4 33 ef be f8 6b 97 be
       -0.12557964 -0.31060243 -0.46719182 -0.2957456
000070 3a 75 01 bf b4 e0 00 bf 26 b1 12 39 b7 e6 96 b9
       -0.505695 -0.5034287 0.00013989638 -0.00028782125

resnet_denoiser/level_0/batch_normalization_5/FusedBatchNormV31 f4 [32]
000000 c3 91 44 3f ba d1 92 bd 54 8a c9 3f 5b d9 3e 3e
       0.76784915 -0.071689084 1.5745339 0.18637602
000010 bb 5d 43 bd 7e 30 86 3f 58 74 8e 3f 47 58 cd 3f
       -0.04769681 1.0483549 1.1129255 1.6042565
000020 ad 0e 1f 3f 42 cc 8f 3f 82 fe 92 3f 38 93 8a 3f
       0.6213177 1.123421 1.148392 1.0826178
000030 ee 5f 3a 3f ab cd 8e 3e cb cc ac 3e 57 49 85 3e
       0.7280263 0.27891287 0.33749995 0.26032516
000040 e3 7a 20 be ef 2b 6d 3f 1a 06 9a 3f 7a ee 8c 3e
       -0.15671878 0.9264516 1.2033112 0.27525693
000050 96 4e b9 3f 33 9b ba 3f bb a6 c2 3f b2 ae 8e 3f
       1.4477108 1.4578613 1.5207132 1.1147063
000060 8a 2e 52 3f 01 cf 98 3f f2 92 c1 3f 66 bc b3 3f
       0.8210226 1.1938173 1.5122969 1.404187
000070 ae 7e d5 3f 47 ae ac 3f 32 2d 97 bd 56 65 21 3e
       1.6679285 1.3490685 -0.07381667 0.15761313

resnet_denoiser/level_0/batch_normalization_6/FusedBatchNormV3 f4 [16]
000000 8e 89 20 bf 11 29 d3 bf b2 33 f1 b9 44 86 cd be
       -0.6270989 -1.6496907 -0.00046005618 -0.401415
000010 17 12 be 39 94 2b ee be e1 a4 34 bf 13 14 f0 be
       0.00036253102 -0.46517622 -0.70564085 -0.46890315
000020 04 a0 41 bf 65 49 37 be b3 83 ef be d3 b3 29 bf
       -0.7563479 -0.17899092 -0.46780166 -0.66290015
000030 c8 97 53 bf 9b ab 75 bf 40 5a 18 bf fd 8d 18 bf
       -0.82653475 -0.95964974 -0.5951271 -0.59591657

resnet_denoiser/level_0/batch_normalization_6/FusedBatchNormV31 f4 [16]
000000 c7 b4 40 40 94 b8 aa 3f e3 05 87 3e 69 7e 84 40
       3.0110338 1.3337579 0.2637168 4.140431
000010 af c8 49 be 93 10 08 40 e0 f6 81 40 17 c7 81 40
       -0.19705461 2.1260116 4.061386 4.055553
000020 c3 20 ef 3f ef bd 2c 40 6c 22 17 40 7f d6 6f 40
       1.8681873 2.6990926 2.361476 3.7474668
000030 18 32 1f 40 cf cb 98 40 7f 1c 40 40 5a 30 2e 40
       2.4874325 4.774879 3.0017393 2.7217011

resnet_denoiser/level_0/batch_normalization_7/FusedBatchNormV3 f4 [32]
000000 08 24 5e bf 00 db 8b be 83 4a 65 be ff e7 06 bf
       -0.8677373 -0.2731552 -0.22391705 -0.5269775
000010 4c a4 7c be f1 5f 8a be 07 fe 9e be 7d 3c ff be
       -0.2467205 -0.27026322 -0.31053182 -0.49850836
000020 f8 aa 91 be 80 89 95 be ff 91 97 be 28 90 97 b9
       -0.2845075 -0.29206467 -0.29603574 -0.0002890837
000030 ef ad dc be 7c 7e 5e 3a fb 32 2c bf e9 af 59 be
       -0.4310145 0.00084874756 -0.6726529 -0.2125851
000040 10 71 19 bf 58 34 00 bf eb f5 89 be 2b 7f 64 be
       -0.59938145 -0.5007987 -0.26945433 -0.22314136
000050 fc 91 13 bf 4d ed 65 3a c6 b7 e7 b9 a0 4b b7 b9
       -0.5764463 0.00087710173 -0.00044196675 -0.00034960825
000060 78 8b ba be 18 94 97 39 d3 10 b6 b9 8a 35 c8 b9
       -0.3643453 0.00028911303 -0.0003472628 -0.00038186862
000070 d4 c7 79 3a 94 00 5e be 09 6d 34 be 58 4e fd be
       0.0009528373 -0.21679908 -0.17619719 -0.49473834

resnet_denoiser/level_0/batch_normalization_7/FusedBatchNormV31 f4 [32]
000000 20 51 07 40 3a 85 da 3f bd f9 f4 3f 6e 02 28 40
       2.1143265 1.7071908 1.9138714 2.6251483
000010 94 7b c3 3f bc 9d 4e 3f 49 e9 08 40 5d b1 46 40
       1.5272088 0.80709434 2.1392386 3.1045754
000020 b2 b0 ad 3f a3 06 1b 40 fe f5 5a 3f c3 80 58 3e
       1.3569548 2.42228 0.85531604 0.21142869
000030 f1 96 bd 3f 4d 96 0f bf ac 2d 0c 40 c9 9c 82 3f
       1.4811689 -0.56088716 2.1902876 1.0204097
000040 40 54 de 3f bf 72 a7 3f 49 61 aa 3f 2c 8b b0 3f
       1.7369461 1.3081893 1.3310939 1.3792472
000050 9d af 4e 3f aa b0 10 bf af 58 a9 3e 0d 5e 6d 3e
       0.80736715 -0.5651957 0.33075473 0.23180409
000060 db f9 8e 3f 71 e4 37 be 99 4f 85 3e ce 1d 8b 3e
       1.117 -0.17958237 0.2603729 0.27171177
000070 bb 9e 0f bf 56 55 2d 3f 27 c3 65 3f 7a 55 0c 40
       -0.5610158 0.6770834 0.89750904 2.192717

resnet_denoiser/level_0/batch_normalization_8/FusedBatchNormV3 f4 [16]
000000 21 a9 26 ba 81 aa cb be a5 63 76 bf d9 2f 71 bf
       -0.00063575996 -0.39778522 -0.96245795 -0.94213635
000010 9c 61 8d be d2 10 ce be 3a 51 92 bf 1a 04 95 bf
       -0.27613533 -0.40247208 -1.1431038 -1.1641877
000020 c7 e8 56 bf b9 c1 3a bf 1e 67 34 bf f9 f5 02 bf
       -0.8394894 -0.7295185 -0.70469844 -0.51156574
000030 fd 1e 28 bf d3 c0 50 bf 4a 20 00 bf 49 2b cf bf
       -0.65672284 -0.81544226 -0.5004927 -1.6185085

resnet_denoiser/level_0/batch_normalization_8/FusedBatchNormV31 f4 [16]
000000 eb 86 94 3e da 89 94 40 74 d8 1b 40 e8 59 ca 3f
       0.29009184 4.6418276 2.4350863 1.5808687
000010 15 b2 34 40 0c 3f 19 40 8a c5 86 40 0b 0e 3c 40
       2.8233693 2.394473 4.2116137 2.938357
000020 7a 54 80 40 c4 29 12 40 62 c6 24 40 5f 37 11 40
       4.010312 2.2837992 2.5746083 2.2690046
000030 e8 42 1e 40 e5 91 1b 40 cf 79 4f 40 4d 41 00 40
       2.4728336 2.4307797 3.2418096 2.0039856

resnet_denoiser/level_0/batch_normalization_9/FusedBatchNormV3 f4 [32]
000000 ff f7 8f ba 3b cb f3 be c8 c4 dc be 0d ad 3b bf
       -0.0010983943 -0.4761599 -0.43118882 -0.7331093
000010 33 8c 2f bf 49 eb 00 bf ec 32 99 be cc 52 2e bf
       -0.685733 -0.50359017 -0.29921663 -0.6809509
000020 6b 35 31 3a d7 5f a1 be b1 d9 7b 3a 6c e3 96 ba
       0.0006759974 -0.31518432 0.00096073287 -0.0011511869
000030 b2 85 ec be fd 94 2c bf b3 80 f3 b9 8f 9f 9d be
       -0.4619575 -0.6741484 -0.0004644446 -0.30785796
000040 ee 28 81 38 85 c7 24 ba 31 ec 2e bf f3 f9 57 ba
       6.158823e-05 -0.0006285834 -0.6832915 -0.00082388445
000050 6a 5a c1 be 83 8b 96 be e3 da f9 be a6 d3 43 3a
       -0.37764293 -0.29403314 -0.4879981 0.0007470198
000060 85 32 d9 be d3 43 a9 ba 78 5e cf be f1 53 be ba
       -0.42421356 -0.001291389 -0.4050176 -0.0014520866
000070 02 38 27 bf 7a 10 a5 3a e2 46 cc be c6 ed f5 be
       -0.65319836 0.0012593411 -0.3989783 -0.4803297

resnet_denoiser/level_0/batch_normalization_9/FusedBatchNormV31 f4 [32]
000000 14 6d 2a 3f 60 96 15 40 c1 1d 16 40 d1 df 83 3f
       0.6657269 2.3373032 2.345566 1.0302678
000010 97 5a 94 3f 69 6c 98 3f ce f8 5d 3f 51 da 87 40
       1.1590146 1.1908084 0.8670777 4.2454
000020 06 09 e2 be d0 c9 fc 3f 5d 5d 1a bf 32 51 34 3f
       -0.4414751 1.9749088 -0.6029871 0.70436394
000030 3b 63 a2 3f 0a 56 25 40 46 70 b1 3e a0 78 3f 40
       1.2686533 2.5833764 0.3465597 2.9917374
000040 54 f3 42 bd 66 48 e0 3e c3 15 6d 3f 20 8d 05 3f
       -0.047595337 0.43805236 0.9261133 0.52168465
000050 1c 86 02 40 e4 c5 c0 3f 88 0a 98 3f 8b 8e fc be
       2.0394354 1.5060391 1.1878214 -0.49327502
000060 39 73 76 40 f7 da 37 3f 4f 22 01 40 32 be 55 3f
       3.8507826 0.7181849 2.017719 0.8349334
000070 dd 59 f3 3f 57 31 34 bf 82 10 66 40 4d 57 02 40
       1.9011799 -0.70387787 3.5947576 2.0365784

resnet_denoiser/level_0/conv2d_54/Conv2D f4 [16]
000000 00 00 00 00 00 00 00 00 00 00 00 00 00 00 00 00
       0.0 0.0 0.0 0.0
000010 00 00 00 00 00 00 00 00 00 00 00 00 00 00 00 00
       0.0 0.0 0.0 0.0
000020 00 00 00 00 00 00 00 00 00 00 00 00 00 00 00 00
       0.0 0.0 0.0 0.0
000030 00 00 00 00 00 00 00 00 00 00 00 00 00 00 00 00
       0.0 0.0 0.0 0.0
