bfcnn/pretrained/resnet_color_1x6_bn_32x32_1x3x1_128x128_erf_relu/denoiser_model.tflite (tflite, 176160 bytes, 71 tensors)

resnet_backbone/level_0/batch_normalization_9/FusedBatchNormV3 f4 [64]
00000000: 56d7 b540 55e4 2341 6989 133b 5057 1b40
00000010: 2be5 d740 1331 2241 1c98 f1b8 b3ca a840
00000020: 7afc 7fb9 3209 a340 2ce2 0c40 f81d 2341
00000030: 738a a340 30ff 4440 f1d8 d13f 0f59 8637
00000040: 0def 1541 6d44 2740 3866 1941 3dcf 1941
00000050: 0065 1041 8396 7140 0637 1041 daf6 5140
00000060: 6cea 9140 1396 9041 5b40 7c41 d4c6 8f40
00000070: 4171 1441 5054 5541 106f 2841 b6a0 503a
00000080: 0525 0e40 63ad cf3f 1a26 87b8 90f4 b63f
00000090: da16 c23f 4a8e 6d40 9d03 b940 f58b aa3f
000000a0: f1ef b13f 0932 cb3f e998 3c3a f54c 923f
000000b0: fecc cf3f 852a 4340 7b37 9a3f 2f01 a33f
000000c0: a26f b640 9cbb ad40 a05e aa3f 8564 da40
000000d0: dda3 9d40 417d 953f 0416 d43e 913a ed40
000000e0: d6cb b23f 3957 7740 2cf1 ad3f b9b1 2040
000000f0: 524e e040 213d 9640 11a1 953f 4cb0 0041
5.682536 10.243245 0.0022512323 2.4272041 6.7467246 10.136981 -0.00011520108 5.2747436
-0.0002441275 5.0948725 2.2013044 10.194817 5.1106505 3.0780754 1.639433 1.6015516e-05
9.370862 2.6135514 9.587456 9.613095 9.024658 3.7748115 9.013433 3.2806916
4.559866 18.073278 15.765712 4.493021 9.27765 13.333084 10.527115 0.0007958518
2.2210095 1.6224788 -6.4443986e-05 1.4293385 1.5163224 3.7118096 5.781691 1.3323961
1.3901349 1.5874645 0.0007194416 1.1429735 1.6234434 3.0494702 1.2048181 1.2734736
5.701127 5.4291515 1.3310127 6.8247705 4.926253 1.167885 0.41423047 7.413399
1.3968456 3.8646986 1.3589225 2.5108473 7.0095606 4.694962 1.1689779 8.043041

resnet_backbone/level_0/batch_normalization_9/FusedBatchNormV31 f4 [64]
00000000: ba5c fcbe 0654 05bf 820f 3bb2 47d2 c9be
00000010: 1e04 08bf edb2 21bf 9a00 e52f b804 a7be
00000020: 68c4 5b30 ddb7 21bf 62f0 14bf 3243 24bf
00000030: b724 18bf f90c 80be 8306 e5b6 ef25 61ae
00000040: a48b 43bf 09f2 43bf 0c47 2fbf fd53 3ebf
00000050: 1153 05bf c3e5 ddbe 28cc ddbe 89c2 77be
00000060: f799 61be 061c 89bf 6752 82bf e902 79be
00000070: beda 15bf 8e5c 6cbf 951e 4cbf 5c08 2ab1
00000080: 766d 25bf 1bd2 d7be 1933 a22f e8a8 60bf
00000090: 5490 0dbf 6042 80bf c8ae 0bbf 9a06 14bf
000000a0: 3a59 54be 41af 38bf 5d17 2eb2 35f5 7cbf
000000b0: 57b0 17bf c393 58bf 75b9 19bf d221 20bf
000000c0: 574a 3bbf 7203 2abf daa0 46bf cec8 19bf
000000d0: ec17 44bf 3bfd 45bf 3901 75bf 8932 15bf
000000e0: b333 cfbe ff8b 17bf 0db7 26bf cf34 27bf
000000f0: 7449 58bf 8eb2 ddbe 7f8a 66bf 9f08 56bf
-0.49289495 -0.52081335 -1.0888359e-08 -0.3941824 -0.5313128 -0.63163644 4.1655285e-10 -0.32620788
7.9950846e-10 -0.6317118 -0.58179295 -0.6416503 -0.5943102 -0.25009897 -6.82549e-06 -5.119277e-11
-0.7638495 -0.7654119 -0.68467784 -0.74346906 -0.52079874 -0.43339357 -0.4331982 -0.24195303
-0.22031389 -1.0711677 -1.0181397 -0.24317516 -0.585369 -0.9232873 -0.79734164 -2.4743008e-09
-0.6462015 -0.42152485 2.9503935e-10 -0.8775773 -0.5529835 -1.0020256 -0.5456357 -0.57822573
-0.20737162 -0.72142416 -1.0133445e-08 -0.98811656 -0.5925345 -0.84600466 -0.6004861 -0.62551606
-0.7316031 -0.6641151 -0.7758919 -0.6007203 -0.76599 -0.77339524 -0.9570499 -0.58280236
-0.4046913 -0.5919799 -0.65123063 -0.65314955 -0.8448708 -0.4330029 -0.9005508 -0.83606905

resnet_backbone/level_0/batch_normalization_8/FusedBatchNormV3 f4 [32]
00000000: bafc 9f3f b876 1041 094e c040 c5bb 3041
00000010: e4aa 9541 03ef 5b41 2708 1d41 d6ed b640
00000020: cf8d 4441 54fe ab3f 84b5 ec40 155e 0f41
00000030: 80f6 5041 f5ba 6a40 805f ec40 1420 bf40
00000040: 0964 c040 8d8e 0740 5d0d 0d40 06c5 2741
00000050: e595 f940 6f79 1140 8d70 d13f 9fa3 e440
00000060: 8911 2441 e320 c140 1450 ed40 a5a0 2241
00000070: edd6 0741 0b56 2a41 f8e5 1440 25c4 6540
1.2499001 9.028984 6.009526 11.045842 18.708443 13.745852 9.81449 5.7165327
12.284621 1.343699 7.3971577 8.960469 13.060181 3.667661 7.3866577 5.972666
6.0122113 2.1180756 2.2039406 10.485601 7.7995477 2.2730367 1.6362473 7.1449733
10.254281 6.0352645 7.416025 10.16422 8.489972 10.646007 2.3265362 3.5900967

resnet_backbone/level_0/batch_normalization_8/FusedBatchNormV31 f4 [32]
00000000: 3cca 4bbf 5f30 d0be 5718 32b9 a67f fbbe
00000010: 399a 6dbe 5004 84be 881e e0be dabc f5be
00000020: c00e bdbe 9a3f 26b8 532e 92be a180 e2be
00000030: 31cc a3be cf11 bfbe 6e01 40be 564d 0abf
00000040: 2e76 12bf 2f16 91bf 387c f8be c9d9 28bf
00000050: 0b81 27bf 8aee a3bf f515 5abf 8cdd 87be
00000060: 6ff6 4ebf a550 c9be cf14 76bf 5b7c 8cbf
00000070: edeb 57bf f626 95be 928e 1abf 24c7 d7be
-0.7960546 -0.40661904 -0.0001698447 -0.49120826 -0.23203363 -0.2578454 -0.43773293 -0.47995645
-0.36925316 -3.9636718e-05 -0.28550968 -0.4423876 -0.31991723 -0.37318274 -0.18750545 -0.54024255
-0.5721158 -1.1334895 -0.4853227 -0.65957314 -0.6543128 -1.2807171 -0.85189754 -0.26536214
-0.8084478 -0.3931934 -0.961255 -1.097545 -0.8434437 -0.29131287 -0.60373795 -0.4214412

resnet_backbone/level_0/batch_normalization_7/FusedBatchNormV3 f4 [64]
00000000: 3cd3 b2b9 b8d6 413a 9f92 523a 30bf 8db9
00000010: a1fe bd40 7b83 efb9 c4bf 8a40 0c18 5d3f
00000020: 0896 a73e 7ec3 853f 0c73 1eb9 6313 cb3f
00000030: 604d ac3a 9f5b 6240 a7af 7f3e 40d7 123e
00000040: 6e41 f440 d7a3 a5ba 3b67 633f b9f1 1540
00000050: d496 d33f b2ee 0041 cee2 b13f 8676 c13f
00000060: c67a 8840 542b da40 bbd4 0240 0861 a53f
00000070: eef3 8c40 f7c8 ce40 2e01 db40 bc3e df40
00000080: fa0f ac40 4526 f240 c502 9b3f 0c99 9a40
00000090: 9839 8e40 a225 823f f1b3 5040 89bf a53f
000000a0: 5ff1 6cba fccb 3440 0fe6 6940 59f8 b23f
000000b0: 0f8a df3f f6dd 0a40 38ea 513f 4661 8040
000000c0: fd90 ae40 a1a4 d53e 6a3b 9c40 5da7 dc40
000000d0: 7e44 4140 4c88 3440 4fe4 3140 189f eb40
000000e0: 40cd 2d40 8cd2 a23f 98ef 733f 51da 5440
000000f0: 0533 a940 2d96 22ba 037c 9e3a 04b8 be3f
-0.00034108188 0.00073943613 0.00080327125 -0.00027036062 5.9373326 -0.00045683593 4.335909 0.8636482
0.32731652 1.0450284 -0.00015110912 1.5865291 0.0013145618 3.536842 0.2496935 0.14339924
7.632987 -0.0012637329 0.8882939 2.3428786 1.6530404 8.058275 1.389734 1.5114295
4.264987 6.817789 2.044234 1.2920237 4.4047766 6.462032 6.843894 6.976408
5.3769503 7.5671716 1.211022 4.8311825 4.4445305 1.0167735 3.2609828 1.2949077
-0.00090386526 2.8249502 3.6546667 1.398204 1.7464007 2.1697974 0.81998014 4.011874
5.455199 0.41727164 4.8822527 6.89543 3.0198054 2.820819 2.7795599 7.3631706
2.7156525 1.2720504 0.95287466 3.325825 5.287478 -0.00062021875 0.0012091402 1.4899907

resnet_backbone/level_0/batch_normalization_7/FusedBatchNormV31 f4 [64]
00000000: 38a8 1131 a2dd 9fb1 a450 fbb1 56f8 3931
00000010: 6886 f5be c2f2 8c31 b91a a7be 0385 1ebf
00000020: 89ca 3cbf 0e70 84bf dd1d 6130 1def 52be
00000030: f6ec 13b2 667d 16b8 c23d ecbe 7be1 9fb5
00000040: 6aed 27bf f2dc 8332 892d fbbe 7dc5 15bf
00000050: 9e2f 02be e888 2fbf 8b60 e8be c6e7 4db7
00000060: 56fd 6abf a3eb 37bf f4f2 85be 542c 5ebf
00000070: d8f1 84bf 6e8e 09bf eb02 44bf 4410 36bf
00000080: dd4c 3bbf 59bb 05bf 07b2 9bbe 0be7 9bbe
00000090: d5cd 09bf 9102 8cbf b724 91be 388d 49bf
000000a0: bac2 0532 6a49 09bf 9d8a 43bf d346 15bf
000000b0: 0e7c 37bf e87d e6be 41ae 81bf 201a 09bf
000000c0: edf2 dfbe 5c86 afbe eb4a 3ab8 afd4 09bf
000000d0: 676b 57bf 4606 24bf ea72 4abf 55a6 5cbf
000000e0: fa11 5ebf 3afa 29bf 96bf 5abf 16e3 57bf
000000f0: a36f 53bf e1ff ad31 84eb 3db2 a19f 7abf
2.1195898e-09 -4.6527058e-09 -7.3142292e-09 2.7062206e-09 -0.47954106 4.1021346e-09 -0.32637575 -0.6192171
-0.73746544 -1.0346696 8.189696e-10 -0.20599027 -8.610405e-09 -3.5879573e-05 -0.46140867 -1.1912047e-06
-0.6559664 1.5350881e-08 -0.49058178 -0.5850447 -0.12713477 -0.6856828 -0.45386156 -1.2272916e-05
-0.9179281 -0.7184393 -0.2616192 -0.8678639 -1.0386305 -0.53732955 -0.7656695 -0.7111857
-0.7316416 -0.52238995 -0.30409262 -0.3044971 -0.538297 -1.0938283 -0.28348324 -0.7873111
7.785895e-09 -0.53627646 -0.7638338 -0.58311194 -0.7167367 -0.45017934 -1.0131303 -0.5355549
-0.43740025 -0.34282196 -4.441563e-05 -0.53840154 -0.8414826 -0.6407207 -0.79081595 -0.861913
-0.8674618 -0.6639744 -0.85448587 -0.8433088 -0.8259222 5.0640527e-09 -1.1054798e-08 -0.97899824

resnet_backbone/level_0/batch_normalization_6/FusedBatchNormV3 f4 [32]
00000000: dcc6 3141 b0c0 1640 2933 0941 80c4 843b
00000010: ed21 7940 c287 1641 0831 e840 106c 7c41
00000020: 0231 af40 1794 2741 6b90 5341 c884 b541
00000030: dcc9 a13f a13b 3440 1dd0 b73f e9db 4b40
00000040: a138 c540 795c 4a41 763d f441 3694 9840
00000050: 0c13 d73f 42ff 8341 ee34 3141 518d 5f41
00000060: 95d2 9f40 9711 2641 5d76 2940 e958 0941
00000070: 585f 713f 6034 8140 e7aa 2741 dfc4 a240
11.11105 2.3555107 8.57499 0.004051745 3.8926957 9.408144 7.2559853 15.776382
5.4747324 10.473655 13.222758 22.689835 1.2639728 2.8161395 1.4360386 3.1852973
6.1631627 12.647576 30.53001 4.768092 1.6802688 16.499638 11.075422 13.972001
4.994456 10.379294 2.6478493 8.584207 0.9428611 4.0376434 10.479224 5.086532

resnet_backbone/level_0/batch_normalization_6/FusedBatchNormV31 f4 [32]
00000000: 26f5 24bf 105c bbbf 2b02 10bf ea29 d3b3
00000010: e149 30bf 14a7 f7be a6b2 b5be c736 11bf
00000020: c5ca 76bf 0fdc bdbe 4674 61be 84fe dcbe
00000030: 6cdf eebe d437 b2bf 38dd 7ebf 4904 24bf
00000040: 8252 3ebf 25ad 2fbf 6246 00be 721c 5cbf
00000050: 2448 55bf addf 0fbf 0898 a4be 2a14 5cbf
00000060: d82f 91be 5268 85be 99c4 6abf 04d8 80be
00000070: 0f1a 10c0 0d4e 47bf 579f 11bf 558e cfbe
-0.64436567 -1.463747 -0.5625331 -9.833077e-08 -0.6886273 -0.48369658 -0.3548786 -0.5672421
-0.9640315 -0.37081954 -0.22017011 -0.4316293 -0.46654832 -1.3923287 -0.99556303 -0.6406904
-0.74344647 -0.6862357 -0.12526849 -0.85980904 -0.833132 -0.5620068 -0.3214724 -0.8596827
-0.28356814 -0.26056153 -0.91706234 -0.25164807 -2.2515905 -0.7785347 -0.5688376 -0.40538278

resnet_backbone/level_0/batch_normalization_5/FusedBatchNormV3 f4 [64]
00000000: 5fa1 923f 88fa 1540 93e1 2b40 5ba8 4740
00000010: 28bf 933f c084 2e40 870a a23a 95e7 8d3f
00000020: 4efc aa40 4ffd 2937 0c21 b840 71ae 4140
00000030: 2ca8 4140 8022 78ba 5c8f f73f 5bf4 3c40
00000040: 221a ad40 83d5 8d40 4683 8840 f353 e240
00000050: bc4c b23f c9ba 5840 2023 7540 5dd0 a440
00000060: b448 dd3f a87f 8540 f064 ed40 8f35 c540
00000070: 3b2c 2a3f 24d6 c140 2203 a640 3be1 953f
00000080: 9de9 3740 a103 0c41 aacb 2d41 cb9a 0041
00000090: ec9f 4240 9a5d eb40 4cf4 fa40 0578 0f41
000000a0: 8c1a 2340 b0be 0a41 67ec a240 ca16 dd40
000000b0: fb06 e440 280d 3541 3398 3841 a2aa 0041
000000c0: 61d8 b240 b6e2 9740 fc8a de40 cbd0 0e41
000000d0: f78a 5d41 7db2 1e41 b215 8a40 094b 9140
000000e0: fb7b 5341 82e9 5540 49d3 0f40 f8bc e840
000000f0: 6301 4a41 439a 8341 4554 5940 0f1c 0141
1.1455497 2.3434162 2.685643 3.1196506 1.1542711 2.7268524 0.0012362757 1.1086298
5.343299 1.0132163e-05 5.754034 3.026272 3.0258894 -0.000946559 1.9340625 2.9524143
5.40944 4.4323134 4.2660246 7.0727477 1.3929667 3.3864005 3.8302689 5.150435
1.7287812 4.171833 7.4185715 6.162788 0.6647374 6.05739 5.1878824 1.170936
2.8736336 8.750886 10.862223 8.037791 3.0410109 7.355176 7.8423214 8.966802
2.5484953 8.671555 5.0913577 6.909032 7.125852 11.315712 11.537158 8.041658
5.5889134 4.7464247 6.954466 8.925975 13.846427 9.918576 4.3151484 4.5404096
13.217769 3.3423772 2.2472708 7.2730675 12.625339 16.450323 3.3957684 8.06935

resnet_backbone/level_0/batch_normalization_5/FusedBatchNormV31 f4 [64]
00000000: 6dc0 42be 4e5b 37bf eb66 87bf a68f 1cbf
00000010: f1fa 31be edfe 3ebf dbc9 f8b1 881b 29be
00000020: 735f 34b8 3e4b f8b4 007b 22bf 0e41 60bf
00000030: 4133 5bbf a27b e731 fc13 14bf 6d5c 36bf
00000040: cd91 14bf 13d0 f3be d404 dabe 5aab 0cbf
00000050: 2a61 5ebf 4e5b bbbe aeb9 01bf d084 07bf
00000060: 3aeb 36bf 94ee 9ebe ceef 24bf e124 fcbe
00000070: bbb7 1bbf b8c3 03bf 18f7 19bf 0da0 92bf
00000080: 9404 2ebf 1813 0abf 3a6e 23bf 0174 21bf
00000090: 22e4 0ebf 05a8 49bf c2eb f2be 48b2 15bf
000000a0: dafa 17bf aa6f 8dbf 355a 19bf 2c0b 3abc
000000b0: b382 36bf f90f 06bf f8a8 90bf 0929 3ebf
000000c0: a8ae 33bf e07e 96bf 1dda 00bf 5dee 89bf
000000d0: 0ab5 4ebf c60a 6fbf a397 1cbf 828f 23bf
000000e0: 5802 bfbf 5f38 b4bf f163 2fbf 6f3c 05bf
000000f0: fc9a 5abf d706 3cbf dd0e 9abf cb0f 54bf
-0.19018717 -0.71623695 -1.0578283 -0.6115669 -0.17380883 -0.74607736 -7.2406983e-09 -0.16514409
-4.300424e-05 -4.6248346e-07 -0.63468933 -0.87599266 -0.8562508 6.7370403e-09 -0.57842994 -0.7123478
-0.58034974 -0.47619686 -0.4258181 -0.5494896 -0.8686701 -0.36593097 -0.5067395 -0.5293703
-0.7145268 -0.31041396 -0.6442841 -0.49246886 -0.60827225 -0.5147052 -0.6014266 -1.1455094
-0.67975736 -0.53935385 -0.6384007 -0.6306763 -0.55816853 -0.78772 -0.47445494 -0.5847516
-0.59367144 -1.1049702 -0.5990327 -0.011355203 -0.7129318 -0.5236812 -1.1301565 -0.74281365
-0.7018838 -1.1757469 -0.50332814 -1.0775868 -0.80744994 -0.93375814 -0.6116888 -0.6389085
-1.492259 -1.4079703 -0.68511873 -0.5204534 -0.8539274 -0.73447937 -1.2035786 -0.828366

resnet_backbone/level_0/batch_normalization_4/FusedBatchNormV3 f4 [32]
00000000: 576c cf40 5b46 913f a002 a041 9cfb 4d41
00000010: fc19 3841 c50a ab41 297d 5a41 08e0 7840
00000020: 1590 7341 9b2d c040 19f2 8040 1222 9141
00000030: 6e01 b640 7bd7 1141 2df9 5cba 7387 9e41
00000040: 3dc1 0d40 e151 0540 36a2 5840 1af1 8540
00000050: 79b2 aa40 2dd3 dc3e 672d 0b40 9a7b db40
00000060: 20a4 d240 0782 5540 3b34 3041 b5f7 c740
00000070: f99e bb40 c30a 0940 df0d 843f 5f29 953f
6.481975 1.1349596 20.001282 12.873928 11.506344 21.380259 13.655557 3.8886738
15.222676 6.005567 4.029553 18.141636 5.6876745 9.115108 -0.0008429464 19.816137
2.2149193 2.0831225 3.3849006 4.1856813 5.334286 0.43129864 2.1746461 6.858838
6.582535 3.3360612 11.012752 6.2489877 5.863156 2.1412818 1.0316733 1.165325

resnet_backbone/level_0/batch_normalization_4/FusedBatchNormV31 f4 [32]
00000000: 94ff 50bf 759e a9bf 95d0 1ebf 1c7c 95be
00000010: f3d9 88bf 87f2 91be 44cf a6be 7bec f4be
00000020: f531 9abf bfb3 1bbf ca55 2ebf 8a67 38bf
00000030: 049f 10bf 41d8 e3be e11f 0d33 93b9 80bf
00000040: 9c34 3abe a8cd b5be 9f2c 91be 0ea3 69be
00000050: e174 89be 177c fdbe 2ce2 4cbe 132e 04be
00000060: 2523 4abe f37f 96be 0b66 d9be af39 73be
00000070: 41a5 d1be 9e3a cabe e254 0fbf 8224 bfbe
-0.8163998 -1.3251482 -0.6203702 -0.2919625 -1.0691513 -0.28505346 -0.32580006 -0.4783667
-1.2046496 -0.60821146 -0.68099654 -0.7203299 -0.5649264 -0.44500926 3.2858114e-08 -1.0056633
-0.18184131 -0.35508466 -0.28354356 -0.22816107 -0.26846984 -0.49508736 -0.20008153 -0.12908201
-0.19739969 -0.29394493 -0.42460665 -0.23752473 -0.4094639 -0.39497846 -0.55988896 -0.3733254

resnet_backbone/level_0/batch_normalization_3/FusedBatchNormV3 f4 [64]
00000000: 002a 083b ab8f 7340 19cc 9d3f 8e30 7b3f
00000010: 66ea 393a 0a83 2f40 1c54 543f f1b9 0340
00000020: bf67 443f 1080 0140 37a9 0a3f 6f87 2240
00000030: 2b4f 1540 4d9a 0440 e8e3 8f3f 57c4 2940
00000040: 6382 a13f e120 1b40 7c67 9440 8aae 0740
00000050: 7ef8 aa3f 5c80 9340 7904 9f3f f5d1 033f
00000060: ed80 9439 e264 8e3f 5338 8840 fe57 1d40
00000070: 5ad8 6340 bd6e be3f f28c f53e 6379 b740
00000080: 1bc0 5440 b7f6 6d40 8c39 c040 62bf 8140
00000090: b73b 9d40 ea21 b040 d175 4a3f 90c9 ae3f
000000a0: 63c7 02b8 da2a 863f 101e 0040 1648 b240
000000b0: 0653 9a3f 6838 ee3f 8db8 783f b08e a5b8
000000c0: 562e 0641 c358 e840 a87a 9240 6566 9140
000000d0: b9a9 4540 5793 6d40 4deb 1740 b094 a340
000000e0: 247e 8740 23c9 e140 53cb c340 7f60 da40
000000f0: 040d 143f 3814 c03f 1c12 8540 3242 3040
0.0020776987 3.8056438 1.2327911 0.98120964 0.0007092118 2.742373 0.8294084 2.058224
0.76720804 2.0234413 0.5416445 2.5395162 2.332957 2.0719178 1.1241426 2.6526086
1.2617916 2.4238818 4.6376324 2.120028 1.3357084 4.609419 1.242324 0.51492244
0.00028324817 1.1124537 4.2568755 2.4584956 3.56008 1.4877545 0.47959095 5.7335677
3.3242252 3.7181833 6.007025 4.054612 4.9135394 5.50414 0.79086024 1.3655262
-3.118011e-05 1.0481827 2.0018349 5.5712996 1.2056587 1.8610964 0.971566 -7.894391e-05
8.3863125 7.260835 4.5774727 4.5437493 3.088484 3.712118 2.3737366 5.1119003
4.234148 7.055803 6.11857 6.8242793 0.5783236 1.500617 4.1584606 2.7540402

resnet_backbone/level_0/batch_normalization_3/FusedBatchNormV31 f4 [64]
00000000: 7e68 adb2 b9bd 07bf 6342 cdbe 1979 cfbe
00000010: cf66 abb1 b7d8 0abf 8645 92be 272d 32bf
00000020: fffd a6be bda8 febe 44db 9bbe 733d d9be
00000030: 411d 37bf 3294 12bf 7af3 0bbf 254c c5be
00000040: 82c9 45bf 9b10 18bf 297f aabe 8bdd 3dbe
00000050: bf3e 13bf daba bfbe 4066 61bf 4849 a7bf
00000060: d721 4eb1 965e 51bf 9682 0fbf 18da 4bbf
00000070: 2d70 e5be 64a9 f5be 157c 6cbf 8e43 bebe
00000080: ed54 22bf cc40 12bf 2b6f 14bf a31d 0abf
00000090: de7c 06bf ad28 3dbf 2862 91b6 b8f1 14bf
000000a0: 3533 b02e 7f5d 2dbf 5d96 12bf c12c e5be
000000b0: 2c1b 2bbf ca93 cebe 535c 12bf 08dd bc2f
000000c0: 4ee1 02bf 14e0 79bf 5d9f 68bf 1ef4 76bf
000000d0: 6871 0ebf 8432 4abf 6a4e 5bb7 1e06 28bf
000000e0: 5782 9bbf 7660 36bf 2983 29bf b657 3ebf
000000f0: d768 33bf e43e f9be 3ba6 96bf 8057 f4bf
-2.0187368e-08 -0.5302387 -0.40089712 -0.40522078 -4.988443e-09 -0.5423693 -0.28568667 -0.69600147
-0.3261566 -0.49738112 -0.30440724 -0.42429695 -0.7152901 -0.5725738 -0.5466839 -0.38534656
-0.772606 -0.5940034 -0.3330014 -0.18541543 -0.5751762 -0.37447244 -0.88046646 -1.3069239
-2.999618e-09 -0.8178495 -0.56058633 -0.7962966 -0.44812146 -0.47980797 -0.92376834 -0.37160915
-0.63410836 -0.5713012 -0.5798213 -0.5395147 -0.5253428 -0.7389019 -4.3327636e-06 -0.58181334
8.0126496e-11 -0.6772079 -0.57260686 -0.44760707 -0.66838336 -0.4034713 -0.57172126 3.4354053e-10
-0.5112504 -0.9760754 -0.9086817 -0.96466243 -0.55641794 -0.7898333 -1.3071674e-05 -0.65634334
-1.2149152 -0.7124094 -0.6621576 -0.74352586 -0.7008185 -0.48680794 -1.176948 -1.9089203

resnet_backbone/level_0/batch_normalization_2/FusedBatchNormV3 f4 [32]
00000000: 2fa8 263b 91bb 1541 01a2 6440 7397 b540
00000010: fcda 3c40 f997 3041 f8f6 0940 2822 3e41
00000020: 985d 1f40 d232 ac3f f5c9 2341 d514 8c41
00000030: bca2 9740 def0 2f41 ae92 7040 c817 c93f
00000040: ce6a a440 5854 8341 2046 f43f 512c 1740
00000050: c2ad 8340 21e4 f440 7774 9040 b2e4 1440
00000060: 0341 9640 ab0f e140 e258 df40 dd25 2641
00000070: 341a 3340 860b f23e 1918 0241 33e8 4f41
0.0025429835 9.358293 3.572388 5.6747375 2.9508657 11.037103 2.1556988 11.883339
2.4900875 1.3453009 10.236806 17.510172 4.738615 10.996305 3.7589526 1.5710382
5.1380377 16.416183 1.90839 2.3620799 4.1149607 7.652848 4.514217 2.3264585
4.695436 7.0331626 6.9796 10.384244 2.7984743 0.47274417 8.130883 12.994189

resnet_backbone/level_0/batch_normalization_2/FusedBatchNormV31 f4 [32]
00000000: 41dd c7b3 4957 69bf b4f5 38bf 248d f5bf
00000010: ab07 bdbe bdb1 66bf c93b 5bbf 7a2a 86bf
00000020: aa8b 73bf 861c b3bf 2a28 82bf 67fb 33bf
00000030: 8c5b dfbe 7dc9 96be 7df3 d2bf e06e 7fbf
00000040: 9a09 a4be f8dc 59bf a168 1bbf 84a4 89bf
00000050: 1236 12bf 493f adbe d659 02bf 35a4 b5be
00000060: 6670 2ebf ffb5 f3be 7b6d 2bbe b8fb 18bf
00000070: 993d 79bf 415e 14bf ee22 9dbe cf78 95be
-9.3069055e-08 -0.9114881 -0.72249913 -1.9183698 -0.36919913 -0.9011496 -0.856381 -1.0481713
-0.95134985 -1.399308 -1.0168507 -0.70305485 -0.43624532 -0.29450598 -1.6480557 -0.99778557
-0.32038575 -0.85102797 -0.60706526 -1.0753331 -0.57113755 -0.33837345 -0.5091833 -0.35476843
-0.68140256 -0.4759979 -0.16740982 -0.5975909 -0.97359616 -0.5795632 -0.30690712 -0.29193732

resnet_backbone/level_0/batch_normalization_11/FusedBatchNormV3 f4 [64]
00000000: e039 db37 4c32 89ba c379 afb9 518b 94ba
00000010: 5efa 6a3a 4f48 76b8 cf28 5739 1c93 0b3a
00000020: f584 9a3f 46a9 6d3f 6e66 873f 6d92 b8ba
00000030: 178d e63f 9a0c efb9 529a 953f 0f8c 91b9
00000040: 6983 3340 b91b 243a ed14 bdb9 39b0 1d40
00000050: 02d6 d13f 53e7 4039 6dcf 2541 c135 bab9
00000060: 8762 a23f 0fe5 bd3f e2ab de3f 1be5 243f
00000070: ac8c c439 7944 1539 ede0 2b3a 1dd3 d43a
00000080: ee13 1f41 b2d4 9040 bfdd 8f41 8a43 8c40
00000090: dfa1 fe3f 7eac fb40 c564 1841 81e9 4341
000000a0: 92e7 6c40 f100 e740 9bb8 4e41 e968 9f3f
000000b0: 4b56 3741 f718 3841 80be 4c41 4cad 0a41
000000c0: 72cb 4f41 fca7 7d41 7b5e 6c41 9cea 0841
000000d0: 90e9 f940 f86c 0f40 1062 3541 6c91 f240
000000e0: cb10 0741 9c7d 3f41 8403 cf40 e7ed 0341
000000f0: ed18 2341 8092 e740 31c5 0a41 c635 5241
2.6133785e-05 -0.001046726 -0.0003346932 -0.0011333023 0.0008963699 -5.8718313e-05 0.000205192 0.000532435
1.2071825 0.92836416 1.0578134 -0.0014081724 1.8011807 -0.0004559502 1.168772 -0.00027760907
2.8048956 0.00062602345 -0.0003606448 2.4638808 1.6393435 0.00018396722 10.363141 -0.00035516734
1.2686318 1.4835528 1.7396204 0.6441209 0.00037488842 0.00014235255 0.0006556649 0.0016237233
9.942366 4.525964 17.983274 4.3832445 1.9893149 7.864806 9.524602 12.244508
3.701634 7.218865 12.92007 1.2453891 11.458568 11.506095 12.796509 8.667309
12.987169 15.853512 14.7730665 8.557278 7.809761 2.241026 11.336441 7.5802517
8.4416 11.968166 6.469179 8.245582 10.193585 7.2366333 8.673142 13.138128

resnet_backbone/level_0/batch_normalization_11/FusedBatchNormV31 f4 [64]
00000000: 5c84 b3ae af80 7232 f6b3 9a31 f0bb 0932
00000010: b492 7eb2 97ad 0c30 1c34 2eb0 9497 dcb1
00000020: e21f d3be afe4 a4be 831d 51bf 7dfc be31
00000030: 01e2 57bf 00fd a231 b0c4 76bf 151e fa30
00000040: 5498 18bf 64ce 1cb1 0ff6 1f31 e44a 10bf
00000050: f8c2 a6be 448e ecb0 bded 36b9 22ce b431
00000060: cea9 47bf 4d92 45bf 517b 26bf 7d86 ddb6
00000070: 3eb3 51b1 0cf1 19b1 dd7c 10b2 e3dc d8b1
00000080: abb9 58bf 7e96 61bf f512 7ebf 7686 61bf
00000090: 0d8b 06bf 4aa4 38bf fcf8 7dbf 8d9f 72bf
000000a0: 9386 b3be b69f 13bf e8f9 54bf 0a54 83bf
000000b0: 4714 53bf 6e89 4dbf 57c1 30bf f662 8fbf
000000c0: c75f bcbf ad5a 89bf f0c0 2bbf 744d 6fbf
000000d0: 7335 5dbf 93f2 d2be 7a82 6ebf 29ce 85bf
000000e0: e565 37bf 489a 83bf 3f85 86bf 99ba 87bf
000000f0: c6d3 5bbf 3bd2 47bf fca9 88bf 0304 87bf
-8.163489e-11 1.4115513e-08 4.502449e-09 8.017182e-09 -1.4818102e-08 5.117839e-10 -6.3374883e-10 -6.420075e-09
-0.41235262 -0.32205722 -0.81685656 5.5584324e-09 -0.8432923 4.7435833e-09 -0.9639387 1.8198444e-09
-0.59607434 -2.2818307e-09 2.3277413e-09 -0.56364274 -0.32570624 -1.7211694e-09 -0.00017445437 5.262124e-09
-0.77993476 -0.7717636 -0.65031916 -6.6019697e-06 -3.051539e-09 -2.240145e-09 -8.410294e-09 -6.3115393e-09
-0.84658307 -0.8812026 -0.99247676 -0.88095796 -0.52555925 -0.72125685 -0.99208045 -0.94774705
-0.3506361 -0.57665575 -0.83193827 -1.0260022 -0.82452816 -0.80287826 -0.69045013 -1.1202075
-1.4716729 -1.0730797 -0.67091274 -0.9347756 -0.8640968 -0.41200694 -0.9316784 -1.045354
-0.71639854 -1.0281458 -1.0509413 -1.060382 -0.85870016 -0.7805516 -1.0676875 -1.0548099

resnet_backbone/level_0/batch_normalization_10/FusedBatchNormV3 f4 [32]
00000000: 63ac 7aba 4893 a940 978d dd40 197f 3540
00000010: 5077 ce40 db1d 2e40 8f16 c640 8431 f83f
00000020: 6f5a 8e3c 161b ee3f eb59 a240 62e2 ee40
00000030: 8c6c d540 d80e 0040 6f14 e03f 9517 ce3f
00000040: c77f ae40 060d 313f 20b2 5240 9dee bc40
00000050: 2c17 dd3f 0d4c 8140 32e0 1340 2d12 7a40
00000060: b8ca c340 d286 2e40 d106 c73f b8f1 3340
00000070: e881 6940 14b4 8640 5820 2140 cc7c 3a40
-0.0009562431 5.2992287 6.923534 2.8358824 6.4520645 2.7205722 6.1902537 1.9390111
0.017377106 1.8602016 5.0734763 7.4651346 6.6695004 2.000906 1.7506236 1.6100947
5.453098 0.691605 3.292122 5.9041276 1.7272696 4.0405335 2.3105588 3.9073594
6.118496 2.7269788 1.5548955 2.8116283 3.6485538 4.209482 2.517599 2.913867

resnet_backbone/level_0/batch_normalization_10/FusedBatchNormV31 f4 [32]
00000000: 4223 8632 827b 57bf 4d76 2dbe 4daf 2fbf
00000010: d526 12bf 4a33 c2be 6173 36b9 b0a4 4dbf
00000020: 498f 06b5 ef44 42bf e9f4 22bf 0669 68b9
00000030: 71fa 0abf 31b7 91be 4755 fabf a212 bdbf
00000040: 6159 0dbf 02c8 ccbe fe99 cfbd e3e0 babe
00000050: 89b0 a1be 5dc8 fbbe 0452 89be 3a7d a3be
00000060: 1ce5 25bf fdc7 b8be ed9f a9be 3188 aabe
00000070: 885d 9fbe 1b87 5bbe 0e1f cabe e26b 27be
1.5615687e-08 -0.8417283 -0.1693966 -0.6862686 -0.570905 -0.37929755 -0.00017399855 -0.8032942
-5.01274e-07 -0.75886434 -0.63654953 -0.00022164368 -0.54288393 -0.28460076 -1.9557275 -1.4771311
-0.55214506 -0.39996344 -0.101367936 -0.364997 -0.31579998 -0.49176303 -0.26820385 -0.31931478
-0.6480272 -0.3609008 -0.33129826 -0.3330703 -0.31126046 -0.21438257 -0.39476818 -0.16349748

resnet_backbone/level_0/batch_normalization_1/FusedBatchNormV3 f4 [64]
00000000: a935 a140 c234 6540 8e74 d83f 7eec b13f
00000010: f92d 5f40 02a8 8a3f 981e f13f 44c6 3940
00000020: 924a c23f df17 1541 1033 c540 d0f2 a240
00000030: 1559 7840 1812 2e40 fa53 8c40 c713 ea40
00000040: 7407 f140 129a f13e a19c c940 975d 1b41
00000050: 3607 8340 c086 3740 73a1 5240 510d c53e
00000060: 4ad6 af3f 8ef4 1041 bdf2 a140 e0a1 5440
00000070: d278 1841 25b3 6341 4de5 903f c186 f83c
00000080: b566 9541 a0d3 9640 9b05 f140 7c64 bb40
00000090: d62c cf40 e0e1 5b40 342c 8740 b3fd 1f41
000000a0: d885 6a40 8164 3341 caef 4141 87f9 8440
000000b0: da65 2b40 81cd 0941 7a1f 7841 8a8f aa40
000000c0: 4968 8a40 bdc4 8141 4e36 f83f a006 3140
000000d0: 0336 2840 b071 c440 dc38 7041 24fa 3341
000000e0: 4181 9140 2294 7440 ed5b 8440 a11b 4041
000000f0: 1bec 4840 b50a b040 42ef 6140 eef7 8c41
5.0378003 3.581345 1.691057 1.3900297 3.487181 1.0832522 1.8837461 2.9027262
1.5179007 9.318328 6.162483 5.09214 3.8804371 2.7198544 4.385251 7.314914
7.53216 0.4718786 6.3003697 9.710349 4.0946302 2.8675995 3.291104 0.38486722
1.3737271 9.059706 5.060881 3.32238 9.529497 14.231236 1.1319977 0.030337693
18.67515 4.713333 7.5319343 5.856016 6.474223 3.4356613 4.224146 9.999438
3.6644192 11.212037 12.121042 4.15546 2.6780915 8.612672 15.507685 5.330022
4.32523 16.221064 1.9391572 2.7660294 2.6282966 6.138878 15.013882 11.2485695
4.547028 3.8215413 4.1362214 12.006745 3.1394107 5.501307 3.5302281 17.62106

resnet_backbone/level_0/batch_normalization_1/FusedBatchNormV31 f4 [64]
00000000: 60fd 5cbf 0085 0dbf ce3a 21bf 05ee 4abf
00000010: 0e78 dbbe aa1e 71bf 28e0 99bf b21b 89be
00000020: 1f42 7bbf 3aeb 07bf e0eb 3bbf 8bf2 1ebf
00000030: ad1c 4bbf 9713 10bf 2fa8 83bf c815 14bf
00000040: c4c4 2db8 1a79 adbe 8003 5dbe 5d73 90be
00000050: 53b8 9fb7 7b88 13bf 0a5a 8abf 6836 54bf
00000060: c6b6 89bf bc59 d6be 85cc 4ebf 65c2 79bf
00000070: d9d5 d9be 2f60 febe 6398 3dbf af4a 6cb4
00000080: f3dc f0be 9511 3bbf e6b6 74bf 7f0b 54bf
00000090: 8040 48bf 9974 67bf ca73 65bf 2f26 16bf
000000a0: f710 79bf cf0c f1be 0f5c 4fbf ca08 44bf
000000b0: 9e60 51bf 9c3a 34bf 2687 74bf 0e6f 6bbf
000000c0: 552a 90bf b4b8 24bf 79a8 b5bf 24b2 98bf
000000d0: 2606 a4bf f6d2 28bf d3b6 5ebf 0e19 32bf
000000e0: e26e 40bf 210e 65bf b973 9abf 10ac e8be
000000f0: 223e 01bf f693 2abf d3b3 c6bf 56ad 3ebf
-0.8632412 -0.55281067 -0.62980354 -0.7926944 -0.42865032 -0.94187415 -1.2021532 -0.26778942
-0.9814777 -0.530933 -0.7340679 -0.6208884 -0.7934063 -0.5627989 -1.02857 -0.57845736
-4.1429666e-05 -0.33881456 -0.21583366 -0.28213015 -1.904011e-05 -0.5763013 -1.0808728 -0.8289552
-1.0758903 -0.41865337 -0.8078082 -0.9756225 -0.42545965 -0.49682757 -0.7406065 -2.2006382e-07
-0.4704357 -0.73073703 -0.9559158 -0.8283004 -0.7822342 -0.9041229 -0.89629805 -0.58652014
-0.9729151 -0.47080085 -0.80999845 -0.7657591 -0.8178805 -0.7040193 -0.9551872 -0.9196633
-1.1262919 -0.64344335 -1.4192039 -1.1929364 -1.2814376 -0.659469 -0.8699772 -0.6956948
-0.75169194 -0.89474684 -1.2066566 -0.45443773 -0.5048543 -0.6663202 -1.5523628 -0.7448324

resnet_backbone/level_0/batch_normalization/FusedBatchNormV3 f4 [32]
00000000: 60db 0040 9ce5 3abb cd66 2741 b55a b83f
00000010: 934b 9141 a4d7 6a40 82e8 8340 d307 06bb
00000020: 8faf d53f 991e c740 b428 db40 ad98 4341
00000030: 0830 803b f17a 2941 88b5 843a 0973 b841
00000040: 22b3 bb3f 450c 3940 2e27 f53f 965e 3040
00000050: 23c2 4341 19ad 8240 7eb5 1640 434b 3a41
00000060: eb79 2740 63cc bd3e 7e97 4840 eff7 783c
00000070: aa43 6f40 6f22 be3f 4e85 4340 b71f b03f
2.0133896 -0.0028518206 10.462598 1.4402682 18.161901 3.6694117 4.1221323 -0.002045144
1.6694201 6.222485 6.8487186 12.224774 0.003911976 10.592515 0.0010124901 23.05617
1.4664042 2.8913739 1.9152582 2.755773 12.234897 4.08363 2.3548274 11.643374
2.6168163 0.37069997 3.1342463 0.015195831 3.738505 1.4854258 3.0550113 1.3759679

resnet_backbone/level_0/batch_normalization/FusedBatchNormV31 f4 [32]
00000000: 3921 74be 8037 1333 5b18 8cbe a2c4 69bf
00000010: e6a8 87be a7fa fcbe 34d4 22be cd94 0a34
00000020: b8a4 28bf 53be 93be 6992 8bbe 6e33 08bf
00000030: f13a 0cb4 9271 8dbe a7f9 93b3 ba6d 09bf
00000040: 68cf d4bd a55a 57be 5954 c3bd 8b0d 64be
00000050: 44e5 68be 23b1 05be 744e 65bd a657 e0bd
00000060: 04e6 7ebe 99e4 79bf 92f1 c0be f024 65b5
00000070: 22a7 38be b4b2 16bf a83a 7abe b7a0 09bf
-0.23840798 3.427658e-08 -0.27362332 -0.9131566 -0.26496047 -0.49409983 -0.15901262 1.2906385e-07
-0.6587634 -0.28856143 -0.2726014 -0.53203475 -1.3059959e-07 -0.2762571 -6.8906324e-08 -0.53683054
-0.10391122 -0.21030672 -0.095375724 -0.22270791 -0.22743708 -0.13055854 -0.05598302 -0.109542176
-0.24892431 -0.9761444 -0.37684304 -8.53629e-07 -0.18032506 -0.5886643 -0.24436438 -0.53760856

denoiser_head/resnet_backbone/level_0/batch_normalization_17/FusedBatchNormV3 f4 [64]
00000000: 01c1 cb41 88cb cb41 55df b341 8b7f c940
00000010: fc9a b341 1b26 1c42 e080 0e42 90bc bc40
00000020: d15f 9540 120d c241 471d 0142 1b89 e141
00000030: 56c0 8641 ecf5 da41 aeaa c441 eadf e041
00000040: 0a57 e041 e5e8 ff41 4e20 9041 0fc3 0742
00000050: 2e88 bf41 b09c ca41 dba3 c541 9a61 dc41
00000060: 6a41 db41 f9fb 0342 80b2 b941 fb6b 0a42
00000070: 8102 4f40 ad30 ad41 55cd d741 98ad dd41
00000080: 7ec9 d641 99d3 f541 8ade b041 8bc6 0941
00000090: 9d99 cc41 874f 0542 90da d841 319b d841
000000a0: aa10 d041 0852 d241 c959 da40 71ee ec40
000000b0: 1b78 ca41 3a68 0a42 815b c441 196c b141
000000c0: 0bf0 b441 e3e2 7f41 783d 4941 b5d3 c141
000000d0: 8ee1 e140 9f39 ba40 f1e6 c241 18cc cf41
000000e0: 70f5 a541 3667 4941 8d44 3e41 8bd7 c941
000000f0: 11ba 7541 16a5 6841 594b c641 a36f af41
25.46924 25.47438 22.484049 6.296819 22.450676 39.037212 35.625854 5.898018
4.6679463 24.256382 32.27859 28.191946 16.843914 27.370079 24.58334 28.109333
28.0425 31.988718 18.015774 33.940487 23.941494 25.326508 24.705008 27.547657
27.40694 32.996067 23.212158 34.60545 3.2345278 21.648767 26.97526 27.709763
26.848385 30.72832 22.108662 8.610972 25.575006 33.327663 27.10672 27.075777
26.008137 26.290054 6.82346 7.4041066 25.308645 34.601784 24.54468 22.177782
22.617208 15.992892 12.577507 24.228373 7.0587835 5.819534 24.362764 25.974655
20.744843 12.587698 11.891736 25.230246 15.357926 14.540304 24.78679 21.92951

denoiser_head/resnet_backbone/level_0/batch_normalization_17/FusedBatchNormV31 f4 [64]
00000000: 9377 93b9 094a a4b9 7556 85b9 f611 55c0
00000010: e399 89b9 1651 99be 5b85 e4b9 efd8 0ec0
00000020: e6fb 44c0 b526 96b9 3a7a deb9 8861 a7b9
00000030: 1815 cfbf 058e a4b9 a0b8 9ab9 128a a0b9
00000040: 1ee2 91b9 7ae6 aab9 0498 e1bf 5ce1 d8b9
00000050: 9a6c 85b9 60c2 9bb9 484a 82b9 9d5e 93b9
00000060: c95c 98b9 5577 a6b9 18c8 5ab9 d113 ceb9
00000070: 1434 80c0 0023 77b9 0cfc 9eb9 d84c a5b9
00000080: 6b64 d1b8 b93b e6b8 9b11 bebf 337a 6ebf
00000090: 3172 ddb8 56ba e9b8 1aee e9b8 7652 f6b8
000000a0: 80ae c6b8 8105 d1b8 95f8 60c0 ccd5 5ebf
000000b0: b938 e2b8 bab1 01b9 51c5 c4b8 a38a b2b8
000000c0: 32b9 bdb8 1d6e bdbf 03ad b7bf 8f33 c0b8
000000d0: 6b6b d1bf a0ee c8bf 6b36 d3b8 298d c5b8
000000e0: f8ae bfb8 4399 98bf 348d 9bbf d068 e1b8
000000f0: aaa7 adbf aca3 02c0 cb36 cdb8 b177 4abf
-0.00028127115 -0.00031335678 -0.00025432152 -3.3292212 -0.0002624533 -0.29944676 -0.00043586906 -2.2319906
-3.0778747 -0.00028639068 -0.00042434206 -0.0003192539 -1.6178312 -0.0003138633 -0.00029510725 -0.00030620449
-0.00027825026 -0.00032596645 -1.7624516 -0.00041366636 -0.0002544865 -0.00029708724 -0.00024850876 -0.00028108517
-0.0002906083 -0.00031750897 -0.00020864641 -0.00039306146 -4.006357 -0.00023568794 -0.00030323898 -0.00031528505
-9.984601e-05 -0.00010978379 -1.4849123 -0.9315521 -0.00010559371 -0.000111450136 -0.00011154656 -0.00011745554
-9.473879e-05 -9.966922e-05 -3.5151722 -0.8704498 -0.00010787085 -0.00012368607 -9.382761e-05 -8.5135245e-05
-9.0467176e-05 -1.4799229 -1.4349674 -9.164877e-05 -1.6360906 -1.5697823 -0.000100714 -9.419985e-05
-9.14018e-05 -1.1921772 -1.2152467 -0.00010748359 -1.3566792 -2.0412397 -9.785368e-05 -0.79088885

denoiser_head/resnet_backbone/level_0/batch_normalization_16/FusedBatchNormV3 f4 [32]
00000000: b619 483f 2747 9b40 1451 9940 2c98 373f
00000010: 0ce3 ee3f e777 9940 366f 9940 ce09 9a40
00000020: 63fa 9740 7b1a 173f 5f7a 9a40 6c44 0c3f
00000030: 4c52 093f cca2 9840 d587 9840 4899 9840
00000040: eb2d a83f 86b5 773b a003 0840 0570 673f
00000050: c478 0340 950f cb3f c1d5 0640 f73c 1c3f
00000060: 3046 1040 4997 0640 4816 9b3f 6991 5d3e
00000070: 04ba 0f40 8e3a a03f 2fdb 853f 254a aa3f
0.7816423 4.8524356 4.791147 0.7171657 1.8663039 4.7958865 4.7948256 4.813697
4.749315 0.5902478 4.827438 0.54791903 0.536412 4.7698727 4.766581 4.768711
1.3139013 0.0037797405 2.1252213 0.90405303 2.054246 1.586413 2.1067965 0.61030525
2.254284 2.1029837 1.2116175 0.21637501 2.2457285 1.251787 1.0457515 1.3303877

denoiser_head/resnet_backbone/level_0/batch_normalization_16/FusedBatchNormV31 f4 [32]
00000000: e306 92bf cbef a1ba 8806 95ba 53f0 02c0
00000010: f66c 9ebe b36d 93ba 25ab 8aba e3e0 b4ba
00000020: 7102 9aba 4f3a 48bf c4b3 a2ba ab91 bbbf
00000030: 95ce e5bf 1336 9bba 80af 99ba 2d18 bbba
00000040: 1a4e f6be 24de 5bb5 5d6e f6b9 fe02 06bf
00000050: 2e86 ccb9 7164 79be 351c e2b9 ee5e 1fbe
00000060: c2d9 7abf 693a f5b9 3205 f9be 6eda 2ebf
00000070: ee9b f8be 391c f1be f7c9 88be 5f78 b8be
-1.1408352 -0.0012354789 -0.0011369744 -2.0459182 -0.30942506 -0.0011247903 -0.001057957 -0.0013799932
-0.0011749995 -0.7821397 -0.0012413193 -1.4653829 -1.7953669 -0.0011841677 -0.0011725277 -0.0014274173
-0.48106462 -8.1907115e-07 -0.00047003003 -0.52348316 -0.00039009884 -0.24354722 -0.00043127095 -0.15563557
-0.9798852 -0.0004677356 -0.48636776 -0.6830205 -0.48556465 -0.47091845 -0.26716587 -0.36029336

denoiser_head/resnet_backbone/level_0/batch_normalization_15/FusedBatchNormV3 f4 [64]
00000000: 486e e141 1623 ba41 214a d541 21af cf41
00000010: 0b42 d041 602c 0142 03e9 ce41 82e9 c441
00000020: ebdb a641 48ba c241 266b ad41 818a cb41
00000030: 7dc9 c741 e3d0 e341 0f24 e741 ddf8 c341
00000040: e7f5 d341 0d65 b841 6a68 d341 b458 ea41
00000050: fac8 1042 9676 e241 323f d841 1ec5 c241
00000060: c0f5 ce41 c4c9 fd41 4187 e141 03aa c741
00000070: 6fa8 dd41 bff8 fc41 bfb9 c641 6f42 1542
00000080: 9bf6 e140 52bd cc41 e5f9 a741 4591 5d41
00000090: 0a46 c141 cabc 0742 67ae 9641 4626 3d41
000000a0: 6540 ba41 866b d141 b7b4 9c41 0d14 ae41
000000b0: db51 ce41 b44d af41 7d80 d041 0436 d941
000000c0: f0bd af41 e022 d341 9bba c641 933c f941
000000d0: 3a2f 9a41 e64c 9d41 2753 db41 b0e4 fc41
000000e0: ffbc c241 9a3b c341 c9a2 c341 f207 0142
000000f0: 59a3 c641 4717 c241 848a fb41 55aa 9c41
28.178848 23.267132 26.661196 25.960512 26.032248 32.293335 25.863775 24.614017
20.857382 24.340958 21.677319 25.442629 24.973383 28.476995 28.892607 24.496515
26.49507 23.049341 26.425983 29.293312 36.196266 28.307903 27.030857 24.346249
25.869995 31.723518 28.191042 24.958014 27.707243 31.621458 24.840696 37.314877
7.061353 25.592442 20.997019 13.847966 24.159199 33.934364 18.835157 11.821844
23.281443 26.177502 19.58824 21.75979 25.789968 21.912941 26.062738 27.151375
21.967743 26.392029 24.841116 31.154577 19.27306 19.662548 27.415602 31.611664
24.342283 24.404102 24.454485 32.25776 24.82976 24.261366 31.442635 19.58317

denoiser_head/resnet_backbone/level_0/batch_normalization_15/FusedBatchNormV31 f4 [64]
00000000: 505a 24b6 038f 1eb6 34ec 7eb6 8adb 69b6
00000010: 0e3b 6eb6 3e27 66b6 bb05 44b6 ee69 24b6
00000020: e2ac 83b6 708e 49b6 4e79 06b6 a568 62b6
00000030: 5574 23b6 7fae 8db6 f99f 24b6 8fea b3b6
00000040: b38a 63b6 da65 37b6 5751 6bb6 de01 1fb6
00000050: e949 2eb6 5748 91b6 9ebc a5b6 22ae c8b6
00000060: d9b2 c2b6 0aa1 5cb6 a7e3 2cb6 6aa9 22b6
00000070: d03e 8fb6 08f0 b8b6 8d92 e9b5 d5e8 c6b6
00000080: ac51 0bc0 f8d9 61b9 fbd1 35b9 7651 b3bf
00000090: 1c99 45b9 680c 8db9 c8a3 07b9 99e2 06c0
000000a0: ce02 3fb9 f6ce 51b9 2254 09b9 cff0 47b9
000000b0: 6209 5ab9 9710 3db9 b120 5fb9 bfd3 71b9
000000c0: 1740 44b9 1b1a 61b9 159b 59b9 7ec6 b2b9
000000d0: e793 43b9 18da 40b9 04d0 85b9 29f4 a7b9
000000e0: d343 31b9 8d74 56b9 0ff2 6fb9 33b1 aab9
000000f0: 925e 65b9 4e58 6eb9 c132 8fb9 0a50 36b9
-2.4490473e-06 -2.3627078e-06 -3.7986438e-06 -3.4847494e-06 -3.5499138e-06 -3.4295513e-06 -2.9209612e-06 -2.4499564e-06
-3.9242304e-06 -3.0034244e-06 -2.0038165e-06 -3.3737535e-06 -2.4356607e-06 -4.2224415e-06 -2.453102e-06 -5.361922e-06
-3.390637e-06 -2.732841e-06 -3.5065075e-06 -2.3693933e-06 -2.5971042e-06 -4.329758e-06 -4.939341e-06 -5.980736e-06
-5.802471e-06 -3.2876292e-06 -2.5762508e-06 -2.4238493e-06 -4.2690444e-06 -5.5115706e-06 -1.7402505e-06 -5.927965e-06
-2.1768599 -0.00021538872 -0.00017339729 -1.4009235 -0.00018844422 -0.0002690286 -0.00012935617 -2.1075804
-0.00018216224 -0.00020008892 -0.0001309668 -0.00019067827 -0.00020793595 -0.00018030625 -0.00021279116 -0.00023062433
-0.00018715892 -0.00021467397 -0.00020752505 -0.00034098694 -0.00018651747 -0.00018391793 -0.0002552272 -0.00032034636
-0.00016905302 -0.00020452049 -0.0002288299 -0.0003255695 -0.00021874372 -0.00022730345 -0.000273129 -0.0001738669

denoiser_head/resnet_backbone/level_0/batch_normalization_14/FusedBatchNormV3 f4 [32]
00000000: 1044 0942 85f5 cc41 a962 b741 d63c 4b42
00000010: 4f27 d241 0cc8 d741 4186 c541 d573 8f41
00000020: 144e bc41 7956 0a42 0c58 fe41 3c12 ce41
00000030: 7281 9341 1627 9c41 14a1 f641 2f5f df41
00000040: 3a3a 8440 bcc3 a340 a52f 9e40 21e2 f63f
00000050: 66f7 ba40 f390 2b40 96ad ac40 b54c 843f
00000060: add5 1a40 ec6c 0540 52a0 9e40 d240 a040
00000070: c71f 1640 1f6b 9b3f 5e9b 0c3f ab72 9f40
34.316467 25.619883 22.923174 50.80941 26.269194 26.97268 24.690554 17.931559
23.538124 34.584446 31.792992 25.758904 18.438206 19.519085 30.828651 27.921476
4.1321077 5.1176434 4.943316 1.9287759 5.8427 2.680722 5.3961897 1.0335909
2.4192917 2.084773 4.9570704 5.0079126 2.3456895 1.2142066 0.5492457 4.9827476

denoiser_head/resnet_backbone/level_0/batch_normalization_14/FusedBatchNormV31 f4 [32]
00000000: 3fc2 ffbb 3211 03bc 1be3 0bbb f555 4ebc
00000010: ea56 b4bb 9c97 e0bb e31e a0bb bb7f a1bb
00000020: 4817 6fbb 5ee5 a0bb 74d4 b8bb cbb2 e1bb
00000030: 7b95 41bb b232 dbbb 47a5 09bc c1f3 10bc
00000040: c715 c4be c534 8fba f844 90ba 430f dbbf
00000050: 4139 dfba 57ca d7be 3c8a 11bf 5ccc cebe
00000060: 8923 80be 8907 22bf 062d a5ba d053 9aba
00000070: 77f5 92be 2e43 2abf 65e4 b6bf 13bc a8ba
-0.0078051384 -0.007999705 -0.0021345082 -0.012593736 -0.005503525 -0.0068540107 -0.0048864945 -0.0049285567
-0.0036482383 -0.004910155 -0.0056405608 -0.006887769 -0.002953856 -0.006689393 -0.008401222 -0.008847178
-0.38297865 -0.0010925761 -0.0011006882 -1.7114033 -0.0017030613 -0.4214656 -0.56851554 -0.4039029
-0.2502711 -0.6329275 -0.0012601919 -0.0011774246 -0.287029 -0.6650876 -1.428845 -0.0012873433

denoiser_head/resnet_backbone/level_0/batch_normalization_13/FusedBatchNormV3 f4 [64]
00000000: b7a9 c840 2f20 a641 dd58 e441 ee89 3541
00000010: e2de 8641 b4ce dc41 07fc b041 0d52 0142
00000020: 4b55 a841 76d9 9941 1f2c d441 887d d841
00000030: 1eb0 c041 d3b1 f240 7559 d641 5c93 a141
00000040: d3ed db41 9547 c541 7f4f d941 2c7c ca41
00000050: 3fa5 ea41 5f12 dd41 3556 ca41 a82a c141
00000060: db57 a841 1883 d741 dac4 d341 a381 ca41
00000070: 33dd 4342 136a e041 5552 c341 914a d540
00000080: a0c8 ae41 4bca a741 2507 b941 0e73 f941
00000090: 14bc cb41 4fd8 ac41 302f d441 e805 dc41
000000a0: e73d bb41 af35 0242 eee8 d041 c45c ad41
000000b0: f4da d041 1843 e941 fda5 1342 1ae6 e441
000000c0: 7246 c841 0973 f241 e339 9541 abcd dd41
000000d0: b812 1240 564e a941 cce1 fc41 7189 0f42
000000e0: 3df1 b141 4fa5 6740 7440 cb41 9a52 b241
000000f0: 4a58 ca41 3827 b441 e67d bd41 20ac 5140
6.270717 20.765715 28.54339 11.346174 16.85883 27.60093 22.12306 32.330128
21.041647 19.231182 26.521544 27.061295 24.085995 7.584207 26.79368 20.196953
27.491125 24.659952 27.163816 25.31063 29.330687 27.63397 25.292093 24.145828
21.042898 26.93901 26.471119 25.3133 48.966015 28.051794 24.415201 6.6653523
21.847961 20.973776 23.128489 31.18118 25.466835 21.60562 26.52304 27.502884
23.405226 32.552425 26.113735 21.670296 26.10691 29.15776 36.912098 28.612354
25.034397 30.30617 18.653265 27.725424 2.2823925 21.16325 31.610252 35.88422
22.242792 3.6194646 25.406471 22.290333 25.29311 22.51915 23.686474 3.2761307

denoiser_head/resnet_backbone/level_0/batch_normalization_13/FusedBatchNormV31 f4 [64]
00000000: 8e53 0cc0 4e43 32b9 54c0 76b9 a2f0 f9bf
00000010: 37ec 0ab9 07d0 83b9 35c4 60b9 a1a5 b6b9
00000020: 1a6d 32b9 63d7 2bb9 2646 69b9 c963 68b9
00000030: 391c 63b9 b209 edbf cb69 82b9 678d 4eb9
00000040: 30b1 6bb9 e518 4cb9 13df 5db9 511a 69b9
00000050: 117d 6cb9 e43b 82b9 c025 5db9 7c88 5db9
00000060: c097 34b9 7ddb 71b9 89c8 60b9 6fe3 84b9
00000070: ce77 05ba df1b 63b9 16a8 53b9 eea9 cabf
00000080: e83d 50b9 be6e 3cb9 0186 52b9 3184 97b9
00000090: 1d89 80b9 c49d 42b9 5f1d 6db9 0483 94b9
000000a0: c801 4fb9 abf7 a6b9 e15a 7ab9 65c0 3db9
000000b0: fcc8 7db9 725a 96b9 506b c5bf f697 91b9
000000c0: 0bf4 76b9 4d74 c7b9 dfa8 27b9 9794 a5b9
000000d0: caae 12c0 523a 4cb9 2556 b1b9 f341 04ba
000000e0: 0204 73b9 577f e7bf ebe1 86b9 731d 64b9
000000f0: 8f22 87b9 2a66 7db9 fa7f 74b9 c212 12c0
-2.1925998 -0.00017000476 -0.00023532036 -1.952656 -0.00013248702 -0.0002514126 -0.00021435398 -0.00034837148
-0.00017016046 -0.00016388069 -0.00022246744 -0.00022162417 -0.00021658921 -1.8518584 -0.00024874354 -0.00019698367
-0.00022477354 -0.0001946423 -0.00021159304 -0.00022230415 -0.00022553305 -0.00024840154 -0.00021090265 -0.00021127047
-0.00017222669 -0.00023065317 -0.0002143701 -0.00025346453 -0.00050913997 -0.0002165879 -0.00020185145 -1.5833108
-0.00019859488 -0.00017970332 -0.00020077081 -0.00028899455 -0.0002451622 -0.00018560054 -0.00022613023 -0.00028326374
-0.00019741722 -0.00031846514 -0.00023875713 -0.00018096117 -0.00024202833 -0.00028677617 -1.5423374 -0.00027769775
-0.00023551301 -0.0003804289 -0.0001598927 -0.0003158196 -2.2919183 -0.00019476682 -0.00033824253 -0.00050452276
-0.00023175779 -1.8085736 -0.00025726794 -0.00021754745 -0.00025774955 -0.0002416602 -0.00023317328 -2.282395

denoiser_head/resnet_backbone/level_0/batch_normalization_12/FusedBatchNormV3 f4 [32]
00000000: 1578 553f 7c29 1441 97b9 0f41 d13d 0f41
00000010: 0295 1041 f18b 1241 35d9 1041 4746 4e3f
00000020: 9052 6e3f 6159 1541 7095 533f fc45 1d41
00000030: 3b53 1741 67f6 513f e2f9 2b3f 4b31 1c41
00000040: 7e46 1441 ded3 1541 4d1e 1341 e33f 843f
00000050: 8619 0540 9bb8 1341 1280 1441 d5f3 1341
00000060: aa01 1041 a73b 0a40 2f46 1041 444c 1341
00000070: 4d09 f13e 4d12 ac3f 0f39 1541 18ce 1b41
0.83386356 9.260128 8.98281 8.952592 9.036379 9.159165 9.053029 0.80575985
0.9309473 9.334321 0.826499 9.829586 9.45782 0.82016605 0.67178166 9.762034
9.26721 9.364225 9.194898 1.0331997 2.0796828 9.23257 9.281267 9.247029
9.000406 2.159891 9.017135 9.20612 0.47077408 1.3443085 9.32643 9.737816

denoiser_head/resnet_backbone/level_0/batch_normalization_12/FusedBatchNormV31 f4 [32]
00000000: 93c5 71bf 03db 4dbb 4984 16bb 35bb 21bb
00000010: 1806 42bb 18f8 ccbb 0438 33bb d75f c6be
00000020: bbbc fcbf 52b3 3abb 9768 c0bf bd80 20bb
00000030: 962e 86bb 50da 0ebf 0aa1 f3bf 8436 84bb
00000040: da75 25bb c367 1cbb bb57 0cbb 0bb4 56c0
00000050: 6f3c f2be a81c 14bb 8d62 11bb d938 15bb
00000060: 9096 03bb c65f 83bf 933f 0cbb c96f 13bb
00000070: d40b b5bf b53c 8abf d206 29bb 9cea 1abb
-0.944421 -0.0031411059 -0.0022967032 -0.0024678234 -0.0029605683 -0.006255161 -0.002734662 -0.38744995
-1.9745096 -0.002848823 -1.5031918 -0.0024490796 -0.004094909 -0.5580187 -1.903352 -0.004034819
-0.0025247247 -0.0023865558 -0.0021414596 -3.354739 -0.47311732 -0.0022600088 -0.0022183985 -0.002276948
-0.0020078756 -1.0263603 -0.0021400198 -0.002249705 -1.4144235 -1.0799776 -0.0025791419 -0.0023638373

denoiser_head/tf.compat.v1.nn.conv2d_2/Conv2D f4 [1, 1, 1, 32]
00000000: 0000 00bf df7b efbe bef7 debe 9d73 cebe
00000010: 7cef bdbe 5b6b adbe 3ae7 9cbe 1963 8cbe
00000020: f0bd 77be aeb5 56be 6cad 35be 2aa5 14be
00000030: d039 e7bd 4c29 a5bd 9031 46bd 1021 84bc
00000040: 0021 843c 8031 463d 4829 a53d d039 e73d
00000050: 28a5 143e 68ad 353e acb5 563e f0bd 773e
00000060: 1863 8c3e 38e7 9c3e 5a6b ad3e 7cef bd3e
00000070: 9c73 ce3e bcf7 de3e de7b ef3e 0000 003f
-0.5 -0.46774194 -0.43548387 -0.4032258 -0.37096775 -0.33870968 -0.30645162 -0.27419356
-0.24193549 -0.20967743 -0.17741936 -0.1451613 -0.11290324 -0.080645174 -0.04838711 -0.016129047
0.016129017 0.04838705 0.080645144 0.11290324 0.14516127 0.1774193 0.2096774 0.24193549
0.27419353 0.30645156 0.33870965 0.37096775 0.40322578 0.4354838 0.4677419 0.5

Conv2D f4 [32, 1, 1, 16]
00000000: 46a2 e536 9e87 d3b6 e476 d236 bce3 92b9
00000010: f411 eeb6 3fb0 bab8 0e2e 99b6 0051 823c
00000020: 34dd a639 dad0 bbb6 5c53 dbb6 10ae b236
00000030: eab8 a1bb 2251 bab6 566c c836 9224 9db6
00000040: 68d6 c536 0cdd c536 cad1 c536 901c db36
00000050: f0cf c5b6 1438 c436 8ad1 c536 ce9f b8b6
00000060: ba4e d3b6 20dd c536 f8dc c536 a4e1 c536
00000070: ccf4 bab6 6ada c536 dcce c5b6 80de c5b6
00000080: 9a73 1cb7 da0d df36 f06a f7b6 77c2 723e
00000090: caeb 87b6 d416 a6b8 a85f bc36 1677 9e3e
000000a0: 5184 99bf bf7e 1a37 e61d cfb6 00f7 0737
000000b0: d0bb c3b6 e22c 0e37 3012 f5b6 22f3 8c36
000000c0: 7819 d236 5aa6 b336 e2f4 b336 8066 bbb5
000000d0: 8686 cbb6 0c31 f439 863a eeb6 110e 853e
000000e0: 803b 063e 407a dbb6 68a2 beb6 5ea9 a436
000000f0: 6a6d 2abe 9278 c2b6 7a86 90b6 3499 b1b6
00000100: 18e2 e3b6 b060 fe36 1859 d536 6040 cb39
00000110: 2a07 e2b6 efbd 1738 2cc4 9336 d956 6139
00000120: ba0f 85b9 7a22 e3b6 a265 ffb6 6c81 a836
00000130: 9d9e c5b9 c680 b036 4c62 bc36 a809 e336
00000140: beab ef36 02b4 e3b6 3675 dc36 5d63 593e
00000150: 42a6 d936 9c07 2138 a264 bb36 cef6 0a39
00000160: 94a0 3d3b f2f6 ba36 6059 bb36 545d c2b6
00000170: be91 573a b8d6 e736 b84a c736 a205 d836
00000180: 1ecc c5b6 1ad8 c536 dcd3 c536 ccfb c436
00000190: f2d4 c536 30c2 c8b6 0adb c5b6 d097 d336
000001a0: 0810 e0b6 20d7 c536 dad4 c5b6 f0de c536
000001b0: 6cb5 b4b6 acd0 c5b6 f0cc c5b6 72d9 c536
000001c0: d4d6 8936 4c01 f336 20ae aa36 6fe9 0e3e
000001d0: 384f af36 0f86 53b9 1c8f 7eb6 feb1 7239
000001e0: b323 46be 7ed7 8d36 d690 e936 ee8f d7b6
000001f0: f6a7 9239 3404 e336 b8bf af36 c874 aeb6
00000200: 34a3 dbb6 d6eb d336 a07d b636 d842 cfb6
00000210: 4681 ceb6 c8d0 d3b6 7819 c936 ccbb c4b6
00000220: 0cf5 c936 dac9 d5b6 d2c0 c536 3026 e036
00000230: d86f 8c38 30f6 e2b6 0487 b9b6 86c2 bdb6
00000240: 24ed c836 88d8 c536 e4f2 6eb7 9258 c636
00000250: aaf4 c4b6 7ca5 c636 5624 c9b6 40fb c6b6
00000260: 5066 c5b6 7671 c6b6 baac c6b6 4c86 ca36
00000270: dc61 5237 24b8 c536 aa23 c9b6 98a4 c8b6
00000280: 2878 fc36 6cf4 f6b6 f747 c63e 5847 e536
00000290: ad3f 0f37 d627 08b7 8865 af36 0d8e 12b7
000002a0: 0ad3 e9b6 26fe acb6 2e0f e5b6 3754 0db7
000002b0: 8eac 36bf 0038 15b7 1c1a 14b7 db60 1137
000002c0: 00f6 beb6 7a19 e036 be8f 80b9 86ca c4b6
000002d0: 825d be36 00ec c236 a629 cbb6 b60a bcb6
000002e0: b82c d036 227f c0b6 eeed c836 28f0 c136
000002f0: 307b 8939 3698 b3b6 5ab2 e036 5e8d c6b6
00000300: 9e3d cf36 8681 b736 0905 05bc dca7 dd36
00000310: ba67 c0b6 1262 b4b6 5c82 bbb6 dc6a dbb6
00000320: 54e6 d736 fc77 c536 226f d236 9c61 fb36
00000330: ca7b 4fbc 6899 d436 7ece c936 ba24 cfb6
00000340: 40f6 ee36 3602 b0b6 7db1 033c c019 e936
00000350: 77d9 1ab7 60a6 e036 aca4 d136 9401 1837
00000360: 59b7 06b7 0cf7 0fb7 bebf adb6 de99 0637
00000370: beea 723e a345 1737 3be2 17b7 66d7 0a37
00000380: 96d3 c5b6 0cd8 c536 6a23 d5b6 8adc c5b6
00000390: 44da c536 30d8 c536 14db c5b6 06d0 c536
000003a0: 64cc c5b6 98d7 c5b6 88d3 c5b6 20df c536
000003b0: 0e10 c436 0cd5 c5b6 78d6 c536 b4d0 c5b6
000003c0: 18de c536 76dc c536 9238 ceb6 6ed2 c5b6
000003d0: 66d9 c536 fcd3 c536 40c9 c536 b2db c5b6
000003e0: 84e2 c536 04d4 c5b6 0ccc c536 50d5 c536
000003f0: 6207 d536 ecd4 c536 ccd1 c536 a2d0 c5b6
6.843623e-06 -6.304078e-06 6.2723284e-06 -0.00028016965 -7.0950427e-06 -8.9019995e-05 -4.565117e-06 0.015907764
0.00031826796 -5.597348e-06 -6.536413e-06 5.325077e-06 -0.0049353736 -5.552677e-06 5.9730764e-06 -4.683222e-06
5.8960177e-06 5.8967908e-06 5.89548e-06 6.5300337e-06 -5.8952646e-06 5.8477835e-06 5.895451e-06 -5.502231e-06
-6.297455e-06 5.8968e-06 5.8967817e-06 5.8973255e-06 -5.57173e-06 5.8964843e-06 -5.895139e-06 -5.89696e-06
-9.32524e-06 6.6475304e-06 -7.373623e-06 0.23706995 -4.050763e-06 -7.919749e-05 5.6139725e-06 0.3095023
-1.1993505 9.208626e-06 -6.1725614e-06 8.104136e-06 -5.833317e-06 8.47431e-06 -7.3036863e-06 4.2006295e-06
6.2614527e-06 5.3539816e-06 5.363124e-06 -1.3962417e-06 -6.065532e-06 0.0004657585 -7.0997658e-06 0.25987294
0.13108635 -6.5409404e-06 -5.681348e-06 4.907298e-06 -0.166433 -5.795687e-06 -4.3071896e-06 -5.2928463e-06
-6.791448e-06 7.581046e-06 6.3582665e-06 0.0003876714 -6.736159e-06 3.6178095e-05 4.403779e-06 0.00021490025
-0.00025379454 -6.769141e-06 -7.611424e-06 5.021857e-06 -0.00037692944 5.2602e-06 5.61428e-06 6.7662513e-06
7.1427485e-06 -6.786083e-06 6.570156e-06 0.2122931 6.486459e-06 3.8392478e-05 5.5847495e-06 0.00013252647
0.0028934823 5.57198e-06 5.583439e-06 -5.7925154e-06 0.00082233164 6.909333e-06 5.9393606e-06 6.4379574e-06
-5.89482e-06 5.896215e-06 5.895721e-06 5.870568e-06 5.8958476e-06 -5.983071e-06 -5.896557e-06 6.3059633e-06
-6.6775865e-06 5.8961014e-06 -5.8958367e-06 5.897011e-06 -5.3855383e-06 -5.89535e-06 -5.8949154e-06 5.8963715e-06
4.1079275e-06 7.2421153e-06 5.0866656e-06 0.13956235 5.2246287e-06 -0.00020172469 -3.793225e-06 0.00023145226
-0.19349556 4.227214e-06 6.9608022e-06 -6.424255e-06 0.0002797243 6.7656165e-06 5.2377254e-06 -5.199199e-06
-6.545708e-06 6.315745e-06 5.4386473e-06 -6.1768624e-06 -6.154328e-06 -6.3125954e-06 5.9932318e-06 -5.8631176e-06
6.018794e-06 -6.3713933e-06 5.8935047e-06 6.680166e-06 6.696553e-05 -6.763985e-06 -5.5291475e-06 -5.6552844e-06
5.9880713e-06 5.896265e-06 -1.4242458e-05 5.911171e-06 -5.869738e-06 5.9201247e-06 -5.994497e-06 -5.930109e-06
-5.8829683e-06 -5.9140684e-06 -5.920968e-06 6.0357033e-06 1.253976e-05 5.8924943e-06 -5.9944186e-06 -5.9796257e-06
7.5241733e-06 -7.3598258e-06 0.3872678 6.8330373e-06 8.53829e-06 -8.115507e-06 5.227226e-06 -8.735352e-06
-6.9685093e-06 -5.155586e-06 -6.826499e-06 -8.423863e-06 -0.7135705 -8.894131e-06 -8.8275665e-06 8.665224e-06
-5.6910794e-06 6.678686e-06 -0.0002452116 -5.864832e-06 5.673327e-06 5.8091246e-06 -6.05472e-06 -5.6040835e-06
6.204089e-06 -5.736846e-06 5.988163e-06 5.779806e-06 0.00026222458 -5.3523354e-06 6.696483e-06 -5.917317e-06
6.176254e-06 5.4689035e-06 -0.008118876 6.6058547e-06 -5.7341213e-06 -5.375835e-06 -5.58821e-06 -6.5391487e-06
6.434313e-06 5.8850255e-06 6.2714253e-06 7.491746e-06 -0.012663791 6.335951e-06 6.0143057e-06 -6.1733563e-06
7.12162e-06 -5.245466e-06 0.008037922 6.946939e-06 -9.229748e-06 6.695089e-06 6.2478557e-06 9.060273e-06
-8.029711e-06 -8.580984e-06 -5.1781235e-06 8.022847e-06 0.2372236 9.016515e-06 -9.052975e-06 8.275592e-06
-5.8956894e-06 5.8962087e-06 -6.3520174e-06 -5.8967316e-06 5.896467e-06 5.896225e-06 -5.8965616e-06 5.8952746e-06
-5.8948517e-06 -5.896156e-06 -5.895683e-06 5.8970327e-06 5.843124e-06 -5.8958594e-06 5.896025e-06 -5.8953538e-06
5.8969126e-06 5.8967225e-06 -6.145864e-06 -5.8955548e-06 5.896366e-06 5.8957357e-06 5.894486e-06 -5.8966334e-06
5.8974274e-06 -5.8957394e-06 5.8948117e-06 5.8958904e-06 6.348754e-06 5.895845e-06 5.895481e-06 -5.8953456e-06
