bfcnn/pretrained/resnet_color_1x6_bn_32x32_1x3x1_128x128_erf_relu/denoiser_model.tflite (tflite, 178608 bytes, 72 tensors)

resnet_backbone/level_0/batch_normalization_9/FusedBatchNormV3 f4 [64]
000000 48 20 43 41 82 4d df 40 10 25 8a 40 69 45 cc 40
       12.195381 6.9782114 4.317024 6.383473
000010 e7 64 b8 3f bc e4 aa 3f 1b 02 90 40 12 52 eb 3d
       1.4405793 1.3351054 4.500257 0.11490263
000020 e0 28 db 40 01 61 09 41 39 a2 a8 40 c7 19 3c 40
       6.8487396 8.586183 5.2698026 2.9390733
000030 a7 8f d9 40 45 7e db 40 ad 19 d4 40 bb 7e 65 40
       6.7987857 6.8591638 6.6281343 3.58586
000040 f2 6c 67 40 57 ac 8d 40 5f 58 d4 40 c4 e0 6e 40
       3.6160245 4.4272876 6.6357875 3.7324686
000050 01 85 88 40 68 f9 9f 40 e5 96 a1 40 9a 8f 30 41
       4.266236 4.999195 5.0496697 11.035059
000060 a3 d0 af 40 d2 5b 16 41 57 bb 02 be 26 9c 94 40
       5.4942183 9.397417 -0.12766777 4.644061
000070 44 c6 df 40 9a ec 3a 40 d3 f8 42 41 20 9b b2 40
       6.9929523 2.920691 12.185748 5.581436
000080 12 52 79 3f b9 ee c5 bd 58 01 d3 bc de 63 55 3c
       0.97390854 -0.09664673 -0.025757477 0.0130242985
000090 6f b7 b0 bc 14 bb 9e 3f af d8 9a 3f d3 40 00 bd
       -0.021571843 1.2400842 1.2097377 -0.03131182
0000a0 2a 80 ca 3e 19 9a 35 3d 1e 4c f2 3c 78 e5 a9 bd
       0.39550906 0.044336412 0.029577311 -0.08295721
0000b0 94 ab 8d 3f 39 75 30 40 c7 bb d3 3c f6 32 c7 bc
       1.1067986 2.7571547 0.025846375 -0.024316292
0000c0 6a 01 3e 40 39 c8 04 40 7b 54 8d 40 57 cc 32 40
       2.9688363 2.0747206 4.4165626 2.793722
0000d0 19 13 23 be b2 10 ef 3f 0d c6 0a 3f 95 e8 a1 3f
       -0.15925254 1.867697 0.5420845 1.2649103
0000e0 02 b2 c0 3f 68 7f 7d 40 4e 54 0b be 3b 0f 88 40
       1.5054324 3.9609013 -0.13606378 4.251859
0000f0 21 4c 85 3e 13 f9 f9 3f 5b a6 8b 40 a6 19 8b 40
       0.26034644 1.9529136 4.364057 4.346881

resnet_backbone/level_0/batch_normalization_9/FusedBatchNormV31 f4 [64]
000000 78 1d 63 bf 5c e6 35 bf 02 41 4f bf 53 4d 06 bf
       -0.8871684 -0.71054626 -0.8095857 -0.5246174
000010 58 13 19 bf 25 3a 08 bf 7f 5d 16 bf de 7a b8 b7
       -0.5979514 -0.5321372 -0.58736414 -2.1991724e-05
000020 c5 ce 1a bf 43 51 1d bf 4d 7e 14 bf a5 25 16 bf
       -0.60471755 -0.6145212 -0.5800522 -0.5865119
000030 4d fc 4c bf 29 5c 23 bf 71 9a 92 bf ac bd 22 bf
       -0.8007248 -0.638125 -1.1453382 -0.63570666
000040 5f 75 45 bf bc 08 8d bf 05 2b 7b bf 0a 4a 20 bf
       -0.7713222 -1.101829 -0.9811252 -0.62612975
000050 3c 05 5c bf c7 30 1b bf f2 ac 2c bf 25 57 94 bf
       -0.8594549 -0.60621303 -0.67451394 -1.1589094
000060 3a 90 95 bf 76 b1 5a bf 5d 4c d8 37 93 af 88 bf
       -1.168464 -0.85427034 2.5784766e-05 -1.0678581
000070 a6 96 61 bf 13 88 55 bf 81 46 9f bf 8e 16 42 bf
       -0.88120496 -0.8341076 -1.2443391 -0.75815666
000080 87 63 cf be bd 12 e5 37 a5 e3 d2 36 6d b5 3c b6
       -0.4050562 2.7307653e-05 6.284989e-06 -2.8119787e-06
000090 07 36 b9 36 47 20 bf be 64 ed 3a bf 9d b6 f9 36
       5.5197193e-06 -0.37329313 -0.7301848 7.4420373e-06
0000a0 80 d9 52 bf 36 80 7b b7 0b 78 f6 b6 f5 53 e6 37
       -0.8236313 -1.4990617e-05 -7.345346e-06 2.7457232e-05
0000b0 1e 7e c4 be 11 af 74 be 46 90 b2 b6 43 01 d5 36
       -0.3837747 -0.23894908 -5.321609e-06 6.3480416e-06
0000c0 23 f2 0a bf 4e 11 2a be 20 84 dc bf bb 77 16 bf
       -0.5427572 -0.16608164 -1.7227821 -0.58776444
0000d0 f9 99 2e 38 4e 8b 12 bf 98 0d 44 b9 60 f5 14 bf
       4.162823e-05 -0.5724381 -0.0001869708 -0.5818691
0000e0 ec e5 92 bf 8c 5e dc be 1e 05 fb 37 b8 d8 ef be
       -1.1476417 -0.43040884 2.9923915e-05 -0.4684503
0000f0 b2 01 9a b8 24 dd 38 bf a2 7d b4 bf dd c5 cc bf
       -7.343608e-05 -0.72212434 -1.410084 -1.5997883

resnet_backbone/level_0/batch_normalization_8/FusedBatchNormV3 f4 [32]
000000 6e 44 28 40 74 0e e5 40 d6 b7 3d 40 f7 20 b8 40
       2.6291766 7.1580143 2.9643455 5.754024
000010 0e 59 e7 40 af 29 d5 40 77 ee f6 40 eb 6e ff 40
       7.229621 6.6613383 7.7166095 7.98229
000020 a3 9f cf 40 f1 2a 89 40 84 2a d0 40 e7 ea 61 41
       6.488237 4.286492 6.50519 14.119849
000030 a3 7d ac 40 55 85 02 41 fb c0 11 41 8e 1a c8 40
       5.3903365 8.157552 9.109614 6.2532415
000040 32 c2 96 3f 04 37 b2 41 45 31 09 41 17 b9 07 41
       1.1778014 22.276863 8.574529 8.482688
000050 8f 98 c4 3e cd 6b fc 40 39 dc 15 41 d5 1e 11 41
       0.38397643 7.8881593 9.366265 9.070027
000060 71 7b 35 40 4f 4e 9e 40 c0 66 1b 42 b4 b3 a3 40
       2.8356593 4.947059 38.85034 5.1156864
000070 14 8d 91 40 68 a3 78 40 85 88 21 3f 05 de 65 40
       4.5484715 3.8849735 0.6309894 3.591676

resnet_backbone/level_0/batch_normalization_8/FusedBatchNormV31 f4 [32]
000000 1e 30 9f be 34 46 ff be 2c 84 ad be ea 96 6c be
       -0.31091398 -0.49858248 -0.33889902 -0.23104444
000010 3d f2 0a bf 22 91 90 be b3 94 d3 be bd a1 cb be
       -0.54275876 -0.28235728 -0.41324386 -0.39771834
000020 ca c3 e6 be 7b 49 b6 be a2 93 12 bf 23 d7 f7 bd
       -0.4507125 -0.35602936 -0.5725652 -0.12101581
000030 cb 03 5c be 48 b7 c8 be b2 c6 d8 be 58 9e ac be
       -0.21485822 -0.39202332 -0.42339092 -0.33714557
000040 73 52 94 bf 24 e4 f4 bd 45 2c 58 bf 7a 08 d5 be
       -1.1587662 -0.11957577 -0.8444255 -0.4160803
000050 b3 da 7b b8 a3 54 50 bf 4e 3f ed be 85 a0 b4 be
       -6.0046743e-05 -0.81379145 -0.4633736 -0.35278717
000060 07 2b 3c bf c3 01 c8 be 5e 86 28 be 49 54 25 bf
       -0.73503155 -0.39063844 -0.16457507 -0.64581734
000070 19 94 5d bf f0 aa 9f be 8e 1d d5 bf 83 34 c2 be
       -0.86554104 -0.31185102 -1.6649644 -0.37930688

resnet_backbone/level_0/batch_normalization_7/FusedBatchNormV3 f4 [64]
000000 39 5d 02 41 78 92 86 40 73 65 be 40 4e ba 90 3f
       8.147759 4.2053795 5.949884 1.1306856
000010 3a 5f 87 3f 76 24 07 41 34 43 44 40 6d 5a 09 41
       1.0575936 8.446402 3.0666018 8.584577
000020 7d c3 63 40 54 db b9 40 13 10 a3 40 fc 38 5f 40
       3.5588067 5.8080235 5.095712 3.487853
000030 05 81 63 40 2c e1 db 40 05 bc b1 40 3e 92 f1 40
       3.5547497 6.871237 5.5542016 7.549102
000040 1a 01 15 41 99 a1 b0 3f c1 28 cb 40 11 a6 b4 40
       9.312769 1.3799316 6.348725 5.645272
000050 52 78 aa 3f 3b 3d 11 41 6c a7 09 41 14 5b 3c 41
       1.3317969 9.077449 8.6033745 11.772236
000060 2c 2a 10 41 ad 4e ab 40 ba 65 71 40 11 4e 7b 40
       9.010296 5.353354 3.771834 3.9266398
000070 9c 92 17 41 3c 54 d3 40 5a 01 01 41 44 cd a5 40
       9.473293 6.6040325 8.06283 5.181307
000080 2c 6a 9d 3f 87 59 02 be 9f 05 3e 3d 8f b9 c1 3e
       1.2298026 -0.12729464 0.04639208 0.37836882
000090 cb fb 9c bc 47 ff 1b 3a 9a b5 69 3d af 73 7c 3d
       -0.019163033 0.000595082 0.057057954 0.061633762
0000a0 af 9e f0 bc df d0 c9 3f 15 5d a7 3f 57 85 c9 3c
       -0.029372541 1.5766867 1.3075281 0.024599714
0000b0 18 f5 77 3f fc e2 86 3d 1e d1 37 3f 34 76 45 3f
       0.9685836 0.065862626 0.7180346 0.7713349
0000c0 00 94 b8 40 6a f5 21 be b1 81 34 be a3 df e7 3f
       5.7680664 -0.15816274 -0.17627598 1.8115124
0000d0 58 98 8b be 90 42 eb be ac c9 1b 40 57 8a 1d 40
       -0.27264667 -0.4594922 2.434184 2.4615686
0000e0 9b 5b 08 3e c7 1a ea bc 15 a9 3c be 57 87 8b 40
       0.13316195 -0.028577222 -0.18423875 4.360271
0000f0 d2 ee da 3f b8 49 9d 3f d6 ae 09 bf 5d e4 22 bf
       1.7104132 1.2288122 -0.53782403 -0.63629705

resnet_backbone/level_0/batch_normalization_7/FusedBatchNormV31 f4 [64]
000000 3f 51 2d bf 78 f6 08 bf cd fe 09 bf 4c 88 15 bf
       -0.67702097 -0.5350108 -0.5390442 -0.584111
000010 36 9a 0b bf 1e 28 13 bf ab 15 9f be d7 b3 ff be
       -0.5453218 -0.5748309 -0.3107122 -0.49941894
000020 56 b2 9c be 78 74 ba be 77 34 22 bf b7 f0 ea be
       -0.3060481 -0.36416984 -0.63361305 -0.45886776
000030 ea fa 98 be de 6b ef be 9c f2 24 bf 85 b5 ff be
       -0.29878932 -0.46761984 -0.6443269 -0.49943176
000040 51 75 3e bf 33 10 22 bf 96 1b 3c bf fb 23 45 bf
       -0.7439776 -0.6330597 -0.7347959 -0.77008027
000050 46 09 1c bf f2 cb 73 bf 37 f4 82 bf 7f 1c 8a bf
       -0.6095165 -0.9523307 -1.0230778 -1.0789946
000060 23 15 22 bf c3 98 95 bf f1 77 52 bf e4 52 1b bf
       -0.633135 -1.1687244 -0.82214266 -0.60673356
000070 13 1a 14 bf c4 97 53 bf ab 30 5d bf e6 6d 40 bf
       -0.57852286 -0.8265345 -0.86402386 -0.7516769
000080 c3 4e 21 bf c8 de 16 38 01 c2 1a b7 e6 35 44 bf
       -0.63010806 3.5970268e-05 -9.224285e-06 -0.7664474
000090 dc f7 7a 36 f1 95 f8 b3 0d 6c 4c b7 42 fb 42 b7
       3.7397176e-06 -1.1575674e-07 -1.2184505e-05 -1.1621802e-05
0000a0 6b 85 b4 36 92 46 59 be fd 51 38 be 40 c2 ad b6
       5.37995e-06 -0.21218327 -0.18000026 -5.1784154e-06
0000b0 64 38 f9 be cd 6e 9d b7 a2 73 04 be d2 8f 8c be
       -0.48675835 -1.8767454e-05 -0.12934735 -0.27453476
0000c0 cc 46 f4 be 47 91 08 38 0d b9 44 38 13 50 37 bf
       -0.47710264 3.2560227e-05 4.6902383e-05 -0.7160656
0000d0 93 cf 8d 38 f9 8a d9 38 6d cc aa be 3f 34 2b bf
       6.762068e-05 0.00010373252 -0.3335909 -0.66876596
0000e0 04 4d f2 b7 b4 b4 a9 36 ce 24 3c 38 11 bd e3 be
       -2.8884511e-05 5.057629e-06 4.485697e-05 -0.44480184
0000f0 d8 66 34 bf 69 09 66 bf 66 50 4b 39 61 f5 7c 39
       -0.7046943 -0.8985811 0.0001938954 0.00024124004

resnet_backbone/level_0/batch_normalization_6/FusedBatchNormV3 f4 [32]
000000 a8 d5 5d 40 74 75 22 41 3a 46 61 40 a5 4d f1 40
       3.4661655 10.153675 3.5199113 7.540728
000010 67 b1 03 40 f9 4f 07 41 c6 e0 34 3b ec dd f7 3f
       2.0577028 8.457025 0.0027599796 1.93646
000020 b6 a4 d8 40 ae 7a 8e 40 31 31 8d 40 fc b5 43 40
       6.7701063 4.4524755 4.412255 3.0579824
000030 64 ff e2 40 22 5a 8b 40 f7 f5 64 40 cd fd 0f 40
       7.0936756 4.3547525 3.5775125 2.2498658
000040 06 e4 ab 3e a6 b5 cd 40 3b e8 9d 40 b8 bc 9a 41
       0.33572406 6.428424 4.9345984 19.342148
000050 a8 a7 07 41 63 68 54 40 95 24 4c bf 3e 54 25 41
       8.478432 3.3188713 -0.7974332 10.333067
000060 dc 73 7c 40 f8 1b 36 3d d9 49 5f 40 26 a6 16 41
       3.9445715 0.044460267 3.4888823 9.415564
000070 b4 4c b7 41 af c9 fb 3e 3f 25 09 3d a8 44 73 40
       22.912453 0.4917731 0.033482786 3.8010654

resnet_backbone/level_0/batch_normalization_6/FusedBatchNormV31 f4 [32]
000000 a0 b0 4d be 8d 6a 4e be 61 1e a6 be e9 0b c5 be
       -0.20086908 -0.20157833 -0.32445052 -0.3848565
000010 1f ed 3e be fd 1b 8c be eb 67 de b4 05 b1 ad be
       -0.18645142 -0.27365103 -4.1426333e-07 -0.33924118
000020 23 87 76 be 34 7e b3 be 0a 4e a4 be 81 2d 54 be
       -0.24074988 -0.35057223 -0.3209079 -0.20720483
000030 4c 09 8c be d4 69 b7 be 9c 4d 7f be 09 5b 84 be
       -0.27350843 -0.35822928 -0.2493195 -0.25850704
000040 76 c8 41 b8 b3 41 85 be f0 02 35 bf 20 83 57 be
       -4.620148e-05 -0.26026687 -0.7070761 -0.21046114
000050 d2 2f e2 be 29 cc 56 bf 24 0f 23 39 12 25 92 be
       -0.4417711 -0.83905274 0.00015550532 -0.28543907
000060 e1 c2 90 be a3 41 d1 b6 82 21 3c bf 32 04 32 be
       -0.2827368 -6.2363265e-06 -0.7348863 -0.17384413
000070 d9 17 b9 be cc 4a bb b8 ea be c9 b6 7a c2 24 bf
       -0.36151007 -8.930787e-05 -6.012492e-06 -0.6435925

resnet_backbone/level_0/batch_normalization_5/FusedBatchNormV3 f4 [64]
000000 62 e8 5f 40 45 66 76 40 5c 08 13 40 b3 f8 48 40
       3.4985585 3.849992 2.2973852 3.1401794
000010 dd f7 85 3c 35 b0 c0 3f c9 16 22 40 f0 cc b1 3f
       0.016353542 1.5053774 2.5326407 1.3890667
000020 02 30 08 40 f8 d5 41 40 4a f4 05 40 aa 64 f5 3f
       2.1279302 3.0286846 2.0930352 1.9171345
000030 0b 80 33 40 0c 6e 44 40 fa 80 3b 40 64 7e 26 40
       2.8046901 3.0692167 2.929747 2.6014643
000040 15 ea f8 3f 57 c6 ab 3f 73 8a d8 3f 2a b9 d3 3f
       1.9446436 1.3419904 1.6917251 1.6540883
000050 d0 1b 36 40 01 36 4a 40 0d 8b aa 3f b6 ff bb 3f
       2.8454475 3.1595461 1.3323685 1.4687412
000060 49 55 2b 40 ef cd d7 3f 24 73 1a 40 d5 ea 99 3f
       2.6770804 1.6859721 2.4132776 1.202479
000070 ac ea 6a 40 cb 2b 17 3f f8 0b e8 3f 35 4f 1e 40
       3.6705732 0.590512 1.8128653 2.4735844
000080 05 e1 4d 3e 08 31 a4 3e dc 96 72 bb 1c e6 b5 bd
       0.2010537 0.32068658 -0.0037016189 -0.088817805
000090 cf 72 33 3f 37 9b 64 3d 2d c8 44 bd c7 d2 ab ba
       0.7009706 0.055812087 -0.048042465 -0.0013109081
0000a0 c1 88 24 3f 37 62 99 bd cc 6b 59 3d 04 88 95 3f
       0.6427117 -0.07489436 0.05308132 1.1682134
0000b0 99 af 4a bd 79 2e 15 3f 12 d1 a8 3f 10 9c d2 3e
       -0.04948387 0.58274037 1.3188803 0.4113469
0000c0 1f 37 55 40 30 ce 1e 40 73 e3 0e 40 40 c6 15 40
       3.3314893 2.4813347 2.2326324 2.3402252
0000d0 b3 32 ce 3f c5 bd c2 3f c7 ce e2 3f e1 fa 2d 40
       1.6109222 1.5214163 1.7719353 2.7184374
0000e0 ea b8 06 40 3b 4c af 3f 35 5a 21 40 d6 43 27 40
       2.1050363 1.3695139 2.5211308 2.6135154
0000f0 60 09 6a 40 50 7e 46 40 95 3d ba 3f cd 0c 2f 40
       3.6568222 3.1014595 1.4550043 2.7351563

resnet_backbone/level_0/batch_normalization_5/FusedBatchNormV31 f4 [64]
000000 95 60 fe be b4 c3 55 bf 33 d2 ed be 62 f1 f0 be
       -0.4968306 -0.83501744 -0.46449432 -0.4705916
000010 34 de b5 b6 e9 d7 09 bf d8 3a d2 be 5e c9 22 bf
       -5.420088e-06 -0.5384508 -0.4106052 -0.6358851
000020 c3 d1 04 bf e0 ea ea be d4 20 7c bf 96 80 04 bf
       -0.5188257 -0.4588232 -0.9848759 -0.51758707
000030 d9 a2 36 bf d4 b4 10 bf 50 4f eb be 3c 8e d8 be
       -0.71342236 -0.5652592 -0.45958948 -0.42296016
000040 7a 4f 5d bf ee 4d 2d bf 7a 8f 5f bf e4 ef 65 bf
       -0.86449397 -0.67697036 -0.873283 -0.8981917
000050 2b ca 22 bf eb 1a 2a bf 7d c6 64 bf 1a d6 cb bf
       -0.63589734 -0.66447324 -0.8936537 -1.5924714
000060 49 67 23 bf 5e 9f 81 bf b5 0b 32 bf 53 17 35 bf
       -0.63829476 -1.012676 -0.69549114 -0.70738715
000070 c6 12 44 bf fd b0 2c bf 84 47 17 bf 5a 89 0a bf
       -0.76591146 -0.6745756 -0.590935 -0.5411583
000080 9f bd 83 be 86 b3 64 bf 7d 00 9b 35 6a d5 33 38
       -0.25730607 -0.8933643 1.1548542e-06 4.2875683e-05
000090 4e 31 c5 be 64 f7 b8 b7 da 4b 92 37 88 f8 d6 34
       -0.3851418 -2.204971e-05 1.7439877e-05 4.0041436e-07
0000a0 f2 7e 4d bf d9 8c 90 38 a2 88 95 b7 66 bb 8e be
       -0.8027183 6.89269e-05 -1.7825809e-05 -0.2787735
0000b0 9e 09 ee 38 b9 23 96 be 04 cb bb be 1b e8 19 bf
       0.00011350516 -0.2932413 -0.36678326 -0.6011979
0000c0 fa 77 22 bf 27 3c 64 be 7e 27 cc be 65 2a 8d bf
       -0.6346432 -0.22288571 -0.3987388 -1.1028563
0000d0 d3 fb df be 0a 33 47 bf 84 69 05 bf 2c c2 0a bf
       -0.43746814 -0.77812254 -0.5211413 -0.5420253
0000e0 ea 8a fb be 79 81 83 bf fd 6a 81 be 40 7b 8d be
       -0.4912942 -1.0273887 -0.25276938 -0.27633095
0000f0 c4 fd 2f bf 93 6e 11 bf 0b 67 14 bf af ad 01 bf
       -0.6874659 -0.5680935 -0.5796973 -0.50655645

resnet_backbone/level_0/batch_normalization_4/FusedBatchNormV3 f4 [32]
000000 02 cb 07 41 16 1b fe 40 b6 7f 17 41 ee 09 1c 41
       8.487062 7.9408064 9.468679 9.752424
000010 cd af 54 be 21 58 21 41 a8 91 5c 40 36 57 28 40
       -0.20770188 10.084016 3.4463902 2.630323
000020 05 57 80 40 5e b5 87 41 1e 72 f5 40 c4 b0 ba 40
       4.0106225 16.963558 7.6701803 5.834078
000030 43 4b 23 40 1b 82 7e 41 8a 1a 8e 40 3c e1 07 41
       2.5514686 15.906764 4.4407396 8.492489
000040 48 0f 68 41 c4 22 e6 40 9d c3 13 41 91 8d 97 bf
       14.503731 7.191744 9.235257 -1.1840078
000050 25 e7 5c 41 32 65 b9 41 e3 b9 c1 41 20 a5 63 40
       13.806432 23.174412 24.215765 3.5569534
000060 d0 fe 41 42 93 30 f1 40 15 27 84 40 96 fe 04 42
       48.49884 7.5371795 4.1297708 33.24862
000070 12 12 ba 40 d0 1f ca 40 c9 bd 97 40 1e 92 08 3e
       5.814706 6.3163834 4.741917 0.1333699

resnet_backbone/level_0/batch_normalization_4/FusedBatchNormV31 f4 [32]
000000 d2 6d 16 bf 7e 2c 54 bf e4 8f 20 bf b8 5c 26 bf
       -0.5876132 -0.8288039 -0.6271956 -0.6498523
000010 fd 8d 0f 38 b8 3a af be be 0e 0a bf f2 5a cb be
       3.4226094e-05 -0.34224486 -0.53928745 -0.39717823
000020 45 69 7c be 77 1e af bf 31 61 62 bf 22 69 04 bf
       -0.24649532 -1.3681172 -0.8842955 -0.5172292
000030 80 6c 0e bf 05 7c 1d bf 89 89 a0 be cf d4 b7 be
       -0.5563431 -0.61517364 -0.3135493 -0.35904548
000040 34 46 74 bf 4b 55 84 bf 75 9b 0b bf 20 89 62 39
       -0.9541962 -1.0338529 -0.54534084 0.00021604123
000050 2d 55 2c bf 51 87 af be e1 82 ff bd a6 ff f2 be
       -0.6731747 -0.34282926 -0.12476135 -0.4746067
000060 9e d2 ef be 73 95 3d bf 7a 18 ba bf 11 26 ba bf
       -0.46840376 -0.74056166 -1.453872 -1.4542867
000070 fe f6 9e bf 64 5a 49 bf ae 96 51 bf 69 b2 9b b7
       -1.2419126 -0.7865355 -0.81870544 -1.8560519e-05

resnet_backbone/level_0/batch_normalization_3/FusedBatchNormV3 f4 [64]
000000 fe d8 3d 40 c9 be 1e 40 3d a0 ad 40 78 00 4e 40
       2.9663692 2.4803946 5.4258103 3.2187786
000010 b7 dd cc 3e 43 1f 41 40 65 7f 99 40 5b 14 43 40
       0.40012905 3.017533 4.796801 3.0481174
000020 e6 69 90 40 e9 fc 46 40 b0 c7 80 40 94 f8 77 3e
       4.512927 3.1091864 4.024376 0.24215919
000030 a7 be d0 40 41 b7 bb 40 77 99 76 40 1c 17 88 40
       6.523273 5.86612 3.8531168 4.252821
000040 36 ed bd 40 92 97 ad 40 52 f4 32 40 38 61 52 40
       5.9352064 5.424752 2.7961621 3.2871838
000050 43 c7 13 40 64 2e 8d 40 93 d2 26 40 9d 88 b1 40
       2.309037 4.411913 2.6066024 5.5479264
000060 83 de 89 40 d4 54 39 40 ae d4 7b 40 45 23 a5 40
       4.308412 2.8958025 3.934856 5.1605554
000070 9c a2 88 40 c4 a2 44 40 e7 c8 59 40 3a eb dc 3f
       4.26985 3.0724344 3.402887 1.7259285
000080 00 6c d3 3d 3a a4 e1 3e ce bf 98 3f b9 be 1d 3f
       0.10323334 0.44070607 1.1933534 0.61619145
000090 ba fa dd bc 90 8f de bd e5 6e dd 3e e2 74 ab 3f
       -0.027097095 -0.10867226 0.43248668 1.3395045
0000a0 43 16 2f 3f e9 79 75 3f ef 32 4a 3f e7 75 0d 3f
       0.68393344 0.95889145 0.7898397 0.5525803
0000b0 88 f0 34 3d 63 73 c1 3f c8 b1 43 3f f4 11 a0 3e
       0.0441747 1.5113338 0.7644315 0.31263697
0000c0 ff 90 33 40 57 c9 09 40 5f d2 e9 3e 68 9b df be
       2.8057249 2.1529138 0.45668313 -0.43673253
0000d0 9e 9c e5 3f 33 6d 93 be c9 75 f8 3e 32 17 0e 40
       1.7938421 -0.2879425 0.48527363 2.2201657
0000e0 4b e3 09 3d 0b 9a f8 3e 36 41 f9 3f d1 30 bd 3f
       0.03366403 0.48555025 1.9473026 1.4780523
0000f0 cc 9b 4b bd 9e f2 e4 3e 1c 23 d5 3f 24 6b 92 be
       -0.049709126 0.44716352 1.665134 -0.28597367

resnet_backbone/level_0/batch_normalization_3/FusedBatchNormV31 f4 [64]
000000 07 5a 44 bf af 7d db be 25 25 11 bf 5c fc 7d bf
       -0.7669987 -0.42869326 -0.56697303 -0.99213195
000010 f3 81 d3 b8 77 e2 0c bf 1b 52 c4 be d0 80 5d bf
       -0.00010085469 -0.5503306 -0.38343892 -0.8652468
000020 d9 8b 01 bf 8e 3e cf be 3d 54 ee be a7 cb 58 b8
       -0.50604016 -0.40477413 -0.46548644 -5.168808e-05
000030 79 f1 00 bf 19 8c d3 be e4 12 8d bf ac 92 83 be
       -0.5036846 -0.41317824 -1.102139 -0.2569784
000040 30 4f 2e bf 44 2e 05 bf cc e5 73 bf d0 6d a6 bf
       -0.6808958 -0.5202372 -0.9527252 -1.3002262
000050 35 a5 55 bf 52 b3 21 bf b3 27 72 bf 1b 00 5b bf
       -0.8345521 -0.63164246 -0.94591826 -0.85547036
000060 cd 80 24 bf 68 76 35 bf 39 a4 36 bf 07 be 00 bf
       -0.64259034 -0.708838 -0.71344334 -0.5028996
000070 b2 89 25 bf 3c 00 22 bf f2 54 07 bf f6 e5 2e bf
       -0.6466323 -0.6328161 -0.5286399 -0.6831964
000080 c3 76 0d b8 e3 93 b8 be 0f 83 ea be 51 66 69 be
       -3.3727625e-05 -0.3605033 -0.45803115 -0.22792937
000090 4a 1f 83 37 b8 ec 2c 38 5f 08 44 bf 2a 02 df be
       1.5630987e-05 4.1228457e-05 -0.76575273 -0.4355634
0000a0 bd c2 a9 be 9e 71 00 bf 6c 42 47 bf f6 2f d2 be
       -0.33156386 -0.50173366 -0.77835727 -0.41052216
0000b0 12 df 2f b7 62 dd 18 bf 38 02 78 bf d6 f7 53 bf
       -1.048275e-05 -0.59712803 -0.96878386 -0.8280004
0000c0 c9 58 1c bf e0 8b 4f bf 57 bb 0a b9 6e fc 31 39
       -0.61072975 -0.8107281 -0.00013230495 0.00016974073
0000d0 02 ec 83 bf 57 a0 cb 38 33 7e 10 b9 0f 43 31 bf
       -1.0306399 9.70966e-05 -0.00013779923 -0.6924295
0000e0 ba 91 ee b6 97 af f4 b9 30 e3 36 bf 12 3e 6a bf
       -7.1099175e-06 -0.0004667013 -0.7144041 -0.9150096
0000f0 5c 4b 60 37 bb cf 68 b9 ea 77 0c bf b1 34 a5 38
       1.3368986e-05 -0.0002220263 -0.54870474 7.877628e-05

resnet_backbone/level_0/batch_normalization_2/FusedBatchNormV3 f4 [32]
000000 3d f9 3a 40 4a 30 0b 41 e1 38 c5 3e 9f 38 0b 41
       2.9214623 8.699289 0.38519958 8.7013235
000010 3f 91 19 bf 59 54 0e 40 ab 5d 9d 41 54 f9 23 41
       -0.5998725 2.2238982 19.670736 10.248371
000020 46 de 83 40 89 d9 41 41 c1 17 1a 41 43 21 85 40
       4.120883 12.115609 9.630799 4.1603103
000030 a9 b6 d3 3f 23 bb d9 40 2d 2c b2 40 5a 5e d8 40
       1.6540118 6.804094 5.5678926 6.7615175
000040 0f e6 4f 40 4a 54 bf bd 1c e6 31 40 7c f5 a9 bd
       3.2484167 -0.09342249 2.7796698 -0.082987756
000050 75 03 73 40 87 c4 4b 40 ed 1d 13 41 ea e8 45 41
       3.797086 3.18387 9.194806 12.369364
000060 1a df 1d 41 b6 86 d8 40 fb 52 e1 3f bf d8 61 40
       9.866968 6.766444 1.7603449 3.5288541
000070 8c 11 99 3c 68 c3 bb 40 78 f4 09 40 63 d1 94 40
       0.018685125 5.8676033 2.1555462 4.65056

resnet_backbone/level_0/batch_normalization_2/FusedBatchNormV31 f4 [32]
000000 9e 86 34 be 5b a5 ac be fd 17 8e b8 05 50 cf be
       -0.17629477 -0.33719906 -6.775556e-05 -0.40490738
000010 6f a1 cc 38 aa 6c 0a be 97 1d 66 be 10 3b 2e bf
       9.7575474e-05 -0.13518015 -0.22472225 -0.6805887
000020 f3 c9 21 bf 08 a7 00 bf 23 9b 01 bf 7b f7 f6 be
       -0.63198775 -0.5025487 -0.50627345 -0.48235688
000030 48 d3 06 be 2b 87 c1 be 4a 55 b2 be bc e1 bb be
       -0.13166535 -0.37798437 -0.34830695 -0.3669566
000040 15 29 2d bf 89 30 7d 37 09 5a bc bf 13 12 74 37
       -0.6764081 1.5091276e-05 -1.4714977 1.4547742e-05
000050 ff 8b 19 bf 87 76 c5 be b5 73 49 be cd ac a4 be
       -0.5997924 -0.38566992 -0.19673045 -0.32163087
000060 9f c6 cb be 7d 44 7c be 35 d5 0a c0 cd 42 f6 be
       -0.39799973 -0.24635501 -2.1692631 -0.4809784
000070 e5 d5 58 b6 5f 84 cd be 7d ba 95 bf d5 2b 04 bf
       -3.2311011e-06 -0.40140054 -1.1697537 -0.5162938

resnet_backbone/level_0/batch_normalization_11/FusedBatchNormV3 f4 [64]
000000 25 c6 0e 40 c7 f6 96 be e5 fe 8a 40 a0 ac e6 40
       2.2308438 -0.2948515 4.343615 7.2085724
000010 1d 8a 97 40 e3 aa d9 40 c0 5e 02 40 a2 0f fa 3f
       4.7356095 6.80211 2.037033 1.9536021
000020 75 09 09 41 4a 5d 1d 40 d3 cc c0 3e 6e bc c3 40
       8.564809 2.458819 0.37656268 6.1167517
000030 7a 12 c7 3e 7f 3d 88 40 ea cd e9 40 43 2d ab 40
       0.38881284 4.257507 7.306386 5.349275
000040 86 59 cf 40 72 b3 ed 3f 3a 14 79 40 f0 52 0c 40
       6.479678 1.8570387 3.8918595 2.192562
000050 85 e8 8b 40 c2 b9 3e 40 ab f4 3c 40 d9 4d 55 41
       4.3721337 2.9800878 2.9524333 13.331506
000060 ca e2 18 41 ba b2 bf 40 9d e8 3b 40 48 3c 31 3f
       9.555368 5.990567 2.9360726 0.69232607
000070 ee fa ee 40 5c fa eb 3f 97 47 0e 41 f0 c0 19 41
       7.468131 1.8435779 8.892478 9.609604
000080 bf 1a ae 3f 04 3a b2 3d 00 f2 df 3c 41 6e 5a 3f
       1.3601912 0.08702472 0.027337074 0.85324484
000090 e2 c3 68 3d 3f 6b 70 3f 6a 55 91 3d 13 ae 2c 3f
       0.056827433 0.93913645 0.070963696 0.67453116
0000a0 a6 a7 92 3f d3 f0 da 3b 8c 52 56 3f b5 92 88 3f
       1.1457412 0.0066815405 0.83719707 1.0669771
0000b0 c1 2d 60 3f c9 e0 ee 3e 8b d1 8a 3f d8 1b aa bd
       0.87569815 0.46655872 1.0845197 -0.08306092
0000c0 b8 af cf 3f 28 99 ac 40 82 64 5f be 3c 49 d6 3f
       1.62255 5.393696 -0.21815684 1.6741099
0000d0 f7 b8 ed 3e 95 0a d0 bc c9 e0 97 3f 9e 25 e7 3f
       0.4643018 -0.02539567 1.1865474 1.8058355
0000e0 c7 71 64 3f ef 9e 87 be 1c a0 a2 3d f0 a2 51 be
       0.8923611 -0.26488444 0.07940695 -0.20472312
0000f0 74 a0 27 be c0 76 8b 3f 3e 23 57 3c 3a 0d 94 3f
       -0.16369802 1.0895615 0.013130961 1.1566536

resnet_backbone/level_0/batch_normalization_11/FusedBatchNormV31 f4 [64]
000000 8a fc 51 bf b3 89 95 38 83 0d 29 bf ca 29 80 bf
       -0.8202597 7.130522e-05 -0.6603624 -1.0012753
000010 8d ec e9 be e5 b6 a6 bf 17 64 2a bf 8d 45 3a bf
       -0.45688286 -1.3024565 -0.66558975 -0.72762376
000020 b0 e8 8c bf 33 bc 30 bf 83 c1 ca b8 f8 62 58 bf
       -1.100851 -0.6903717 -9.668155e-05 -0.84526014
000030 1c c3 cc b8 a1 b0 58 bf af 28 62 bf 27 03 2a bf
       -9.76382e-05 -0.84644514 -0.8834333 -0.6641106
000040 b1 4b 67 bf 0f 79 5e bf d3 6a 60 bf 4e 21 80 bf
       -0.9034987 -0.8690347 -0.87663 -1.0010164
000050 b6 92 28 bf 4e cd 83 bf f5 e7 70 bf b9 44 6e bf
       -0.65848863 -1.0297029 -0.9410394 -0.9307361
000060 35 97 8e bf 85 28 21 bf 62 49 15 bf 10 23 df be
       -1.1139895 -0.6295245 -0.583151 -0.43581438
000070 14 e5 89 bf 60 92 af bf 8c 51 d6 bf 14 b2 80 bf
       -1.0773034 -1.3716545 -1.6743636 -1.0054345
000080 3c 14 b6 be 5a 46 bd b7 0a 7f f9 b6 a6 7f 96 be
       -0.35562313 -2.2563316e-05 -7.4355676e-06 -0.29394263
000090 aa c3 76 b7 6f 36 92 bf 5b f7 bb b7 25 ea 0c bf
       -1.4708299e-05 -1.1422862 -2.2407321e-05 -0.55044776
0000a0 e3 dc 24 bf 29 85 cc b5 28 98 7a be 75 e4 d9 be
       -0.64399546 -1.5237939e-06 -0.24472106 -0.4255711
0000b0 ae ad fd be 52 ad 6d be e7 b9 86 be 2e 88 c3 37
       -0.4954657 -0.23210648 -0.26313707 2.3309225e-05
0000c0 8d 7e c2 be c1 8e fa be 71 7d e6 39 0b 08 47 bf
       -0.37987176 -0.48937038 0.0004396248 -0.7774665
0000d0 1b 45 1c b9 84 60 cf 36 cc 31 4b bf 30 fc fb be
       -0.00014903063 6.1803166e-06 -0.7937286 -0.4921584
0000e0 f6 ea 21 bf 5b 5a 9b 38 c4 19 af b7 09 65 73 38
       -0.63249147 7.407806e-05 -2.0873624e-05 5.802981e-05
0000f0 8e 02 35 38 05 10 2e bf 12 b1 90 b6 b9 07 9d bf
       4.3156142e-05 -0.67993194 -4.312148e-06 -1.2267982

resnet_backbone/level_0/batch_normalization_10/FusedBatchNormV3 f4 [32]
000000 6e b3 9e 40 14 b1 93 40 e8 8a f5 40 0f 3b 24 41
       4.959403 4.615366 7.6732063 10.264419
000010 5b b5 dc 40 f5 cb fa 40 fe e5 8f 41 39 a3 ff 40
       6.897138 7.837397 17.9873 7.9886746
000020 46 e7 ab 40 d4 2c 9e 40 58 16 08 41 dd 0a 10 41
       5.3719816 4.942972 8.505455 9.002652
000030 db 6b 0d 41 58 81 ff 40 a4 d6 0a 41 98 1a a6 40
       8.838832 7.984539 8.6774025 5.1907463
000040 e6 b2 b5 40 5d b6 84 41 69 7c 11 41 1d 6d 5b 40
       5.678088 16.589045 9.092874 3.4285347
000050 24 fb 58 40 8d 5c 14 40 92 a5 f0 3f 19 f4 74 40
       3.3903284 2.3181489 1.8800528 3.8273985
000060 a7 ef 86 40 6a e3 30 40 57 05 ea 41 21 4d 65 40
       4.2167544 2.7638803 29.252607 3.5828326
000070 a3 2c 92 40 6b a8 1a 41 be 15 76 40 3b 5a 0d 42
       4.567949 9.666118 3.845077 35.338116

resnet_backbone/level_0/batch_normalization_10/FusedBatchNormV31 f4 [32]
000000 d0 80 b9 be 00 8f ae be c6 bb e0 be 5a dd 13 bf
       -0.3623109 -0.34093475 -0.4389326 -0.5775963
000010 c4 7e cc be 31 ad d6 be c0 29 f0 bd 38 02 08 bf
       -0.39940464 -0.4192901 -0.11726713 -0.53128386
000020 f4 78 14 bf 09 d4 c8 be 12 69 eb be 17 c0 d7 be
       -0.5799706 -0.3922427 -0.459786 -0.4213874
000030 ee 0b e1 be 4c 5a bf be f6 06 41 bf eb 0b fa be
       -0.43954414 -0.3737358 -0.75401247 -0.48837218
000040 c6 70 fd bd 9e a4 15 bd c2 3c 54 be 92 72 01 bf
       -0.123750255 -0.036533944 -0.20726302 -0.50565445
000050 44 a9 07 bf fb 54 1c c0 3e 5b 3c bf a6 c7 52 be
       -0.52992654 -2.4426868 -0.73576725 -0.20583972
000060 49 13 3b bf 67 ff bc be c0 c5 0a be de f2 11 bf
       -0.730763 -0.36913607 -0.13551998 -0.5701121
000070 6d 3c 25 bf ca a1 6b be f8 9b f3 be d9 b1 d7 bd
       -0.6454533 -0.23010936 -0.47579932 -0.105319686

resnet_backbone/level_0/batch_normalization_1/FusedBatchNormV3 f4 [64]
000000 b6 89 fd 40 a9 ef 94 40 89 ad 73 40 32 1a 14 40
       7.9230604 4.6542554 3.8074667 2.3140988
000010 d8 bd c5 40 b4 28 7c 40 39 c7 51 40 ff 58 03 41
       6.1794243 3.9399843 3.2777846 8.209228
000020 ba 28 83 40 8f cf 64 40 68 02 77 40 fc 83 c3 40
       4.0987215 3.5751684 3.8595219 6.1098614
000030 85 51 05 41 7a 4d a1 40 cc 44 f7 40 ef 98 40 40
       8.332402 5.0407076 7.727148 3.0093343
000040 e6 8a 66 40 8f d8 a0 40 3a 5e 75 40 37 99 93 40
       3.6022277 5.0264354 3.8338761 4.612453
000050 a3 da 3c 40 ff 16 8b 40 a3 31 60 40 bb 93 34 40
       2.9508445 4.346557 3.5030296 2.8215168
000060 c1 39 23 40 64 02 69 40 fe 85 5c 40 7b d6 89 40
       2.5504 3.640771 3.4456782 4.3074317
000070 16 3b a1 40 33 65 69 40 5b 43 f1 40 9c ea 49 40
       5.0384626 3.6468017 7.539472 3.1549444
000080 3b 1a 8b 3f 65 77 5f 3f 93 80 45 3d 40 4b 5c 3f
       1.086738 0.87291557 0.04821832 0.8605232
000090 64 25 8b 3f fa de 73 3f 2b 69 1e 3f 42 a8 57 3f
       1.0870786 0.9526211 0.61879224 0.84241116
0000a0 c1 df 8a 3c ca c0 f4 3f ce 52 45 3f c2 a8 9f 3f
       0.016952397 1.9121335 0.77079475 1.2473376
0000b0 a2 bb 88 3f d8 29 5a 3f 23 4c b0 3f 93 5f e1 3f
       1.0682261 0.852201 1.3773235 1.7607292
0000c0 d2 e3 9a 40 44 d1 3a 40 4a 67 19 40 12 e3 a5 40
       4.84031 2.9190226 2.3969293 5.1839685
0000d0 3f 98 7d 40 f0 7e 7d be e8 04 f1 40 f9 13 95 40
       3.9624174 -0.24755454 7.531849 4.658688
0000e0 25 97 20 40 b8 f1 32 40 25 23 9b 40 40 11 54 40
       2.5092251 2.7960033 4.84804 3.3135529
0000f0 7c 28 03 40 8c f8 fd 3f 43 46 b1 40 74 b9 4b 40
       2.049346 1.9841475 5.539827 3.1831942

resnet_backbone/level_0/batch_normalization_1/FusedBatchNormV31 f4 [64]
000000 46 ea b9 be 99 9f 0f bf e1 bb b8 be 64 1e a9 be
       -0.3631155 -0.561029 -0.3608084 -0.33031
000010 66 7a f7 be 79 22 a6 bf 9c 4a 25 bf 0e 2e 13 bf
       -0.4833557 -1.297927 -0.6456697 -0.5749215
000020 9e 5b 03 bf 72 60 3d be 34 e3 6d be d6 59 2b bf
       -0.5131167 -0.18493822 -0.23231202 -0.66933954
000030 31 56 e5 be 67 6d 20 bf 33 27 18 bf 97 45 11 bf
       -0.4479232 -0.62666935 -0.59434813 -0.5674681
000040 c2 e6 61 bf 6b 44 d9 be a7 97 3e bf 3c 47 c6 be
       -0.88242733 -0.4243501 -0.74450153 -0.38726223
000050 27 c7 68 bf a7 59 5c bf 88 56 7e bf df 33 f5 be
       -0.9092888 -0.860743 -0.99350786 -0.47891137
000060 8f de 26 bf c1 6d 1a bf b8 4c b3 be d3 ae 63 bf
       -0.6518335 -0.6032372 -0.3501947 -0.88938636
000070 4d fc 2f bf 89 63 6c bf 00 d9 0b bf 65 7a 52 bf
       -0.68744355 -0.9233938 -0.5462799 -0.8221801
000080 01 53 cb be 4d 81 b3 bf 58 bd 13 b7 22 33 fd be
       -0.39711764 -1.4023834 -8.805968e-06 -0.49453074
000090 2b e8 1f bf b0 05 4b bf 79 f8 67 bf 5a 80 3b bf
       -0.62463635 -0.79305553 -0.90613514 -0.73242724
0000a0 c4 19 40 b6 cf 39 1e bf c7 c4 5d bf 9b 04 42 bf
       -2.8625227e-06 -0.6180696 -0.86628383 -0.7578828
0000b0 d7 d1 88 be ea a2 1e bf 36 eb 09 bf 76 d9 12 bf
       -0.26722595 -0.6196734 -0.5387453 -0.5736307
0000c0 a7 4e c5 be e5 ae 83 bf 07 d2 7b bf ff 69 4f bf
       -0.3853657 -1.0287749 -0.9836735 -0.8102111
0000d0 85 49 ba be 99 a6 44 38 e3 41 0e bf 0f 51 0d bf
       -0.36384216 4.6885198e-05 -0.55569285 -0.5520181
0000e0 6e 21 51 bf 20 91 8b bf b1 a2 b7 be 19 62 23 bf
       -0.81691635 -1.0903664 -0.3586631 -0.6382156
0000f0 96 28 93 bf db 7d 14 bf 8f 27 2f bf 8a f5 62 bf
       -1.1496761 -0.5800454 -0.68419737 -0.8865591

resnet_backbone/level_0/batch_normalization/FusedBatchNormV3 f4 [32]
000000 4c ce 96 41 aa 7a d7 40 23 66 07 41 87 3b 68 40
       18.85073 6.7337236 8.462436 3.6286333
000010 b2 4c dc 40 dc cf 91 40 c2 c8 74 be c0 52 b9 40
       6.884362 4.5566235 -0.23904708 5.7913513
000020 34 9e c0 40 ba f0 89 3e 4f 3b f9 3f 6e 32 e6 3f
       6.019312 0.26941472 1.9471225 1.798414
000030 15 a0 96 40 00 a3 b7 3f d5 21 93 40 5c 9d 5c 3e
       4.7070413 1.4346619 4.59788 0.21544403
000040 43 36 be 3f 10 1a ba 3c ee 97 05 3d 34 11 0d 41
       1.4860309 0.022717506 0.032615595 8.8167
000050 b7 dc 22 40 9b 9d 44 40 af 16 ac 3f df 60 20 3c
       2.5447214 3.0721195 1.3444422 0.009788721
000060 4a 6a a4 bc a4 ab b1 40 13 e4 87 bc 9b b1 ad 41
       -0.020070214 5.552202 -0.016588246 21.711721
000070 58 cc c7 40 2d f2 a8 3f 59 b6 1d 40 b3 f5 1c 40
       6.2436943 1.3198906 2.4642546 2.4524963

resnet_backbone/level_0/batch_normalization/FusedBatchNormV31 f4 [32]
000000 eb 76 4b be 56 37 06 bf 3f e7 81 be b3 1a 01 be
       -0.19869582 -0.52428186 -0.2537174 -0.12607841
000010 f4 29 eb be 13 c3 84 be a3 87 36 38 cb 47 86 be
       -0.45930445 -0.2593008 4.3518503e-05 -0.2622665
000020 d1 ee 40 bf 7c de 5c b8 db 14 2d be 1e c1 3f be
       -0.75364405 -5.2659292e-05 -0.16902487 -0.18726012
000030 a0 f9 76 be eb eb b9 be 6b cd 0c bf 8a 4a 1e b8
       -0.24118662 -0.36312804 -0.5500094 -3.7739555e-05
000040 25 d1 94 be 99 a8 86 b6 4a b2 b8 b6 40 4d 00 bf
       -0.29065815 -4.0131386e-06 -5.504383e-06 -0.50117874
000050 11 f4 5d bf 8d 2a 6b bd fb 3a b0 be 54 67 07 b6
       -0.8670054 -0.057413626 -0.3442 -2.0176712e-06
000060 1c dd b5 36 a0 ba 4f be 35 b0 06 36 bb 4e da be
       5.419961e-06 -0.20286036 2.0070122e-06 -0.42638192
000070 c6 96 5b be e1 a2 5d bf 21 17 2b be d4 18 ad bf
       -0.21444234 -0.8657666 -0.16708042 -1.3523202

denoiser_head/resnet_backbone/level_0/batch_normalization_17/FusedBatchNormV3 f4 [64]
000000 30 c5 f3 3e c5 21 22 3f a1 0c 06 3f a8 05 27 40
       0.4761138 0.6333278 0.5236302 2.6097202
000010 62 34 fe 3f 5c 29 09 40 3a f8 19 bf 67 4d 24 41
       1.9859736 2.1431494 -0.6014439 10.268897
000020 92 a0 51 40 eb cb c6 40 8a ea 55 bf 05 4f b9 3e
       3.2754254 6.2123923 -0.83561003 0.361931
000030 0c 25 c6 3f 1d 4b 9e 40 a9 7f 26 3e 70 5b 98 40
       1.5480056 4.946669 0.16259636 4.761162
000040 a5 a4 8c 3f 1e 6d f4 3f 9a 9c 23 40 93 80 18 40
       1.0987746 1.90958 2.5564332 2.3828475
000050 c3 3b 5b 3f 7a 99 0d 3f 4c 92 42 3f 4e 29 25 40
       0.85638064 0.5531231 0.7600448 2.580646
000060 01 c5 ca 3f a1 bc da 3f aa 6a 23 be 77 1a 0c 41
       1.5841371 1.7088815 -0.15958658 8.756461
000070 5a 08 65 40 d6 3e 67 3f 6c 0a 85 3f 6d 70 67 40
       3.5786347 0.90330255 1.0393806 3.616237
000080 1e b5 56 40 35 8e 53 3b 62 c4 c3 3e 2d 92 1f 40
       3.3548045 0.0032280807 0.38235766 2.4932969
000090 eb 8d 46 40 a6 c8 8a 40 8d 23 c4 3f 96 32 a6 40
       3.102412 4.336993 1.5323349 5.193675
0000a0 c3 ca 8b 40 31 1b e1 3f 08 fe 16 40 61 28 90 be
       4.368501 1.7586423 2.3592548 -0.28155807
0000b0 00 08 f4 3f f4 2d 87 40 ef bf e9 3e 8d 1f 53 40
       1.9064941 4.2243595 0.45654246 3.2988007
0000c0 e0 58 bd 40 2e 15 b4 be 71 38 d8 3f 9f b8 bb 40
       5.917099 -0.3517241 1.6892225 5.8662868
0000d0 1e 54 50 40 9f 9b 31 40 9d eb 20 40 02 5c 93 40
       3.255134 2.7751234 2.5143807 4.6049814
0000e0 be b7 49 40 02 65 bb bc 0b 14 2d 40 82 4d 21 40
       3.1518397 -0.022875313 2.7043483 2.5203557
0000f0 60 42 01 bf d3 bc 9e 40 14 dc 8b 3d ab c0 e7 3f
       -0.50491905 4.96055 0.06829086 1.8105673

denoiser_head/resnet_backbone/level_0/batch_normalization_17/FusedBatchNormV31 f4 [64]
000000 1a 37 41 b9 3c 93 6a b9 3e 16 68 b9 31 2a c1 bf
       -0.00018426441 -0.00022370828 -0.0002213353 -1.5091001
000010 88 eb b2 bf c0 6c 83 bf 49 04 87 39 8d d1 a6 bf
       -1.3978128 -1.0267563 0.000257524 -1.30327
000020 f4 95 b6 bf 89 c5 22 c0 2d 04 b9 3a e8 71 ef b8
       -1.4264512 -2.5433066 0.0014115624 -0.00011417625
000030 40 e8 1d c0 cf 21 e6 bf 16 56 4d b8 4f 27 bd bf
       -2.4673004 -1.7979068 -4.8955982e-05 -1.4777621
000040 80 0a 59 ba 8f da 62 bf be 34 90 bf 12 94 c8 bf
       -0.00082794577 -0.88614744 -1.1266096 -1.5670187
000050 ee a9 a4 b9 a2 ad 29 b9 f9 ff b4 b9 00 c3 c9 bf
       -0.00031407125 -0.00016181779 -0.0003452299 -1.5762634
000060 07 1f 19 c0 15 9c ee bf 27 ca 2e 38 ca 8c a5 bf
       -2.3925188 -1.8641382 4.16731e-05 -1.293359
000070 12 1c fb bf 75 eb f3 b9 49 04 21 ba d5 63 ab bf
       -1.9617941 -0.00046524 -0.0006142301 -1.3389841
000080 a6 80 39 bf 9a 64 52 b5 7c 22 05 b9 68 07 c9 bf
       -0.72461927 -7.837749e-07 -0.00012696715 -1.5705385
000090 2e fe 17 bf 75 78 88 bf 55 86 18 bf 5f ad b6 bf
       -0.5937222 -1.066176 -0.59579974 -1.4271659
0000a0 da cd 91 bf 1b 4e 9e bf 01 8c 90 bf a2 96 95 38
       -1.1390946 -1.2367586 -1.1292726 7.132931e-05
0000b0 d3 e3 e4 bf 24 5c 79 bf 86 eb 44 b9 b2 8e 42 bf
       -1.7882026 -0.9740622 -0.00018779756 -0.75998986
0000c0 87 65 1b c0 5d 51 d6 38 b3 5e 80 bf 9f 54 e6 bf
       -2.4280717 0.0001021947 -1.00289 -1.7994574
0000d0 2d 67 77 bf 40 4b b4 bf 60 e0 58 bf 00 0b a9 bf
       -0.9664181 -1.4085464 -0.8471737 -1.3206482
0000e0 36 49 91 bf f4 1a c3 36 72 3d ac bf 82 0d 99 bf
       -1.1350467 5.8145906e-06 -1.3456252 -1.1957247
0000f0 c4 6a 29 39 b6 a8 80 bf 88 54 87 b7 a1 9e cf bf
       0.00016156869 -1.0051486 -1.6132617e-05 -1.6220285

denoiser_head/resnet_backbone/level_0/batch_normalization_16/FusedBatchNormV3 f4 [32]
000000 bc a0 b6 bd 03 f3 03 3f 43 3a c4 3e 99 e3 b2 3e
       -0.089173764 0.5154268 0.383257 0.34939268
000010 93 15 ed 3e aa 7b e8 bc 67 bf 93 3f 2a 66 45 3f
       0.46305522 -0.02837928 1.1542786 0.77109015
000020 58 4f a6 3e c8 60 a6 3e 7d a2 4a 3f 68 59 41 3c
       0.3248241 0.32495713 0.7915419 0.011801101
000030 c3 8a d5 bd cf 7c dc 3e a6 9a 75 3f 41 81 b9 3c
       -0.10426857 0.4306397 0.959391 0.02264464
000040 cb fb bb 3e 58 a3 98 3e 26 dc 04 3f 7e ff 22 3f
       0.3671554 0.2981212 0.5189842 0.636711
000050 47 5c 11 3f 0d 2d b5 bb 4a 34 bd 3e 82 a2 9a ba
       0.5678143 -0.005529052 0.36953956 -0.0011797699
000060 09 12 b1 3e 61 f0 37 3f da 68 0b bd c6 82 c6 3f
       0.34584072 0.71851164 -0.03403554 1.5508659
000070 7e e5 43 3f 72 fb f9 3e 3e b5 34 3f 0d 6b 05 3f
       0.7652205 0.4882465 0.70589054 0.5211647

denoiser_head/resnet_backbone/level_0/batch_normalization_16/FusedBatchNormV31 f4 [32]
000000 a7 0b bb 38 76 d3 bc be 4c 69 aa bf 07 c3 53 bf
       8.919025e-05 -0.36880082 -1.3313384 -0.82719463
000010 aa 40 61 bf b2 23 c8 37 16 9f 75 bf 3b 97 c5 be
       -0.87989295 2.385848e-05 -0.9594587 -0.38591942
000020 f5 55 40 bf 9a e6 3c bf 53 87 55 bf 62 b9 4d b7
       -0.7513116 -0.7378937 -0.83409613 -1.2262115e-05
000030 da f3 13 39 fa d2 6f bf 44 cd 2d bf 14 e5 10 b8
       0.00014109854 -0.936813 -0.67891335 -3.454562e-05
000040 63 7d 48 bf d9 0c 38 bf 56 76 a7 be 1c 14 e9 be
       -0.78316325 -0.71894604 -0.3270747 -0.45523155
000050 cb ab 75 bf 6d e0 a0 36 76 19 46 bf 73 9b a3 36
       -0.9596526 4.794498e-06 -0.773826 4.875875e-06
000060 82 c7 f1 be 52 c0 0f bf 5e 94 e9 37 af 0d aa be
       -0.47222525 -0.5615283 2.7844853e-05 -0.33213565
000070 f0 5d 24 bf 60 cf cc be 93 5f 4b bf 19 fc 01 bf
       -0.6420584 -0.40001965 -0.7944271 -0.50775295

denoiser_head/resnet_backbone/level_0/batch_normalization_15/FusedBatchNormV3 f4 [64]
000000 fa 78 d6 3f ac 3f bd be 46 38 21 be e1 c5 17 3f
       1.6755669 -0.3696264 -0.15744123 0.59286314
000010 b2 d2 a1 40 7a ef aa 40 69 6f 86 40 be 54 44 40
       5.0569696 5.341733 4.2011 3.0676723
000020 b3 60 11 40 39 2d b3 be c4 03 0e bf 29 3e b8 3e
       2.271527 -0.3499544 -0.55474496 0.35984924
000030 37 f9 77 3d 11 3d 3a 40 31 c3 ab bd 78 12 f3 3e
       0.060540404 2.9099772 -0.08386839 0.47475028
000040 54 4b 32 3f dc aa 67 40 95 d6 5a 3e c7 2e b7 3e
       0.6964619 3.6198034 0.21370919 0.35777876
000050 90 92 86 3f d9 88 40 3e b2 2f 4a 40 55 e5 58 40
       1.0513477 0.18802203 3.159161 3.3889973
000060 64 77 4b 40 d6 50 f5 be 6b 09 35 40 a2 d3 fa 3f
       3.179162 -0.47913235 2.8286998 1.9595835
000070 21 57 4a 40 35 69 67 bf 03 3a 16 40 a9 74 48 40
       3.161568 -0.9039491 2.3472908 3.1321204
000080 54 53 91 40 ad b1 b9 40 2c 0e c0 3f d6 34 22 40
       4.541422 5.802939 1.5004325 2.5344748
000090 7f 01 2c 40 83 0e 75 40 fa 14 7c be e8 ba 3e 40
       2.6875913 3.8290107 -0.24617377 2.9801579
0000a0 2b 26 0b 3f 09 1a b8 be 88 19 85 40 f1 c5 48 40
       0.54355115 -0.35957363 4.1593666 3.1370814
0000b0 a7 85 78 40 45 42 8d 3e a5 c2 28 40 24 2b 96 be
       3.8831575 0.27589622 2.6368802 -0.2932979
0000c0 04 a9 00 bf 1f 6f 9a 40 dd be 51 be a7 2c bf be
       -0.502579 4.8260646 -0.20482965 -0.37338755
0000d0 33 d7 b4 40 b8 b4 55 3f 50 66 a4 40 99 4a 86 40
       5.6512694 0.8347888 5.1374893 4.196606
0000e0 e1 57 19 3f 2e 08 da be 70 f8 e0 3f 80 41 e8 3e
       0.5989972 -0.42584366 1.7575817 0.45362473
0000f0 ea 2b cb 3d 99 8b ae 40 9e fd f5 40 12 33 4a be
       0.09920485 5.4545407 7.687209 -0.19746044

denoiser_head/resnet_backbone/level_0/batch_normalization_15/FusedBatchNormV31 f4 [64]
000000 41 7f 5e c0 f7 1a 03 39 20 be 6b 38 cc 88 7b b9
       -3.476517 0.00012503179 5.6205434e-05 -0.00023988186
000010 21 23 8d bf 78 8f 82 bf c5 71 eb bf 57 2d a5 bf
       -1.1026345 -1.0200033 -1.8394095 -1.2904462
000020 d9 06 aa bf 1e be 01 39 9e 21 4b 39 ff 39 04 b9
       -1.328334 0.00012373223 0.00019372112 -0.00012610106
000030 cf 82 9a b7 dd c5 41 bf 27 f4 d7 37 66 2f 08 b9
       -1.8419143e-05 -0.7569254 2.574369e-05 -0.00012987628
000040 7e 68 c2 be 44 e0 ee bf 15 3b 98 b8 1a 52 02 b9
       -0.37970346 -1.866219 -7.25893e-05 -0.00012428351
000050 99 1b 0c ba a8 17 64 b8 3c dc 01 c0 79 19 51 bf
       -0.00053446885 -5.4381468e-05 -2.029067 -0.81679493
000060 ee 7e a1 bf 00 1d 0b 39 19 35 0d c0 88 62 0a c0
       -1.2616861 0.00013266876 -2.2063658 -2.1622639
000070 5c 9d 74 bf 57 db 0f 3a dc 64 ff bf 66 46 0e c0
       -0.9555261 0.0005487701 -1.9952655 -2.2230468
000080 b3 69 63 bf 15 71 9a bf 0d 77 d9 bf 51 dd f2 bf
       -0.8883316 -1.206576 -1.6989456 -1.897379
000090 a9 e1 8b bf 96 b3 6f bf bc 08 8b 38 31 95 66 bf
       -1.0928241 -0.936334 6.6296634e-05 -0.900714
0000a0 23 a7 73 b9 17 c1 e5 38 35 d0 94 bf 96 62 51 bf
       -0.00023236549 0.00010955537 -1.162604 -0.81791055
0000b0 bc af c9 bf d7 b4 d1 b8 39 09 0b bf 2c 89 ab 38
       -1.5756755 -9.999581e-05 -0.5431095 8.179466e-05
0000c0 bb e0 3f 39 02 42 78 bf f8 0f 82 38 79 ea df 38
       0.00018298898 -0.9697572 6.2018575e-05 0.000106771426
0000d0 59 ce a8 bf a6 16 35 bf 1d 29 a2 bf b9 3f 99 bf
       -1.3187972 -0.70737684 -1.2668797 -1.1972572
0000e0 7b 92 79 b9 24 17 33 39 6d cb ea bf 40 bf 0f b9
       -0.00023801059 0.00017079391 -1.8343331 -0.00013708789
0000f0 d5 26 14 b8 f2 e0 11 c0 e7 bd 8b bf e6 2f 87 38
       -3.5322115e-05 -2.2793546 -1.0917329 6.4462234e-05

denoiser_head/resnet_backbone/level_0/batch_normalization_14/FusedBatchNormV3 f4 [32]
000000 5c 35 2c 3f a4 45 f8 bd 7a 4b b9 3f 6b a9 59 3f
       0.6726892 -0.12122658 1.4476159 0.85024136
000010 16 92 58 3f 2a 81 7c 3f b7 1e e9 3c 42 4e 18 3f
       0.8459791 0.9863459 0.028457029 0.5949441
000020 ab 3f 35 40 af f5 a1 3f 71 9e e6 3e a3 4c 9d 3e
       2.832011 1.2653102 0.45042756 0.30722532
000030 02 81 7a 3f 4e b5 2e 3f 60 09 57 3f 6e a1 d8 3f
       0.978531 0.682454 0.8399868 1.6924264
000040 51 f5 3e bb ee 8c e5 3c 4b 65 1c 3f 2d 09 da bc
       -0.002913792 0.028021302 0.6109206 -0.026615703
000050 7d 12 14 3f 16 0d 52 3f fa 45 18 3f 30 41 03 3f
       0.5784071 0.8205122 0.59481776 0.51271343
000060 6f 90 e6 3e 40 7f 23 40 56 f9 cf 3c 14 b8 41 3d
       0.4503207 2.5546417 0.025387447 0.04729469
000070 78 8f f6 bd 09 fb de bc 81 e5 6f 3f f6 71 d6 40
       -0.12039083 -0.027219312 0.9370957 6.7014112

denoiser_head/resnet_backbone/level_0/batch_normalization_14/FusedBatchNormV31 f4 [32]
000000 d4 54 25 bf 6b 45 b2 39 e8 3f 90 bf 61 1b f5 be
       -0.6458256 0.00034002526 -1.1269503 -0.4787245
000010 dd 8d 6e bf 7d a6 22 bf 0b d0 56 b8 b9 36 4f bf
       -0.93185216 -0.6353529 -5.121533e-05 -0.80942875
000020 88 84 4f be f3 cb 32 bf 03 ea d0 be 50 7e 64 bf
       -0.202654 -0.6984245 -0.40803537 -0.8925524
000030 29 27 e4 be ce 84 d4 bf 67 f1 b7 be 00 00 05 bf
       -0.44561127 -1.6603029 -0.35926363 -0.51953125
000040 3d 8b 9d 36 6e 32 df b7 ed f7 07 bf e6 5d 07 38
       4.695174e-06 -2.6607155e-05 -0.5311268 3.2273958e-05
000050 d7 c7 26 bf 50 0f 3b bf c3 db 05 bf d0 b2 e5 bf
       -0.6514868 -0.7307024 -0.52288455 -1.7945194
000060 84 6e 94 bf bf 9b 3d bf c1 0e ce b7 b6 10 7b b8
       -1.1596227 -0.74065775 -2.4563984e-05 -5.9858627e-05
000070 8c 19 0f 39 ed b6 fd 37 9d b4 a7 bf 99 1a 38 be
       0.0001364706 3.0245132e-05 -1.3101994 -0.17978896

denoiser_head/resnet_backbone/level_0/batch_normalization_13/FusedBatchNormV3 f4 [64]
000000 8f 85 c8 40 87 25 94 41 a0 57 0c 41 97 2c f7 3f
       6.2663035 18.518324 8.771393 1.9310483
000010 71 cd da 40 c2 a0 ef 40 1e a6 7c 41 64 69 d5 40
       6.8375783 7.4883738 15.790556 6.669115
000020 53 d0 15 41 c5 73 ea 40 e4 c7 cc 40 2c 94 00 41
       9.36336 7.326632 6.3994007 8.036175
000030 00 75 ea 40 a1 25 80 41 e8 ef 0d 41 44 59 ec 40
       7.326782 16.018373 8.871071 7.3858967
000040 af 88 fe 3f 94 41 b7 3f 35 62 9d bf 93 7a 33 3f
       1.9885463 1.4316888 -1.2295595 0.7010891
000050 80 74 03 41 fb c7 1a 41 0a d8 99 bf 65 21 b8 41
       8.215942 9.673823 -1.2019055 23.016306
000060 a0 11 f8 40 a7 86 81 bf a9 ad 47 3f 63 a4 7a 3f
       7.7521515 -1.0119218 0.7799936 0.97907084
000070 45 d3 f3 3f 08 aa 44 3f 8f 73 34 bf 0d e1 c8 40
       1.9048849 0.7682195 -0.7048883 6.277472
000080 12 60 f1 3f 1a 38 50 40 dc 0a 30 40 61 14 2f 40
       1.8857443 3.2534242 2.7506628 2.7356188
000090 4f 7e 07 40 94 14 8e 40 00 92 83 40 17 77 ce bd
       2.1170843 4.440012 4.1115723 -0.10081308
0000a0 04 d7 1c 40 5b c3 09 be 72 98 bb 40 37 c1 1a 3f
       2.4506235 -0.13453428 5.862359 0.6045107
0000b0 cf 65 41 40 d3 26 12 40 20 b7 10 40 40 12 30 3e
       3.021839 2.2836196 2.261177 0.17194462
0000c0 fd 59 6a be f4 4b 09 bf 88 b1 27 40 40 e2 b7 40
       -0.2288589 -0.5363152 2.6202106 5.7463684
0000d0 ee 22 88 40 65 47 9b 40 ee 7c a2 40 d6 bf 96 3e
       4.254264 4.852465 5.07775 0.29443234
0000e0 6e b4 07 40 f7 aa ed 3f 89 bc e4 3f b6 f2 74 be
       2.1203876 1.8567799 1.7870036 -0.23920712
0000f0 83 e2 a3 40 e1 ad 9b be b0 ba 13 bf 1d b5 64 40
       5.1214004 -0.30406097 -0.5770674 3.5735543

denoiser_head/resnet_backbone/level_0/batch_normalization_13/FusedBatchNormV31 f4 [64]
000000 c0 a2 da bf 42 07 2d c0 d3 11 a2 bf b2 a5 03 ba
       -1.7080917 -2.703568 -1.266169 -0.0005021944
000010 ec 39 e9 bf 41 89 b4 bf 94 a6 c2 bf 97 4f df bf
       -1.8220801 -1.4104387 -1.5207086 -1.7446164
000020 81 45 3c c0 3f 85 d4 bf 97 6d fe bf 2f 19 c5 bf
       -2.9417422 -1.6603163 -1.9877194 -1.539831
000030 d2 cc ce bf 14 50 9a bf ea 29 9e bf bd e4 a5 bf
       -1.6156256 -1.2055688 -1.2356541 -1.296043
000040 3c 5c 03 ba b7 31 b3 b9 51 39 88 39 f5 36 02 b9
       -0.00050109974 -0.0003417858 0.00025982645 -0.00012418239
000050 00 e9 03 c0 23 9e 9e bf 90 d1 a3 39 14 ad 10 bf
       -2.0610962 -1.239201 0.0003124592 -0.56514096
000060 62 89 4d bf e0 2a 6e 39 01 90 10 b9 f5 6c 66 b9
       -0.80287755 0.00022713421 -0.00013786556 -0.00021975099
000070 e6 da 31 ba 8b 27 2d b9 bb b4 09 39 94 af d0 bf
       -0.00067846326 -0.00016513297 0.00013132665 -1.6303582
000080 6d 58 1d c0 68 cd ad bf 72 9d 7c bf 82 73 f4 bf
       -2.458522 -1.357831 -0.9867774 -1.909775
000090 0e 81 e3 bf 6b b9 37 bf b2 34 d8 bf f5 c9 03 38
       -1.7773759 -0.717673 -1.6891081 3.142092e-05
0000a0 09 12 8a bf 92 57 54 38 7b c1 9b bf 6f ec c8 b9
       -1.0786754 5.0626295e-05 -1.216842 -0.0003832313
0000b0 f5 69 01 c0 48 65 ad bf 32 97 0e c0 4c da 83 b8
       -2.022092 -1.3546534 -2.2279782 -6.287228e-05
0000c0 71 68 96 38 1d 06 ff 39 45 6a d7 bf 39 9a 7a bf
       7.172011e-05 0.00048641945 -1.6829306 -0.97891575
0000d0 8f 70 b1 bf a6 4b a4 bf 65 64 2f c0 40 6a 05 b9
       -1.3862475 -1.2835586 -2.7405026 -0.0001272345
0000e0 92 8b ee bf f4 d6 83 bf 87 1a c5 bf 81 34 f6 38
       -1.8636343 -1.0299973 -1.539872 0.00011739974
0000f0 55 1f 91 bf 8b 84 df 38 45 b5 93 39 30 dd d2 bf
       -1.1337687 0.00010658157 0.0002817308 -1.6473751

denoiser_head/resnet_backbone/level_0/batch_normalization_12/FusedBatchNormV3 f4 [32]
000000 ac fe e8 3e 27 9c 0f 3f c4 3c 12 3d 66 a5 cd 3e
       0.455068 0.56097645 0.035702482 0.40165251
000010 51 94 6c 3e 1a 7f a9 3f ac a0 8a 3a 26 c9 1a 3f
       0.23103453 1.3241913 0.0010576448 0.6046318
000020 25 f6 40 3e 5e a6 98 3e 73 b7 4d 3e a3 ba fe 3f
       0.18843897 0.29814428 0.20089512 1.9900707
000030 8b 87 dd 3f d2 e3 20 3f 56 15 3a 3f 91 4f de 3e
       1.730699 0.62847626 0.72688806 0.4342008
000040 23 04 d0 3e 5f ab 00 3f 0a f6 ce 3e 1b 2d 07 3f
       0.40628156 0.5026149 0.40422088 0.528032
000050 d8 c1 ef 3e e3 b9 1a 3f f5 05 8f 3f b6 b3 d0 3e
       0.4682758 0.6043989 1.1173693 0.4076211
000060 53 05 dd 3e 4d 5b 2f 3f 39 4a f6 3f 2a 03 11 40
       0.43168125 0.6849869 1.9241401 2.265818
000070 3f a3 d5 3e e1 9b 37 3f 26 a1 40 3f f8 22 9a 40
       0.4172611 0.7172223 0.75245893 4.8167686

denoiser_head/resnet_backbone/level_0/batch_normalization_12/FusedBatchNormV31 f4 [32]
000000 fc 9f 47 be 3b c3 a3 be b3 e3 3c b8 78 72 3e bf
       -0.19494623 -0.31984887 -4.5034754e-05 -0.74393415
000010 2d 8d 06 bf 23 97 1d be 01 5a 54 b5 46 5b 7d be
       -0.5255917 -0.15389685 -7.910713e-07 -0.2474185
000020 af a4 b0 bd 02 f0 56 bf 64 4e 4a be 3f 24 5c bf
       -0.08625161 -0.8395997 -0.19756466 -0.8599281
000030 fc 5c 4c be 75 79 ab be b7 04 0e bf 6c 6e 46 be
       -0.19957346 -0.33491102 -0.55475944 -0.1937806
000040 b1 4c 6c bf 7b da ee bf 63 8d db bf a9 66 e1 bf
       -0.9230452 -1.8660425 -1.7152523 -1.7609454
000050 c4 4f 42 bf be 4e 04 bf 97 44 7c bf 96 b7 8e bf
       -0.7590296 -0.5168265 -0.9854216 -1.1149776
000060 dc 08 c2 bd 85 d6 56 bf 57 f0 0e bf fb a9 db be
       -0.09474346 -0.8392108 -0.5583548 -0.42903122
000070 99 4e 75 be 49 24 94 bf 48 50 af bf 34 30 f0 bd
       -0.23955764 -1.1573573 -1.3696375 -0.11727944
