bfcnn/pretrained/resnet_color_1x6_bn_32x32_1x3x1_128x128_erf_relu/superres_model.tflite (tflite, 177888 bytes, 71 tensors)

superres_head/resnet_backbone/level_0/batch_normalization_23/FusedBatchNormV3 f4 [64]
00000000: 85f5 a241 57fe 1941 5b5b 7741 c954 3042
00000010: 09ad 0442 65c9 cd41 32a8 9841 e7bc 8441
00000020: 7184 4d41 6725 d941 0245 1c41 bd21 d741
00000030: f80c 6841 bc49 e641 354b c640 e86e d641
00000040: 5868 d641 a5dc 0b42 e4bd b341 2962 c441
00000050: 0878 2541 a5fd bd41 4f74 e041 059c 5a41
00000060: 5dec d241 3d08 e440 9d4b a341 bc29 b441
00000070: d190 a841 e6f7 c641 e415 be41 2a85 e441
00000080: 5896 2641 d6b1 fc40 3edd 9941 5742 9c40
00000090: db78 ee41 7a0c 0b42 9ac0 3f40 ec76 b341
000000a0: 83a4 3841 2a34 1442 bf62 1f42 fdb2 b041
000000b0: cb15 a041 86c6 c441 1c1d 8840 cd3a b441
000000c0: 26bd 1b41 34dd 8c41 aecf 4442 f302 6841
000000d0: 0b95 f440 dfd8 b541 c9b7 a741 2dde a941
000000e0: bc82 3741 e997 9541 f3dd b141 19c7 cd41
000000f0: f306 7a41 e29b 1e42 6e00 6141 fcf5 dd41
20.369883 9.624595 15.459804 44.082798 33.16898 25.723337 19.082127 16.592237
12.844834 27.143263 9.766848 26.891474 14.503166 28.786003 6.1966805 26.804153
26.80095 34.965473 22.46772 24.54793 10.3418045 23.74885 28.056791 13.663091
26.365412 7.1260056 20.41192 22.520378 21.070711 24.871044 23.760689 28.565022
10.411705 7.8967085 19.233028 4.883098 29.809011 34.762184 2.9961305 22.433067
11.540164 37.05094 39.84643 22.087397 20.010641 24.596935 4.2535534 22.528711
9.733679 17.60801 49.202812 14.50072 7.6431937 22.730894 20.964739 21.233484
11.469418 18.699175 22.233374 25.722216 15.626697 39.65223 14.062605 27.74511

superres_head/resnet_backbone/level_0/batch_normalization_23/FusedBatchNormV31 f4 [64]
00000000: 3391 12b9 2caa 23c0 d751 63bf 95c6 9fb9
00000010: 5643 7eb9 d209 28b9 7c8c 37c0 a97a e0b8
00000020: 08ea 74bf 69b3 49b9 5da6 f3bf 6527 49b9
00000030: b346 7ebf 49ca 30b9 de05 f6bf 2f1c 32b9
00000040: e7bb 57b9 3027 7bb9 ad60 21b9 2a83 38b9
00000050: 57ff 97bf 0e2f 08b9 4c43 61b9 9b23 bcbf
00000060: 73eb 41b9 4b69 9abf 6825 07b9 d0a6 1fb9
00000070: 2afa 05b9 e34f 2bb9 88e0 36b9 960e 19b9
00000080: 62eb b4bf 0203 50c0 94df 25b9 e236 18c0
00000090: 04a3 8fb9 af46 acb9 b8ba b0bf 5af5 80b9
000000a0: b715 cfb8 1b0f c7b9 cec4 dfb9 218d 4cb9
000000b0: ce07 43b9 87bf 4db9 9dfa fbbf 7d3f 4ab9
000000c0: 28e9 73c0 2059 1bb9 e00b 12ba 9e35 70bf
000000d0: ea64 a4bf 37f8 50b9 b6e8 50b9 897d 33b9
000000e0: 163f 10c0 5a5a 9ebf 8c64 42b9 dac4 6cb9
000000f0: 7692 07b9 de24 c1bf cec8 bebf 84bb 80b9
-0.00013977736 -2.5572615 -0.8879675 -0.00030474798 -0.00024248412 -0.00016025387 -2.8679495 -0.000107039996
-0.95669603 -0.00019235689 -1.9035145 -0.0001918353 -0.9932663 -0.00016860025 -1.922054 -0.00016985902
-0.00020573997 -0.00023951824 -0.00015390171 -0.0001759647 -1.1874799 -0.000129875 -0.00021482742 -1.4698366
-0.00018493626 -1.2063383 -0.00012888538 -0.00015225564 -0.00012777062 -0.00016337591 -0.00017440517 -0.0001459665
-1.4134333 -3.2501836 -0.00015818916 -2.3783498 -0.00027396542 -0.0003285906 -1.3806982 -0.00024596864
-9.874574e-05 -0.00037967492 -0.00042680505 -0.0001950753 -0.00018599557 -0.00019621673 -1.9685856 -0.00019287872
-3.8111057 -0.00014815154 -0.00055712275 -0.93831813 -1.2843297 -0.00019928893 -0.00019923117 -0.00017117536
-2.2538505 -1.2371323 -0.00018538738 -0.00022580047 -0.00012929164 -1.5089376 -1.4905031 -0.00024553773

superres_head/resnet_backbone/level_0/batch_normalization_22/FusedBatchNormV3 f4 [32]
00000000: ba0f ca3f c172 d03f f198 d03f 3f88 ca3f
00000010: 396b 8340 e195 933e 4f3e d73f fd3d bc3e
00000020: ca5b d33e dcfc cc3f edd9 d83e 4b14 cd3f
00000030: a254 cc3f 1a0c cf3f 1b15 cf3f 5cea 863f
00000040: 27fa d33e 1140 c43f 642b e33e 2b3e c53e
00000050: 262d b93f 8a0c fb3d 0976 e73e 58a4 7739
00000060: fa87 953e fc38 bc3e b415 2c40 1d9c b43f
00000070: 2446 103f 427e b63e 0764 c33f fd60 fc3a
1.5786049 1.628502 1.6296674 1.5822829 4.1068387 0.28825286 1.681589 0.36766043
0.41280967 1.6014667 0.42353764 1.6021818 1.5963328 1.6175568 1.6178316 1.0540271
0.4140179 1.5332052 0.44369042 0.38523993 1.4466903 0.12258251 0.4520724 0.00023616978
0.29205304 0.36762226 2.6888247 1.4110142 0.56357026 0.35643202 1.5264901 0.0019254979

superres_head/resnet_backbone/level_0/batch_normalization_22/FusedBatchNormV31 f4 [32]
00000000: b77e e1b9 51ce f3b9 5f35 01ba a07c 17ba
00000010: ab96 9fbf dce2 49bf 3173 98be 35c3 a3bf
00000020: c04b 9ebe a0a8 0dba 67dd a0bf 7816 01ba
00000030: 27df d6b9 5f41 f4b9 ae70 05ba 7970 85bf
00000040: ffdd c0bf b319 84be 77a0 1cbe 84ac aabf
00000050: 74e7 16bf 4676 3eb8 8243 b4bf ad6b 5cb3
00000060: 5d4a 4cbe 81f0 5cbf ecd7 62ba 1cca e8b9
00000070: 6de9 f5bf b275 0bbf c062 9cbe ca5a 38b5
-0.00043009754 -0.0004650229 -0.00049289124 -0.00057787634 -1.2467855 -0.78861785 -0.29775384 -1.2793947
-0.30917168 -0.000540385 -1.2567567 -0.00049243076 -0.00040983522 -0.00046588012 -0.0005090338 -1.0424949
-1.5067748 -0.25800857 -0.15295587 -1.3333898 -0.5894692 -4.540968e-05 -1.4083102 -5.1320672e-08
-0.19950242 -0.8630448 -0.00086533907 -0.00044401072 -1.9211861 -0.54476464 -0.3054409 -6.8677457e-07

superres_head/resnet_backbone/level_0/batch_normalization_21/FusedBatchNormV3 f4 [64]
00000000: 2ad6 1942 1bc8 b441 b281 c341 f99e c541
00000010: 888f 2242 500a d841 e6b6 dc41 35d5 c241
00000020: 6f53 b241 2aa7 c541 de38 ef41 6067 a941
00000030: f857 c841 3f42 b141 7e10 c841 d207 c341
00000040: 5e22 fe41 8b8f df41 edf5 0242 1bca b041
00000050: e004 d541 a5fd da41 cd0c bd41 fc0e e941
00000060: dfb5 b441 2192 db41 5cac 1342 63df d241
00000070: c7e6 d041 e41f 1a42 3e3b 0342 d5d9 ed41
00000080: 75c7 c541 fced b441 0a94 8741 cd6f a741
00000090: 1a4d b841 b2ce ca41 96ec 1c42 db88 d541
000000a0: a1cf 9541 3bf4 a341 534e 9541 9771 c841
000000b0: 16df be41 1cb1 cb41 6d94 b241 36d7 aa41
000000c0: 1d24 b041 6917 a241 5f51 9f41 d821 9941
000000d0: 3bad b041 eaf3 a041 62ca b441 3d53 cc41
000000e0: bfe4 9b41 5a55 9241 6ee7 c641 b598 8641
000000f0: e608 9a41 9eb0 bf41 2aa0 9841 d14d 2d42
38.459145 22.597708 24.438328 24.702623 40.640167 27.005035 27.589306 24.354105
22.29074 24.706623 29.902767 21.175476 25.042953 22.157347 25.008053 24.378819
31.76678 27.94509 32.74016 22.098684 26.62738 27.37385 23.63125 29.132317
22.588804 27.446352 36.91832 26.359076 26.112684 38.531143 32.807854 29.731363
24.722391 22.616203 16.947285 20.92959 23.037647 25.350925 39.23104 26.691824
18.726381 20.494253 18.663244 25.055464 23.858929 25.46148 22.322474 21.355083
22.017633 20.26143 19.914732 19.141525 22.084585 20.119099 22.59882 25.540644
19.486692 18.291676 24.863003 16.824564 19.254345 23.961239 19.078205 43.325993

superres_head/resnet_backbone/level_0/batch_normalization_21/FusedBatchNormV31 f4 [64]
00000000: fed2 a6b9 d97a 22b9 ab06 2eb9 6950 3ab9
00000010: 982e a5b9 75e7 43b9 c5b0 46b9 c5d9 2db9
00000020: db27 19b9 275f 39b9 ac90 73b9 014f a9bf
00000030: 82d3 3eb9 ed91 acbf ae6f 31b9 fe7a 27b9
00000040: d3e9 5eb9 253a 45b9 b7d1 81b9 72fd 12b9
00000050: 534b 42b9 5477 4cb9 78c8 25b9 32bd 62b9
00000060: 45f2 23b9 9a07 4bb9 67e8 8cb9 01c5 3cb9
00000070: d005 3eb9 dcfe 8eb9 5db9 7bb9 0705 54b9
00000080: 18a1 7ab6 3efe 96b6 9da3 32b6 93bf b5b6
00000090: 97bb 75b6 056d c8b6 4879 3eb7 63b8 71b6
000000a0: 9432 34b6 1783 e8b6 143b 21b6 34fc a7b6
000000b0: aeef 9fb6 da82 b7b6 4353 68b6 4726 cbb6
000000c0: 976a 04b6 82a7 79b6 4ceb b5b6 fdf5 55b6
000000d0: 40a5 3eb6 d97c d8b6 e9c9 98b6 0aa4 b7b6
000000e0: 0fdd 92b6 dbc0 72b6 f697 7cb6 9dd0 b4b6
000000f0: 0e9b 1eb6 5863 adb6 d68f acb6 386d 0fb7
-0.0003181919 -0.00015495288 -0.00016596417 -0.00017768297 -0.00031505967 -0.00018682874 -0.00018948603 -0.00016579691
-0.00014606064 -0.00017678422 -0.0002322818 -1.3227235 -0.00018198605 -1.3482033 -0.0001692164 -0.00015972179
-0.00021258676 -0.00018809045 -0.00024761047 -0.00014018061 -0.00018529342 -0.00019499409 -0.00015810307 -0.0002162352
-0.00015635144 -0.0001936242 -0.00026876034 -0.00018002467 -0.00018121977 -0.00027274236 -0.00024006279 -0.00020219768
-3.7346672e-06 -4.499946e-06 -2.6619302e-06 -5.4165225e-06 -3.6617037e-06 -5.973156e-06 -1.13531205e-05 -3.6019126e-06
-2.685153e-06 -6.9293997e-06 -2.4025258e-06 -5.006348e-06 -4.7664716e-06 -5.469058e-06 -3.4619159e-06 -6.0543275e-06
-1.9731576e-06 -3.7201394e-06 -5.4216125e-06 -3.1882657e-06 -2.8408394e-06 -6.451836e-06 -4.5534584e-06 -5.4729217e-06
-4.3768737e-06 -3.6173067e-06 -3.763938e-06 -5.388704e-06 -2.3634088e-06 -5.167367e-06 -5.142744e-06 -8.548894e-06

superres_head/resnet_backbone/level_0/batch_normalization_20/FusedBatchNormV3 f4 [32]
00000000: eb5e 8041 0273 3341 de8f 4f41 1224 8241
00000010: bf8e 8241 5e29 f640 2ee4 4d41 a6b5 0c41
00000020: 2291 4741 781f 7a41 a0e8 ca40 e6ba e940
00000030: cc7a 8b41 c484 1c41 6ead 4241 5158 7140
00000040: 8391 c941 6c53 1c42 2edf ce41 0aa7 9241
00000050: 06d5 8641 f11b 1742 050b 7c41 7ae3 cc41
00000060: 30eb 5e42 8ae5 f441 eb40 0c42 1e14 d441
00000070: aa81 8c41 eabc cc41 e41d 9841 8452 ea41
16.046347 11.215578 12.972624 16.267612 16.3197 7.6925497 12.868208 8.794348
12.472933 15.632683 6.3408966 7.3040648 17.43496 9.7824135 12.167341 3.7710154
25.19605 39.081467 25.858974 18.331562 16.854015 37.777287 15.75269 25.611073
55.729675 30.61208 35.063396 26.509823 17.563313 25.592243 19.014595 29.29029

superres_head/resnet_backbone/level_0/batch_normalization_20/FusedBatchNormV31 f4 [32]
00000000: 292e afbb 8295 a7be 4e87 8ebb 9a67 b5bb
00000010: 1c09 e6bb 0d6b 09bf 8a04 74bb bc84 80be
00000020: ae6a 79bb 529b b9bb 7b2c 86bf fefe 0dbf
00000030: 316e c9bb 9625 8bbf 5f85 3dbf 5120 d2bf
00000040: 8cc0 06bc 7731 67bc f997 0cbc 6d22 7ebb
00000050: 4d0d 9cbb 2bc9 70bc 21a3 55bb 481c efbb
00000060: 3017 a5bc d961 31bc 8333 e4bb 4f79 17bc
00000070: 2b35 d4bb 2ab0 e5bb e30e 59bb df70 3cbc
-0.005346079 -0.32731253 -0.0043496257 -0.005536032 -0.007020129 -0.5367897 -0.003723415 -0.25101268
-0.003805797 -0.0056642676 -1.0482324 -0.5546721 -0.006147169 -1.0870845 -0.74031633 -1.6416112
-0.008224618 -0.014110914 -0.008581155 -0.0038777844 -0.0047623278 -0.0146964 -0.0032598453 -0.0072970726
-0.020152658 -0.010826551 -0.0069641485 -0.009245231 -0.0064760647 -0.007009526 -0.0033120445 -0.01150152

superres_head/resnet_backbone/level_0/batch_normalization_19/FusedBatchNormV3 f4 [64]
00000000: 131d 8741 e090 9f41 fed6 8640 a7fe 3841
00000010: b311 f041 8589 f740 6b36 bb41 d6e4 bc41
00000020: 859c 9e40 2b3a c041 9ac0 dc41 7254 bc40
00000030: 6035 d741 c85d 7b40 5cc3 9d41 7bc1 a741
00000040: a5f8 d341 f48c d941 cca5 0242 9d77 ac41
00000050: 68e3 c941 0f93 e741 9fd0 5342 e62b c241
00000060: 7121 c041 fa19 0e42 a182 0142 0e2a 9440
00000070: ffa7 c641 34ac 1241 36b2 c141 62a5 ce41
00000080: b1b5 ac41 03b9 eb41 4610 b541 adec 2442
00000090: 20a1 b341 8afa ff41 f42a a541 b023 2842
000000a0: 2dcb ff40 fafc dc41 771d e141 5380 b541
000000b0: 382b a841 6d6b 7c41 6107 1b41 fd7d 0442
000000c0: 73b2 b341 301a 1141 7184 8841 30e3 8f41
000000d0: e274 7f40 c35d 6441 d9bd 9441 86d9 cb41
000000e0: d5de bd41 0901 bb41 57fb f340 487a 4f41
000000f0: 38d0 b441 5578 b541 e414 b741 997f 9d41
16.889196 19.94574 4.213744 11.562171 30.008642 7.735537 23.401571 23.611736
4.9566064 24.028402 27.594044 5.8853083 26.901062 3.927599 19.72039 20.969473
26.496408 27.193825 32.66191 21.558405 25.236038 28.946806 52.95373 24.271435
24.016329 35.525368 32.377567 4.6301336 24.83203 9.167042 24.212017 25.830753
21.588717 29.465338 22.632946 41.23113 22.453674 31.997334 20.645973 42.03485
7.9935517 27.623524 28.139387 22.687658 21.021103 15.776227 9.6893015 33.123035
22.462133 9.068893 17.064669 17.985931 3.991509 14.272891 18.5927 25.481213
23.733805 23.375505 7.624431 12.967354 22.60167 22.683756 22.8852 19.687304

superres_head/resnet_backbone/level_0/batch_normalization_19/FusedBatchNormV31 f4 [64]
00000000: 96eb 7db9 0027 a4b9 1808 f1bf f0aa dfbf
00000010: ab95 02ba 11d9 29c0 dc7b bfb9 5e71 c4b9
00000020: 5dff 10c0 0f6e bbb9 4227 38bf 9ce3 febf
00000030: 420a dbb9 b897 0ac0 932b 99b9 2439 aab9
00000040: 336e cab9 a6cf ddb9 64aa 9fbf dca2 93b9
00000050: b332 c0b9 5457 deb9 ab51 89ba b92e bab9
00000060: 88f5 c4b9 d0ad 1bba ede2 fab9 d9a2 62c0
00000070: 69a3 bdb9 a00a 06c0 63f2 b3b9 54de cfb9
00000080: ff75 60b9 3fc9 a7b9 23d7 84b9 de94 0cba
00000090: e779 97b9 f2d6 bfb9 45ea 78b9 3d76 ffb9
000000a0: 204b 40c0 bd34 afb9 3b09 abb9 3bea 9ab9
000000b0: 14f4 7db9 4586 2dc0 4917 c1bf a473 c3b9
000000c0: a50d 53b9 3a08 20c0 ec7f 2eb9 262b 55b9
000000d0: 99c9 92bf 5c60 edbf 634c 4cb9 429c b9bf
000000e0: 6661 86b9 10b0 7ab9 ec7b 42c0 783d edb8
000000f0: 766e 89b9 ff16 65b9 f8d4 6cb9 1091 a0bf
-0.00024215723 -0.00031309575 -1.8830595 -1.7474041 -0.0004981409 -2.6538737 -0.0003652264 -0.00037468498
-2.2655861 -0.0003574942 -0.719349 -1.9913211 -0.00041778578 -2.1655102 -0.000292149 -0.000324675
-0.00038610547 -0.00042307115 -1.2473874 -0.00028159365 -0.00036658868 -0.00042408204 -0.001047661 -0.00035511496
-0.00037566968 -0.0005938681 -0.0004785279 -3.5411894 -0.0003617064 -2.0943985 -0.00034322133 -0.00039647764
-0.00021406262 -0.00032002662 -0.0002533729 -0.0005362759 -0.0002889179 -0.00036590506 -0.00023738395 -0.00048725485
-3.0045853 -0.00033417894 -0.0003262254 -0.00029547684 -0.00024218886 -2.7113202 -1.5085231 -0.00037279457
-0.00020127611 -2.500502 -0.00016641588 -0.00020329337 -1.1467773 -1.8545032 -0.00019483412 -1.4500811
-0.0002563104 -0.00023907446 -3.0388136 -0.0001131249 -0.00026212976 -0.00021847709 -0.00022586051 -1.254427

superres_head/resnet_backbone/level_0/batch_normalization_18/FusedBatchNormV3 f4 [32]
00000000: e4ff 9a40 36e8 9b40 a68b 9a40 011d 453f
00000010: bd8e 9a40 b544 8e3f 980c fa3e 0d59 e43e
00000020: 0fd8 9940 6b32 ad3f 9ca4 0c3f ed53 9640
00000030: 3d09 d93e 35e7 203f 854d 9940 ca5e 293f
00000040: 6c64 5840 1452 4b40 e3f4 ab3e 9ec2 d33e
00000050: 82a1 4540 0163 5040 1177 3240 6934 063f
00000060: 8ded 343f fff6 e93e ca66 bf3e f3fd 4b40
00000070: 8e76 ad3e 6584 4a40 0306 0c3f 1285 4940
4.8437366 4.872096 4.829547 0.7699738 4.829924 1.1114718 0.48837733 0.4459919
4.8076243 1.3531011 0.54938674 4.697745 0.4238986 0.62852794 4.790713 0.6616026
3.3811293 3.1768847 0.3358527 0.4135942 3.0879827 3.2560427 2.7885172 0.5242372
0.70674974 0.45696256 0.3738311 3.1873748 0.33879513 3.1643307 0.54696673 3.148747

superres_head/resnet_backbone/level_0/batch_normalization_18/FusedBatchNormV31 f4 [32]
00000000: b1cf 14bb 6721 35bb 16bd fdba a37b 05c0
00000010: 025e 03bb 779e dcbe 7448 42bf 9f40 d5be
00000020: d2b1 edba e626 cebf a6b3 c2bf 6bb4 c9ba
00000030: bb46 0dbf 87fa cbbf b0b5 eaba b25b 0ac0
00000040: 31f6 23bf b6be 79ba 6174 67bf 5c28 a4bf
00000050: ba66 82ba 7fc4 aaba 4126 51bf fb29 d2bf
00000060: 6b30 fabe f2b8 91bf ab2b a7bf b1f7 a4ba
00000070: 6e22 2bbf 2785 76ba 147d 00bf 6362 e2ba
-0.0022706802 -0.0027638318 -0.001935872 -2.0856712 -0.0020045047 -0.4308965 -0.75891805 -0.41650864
-0.001813466 -1.6105621 -1.5211074 -0.0015388852 -0.5518605 -1.593583 -0.001790693 -2.1618466
-0.64047533 -0.00095270143 -0.90411955 -1.2824817 -0.0009948828 -0.0013028531 -0.81698996 -1.6419061
-0.48865065 -1.1384566 -1.3060201 -0.0012586025 -0.6684941 -0.00094039965 -0.50190854 -0.0017271753

resnet_backbone/level_0/batch_normalization_9/FusedBatchNormV3 f4 [64]
00000000: 56d7 b540 55e4 2341 6989 133b 5057 1b40
00000010: 2be5 d740 1331 2241 1c98 f1b8 b3ca a840
00000020: 7afc 7fb9 3209 a340 2ce2 0c40 f81d 2341
00000030: 738a a340 30ff 4440 f1d8 d13f 0f59 8637
00000040: 0def 1541 6d44 2740 3866 1941 3dcf 1941
00000050: 0065 1041 8396 7140 0637 1041 daf6 5140
00000060: 6cea 9140 1396 9041 5b40 7c41 d4c6 8f40
00000070: 4171 1441 5054 5541 106f 2841 b6a0 503a
00000080: 0525 0e40 63ad cf3f 1a26 87b8 90f4 b63f
00000090: da16 c23f 4a8e 6d40 9d03 b940 f58b aa3f
000000a0: f1ef b13f 0932 cb3f e998 3c3a f54c 923f
000000b0: fecc cf3f 852a 4340 7b37 9a3f 2f01 a33f
000000c0: a26f b640 9cbb ad40 a05e aa3f 8564 da40
000000d0: dda3 9d40 417d 953f 0416 d43e 913a ed40
000000e0: d6cb b23f 3957 7740 2cf1 ad3f b9b1 2040
000000f0: 524e e040 213d 9640 11a1 953f 4cb0 0041
5.682536 10.243245 0.0022512323 2.4272041 6.7467246 10.136981 -0.00011520108 5.2747436
-0.0002441275 5.0948725 2.2013044 10.194817 5.1106505 3.0780754 1.639433 1.6015516e-05
9.370862 2.6135514 9.587456 9.613095 9.024658 3.7748115 9.013433 3.2806916
4.559866 18.073278 15.765712 4.493021 9.27765 13.333084 10.527115 0.0007958518
2.2210095 1.6224788 -6.4443986e-05 1.4293385 1.5163224 3.7118096 5.781691 1.3323961
1.3901349 1.5874645 0.0007194416 1.1429735 1.6234434 3.0494702 1.2048181 1.2734736
5.701127 5.4291515 1.3310127 6.8247705 4.926253 1.167885 0.41423047 7.413399
1.3968456 3.8646986 1.3589225 2.5108473 7.0095606 4.694962 1.1689779 8.043041

resnet_backbone/level_0/batch_normalization_9/FusedBatchNormV31 f4 [64]
00000000: ba5c fcbe 0654 05bf 820f 3bb2 47d2 c9be
00000010: 1e04 08bf edb2 21bf 9a00 e52f b804 a7be
00000020: 68c4 5b30 ddb7 21bf 62f0 14bf 3243 24bf
00000030: b724 18bf f90c 80be 8306 e5b6 ef25 61ae
00000040: a48b 43bf 09f2 43bf 0c47 2fbf fd53 3ebf
00000050: 1153 05bf c3e5 ddbe 28cc ddbe 89c2 77be
00000060: f799 61be 061c 89bf 6752 82bf e902 79be
00000070: beda 15bf 8e5c 6cbf 951e 4cbf 5c08 2ab1
00000080: 766d 25bf 1bd2 d7be 1933 a22f e8a8 60bf
00000090: 5490 0dbf 6042 80bf c8ae 0bbf 9a06 14bf
000000a0: 3a59 54be 41af 38bf 5d17 2eb2 35f5 7cbf
000000b0: 57b0 17bf c393 58bf 75b9 19bf d221 20bf
000000c0: 574a 3bbf 7203 2abf daa0 46bf cec8 19bf
000000d0: ec17 44bf 3bfd 45bf 3901 75bf 8932 15bf
000000e0: b333 cfbe ff8b 17bf 0db7 26bf cf34 27bf
000000f0: 7449 58bf 8eb2 ddbe 7f8a 66bf 9f08 56bf
-0.49289495 -0.52081335 -1.0888359e-08 -0.3941824 -0.5313128 -0.63163644 4.1655285e-10 -0.32620788
7.9950846e-10 -0.6317118 -0.58179295 -0.6416503 -0.5943102 -0.25009897 -6.82549e-06 -5.119277e-11
-0.7638495 -0.7654119 -0.68467784 -0.74346906 -0.52079874 -0.43339357 -0.4331982 -0.24195303
-0.22031389 -1.0711677 -1.0181397 -0.24317516 -0.585369 -0.9232873 -0.79734164 -2.4743008e-09
-0.6462015 -0.42152485 2.9503935e-10 -0.8775773 -0.5529835 -1.0020256 -0.5456357 -0.57822573
-0.20737162 -0.72142416 -1.0133445e-08 -0.98811656 -0.5925345 -0.84600466 -0.6004861 -0.62551606
-0.7316031 -0.6641151 -0.7758919 -0.6007203 -0.76599 -0.77339524 -0.9570499 -0.58280236
-0.4046913 -0.5919799 -0.65123063 -0.65314955 -0.8448708 -0.4330029 -0.9005508 -0.83606905

resnet_backbone/level_0/batch_normalization_8/FusedBatchNormV3 f4 [32]
00000000: bafc 9f3f b876 1041 094e c040 c5bb 3041
00000010: e4aa 9541 03ef 5b41 2708 1d41 d6ed b640
00000020: cf8d 4441 54fe ab3f 84b5 ec40 155e 0f41
00000030: 80f6 5041 f5ba 6a40 805f ec40 1420 bf40
00000040: 0964 c040 8d8e 0740 5d0d 0d40 06c5 2741
00000050: e595 f940 6f79 1140 8d70 d13f 9fa3 e440
00000060: 8911 2441 e320 c140 1450 ed40 a5a0 2241
00000070: edd6 0741 0b56 2a41 f8e5 1440 25c4 6540
1.2499001 9.028984 6.009526 11.045842 18.708443 13.745852 9.81449 5.7165327
12.284621 1.343699 7.3971577 8.960469 13.060181 3.667661 7.3866577 5.972666
6.0122113 2.1180756 2.2039406 10.485601 7.7995477 2.2730367 1.6362473 7.1449733
10.254281 6.0352645 7.416025 10.16422 8.489972 10.646007 2.3265362 3.5900967

resnet_backbone/level_0/batch_normalization_8/FusedBatchNormV31 f4 [32]
00000000: 3cca 4bbf 5f30 d0be 5718 32b9 a67f fbbe
00000010: 399a 6dbe 5004 84be 881e e0be dabc f5be
00000020: c00e bdbe 9a3f 26b8 532e 92be a180 e2be
00000030: 31cc a3be cf11 bfbe 6e01 40be 564d 0abf
00000040: 2e76 12bf 2f16 91bf 387c f8be c9d9 28bf
00000050: 0b81 27bf 8aee a3bf f515 5abf 8cdd 87be
00000060: 6ff6 4ebf a550 c9be cf14 76bf 5b7c 8cbf
00000070: edeb 57bf f626 95be 928e 1abf 24c7 d7be
-0.7960546 -0.40661904 -0.0001698447 -0.49120826 -0.23203363 -0.2578454 -0.43773293 -0.47995645
-0.36925316 -3.9636718e-05 -0.28550968 -0.4423876 -0.31991723 -0.37318274 -0.18750545 -0.54024255
-0.5721158 -1.1334895 -0.4853227 -0.65957314 -0.6543128 -1.2807171 -0.85189754 -0.26536214
-0.8084478 -0.3931934 -0.961255 -1.097545 -0.8434437 -0.29131287 -0.60373795 -0.4214412

resnet_backbone/level_0/batch_normalization_7/FusedBatchNormV3 f4 [64]
00000000: 3cd3 b2b9 b8d6 413a 9f92 523a 30bf 8db9
00000010: a1fe bd40 7b83 efb9 c4bf 8a40 0c18 5d3f
00000020: 0896 a73e 7ec3 853f 0c73 1eb9 6313 cb3f
00000030: 604d ac3a 9f5b 6240 a7af 7f3e 40d7 123e
00000040: 6e41 f440 d7a3 a5ba 3b67 633f b9f1 1540
00000050: d496 d33f b2ee 0041 cee2 b13f 8676 c13f
00000060: c67a 8840 542b da40 bbd4 0240 0861 a53f
00000070: eef3 8c40 f7c8 ce40 2e01 db40 bc3e df40
00000080: fa0f ac40 4526 f240 c502 9b3f 0c99 9a40
00000090: 9839 8e40 a225 823f f1b3 5040 89bf a53f
000000a0: 5ff1 6cba fccb 3440 0fe6 6940 59f8 b23f
000000b0: 0f8a df3f f6dd 0a40 38ea 513f 4661 8040
000000c0: fd90 ae40 a1a4 d53e 6a3b 9c40 5da7 dc40
000000d0: 7e44 4140 4c88 3440 4fe4 3140 189f eb40
000000e0: 40cd 2d40 8cd2 a23f 98ef 733f 51da 5440
000000f0: 0533 a940 2d96 22ba 037c 9e3a 04b8 be3f
-0.00034108188 0.00073943613 0.00080327125 -0.00027036062 5.9373326 -0.00045683593 4.335909 0.8636482
0.32731652 1.0450284 -0.00015110912 1.5865291 0.0013145618 3.536842 0.2496935 0.14339924
7.632987 -0.0012637329 0.8882939 2.3428786 1.6530404 8.058275 1.389734 1.5114295
4.264987 6.817789 2.044234 1.2920237 4.4047766 6.462032 6.843894 6.976408
5.3769503 7.5671716 1.211022 4.8311825 4.4445305 1.0167735 3.2609828 1.2949077
-0.00090386526 2.8249502 3.6546667 1.398204 1.7464007 2.1697974 0.81998014 4.011874
5.455199 0.41727164 4.8822527 6.89543 3.0198054 2.820819 2.7795599 7.3631706
2.7156525 1.2720504 0.95287466 3.325825 5.287478 -0.00062021875 0.0012091402 1.4899907

resnet_backbone/level_0/batch_normalization_7/FusedBatchNormV31 f4 [64]
00000000: 38a8 1131 a2dd 9fb1 a450 fbb1 56f8 3931
00000010: 6886 f5be c2f2 8c31 b91a a7be 0385 1ebf
00000020: 89ca 3cbf 0e70 84bf dd1d 6130 1def 52be
00000030: f6ec 13b2 667d 16b8 c23d ecbe 7be1 9fb5
00000040: 6aed 27bf f2dc 8332 892d fbbe 7dc5 15bf
00000050: 9e2f 02be e888 2fbf 8b60 e8be c6e7 4db7
00000060: 56fd 6abf a3eb 37bf f4f2 85be 542c 5ebf
00000070: d8f1 84bf 6e8e 09bf eb02 44bf 4410 36bf
00000080: dd4c 3bbf 59bb 05bf 07b2 9bbe 0be7 9bbe
00000090: d5cd 09bf 9102 8cbf b724 91be 388d 49bf
000000a0: bac2 0532 6a49 09bf 9d8a 43bf d346 15bf
000000b0: 0e7c 37bf e87d e6be 41ae 81bf 201a 09bf
000000c0: edf2 dfbe 5c86 afbe eb4a 3ab8 afd4 09bf
000000d0: 676b 57bf 4606 24bf ea72 4abf 55a6 5cbf
000000e0: fa11 5ebf 3afa 29bf 96bf 5abf 16e3 57bf
000000f0: a36f 53bf e1ff ad31 84eb 3db2 a19f 7abf
2.1195898e-09 -4.6527058e-09 -7.3142292e-09 2.7062206e-09 -0.47954106 4.1021346e-09 -0.32637575 -0.6192171
-0.73746544 -1.0346696 8.189696e-10 -0.20599027 -8.610405e-09 -3.5879573e-05 -0.46140867 -1.1912047e-06
-0.6559664 1.5350881e-08 -0.49058178 -0.5850447 -0.12713477 -0.6856828 -0.45386156 -1.2272916e-05
-0.9179281 -0.7184393 -0.2616192 -0.8678639 -1.0386305 -0.53732955 -0.7656695 -0.7111857
-0.7316416 -0.52238995 -0.30409262 -0.3044971 -0.538297 -1.0938283 -0.28348324 -0.7873111
7.785895e-09 -0.53627646 -0.7638338 -0.58311194 -0.7167367 -0.45017934 -1.0131303 -0.5355549
-0.43740025 -0.34282196 -4.441563e-05 -0.53840154 -0.8414826 -0.6407207 -0.79081595 -0.861913
-0.8674618 -0.6639744 -0.85448587 -0.8433088 -0.8259222 5.0640527e-09 -1.1054798e-08 -0.97899824

resnet_backbone/level_0/batch_normalization_6/FusedBatchNormV3 f4 [32]
00000000: dcc6 3141 b0c0 1640 2933 0941 80c4 843b
00000010: ed21 7940 c287 1641 0831 e840 106c 7c41
00000020: 0231 af40 1794 2741 6b90 5341 c884 b541
00000030: dcc9 a13f a13b 3440 1dd0 b73f e9db 4b40
00000040: a138 c540 795c 4a41 763d f441 3694 9840
00000050: 0c13 d73f 42ff 8341 ee34 3141 518d 5f41
00000060: 95d2 9f40 9711 2641 5d76 2940 e958 0941
00000070: 585f 713f 6034 8140 e7aa 2741 dfc4 a240
11.11105 2.3555107 8.57499 0.004051745 3.8926957 9.408144 7.2559853 15.776382
5.4747324 10.473655 13.222758 22.689835 1.2639728 2.8161395 1.4360386 3.1852973
6.1631627 12.647576 30.53001 4.768092 1.6802688 16.499638 11.075422 13.972001
4.994456 10.379294 2.6478493 8.584207 0.9428611 4.0376434 10.479224 5.086532

resnet_backbone/level_0/batch_normalization_6/FusedBatchNormV31 f4 [32]
00000000: 26f5 24bf 105c bbbf 2b02 10bf ea29 d3b3
00000010: e149 30bf 14a7 f7be a6b2 b5be c736 11bf
00000020: c5ca 76bf 0fdc bdbe 4674 61be 84fe dcbe
00000030: 6cdf eebe d437 b2bf 38dd 7ebf 4904 24bf
00000040: 8252 3ebf 25ad 2fbf 6246 00be 721c 5cbf
00000050: 2448 55bf addf 0fbf 0898 a4be 2a14 5cbf
00000060: d82f 91be 5268 85be 99c4 6abf 04d8 80be
00000070: 0f1a 10c0 0d4e 47bf 579f 11bf 558e cfbe
-0.64436567 -1.463747 -0.5625331 -9.833077e-08 -0.6886273 -0.48369658 -0.3548786 -0.5672421
-0.9640315 -0.37081954 -0.22017011 -0.4316293 -0.46654832 -1.3923287 -0.99556303 -0.6406904
-0.74344647 -0.6862357 -0.12526849 -0.85980904 -0.833132 -0.5620068 -0.3214724 -0.8596827
-0.28356814 -0.26056153 -0.91706234 -0.25164807 -2.2515905 -0.7785347 -0.5688376 -0.40538278

resnet_backbone/level_0/batch_normalization_5/FusedBatchNormV3 f4 [64]
00000000: 5fa1 923f 88fa 1540 93e1 2b40 5ba8 4740
00000010: 28bf 933f c084 2e40 870a a23a 95e7 8d3f
00000020: 4efc aa40 4ffd 2937 0c21 b840 71ae 4140
00000030: 2ca8 4140 8022 78ba 5c8f f73f 5bf4 3c40
00000040: 221a ad40 83d5 8d40 4683 8840 f353 e240
00000050: bc4c b23f c9ba 5840 2023 7540 5dd0 a440
00000060: b448 dd3f a87f 8540 f064 ed40 8f35 c540
00000070: 3b2c 2a3f 24d6 c140 2203 a640 3be1 953f
00000080: 9de9 3740 a103 0c41 aacb 2d41 cb9a 0041
00000090: ec9f 4240 9a5d eb40 4cf4 fa40 0578 0f41
000000a0: 8c1a 2340 b0be 0a41 67ec a240 ca16 dd40
000000b0: fb06 e440 280d 3541 3398 3841 a2aa 0041
000000c0: 61d8 b240 b6e2 9740 fc8a de40 cbd0 0e41
000000d0: f78a 5d41 7db2 1e41 b215 8a40 094b 9140
000000e0: fb7b 5341 82e9 5540 49d3 0f40 f8bc e840
000000f0: 6301 4a41 439a 8341 4554 5940 0f1c 0141
1.1455497 2.3434162 2.685643 3.1196506 1.1542711 2.7268524 0.0012362757 1.1086298
5.343299 1.0132163e-05 5.754034 3.026272 3.0258894 -0.000946559 1.9340625 2.9524143
5.40944 4.4323134 4.2660246 7.0727477 1.3929667 3.3864005 3.8302689 5.150435
1.7287812 4.171833 7.4185715 6.162788 0.6647374 6.05739 5.1878824 1.170936
2.8736336 8.750886 10.862223 8.037791 3.0410109 7.355176 7.8423214 8.966802
2.5484953 8.671555 5.0913577 6.909032 7.125852 11.315712 11.537158 8.041658
5.5889134 4.7464247 6.954466 8.925975 13.846427 9.918576 4.3151484 4.5404096
13.217769 3.3423772 2.2472708 7.2730675 12.625339 16.450323 3.3957684 8.06935

resnet_backbone/level_0/batch_normalization_5/FusedBatchNormV31 f4 [64]
00000000: 6dc0 42be 4e5b 37bf eb66 87bf a68f 1cbf
00000010: f1fa 31be edfe 3ebf dbc9 f8b1 881b 29be
00000020: 735f 34b8 3e4b f8b4 007b 22bf 0e41 60bf
00000030: 4133 5bbf a27b e731 fc13 14bf 6d5c 36bf
00000040: cd91 14bf 13d0 f3be d404 dabe 5aab 0cbf
00000050: 2a61 5ebf 4e5b bbbe aeb9 01bf d084 07bf
00000060: 3aeb 36bf 94ee 9ebe ceef 24bf e124 fcbe
00000070: bbb7 1bbf b8c3 03bf 18f7 19bf 0da0 92bf
00000080: 9404 2ebf 1813 0abf 3a6e 23bf 0174 21bf
00000090: 22e4 0ebf 05a8 49bf c2eb f2be 48b2 15bf
000000a0: dafa 17bf aa6f 8dbf 355a 19bf 2c0b 3abc
000000b0: b382 36bf f90f 06bf f8a8 90bf 0929 3ebf
000000c0: a8ae 33bf e07e 96bf 1dda 00bf 5dee 89bf
000000d0: 0ab5 4ebf c60a 6fbf a397 1cbf 828f 23bf
000000e0: 5802 bfbf 5f38 b4bf f163 2fbf 6f3c 05bf
000000f0: fc9a 5abf d706 3cbf dd0e 9abf cb0f 54bf
-0.19018717 -0.71623695 -1.0578283 -0.6115669 -0.17380883 -0.74607736 -7.2406983e-09 -0.16514409
-4.300424e-05 -4.6248346e-07 -0.63468933 -0.87599266 -0.8562508 6.7370403e-09 -0.57842994 -0.7123478
-0.58034974 -0.47619686 -0.4258181 -0.5494896 -0.8686701 -0.36593097 -0.5067395 -0.5293703
-0.7145268 -0.31041396 -0.6442841 -0.49246886 -0.60827225 -0.5147052 -0.6014266 -1.1455094
-0.67975736 -0.53935385 -0.6384007 -0.6306763 -0.55816853 -0.78772 -0.47445494 -0.5847516
-0.59367144 -1.1049702 -0.5990327 -0.011355203 -0.7129318 -0.5236812 -1.1301565 -0.74281365
-0.7018838 -1.1757469 -0.50332814 -1.0775868 -0.80744994 -0.93375814 -0.6116888 -0.6389085
-1.492259 -1.4079703 -0.68511873 -0.5204534 -0.8539274 -0.73447937 -1.2035786 -0.828366

resnet_backbone/level_0/batch_normalization_4/FusedBatchNormV3 f4 [32]
00000000: 576c cf40 5b46 913f a002 a041 9cfb 4d41
00000010: fc19 3841 c50a ab41 297d 5a41 08e0 7840
00000020: 1590 7341 9b2d c040 19f2 8040 1222 9141
00000030: 6e01 b640 7bd7 1141 2df9 5cba 7387 9e41
00000040: 3dc1 0d40 e151 0540 36a2 5840 1af1 8540
00000050: 79b2 aa40 2dd3 dc3e 672d 0b40 9a7b db40
00000060: 20a4 d240 0782 5540 3b34 3041 b5f7 c740
00000070: f99e bb40 c30a 0940 df0d 843f 5f29 953f
6.481975 1.1349596 20.001282 12.873928 11.506344 21.380259 13.655557 3.8886738
15.222676 6.005567 4.029553 18.141636 5.6876745 9.115108 -0.0008429464 19.816137
2.2149193 2.0831225 3.3849006 4.1856813 5.334286 0.43129864 2.1746461 6.858838
6.582535 3.3360612 11.012752 6.2489877 5.863156 2.1412818 1.0316733 1.165325

resnet_backbone/level_0/batch_normalization_4/FusedBatchNormV31 f4 [32]
00000000: 94ff 50bf 759e a9bf 95d0 1ebf 1c7c 95be
00000010: f3d9 88bf 87f2 91be 44cf a6be 7bec f4be
00000020: f531 9abf bfb3 1bbf ca55 2ebf 8a67 38bf
00000030: 049f 10bf 41d8 e3be e11f 0d33 93b9 80bf
00000040: 9c34 3abe a8cd b5be 9f2c 91be 0ea3 69be
00000050: e174 89be 177c fdbe 2ce2 4cbe 132e 04be
00000060: 2523 4abe f37f 96be 0b66 d9be af39 73be
00000070: 41a5 d1be 9e3a cabe e254 0fbf 8224 bfbe
-0.8163998 -1.3251482 -0.6203702 -0.2919625 -1.0691513 -0.28505346 -0.32580006 -0.4783667
-1.2046496 -0.60821146 -0.68099654 -0.7203299 -0.5649264 -0.44500926 3.2858114e-08 -1.0056633
-0.18184131 -0.35508466 -0.28354356 -0.22816107 -0.26846984 -0.49508736 -0.20008153 -0.12908201
-0.19739969 -0.29394493 -0.42460665 -0.23752473 -0.4094639 -0.39497846 -0.55988896 -0.3733254

resnet_backbone/level_0/batch_normalization_3/FusedBatchNormV3 f4 [64]
00000000: 002a 083b ab8f 7340 19cc 9d3f 8e30 7b3f
00000010: 66ea 393a 0a83 2f40 1c54 543f f1b9 0340
00000020: bf67 443f 1080 0140 37a9 0a3f 6f87 2240
00000030: 2b4f 1540 4d9a 0440 e8e3 8f3f 57c4 2940
00000040: 6382 a13f e120 1b40 7c67 9440 8aae 0740
00000050: 7ef8 aa3f 5c80 9340 7904 9f3f f5d1 033f
00000060: ed80 9439 e264 8e3f 5338 8840 fe57 1d40
00000070: 5ad8 6340 bd6e be3f f28c f53e 6379 b740
00000080: 1bc0 5440 b7f6 6d40 8c39 c040 62bf 8140
00000090: b73b 9d40 ea21 b040 d175 4a3f 90c9 ae3f
000000a0: 63c7 02b8 da2a 863f 101e 0040 1648 b240
000000b0: 0653 9a3f 6838 ee3f 8db8 783f b08e a5b8
000000c0: 562e 0641 c358 e840 a87a 9240 6566 9140
000000d0: b9a9 4540 5793 6d40 4deb 1740 b094 a340
000000e0: 247e 8740 23c9 e140 53cb c340 7f60 da40
000000f0: 040d 143f 3814 c03f 1c12 8540 3242 3040
0.0020776987 3.8056438 1.2327911 0.98120964 0.0007092118 2.742373 0.8294084 2.058224
0.76720804 2.0234413 0.5416445 2.5395162 2.332957 2.0719178 1.1241426 2.6526086
1.2617916 2.4238818 4.6376324 2.120028 1.3357084 4.609419 1.242324 0.51492244
0.00028324817 1.1124537 4.2568755 2.4584956 3.56008 1.4877545 0.47959095 5.7335677
3.3242252 3.7181833 6.007025 4.054612 4.9135394 5.50414 0.79086024 1.3655262
-3.118011e-05 1.0481827 2.0018349 5.5712996 1.2056587 1.8610964 0.971566 -7.894391e-05
8.3863125 7.260835 4.5774727 4.5437493 3.088484 3.712118 2.3737366 5.1119003
4.234148 7.055803 6.11857 6.8242793 0.5783236 1.500617 4.1584606 2.7540402

resnet_backbone/level_0/batch_normalization_3/FusedBatchNormV31 f4 [64]
00000000: 7e68 adb2 b9bd 07bf 6342 cdbe 1979 cfbe
00000010: cf66 abb1 b7d8 0abf 8645 92be 272d 32bf
00000020: fffd a6be bda8 febe 44db 9bbe 733d d9be
00000030: 411d 37bf 3294 12bf 7af3 0bbf 254c c5be
00000040: 82c9 45bf 9b10 18bf 297f aabe 8bdd 3dbe
00000050: bf3e 13bf daba bfbe 4066 61bf 4849 a7bf
00000060: d721 4eb1 965e 51bf 9682 0fbf 18da 4bbf
00000070: 2d70 e5be 64a9 f5be 157c 6cbf 8e43 bebe
00000080: ed54 22bf cc40 12bf 2b6f 14bf a31d 0abf
00000090: de7c 06bf ad28 3dbf 2862 91b6 b8f1 14bf
000000a0: 3533 b02e 7f5d 2dbf 5d96 12bf c12c e5be
000000b0: 2c1b 2bbf ca93 cebe 535c 12bf 08dd bc2f
000000c0: 4ee1 02bf 14e0 79bf 5d9f 68bf 1ef4 76bf
000000d0: 6871 0ebf 8432 4abf 6a4e 5bb7 1e06 28bf
000000e0: 5782 9bbf 7660 36bf 2983 29bf b657 3ebf
000000f0: d768 33bf e43e f9be 3ba6 96bf 8057 f4bf
-2.0187368e-08 -0.5302387 -0.40089712 -0.40522078 -4.988443e-09 -0.5423693 -0.28568667 -0.69600147
-0.3261566 -0.49738112 -0.30440724 -0.42429695 -0.7152901 -0.5725738 -0.5466839 -0.38534656
-0.772606 -0.5940034 -0.3330014 -0.18541543 -0.5751762 -0.37447244 -0.88046646 -1.3069239
-2.999618e-09 -0.8178495 -0.56058633 -0.7962966 -0.44812146 -0.47980797 -0.92376834 -0.37160915
-0.63410836 -0.5713012 -0.5798213 -0.5395147 -0.5253428 -0.7389019 -4.3327636e-06 -0.58181334
8.0126496e-11 -0.6772079 -0.57260686 -0.44760707 -0.66838336 -0.4034713 -0.57172126 3.4354053e-10
-0.5112504 -0.9760754 -0.9086817 -0.96466243 -0.55641794 -0.7898333 -1.3071674e-05 -0.65634334
-1.2149152 -0.7124094 -0.6621576 -0.74352586 -0.7008185 -0.48680794 -1.176948 -1.9089203

resnet_backbone/level_0/batch_normalization_2/FusedBatchNormV3 f4 [32]
00000000: 2fa8 263b 91bb 1541 01a2 6440 7397 b540
00000010: fcda 3c40 f997 3041 f8f6 0940 2822 3e41
00000020: 985d 1f40 d232 ac3f f5c9 2341 d514 8c41
00000030: bca2 9740 def0 2f41 ae92 7040 c817 c93f
00000040: ce6a a440 5854 8341 2046 f43f 512c 1740
00000050: c2ad 8340 21e4 f440 7774 9040 b2e4 1440
00000060: 0341 9640 ab0f e140 e258 df40 dd25 2641
00000070: 341a 3340 860b f23e 1918 0241 33e8 4f41
0.0025429835 9.358293 3.572388 5.6747375 2.9508657 11.037103 2.1556988 11.883339
2.4900875 1.3453009 10.236806 17.510172 4.738615 10.996305 3.7589526 1.5710382
5.1380377 16.416183 1.90839 2.3620799 4.1149607 7.652848 4.514217 2.3264585
4.695436 7.0331626 6.9796 10.384244 2.7984743 0.47274417 8.130883 12.994189

resnet_backbone/level_0/batch_normalization_2/FusedBatchNormV31 f4 [32]
00000000: 41dd c7b3 4957 69bf b4f5 38bf 248d f5bf
00000010: ab07 bdbe bdb1 66bf c93b 5bbf 7a2a 86bf
00000020: aa8b 73bf 861c b3bf 2a28 82bf 67fb 33bf
00000030: 8c5b dfbe 7dc9 96be 7df3 d2bf e06e 7fbf
00000040: 9a09 a4be f8dc 59bf a168 1bbf 84a4 89bf
00000050: 1236 12bf 493f adbe d659 02bf 35a4 b5be
00000060: 6670 2ebf ffb5 f3be 7b6d 2bbe b8fb 18bf
00000070: 993d 79bf 415e 14bf ee22 9dbe cf78 95be
-9.3069055e-08 -0.9114881 -0.72249913 -1.9183698 -0.36919913 -0.9011496 -0.856381 -1.0481713
-0.95134985 -1.399308 -1.0168507 -0.70305485 -0.43624532 -0.29450598 -1.6480557 -0.99778557
-0.32038575 -0.85102797 -0.60706526 -1.0753331 -0.57113755 -0.33837345 -0.5091833 -0.35476843
-0.68140256 -0.4759979 -0.16740982 -0.5975909 -0.97359616 -0.5795632 -0.30690712 -0.29193732

resnet_backbone/level_0/batch_normalization_11/FusedBatchNormV3 f4 [64]
00000000: e039 db37 4c32 89ba c379 afb9 518b 94ba
00000010: 5efa 6a3a 4f48 76b8 cf28 5739 1c93 0b3a
00000020: f584 9a3f 46a9 6d3f 6e66 873f 6d92 b8ba
00000030: 178d e63f 9a0c efb9 529a 953f 0f8c 91b9
00000040: 6983 3340 b91b 243a ed14 bdb9 39b0 1d40
00000050: 02d6 d13f 53e7 4039 6dcf 2541 c135 bab9
00000060: 8762 a23f 0fe5 bd3f e2ab de3f 1be5 243f
00000070: ac8c c439 7944 1539 ede0 2b3a 1dd3 d43a
00000080: ee13 1f41 b2d4 9040 bfdd 8f41 8a43 8c40
00000090: dfa1 fe3f 7eac fb40 c564 1841 81e9 4341
000000a0: 92e7 6c40 f100 e740 9bb8 4e41 e968 9f3f
000000b0: 4b56 3741 f718 3841 80be 4c41 4cad 0a41
000000c0: 72cb 4f41 fca7 7d41 7b5e 6c41 9cea 0841
000000d0: 90e9 f940 f86c 0f40 1062 3541 6c91 f240
000000e0: cb10 0741 9c7d 3f41 8403 cf40 e7ed 0341
000000f0: ed18 2341 8092 e740 31c5 0a41 c635 5241
2.6133785e-05 -0.001046726 -0.0003346932 -0.0011333023 0.0008963699 -5.8718313e-05 0.000205192 0.000532435
1.2071825 0.92836416 1.0578134 -0.0014081724 1.8011807 -0.0004559502 1.168772 -0.00027760907
2.8048956 0.00062602345 -0.0003606448 2.4638808 1.6393435 0.00018396722 10.363141 -0.00035516734
1.2686318 1.4835528 1.7396204 0.6441209 0.00037488842 0.00014235255 0.0006556649 0.0016237233
9.942366 4.525964 17.983274 4.3832445 1.9893149 7.864806 9.524602 12.244508
3.701634 7.218865 12.92007 1.2453891 11.458568 11.506095 12.796509 8.667309
12.987169 15.853512 14.7730665 8.557278 7.809761 2.241026 11.336441 7.5802517
8.4416 11.968166 6.469179 8.245582 10.193585 7.2366333 8.673142 13.138128

resnet_backbone/level_0/batch_normalization_11/FusedBatchNormV31 f4 [64]
00000000: 5c84 b3ae af80 7232 f6b3 9a31 f0bb 0932
00000010: b492 7eb2 97ad 0c30 1c34 2eb0 9497 dcb1
00000020: e21f d3be afe4 a4be 831d 51bf 7dfc be31
00000030: 01e2 57bf 00fd a231 b0c4 76bf 151e fa30
00000040: 5498 18bf 64ce 1cb1 0ff6 1f31 e44a 10bf
00000050: f8c2 a6be 448e ecb0 bded 36b9 22ce b431
00000060: cea9 47bf 4d92 45bf 517b 26bf 7d86 ddb6
00000070: 3eb3 51b1 0cf1 19b1 dd7c 10b2 e3dc d8b1
00000080: abb9 58bf 7e96 61bf f512 7ebf 7686 61bf
00000090: 0d8b 06bf 4aa4 38bf fcf8 7dbf 8d9f 72bf
000000a0: 9386 b3be b69f 13bf e8f9 54bf 0a54 83bf
000000b0: 4714 53bf 6e89 4dbf 57c1 30bf f662 8fbf
000000c0: c75f bcbf ad5a 89bf f0c0 2bbf 744d 6fbf
000000d0: 7335 5dbf 93f2 d2be 7a82 6ebf 29ce 85bf
000000e0: e565 37bf 489a 83bf 3f85 86bf 99ba 87bf
000000f0: c6d3 5bbf 3bd2 47bf fca9 88bf 0304 87bf
-8.163489e-11 1.4115513e-08 4.502449e-09 8.017182e-09 -1.4818102e-08 5.117839e-10 -6.3374883e-10 -6.420075e-09
-0.41235262 -0.32205722 -0.81685656 5.5584324e-09 -0.8432923 4.7435833e-09 -0.9639387 1.8198444e-09
-0.59607434 -2.2818307e-09 2.3277413e-09 -0.56364274 -0.32570624 -1.7211694e-09 -0.00017445437 5.262124e-09
-0.77993476 -0.7717636 -0.65031916 -6.6019697e-06 -3.051539e-09 -2.240145e-09 -8.410294e-09 -6.3115393e-09
-0.84658307 -0.8812026 -0.99247676 -0.88095796 -0.52555925 -0.72125685 -0.99208045 -0.94774705
-0.3506361 -0.57665575 -0.83193827 -1.0260022 -0.82452816 -0.80287826 -0.69045013 -1.1202075
-1.4716729 -1.0730797 -0.67091274 -0.9347756 -0.8640968 -0.41200694 -0.9316784 -1.045354
-0.71639854 -1.0281458 -1.0509413 -1.060382 -0.85870016 -0.7805516 -1.0676875 -1.0548099

resnet_backbone/level_0/batch_normalization_10/FusedBatchNormV3 f4 [32]
00000000: 63ac 7aba 4893 a940 978d dd40 197f 3540
00000010: 5077 ce40 db1d 2e40 8f16 c640 8431 f83f
00000020: 6f5a 8e3c 161b ee3f eb59 a240 62e2 ee40
00000030: 8c6c d540 d80e 0040 6f14 e03f 9517 ce3f
00000040: c77f ae40 060d 313f 20b2 5240 9dee bc40
00000050: 2c17 dd3f 0d4c 8140 32e0 1340 2d12 7a40
00000060: b8ca c340 d286 2e40 d106 c73f b8f1 3340
00000070: e881 6940 14b4 8640 5820 2140 cc7c 3a40
-0.0009562431 5.2992287 6.923534 2.8358824 6.4520645 2.7205722 6.1902537 1.9390111
0.017377106 1.8602016 5.0734763 7.4651346 6.6695004 2.000906 1.7506236 1.6100947
5.453098 0.691605 3.292122 5.9041276 1.7272696 4.0405335 2.3105588 3.9073594
6.118496 2.7269788 1.5548955 2.8116283 3.6485538 4.209482 2.517599 2.913867

resnet_backbone/level_0/batch_normalization_10/FusedBatchNormV31 f4 [32]
00000000: 4223 8632 827b 57bf 4d76 2dbe 4daf 2fbf
00000010: d526 12bf 4a33 c2be 6173 36b9 b0a4 4dbf
00000020: 498f 06b5 ef44 42bf e9f4 22bf 0669 68b9
00000030: 71fa 0abf 31b7 91be 4755 fabf a212 bdbf
00000040: 6159 0dbf 02c8 ccbe fe99 cfbd e3e0 babe
00000050: 89b0 a1be 5dc8 fbbe 0452 89be 3a7d a3be
00000060: 1ce5 25bf fdc7 b8be ed9f a9be 3188 aabe
00000070: 885d 9fbe 1b87 5bbe 0e1f cabe e26b 27be
1.5615687e-08 -0.8417283 -0.1693966 -0.6862686 -0.570905 -0.37929755 -0.00017399855 -0.8032942
-5.01274e-07 -0.75886434 -0.63654953 -0.00022164368 -0.54288393 -0.28460076 -1.9557275 -1.4771311
-0.55214506 -0.39996344 -0.101367936 -0.364997 -0.31579998 -0.49176303 -0.26820385 -0.31931478
-0.6480272 -0.3609008 -0.33129826 -0.3330703 -0.31126046 -0.21438257 -0.39476818 -0.16349748

resnet_backbone/level_0/batch_normalization_1/FusedBatchNormV3 f4 [64]
00000000: a935 a140 c234 6540 8e74 d83f 7eec b13f
00000010: f92d 5f40 02a8 8a3f 981e f13f 44c6 3940
00000020: 924a c23f df17 1541 1033 c540 d0f2 a240
00000030: 1559 7840 1812 2e40 fa53 8c40 c713 ea40
00000040: 7407 f140 129a f13e a19c c940 975d 1b41
00000050: 3607 8340 c086 3740 73a1 5240 510d c53e
00000060: 4ad6 af3f 8ef4 1041 bdf2 a140 e0a1 5440
00000070: d278 1841 25b3 6341 4de5 903f c186 f83c
00000080: b566 9541 a0d3 9640 9b05 f140 7c64 bb40
00000090: d62c cf40 e0e1 5b40 342c 8740 b3fd 1f41
000000a0: d885 6a40 8164 3341 caef 4141 87f9 8440
000000b0: da65 2b40 81cd 0941 7a1f 7841 8a8f aa40
000000c0: 4968 8a40 bdc4 8141 4e36 f83f a006 3140
000000d0: 0336 2840 b071 c440 dc38 7041 24fa 3341
000000e0: 4181 9140 2294 7440 ed5b 8440 a11b 4041
000000f0: 1bec 4840 b50a b040 42ef 6140 eef7 8c41
5.0378003 3.581345 1.691057 1.3900297 3.487181 1.0832522 1.8837461 2.9027262
1.5179007 9.318328 6.162483 5.09214 3.8804371 2.7198544 4.385251 7.314914
7.53216 0.4718786 6.3003697 9.710349 4.0946302 2.8675995 3.291104 0.38486722
1.3737271 9.059706 5.060881 3.32238 9.529497 14.231236 1.1319977 0.030337693
18.67515 4.713333 7.5319343 5.856016 6.474223 3.4356613 4.224146 9.999438
3.6644192 11.212037 12.121042 4.15546 2.6780915 8.612672 15.507685 5.330022
4.32523 16.221064 1.9391572 2.7660294 2.6282966 6.138878 15.013882 11.2485695
4.547028 3.8215413 4.1362214 12.006745 3.1394107 5.501307 3.5302281 17.62106

resnet_backbone/level_0/batch_normalization_1/FusedBatchNormV31 f4 [64]
00000000: 60fd 5cbf 0085 0dbf ce3a 21bf 05ee 4abf
00000010: 0e78 dbbe aa1e 71bf 28e0 99bf b21b 89be
00000020: 1f42 7bbf 3aeb 07bf e0eb 3bbf 8bf2 1ebf
00000030: ad1c 4bbf 9713 10bf 2fa8 83bf c815 14bf
00000040: c4c4 2db8 1a79 adbe 8003 5dbe 5d73 90be
00000050: 53b8 9fb7 7b88 13bf 0a5a 8abf 6836 54bf
00000060: c6b6 89bf bc59 d6be 85cc 4ebf 65c2 79bf
00000070: d9d5 d9be 2f60 febe 6398 3dbf af4a 6cb4
00000080: f3dc f0be 9511 3bbf e6b6 74bf 7f0b 54bf
00000090: 8040 48bf 9974 67bf ca73 65bf 2f26 16bf
000000a0: f710 79bf cf0c f1be 0f5c 4fbf ca08 44bf
000000b0: 9e60 51bf 9c3a 34bf 2687 74bf 0e6f 6bbf
000000c0: 552a 90bf b4b8 24bf 79a8 b5bf 24b2 98bf
000000d0: 2606 a4bf f6d2 28bf d3b6 5ebf 0e19 32bf
000000e0: e26e 40bf 210e 65bf b973 9abf 10ac e8be
000000f0: 223e 01bf f693 2abf d3b3 c6bf 56ad 3ebf
-0.8632412 -0.55281067 -0.62980354 -0.7926944 -0.42865032 -0.94187415 -1.2021532 -0.26778942
-0.9814777 -0.530933 -0.7340679 -0.6208884 -0.7934063 -0.5627989 -1.02857 -0.57845736
-4.1429666e-05 -0.33881456 -0.21583366 -0.28213015 -1.904011e-05 -0.5763013 -1.0808728 -0.8289552
-1.0758903 -0.41865337 -0.8078082 -0.9756225 -0.42545965 -0.49682757 -0.7406065 -2.2006382e-07
-0.4704357 -0.73073703 -0.9559158 -0.8283004 -0.7822342 -0.9041229 -0.89629805 -0.58652014
-0.9729151 -0.47080085 -0.80999845 -0.7657591 -0.8178805 -0.7040193 -0.9551872 -0.9196633
-1.1262919 -0.64344335 -1.4192039 -1.1929364 -1.2814376 -0.659469 -0.8699772 -0.6956948
-0.75169194 -0.89474684 -1.2066566 -0.45443773 -0.5048543 -0.6663202 -1.5523628 -0.7448324

resnet_backbone/level_0/batch_normalization/FusedBatchNormV3 f4 [32]
00000000: 60db 0040 9ce5 3abb cd66 2741 b55a b83f
00000010: 934b 9141 a4d7 6a40 82e8 8340 d307 06bb
00000020: 8faf d53f 991e c740 b428 db40 ad98 4341
00000030: 0830 803b f17a 2941 88b5 843a 0973 b841
00000040: 22b3 bb3f 450c 3940 2e27 f53f 965e 3040
00000050: 23c2 4341 19ad 8240 7eb5 1640 434b 3a41
00000060: eb79 2740 63cc bd3e 7e97 4840 eff7 783c
00000070: aa43 6f40 6f22 be3f 4e85 4340 b71f b03f
2.0133896 -0.0028518206 10.462598 1.4402682 18.161901 3.6694117 4.1221323 -0.002045144
1.6694201 6.222485 6.8487186 12.224774 0.003911976 10.592515 0.0010124901 23.05617
1.4664042 2.8913739 1.9152582 2.755773 12.234897 4.08363 2.3548274 11.643374
2.6168163 0.37069997 3.1342463 0.015195831 3.738505 1.4854258 3.0550113 1.3759679

resnet_backbone/level_0/batch_normalization/FusedBatchNormV31 f4 [32]
00000000: 3921 74be 8037 1333 5b18 8cbe a2c4 69bf
00000010: e6a8 87be a7fa fcbe 34d4 22be cd94 0a34
00000020: b8a4 28bf 53be 93be 6992 8bbe 6e33 08bf
00000030: f13a 0cb4 9271 8dbe a7f9 93b3 ba6d 09bf
00000040: 68cf d4bd a55a 57be 5954 c3bd 8b0d 64be
00000050: 44e5 68be 23b1 05be 744e 65bd a657 e0bd
00000060: 04e6 7ebe 99e4 79bf 92f1 c0be f024 65b5
00000070: 22a7 38be b4b2 16bf a83a 7abe b7a0 09bf
-0.23840798 3.427658e-08 -0.27362332 -0.9131566 -0.26496047 -0.49409983 -0.15901262 1.2906385e-07
-0.6587634 -0.28856143 -0.2726014 -0.53203475 -1.3059959e-07 -0.2762571 -6.8906324e-08 -0.53683054
-0.10391122 -0.21030672 -0.095375724 -0.22270791 -0.22743708 -0.13055854 -0.05598302 -0.109542176
-0.24892431 -0.9761444 -0.37684304 -8.53629e-07 -0.18032506 -0.5886643 -0.24436438 -0.53760856

superres_head/tf.compat.v1.nn.conv2d_5/Conv2D f4 [1, 1, 1, 32]
00000000: 0000 00bf df7b efbe bef7 debe 9d73 cebe
00000010: 7cef bdbe 5b6b adbe 3ae7 9cbe 1963 8cbe
00000020: f0bd 77be aeb5 56be 6cad 35be 2aa5 14be
00000030: d039 e7bd 4c29 a5bd 9031 46bd 1021 84bc
00000040: 0021 843c 8031 463d 4829 a53d d039 e73d
00000050: 28a5 143e 68ad 353e acb5 563e f0bd 773e
00000060: 1863 8c3e 38e7 9c3e 5a6b ad3e 7cef bd3e
00000070: 9c73 ce3e bcf7 de3e de7b ef3e 0000 003f
-0.5 -0.46774194 -0.43548387 -0.4032258 -0.37096775 -0.33870968 -0.30645162 -0.27419356
-0.24193549 -0.20967743 -0.17741936 -0.1451613 -0.11290324 -0.080645174 -0.04838711 -0.016129047
0.016129017 0.04838705 0.080645144 0.11290324 0.14516127 0.1774193 0.2096774 0.24193549
0.27419353 0.30645156 0.33870965 0.37096775 0.40322578 0.4354838 0.4677419 0.5

Conv2D f4 [32, 1, 1, 16]
00000000: 10a5 b436 217a a8ba 7b81 1f3a d219 c7b6
00000010: baf2 e1b6 16b8 d336 a150 50b9 28c8 b8b6
00000020: bc1e 6b39 c283 d3b6 4b3f bfbb 60cf c336
00000030: 35a4 27ba 9a28 cdb6 659c 2dba 304c edb6
00000040: 245a d336 67ab d33b 89d4 5d3c aa59 dab6
00000050: a820 c3b6 8ac4 c536 6040 703a 1e05 cdb6
00000060: e79b 0cbe 7acf c936 a938 b9bb dace b336
00000070: 2c1c 99bc 5835 ceb6 363a 8538 543a d5b6
00000080: 30ab cc36 677b 993b 4f02 9f3c 3e1f 0a37
00000090: a8a9 f836 4471 e336 003b 3535 cee6 c7b6
000000a0: a66c b4bd 2e55 dbb6 b2dd 84ba 930e 07b7
000000b0: 2924 4bb9 247c ea36 b7ed 1abd dcec e036
000000c0: f254 f7b6 abb2 333c 0d9d 12bc e458 1bb7
000000d0: 64a9 f336 6845 c9b6 c71b a939 cc2d a436
000000e0: 3d78 93bc bdc4 18b7 bde9 2c3e 4fd0 1b37
000000f0: 28f1 103b 8c41 1037 732b eb3e fc68 f036
00000100: 58eb aeb6 3677 163b 9f32 00ba 0c2e d9b6
00000110: 8675 f336 f26c dd36 30db f7b8 dc72 cdb6
00000120: eb39 263a 863b e8b6 2c18 9639 888f aa36
00000130: 0c36 7eba 1cac c1b6 e7bb f2b8 ee3b e236
00000140: 5214 d6b6 bf94 85be 6cbd 55b9 f49c c5b6
00000150: eafb c836 36c9 c236 3998 9e3f fe2c c2b6
00000160: 93ef 643b 7e83 aa36 278b 26b9 a8d5 cc36
00000170: 40ef beb5 6ea4 d2b6 f2ad 01ba cea3 bfb6
00000180: f6b2 d6b6 0475 cabb e4d2 5bb9 9eee e036
00000190: 7ae5 d9b6 38ea ba36 6cd1 81bc 42ee c7b6
000001a0: d7d5 ccb9 361a ac36 e34c a63c dc86 9536
000001b0: 7104 ca3d a0c7 aab6 be2d c93e 76d4 b1b6
000001c0: d4d0 c3b6 e5b4 383a d9b3 1639 08cf c6b6
000001d0: e89e beb6 d80f c236 378b 9939 66c4 c7b6
000001e0: 4063 9dbd 22cc c636 2a3e 3d39 b6ac d2b6
000001f0: 235f 7838 c20e c9b6 28a8 6439 88a4 c736
00000200: 66fc dcb6 c0b2 b836 c5f6 03b7 eeb5 d9b6
00000210: 1ee0 5b3a 8c61 c936 a868 c8b6 eadb f4ba
00000220: 5876 bcb6 48ee 83b9 148c e5b6 9c67 cbb6
00000230: caf4 e236 60c9 e4b6 7c1a cbb6 a6d2 cc36
00000240: 3e35 dab6 c649 04b7 cacb c936 1e8f c636
00000250: 104c c8be 527d be36 e28e fe36 15d5 99bd
00000260: e080 c736 f728 b23e 4238 dbb6 2c41 c336
00000270: c8f5 b5b6 0ec1 aab6 8c8d 9ab6 fe22 d7b6
00000280: 3c0a e7b6 0ea6 a336 487a ddb6 ac2c d9b6
00000290: 61e0 903b 1839 b9b6 a2fd 96b6 0605 033b
000002a0: b400 e6b6 a9bd eeb9 5631 b036 2a7f d9b6
000002b0: 2cfd e636 3a9e e736 88f1 fd36 9cce f2b6
000002c0: ced4 d5b6 52e4 d5b6 c68a bc36 a899 bb36
000002d0: ce26 cdba 1cd3 c5b6 30d5 e836 f489 843e
000002e0: f6ce e2b6 cc82 dc3a 86a6 d0b6 d291 b936
000002f0: a4be d636 90c5 a8b6 0a1a e736 dafa b136
00000300: 1eab a936 8c1d e5b6 480f d9b6 3eeb ae36
00000310: 7e0f 56bc 62d2 ca36 fec9 a2b6 8620 4dbb
00000320: 4a96 b136 9b7e b63a 56fb d9b6 46eb d3b6
00000330: 52af da36 c660 d036 64cd d736 3ae8 deb6
00000340: 868c ddb6 60e3 d1b6 1e64 e2b6 28ca aa36
00000350: f51c 1a39 7804 ce36 6287 c836 797e aa38
00000360: 744c c8b6 51d1 6f3a be87 c1b6 a603 e2b6
00000370: 8af3 e336 ee92 ecb6 c8f1 d536 c46f d036
00000380: 1ec7 06b7 dead fdb6 f88c feb6 9a37 fbb6
00000390: b298 b13b 460b c3b6 0802 c336 2f95 853c
000003a0: 6634 dcb6 6c7c c5bb fcc8 f7b6 4c7a e9b6
000003b0: f644 fb36 0eaf a836 0e85 e836 d295 b6b6
000003c0: 1e23 c236 0acf d7b6 c024 cc36 d6fe cf36
000003d0: b35c bf39 b8a1 cd36 5011 beb6 7998 8538
000003e0: e60a c836 3065 f737 ecec d1b6 12fe d536
000003f0: 4a87 cc36 8a73 c236 4c6d d436 ccc7 cbb6
5.383634e-06 -0.001285378 0.0006084663 -5.933668e-06 -6.7337796e-06 6.3097204e-06 -0.00019866462 -5.5069286e-06
0.00022422796 -6.3036287e-06 -0.0058364025 5.8355945e-06 -0.0006395013 -6.1142027e-06 -0.0006622731 -7.07202e-06
6.298784e-06 0.0064596417 0.013539442 -6.5073446e-06 -5.8152546e-06 5.8939377e-06 0.0009164866 -6.110072e-06
-0.13731347 6.0144203e-06 -0.0056525064 5.3586964e-06 -0.018690191 -6.1454884e-06 6.352777e-05 -6.354685e-06
6.0996026e-06 0.0046839 0.01941028 8.232715e-06 7.4107265e-06 6.778313e-06 6.751361e-07 -5.9575314e-06
-0.088097855 -6.536625e-06 -0.0010136871 -8.05002e-06 -0.0001937306 6.9881953e-06 -0.03782436 6.7032943e-06
-7.3710626e-06 0.010967891 -0.008948577 -9.259416e-06 7.261684e-06 -5.9983468e-06 0.00032254888 4.8929123e-06
-0.01800167 -9.105713e-06 0.16886039 9.287221e-06 0.0022116397 8.59833e-06 0.45931587 7.164779e-06
-5.2130017e-06 0.002295924 -0.00048903556 -6.4724645e-06 7.255646e-06 6.598996e-06 -0.00011818705 -6.1228475e-06
0.0006341028 -6.9210682e-06 0.0002862824 5.083104e-06 -0.00096973847 -5.7718844e-06 -0.00011574459 6.7423016e-06
-6.3800626e-06 -0.26090047 -0.00020383828 -5.8893293e-06 5.989791e-06 5.8050746e-06 1.2390205 -5.7868883e-06
0.0034932836 5.0817025e-06 -0.00015882832 6.1045466e-06 -1.4225734e-06 -6.27763e-06 -0.00049468793 -5.711313e-06
-6.398531e-06 -0.0061785 -0.0002096403 6.703499e-06 -6.4938185e-06 5.5704986e-06 -0.01584693 -5.958399e-06
-0.00039069235 5.129051e-06 0.020300334 4.4562457e-06 0.098641284 -5.089634e-06 0.3929271 -5.2997448e-06
-5.8357637e-06 0.00070459984 0.00014372113 -5.9249614e-06 -5.6809404e-06 5.783495e-06 0.00029286157 -5.953526e-06
-0.07684946 5.924624e-06 0.00018047602 -6.278594e-06 5.921641e-05 -5.991985e-06 0.00021806417 5.949816e-06
-6.585894e-06 5.5044366e-06 -7.865664e-06 -6.4882834e-06 0.0008387583 6.0016228e-06 -5.972648e-06 -0.0018681262
-5.6166136e-06 -0.000251638 -6.841039e-06 -6.061933e-06 6.763822e-06 -6.8183726e-06 -6.0529546e-06 6.1041965e-06
-6.5031045e-06 -7.88499e-06 6.013991e-06 5.917521e-06 -0.3912053 5.6770305e-06 7.5864236e-06 -0.07511345
5.945665e-06 0.3479688 -6.533258e-06 5.81904e-06 -5.422833e-06 -5.0888693e-06 -4.606036e-06 -6.411573e-06
-6.885528e-06 4.87711e-06 -6.6005487e-06 -6.4723044e-06 0.0044212793 -5.5200762e-06 -4.499875e-06 0.0019992008
-6.854616e-06 -0.00045536205 5.250952e-06 -6.481908e-06 6.8840072e-06 6.9027565e-06 7.5681055e-06 -7.2362145e-06
-6.3726684e-06 -6.3744747e-06 5.618992e-06 5.5909222e-06 -0.0015651823 -5.895634e-06 6.938957e-06 0.258865
-6.7594183e-06 0.0016823648 -6.218269e-06 5.5304054e-06 6.3998905e-06 -5.0297895e-06 6.887368e-06 5.304214e-06
5.056513e-06 -6.8281715e-06 -6.468883e-06 5.21299e-06 -0.013065217 6.044561e-06 -4.851491e-06 -0.0031299903
5.292507e-06 0.0013923229 -6.4963633e-06 -6.3156795e-06 6.5173163e-06 6.210149e-06 6.43141e-06 -6.6431503e-06
-6.6026723e-06 -6.2551553e-06 -6.74698e-06 5.089929e-06 0.00014697372 6.1397986e-06 5.976225e-06 8.129789e-05
-5.969365e-06 0.0009148317 -5.7676507e-06 -6.7357496e-06 6.793479e-06 -7.050453e-06 6.3760417e-06 6.2118943e-06
-8.033383e-06 -7.5602284e-06 -7.586201e-06 -7.486856e-06 0.005419814 -5.8127653e-06 5.8116893e-06 0.016306488
-6.562611e-06 -0.006026795 -7.3845713e-06 -6.9581783e-06 7.488411e-06 5.027169e-06 6.9296284e-06 -5.441464e-06
5.7857387e-06 -6.431602e-06 6.083952e-06 6.1987475e-06 0.00036499425 6.1283026e-06 -5.6644567e-06 6.3703344e-05
5.961733e-06 2.9491814e-05 -6.2562667e-06 6.3774723e-06 6.0954235e-06 5.795101e-06 6.330816e-06 -6.073131e-06
