bfcnn/pretrained/resnet_color_1x12_bn_32x32_1x3x1_192x192_erf_relu/superres_model.tflite (tflite, 327696 bytes, 134 tensors)

superres_head/resnet_backbone/level_0/batch_normalization_47/FusedBatchNormV3 f4 [64]
0	0x4201511f	32.32922
1	0x41d61cbb	26.764029
2	0x41d71ed3	26.89005
3	0x41a518b8	20.63707
4	0x41e9b575	29.213602
5	0x41f63ab5	30.778666
6	0x41ac2a6a	21.52071
7	0x41e3e184	28.485115
8	0x41be88b5	23.816751
9	0x41be7e4f	23.811674
10	0x41df0bd9	27.880785
11	0x41c81dbb	25.014517
12	0x40c3d10c	6.1192684
13	0x41fb7733	31.433203
14	0x420de4ae	35.47332
15	0x41b57f29	22.68709
16	0x41b6cee3	22.851019
17	0x41ddbd75	27.717508
18	0x411707bc	9.439388
19	0x41dade49	27.358538
20	0x41c527f6	24.644512
21	0x41dd8240	27.688599
22	0x41d3ab20	26.458557
23	0x41aeb843	21.839972
24	0x41b8ecc0	23.1156
25	0x41bff8a9	23.996416
26	0x41ede488	29.736588
27	0x41d1fafe	26.247555
28	0x420d7718	35.366302
29	0x41adc0b5	21.719095
30	0x41af3ecf	21.905668
31	0x41bb2c73	23.396704
32	0x41b1a727	22.206617
33	0x41a51682	20.63599
34	0x41edb278	29.712143
35	0x41e9e424	29.236397
36	0x41bfa19d	23.953913
37	0x41c9af07	25.210463
38	0x41c2273b	24.269156
39	0x41c7fda0	24.99884
40	0x4201e29e	32.471306
41	0x41e7ad68	28.959671
42	0x41c00f3f	24.007444
43	0x41cdb6a3	25.714178
44	0x41d6d562	26.85419
45	0x420c1ede	35.030144
46	0x41cdee88	25.74147
47	0x41d120a2	26.140934
48	0x41e5564c	28.667137
49	0x4205e64a	33.47489
50	0x41bc6afd	23.55224
51	0x41e98181	29.188234
52	0x41c4d554	24.604164
53	0x41b19b1c	22.200737
54	0x41c02e6e	24.02267
55	0x41caf955	25.371744
56	0x41d2e906	26.363781
57	0x41cda612	25.706089
58	0x41bd6dfc	23.678703
59	0x41a877f1	21.058565
60	0x41c46ee1	24.55414
61	0x41cc7599	25.55742
62	0x41bf563d	23.917109
63	0x41d2c24f	26.344877

superres_head/resnet_backbone/level_0/batch_normalization_47/FusedBatchNormV31 f4 [64]
0	0xb9a6c6eb	-0.00031810193
1	0xb971cfb2	-0.00023060924
2	0xb9803e5a	-0.00024460518
3	0xb933da9f	-0.00017152213
4	0xb9853b25	-0.00025411803
5	0xb98c4b4a	-0.00026758976
6	0xb9379cf7	-0.00017510714
7	0xb9714212	-0.00023008164
8	0xb94f7879	-0.00019785938
9	0xb93123a1	-0.00016893308
10	0xb973a010	-0.00023233914
11	0xb96be330	-0.0002249598
12	0xc012d7ba	-2.294417
13	0xb9889fde	-0.00026059052
14	0xb9b37884	-0.00034231332
15	0xb942548e	-0.00018532781
16	0xb9427885	-0.00018546179
17	0xb974fc96	-0.00023363749
18	0xc08613e3	-4.1899276
19	0xb96cdc7c	-0.0002258885
20	0xb956cf7e	-0.00020485927
21	0xb9750a47	-0.0002336885
22	0xb94d8bed	-0.0001960245
23	0xb92f7468	-0.00016732665
24	0xb94904b7	-0.0001917061
25	0xb94d0346	-0.00019551543
26	0xb98096bc	-0.00024526368
27	0xb96c097c	-0.00022510247
28	0xb99e958e	-0.00030247535
29	0xb9234312	-0.00015569877
30	0xb935e9f8	-0.00017348665
31	0xb93e23f2	-0.00018133203
32	0xb6967366	-4.4837825e-06
33	0xb6692b7c	-3.4745017e-06
34	0xb6d69729	-6.3952943e-06
35	0xb6a69a9e	-4.9651853e-06
36	0xb6b9e45b	-5.5400137e-06
37	0xb67c1e1a	-3.7568448e-06
38	0xb69d2e29	-4.6843384e-06
39	0xb6b7aa9c	-5.4736865e-06
40	0xb6e9f051	-6.9719176e-06
41	0xb6c1813d	-5.7668935e-06
42	0xb6750d27	-3.65155e-06
43	0xb6de5459	-6.625935e-06
44	0xb6af086e	-5.2163878e-06
45	0xb70916b4	-8.171122e-06
46	0xb68fbc97	-4.283687e-06
47	0xb6cc3804	-6.086195e-06
48	0xb694927e	-4.4277976e-06
49	0xb6c91934	-5.993201e-06
50	0xb68f4d64	-4.2707416e-06
51	0xb6bfe2ce	-5.718647e-06
52	0xb6adb5dc	-5.176973e-06
53	0xb6833a23	-3.9108722e-06
54	0xb6b0d97b	-5.270527e-06
55	0xb69025ff	-4.2959578e-06
56	0xb6d09355	-6.2160348e-06
57	0xb68ff73c	-4.290514e-06
58	0xb6b6884a	-5.439889e-06
59	0xb6816d0e	-3.857195e-06
60	0xb6a324ce	-4.862063e-06
61	0xb6c3953a	-5.828825e-06
62	0xb698b503	-4.5510255e-06
63	0xb691c159	-4.3438454e-06

superres_head/resnet_backbone/level_0/batch_normalization_46/FusedBatchNormV3 f4 [32]
0	0x40d6232e	6.6917944
1	0x412748e7	10.455298
2	0x40d6bcc1	6.7105412
3	0x3f3070f7	0.6892237
4	0x3fde63d3	1.7374214
5	0x40d760b4	6.7305546
6	0x40e993d5	7.299296
7	0x412ee865	10.931737
8	0x40e585cb	7.172582
9	0x3f29c90a	0.66322386
10	0x40e16be6	7.044421
11	0x40d69e21	6.706803
12	0x3f105f6e	0.56395614
13	0x40d8de1b	6.7771125
14	0x40c91039	6.2832303
15	0x41266a5a	10.400965
16	0x41e8f72c	29.12069
17	0x41aa3e60	21.280457
18	0x4203b323	32.92494
19	0x41c5ff6b	24.749716
20	0x41fc9a9a	31.575489
21	0x41b93165	23.149118
22	0x4218064e	38.006157
23	0x41ff2d20	31.897034
24	0x4226aaf0	41.66693
25	0x41f123f4	30.142555
26	0x41bc8fe2	23.570255
27	0x41e0396f	28.028044
28	0x41ebf77a	29.495838
29	0x4203057f	32.755367
30	0x41f51d66	30.639355
31	0x41e7304c	28.898582

superres_head/resnet_backbone/level_0/batch_normalization_46/FusedBatchNormV31 f4 [32]
0	0xbb5460fe	-0.0032406445
1	0xbcf90d72	-0.030401919
2	0xbb3a098e	-0.0028387043
3	0xbf923486	-1.1422279
4	0xbf4700a6	-0.77735364
5	0xbb435343	-0.0029804267
6	0xbb563a34	-0.00326885
7	0xbd75e379	-0.060031388
8	0xbb5bd493	-0.0033543452
9	0xbfa71b70	-1.3055248
10	0xbb4392a2	-0.0029842039
11	0xbb1d79d3	-0.0024028912
12	0xc010d842	-2.2631993
13	0xbb8c742f	-0.004286311
14	0xbb327f3f	-0.002723649
15	0xbd4879ac	-0.04894416
16	0xbb4140cc	-0.0029488085
17	0xbb954eca	-0.0045565115
18	0xbbf83a38	-0.0075752996
19	0xbbe6cf3c	-0.007043747
20	0xbc1a5114	-0.009418745
21	0xbc2242ae	-0.009903593
22	0xbc322ffa	-0.010875696
23	0xbc470bcc	-0.012148809
24	0xbc9509d0	-0.018193156
25	0xbbcbdfeb	-0.0062217615
26	0xbbcd0a1a	-0.0062573077
27	0xbbcdff75	-0.0062865564
28	0xbc2157a6	-0.009847557
29	0xbc5ac166	-0.013351774
30	0xbc531ac1	-0.012884797
31	0xbbc82aaf	-0.006108604

superres_head/resnet_backbone/level_0/batch_normalization_45/FusedBatchNormV3 f4 [64]
0	0x41ce5461	25.7912
1	0x41ef6d2f	29.928312
2	0x41b96711	23.175325
3	0x41ca1b61	25.263369
4	0x41b001f9	22.000963
5	0x41cef0ad	25.867517
6	0x41d66ca1	26.803041
7	0x41c22629	24.268633
8	0x41ca0a8e	25.255154
9	0x41d05608	26.042007
10	0x41ac40d2	21.53165
11	0x41f80757	31.003584
12	0x41cbe121	25.484926
13	0x41bd5f55	23.671549
14	0x41db9318	27.446823
15	0x42092816	34.289146
16	0x41d3915e	26.44598
17	0x41c3ba5f	24.466002
18	0x41bec30c	23.845238
19	0x41ac1310	21.509308
20	0x41daf732	27.3707
21	0x41c615b4	24.760597
22	0x41ada70d	21.706568
23	0x41b388bd	22.441767
24	0x41db8f90	27.445099
25	0x41c5dd3c	24.733025
26	0x41be7bae	23.81039
27	0x41d19425	26.197336
28	0x41c2d3ff	24.353514
29	0x41be56cb	23.79238
30	0x41bb1428	23.384842
31	0x41ae0e96	21.757122
32	0x41abfd8d	21.498804
33	0x41acca76	21.598858
34	0x41caf4ef	25.369596
35	0x41d45320	26.540588
36	0x41b39c39	22.45128
37	0x41e0e98b	28.114035
38	0x41da308f	27.27371
39	0x41bb9207	23.446302
40	0x41c4699a	24.551563
41	0x41ded986	27.856213
42	0x41a76fea	20.929646
43	0x42016c4f	32.35577
44	0x41c9899b	25.19219
45	0x41be50d6	23.78947
46	0x41c0e8bf	24.113646
47	0x41ccd187	25.602308
48	0x419c17c9	19.511614
49	0x41cf9fb0	25.952972
50	0x41b7ae08	22.959976
51	0x41d6c4fa	26.84618
52	0x41c087bb	24.066275
53	0x4193be05	18.467783
54	0x41ccf5c8	25.62001
55	0x41dca950	27.582672
56	0x41a8474e	21.034817
57	0x41cb7a20	25.434631
58	0x41cf0cfc	25.88134
59	0x41f4271b	30.519094
60	0x41b909ba	23.12975
61	0x41ef0cf5	29.881327
62	0x41267855	10.404378
63	0x41d7e6ee	26.987759

superres_head/resnet_backbone/level_0/batch_normalization_45/FusedBatchNormV31 f4 [64]
0	0xb938731d	-0.0001759049
1	0xbf6c86fd	-0.92393476
2	0xb92a5142	-0.00016242734
3	0xb9386b25	-0.00017587522
4	0xb91b3bea	-0.00014804272
5	0xb95060cc	-0.00019872485
6	0xb95b957a	-0.00020941152
7	0xb92d92ef	-0.00016553303
8	0xb93e1fd4	-0.00018131669
9	0xb93c0442	-0.00017930663
10	0xb9209b25	-0.00015316585
11	0xb9537200	-0.00020164996
12	0xb935e85c	-0.00017348066
13	0xb92283f6	-0.00015498683
14	0xb9483a35	-0.0001909517
15	0xb97b0740	-0.00023939926
16	0xb938e43b	-0.0001763263
17	0xb921882a	-0.00015404882
18	0xb911540c	-0.00013859587
19	0xb90813ee	-0.00012977395
20	0xb93f0680	-0.00018217601
21	0xb92f1b95	-0.00016699576
22	0xb91eff53	-0.0001516317
23	0xb9126edf	-0.00013964948
24	0xb937c064	-0.00017523911
25	0xb92b4941	-0.0001633512
26	0xb9179c8c	-0.000144588
27	0xb93dcf86	-0.00018101753
28	0xb9259125	-0.00015789697
29	0xb921b881	-0.0001542289
30	0xb92797a4	-0.00015982852
31	0xb90992a9	-0.00013119973
32	0xb94c9a92	-0.00019512538
33	0xb950b1a5	-0.00019902604
34	0xb97537a3	-0.00023385747
35	0xb99074bc	-0.00027552794
36	0xb943b545	-0.00018664177
37	0xb995eb00	-0.00028594583
38	0xb9851baf	-0.00025388363
39	0xb9607b24	-0.00021408178
40	0xb980a493	-0.0002453668
41	0xb98afba8	-0.0002650891
42	0xb94f6e9c	-0.00019782264
43	0xb9a8954c	-0.00032154692
44	0xb97fc191	-0.00024390804
45	0xb96d9b3b	-0.00022659909
46	0xb95e0fa6	-0.000211774
47	0xb9868879	-0.00025660152
48	0xb92dc913	-0.00016573472
49	0xb96527be	-0.00021853947
50	0xb96af3dd	-0.00022406825
51	0xb95a02f4	-0.000207912
52	0xb9657b33	-0.00021885037
53	0xbfa69c07	-1.3016366
54	0xb96d5fb6	-0.00022637736
55	0xb98642ae	-0.00025608152
56	0xb9264ede	-0.00015860374
57	0xb95ba40f	-0.00020946584
58	0xb961903d	-0.00021511405
59	0xb996e7b2	-0.00028782856
60	0xb950de0d	-0.00019919146
61	0xb991febb	-0.00027846344
62	0xc006d5cd	-2.1067994
63	0xb97cbfc7	-0.00024104035

superres_head/resnet_backbone/level_0/batch_normalization_44/FusedBatchNormV3 f4 [32]
0	0x412de120	10.867462
1	0x4117ce2d	9.487836
2	0x41333b3d	11.201962
3	0x3f7fdab6	0.999431
4	0x412b070e	10.689222
5	0x412b3d65	10.702489
6	0x412e1cc8	10.882027
7	0x411a4068	9.640724
8	0x412651d8	10.394981
9	0x41244da0	10.268951
10	0x412a8eef	10.659896
11	0x3fcfae28	1.6225023
12	0x40f3f72f	7.623924
13	0x413c85b3	11.782641
14	0x411ef304	9.93433
15	0x412b4ab9	10.705743
16	0x4101bde9	8.108865
17	0x415df853	13.873126
18	0x40ee129a	7.4397707
19	0x40dfff39	6.999905
20	0x3f22fc65	0.63666373
21	0x40fb4b2d	7.8529267
22	0x40f5b6ed	7.67858
23	0x4090bfc8	4.523411
24	0x40eb63bd	7.355925
25	0x3ee4d4e1	0.44693664
26	0x41758a1f	15.346221
27	0x40e5db84	7.1830463
28	0x3f214c6a	0.63007224
29	0x41135a3d	9.209531
30	0x3fadba8f	1.3572558
31	0x413ad552	11.67708

superres_head/resnet_backbone/level_0/batch_normalization_44/FusedBatchNormV31 f4 [32]
0	0xbde583d1	-0.112067826
1	0xbe18d47a	-0.14924803
2	0xbd10009c	-0.03515683
3	0xbf0d445d	-0.5518244
4	0xbd6d7d8a	-0.05798105
5	0xbd23485a	-0.03986392
6	0xbe4791dc	-0.19489235
7	0xbe9313d3	-0.28726062
8	0xbd313685	-0.043264885
9	0xbdfed52e	-0.124430045
10	0xbc64412f	-0.013931557
11	0xbfa04779	-1.2521812
12	0xbe3327e4	-0.17495686
13	0xbc13bc05	-0.009016995
14	0xbdc8e52b	-0.09809335
15	0xbdfedd2c	-0.12444529
16	0xbb299a55	-0.0025879343
17	0xbdae8200	-0.08520889
18	0xbb4907fa	-0.003067492
19	0xbb382e97	-0.0028103942
20	0xbfdf53ce	-1.744745
21	0xbb1282c0	-0.0022355765
22	0xbb4173a3	-0.0029518388
23	0xbef86f05	-0.485222
24	0xbb37fff6	-0.0028076149
25	0xbfd5c7e6	-1.6701629
26	0xbe21ae95	-0.15789254
27	0xbb34017c	-0.0027466705
28	0xc000e7f8	-2.0141582
29	0xbb683b40	-0.0035435706
30	0xbf489d89	-0.7836538
31	0xbc690e3a	-0.014224583

superres_head/resnet_backbone/level_0/batch_normalization_43/FusedBatchNormV3 f4 [64]
0	0x41de1842	27.761845
1	0x419b1edc	19.390068
2	0x41ec0aee	29.505337
3	0x41de73f7	27.806623
4	0x41dbded5	27.483805
5	0x41f20b40	30.255493
6	0x420e3b98	35.558197
7	0x41cc7fb3	25.562353
8	0x41ce5a4f	25.794096
9	0x41ddf21c	27.743217
10	0x41e07f6d	28.06222
11	0x41d64cc2	26.78748
12	0x423e34ff	47.551754
13	0x41d89deb	27.077108
14	0x41f60ca5	30.756174
15	0x41bbc02f	23.46884
16	0x41b060ef	22.04733
17	0x41b6204c	22.76577
18	0x41d65785	26.792734
19	0x41c080ad	24.06283
20	0x41b64188	22.781998
21	0x41d2aa81	26.333254
22	0x41bc5a6a	23.544147
23	0x41ca4456	25.283367
24	0x41ce8ae9	25.817827
25	0x41e4fb1c	28.622612
26	0x41c200d3	24.250402
27	0x41d1ee15	26.241251
28	0x41d6badc	26.84124
29	0x41b59339	22.696886
30	0x41d56fc5	26.679575
31	0x41caafa6	25.335766
32	0x41e84522	29.033756
33	0x41ded639	27.8546
34	0x41e71841	28.886843
35	0x41cbb40a	25.46291
36	0x41cba543	25.455694
37	0x412f95d0	10.974075
38	0x41cf8460	25.939636
39	0x41d44eeb	26.538534
40	0x41de6a2e	27.801846
41	0x41c899ad	25.075037
42	0x41be7401	23.806643
43	0x41b5969c	22.69854
44	0x41e3dc26	28.482494
45	0x41cc2b9d	25.521296
46	0x41dbec8a	27.490498
47	0x41d9c57c	27.221428
48	0x41c608eb	24.754354
49	0x41bd2a24	23.645576
50	0x41d2164e	26.260891
51	0x41c2e778	24.363022
52	0x41e6414e	28.781887
53	0x41bd650f	23.674345
54	0x41be4b5c	23.786797
55	0x41cf95d5	25.94816
56	0x41f86d93	31.053503
57	0x41e60f7c	28.75756
58	0x41e16547	28.174452
59	0x41ad7a6a	21.684772
60	0x41be9924	23.824776
61	0x41b0a6e9	22.0815
62	0x420fbfae	35.937187
63	0x41cffa72	25.997288

superres_head/resnet_backbone/level_0/batch_normalization_43/FusedBatchNormV31 f4 [64]
0	0xb68c055b	-4.1729486e-06
1	0xb67953ef	-3.7152747e-06
2	0xb6ac7759	-5.1398933e-06
3	0xb6af9795	-5.233053e-06
4	0xb6aa8857	-5.082267e-06
5	0xb68b7985	-4.1566695e-06
6	0xb6d77458	-6.4210435e-06
7	0xb682f6e5	-3.903044e-06
8	0xb6a599fb	-4.935309e-06
9	0xb6a6de23	-4.9730456e-06
10	0xb69579a7	-4.4547082e-06
11	0xb65eb43d	-3.318549e-06
12	0xb7196466	-9.1428865e-06
13	0xb6cb903d	-6.066663e-06
14	0xb6bc4f60	-5.612077e-06
15	0xb68fd385	-4.286356e-06
16	0xb6407445	-2.8677907e-06
17	0xb68b1c5f	-4.1458256e-06
18	0xb6b8d66f	-5.5085907e-06
19	0xb67db1f3	-3.7803518e-06
20	0xb69f7f52	-4.7533913e-06
21	0xb679cb2f	-3.722216e-06
22	0xb685e4af	-3.990331e-06
23	0xb6a8c5f9	-5.029837e-06
24	0xb69c9803	-4.666859e-06
25	0xb6a7dbfa	-5.0025965e-06
26	0xb6625ac2	-3.3729452e-06
27	0xb699e16c	-4.585998e-06
28	0xb6ba1ee6	-5.546829e-06
29	0xb671164d	-3.592478e-06
30	0xb696a8d4	-4.4900025e-06
31	0xb6b5e092	-5.420364e-06
32	0xb9da1f2c	-0.00041603425
33	0xb9d3ddec	-0.000404104
34	0xb9f78fdf	-0.00047218704
35	0xb9b8feec	-0.00035285146
36	0xb9b88a10	-0.0003519808
37	0xbee0d145	-0.4390966
38	0xb9eda412	-0.00045326405
39	0xb9c51bda	-0.0003759552
40	0xb9d3b0dc	-0.00040376827
41	0xb9b5e24e	-0.0003469162
42	0xb9b80bf1	-0.00035104112
43	0xb9ab192a	-0.0003263441
44	0xb9d243f9	-0.00040104965
45	0xb9b36b99	-0.00034221707
46	0xba072ee9	-0.00051568315
47	0xb9c50800	-0.00037580729
48	0xb984dd70	-0.00025341986
49	0xb9839c87	-0.0002510289
50	0xb99bf355	-0.000297452
51	0xb9847e78	-0.00025271229
52	0xb9ac802c	-0.00032901892
53	0xb964ce35	-0.00021820593
54	0xb960e68b	-0.00021448189
55	0xb9833b17	-0.00025030292
56	0xb9a109ee	-0.0003071571
57	0xb9ac5f16	-0.0003287724
58	0xb98feae2	-0.00027450087
59	0xb94c4e69	-0.00019484166
60	0xb98150e5	-0.00024665068
61	0xb985eea3	-0.00025545535
62	0xb9df9a5f	-0.0004264889
63	0xb9954400	-0.0002847016

superres_head/resnet_backbone/level_0/batch_normalization_42/FusedBatchNormV3 f4 [32]
0	0x41bd68de	23.676205
1	0x41c56c85	24.677988
2	0x419c6df9	19.553698
3	0x41fb729d	31.430964
4	0x41e6723f	28.805784
5	0x420cce9a	35.20176
6	0x4206dfb2	33.718452
7	0x4207a5d9	33.91196
8	0x4212f951	36.743473
9	0x41e6ddfa	28.858387
10	0x41a06179	20.047594
11	0x41a6fb15	20.872599
12	0x41f49406	30.572277
13	0x42143bfb	37.058575
14	0x41c4c25e	24.594906
15	0x41a18cf0	20.193817
16	0x40b74990	5.72773
17	0x4110b81c	9.044949
18	0x40cea0c7	6.457126
19	0x40dc0365	6.8754144
20	0x41432a9b	12.197902
21	0x41183b7f	9.514525
22	0x40ca1929	6.3155713
23	0x4180df90	16.109161
24	0x4186c886	16.847912
25	0x412df644	10.872623
26	0x41317c51	11.092851
27	0x40cfb9ce	6.491431
28	0x3f802cd5	1.0013682
29	0x40e87130	7.263817
30	0x3f9b06db	1.2111467
31	0x4164185d	14.255948

superres_head/resnet_backbone/level_0/batch_normalization_42/FusedBatchNormV31 f4 [32]
0	0xbc287634	-0.010282088
1	0xbc00d767	-0.007863856
2	0xbb994288	-0.0046771206
3	0xbbc32c35	-0.0059561976
4	0xbc08f315	-0.0083587365
5	0xbc3f9b5c	-0.011694755
6	0xbc64d7fb	-0.013967509
7	0xbc33171b	-0.010930802
8	0xbc34eebc	-0.011043247
9	0xbb8b2ff1	-0.0042476584
10	0xbc02410b	-0.007950078
11	0xbc0a1e6f	-0.0084301075
12	0xbc241e3b	-0.010016973
13	0xbc5db076	-0.013530841
14	0xbbf4502e	-0.007455847
15	0xbb368c74	-0.0027854713
16	0xbec6761c	-0.38761985
17	0xbeefa871	-0.46808198
18	0xbea13e73	-0.31492957
19	0xbeaa3b9a	-0.33248597
20	0xbf3bc973	-0.7335426
21	0xbee95f63	-0.45580587
22	0xbe933c50	-0.28756952
23	0xbf021a4a	-0.50821364
24	0xbef91d2d	-0.48655072
25	0xbf27017a	-0.6523663
26	0xbe979427	-0.2960522
27	0xbe98a950	-0.29816675
28	0xbf32d9e9	-0.69863755
29	0xbec95daf	-0.39329287
30	0xbf7d344f	-0.9890794
31	0xbedd9ad3	-0.43282184

superres_head/resnet_backbone/level_0/batch_normalization_41/FusedBatchNormV3 f4 [64]
0	0x41fa4823	31.285223
1	0x41de6fcc	27.804588
2	0x41bc612b	23.547445
3	0x41b7d645	22.979624
4	0x41d8dbe4	27.107368
5	0x41965741	18.792604
6	0x41c7107c	24.883049
7	0x41cf9fee	25.95309
8	0x420513f7	33.269497
9	0x41f2ecf6	30.365704
10	0x41e5e6f5	28.737772
11	0x41e63492	28.77567
12	0x41da03d1	27.251863
13	0x41c82d64	25.022163
14	0x420d5d55	35.341145
15	0x41c1e124	24.234932
16	0x41b7c654	22.97184
17	0x419ffb20	19.99762
18	0x41d03d76	26.03001
19	0x41cebb47	25.841444
20	0x41d0da21	26.106508
21	0x41b5c77c	22.722404
22	0x41b42c18	22.52153
23	0x41d31209	26.383806
24	0x41b23df7	22.280256
25	0x41c69e60	24.827332
26	0x41b35484	22.416267
27	0x41a99366	21.196972
28	0x41d90174	27.12571
29	0x41ba304b	23.27358
30	0x41c00019	24.000048
31	0x41b54e43	22.663214
32	0x41b99bed	23.201136
33	0x41adac48	21.709122
34	0x41d56636	26.674908
35	0x41e333b3	28.400244
36	0x41cf8ed3	25.944738
37	0x41d49e3a	26.57726
38	0x41b5be97	22.718061
39	0x41c5c731	24.722261
40	0x41c98b2b	25.192953
41	0x41dd82fb	27.688955
42	0x41da6c7b	27.302969
43	0x41c42ee7	24.522902
44	0x41eece9f	29.85089
45	0x41ebe86b	29.488485
46	0x41ccdbb9	25.607286
47	0x41ccad75	25.584696
48	0x41cd3bef	25.654264
49	0x41d14bcf	26.162016
50	0x41cbb7a4	25.464668
51	0x41a3a837	20.457136
52	0x41d0ebd4	26.11515
53	0x41a131f5	20.149393
54	0x41c0aa36	24.08311
55	0x41b429c4	22.520393
56	0x41b1b6a8	22.214188
57	0x41ce8738	25.816025
58	0x41d3acf1	26.459444
59	0x41c77521	24.932192
60	0x41d1966d	26.19845
61	0x41c67fe7	24.812452
62	0x41ca4504	25.283699
63	0x41e75655	28.917154

superres_head/resnet_backbone/level_0/batch_normalization_41/FusedBatchNormV31 f4 [64]
0	0xb9644bd1	-0.00021772018
1	0xb93e6620	-0.00018157857
2	0xb9200723	-0.00015261448
3	0xb911dcec	-0.00013910577
4	0xb9379c9b	-0.0001751058
5	0xb8df2184	-0.000106397114
6	0xb921f882	-0.00015446733
7	0xb935c337	-0.00017334228
8	0xb9943b6c	-0.00028273033
9	0xb9584b5d	-0.0002062744
10	0xb955eb9b	-0.00020401033
11	0xb9782085	-0.00023663238
12	0xb959ebef	-0.00020782625
13	0xb939590c	-0.00017676147
14	0xb99f2fd3	-0.00030362475
15	0xb9247f3a	-0.00015687654
16	0xb9289562	-0.00016077378
17	0xb90a97bf	-0.00013217235
18	0xb93c2702	-0.00017943609
19	0xb932b3de	-0.00017042409
20	0xb9369078	-0.00017410691
21	0xb9197244	-0.00014633784
22	0xb922dfa7	-0.00015532841
23	0xb9289b1e	-0.00016079514
24	0xb91ca62a	-0.0001493922
25	0xb914af19	-0.00014179609
26	0xb9240357	-0.00015641503
27	0xb9170338	-0.00014401681
28	0xc00810ec	-2.1260328
29	0xb9199c9e	-0.00014649561
30	0xb927451e	-0.00015952109
31	0xb91e55c2	-0.00015100001
32	0xb6d367c9	-6.300372e-06
33	0xb6b613af	-5.426314e-06
34	0xb6a29371	-4.8451407e-06
35	0xb681c66a	-3.867598e-06
36	0xb6cd8f33	-6.1261467e-06
37	0xb6b67c78	-5.4385127e-06
38	0xb68ace47	-4.1367343e-06
39	0xb69b4d3b	-4.628351e-06
40	0xb6b615d2	-5.426563e-06
41	0xb6c6b8d4	-5.9223767e-06
42	0xb6a072e4	-4.7817466e-06
43	0xb68f3b4d	-4.2686356e-06
44	0xb6a921e6	-5.040539e-06
45	0xb6f71427	-7.3635197e-06
46	0xb6beb20f	-5.68317e-06
47	0xb6af84b7	-5.2308565e-06
48	0xb6b70ce2	-5.4553248e-06
49	0xb6857ea7	-3.978453e-06
50	0xb69ec1d2	-4.7313306e-06
51	0xb6817349	-3.8579205e-06
52	0xb6b4d3c7	-5.389072e-06
53	0xb679e5f4	-3.7237742e-06
54	0xb6b31240	-5.3367403e-06
55	0xb69c74f7	-4.662779e-06
56	0xb6bccc48	-5.626618e-06
57	0xb6a2530b	-4.8376437e-06
58	0xb6b24758	-5.313119e-06
59	0xb68a9d38	-4.131023e-06
60	0xb6d39194	-6.3052375e-06
61	0xb69067de	-4.303626e-06
62	0xb68ec60a	-4.2549846e-06
63	0xb702661d	-7.772379e-06

superres_head/resnet_backbone/level_0/batch_normalization_40/FusedBatchNormV3 f4 [32]
0	0x41c2ad6d	24.33468
1	0x41dfb804	27.964851
2	0x41de2691	27.768831
3	0x3f218d5a	0.6310631
4	0x41b0dc38	22.107529
5	0x4199de47	19.233534
6	0x419563d7	18.67375
7	0x419569de	18.676693
8	0x3f3d818b	0.7402579
9	0x41e99353	29.196936
10	0x419fe3f5	19.986307
11	0x41b34623	22.409246
12	0x41be2519	23.768114
13	0x41b07b6b	22.060263
14	0x41cbc66c	25.471886
15	0x4192c0e1	18.34418
16	0x420caa25	35.166157
17	0x41dfda6a	27.981647
18	0x41daf88e	27.371365
19	0x42053905	33.305683
20	0x41c2063c	24.253044
21	0x41ad84ae	21.689785
22	0x41d3b511	26.463411
23	0x420fc91d	35.9464
24	0x4215f5be	37.489983
25	0x420d8c8f	35.387264
26	0x4207958f	33.896053
27	0x41caa29d	25.329401
28	0x41d88b57	27.068037
29	0x41b9feab	23.24935
30	0x41f2fbbc	30.372917
31	0x42124ea2	36.57679

superres_head/resnet_backbone/level_0/batch_normalization_40/FusedBatchNormV31 f4 [32]
0	0xbc4f450f	-0.012650742
1	0xbc610d07	-0.013736016
2	0xbe13745d	-0.14399858
3	0xbf8ba952	-1.0911047
4	0xbc275927	-0.010214127
5	0xbbe39790	-0.006945558
6	0xbbd937ac	-0.006628951
7	0xbbcc844f	-0.0062413584
8	0xc00d6066	-2.2090087
9	0xbe381545	-0.17976864
10	0xbc18c017	-0.009323142
11	0xbc22cda3	-0.009936723
12	0xbc40c777	-0.011766306
13	0xbc66b60e	-0.014081491
14	0xbcdcad52	-0.026938114
15	0xbbe0d44e	-0.006861246
16	0xbc43c173	-0.011947977
17	0xbc0ca56a	-0.00858436
18	0xbc388f99	-0.011264705
19	0xbbdc5ad9	-0.006724697
20	0xbc072871	-0.008249388
21	0xbba71fd2	-0.005100229
22	0xbbe2af6d	-0.006917885
23	0xbc1d52f6	-0.009602299
24	0xbc5ac11d	-0.013351706
25	0xbc77d012	-0.015125291
26	0xbc0d0293	-0.008606571
27	0xbbf18257	-0.007370274
28	0xbb9cca5d	-0.004784866
29	0xbc17336e	-0.00922857
30	0xbb51f4ff	-0.0032036898
31	0xbc6489bf	-0.013948857

superres_head/resnet_backbone/level_0/batch_normalization_39/FusedBatchNormV3 f4 [64]
0	0x41d2ee02	26.366215
1	0x4194bb22	18.591373
2	0x41f1e317	30.235884
3	0x41e66d59	28.803392
4	0x41cde0f1	25.734835
5	0x41cbd1e7	25.477491
6	0x41c31758	24.386398
7	0x41c0bd94	24.092567
8	0x41bba9d7	23.45793
9	0x41aaaddf	21.334898
10	0x41c19a0a	24.200214
11	0x41b51250	22.633942
12	0x41ac3785	21.52711
13	0x41e6a8a5	28.832346
14	0x41d20eab	26.257162
15	0x42014fe4	32.32802
16	0x41be17ec	23.76168
17	0x41c09ccd	24.076563
18	0x41d1bf1a	26.218311
19	0x41c7542b	24.916098
20	0x41d0433e	26.032833
21	0x41c01157	24.008467
22	0x41c6da9d	24.856745
23	0x41c405ab	24.502768
24	0x41df27e0	27.89447
25	0x41c2e08a	24.359638
26	0x41d3370a	26.401875
27	0x41adef5e	21.741879
28	0x41b4c47f	22.595945
29	0x41d23cec	26.279747
30	0x41a28081	20.312746
31	0x41b44094	22.531532
32	0x41da0a5f	27.255064
33	0x41dea43e	27.830196
34	0x41b85ff9	23.046862
35	0x420ab356	34.675133
36	0x41bbe832	23.488377
37	0x41e1f63b	28.24523
38	0x41e88059	29.06267
39	0x41d548be	26.660519
40	0x41d9b7a8	27.214676
41	0x41ce6e4f	25.803862
42	0x41d84d49	27.037737
43	0x41bc58d5	23.543375
44	0x41cfc0c4	25.969124
45	0x41dcd135	27.602152
46	0x41e9980c	29.199242
47	0x41ace675	21.612528
48	0x41bea25c	23.829277
49	0x41a35602	20.416996
50	0x41cf2ad5	25.895914
51	0x41cc2465	25.51777
52	0x41b4c82c	22.59774
53	0x41d4a190	26.578888
54	0x41c636d8	24.77678
55	0x4106d0fa	8.42602
56	0x42005156	32.07943
57	0x41b9f586	23.244884
58	0x41d6597f	26.7937
59	0x41e3e9e4	28.489204
60	0x41b8d951	23.106112
61	0x41d57a19	26.684618
62	0x41b77b05	22.935068
63	0x42082bf7	34.042934

superres_head/resnet_backbone/level_0/batch_normalization_39/FusedBatchNormV31 f4 [64]
0	0xb6b51bab	-5.3974413e-06
1	0xb67c5450	-3.7600003e-06
2	0xb70cd67c	-8.394589e-06
3	0xb6b9a5ad	-5.532717e-06
4	0xb6cb8274	-6.065058e-06
5	0xb6ca8ad4	-6.036231e-06
6	0xb6c62602	-5.9052845e-06
7	0xb68aa94c	-4.1324292e-06
8	0xb6e722a4	-6.888369e-06
9	0xb6a1250c	-4.8024867e-06
10	0xb6ce8526	-6.154779e-06
11	0xb6ae57e9	-5.195838e-06
12	0xb6cadb8e	-6.0456287e-06
13	0xb70503eb	-7.92833e-06
14	0xb6c86698	-5.972408e-06
15	0xb6ed0c91	-7.0646133e-06
16	0xb6c5f02c	-5.899017e-06
17	0xb6cd1951	-6.1124233e-06
18	0xb6c4b703	-5.8625606e-06
19	0xb6b7e772	-5.480769e-06
20	0xb6e0045b	-6.6762273e-06
21	0xb6a1f473	-4.8266315e-06
22	0xb6da1e9a	-6.5004688e-06
23	0xb6b7f546	-5.4823786e-06
24	0xb6c197e6	-5.7695315e-06
25	0xb6c1c233	-5.774456e-06
26	0xb6bf24ae	-5.6965137e-06
27	0xb697be5e	-4.5223123e-06
28	0xb6c97d48	-6.0048515e-06
29	0xb6e54996	-6.8332984e-06
30	0xb688061b	-4.0538266e-06
31	0xb680d17b	-3.839084e-06
32	0xb981fbed	-0.00024792497
33	0xb9861758	-0.00025575864
34	0xb95640a8	-0.00020432717
35	0xb9ac5c7f	-0.0003287531
36	0xb953252c	-0.00020136376
37	0xb9921fd5	-0.00027871007
38	0xb98eda85	-0.0002724716
39	0xb9899f85	-0.00026249528
40	0xb99b0944	-0.00029570807
41	0xb981c314	-0.00024750142
42	0xb98df690	-0.0002707732
43	0xb94db358	-0.00019617134
44	0xb9650aad	-0.00021843119
45	0xb97f8930	-0.00024369801
46	0xb993c8a9	-0.00028187528
47	0xb952037c	-0.00020028459
48	0xb960ff6f	-0.00021457461
49	0xb9459239	-0.00018841856
50	0xb96170c6	-0.00021499683
51	0xb946f3db	-0.00018973595
52	0xb95a2de5	-0.00020807197
53	0xb97b4bb7	-0.00023965431
54	0xb962a560	-0.00021614647
55	0xc016466f	-2.348049
56	0xb9974e19	-0.00028859152
57	0xb93f636a	-0.00018252214
58	0xb97e071c	-0.00024225976
59	0xb9891fa4	-0.0002615425
60	0xb95d168e	-0.00021084605
61	0xb972e7a9	-0.00023165219
62	0xb951a259	-0.00019992272
63	0xb99fb76e	-0.0003046351

superres_head/resnet_backbone/level_0/batch_normalization_38/FusedBatchNormV3 f4 [32]
0	0x41ea4abf	29.286497
1	0x42266952	41.60285
2	0x41c6b905	24.840342
3	0x41d98b6a	27.193073
4	0x41f7f3b2	30.993992
5	0x41eb7d7a	29.436268
6	0x41f5de96	30.733685
7	0x41fb8f03	31.44483
8	0x41f97efe	31.187008
9	0x4205ad7f	33.41943
10	0x41ef0992	29.879673
11	0x41d353b4	26.41587
12	0x41c938f4	25.15281
13	0x41e4e6d9	28.612719
14	0x41f8ed4b	31.115866
15	0x420771a9	33.860996
16	0x419380be	18.437862
17	0x3f87b544	1.0602193
18	0x41ae5665	21.792185
19	0x414f3c29	12.952188
20	0x3f7d9a35	0.99063426
21	0x4153a757	13.228354
22	0x41bfd1ef	23.977507
23	0x41ab43a7	21.408033
24	0x41cb7a6b	25.434774
25	0x3f577f4f	0.8417863
26	0x41ab5a85	21.419199
27	0x41a8be56	21.092937
28	0x4075510c	3.8330717
29	0x41c9c2ec	25.220177
30	0x419eaf17	19.835493
31	0x41ac6376	21.548565

superres_head/resnet_backbone/level_0/batch_normalization_38/FusedBatchNormV31 f4 [32]
0	0xbc28aa81	-0.010294558
1	0xbc6c0210	-0.014404789
2	0xbc00a5b1	-0.007852004
3	0xbbdeec31	-0.0068030586
4	0xbc1b8d60	-0.009494156
5	0xbc1b3914	-0.009474058
6	0xbc3ff4db	-0.011716093
7	0xbc2ec8c9	-0.010667988
8	0xbc438983	-0.011934641
9	0xbc4e982e	-0.012609525
10	0xbbf8a4cf	-0.007588006
11	0xbc1f54ef	-0.00972484
12	0xbbdce00d	-0.006740576
13	0xbc197581	-0.009366394
14	0xbc2595a6	-0.01010648
15	0xbc28529b	-0.010273601
16	0xbe0cb5dd	-0.1374125
17	0xbf2ce263	-0.6753294
18	0xbd2697c6	-0.040672086
19	0xbf4884cb	-0.78327626
20	0xbebbb3f7	-0.3666074
21	0xbf1cf18b	-0.61306065
22	0xbe25e6c8	-0.16201317
23	0xbdaa6c47	-0.083214335
24	0xbd6dcdbc	-0.05805753
25	0xbfecc819	-1.8498565
26	0xbe325076	-0.17413506
27	0xbc9ba6c7	-0.019000424
28	0xbf5347f0	-0.8253164
29	0xbd3d9fb4	-0.046294883
30	0xbc689cc1	-0.014197529
31	0xbf0071be	-0.50173557

superres_head/resnet_backbone/level_0/batch_normalization_37/FusedBatchNormV3 f4 [64]
0	0x41cd0ae0	25.63031
1	0x41d4cf9d	26.601374
2	0x41c30dfb	24.381826
3	0x41fb4962	31.410831
4	0x41e242a9	28.282549
5	0x41defd9c	27.873833
6	0x41d01cc6	26.01405
7	0x41e1d57d	28.229242
8	0x41ac07ed	21.50387
9	0x41cac695	25.346964
10	0x41ce57ce	25.792873
11	0x41d1858f	26.190214
12	0x41d3ce72	26.475803
13	0x41aee826	21.863354
14	0x41be7441	23.806765
15	0x41aec47e	21.845943
16	0x41ca05cc	25.25283
17	0x41a5a8fa	20.707508
18	0x41df7e9b	27.93682
19	0x41c97616	25.18266
20	0x419da0da	19.70354
21	0x41d078eb	26.059042
22	0x41bb10eb	23.38326
23	0x41a8a999	21.082811
24	0x41d14845	26.160288
25	0x41b25ba7	22.294752
26	0x41b1db2b	22.232016
27	0x41c403cb	24.501852
28	0x41b72efb	22.89794
29	0x41c3115f	24.383482
30	0x41c404c1	24.502321
31	0x41a2b3ba	20.337757
32	0x41a9b7e0	21.214783
33	0x41dbbc41	27.46692
34	0x41c56a23	24.676825
35	0x41c8a470	25.080292
36	0x423b27ff	46.78906
37	0x41e25bd0	28.29483
38	0x41d8a324	27.079659
39	0x41e14b52	28.161777
40	0x41c0f0e0	24.117615
41	0x41e6ec98	28.865524
42	0x4204a4ac	33.160812
43	0x41c84ffc	25.039055
44	0x41b8d9e6	23.106396
45	0x41c626b6	24.768902
46	0x41ec230b	29.51711
47	0x41e6bb65	28.841501
48	0x41b9ad70	23.209686
49	0x41cce94b	25.613913
50	0x41bdeb02	23.73975
51	0x41b8fed6	23.124432
52	0x41fad3ae	31.35336
53	0x41b699a9	22.82503
54	0x41ab4116	21.40678
55	0x41c6a448	24.830215
56	0x41d027aa	26.019367
57	0x419bc49a	19.470997
58	0x4268ce56	58.2015
59	0x419b5297	19.415327
60	0x41b158fa	22.168446
61	0x41e1441b	28.158255
62	0x41bddb8a	23.732197
63	0x41cb65a9	25.424639

superres_head/resnet_backbone/level_0/batch_normalization_37/FusedBatchNormV31 f4 [64]
0	0xb6984a1b	-4.53858e-06
1	0xb6665113	-3.4319862e-06
2	0xb68e8e50	-4.248497e-06
3	0xb6faf924	-7.4795844e-06
4	0xb6822f2b	-3.879793e-06
5	0xb698f2b4	-4.5582074e-06
6	0xb6c35a26	-5.8219475e-06
7	0xb6acb9f2	-5.1476463e-06
8	0xb6470342	-2.9655207e-06
9	0xb6a0eee4	-4.796182e-06
10	0xb6986569	-4.5417587e-06
11	0xb6a683a7	-4.962512e-06
12	0xb68c4572	-4.1804096e-06
13	0xb679555a	-3.7153573e-06
14	0xb645c8c5	-2.947215e-06
15	0xb69ce204	-4.675474e-06
16	0xb6b034a3	-5.2513365e-06
17	0xb67faed7	-3.8099731e-06
18	0xb6d90bab	-6.4684623e-06
19	0xb697b986	-4.5217485e-06
20	0xb6385f1e	-2.7473502e-06
21	0xb6990545	-4.560369e-06
22	0xb655917a	-3.1824152e-06
23	0xb6353e7e	-2.7007477e-06
24	0xb693554d	-4.3908717e-06
25	0xb682b49b	-3.895327e-06
26	0xb684c4fa	-3.9568376e-06
27	0xb68172de	-3.857872e-06
28	0xb68fe7aa	-4.2887013e-06
29	0xb68a75a6	-4.1264166e-06
30	0xb6b729eb	-5.458705e-06
31	0xb685dce8	-3.9894257e-06
32	0xb66ab871	-3.4976076e-06
33	0xb6a2e280	-4.8543443e-06
34	0xb68e90b3	-4.248775e-06
35	0xb6d63bab	-6.3846433e-06
36	0xb7110d88	-8.645824e-06
37	0xb6ab56cc	-5.1063016e-06
38	0xb69b8e67	-4.635938e-06
39	0xb691554a	-4.3312657e-06
40	0xb6930b1b	-4.3822342e-06
41	0xb6d2966e	-6.276e-06
42	0xb6f60a8f	-7.3326005e-06
43	0xb67327f8	-3.6233087e-06
44	0xb65d8185	-3.3006957e-06
45	0xb6a31b2f	-4.860943e-06
46	0xb6e1deeb	-6.7314736e-06
47	0xb6c1f528	-5.780388e-06
48	0xb6a28be0	-4.84426e-06
49	0xb6ae027d	-5.1858938e-06
50	0xb6477a14	-2.972437e-06
51	0xb668d91e	-3.4697073e-06
52	0xb6c2ed59	-5.8092814e-06
53	0xb6a638a6	-4.9537803e-06
54	0xb6954300	-4.448346e-06
55	0xb6ae137a	-5.1878715e-06
56	0xb682eb67	-3.9017064e-06
57	0xb6666ba4	-3.4335326e-06
58	0xb73e5755	-1.1345216e-05
59	0xb665b0a8	-3.4226487e-06
60	0xb650b4ba	-3.1099612e-06
61	0xb6cb37a3	-6.0563484e-06
62	0xb6a0fec4	-4.79803e-06
63	0xb685d85f	-3.988898e-06

superres_head/resnet_backbone/level_0/batch_normalization_36/FusedBatchNormV3 f4 [32]
0	0x41e14f49	28.163713
1	0x41d960dc	27.172295
2	0x4200599e	32.087517
3	0x41dcaf45	27.58558
4	0x41db2d93	27.397253
5	0x41c709d1	24.879793
6	0x420323c1	32.784916
7	0x4200b0a6	32.17251
8	0x41f84e7e	31.038326
9	0x41e78e40	28.944458
10	0x41be2249	23.76674
11	0x42089287	34.143093
12	0x42016957	32.35287
13	0x423868ab	46.102215
14	0x42063c7c	33.559067
15	0x41cb0e62	25.382023
16	0x418f4c79	17.91234
17	0x418e01bf	17.750853
18	0x41cf5bf6	25.919903
19	0x4185f8c7	16.746473
20	0x417d336c	15.825054
21	0x419c8783	19.566168
22	0x41b6c654	22.84684
23	0x419137d8	18.152267
24	0x42406020	48.093872
25	0x41c4e6b9	24.612658
26	0x4189f9fa	17.247059
27	0x421388d9	36.88364
28	0x4180d10c	16.102074
29	0x41a794b0	20.947601
30	0x42660f74	57.51509
31	0x42369765	45.647846

superres_head/resnet_backbone/level_0/batch_normalization_36/FusedBatchNormV31 f4 [32]
0	0xbbecaefa	-0.0072230073
1	0xbb5d65ba	-0.0033782558
2	0xbc546b2d	-0.012965006
3	0xbbcfdc7f	-0.006343424
4	0xbc1924ab	-0.009347121
5	0xbbfdc6cf	-0.007744647
6	0xbc23e0bb	-0.01000231
7	0xbbf34506	-0.0074239997
8	0xbc294505	-0.010331397
9	0xbc3dc2f9	-0.01158213
10	0xbbfc4dd5	-0.007699708
11	0xbb84e363	-0.004055427
12	0xbc2dd878	-0.010610692
13	0xbc874447	-0.01651205
14	0xbc0f5a72	-0.008749591
15	0xbc0afd54	-0.00848325
16	0xbbe88585	-0.007095995
17	0xbb5698bd	-0.0032744848
18	0xbc01548b	-0.007893692
19	0xbbae61a4	-0.0053216983
20	0xbbd15158	-0.0063878708
21	0xbbf8b284	-0.00758964
22	0xbbdc20eb	-0.0067177913
23	0xbb8a1710	-0.004214175
24	0xbc45f6e2	-0.012082787
25	0xbc1d09d0	-0.009584859
26	0xbbc8f3b2	-0.0061325664
27	0xbc61a1ff	-0.013771533
28	0xbb4c318e	-0.0031157467
29	0xbc176a45	-0.009241645
30	0xbc93c3ae	-0.018037643
31	0xbc7c1dd6	-0.015387973

resnet_backbone/level_0/batch_normalization_9/FusedBatchNormV3 f4 [64]
0	0x4122e04b	10.179759
1	0x40a9739c	5.2953625
2	0x40c39a8a	6.1126146
3	0x40b91d34	5.784815
4	0x40f8e953	7.778482
5	0x4117dd16	9.491476
6	0x4127de7b	10.4918165
7	0x410b0889	8.689584
8	0x40fe1697	7.9402575
9	0x41315ce6	11.08518
10	0x410f1712	8.943132
11	0x41003c19	8.014672
12	0x40c827be	6.2548513
13	0x4123a8c4	10.228703
14	0x40ff0d91	7.970406
15	0x4109f451	8.622148
16	0x40ffa199	7.9884763
17	0x40882459	4.254437
18	0x411f6bf8	9.96386
19	0x411252f4	9.145252
20	0x40cf8695	6.4851785
21	0x40a42afe	5.130248
22	0x4100b44d	8.044019
23	0x40d69963	6.706224
24	0x41083652	8.513262
25	0x4088e818	4.2783318
26	0x408d6d49	4.4195905
27	0x405603ae	3.3439746
28	0x40bacba0	5.8373566
29	0x40dbc64b	6.8679557
30	0x3fe9469e	1.8224676
31	0x40009b10	2.0094643
32	0x3af9685a	0.0019028292
33	0x40750ed0	3.829029
34	0x40d7daad	6.745444
35	0x40bc1bf6	5.878413
36	0x40e9c397	7.3051257
37	0x3ff57dc6	1.9179008
38	0x4020ef07	2.514589
39	0x40ef94fa	7.4869356
40	0x411f07dd	9.93942
41	0x410bf21a	8.746607
42	0x3ccea2ed	0.025224173
43	0x412fe324	10.992954
44	0x40f3766f	7.608207
45	0x41709abc	15.037777
46	0x409afd95	4.843455
47	0xba990a18	-0.0011675982
48	0xb97266c0	-0.00023117196
49	0x4008edc8	2.139513
50	0x3fb16086	1.3857582
51	0x3988f267	0.00026120545
52	0xbaa6e9b3	-0.0012734443
53	0x3f6594e1	0.89680296
54	0x3a0b231e	0.0005307662
55	0x3f949968	1.1609316
56	0x3b09a846	0.002100484
57	0x4052a73d	3.2914574
58	0x3fc2d42f	1.5221003
59	0x3b14d4dd	0.0022709884
60	0xb91ac105	-0.0001475849
61	0x3f976589	1.1827861
62	0x400b6ca1	2.1785052
63	0x400e1048	2.2197437

resnet_backbone/level_0/batch_normalization_9/FusedBatchNormV31 f4 [64]
0	0xbf986f02	-1.1908877
1	0xbf99ce7d	-1.201614
2	0xbf92460e	-1.1427629
3	0xbf8b5fc9	-1.0888606
4	0xbfa56b77	-1.2923421
5	0xbf8e8f43	-1.113747
6	0xbf976e19	-1.1830474
7	0xbf99d584	-1.2018285
8	0xbfa5ae63	-1.2943844
9	0xbfa62550	-1.2980137
10	0xbf9a5fca	-1.2060483
11	0xbfafb7ff	-1.3728026
12	0xbfbb41ae	-1.4629419
13	0xbf9a7810	-1.206789
14	0xbfbcf6c1	-1.4762803
15	0xbfcb4cb6	-1.5882785
16	0xbf27a0d1	-0.6547976
17	0xbf35f7f1	-0.71081454
18	0xb8a8c6cc	-8.047893e-05
19	0xbf2284ec	-0.6348407
20	0xbf4c4c50	-0.79803944
21	0xbf7a0c89	-0.9767538
22	0xbf400683	-0.75009936
23	0xbf567b8c	-0.8378227
24	0xb89156b2	-6.930287e-05
25	0xbf4749c7	-0.7784695
26	0xb8088285	-3.2546483e-05
27	0xb7dc2c96	-2.6246806e-05
28	0xbf298ba9	-0.6622873
29	0xb85ba11a	-5.2363706e-05
30	0xb7632b2c	-1.3540306e-05
31	0xb78b0343	-1.657161e-05
32	0xb23def1e	-1.1055617e-08
33	0xb7aa704c	-2.0317872e-05
34	0xbf51b0a2	-0.81910145
35	0xbe9f4be7	-0.31112596
36	0xb84aa629	-4.83153e-05
37	0xb7340f24	-1.0732361e-05
38	0xbf0ba93c	-0.54555106
39	0xb8356ab3	-4.3253134e-05
40	0xb875154d	-5.843239e-05
41	0xbf1c018e	-0.6093987
42	0xb3946932	-6.910922e-08
43	0xb89c4cb0	-7.452944e-05
44	0xb8484694	-4.7749447e-05
45	0xb8ca6ece	-9.6527496e-05
46	0xb7e924bd	-2.7792872e-05
47	0x30d80ab6	1.5719113e-09
48	0x30049892	4.8238136e-10
49	0xbebf3ffa	-0.37353498
50	0xbec80adf	-0.39070794
51	0xb0734832	-8.850548e-10
52	0x322d8f4a	1.01025055e-08
53	0xb6d8caa1	-6.4608907e-06
54	0xb1734e40	-3.5405634e-09
55	0xbec77abe	-0.38960832
56	0xb1bd8c22	-5.516555e-09
57	0xbf462eb8	-0.7741504
58	0xbf1db990	-0.6161127
59	0xb1cdfaa8	-5.9947816e-09
60	0x351bef52	5.8090257e-07
61	0xbeb0f93e	-0.34565157
62	0xbf34b45a	-0.70587695
63	0xbef21ff7	-0.47290012

resnet_backbone/level_0/batch_normalization_8/FusedBatchNormV3 f4 [32]
0	0x414c25b1	12.759202
1	0x4186d355	16.85319
2	0x40875da6	4.2301817
3	0x416db6da	14.8571415
4	0x4168ca14	14.5493355
5	0x40de44c7	6.9458957
6	0x408a4a75	4.321589
7	0x41865991	16.793734
8	0x4175114f	15.316726
9	0x415708e2	13.439669
10	0x41211651	10.067948
11	0x41f19c6c	30.201378
12	0x417d8d2b	15.846965
13	0x4145219b	12.320704
14	0x4192eaf7	18.364729
15	0x40bb9478	5.8618736
16	0x402a77f9	2.6635725
17	0x3b2df21c	0.0026542014
18	0x4099b254	4.8030186
19	0x40d00a1e	6.501235
20	0x4021b375	2.5265782
21	0x41369579	11.411492
22	0xba7168d9	-0.0009209044
23	0x40ebafac	7.3651943
24	0x3fcc2c61	1.5951043
25	0x40afed36	5.4977064
26	0xbb61af9b	-0.0034436944
27	0x403ec3cd	2.9807007
28	0x4090664c	4.5124874
29	0x40d64cda	6.6968813
30	0x4101884a	8.095774
31	0x4090b20d	4.5217347

resnet_backbone/level_0/batch_normalization_8/FusedBatchNormV31 f4 [32]
0	0xbf1c027d	-0.60941297
1	0xbe9f33b6	-0.3109414
2	0xbf540302	-0.8281709
3	0xbef57802	-0.4794312
4	0xbf05e779	-0.52306324
5	0xbf08ec60	-0.5348568
6	0xbf3883aa	-0.72075903
7	0xbf28adfa	-0.6589047
8	0xbf183452	-0.59454834
9	0xbf1e73a0	-0.6189518
10	0xbf23de3e	-0.6401099
11	0xbeb99aa1	-0.36250785
12	0xbf2a57ef	-0.66540426
13	0xbf3e4b2b	-0.7433345
14	0xbecc61a8	-0.39918256
15	0xbf5a6948	-0.85316896
16	0xb8a9c041	-8.094358e-05
17	0xb3c6c34d	-9.2556185e-08
18	0xbf1a20b5	-0.60206157
19	0xbe3b41da	-0.18286839
20	0xbf26792c	-0.65028644
21	0xb9ac4ddf	-0.00032864415
22	0x330eaa77	3.321699e-08
23	0xbf1285bc	-0.5723531
24	0xbf1748df	-0.5909557
25	0xbe17ce89	-0.1482488
26	0x33d2fbb0	9.824669e-08
27	0xbfa15e90	-1.2606983
28	0xbeeff8bd	-0.4686946
29	0xbef6f7fd	-0.48236075
30	0xb97af07a	-0.00023931442
31	0xbe4c1379	-0.19929303

resnet_backbone/level_0/batch_normalization_7/FusedBatchNormV3 f4 [64]
0	0x40e8c242	7.273713
1	0x41233fd7	10.203086
2	0x41016e2e	8.089399
3	0x4106ca60	8.424408
4	0x40e906fb	7.282102
5	0x408c686f	4.3877482
6	0x410d0275	8.8131
7	0x4088f857	4.280315
8	0x411700ea	9.437723
9	0x411fbd9a	9.983789
10	0x410bdecd	8.741895
11	0x40f24253	7.570596
12	0x41a1cf2c	20.226158
13	0x4085803b	4.171903
14	0x40e562fe	7.168334
15	0x41191c71	9.569444
16	0x40ffc1ba	7.9923983
17	0x40b350ce	5.603614
18	0x412faab3	10.979175
19	0x414878b1	12.529466
20	0x40ba7f06	5.828006
21	0x39acdf85	0.00032972932
22	0x40dd2ea8	6.9119453
23	0x3e4c05a6	0.1992403
24	0x3fec0dab	1.8441671
25	0x4117baa2	9.483065
26	0x413017da	11.005823
27	0x3af9c4ea	0.0019055877
28	0x40bb8993	5.8605437
29	0x3b015c4c	0.001973885
30	0x40ca0c01	6.3139653
31	0x3f44ef22	0.7692739
32	0x4104d2a5	8.301427
33	0x41368f85	11.410039
34	0x411d571e	9.833769
35	0x40cc8a29	6.3918653
36	0x3e996daa	0.2996648
37	0x4139fe1a	11.6245365
38	0x41472290	12.445938
39	0x40f5e700	7.6844482
40	0x3fa772fd	1.3081967
41	0x41436be4	12.2138405
42	0x415a3a0a	13.63917
43	0x40502b69	3.2526495
44	0x4163f8b5	14.2482195
45	0x400adca0	2.169716
46	0x409fc402	4.9926767
47	0x407c9cbd	3.9470665
48	0x3ab2c51f	0.0013639069
49	0xba48ecb8	-0.00076646684
50	0x3a74f042	0.00093436625
51	0x3bb9e279	0.0056727496
52	0x3fee0109	1.8594066
53	0x3a64ec3d	0.0008732712
54	0x40e5830e	7.172248
55	0x41075bf0	8.459946
56	0x3fcb76e7	1.5895661
57	0x3ff0d223	1.8814129
58	0x3ac1eaa7	0.0014794663
59	0x406a1c5b	3.6579807
60	0x4000a024	2.0097742
61	0x3fc8e7a6	1.5695693
62	0x3fd7506f	1.6821421
63	0x3fff5540	1.9947891

resnet_backbone/level_0/batch_normalization_7/FusedBatchNormV31 f4 [64]
0	0xbf5defbc	-0.8669393
1	0xbf3276f0	-0.69712734
2	0xbf7445ae	-0.9541882
3	0xbf628328	-0.8848138
4	0xbf3ed34e	-0.74541175
5	0xbf6120de	-0.87940776
6	0xbff3a0f3	-1.9033493
7	0xbf99a655	-1.2003886
8	0xbf3ec55b	-0.7451989
9	0xbf8533d6	-1.0406444
10	0xbf817ded	-1.0116554
11	0xbf38d9af	-0.7220716
12	0xb9073280	-0.00012893416
13	0xbfbc8497	-1.4727963
14	0xbf3eb8ae	-0.7450055
15	0xbf38fbf5	-0.72259456
16	0xb863dedd	-5.4328575e-05
17	0xbf4a45eb	-0.79012936
18	0xb8a88a1e	-8.0365906e-05
19	0xbf3e7ed9	-0.74412304
20	0xbf3b7bc5	-0.7323573
21	0xb0c436dd	-1.427647e-09
22	0xb844fa87	-4.6963363e-05
23	0xb59763c2	-1.127941e-06
24	0xbec50748	-0.38482118
25	0xb88bbc42	-6.663102e-05
26	0xbf36dea1	-0.71433455
27	0xb27daf4b	-1.4766395e-08
28	0xb8210f04	-3.8399376e-05
29	0xb25dc67e	-1.2909025e-08
30	0xbf2cb20d	-0.67459184
31	0xbf30ca50	-0.69058704
32	0xbf6ef7f2	-0.93347085
33	0xb89ee52a	-7.576712e-05
34	0xbf6d7127	-0.9275078
35	0xb81e93b3	-3.780769e-05
36	0xb5f6a69f	-1.8376921e-06
37	0xbf52c2c4	-0.8232844
38	0xbf0456c6	-0.51694906
39	0xb84b4907	-4.8466984e-05
40	0xb6f0b281	-7.173338e-06
41	0xb8ad76df	-8.271424e-05
42	0xb8c739ab	-9.499801e-05
43	0xb79ac03b	-1.8447745e-05
44	0xb8b658c7	-8.694972e-05
45	0xb76629e4	-1.3718822e-05
46	0xbf32bc39	-0.69818455
47	0xbe8c3406	-0.2738344
48	0xb1f638ed	-7.166014e-09
49	0x31b495ef	5.255735e-09
50	0xb1920490	-4.249678e-09
51	0xb2b02362	-2.0505187e-08
52	0xbf74f077	-0.9567942
53	0xb1a14ff8	-4.694808e-09
54	0xbf171fd4	-0.5903294
55	0xbf46c061	-0.77637297
56	0xbe29bc57	-0.16575752
57	0xbe2333fb	-0.15937798
58	0xb2330297	-1.041976e-08
59	0xbe35d7f5	-0.17758162
60	0xbe81d065	-0.25354305
61	0xbe62128e	-0.2207739
62	0xbf6554d3	-0.89582556
63	0xbe5d2c1e	-0.2159886

resnet_backbone/level_0/batch_normalization_6/FusedBatchNormV3 f4 [32]
0	0x40ace82b	5.403341
1	0x4147acc9	12.479684
2	0x41d69a5c	26.82537
3	0x41989a35	19.075296
4	0x41c0e412	24.111362
5	0x41448ad7	12.283896
6	0x41b12c9c	22.146782
7	0x40223799	2.5346434
8	0x42095dfe	34.34179
9	0x41cc9b58	25.575851
10	0x40022007	2.0332048
11	0x406a0f23	3.6571739
12	0x41a2e33b	20.360952
13	0x3b72f998	0.003707504
14	0x4210f9fc	36.244125
15	0x417fb4e5	15.981664
16	0x41546205	13.273931
17	0x415bd90c	13.74049
18	0x40d49c82	6.644105
19	0x408dccb9	4.4312406
20	0x405f65b5	3.4905827
21	0x40a619f4	5.190668
22	0x40b73b7b	5.726011
23	0x41ce744f	25.806791
24	0x3fe9b241	1.8257524
25	0x40441299	3.063635
26	0x4202421d	32.564564
27	0x40d19d30	6.550438
28	0x410b6164	8.711277
29	0x413747ad	11.454999
30	0x40ada6fe	5.426635
31	0x40ee289b	7.4424567

resnet_backbone/level_0/batch_normalization_6/FusedBatchNormV31 f4 [32]
0	0xbf12cc51	-0.5734301
1	0xbf1494c3	-0.5803949
2	0xbeb6d0e6	-0.35706252
3	0xbf450c40	-0.76971817
4	0xbebcb622	-0.36857706
5	0xbe9f19b9	-0.31074312
6	0xbeb8bce8	-0.36081624
7	0xbf31706f	-0.69312185
8	0xbeacf954	-0.33783972
9	0xbe91eb17	-0.28499672
10	0xbf2fb058	-0.68628454
11	0xbf22993b	-0.6351506
12	0xbe873c13	-0.2641302
13	0xb4111cc5	-1.3514644e-07
14	0xbed00365	-0.4062759
15	0xbf09222a	-0.53567755
16	0xbefdb318	-0.495507
17	0xb9cf95f3	-0.00039593838
18	0xbf55bc32	-0.8349029
19	0xbefa53c6	-0.4889204
20	0xbf4ff9ad	-0.8124035
21	0xbf37d5d0	-0.71810627
22	0xbf0d703f	-0.552494
23	0xbe2b0d6a	-0.16704336
24	0xb84ba6bc	-4.8554255e-05
25	0xbeee597e	-0.46552652
26	0xbed620df	-0.41821954
27	0xb9446a90	-0.00018731714
28	0xbf59f54b	-0.8513991
29	0xb9a37454	-0.00031176454
30	0xbf44540a	-0.76690733
31	0xbf06b507	-0.52619976

resnet_backbone/level_0/batch_normalization_5/FusedBatchNormV3 f4 [64]
0	0x4178c257	15.547446
1	0x40eb4670	7.3523483
2	0x4128dc8d	10.553845
3	0x409a1ac3	4.815767
4	0x4094177f	4.627868
5	0x40f80824	7.7509937
6	0x405c56b9	3.4427931
7	0x413ff197	11.996482
8	0x4051f075	3.2803013
9	0x418c80f2	17.562962
10	0x40f7ad7b	7.739927
11	0x408cd011	4.4003987
12	0x41175499	9.458154
13	0x41615531	14.083299
14	0x40eb9f51	7.363198
15	0x408fd63a	4.4949007
16	0x404c61be	3.1934657
17	0x3fe70d1b	1.8050874
18	0x4128d868	10.552834
19	0x3d940d73	0.07229128
20	0x3fd50080	1.6640778
21	0x3e34825a	0.1762785
22	0x412873b5	10.528249
23	0x3db5cd30	0.08877027
24	0x3d7eda43	0.06221987
25	0x3fea9e14	1.8329492
26	0xba9d2b23	-0.0011991005
27	0x3fed84a6	1.8556106
28	0x3f8e4a1d	1.1116368
29	0x3aa75ec2	0.0012769329
30	0x3fe8f9a1	1.8201181
31	0x41117a2b	9.092326
32	0xba9fbf6a	-0.0012187783
33	0x3ff3f086	1.9057777
34	0x3fc107cc	1.5080504
35	0x3bcc5bac	0.006236514
36	0x3db5751c	0.088602275
37	0x41175c3a	9.460016
38	0x3a8de762	0.0010826404
39	0x409727ec	4.7236233
40	0x3f322c11	0.6959849
41	0x4075d9de	3.8414226
42	0x3f6485c7	0.8926663
43	0x40a1ec9b	5.0601325
44	0x410a76a9	8.65397
45	0x3aba9b38	0.0014236933
46	0x40943664	4.6316395
47	0x408794cf	4.236915
48	0x40427f69	3.0390265
49	0x39aee546	0.00033358688
50	0x39a68ec5	0.0003176836
51	0x3a5a5efa	0.00083301926
52	0x4088744e	4.2641973
53	0x40200723	2.5004356
54	0x3f2723c6	0.6528896
55	0x3f3afad9	0.73039013
56	0x3ff8497e	1.9397428
57	0x3b108fcf	0.0022058373
58	0x4063ab06	3.5573134
59	0xbabee7d2	-0.0014564937
60	0x4008c79a	2.1371827
61	0xb712f45a	-8.759171e-06
62	0xba51be1f	-0.00080010475
63	0xbad3b60f	-0.001615228

resnet_backbone/level_0/batch_normalization_5/FusedBatchNormV31 f4 [64]
0	0xbf8129c7	-1.0090874
1	0xbfdb5644	-1.7135701
2	0xbf8684f5	-1.0509325
3	0xbf6f8068	-0.9355531
4	0xbfc8499c	-1.5647464
5	0xbf456303	-0.77104205
6	0xbffd88ba	-1.9807351
7	0xb8ab542c	-8.169594e-05
8	0xbff5b111	-1.9194661
9	0xb8eca722	-0.00011284488
10	0xbf564ec6	-0.8371395
11	0xbfd29425	-1.645146
12	0xbf8aaf84	-1.0834813
13	0xb8d01a0c	-9.9230645e-05
14	0xbf62b998	-0.88564444
15	0xbf7a91f2	-0.97878945
16	0xbf0d5139	-0.5520206
17	0xbfa0c476	-1.2559955
18	0xbf182300	-0.59428406
19	0xb4aeff41	-3.2595747e-07
20	0xbf69ef14	-0.9138043
21	0xb5a62440	-1.2378514e-06
22	0xbf063a55	-0.5243276
23	0xb4d7a50d	-4.016696e-07
24	0xb4dfe8be	-4.170633e-07
25	0xb73c6312	-1.122874e-05
26	0x31b3e8a5	5.2360343e-09
27	0xbf37b5bb	-0.71761674
28	0xb6dec48e	-6.6389975e-06
29	0xb1cc6b39	-5.949371e-09
30	0xbf36e561	-0.71443754
31	0xbed181a1	-0.40919212
32	0x314514b4	2.8679041e-09
33	0xbfaad569	-1.3346378
34	0xbf6c87df	-0.9239482
35	0xb2bc2ca6	-2.1906384e-08
36	0xb5087a40	-5.0841845e-07
37	0xbf636c98	-0.88837576
38	0xb18782e8	-3.9438994e-09
39	0xb8065b32	-3.2033022e-05
40	0xbf619f62	-0.88133824
41	0xbf14917f	-0.5803451
42	0xb6ccd69a	-6.1046567e-06
43	0xbe901257	-0.28138992
44	0xb87a1228	-5.9621554e-05
45	0xb897e8f5	-7.243633e-05
46	0xbf3bf4cc	-0.73420405
47	0xbf873a4b	-1.0564665
48	0xbeb61a76	-0.35567063
49	0xb0e9edf7	-1.7020615e-09
50	0xb127492c	-2.4343292e-09
51	0xb1f0be8a	-7.006581e-09
52	0xbf1b7106	-0.60719335
53	0xbef6cc3c	-0.48202693
54	0xbedb7caf	-0.42868564
55	0xbf7362b0	-0.9507246
56	0xbe3c88a3	-0.18411498
57	0xb21791f3	-8.822542e-09
58	0xbed0ee1b	-0.4080666
59	0x32334d6d	1.0436776e-08
60	0xbefab861	-0.48968795
61	0x2e801f6e	5.826349e-11
62	0x318f3aa6	4.1685153e-09
63	0x326f868f	1.3942226e-08

resnet_backbone/level_0/batch_normalization_4/FusedBatchNormV3 f4 [32]
0	0x410c28fa	8.760004
1	0x40ef2e89	7.4744306
2	0x41205eab	10.023112
3	0x3fd40aba	1.6565773
4	0x3f24e340	0.64409256
5	0x3f06b70f	0.52623075
6	0x400a7487	2.1633623
7	0x3b918ce1	0.004441843
8	0x401f2b5d	2.4870217
9	0x4075a23d	3.8380272
10	0x410b9075	8.722768
11	0x4068f5d8	3.640005
12	0x40585c24	3.3806238
13	0x41855909	16.668474
14	0x40a15826	5.0420103
15	0x41100b65	9.002782
16	0x403186e2	2.7738576
17	0x41d4eb70	26.61496
18	0x41815750	16.167633
19	0x4173d790	15.240128
20	0x412bbd61	10.733735
21	0x416d25a2	14.821688
22	0x40b26872	5.5752497
23	0x409fb64e	4.991004
24	0x40ba9d57	5.8317065
25	0x40a09759	5.018475
26	0x4159e881	13.619264
27	0x418375bf	16.432493
28	0x4078869a	3.8832154
29	0x3fbbd146	1.467324
30	0x40614675	3.5199254
31	0x40dc60b6	6.8868055

resnet_backbone/level_0/batch_normalization_4/FusedBatchNormV31 f4 [32]
0	0xbe9b81bc	-0.30372417
1	0xbe5b61cc	-0.21424025
2	0xbeb32fef	-0.34997508
3	0xbecd1dbe	-0.40061754
4	0xc00ddd55	-2.216634
5	0xbf99cbbc	-1.20153
6	0xbea41c49	-0.3205283
7	0xb405ff40	-1.247945e-07
8	0xbea984ca	-0.33109123
9	0xbee874ee	-0.4540171
10	0xbeaceb3b	-0.33773217
11	0xbec7ed2a	-0.3904813
12	0xbea5f0d0	-0.32410288
13	0xbe18e951	-0.14932753
14	0xbeea9450	-0.45816278
15	0xbdfc10fa	-0.123079255
16	0xbf2c4ba1	-0.673029
17	0xbe8764c4	-0.26444066
18	0xbe763408	-0.24043286
19	0xbed9e338	-0.42556167
20	0xbec487f0	-0.38384962
21	0xbebc6533	-0.3679596
22	0xbe8040f5	-0.25049558
23	0xbf8798dd	-1.0593525
24	0xb936111d	-0.00017363248
25	0xbed1fb34	-0.41011965
26	0xb9cb3bd6	-0.00038763758
27	0xbe00ff7e	-0.12597463
28	0xbebf79e7	-0.37397692
29	0xc030fa65	-2.7652829
30	0xbedb9cca	-0.42893058
31	0xb9340efe	-0.00017171723

resnet_backbone/level_0/batch_normalization_3/FusedBatchNormV3 f4 [64]
0	0x40ea022f	7.3127666
1	0x41050501	8.313722
2	0x40ecb710	7.3973465
3	0x40ce7731	6.4520497
4	0x411c10ed	9.754132
5	0x40d9b9a1	6.80391
6	0x410712f4	8.442127
7	0x418ff6eb	17.995565
8	0x410782cd	8.469434
9	0x41143f8a	9.265512
10	0x40dccb19	6.899792
11	0x413cdf41	11.804505
12	0x40c94113	6.2891936
13	0x418a168f	17.261015
14	0x40d8fe5c	6.7810497
15	0x4115a2fb	9.35229
16	0x3fa49ec3	1.286095
17	0x3d1fa3f8	0.038974732
18	0x4095e867	4.6846194
19	0x402f9e94	2.7440538
20	0x40053639	2.0814345
21	0x407bb64e	3.933002
22	0x3fd7491a	1.6819184
23	0x3a4c3038	0.00077891676
24	0x395f81ac	0.00021315244
25	0x40a740f1	5.2266774
26	0x3ef90256	0.48634595
27	0x3f4fc8d9	0.81165844
28	0x40b9f86a	5.811574
29	0x40cff55d	6.4987016
30	0x405aa0ac	3.4160566
31	0x40362758	2.8461514
32	0x40d39748	6.612217
33	0x40ce9db1	6.4567494
34	0x4095a01f	4.675796
35	0x4098a549	4.7701764
36	0x4115ccf9	9.362542
37	0x41926692	18.300083
38	0x40a3a5b3	5.113977
39	0x413152fe	11.082762
40	0x4049ae13	3.1512496
41	0x413d39a9	11.826577
42	0x40b2923d	5.5803514
43	0x4126b0a2	10.418123
44	0x40d2f7e8	6.592762
45	0x4088f832	4.2802973
46	0xbaccb8cf	-0.0015619042
47	0x4098e9dd	4.778548
48	0x40072d42	2.1121373
49	0x3a64946b	0.0008719626
50	0xbaa9475c	-0.0012914944
51	0xb941c6ec	-0.00018480018
52	0x3fd6b403	1.6773685
53	0xba9e0873	-0.0012056961
54	0x3fea87ed	1.8322731
55	0x3fa3e933	1.2805542
56	0x3a0d67a7	0.00053941685
57	0x3995cf99	0.00028574167
58	0x40bf78e9	5.9835095
59	0x402ee33e	2.7326198
60	0x3a9c16be	0.0011908633
61	0x3fe6a408	1.8018808
62	0x40b6a133	5.7071776
63	0x3a3c143e	0.0007174647

resnet_backbone/level_0/batch_normalization_3/FusedBatchNormV31 f4 [64]
0	0xbf5f8656	-0.87314355
1	0xbf2b35fb	-0.6687924
2	0xbf9ebaf2	-1.2400801
3	0xbf7c8c39	-0.9865146
4	0xbf97e880	-1.1867828
5	0xbf3f7f70	-0.7480383
6	0xbf452251	-0.7700549
7	0xb9075a1d	-0.00012908173
8	0xbf598647	-0.84970516
9	0xbf90c4c3	-1.1310047
10	0xbf95448b	-1.1661543
11	0xbf3a31f8	-0.72732496
12	0xbf8d61a6	-1.1045425
13	0xb8f10d47	-0.000114942486
14	0xbf9ee979	-1.2415
15	0xbfa0a945	-1.2551657
16	0xb707921e	-8.080648e-06
17	0xb48fb228	-2.676545e-07
18	0xb8116179	-3.4661472e-05
19	0xbf23f4e0	-0.64045525
20	0xbf2a9883	-0.66638964
21	0xbe4b0152	-0.19824722
22	0xbebea23b	-0.37233147
23	0xb1869301	-3.9166257e-09
24	0xb0e9c4fc	-1.7008968e-09
25	0xbf4103d0	-0.7539644
26	0xbf659e8b	-0.8969504
27	0xb6b1c683	-5.298121e-06
28	0xbecf8bcb	-0.4053634
29	0xbf3f698a	-0.74770415
30	0xbf8682be	-1.0508649
31	0xbf2727cb	-0.65295094
32	0xb80329d9	-3.1271808e-05
33	0xbfb9e43a	-1.4522774
34	0xb7af8324	-2.0922693e-05
35	0xbf6feef6	-0.93724
36	0xb834f750	-4.3145672e-05
37	0xbf77989a	-0.96717227
38	0xbf588f8e	-0.8459405
39	0xbec8a8fc	-0.39191425
40	0xc0092804	-2.1430674
41	0xbef9e418	-0.48806834
42	0xbf2d9774	-0.67809224
43	0xbf694c51	-0.91132075
44	0xb7f99624	-2.9753028e-05
45	0xbf7fb120	-0.99879646
46	0x3222567e	9.449307e-09
47	0xbf9ecdde	-1.2406576
48	0xbf5e75aa	-0.8689829
49	0xb1d80469	-6.2869288e-09
50	0x31b9c8aa	5.4070215e-09
51	0x30114e4c	5.286196e-10
52	0xbf9e1079	-1.2348777
53	0x31b2f109	5.2078843e-09
54	0xbe502279	-0.2032565
55	0xbf308a41	-0.6896096
56	0xb1336e1e	-2.6110523e-09
57	0xb1172b4a	-2.1998e-09
58	0xbef40d6e	-0.47666496
59	0xbf3d07c1	-0.73839957
60	0xb16f716d	-3.4843552e-09
61	0xbe29bd5b	-0.1657614
62	0xbebc5ba6	-0.36788672
63	0xb0884995	-9.916216e-10

resnet_backbone/level_0/batch_normalization_23/FusedBatchNormV3 f4 [64]
0	0x41e894a9	29.072588
1	0x4172866c	15.157818
2	0x4105bcb8	8.358574
3	0x418d03dd	17.626886
4	0x41adec88	21.740494
5	0x41a6bccd	20.842188
6	0x4156971c	13.411892
7	0x4181c5a3	16.221502
8	0x40b9163b	5.7839637
9	0x415c01e5	13.750463
10	0x41d092a4	26.071602
11	0x4189f277	17.243391
12	0x410e1b80	8.881714
13	0x41a51a9f	20.637999
14	0x418e38eb	17.777792
15	0x4102936a	8.16099
16	0x4080240c	4.0044003
17	0x3f347216	0.7048658
18	0x40b83048	5.7558937
19	0x3d278202	0.04089547
20	0x3f567a73	0.8378059
21	0x40c224d8	6.0669975
22	0x3d6ae2c4	0.057345167
23	0x3f24ec25	0.6442283
24	0xb9335369	-0.00017101843
25	0x3ff6b749	1.9274684
26	0x4023d264	2.5597162
27	0x3f22fd4d	0.63667756
28	0x3f531e05	0.8246768
29	0x3d977dbc	0.07397029
30	0x4043eb70	3.061245
31	0x4064b9e2	3.5738454
32	0x418e2624	17.768623
33	0x4103333f	8.200011
34	0x412825b0	10.509201
35	0xb89f8bb0	-7.60773e-05
36	0x4115c310	9.360123
37	0x3d13ae14	0.036054686
38	0x399581ab	0.00028516105
39	0x40925167	4.572437
40	0x40f251bc	7.5724773
41	0x41363429	11.387734
42	0x3c995803	0.018718725
43	0x40e661a1	7.1994176
44	0x4093aa24	4.614519
45	0x39ad90da	0.00033105054
46	0xbb172432	-0.0023062346
47	0x4045514d	3.0830872
48	0x3f3b818b	0.7324454
49	0x3fa59956	1.293742
50	0xb6b0cf7e	-5.269364e-06
51	0xb9d47e20	-0.00040529761
52	0x4095768a	4.67072
53	0x3965b997	0.0002190828
54	0xba6ecf4b	-0.00091098686
55	0xba6f390f	-0.0009125629
56	0x3afd8a7e	0.0019343642
57	0x3f806f10	1.0033894
58	0x402a1b13	2.6579025
59	0xb96cc0ae	-0.00022578493
60	0x3f9a96d6	1.2077281
61	0xba576516	-0.0008216662
62	0xb72ae4fd	-1.0186105e-05
63	0x3c189627	0.009313143
