bfcnn/pretrained/resnet_color_1x6_bn_16x16_1x3x1_128x128_erf_relu/inpaint_model.tflite (tflite, 111232 bytes, 69 tensors)

resnet_backbone/level_0/batch_normalization_9/FusedBatchNormV3 f4 [32]
0	0x3fd82ad4	1.688807
1	0x4031c9b8	2.777937
2	0x3f5dbfb6	0.8662065
3	0x3f7613e0	0.96124077
4	0x3fef8b25	1.8714339
5	0x3f41eeb8	0.7575488
6	0x3f986160	1.1904716
7	0x3fc870e8	1.5659456
8	0x3ff48d52	1.9105628
9	0x3f01f423	0.5076315
10	0x3e18ef18	0.14934957
11	0x402415e4	2.563836
12	0x3ff9a661	1.95039
13	0x3fde3211	1.7359029
14	0x3f551e1e	0.8324908
15	0x3f83414c	1.0254302
16	0x3f8f3fca	1.1191342
17	0x3f032cdd	0.5124033
18	0x3f6e2b49	0.930348
19	0x40023fc2	2.0351415
20	0x3fd1cbcc	1.6390319
21	0x3ee10ad7	0.43953583
22	0x3e93f370	0.28896666
23	0x3f478619	0.7793899
24	0x4014f8ff	2.3276975
25	0x3f23f547	0.6404614
26	0x3fc03844	1.5017171
27	0x3eb2e343	0.34939012
28	0x3f282982	0.65688336
29	0x3fca5927	1.5808457
30	0x3f27d75b	0.6556298
31	0x3f96ccd1	1.1781255

resnet_backbone/level_0/batch_normalization_9/FusedBatchNormV31 f4 [32]
0	0xbe0d324b	-0.13788716
1	0xbe6efba9	-0.23338188
2	0xbda78c1b	-0.0818102
3	0xbdc9059b	-0.09815522
4	0xbe35afff	-0.17742918
5	0xbe4f29c0	-0.2023077
6	0xbe08a70a	-0.1334497
7	0xbe00ec94	-0.12590247
8	0xbe399863	-0.18124537
9	0xbe58d3c7	-0.21174537
10	0xbc18b4fd	-0.009320495
11	0xbe7c3284	-0.24628645
12	0xbe1c0fa0	-0.15240335
13	0xbe3bffe7	-0.18359338
14	0xbe1d7ab9	-0.15378846
15	0xbe39282d	-0.18081732
16	0xbdb8810e	-0.0900899
17	0xbe338225	-0.17530115
18	0xbdbfd186	-0.09366135
19	0xbea01c31	-0.31271508
20	0xbe036c36	-0.12834248
21	0xbe58fa0a	-0.21189132
22	0xbd4cbd89	-0.049985442
23	0xbe39c221	-0.1814046
24	0xbe835127	-0.25647852
25	0xbda2000d	-0.07910166
26	0xbe27b6ba	-0.16378298
27	0xbe06a445	-0.13148601
28	0xbda6c2a2	-0.08142592
29	0xbe457977	-0.19284616
30	0xbe89dd38	-0.2692659
31	0xbe6c495f	-0.23074864

resnet_backbone/level_0/batch_normalization_8/FusedBatchNormV3 f4 [16]
0	0x405f0661	3.4847643
1	0x419a4b92	19.2869
2	0x41044ab8	8.268242
3	0x4103acbc	8.2296715
4	0x41dd1d51	27.639315
5	0x418019a7	16.012526
6	0x41833061	16.398623
7	0x4254ea72	53.22895
8	0x41723c11	15.139665
9	0x411e9ab9	9.912774
10	0x410848ae	8.517744
11	0x402bf9a8	2.6871128
12	0x413a4297	11.641257
13	0x418c3db6	17.530132
14	0x4140109f	12.004058
15	0x41b25e8b	22.296164

resnet_backbone/level_0/batch_normalization_8/FusedBatchNormV31 f4 [16]
0	0xbec7cf36	-0.39025277
1	0xbd8c6a3f	-0.06856202
2	0xbea5e808	-0.32403588
3	0xbeadde09	-0.33958462
4	0xbd870c26	-0.06594114
5	0xbf77b024	-0.96753144
6	0xbd83f48e	-0.064431295
7	0xbe0a268c	-0.13491267
8	0xbf42fe98	-0.7616973
9	0xbf24ace8	-0.64326334
10	0xbee2b25e	-0.44276708
11	0xbec96ca1	-0.3934069
12	0xbec0afca	-0.37634116
13	0xbe3abb8a	-0.18235603
14	0xbed5b504	-0.41739666
15	0xbf6ec441	-0.9326821

resnet_backbone/level_0/batch_normalization_7/FusedBatchNormV3 f4 [32]
0	0x3ee93282	0.45546347
1	0x3f9f204b	1.243173
2	0x3f7cf05b	0.98804253
3	0x3df438de	0.11924909
4	0x3eb36851	0.35040525
5	0x3f5e5e38	0.86862516
6	0x3f42a3f0	0.760314
7	0x39d4068c	0.0004044067
8	0x3f0fe78d	0.56212693
9	0x3f3f3116	0.74684274
10	0x3f37c361	0.717825
11	0x3ec33c8d	0.38132134
12	0x3f0bd45f	0.5462093
13	0x3a98a948	0.001164713
14	0x3f49a74f	0.7877092
15	0x3a542576	0.00080927403
16	0x3f73772e	0.9510373
17	0x3f26cceb	0.6515643
18	0x3f92b1cc	1.1460509
19	0x3f433ad5	0.76261646
20	0x3f18eff2	0.5974113
21	0x3ef0cbe7	0.47030565
22	0x3f41a426	0.75641096
23	0x3eef1a05	0.4669954
24	0x3f08599e	0.53261745
25	0x3edfdca0	0.4372301
26	0x3f0efd0d	0.55854875
27	0x3f720e3c	0.9455297
28	0x3f261acc	0.6488464
29	0x3fa62ef9	1.2983085
30	0x3f923c4a	1.1424649
31	0x3e8da205	0.27662674

resnet_backbone/level_0/batch_normalization_7/FusedBatchNormV31 f4 [32]
0	0xbdcae273	-0.09906473
1	0xbe3150c7	-0.1731597
2	0xbe6e8133	-0.23291473
3	0xbd7b6bdd	-0.061382163
4	0xbe38589b	-0.1800255
5	0xbdcf350a	-0.10117538
6	0xbe4b2e69	-0.19841923
7	0xb84d9e56	-4.902327e-05
8	0xbdc65b11	-0.09685338
9	0xbe253d3b	-0.16136639
10	0xbdebc8f0	-0.11512935
11	0xbdfa5a80	-0.12224293
12	0xbe6c5629	-0.23079742
13	0xb910fb12	-0.00013826441
14	0xbe00600c	-0.12536639
15	0xb886cfb5	-6.4283064e-05
16	0xbe1813c8	-0.14851296
17	0xbe313bee	-0.17308018
18	0xbedfd88b	-0.43719897
19	0xbe2d0ed1	-0.16900183
20	0xbdc9d7a3	-0.098555826
21	0xbd6d3795	-0.057914335
22	0xbdf5a774	-0.1199483
23	0xbdbe2972	-0.09285249
24	0xbe412c7e	-0.18864629
25	0xbdb7f4fc	-0.08982274
26	0xbdd9c937	-0.10634082
27	0xbe254dce	-0.16142961
28	0xbdd91976	-0.106005594
29	0xbe1b9a50	-0.15195584
30	0xbe817f5b	-0.25292477
31	0xbd7c5ed4	-0.061613873

resnet_backbone/level_0/batch_normalization_6/FusedBatchNormV3 f4 [16]
0	0x41231dc8	10.194771
1	0x4162c3a1	14.172761
2	0x41cf2b08	25.896011
3	0x41876d95	16.928507
4	0x4145fc5a	12.374109
5	0x4155cbe3	13.362277
6	0x41ade6d2	21.737705
7	0x40da2b80	6.81781
8	0x41410bf4	12.065418
9	0x422b2b18	42.792084
10	0x41098557	8.595054
11	0x4181ca34	16.223732
12	0x41906e87	18.053968
13	0x421ca1a3	39.15785
14	0x41a299b0	20.325043
15	0x41fe7a50	31.809723

resnet_backbone/level_0/batch_normalization_6/FusedBatchNormV31 f4 [16]
0	0xbe982797	-0.29717705
1	0xbf46e448	-0.7769208
2	0xbf550604	-0.83212304
3	0xbec65fbf	-0.38744923
4	0xbe9ec2d4	-0.31008017
5	0xbf8c8df0	-1.0980816
6	0xbe6cab37	-0.23112188
7	0xbf22fa83	-0.636635
8	0xbee975b2	-0.45597607
9	0xbd778032	-0.06042499
10	0xbf259938	-0.6468692
11	0xbe7b4f62	-0.24542001
12	0xbfafe1ed	-1.3740822
13	0xbe3d9326	-0.18513164
14	0xbfe27df7	-1.7694691
15	0xbea898ce	-0.3292908

resnet_backbone/level_0/batch_normalization_5/FusedBatchNormV3 f4 [32]
0	0x3eedab6f	0.46419856
1	0x3eaa3f03	0.332512
2	0x3f7d77ee	0.99011123
3	0x3f3d8488	0.7403035
4	0x3eb6ebbe	0.35726732
5	0x3ee367a4	0.4441501
6	0x3f420a50	0.75796986
7	0x3e82e1d7	0.25562927
8	0x3e9b9052	0.30383545
9	0x37d94356	2.5899772e-05
10	0x3e83d03a	0.25744802
11	0x3f7cf74f	0.9881486
12	0x3e930643	0.28715715
13	0x3ed6bee8	0.41942525
14	0x3e98cc4c	0.29843366
15	0x3ede9796	0.43475026
16	0x3e443903	0.19162373
17	0x3e2c2243	0.16809945
18	0x3e840c35	0.25790563
19	0x3e264a32	0.16239241
20	0x3f360aa0	0.7110996
21	0x3fc0a7c1	1.5051194
22	0x3f7fdda5	0.9994758
23	0x3f53877d	0.82628614
24	0x3e900d43	0.28135118
25	0x3e651640	0.22371769
26	0x3f0fa24c	0.5610702
27	0x3f0fa593	0.5611202
28	0x3eb1a28c	0.34694326
29	0x3e25cd3d	0.16191573
30	0x3e9a348b	0.30118212
31	0x3ed8d9fa	0.42353803

resnet_backbone/level_0/batch_normalization_5/FusedBatchNormV31 f4 [32]
0	0xbdeed4d7	-0.1166169
1	0xbdb2a490	-0.08722794
2	0xbe07cacc	-0.13260955
3	0xbd83e226	-0.06439619
4	0xbdb28103	-0.08716013
5	0xbd920958	-0.071306884
6	0xbe453c6f	-0.19261335
7	0xbd722a63	-0.059122454
8	0xbdb95013	-0.09048476
9	0xb6016aab	-1.9284587e-06
10	0xbd2a1e08	-0.041532546
11	0xbd855325	-0.06509999
12	0xbdd5e326	-0.10443716
13	0xbdb2415e	-0.08703874
14	0xbde7d1b7	-0.11319297
15	0xbd914753	-0.07093682
16	0xbdab8344	-0.08374646
17	0xbdb0ee40	-0.086391926
18	0xbdc3aa0d	-0.09553919
19	0xbcdf53e5	-0.027261684
20	0xbdef656f	-0.11689269
21	0xbe19f611	-0.15035273
22	0xbe8e51f6	-0.27796906
23	0xbe21891c	-0.1577496
24	0xbd74de3f	-0.059782263
25	0xbd9145d4	-0.07093397
26	0xbe31dc49	-0.17369188
27	0xbd9ba001	-0.07598878
28	0xbdb7d334	-0.08975831
29	0xbd6f41ba	-0.05841229
30	0xbdf20c5f	-0.11818766
31	0xbe02a133	-0.12756805

resnet_backbone/level_0/batch_normalization_4/FusedBatchNormV3 f4 [16]
0	0x41d736b4	26.90171
1	0x411f71d9	9.965295
2	0x41bd6189	23.672625
3	0x41b0b4d1	22.08829
4	0x4132ebb1	11.182542
5	0x41ab90ea	21.445759
6	0x427e8fc9	63.640415
7	0x41de85c0	27.815308
8	0x422d6343	43.346935
9	0x41410e74	12.066029
10	0x423b1ebb	46.78001
11	0x42310fe7	44.26553
12	0x41d1f6aa	26.245441
13	0x413ace78	11.675407
14	0x423a653b	46.598858
15	0x41b17d22	22.1861

resnet_backbone/level_0/batch_normalization_4/FusedBatchNormV31 f4 [16]
0	0xbf325169	-0.6965547
1	0xbf15e333	-0.58549803
2	0xbd5219a7	-0.051293995
3	0xbe9fba04	-0.31196606
4	0xbf44659b	-0.7671754
5	0xbff9dfe4	-1.9521451
6	0xbe1d3bbb	-0.15354817
7	0xbfa3dd84	-1.2801976
8	0xbe3e69dd	-0.18595071
9	0xbe824c11	-0.2544866
10	0xbe71e3d2	-0.23622063
11	0xbda6036c	-0.081061214
12	0xbeff3c19	-0.49850538
13	0xbf2599b0	-0.64687634
14	0xbe231a9e	-0.15928122
15	0xbf1f9bc1	-0.62347037

resnet_backbone/level_0/batch_normalization_3/FusedBatchNormV3 f4 [32]
0	0x3e66e71a	0.22549096
1	0x3e2fc8d8	0.1716646
2	0xb737fd20	-1.0966585e-05
3	0x3e1601d8	0.14649141
4	0x3ea4c980	0.32184982
5	0x3e8d358b	0.27579913
6	0x3f31a3e8	0.69390726
7	0x3e95bc2c	0.29245126
8	0xb74b06dc	-1.210134e-05
9	0x3e221dbb	0.15831654
10	0x3eac7e2e	0.33690017
11	0x3ea1c37e	0.3159446
12	0x3e1c6f45	0.15276821
13	0x3e51a5d6	0.20473418
14	0x3f052b66	0.52019346
15	0x3dc138a8	0.094346344
16	0x3ee57d50	0.44822168
17	0x3e8b4565	0.2720138
18	0x3e519587	0.20467196
19	0x3dd74737	0.1051163
20	0x3e4f18db	0.20224325
21	0x3f3576ae	0.70884216
22	0x3ea75fef	0.3269038
23	0x3ed9af46	0.42516536
24	0x3ebf0ec2	0.37315947
25	0x3f144d29	0.5793024
26	0x3d93f598	0.07224578
27	0x3f117640	0.5682106
28	0x3f0fb381	0.56133276
29	0x3f565a53	0.83731574
30	0xb70ff59f	-8.580652e-06
31	0x3e46fa8b	0.19431512

resnet_backbone/level_0/batch_normalization_3/FusedBatchNormV31 f4 [32]
0	0xbe26e37f	-0.1629772
1	0xbdb2b834	-0.0872654
2	0x35b3ce0c	1.3396507e-06
3	0xbe254d1c	-0.16142696
4	0xbe361534	-0.17781526
5	0xbe7d20d3	-0.24719553
6	0xbe3a1810	-0.18173242
7	0xbdc4b320	-0.09604478
8	0x3621c383	2.4104672e-06
9	0xbd922282	-0.07135488
10	0xbdfe08f9	-0.12404055
11	0xbe0c8479	-0.1372241
12	0xbd83912b	-0.06424173
13	0xbdda9da6	-0.106746
14	0xbdf3767d	-0.11887834
15	0xbd6e2707	-0.058142688
16	0xbe6fca57	-0.2341703
17	0xbdc6efff	-0.09713744
18	0xbe02b22c	-0.1276328
19	0xbe9ff743	-0.31243333
20	0xbd1cebf9	-0.03831098
21	0xbee97cc6	-0.45603007
22	0xbe632eda	-0.22185841
23	0xbd946783	-0.07246306
24	0xbdbf2ab3	-0.09334316
25	0xbdb1bcec	-0.08678612
26	0xbd047264	-0.032335654
27	0xbdb6442d	-0.08899722
28	0xbdc4e61e	-0.09614204
29	0xbe4f0669	-0.20217289
30	0x355d4ab1	8.2437606e-07
31	0xbdcbc0da	-0.09948893

resnet_backbone/level_0/batch_normalization_2/FusedBatchNormV3 f4 [16]
0	0x4167d70f	14.490005
1	0x4146be17	12.421409
2	0x418256c9	16.292376
3	0x4175b5ee	15.356916
4	0x410e7e5c	8.905849
5	0x40ed7aab	7.421224
6	0x412740b6	10.453299
7	0x40bfa46b	5.9888206
8	0x40e96492	7.2935266
9	0x412aac6f	10.667098
10	0x407bec0a	3.9362817
11	0x41c6bf31	24.843355
12	0x41a992cf	21.196684
13	0x4148de3c	12.554256
14	0x40cc9cd7	6.3941455
15	0x407d5380	3.9582214

resnet_backbone/level_0/batch_normalization_2/FusedBatchNormV31 f4 [16]
0	0xbf0f4b7d	-0.5597456
1	0xbefe4aef	-0.49666545
2	0xbe9061db	-0.28199658
3	0xbff881e5	-1.9414641
4	0xbe1f0c00	-0.15531921
5	0xbf36cfa2	-0.7141057
6	0xbeb00023	-0.34375104
7	0xbfab7eb0	-1.3398037
8	0xbf08ef5e	-0.53490245
9	0xbe71f96f	-0.23630308
10	0xbf4d8f8e	-0.8029717
11	0xbe9cf0a3	-0.3065234
12	0xbf024ed4	-0.5090153
13	0xbdd37e08	-0.10326773
14	0xbf040066	-0.5156311
15	0xbe561d69	-0.20909657

resnet_backbone/level_0/batch_normalization_11/FusedBatchNormV3 f4 [32]
0	0x402a36dd	2.6595986
1	0x40693164	3.6436396
2	0x3ff50bea	1.9144261
3	0x3fa515c7	1.2897271
4	0x3f1f9df9	0.6235042
5	0x400bc714	2.1840258
6	0x3f81b338	1.0132818
7	0x40166fbb	2.3505695
8	0x3f84cdc8	1.03753
9	0x400db2b4	2.2140322
10	0x3f94f17b	1.1636194
11	0x3fa03cd4	1.2518563
12	0x3f834e21	1.0258218
13	0x405d1a14	3.4547167
14	0x3f83c364	1.0294003
15	0x3ffab914	1.9587731
16	0x3fce30a3	1.6108593
17	0x3f4cacdd	0.7995127
18	0x3f896c04	1.0736089
19	0x3f949ed5	1.1610972
20	0x3f596408	0.8491826
21	0x3f5cc3d2	0.862363
22	0x402249f7	2.5357645
23	0x400d20ed	2.2051346
24	0x3f15897e	0.5841292
25	0x3fbbe885	1.4680334
26	0x3f97df03	1.1864933
27	0x3f9221d4	1.1416574
28	0x3ff0af30	1.8803463
29	0x3fc7b213	1.5601219
30	0x3f8dba82	1.1072543
31	0x4042e970	3.045498

resnet_backbone/level_0/batch_normalization_11/FusedBatchNormV31 f4 [32]
0	0xbe5c68ff	-0.21524428
1	0xbe1b8cbf	-0.15190409
2	0xbdfac7fd	-0.12245176
3	0xbdf0d682	-0.11759664
4	0xbdff8362	-0.12476231
5	0xbe7ce0c8	-0.24695122
6	0xbde5e50a	-0.11225326
7	0xbeaecc59	-0.3414028
8	0xbdc0d62f	-0.09415852
9	0xbe734fe0	-0.23760939
10	0xbe3b6c17	-0.18302952
11	0xbe334f42	-0.17510703
12	0xbe7dbef3	-0.24779873
13	0xbe82fbd5	-0.25582758
14	0xbe8a07af	-0.26958987
15	0xbe27f198	-0.16400754
16	0xbde5377f	-0.11192226
17	0xbdb15479	-0.0865869
18	0xbe7dbf8e	-0.24780104
19	0xbe251bae	-0.1612384
20	0xbdd57076	-0.10421841
21	0xbdcc7519	-0.09983272
22	0xbeb11121	-0.3458338
23	0xbe50e8a8	-0.20401251
24	0xbde6ff9c	-0.11279222
25	0xbe6787f3	-0.22610454
26	0xbdf00c78	-0.11721128
27	0xbe8a7f9e	-0.2705049
28	0xbeaadb22	-0.3337031
29	0xbe2d22e9	-0.16907848
30	0xbe1fd619	-0.15609016
31	0xbebc5822	-0.3678599

resnet_backbone/level_0/batch_normalization_10/FusedBatchNormV3 f4 [16]
0	0x40beb081	5.959046
1	0x41089873	8.537219
2	0x41153a75	9.326772
3	0x412e98c2	10.912294
4	0x40e83dc6	7.2575407
5	0x40f92f48	7.7870216
6	0x41193362	9.575045
7	0x413d290d	11.822522
8	0x41232684	10.196903
9	0x411d6cd9	9.839074
10	0x40fd4122	7.914201
11	0x4093747e	4.60797
12	0x40ec9c56	7.394084
13	0x41130ff5	9.191396
14	0x410a4d67	8.643897
15	0x40f1a67e	7.5515738

resnet_backbone/level_0/batch_normalization_10/FusedBatchNormV31 f4 [16]
0	0xbdf862d6	-0.121282265
1	0xbe8c3a9b	-0.27388462
2	0xbe2c27f8	-0.16812122
3	0xbeb725c1	-0.3577099
4	0xbe89d3e3	-0.2691947
5	0xbe7bac0f	-0.24577354
6	0xbebc4503	-0.36771402
7	0xbe7405d1	-0.23830344
8	0xbe848b29	-0.2588742
9	0xbe8e2975	-0.27766004
10	0xbea1d7ad	-0.3160986
11	0xbe9cf33d	-0.30654326
12	0xbed42cce	-0.41440433
13	0xbef642bb	-0.48097786
14	0xbe4b1c4f	-0.19835018
15	0xbe0ebd79	-0.13939466

resnet_backbone/level_0/batch_normalization_1/FusedBatchNormV3 f4 [32]
0	0x3e40ec38	0.1884011
1	0x3e978b29	0.29598358
2	0x3ee3e625	0.44511524
3	0x3e7b6aeb	0.24552505
4	0x3e43e074	0.19128591
5	0x3f14fbaf	0.5819654
6	0x3e4eb51f	0.2018628
7	0x3d52fea9	0.051512394
8	0x3ec03356	0.37539166
9	0x3df62a64	0.12019804
10	0x3e92fe8b	0.28709826
11	0x3e5c6f51	0.21526839
12	0x3dc2d21a	0.0951273
13	0x3f057912	0.52137864
14	0x3dceec73	0.10103693
15	0x3eaa5a14	0.3327185
16	0x3eecbf8d	0.46239892
17	0x3e817bcc	0.25289762
18	0x3def109b	0.11673089
19	0x3e716bf3	0.23576336
20	0x3eae41bd	0.3403453
21	0x3db89e5f	0.09014582
22	0x3f412bd4	0.754575
23	0x3eb3424f	0.35011527
24	0x33989104	7.10443e-08
25	0x3e4313ce	0.19050524
26	0x3e6fc4b4	0.2341488
27	0x3e0b3b6d	0.13596888
28	0x3d9e16bb	0.07719179
29	0x3e72a7be	0.23696801
30	0x3ea1f4a7	0.31631967
31	0x3e2946cc	0.16530913

resnet_backbone/level_0/batch_normalization_1/FusedBatchNormV31 f4 [32]
0	0xbe1de39f	-0.15418862
1	0xbdc48efd	-0.09597585
2	0xbdc87869	-0.097885914
3	0xbe0f7044	-0.1400767
4	0xbe48c11c	-0.19604915
5	0xbe35bc9a	-0.17747727
6	0xbeefc5d5	-0.4683062
7	0xbc5a76f1	-0.013334022
8	0xbd95dc24	-0.07317379
9	0xbd8ae8da	-0.06782694
10	0xbdbbc800	-0.09169006
11	0xbdf2d692	-0.11857332
12	0xbe38bf04	-0.18041617
13	0xbe51d956	-0.20493063
14	0xbe430a55	-0.1904691
15	0xbdb9ab70	-0.09065902
16	0xbe3a8381	-0.18214227
17	0xbdf42f4f	-0.11923086
18	0xbd5eb1f0	-0.054368913
19	0xbe30cd48	-0.17265809
20	0xbeb9ed83	-0.3631402
21	0xbd80c9da	-0.062885
22	0xbdd3aaf5	-0.10335342
23	0xbe2afd5a	-0.16698208
24	0xb2bc3b28	-2.1912982e-08
25	0xbe801333	-0.25014648
26	0xbdbe23a6	-0.09284143
27	0xbe614771	-0.21999909
28	0xbd873539	-0.06601948
29	0xbdf432d4	-0.11923757
30	0xbe027b4d	-0.12742348
31	0xbe184c2f	-0.14872812

resnet_backbone/level_0/batch_normalization/FusedBatchNormV3 f4 [16]
0	0x4116c346	9.422674
1	0x412ac675	10.673451
2	0x408a5292	4.3225794
3	0x4032d6f6	2.7943702
4	0x40ba1d70	5.8160934
5	0x418a9112	17.320835
6	0x418573b5	16.681498
7	0x40bb26e2	5.8484964
8	0x41299e4d	10.601148
9	0x4114614e	9.273756
10	0x415c3d2a	13.764933
11	0x4116e129	9.429971
12	0x4160fd17	14.0617895
13	0x40edb3ac	7.4281826
14	0x411626f5	9.384511
15	0x4124ecd9	10.307824

resnet_backbone/level_0/batch_normalization/FusedBatchNormV31 f4 [16]
0	0xbf5b813d	-0.85744077
1	0xbe974c66	-0.29550475
2	0xbf7fcb99	-0.9992004
3	0xbf989a6e	-1.1922128
4	0xbf8e0bc1	-1.1097337
5	0xbec5e4c0	-0.38651085
6	0xbed39551	-0.41324857
7	0xbf07b6cf	-0.5301332
8	0xbf97dccc	-1.1864257
9	0xbf10ec93	-0.56610984
10	0xbee418f8	-0.445503
11	0xbec76640	-0.38945198
12	0xbec63bd3	-0.38717517
13	0xbf8b4072	-1.0879042
14	0xbef329a2	-0.474927
15	0xbf5da498	-0.86579275

inpaint_head/resnet_backbone/level_0/batch_normalization_23/FusedBatchNormV3 f4 [32]
0	0x3f63fa2b	0.890536
1	0x3f8856f7	1.065154
2	0x3f8a255d	1.0792652
3	0x402f3e22	2.7381673
4	0x3f88e641	1.0695268
5	0x3fe27378	1.7691488
6	0x3fa2e7fc	1.2727046
7	0x3f2abbba	0.666927
8	0x3f740a85	0.9532855
9	0x3f4a51b7	0.79030937
10	0x3f4a9c1c	0.79144454
11	0x3f389e01	0.72116095
12	0x3f8b5cfc	1.0887752
13	0x3f2289c9	0.63491493
14	0x40674af4	3.6139498
15	0x3f276426	0.6538719
16	0x402d2df6	2.7059302
17	0x400d2b59	2.2057707
18	0x3f1ec446	0.6201824
19	0x3f95b98e	1.1697252
20	0x3f657835	0.89636546
21	0x3f578af2	0.8419639
22	0x3f8ab5f0	1.0836773
23	0x3f427178	0.7595439
24	0x3ffd61d0	1.9795475
25	0x3fd9dd20	1.7020607
26	0x40212ab5	2.5182316
27	0x3ff968f0	1.9485149
28	0x3f1f1664	0.6214354
29	0x3f29d928	0.6634698
30	0x3fa8668d	1.3156296
31	0x3f74684e	0.95471656

inpaint_head/resnet_backbone/level_0/batch_normalization_23/FusedBatchNormV31 f4 [32]
0	0xbe8de2d9	-0.27712134
1	0xbe8c461e	-0.27397245
2	0xbe615b6c	-0.22007531
3	0xbe8a611e	-0.2702722
4	0xbde774f6	-0.113016054
5	0xbe0d4078	-0.13794124
6	0xbe7ac222	-0.24488118
7	0xbe856128	-0.26050687
8	0xbdcfeb19	-0.10152263
9	0xbe6ffc5f	-0.23436116
10	0xbe8c991b	-0.2746056
11	0xbe9f514e	-0.31116718
12	0xbe3c16be	-0.1836805
13	0xbe226053	-0.15857057
14	0xbeba108d	-0.36340752
15	0xbe81b5e1	-0.25334075
16	0xbe1ef90e	-0.15524694
17	0xbee411ae	-0.4454474
18	0xbe016e9b	-0.12639849
19	0xbdcc1a87	-0.09965997
20	0xbe96d417	-0.29458687
21	0xbea037b6	-0.31292504
22	0xbe65b985	-0.22434051
23	0xbe01beb1	-0.12670399
24	0xbe210bf0	-0.1572721
25	0xbeafa059	-0.34302023
26	0xbe4ccdfb	-0.2000045
27	0xbe19bb8f	-0.15012954
28	0xbe5460e5	-0.20740087
29	0xbeb455d3	-0.3522173
30	0xbe41d490	-0.18928742
31	0xbe399823	-0.18124442

inpaint_head/resnet_backbone/level_0/batch_normalization_22/FusedBatchNormV3 f4 [16]
0	0x428251e0	65.15991
1	0x42172c2f	37.793148
2	0x41d498fb	26.574697
3	0x40c0c24b	6.0237174
4	0x4264d723	57.210094
5	0x419a37c6	19.277233
6	0x41a3ab9d	20.458796
7	0x41da9f33	27.327734
8	0x41bfdc02	23.982426
9	0x410673ba	8.403254
10	0x41cc9c4f	25.576323
11	0x41d9b3e9	27.212847
12	0x4247c17d	49.938953
13	0x417a7cfc	15.655514
14	0x411e4bea	9.893534
15	0x41cf53c1	25.915895

inpaint_head/resnet_backbone/level_0/batch_normalization_22/FusedBatchNormV31 f4 [16]
0	0xbd5ce50a	-0.053929366
1	0xbeaf4eb8	-0.34239745
2	0xbe80a1a7	-0.2512333
3	0xbf8dd025	-1.1079146
4	0xbdb3b773	-0.087752245
5	0xbf25b08e	-0.64722526
6	0xbfe3140f	-1.7740496
7	0xbe8dee18	-0.27720714
8	0xbeac16f8	-0.33611274
9	0xc00d59b4	-2.2086
10	0xbe9defac	-0.30846918
11	0xbfa23d91	-1.2675039
12	0xbebfe120	-0.37476444
13	0xbf19c76c	-0.6006992
14	0xbf86244b	-1.0479826
15	0xbe6ae297	-0.22938

inpaint_head/resnet_backbone/level_0/batch_normalization_21/FusedBatchNormV3 f4 [32]
0	0x3e9acea2	0.30235773
1	0x3fd0d571	1.6315137
2	0x3fb40cfd	1.4066464
3	0x3fd97134	1.6987672
4	0x4016f124	2.358468
5	0x3faa6b7c	1.3314052
6	0x3f8a0222	1.0781901
7	0x3fdc6563	1.7218441
8	0x3fb901cd	1.4453675
9	0x3f4a59c9	0.7904325
10	0x3fb9798e	1.449022
11	0x3f677e3c	0.90426993
12	0x404d35af	3.2064016
13	0x3fc693d7	1.5513867
14	0x401dbf1f	2.46479
15	0x405d558b	3.4583461
16	0x404d04ba	3.2034135
17	0x3ff93db3	1.9471954
18	0x4017c871	2.371609
19	0x400340f4	2.0508394
20	0x40555f0c	3.3339262
21	0x3ed3092c	0.41217935
22	0x3fa81eab	1.3134359
23	0x3f68f64d	0.91000825
24	0x404a8094	3.1640978
25	0x3fe47117	1.7847012
26	0x400440d8	2.0664577
27	0x4024db06	2.5758681
28	0x40071fd9	2.1113188
29	0x3f300ad4	0.6876652
30	0x3fdf0827	1.7424363
31	0x3ff1478e	1.8849962

inpaint_head/resnet_backbone/level_0/batch_normalization_21/FusedBatchNormV31 f4 [32]
0	0xbdaf7d4e	-0.08568822
1	0xbe1efb99	-0.15525664
2	0xbe5a5a76	-0.2132357
3	0xbe1dbfad	-0.1540515
4	0xbe9eefcc	-0.31042325
5	0xbe42dc62	-0.19029382
6	0xbe348743	-0.17629723
7	0xbe2d6630	-0.16933513
8	0xbe52a956	-0.20572409
9	0xbdcf6cc2	-0.10128166
10	0xbe848aa5	-0.25887027
11	0xbe1754a4	-0.14778382
12	0xbe9875ae	-0.29777282
13	0xbe80c189	-0.25147656
14	0xbe787aa0	-0.24265528
15	0xbedc1d39	-0.42991045
16	0xbe967b94	-0.29391158
17	0xbe615d2a	-0.22008196
18	0xbe62c4d3	-0.22145395
19	0xbe6e21d8	-0.23255098
20	0xbeb46e81	-0.35240558
21	0xbd83c85d	-0.06434701
22	0xbe4cd05a	-0.20001355
23	0xbe13d301	-0.1443596
24	0xbebb8c58	-0.3663051
25	0xbe5f32e2	-0.21796754
26	0xbe55b2cd	-0.20868988
27	0xbeb24bb8	-0.34823394
28	0xbe4b4cab	-0.19853465
29	0xbdb943fe	-0.090461716
30	0xbe4439e2	-0.19162706
31	0xbe96e74f	-0.2947335

inpaint_head/resnet_backbone/level_0/batch_normalization_20/FusedBatchNormV3 f4 [16]
0	0x418d47d5	17.660074
1	0x41d67d9c	26.811333
2	0x42964980	75.143555
3	0x4272f55d	60.739613
4	0x41ee284c	29.769676
5	0x41cc2b42	25.521122
6	0x423d937e	47.394035
7	0x4202e9b4	32.728226
8	0x41a8dc16	21.107464
9	0x41e400b9	28.500353
10	0x41a2799f	20.309385
11	0x4276b8b1	61.680363
12	0x41c4bd9f	24.592588
13	0x42a5251c	82.57248
14	0x42446787	49.1011
15	0x42bc6848	94.203674

inpaint_head/resnet_backbone/level_0/batch_normalization_20/FusedBatchNormV31 f4 [16]
0	0xbfb65ce5	-1.4247099
1	0xbf2054cf	-0.6262941
2	0xbdaecaa7	-0.085347466
3	0xbd5e5b2c	-0.054286167
4	0xbf06b7f1	-0.5262442
5	0xbeb93fee	-0.36181587
6	0xbd23effe	-0.040023796
7	0xbe327fd4	-0.17431575
8	0xbfc1411d	-1.5097996
9	0xbe232946	-0.15933713
10	0xbf315f16	-0.69285715
11	0xbdc652cf	-0.09683763
12	0xbf0bb4cd	-0.54572755
13	0xbe8ff1ed	-0.28114262
14	0xbda18854	-0.07887331
15	0xbdae58bd	-0.08513019

inpaint_head/resnet_backbone/level_0/batch_normalization_19/FusedBatchNormV3 f4 [32]
0	0x3f6baa0e	0.9205636
1	0x3ff7eda1	1.9369394
2	0x3f87aa48	1.0598841
3	0x4051fe0d	3.281131
4	0x3fc49381	1.5357515
5	0x3fe666ae	1.8000085
6	0x40286223	2.6309898
7	0x3fe1b558	1.7633467
8	0x403ef399	2.983618
9	0x3fee9ae4	1.8641019
10	0x3fb46d8d	1.4095932
11	0x3f8ce77b	1.1008142
12	0x4005a989	2.0884726
13	0x3fceafc8	1.6147394
14	0x3fdb39aa	1.7126973
15	0x402971df	2.6475751
16	0x40230cba	2.5476518
17	0x3ebc5133	0.367807
18	0x3e9af7d6	0.3026721
19	0x3fdf6ec7	1.7455682
20	0x3fab3a7d	1.3377224
21	0x3e851fe1	0.26000884
22	0x3f0ab84f	0.5418748
23	0x4040cbd7	3.0124414
24	0x3fb99067	1.4497193
25	0x3f4aff04	0.7929537
26	0x40194980	2.395111
27	0x40451952	3.0796704
28	0x3f75c198	0.95998526
29	0x4007af52	2.1200757
30	0x3f524a10	0.8214426
31	0x3ea79528	0.32730985

inpaint_head/resnet_backbone/level_0/batch_normalization_19/FusedBatchNormV31 f4 [32]
0	0xbe1f9785	-0.15585144
1	0xbdf263e7	-0.11835461
2	0xbe1bc04a	-0.15210071
3	0xbdf202b0	-0.11816919
4	0xbe1131c5	-0.14179142
5	0xbe2b176c	-0.16708153
6	0xbe93028f	-0.2871289
7	0xbe7c55e2	-0.24642137
8	0xbea24748	-0.31695008
9	0xbe853eac	-0.26024377
10	0xbe60ad2b	-0.21941058
11	0xbd8866ef	-0.06660258
12	0xbe89c72e	-0.26909775
13	0xbe7c30f9	-0.24628057
14	0xbe6769ac	-0.22598904
15	0xbea69e6a	-0.32542735
16	0xbe164512	-0.14674786
17	0xbde6ac4e	-0.11263333
18	0xbe347bc9	-0.17625345
19	0xbe51a7fe	-0.2047424
20	0xbe4ab050	-0.1979382
21	0xbe35ebc3	-0.17765717
22	0xbd4bfafc	-0.049799904
23	0xbe5ef56c	-0.21773309
24	0xbe1ef9ca	-0.15524974
25	0xbe2e149e	-0.17000052
26	0xbe46ea92	-0.19425419
27	0xbe9ac4f5	-0.3022839
28	0xbeb4539d	-0.35220042
29	0xbe2ff43c	-0.17183012
30	0xbe507a08	-0.20359051
31	0xbdcba563	-0.099436544

inpaint_head/resnet_backbone/level_0/batch_normalization_18/FusedBatchNormV3 f4 [16]
0	0x41b941ae	23.15707
1	0x42848da3	66.276634
2	0x4293dcc5	73.93119
3	0x420e1ea6	35.52993
4	0x42828c6f	65.274284
5	0x41b2dbf1	22.357393
6	0x429b3d77	77.62005
7	0x41b8b570	23.088593
8	0x428fe8fe	71.95506
9	0x425dd868	55.461334
10	0x42852b41	66.58448
11	0x41593920	13.576447
12	0x42447681	49.115726
13	0x4160142d	14.004926
14	0x41a99134	21.1959
15	0x42075506	33.83303

inpaint_head/resnet_backbone/level_0/batch_normalization_18/FusedBatchNormV31 f4 [16]
0	0xbfae1511	-1.3600179
1	0xbe3181bf	-0.1733465
2	0xbd2a50da	-0.041581012
3	0xbf3201c0	-0.6953392
4	0xbd88289f	-0.06648373
5	0xbecf2165	-0.40455166
6	0xbd822c9d	-0.063561656
7	0xbe958e90	-0.2921033
8	0xbe1c306c	-0.15252846
9	0xbd624e9e	-0.055250756
10	0xbd7e1fab	-0.06204192
11	0xc031ee01	-2.7801516
12	0xbe3a76b4	-0.18209344
13	0xc037509e	-2.8642955
14	0xbf01a5a7	-0.5064339
15	0xbe606f66	-0.21917495

inpaint_head/conv2d_40/Conv2D f4 [3, 1, 1, 17]
0	0x38c4b768	9.3801704e-05
1	0x3c8dc161	0.017304124
2	0xbabd6dfb	-0.0014452332
3	0x3b9c16f8	0.0047634803
4	0xb9e2dfe4	-0.0004327289
5	0x3cb14bce	0.021642592
6	0x3d666177	0.056245293
7	0xbd683903	-0.056694996
8	0xbb26004b	-0.0025329764
9	0x3a10852b	0.00055130076
10	0xbbacc416	-0.0052723987
11	0x3996e45e	0.00028780376
12	0x3b72293b	0.0036950845
13	0xbde5d208	-0.11221701
14	0xbc8e59d7	-0.017376823
15	0xbe6ee2c4	-0.23328692
16	0xb5e2a65b	-1.6886728e-06
17	0x3a4cb0eb	0.0007808345
18	0xbd16100f	-0.03663641
19	0x3b69c0da	0.0035667927
20	0xbc36585c	-0.011129465
21	0xb9b824cf	-0.0003512264
22	0xbd6baad9	-0.05753598
23	0xbdbfa516	-0.093576595
24	0x3c74a11b	0.014930989
25	0x3ac00e3a	0.0014652677
26	0x3c0615c1	0.0081838975
27	0xbc085490	-0.0083209425
28	0x39e9f5d6	0.00044624385
29	0x3b3e0283	0.0028993196
30	0x37da36d8	2.6013164e-05
31	0x3bb29018	0.005449306
32	0xbe7362f1	-0.23768212
33	0xb5e2a6fb	-1.688691e-06
34	0x3ad468ff	0.0016205608
35	0x3cafc287	0.021455063
36	0xbaa4d600	-0.0012575984
37	0x3ba45a8d	0.0050156773
38	0x3a78b457	0.0009487322
39	0x3d17cee8	0.037062556
40	0x3d2532b1	0.040331546
41	0x3d2d264a	0.042272843
42	0x3b123ea8	0.0022315178
43	0xbb0f96db	-0.0021909985
44	0xbbc88539	-0.006119397
45	0xbab24a8e	-0.0013602541
46	0x3b7a7289	0.003821524
47	0x3dee343f	0.11631059
48	0xbc586e25	-0.013209854
49	0xbe7686e5	-0.24074896
50	0x35e2a6db	1.6886873e-06

inpaint_head/conv2d_40/Conv2D1 f4 [3]
0	0x00000000	0.0
1	0x00000000	0.0
2	0x00000000	0.0

inpaint_head/resnet_backbone/level_0/conv2d_39/Conv2D f4 [16, 1, 1, 32]
0	0xb672ec2f	-3.6198287e-06
1	0x35e360e0	1.6941012e-06
2	0xb6aa2c74	-5.07157e-06
3	0xb5c44785	-1.4623953e-06
4	0x36d3d6a2	6.3132766e-06
5	0xb6c25846	-5.791927e-06
6	0xb717dc2e	-9.051566e-06
7	0xb6b15067	-5.284371e-06
8	0x34f516b0	4.5651313e-07
9	0x36979740	4.5177585e-06
10	0x367b7049	3.7467273e-06
11	0xb5d288c4	-1.5686023e-06
12	0xb72f94b6	-1.0465437e-05
13	0xb608b744	-2.0372254e-06
14	0x3402e1e0	1.2189366e-07
15	0xb69890e4	-4.5468205e-06
16	0xb7343a1e	-1.07423675e-05
17	0xb7854084	-1.5884878e-05
18	0xb72a3f24	-1.0147491e-05
19	0xb6bf709c	-5.705353e-06
20	0x366695fb	3.435997e-06
21	0xb68fdba7	-4.287303e-06
22	0x35a4f96a	1.2291541e-06
23	0xb7012d27	-7.699512e-06
24	0xb68a3f32	-4.1200774e-06
25	0x36740e2d	3.6367085e-06
26	0xb6e15b2e	-6.7161372e-06
27	0xb689be42	-4.105067e-06
28	0xb58ac58a	-1.0339293e-06
29	0xb73fab58	-1.1424381e-05
30	0x360001cc	1.9074532e-06
31	0xb792e783	-1.7512362e-05
32	0x38932b8d	7.017618e-05
33	0xb8237b52	-3.897708e-05
34	0xb8e02189	-0.00010687399
35	0x37908016	1.7225782e-05
36	0x39c34b24	0.00037249282
37	0xb8f20d90	-0.000115419854
38	0xb7b8892e	-2.1998389e-05
39	0xb7c3af6d	-2.33275e-05
40	0x3818f8a5	3.6471192e-05
41	0x38aeb954	8.3314866e-05
42	0x38cc1f5c	9.733319e-05
43	0xb8ca2617	-9.6392054e-05
44	0x3810dc6b	3.4537556e-05
45	0x379fef18	1.9065614e-05
46	0xb84bde27	-4.8605867e-05
47	0xb881ca42	-6.188873e-05
48	0xb907abb2	-0.00012938565
49	0x3a766136	0.0009398641
50	0xb88ba799	-6.659254e-05
51	0xb859c944	-5.1924275e-05
52	0x38eb6cc6	0.00011225934
53	0xb7543800	-1.2649223e-05
54	0x38e54d32	0.0001093395
55	0xb8aa27dc	-8.113656e-05
56	0x3aeb3e05	0.001794756
57	0xb91a157e	-0.00014694591
58	0xb904fc78	-0.00012682553
59	0xb8c19e09	-9.2323935e-05
60	0x379d92da	1.8784242e-05
61	0xb8d2a050	-0.00010043441
62	0x370ef293	8.520338e-06
63	0xb828b9b7	-4.022728e-05
64	0xb5aa89ce	-1.2706093e-06
65	0x33ec47e0	1.10026804e-07
66	0x3660ad62	3.3479523e-06
67	0x35a9b892	1.2645198e-06
68	0xb7c593ed	-2.3553113e-05
69	0xb65c277c	-3.2805538e-06
70	0xb646cb0e	-2.9622493e-06
71	0xb652c9d1	-3.140991e-06
72	0xb5e35ce3	-1.6939852e-06
73	0x3519bc98	5.727138e-07
74	0xb5458158	-7.357644e-07
75	0xb55e57fc	-8.282948e-07
76	0xb65e607e	-3.3136744e-06
77	0xb6783edd	-3.699147e-06
78	0xb608e383	-2.0398008e-06
79	0x3672b18c	3.6164156e-06
80	0xb6e0442d	-6.683657e-06
81	0xb8ad0fc8	-8.252222e-05
82	0xb5f092c8	-1.7924112e-06
83	0xb5f476bd	-1.8213974e-06
84	0xb6c61b4f	-5.904039e-06
85	0xb608020f	-2.0266777e-06
86	0xb6f55611	-7.3115884e-06
87	0xb347bd40	-4.650542e-08
88	0xb580a768	-9.585465e-07
89	0x363aab7c	2.7815977e-06
90	0xb6280e84	-2.50424e-06
91	0xb66b70e4	-3.508344e-06
92	0xb699c1e0	-4.5823253e-06
93	0xb5b02452	-1.3123592e-06
94	0xb6a12486	-4.802426e-06
95	0xb70903a1	-8.166681e-06
96	0x3698fb68	4.5592205e-06
97	0xb784e1ad	-1.5840715e-05
98	0xb830a002	-4.211069e-05
99	0x37449db2	1.1719227e-05
100	0x389a8829	7.368654e-05
101	0xb75d9b00	-1.3208715e-05
102	0x36e22691	6.7398146e-06
103	0x3712f331	8.758901e-06
104	0x373b9856	1.1181537e-05
105	0x37aaa188	2.0340798e-05
106	0x37991112	1.824697e-05
107	0xb6ff500e	-7.608912e-06
108	0xb6900108	-4.2916545e-06
109	0x3782587e	1.5538415e-05
110	0x363211de	2.6534467e-06
111	0xb7403040	-1.1455326e-05
112	0x37ac5eba	2.0548108e-05
113	0x3e94f37d	0.29092017
114	0xb75ad998	-1.3044475e-05
115	0xb738a5d3	-1.1005864e-05
116	0x3793855d	1.7585868e-05
117	0xb73c53fa	-1.12252255e-05
118	0x37a34dde	1.9467374e-05
119	0xb7e1bf23	-2.6911095e-05
120	0xb7311e9a	-1.0557147e-05
121	0xb7c494eb	-2.3434366e-05
122	0xb7ce0eae	-2.456395e-05
123	0xb7a9e3e6	-2.0252493e-05
124	0x36be32a4	5.6683366e-06
125	0xb7a9c442	-2.023776e-05
126	0x34aeb140	3.2538992e-07
127	0x37521e38	1.2524011e-05
128	0x35f0b45c	1.7933885e-06
129	0x35a9e4d6	1.2658081e-06
130	0x360cdff0	2.0991974e-06
131	0xb6290fac	-2.5192085e-06
132	0xb66c31f6	-3.5195822e-06
133	0x36574b90	3.208148e-06
134	0x36c291d0	5.7986254e-06
135	0x369578d6	4.454613e-06
136	0x36728cbf	3.6142735e-06
137	0xb63de9c4	-2.8299264e-06
138	0xb5e4dee0	-1.7052189e-06
139	0xb5e3ec94	-1.6981671e-06
140	0x3666ee59	3.4411407e-06
141	0x368feba1	4.289163e-06
142	0xb46b43d0	-2.191075e-07
143	0x35f40ec0	1.818371e-06
144	0x36ed12ae	7.065325e-06
145	0x36e355a4	6.775097e-06
146	0x36c62aa4	5.905824e-06
147	0x35fc5058	1.8798846e-06
148	0xb633d3f9	-2.6796463e-06
149	0xb6371baa	-2.7285228e-06
150	0xb586f0da	-1.0053875e-06
151	0x36847b81	3.9482843e-06
152	0x3682a550	3.893547e-06
153	0x32cdfc80	2.3979965e-08
154	0x36a1817e	4.813249e-06
155	0x36934a46	4.389588e-06
156	0x35fd1aa0	1.8857718e-06
157	0x36d5cb8e	6.3715916e-06
158	0x35d6c3d8	1.600124e-06
159	0x371429df	8.831236e-06
160	0x38c75de4	9.506548e-05
161	0xb8c4e38c	-9.388392e-05
162	0xb888e314	-6.527282e-05
163	0xb8912be9	-6.922318e-05
164	0xbb8e4f14	-0.004342923
165	0xb950daf2	-0.00019917989
166	0xb7a0f1e0	-1.9186118e-05
167	0x3817eebd	3.6223548e-05
168	0x38bdca95	9.049956e-05
169	0x392730bf	0.0001594452
170	0x39a504f5	0.00031474946
171	0xb93a3304	-0.00017757347
172	0x392e1c38	0.00016604445
173	0xb84dfe7b	-4.9112812e-05
174	0xb81e99f0	-3.78135e-05
175	0xb900ee30	-0.00012295763
176	0xba0ecad4	-0.0005447094
177	0x3a3343c6	0.0006838407
178	0xb82c6154	-4.109864e-05
179	0x38975ac7	7.21715e-05
180	0x391542e0	0.0001423466
181	0xb893dd8d	-7.050773e-05
182	0x395c7d1f	0.00021027446
183	0xb84ea63e	-4.9269052e-05
184	0x3bfd3169	0.0077268374
185	0xb95ad32a	-0.00020868765
186	0xbc094ae8	-0.008379675
187	0xb81b7b06	-3.7069454e-05
188	0x37c1e364	2.311328e-05
189	0xb82a868e	-4.0656472e-05
190	0x3826387a	3.9630082e-05
191	0xb62a1180	-2.534216e-06
192	0x3b23f474	0.0025017532
193	0xb8e0fd0b	-0.00010728285
194	0xb7cd6950	-2.4486944e-05
195	0xbacb52f2	-0.001551239
196	0xbe02727e	-0.12738988
197	0xbaa669e5	-0.0012696354
198	0xb94719a2	-0.00018987668
199	0x3965bccf	0.00021909479
200	0x38f8ac94	0.00011857707
201	0x39f38119	0.00046444757
202	0x3a2bf788	0.00065600174
203	0xb99b8671	-0.0002966407
204	0x398b5003	0.0002657176
205	0xb96d01ae	-0.00022602707
206	0xba070886	-0.00051511114
207	0xb915efe4	-0.00014299114
208	0xbb0cf040	-0.0021505505
209	0x3d14277f	0.03617048
210	0xb6530074	-3.1441714e-06
211	0x3aa6371f	0.0012681222
212	0x3a8d7701	0.0010792912
213	0xb905e73c	-0.0001277001
214	0x3a3c11dc	0.0007174292
215	0xb854bd4c	-5.0721035e-05
216	0x3e6b6d24	0.22990853
217	0x39299616	0.00016173007
218	0xbe3f2290	-0.18665528
219	0x3b74dd1c	0.0037363237
220	0x391a103f	0.00014692637
221	0x3ac133b5	0.0014740141
222	0x37c29058	2.3193817e-05
223	0x3b522e70	0.0032071136
224	0xba558079	-0.0008144449
225	0x3a891093	0.001045721
226	0xb930c938	-0.00016859628
227	0xb967bc43	-0.0002210001
228	0x3942ecf0	0.00018589548
229	0xb8b7defa	-8.7676526e-05
230	0x37d4fae6	2.5389203e-05
231	0xb885290e	-6.349581e-05
232	0xb8285586	-4.013397e-05
233	0xb72fed20	-1.0486023e-05
234	0xbacb0190	-0.0015488137
235	0xb8ac1093	-8.204686e-05
236	0xb9640837	-0.00021746835
237	0xbaae9cdf	-0.0013321898
238	0x3a1bdd56	0.00059457624
239	0xb984e293	-0.00025345813
240	0x3b0f5938	0.0021873247
241	0xb9a3e8e2	-0.00031263294
242	0xb92a2740	-0.00016227085
243	0xb9df5e28	-0.00042604026
244	0xb9037264	-0.00012535747
245	0xb94035ed	-0.00018330636
246	0xbb4968c0	-0.0030732602
247	0xb881c08a	-6.1870625e-05
248	0xb8c94c7e	-9.598675e-05
249	0xba6f3721	-0.00091253413
250	0xb8d7e765	-0.000102950995
251	0xb9cda9e4	-0.00039227225
252	0x3a8a86fd	0.0010568794
253	0xb91170f4	-0.00013870356
254	0xb8d681c0	-0.00010228483
255	0xb93aa313	-0.00017799092

inpaint_head/resnet_backbone/level_0/conv2d_37/Conv2D f4 [16, 1, 1, 16]
0	0x3d3d653b	0.04623912
1	0xbc406a8e	-0.011744155
2	0x3d1b9c94	0.03799112
3	0x3c671c25	0.014105831
4	0xbb730d3f	-0.0037086753
5	0x3ba13f22	0.004920856
6	0x3a8f1d8a	0.0010918838
7	0x3ad555e2	0.0016276205
8	0x39a6f390	0.00031843456
9	0xbde16799	-0.11006088
10	0xbdc0261b	-0.09382268
11	0x3cf4c7bc	0.029880397
12	0xbe6ef1c8	-0.2333442
13	0xba453ce9	-0.000752403
14	0xbca67eb6	-0.020324092
15	0xba3cc6c3	-0.00072012487
16	0xbb60ef29	-0.0034322238
17	0xbc000440	-0.007813513
18	0x3b59cc8e	0.0033233496
19	0xbc57b9b1	-0.013166831
20	0xbe161fdf	-0.14660595
21	0x3ba66403	0.0050778403
22	0xbb0df867	-0.0021662952
23	0xbb114284	-0.002216489
24	0xb9cb31e3	-0.00038756346
25	0x3b5e642b	0.0033934216
26	0xba2d9234	-0.0006621212
27	0xbd815d74	-0.06316653
28	0xbb6dec90	-0.0036304332
29	0xb9a677a8	-0.00031751138
30	0xbc944755	-0.01810042
31	0xb9c8891a	-0.0003824912
32	0x3c99baac	0.01876577
33	0xbd6bc03f	-0.057556387
34	0x3d4904f4	0.04907699
35	0xbd7919a5	-0.060815472
36	0xb9a97fb9	-0.00032329353
37	0xbce78723	-0.02826268
38	0xba325178	-0.0006802301
39	0xbc17e8e1	-0.009271831
40	0xbd984f2c	-0.07436976
41	0x3c5c94af	0.013463183
42	0xbc23d8bb	-0.010000403
43	0x38ef788c	0.00011418862
44	0x38e5b587	0.00010953383
45	0xb98ecc3e	-0.00027236523
46	0x3d869705	0.065717734
47	0x3bea4448	0.007149253
48	0xb6117200	-2.167304e-06
49	0x3bacfdf7	0.0052792984
50	0xbc1da9c0	-0.009622991
51	0x3ab9489f	0.0014136023
52	0x39cf502c	0.0003954185
53	0xba5d40ca	-0.0008440135
54	0x3a72b039	0.00092578266
55	0x3e531a56	0.20615515
56	0x3b038caf	0.0020072868
57	0x397f31d8	0.00024337263
58	0x3d203828	0.039116055
59	0xba1f37c4	-0.00060736784
60	0x397af6c8	0.00023933791
61	0xbaabf63f	-0.0013119652
62	0xbf4039d5	-0.75088245
63	0xbde65814	-0.11247268
64	0xbdaa4d99	-0.08315582
65	0xbdcaf618	-0.0991022
66	0x3d7166e0	0.058936
67	0x3d596960	0.05307901
68	0x3c98c5da	0.01864903
69	0x3db62ace	0.08894883
70	0xba197ccc	-0.0005855083
71	0xbc18d407	-0.009327895
72	0x3b497ec2	0.003074572
73	0x398e278e	0.0002711382
74	0xbd51901f	-0.051162835
75	0x3be0b86e	0.006857923
76	0xbde9e920	-0.11421418
77	0xbb05923a	-0.0020381347
78	0xbbbb4336	-0.0057147993
79	0xbad2ee53	-0.0016092755
80	0x3c9ab775	0.018886307
81	0x3d97821c	0.07397863
82	0x3ca00297	0.019532485
83	0x3e90d087	0.28284094
84	0xb978dda9	-0.00023733698
85	0x3e1b7b4f	0.15183757
86	0xbc34d568	-0.011037208
87	0x3d33b669	0.04387513
88	0xba113dd2	-0.0005540523
89	0xbe0e6e89	-0.13909353
90	0xbbd0542a	-0.0063576894
91	0x39271267	0.00015933216
92	0x39eec6c5	0.00045542992
93	0xba9b8fad	-0.001186838
94	0xbdd7d0c2	-0.10537864
95	0xbc98879d	-0.018619353
96	0x3afd8f8e	0.0019345151
97	0x3adc3de0	0.0016803108
98	0xbe0cf9ab	-0.13767116
99	0x3d82c495	0.06385151
100	0xbc790c7a	-0.015200729
101	0x3c09cf7f	0.008411287
102	0xb9872535	-0.00025776928
103	0x3bc15ba5	0.0059008175
104	0x3b82e075	0.0039940425
105	0x3dcb1df7	0.09917825
106	0xbd64eda4	-0.055890694
107	0x3a5e239c	0.0008473934
108	0x3c9b6882	0.018970732
109	0x3a51b8bd	0.00080002454
110	0x3dc2fe38	0.09521145
111	0x3c4aa97e	0.012369512
112	0xb93c38f8	-0.000179503
113	0xb99284c4	-0.00027946208
114	0x3c60d507	0.013722665
115	0x3d6a62d5	0.05722316
116	0x3a6745bb	0.00088223413
117	0xba859bea	-0.0010193561
118	0xba6d2068	-0.00090456614
119	0xb99df9d2	-0.00030131504
120	0xb9d1328d	-0.0003990125
121	0x39a91e9c	0.00032256998
122	0xbee5a55c	-0.44852722
123	0xbdac0226	-0.08398847
124	0x3e20e2d3	0.15711527
125	0x3b17efdf	0.0023183746
126	0x3e031de8	0.12804377
127	0x3c868439	0.01642047
128	0xbc4f2771	-0.012643681
129	0xbd07f2bd	-0.033190478
130	0x3e1bdb34	0.15220338
131	0x3c0aef77	0.008479944
132	0xbd208ed3	-0.039198708
133	0x3b2f6f66	0.002676928
134	0x3aa0e380	0.0012274832
135	0xbbc72b23	-0.0060781403
136	0x3b087ecb	0.0020827528
137	0x3aa2629e	0.0012389009
138	0x3a365dac	0.0006956707
139	0x3a80164f	0.0009772273
140	0xbbc5ca55	-0.0060360827
141	0xba909833	-0.0011031687
142	0xbebbcf04	-0.36681378
143	0xbd5e900e	-0.0543366
144	0xba643c54	-0.00087064994
145	0xbba4311b	-0.0050107366
146	0xbe023e6b	-0.12719123
147	0x3ab9096e	0.001411719
148	0xb959c6af	-0.00020768748
149	0x3c3c7701	0.011502982
150	0x3a68ed9c	0.0008885504
151	0x3b946048	0.004528079
152	0xb8b84f02	-8.78852e-05
153	0xbd96d977	-0.07365697
154	0x3a767414	0.0009401452
155	0x398e2239	0.00027109848
156	0x3ea07358	0.31338
157	0x3b81a1c0	0.0039560497
158	0xbc080efa	-0.008304352
159	0xba5cc456	-0.00084215903
160	0x3cc8630b	0.02446129
161	0xbcc657c6	-0.024211776
162	0x3d8bf67a	0.06834121
163	0xbd955a62	-0.0729263
164	0xb9fa698d	-0.00047762357
165	0x3d207bf6	0.03918072
166	0xba59f4b8	-0.0008314359
167	0x3d4e0fd0	0.05030805
168	0x3e09e15d	0.13464876
169	0x3c2d85c8	0.010590978
170	0xbca1f110	-0.019768268
171	0xbb836641	-0.0040099923
172	0xba9572e8	-0.0011402043
173	0x3a9ca262	0.0011950249
174	0x3da06376	0.07831471
175	0x3c213508	0.009839304
176	0xb82fc03c	-4.1902284e-05
177	0xbb4a02d8	-0.003082445
178	0xbd748ecf	-0.059706505
179	0x39931cf4	0.00028059597
180	0x3e04cfa9	0.12969841
181	0x3b4078b8	0.002936883
182	0x3a1d9f3c	0.00060128025
183	0x39b68f52	0.00034820527
184	0x3a07e1c5	0.00051834836
185	0x3c77aeea	0.015117386
186	0x3986d95a	0.0002572041
187	0xb8a5289a	-7.875376e-05
188	0xbc5f43e5	-0.013627027
189	0x3a0e976d	0.00054394343
190	0x3d438ca7	0.04774156
191	0x3bc15cc6	0.005900952
192	0x3d522c53	0.051311802
193	0xbc8622d2	-0.016374025
194	0x3b084307	0.0020791905
195	0x3d0b2a0a	0.03397564
196	0xbcd0f8bc	-0.02550923
197	0x39264d18	0.00015859713
198	0x3a88fd88	0.0010451535
199	0xba3a36b5	-0.0007103489
200	0x3bb1fc80	0.0054317117
201	0xbcbd56fa	-0.023112763
202	0x3c0f6969	0.008753159
203	0x3cdec675	0.027194241
204	0xbb1b7bdd	-0.0023724951
205	0xb968f7db	-0.00022217577
206	0x3b44102f	0.0029916873
207	0xbaa37e86	-0.001247362
208	0x39560d2b	0.00020413536
209	0xbe10776b	-0.14108054
210	0x3c106ebd	0.008815465
211	0x3e8485b6	0.25883263
212	0x39e8c83e	0.0004439968
213	0xbe5944bb	-0.21217625
214	0x3d07bc05	0.033138294
215	0x3c79a7b8	0.015237741
216	0xbbd592da	-0.00651775
217	0xbdfc3f82	-0.12316801
218	0xbbde8486	-0.0067907004
219	0x3ab9a868	0.0014164569
220	0x39964a3b	0.00028665536
221	0x3b807f9d	0.0039214627
222	0xbdf46cbb	-0.11934801
223	0xbc931e68	-0.017958835
224	0x39bbd7aa	0.00035828102
225	0x3b8daf69	0.004323889
226	0xbc5802b0	-0.0131842345
227	0x3e2f67c0	0.17129421
228	0x3942bad8	0.00018570886
229	0xbc61dd48	-0.013785668
230	0xb9e3b9bb	-0.00043435194
231	0xbe8e0aec	-0.27742708
232	0xba168896	-0.0005742399
233	0xbd8ba2c3	-0.06818154
234	0x3b42facc	0.0029751537
235	0xb9516aa1	-0.00019971516
236	0x3bebb85c	0.007193608
237	0x39377325	0.00017495135
238	0xbec5d692	-0.38640267
239	0xbd7c5935	-0.061608512
240	0x3cd1c204	0.02560521
241	0x3c0f6a40	0.008753359
242	0x3d5e2aab	0.05423991
243	0xbd787781	-0.060660843
244	0xb9870e66	-0.00025759934
245	0x3db11ef4	0.08648482
246	0xbb980ab6	-0.0046399487
247	0xbacf735b	-0.0015827225
248	0xbda0a728	-0.078443825
249	0x3c058a49	0.0081506455
250	0xbc438fba	-0.011936123
251	0x3a033994	0.0005005833
252	0x39bdded0	0.00036214897
253	0xb99ccc5b	-0.00029906895
254	0x3d813f3c	0.06310889
255	0x3bbb1132	0.005708837

inpaint_head/resnet_backbone/level_0/conv2d_36/Conv2D f4 [16, 1, 1, 32]
0	0x3912c454	0.00013996783
1	0x3730777a	1.0518235e-05
2	0xb9385072	-0.00017577576
3	0xb9d419b3	-0.00040454938
4	0x3a47ff0b	0.0007629252
5	0x38a772de	7.984576e-05
6	0xb96a5680	-0.00022348203
7	0x39326d47	0.00017016112
8	0xbd1284a6	-0.035771035
9	0x38c6ffb0	9.489001e-05
10	0x397a383c	0.00023862807
11	0x3719d120	9.168201e-06
12	0xb9082ad8	-0.00012985931
13	0xbbd077b8	-0.006361928
14	0xbc696710	-0.014245763
15	0x3c709b08	0.0146854
16	0xb9c2f9d5	-0.00037188703
17	0xb92b5249	-0.00016338484
18	0xbcd1d1c5	-0.025612721
19	0xbd365149	-0.044511113
20	0xbd1f746d	-0.03892939
21	0xb6f727ef	-7.3658225e-06
22	0xba0970a2	-0.0005242919
23	0xb7ab8743	-2.0447775e-05
24	0x38eb5bb2	0.00011222753
25	0xb8a33e87	-7.784092e-05
26	0xbcf83526	-0.03029878
27	0xbafcd7ed	-0.0019290425
28	0x3cc262c9	0.023728745
29	0xb758c700	-1.2920937e-05
30	0xbb5ebbcd	-0.003398645
31	0x3e022edb	0.12713186
32	0x39ca35ed	0.0003856862
33	0xba1a8f9b	-0.00058960327
34	0x38103760	3.4383847e-05
35	0x3aede161	0.0018148833
36	0x3be444a6	0.0069661913
37	0x39533e41	0.0002014572
38	0x391d9ca5	0.00015031041
39	0x390c3bca	0.00013373714
40	0x388a93a6	6.6078544e-05
41	0xba84e297	-0.001013833
42	0x39b857b8	0.0003516057
43	0x3b20b76b	0.0024523388
44	0xb5295000	-6.307382e-07
45	0xbcc299e5	-0.023755023
46	0xbc9be32a	-0.019029219
47	0xbce6c002	-0.028167728
48	0xb8e417a7	-0.00010876293
49	0x3a156072	0.00056982704
50	0x39e7b138	0.00044191792
51	0x38e09818	0.00010709482
52	0x38bd2e0b	9.0207985e-05
53	0x3896807a	7.176488e-05
54	0xbd478a0d	-0.04871564
55	0x38ef4f6b	0.00011411201
56	0x39981d69	0.00029013611
57	0x38f5ffdf	0.0001173017
58	0xbbec4af0	-0.0072110817
59	0xba623e02	-0.00086304557
60	0x39887b80	0.00026031956
61	0x3964ab2f	0.00021807545
62	0xbbb50b6c	-0.0055250432
63	0xbc4031a8	-0.011730589
64	0xb7176958	-9.024829e-06
65	0x3c0f601f	0.008750944
66	0xbc3f19ea	-0.011663893
67	0xb7e2d940	-2.7042464e-05
68	0xbc0d6089	-0.008628973
69	0xbccc858f	-0.02496603
70	0xbab20864	-0.0013582823
71	0x3d09d975	0.03365465
72	0x3c58b7e2	0.013227435
73	0x3d02933e	0.031878702
74	0x3c0650f7	0.008198014
75	0xbd85b1fb	-0.06528088
76	0xbbf235d5	-0.007391671
77	0x3d3a3247	0.045458104
78	0xbc2eea25	-0.010675942
79	0x3cb9ab3a	0.022664655
80	0x3c31455d	0.01081976
81	0xbdc54bc6	-0.09633593
82	0x37b6d058	2.1793108e-05
83	0x3cd04d86	0.025427591
84	0x399f38af	0.00030369076
85	0x38b3afe6	8.568149e-05
86	0x3c5d692d	0.013513845
87	0xba123bbc	-0.0005578359
88	0xbcafd8f2	-0.021465752
89	0x3c8397d7	0.016063614
90	0x3d2d430d	0.042300273
91	0xbbe84867	-0.007088709
92	0x388574ca	6.363688e-05
93	0xb7c14014	-2.3037232e-05
94	0x39e3e072	0.0004346404
95	0xbcb517bd	-0.022106046
96	0xb87a3400	-5.9653074e-05
97	0xbe0c6ce0	-0.13713408
98	0x3bf6baf3	0.0075296103
99	0x38ef06ef	0.000113976996
100	0xba89c271	-0.0010510219
101	0xbb8ee7db	-0.0043611354
102	0xbe9932f4	-0.29921687
103	0xba796c14	-0.0009514701
104	0x3da2a788	0.0794211
105	0x39198f14	0.00014644518
106	0x39bc7a7e	0.00035949418
107	0x394b6ce0	0.00019400148
108	0x3ba3d396	0.0049995882
109	0xbba527d3	-0.005040148
110	0x3d008e34	0.031385615
111	0xbd744b54	-0.05964215
112	0xb9d07f5c	-0.00039767742
113	0x3cd0a8e2	0.025471155
114	0xbc5abb42	-0.01335031
115	0x3df676b0	0.120343566
116	0xba05b309	-0.00051002257
117	0x3899c6bd	7.3326264e-05
118	0x399fb5b3	0.0003046222
119	0x3bf609cd	0.0075084926
120	0x3d4a94d5	0.049458344
121	0x3a99d16e	0.0011735389
122	0x3de42d12	0.11141409
123	0x3bc78b35	0.006089593
124	0xbd89e181	-0.067324646
125	0x3c6124ad	0.013741654
126	0x3cfb8aad	0.030705774
127	0x3df30809	0.11866767
128	0x3805c077	3.1888918e-05
129	0xb9c34c7a	-0.00037250278
130	0xbdd1c88c	-0.102433294
131	0xba68a0ca	-0.0008874057
132	0xbbfb0a3c	-0.007661132
133	0xb9b6b5ab	-0.00034849098
134	0x3c268877	0.010164372
135	0x3d74be25	0.05975165
136	0x3c16c83c	0.009203013
137	0x3d41af36	0.047286235
138	0x3a10e426	0.0005527161
139	0xb9458444	-0.00018836657
140	0xba35aa7c	-0.0006930006
141	0xb9d94ce6	-0.0004144676
142	0xb9915d4c	-0.00027726067
143	0xbe15dad2	-0.14634255
144	0xb7030630	-7.809649e-06
145	0xb8eba39a	-0.000112361464
146	0xbba0625a	-0.004894537
147	0x3c4db346	0.012554949
148	0xbc946730	-0.01811561
149	0xb79d43a4	-1.8747356e-05
150	0xb9e9e996	-0.00044615258
151	0xba04f671	-0.0005072123
152	0x3d67bf59	0.056578968
153	0xba89ca5d	-0.001051258
154	0x3cf54809	0.029941576
155	0xb9861548	-0.00025574327
156	0xba033a3b	-0.00050059304
157	0xb9bb954e	-0.0003577866
158	0xb88d2932	-6.731077e-05
159	0xba799f68	-0.00095223496
160	0x394ee782	0.00019731934
161	0x39d9d6fb	0.00041549638
162	0x393610ae	0.00017363086
163	0x3c710d45	0.014712636
164	0xbb22ee62	-0.0024861326
165	0x396b70ce	0.0002245337
166	0x3b7c7f33	0.0038527965
167	0xb9d7ed60	-0.00041184854
168	0x3a520494	0.00080115465
169	0xb9d2c79b	-0.0004020304
170	0xbabae948	-0.0014260197
171	0x3a2762e4	0.000638528
172	0x3a370805	0.0006982091
173	0x3c8972bf	0.016778348
174	0x3c3e5211	0.011616246
175	0x3c899930	0.016796678
176	0xba43fce3	-0.0007476343
177	0x3a824dfe	0.0009941456
178	0x3a73eab3	0.0009304687
179	0x3851958f	4.996877e-05
180	0x3b49f49c	0.0030815965
181	0x394dde0c	0.00019633042
182	0x3cd87574	0.026423194
183	0x39d02040	0.0003969688
184	0xbb15f6ab	-0.0022882621
185	0x39236691	0.000155831
186	0x3b1d4230	0.002399575
187	0x3b078b46	0.0020682379
188	0xb991b829	-0.00027793765
189	0x3a1ee613	0.00060615054
190	0x3b0e28ef	0.0021691879
191	0x3987fe52	0.0002593869
192	0x39f3c334	0.0004649401
193	0xbb0ad63c	-0.0021184823
194	0xb94a99f2	-0.0001932157
195	0x3b91779c	0.0044393074
196	0xba8b3b46	-0.0010622523
197	0x3b6143ca	0.003437268
198	0x3bbdecfb	0.0057960725
199	0xbb016860	-0.001974605
200	0xba8c547a	-0.0010706328
201	0xba93e96d	-0.0011284776
202	0xba1d56f5	-0.00060020323
203	0x3bc2633f	0.005932241
204	0x3a8524d0	0.0010158066
205	0xbaf7bd22	-0.001890097
206	0x378e8574	1.6989863e-05
207	0x372db2b0	1.03532075e-05
208	0xba73fcff	-0.0009307414
209	0xb8bd2eb4	-9.0209214e-05
210	0xba87a352	-0.0010348356
211	0xba6f9a31	-0.0009140103
212	0x3a3272b6	0.00068072544
213	0xb8fdd5ec	-0.00012103826
214	0x3a3c6480	0.00071866065
215	0xb9af1f71	-0.00033402027
216	0xba595af3	-0.00082914456
217	0xb905fa98	-0.00012777222
218	0xbb2bd3e5	-0.0026218828
219	0x3af7246f	0.0018855463
220	0xb884f482	-6.3397936e-05
221	0xba90266d	-0.001099778
222	0xb9a4b659	-0.00031416377
223	0xb9bb3b8f	-0.00035711794
224	0x3957dae6	0.00020585544
225	0xb9fe60df	-0.0004851883
226	0xbad89bb1	-0.0016525892
227	0x399ff279	0.000305075
228	0x394f485f	0.00019768019
229	0x3a293c3a	0.0006455813
230	0x3b1d6b96	0.0024020425
231	0xb9d4cd78	-0.00040588877
232	0x395d2dbb	0.00021093238
233	0xb9823cbc	-0.00024840783
234	0xbbbeee4f	-0.0058267484
235	0xba1c4d38	-0.0005962434
236	0xb9ff2b7a	-0.00048669783
237	0x3d689708	0.05678466
238	0xbdd67a36	-0.10472529
239	0xbb04477f	-0.0020184217
240	0x38e3b22e	0.00010857392
241	0xbabcb8fa	-0.0014398389
242	0x3ac206eb	0.0014803087
243	0xba7a3e43	-0.0009546021
244	0xb6e64940	-6.8630616e-06
245	0xb7fb1b9c	-2.9934388e-05
246	0xbd95a001	-0.07305909
247	0xb7f48d86	-2.9152969e-05
248	0xb9c9b19e	-0.00038470043
249	0x386dc234	5.668607e-05
250	0xbabcb668	-0.0014397623
251	0xb98942ad	-0.00026180354
252	0xbaf8ff5a	-0.0018996999
253	0xb9157b57	-0.00014255695
254	0x3df4e0a3	0.119569086
255	0xba6de8fe	-0.0009075551
