bfcnn/pretrained/resnet_color_1x6_bn_16x16_1x3x1_128x128_erf_relu/superres_model.tflite (tflite, 114688 bytes, 69 tensors)

superres_head/resnet_backbone/level_0/batch_normalization_29/FusedBatchNormV3 f4 [32]
0	0x409a5199	4.8224607
1	0x3fe3229f	1.774494
2	0x403399fd	2.8062737
3	0x3fecf1fc	1.8511348
4	0x4002538b	2.036349
5	0x41418e38	12.097221
6	0x3fffcaf8	1.9983816
7	0x41a9fa90	21.247345
8	0x3fae6118	1.3623381
9	0x405daf50	3.4638252
10	0x41591fe4	13.570286
11	0x3f9f3f60	1.2441216
12	0x40223bae	2.5348926
13	0x40b447d0	5.633766
14	0x403bcb97	2.9343011
15	0x41460319	12.375756
16	0x4116e16c	9.430035
17	0x4087cc03	4.243654
18	0x410752ce	8.457716
19	0x3fe724b7	1.805808
20	0x3fecc11f	1.8496436
21	0x401f2ee1	2.4872363
22	0x4078177c	3.8764334
23	0x4250c5cc	52.19316
24	0x40748c87	3.821077
25	0x41703dc9	15.015084
26	0x40aa59e7	5.3234744
27	0x40105559	2.2552092
28	0x40b45583	5.6354384
29	0x414c9ab5	12.78777
30	0x4052baf1	3.29266
31	0x402c2e0e	2.690311

superres_head/resnet_backbone/level_0/batch_normalization_29/FusedBatchNormV31 f4 [32]
0	0xbe8573e1	-0.2606497
1	0xbeab5bf0	-0.3346858
2	0xbe749cc5	-0.23887928
3	0xbe80c9b3	-0.25153884
4	0xbea533d0	-0.32266092
5	0xbed23015	-0.4105231
6	0xbec46511	-0.38358358
7	0xbf1c1898	-0.6097503
8	0xbe3dbb9c	-0.18528599
9	0xbe6b627d	-0.22986789
10	0xbee05b09	-0.43819454
11	0xbe47b4bb	-0.19502537
12	0xbe6a3523	-0.22871833
13	0xbee20806	-0.44146746
14	0xbe6820c2	-0.22668746
15	0xbec2d8fe	-0.38056177
16	0xbf012b53	-0.5045673
17	0xbe0736d2	-0.13204506
18	0xbe791810	-0.24325585
19	0xbe86986a	-0.26288158
20	0xbe40df88	-0.1883527
21	0xbe8bbc0c	-0.27291906
22	0xbed29316	-0.41127843
23	0xbe8a234d	-0.26980057
24	0xbe7bb9e0	-0.24582624
25	0xbf351396	-0.7073301
26	0xbe809018	-0.25109935
27	0xbe45b5b5	-0.19307597
28	0xbee1b715	-0.44084993
29	0xbefa15f4	-0.48844874
30	0xbe8d5c08	-0.27609277
31	0xbe99e8cb	-0.3006042

superres_head/resnet_backbone/level_0/batch_normalization_28/FusedBatchNormV3 f4 [16]
0	0x41225ced	10.147687
1	0x410f3a56	8.951742
2	0x417226fb	15.134517
3	0x41911c2d	18.138758
4	0x41074589	8.454476
5	0x40e860b8	7.2618065
6	0x40d87817	6.7646594
7	0x4174714f	15.277663
8	0x4184409c	16.531548
9	0x4107d97e	8.490599
10	0x41a3dc90	20.482697
11	0x4108a0fc	8.539303
12	0x412a399c	10.639065
13	0x41ab2b79	21.396227
14	0x41241f7f	10.257689
15	0x410b9efd	8.7263155

superres_head/resnet_backbone/level_0/batch_normalization_28/FusedBatchNormV31 f4 [16]
0	0xbea5da38	-0.3239305
1	0xbe9a0686	-0.30083102
2	0xbe817fea	-0.25292903
3	0xbe86948d	-0.2628521
4	0xbed66dcc	-0.41880643
5	0xbeccb8f2	-0.39984852
6	0xbf08b7a1	-0.53405195
7	0xbebc6334	-0.36794436
8	0xbe95d8a2	-0.2926684
9	0xbea0aeab	-0.3138326
10	0xbe7c3a60	-0.24631643
11	0xbea12744	-0.3147527
12	0xbed86fb4	-0.42272723
13	0xbe85d1ba	-0.2613657
14	0xbeae9f99	-0.34106138
15	0xbe9ced78	-0.30649924

superres_head/resnet_backbone/level_0/batch_normalization_27/FusedBatchNormV3 f4 [32]
0	0x40550674	3.3285189
1	0x4020749f	2.507118
2	0x40b71078	5.7207603
3	0x40fab95c	7.835127
4	0x401d7a66	2.4605956
5	0x40931e22	4.5974283
6	0x3fb7b3f9	1.4351798
7	0x4120baed	10.045636
8	0x3fffffe5	1.9999968
9	0x4046bc8a	3.1052575
10	0x4074e937	3.8267343
11	0x409b42c8	4.851902
12	0x40e70147	7.218906
13	0x415c10ce	13.754103
14	0x40273abf	2.6129606
15	0x4151ed12	13.1203785
16	0x414d2d3f	12.823546
17	0x412faa9d	10.979154
18	0x4107afba	8.480402
19	0x411168b6	9.088064
20	0x40ab772f	5.358299
21	0x40d387e4	6.610338
22	0x40dbd706	6.869998
23	0x409e03fc	4.9379864
24	0x4040bd75	3.0115635
25	0x414b5dea	12.710428
26	0x41248f3b	10.284968
27	0x40c3d9bf	6.1203303
28	0x4025d5b6	2.5911689
29	0x4044894a	3.0708795
30	0x40d3bce4	6.616808
31	0x40cf510f	6.478645

superres_head/resnet_backbone/level_0/batch_normalization_27/FusedBatchNormV31 f4 [32]
0	0xbe5c5842	-0.21518043
1	0xbe7b374c	-0.24532813
2	0xbeb64e5c	-0.35606658
3	0xbf0c6b8f	-0.5485162
4	0xbe810b7f	-0.25204083
5	0xbea9fff5	-0.33203092
6	0xbe2c1ea1	-0.16808559
7	0xbefb7d3f	-0.49118993
8	0xbe42b9da	-0.19016209
9	0xbe8cb9c9	-0.27485493
10	0xbeb19813	-0.34686336
11	0xbe63d5f6	-0.22249588
12	0xbec51da5	-0.3849918
13	0xbeac5dcd	-0.33665314
14	0xbe82c162	-0.25538164
15	0xbefd1e42	-0.49437147
16	0xbf1b2457	-0.60602325
17	0xbe9c2744	-0.30498707
18	0xbeb04512	-0.34427696
19	0xbe82c214	-0.25538695
20	0xbe7f3aec	-0.2492482
21	0xbec7af4c	-0.39000928
22	0xbef4dac6	-0.4782316
23	0xbea6a3e2	-0.32546908
24	0xbe860140	-0.2617283
25	0xbeba052a	-0.36332065
26	0xbe8e4dd9	-0.27793768
27	0xbeabae9a	-0.33531648
28	0xbe4df83e	-0.20114228
29	0xbeabac9a	-0.33530122
30	0xbe90a10c	-0.2824787
31	0xbe9edd8e	-0.31028408

superres_head/resnet_backbone/level_0/batch_normalization_26/FusedBatchNormV3 f4 [16]
0	0x416deef1	14.870835
1	0x40b495a1	5.6432652
2	0x40d7305a	6.7246523
3	0x41325f55	11.148274
4	0x42118327	36.37808
5	0x41dbd5b0	27.47934
6	0x41b66f42	22.804325
7	0x41ca68f0	25.301239
8	0x4119056e	9.563826
9	0x41dcfa5c	27.622246
10	0x416cec47	14.807685
11	0x41a650b5	20.789408
12	0x41232b9c	10.198147
13	0x418c3a16	17.528362
14	0x41d46e8b	26.553976
15	0x410d2dda	8.823694

superres_head/resnet_backbone/level_0/batch_normalization_26/FusedBatchNormV31 f4 [16]
0	0xbecf4265	-0.40480343
1	0xbe25b0f3	-0.16180782
2	0xbec66a77	-0.387531
3	0xbebe62c5	-0.3718473
4	0xbe8088b8	-0.25104308
5	0xbeea6f7b	-0.45788178
6	0xbeed0295	-0.46291032
7	0xbeaa9450	-0.33316278
8	0xbeccf1ad	-0.40028134
9	0xbed017e6	-0.40643233
10	0xbeddc1c5	-0.43311897
11	0xbec6a631	-0.3879867
12	0xbeee147c	-0.46500003
13	0xbeb6ee37	-0.35728619
14	0xbeff6796	-0.49883717
15	0xbed7e12d	-0.42163983

superres_head/resnet_backbone/level_0/batch_normalization_25/FusedBatchNormV3 f4 [32]
0	0x408c7074	4.388727
1	0x417bb720	15.732208
2	0x40f8bdce	7.7731695
3	0x40d673a2	6.7016153
4	0x409e2e14	4.943125
5	0x4092eaa3	4.591142
6	0x40f5dac4	7.682955
7	0x41326ff0	11.1523285
8	0x40af599d	5.479689
9	0x412a5713	10.646258
10	0x40521015	3.2822316
11	0x4110f48e	9.059706
12	0x412dd533	10.864551
13	0x40b63e96	5.69514
14	0x40a04a21	5.009049
15	0x409c7649	4.889439
16	0x40f1cf9d	7.5565934
17	0x414fb5b1	12.981858
18	0x40fffe2f	7.9997783
19	0x402450d3	2.567433
20	0x40b0248b	5.504461
21	0x408090dd	4.0176835
22	0x40a5e5e9	5.184315
23	0x40f293fd	7.580565
24	0x40a12b7e	5.036559
25	0x40eba2a9	7.363606
26	0x40a8e582	5.278016
27	0x40a716de	5.2215414
28	0x4121f06c	10.121197
29	0x40487822	3.1323323
30	0x40a00d8c	5.0016537
31	0x405589d7	3.336538

superres_head/resnet_backbone/level_0/batch_normalization_25/FusedBatchNormV31 f4 [32]
0	0xbef960d0	-0.48706675
1	0xbf0e7e2c	-0.55661273
2	0xbe9cc04d	-0.30615464
3	0xbed49421	-0.41519263
4	0xbeb142c4	-0.3462125
5	0xbec5c131	-0.38623956
6	0xbf17497b	-0.590965
7	0xbf19fafa	-0.60148585
8	0xbf01eb4b	-0.50749654
9	0xbed538d8	-0.4164493
10	0xbe486adf	-0.19572018
11	0xbf2d29d7	-0.6764197
12	0xbef666fa	-0.4812544
13	0xbeeea6c6	-0.46611613
14	0xbecf8014	-0.40527403
15	0xbeb814f5	-0.3595349
16	0xbefe1a8f	-0.49629638
17	0xbf063f8a	-0.524407
18	0xbec656ff	-0.38738248
19	0xbe7f9adb	-0.24961416
20	0xbeb5ac70	-0.35483122
21	0xbe670369	-0.22559895
22	0xbee1eb23	-0.44124708
23	0xbe2f0c7a	-0.17094603
24	0xbf0209d2	-0.50796235
25	0xbf081a27	-0.53164905
26	0xbeb872e8	-0.36025167
27	0xbea13ed4	-0.31493247
28	0xbf0183cc	-0.5059173
29	0xbeab0bf3	-0.33407554
30	0xbee98b9e	-0.45614332
31	0xbeaa14ed	-0.3321909

superres_head/resnet_backbone/level_0/batch_normalization_24/FusedBatchNormV3 f4 [16]
0	0x40cc97b2	6.3935175
1	0x411f8721	9.97049
2	0x41c7dffd	24.98437
3	0x417350eb	15.207255
4	0x410df92b	8.873332
5	0x41abb5d6	21.463787
6	0x40fe0ec1	7.939301
7	0x41325abf	11.147155
8	0x416eb9a9	14.920327
9	0x40d8da9f	6.776687
10	0x41a7e151	20.985018
11	0x40f91077	7.78326
12	0x416ea9f4	14.916492
13	0x41555012	13.332048
14	0x414b4279	12.703729
15	0x4171ee68	15.120705

superres_head/resnet_backbone/level_0/batch_normalization_24/FusedBatchNormV31 f4 [16]
0	0xbeb5b9b9	-0.35493258
1	0xbecb47a9	-0.3970311
2	0xbeea76a3	-0.45793638
3	0xbed79847	-0.42108366
4	0xbec39270	-0.3819766
5	0xbe9b9e35	-0.3039414
6	0xbee11460	-0.43960857
7	0xbf017cd3	-0.5058109
8	0xbedb6687	-0.4285166
9	0xbecdd14f	-0.40198752
10	0xbec06ba4	-0.37582123
11	0xbed5856c	-0.41703355
12	0xbed16551	-0.4089761
13	0xbece8188	-0.403332
14	0xbed927fd	-0.4241332
15	0xbee9c3b3	-0.4565712

resnet_backbone/level_0/batch_normalization_9/FusedBatchNormV3 f4 [32]
0	0x3fd82ad4	1.688807
1	0x4031c9b8	2.777937
2	0x3f5dbfb6	0.8662065
3	0x3f7613e0	0.96124077
4	0x3fef8b25	1.8714339
5	0x3f41eeb8	0.7575488
6	0x3f986160	1.1904716
7	0x3fc870e8	1.5659456
8	0x3ff48d52	1.9105628
9	0x3f01f423	0.5076315
10	0x3e18ef18	0.14934957
11	0x402415e4	2.563836
12	0x3ff9a661	1.95039
13	0x3fde3211	1.7359029
14	0x3f551e1e	0.8324908
15	0x3f83414c	1.0254302
16	0x3f8f3fca	1.1191342
17	0x3f032cdd	0.5124033
18	0x3f6e2b49	0.930348
19	0x40023fc2	2.0351415
20	0x3fd1cbcc	1.6390319
21	0x3ee10ad7	0.43953583
22	0x3e93f370	0.28896666
23	0x3f478619	0.7793899
24	0x4014f8ff	2.3276975
25	0x3f23f547	0.6404614
26	0x3fc03844	1.5017171
27	0x3eb2e343	0.34939012
28	0x3f282982	0.65688336
29	0x3fca5927	1.5808457
30	0x3f27d75b	0.6556298
31	0x3f96ccd1	1.1781255

resnet_backbone/level_0/batch_normalization_9/FusedBatchNormV31 f4 [32]
0	0xbe0d324b	-0.13788716
1	0xbe6efba9	-0.23338188
2	0xbda78c1b	-0.0818102
3	0xbdc9059b	-0.09815522
4	0xbe35afff	-0.17742918
5	0xbe4f29c0	-0.2023077
6	0xbe08a70a	-0.1334497
7	0xbe00ec94	-0.12590247
8	0xbe399863	-0.18124537
9	0xbe58d3c7	-0.21174537
10	0xbc18b4fd	-0.009320495
11	0xbe7c3284	-0.24628645
12	0xbe1c0fa0	-0.15240335
13	0xbe3bffe7	-0.18359338
14	0xbe1d7ab9	-0.15378846
15	0xbe39282d	-0.18081732
16	0xbdb8810e	-0.0900899
17	0xbe338225	-0.17530115
18	0xbdbfd186	-0.09366135
19	0xbea01c31	-0.31271508
20	0xbe036c36	-0.12834248
21	0xbe58fa0a	-0.21189132
22	0xbd4cbd89	-0.049985442
23	0xbe39c221	-0.1814046
24	0xbe835127	-0.25647852
25	0xbda2000d	-0.07910166
26	0xbe27b6ba	-0.16378298
27	0xbe06a445	-0.13148601
28	0xbda6c2a2	-0.08142592
29	0xbe457977	-0.19284616
30	0xbe89dd38	-0.2692659
31	0xbe6c495f	-0.23074864

resnet_backbone/level_0/batch_normalization_8/FusedBatchNormV3 f4 [16]
0	0x405f0661	3.4847643
1	0x419a4b92	19.2869
2	0x41044ab8	8.268242
3	0x4103acbc	8.2296715
4	0x41dd1d51	27.639315
5	0x418019a7	16.012526
6	0x41833061	16.398623
7	0x4254ea72	53.22895
8	0x41723c11	15.139665
9	0x411e9ab9	9.912774
10	0x410848ae	8.517744
11	0x402bf9a8	2.6871128
12	0x413a4297	11.641257
13	0x418c3db6	17.530132
14	0x4140109f	12.004058
15	0x41b25e8b	22.296164

resnet_backbone/level_0/batch_normalization_8/FusedBatchNormV31 f4 [16]
0	0xbec7cf36	-0.39025277
1	0xbd8c6a3f	-0.06856202
2	0xbea5e808	-0.32403588
3	0xbeadde09	-0.33958462
4	0xbd870c26	-0.06594114
5	0xbf77b024	-0.96753144
6	0xbd83f48e	-0.064431295
7	0xbe0a268c	-0.13491267
8	0xbf42fe98	-0.7616973
9	0xbf24ace8	-0.64326334
10	0xbee2b25e	-0.44276708
11	0xbec96ca1	-0.3934069
12	0xbec0afca	-0.37634116
13	0xbe3abb8a	-0.18235603
14	0xbed5b504	-0.41739666
15	0xbf6ec441	-0.9326821

resnet_backbone/level_0/batch_normalization_7/FusedBatchNormV3 f4 [32]
0	0x3ee93282	0.45546347
1	0x3f9f204b	1.243173
2	0x3f7cf05b	0.98804253
3	0x3df438de	0.11924909
4	0x3eb36851	0.35040525
5	0x3f5e5e38	0.86862516
6	0x3f42a3f0	0.760314
7	0x39d4068c	0.0004044067
8	0x3f0fe78d	0.56212693
9	0x3f3f3116	0.74684274
10	0x3f37c361	0.717825
11	0x3ec33c8d	0.38132134
12	0x3f0bd45f	0.5462093
13	0x3a98a948	0.001164713
14	0x3f49a74f	0.7877092
15	0x3a542576	0.00080927403
16	0x3f73772e	0.9510373
17	0x3f26cceb	0.6515643
18	0x3f92b1cc	1.1460509
19	0x3f433ad5	0.76261646
20	0x3f18eff2	0.5974113
21	0x3ef0cbe7	0.47030565
22	0x3f41a426	0.75641096
23	0x3eef1a05	0.4669954
24	0x3f08599e	0.53261745
25	0x3edfdca0	0.4372301
26	0x3f0efd0d	0.55854875
27	0x3f720e3c	0.9455297
28	0x3f261acc	0.6488464
29	0x3fa62ef9	1.2983085
30	0x3f923c4a	1.1424649
31	0x3e8da205	0.27662674

resnet_backbone/level_0/batch_normalization_7/FusedBatchNormV31 f4 [32]
0	0xbdcae273	-0.09906473
1	0xbe3150c7	-0.1731597
2	0xbe6e8133	-0.23291473
3	0xbd7b6bdd	-0.061382163
4	0xbe38589b	-0.1800255
5	0xbdcf350a	-0.10117538
6	0xbe4b2e69	-0.19841923
7	0xb84d9e56	-4.902327e-05
8	0xbdc65b11	-0.09685338
9	0xbe253d3b	-0.16136639
10	0xbdebc8f0	-0.11512935
11	0xbdfa5a80	-0.12224293
12	0xbe6c5629	-0.23079742
13	0xb910fb12	-0.00013826441
14	0xbe00600c	-0.12536639
15	0xb886cfb5	-6.4283064e-05
16	0xbe1813c8	-0.14851296
17	0xbe313bee	-0.17308018
18	0xbedfd88b	-0.43719897
19	0xbe2d0ed1	-0.16900183
20	0xbdc9d7a3	-0.098555826
21	0xbd6d3795	-0.057914335
22	0xbdf5a774	-0.1199483
23	0xbdbe2972	-0.09285249
24	0xbe412c7e	-0.18864629
25	0xbdb7f4fc	-0.08982274
26	0xbdd9c937	-0.10634082
27	0xbe254dce	-0.16142961
28	0xbdd91976	-0.106005594
29	0xbe1b9a50	-0.15195584
30	0xbe817f5b	-0.25292477
31	0xbd7c5ed4	-0.061613873

resnet_backbone/level_0/batch_normalization_6/FusedBatchNormV3 f4 [16]
0	0x41231dc8	10.194771
1	0x4162c3a1	14.172761
2	0x41cf2b08	25.896011
3	0x41876d95	16.928507
4	0x4145fc5a	12.374109
5	0x4155cbe3	13.362277
6	0x41ade6d2	21.737705
7	0x40da2b80	6.81781
8	0x41410bf4	12.065418
9	0x422b2b18	42.792084
10	0x41098557	8.595054
11	0x4181ca34	16.223732
12	0x41906e87	18.053968
13	0x421ca1a3	39.15785
14	0x41a299b0	20.325043
15	0x41fe7a50	31.809723

resnet_backbone/level_0/batch_normalization_6/FusedBatchNormV31 f4 [16]
0	0xbe982797	-0.29717705
1	0xbf46e448	-0.7769208
2	0xbf550604	-0.83212304
3	0xbec65fbf	-0.38744923
4	0xbe9ec2d4	-0.31008017
5	0xbf8c8df0	-1.0980816
6	0xbe6cab37	-0.23112188
7	0xbf22fa83	-0.636635
8	0xbee975b2	-0.45597607
9	0xbd778032	-0.06042499
10	0xbf259938	-0.6468692
11	0xbe7b4f62	-0.24542001
12	0xbfafe1ed	-1.3740822
13	0xbe3d9326	-0.18513164
14	0xbfe27df7	-1.7694691
15	0xbea898ce	-0.3292908

resnet_backbone/level_0/batch_normalization_5/FusedBatchNormV3 f4 [32]
0	0x3eedab6f	0.46419856
1	0x3eaa3f03	0.332512
2	0x3f7d77ee	0.99011123
3	0x3f3d8488	0.7403035
4	0x3eb6ebbe	0.35726732
5	0x3ee367a4	0.4441501
6	0x3f420a50	0.75796986
7	0x3e82e1d7	0.25562927
8	0x3e9b9052	0.30383545
9	0x37d94356	2.5899772e-05
10	0x3e83d03a	0.25744802
11	0x3f7cf74f	0.9881486
12	0x3e930643	0.28715715
13	0x3ed6bee8	0.41942525
14	0x3e98cc4c	0.29843366
15	0x3ede9796	0.43475026
16	0x3e443903	0.19162373
17	0x3e2c2243	0.16809945
18	0x3e840c35	0.25790563
19	0x3e264a32	0.16239241
20	0x3f360aa0	0.7110996
21	0x3fc0a7c1	1.5051194
22	0x3f7fdda5	0.9994758
23	0x3f53877d	0.82628614
24	0x3e900d43	0.28135118
25	0x3e651640	0.22371769
26	0x3f0fa24c	0.5610702
27	0x3f0fa593	0.5611202
28	0x3eb1a28c	0.34694326
29	0x3e25cd3d	0.16191573
30	0x3e9a348b	0.30118212
31	0x3ed8d9fa	0.42353803

resnet_backbone/level_0/batch_normalization_5/FusedBatchNormV31 f4 [32]
0	0xbdeed4d7	-0.1166169
1	0xbdb2a490	-0.08722794
2	0xbe07cacc	-0.13260955
3	0xbd83e226	-0.06439619
4	0xbdb28103	-0.08716013
5	0xbd920958	-0.071306884
6	0xbe453c6f	-0.19261335
7	0xbd722a63	-0.059122454
8	0xbdb95013	-0.09048476
9	0xb6016aab	-1.9284587e-06
10	0xbd2a1e08	-0.041532546
11	0xbd855325	-0.06509999
12	0xbdd5e326	-0.10443716
13	0xbdb2415e	-0.08703874
14	0xbde7d1b7	-0.11319297
15	0xbd914753	-0.07093682
16	0xbdab8344	-0.08374646
17	0xbdb0ee40	-0.086391926
18	0xbdc3aa0d	-0.09553919
19	0xbcdf53e5	-0.027261684
20	0xbdef656f	-0.11689269
21	0xbe19f611	-0.15035273
22	0xbe8e51f6	-0.27796906
23	0xbe21891c	-0.1577496
24	0xbd74de3f	-0.059782263
25	0xbd9145d4	-0.07093397
26	0xbe31dc49	-0.17369188
27	0xbd9ba001	-0.07598878
28	0xbdb7d334	-0.08975831
29	0xbd6f41ba	-0.05841229
30	0xbdf20c5f	-0.11818766
31	0xbe02a133	-0.12756805

resnet_backbone/level_0/batch_normalization_4/FusedBatchNormV3 f4 [16]
0	0x41d736b4	26.90171
1	0x411f71d9	9.965295
2	0x41bd6189	23.672625
3	0x41b0b4d1	22.08829
4	0x4132ebb1	11.182542
5	0x41ab90ea	21.445759
6	0x427e8fc9	63.640415
7	0x41de85c0	27.815308
8	0x422d6343	43.346935
9	0x41410e74	12.066029
10	0x423b1ebb	46.78001
11	0x42310fe7	44.26553
12	0x41d1f6aa	26.245441
13	0x413ace78	11.675407
14	0x423a653b	46.598858
15	0x41b17d22	22.1861

resnet_backbone/level_0/batch_normalization_4/FusedBatchNormV31 f4 [16]
0	0xbf325169	-0.6965547
1	0xbf15e333	-0.58549803
2	0xbd5219a7	-0.051293995
3	0xbe9fba04	-0.31196606
4	0xbf44659b	-0.7671754
5	0xbff9dfe4	-1.9521451
6	0xbe1d3bbb	-0.15354817
7	0xbfa3dd84	-1.2801976
8	0xbe3e69dd	-0.18595071
9	0xbe824c11	-0.2544866
10	0xbe71e3d2	-0.23622063
11	0xbda6036c	-0.081061214
12	0xbeff3c19	-0.49850538
13	0xbf2599b0	-0.64687634
14	0xbe231a9e	-0.15928122
15	0xbf1f9bc1	-0.62347037

resnet_backbone/level_0/batch_normalization_3/FusedBatchNormV3 f4 [32]
0	0x3e66e71a	0.22549096
1	0x3e2fc8d8	0.1716646
2	0xb737fd20	-1.0966585e-05
3	0x3e1601d8	0.14649141
4	0x3ea4c980	0.32184982
5	0x3e8d358b	0.27579913
6	0x3f31a3e8	0.69390726
7	0x3e95bc2c	0.29245126
8	0xb74b06dc	-1.210134e-05
9	0x3e221dbb	0.15831654
10	0x3eac7e2e	0.33690017
11	0x3ea1c37e	0.3159446
12	0x3e1c6f45	0.15276821
13	0x3e51a5d6	0.20473418
14	0x3f052b66	0.52019346
15	0x3dc138a8	0.094346344
16	0x3ee57d50	0.44822168
17	0x3e8b4565	0.2720138
18	0x3e519587	0.20467196
19	0x3dd74737	0.1051163
20	0x3e4f18db	0.20224325
21	0x3f3576ae	0.70884216
22	0x3ea75fef	0.3269038
23	0x3ed9af46	0.42516536
24	0x3ebf0ec2	0.37315947
25	0x3f144d29	0.5793024
26	0x3d93f598	0.07224578
27	0x3f117640	0.5682106
28	0x3f0fb381	0.56133276
29	0x3f565a53	0.83731574
30	0xb70ff59f	-8.580652e-06
31	0x3e46fa8b	0.19431512

resnet_backbone/level_0/batch_normalization_3/FusedBatchNormV31 f4 [32]
0	0xbe26e37f	-0.1629772
1	0xbdb2b834	-0.0872654
2	0x35b3ce0c	1.3396507e-06
3	0xbe254d1c	-0.16142696
4	0xbe361534	-0.17781526
5	0xbe7d20d3	-0.24719553
6	0xbe3a1810	-0.18173242
7	0xbdc4b320	-0.09604478
8	0x3621c383	2.4104672e-06
9	0xbd922282	-0.07135488
10	0xbdfe08f9	-0.12404055
11	0xbe0c8479	-0.1372241
12	0xbd83912b	-0.06424173
13	0xbdda9da6	-0.106746
14	0xbdf3767d	-0.11887834
15	0xbd6e2707	-0.058142688
16	0xbe6fca57	-0.2341703
17	0xbdc6efff	-0.09713744
18	0xbe02b22c	-0.1276328
19	0xbe9ff743	-0.31243333
20	0xbd1cebf9	-0.03831098
21	0xbee97cc6	-0.45603007
22	0xbe632eda	-0.22185841
23	0xbd946783	-0.07246306
24	0xbdbf2ab3	-0.09334316
25	0xbdb1bcec	-0.08678612
26	0xbd047264	-0.032335654
27	0xbdb6442d	-0.08899722
28	0xbdc4e61e	-0.09614204
29	0xbe4f0669	-0.20217289
30	0x355d4ab1	8.2437606e-07
31	0xbdcbc0da	-0.09948893

resnet_backbone/level_0/batch_normalization_2/FusedBatchNormV3 f4 [16]
0	0x4167d70f	14.490005
1	0x4146be17	12.421409
2	0x418256c9	16.292376
3	0x4175b5ee	15.356916
4	0x410e7e5c	8.905849
5	0x40ed7aab	7.421224
6	0x412740b6	10.453299
7	0x40bfa46b	5.9888206
8	0x40e96492	7.2935266
9	0x412aac6f	10.667098
10	0x407bec0a	3.9362817
11	0x41c6bf31	24.843355
12	0x41a992cf	21.196684
13	0x4148de3c	12.554256
14	0x40cc9cd7	6.3941455
15	0x407d5380	3.9582214

resnet_backbone/level_0/batch_normalization_2/FusedBatchNormV31 f4 [16]
0	0xbf0f4b7d	-0.5597456
1	0xbefe4aef	-0.49666545
2	0xbe9061db	-0.28199658
3	0xbff881e5	-1.9414641
4	0xbe1f0c00	-0.15531921
5	0xbf36cfa2	-0.7141057
6	0xbeb00023	-0.34375104
7	0xbfab7eb0	-1.3398037
8	0xbf08ef5e	-0.53490245
9	0xbe71f96f	-0.23630308
10	0xbf4d8f8e	-0.8029717
11	0xbe9cf0a3	-0.3065234
12	0xbf024ed4	-0.5090153
13	0xbdd37e08	-0.10326773
14	0xbf040066	-0.5156311
15	0xbe561d69	-0.20909657

resnet_backbone/level_0/batch_normalization_11/FusedBatchNormV3 f4 [32]
0	0x402a36dd	2.6595986
1	0x40693164	3.6436396
2	0x3ff50bea	1.9144261
3	0x3fa515c7	1.2897271
4	0x3f1f9df9	0.6235042
5	0x400bc714	2.1840258
6	0x3f81b338	1.0132818
7	0x40166fbb	2.3505695
8	0x3f84cdc8	1.03753
9	0x400db2b4	2.2140322
10	0x3f94f17b	1.1636194
11	0x3fa03cd4	1.2518563
12	0x3f834e21	1.0258218
13	0x405d1a14	3.4547167
14	0x3f83c364	1.0294003
15	0x3ffab914	1.9587731
16	0x3fce30a3	1.6108593
17	0x3f4cacdd	0.7995127
18	0x3f896c04	1.0736089
19	0x3f949ed5	1.1610972
20	0x3f596408	0.8491826
21	0x3f5cc3d2	0.862363
22	0x402249f7	2.5357645
23	0x400d20ed	2.2051346
24	0x3f15897e	0.5841292
25	0x3fbbe885	1.4680334
26	0x3f97df03	1.1864933
27	0x3f9221d4	1.1416574
28	0x3ff0af30	1.8803463
29	0x3fc7b213	1.5601219
30	0x3f8dba82	1.1072543
31	0x4042e970	3.045498

resnet_backbone/level_0/batch_normalization_11/FusedBatchNormV31 f4 [32]
0	0xbe5c68ff	-0.21524428
1	0xbe1b8cbf	-0.15190409
2	0xbdfac7fd	-0.12245176
3	0xbdf0d682	-0.11759664
4	0xbdff8362	-0.12476231
5	0xbe7ce0c8	-0.24695122
6	0xbde5e50a	-0.11225326
7	0xbeaecc59	-0.3414028
8	0xbdc0d62f	-0.09415852
9	0xbe734fe0	-0.23760939
10	0xbe3b6c17	-0.18302952
11	0xbe334f42	-0.17510703
12	0xbe7dbef3	-0.24779873
13	0xbe82fbd5	-0.25582758
14	0xbe8a07af	-0.26958987
15	0xbe27f198	-0.16400754
16	0xbde5377f	-0.11192226
17	0xbdb15479	-0.0865869
18	0xbe7dbf8e	-0.24780104
19	0xbe251bae	-0.1612384
20	0xbdd57076	-0.10421841
21	0xbdcc7519	-0.09983272
22	0xbeb11121	-0.3458338
23	0xbe50e8a8	-0.20401251
24	0xbde6ff9c	-0.11279222
25	0xbe6787f3	-0.22610454
26	0xbdf00c78	-0.11721128
27	0xbe8a7f9e	-0.2705049
28	0xbeaadb22	-0.3337031
29	0xbe2d22e9	-0.16907848
30	0xbe1fd619	-0.15609016
31	0xbebc5822	-0.3678599

resnet_backbone/level_0/batch_normalization_10/FusedBatchNormV3 f4 [16]
0	0x40beb081	5.959046
1	0x41089873	8.537219
2	0x41153a75	9.326772
3	0x412e98c2	10.912294
4	0x40e83dc6	7.2575407
5	0x40f92f48	7.7870216
6	0x41193362	9.575045
7	0x413d290d	11.822522
8	0x41232684	10.196903
9	0x411d6cd9	9.839074
10	0x40fd4122	7.914201
11	0x4093747e	4.60797
12	0x40ec9c56	7.394084
13	0x41130ff5	9.191396
14	0x410a4d67	8.643897
15	0x40f1a67e	7.5515738

resnet_backbone/level_0/batch_normalization_10/FusedBatchNormV31 f4 [16]
0	0xbdf862d6	-0.121282265
1	0xbe8c3a9b	-0.27388462
2	0xbe2c27f8	-0.16812122
3	0xbeb725c1	-0.3577099
4	0xbe89d3e3	-0.2691947
5	0xbe7bac0f	-0.24577354
6	0xbebc4503	-0.36771402
7	0xbe7405d1	-0.23830344
8	0xbe848b29	-0.2588742
9	0xbe8e2975	-0.27766004
10	0xbea1d7ad	-0.3160986
11	0xbe9cf33d	-0.30654326
12	0xbed42cce	-0.41440433
13	0xbef642bb	-0.48097786
14	0xbe4b1c4f	-0.19835018
15	0xbe0ebd79	-0.13939466

resnet_backbone/level_0/batch_normalization_1/FusedBatchNormV3 f4 [32]
0	0x3e40ec38	0.1884011
1	0x3e978b29	0.29598358
2	0x3ee3e625	0.44511524
3	0x3e7b6aeb	0.24552505
4	0x3e43e074	0.19128591
5	0x3f14fbaf	0.5819654
6	0x3e4eb51f	0.2018628
7	0x3d52fea9	0.051512394
8	0x3ec03356	0.37539166
9	0x3df62a64	0.12019804
10	0x3e92fe8b	0.28709826
11	0x3e5c6f51	0.21526839
12	0x3dc2d21a	0.0951273
13	0x3f057912	0.52137864
14	0x3dceec73	0.10103693
15	0x3eaa5a14	0.3327185
16	0x3eecbf8d	0.46239892
17	0x3e817bcc	0.25289762
18	0x3def109b	0.11673089
19	0x3e716bf3	0.23576336
20	0x3eae41bd	0.3403453
21	0x3db89e5f	0.09014582
22	0x3f412bd4	0.754575
23	0x3eb3424f	0.35011527
24	0x33989104	7.10443e-08
25	0x3e4313ce	0.19050524
26	0x3e6fc4b4	0.2341488
27	0x3e0b3b6d	0.13596888
28	0x3d9e16bb	0.07719179
29	0x3e72a7be	0.23696801
30	0x3ea1f4a7	0.31631967
31	0x3e2946cc	0.16530913

resnet_backbone/level_0/batch_normalization_1/FusedBatchNormV31 f4 [32]
0	0xbe1de39f	-0.15418862
1	0xbdc48efd	-0.09597585
2	0xbdc87869	-0.097885914
3	0xbe0f7044	-0.1400767
4	0xbe48c11c	-0.19604915
5	0xbe35bc9a	-0.17747727
6	0xbeefc5d5	-0.4683062
7	0xbc5a76f1	-0.013334022
8	0xbd95dc24	-0.07317379
9	0xbd8ae8da	-0.06782694
10	0xbdbbc800	-0.09169006
11	0xbdf2d692	-0.11857332
12	0xbe38bf04	-0.18041617
13	0xbe51d956	-0.20493063
14	0xbe430a55	-0.1904691
15	0xbdb9ab70	-0.09065902
16	0xbe3a8381	-0.18214227
17	0xbdf42f4f	-0.11923086
18	0xbd5eb1f0	-0.054368913
19	0xbe30cd48	-0.17265809
20	0xbeb9ed83	-0.3631402
21	0xbd80c9da	-0.062885
22	0xbdd3aaf5	-0.10335342
23	0xbe2afd5a	-0.16698208
24	0xb2bc3b28	-2.1912982e-08
25	0xbe801333	-0.25014648
26	0xbdbe23a6	-0.09284143
27	0xbe614771	-0.21999909
28	0xbd873539	-0.06601948
29	0xbdf432d4	-0.11923757
30	0xbe027b4d	-0.12742348
31	0xbe184c2f	-0.14872812

resnet_backbone/level_0/batch_normalization/FusedBatchNormV3 f4 [16]
0	0x4116c346	9.422674
1	0x412ac675	10.673451
2	0x408a5292	4.3225794
3	0x4032d6f6	2.7943702
4	0x40ba1d70	5.8160934
5	0x418a9112	17.320835
6	0x418573b5	16.681498
7	0x40bb26e2	5.8484964
8	0x41299e4d	10.601148
9	0x4114614e	9.273756
10	0x415c3d2a	13.764933
11	0x4116e129	9.429971
12	0x4160fd17	14.0617895
13	0x40edb3ac	7.4281826
14	0x411626f5	9.384511
15	0x4124ecd9	10.307824

resnet_backbone/level_0/batch_normalization/FusedBatchNormV31 f4 [16]
0	0xbf5b813d	-0.85744077
1	0xbe974c66	-0.29550475
2	0xbf7fcb99	-0.9992004
3	0xbf989a6e	-1.1922128
4	0xbf8e0bc1	-1.1097337
5	0xbec5e4c0	-0.38651085
6	0xbed39551	-0.41324857
7	0xbf07b6cf	-0.5301332
8	0xbf97dccc	-1.1864257
9	0xbf10ec93	-0.56610984
10	0xbee418f8	-0.445503
11	0xbec76640	-0.38945198
12	0xbec63bd3	-0.38717517
13	0xbf8b4072	-1.0879042
14	0xbef329a2	-0.474927
15	0xbf5da498	-0.86579275

superres_head/conv2d_51/Conv2D f4 [3, 1, 1, 16]
0	0xb928c014	-0.00016093283
1	0x398f87f9	0.00027376393
2	0xba2e72e6	-0.00066546944
3	0x3a37d417	0.00070125
4	0xb9b67b62	-0.00034805672
5	0x3a6a0358	0.000892689
6	0xba13d28c	-0.0005638979
7	0xb8b32b94	-8.543502e-05
8	0xb9893771	-0.00026171983
9	0x3d794c41	0.060863737
10	0xba1c9902	-0.00059737277
11	0x39604943	0.00021389597
12	0x3cf678cf	0.030086903
13	0x378258e0	1.5538593e-05
14	0xbc3a370f	-0.011365666
15	0x38f52908	0.00011690153
16	0xb9b722a2	-0.00034930283
17	0xba8f3697	-0.0010926303
18	0xba131ea4	-0.0005612171
19	0xb97d730a	-0.00024170816
20	0xba01744c	-0.0004938289
21	0x3982986c	0.00024909095
22	0xba124753	-0.0005580086
23	0xb996b4d8	-0.0002874497
24	0xb9425f66	-0.0001853682
25	0x3d80f1f5	0.0629615
26	0xb9aaee30	-0.0003260239
27	0x3a10d797	0.00055252895
28	0xba252034	-0.0006299049
29	0x39d8a74f	0.00041323385
30	0x3cc674dc	0.024225645
31	0x39fb63a8	0.000479487
32	0xb9785ee2	-0.0002368647
33	0x3908c3ba	0.00013042885
34	0xb97097f0	-0.00022944785
35	0x39b506b2	0.00034528
36	0x3a2dbc1b	0.0006627456
37	0x399544d3	0.00028470773
38	0xb8ac97c2	-8.229866e-05
39	0xb9d68f2e	-0.00040923938
40	0xb94f68b6	-0.00019780066
41	0x3d84fce4	0.064935476
42	0xba16b9be	-0.00057497236
43	0x39c2a8ea	0.00037128414
44	0xbcec9e78	-0.028884158
45	0x3a16f0e2	0.000575794
46	0xbc7a74e0	-0.015286654
47	0x39861771	0.00025575937

superres_head/conv2d_51/Conv2D1 f4 [3]
0	0x00000000	0.0
1	0x00000000	0.0
2	0x00000000	0.0

superres_head/resnet_backbone/level_0/conv2d_50/Conv2D f4 [16, 1, 1, 32]
0	0x35948da0	1.1068078e-06
1	0xb54dab44	-7.6617675e-07
2	0x364144d2	2.87993e-06
3	0x36339dba	2.6764887e-06
4	0x361f7f00	2.376677e-06
5	0x34e0f060	4.1898147e-07
6	0xb50f2a80	-5.3333497e-07
7	0xb7581e2e	-1.288163e-05
8	0x36a07204	4.7816447e-06
9	0x370e4492	8.479825e-06
10	0xb6784802	-3.6996794e-06
11	0x362fcb9e	2.6195553e-06
12	0x350891e6	5.087626e-07
13	0x3651e197	3.1274737e-06
14	0x3643bdd6	2.9167763e-06
15	0x36b6542e	5.4338225e-06
16	0x36c62bcf	5.90596e-06
17	0xb61a94ae	-2.3034331e-06
18	0x36af8b22	5.2316036e-06
19	0x36b3b03b	5.3551316e-06
20	0x36c59d9e	5.8894066e-06
21	0xb3b48f40	-8.40796e-08
22	0xb4522da0	-1.9574372e-07
23	0x35c58854	1.471732e-06
24	0xb5815325	-9.635447e-07
25	0x3710e83b	8.637139e-06
26	0x36410061	2.8759462e-06
27	0x370fcb00	8.570729e-06
28	0x366ae304	3.5000858e-06
29	0x36263d00	2.4771434e-06
30	0x372ab8e8	1.0175841e-05
31	0x3686e736	4.0204277e-06
32	0xb7a6f728	-1.9903833e-05
33	0xb7c575ff	-2.3539176e-05
34	0xb77e6fe5	-1.5165632e-05
35	0xb7ae5538	-2.07821e-05
36	0xb72aefda	-1.0188634e-05
37	0xb7cbac10	-2.4279609e-05
38	0xb65479b3	-3.16613e-06
39	0x3d9df7ff	0.07713317
40	0xb81063b2	-3.4425124e-05
41	0xb837a010	-4.377967e-05
42	0xb7cf9b92	-2.4748766e-05
43	0xb78b45df	-1.6602628e-05
44	0xb7de71c8	-2.6517446e-05
45	0xb70f06e6	-8.52507e-06
46	0xb705f4ea	-7.984441e-06
47	0xb803bc8e	-3.140844e-05
48	0xb6ee5d42	-7.1038094e-06
49	0xb6c131d6	-5.75765e-06
50	0xb75bd310	-1.3102559e-05
51	0xb83688c1	-4.3519543e-05
52	0xb77cff11	-1.5079758e-05
53	0xb706ce4a	-8.035053e-06
54	0xb7c029f0	-2.2907712e-05
55	0x354db9d4	7.6638867e-07
56	0xb7d0c5cc	-2.4887639e-05
57	0xb69ee05e	-4.7348867e-06
58	0xb7369207	-1.0882045e-05
59	0xb83be646	-4.4798733e-05
60	0x36dfcd00	6.669783e-06
61	0xb86b8e14	-5.6160687e-05
62	0xb815e3a2	-3.5736368e-05
63	0x360aaccb	2.0664181e-06
64	0x36b62577	5.428384e-06
65	0x355049b0	7.759327e-07
66	0x36a681f0	4.9623122e-06
67	0x33eaac00	1.0927761e-07
68	0x36db3e08	6.53393e-06
69	0xb390b400	-6.738264e-08
70	0xb68f5520	-4.271642e-06
71	0x36ef5a56	7.1332715e-06
72	0x368c26f0	4.176858e-06
73	0x370d3666	8.4169205e-06
74	0x346de860	2.2156883e-07
75	0x3686c020	4.0158775e-06
76	0x36b53bba	5.4011734e-06
77	0x35cb8bd8	1.5165378e-06
78	0x36f9a909	7.4404566e-06
79	0x366257c8	3.372772e-06
80	0x36b946e4	5.5216824e-06
81	0x356eb60c	8.892682e-07
82	0xb561d580	-8.4129715e-07
83	0x37439c6d	1.1659326e-05
84	0x36d83dc5	6.4444926e-06
85	0xb63f30e8	-2.8489685e-06
86	0x3708015f	8.106551e-06
87	0x364db482	3.065245e-06
88	0xb6a74468	-4.9849514e-06
89	0xb607bfe0	-2.0228254e-06
90	0x36de0af4	6.6173907e-06
91	0x373518dc	1.0794229e-05
92	0x36f17fa8	7.197221e-06
93	0xb69687d8	-4.4861627e-06
94	0x354dc280	7.6651486e-07
95	0x362f7713	2.6146342e-06
96	0x3761a871	1.3450263e-05
97	0x379d1f97	1.8730569e-05
98	0x362ec9dc	2.6045518e-06
99	0x373832a4	1.0979045e-05
100	0x372b89f7	1.0224517e-05
101	0x3dceb03c	0.10092208
102	0x3592f880	1.0950171e-06
103	0xb81f7007	-3.8012888e-05
104	0x37bcf370	2.2524706e-05
105	0x3804de0c	3.167805e-05
106	0xb6521b46	-3.1308314e-06
107	0x3743034d	1.1623674e-05
108	0x3746f55c	1.1858847e-05
109	0xb5864f68	-1.0006888e-06
110	0x36a626da	4.9517084e-06
111	0x37af3084	2.0884218e-05
112	0x3703a76b	7.8471885e-06
113	0xb661f84c	-3.367214e-06
114	0x370911e0	8.169998e-06
115	0x378ea284	1.7003396e-05
116	0xb6a3b016	-4.8782777e-06
117	0x37042b4d	7.877895e-06
118	0xb69f2d3b	-4.743835e-06
119	0xb695f8c2	-4.4695053e-06
120	0x3738f034	1.1023181e-05
121	0xb4869760	-2.5069585e-07
122	0x3704eb22	7.922559e-06
123	0x37c14d3d	2.304336e-05
124	0xb6f0a120	-7.171315e-06
125	0x37d40310	2.5273795e-05
126	0x37b0c8ff	2.1074431e-05
127	0x368013a5	3.816984e-06
128	0x3636c221	2.7233111e-06
129	0x35f4fb98	1.825264e-06
130	0x36a37f2e	4.872584e-06
131	0x367bb624	3.7507934e-06
132	0x369d93f7	4.69619e-06
133	0x3e02c2a5	0.12769563
134	0xb3c27a40	-9.056066e-08
135	0xb58214d4	-9.691817e-07
136	0xb5afffcb	-1.3112962e-06
137	0x36d3c86a	6.3116213e-06
138	0xb77a4c19	-1.4918879e-05
139	0x36a8188b	5.0096473e-06
140	0xb60215f9	-1.93843e-06
141	0x36b87508	5.4972515e-06
142	0x36a48edc	4.904212e-06
143	0x36d7708e	6.4206024e-06
144	0xb6cd43f2	-6.117386e-06
145	0xb68877c7	-4.0670598e-06
146	0x360e7276	2.1226274e-06
147	0xb72254df	-9.675713e-06
148	0x36e3d120	6.7894725e-06
149	0x3610ef90	2.1597116e-06
150	0x36a0c7ed	4.791646e-06
151	0x36a51f16	4.921002e-06
152	0xb61b40cb	-2.3134514e-06
153	0xb7821719	-1.5507963e-05
154	0xb62f9838	-2.6165635e-06
155	0x36669c3c	3.436361e-06
156	0x369ab876	4.6110317e-06
157	0xb8218ca8	-3.8516388e-05
158	0x36cae5b2	6.046809e-06
159	0x35310344	6.594239e-07
160	0xb73f6594	-1.1408138e-05
161	0xb69befa4	-4.647258e-06
162	0xb72e6962	-1.03957445e-05
163	0xb79223b1	-1.7421176e-05
164	0xb76a6524	-1.39710355e-05
165	0xb7a12c46	-1.9213312e-05
166	0x36a04e7d	4.777509e-06
167	0x3714a584	8.8600245e-06
168	0xb72e63df	-1.0394461e-05
169	0xb7f46fbc	-2.9139097e-05
170	0xb70edbd3	-8.515041e-06
171	0xb77a3de5	-1.4915572e-05
172	0xb7883132	-1.6235372e-05
173	0xb709a13e	-8.2033785e-06
174	0xb72f5797	-1.0451206e-05
175	0xb7c9882b	-2.4024475e-05
176	0xb72e0f0a	-1.037471e-05
177	0xb6655871	-3.4175139e-06
178	0xb7226839	-9.680219e-06
179	0xb818239c	-3.6272788e-05
180	0xb744067b	-1.1684019e-05
181	0xb72f5566	-1.0450696e-05
182	0xb725e5fe	-9.888316e-06
183	0xb4ec2461	-4.3984895e-07
184	0xb751f334	-1.2513996e-05
185	0x3791e1bc	1.7390463e-05
186	0xb6e4b432	-6.815907e-06
187	0xb7d457f0	-2.5313318e-05
188	0xb6d1bdf3	-6.2507984e-06
189	0xb7e4e873	-2.728796e-05
190	0xb7e38788	-2.712362e-05
191	0xb6de39fa	-6.622865e-06
192	0x37472dc0	1.1871976e-05
193	0x3385a300	6.222945e-08
194	0x3755cc51	1.27433605e-05
195	0x378788d6	1.6156973e-05
196	0x371daafb	9.397739e-06
197	0x374bc018	1.2144468e-05
198	0xb71a5c1e	-9.200563e-06
199	0x373bf79a	1.1203718e-05
200	0x36a065d8	4.7802278e-06
201	0x3684a0f0	3.952642e-06
202	0xb7114315	-8.658292e-06
203	0x375507ae	1.2697577e-05
204	0x35bb57a0	1.3958088e-06
205	0xb75b0701	-1.3055048e-05
206	0x37400acc	1.1446606e-05
207	0x358bd740	1.0418953e-06
208	0x37190125	9.119777e-06
209	0x34aa27cc	3.1693924e-07
210	0x37205fcd	9.5590485e-06
211	0x368651ac	4.003019e-06
212	0x36dd172b	6.5890104e-06
213	0xb66eb6bc	-3.557113e-06
214	0xb5881430	-1.0138665e-06
215	0x3696791c	4.4844473e-06
216	0x37007442	7.656463e-06
217	0xb7b52cc3	-2.1597725e-05
218	0x36c6e024	5.9269532e-06
219	0x3586e6c0	1.0050935e-06
220	0x378d62f0	1.6854581e-05
221	0xbe9fc52e	-0.31205124
222	0x37185e18	9.081814e-06
223	0x36ca0426	6.020552e-06
224	0xb63b534e	-2.7913661e-06
225	0xb73c54c0	-1.1225406e-05
226	0xb6cbb0a8	-6.070437e-06
227	0xb6c5cfe4	-5.895259e-06
228	0xb784d009	-1.58325e-05
229	0xb51d2de2	-5.8553826e-07
230	0xb6c9efb0	-6.01817e-06
231	0xb68ea1d6	-4.25077e-06
232	0xb794d645	-1.7742752e-05
233	0xb81213f7	-3.4827706e-05
234	0xb71b4212	-9.254103e-06
235	0xb6f34dcc	-7.251021e-06
236	0xb7b4cd60	-2.1553307e-05
237	0xb6cfd63c	-6.194021e-06
238	0xb6e9d481	-6.96868e-06
239	0xb81ddbae	-3.763631e-05
240	0xb6460206	-2.9505477e-06
241	0x34f2fd8c	4.5260492e-07
242	0xb5b8a070	-1.3755762e-06
243	0xb857ad26	-5.142125e-05
244	0xb6b01f9c	-5.2488886e-06
245	0xb678e3f7	-3.7087573e-06
246	0xb7092363	-8.174075e-06
247	0xb0bfc600	-1.3953354e-09
248	0xb785e1f9	-1.5960062e-05
249	0x35bcc813	1.4065321e-06
250	0xb6f7b1aa	-7.3818564e-06
251	0xb81bbf3c	-3.713298e-05
252	0xb5c7412c	-1.4845623e-06
253	0xbb069df9	-0.0020540936
254	0xb7cc4b3a	-2.4353725e-05
255	0xb5dee46e	-1.6606771e-06

superres_head/resnet_backbone/level_0/conv2d_48/Conv2D f4 [16, 1, 1, 16]
0	0x3ce4f193	0.027947223
1	0x3bb00438	0.0053715967
2	0x3b2f7dba	0.002677782
3	0xba89b989	-0.0010507564
4	0xbb6b0ac3	-0.0035864569
5	0xbce0e395	-0.02745227
6	0x3e2ac124	0.1667524
7	0xbbf50b1c	-0.007478131
8	0xb85281f0	-5.0188915e-05
9	0x39f56b81	0.00046810138
10	0xbaa408d3	-0.0012514837
11	0xbcd7398f	-0.026272563
12	0xb998e7c0	-0.00029164366
13	0xbaa78f39	-0.0012783773
14	0xb9b0351e	-0.0003360891
15	0xbb3007a0	-0.0026860014
16	0x3ac4f5e3	0.0015026893
17	0xbb191092	-0.0023355824
18	0xbca01395	-0.019540587
19	0xbdef9b55	-0.11699549
20	0xbe6548e0	-0.22391081
21	0x3b89ffaa	0.0042113857
22	0xbad2c11f	-0.0016079283
23	0xbccdf012	-0.025138889
24	0xb85be82c	-5.2429896e-05
25	0x3b9c7ce9	0.0047756326
26	0xb9d85ee8	-0.0004126944
27	0x3c946072	0.018112395
28	0xbb446876	-0.002996949
29	0x3a9f854f	0.0012170466
30	0xbc491f38	-0.01227551
31	0xba66becd	-0.0008802235
32	0xbd88153d	-0.06644676
33	0xbabb5128	-0.0014291154
34	0x39159dfa	0.00014268598
35	0xbb7d7f5d	-0.003868065
36	0xbab0caa2	-0.0013488124
37	0xb9e122b2	-0.00042941194
38	0xbb479271	-0.0030452276
39	0xbaa62b82	-0.0012677761
40	0xbbc4d5ce	-0.006006933
41	0x39bb30f4	0.00035703892
42	0xbb1a555f	-0.002354942
43	0x3c82b589	0.015955703
44	0x3ada1a2a	0.0016639878
45	0xbe43ab0b	-0.19108216
46	0x3a68f538	0.0008886638
47	0x39b2bbdc	0.00034090772
48	0x3be67594	0.0070330594
49	0x3ceed957	0.02915637
50	0x3cf7dfb6	0.03025804
51	0xbd8f8af6	-0.070089266
52	0x3c82a6c9	0.01594867
53	0xb8c4f862	-9.392273e-05
54	0x3d37d776	0.044883214
55	0x3da95b56	0.08269374
56	0xbb4186b5	-0.0029529755
57	0x3a33e124	0.00068618567
58	0x3ccf7d13	0.025328195
59	0x3d6863b0	0.056735694
60	0xbb23fe37	-0.002502335
61	0xbc0ea74d	-0.00870688
62	0xbb93479e	-0.0044946214
63	0xbc648d02	-0.0139496345
64	0x3bfcbd66	0.0077130077
65	0x3e7f8d19	0.24956168
66	0x398aa2b8	0.00026442646
67	0xbb2bae7a	-0.0026196525
68	0xbd26388b	-0.040581267
69	0xbc6875b0	-0.014188215
70	0x3be534f1	0.0069948365
71	0xb8bcb666	-8.998513e-05
72	0x3a8a9776	0.0010573703
73	0x3a9d3001	0.0011992456
74	0x3c3123b4	0.010811735
75	0xb9a571e9	-0.00031556122
76	0xb9535aa4	-0.00020156294
77	0xba1899d9	-0.0005821265
78	0xbaab9faf	-0.0013093854
79	0xbc131161	-0.008976311
80	0x3a4d71b9	0.00078370754
81	0xbe830d08	-0.2559588
82	0xba9e1654	-0.0012061098
83	0xbbcccd57	-0.0062500644
84	0x3d65aa70	0.056070745
85	0x3be241c9	0.006904815
86	0xbbac42fa	-0.0052570077
87	0xbb60d63f	-0.0034307388
88	0xb63cf148	-2.8154627e-06
89	0xba812dc5	-0.0009855559
90	0xbc06d0e0	-0.008228511
91	0x3b5ff4f7	0.003417311
92	0xb85f23d0	-5.3200696e-05
93	0x39dbaa87	0.00041897988
94	0x3a210bf6	0.0006143445
95	0x39bf288f	0.00036460577
96	0xbba75e29	-0.0051076603
97	0xb93dd23e	-0.00018102766
98	0x3cddc566	0.027071666
99	0x3e119726	0.14217815
100	0x3e8c2ad7	0.27376434
101	0xbbc1de00	-0.005916357
102	0x3b0efaa6	0.0021816879
103	0x3d02484d	0.031807233
104	0xb9b7f862	-0.0003508954
105	0xbbbc5d96	-0.005748461
106	0x3a28d23d	0.00064400194
107	0xbcad68fc	-0.021168225
108	0x3b61190a	0.00343472
109	0x3aa0f6e3	0.0012280609
110	0x3c59252a	0.0132534895
111	0xbba74324	-0.0051044393
112	0xbba997b1	-0.0051755537
113	0xba1d23c0	-0.0005994402
114	0x3c98687f	0.018604515
115	0x3d37d4d4	0.044880703
116	0xba4537b0	-0.00075232517
117	0xbcb8e7a3	-0.02257139
118	0xbd6fc481	-0.05853701
119	0xbda67f18	-0.0812971
120	0x3b605880	0.0034232438
121	0xba04d870	-0.0005067652
122	0xb9f71faf	-0.00047135117
123	0xbcd1ada4	-0.025595494
124	0xba260f9a	-0.0006334722
125	0xbba959ac	-0.0051681604
126	0x3b05a1c6	0.0020390614
127	0x3c0794d8	0.008275233
128	0x3d8e5d39	0.069513746
129	0x3aec4f58	0.0018029017
130	0x3a87a538	0.0010348922
131	0x3b0dc286	0.0021630838
132	0x3ad23286	0.0016036786
133	0x3a18d919	0.000583069
134	0x3b2c2ff9	0.002627371
135	0x3b988240	0.004654199
136	0x3b8f40c2	0.0043717334
137	0xb9ec6db2	-0.00045095157
138	0x3ab39726	0.0013701662
139	0xbc7d7336	-0.015469363
140	0xbaf24ada	-0.0018485442
141	0x3e4c5782	0.19955257
142	0xba49779a	-0.00076853635
143	0x39c5ba5d	0.0003771362
144	0x38656280	5.468959e-05
145	0x3d1ca85e	0.038246505
146	0x397410a6	0.00023275855
147	0xbe247a81	-0.16062357
148	0x3c10d562	0.008839937
149	0x3c81625f	0.015793977
150	0x3c646362	0.01393971
151	0x3a0f0da1	0.0005457048
152	0x389edd3a	7.575234e-05
153	0x3b4639ea	0.0030246922
154	0xbd03a4c6	-0.032139562
155	0xb823845a	-3.898549e-05
156	0xba710228	-0.0009193742
157	0xbafb504d	-0.0019173712
158	0xbbcef000	-0.0063152313
159	0xbb32903c	-0.0027246615
160	0xbbc0e059	-0.0058861193
161	0xba1b1adc	-0.0005916783
162	0x3a2051eb	0.00061157224
163	0x388ad454	6.619902e-05
164	0xbc8354c0	-0.016031623
165	0x3a0b30de	0.0005309711
166	0x3b87325f	0.0041258777
167	0x3ced3f1e	0.02896076
168	0xbba5c33d	-0.0050586746
169	0x39350630	0.0001726381
170	0xbae87714	-0.0017735683
171	0x3d2c0010	0.041992247
172	0xb920d6d3	-0.00015338817
173	0x3d0660c0	0.03280711
174	0xb9f169bc	-0.0004604588
175	0xbac8263c	-0.0015270184
176	0xbbcdc407	-0.006279472
177	0x3b78ef34	0.0037984373
178	0x39fe122a	0.0004846019
179	0x3a1fca19	0.00060954835
180	0x390ae6ee	0.00013246734
181	0xbd059e71	-0.032621805
182	0x399cad50	0.00029883767
183	0xbc0091f5	-0.007847299
184	0x3bdf62ae	0.0068171835
185	0x3b0d11dc	0.0021525538
186	0x3a748975	0.0009328344
187	0x3e063e8d	0.13109799
188	0xbaada72d	-0.0013248675
189	0x3a7475a7	0.0009325393
190	0xbae45455	-0.0017420152
191	0x3bd8f23b	0.006620673
192	0xbcffdbfc	-0.031232826
193	0xbbbeada5	-0.00581904
194	0xba97f1d9	-0.0011592462
195	0xbb8fcded	-0.004388562
196	0x3c2c8c69	0.010531523
197	0x3cd57b83	0.026059872
198	0xbe46f368	-0.1942879
199	0x3bc19560	0.0059076995
200	0x39968972	0.00028712634
201	0xb948dfab	-0.00019156809
202	0x39d1d225	0.00040020156
203	0x3cf934e5	0.03042073
204	0xba251784	-0.00062977546
205	0x3af70524	0.0018846137
206	0xb7862de0	-1.5995407e-05
207	0xba917127	-0.0011096344
208	0xbcdb4cf7	-0.026770098
209	0x3a12a0a9	0.0005593398
210	0x3c662d38	0.014048867
211	0xbd85f2b6	-0.06540434
212	0x3b115f79	0.002218215
213	0xbc2f4b07	-0.01069904
214	0x3ba541c3	0.00504324
215	0xbd828ce3	-0.06374528
216	0x3853c56a	5.0490176e-05
217	0x3aa7fdaa	0.0012816687
218	0x3d84fecb	0.064939104
219	0x3ba5e27f	0.005062401
220	0xba1efd21	-0.0006064941
221	0x3c683f9f	0.014175325
222	0xba15ddf5	-0.0005716973
223	0x38e217dc	0.00010780964
224	0xbc95529a	-0.018227864
225	0x3ca5b597	0.02022819
226	0x397b95d2	0.00023993038
227	0xbbc33004	-0.0059566516
228	0x39194432	0.00014616622
229	0x3dd7f20f	0.10544216
230	0x3d8b24aa	0.067941025
231	0x3acb26c7	0.0015499227
232	0xbb6c1834	-0.0036025168
233	0xb907483d	-0.00012901514
234	0x3c6ac89c	0.014330056
235	0x3c9dc612	0.019259486
236	0xba02c164	-0.0004987924
237	0x3c030f94	0.00799932
238	0xbb2517f5	-0.0025191281
239	0x3d0f17f8	0.034934968
240	0x3c1589ef	0.009127124
241	0xbc128455	-0.008942683
242	0xbbc57933	-0.006026411
243	0xb902024a	-0.00012398619
244	0x3c2abff7	0.010421745
245	0x39d28c71	0.00040158958
246	0xbc062967	-0.008188582
247	0x3b5106b5	0.0031894867
248	0xbabac895	-0.0014250452
249	0xbacc5a38	-0.0015590852
250	0x3b8d12d8	0.004305225
251	0xbdff91e8	-0.12479001
252	0x3a8f91e1	0.001095351
253	0xbb1459b1	-0.0022636468
254	0x3b17be6e	0.0023154276
255	0x3ac6622a	0.0015135456

superres_head/resnet_backbone/level_0/conv2d_47/Conv2D f4 [16, 1, 1, 32]
0	0x3715186b	8.886777e-06
1	0xb89b9f7e	-7.420684e-05
2	0xb93fec48	-0.00018303201
3	0x38335734	4.275814e-05
4	0xb7980a51	-1.8124616e-05
5	0xb901df11	-0.00012385497
6	0x36b7b854	5.4752836e-06
7	0xb71214c8	-8.707117e-06
8	0xb72a1b83	-1.0139195e-05
9	0xb93d023c	-0.00018025277
10	0x379cbf00	1.868559e-05
11	0xb836a57d	-4.3546304e-05
12	0xb81e0578	-3.767523e-05
13	0xb80ea5d8	-3.4009892e-05
14	0xb8d57832	-0.000101790196
15	0xb8530715	-5.0312916e-05
16	0x388291e4	6.226057e-05
17	0xb8adf154	-8.294234e-05
18	0x3588b828	1.0186386e-06
19	0xbc012cb2	-0.007884191
20	0x3857cf1a	5.1452873e-05
21	0x3847cf18	4.763817e-05
22	0xb86733e8	-5.5123033e-05
23	0xb8e9246d	-0.000111170906
24	0xb814269c	-3.5321907e-05
25	0xb9395699	-0.00017675235
26	0x37c75556	2.3762386e-05
27	0xb944d776	-0.00018772282
28	0xb8d086c4	-9.943315e-05
29	0xb91b0b3a	-0.00014786134
30	0xb812fb62	-3.504323e-05
31	0xb9176e63	-0.00014441604
32	0x393b89ad	0.00017884998
33	0x39365c20	0.00017391192
34	0xbdbc8dff	-0.09206771
35	0x398fe23a	0.00027443637
36	0x3ccfac68	0.025350764
37	0xbe31a8a9	-0.17349495
38	0x3bba3b24	0.0056833196
39	0x3d4a3ec3	0.04937626
40	0x385e3368	5.29768e-05
41	0xb7c4642c	-2.3411667e-05
42	0x3e4faf57	0.2028173
43	0xb9060b54	-0.00012783456
44	0x3de777e3	0.113021635
45	0xba9cd234	-0.0011964501
46	0xbc73beab	-0.014877002
47	0x3af52e59	0.0018705829
48	0x3a0b2c81	0.0005309061
49	0xb94b5b7b	-0.00019393668
50	0x3ab06f43	0.0013460893
51	0xba83a6df	-0.0010044238
52	0x3d2c4db7	0.042066302
53	0xb91a27d7	-0.00014701426
54	0xbdc26cfb	-0.094934426
55	0xbe169128	-0.1470381
56	0xb8b5c1e2	-8.666866e-05
57	0x39cb2d64	0.00038752996
58	0xb9be5f01	-0.00036310407
59	0xbd9525f7	-0.07282632
60	0x37b53038	2.1599335e-05
61	0xb998a16b	-0.00029111965
62	0xbc964577	-0.01834367
63	0xbcc286ae	-0.02374586
64	0x375b1027	1.3057178e-05
65	0x35838140	9.797877e-07
66	0xb6155e98	-2.225779e-06
67	0xb8085ba3	-3.251027e-05
68	0x381baebe	3.711762e-05
69	0x377de057	1.5132208e-05
70	0x386fee0e	5.7203746e-05
71	0xb6833f80	-3.9114966e-06
72	0x378263dc	1.5543708e-05
73	0x35065b80	5.005204e-07
74	0xb8607af6	-5.3520278e-05
75	0x357fd6e0	9.5307587e-07
76	0x3849b91e	4.809454e-05
77	0x378529b2	1.5874251e-05
78	0xb80abb8f	-3.307644e-05
79	0x36c112d8	5.754042e-06
80	0xb7942c6f	-1.7663666e-05
81	0xb58d0170	-1.0505737e-06
82	0x38c4a6e0	9.377091e-05
83	0xb79f57e1	-1.8995199e-05
84	0xb6c44072	-5.8487576e-06
85	0xb84e9a22	-4.9257775e-05
86	0x360b06a0	2.071647e-06
87	0xb896e855	-7.1958326e-05
88	0x38949f85	7.086903e-05
89	0xb7e39f22	-2.713461e-05
90	0xb7e771f6	-2.7590413e-05
91	0x385a6394	5.206799e-05
92	0xb8169920	-3.5905396e-05
93	0x38a9e3aa	8.100954e-05
94	0xb71aff4c	-9.238556e-06
95	0x37b3a02a	2.1413045e-05
96	0x3989b4dc	0.00026265427
97	0x3924d624	0.00015720032
98	0x3a41596f	0.00073756924
99	0x3d0b861b	0.03406344
100	0xbd89f94f	-0.06737005
101	0x3b8a3783	0.0042180433
102	0x396fc912	0.0002286772
103	0x3a0dfcf6	0.0005416417
104	0x38107f9f	3.445113e-05
105	0x39b3423d	0.00034190892
106	0xbd03e139	-0.03219721
107	0xb99b9087	-0.00029671585
108	0x39914e03	0.00027714678
109	0x39e0bdec	0.00042866112
110	0xb964fa04	-0.00021836912
111	0xbd02c56b	-0.031926554
112	0xbd9663dc	-0.073432654
113	0xb80ac19a	-3.308207e-05
114	0x383d0c63	4.5072647e-05
115	0xbaa3921f	-0.001247946
116	0xbd9b64fe	-0.07587622
117	0x398ed8fd	0.0002724602
118	0xb8cb912e	-9.706836e-05
119	0xbb020b63	-0.0019843213
120	0x3a306b67	0.00067298714
121	0xb6b87940	-5.4977427e-06
122	0xb93ec0a2	-0.00018191573
123	0x3d91f92d	0.07127605
124	0xb994e607	-0.00028400143
125	0x392abf28	0.00016283675
126	0xb78f0128	-1.7047467e-05
127	0xba3a77da	-0.0007113196
128	0x3aa3aec3	0.0012487996
129	0x3c1290d0	0.008945659
130	0xbca9dd12	-0.020735297
131	0x3c80b6a0	0.015712082
132	0xbbd90d3f	-0.0066238935
133	0x3ca76ce2	0.020437662
134	0x3aa1e2ce	0.0012350918
135	0x3bf0fc73	0.007354313
136	0x39bc959e	0.00035969628
137	0x3e3ed91a	0.18637505
138	0xb833b350	-4.2843923e-05
139	0xbc082eb8	-0.00831192
140	0x39f1da2e	0.0004612966
141	0xbbbce8a2	-0.0057650367
142	0xb94fcb4c	-0.00019816792
143	0x3c100eb0	0.008792564
144	0x3d4a6b88	0.049418956
145	0xbc3e793f	-0.011625587
146	0x3d1b21a5	0.037873883
147	0xb9bbe3eb	-0.00035837232
148	0xbd534904	-0.051583305
149	0x398e9ec8	0.00027202652
150	0xbbaed1fd	-0.005335091
151	0x3d10a96e	0.03531783
152	0x3b4bbdde	0.0031088511
153	0xb51da700	-5.8730075e-07
154	0xbad7c0ac	-0.0016460619
155	0x3b90cf2b	0.0044192276
156	0xbb4522bb	-0.0030080515
157	0x3c882c9d	0.016622836
158	0xbcd42981	-0.025898697
159	0xbccb8e6c	-0.024848185
160	0xb7bc7fb8	-2.247082e-05
161	0x384d8692	4.9001137e-05
162	0x3bf866a0	0.007580593
163	0x398d9957	0.00027007863
164	0xb88f6542	-6.837632e-05
165	0x377438ee	1.4556788e-05
166	0x35943950	1.1043539e-06
167	0xb7756639	-1.46269385e-05
168	0xb74ae825	-1.2094189e-05
169	0x38cc1ddf	9.733042e-05
170	0xb7ee81fa	-2.8432336e-05
171	0xb824308e	-3.9145867e-05
172	0xb89b0f6e	-7.39385e-05
173	0xbd00477a	-0.031318165
174	0x3935f085	0.00017351106
175	0x37b1ee68	2.121106e-05
176	0xb865a920	-5.4755365e-05
177	0x3911915d	0.0001388243
178	0xb807f914	-3.241848e-05
179	0x3741b0fc	1.1544904e-05
180	0xb7e6091c	-2.7422378e-05
181	0xb8a81c66	-8.016154e-05
182	0x3d46a837	0.048500266
183	0x3a909dcb	0.0011033354
184	0x37e949fb	2.7810214e-05
185	0x3831c7e2	4.2386244e-05
186	0x36e342f2	6.7729206e-06
187	0x38c55209	9.408972e-05
188	0x381f5ab2	3.799302e-05
189	0x3803d743	3.1433312e-05
190	0xb780a197	-1.5334035e-05
191	0x38b45e44	8.600627e-05
192	0xb864daf8	-5.4563367e-05
193	0x38e12d4d	0.00010737274
194	0xbd25c3d5	-0.040469963
195	0x3cff6713	0.03117708
196	0x39561b2e	0.00020418756
197	0xbcabb34e	-0.020959523
198	0x3ca3cd92	0.019995485
199	0x3d46cdb3	0.048536014
200	0x3ca0eaf8	0.019643292
201	0x38cfffa4	9.918146e-05
202	0x398fac20	0.0002740333
203	0x38ac19cf	8.206406e-05
204	0x3ce1599a	0.027508546
205	0x3bce2e20	0.0062921196
206	0xbb176a01	-0.0023103955
207	0xba6aa7a5	-0.00089513726
208	0x3c519f6b	0.012794356
209	0xb7c8b634	-2.3926703e-05
210	0x3d8af8b0	0.067857146
211	0x37cdeb04	2.4547342e-05
212	0xb7b82c2c	-2.1955078e-05
213	0xba03f3ef	-0.00050336024
214	0xb89833e0	-7.257587e-05
215	0xba98f447	-0.001166948
216	0x39859d1a	0.00025484787
217	0xbcc4db00	-0.024030209
218	0xba91c3ee	-0.0011121014
219	0x39d22dc6	0.00040088425
220	0xb989030b	-0.00026132943
221	0x39885b9e	0.00026008202
222	0xbdc3788b	-0.09544476
223	0xbd247e35	-0.040159423
224	0x36cc3640	6.0859893e-06
225	0x38c58075	9.417619e-05
226	0x397dfd3d	0.00024222299
227	0x3d944c03	0.072410606
228	0x380f17fe	3.41162e-05
229	0x39005d14	0.00012241706
230	0x390e0b38	0.00013546355
231	0x3c12ab04	0.008951906
232	0xb70d665a	-8.4280855e-06
233	0x3863ad16	5.4282216e-05
234	0xbd75cb16	-0.06000813
235	0xb89432fe	-7.066688e-05
236	0x37fa228d	2.9818411e-05
237	0xbcad9bd4	-0.021192469
238	0xb953301e	-0.00020140453
239	0x393312f4	0.00017077831
240	0x3b61e326	0.0034467666
241	0xbce4ee17	-0.027945561
242	0x3d2f1212	0.042741843
243	0xb92265f4	-0.00015487504
244	0xb88e3e0d	-6.7826455e-05
245	0x383a6cf6	4.4447333e-05
246	0x3937201a	0.00017464199
247	0x39f599f6	0.0004684475
248	0x38c05c22	9.1724345e-05
249	0x3c8715fc	0.016489975
250	0xb82cbe34	-4.1185136e-05
251	0x3acc9953	0.0015609659
252	0xb8235bcd	-3.8947725e-05
253	0x39813c3e	0.0002464968
254	0xbc741d57	-0.014899573
255	0xbd300b9e	-0.04297983
