bfcnn/pretrained/resnet_5x5_bn_3x3/model.tflite (tflite, 277664 bytes, 173 tensors)

resnet_denoiser/level_0/batch_normalization_1/FusedBatchNormV3 f4 [16]
-0.36870727 -0.48489094 -0.59241813 -0.49152938 -0.5146463 -0.6630393 -0.5095593 -0.54538184
-7.745438e-07 -0.61298746 -0.71495503 -0.49464262 -0.46681947 -0.6448542 -0.5622108 -0.35766712
00000000: 33c7 bcbe a043 f8be b7a8 17bf bda9 fbbe
00000010: dcbf 03bf f2bc 29bf 7a72 02bf 259e 0bbf
00000020: 3fea 4fb5 bfec 1cbf 4b07 37bf cc41 fdbe
00000030: f602 efbe 2a15 25bf 0ced 0fbf 2520 b7be

resnet_denoiser/level_0/batch_normalization_1/FusedBatchNormV31 f4 [16]
42.441326 22.4437 36.20315 45.42636 17.088818 46.473694 36.854866 25.602222
0.10660514 51.798847 34.902027 57.414948 41.417007 25.882181 32.0124 59.832222
00000000: ebc3 2942 b38c b341 07d0 1042 98b4 3542
00000010: e6b5 8841 10e5 3942 626b 1342 5ad1 cc41
00000020: cc53 da3d 0532 4f42 ad9b 0b42 e8a8 6542
00000030: 04ab 2542 b50e cf41 b30c 0042 3254 6f42

resnet_denoiser/level_0/batch_normalization_10/FusedBatchNormV3 f4 [32]
0.0 -0.89663476 -1.7532138 0.0 -0.67217547 0.0 -1.3337779 -1.0060138
-0.94025904 -0.9688389 -0.62269294 -0.6146421 -0.7451246 -0.7395281 -0.6017873 -0.6766859
-0.6062073 -0.60614085 -1.2064428 -0.7438107 -0.55924326 -0.6810255 -0.64049476 -0.8876233
0.0 0.0 -0.9181585 -0.7042843 -0.70268565 -0.5788889 -0.47711256 -0.35775864
00000000: 0000 0000 db89 65bf 4f69 e0bf 0000 0000
00000010: b113 2cbf 0000 0000 3cb9 aabf 0fc5 80bf
00000020: d1b4 70bf d305 78bf ce68 1fbf 2f59 1dbf
00000030: 7cc0 3ebf b751 3dbf bc0e 1abf 4a3b 2dbf
00000040: 6730 1bbf 0c2c 1bbf b86c 9abf 616a 3ebf
00000050: 912a 0fbf b057 2ebf 77f7 23bf 483b 63bf
00000060: 0000 0000 0000 0000 6f0c 6bbf fa4b 34bf
00000070: 35e3 33bf 1032 14bf 1948 f4be 242c b7be

resnet_denoiser/level_0/batch_normalization_10/FusedBatchNormV31 f4 [32]
1.0646995 13.449191 8.884297 1.2192038 8.671148 1.3609049 1.9882829 5.732182
3.3065145 20.246834 9.475068 7.0223856 5.800852 19.997774 1.9837853 2.8224833
1.5744003 8.243946 9.081684 3.9961548 14.742674 8.038689 10.964067 22.83442
-0.5510145 0.9102445 10.422337 4.272535 0.88747233 3.068627 2.1988828 1.8055785
00000000: 1348 883f e32f 5741 1526 0e41 df0e 9c3f
00000010: 06bd 0a41 2232 ae3f 0e80 fe3f 096e b740
00000020: ef9d 5340 84f9 a141 e199 1741 62b7 e040
00000030: 94a0 b940 71fb 9f41 adec fd3f 91a3 3440
00000040: f385 c93f 34e7 0341 944e 1141 00c1 7f40
00000050: fee1 6b41 789e 0041 d26c 2f41 e4ac b641
00000060: 490f 0dbf c905 693f e4c1 2641 9bb8 8840
00000070: 6331 633f 6364 4440 7fba 0c40 321d e73f

resnet_denoiser/level_0/batch_normalization_11/FusedBatchNormV3 f4 [16]
-0.21512443 -0.3825658 -0.22476454 -0.16589828 -0.29552647 -0.09625734 -0.3104727 -2.5087338e-05
-0.20018284 -4.4192544e-05 1.120438e-05 -0.19371548 -0.40211764 -0.10924494 -0.37171867 -0.19062728
00000000: 9449 5cbe aadf c3be ad28 66be 3de1 29be
00000010: 3f4f 97be 9122 c5bd 47f6 9ebe a672 d2b7
00000020: bbfc 4cbe 625b 39b8 72fa 3b37 5a5d 46be
00000030: 5de2 cdbe d0bb dfbd e951 bebe cc33 43be

resnet_denoiser/level_0/batch_normalization_11/FusedBatchNormV31 f4 [16]
0.04692178 0.14361307 0.041577794 0.044262595 0.13187183 0.08903336 0.29190344 2.310044e-05
0.06769758 5.2279065e-05 -6.568682e-06 0.06115558 0.10029351 0.11386974 0.13410828 0.056039635
00000000: 0d31 403d 4e0f 133e 7a4d 2a3d b24c 353d
00000010: 6909 073e 1f57 b63d 5e74 953e d1c7 c137
00000020: 07a5 8a3d 3846 5b38 8c68 dcb6 467e 7a3d
00000030: af66 cd3d 8a34 e93d ae53 093e d189 653d

resnet_denoiser/level_0/batch_normalization_2/FusedBatchNormV3 f4 [32]
-0.8912156 -0.72141176 -0.33934608 -0.27639523 -0.65926266 -0.28498343 -0.48673072 -0.52732956
-0.29454896 -0.7009622 -0.708061 -0.4648167 -0.3032092 -0.80427897 -0.60522914 -0.4182385
-0.60042006 -0.3255466 -0.3994842 -0.50319093 -0.45845315 -0.928117 -0.3099642 -0.46659184
-0.27010852 -0.4346979 -0.5178793 -0.13850094 -0.78892416 -0.79246444 -0.192528 -0.36482844
00000000: b526 64bf 71ae 38bf c5be adbe ad83 8dbe
00000010: 70c5 28bf 59e9 91be c534 f9be 12ff 06bf
00000020: 1fcf 96be 4272 33bf 7c43 35bf 74fc edbe
00000030: 3c3e 9bbe 3ae5 4dbf 4cf0 1abf 5b23 d6be
00000040: 21b5 19bf 0bae a6be 3189 ccbe 1fd1 00bf
00000050: 5fba eabe 1399 6dbf a1b3 9ebe 20e5 eebe
00000060: aa4b 8abe b990 debe bd93 04bf 31d3 0dbe
00000070: eff6 49bf f3de 4abf 0f26 45be cbca babe

resnet_denoiser/level_0/batch_normalization_2/FusedBatchNormV31 f4 [32]
1.4226698 1.1501044 3.7216423 1.800649 1.4874732 6.824754 1.972039 2.2440586
1.2114098 1.1617602 2.182477 15.605758 11.107314 2.819731 1.1572092 1.6801031
3.1374478 1.95559 2.2265098 3.1247385 1.0386332 3.792081 0.8288236 2.462172
7.563921 1.0773592 1.6538522 1.9681994 2.446631 1.1652597 1.5425342 9.538167
00000000: 0b1a b63f 9f36 933f 632f 6e40 ab7b e63f
00000010: 8665 be3f 6364 da40 c66b fc3f a89e 0f40
00000020: 7a0f 9b3f 8fb4 943f b4ad 0b40 2fb1 7941
00000030: 8fb7 3141 7976 3440 6e1f 943f 9e0d d73f
00000040: f2cb 4840 c650 fa3f 237f 0e40 b7fb 4740
00000050: eff1 843f 75b1 7240 c92d 543f 3a94 1d40
00000060: a40b f240 e8e6 893f 6eb1 d33f f5ed fb3f
00000070: 9a95 1c40 3b27 953f c371 c53f 559c 1841

resnet_denoiser/level_0/batch_normalization_3/FusedBatchNormV3 f4 [16]
-0.25980547 -0.36212015 -0.91745484 -0.44284692 -0.3325716 -3.9978437e-05 -0.95702344 -0.43868443
-0.55743533 -0.96111906 -1.3299053 -0.9381981 -0.71189433 -1.5914634 -0.9056632 -0.3863533
00000000: 3905 85be d067 b9be 52de 6abf d5bc e2be
00000010: d346 aabe 85ae 27b8 7dff 74bf 3f9b e0be
00000020: 15b4 0ebf e60b 76bf 563a aabf c02d 70bf
00000030: b53e 36bf 13b5 cbbf 8bd9 67bf 1ad0 c5be

resnet_denoiser/level_0/batch_normalization_3/FusedBatchNormV31 f4 [16]
0.47734624 0.69921696 2.1664975 5.5582914 1.1403791 0.00025561382 3.5354402 3.505817
1.3104296 3.202134 5.772447 9.268994 0.5466314 8.593656 0.9176258 2.6784065
00000000: ba66 f43e e2ff 323f e5a7 0a40 86dd b140
00000010: f1f7 913f e803 8639 a744 6240 4e5f 6040
00000020: 28bc a73f c3ef 4c40 e3b7 b840 cd4d 1441
00000030: 09f0 0b3f 9d7f 0941 86e9 6a3f 036b 2b40

resnet_denoiser/level_0/batch_normalization_4/FusedBatchNormV3 f4 [32]
-0.38444242 -0.45097426 -0.43494543 -0.4651527 -0.69080794 -0.35186353 -0.56764346 -0.41182646
-1.0541042 -0.56398034 -0.6132411 -0.47638625 -0.8171586 -0.38134065 -0.6751768 -0.5131631
-0.58244926 -0.47762215 -0.45143044 -0.5248205 -0.4284139 -0.7521919 -0.6797827 -0.5431172
-0.71901345 -0.7420323 -0.5201434 -0.66633415 -0.4920023 -0.6258659 -0.7087305 -0.865366
00000000: a3d5 c4be 19e6 e6be 2bb1 debe 7f28 eebe
00000010: cad8 30bf 7527 b4be 1551 11bf ebda d2be
00000020: e3ec 86bf 0461 10bf 5efd 1cbf e6e8 f3be
00000030: 4e31 51bf 153f c3be 63d8 2cbf a85e 03bf
00000040: 651b 15bf e48a f4be e421 e7be a35a 06bf
00000050: 1159 dbbe a68f 40bf 3d06 2ebf bb09 0bbf
00000060: 4411 38bf d4f5 3dbf 1e28 05bf e094 2abf
00000070: bae7 fbbe bf38 20bf 5d6f 35bf a088 5dbf

resnet_denoiser/level_0/batch_normalization_4/FusedBatchNormV31 f4 [32]
6.3748465 6.733435 1.070305 1.6657714 6.9581285 2.5294673 3.8096633 8.591075
7.432502 5.1523504 13.726303 3.7518964 3.473736 2.1171532 3.0150712 2.831573
4.685323 2.5052571 4.499843 8.519038 8.663742 2.2454827 2.4439304 4.643602
2.2556503 3.2687366 8.197913 1.2684493 2.0953207 10.066485 6.2151375 2.0383801
00000000: befe cb40 4d78 d740 c1ff 883f ff37 d53f
00000010: fda8 de40 cbe2 2140 86d1 7340 0b75 0941
00000020: 0ed7 ed40 0ee0 a440 f09e 5b41 121f 7040
00000030: b151 5e40 707f 0740 edf6 4040 7e38 3540
00000040: 2bee 9540 2256 2040 b7fe 8f40 fb4d 0841
00000050: b09e 0a41 fdb5 0f40 5b69 1c40 6398 9440
00000060: 935c 1040 fb32 5140 a72a 0341 8c5c a23f
00000070: bc19 0640 5310 2141 68e2 c640 d274 0240

resnet_denoiser/level_0/batch_normalization_5/FusedBatchNormV3 f4 [16]
-0.6284514 -1.1251561e-05 -1.8781091 -0.46476537 -0.81250674 -0.98443574 -1.4596483 -0.83199424
-0.5652101 -1.0437331 -0.9052869 -0.6964785 3.7688576e-05 -1.7154489 -0.64653665 -0.4902466
00000000: 31e2 20bf 16c5 3cb7 e165 f0bf baf5 edbe
00000010: 7100 50bf fb03 7cbf c1d5 babf 93fd 54bf
00000020: 9cb1 10bf 0c99 85bf e2c0 67bf 6a4c 32bf
00000030: cd13 1e38 d493 dbbf 6d83 25bf 9a01 fbbe

resnet_denoiser/level_0/batch_normalization_5/FusedBatchNormV31 f4 [16]
0.698133 1.719867e-05 2.1330268 2.2818134 1.83387 2.605302 3.1772637 3.6957064
0.7153215 2.0323453 2.2969153 1.9244624 -1.5791722e-05 5.491242 0.38863102 1.1100134
00000000: d8b8 323f dd45 9037 8383 0840 3b09 1240
00000010: 41bc ea3f 45bd 2640 4a58 4b40 7486 6c40
00000020: 4f1f 373f f211 0240 a900 1340 c954 f63f
00000030: 7778 84b7 41b8 af40 a5fa c63e eb14 8e3f

resnet_denoiser/level_0/batch_normalization_6/FusedBatchNormV3 f4 [32]
-0.550691 -0.7180584 -0.48905256 -0.5285762 -0.6635796 -0.7407862 -0.69538397 -0.38245222
-0.49846515 -0.4043594 -0.8338021 -0.49668694 -0.83401597 -0.8300429 -0.7078717 -0.7340932
-0.40107602 -0.4894445 -0.78653395 -0.6713204 -0.36811766 -0.38716194 -0.71271086 -0.6760247
-0.34048072 -0.65007424 -0.3878737 0.0 -0.33065674 -0.5434901 -0.49835518 -0.5631368
00000000: 16fa 0cbf add2 37bf 1965 fabe c550 07bf
00000010: 5ae0 29bf 2aa4 3dbf af04 32bf c7d0 c3be
00000020: d336 ffbe 3208 cfbe 0e74 55bf c04d febe
00000030: 1282 55bf b17d 54bf 1437 35bf 88ed 3bbf
00000040: d659 cdbe 7898 fabe 4a5a 49bf a7db 2bbf
00000050: eb79 bcbe 173a c6be 3874 36bf f40f 2dbf
00000060: 7d53 aebe 446b 26bf 6297 c6be 0000 0000
00000070: d74b a9be 2b22 0bbf 6928 ffbe bc29 10bf

resnet_denoiser/level_0/batch_normalization_6/FusedBatchNormV31 f4 [32]
4.457497 2.5428317 4.850344 7.447891 4.7133636 5.813741 3.1406143 9.183488
4.2599397 4.714136 16.31741 6.132316 6.475765 4.0553045 2.0285296 12.901077
8.43717 1.2462285 12.785276 8.131081 2.4724658 4.435293 1.4501995 6.551581
2.3925498 6.084325 8.1661 -1.4195555 2.7616916 2.2829943 3.2172005 5.5831037
00000000: d1a3 8e40 c1bd 2240 0536 9b40 2055 ee40
00000010: e0d3 9640 2b0a ba40 d3ff 4840 91ef 1241
00000020: 6d51 8840 34da 9640 0e8a 8241 ef3b c440
00000030: 7839 cf40 0ec5 8140 6ed3 0140 d06a 4e41
00000040: a6fe 0641 6a84 9f3f 7e90 4c41 e818 0241
00000050: e13c 1e40 eced 8d40 23a0 b93f 8da6 d140
00000060: 891f 1940 cab2 c240 58a8 0241 ffb3 b5bf
00000070: 8ebf 3040 941c 1240 9de6 4d40 c9a8 b240

resnet_denoiser/level_0/batch_normalization_7/FusedBatchNormV3 f4 [16]
4.130607e-06 3.2398134e-06 -0.54822814 2.748694e-05 -0.88816977 -0.88398165 -1.0266887 -0.51378775
-0.42617822 -1.9613856 -0.87366396 -1.1028152 -0.3829514 -2.654138 -0.5094079 -1.3344865
00000000: a599 8a36 926b 5936 ae58 0cbf c193 e637
00000010: 185f 63bf 9f4c 62bf 896a 83bf 9887 03bf
00000020: 0834 dabe af0e fbbf 71a8 5fbf 0c29 8dbf
00000030: 3512 c4be 66dd 29c0 8e68 02bf 74d0 aabf

resnet_denoiser/level_0/batch_normalization_7/FusedBatchNormV31 f4 [16]
-2.1191622e-06 -4.5315405e-06 0.38361567 -1.5736303e-05 1.3720185 1.6135576 1.6253037 0.9445356
0.5042715 2.954545 1.2482349 1.7622261 0.13678013 5.810275 0.2936643 1.6879885
00000000: ee36 0eb6 a30d 98b6 4669 c43e 7401 84b7
00000010: 4d9e af3f 0e89 ce3f f409 d03f 16cd 713f
00000020: f017 013f 4417 3d40 29c6 9f3f a090 e13f
00000030: 1710 0c3e c6ed b940 2b5b 963e 0210 d83f

resnet_denoiser/level_0/batch_normalization_8/FusedBatchNormV3 f4 [32]
-0.67888856 -0.67021054 -0.64075965 -0.1954663 -0.5688979 -0.31831202 -0.6063647 -0.7073822
-0.50191516 -0.6904153 -0.3958156 -0.96723515 -0.59249324 -0.42846534 -0.39431357 -0.45498765
-0.6968876 -1.7965755 -1.3278128 -0.9944329 -0.3947308 -0.56901884 -0.72278726 -0.8909457
-1.1162196 -0.47553542 -0.8191817 -0.84996027 -0.9322417 -0.72120243 0.0 -0.58098817
00000000: a4cb 2dbf eb92 2bbf d308 24bf 5128 48be
00000010: 4ba3 11bf cbf9 a2be b83a 1bbf 0017 35bf
00000020: 837d 00bf 0fbf 30bf 58a8 cabe b99c 77bf
00000030: a3ad 17bf cf5f dbbe 78e3 c9be 24f4 e8be
00000040: 3a67 32bf 30f6 e5bf c5f5 a9bf 2893 7ebf
00000050: 281a cabe 38ab 11bf 9608 39bf 0415 64bf
00000060: 49e0 8ebf 6179 f3be e4b5 51bf ff96 59bf
00000070: 64a7 6ebf b9a0 38bf 0000 0000 a4bb 14bf

resnet_denoiser/level_0/batch_normalization_8/FusedBatchNormV31 f4 [32]
5.766462 1.7847482 4.832146 5.5827575 2.1365561 2.510373 4.044835 5.450373
4.2288604 1.778446 1.2937541 8.285462 2.7598004 1.5256876 3.1127841 8.114607
6.6066113 7.7933364 7.7553535 8.015603 6.604815 7.082551 7.821513 21.908972
10.622634 6.353994 7.4291635 9.732638 11.420667 16.559542 -0.901738 7.2601953
00000000: db86 b840 a172 e43f f1a0 9a40 f3a5 b240
00000010: 56bd 0840 f4a9 2040 4a6f 8140 7569 ae40
00000020: d352 8740 1ea4 e33f bc99 a53f 4191 0441
00000030: 92a0 3040 bb49 c33f db37 4740 6ed5 0141
00000040: 5c69 d340 0363 f940 db2b f840 e93f 0041
00000050: a55a d340 42a4 e240 d649 fa40 9345 af41
00000060: 4ff6 2941 eb53 cb40 b5bb ed40 e3b8 1b41
00000070: 0dbb 3641 f179 8441 4dd8 66bf 8553 e840

resnet_denoiser/level_0/batch_normalization_9/FusedBatchNormV3 f4 [16]
-2.448911e-05 -0.25980407 -1.2059449 2.6187594e-05 -0.82858616 -1.2816472 -6.697015e-05 -0.50945103
-1.5609206e-05 -2.151975 -1.2572155 -1.113386 -0.57719356 -1.5110134 -0.6974949 -0.67089486
00000000: f76d cdb7 0a05 85be 675c 9abf 6ead db37
00000010: 391e 54bf 040d a4bf 5372 8cb8 626b 02bf
00000020: 84f0 82b7 f5b9 09c0 70ec a0bf 6f83 8ebf
00000030: f5c2 13bf e368 c1bf 078f 32bf c4bf 2bbf

resnet_denoiser/level_0/batch_normalization_9/FusedBatchNormV31 f4 [16]
1.1494072e-05 0.1684538 0.42379862 -1.4285328e-05 0.55932224 1.5454074 8.1343984e-05 0.4691029
1.1865645e-05 2.5457516 0.73705536 1.1339629 0.16496913 2.1161172 0.38017106 0.649655
00000000: aad6 4037 277f 2c3e 22fc d83e 04ab 6fb7
00000010: be2f 0f3f e9cf c53f 3897 aa38 412e f03e
00000020: 8f12 4737 98ed 2240 a9af 3c3f b225 913f
00000030: abed 283e 776e 0740 c8a5 c23e ca4f 263f

resnet_denoiser/level_1/batch_normalization_13/FusedBatchNormV3 f4 [16]
-0.60928565 -0.3003821 -0.59880704 -0.40993086 2.6244632e-05 -0.66943246 -0.29700997 -0.595318
-0.32602718 -0.5356999 -0.5676579 -0.22651845 -0.50068486 -0.33916304 -0.34853232 -0.31114304
00000000: 25fa 1bbf afcb 99be 6b4b 19bf 75e2 d1be
00000010: eb27 dc37 ed5f 2bbf b111 98be c366 18bf
00000020: 09ed a6be a123 09bf 0752 11bf 74f4 67be
00000030: e22c 00bf c7a6 adbe d472 b2be 244e 9fbe

resnet_denoiser/level_1/batch_normalization_13/FusedBatchNormV31 f4 [16]
81.96458 104.72221 18.7181 59.650806 -0.07203094 48.779625 52.47684 37.14734
85.18632 64.64138 72.31146 97.45152 63.76598 60.56871 112.66745 89.6253
00000000: dded a342 c671 d142 abbe 9541 6d9a 6e42
00000010: f584 93bd 561e 4342 49e8 5142 e096 1442
00000020: 655f aa42 6348 8142 789f 9042 2ee7 c242
00000030: 5d10 7f42 5c46 7242 bc55 e142 2740 b342

resnet_denoiser/level_1/batch_normalization_14/FusedBatchNormV3 f4 [32]
-0.39203647 -0.2083421 -0.21528934 -0.2435841 -0.5650706 -0.23247084 -0.19958211 -0.3789415
-0.21264365 -0.30350903 -0.6017448 -0.14066756 -0.506351 -0.21423405 -0.32482097 -0.29358506
-0.17455453 -0.5947159 -0.35819662 -0.2892614 -0.18586178 -0.18440041 -0.19509256 -0.4497137
-0.1624985 -0.19609976 -0.42681953 -0.4844416 -0.4953901 -0.25591335 -0.46966222 -0.2542916
00000000: 01b9 c8be a257 55be cf74 5cbe 1c6e 79be
00000010: 78a8 10bf d60c 6ebe 415f 4cbe 9f04 c2be
00000020: 42bf 59be 8965 9bbe f20b 1abf 280b 10be
00000030: 38a0 01bf 2c60 5bbe ef4e a6be c850 96be
00000040: 6cbe 32be 4d3f 18bf 8c65 b7be 121a 94be
00000050: 8d52 3ebe 76d3 3cbe 58c6 47be e040 e6be
00000060: 0266 26be 60ce 48be 1788 dabe bb08 f8be
00000070: c5a3 fdbe 1307 83be 9177 f0be 8232 82be

resnet_denoiser/level_1/batch_normalization_14/FusedBatchNormV31 f4 [32]
4.5810165 11.789381 10.090947 9.261088 7.1904535 19.50934 12.845243 13.65607
8.560363 2.3336053 5.4608884 5.1331267 4.5069966 10.775743 4.5165186 3.305535
7.3886127 1.75175 3.4848502 4.8777876 7.1038914 10.543943 7.419726 3.7347732
9.406113 11.620824 10.548591 2.3459167 3.181988 13.137273 2.213188 11.690564
00000000: b097 9240 4ea1 3c41 8574 2141 6b2d 1441
00000010: 3218 e640 2113 9c41 1e86 4d41 437f 5a41
00000020: 3ff7 0841 ca59 1540 99bf ae40 9342 a440
00000030: 5139 9040 7169 2c41 5287 9040 e38d 5340
00000040: 846f ec40 5839 e03f c907 5f40 d616 9c40
00000050: 1453 e340 feb3 2841 656e ed40 8606 6f40
00000060: 707f 1641 e5ee 3941 07c7 2841 8023 1640
00000070: b1a5 4b40 4532 5241 dfa4 0d40 8d0c 3b41

resnet_denoiser/level_1/batch_normalization_15/FusedBatchNormV3 f4 [16]
-0.8731623 -0.87362266 -0.7146201 -1.6303579 -1.3034767 -1.5854894 -1.1474735 -1.1865877
-0.5377923 -1.4826558 -0.8928113 -0.9673564 -0.5709039 -0.7631251 -0.6568535 -0.75436777
00000000: 9187 5fbf bca5 5fbf 58f1 36bf 91af d0bf
00000010: 53d8 a6bf 51f1 cabf 69e0 92bf 1be2 97bf
00000020: c2ac 09bf aac7 bdbf 488f 64bf aba4 77bf
00000030: c226 12bf 2b5c 43bf 8d27 28bf 3f1e 41bf

resnet_denoiser/level_1/batch_normalization_15/FusedBatchNormV31 f4 [16]
51.89678 21.854538 1.832387 14.940328 29.007565 53.996098 35.777866 1.976476
1.2311414 3.4632592 48.14332 73.54648 11.504722 23.114552 55.27535 78.25762
00000000: 4d96 4f42 18d6 ae41 a88b ea3f 950b 6f41
00000010: 7e0f e841 01fc 5742 891c 0f42 2afd fc3f
00000020: 0b96 9d3f 0aa6 5d40 c292 4042 cc17 9342
00000030: 5713 3841 9aea b841 f519 5d42 e783 9c42

resnet_denoiser/level_1/batch_normalization_16/FusedBatchNormV3 f4 [32]
-0.55926687 -0.2488952 -0.42785823 -0.39123923 -0.50408137 -0.4569303 -0.51663435 -0.4691047
-0.4852873 -0.59052104 -0.5277053 -0.5480128 -0.59142685 -0.4933387 -0.2953871 -0.31189483
-0.44676527 -0.64458895 -0.4143016 -0.5220878 -0.32674083 -0.5046843 -0.464423 -0.49370918
-0.46178836 -0.4341968 -0.58136195 -0.42896867 -0.79368776 -0.73463666 -0.6013248 -0.56957334
00000000: 1d2c 0fbf 62de 7ebe 3c10 dbbe 8250 c8be
00000010: 7a0b 01bf c5f2 e9be 2642 04bf 7e2e f0be
00000020: 9477 f8be 632c 17bf b217 07bf 914a 0cbf
00000030: c067 17bf e496 fcbe fa3c 97be aeb0 9fbe
00000040: 6bbe e4be c803 25bf 571f d4be 8ca7 05bf
00000050: 934a a7be fe32 01bf dac8 edbe 73c7 fcbe
00000060: 866f ecbe 0b4f debe 23d4 14bf c8a1 dbbe
00000070: 1f2f 4bbf 2611 3cbf 6cf0 19bf 8fcf 11bf

resnet_denoiser/level_1/batch_normalization_16/FusedBatchNormV31 f4 [32]
7.7002196 5.3426003 6.352344 12.71036 7.050403 13.145386 14.379496 13.59282
7.2380247 3.6753926 18.734722 10.97823 15.062019 13.436208 4.898451 9.798391
9.049348 5.528447 10.268318 12.095201 5.2731595 9.204044 4.8469625 18.160206
11.572711 2.7910087 7.97887 7.8606653 5.53151 15.121548 11.837211 12.11384
00000000: 3368 f640 95f6 aa40 6746 cb40 a25d 4b41
00000010: e79c e140 8053 5241 6a12 6641 317c 5941
00000020: e69d e740 a239 6b40 b6e0 9541 d5a6 2f41
00000030: 08fe 7041 b5fa 5641 1cc0 9c40 36c6 1c41
00000040: 21ca 1041 0ae9 b040 084b 2441 f185 4141
00000050: b9bd a840 c443 1341 511a 9b40 1a48 9141
00000060: d329 3941 e39f 3240 e752 ff40 928a fb40
00000070: 2102 b140 dcf1 7141 3765 3d41 4ad2 4141

resnet_denoiser/level_1/batch_normalization_17/FusedBatchNormV3 f4 [16]
-1.0905603 -0.83511466 -0.46551082 -2.3950968 -1.0945388 -1.043837 -0.9601848 -1.1605945
-0.37843168 -1.1062557 -0.8022244 -0.6485443 -0.5424798 -0.81406265 -0.73828185 -0.7233559
00000000: 7b97 8bbf 13ca 55bf 6f57 eebe 4449 19c0
00000010: d919 8cbf 739c 85bf acce 75bf 5c8e 94bf
00000020: ccc1 c1be c999 8dbf 945e 4dbf 0007 26bf
00000030: f5df 0abf 6966 50bf 0a00 3dbf da2d 39bf

resnet_denoiser/level_1/batch_normalization_17/FusedBatchNormV31 f4 [16]
27.157997 8.609231 1.0877801 13.454142 10.359419 13.551787 12.937317 1.6032995
0.81252265 2.107052 13.048019 13.986039 5.5461473 8.40685 23.24168 23.668259
00000000: 9443 d941 69bf 0941 613c 8b3f 2a44 5741
00000010: 2ec0 2541 1fd4 5841 40ff 4e41 eb38 cd3f
00000020: 7c01 503f f1d9 0640 b0c4 5041 d1c6 5f41
00000030: 0a7a b140 7582 0641 f6ee b941 9858 bd41

resnet_denoiser/level_1/batch_normalization_18/FusedBatchNormV3 f4 [32]
-0.69240195 -0.68686265 -0.4807851 -0.6516778 -0.6860995 -0.30587867 -0.73731637 -0.35890865
-0.7861902 -0.7045696 -0.7193414 -0.44760418 -0.857262 -0.58337957 -0.86141735 -0.8244812
-0.93982804 -0.5592349 -0.5721389 -0.4995457 0.0 -0.69780785 -0.65534765 -0.8932723
-0.94540685 0.0 -0.9793974 -0.6349697 -0.59424907 -0.6668683 -0.6934903 -1.1359955
00000000: 4141 31bf 3bd6 2fbf 7729 f6be 5bd4 26bf
00000010: 38a4 2fbf 219c 9cbe c4c0 3cbf e0c2 b7be
00000020: c343 49bf ac5e 34bf c226 38bf 602c e5be
00000030: 8675 5bbf 5d58 15bf d985 5cbf 3311 53bf
00000040: 9298 70bf 052a 0fbf b277 12bf 74c4 ffbe
00000050: 0000 0000 89a3 32bf ddc4 27bf 7ead 64bf
00000060: 2f06 72bf 0000 0000 cab9 7abf 608d 22bf
00000070: b520 18bf e2b7 2abf 9588 31bf 4d68 91bf

resnet_denoiser/level_1/batch_normalization_18/FusedBatchNormV31 f4 [32]
17.413937 14.731859 11.063858 10.767551 18.489914 6.9066815 6.151126 6.7778206
19.515491 19.341873 15.68792 11.82139 28.751228 9.163898 12.817534 19.065203
24.908777 8.383917 15.699128 9.718241 -3.024099 16.810398 11.7260685 17.915533
28.004755 -2.9869165 24.78868 16.004467 13.474724 13.414148 8.457877 14.448008
00000000: be4f 8b41 b2b5 6b41 9005 3141 e447 2c41
00000010: 58eb 9341 8903 dd40 06d6 c440 e8e3 d840
00000020: ba1f 9c41 28bc 9a41 b801 7b41 6a24 3d41
00000030: 8402 e641 549f 1241 9f14 4d41 8985 9841
00000040: 2d45 c741 8624 0641 a12f 7b41 ea7d 1b41
00000050: d78a 41c0 b27b 8641 fa9d 3b41 0353 8f41
00000060: bd09 e041 a429 3fc0 374f c641 2609 8041
00000070: 7898 5741 5aa0 5641 7753 0741 0a2b 6741

resnet_denoiser/level_1/batch_normalization_19/FusedBatchNormV3 f4 [16]
-0.88064283 -7.2822468e-06 -0.4784765 -1.1809608 -0.80649346 -0.66621286 -1.1985396 -0.92726654
-0.00025354206 -1.0512083 -0.5717143 -1.0793376 3.1987034e-07 -9.843002e-06 -0.7189996 -6.624715e-05
00000000: cf71 61bf 065a f4b6 dffa f4be b929 97bf
00000010: 5b76 4ebf ed8c 2abf bf69 99bf 5761 6dbf
00000020: d7ed 84b9 fe8d 86bf de5b 12bf bc27 8abf
00000030: a5ba ab34 5f23 25b7 5c10 38bf 2bee 8ab8

resnet_denoiser/level_1/batch_normalization_19/FusedBatchNormV31 f4 [16]
7.9580493 2.834151e-05 0.8264399 4.3766956 3.9028153 3.1146967 6.318556 1.0861945
0.00037087663 1.7252631 2.0579863 8.332499 -2.0281736e-06 7.477973e-05 9.187578 0.0009946326
00000000: 57a8 fe40 eebe ed37 9191 533f e40d 8c40
00000010: bac7 7940 3157 4740 9c31 ca40 6c08 8b3f
00000020: 3872 c239 6cd5 dc3f 0cb6 0340 ea51 0541
00000030: c21b 08b6 10d3 9c38 5200 1341 555e 823a

resnet_denoiser/level_1/batch_normalization_20/FusedBatchNormV3 f4 [32]
-1.2184198 0.0 -0.81866604 0.0 -0.72171104 -0.66146064 -1.0693437 -0.56196684
-0.807838 -0.61161256 -0.86283827 -0.9529701 -0.972003 -0.69415104 -1.0011916 -0.91282344
-1.0091707 -0.391099 0.0 -0.90785664 -0.54983187 -0.7344402 -1.381669 -0.69725573
-0.7703158 -0.91619813 -0.79631644 -0.62236834 -0.61239785 -0.7494897 -0.3771907 0.0
00000000: 2ef5 9bbf 0000 0000 1994 51bf 0000 0000
00000010: 0ec2 38bf 7c55 29bf 41e0 88bf 0fdd 0fbf
00000020: 79ce 4ebf a492 1cbf f8e2 5cbf d9f5 73bf
00000030: 30d5 78bf e2b3 31bf 0c27 80bf ccae 69bf
00000040: 812c 81bf 213e c8be 0000 0000 4b69 68bf
00000050: c8c1 0cbf 4604 3cbf 88da b0bf 5a7f 32bf
00000060: 6b33 45bf f68b 6abf 65db 4bbf 8853 1fbf
00000070: 1bc6 1cbf 8fde 3fbf 241f c1be 0000 0000

resnet_denoiser/level_1/batch_normalization_20/FusedBatchNormV31 f4 [32]
23.026789 -0.11975028 23.345884 -0.99350744 18.68538 26.65991 32.192883 4.948177
32.669437 15.0636 24.277235 37.016815 25.8801 19.938705 21.115658 31.681768
29.320171 4.16631 -0.5191454 31.136862 10.981933 19.849691 24.0175 15.121493
16.439255 17.024721 8.015388 10.704708 12.2862015 23.020687 13.320267 -0.061586425
00000000: dd36 b841 a33f f5bd 5fc4 ba41 8156 7ebf
00000010: a97b 9541 7f47 d541 83c5 0042 7757 9e40
00000020: 81ad 0242 8104 7141 c737 c241 3811 1442
00000030: 720a cf41 7882 9f41 deec a841 4374 fd41
00000040: b68f ea41 6952 8540 b7e6 04bf 4b18 f941
00000050: ffb5 2f41 2bcc 9e41 d723 c041 a3f1 7141
00000060: 9883 8341 a132 8841 073f 0041 7c46 2b41
00000070: 4894 4441 5e2a b841 d01f 5541 0c42 7cbd

resnet_denoiser/level_1/batch_normalization_21/FusedBatchNormV3 f4 [16]
-0.7152563 -0.4400142 -0.32875317 -0.8132055 -0.6440639 -0.9239393 -0.69143564 -0.8134071
-0.31075296 -0.8732394 -0.8366839 -0.6049231 -0.44440165 0.0003604587 -0.5358299 -1.2426038
00000000: 091b 37bf 8b49 e1be 5652 a8be 3c2e 50bf
00000010: 5fe1 24bf 4987 6cbf ed01 31bf 733b 50bf
00000020: 031b 9fbe 9e8c 5fbf eb30 56bf 3edc 1abf
00000030: 9d88 e3be f3fb bc39 262c 09bf a40d 9fbf

resnet_denoiser/level_1/batch_normalization_21/FusedBatchNormV31 f4 [16]
2.4362545 0.98191893 0.50807065 1.9556633 1.385013 2.5239184 2.2591956 0.86616504
0.43244508 1.0800769 1.6268523 2.7208827 1.8451222 -0.0019428331 2.3708715 7.2598114
00000000: 98eb 1b40 0a5f 7b3f eb10 023f 2d53 fa3f
00000010: 1b48 b13f e187 2140 a996 1040 febc 5d3f
00000020: 7169 dd3e f63f 8a3f b23c d03f f122 2e40
00000030: f72c ec3f a9a6 feba 5cbc 1740 6050 e840

resnet_denoiser/level_1/batch_normalization_22/FusedBatchNormV3 f4 [32]
0.0 -0.5457133 -0.5368986 0.0 0.0 0.0 -0.41614982 0.0
-0.39914015 -0.6650864 -0.29066724 -0.6688749 -0.6753597 0.0 0.0 0.0
-1.0905998 0.0 -0.7989111 -0.61392665 -0.5440804 -0.14604655 -0.36969468 -0.6028331
-0.67792296 -0.42593712 0.0 0.0 0.0 -0.25323713 0.0 -0.33390462
00000000: 0000 0000 deb3 0bbf 3072 09bf 0000 0000
00000010: 0000 0000 0000 0000 9711 d5be 0000 0000
00000020: 195c ccbe 1a43 2abf 56d2 94be 633b 2bbf
00000030: 60e4 2cbf 0000 0000 0000 0000 0000 0000
00000040: c698 8bbf 0000 0000 7085 4cbf 4c2a 1dbf
00000050: da48 0bbf 3a8d 15be 9f48 bdbe 4553 1abf
00000060: 5c8c 2dbf 6e14 dabe 0000 0000 0000 0000
00000070: 0000 0000 4ca8 81be 0000 0000 8cf5 aabe

resnet_denoiser/level_1/batch_normalization_22/FusedBatchNormV31 f4 [32]
-0.4363703 31.50978 25.915594 0.04111468 0.46771878 0.09835783 15.884987 0.8231794
4.542561 16.775053 11.75458 3.8699934 5.1549025 0.14953482 -0.08741693 -0.022250546
21.545527 0.061895855 5.918729 17.655533 8.098193 9.978851 5.7667623 24.666662
9.407845 25.049875 -0.06293811 -0.27798912 0.021965932 13.755337 0.02082459 17.162222
00000000: ee6b dfbe 0814 fc41 2353 cf41 de67 283d
00000010: d678 ef3e d46f c93d e828 7e41 e3bb 523f
00000020: a95c 9140 4f33 8641 c212 3c41 f9ad 7740
00000030: f6f4 a440 a81f 193e a607 b3bd c746 b6bc
00000040: 3d5d ac41 8286 7d3d 3a66 bd40 883e 8d41
00000050: 3392 0141 60a9 1f41 5189 b840 5355 c541
00000060: 8886 1641 2566 c841 b2e5 80bd 9754 8ebe
00000070: e6f1 b33c dc15 5c41 5598 aa3c 3b4c 8941

resnet_denoiser/level_1/batch_normalization_23/FusedBatchNormV3 f4 [16]
-1.0873789e-05 -0.05803846 -0.1067417 -0.21071883 -0.089242384 -0.14578994 2.7143173e-05 -0.29137734
-0.26680177 -0.25593397 -0.18519087 -0.000106563624 -0.07081415 -0.098111905 1.9321933e-05 -0.13728738
00000000: 916e 36b7 bcb9 6dbd 649b dabd adc6 57be
00000010: b6c4 b6bd f549 15be 85b1 e337 692f 95be
00000020: 3e9a 88be c709 83be ada2 3dbe e97a dfb8
00000030: 0207 91bd e5ee c8bd 8915 a237 1095 0cbe

resnet_denoiser/level_1/batch_normalization_23/FusedBatchNormV31 f4 [16]
3.7037516e-05 0.09190216 0.102616124 0.3279273 0.114270106 0.34622356 -8.868756e-05 0.27989995
0.32795125 0.27786127 0.25970235 0.00047931235 0.15689516 0.29238427 -8.549321e-05 0.53983104
00000000: bb58 1b38 3337 bc3d 6728 d23d 16e6 a73e
00000010: 7206 ea3d 3744 b13e c5fd b9b8 0c4f 8f3e
00000020: 3ae9 a73e d543 8e3e b5f7 843e 374c fb39
00000030: 20a9 203e 64b3 953e d14a b3b8 5e32 0a3f

resnet_denoiser/level_2/batch_normalization_25/FusedBatchNormV3 f4 [16]
-6.0250786e-05 4.4728255e-05 -0.6076081 -0.5859293 -0.7002161 -0.3439255 -0.40502742 -0.40838733
-0.35318318 -0.48434544 -0.41135463 -0.45060644 -0.45095998 -8.336519e-05 -0.6896955 -6.455949e-05
00000000: cab5 7cb8 999a 3b38 348c 1bbf 76ff 15bf
00000010: 5d41 33bf 0117 b0be c15f cfbe 2518 d1be
00000020: 6dd4 b4be 20fc f7be 139d d2be e3b5 e6be
00000030: 3ae4 e6be 58d4 aeb8 e28f 30bf 1d64 87b8

resnet_denoiser/level_2/batch_normalization_25/FusedBatchNormV31 f4 [16]
0.0086128 -0.00823382 1.4677811 15.262534 30.223595 15.582043 51.132378 68.35779
16.597498 12.199221 40.73503 32.08181 21.555698 0.00030839795 56.884247 0.011429033
00000000: b41c 0d3c 25e7 06bc 40e0 bb3f 5733 7441
00000010: ecc9 f141 0c50 7941 8e87 4c42 30b7 8842
00000020: adc7 8441 0230 4341 acf0 2242 c653 0042
00000030: 1272 ac41 79b0 a139 7889 6342 d740 3b3c

resnet_denoiser/level_2/batch_normalization_26/FusedBatchNormV3 f4 [32]
-0.22605032 -0.9782543 -0.42954475 -0.33591643 -0.5370345 -0.45183092 -0.6080148 -0.34157097
-0.44488895 -0.320767 -0.20520714 -0.26864055 0.0 -0.5220148 -0.24488717 -0.35100088
-1.0083805 -0.28316647 -0.52036166 -0.42900988 -0.34684584 -0.38451037 -0.2963189 -0.3148071
-0.36481878 -0.55211395 -0.27403626 -0.6382355 -0.33046004 -0.48429096 -0.3114728 -0.57638407
00000000: bc79 67be e06e 7abf 4aed dbbe 3dfd abbe
00000010: 187b 09bf 6256 e7be dca6 1bbf 64e2 aebe
00000020: 7cc8 e3be 923b a4be d221 52be 418b 89be
00000030: 0000 0000 c3a2 05bf b4c3 7abe 63b6 b3be
00000040: 9d12 81bf 32fb 90be 6c36 05bf 2fa7 dbbe
00000050: c795 b1be 8bde c4be 1cb7 97be 652e a1be
00000060: 87c9 babe 5757 0dbf 7b4e 8cbe 6763 23bf
00000070: 0f32 a9be fcf4 f7be 5d79 9fbe e88d 13bf

resnet_denoiser/level_2/batch_normalization_26/FusedBatchNormV31 f4 [32]
8.344411 4.283211 14.248671 14.854877 3.1156137 10.33914 8.056589 7.6380363
13.312325 4.5477834 7.5304008 5.3304515 -1.0652349 6.4290905 8.801231 8.491236
5.12701 6.541255 3.5170543 3.5363617 3.488432 12.226296 6.3693504 4.3315654
13.376302 9.891991 3.3531058 1.6495717 4.572289 9.583924 10.01628 8.256891
00000000: b582 0541 1110 8940 8efa 6341 94ad 6d41
00000010: 3766 4740 1e6d 2541 cae7 0041 cb6a f440
00000020: 48ff 5441 7187 9140 0bf9 f040 0f93 aa40
00000030: 9e59 88bf 1cbb cd40 d8d1 0c41 1adc 0741
00000040: 7710 a440 f651 d140 6b17 6140 c053 6240
00000050: 7842 5f40 e99e 4341 b8d1 cb40 2f9c 8a40
00000060: 5505 5641 9845 1e41 4999 5640 2a25 d33f
00000070: 3150 9240 c157 1941 af42 2041 3a1c 0441

resnet_denoiser/level_2/batch_normalization_27/FusedBatchNormV3 f4 [16]
-0.53850055 -0.32008561 -0.5707144 -0.5808854 -0.9042665 -1.0881299 -0.69213915 -0.72282994
-0.96121055 -0.86807626 -0.8812594 -1.2845677 -0.820929 -0.40631214 -0.91471106 -0.8195856
00000000: 2cdb 09bf 43e2 a3be 571a 12bf e8b4 14bf
00000010: 027e 67bf d747 8bbf 0830 31bf 620b 39bf
00000020: e511 76bf 3f3a 5ebf 379a 61bf b76c a4bf
00000030: 6728 52bf 2508 d0be 812a 6abf 5dd0 51bf

resnet_denoiser/level_2/batch_normalization_27/FusedBatchNormV31 f4 [16]
27.8357 11.754861 0.84486365 6.4349527 4.646023 2.3041975 7.7642064 17.449966
4.1302514 5.1328945 22.386763 8.410436 23.650965 0.7966712 21.50035 33.876274
00000000: 83af de41 e913 3c41 fc48 583f 22eb cd40
00000010: 38ac 9440 f977 1340 6174 f840 8899 8b41
00000020: 052b 8440 ac40 a440 1718 b341 2591 0641
00000030: 2d35 bd41 a5f2 4b3f b800 ac41 4e81 0742

resnet_denoiser/level_2/batch_normalization_28/FusedBatchNormV3 f4 [32]
-0.7984643 -0.8064008 -0.92252654 -0.6137202 -0.7888318 -0.5908864 -0.8860491 -0.61557317
-0.8367732 0.0 -0.6242821 -0.7144101 -0.35756123 -0.8645183 -0.66475064 -1.1624926
-0.657489 -0.6360627 -0.46894553 -0.74277145 -0.49547386 -0.7665683 -0.937362 0.0
-0.7526322 -0.78357923 -0.6328589 -0.53134435 -0.68735296 -0.7021747 0.0 -0.5999109
00000000: 2868 4cbf 4870 4ebf b32a 6cbf c41c 1dbf
00000010: e1f0 49bf 5544 17bf 1dd4 62bf 3496 1dbf
00000020: c536 56bf 0000 0000 f4d0 1fbf 95e3 36bf
00000030: 4412 b7be 1251 5dbf 192d 2abf 8fcc 94bf
00000040: 3351 28bf 01d5 22bf a119 f0be 4526 3ebf
00000050: c0ae fdbe d23d 44bf f5f6 6fbf 0000 0000
00000060: 81ac 40bf a698 48bf 0a03 22bf 2f06 08bf
00000070: 5df6 2fbf b9c1 33bf 0000 0000 c393 19bf

resnet_denoiser/level_2/batch_normalization_28/FusedBatchNormV31 f4 [32]
11.029702 4.509817 18.828917 11.793365 19.406143 23.152962 9.326769 10.569065
7.8110533 1.806536 15.327011 23.909502 7.525846 6.760327 21.483524 5.2017164
19.170448 6.384509 11.378556 17.359982 13.667765 13.464986 3.878585 -1.5424474
15.791173 16.495674 13.275276 14.52302 20.835316 3.8467743 1.9054677 12.939604
00000000: a979 3041 6c50 9040 9fa1 9641 9fb1 3c41
00000010: c83f 9b41 4439 b941 723a 1541 e41a 2941
00000020: 26f4 f940 923c e73f 703b 7541 a946 bf41
00000030: bbd3 f040 9954 d840 42de ab41 7674 a640
00000040: 145d 9941 e64d cc40 910e 3641 3ee1 8a41
00000050: 2aaf 5a41 9570 5741 bd3a 7840 eb6e c5bf
00000060: a5a8 7c41 24f7 8341 8867 5441 4a5e 6841
00000070: baae a641 8d31 7640 5ee6 f33f 9e08 4f41

resnet_denoiser/level_2/batch_normalization_29/FusedBatchNormV3 f4 [16]
-1.4709889 -0.78902626 -0.9229408 -0.98934275 -1.9410051 -1.1790012 -1.5825377 -1.2659358
-1.9591919 -1.6489981 -1.2135129 -1.7991767 -0.481132 -1.0694902 -1.3325768 -1.0383643
00000000: 5d49 bcbf a0fd 49bf d945 6cbf 9145 7dbf
00000010: db72 f8bf 83e9 96bf 9890 cabf 2f0a a2bf
00000020: cdc6 fabf 5f12 d3bf 6454 9bbf 6c4b e6bf
00000030: ef56 f6be 0ee5 88bf e091 aabf 1fe9 84bf

resnet_denoiser/level_2/batch_normalization_29/FusedBatchNormV31 f4 [16]
15.797083 5.9720573 0.767936 3.0875204 5.581803 1.6772804 7.7758217 8.487944
4.8862033 5.876397 7.37173 7.4433703 5.205208 1.1855559 8.539483 9.269087
00000000: dac0 7c41 181b bf40 7497 443f ef99 4540
00000010: 219e b240 20b1 d63f 88d3 f840 9ece 0741
00000020: c75b 9c40 720b bc40 36e5 eb40 1730 ee40
00000030: 1091 a640 4cc0 973f b9a1 0841 2e4e 1441

resnet_denoiser/level_2/batch_normalization_30/FusedBatchNormV3 f4 [32]
-0.819127 -1.23069 -0.9245387 -1.0376961 -1.0309821 -0.9669744 -0.9583833 0.0
0.0 -0.90611714 0.0 -0.7795084 -1.0864123 -0.63877374 0.0 0.0
0.0 -0.8953574 -0.9523556 -0.99796087 -1.5729712 -0.7185174 -0.5681256 -0.87027276
-1.2641953 -0.79241544 -0.8418208 -0.6298375 -0.89565575 -0.49627063 -0.8741648 0.0
00000000: 4fb2 51bf 4087 9dbf 91ae 6cbf 3ad3 84bf
00000010: 39f7 83bf a28b 77bf 9c58 75bf 0000 0000
00000020: 0000 0000 4bf7 67bf 0000 0000 dd8d 47bf
00000030: 8f0f 8bbf ad86 23bf 0000 0000 0000 0000
00000040: 0000 0000 2436 65bf 94cd 73bf 5d7a 7fbf
00000050: 1f57 c9bf c2f0 37bf ae70 11bf 32ca 5ebf
00000060: 27d1 a1bf bddb 4abf 9181 57bf 083d 21bf
00000070: b249 65bf 2f17 febe 44c9 5fbf 0000 0000

resnet_denoiser/level_2/batch_normalization_30/FusedBatchNormV31 f4 [32]
7.6197596 22.446074 14.284943 30.481054 16.278818 11.171759 13.056663 3.0330288
2.3679276 6.537834 -2.8887343 11.89452 10.008959 9.001878 2.8661766 3.0459635
-2.8282886 8.939262 9.081046 21.941814 12.43925 5.344868 15.867643 12.524337
23.533508 6.2185707 5.0961823 14.6651 15.788738 7.231654 4.13133 2.905994
00000000: 12d5 f340 8f91 b341 208f 6441 33d9 f341
00000010: 053b 8241 86bf 3241 17e8 5041 251d 4240
00000020: 208c 1740 f035 d140 06e1 38c0 f44f 3e41
00000030: b224 2041 b107 1041 706f 3740 11f1 4240
00000040: ae02 35c0 3807 0f41 f74b 1141 d688 af41
00000050: 2b07 4741 2909 ab40 dee1 7d41 af63 4841
00000060: a044 bc41 88fe c640 ed13 a340 40a4 6a41
00000070: ac9e 7c41 b669 e740 db33 8440 cefb 3940

resnet_denoiser/level_2/batch_normalization_31/FusedBatchNormV3 f4 [16]
-0.6565597 -0.00015462407 -0.00025118692 -1.5971419 -0.97012407 -2.4000506 -1.4633614 -0.8495934
-1.1565334 -0.00055521465 -2.23326 -1.435173 -0.77365613 -0.5761642 -1.5873221 -1.1539965
00000000: 4c14 28bf 9522 22b9 bdb1 83b9 256f ccbf
00000010: 0d5a 78bf 6e9a 19c0 6d4f bbbf f47e 59bf
00000020: 4909 94bf d38b 11ba bbed 0ec0 c0b3 b7bf
00000030: 540e 46bf 7f7f 13bf 5f2d cbbf 28b6 93bf

resnet_denoiser/level_2/batch_normalization_31/FusedBatchNormV31 f4 [16]
2.7914448 0.0011703335 0.00014831223 2.7547574 1.5599637 2.0503795 5.0020103 2.8075666
1.7991673 0.001978572 4.145153 3.852651 3.8541899 0.44540596 4.948911 3.1639714
00000000: 08a7 3240 e065 993a 4384 1b39 f24d 3040
00000010: e4ac c73f 6b39 0340 7810 a040 2caf 3340
00000020: 1d4b e63f eeaa 013b 18a5 8440 d591 7640
00000030: 0cab 7640 400c e43e 7b5d 9e40 827e 4a40

resnet_denoiser/level_2/batch_normalization_32/FusedBatchNormV3 f4 [32]
0.0 0.0 -0.5804164 0.0 -0.8594662 -0.76767135 0.0 0.0
-1.4606882e-18 0.0 0.0 -1.20513 0.0 0.0 -2.3087184 0.0
0.0 -0.31312433 -0.47058663 -0.95274585 0.0 0.0 -0.89088434 -1.0380018
-1.1878952 0.0 0.0 0.0 0.0 -0.84213436 -0.43569896 0.0
00000000: 0000 0000 0000 0000 2b96 14bf 0000 0000
00000010: fa05 5cbf 1c86 44bf 0000 0000 0000 0000
00000020: 3d8f d7a1 0000 0000 0000 0000 b341 9abf
00000030: 0000 0000 0000 0000 0bc2 13c0 0000 0000
00000040: 0000 0000 d551 a0be bbf0 f0be 27e7 73bf
00000050: 0000 0000 0000 0000 ff10 64bf 3edd 84bf
00000060: f30c 98bf 0000 0000 0000 0000 0000 0000
00000070: 0000 0000 1e96 57bf ef13 dfbe 0000 0000

resnet_denoiser/level_2/batch_normalization_32/FusedBatchNormV31 f4 [32]
1.7806448 1.7243584 12.9880705 2.014319 20.257444 1.7441714 -1.857333 -2.0991716
17.734892 2.3955114 1.8865135 2.5715683 -1.5801402 1.7473354 16.110325 -2.3133323
2.1551347 11.761091 9.721612 16.333723 2.2321165 1.597176 22.95437 31.201452
19.87843 2.0754662 1.9874715 -1.8056009 -2.4379985 19.549541 13.325526 2.1233752
00000000: 2bec e33f c7b7 dc3f 23cf 4f41 9aea 0040
00000010: 3f0f a241 0241 df3f 16bd edbf d458 06c0
00000020: 0fe1 8d41 0f50 1940 4679 f13f 9394 2440
00000030: 0942 cabf b0a8 df3f f2e1 8041 a30d 14c0
00000040: baed 0940 6e2d 3c41 b98b 1b41 77ab 8241
00000050: ffda 0e40 4370 cc3f 8da2 b741 939c f941
00000060: 0607 9f41 70d4 0440 7765 fe3f ee1d e7bf
00000070: 2b08 1cc0 7665 9c41 5b35 5541 61e5 0740

resnet_denoiser/level_2/batch_normalization_33/FusedBatchNormV3 f4 [16]
-7.433257e-05 0.00016466432 -0.00015284879 -2.9323933e-06 -0.5715293 6.249343e-05 0.00017011758 -9.366352e-05
-1.2494973 -0.00047327045 -0.00023674742 -0.99524724 -7.83221e-05 0.0004583549 -4.016301e-05 -0.6910918
00000000: ffe2 9bb8 bea9 2c39 0946 20b9 22ca 44b6
00000010: bf4f 12bf e80e 8338 9761 3239 386d c4b8
00000020: 87ef 9fbf 4921 f8b9 673f 78b9 86c8 7ebf
00000030: db40 a4b8 5a4f f039 b474 28b8 64eb 30bf

resnet_denoiser/level_2/batch_normalization_33/FusedBatchNormV31 f4 [16]
0.00031528948 -0.0012463271 6.44999e-05 2.340244e-06 0.744952 -3.8596714e-05 -0.00058148993 0.00014228903
1.2716911 0.0016865544 0.00038543183 1.0217233 0.000390184 -0.00028696816 9.601535e-05 0.9118077
00000000: 704d a539 cc5b a3ba 1f44 8738 160d 1d36
00000010: 2db5 3e3f e8e2 21b8 216f 18ba 6c33 1539
00000020: c6c6 a23f 600f dd3a c913 ca39 d4c7 823f
00000030: 9c91 cc39 3774 96b9 d95b c938 3b6c 693f

resnet_denoiser/level_2/batch_normalization_34/FusedBatchNormV3 f4 [32]
0.0 -0.53066933 0.0 0.0 -0.215729 -0.32102093 -1.0857257 0.0
-0.27870244 0.0 0.0 -1.0876354 0.0 -0.7825397 -1.8847593e-19 0.0
-0.2649479 0.0 0.0 0.0 -0.91308236 0.0 -1.1010885 0.0
0.0 -0.35268235 0.0 -0.22853546 0.0 0.0 0.0 -0.4546075
00000000: 0000 0000 f2d9 07bf 0000 0000 0000 0000
00000010: 10e8 5cbe db5c a4be 0ff9 8abf 0000 0000
00000020: 16b2 8ebe 0000 0000 0000 0000 a337 8bbf
00000030: 0000 0000 8654 48bf 5b83 5ea0 0000 0000
00000040: 40a7 87be 0000 0000 0000 0000 0000 0000
00000050: c4bf 69bf 0000 0000 78f0 8cbf 0000 0000
00000060: 0000 0000 c892 b4be 0000 0000 3305 6abe
00000070: 0000 0000 0000 0000 0000 0000 50c2 e8be

resnet_denoiser/level_2/batch_normalization_34/FusedBatchNormV31 f4 [32]
-0.25450808 7.971183 0.43589234 -0.84049565 31.682112 17.226078 25.04206 -0.03026801
9.801818 -0.072581545 0.012724269 45.47696 0.5415551 14.418707 9.665695 -0.24961184
17.157299 0.24934565 -0.2186389 -0.011935481 47.051006 0.07275278 37.035686 0.70731753
0.12853052 14.225098 0.21478897 18.160633 -0.401959 -0.2680207 -0.046511546 17.699183
00000000: e24e 82be ee13 ff40 482d df3e b92a 57bf
00000010: f774 fd41 02cf 8941 2456 c841 9ef4 f7bc
00000020: 3fd4 1c41 a2a5 94bd 7479 503c 68e8 3542
00000030: 5ba3 0a3f 06b3 6641 b0a6 1a41 3f9a 7fbe
00000040: 2642 8941 7754 7f3e e0e2 5fbe 098d 43bc
00000050: 3b34 3c42 69ff 943d 8b24 1442 c312 353f
00000060: 819d 033e 009a 6341 a4f1 5b3e fa48 9141
00000070: 92cd cdbe 023a 89be e482 3ebd ed97 8d41

resnet_denoiser/level_2/batch_normalization_35/FusedBatchNormV3 f4 [16]
-0.13680656 6.021309e-07 -0.43980047 -0.21210118 -6.536264e-06 -0.34553984 -3.3586195e-05 -0.20374337
2.9124769e-05 -2.0538096e-06 -0.22262813 -0.2498211 1.8632138e-05 -0.50544626 -0.3564658 -0.23776789
00000000: 0517 0cbe 1fa2 2135 872d e1be 0d31 59be
00000010: 1552 dbb6 99ea b0be e7de 0cb8 1aa2 50be
00000020: f750 f437 2ed4 09b6 a1f8 63be 1ad1 7fbe
00000030: 364c 9c37 ed64 01bf af82 b6be 6d79 73be

resnet_denoiser/level_2/batch_normalization_35/FusedBatchNormV31 f4 [16]
0.569349 -4.557466e-06 0.17623968 0.15427195 8.519603e-06 0.19799373 0.000114803144 0.2923722
-2.9642088e-05 7.3189894e-06 0.33524653 0.23327859 -9.282134e-05 0.2934113 0.766181 0.24380913
00000000: dbc0 113f 56ec 98b6 2d78 343e 77f9 1d3e
00000010: 6bef 0e37 debe 4a3e 78c2 f038 cfb1 953e
00000020: e6a7 f8b7 a495 f536 6fa5 ab3e 95e0 6e3e
00000030: 14a9 c2b8 023a 963e 7024 443f 1aa9 793e

resnet_denoiser/level_3/batch_normalization_37/FusedBatchNormV3 f4 [16]
-0.63636214 -0.7125932 -0.47150192 -0.34784973 -0.5017155 -0.45973462 -0.4202447 -0.38874927
-0.40273663 0.00014197509 0.00026146974 -3.713832e-05 -0.49985185 -0.000115501425 -0.62562156 -0.29630718
00000000: a1e8 22bf 826c 36bf b368 f1be 5c19 b2be
00000010: 6d70 00bf 5662 ebbe 502a d7be 250a c7be
00000020: 7f33 cebe 26df 1439 e015 8939 f8c4 1bb8
00000030: 95ec ffbe 5b39 f2b8 bc28 20bf 93b5 97be

resnet_denoiser/level_3/batch_normalization_37/FusedBatchNormV31 f4 [16]
24.565968 11.094883 21.178621 48.89649 30.99792 18.08347 17.734642 50.30068
2.3390672 -0.002217114 -0.0023374034 0.010900096 22.380836 0.0008352403 23.900982 43.98596
00000000: 1a87 c441 a484 3141 d16d a941 0196 4342
00000010: bdfb f741 f2aa 9041 8ce0 8d41 e533 4942
00000020: 47b3 1540 004d 11bb 1f2f 19bb 5196 323c
00000030: f40b b341 07f4 5a3a 3635 bf41 9ff1 2f42

resnet_denoiser/level_3/batch_normalization_38/FusedBatchNormV3 f4 [32]
0.0 -0.15749146 -0.18868504 0.0 -0.4733352 0.0 0.0 0.0
0.0 -0.14680178 0.0 -0.23478791 -0.21738929 -0.26624978 0.0 0.0
0.0 -0.29830745 0.0 -0.36163753 0.0 -0.16602884 0.0 -0.12356237
0.0 -0.12243957 -0.2879786 0.0 0.0 0.0 0.0 0.0
00000000: 0000 0000 7145 21be a736 41be 0000 0000
00000010: fe58 f2be 0000 0000 0000 0000 0000 0000
00000020: 0000 0000 3553 16be 0000 0000 3e6c 70be
00000030: 4c9b 5ebe e451 88be 0000 0000 0000 0000
00000040: 0000 0000 c1bb 98be 0000 0000 8e28 b9be
00000050: 0000 0000 7703 2abe 0000 0000 450e fdbd
00000060: 0000 0000 99c1 fabd ee71 93be 0000 0000
00000070: 0000 0000 0000 0000 0000 0000 0000 0000

resnet_denoiser/level_3/batch_normalization_38/FusedBatchNormV31 f4 [32]
1.1143892 1.8358113 9.719348 0.8557182 15.011467 1.0284816 0.9698201 -1.1103998
0.7761141 4.5661235 1.1946422 8.636878 2.8510334 13.850005 -0.8297478 0.97826135
-1.0207206 11.7726755 -1.0671282 9.505945 0.027598383 5.7818227 -0.8866593 2.4150908
1.157872 4.2731853 9.012548 0.8897306 -0.8594705 0.3102163 -0.7725742 1.2603723
00000000: 4ea4 8e3f ddfb ea3f 7382 1b41 5910 5b3f
00000010: f82e 7041 49a5 833f 2146 783f 9521 8ebf
00000020: 6aaf 463f af1d 9240 09ea 983f a730 0a41
00000030: 5577 3640 9f99 5d41 5a6a 54bf 566f 7a3f
00000040: f9a6 82bf e15c 3c41 a897 88bf 5a18 1841
00000050: 0116 e23c b104 b940 1bfc 62bf d990 1a40
00000060: 2635 943f efbd 8840 6633 1041 62c5 633f
00000070: 4206 5cbf acd4 9e3e 6cc7 45bf e153 a13f

resnet_denoiser/level_3/batch_normalization_39/FusedBatchNormV3 f4 [16]
4.623835e-05 -1.0157815 -0.9556324 -1.028531 -0.49870875 -0.8189108 -1.0722002 -0.49748987
0.00011009568 -0.76571244 9.192349e-05 -8.6049884e-05 -0.00010982597 0.00031631225 -0.93100274 -2.4826762e-05
00000000: 0df0 4138 2105 82bf 53a4 74bf e7a6 83bf
00000010: c156 ffbe 23a4 51bf db3d 89bf feb6 febe
00000020: 2be3 e638 bb05 44bf 0cc7 c038 ae75 b4b8
00000030: 5e52 e6b8 b6d6 a539 3256 6ebf 1143 d0b7

resnet_denoiser/level_3/batch_normalization_39/FusedBatchNormV31 f4 [16]
-0.001406161 8.653775 27.756517 44.670372 23.982702 12.599431 21.543827 16.53035
-0.0006077639 9.268157 -0.0007710304 0.016494172 0.004917451 -0.002154853 20.626513 0.002629588
00000000: ef4e b8ba dd75 0a41 590d de41 76ae 3242
00000010: 93dc bf41 4597 4941 c259 ac41 283e 8441
00000020: 5852 1fba 5f4a 1441 f91e 4aba c91e 873c
00000030: 9222 a13b 6f38 0dbb 1903 a541 2a55 2c3b

resnet_denoiser/level_3/batch_normalization_40/FusedBatchNormV3 f4 [32]
0.0 0.0 0.0 0.0 0.0 0.0 0.0 0.0
0.0 0.0 0.0 -0.19730167 0.0 0.0 0.0 0.0
0.0 -0.40216923 0.0 0.0 0.0 -0.2762147 -0.44984165 0.0
-0.21082483 0.0 0.0 -0.24611835 0.0 -0.4214162 0.0 0.0
00000000: 0000 0000 0000 0000 0000 0000 0000 0000
00000010: 0000 0000 0000 0000 0000 0000 0000 0000
00000020: 0000 0000 0000 0000 0000 0000 7309 4abe
00000030: 0000 0000 0000 0000 0000 0000 0000 0000
00000040: 0000 0000 20e9 cdbe 0000 0000 0000 0000
00000050: 0000 0000 036c 8dbe a551 e6be 0000 0000
00000060: 77e2 57be 0000 0000 0000 0000 7306 7cbe
00000070: 0000 0000 ddc3 d7be 0000 0000 0000 0000

resnet_denoiser/level_3/batch_normalization_40/FusedBatchNormV31 f4 [32]
-0.82670414 0.9541751 -0.93244386 0.91284335 0.013784686 0.03596163 -0.5429478 -0.85906965
-1.0813485 0.01033745 1.1413044 3.278888 -0.8758556 0.75846773 0.9180268 0.9048995
0.009345481 1.8861784 0.027644599 -0.894743 1.1218964 10.672344 4.55891 0.2754403
11.654896 0.9964239 0.95660555 4.197648 -1.0608565 2.4173613 -0.8112944 -0.9308012
00000000: e2a2 53bf d244 743f a4b4 6ebf 1ab0 693f
00000010: 2ad9 613c 814c 133d a1fe 0abf fdeb 5bbf
00000020: a169 8abf 685e 293c 4316 923f 4dd9 5140
00000030: 1338 60bf f12a 423f ce03 6b3f 7ea7 673f
00000040: ca1d 193c 4b6e f13f ed76 e23c e10d 65bf
00000050: 4d9a 8f3f ecc1 2a41 97e2 9140 8306 8d3e
00000060: 747a 3a41 a315 7f3f 1ae4 743f 2253 8640
00000070: 25ca 87bf 0cb6 1a40 fdb0 4fbf fd48 6ebf

resnet_denoiser/level_3/batch_normalization_41/FusedBatchNormV3 f4 [16]
0.00024740447 -0.00011002534 -0.00040384865 3.0329076e-05 0.00023572633 0.0006290994 0.00029448813 -9.0410926e-05
0.00018198712 -2.4381486e-06 2.1072277e-05 -0.6691143 -0.0001183461 -4.8694943e-05 -5.1742285e-05 -1.2066727
00000000: 11b6 8139 68bd e6b8 a6bb d3b9 326b fe37
00000010: 4e2d 7739 25ea 243a 8765 9a39 ff9a bdb8
00000020: ccd3 3e39 139f 23b6 5fc4 b037 134b 2bbf
00000030: 9430 f8b8 cc3d 4cb8 db05 59b8 4074 9abf

resnet_denoiser/level_3/batch_normalization_41/FusedBatchNormV31 f4 [16]
-0.0069665527 0.0009373419 0.004770311 -0.0006593662 -0.011335984 -0.006086734 -0.005240426 0.00300413
-0.00097581465 2.9511266e-05 -8.8534514e-05 54.232727 0.0052989395 0.000308924 0.0010920982 33.299847
00000000: ae47 e4bb f3b7 753a 4550 9c3b 51d9 2cba
00000010: 90ba 39bc 3a73 c7bb e1b7 abbb f0e0 443b
00000020: d0cd 7fba f68e f737 9bab b9b8 50ee 5842
00000030: baa2 ad3b 14f7 a139 bc24 8f3a 0b33 0542

resnet_denoiser/level_3/batch_normalization_42/FusedBatchNormV3 f4 [32]
0.0 0.0 0.0 0.0 0.0 0.0 0.0 0.0
0.0 -0.57920986 0.0 0.0 0.0 -0.8884121 0.0 0.0
0.0 0.0 0.0 0.0 -0.39325508 0.0 0.0 0.0
0.0 -0.64410883 0.0 0.0 0.0 0.0 0.0 0.0
00000000: 0000 0000 0000 0000 0000 0000 0000 0000
00000010: 0000 0000 0000 0000 0000 0000 0000 0000
00000020: 0000 0000 1947 14bf 0000 0000 0000 0000
00000030: 0000 0000 fa6e 63bf 0000 0000 0000 0000
00000040: 0000 0000 0000 0000 0000 0000 0000 0000
00000050: bb58 c9be 0000 0000 0000 0000 0000 0000
00000060: 0000 0000 51e4 24bf 0000 0000 0000 0000
00000070: 0000 0000 0000 0000 0000 0000 0000 0000

resnet_denoiser/level_3/batch_normalization_42/FusedBatchNormV31 f4 [32]
0.12536275 1.2419715 -0.24972492 0.5607059 -1.0914805 -0.79806244 0.42276132 -1.0586478
0.9054204 50.61011 -0.8085577 -0.04202167 -0.99197996 31.65717 1.3433548 1.1437716
0.12654154 -0.900126 0.02750923 1.0197046 68.14742 0.38263482 -0.03472835 0.81362426
-0.28399745 40.218056 -1.170485 1.5089674 1.2002095 -0.12508436 -0.04498056 0.036497496
00000000: 185f 003e ecf8 9e3f e4b7 7fbe 6c8a 0f3f
00000010: a2b5 8bbf d24d 4cbf 2c74 d83e c581 87bf
00000020: a2c9 673f c170 4a42 a3fd 4ebf ea1e 2cbd
00000030: 66f2 7dbf e241 fd41 0df3 ab3f 1c67 923f
00000040: 1b94 013e a86e 66bf 095b e13c ae85 823f
00000050: 7b4b 8842 b6e8 c33e 503f 0ebd ae49 503f
00000060: 1d68 91be 4adf 2042 74d2 95bf d825 c13f
00000070: 77a0 993f 1d16 00be 893d 38bd 667e 153d

resnet_denoiser/level_3/batch_normalization_43/FusedBatchNormV3 f4 [16]
2.3624196e-05 0.00018144026 -1.409837 7.39311e-05 0.000122873 5.3290376e-05 -0.00010890997 0.00024845972
-1.661114e-05 0.00014387853 -0.00017438257 0.00027497354 -0.00027276503 0.00013916945 -0.00010068925 -0.00022393173
00000000: 932c c637 0041 3e39 8a75 b4bf 750b 9b38
00000010: 78d7 0039 1b84 5f38 9866 e4b8 b343 8239
00000020: 2758 8bb7 19de 1639 77da 36b9 532a 9039
00000030: e701 8fb9 04ee 1139 2129 d3b8 37cf 6ab9

resnet_denoiser/level_3/batch_normalization_43/FusedBatchNormV31 f4 [16]
-0.00014118318 -0.0015457489 7.6696854 -0.0015203299 -0.0059089125 -0.00012954294 0.00027863946 -0.008255698
8.8845416e-05 -0.0017415007 0.0007295287 -0.010190349 0.012213037 -0.0007022136 0.00087179773 0.006179714
00000000: 920a 14b9 ba9a caba 106e f540 ce45 c7ba
00000010: 8d9f c1bb ebd5 07b9 5b16 9239 e842 07bc
00000020: 8552 ba38 1143 e4ba d83d 3f3a 6cf5 26bc
00000030: 3119 483c c214 38ba 5b89 643a 337f ca3b

resnet_denoiser/level_3/batch_normalization_44/FusedBatchNormV3 f4 [32]
0.0 0.0 0.0 -0.2689678 0.0 0.0 0.0 0.0
-0.2903863 0.0 -0.22981383 -0.2269292 0.0 0.0 0.0 -0.22415131
0.0 -0.29785794 -0.23542802 0.0 0.0 0.0 0.0 -0.2233497
0.0 -0.008462638 -0.24507493 -0.24581392 0.0 -0.22695336 0.0 0.0
00000000: 0000 0000 0000 0000 0000 0000 26b6 89be
00000010: 0000 0000 0000 0000 0000 0000 0000 0000
00000020: 83ad 94be 0000 0000 5154 6bbe 2160 68be
00000030: 0000 0000 0000 0000 0000 0000 ec87 65be
00000040: 0000 0000 d680 98be 0b14 71be 0000 0000
00000050: 0000 0000 0000 0000 0000 0000 c9b5 64be
00000060: 0000 0000 e0a6 0abc ecf4 7abe a5b6 7bbe
00000070: 0000 0000 7666 68be 0000 0000 0000 0000

resnet_denoiser/level_3/batch_normalization_44/FusedBatchNormV31 f4 [32]
0.07291724 0.021129292 0.05775427 20.765285 0.09128362 0.10358474 0.23728329 0.025815308
16.833193 0.34704852 23.610306 40.706566 -0.07706815 0.039189864 0.07521588 37.58556
-0.001622856 18.051722 26.440283 0.06239019 -0.016317863 -0.16991769 -0.15487918 27.445587
0.14312875 49.86233 21.276035 18.093607 0.013735839 25.670519 0.024113793 0.16110656
00000000: a255 953d 5617 ad3c be8f 6c3d 4e1f a641
00000010: e8f2 ba3d 3c24 d43d 64fa 723e a07a d33c
00000020: 61aa 8641 58b0 b13e e8e1 bc41 86d3 2242
00000030: e8d5 9dbd 8d85 203d c90a 9a3d 9d57 1642
00000040: 03b6 d4ba ed69 9041 b385 d341 db8c 7f3d
00000050: 0aad 85bc e7fe 2dbe a698 1ebe 9090 db41
00000060: 5890 123e 0773 4742 5235 aa41 b5bf 9041
00000070: 490c 613c 395d cd41 4a8a c53c 1ef9 243e

resnet_denoiser/level_3/batch_normalization_45/FusedBatchNormV3 f4 [16]
1.7573493e-05 -9.689012e-05 9.575684e-05 -0.00038698156 -3.964932e-05 0.00013177806 3.62488e-05 -1.7108898e-05
-0.00018757653 -0.0003687815 -2.3028506e-05 -1.1096791 -0.0004123521 1.2096244e-05 -3.746973e-06 -4.5715453e-05
00000000: ca6a 9337 7d31 cbb8 10d1 c838 c9e3 cab9
00000010: 224d 26b8 e72d 0a39 da09 1838 1485 8fb7
00000020: 31b0 44b9 0459 c1b9 572d c1b7 f709 8ebf
00000030: f630 d8b9 f9f0 4a37 8274 7bb6 98be 3fb8

resnet_denoiser/level_3/batch_normalization_45/FusedBatchNormV31 f4 [16]
-0.000104796774 0.00082543865 -0.0005199451 0.0078154225 0.0019067198 -0.0002543853 -9.0664995e-05 0.0005684861
0.0010017487 0.0044637187 2.686643e-05 38.38533 0.01846304 -2.6638765e-05 3.2214903e-05 0.0012615828
00000000: 57c6 dbb8 4062 583a ed4c 08ba 420c 003c
00000010: e6ea f93a 045f 85b9 6623 beb8 7506 153a
00000020: 1c4d 833a 6344 923b 385f e137 948a 1942
00000030: cd3f 973c 5076 dfb7 7d1e 0738 b25b a53a

resnet_denoiser/level_3/batch_normalization_46/FusedBatchNormV3 f4 [32]
0.0 0.0 0.0 0.0 0.0 -0.29555628 0.0 0.0
-0.3761134 -0.19352394 0.0 0.0 0.0 0.0 0.0 -0.21237586
0.0 0.0 0.0 -0.2777244 -0.24423608 0.0 0.0 0.0
-0.2188819 0.0 0.0 -0.3518561 0.0 0.0 0.0 -0.38478532
00000000: 0000 0000 0000 0000 0000 0000 0000 0000
00000010: 0000 0000 2753 97be 0000 0000 0000 0000
00000020: f091 c0be 242b 46be 0000 0000 0000 0000
00000030: 0000 0000 0000 0000 0000 0000 0f79 59be
00000040: 0000 0000 0000 0000 0000 0000 e431 8ebe
00000050: 0619 7abe 0000 0000 0000 0000 0000 0000
00000060: 9422 60be 0000 0000 0000 0000 7c26 b4be
00000070: 0000 0000 0000 0000 0000 0000 9502 c5be

resnet_denoiser/level_3/batch_normalization_46/FusedBatchNormV31 f4 [32]
0.13471882 0.15395306 0.0028977208 0.06375842 -0.047770996 30.71072 -0.10440718 -0.0716025
24.278097 35.38883 -0.06415911 0.30873036 0.08432499 0.24869004 0.08951299 24.298729
-0.12248436 -0.07569245 -0.56653863 25.246675 35.336643 0.04960512 0.17894073 -0.08234231
32.02932 0.017462557 -0.09563613 32.16178 -0.039823193 0.018819153 -0.13112491 21.817682
00000000: bbf3 093e dfa5 1d3e b0e7 3d3b c693 823d
00000010: 85ab 43bd 8eaf f541 6ed3 d5bd 55a4 92bd
00000020: 8b39 c241 298e 0d42 da65 83bd e811 9e3e
00000030: 95b2 ac3d 9aa8 7e3e 9652 b73d cc63 c241
00000040: 15d9 fabd a504 9bbd ad08 11bf 31f9 c941
00000050: b958 0d42 bd2e 4b3d 3d3c 373e 16a3 a8bd
00000060: 061e 0042 a30d 8f3c e0dc c3bd aaa5 0042
00000070: a51d 23bd a02a 9a3c 9c45 06be 9d8a ae41

resnet_denoiser/level_3/batch_normalization_47/FusedBatchNormV3 f4 [16]
-0.0975584 0.0001246728 -0.13787708 -0.09320238 2.6550866e-05 -0.12668814 -0.11111721 -1.8260714e-06
-0.13285805 -1.7687875e-05 -0.11683936 1.539553e-05 -1.490743e-05 -0.1196785 -0.11035596 3.0530075e-05
00000000: b3cc c7bd 9aba 0239 a62f 0dbe e4e0 bebd
00000010: 8db9 de37 89ba 01be 6b91 e3bd 5617 f5b5
00000020: f10b 08be 6c60 94b7 7949 efbd a625 8137
00000030: ed1a 7ab7 001a f5bd 4e02 e2bd 6b0d 0038

resnet_denoiser/level_3/batch_normalization_47/FusedBatchNormV31 f4 [16]
0.31914648 -0.0010621283 0.74718386 0.28647178 -0.0012768204 0.22820623 0.1941024 6.0675808e-05
0.24001256 0.00021409344 0.13625415 -0.0005325526 0.0006674793 0.19891344 0.75184625 -0.00084252073
00000000: 2b67 a33e 1d37 8bba 7147 3f3f 6eac 923e
00000010: fc5a a7ba e5ae 693e c8c2 463e 277e 7e38
00000020: dac5 753e 457e 6039 3586 0b3e 009b 0bba
00000030: c7f9 2e3a f7af 4b3e ff78 403f 9cdc 5cba

resnet_denoiser/level_4/batch_normalization_49/FusedBatchNormV3 f4 [16]
0.00013197429 -5.518486e-05 -1.428115 -0.24497056 -8.157032e-05 0.00043390144 -0.00024178925 -0.5271194
6.230948e-05 -1.3904094 -1.3431612 -1.1429791 6.6673805e-05 -0.00021866163 -0.7127654 -0.5655004
00000000: 9462 0a39 4b76 67b8 79cc b6bf 90d9 7abe
00000010: bb10 abb8 447d e339 cf88 7db9 4cf1 06bf
00000020: 26ac 8238 eff8 b1bf b5ec abbf 244d 92bf
00000030: 3ad3 8b38 8948 65b9 cb77 36bf a2c4 10bf

resnet_denoiser/level_4/batch_normalization_49/FusedBatchNormV31 f4 [16]
-0.0031338672 0.00022094326 21.328283 0.39483288 0.0052628354 -0.018760547 0.059051786 9.942397
-0.00653288 11.447378 7.433493 7.2265816 -8.7143126e-05 0.0035706635 2.6061192 28.845745
00000000: 9161 4dbb 01ad 6739 53a0 aa41 8927 ca3e
00000010: dd73 ac3b b8af 99bc 49e0 713d 0f14 1f41
00000020: c511 d6bb 7628 3741 2ddf ed40 2840 e740
00000030: 9cc0 b6b8 cb01 6a3b a8ca 2640 16c4 e641

resnet_denoiser/level_4/batch_normalization_50/FusedBatchNormV3 f4 [32]
-0.34205174 -1.2500143 -0.8326138 -0.52530724 -0.79008704 -0.30172154 0.0 -0.8684349
-0.6932909 -1.0926028 -0.5291802 0.0 -0.5972203 -0.6776244 -0.6734982 -0.5872095
-0.33374622 -0.8977136 -1.4314796 -1.0759715 -0.19925295 0.0 -0.9721452 -0.2931855
-0.07467829 -0.69541955 -1.3914725 -0.512815 0.0 0.0 0.0 -0.22373755
00000000: 6821 afbe 7800 a0bf 2e26 55bf 897a 06bf
00000010: 2543 4abf 3f7b 9abe 0000 0000 c051 5ebf
00000020: 837b 31bf 69da 8bbf 5b78 07bf 0000 0000
00000030: 6ee3 18bf cb78 2dbf 616a 2cbf 5d53 16bf
00000040: c9e0 aabe 8fd0 65bf b93a b7bf 6fb9 89bf
00000050: f708 4cbe 0000 0000 82de 78bf 691c 96be
00000060: eef0 98bd 0407 32bf c51b b2bf d847 03bf
00000070: 0000 0000 0000 0000 0000 0000 751b 65be

resnet_denoiser/level_4/batch_normalization_50/FusedBatchNormV31 f4 [32]
1.4965317 1.9961456 1.9922004 3.7797422 5.426752 2.2406135 0.80483484 2.4937696
1.3902408 2.4345388 1.3240005 0.82354045 0.885882 2.2030687 0.6320286 6.1846447
4.2027106 2.55673 2.476912 2.2525005 2.252062 -0.9069216 2.2828436 1.433668
0.9097262 1.2348485 1.7575519 2.0559688 1.0119084 -0.902378 -0.9608005 2.6529543
00000000: 5a8e bf3f b381 ff3f 6c00 ff3f 4ce7 7140
00000010: f4a7 ad40 3666 0f40 a809 4e3f ec99 1f40
00000020: 69f3 b13f 7ccf 1b40 d978 a93f 8cd3 523f
00000030: 2ac9 623f 14ff 0c40 a0cc 213f 9ce8 c540
00000040: 9b7c 8640 77a1 2340 ba85 1e40 f828 1040
00000050: c921 1040 042c 68bf 1c1a 1240 6f82 b73f
00000060: d1e3 683f 840f 9e3f 76f7 e03f fe94 0340
00000070: 3786 813f 3f02 67bf 06f7 75bf 01ca 2940

resnet_denoiser/level_4/batch_normalization_51/FusedBatchNormV3 f4 [16]
-2.3382397 -4.609175 -3.0050802 -0.00027068288 -1.3748567 -1.3148235 -0.97146195 -1.8939899
-1.3596549 -2.1285183 -1.8118856 -1.9404527 0.0001829688 -2.2836294 -9.469528e-05 0.00016947648
00000000: b8a5 15c0 5d7e 93c0 3c53 40c0 71ea 8db9
00000010: 4efb afbf 234c a8bf bbb1 78bf 436e f2bf
00000020: 2c09 aebf a539 08c0 deeb e7bf c160 f8bf
00000030: 50db 3f39 fc26 12c0 2497 c6b8 7fb5 3139

resnet_denoiser/level_4/batch_normalization_51/FusedBatchNormV31 f4 [16]
12.62986 9.759951 24.682575 0.00022298697 4.4901223 7.3189836 6.71618 13.298867
6.4405675 8.219042 3.6763825 3.2763538 -0.00012610819 2.5751762 0.00016056739 -0.0042990022
00000000: e813 4a41 c228 1c41 ea75 c541 9cd1 6939
00000010: 15af 8f40 1d35 ea40 f2ea d640 29c8 5441
00000020: 2119 ce40 3281 0341 da49 6b40 c8af 5140
00000030: e93b 04b9 b0cf 2440 fb5d 2839 a5de 8cbb
