bfcnn/pretrained/resnet_5x5_bn_3x3/model.tflite (tflite, 169232 bytes, 173 tensors)

resnet_denoiser/level_0/batch_normalization/FusedBatchNormV3 f4 [16]
0	0xbfc48491	-1.5352956
1	0xbf9d80da	-1.2304947
2	0xbe7a7d33	-0.24461822
3	0xbe6d44f8	-0.2317084
4	0xbeefc261	-0.46827987
5	0xbe04a3d6	-0.12953123
6	0xbf0ecdc6	-0.55782735
7	0xbeb0b2c3	-0.34511384
8	0xbf8beb4f	-1.0931185
9	0xbf664b24	-0.89958405
10	0xbee4515d	-0.44593325
11	0xbf257276	-0.6462778
12	0xbf533080	-0.8249588
13	0xbed17adb	-0.40914044
14	0xbae8795b	-0.0017736362
15	0xbebcb501	-0.36856845

resnet_denoiser/level_0/batch_normalization/FusedBatchNormV31 f4 [16]
0	0x41f8f044	31.117317
1	0x415765a8	13.462318
2	0x41819bf8	16.201157
3	0x4114123b	9.254451
4	0x412d7db0	10.843185
5	0x401ed9bf	2.4820402
6	0x419920ee	19.141079
7	0x41b842c2	23.032597
8	0x419c7753	19.558264
9	0x40ea5591	7.322945
10	0x417bb2b3	15.731128
11	0x418f5810	17.918
12	0x41a1f9fe	20.247066
13	0x410fe23e	8.992735
14	0x3f102ed1	0.56321436
15	0x41a56dc5	20.678598

resnet_denoiser/level_0/batch_normalization_1/FusedBatchNormV3 f4 [32]
0	0xbf92f5ac	-1.1481223
1	0xbf82aaa0	-1.0208321
2	0xbf30575e	-0.6888331
3	0xbf8b25fd	-1.0870968
4	0xbeb56edc	-0.35436141
5	0xbece01eb	-0.40235838
6	0xbe78a415	-0.24281342
7	0xbe6d0b8f	-0.2314894
8	0xbeb83b5e	-0.35982794
9	0xbee7d1f9	-0.45277384
10	0xbf13d6e9	-0.577498
11	0xbcd0e25a	-0.025498558
12	0xbf3932dc	-0.7234323
13	0xbead9142	-0.33899885
14	0xbeb04e97	-0.3443496
15	0xbe907077	-0.28210804
16	0xbf4aae0b	-0.7917182
17	0xbf10f37a	-0.56621516
18	0xbf1c9562	-0.6116544
19	0xbf316a1a	-0.69302523
20	0xbe6e08c0	-0.23245525
21	0xbefd56a7	-0.49480173
22	0xbee6e423	-0.4509593
23	0xbef0ee6f	-0.4705691
24	0xbf5ed17f	-0.87038416
25	0xbf443393	-0.76641196
26	0xbeba6cd2	-0.36411148
27	0xbed3a855	-0.41339365
28	0xb4f159c9	-4.4955075e-07
29	0xb8b50adc	-8.632775e-05
30	0xbeded10d	-0.43518868
31	0xbf172a21	-0.5904866

resnet_denoiser/level_0/batch_normalization_1/FusedBatchNormV31 f4 [32]
0	0x4043bb95	3.058324
1	0x40b5947b	5.674375
2	0x4093f6d4	4.6238804
3	0x40858ae5	4.173205
4	0x414302c6	12.188177
5	0x41c6b3f5	24.83787
6	0x403b0323	2.9220665
7	0x4055f8e1	3.3433154
8	0x402c1a74	2.6891146
9	0x3fa63f64	1.2988095
10	0x4206a33b	33.659405
11	0x40e26b4e	7.0755987
12	0x3ffbd14a	1.9673245
13	0x4048efc1	3.1396334
14	0x40a0f19a	5.0294924
15	0x4140fc29	12.061563
16	0x40ad90b9	5.4239163
17	0x4089292b	4.2862754
18	0x4106fc3e	8.436583
19	0x40f239f2	7.5695734
20	0x4014b6b4	2.3236513
21	0x4085d8ea	4.182729
22	0x3ff139c0	1.8845749
23	0x4020ebe7	2.5143983
24	0x40995405	4.7915063
25	0x41113189	9.074594
26	0x3fd04610	1.6271381
27	0x40117daf	2.273296
28	0x3e94127e	0.28920358
29	0x42566f0c	53.608444
30	0x40a18972	5.048028
31	0x413b0a1f	11.689971

resnet_denoiser/level_0/batch_normalization_10/FusedBatchNormV3 f4 [16]
0	0xba36b188	-0.0006969203
1	0xbdb0ece2	-0.08638932
2	0xbdc698a0	-0.0969708
3	0xbe85f989	-0.26166943
4	0xbeb0bedb	-0.3452061
5	0xbe3dd38c	-0.1853773
6	0xbf04c899	-0.5186859
7	0xbe8aeac8	-0.2713225
8	0xbbde288e	-0.006779737
9	0xbeeb16ed	-0.45915928
10	0x3d225942	0.039635904
11	0xbe1fd052	-0.15606812
12	0x3a998153	0.0011711515
13	0xb9933195	-0.00028074966
14	0xbfaac17b	-1.3340296
15	0xbf526405	-0.8218387

resnet_denoiser/level_0/batch_normalization_10/FusedBatchNormV31 f4 [16]
0	0x3c5afb40	0.013365567
1	0x3deca605	0.11555103
2	0x3dc1a06a	0.09454425
3	0x3ea83451	0.32852414
4	0x3eaff83b	0.34369072
5	0x3e34140e	0.17585775
6	0x3ea46c91	0.3211408
7	0x3e1a6b6f	0.15080045
8	0x3d94c21a	0.072635844
9	0x3e69a81d	0.22818036
10	0xbcc3730b	-0.023858568
11	0x3ea9e919	0.33185652
12	0xbcdaca92	-0.026707921
13	0x3a29aaac	0.00064722705
14	0x3eb047dc	0.34429824
15	0x3eb93ba9	0.3617833

resnet_denoiser/level_0/batch_normalization_2/FusedBatchNormV3 f4 [16]
0	0xbd58396b	-0.052789133
1	0xbf74a76b	-0.9556796
2	0xbe44e114	-0.19226485
3	0xbf3b74ac	-0.732249
4	0xbf248bc9	-0.64275795
5	0xc00632d4	-2.0968523
6	0xbdeac020	-0.11462426
7	0xbe4fa309	-0.20277037
8	0xbead608c	-0.33862722
9	0xbd3b8f6d	-0.04579108
10	0xbf263a68	-0.6493287
11	0xbf5260bc	-0.82178855
12	0x3bbeb849	0.0058203083
13	0xbe9c5049	-0.30530003
14	0xbe4e29ce	-0.20133135
15	0xbef5be5d	-0.47996798

resnet_denoiser/level_0/batch_normalization_2/FusedBatchNormV31 f4 [16]
0	0x3f8731e6	1.0562103
1	0x3fb3ede5	1.4056975
2	0x3f77e862	0.96838963
3	0x3f86b717	1.0524625
4	0x3f6387cd	0.8887909
5	0x405972b3	3.3976257
6	0x3f05a5cf	0.5220613
7	0x3e80b429	0.2513745
8	0x407b27ee	3.924312
9	0x3da16b1d	0.07881758
10	0x3faa12ac	1.3286948
11	0x408b569f	4.354324
12	0xbe0fa721	-0.14028598
13	0x3f87a985	1.0598608
14	0x3e102f21	0.14080478
15	0x3e94ecc0	0.29086876

resnet_denoiser/level_0/batch_normalization_3/FusedBatchNormV3 f4 [32]
0	0xb99250f2	-0.000279076
1	0xb99fdba0	-0.00030490477
2	0xbee74b4a	-0.45174628
3	0xbee20455	-0.4414393
4	0xbd68a8d7	-0.056801643
5	0xbe8a42e1	-0.2700415
6	0xbf8d6c8d	-1.1048752
7	0xbf0999c8	-0.53750277
8	0xbece91a1	-0.4034548
9	0xbed31ed0	-0.41234446
10	0xbf53e529	-0.82771546
11	0xbf90b208	-1.1304331
12	0xbca2d406	-0.019876491
13	0xbdf68aa7	-0.120381646
14	0xbe95bf36	-0.29247445
15	0xbe0d0e39	-0.13774957
16	0xbb9f3d47	-0.0048595998
17	0xbec0d077	-0.37659046
18	0xb7aa4888	-2.0299354e-05
19	0xb98507b3	-0.00025373473
20	0xbf4959c2	-0.78652585
21	0x39849374	0.00025286863
22	0xbf23a176	-0.63918245
23	0xb961b1b5	-0.00021523873
24	0xb5b8ccfa	-1.3768724e-06
25	0xb8be151b	-9.063837e-05
26	0xbe988346	-0.29787654
27	0xbe804bad	-0.25057736
28	0xb8c0ee38	-9.199645e-05
29	0xbea92b92	-0.33041054
30	0xbf3b2307	-0.7310032
31	0xbf11f6fa	-0.5701748

resnet_denoiser/level_0/batch_normalization_3/FusedBatchNormV31 f4 [32]
0	0x41a86392	21.048618
1	0x41b76f46	22.929333
2	0x3fd73715	1.6813685
3	0x40000aaf	2.000652
4	0x413f4f80	11.956909
5	0x41695c6c	14.585064
6	0x41518841	13.095765
7	0x3ffb8a5b	1.9651598
8	0x3f9025fc	1.1261592
9	0x3fa7a40b	1.3096937
10	0x4085f5a9	4.186238
11	0x4075f953	3.8433425
12	0x41998d36	19.19395
13	0x41d0d1ed	26.102503
14	0x41bcf49e	23.619442
15	0x4222bcd7	40.684414
16	0x41206689	10.025033
17	0x423f8a04	47.88478
18	0x3fd89db4	1.6923127
19	0x419af8f5	19.371561
20	0x41b9333b	23.150015
21	0xbf82cd41	-1.0218889
22	0x41a36bca	20.427631
23	0x3fcd68d7	1.604762
24	0x3f2e6ac9	0.6813169
25	0x421e36c4	39.553482
26	0x40378ba4	2.867898
27	0x410aada3	8.667392
28	0x3f6faf6c	0.9362705
29	0x4218ac31	38.168156
30	0x41c4e9bc	24.614128
31	0x41cc97d6	25.574139

resnet_denoiser/level_0/batch_normalization_4/FusedBatchNormV3 f4 [16]
0	0xbc238d29	-0.009982386
1	0xbf32eea8	-0.6989541
2	0xbf743cc7	-0.9540524
3	0xbeee1b46	-0.46505183
4	0xbed5d5d6	-0.41764706
5	0xbf961338	-1.1724615
6	0xbf4e7953	-0.80653876
7	0xbe9f6ad9	-0.31136206
8	0x3c6908d5	0.014223297
9	0xbfafc60f	-1.3732318
10	0xbf08c3b0	-0.53423595
11	0xbd2d633b	-0.04233096
12	0xbd2dc6c5	-0.04242589
13	0xbe97a252	-0.29616028
14	0xbe224403	-0.15846257
15	0xbf8fcbcd	-1.123407

resnet_denoiser/level_0/batch_normalization_4/FusedBatchNormV31 f4 [16]
0	0x3e4aa6e0	0.1979022
1	0x3f7e19bc	0.9925802
2	0x3fbeaf5a	1.4897263
3	0x3f1a489e	0.60267055
4	0x3eeda13f	0.46412084
5	0x3fbf1b27	1.4930161
6	0x4001d481	2.0285952
7	0x3ebcaec2	0.3685208
8	0xbe26879b	-0.16262667
9	0x3fc6c1ea	1.5527928
10	0x3f2e7e72	0.6816169
11	0x3e2cdbc6	0.16880712
12	0x3f814b2f	1.0101069
13	0x3f2f6311	0.6851054
14	0x3da8062b	0.082043014
15	0x3f1f2550	0.6216631

resnet_denoiser/level_0/batch_normalization_5/FusedBatchNormV3 f4 [32]
0	0xb8e14b0e	-0.00010742816
1	0xb90c6cf8	-0.00013392034
2	0xbe96cb95	-0.29452196
3	0xbeaf2146	-0.34205073
4	0xbef51aed	-0.47872105
5	0xbf085628	-0.53256464
6	0xbcfa077b	-0.030521145
7	0xbfd4b2e2	-1.6617091
8	0xbf1862c5	-0.5952571
9	0xbfbfc9cd	-1.498346
10	0xbecf100a	-0.40441924
11	0xbf50d1d0	-0.8157015
12	0xbf390f22	-0.72288716
13	0xbef8d27a	-0.4859808
14	0xbf02afc8	-0.5104947
15	0xba7cbe50	-0.0009641396
16	0xb8fe4b16	-0.0001212565
17	0xb8a14c41	-7.691282e-05
18	0xbf3265cd	-0.69686586
19	0xbf325322	-0.696581
20	0xbf1d3249	-0.61404854
21	0xb77f499a	-1.5216321e-05
22	0xb87f6c15	-6.0897397e-05
23	0xb98645eb	-0.00025610565
24	0x37a43340	1.9574189e-05
25	0xba48570b	-0.0007642365
26	0xbeef31ac	-0.46717584
27	0xbf9068d4	-1.1281991
28	0x3888b97f	6.519537e-05
29	0xbf0a160a	-0.5393988
30	0xbf5a4ce0	-0.8527355
31	0xbf43fbcc	-0.76556087

resnet_denoiser/level_0/batch_normalization_5/FusedBatchNormV31 f4 [32]
0	0x4272c51b	60.692486
1	0x428de5c6	70.94878
2	0x41266431	10.399461
3	0x407ac905	3.9185193
4	0x4079ae12	3.9012494
5	0x4031dcb9	2.7790968
6	0x41112387	9.071174
7	0x41cbf870	25.496307
8	0x40aeba03	5.4602065
9	0x4162349a	14.137842
10	0x41ebedce	29.491116
11	0x4136c1de	11.422331
12	0x41b1ed75	22.240946
13	0x414ffd9d	12.999417
14	0x4189189b	17.137014
15	0x40cd4c35	6.4155526
16	0x42098efd	34.389637
17	0x41b41d06	22.514172
18	0x406a7b6b	3.6637828
19	0x408c35a3	4.3815475
20	0x4193f452	18.494297
21	0x3e083db3	0.13304786
22	0x4147963c	12.474178
23	0x4244e91c	49.227646
24	0xbffe62e0	-1.9873924
25	0x42873cfd	67.61912
26	0x414d8aee	12.846418
27	0x42484946	50.071556
28	0xbf921aa5	-1.1414381
29	0x413ec163	11.922214
30	0x40c9a45e	6.3013144
31	0x410f8143	8.969058

resnet_denoiser/level_0/batch_normalization_6/FusedBatchNormV3 f4 [16]
0	0xbb7f8991	-0.0038991908
1	0xbdaf32c3	-0.08554604
2	0xbeb85842	-0.36004835
3	0xbdd3857c	-0.103281945
4	0xbf007a15	-0.5018628
5	0xbfa0e176	-1.2568805
6	0xbfb0b0b4	-1.3803926
7	0xbef518cb	-0.47870478
8	0xbd1da566	-0.038487814
9	0xc032805d	-2.7890847
10	0xbff57f2d	-1.9179436
11	0xbf483b40	-0.7821541
12	0xbd9ec1fa	-0.07751842
13	0xbb86f917	-0.0041190493
14	0xbf719d3a	-0.94380534
15	0xbf86135b	-1.0474657

resnet_denoiser/level_0/batch_normalization_6/FusedBatchNormV31 f4 [16]
0	0x3d9c5be1	0.07634712
1	0x3df192bd	0.11795566
2	0x3f0a70e3	0.540785
3	0x3e0694f1	0.13142754
4	0x3f02389c	0.5086763
5	0x3f9bf63c	1.218452
6	0x3faaf930	1.3357296
7	0x3edeb4b0	0.4349723
8	0x3edbb4cb	0.42911372
9	0x3fca6e09	1.581483
10	0x3fad151c	1.3522067
11	0x3fd9f223	1.7027019
12	0x3fe86d70	1.8158398
13	0x3c1beb83	0.0095166
14	0x3ea1c934	0.31598818
15	0x3f0ac438	0.54205656

resnet_denoiser/level_0/batch_normalization_7/FusedBatchNormV3 f4 [32]
0	0xb83023d2	-4.199503e-05
1	0xb794c92c	-1.7736653e-05
2	0xbe836736	-0.2566468
3	0xb82f21cb	-4.1754723e-05
4	0xbe73c24c	-0.23804587
5	0xbe534336	-0.20631108
6	0xbea359ad	-0.31904355
7	0xb8fe7c27	-0.00012134789
8	0xbf421093	-0.7580654
9	0xbe6a696a	-0.22891775
10	0xbf1fb774	-0.623893
11	0xbf5c2ff2	-0.8601066
12	0xbf731612	-0.9495555
13	0xbf104592	-0.56356156
14	0xbf2b0493	-0.66803855
15	0xbe17a3b5	-0.14808543
16	0xb9795d63	-0.0002378128
17	0xb906cb15	-0.0001285489
18	0xbf40813c	-0.75197196
19	0xbf1ba1b8	-0.6079364
20	0xbefb5214	-0.49086058
21	0xbf8732cb	-1.0562376
22	0xbf951d64	-1.1649594
23	0xbe9a941c	-0.30191123
24	0xb892fd23	-7.008973e-05
25	0xba33e5f0	-0.00068625715
26	0xb8a7b03a	-7.996005e-05
27	0xb7ea8306	-2.7955986e-05
28	0xbe86fab9	-0.2636316
29	0xbf229793	-0.63512534
30	0xbf4d8fb4	-0.802974
31	0xbf58e9cb	-0.8473174

resnet_denoiser/level_0/batch_normalization_7/FusedBatchNormV31 f4 [32]
0	0x42661ca3	57.527966
1	0x41b2d55f	22.354185
2	0x42b7aa18	91.832214
3	0x3fede959	1.8586837
4	0x41e18913	28.19193
5	0x411e17ea	9.880838
6	0x423820c5	46.032
7	0x4057e48b	3.3733242
8	0x41141cad	9.257001
9	0x40e12e2d	7.0368867
10	0x40a09ce4	5.0191517
11	0x418c753f	17.55725
12	0x4119d6bf	9.614928
13	0x41b6340a	22.77541
14	0x40ec31dc	7.3810863
15	0x41a3a452	20.455235
16	0x41cbbea5	25.468088
17	0x4164abf4	14.291981
18	0x401906f6	2.3910499
19	0x40448b15	3.070989
20	0x40f22c75	7.567927
21	0x41767c42	15.405336
22	0x41d0aa79	26.083239
23	0x403f5929	2.989817
24	0x4084eae6	4.153674
25	0x420dd312	35.456123
26	0x424ecac1	51.698
27	0x419e10da	19.758228
28	0x41264c2d	10.393598
29	0x40b947d4	5.790018
30	0x40abf65c	5.373823
31	0x4105309d	8.3243685

resnet_denoiser/level_0/batch_normalization_8/FusedBatchNormV3 f4 [16]
0	0xbda73bca	-0.08165701
1	0xbe98e13e	-0.29859346
2	0xbf28e4ab	-0.6597392
3	0xbe85e30b	-0.26149783
4	0xbe148b32	-0.14506224
5	0xbfc8636d	-1.5655342
6	0xbec8c2e2	-0.39211184
7	0xbec98d39	-0.39365557
8	0xbc811d03	-0.015760904
9	0xbf8feaa4	-1.1243482
10	0xc073640d	-3.8029816
11	0xbd5e839d	-0.054324735
12	0xbc98d6e2	-0.018657152
13	0x3b370fcc	0.0027933
14	0xbffb82e0	-1.9649315
15	0x3b6832cd	0.003543067

resnet_denoiser/level_0/batch_normalization_8/FusedBatchNormV31 f4 [16]
0	0x3fca94d2	1.5826666
1	0x3ecf20e1	0.40454772
2	0x3f259629	0.6468225
3	0x3ea8fca4	0.3300525
4	0x3e15509f	0.14581536
5	0x3fbeaf74	1.4897294
6	0x3e9ccdde	0.30625814
7	0x3e9d6e83	0.30748376
8	0x3e304310	0.17213082
9	0x3f0fdd9d	0.5619753
10	0x4012a855	2.2915242
11	0x3defacc8	0.11702877
12	0x3edc9f3f	0.43090245
13	0xbbd33d79	-0.006446537
14	0x3f122173	0.5708229
15	0xbad8fe15	-0.0016555215

resnet_denoiser/level_0/batch_normalization_9/FusedBatchNormV3 f4 [32]
0	0xba87bc16	-0.0010355737
1	0xba0dba41	-0.0005406477
2	0xbde677f3	-0.11253347
3	0xbe8d1577	-0.2755544
4	0xbecfd22f	-0.40590045
5	0xbee46b92	-0.4461332
6	0xbc2b5fad	-0.010459823
7	0xbf20550e	-0.62629783
8	0xbde6c323	-0.11267688
9	0xbd746818	-0.059669584
10	0xbf2b8511	-0.6699992
11	0xbf01c1f1	-0.50686556
12	0xbee18df0	-0.44053602
13	0xbf545e60	-0.82956505
14	0xbef9107b	-0.48645386
15	0xbfa5652a	-1.2921498
16	0xb7f455fc	-2.9127106e-05
17	0xb8e2d26c	-0.00010815714
18	0xbeea0dbb	-0.457136
19	0xbf7170e5	-0.9431289
20	0xbf41169b	-0.7542512
21	0xbf144626	-0.5791954
22	0xbbfbf62b	-0.0076892576
23	0xb9a7ca26	-0.00032003334
24	0xb9559055	-0.00020367031
25	0xb7f7ec85	-2.9554833e-05
26	0xb724780f	-9.803115e-06
27	0xb7dfd77f	-2.668402e-05
28	0xbf29a274	-0.6626351
29	0xbf0ccfd6	-0.5500463
30	0xb8447825	-4.6841935e-05
31	0xb594c692	-1.1084651e-06

resnet_denoiser/level_0/batch_normalization_9/FusedBatchNormV31 f4 [32]
0	0x42438c76	48.88717
1	0x41e6fc0c	28.87307
2	0x4268ba03	58.181652
3	0x4165de5a	14.366785
4	0x3fef1720	1.8678932
5	0x40a28e35	5.0798593
6	0x413791ea	11.473124
7	0x4269db8b	58.464397
8	0x427c8dc5	63.138447
9	0x420fdb83	35.964367
10	0x413de008	11.867195
11	0x4164dfdf	14.304656
12	0x414dd6a0	12.864899
13	0x423b1e9b	46.77989
14	0x4134a5ce	11.29048
15	0x42171985	37.77492
16	0x410ab004	8.667973
17	0x42075906	33.836937
18	0x409dbe6b	4.9294944
19	0x41135b69	9.209817
20	0x4015b590	2.3392067
21	0x4027e3ba	2.6232743
22	0x427d639e	63.347282
23	0x41abce55	21.475748
24	0x427ef035	63.734577
25	0x411a84ab	9.65739
26	0x4193d3de	18.47845
27	0x4242c6cc	48.694138
28	0x3fc6013a	1.5469124
29	0x3fcc2472	1.5948622
30	0x4218adc6	38.1697
31	0x3f66ef66	0.90209043

resnet_denoiser/level_1/batch_normalization_11/FusedBatchNormV3 f4 [16]
0	0x3b4f9979	0.003167717
1	0xba13ab73	-0.0005633153
2	0xbf1848a8	-0.59485865
3	0xbf023a3b	-0.508701
4	0x3b0a1360	0.0021068677
5	0xbe74a4ed	-0.23891039
6	0xbe305b18	-0.1722225
7	0x3b565470	0.0032704137
8	0xbb85e6b5	-0.0040863403
9	0x3a2a3534	0.0006492913
10	0xbd9834dd	-0.07431958
11	0xbdff01c9	-0.12451512
12	0xbef62e73	-0.48082313
13	0x3ae25de1	0.001727041
14	0xbefa408e	-0.48877376
15	0xb73fac30	-1.1424578e-05

resnet_denoiser/level_1/batch_normalization_11/FusedBatchNormV31 f4 [16]
0	0xbfbc0d0b	-1.469148
1	0x3f324b02	0.696457
2	0x418ccba6	17.599438
3	0x41b729c6	22.895397
4	0xbeb84d50	-0.35996485
5	0x40e762d2	7.230813
6	0x40469e03	3.1033943
7	0xbc461a77	-0.012091271
8	0x3fbf2d00	1.4935608
9	0xbe5cd9ea	-0.21567503
10	0x41555229	13.332559
11	0x41045418	8.270531
12	0x41e9c88d	29.222925
13	0xbe96bf2b	-0.29442725
14	0x40ac591b	5.385877
15	0x3b1f972a	0.0024351575

resnet_denoiser/level_1/batch_normalization_12/FusedBatchNormV3 f4 [32]
0	0xb736d023	-1.0896506e-05
1	0xb75fa4a7	-1.3330172e-05
2	0xb7167673	-8.968275e-06
3	0x329c51d5	1.8198003e-08
4	0xbfcd66c7	-1.604699
5	0xbeeea55c	-0.46610534
6	0xbeaed762	-0.341487
7	0xbec00eca	-0.37511283
8	0xb7c44e53	-2.3401493e-05
9	0xb573fa1f	-9.088853e-07
10	0xb8c18530	-9.227765e-05
11	0xbf402fe3	-0.7507307
12	0xbee7eeae	-0.45299286
13	0xbe44e395	-0.1922744
14	0xb844298c	-4.6768735e-05
15	0xb810d5d0	-3.4531404e-05
16	0xb8939e71	-7.039018e-05
17	0xb80e820e	-3.397656e-05
18	0xb79f0cff	-1.8960329e-05
19	0x35136963	5.4915125e-07
20	0xbe3b5caa	-0.18297067
21	0x383b019c	4.4585773e-05
22	0xbe65723e	-0.22406861
23	0x37b02f11	2.1002752e-05
24	0xbe8f0cd6	-0.2793948
25	0xbf302850	-0.6881151
26	0xb7fad867	-2.9903093e-05
27	0xb7990ee0	-1.8245948e-05
28	0xbf801d03	-1.0008854
29	0xbf114e59	-0.56760174
30	0xb8aa5df4	-8.123732e-05
31	0x346bcf4b	2.1961493e-07

resnet_denoiser/level_1/batch_normalization_12/FusedBatchNormV31 f4 [32]
0	0x41270258	10.438072
1	0x413e150a	11.8801365
2	0x420a006f	34.500423
3	0xbd9a85b6	-0.075450346
4	0x4107a74d	8.478345
5	0x3f721360	0.94560814
6	0x41315689	11.083627
7	0x4176df17	15.429465
8	0x41b937b4	23.152199
9	0x3f6961d4	0.911649
10	0x3f7adf33	0.97996825
11	0x4152a2bf	13.164733
12	0x4074cd67	3.8250368
13	0x415729fe	13.447752
14	0x418602c9	16.75136
15	0x4163e843	14.2442045
16	0x41d355f1	26.416964
17	0x418ab268	17.337112
18	0x4214439a	37.066017
19	0xbf921035	-1.1411196
20	0x4227c939	41.946507
21	0xbfbe5678	-1.4870138
22	0x4178726e	15.527937
23	0xbef73155	-0.48279825
24	0x4181a391	16.204866
25	0x412ddf86	10.867071
26	0x41de0cae	27.756191
27	0x419b493a	19.410755
28	0x4115b7c7	9.3573675
29	0x3fc59179	1.543502
30	0x428e678c	71.20224
31	0xbf0cef63	-0.55052775

resnet_denoiser/level_1/batch_normalization_13/FusedBatchNormV3 f4 [16]
0	0xbf1628cf	-0.5865602
1	0x3b3d81f6	0.0028916574
2	0xc045425d	-3.0821755
3	0xbd8a7dce	-0.067622766
4	0xbe97c0b7	-0.29639217
5	0xbdbbb35b	-0.09165069
6	0xbc84aa4f	-0.01619449
7	0xbec6e4ea	-0.38846523
8	0xbee00eb8	-0.4376123
9	0xbefcea07	-0.493973
10	0xbb9457c4	-0.004527064
11	0xbe98eacf	-0.29866645
12	0xbba63adc	-0.0050729346
13	0xbf2bceaf	-0.6711225
14	0xbdddf9d6	-0.10838668
15	0xbec6626b	-0.38746962

resnet_denoiser/level_1/batch_normalization_13/FusedBatchNormV31 f4 [16]
0	0x4110f52b	9.059855
1	0xbd4ca8b0	-0.04996556
2	0x40b15d95	5.5426736
3	0x403fd92c	2.9976301
4	0x405bace4	3.4324274
5	0x403018c7	2.7515123
6	0x3db2f2b2	0.08737697
7	0x3f638302	0.8887178
8	0x3fca4899	1.5803405
9	0x40fed551	7.9635396
10	0x3f4392d8	0.7639594
11	0x412ed085	10.925908
12	0x3e9af268	0.30263066
13	0x40b0a310	5.519905
14	0x3f018280	0.5058975
15	0x3fd02468	1.626111

resnet_denoiser/level_1/batch_normalization_14/FusedBatchNormV3 f4 [32]
0	0xbe72e09d	-0.23718496
1	0xbedb851f	-0.42875
2	0xb5848efb	-9.876379e-07
3	0xb7f5e975	-2.9314988e-05
4	0xbf1107d8	-0.56652594
5	0xbed3387d	-0.41254035
6	0xb7397a15	-1.1055284e-05
7	0xba39fe97	-0.0007095127
8	0x38593afc	5.1791765e-05
9	0xbe94ebb3	-0.29086074
10	0xb51c11dc	-5.814052e-07
11	0xba3ab461	-0.00071222155
12	0xba1f05bf	-0.0006066225
13	0xb68a907b	-4.1295402e-06
14	0xbe992ade	-0.29915518
15	0xb8563fe0	-5.1081064e-05
16	0xbf3a7bdd	-0.7284525
17	0xb9a9b09b	-0.00032365773
18	0xbec33674	-0.38127482
19	0xbe8db7d9	-0.27679327
20	0xb8692cb8	-5.5593177e-05
21	0x35d633df	1.5959339e-06
22	0x37b0cf57	2.1077385e-05
23	0xbe4d3e35	-0.20043261
24	0xb7b34b20	-2.1373446e-05
25	0xb80c6a3f	-3.347755e-05
26	0xbf04d5f5	-0.5188897
27	0xbee8919a	-0.45423585
28	0xbec12664	-0.37724602
29	0x389a638b	7.3618336e-05
30	0xbedd3229	-0.43202332
31	0xbeb7b494	-0.35879958

resnet_denoiser/level_1/batch_normalization_14/FusedBatchNormV31 f4 [32]
0	0x413babd5	11.729451
1	0x41131f0b	9.195079
2	0x3f7aea31	0.980136
3	0x41d6ca52	26.84879
4	0x405b8178	3.4297771
5	0x406733cf	3.6125371
6	0x3eb0eeb3	0.34557113
7	0x41516ace	13.088575
8	0xbf0354da	-0.5130135
9	0x4149202d	12.570355
10	0x3c662e5b	0.014049138
11	0x41242aa3	10.260409
12	0x4259260c	54.287155
13	0x3f51efdf	0.8200664
14	0x41c959f5	25.168924
15	0x3ec706a5	0.38872257
16	0x418c8fb5	17.57017
17	0x3fe2a68f	1.770708
18	0x40e8660e	7.262458
19	0x412cc105	10.797124
20	0x421ac0e3	38.688366
21	0xbf96debb	-1.1786722
22	0xbeb784a7	-0.35843393
23	0x41cbda26	25.481518
24	0x4186904c	16.820457
25	0x41ea7480	29.306885
26	0x400457ac	2.067851
27	0x40b768cd	5.731543
28	0x422a5232	42.58027
29	0xbf978d34	-1.1839967
30	0x417df910	15.873306
31	0x4203acc8	32.91873

resnet_denoiser/level_1/batch_normalization_15/FusedBatchNormV3 f4 [16]
0	0xbd13019d	-0.03589021
1	0x3a8b9389	0.0010648827
2	0x3a991ad1	0.0011680966
3	0x3b28751b	0.0025704566
4	0xc036915b	-2.8526218
5	0xbc6b8099	-0.014373922
6	0xbfb23b42	-1.3924334
7	0xbede65da	-0.43437082
8	0xc06a8b93	-3.664769
9	0x3ae685d6	0.0017587494
10	0x3b94c9bf	0.0045406516
11	0xbe748577	-0.23879038
12	0xbb603015	-0.0034208347
13	0xbec617f1	-0.3869014
14	0xbe30ede1	-0.17278244
15	0xbfac5d7a	-1.3466027

resnet_denoiser/level_1/batch_normalization_15/FusedBatchNormV31 f4 [16]
0	0x3e3a8738	0.18215644
1	0xbb9beebf	-0.0047586854
2	0xbae9146e	-0.0017782578
3	0xbde59443	-0.11209919
4	0x40450e06	3.078981
5	0x3edab653	0.42717227
6	0x4013aac3	2.3072975
7	0x3f14b23b	0.5808446
8	0x404ead12	3.2293134
9	0xbce7290a	-0.028217811
10	0xbf34c05a	-0.70606005
11	0x4109e560	8.6185
12	0x3e4bed11	0.19914652
13	0x40196b0a	2.3971581
14	0x3f25c17f	0.64748377
15	0x405d1a90	3.4547462

resnet_denoiser/level_1/batch_normalization_16/FusedBatchNormV3 f4 [32]
0	0xb80b358d	-3.3190056e-05
1	0xb705271e	-7.936525e-06
2	0xb7344a49	-1.0746132e-05
3	0xb777ed57	-1.4777607e-05
4	0x3438c079	1.7206357e-07
5	0xb79053f1	-1.7205226e-05
6	0xb862ad05	-5.4043736e-05
7	0xb77473a4	-1.4570458e-05
8	0xbf1137d3	-0.56725806
9	0x39499c20	0.00019227015
10	0x35ba3f80	1.3876561e-06
11	0xb936cfb8	-0.00017434254
12	0xbedf8233	-0.43654022
13	0xbece54b5	-0.40299
14	0xb911acbd	-0.00013892628
15	0x38e1b9a7	0.000107634165
16	0xbec378bf	-0.3817806
17	0xbf282c72	-0.6569282
18	0xb84f8497	-4.947613e-05
19	0xb5f6bbbe	-1.8383068e-06
20	0xb86b3359	-5.6076187e-05
21	0xb78f2ab3	-1.7066812e-05
22	0xb7466abf	-1.1826573e-05
23	0xb77e74df	-1.5166791e-05
24	0xb8b963fe	-8.8401124e-05
25	0x33ff3f21	1.1885846e-07
26	0xbf8750cb	-1.0571531
27	0x37e9cd05	2.7871234e-05
28	0xb80dc4dd	-3.3800363e-05
29	0xbebb1178	-0.36536765
30	0xbea42d2d	-0.32065716
31	0xbf040415	-0.5156873

resnet_denoiser/level_1/batch_normalization_16/FusedBatchNormV31 f4 [32]
0	0x40cf2cd2	6.474221
1	0x3fcfe654	1.6242166
2	0x415cbf8a	13.796762
3	0x41929116	18.320843
4	0xbf1b3672	-0.6062995
5	0x424a299f	50.540646
6	0x421b9d36	38.903526
7	0x411d2bc8	9.823189
8	0x40a1e1fb	5.0588355
9	0xbfa3e654	-1.2804666
10	0xbe8f8132	-0.28028256
11	0x420f3df8	35.810516
12	0x4055b2b8	3.3390331
13	0x3fe85c0f	1.8153094
14	0x3fcef1da	1.6167557
15	0xbf9bb46a	-1.2164433
16	0x40aa58c0	5.3233337
17	0x40af7d7b	5.4840674
18	0x4294315a	74.09639
19	0x4040a70d	3.010196
20	0x420fff91	35.999577
21	0x413143aa	11.07902
22	0x3e72ffc1	0.23730375
23	0x3ea47bcf	0.32125708
24	0x4218e9a4	38.228165
25	0xbd7fe8c7	-0.062477853
26	0x422e53b7	43.581753
27	0xbe79c1fb	-0.24390404
28	0x3ebce745	0.36895195
29	0x417ece08	15.925301
30	0x40c9df84	6.3085346
31	0x40c4f33a	6.1546907

resnet_denoiser/level_1/batch_normalization_17/FusedBatchNormV3 f4 [16]
0	0xbed8f24c	-0.42372358
1	0x3b4a83d0	0.003090132
2	0xbc901ba9	-0.017591314
3	0xbb9d4886	-0.0047999052
4	0x3b265954	0.0025382834
5	0xbb1b2a89	-0.0023676476
6	0xbca2dbcb	-0.019880196
7	0xbe5cbe4b	-0.21556966
8	0xc057af5d	-3.3700783
9	0xbc011770	-0.007879123
10	0xbbc4d032	-0.006006264
11	0xb9f9ceb1	-0.00047646978
12	0x3ba54361	0.0050434326
13	0xbcf48801	-0.029850008
14	0xbe94c993	-0.2906004
15	0xbea5c2a1	-0.32375053

resnet_denoiser/level_1/batch_normalization_17/FusedBatchNormV31 f4 [16]
0	0x3fd65d67	1.6747254
1	0xbc39b05e	-0.011333553
2	0x3cb30fae	0.021858063
3	0x3e53a666	0.20668945
4	0xbb2e0f7b	-0.002655952
5	0x3d8f0940	0.06984186
6	0x3ce32fc1	0.027732732
7	0x3e741c92	0.23839024
8	0x3ff87731	1.9411374
9	0x3e00fa25	0.12595423
10	0x3f6198bd	0.88123685
11	0x3c8b8928	0.017033175
12	0xbe93db29	-0.28878143
13	0x3def4976	0.116839334
14	0x3f6aef62	0.9177152
15	0x3f008b73	0.5021278

resnet_denoiser/level_1/batch_normalization_18/FusedBatchNormV3 f4 [32]
0	0xbf6a6383	-0.9155809
1	0xbec43360	-0.38320446
2	0xb50769c9	-5.0445357e-07
3	0xb8d8d8fd	-0.000103401
4	0xb8d60a74	-0.00010206262
5	0xb74209e7	-1.1565607e-05
6	0xb856ccc6	-5.1212286e-05
7	0xb88389d1	-6.272237e-05
8	0xb845447e	-4.703225e-05
9	0xb5ec82ba	-1.7621417e-06
10	0xb5524056	-7.832472e-07
11	0xb70c7eed	-8.3742025e-06
12	0xb8790b04	-5.9376485e-05
13	0xb8b0d43e	-8.431867e-05
14	0x3805a368	3.1861855e-05
15	0xbb31085f	-0.0027013046
16	0xbee24546	-0.44193476
17	0xbf1c7cb1	-0.61127764
18	0xb7a9d5e3	-2.0245969e-05
19	0xb88c01f9	-6.676088e-05
20	0xb8d5a605	-0.00010187555
21	0xb6d35e27	-6.299251e-06
22	0xb73c1119	-1.1209654e-05
23	0x34d61675	3.9876946e-07
24	0xb886c015	-6.425396e-05
25	0xb48563c3	-2.4845767e-07
26	0xb906612e	-0.00012815438
27	0xb9126bd5	-0.00013963816
28	0xbfa4f3c7	-1.2886895
29	0xb9147625	-0.00014158392
30	0xbf033a71	-0.5126105
31	0xbf6f31f7	-0.93435615

resnet_denoiser/level_1/batch_normalization_18/FusedBatchNormV31 f4 [32]
0	0x41f788d2	30.941807
1	0x4126ce59	10.425378
2	0x3e9af0c7	0.30261824
3	0x4298bda4	76.37039
4	0x422620ea	41.532143
5	0x40a3617c	5.10565
6	0x418dd1e6	17.72749
7	0x41b3b2b6	22.462261
8	0x425e08a3	55.508434
9	0x3ff772e0	1.9331932
10	0x3fbdc526	1.482579
11	0x4155255b	13.32162
12	0x418718b0	16.887054
13	0x41b54b8a	22.661884
14	0xbf252524	-0.645098
15	0x41d37ff9	26.437487
16	0x41c63e01	24.780275
17	0x412b979a	10.724512
18	0x40b0c9ba	5.524625
19	0x4199281f	19.14459
20	0x423c7f66	47.124413
21	0x403705f1	2.8597376
22	0x4219a1d6	38.408043
23	0xbfcf80d3	-1.6211189
24	0x420a0cce	34.512505
25	0x3e5e5871	0.21713425
26	0x4157be3d	13.483945
27	0x4165764e	14.341383
28	0x41f22820	30.269592
29	0x3f601dc1	0.875454
30	0x40ad7a8a	5.4212084
31	0x425e0218	55.502045

resnet_denoiser/level_1/batch_normalization_19/FusedBatchNormV3 f4 [16]
0	0xbeed0c25	-0.46298328
1	0x3ad1085e	0.0015947928
2	0xbea29aea	-0.31758815
3	0x3a21dc59	0.0006174497
4	0xbf9086ab	-1.1291097
5	0x3b67735e	0.0035316567
6	0xbf2db546	-0.67854726
7	0xbe640356	-0.22266898
8	0xc1043a77	-8.264274
9	0xba8a253b	-0.001053966
10	0x3bba092c	0.005677363
11	0xba2567e8	-0.0006309734
12	0xbc0ac65a	-0.008470142
13	0xbe36d5b5	-0.1785496
14	0xbe641272	-0.22272661
15	0xbeae7410	-0.34072924

resnet_denoiser/level_1/batch_normalization_19/FusedBatchNormV31 f4 [16]
0	0x3f634df8	0.88790846
1	0xbb9ec200	-0.004844904
2	0x3eb9b9d9	0.36274603
3	0xbcd76f81	-0.026298286
4	0x3f5a4d36	0.85274065
5	0xbdd3ef35	-0.103483595
6	0x3f5b0f21	0.8556996
7	0x3e733625	0.23751123
8	0x407fca3b	3.9967182
9	0x3c898e6f	0.01679155
10	0xbf4b2ef4	-0.7936852
11	0x3cb720c4	0.022354491
12	0x3ef4b0ec	0.4779123
13	0x3e5b6219	0.2142414
14	0x3f0a80ed	0.54102975
15	0x3ecbad34	0.3978058

resnet_denoiser/level_1/batch_normalization_20/FusedBatchNormV3 f4 [32]
0	0xbf204e08	-0.62619066
1	0x383c6ffd	4.492699e-05
2	0xb72b8e39	-1.0225508e-05
3	0xb50c9e10	-5.2384075e-07
4	0xbf898de8	-1.0746431
5	0x383ad20c	4.4541477e-05
6	0x35368f56	6.8008865e-07
7	0xb74000e7	-1.1444302e-05
8	0xbf38389c	-0.7196138
9	0xb9b32adc	-0.00034173473
10	0xb61f37a8	-2.3725242e-06
11	0xb89300e3	-7.0096714e-05
12	0xbfc9ea2f	-1.5774592
13	0xbef10ffe	-0.47082514
14	0x37dbce72	2.6202968e-05
15	0xb7dfc92f	-2.6677355e-05
16	0xbf052058	-0.5200248
17	0xbf2d8fe2	-0.6779767
18	0xb6c999f5	-6.0081898e-06
19	0xb724d5c9	-9.8249375e-06
20	0xb619bc6a	-2.2908448e-06
21	0xb87be819	-6.005922e-05
22	0xb5331662	-6.671527e-07
23	0xb710923a	-8.617115e-06
24	0xb6f18653	-7.197997e-06
25	0xb99922e9	-0.00029208444
26	0xc083ba1a	-4.1164675
27	0xb895e06c	-7.1466755e-05
28	0xbed21ae2	-0.41036135
29	0x3959d0b8	0.00020772486
30	0xbf26add7	-0.6510901
31	0xc01e8f24	-2.4774866

resnet_denoiser/level_1/batch_normalization_20/FusedBatchNormV31 f4 [32]
0	0x40ef9107	7.4864535
1	0xbe74b6b6	-0.23897824
2	0x4194f963	18.62177
3	0x3f3c44fc	0.7354276
4	0x4282407f	65.12597
5	0xbf82aee1	-1.0209619
6	0xbf6c227f	-0.92240137
7	0x416b444a	14.704172
8	0x408fb50c	4.4908504
9	0x3fc8f21c	1.5698886
10	0x3fa8859e	1.3165777
11	0x420ae548	34.723907
12	0x4204b48c	33.176315
13	0x41299f11	10.601335
14	0xbf1858bd	-0.59510404
15	0x3f1d66ba	0.61484873
16	0x416210b0	14.129074
17	0x4141656c	12.087261
18	0x41a2f0a1	20.367495
19	0x41e90f16	29.132366
20	0x3fe4a515	1.7862879
21	0x42407c8d	48.12163
22	0x40347be1	2.820061
23	0x41e2cc6b	28.349813
24	0x3fee0a22	1.8596842
25	0x427f32a1	63.799442
26	0x4244eb1e	49.229607
27	0x3f54bab5	0.8309739
28	0x427bb30f	62.924862
29	0xbfcbe58e	-1.592943
30	0x40e760aa	7.23055
31	0x41f319bf	30.387571

resnet_denoiser/level_1/batch_normalization_21/FusedBatchNormV3 f4 [16]
0	0xbe55841e	-0.2085118
1	0xbe85fe1e	-0.2617044
2	0xbe63c315	-0.22242387
3	0xb85bff74	-5.2451578e-05
4	0xbe7f69fc	-0.24942774
5	0xb97cfb58	-0.00024126226
6	0xbe8d3af3	-0.27584037
7	0xbf3c2429	-0.73492676
8	0xbed0a9b2	-0.40754467
9	0xb9a19602	-0.00030820078
10	0x38ad61c7	8.267495e-05
11	0x39629e1f	0.00021611944
12	0xba273617	-0.00063786044
13	0xbebc33c7	-0.36758253
14	0xbe60daef	-0.21958517
15	0xbe7dd1ed	-0.24787112

resnet_denoiser/level_1/batch_normalization_21/FusedBatchNormV31 f4 [16]
0	0x3de39830	0.11113012
1	0x3ef63d0a	0.48093444
2	0x3dde8010	0.1086427
3	0x3b0ee362	0.0021803011
4	0x3da0ae93	0.078457974
5	0x3be4f3dd	0.0069870786
6	0x3e1fbd22	0.15599492
7	0x3f3c6153	0.73586005
8	0x3dda22cf	0.106511705
9	0x3b9fefa9	0.0048808646
10	0xbc2ea74b	-0.010660003
11	0xbbf73215	-0.007543812
12	0x3d0fc256	0.035097443
13	0x3e82ee63	0.255725
14	0x3e27f429	0.16401733
15	0x3e1f943a	0.15583888

resnet_denoiser/level_2/batch_normalization_22/FusedBatchNormV3 f4 [16]
0	0xbd447799	-0.04796562
1	0xc07c01bb	-3.9376056
2	0xbf0a36d7	-0.5398993
3	0xbf0bb19d	-0.5456789
4	0xbf1ff009	-0.6247564
5	0xbfe2abd7	-1.7708691
6	0xba133b78	-0.00056164665
7	0xbe6f9540	-0.23396778
8	0xbf876040	-1.0576248
9	0xbd670ef7	-0.056410756
10	0xbe034e24	-0.12822777
11	0xbe73eba4	-0.23820359
12	0xbf2b699c	-0.6695802
13	0xbda62ca6	-0.08113985
14	0xbfb4d107	-1.412629
15	0xbd4a6810	-0.049415648

resnet_denoiser/level_2/batch_normalization_22/FusedBatchNormV31 f4 [16]
0	0x41462a93	12.385394
1	0x408e126b	4.4397483
2	0x408d6a3c	4.419218
3	0x4155b6af	13.3571005
4	0x403aa170	2.9161034
5	0x40abe09f	5.3711696
6	0x3d67e3f5	0.05661388
7	0x4039f257	2.9054163
8	0x3fa8e602	1.3195193
9	0x41333040	11.19928
10	0x4122d727	10.177527
11	0x417d8bd7	15.846641
12	0x408e8d19	4.454724
13	0x40ff2f34	7.974512
14	0x3f8beb5a	1.0931199
15	0x408aeddc	4.3415356

resnet_denoiser/level_2/batch_normalization_23/FusedBatchNormV3 f4 [32]
0	0xbe4a3574	-0.19746953
1	0xbf97f40f	-1.1871356
2	0xbe6d2f21	-0.2316251
3	0xbf600c40	-0.8751869
4	0xb7a44019	-1.9580171e-05
5	0xbe622ff1	-0.220886
6	0xbe6c8725	-0.23098429
7	0xbea7a876	-0.32745713
8	0xbeafc54e	-0.3433022
9	0xbdbbdf49	-0.09173448
10	0xbf148ddb	-0.58028954
11	0xbf084ecc	-0.53245234
12	0xb75fe90c	-1.3346096e-05
13	0x349f399a	2.9657969e-07
14	0xbe897855	-0.2684962
15	0xbe79c096	-0.24389872
16	0x371f9e5a	9.514008e-06
17	0xbf34835a	-0.70512927
18	0xbd835545	-0.06412748
19	0xbe889161	-0.26673415
20	0xbfb93f61	-1.4472467
21	0xbe71784e	-0.23581049
22	0xbe8acf34	-0.27111208
23	0xbe87c5be	-0.26518053
24	0xbed283a4	-0.4111606
25	0xbe4cb9ef	-0.19992803
26	0xbf02fb5e	-0.51164806
27	0xbe036011	-0.12829615
28	0x383e0a7c	4.5309294e-05
29	0xbeb1ba2f	-0.3471236
30	0xbfadc3e2	-1.3575404
31	0xbf1d5923	-0.61464137

resnet_denoiser/level_2/batch_normalization_23/FusedBatchNormV31 f4 [32]
0	0x41c829fc	25.0205
1	0x4287a1d4	67.81607
2	0x3fac957b	1.3483118
3	0x407f7980	3.9917908
4	0x3f04747f	0.5174026
5	0x42389c21	46.15247
6	0x415f745f	13.965911
7	0x413e2a7a	11.88537
8	0x421d01c6	39.25173
9	0x42084189	34.064
10	0x41153e34	9.327686
11	0x40fa4c5d	7.8218217
12	0x41976bb2	18.927586
13	0xbf01aa29	-0.5065027
14	0x420cf1a1	35.235966
15	0x4217e57d	37.97411
16	0xbe0f0b22	-0.1396909
17	0x41a001be	20.00085
18	0x420bab18	34.917084
19	0x4180c9c1	16.098513
20	0x41aa9888	21.324478
21	0x40c5c3c2	6.180146
22	0x3fabf2e2	1.3433497
23	0x3fdf8104	1.7461247
24	0x41c3212c	24.391197
25	0x419dec01	19.740236
26	0x42267866	41.617577
27	0x4141e1d2	12.117632
28	0xbf0d811a	-0.5527512
29	0x40db9560	6.8619843
30	0x42817261	64.7234
31	0x426afe13	58.74812

resnet_denoiser/level_2/batch_normalization_24/FusedBatchNormV3 f4 [16]
0	0xbf5e5136	-0.8684267
1	0xbfb9ac45	-1.4505697
2	0xbed0ce61	-0.40782455
3	0xbf7fd9e7	-0.9994187
4	0xbe60c277	-0.21949182
5	0xbf18c147	-0.5966992
6	0xc02a93e7	-2.6652772
7	0xbfc06000	-1.5029297
8	0xc06a4976	-3.6607337
9	0xbdfcfbfa	-0.12352748
10	0xbef11b56	-0.47091168
11	0xc06b6e52	-3.6786084
12	0xbf2131cf	-0.62966627
13	0xc0a7dbdb	-5.245588
14	0xbfbd4bc1	-1.4788743
15	0xbeebce12	-0.46055657

resnet_denoiser/level_2/batch_normalization_24/FusedBatchNormV31 f4 [16]
0	0x4168c5e6	14.548315
1	0x3fba9f50	1.4579868
2	0x3f58467d	0.84482557
3	0x403da587	2.963228
4	0x3f1651d2	0.587186
5	0x3f56afa8	0.8386178
6	0x40359bda	2.8376374
7	0x401b5a37	2.4273813
8	0x407a69a7	3.9126985
9	0x40233064	2.5498285
10	0x3fc409ce	1.5315492
11	0x4095916f	4.674003
12	0x404b7088	3.1787434
13	0x40b68ca6	5.704669
14	0x3f7e647a	0.99372065
15	0x4009303b	2.1435688

resnet_denoiser/level_2/batch_normalization_25/FusedBatchNormV3 f4 [32]
0	0xbed9d1a7	-0.42542765
1	0xbed30d4a	-0.41221076
2	0xbec9da57	-0.39424393
3	0xbc55e57d	-0.013055203
4	0xbee0fb31	-0.43941644
5	0xbe96d855	-0.29461923
6	0xbf5080e7	-0.8144669
7	0xbf1da33a	-0.6157719
8	0xbe5b86d0	-0.21438146
9	0x37a70949	1.9912275e-05
10	0xbf4d6366	-0.80229795
11	0x3904c25a	0.00012660903
12	0xbf0fe370	-0.5620642
13	0xbea3ac38	-0.3196733
14	0xbf0295ed	-0.5101002
15	0xbf6f1f7e	-0.9340743
16	0xbe1489ab	-0.14505641
17	0xbe9c50bb	-0.30530342
18	0xbe507779	-0.20358075
19	0xb87e842d	-6.0681417e-05
20	0xbe489ceb	-0.1959111
21	0xc0d6724b	-6.701452
22	0xbee3b33b	-0.4447268
23	0xbf1c72a0	-0.61112404
24	0xbe1fee60	-0.15618277
25	0xb808150d	-3.2444532e-05
26	0xbf146574	-0.57967305
27	0xbf1895b0	-0.59603405
28	0xb92b5f02	-0.00016343224
29	0xbeaf6236	-0.34254616
30	0xbed9a5e5	-0.4250938
31	0x38842405	6.30096e-05

resnet_denoiser/level_2/batch_normalization_25/FusedBatchNormV31 f4 [32]
0	0x4113f54d	9.247388
1	0x4159a9ad	13.603925
2	0x41aaadee	21.334927
3	0x41b8728a	23.055927
4	0x423df81a	47.492287
5	0x412321e5	10.195775
6	0x416ae079	14.679803
7	0x40a3397a	5.100766
8	0x41022e47	8.136298
9	0xbe9b5c39	-0.30343798
10	0x419f01c4	19.875862
11	0xbf66dc34	-0.90179753
12	0x40a7fe60	5.2498016
13	0x4112e0f0	9.179916
14	0x408b205f	4.3477015
15	0x409211ad	4.5646577
16	0x40fa562f	7.8230205
17	0x40f59693	7.6746306
18	0x41b56a7a	22.67699
19	0x3f71b946	0.9442333
20	0x3f0fda6c	0.5619266
21	0x4202f337	32.737514
22	0x40616fcd	3.5224488
23	0x40ab2c2d	5.3491426
24	0x40847b4c	4.140051
25	0x3ec58243	0.38575944
26	0x41363fa1	11.390534
27	0x400a13fa	2.1574693
28	0x3f97c3be	1.1856611
29	0x4125b10a	10.355722
30	0x416e7cd4	14.905476
31	0xbea34607	-0.31889364

resnet_denoiser/level_2/batch_normalization_26/FusedBatchNormV3 f4 [16]
0	0xbf2f0bca	-0.68377364
1	0xbfe5bbad	-1.7947899
2	0xbfafc0b3	-1.3730682
3	0xbfb45b74	-1.4090409
4	0xbf0a00e3	-0.53907603
5	0xbfa0016d	-1.2500435
6	0xc077cc1d	-3.871833
7	0xbfadb944	-1.3572164
8	0xc0418a4e	-3.0240664
9	0xbf990a98	-1.1956358
10	0xbe6df8ba	-0.23239413
11	0xc01d3f9f	-2.4570081
12	0xbf358f60	-0.709219
13	0xbffd8d42	-1.9808733
14	0xc0b41445	-5.6274743
15	0xbf003796	-0.5008482

resnet_denoiser/level_2/batch_normalization_26/FusedBatchNormV31 f4 [16]
0	0x40356120	2.834053
1	0x3fd1dff5	1.6396471
2	0x3fc8acd1	1.5677739
3	0x4066e8f7	3.607969
4	0x3fa43bd0	1.2830753
5	0x3f6c992e	0.92421234
6	0x407a3912	3.9097333
7	0x3f991e35	1.1962343
8	0x403805ca	2.8753533
9	0x40a7433d	5.226958
10	0x3ef91248	0.4864676
11	0x40127f81	2.2890322
12	0x4010b132	2.2608151
13	0x3fe5343c	1.7906566
14	0x4050b768	3.2611942
15	0x3fb495bb	1.4108194

resnet_denoiser/level_2/batch_normalization_27/FusedBatchNormV3 f4 [32]
0	0xbeacb61d	-0.3373269
1	0xbea0bf33	-0.31395873
2	0xb77c783f	-1.50483675e-05
3	0xbec7ea19	-0.3904579
4	0xbea6889a	-0.32526094
5	0xbf2254ea	-0.6341082
6	0xbf43f231	-0.7654143
7	0xbea53f2d	-0.32274762
8	0xbeb94806	-0.36187762
9	0x390a0bb1	0.00013165061
10	0xbfe2b19e	-1.7710454
11	0xbe7a9f77	-0.24474894
12	0xbf6caad5	-0.9244817
13	0xbf00725f	-0.50174516
14	0xbed86d62	-0.42270952
15	0xbf6f2296	-0.9341215
16	0xbf4760ae	-0.77881896
17	0xb999a253	-0.00029303375
18	0xbed296ed	-0.41130772
19	0xbed3efbd	-0.41393843
20	0x370a2f75	8.23649e-06
21	0xc005e617	-2.0921686
22	0xb6c1a4e5	-5.7710445e-06
23	0xbfa1c2cd	-1.2637573
24	0x39263430	0.00015850435
25	0xbeb2c9eb	-0.34919676
26	0xbefa0d1c	-0.48838127
27	0xbe91dbca	-0.28487998
28	0xbf3a5719	-0.7278915
29	0xbeddf2fe	-0.4334945
30	0xbebfe178	-0.37476707
31	0xbf183a9c	-0.5946443

resnet_denoiser/level_2/batch_normalization_27/FusedBatchNormV31 f4 [32]
0	0x401e6b2b	2.475291
1	0x414a6d9f	12.651763
2	0x3e39faf7	0.18162142
3	0x419e4bf7	19.787092
4	0x4190d675	18.104715
5	0x40e9e038	7.3086205
6	0x40c412de	6.127303
7	0x415b1d5d	13.694669
8	0x4156813b	13.40655
9	0xbf377ad2	-0.71671784
10	0x418093aa	16.072102
11	0x4163f38e	14.246962
12	0x40ddd5bd	6.932341
13	0x40ca306f	6.3184123
14	0x41c13d6f	24.154997
15	0x41666ba0	14.401276
16	0x4128c0e8	10.547096
17	0x3f7f7488	0.9978719
18	0x4150aaa1	13.041657
19	0x412cf465	10.809667
20	0xbd654cdd	-0.055981506
21	0x4268a87c	58.164536
22	0x3cab293d	0.020893687
23	0x4173d659	15.239831
24	0xbf7893bb	-0.9710042
25	0x408ab9a4	4.335161
26	0x41f66b41	30.80237
27	0x41c3a6c1	24.456423
28	0x40cf7270	6.4827194
29	0x40a52214	5.16041
30	0x412cb740	10.794739
31	0x41604adc	14.018276

resnet_denoiser/level_2/batch_normalization_28/FusedBatchNormV3 f4 [16]
0	0xba5fd880	-0.0008539036
1	0xc01c461b	-2.441779
2	0xc0cbf2d3	-6.3733916
3	0xc0328cc5	-2.789842
4	0xbf4f348d	-0.8093956
5	0xbf3c13cd	-0.73467714
6	0xc09a7135	-4.826319
7	0xc0ad35f1	-5.4128346
8	0xc0134a38	-2.301405
9	0xbf96c0e2	-1.1777613
10	0xbedfb5a3	-0.43693265
11	0xc029cfc9	-2.6533072
12	0xbf7cf878	-0.98816633
13	0xc09359f5	-4.604731
14	0xc0ab7424	-5.3579273
15	0xbf14b5f1	-0.5809012

resnet_denoiser/level_2/batch_normalization_28/FusedBatchNormV31 f4 [16]
0	0x3aebbcd5	0.0017985353
1	0x40045b02	2.0680547
2	0x4099cb8a	4.806096
3	0x408dfa54	4.4368076
4	0x3f8a7199	1.0815917
5	0x3f01a028	0.50635004
6	0x40859d71	4.175469
7	0x4055c763	3.3402946
8	0x3fa9d5a0	1.3268318
9	0x408caa88	4.395817
10	0x3f298b0b	0.6622779
11	0x3ff9a0f7	1.9502248
12	0x4025039f	2.578346
13	0x40791972	3.892178
14	0x40337a90	2.8043556
15	0x3f96d663	1.1784176

resnet_denoiser/level_2/batch_normalization_29/FusedBatchNormV3 f4 [32]
0	0x35073944	5.037475e-07
1	0xb66cd227	-3.5289065e-06
2	0xb8cca081	-9.757374e-05
3	0xbf11dfc0	-0.5698204
4	0xbf0423b3	-0.5161697
5	0xbf1c77d7	-0.6112036
6	0xbf43749d	-0.7634981
7	0xbf3ede04	-0.7455752
8	0xbf89486c	-1.0725226
9	0xb8c123b4	-9.2096074e-05
10	0xbeb5a9f8	-0.35481238
11	0xbedc7fc2	-0.4306622
12	0xbf4c3c33	-0.79779357
13	0x39312c14	0.00016896456
14	0xbec580c1	-0.38574794
15	0xbeb42a58	-0.35188556
16	0xc01e6197	-2.4747064
17	0xbfab627c	-1.338943
18	0xb91088b3	-0.00013783835
19	0xbee157a7	-0.44012186
20	0xc07961f1	-3.8966029
21	0xbe6ab3ca	-0.22920147
22	0xbf47ce1e	-0.78048885
23	0xb9256acd	-0.00015775413
24	0xbf93d0ed	-1.1548134
25	0x38680d3f	5.5325447e-05
26	0xb87b05d2	-5.9848484e-05
27	0xbece30bc	-0.40271556
28	0xbf62a1f6	-0.8852838
29	0xbee2d5af	-0.44303653
30	0xbeb86620	-0.36015415
31	0x38c02f12	9.164041e-05

resnet_denoiser/level_2/batch_normalization_29/FusedBatchNormV31 f4 [32]
0	0xbf5548f1	-0.83314425
1	0x40d021ad	6.504111
2	0x3f761770	0.9612951
3	0x416a9bec	14.663067
4	0x416a25ec	14.634258
5	0x402b5cd1	2.67754
6	0x41000568	8.00132
7	0x4135b5cc	11.356884
8	0x42265978	41.58737
9	0x3f1041c3	0.56350344
10	0x42010d91	32.26325
11	0x41139ef8	9.226311
12	0x41852163	16.641302
13	0xbed3feb7	-0.4140527
14	0x402199b5	2.5250065
15	0x4038ecec	2.8894606
16	0x41089a74	8.537708
17	0x41332202	11.195803
18	0x3f2e76d5	0.68150073
19	0x419c6daa	19.553547
20	0x41f3246c	30.392784
21	0x3fbf318e	1.4936998
22	0x4118157b	9.505244
23	0x3f06af72	0.5261146
24	0x41b80ead	23.007166
25	0xbe5886bd	-0.21145149
26	0x3e451484	0.19246107
27	0x40f0fe49	7.5310407
28	0x4116f723	9.435336
29	0x41203b48	10.014473
30	0x413410e8	11.2541275
31	0xbf254d3d	-0.6457098

resnet_denoiser/level_2/batch_normalization_30/FusedBatchNormV3 f4 [16]
0	0xbf359b50	-0.70940113
1	0xc013a43c	-2.306899
2	0xc08e44f7	-4.4459186
3	0xbf90ae8d	-1.1303269
4	0xbed9e7e3	-0.42559728
5	0xbf8b8e8a	-1.0902874
6	0xc011d1a1	-2.2784197
7	0xbeb43a55	-0.35200754
8	0xbf58a485	-0.84626037
9	0xbea384fb	-0.31937394
10	0xbe4f3189	-0.2023374
11	0xbf2599c5	-0.6468776
12	0xbe8313f2	-0.25601155
13	0xc0402bf2	-3.0026822
14	0xbfd519c5	-1.6648489
15	0xbf09fc14	-0.53900266

resnet_denoiser/level_2/batch_normalization_30/FusedBatchNormV31 f4 [16]
0	0x3f90500d	1.127443
1	0x3fe26084	1.7685704
2	0x403aea67	2.9205568
3	0x3fa9d7d3	1.3268989
4	0x3f108215	0.5644849
5	0x3f39c041	0.7255898
6	0x3fe12e94	1.759234
7	0x3e2553a5	0.16145189
8	0x3eda7f7e	0.42675394
9	0x3f9851b6	1.1899936
10	0x3e0c912f	0.13727258
11	0x3ee40891	0.44537786
12	0x3ee2a0f0	0.4426341
13	0x401289c5	2.2896588
14	0x3f5cc694	0.86240506
15	0x3f443100	0.7663727

resnet_denoiser/level_2/batch_normalization_31/FusedBatchNormV3 f4 [32]
0	0xbf9baea2	-1.2162669
1	0xbee60e7d	-0.4493293
2	0x381351ec	3.5123827e-05
3	0xbed07d9a	-0.40720826
4	0xbf1e07cb	-0.6173064
5	0xbf4a0012	-0.7890636
6	0xbf14c5a2	-0.58114064
7	0xbf05773c	-0.5213506
8	0xbe2d9619	-0.16951789
9	0xb7b8cbfb	-2.2029495e-05
10	0xb962a6b9	-0.00021615149
11	0xbf9ecfd0	-1.2407169
12	0xbe99d5d0	-0.30045938
13	0xbf5a460a	-0.8526312
14	0xc02426d5	-2.56487
15	0xc03f4209	-2.9884055
16	0xbf0db723	-0.5535757
17	0xbfd2a94c	-1.6457915
18	0x375dfc33	1.3231346e-05
19	0x3716208a	8.948273e-06
20	0xc0827417	-4.076671
21	0xbf13739c	-0.5759828
22	0xbedcf8b1	-0.43158486
23	0xbf2b6a71	-0.6695929
24	0xbe7cbd13	-0.24681501
25	0xbea8ad18	-0.3294456
26	0xbe931b4a	-0.28731757
27	0xbefb8cc8	-0.49130845
28	0xbebf21e8	-0.37330556
29	0xb884ee97	-6.338691e-05
30	0xbecd4f77	-0.4009969
31	0xbe915480	-0.2838478

resnet_denoiser/level_2/batch_normalization_31/FusedBatchNormV31 f4 [32]
0	0x417e8ca4	15.909336
1	0x408a96d5	4.330912
2	0xbe673065	-0.22577055
3	0x41167aae	9.404951
4	0x41178711	9.470475
5	0x410188ec	8.095928
6	0x416e2cad	14.885907
7	0x41ca2a9c	25.270805
8	0x426d1e3f	59.279537
9	0x3e99e224	0.30055344
10	0x3f07dba6	0.5306953
11	0x411f8aa2	9.971346
12	0x41de1f25	27.765207
13	0x4199a11f	19.203672
14	0x425d521b	55.33018
15	0x429fb999	79.862495
16	0x40a2a657	5.082805
17	0x41e3e221	28.485415
18	0xbe744e80	-0.2385807
19	0xbe3035a4	-0.17207962
20	0x4268d9e0	58.21277
21	0x40e9882c	7.2978725
22	0x41de4d70	27.787811
23	0x41daaf82	27.335697
24	0x42633fd0	56.812317
25	0x41785ff6	15.523428
26	0x41248a53	10.283771
27	0x4080831c	4.0160046
28	0x41eb7710	29.433136
29	0x3ef47d08	0.4775164
30	0x40c90d97	6.282909
31	0x40b77b3d	5.7337937

resnet_denoiser/level_2/batch_normalization_32/FusedBatchNormV3 f4 [16]
0	0xbe8d1b50	-0.275599
1	0xbeff0c99	-0.498143
2	0xbf1bde7d	-0.60886365
3	0xbe910f6d	-0.2833208
4	0x3a29c69a	0.00064764323
5	0xbefd9e71	-0.49534944
6	0x3a8b1749	0.0010611798
7	0xbf5048eb	-0.81361264
8	0xbf71f27b	-0.9451062
9	0xb8109022	-3.446651e-05
10	0xbe7768fc	-0.24161142
11	0xbeef5419	-0.4674385
12	0xbe5e420f	-0.21704887
13	0xbfb024fd	-1.3761288
14	0x3b2cb9ba	0.002635582
15	0xbe841285	-0.2579538

resnet_denoiser/level_2/batch_normalization_32/FusedBatchNormV31 f4 [16]
0	0x3ec7be58	0.39012408
1	0x3ec2d0bf	0.38049886
2	0x3ea52ac3	0.32259187
3	0x3e22febc	0.15917486
4	0xba611056	-0.0008585503
5	0x3e78e49d	0.24305959
6	0xba56b95d	-0.00081910734
7	0x3e896c69	0.26840523
8	0x3eda120d	0.42591897
9	0x39066e2d	0.0001282028
10	0x3df4f48e	0.119607076
11	0x3e1faa71	0.15592362
12	0x3e2546aa	0.16140237
13	0x3f7efc86	0.9960407
14	0xbab2e884	-0.0013649617
15	0x3e30bdc5	0.17259891

resnet_denoiser/level_3/batch_normalization_33/FusedBatchNormV3 f4 [16]
0	0xbfa711b6	-1.305228
1	0xbf3cd1f5	-0.7375787
2	0xbe55e7fd	-0.20889278
3	0xbdc35a87	-0.09538751
4	0xc076bc4f	-3.8552434
5	0xc134dd45	-11.304021
6	0xbe7a21f9	-0.24427022
7	0xc043fd65	-3.062341
8	0xbdabc450	-0.08387053
9	0xbdc199cf	-0.09453165
10	0xbe8b1d3c	-0.27170742
11	0xbc7db37e	-0.015484689
12	0xbe203802	-0.15646365
13	0xbe321c6d	-0.17393656
14	0xbe2a95cd	-0.16658707
15	0xbf4ab708	-0.79185534

resnet_denoiser/level_3/batch_normalization_33/FusedBatchNormV31 f4 [16]
0	0x40d87ae8	6.765003
1	0x3f95bcf5	1.169829
2	0x4303f161	131.94289
3	0x41baea54	23.364418
4	0x42c2f0e0	97.47046
5	0x42b31935	89.54923
6	0x3ea06c68	0.31332707
7	0x41483511	12.512956
8	0x3dd88ab5	0.10573331
9	0x41ee6dde	29.803646
10	0x414ff801	12.998048
11	0x3f448ac2	0.7677423
12	0x4189dc30	17.232513
13	0x421c8acc	39.135544
14	0x3de0f8f5	0.10984985
15	0x3e6dd645	0.23226269

resnet_denoiser/level_3/batch_normalization_34/FusedBatchNormV3 f4 [32]
0	0xbeea2dbc	-0.45738018
1	0xbe801791	-0.2501798
2	0xbdd05dba	-0.10174127
3	0xbe83533d	-0.25649443
4	0xbe95f596	-0.2928893
5	0xbe6589a3	-0.22415785
6	0xc03eee47	-2.9832933
7	0xbeb625ae	-0.35575622
8	0xbe4e4701	-0.20144273
9	0xbe1c8f16	-0.15288958
10	0xbe4dfddb	-0.2011637
11	0xbea7b473	-0.3275486
12	0xbedbabf2	-0.4290462
13	0xbe24e030	-0.16101146
14	0xbe644636	-0.22292408
15	0xbde3f913	-0.111314915
16	0xbd922b3b	-0.07137152
17	0xbddc9866	-0.10771255
18	0xc0022fc1	-2.0341647
19	0xbea7889f	-0.3272142
20	0xbe8fea7b	-0.28108582
21	0xbe7d8bf3	-0.24760418
22	0xbdaa4436	-0.083137915
23	0xbd9d457e	-0.0767927
24	0xc11ece7d	-9.925412
25	0xc0249c02	-2.572022
26	0xc0677b0f	-3.616886
27	0xbec3b88a	-0.3822673
28	0xbe05907c	-0.13043398
29	0xbe116ccc	-0.14201659
30	0xbed77e82	-0.42088705
31	0xbe8f3cc8	-0.2797606

resnet_denoiser/level_3/batch_normalization_34/FusedBatchNormV31 f4 [32]
0	0x40a21b28	5.065815
1	0x40993c3d	4.7886033
2	0x40b3a7f0	5.61425
3	0x409603f3	4.687982
4	0x40e169fb	7.044187
5	0x4114b1ef	9.293441
6	0x42858f39	66.77973
7	0x419b03b2	19.376804
8	0x3f60168b	0.875344
9	0x3f93f65b	1.1559557
10	0x3e90d0c6	0.28284281
11	0x3f0a40c3	0.5400507
12	0x41f4f71d	30.62066
13	0x420785fc	33.880844
14	0x40aa1f78	5.3163414
15	0x3f7b30f0	0.9812155
16	0x42233f34	40.81172
17	0x4233ad15	44.919025
18	0x428482b0	66.25525
19	0x41668bf6	14.40917
20	0x402d514d	2.7080872
21	0x406128cd	3.5181153
22	0x427d0441	63.254154
23	0x425b9e29	54.904453
24	0x426964fa	58.34861
25	0x4225f407	41.488308
26	0x42339ff2	44.906197
27	0x40bc09b9	5.876187
28	0x421c25fb	39.03709
29	0x4249935a	50.393898
30	0x4190362b	18.02645
31	0x41289a7e	10.537718

resnet_denoiser/level_3/batch_normalization_35/FusedBatchNormV3 f4 [16]
0	0xbe9b8e3a	-0.30381948
1	0xbe70b943	-0.23508172
2	0xc02dfdf5	-2.7186253
3	0xbeb8af09	-0.3607104
4	0xbe275f24	-0.16344887
5	0xc044087b	-3.0630176
6	0xc06115d1	-3.5169566
7	0xbe4057c0	-0.18783474
8	0xc155ebec	-13.370098
9	0xc088762d	-4.2644258
10	0xc0422ee8	-3.034113
11	0xbdf24d98	-0.11831206
12	0xbdf4f46c	-0.11960682
13	0xbe45e73e	-0.19326493
14	0xc09e2046	-4.9414396
15	0xc1653dd6	-14.327597

resnet_denoiser/level_3/batch_normalization_35/FusedBatchNormV31 f4 [16]
0	0x3f50b429	0.815249
1	0x3ea3f129	0.32019928
2	0x41e71e00	28.889648
3	0x3f544824	0.8292258
4	0x3e5a55a5	0.21321733
5	0x41320767	11.126807
6	0x401b0ab6	2.4225287
7	0x3e9d7d89	0.30759838
8	0x413233de	11.137663
9	0x405c169d	3.4388802
10	0x40f8067d	7.750792
11	0x3ec2a14f	0.38013694
12	0x3f58e2a2	0.84720814
13	0x3e862c4d	0.26205674
14	0x4022dfe3	2.544915
15	0x405f216b	3.4864147

resnet_denoiser/level_3/batch_normalization_36/FusedBatchNormV3 f4 [32]
0	0xbf70dc1c	-0.9408586
1	0xbef5d75c	-0.4801587
2	0xbe998741	-0.29986003
3	0xbeaa0e92	-0.3321424
4	0xbe6312e4	-0.22175175
5	0xbe9ae243	-0.3025075
6	0xbef2cdfe	-0.47422785
7	0xc0caceca	-6.337743
8	0xbe518fe5	-0.20465048
9	0xc07ac345	-3.9181683
10	0xbef6d86d	-0.48211995
11	0xbee14140	-0.43995094
12	0xbe9c1b7b	-0.30489716
13	0xbe7f4b16	-0.24930987
14	0xbe089530	-0.1333816
15	0xbe05d0cc	-0.13067931
16	0xbe65555e	-0.22395846
17	0xbe31ffd8	-0.17382753
18	0xbebdbd4e	-0.3705849
19	0xbe2e360b	-0.17012803
20	0xbe5eb74a	-0.21749607
21	0xbf199a26	-0.60000837
22	0xc01b25b3	-2.424176
23	0xbf44b977	-0.76845497
24	0xbfe63c3a	-1.798713
25	0xbeb50559	-0.35355642
26	0xc0a82793	-5.254831
27	0xbf227850	-0.6346483
28	0xbeb7d190	-0.3590207
29	0xbeaeedd0	-0.34165812
30	0xbee52411	-0.4475408
31	0xbe8d653a	-0.27616292

resnet_denoiser/level_3/batch_normalization_36/FusedBatchNormV31 f4 [32]
0	0x41bb14ec	23.385216
1	0x41d10903	26.1294
2	0x428726c7	67.57574
3	0x4237c2cc	45.94023
4	0x3fe3125f	1.7739981
5	0x401f0cc6	2.4851546
6	0x408d22f4	4.4105167
7	0x41a3c695	20.471964
8	0x41b7f418	22.994186
9	0x42a2ae34	81.34024
10	0x3fde8310	1.7383747
11	0x4016b78a	2.3549523
12	0x4106cf81	8.42566
13	0x40f35351	7.6039205
14	0x42011150	32.266907
15	0x4247d189	49.954624
16	0x4011a5c9	2.2757437
17	0x3f3df4c4	0.7420161
18	0x408bfbde	4.3744955
19	0x40712bc0	3.7682953
20	0x405dcd64	3.465661
21	0x4095fd34	4.6871586
22	0x42842703	66.076195
23	0x4286dbfc	67.42966
24	0x428d07fa	70.51558
25	0x42716567	60.349026
26	0x4203a6a8	32.91275
27	0x41f91516	31.135296
28	0x408b0832	4.3447504
29	0x406ebfd6	3.7304587
30	0x40333bf3	2.800534
31	0x3fddde11	1.7333394

resnet_denoiser/level_3/batch_normalization_37/FusedBatchNormV3 f4 [16]
0	0xbef9dede	-0.48802847
1	0xbee71412	-0.451325
2	0xbf6fb2a7	-0.93631977
3	0xbe069eaf	-0.1314647
4	0xbea4d154	-0.32190955
5	0xbfbfe21f	-1.4990882
6	0xc0a92a47	-5.286411
7	0xc05dbb8c	-3.464572
8	0xc0a13097	-5.0371814
9	0xc1256f99	-10.3397455
10	0xbfcc3ce7	-1.5956086
11	0xbe887c2a	-0.2665723
12	0xbdb4fcc5	-0.088372745
13	0xbefba847	-0.49151823
14	0xc0eb7c46	-7.35892
15	0xc010020c	-2.250125

resnet_denoiser/level_3/batch_normalization_37/FusedBatchNormV31 f4 [16]
0	0x3f2fc225	0.68655616
1	0x3ec7dfb6	0.39037865
2	0x40464b9d	3.098365
3	0x3e107a55	0.14109166
4	0x3e8a71e5	0.2704002
5	0x3fb1a8b9	1.3879615
6	0x404fbc11	3.2458537
7	0x4069bd47	3.6521776
8	0x407a2ce5	3.9089901
9	0x40878335	4.2347665
10	0x400d4964	2.2076044
11	0x3f065fb4	0.5248978
12	0x3ea9c9a9	0.33161667
13	0x3ead3104	0.33826458
14	0x4014ab4e	2.3229556
15	0x3e9f98e2	0.31171328

resnet_denoiser/level_3/batch_normalization_38/FusedBatchNormV3 f4 [32]
0	0xbf55813e	-0.8340033
1	0xbecbb3f2	-0.39785725
2	0xbfeb3fa6	-1.8378799
3	0xbfe285b1	-1.7697049
4	0xbf18e77b	-0.5972821
5	0xbe7564bd	-0.2396421
6	0xbf525789	-0.8216482
7	0xbf1c31fe	-0.6101378
8	0xbf01dd35	-0.5072816
9	0xc110ba45	-9.045476
10	0xbe9274f4	-0.28604853
11	0xbeabb49c	-0.33536232
12	0xbe9dc2ff	-0.30812833
13	0xbeb42cfc	-0.3519057
14	0xbe84d28c	-0.25941885
15	0xbea147ae	-0.315
16	0xbee0c253	-0.43898258
17	0xbf3bea9e	-0.7340487
18	0xbec22fe0	-0.3792715
19	0xbeec5b9d	-0.46163645
20	0xbed155ba	-0.40885717
21	0xbe69a188	-0.22815526
22	0xbf9c866a	-1.222852
23	0xbf87c099	-1.0605651
24	0xbe86ae23	-0.2630473
25	0xbe47169e	-0.19442222
26	0xbf031956	-0.51210535
27	0xc130fa2a	-11.061075
28	0xbf242a11	-0.6412669
29	0xbed9755e	-0.42472357
30	0xbe6c8948	-0.23099244
31	0xbe93490d	-0.2876667

resnet_denoiser/level_3/batch_normalization_38/FusedBatchNormV31 f4 [32]
0	0x41e37e95	28.436808
1	0x4161bc92	14.108538
2	0x42037960	32.86853
3	0x41a1947a	20.197498
4	0x40c89a3f	6.268829
5	0x4074a923	3.8228233
6	0x422924e0	42.28601
7	0x424524ca	49.285927
8	0x4136ac8f	11.417129
9	0x422c8914	43.133865
10	0x406a9611	3.6654093
11	0x41096ea3	8.589511
12	0x40fed316	7.9632673
13	0x41279759	10.47445
14	0x3fc98af8	1.5745535
15	0x3fbec4ef	1.4903849
16	0x40c82a54	6.255167
17	0x409b9cf5	4.86291
18	0x4059786f	3.3979757
19	0x405f0085	3.4844067
20	0x412d196c	10.8187065
21	0x41835b4b	16.419577
22	0x42805054	64.15689
23	0x41ef59e3	29.91889
24	0x423b521d	46.83019
25	0x4214e0af	37.219418
26	0x40b7aba1	5.739701
27	0x41fc3ed4	31.530678
28	0x410a791b	8.654567
29	0x416bf010	14.746109
30	0x416d7b6d	14.842633
31	0x41545176	13.269888

resnet_denoiser/level_3/batch_normalization_39/FusedBatchNormV3 f4 [16]
0	0xbec9ca5b	-0.39412197
1	0xbea1d9c7	-0.31611463
2	0xbe9d589f	-0.30731675
3	0xbf25a08e	-0.6469811
4	0xbe6ef1ea	-0.2333447
5	0xbffaff9d	-1.9609257
6	0xbfd06dce	-1.628351
7	0xc00c20c0	-2.189499
8	0xc10e2e1b	-8.886256
9	0xc09389af	-4.610557
10	0xbf17bd46	-0.59273183
11	0xbe1e4c6f	-0.15458845
12	0xbef4cfe8	-0.4781487
13	0xbe667e08	-0.22509015
14	0xc13be11d	-11.742459
15	0xc19d3b58	-19.653976

resnet_denoiser/level_3/batch_normalization_39/FusedBatchNormV31 f4 [16]
0	0x3ee829fb	0.4534453
1	0x3e575b6c	0.21030968
2	0x3ef563be	0.4792766
3	0x3f208f77	0.6271891
4	0x3e21e619	0.15810432
5	0x3fc96d1f	1.5736426
6	0x3f4ded05	0.8043979
7	0x3f695b72	0.9115516
8	0x403eaf45	2.9794476
9	0x3fb50b8c	1.4144149
10	0x3f0d2ce0	0.551466
11	0x3dd4ec9a	0.10396691
12	0x3f888f34	1.0668702
13	0x3dd04fb7	0.101714544
14	0x4062d72a	3.5443826
15	0x4024ffed	2.5781205

resnet_denoiser/level_3/batch_normalization_40/FusedBatchNormV3 f4 [32]
0	0xbf37751a	-0.7166306
1	0xbf815c10	-1.010622
2	0xc01a2297	-2.4083612
3	0xc008605a	-2.1308808
4	0xbeb68474	-0.3564793
5	0xbf25bf4a	-0.6474501
6	0xbe9ae620	-0.30253696
7	0xbfb52eca	-1.4154904
8	0xbebf22f7	-0.37331364
9	0xc06facaf	-3.7449148
10	0xbe79d153	-0.24396257
11	0xbeced4d9	-0.40396765
12	0xbeb575c7	-0.3544142
13	0xbef8334c	-0.48476636
14	0xbe99734f	-0.29970786
15	0xbe785d7f	-0.24254416
16	0xbef09fd7	-0.46996948
17	0xbe81d8de	-0.2536077
18	0xbf59ef06	-0.85130346
19	0xbf0433cb	-0.5164153
20	0xbf1e77ce	-0.6190156
21	0xbe56f76a	-0.20992818
22	0xc024612f	-2.5684316
23	0xc03d1fb4	-2.95506
24	0xbf649d25	-0.89302284
25	0xbe9d9985	-0.3078119
26	0xc0aa7b6d	-5.3275666
27	0xbf00f7c4	-0.5037806
28	0xbea09a67	-0.313678
29	0xbeb21846	-0.34784144
30	0xbedbd4d4	-0.42935812
31	0xbf6babf8	-0.9205928

resnet_denoiser/level_3/batch_normalization_40/FusedBatchNormV31 f4 [32]
0	0x42119cb5	36.403034
1	0x41edcd9c	29.725395
2	0x42205aaf	40.08856
3	0x42b84c5c	92.14914
4	0x40a97e5e	5.2966757
5	0x41d48170	26.563202
6	0x409f69ba	4.981656
7	0x41295641	10.583558
8	0x41e15a3b	28.169058
9	0x42567bf3	53.621044
10	0x40b80c03	5.7514663
11	0x40b0aaa5	5.5208306
12	0x41b7f310	22.993683
13	0x42386bf0	46.105408
14	0x40841704	4.1278095
15	0x4080f54a	4.0299425
16	0x401f96df	2.4935834
17	0x3f7e052b	0.99226636
18	0x41234f0f	10.206801
19	0x411259b8	9.146904
20	0x41c2110f	24.25833
21	0x419b301b	19.398489
22	0x4299b177	76.84661
23	0x42bb829a	93.75508
24	0x414a64dc	12.649624
25	0x41211517	10.067649
26	0x42229625	40.646626
27	0x412c19c7	10.756293
28	0x4113620e	9.211439
29	0x403e918a	2.977633
30	0x400a6413	2.162358
31	0x4086db74	4.2142887

resnet_denoiser/level_3/batch_normalization_41/FusedBatchNormV3 f4 [16]
0	0xbfaeec01	-1.3665773
1	0xbf3b9f0e	-0.73289573
2	0xbf71a785	-0.9439624
3	0xbe05386b	-0.13009803
4	0xbe93bf1a	-0.28856736
5	0xbfcefd8a	-1.6171124
6	0xc123d79a	-10.240137
7	0xc01fac03	-2.4948738
8	0xc0a92990	-5.2863235
9	0xc0bc194f	-5.8780894
10	0xc09463ec	-4.6371975
11	0xbeac93a7	-0.337064
12	0xbf49b665	-0.78793937
13	0xbeb60b0f	-0.35555312
14	0xc0c84c3c	-6.259306
15	0xc1c30c9c	-24.381157

resnet_denoiser/level_3/batch_normalization_41/FusedBatchNormV31 f4 [16]
0	0x3f70dfe4	0.9409163
1	0x3ebbb865	0.3666412
2	0x3f645dd6	0.8920568
3	0x3dd07631	0.10178793
4	0x3e1d7b3a	0.15379038
5	0x3f8ca182	1.0986788
6	0x40846991	4.1378865
7	0x3f7b50ff	0.98170465
8	0x3fd77f24	1.6835675
9	0x3fddf88f	1.7341479
10	0x4049220a	3.1427026
11	0x3e246625	0.1605459
12	0x3f900f10	1.1254597
13	0x3e0c046e	0.13673565
14	0x3fe36eab	1.7768148
15	0x4027af1e	2.6200633

resnet_denoiser/level_3/batch_normalization_42/FusedBatchNormV3 f4 [32]
0	0xbfc1b751	-1.5134069
1	0xbf940d63	-1.1566585
2	0xbeb01ae4	-0.34395516
3	0xbf08e4c0	-0.53474045
4	0xbebe5c9b	-0.37180027
5	0xbf202eb7	-0.6257128
6	0xbe98f949	-0.2987769
7	0xbfdab904	-1.7087712
8	0xc08c345c	-4.3813915
9	0xbe9aa1ac	-0.3020147
10	0xbed408de	-0.41413015
11	0xbe9abf21	-0.30223945
12	0xbf6a9392	-0.91631424
13	0xbf37050b	-0.7149207
14	0xbf521029	-0.8205591
15	0xbead2d5c	-0.3382367
16	0xbec1ce99	-0.37852934
17	0xbf1f53f9	-0.6223751
18	0xbf0b4cdc	-0.54414153
19	0xbecafea2	-0.39647394
20	0xbedac4e4	-0.4272834
21	0xbf43c553	-0.7647297
22	0xbe7cc31d	-0.24683805
23	0xc0ded129	-6.9630322
24	0xbe5970aa	-0.21234384
25	0xbebbef49	-0.36705998
26	0xbeaed07a	-0.3414343
27	0xbe6d54ab	-0.2317683
28	0xbedc7a2e	-0.43061966
29	0xbf0e30bf	-0.5554313
30	0xbf084f60	-0.53246117
31	0xbf4eeafc	-0.8082731

resnet_denoiser/level_3/batch_normalization_42/FusedBatchNormV31 f4 [32]
0	0x4126fbf0	10.436508
1	0x410f8e17	8.97219
2	0x41053702	8.32593
3	0x40fd6343	7.918367
4	0x410092b8	8.03582
5	0x4138954d	11.53645
6	0x426f25a4	59.78676
7	0x42923caf	73.11852
8	0x426b879e	58.88244
9	0x416f7e1c	14.968288
10	0x416c87d4	14.783161
11	0x40f1c468	7.5552254
12	0x409405af	4.625694
13	0x4182196b	16.262411
14	0x409733d6	4.7250776
15	0x414a3df7	12.640128
16	0x403db91b	2.964423
17	0x3fab81fb	1.3399042
18	0x40ac5a9c	5.3860607
19	0x4114854e	9.282545
20	0x40ac5e42	5.386506
21	0x40a3729c	5.1077404
22	0x40a73a4e	5.2258673
23	0x4249277f	50.28857
24	0x41218bad	10.096601
25	0x40d96597	6.793651
26	0x41431314	12.192158
27	0x411cc63b	9.798396
28	0x402b0925	2.6724331
29	0x3fdd3aed	1.7283608
30	0x4131643d	11.086972
31	0x3fe04a13	1.7522606
