bfcnn/pretrained/resnet_color_1x12_bn_16x3x3_256x256_l1_relu/model.tflite (tflite, 142568 bytes, 90 tensors)

resnet_denoiser/denoiser_head/channelwise_multiplier_13/mul f4 [1, 1, 4, 3]
00000000: 2f3c 61bc 2a3e 433c 9028 f5bb ba6d 3eb9
00000010: e76c 41be 4bd7 573d 9321 4e3e 0d1d 9e3c
00000020: ff68 5fbe cbc8 62be 8965 963e 3d7c 3c3e
-0.013747259 0.011916677 -0.007481642 -0.00018160688 -0.18889199 0.052695554 0.20129995 0.019300962
-0.21817397 -0.22146909 0.2937434 0.18406768

resnet_denoiser/denoiser_head/conv2d_37/Conv2D/ReadVariableOp/resource f4 [1, 1, 4, 12]
00000000: e83e 1a3d d0d6 e0b9 90c7 2fbf 9a3f 4e3d
00000010: 0424 a33b 7a4c 7c3d 590b 423b 3757 dd3e
00000020: aa5d 3a3c 2532 c4be 6377 783b 7b27 baba
00000030: 41e2 8a3d 9a45 b7ba 9dce ab3d e4da 3c3c
00000040: 89f2 3ebd 68ae 063c 0206 6e3d 5d4e 8abd
00000050: 7295 9d3c 0859 75bf 6117 133f a820 1ebf
00000060: 83bc 8cba cf4b 77ba 0259 52bd a855 c93e
00000070: 7a5f 913a 1d78 6fbe f786 31bc a749 1d3f
00000080: 6fb1 123b 3ec5 0cbe 2ce2 3dbc 5da8 3c3c
00000090: 9878 a93c 31c5 19ba 07f9 233d f0f2 af3e
000000a0: b4ca 57bc 68a1 003f 195f 1bbb 6717 ebbd
000000b0: 26ee 4f3b ce77 ef3e e4bc bb3c c8a1 a9bc
0.03765765 -0.00042884657 -0.68663883 0.050353624 0.0049786586 0.06159637 0.0029608815 0.43230602
0.01137487 -0.38319507 0.0037912957 -0.001420244 0.06781436 -0.0013982535 0.08389018 0.011526797
-0.04661802 0.008220293 0.0581112 -0.06753228 0.0192363 -0.95838976 0.5745755 -0.6176858
-0.0010737333 -0.00094335986 -0.051354416 0.39323163 0.0011091076 -0.23385663 -0.010835401 0.6144051
0.002238359 -0.13747117 -0.011589568 0.01151475 0.020687386 -0.00058658706 0.040032413 0.34365034
-0.013170887 0.50246286 -0.0023707806 -0.11479073 0.003172764 0.4677109 0.022917219 -0.020707026

resnet_denoiser/denoiser_head/channelwise_multiplier_12/add f4 [12]
00000000: f58b 483f cccc 7f3f 8616 543f 8424 493f
00000010: ffe9 7f3f 9937 443f 207a 2a3e a0c7 193f
00000020: a7ee 7f3f 28a2 9a3d 4c27 423f 0ba3 513f
0.7833856 0.9992187 0.8284687 0.78571343 0.99966425 0.76647335 0.1664815 0.6007023
0.9997353 0.0755046 0.7584121 0.8188941

resnet_denoiser/level_0/batch_normalization/FusedBatchNormV3 f4 [16]
00000000: b3ba 8cbe 4d4d cbbe 1af3 81bf 05d1 bfbe
00000010: 1dcf 3dbf 6c9b b7be 9f93 4ebf 83b9 28bf
00000020: 3ece 96bf cafe 76bf 7ca2 7fbe 2101 21bf
00000030: 212e 9bbe ab03 20bf e6ab 97be 0997 25bf
-0.2748619 -0.39707413 -1.0152314 -0.37464157 -0.74144155 -0.35860765 -0.80694 -0.6590807
-1.178169 -0.9648253 -0.24964327 -0.6289235 -0.3030863 -0.62505597 -0.29623336 -0.64683586

resnet_denoiser/level_0/batch_normalization/FusedBatchNormV31 f4 [16]
00000000: e46c 713f 9b66 893f ac61 873f e825 ab3f
00000010: e040 ec3f 6e2f 8d3f b06d 0340 0389 7c3f
00000020: 7e29 a43f 22ed 4b40 852d 4540 c5dc 2140
00000030: 8a14 6340 4d6b 9040 87b7 8240 1a20 4e3f
0.9430678 1.0734438 1.0576682 1.3370943 1.8457298 1.1030099 2.0535698 0.98646563
1.2825162 3.1863484 3.0809033 2.5290997 3.5481286 4.5130982 4.0849032 0.80517733

resnet_denoiser/level_0/batch_normalization_1/FusedBatchNormV3 f4 [32]
00000000: 768a 07bf 5b13 edbe e607 60be 94a2 4bbe
00000010: 0736 f8be 5175 9fbe 8baa 8abe b968 59be
00000020: e2b7 bbbe 2d4d b9be 24e9 8cbe 196f d5be
00000030: d13e 2cbf b6b4 b2be 4584 83bf 009b efbd
00000040: cd1e 24be 045c 56be 60bd 35be 3e45 9dbe
00000050: c235 7bbe 63ba 93be f4c8 b5be 68ad 0cbf
00000060: 5571 c7be 0a06 67be cf5d aabe 4a93 b5be
00000070: 5e4c 3fbe e099 63be 614a 81be 85b1 d2be
-0.5294565 -0.4630383 -0.21878013 -0.19886237 -0.4847872 -0.31144193 -0.2708324 -0.21231355
-0.3666373 -0.36191693 -0.27521622 -0.41686323 -0.6728335 -0.34903497 -1.027474 -0.11699486
-0.16027375 -0.20933539 -0.17748022 -0.3071689 -0.24532226 -0.2885314 -0.35504878 -0.54952097
-0.38953653 -0.22560897 -0.33274695 -0.35463935 -0.18681476 -0.22226667 -0.2525206 -0.41151062

resnet_denoiser/level_0/batch_normalization_1/FusedBatchNormV31 f4 [32]
00000000: 6ba8 823f e71b b63f 8438 c93f 7351 d13f
00000010: 1928 113f bfad 223f fb35 4a3f 8e73 963f
00000020: 169f 203f f21c ad3f 42f0 943e 7dfe 673f
00000030: be38 3b3f 3f4d 913f 1f8e 803f 8317 9b3f
00000040: 255a 163f 772c 473f 6c34 3f3f ff4e b53f
00000050: 14f3 0f3f 7a57 d43e 909b 0d3f a437 e93f
00000060: 128f 353f 4c53 333f 98fb b83e f6ae 423f
00000070: 5c3a 563f b968 7f3f 9a89 ae3f 7032 963f
1.0207647 1.4227265 1.5720372 1.6352981 0.5670181 0.63546365 0.7898862 1.1754014
0.62742746 1.3524458 0.29089552 0.90622693 0.73133457 1.1351699 1.0043372 1.211655
0.587313 0.7780222 0.74689364 1.4164733 0.5623028 0.4147299 0.55315495 1.8220105
0.7092143 0.70048976 0.3612945 0.7604822 0.836828 0.9976917 1.3635743 1.1734142

resnet_denoiser/level_0/batch_normalization_10/FusedBatchNormV3 f4 [16]
00000000: 501a 2bbf 4063 6bbf 5708 7fbf 08fa 61bf
00000010: 2d72 0ebf 256e 3bbf 9845 9fbf f5c7 56bf
00000020: 0b4f 9cbf 00f4 f3bf 1cc9 24bf 5753 7abf
00000030: 9881 a2bf 5fd2 e6be 9f7c bebe 4787 84bf
-0.66837025 -0.9194832 -0.996221 -0.8827214 -0.5564297 -0.7321494 -1.2443113 -0.8389886
-1.2211622 -1.9058838 -0.6436937 -0.97783417 -1.2695799 -0.45082375 -0.37204453 -1.0353783

resnet_denoiser/level_0/batch_normalization_10/FusedBatchNormV31 f4 [16]
00000000: a3d5 2d40 ced9 0840 d41c c83f def7 cc3f
00000010: de1e 8f3f 62fe 4840 d5b0 ae3f 1ada 1240
00000020: 7930 2a40 d82a 1940 ad99 9540 664e 8140
00000030: ce79 f93f 124f 4740 d721 f53f 4416 0440
2.7161644 2.1382937 1.5633798 1.6013143 1.1181295 3.1405263 1.3647715 2.2945619
2.6592085 2.39324 4.6750093 4.04082 1.9490297 3.114201 1.9150952 2.063859

resnet_denoiser/level_0/batch_normalization_11/FusedBatchNormV3 f4 [32]
00000000: 6dac ab3a d0cb 14bf 3aae 84ba 35b6 b7be
00000010: 41ce c1be 7d92 dcbe 02b7 f7be 60c1 3ebf
00000020: 3d0d a53a 157d 19bf 9b4a 12bf f7a2 f6be
00000030: 3469 0fbf 649f 05bf 53ca 83ba 494b cebe
00000040: 9569 e9be df14 4dbf ced9 85b9 119e 0dba
00000050: 1b06 0ebf 1d83 443a 7505 2d3a c8bf fabe
00000060: 2d02 f8b9 ca28 acbe de93 38bf a9df aabe
00000070: 6e6b 823a 3cb2 61be cd53 34bf ae05 03bf
0.0013097652 -0.58123493 -0.0010122724 -0.358812 -0.37852672 -0.43080512 -0.4838181 -0.74513817
0.0012592446 -0.59956485 -0.5714509 -0.48171207 -0.560199 -0.52196336 -0.0010054804 -0.40291813
-0.45588365 -0.8010997 -0.00025530014 -0.0005402277 -0.55478066 0.0007496344 0.00066002394 -0.48974442
-0.00047303867 -0.3362487 -0.7210063 -0.33373764 0.000995023 -0.22040647 -0.7044037 -0.5118054

resnet_denoiser/level_0/batch_normalization_11/FusedBatchNormV31 f4 [32]
00000000: 3a0e 13bf 913c 8e3f 3710 f63e 996e 993f
00000010: 518d 873f 3304 703f 5e0b 3e40 4a84 593f
00000020: aea2 22bf e334 ef3f 65a6 9a3f 0e7a 9d3f
00000030: 9e2e 1e40 30dd cc3f 91d4 eb3e af7c a33f
00000040: 4942 5140 411b aa40 ff4b 0c3e 14d4 883e
00000050: c24e 8b3f 59f6 c1be ee1b a7be dc99 ec3f
00000060: b269 763e 44a1 753f 96b8 0b40 d4a0 b63f
00000070: d62a fabe 545b e93e f57d bd3f 2d8b b83f
-0.57443583 1.1112233 0.48059246 1.1986877 1.0590001 0.9375641 2.9694438 0.8496748
-0.6352948 1.8688015 1.208203 1.2302873 2.4715953 1.6005001 0.46060613 1.2772425
3.2696707 5.315827 0.13700865 0.26724303 1.088341 -0.3788326 -0.32638496 1.8484454
0.24063757 0.95949197 2.1831412 1.4267831 -0.48860806 0.4557749 1.4804064 1.4417473

resnet_denoiser/level_0/batch_normalization_12/FusedBatchNormV3 f4 [16]
00000000: a76d bcbe 152f 0fbf b53d eebe a75f 0dbf
00000010: c008 85bf f92d 41bf fb00 89bf 9158 67bf
00000020: e999 98bf f142 6abf af03 e4be 12eb 65bf
00000030: 0b40 6aba 8e98 93bf 3c8c 4abf 12ca 81bf
-0.36802408 -0.55931216 -0.46531454 -0.5522408 -1.0393295 -0.75460774 -1.0703424 -0.90369517
-1.192197 -0.91508394 -0.4453406 -0.89811814 -0.0008935935 -1.1530931 -0.7912023 -1.0139792

resnet_denoiser/level_0/batch_normalization_12/FusedBatchNormV31 f4 [16]
00000000: d327 7440 7e47 0e40 5ef7 8a40 0b98 0440
00000010: 84e4 d93f ace4 e23f 8e58 fc3f ebb7 8b40
00000020: 2e69 0c40 4222 1740 0eb9 3b40 38be 0640
00000030: 1523 223f f047 aa3f 2bda 0440 ebaf 943f
3.8149307 2.2231135 4.342696 2.07178 1.7022862 1.7726035 1.9714525 4.366201
2.1939197 2.361466 2.9331698 2.10536 0.6333478 1.3303204 2.075816 1.1616186

resnet_denoiser/level_0/batch_normalization_13/FusedBatchNormV3 f4 [32]
00000000: 7ea6 5ebf b6e2 20bf b304 8fba 2220 0639
00000010: 892c 8dbe 1da7 dcbe c12a 9dbf 511e b3be
00000020: 02a7 193a 7ca4 e3be 100e 21bf 0cfd 0b3a
00000030: fbf3 8f3a 2371 523a 342b e939 fe23 70bf
00000040: 3a3a 7fba 7f9a 45ba b7d0 bb39 dbba 6cba
00000050: 7318 d2be 9dff f6be 9f04 e2be 2eb8 dd38
00000060: 1a78 10bf 3059 08b7 7e34 02bf e7f8 09bf
00000070: c17c 1ebf 74ee b3b9 277e 03bf 7aa3 a1be
-0.86972797 -0.62845933 -0.0010911435 0.00012791206 -0.2757304 -0.43096247 -1.2278672 -0.34984067
0.0005861373 -0.4446143 -0.6291208 0.0005340136 0.0010982746 0.0008027723 0.00044473412 -0.9380492
-0.00097361545 -0.00075379753 0.00035822924 -0.0009030529 -0.41034278 -0.48241892 -0.4414415 0.00010572407
-0.5643326 -8.126997e-06 -0.50861347 -0.5389542 -0.6190911 -0.00034319202 -0.5136437 -0.31570035

resnet_denoiser/level_0/batch_normalization_13/FusedBatchNormV31 f4 [32]
00000000: b0f5 fa3f 48f4 ed3f 2fec 053f 045a 8fbd
00000010: 6543 3f3f 64ee 853f a181 0040 1230 bc3f
00000020: 0855 93be 9fb1 c13f e995 9a3f 811a 7bbe
00000030: 4bd9 04bf 41a4 c4be fb97 4fbe 6139 ba3f
00000040: 6f95 f23e 3221 c03e 7f6a 34be 128f d33e
00000050: cb4b 7c3f cb1d b93f 0561 a43f ba3f 81bd
00000060: d2bc 803f 7732 a53b bb0a 973f 1ecf 493f
00000070: 9e2a 913f 7a7b 473e 2621 1140 caf6 8b3f
1.9606228 1.8590174 0.5231351 -0.06999591 0.7471221 1.0463376 2.007912 1.470217
-0.2877581 1.5132331 1.2076999 -0.24521829 -0.5189406 -0.38406566 -0.2027282 1.4548761
0.47379634 0.37525326 -0.1761875 0.4132009 0.9855315 1.4462217 1.2842108 -0.06310983
1.0057623 0.0050414163 1.180015 0.7883166 1.1341131 0.19480696 2.2676482 1.0934689

resnet_denoiser/level_0/batch_normalization_14/FusedBatchNormV3 f4 [16]
00000000: ce71 e9bf 5b7f 13bf 54b0 09bf e476 37bf
00000010: ed22 18bf 83ba acbf a7d7 02bf a21d d8be
00000020: e584 5dbf f786 acbe 9f94 a8be 6bf1 16bf
00000030: d209 84be 9d27 0b3a 19f2 48bf 64e7 e9bf
-1.8237855 -0.57616204 -0.5378468 -0.7166579 -0.5942829 -1.3494419 -0.5111031 -0.42210108
-0.86530906 -0.3369672 -0.3292589 -0.58962125 -0.25788742 0.0005308332 -0.7849441 -1.827374

resnet_denoiser/level_0/batch_normalization_14/FusedBatchNormV31 f4 [16]
00000000: f1c3 9a3f 2cdf 8a3f d675 0e3f 3b57 663f
00000010: f715 823f 74d5 8d3f 322a d53f 5077 a83f
00000020: 6cce 7d3f 046a 803f 4504 1940 5bd5 6d3f
00000030: 1b4c d93f 8039 88be b1c1 703f 5792 5c3f
1.2091047 1.0849357 0.55648553 0.89976853 1.0162953 1.1080766 1.6653502 1.3161411
0.991431 1.0032353 2.3908856 0.9290368 1.697635 -0.2660637 0.9404555 0.86160797

resnet_denoiser/level_0/batch_normalization_15/FusedBatchNormV3 f4 [32]
00000000: c3d3 693a 4e02 36bf fb9f cebe 47be 1bba
00000010: fcb4 dcbe 7ac7 31be 52e4 41b9 9710 c0be
00000020: eef9 b238 3c6d a5b9 1642 18bf 75d5 5bbf
00000030: f461 99b8 f2d0 0cbf b8fd e9be e934 c7bf
00000040: be8c 29bf 8b88 09b7 2350 00bf 4f15 3237
00000050: e3ed c0be 49fe c4be 69e2 06bf 043c cc39
00000060: e4e5 8b38 415d 78bf bed5 2f38 b62c f5be
00000070: 3ec5 8639 6518 5539 4478 3aba 20a8 6b39
0.00089197996 -0.71097267 -0.4035643 -0.00059411343 -0.4310683 -0.1736125 -0.0001849097 -0.37512657
8.5342544e-05 -0.00031552638 -0.5947584 -0.85872585 -7.313854e-05 -0.55006325 -0.45701385 -1.5563022
-0.6623038 -8.197628e-06 -0.5012228 1.0614588e-05 -0.37681493 -0.38475254 -0.52689224 0.00038954627
6.670857e-05 -0.97017294 4.1922314e-05 -0.47885674 0.0002570543 0.0002032235 -0.0007113258 0.00022473978

resnet_denoiser/level_0/batch_normalization_15/FusedBatchNormV31 f4 [32]
00000000: ebac 06bf aae2 2e40 38b5 1b40 c138 c53e
00000010: 61ad e53f da25 6b3f 2f2f 0b3e 8b10 b33f
00000020: bf56 82bd 4ced 6c3e b302 c73f f4a7 b540
00000030: 664f 483d d6e1 1040 bd69 0340 2108 0140
00000040: 5a9d bb3f 186e e03b fb69 0340 cf86 08bc
00000050: eeb8 1040 ae4c c33f f426 1140 dbcc 8cbe
00000060: 601a 51bd e819 2540 987f 15bd e0fb 2c40
00000070: 2ca5 5ebe 4316 12be ee26 e63e c6c2 1ebe
-0.526076 2.7325845 2.4329357 0.38519862 1.7943536 0.9185463 0.13592218 1.3989424
-0.06364202 0.23137397 1.5547699 5.676752 0.048903845 2.263784 2.0533288 2.0161211
1.4657395 0.0068490617 2.0533435 -0.008332922 2.2612872 1.5257776 2.2680025 -0.27500042
-0.051050544 2.5797062 -0.036498636 2.7028732 -0.21742696 -0.14266305 0.44951576 -0.15503988

resnet_denoiser/level_0/batch_normalization_16/FusedBatchNormV3 f4 [16]
00000000: 6c0f 57bf 9f28 e3b7 5755 8abe ad2b 2bbf
00000010: 5dde 1d36 ebfa f3be 7acc 90be 43ce 14c0
00000020: ed3e a1b8 4947 70b7 872e 84be bf78 9bb8
00000030: 2e98 79be 9252 16bf 00f8 03c0 fcc2 9bbe
-0.84007907 -2.7079424e-05 -0.27018234 -0.6686352 2.3524256e-06 -0.47652373 -0.28281003 -2.3250892
-7.688799e-05 -1.4321712e-05 -0.25816748 -7.413467e-05 -0.24374458 -0.5871974 -2.0620117 -0.304222

resnet_denoiser/level_0/batch_normalization_16/FusedBatchNormV31 f4 [16]
00000000: 2233 1d3f 383b 883c d632 103f da75 353f
00000010: b6d5 a1ba 9b60 9e3f 7d13 6e3f 394a b23f
00000020: 58ef 543d 4c3b 1b3c f6b3 4c3f c861 5d3d
00000030: 8406 0440 e786 7b3f 57ab a83f a4e2 ab3f
0.6140615 0.0166298 0.5632757 0.7088295 -0.0012347016 1.2373232 0.92998487 1.3928901
0.05198607 0.009474587 0.799621 0.05404833 2.0628977 0.9825272 1.3177289 1.342854

resnet_denoiser/level_0/batch_normalization_17/FusedBatchNormV3 f4 [32]
00000000: 6990 ee39 e786 61ba ebb1 0dbf b5f4 8fba
00000010: 79f3 6f38 b863 15bf 37ad 2fbf 4ac3 60bf
00000020: 5c90 45bf f319 f5be 69ee 36bf df66 48bf
00000030: 6146 00ba 3797 473a 9943 70ba a3aa 6dbf
00000040: 56ed 1fbf a417 08bf bdc7 65ba 3f1c 01bf
00000050: abde 1bbf 1ea9 19bf 042a ffbe 529c 2dbf
00000060: cbd6 03bf cf21 51bf 8f79 4abf 7d20 86ba
00000070: 80e2 d0be d38c 98b9 576c 073a 0eb2 24bf
0.0004550249 -0.0008603171 -0.55349606 -0.0010982963 5.7208792e-05 -0.58355284 -0.6862368 -0.8779799
-0.771734 -0.4787136 -0.71457535 -0.7828197 -0.00048933 0.00076137803 -0.0009165346 -0.92838496
-0.6247152 -0.5316107 -0.000876542 -0.50433725 -0.6088664 -0.6002368 -0.49836743 -0.6781665
-0.51499623 -0.8169221 -0.79091734 -0.0010233071 -0.40797806 -0.0002909662 0.0005165985 -0.6433419

resnet_denoiser/level_0/batch_normalization_17/FusedBatchNormV31 f4 [32]
00000000: 6c41 1fbf 0da4 8f3f 3705 1c40 f39f ac3f
00000010: af09 bcbd 99f0 9c40 d17b 3440 45a5 0041
00000020: fffa f240 726c 0a40 14f7 8240 a793 8240
00000030: 44e9 273f ba91 7cbf da2c 953f d17f 2f40
00000040: 6d3c 3440 3ad3 9840 a815 8a3f da69 8840
00000050: 1aa3 8c40 d872 a340 9891 4040 0761 4540
00000060: 877a 8440 dba3 1c40 3f25 0041 ee6c 993f
00000070: 9b88 6140 56c2 d73e 5337 36bf ee07 1e41
-0.622092 1.1221939 2.4378183 1.3486313 -0.091815345 4.90437 2.8200572 8.040349
7.593139 2.162869 4.092661 4.080524 0.6559031 -0.9865986 1.1654313 2.7421763
2.816188 4.7757845 1.0787859 4.2629213 4.39491 5.107769 3.0088863 3.084047
4.139957 2.447501 8.009093 1.1986368 3.5239627 0.42140454 -0.7117817 9.876936

resnet_denoiser/level_0/batch_normalization_18/FusedBatchNormV3 f4 [16]
00000000: cafe a3be 28f4 aabf 099f 4bc0 1ab7 17bf
00000010: 57cc 25c0 2d58 65bf f233 81be e216 25bf
00000020: 52a7 85b9 4a88 f4be 3492 13bf 22f6 01bf
00000030: 3ed1 95bf 73ef 02bf 0fc8 18c0 dfc1 03c0
-0.32030326 -1.335576 -3.1815817 -0.59263766 -2.590597 -0.8958767 -0.25234944 -0.6448804
-0.000254924 -0.4776023 -0.57644963 -0.50766194 -1.1704481 -0.5114662 -2.3872106 -2.058708

resnet_denoiser/level_0/batch_normalization_18/FusedBatchNormV31 f4 [16]
00000000: e8ea c43f f63e d83f 19e4 823f 6312 6d40
00000010: ac2f aa40 d0bd 7b3f b73e db3f 8e55 883f
00000020: 68d2 0b3e d440 5d40 495a 913f 7688 1640
00000030: 54af e23e 180b 913f cda9 333f 64be 933f
1.5384188 1.6894214 1.022586 3.7042472 5.3183193 0.98336506 1.7128514 1.0651109
0.13654482 3.4570818 1.1355678 2.352079 0.4427439 1.133151 0.7018097 1.1542478

resnet_denoiser/level_0/batch_normalization_19/FusedBatchNormV3 f4 [32]
00000000: 546b 4cbf 91c2 88be 7a49 1cbf 8b4a 72ba
00000010: 8e4b 1fbf 44b4 4bba 2617 07bf 5297 303a
00000020: e2a7 83bf da2f 01bf 41e2 5c39 25a7 0dbe
00000030: 086e 07bf 3124 c7be 156b 29b9 836e 04bf
00000040: a53b bbbe bd8d cebe 7f7d 16bf 688f f438
00000050: 9b86 0fbf 2405 8ebe e13b 60bf 3913 f1bf
00000060: 3c7f 35bf 7464 37bf 9923 06bf dd53 34ba
00000070: ac5a 03bf 9b2b 80be 3725 adbe 602d 82be
-0.7985127 -0.26710942 -0.61049616 -0.0009242675 -0.6222466 -0.0007770697 -0.52769697 0.00067364157
-1.0285609 -0.5046364 0.00021065121 -0.13833292 -0.5290227 -0.388948 -0.00016156987 -0.5173113
-0.36568943 -0.40342513 -0.5878524 0.00011661538 -0.56064767 -0.27738297 -0.8759137 -1.8833991
-0.7089727 -0.71637654 -0.5239807 -0.00068789517 -0.5131023 -0.25033268 -0.33817455 -0.25425243

resnet_denoiser/level_0/batch_normalization_19/FusedBatchNormV31 f4 [32]
00000000: 11f3 623f 09d3 503f 536d e83f adfc 043f
00000010: 5fd5 c93f 51e4 ee3e 99cd f13f dad1 debe
00000020: b75f 2e40 8e06 0b40 7735 09be 6bba 633e
00000030: fced af3f fd11 c63f b6f1 093e 4d03 923f
00000040: eda2 c83f 570a 1540 c018 923f af74 aabd
00000050: fe68 c93f a231 0240 93a8 1e40 a929 1a41
00000060: 1bff 693f 9e77 5d3f 6bfc 1940 8689 d63e
00000070: 879e 9a3f daf2 2740 767e 0240 fa95 703f
0.8865214 0.81572014 1.8158363 0.5194805 1.5768241 0.46658567 1.8890868 -0.4351948
2.724592 2.172275 -0.13399301 0.22239082 1.3744502 1.547424 0.13471112 1.1407257
1.5674721 2.328756 1.1413803 -0.08323037 1.5735166 2.0342793 2.479039 9.635171
0.91404885 0.86510646 2.4060314 0.41901797 1.2079629 2.6241975 2.0389686 0.93978846

resnet_denoiser/level_0/batch_normalization_2/FusedBatchNormV3 f4 [16]
00000000: 84eb 1fbf 0ca9 cbbe c53e 7bbf ba94 5dbf
00000010: a5e6 b6be a660 f8be 6d46 3abf dad1 14bf
00000020: bb4a 5bbf d695 3bbf e9af 6bbe b4a6 13c0
00000030: 9dfe f7be a7c2 0fbf ae52 62bf a4ef 22bf
-0.62468743 -0.3977741 -0.98142654 -0.86555064 -0.35722843 -0.48511237 -0.7276371 -0.5813271
-0.85660905 -0.73275506 -0.23016323 -2.3070498 -0.48436442 -0.5615639 -0.8840741 -0.6364691

resnet_denoiser/level_0/batch_normalization_2/FusedBatchNormV31 f4 [16]
00000000: 5f3f 7840 6e60 0940 e448 e23f 88e7 2740
00000010: ad57 c63f 02fb d53f 8a88 d93f 2b6f de3f
00000020: 11d4 3a40 97e2 413f bc00 a93f 8370 2540
00000030: ff15 2840 de68 0240 5a0a f53f 1f68 3040
3.8788679 2.1465106 1.7678494 2.6235065 1.5495507 1.6717227 1.6994793 1.7377676
2.9191935 0.75736374 1.3203349 2.5849922 2.6263425 2.0376506 1.9143784 2.756355

resnet_denoiser/level_0/batch_normalization_20/FusedBatchNormV3 f4 [16]
00000000: c64b 8abf 4ea5 e5be c4b2 9dbe ca0e cfbe
00000010: 0fd6 ccbe aa21 d2bf 9c95 06c0 8f14 42c0
00000020: eded a1c0 a1f8 77bf bfca 0ac0 edd0 8a38
00000030: 156a 6bbf 18e2 f7be e8d1 cfbf 55bf dbbe
-1.0804374 -0.4485268 -0.3080045 -0.4044097 -0.40007064 -1.6416523 -2.1028814 -3.0325048
-5.0602937 -0.9686375 -2.1686246 6.619268e-05 -0.91958743 -0.48414683 -1.6235933 -0.42919412

resnet_denoiser/level_0/batch_normalization_20/FusedBatchNormV31 f4 [16]
00000000: 0917 be3f a75e 2c3f 8c70 a73f 42fd 333f
00000010: d35b 7b3f f25e c43f dcca 0240 c75e 1f40
00000020: 118b fa3f f3ff 5c3f 79a6 d43f 316e 40bd
00000030: d480 fd3e 4d92 0e3f 6f68 c33f c283 273f
1.485078 0.6733193 1.3081222 0.70308316 0.9818699 1.5341475 2.0436316 2.4901597
1.957369 0.8632805 1.6613303 -0.046980087 0.4951235 0.5569199 1.5266246 0.6543542

resnet_denoiser/level_0/batch_normalization_21/FusedBatchNormV3 f4 [32]
00000000: c34b cebe e89c 01bf 15b0 113a 3847 ddbe
00000010: e8d5 3639 fc65 92be 8e25 ae39 34e6 36bf
00000020: 1189 58b9 60a4 e8b7 3490 dbbe 1f0e 2fbf
00000030: ff76 17b9 70ed 9bbe cea2 03bf e557 8c39
00000040: a634 97be 0b42 b1be 8493 3aba 1989 e939
00000050: 3ca8 b5be e3e2 d2be 46bc 02ba 3b60 2abf
00000060: b56f 9139 759a 14b9 452e 18bf 3d96 3bbf
00000070: 7296 41bf cf13 4d39 685c 37bf 66a2 8538
-0.40292177 -0.50630045 0.00055575493 -0.43218398 0.00017436559 -0.28593433 0.00033215847 -0.7144501
-0.00020650426 -2.7733098e-05 -0.42883456 -0.6838092 -0.00014444812 -0.30454588 -0.51420295 0.00026768367
-0.29532355 -0.346207 -0.00071173185 0.0004454337 -0.35479915 -0.41188726 -0.00049871614 -0.66553086
0.00027739783 -0.0001417192 -0.594456 -0.7327612 -0.75620186 0.00019557703 -0.71625376 6.372183e-05

resnet_denoiser/level_0/batch_normalization_21/FusedBatchNormV31 f4 [32]
00000000: 3de4 c13f 8559 363f 1966 b9be fd16 893f
00000010: ee5b f5bd bdc7 c63e 0080 67be a041 673f
00000020: 0d43 243e 5c69 9e3c 92a0 7b3f 00a6 8b3f
00000030: 0421 e03d 1c9a 9e3f 7813 bc3f 9d1c 4bbe
00000040: de14 963f a77f 0340 eee1 e63e 9b97 97be
00000050: c1ab 663f 2f90 a73f 9856 a73e 0278 1240
00000060: 654c 63be cfd8 ed3d 1d8d 8b3f 3691 d23f
00000070: 7abd a63f e987 10be 9808 4440 b501 4bbd
1.5147778 0.71230346 -0.36210707 1.071014 -0.11980425 0.38824263 -0.22607422 0.9033451
0.16041203 0.019337349 0.98291886 1.0910034 0.10943797 1.239078 1.4693441 -0.19835134
1.1725118 2.0546663 0.45094246 -0.29607853 0.90105826 1.3090876 0.32683253 2.2885747
-0.22197111 0.116136186 1.0902439 1.6450565 1.3026574 -0.14114346 3.0630245 -0.049562175

resnet_denoiser/level_0/batch_normalization_22/FusedBatchNormV3 f4 [16]
00000000: b1b1 bfbe c10a 39b9 a53c 0dbf 9d75 1bbf
00000010: 978f 0637 0854 0abf 47ff 52bf 6f27 89be
00000020: e542 bcbe b0e0 58bf 896c e839 815f c0bf
00000030: c9be 6ec0 704f 24bf 926b bdbe 1206 11ba
-0.37440255 -0.00017646981 -0.5517066 -0.6072634 8.0204545e-06 -0.5403447 -0.8242077 -0.26787898
-0.36769786 -0.84717846 0.00044331353 -1.5029145 -3.7303946 -0.6418371 -0.36996132 -0.00055322156

resnet_denoiser/level_0/batch_normalization_22/FusedBatchNormV31 f4 [16]
00000000: 41a4 ed3e 1e51 dc3d f718 d240 6617 3a3f
00000010: ade1 babb d8f0 b23f 5bbe 293f e00f a53f
00000020: 1bbe 393f 2a5d 223f 3a6a 5abe 50e6 1f3f
00000030: c4c7 2340 a4b3 d03f 7c40 3c3f 6d38 9b3e
0.46414378 0.107576594 6.5655475 0.72691953 -0.005703172 1.397975 0.66306084 1.289547
0.725557 0.6342341 -0.21329585 0.62460804 2.5590677 1.6304822 0.73535895 0.30316487

resnet_denoiser/level_0/batch_normalization_23/FusedBatchNormV3 f4 [32]
00000000: d328 0739 c4f3 043a dc2a a0be d60d f5be
00000010: 241a f1be a108 40bf 0819 5a39 ccf5 1dba
00000020: 2934 18bf 569f 51ba ed68 15bf 9a09 c239
00000030: ccc2 dfbe 8627 bebe 1cce e9be f100 34b9
00000040: 10d8 dfbe 5409 a6b9 3756 21b9 ef72 07bf
00000050: eb2f b439 9432 12bf 22c9 7bba 1193 5c39
00000060: d29a 27b9 df0c 1bba 8fd3 e938 c79c 2039
00000070: 0f80 fc39 dbec dcbe 14b1 c7b8 f0b0 8438
0.00012889811 0.00050717243 -0.312827 -0.47862118 -0.47090256 -0.75013167 0.00020799425 -0.00060257013
-0.5945459 -0.000799646 -0.5836323 0.00037009717 -0.43703306 -0.3713953 -0.4566506 -0.00017166488
-0.4371953 -0.00031668937 -0.00015386274 -0.5290975 0.00034367977 -0.57108426 -0.0009604861 0.00021035621
-0.00015984036 -0.00059146987 0.00011149712 0.00015317193 0.00048160597 -0.43149456 -9.522043e-05 6.327208e-05

resnet_denoiser/level_0/batch_normalization_23/FusedBatchNormV31 f4 [32]
00000000: 860a c7bd a0fd a8be 8482 993f bf4d 6a3f
00000010: 6fb4 843f 913d ad3f 2e04 27be 44f9 c73e
00000020: 6e80 893f 252d 073f 9f8b dc3f b269 6cbe
00000030: 2ee6 8440 d8f0 ac3f 09c2 9a40 341b 123e
00000040: 2cc9 8b3f 8999 613e 7d63 de3d 784b a23f
00000050: c053 83be 3361 723f df2f 1c3f 8b79 1dbe
00000060: b259 f13d 80d4 b63e 1b9b 9fbd 2647 c9bd
00000070: 06e1 abbe 9633 ac3f 5d64 823d 80fa 5abd
-0.09718804 -0.33006 1.1992955 0.9152488 1.0367564 1.3534414 -0.16310188 0.39057362
1.0742319 0.5280326 1.7230109 -0.23087195 4.153098 1.3511 4.836186 0.1426819
1.0920768 0.22031225 0.1085882 1.2679281 -0.25649834 0.94679564 0.61010545 -0.15378396
0.11784686 0.35709 -0.07793256 -0.098280236 -0.33570117 1.3453243 0.06366799 -0.05346155

resnet_denoiser/level_0/batch_normalization_3/FusedBatchNormV3 f4 [32]
00000000: 53fb 02bf 6269 97be c7ae 36bf 926e 3fbe
00000010: e197 fcbe b151 b7be be8a 92be 948f 43be
00000020: a197 79be 044f 99be 37cc 2abf 943f 9fbe
00000030: 9fb6 cdbe 2d01 25ba af13 9abe ddeb 01bf
00000040: ed8c 87be d8cb a4be 65bf d3be 62f1 81be
00000050: 5f01 b8be e533 99be c3e5 07bf e4c1 6bbe
00000060: 80ff 92be 6c77 b4be 17dc e8be 2e69 a5be
00000070: 9be3 0dbe f7c0 58be 3a8b 33ba 089d 45ba
-0.5116474 -0.29572588 -0.7136044 -0.18694523 -0.49334624 -0.35804513 -0.28621477 -0.1909774
-0.24374248 -0.29943097 -0.6671786 -0.31103194 -0.4017839 -0.00062944257 -0.30093142 -0.50750524
-0.26474705 -0.3218677 -0.4135696 -0.25379473 -0.35938546 -0.29922405 -0.53084964 -0.23023182
-0.28710556 -0.35247362 -0.45480415 -0.32306808 -0.13856356 -0.2116736 -0.00068490545 -0.0007538353

resnet_denoiser/level_0/batch_normalization_3/FusedBatchNormV31 f4 [32]
00000000: 818c bd3f 5d3c 583f 9d30 9e3f f42d b03f
00000010: 4e83 803f 6e41 233f f0f9 ca3f aa68 193f
00000020: f147 583f 0b4d f73f 09ca c33f d689 7b3f
00000030: 628d 9b3f e76c b53e 530e 813f 4a74 ee3f
00000040: 78b6 6e3f b50c 703f bd2a a23f d9a0 5c3f
00000050: b306 b53f 5f69 c53f e5d6 b83f 3ade 9e3f
00000060: d4a6 0440 5d2c 1740 b794 a93f 0028 d83f
00000070: 4ff8 dd3e 2e58 6a3f e62e bf3e 983a d23e
1.4808503 0.8446711 1.2358586 1.3764024 1.0040071 0.6377171 1.5857525 0.5992533
0.84484774 1.9320387 1.5296031 0.98257196 1.2152522 0.35434648 1.0082496 1.8629239
0.93247175 0.9376939 1.2669293 0.86182934 1.414267 1.5422782 1.4440581 1.2411568
2.0726824 2.3620827 1.3248509 1.6887207 0.43353507 0.915408 0.37340468 0.41060328

resnet_denoiser/level_0/batch_normalization_4/FusedBatchNormV3 f4 [16]
00000000: b988 32bf 5c63 2fbf dde5 b8bf e701 b9bf
00000010: e43b dabe b2aa 81bf 9fa0 5ebf 03c9 e3be
00000020: d9e9 66bf 1374 58bf 0ca9 8ebf de59 83bf
00000030: 8466 ebbf 7bc5 07c0 f860 3cbf 17c7 55bf
-0.6973987 -0.68510985 -1.4445149 -1.4453706 -0.42623818 -1.0130217 -0.8696384 -0.44489297
-0.90200573 -0.84552115 -1.1145339 -1.02618 -1.839066 -2.1214283 -0.7358546 -0.8350691

resnet_denoiser/level_0/batch_normalization_4/FusedBatchNormV31 f4 [16]
00000000: 4200 8040 c657 d840 30f4 7240 c574 fb40
00000010: 336a d440 25d7 5d40 2eda 9340 7a61 ab40
00000020: 04eb 8240 55dc 6440 8c4b 7540 e606 0840
00000030: d375 7d40 76c3 6c40 8966 5940 458a b040
4.0000315 6.7607145 3.796154 7.858004 6.637964 3.4662564 4.6203833 5.355649
4.0911884 3.575948 3.832736 2.125421 3.9603164 3.69943 3.3968832 5.5168786

resnet_denoiser/level_0/batch_normalization_5/FusedBatchNormV3 f4 [32]
00000000: 8d3f 8bbe b018 bcbe 2ce9 8aba f758 c1be
00000010: d341 f5be 21d2 09bf 96f3 25ba 9baf 1cbe
00000020: 8e00 dabe cdde 8f3a f90f 5bbe 2d44 58be
00000030: a313 6bbe e9e0 59bf 5946 a4be 5796 91be
00000040: a81c d0be 1c4b 3ebe 3cf9 90be 5fd2 9fba
00000050: 41dd 76be 3e71 d9be 73e8 83be eeba c9be
00000060: 502f 12bf 563c f2be a02b a2be cf4a 81be
00000070: 4bbb b1be f436 80be 0565 85be 1082 88be
-0.27196923 -0.36737585 -0.0010598055 -0.37763187 -0.47901782 -0.53836256 -0.00063305476 -0.15301363
-0.42578548 0.0010976434 -0.21392812 -0.21119757 -0.2295671 -0.8510881 -0.3208492 -0.28435013
-0.40646863 -0.1858334 -0.2831515 -0.0012193433 -0.24107839 -0.4246921 -0.25763282 -0.3940043
-0.57103443 -0.47311658 -0.31673908 -0.25252387 -0.34713206 -0.25041926 -0.26053634 -0.2666173

resnet_denoiser/level_0/batch_normalization_5/FusedBatchNormV31 f4 [32]
00000000: eef7 a13f e6b4 a03f 2cdb db3e 09c1 7d3f
00000010: 8070 de3f 3871 873f 5bb8 823e 0ad0 f73e
00000020: 3c9d 8e3f 7160 d7be 400c a43f 1b96 043f
00000030: 097b 3e3f 7a56 9a3f fde5 513f 4c22 923f
00000040: 2d96 7e3f a0a8 093f 0102 bb3f 5a99 013f
00000050: 7807 363f be59 a63f d057 4b3f 4755 853f
00000060: d80c 8b3f b4aa a53f f547 523f 443e 7a3f
00000070: eefe df3f 6c1d 223f 9eee 3c3f fef6 8e3f
1.2653787 1.2555206 0.42940652 0.99122673 1.7378082 1.0581427 0.25531277 0.4840091
1.1141734 -0.42065766 1.2816238 0.5179154 0.74406487 1.205764 0.8199156 1.1416717
0.994479 0.53772926 1.4609987 0.5062462 0.71105146 1.2996137 0.79430866 1.041665
1.0863295 1.294272 0.8214105 0.9775126 1.7499673 0.63326144 0.738016 1.1169126

resnet_denoiser/level_0/batch_normalization_6/FusedBatchNormV3 f4 [16]
00000000: ac9b c6be 877c d1bf 9e5d e4bf 8fc0 39bf
00000010: 1861 98bf 9dab 50bf 96f6 45bf 8f82 57bf
00000020: 6952 89bf d415 18bf a8ad 1abf d1c3 80bf
00000030: b105 b2be c2c7 53bf a984 c5bf 1fe3 3839
-0.38790643 -1.6366128 -1.784107 -0.72559446 -1.1904631 -0.8151186 -0.77329385 -0.8418359
-1.0728275 -0.5940831 -0.6042123 -1.0059758 -0.34769967 -0.8272668 -1.543111 0.00017632217

resnet_denoiser/level_0/batch_normalization_6/FusedBatchNormV31 f4 [16]
00000000: 03eb cf3f f9ad 3940 0663 8b40 df34 5240
00000010: 5d38 5440 d171 1e40 eeae 5040 b10e 2240
00000020: b159 4240 d4e0 9540 a1a1 0e40 7963 4640
00000030: 7939 9040 2b2e 3c40 4f86 dd3f ac74 06be
1.6243595 2.9012434 4.355838 3.284477 3.3159401 2.4756968 3.2606769 2.5321467
3.0367243 4.683695 2.228615 3.0998213 4.5070157 2.9403179 1.7306613 -0.13130444

resnet_denoiser/level_0/batch_normalization_7/FusedBatchNormV3 f4 [32]
00000000: f537 a1be e742 0ebf c2c4 01bf c59e c4be
00000010: 54c5 94ba a143 15bf 43b9 f7be 79f0 fdbe
00000020: 361f f4be 32b8 d7be 5cd8 3d3a 0c17 8bbe
00000030: d300 b8be 62cf f3be d142 9dbe 1a90 e0be
00000040: 9ebd 9b3a 65f6 973a 65a2 06bf 5ca2 d1be
00000050: 9baf 2fba 692f 72bf 4044 3f3a d686 6bb9
00000060: 205c 573a 7340 a7be 4797 15bf 9603 ebbe
00000070: 7446 0abf c935 d5be f488 00bf 1c52 bebe
-0.31488004 -0.55570835 -0.50690854 -0.38402382 -0.0011350312 -0.5830632 -0.4838353 -0.4959753
-0.47680062 -0.42132717 0.0007242018 -0.2716602 -0.3593813 -0.47619158 -0.3071504 -0.4385994
0.0011882072 0.0011593817 -0.52591544 -0.40944183 -0.00067018875 -0.9460359 0.0007296242 -0.00022461577
0.0008215327 -0.32666358 -0.58433956 -0.45901173 -0.5401375 -0.41642597 -0.50208974 -0.3717202

resnet_denoiser/level_0/batch_normalization_7/FusedBatchNormV31 f4 [32]
00000000: 86fc c83f 6dd2 b53f 9c47 603f d0e8 943f
00000010: 65ee ff3e 832d bb3f 292f 953f fa9f eb3f
00000020: 563d 8b3f 57d2 fa3f 0c19 bdbe 369b 6f3f
00000030: f77d 483f 9a6a 263f 5ed9 4c3f b635 983f
00000040: c4f2 10bf a0ec 13bf 2694 eb3f 869a cb3f
00000050: 3c07 a63e 2605 b53f ad29 b5be f9ba 043e
00000060: 9d89 d1be a667 9b3f cbe0 2240 9f45 9f3f
00000070: 1253 333f 7cba 4340 9af5 993f 99b4 923f
1.5702064 1.4204842 0.8760927 1.1633549 0.49986568 1.4623264 1.1655017 1.8408196
1.0878093 1.9595441 -0.36933172 0.9359621 0.7831721 0.6500641 0.80019176 1.1891391
-0.5662043 -0.57782936 1.8404586 1.5906532 0.32427394 1.4142196 -0.3538336 0.1296195
-0.40925303 1.2141006 2.5449703 1.2443122 0.7004863 3.058257 1.2028077 1.1461364

resnet_denoiser/level_0/batch_normalization_8/FusedBatchNormV3 f4 [16]
00000000: 4aa1 72bf 64e7 a2bf df9f 9fbf cbfb 69bf
00000010: 3e53 b539 ffe4 e0be 1019 e5be 1c2a e0bf
00000020: 50ee 38bf 3804 65bf c5cd 03bf 5952 aabf
00000030: 58c7 9bbe 812e 18bf bd3c 86bf 1c6a cbbf
-0.9477736 -1.2726865 -1.2470664 -0.9139983 0.0003458503 -0.4392471 -0.44745684 -1.7512851
-0.72238636 -0.8945956 -0.51485854 -1.330638 -0.30425525 -0.5944596 -1.0487286 -1.5891757

resnet_denoiser/level_0/batch_normalization_8/FusedBatchNormV31 f4 [16]
00000000: 63bd 1e40 45e8 ab3f 9e31 1940 3e3b 8940
00000010: 245e 25be d3f8 2e40 22f3 e93f 2005 3040
00000020: f2b9 4840 7131 7640 7224 5e40 b50e 2140
00000030: fd8c 3940 24fd 3640 23c8 b33f 1c98 9540
2.4803092 1.3430258 2.3936534 4.2884817 -0.16149193 2.733937 1.8277323 2.7503128
3.1363492 3.8467677 3.4709744 2.5165226 2.8992302 2.8592005 1.4045452 4.674818

resnet_denoiser/level_0/batch_normalization_9/FusedBatchNormV3 f4 [32]
00000000: abc1 1fbf 0e93 c9be 956f 25bf 278c d0be
00000010: 8dc9 d039 1047 09bf 265f 33bf f7c0 fcbe
00000020: ad60 a73a 0949 cabe da25 45bf 1cf1 3bbf
00000030: 1596 d3be ad9e a73a 8241 04bf 5fa4 0cbf
00000040: 147d 3abf fbb7 13bf 713a 29bf 6816 983a
00000050: b66a f1be 720b 15bf 0335 11bf 53c2 ddbe
00000060: 9402 30bf 3e6f f1be e89b 26bf 8f0d c43a
00000070: f5bf 19bf 78bd 07bf 8e43 ccbe bcb5 f1be
-0.6240489 -0.39370006 -0.64623386 -0.40731928 0.0003982302 -0.5362406 -0.7006706 -0.4936597
0.00127699 -0.39508846 -0.7701088 -0.7341478 -0.4132544 0.0012788378 -0.51662457 -0.5493831
-0.72847104 -0.57702607 -0.661048 0.0011603357 -0.47151726 -0.5822059 -0.56721514 -0.4331232
-0.68753934 -0.47155184 -0.65081644 0.0014957654 -0.6005853 -0.5302348 -0.3989529 -0.47208965

resnet_denoiser/level_0/batch_normalization_9/FusedBatchNormV31 f4 [32]
00000000: 2706 913f 2bca e93f 7173 3440 8838 bf3f
00000010: 3750 5dbe 1c79 1440 1a39 4f40 9764 1940
00000020: dc36 25bf 8dc5 a63f c8f6 3440 3023 db3f
00000030: d459 fd3f 4201 2bbf 9632 d03f 9a72 1240
00000040: 3d0a 843f dccf 2240 28ac fa3f 629e 18bf
00000050: 027e 933f 732c cc3f b0e7 ec3f ee2e 843f
00000060: 75b8 b23f 0d09 df3f dce3 923f 3af4 3ebf
00000070: b51e 953f 3745 fe3f 9588 0c40 dfe4 db3f
1.1330003 1.8264822 2.819546 1.4939127 -0.21612631 2.319892 3.2378602 2.3967645
-0.64536834 1.3029038 2.8275623 1.7120113 1.9793038 -0.66798794 1.6265438 2.2882447
1.0315624 2.5439367 1.9583788 -0.59616673 1.152283 1.5951065 1.8508205 1.0326822
1.3962542 1.7424637 1.1475787 -0.7459141 1.1649996 1.9864873 2.1958363 1.7179221

resnet_denoiser/level_0/conv2d_36/Conv2D f4 [16]
00000000: 0000 0000 0000 0000 0000 0000 0000 0000
00000010: 0000 0000 0000 0000 0000 0000 0000 0000
00000020: 0000 0000 0000 0000 0000 0000 0000 0000
00000030: 0000 0000 0000 0000 0000 0000 0000 0000
0.0 0.0 0.0 0.0 0.0 0.0 0.0 0.0
0.0 0.0 0.0 0.0 0.0 0.0 0.0 0.0

resnet_denoiser/level_0/conv2d/Conv2D i1 [16, 7, 7, 3]
00000000: 02fd 0100 0000 0001 01ff 0001 0101 0000
00000010: 0000 01fd 0200 0000 0002 fef8 0500 ef04
00000020: 00f9 0600 fe03 ff00 0000 0000 00f9 0400
00000030: dc05 01c4 0000 dd07 03fa 0600 0000 01fd
00000040: 0000 ef02 00c0 ff00 81d9 eec4 0000 f104
00000050: 02fe 0002 0000 00f8 05ff da03 00c2 0000
00000060: de06 02fa 0600 0000 0200 0000 0003 fdf9
00000070: 0600 f004 00fb 0600 0003 ff00 0000 02fe
00000080: 0101 0000 0001 00ff 0000 0001 0001 0000
00000090: 02fd 0200 0203 0001 0302 0409 0104 0702
000000a0: 0508 0001 02ff 0003 0000 0302 0504 0d08
000000b0: 0a04 0603 0b0b 0c02 0506 0001 0100 0508
000000c0: 0d09 0b00 00fc e7f2 e400 00ff 0c0c 0d01
000000d0: 070a 0003 0b06 0505 ecf7 ea85 9f81 e9f1
000000e0: e209 080a 0105 0c00 0709 0f0b 0c00 00fe
000000f0: eff5 e701 0000 0c0c 0e00 070a 0000 0305
2 -3 1 0 0 0 0 1
1 -1 0 1 1 1 0 0
0 0 1 -3 2 0 0 0
0 2 -2 -8 5 0 -17 4
0 -7 6 0 -2 3 -1 0
0 0 0 0 0 -7 4 0
-36 5 1 -60 0 0 -35 7
3 -6 6 0 0 0 1 -3
0 0 -17 2 0 -64 -1 0
-127 -39 -18 -60 0 0 -15 4
2 -2 0 2 0 0 0 -8
5 -1 -38 3 0 -62 0 0
-34 6 2 -6 6 0 0 0
2 0 0 0 0 3 -3 -7
6 0 -16 4 0 -5 6 0
0 3 -1 0 0 0 2 -2
1 1 0 0 0 1 0 -1
0 0 0 1 0 1 0 0
2 -3 2 0 2 3 0 1
3 2 4 9 1 4 7 2
5 8 0 1 2 -1 0 3
0 0 3 2 5 4 13 8
10 4 6 3 11 11 12 2
5 6 0 1 1 0 5 8
13 9 11 0 0 -4 -25 -14
-28 0 0 -1 12 12 13 1
7 10 0 3 11 6 5 5
-20 -9 -22 -123 -97 -127 -23 -15
-30 9 8 10 1 5 12 0
7 9 15 11 12 0 0 -2
-17 -11 -25 1 0 0 12 12
14 0 7 10 0 0 3 5

resnet_denoiser/level_0/conv2d_1/Conv2D f4 [16, 1, 1, 16]
00000000: c1f4 c2be f04e 61bd 0dab 4f3b 37f7 993c
00000010: 4ce3 073c 4857 1e3b 317b 29bd 8ce2 16be
00000020: ad99 b63b a4f2 2b3b 91c0 c23b 3e54 06ba
00000030: 8e35 693a c9e9 9f3e 0ab1 41bb 46a8 863b
00000040: 395e d33d 3122 863e a6b2 9e3c e484 213e
00000050: 779a 683c 823f beb9 372b a23e 0e98 5d3e
00000060: efbc 16bb f1a7 6a3b df9c 0bb9 69fe 153d
00000070: 93fc 57ba 0fbc 4dbb be58 623b 6f4e 06bb
00000080: 56b5 693b 6fd2 003f cf5e 0e3e 356c cbbe
00000090: a702 b2be c604 0c3c 553f 573c 44c0 68be
000000a0: 80ad fbbc fc2c d4bb 1001 8d3b b097 bfbd
000000b0: de0e f43d abbc ae3d 9d7f d23a 8d07 86be
000000c0: cedf 6c3e 42c2 f2be dbb0 39bd feed 01be
000000d0: 7c70 fd3e d88c 823b f7f4 b0bc 7f50 6f3e
000000e0: 38a3 d0bd e9ad cb3e 7dd4 033b a0d3 da3d
000000f0: c9aa 8bbc cadf 1c3f 44c8 5b3d 6448 213f
00000100: 6dfc 5a3e 83fb 1fbe 7f1c eb3e 2b73 75bf
00000110: b518 5fbe 8ae3 9bbe 3475 353f 24d2 063f
00000120: 05c1 903f a14c 053d 50c9 7ebe c71f f23d
00000130: f85c 41b8 fc04 e93e be23 4ebf ec8a 883d
00000140: 8fa0 11be 1581 d33d eb4f 6e3f 1859 7a3e
00000150: 5502 263f fa2d 68be d066 fabd 93b3 e73d
00000160: 2735 8f3e 23c8 563e 8d97 d93e 5ebb cebe
00000170: 613b b8bd 8fcc 783d f53e 69bd c48d 4dbf
00000180: 4820 923e 6646 73bf cdd3 babc 7722 1fbf
00000190: ae27 8cbf 681b 28bf 2c66 b5bb 62c6 dc3e
000001a0: e929 6bbd cf28 7d3e e75b bc3e 86d8 afbf
000001b0: c9ac 42be de9e 95bd 4a32 44bf f637 5fbe
000001c0: 995e bf3e b367 73be e36b 753e a08e 20bf
000001d0: ccac 20bd a22a ddbd d99f 9b3d fff2 ae3e
000001e0: 8328 083f f751 c7bc 206c cd3d 039d 1dbe
000001f0: 7ee7 763a 869c 653e ca12 c8be 7082 023e
00000200: ee0e 64be bb1c 823e 0270 13bf 5976 853f
00000210: f837 923e b5fe 2b3e 7f37 ccbe 7de5 64be
00000220: fbe9 58bf 9153 183e f6f4 f6bc 748b 953c
00000230: 3a3d 16bc c5a2 8dbc 6a67 1e3f 9b82 b0bd
00000240: 6afc 103b 3f40 373d e739 593e 93dc 99bb
00000250: 84dd 6fbd 99ef b93e b71c df3e 3280 26bd
00000260: bd4d 853f 3b7a 3ebf 8707 72be b984 053f
00000270: 915a 96be dd39 99be 1934 debe b786 12bf
00000280: fe10 c1bc 8f69 f0bd 05fd 9ebf 4e40 053d
00000290: 59aa ef3e bb91 10bf c793 8d3e 7fb7 57be
000002a0: 6e5a 813f 6d68 e2bd a4bb 573e 3bf7 12bf
000002b0: 44e4 13bd a858 5dbf 57c1 113f 4032 ecbe
000002c0: 4a54 f3bd 0ef5 4f3f ae81 a1bb 5272 123f
000002d0: ae0d 753f 040a 0c3f d1f5 e2bd 16da c7be
000002e0: 94da ea3d 88b8 7fbe 12fd 80be 8d6a 943f
000002f0: a81b 6f3e 054b 153d dcd8 1d3f f164 243e
00000300: 37dd 10bd e68c d0bb 8bc8 193c d4c2 293d
00000310: c27f be3c 7647 b2bc 7466 41bb 10f4 06b8
00000320: a93d 753c 1aef a5bd d806 76be 1fc7 a7be
00000330: a72c 663d 8b52 ebbd 360e 273a 36a9 ea3c
00000340: 0f5d b0bd c0ea 613d 03f9 54be d70d ee3c
00000350: aa4f ea3d 7330 b1be dfa9 5bbe 8bda be3d
00000360: de2e 6abf 4a8c 303f f3d3 2d3d 97f5 b3be
00000370: 372e 593e 8561 d33e 26c2 583e ae1f f83e
00000380: 337b 9b3d f7c1 77bd 7404 d33d 8525 47bd
00000390: 091b c4bd 369b 2d3e 36ba 0d3e aaca 503e
000003a0: 1b3c 1d3f aaa1 bdbe 5c74 8a3d 56ff b23b
000003b0: 26d9 6dbe 8a12 66bd 5118 12bf 4cbd 75be
000003c0: d21a 86bc bcba 2bbf 9a5e 9cba a7c9 323f
000003d0: 1f16 4bba 62f2 643a 244e 6dbd 25ea bdbb
000003e0: 51bc f3bb 21c3 00bd 2849 9cba 4874 cdba
000003f0: 6c25 a9ba 20e7 42be 266a db3c de29 6ebb
-0.38077357 -0.05500692 0.0031687648 0.018794639 0.008293938 0.002416091 -0.04137725 -0.14734858
0.005572519 0.0026237154 0.005943366 -0.00051242474 0.0008896225 0.3123305 -0.0029554986 0.004109415
0.10320706 0.2619796 0.019372296 0.1577335 0.014196984 -0.0003628694 0.31673595 0.21640036
-0.0023000797 0.0035805667 -0.00013314512 0.036619578 -0.00082392356 -0.003139261 0.0034537758 -0.0020493527
0.0035661063 0.50321096 0.13903354 -0.39730993 -0.3476765 0.00854606 0.013137658 -0.22729594
-0.03072238 -0.006475089 0.004303105 -0.09355104 0.11916898 0.08532079 0.001605976 -0.26177636
0.2313225 -0.47413832 -0.04533468 -0.12688443 0.4949988 0.003984075 -0.021601183 0.2337055
-0.101873815 0.3978112 0.0020115667 0.106848955 -0.01704921 0.61278975 0.053657785 0.63001084
0.21385355 -0.15623288 0.45920178 -0.9587886 -0.21786769 -0.30447036 0.7088196 0.526644
1.1308905 0.032543782 -0.24881482 0.11822467 -4.610137e-05 0.45511615 -0.8052329 0.06667122
-0.14221404 0.10327355 0.93090695 0.24448049 0.6484731 -0.22673789 -0.12226641 0.11313548
0.2797024 0.20974784 0.42498437 -0.40377325 -0.08995701 0.060741957 -0.056944806 -0.8029444
0.28540254 -0.95029294 -0.022806073 -0.62161964 -1.0949609 -0.6566682 -0.0055358615 0.43120104
-0.057413016 0.24722598 0.36788866 -1.3737953 -0.19011225 -0.07305692 -0.76639235 -0.21798691
0.3737686 -0.23770027 0.23966937 -0.6271763 -0.039227292 -0.10799147 0.07598848 0.34169766
0.53186816 -0.024331076 0.10030389 -0.15391926 0.00094186503 0.2242299 -0.39076835 0.1274507
-0.2227132 0.25412545 -0.57592785 1.0426742 0.28558326 0.16796382 -0.3988609 -0.22353168
-0.84732026 0.14875628 -0.030146103 0.018254973 -0.009169871 -0.017289529 0.6187655 -0.08618661
0.0022123107 0.044739004 0.21213494 -0.004695484 -0.058560863 0.3631561 0.43576595 -0.0406496
1.0414349 -0.7440526 -0.23635684 0.52155644 -0.29365972 -0.2992696 -0.43399122 -0.5723681
-0.023567673 -0.11738884 -1.2420965 0.03253203 0.46809652 -0.5647237 0.27651808 -0.21066092
1.0105722 -0.11055074 0.21067673 -0.57408494 -0.036106363 -0.86463404 0.5693564 -0.46132088
-0.11881311 0.812333 -0.004928789 0.5720569 0.95724 0.5470278 -0.11082042 -0.39033574
0.11467472 -0.24972737 -0.25193077 1.1595017 0.23350394 0.036448497 0.61659026 0.16054131
-0.035367217 -0.0063644527 0.009386192 0.04144557 0.023254279 -0.02176259 -0.002951053 -3.217539e-05
0.014968314 -0.08102246 -0.24026048 -0.32769105 0.056194928 -0.11490353 0.0006372662 0.02864514
-0.086114995 0.055155516 -0.20798115 0.029059334 0.11440976 -0.34607276 -0.2145152 0.093190275
-0.91477764 0.68964064 0.04243846 -0.35148308 0.21209036 0.4128534 0.21167812 0.4846167
0.07591858 -0.060487714 0.10303584 -0.048619766 -0.09575469 0.1695374 0.13840565 0.2038981
0.6141984 -0.37037402 0.06760475 0.0054625673 -0.23227367 -0.056170024 -0.57068354 -0.23997992
-0.01637021 -0.6708181 -0.0011930049 0.6983895 -0.0007747132 0.00087336276 -0.05793585 -0.0057957345
-0.0074382205 -0.03143609 -0.0011923658 -0.0015674913 -0.0012904829 -0.1903348 0.026784014 -0.0036340873

resnet_denoiser/level_0/conv2d_35/Conv2D f4 [32]
00000000: 0000 0000 0000 0000 0000 0000 0000 0000
00000010: 0000 0000 0000 0000 0000 0000 0000 0000
00000020: 0000 0000 0000 0000 0000 0000 0000 0000
00000030: 0000 0000 0000 0000 0000 0000 0000 0000
00000040: 0000 0000 0000 0000 0000 0000 0000 0000
00000050: 0000 0000 0000 0000 0000 0000 0000 0000
00000060: 0000 0000 0000 0000 0000 0000 0000 0000
00000070: 0000 0000 0000 0000 0000 0000 0000 0000
0.0 0.0 0.0 0.0 0.0 0.0 0.0 0.0
0.0 0.0 0.0 0.0 0.0 0.0 0.0 0.0
0.0 0.0 0.0 0.0 0.0 0.0 0.0 0.0
0.0 0.0 0.0 0.0 0.0 0.0 0.0 0.0

resnet_denoiser/level_0/conv2d_2/Conv2D i1 [32, 3, 3, 16]
00000000: 0000 f1f4 ff81 00ff 0000 ff03 dc01 0000
00000010: 0001 0000 00ff 0501 02fd 00fd 0001 0000
00000020: fffd fff8 0084 f901 fe00 0009 34fc faf9
00000030: 0000 00de 1100 f8ff f4fe 0005 0000 0008
00000040: ff0c 1701 00ff ff1b 00fe 0104 e108 0301
00000050: fffe ff00 00e3 0e07 ffff fffa 00fe ff02
00000060: 0000 da00 0290 03f3 fa01 0002 1e03 0013
00000070: ff02 0000 04ff feff 0000 0002 01ff 0000
00000080: ff00 fffe 008f f700 feff 0005 dffe fcfc
00000090: 0101 ff01 0400 00ff ebf7 0201 ffff 0000
000000a0: 0001 0000 0400 f800 ff00 0100 ff00 0000
000000b0: 0000 0000 0400 0100 e9f5 0101 00fd 0000
000000c0: 0001 0000 0000 fd00 fd00 00ff ff00 0000
000000d0: 0000 7f07 fffd 0fff 3c2d 0004 ff00 0000
000000e0: 0000 0000 0100 ff00 fbfe 00ff 0000 0000
000000f0: 0001 0000 0100 00ff eff5 0101 00fb 0000
0 0 -15 -12 -1 -127 0 -1
0 0 -1 3 -36 1 0 0
0 1 0 0 0 -1 5 1
2 -3 0 -3 0 1 0 0
-1 -3 -1 -8 0 -124 -7 1
-2 0 0 9 52 -4 -6 -7
0 0 0 -34 17 0 -8 -1
-12 -2 0 5 0 0 0 8
-1 12 23 1 0 -1 -1 27
0 -2 1 4 -31 8 3 1
-1 -2 -1 0 0 -29 14 7
-1 -1 -1 -6 0 -2 -1 2
0 0 -38 0 2 -112 3 -13
-6 1 0 2 30 3 0 19
-1 2 0 0 4 -1 -2 -1
0 0 0 2 1 -1 0 0
-1 0 -1 -2 0 -113 -9 0
-2 -1 0 5 -33 -2 -4 -4
1 1 -1 1 4 0 0 -1
-21 -9 2 1 -1 -1 0 0
0 1 0 0 4 0 -8 0
-1 0 1 0 -1 0 0 0
0 0 0 0 4 0 1 0
-23 -11 1 1 0 -3 0 0
0 1 0 0 0 0 -3 0
-3 0 0 -1 -1 0 0 0
0 0 127 7 -1 -3 15 -1
60 45 0 4 -1 0 0 0
0 0 0 0 1 0 -1 0
-5 -2 0 -1 0 0 0 0
0 1 0 0 1 0 0 -1
-17 -11 1 1 0 -5 0 0

resnet_denoiser/level_0/conv2d_3/Conv2D f4 [16, 1, 1, 32]
00000000: 3b93 483d ef29 9f3c 6166 c13c 59bd 9abc
00000010: 8c7b 9ebd ec0e cb3c 51a2 a6b9 4a21 b63c
00000020: fa26 e33b 24f2 e43c 55f4 b8bd 1d98 8dbb
00000030: 86df c53b 7c67 0bbd e5d0 03bd c568 38bd
00000040: 566d 923c b7aa 97bc cedd f03b 823b 57bd
00000050: 722d 533d 2a28 073e cd5d 47bc fc48 8abd
00000060: cef3 8cbd ae62 653c 6b5d 633d 24ef 833d
00000070: a140 b2bc e0ca ebba 2535 4e3c 797a 773a
00000080: b65a 08be d04c d33d d81d 443a cd51 23b9
00000090: 5554 81bd 1b19 9b3d 3ac7 51be 1880 6aba
000000a0: 52be a6ba d1f2 43bd a0d4 8dbe 99a7 943d
000000b0: 29c3 14be 9a73 d9bc bade cf3d 6888 1a3d
000000c0: 9782 9f3b 173d 003b 1a18 31be 28f7 36bb
000000d0: e0c1 cbbc 9b4c ea3c 09e2 343e f168 af3d
000000e0: e39e 80bd 8d2e 233e 4e54 753e 7172 21bc
000000f0: ef8b 983b a5f1 613d 6ff1 d13c 6dec 9dbb
00000100: 6a4f eabe 4892 fa3c a285 c5ba 65a0 bbbc
00000110: df7d 963e 61a6 513b ecc8 1bbe 92ca db39
00000120: 8290 b5be dbc8 65be f51e 173f 5545 b23d
00000130: 4e70 0bbd 6103 c73d d378 283e ec04 2c3d
00000140: a6f1 84bd 6f60 0c3e e4bf 123c 8709 0f3e
00000150: 8d7f a8be 27d9 b7be cc8a af3e 2da5 c83d
00000160: d660 753d 174f 163d 7594 c7be 326d 16bd
00000170: 7aaf d8bb 3630 33bc 4355 093d 0177 333e
00000180: 2045 193d 0174 e4be 75d3 aebc fb06 99be
00000190: 2cd6 66bd 35df 353f d5ac a23e cfa8 953e
000001a0: 9c3c 6a3e 5683 eb3e 2801 283e f21e a13e
000001b0: 26a4 d3be 159d e7be 683f db3e b8b8 9e3d
000001c0: 329d ed3b 6c6f 11bd fe13 2c3e 90c3 93be
000001d0: b075 8d3c b0c0 67bc ba28 25be fabd 1a3f
000001e0: e324 ad3f 8a78 a83e eeeb 58be 809e 9ebc
000001f0: f792 0c3e a6c2 9e3e 133a 1c3f 2abc f9be
00000200: 53b6 c43a 1a94 4f3e 6c55 b6bd 6122 d6bd
00000210: a188 93be 8b00 23bc 8f32 36bc 62d5 0d3e
00000220: a2f4 c0be fd81 3cbe c67b 003e 63f1 5d3e
00000230: 41c3 843d db20 25be 8402 8cbe 1f15 be3c
00000240: fa3d 54be 4eca f2bd f654 233d 4629 20bc
00000250: 7ce3 1a3e 4362 803f 886f babe 7af1 42be
00000260: d882 33bf eb9a 60bf f435 29be 9f3c 2c3e
00000270: b480 983a dc6e 503e 66b4 34bc aa2e e6bb
00000280: 29f0 363c c0e1 f3bc 3e9d 4d3d 5d9a 16bc
00000290: 2fd9 0a3d d879 2e3e ddf3 9cbc 6789 023d
000002a0: e0c5 a8be 3927 8fbc 580a 513f 8263 d0bd
000002b0: 862a be3e 05d8 013d 1050 22bf e082 8a3d
000002c0: e195 38bd 0d91 6e3e 6d30 aebc 488a 103c
000002d0: 3be7 e83e 8d3b 6e3d 003a 8dbd 6adf 053e
000002e0: 076c c0bc 2122 82bb 5c3d 5bbe 0b94 eb3d
000002f0: 5483 ee3d 1fc2 edbd cccb 453e 4352 eb3c
00000300: ec64 0abd 173d b53c e42a 53bc 3c49 b23c
00000310: dcb8 ea3b eae5 acbc 0071 7fbd 8a56 b3bb
00000320: 02ea d9bc 6a7a 093d 2a3c ff3c 76ac 693d
00000330: 9a3c 91bc bfb0 3fbb 410a 263b ab2d 23bd
00000340: f39e cebb 876d 3eba ffe4 bbbc ef95 3dbd
00000350: baf6 2ebb 374c b6bc c8ea 4abb 964c 1bb8
00000360: 1a76 61bd 084a 17bc d51c 5dbc aa23 d03c
00000370: 1f0c c6bc 2016 2f3d 4334 5d3a 6e05 cf3c
00000380: 976a 2dbc 4f98 e53c 712e 8f3c 40c0 1ebb
00000390: c0c1 a7bd 9ed9 123c 46fb 0dbd 18c1 903b
000003a0: 3ac2 37bd 5da5 c3bc 1a2b 1bbd e4c1 103c
000003b0: 6723 e0bc f5c1 48bb 2226 6d3c bc56 f33c
000003c0: 7e13 803b 8a54 503b cfb2 11bc a87a 633d
000003d0: 23fc 20ba 0c89 8e3d a216 f53c 3c63 7abc
000003e0: 21c3 52bd e7e9 1ebd 1d87 e73c e12a b83d
000003f0: 57a2 d5bb 7028 513c 4e81 3538 7f23 3a3c
0.048968535 0.019429175 0.023608388 -0.018889116 -0.077384084 0.024787389 -0.00031782922 0.02223267
0.0069321366 0.027947493 -0.09030978 -0.004321112 0.006038609 -0.034034237 -0.03218164 -0.04502179
0.017874401 -0.01851402 0.00735066 -0.052546985 0.051557012 0.13198915 -0.01216836 -0.06752202
-0.068824396 0.014000578 0.055509012 0.06442097 -0.021759333 -0.0017989539 0.012585913 0.0009440552
-0.13315853 0.10317385 0.00074812537 -0.00015575365 -0.06314913 0.07573148 -0.20486155 -0.0008945479
-0.0012721515 -0.04783899 -0.27701283 0.07258529 -0.14527573 -0.026544381 0.101499036 0.037727743
0.0048678624 0.0019567662 -0.1729435 -0.0027918313 -0.02487272 0.028600981 0.1766435 0.08564938
-0.06280305 0.15935726 0.23957941 -0.009853945 0.0046553533 0.05516209 0.02562782 -0.004819444
-0.45763713 0.03058733 -0.0015069733 -0.02290363 0.29392907 0.0031990039 -0.15213364 0.00041921862
-0.35461813 -0.22439902 0.5903161 0.0870463 -0.03404265 0.09717441 0.16452341 0.04199688
-0.06491403 0.13708661 0.008956883 0.13968478 -0.32909814 -0.35907862 0.3428558 0.0979713
0.059906803 0.03669652 -0.3898045 -0.03672523 -0.0066127153 -0.010936787 0.033528578 0.17525865
0.03741944 -0.44619754 -0.021341065 -0.29888138 -0.056356594 0.7104371 0.31772485 0.29230353
0.22874683 0.4599864 0.16406691 0.31468922 -0.41336173 -0.45237032 0.42821813 0.07750076
0.007251405 -0.03550665 0.16804501 -0.2886014 0.017268032 -0.014145061 -0.16128817 0.6044613
1.3526882 0.32904464 -0.2118375 -0.019362688 0.13727938 0.3100788 0.61026114 -0.4877637
0.001500795 0.2027134 -0.08903012 -0.10455776 -0.28815177 -0.00994886 -0.011120453 0.1385093
-0.3768664 -0.18408962 0.12547216 0.21674113 0.06482554 -0.16125815 -0.2734567 0.02320343
-0.20726767 -0.11854993 0.039875947 -0.009775465 0.15125841 1.0029987 -0.36413217 -0.19037428
-0.70121527 -0.87736386 -0.16524488 0.1682 0.0011635036 0.2035479 -0.011029338 -0.0070246058
0.011165657 -0.029770732 0.050198786 -0.0091920765 0.03389853 0.17038667 -0.019159252 0.03186932
-0.32963467 -0.017474758 0.8165641 -0.101752296 0.37141818 0.031700153 -0.63403416 0.06763244
-0.04506481 0.2329752 -0.021263326 0.008822031 0.45488915 0.05816226 -0.06895828 0.13073507
-0.023489011 -0.0039713536 -0.21410125 0.11502846 0.116461426 -0.11609291 0.19316024 0.028725749
-0.033787653 0.022123856 -0.012888644 0.021763436 0.0071631502 -0.021105725 -0.062363625 -0.0054729627
-0.026600841 0.03356401 0.031156618 0.057049237 -0.017729092 -0.0029249636 0.0025335702 -0.039838474
-0.0063055693 -0.00072642457 -0.022936342 -0.046285566 -0.0026697353 -0.022253139 -0.0030962694 -3.7026206e-05
-0.05504427 -0.009233959 -0.013495644 0.025407631 -0.024175702 0.04274571 0.00084382686 0.025271144
-0.010584495 0.028026728 0.0174782 -0.0024223477 -0.08191252 0.008963017 -0.03466346 0.00441755
-0.044862963 -0.023882562 -0.0378829 0.00883529 -0.027360631 -0.0030633186 0.014474424 0.029704444
0.0039085736 0.003178867 -0.008892729 0.055536896 -0.0006141087 0.06959733 0.029918019 -0.015282448
-0.05145562 -0.038797285 0.02826267 0.089925535 -0.0065195966 0.012765989 4.3274187e-05 0.011361002
