bfcnn/pretrained/hydra_resnet_selector_color_1x6_bn_32x32_3x3_64x64_erf_relu/inpaint_model.tflite (tflite, 243824 bytes, 59 tensors)

resnet_backbone/level_0/dense_9/MatMul f4 [32, 8]
0.019044911 -4.9283597e-07 -0.045507018 -5.0496965e-07 5.064161e-07 5.2138707e-06 0.14866407 -4.992793e-07
0.0144295795 4.649388e-07 -0.005165578 4.9472874e-07 -4.5281513e-07 -2.8643894e-06 0.00051497354 -4.9585094e-07
0.47771978 5.0612874e-07 0.00020012447 4.955681e-07 5.041505e-07 -1.0613303e-06 -1.8381434e-05 -5.061436e-07
-0.0009485901 5.07988e-07 -0.00092543435 -5.066615e-07 -5.075378e-07 -5.0817715e-07 -0.0003835095 -5.0431225e-07
0.3125185 5.0067615e-07 -0.00036158683 -4.853886e-07 -5.076358e-07 -7.428061e-07 0.18634118 5.038161e-07
-0.0007056748 -5.025433e-07 -4.9659155e-07 5.02978e-07 -5.035046e-07 -5.077265e-07 -1.34685415e-05 -5.0356283e-07
0.8018446 5.0239026e-07 -0.015955314 5.0505673e-07 5.0654484e-07 -1.0651445e-06 0.16101404 5.089383e-07
-0.00022136292 4.970627e-07 -4.7536645e-07 4.977621e-07 -5.0383886e-07 5.429808e-07 -5.0174486e-07 5.003587e-07
0.18968399 -4.942139e-07 -0.0072154975 4.851699e-07 5.0738157e-07 -2.1152564e-06 0.13743256 -5.0516707e-07
-0.0008114012 -5.0868056e-07 -4.7627094e-07 -5.022786e-07 -5.0228135e-07 4.837563e-07 4.5239966e-07 -5.019903e-07
0.16117853 -4.9955486e-07 -0.00010201557 -5.074966e-07 -5.060864e-07 -2.968703e-06 0.07904124 -5.0726055e-07
0.39695972 -5.047957e-07 0.0002540039 -5.0699964e-07 5.032999e-07 -9.4751863e-07 -6.5680375e-05 5.102664e-07
0.3551276 4.876291e-07 -3.7563e-05 -5.0154426e-07 -5.0798405e-07 0.01162187 3.7884558e-05 -5.0584185e-07
0.4961529 5.0416736e-07 -0.00020962949 -5.0794824e-07 -5.0627995e-07 -5.481807e-06 -0.1146578 -4.7272306e-07
0.2152098 -5.0013176e-07 -0.00020416864 -5.044838e-07 -5.0532634e-07 5.3176075e-07 0.03067129 -4.8795283e-07
-1.8515595e-05 -5.044221e-07 -9.2538954e-07 -5.0342186e-07 -5.0256045e-07 4.7946145e-07 4.9735337e-07 5.026524e-07
0.03704689 5.037614e-07 -0.00078883587 4.9411636e-07 -5.0706007e-07 -3.388008e-06 0.11673091 -5.0850025e-07
0.6121812 5.081186e-07 -0.00025530075 -5.0416526e-07 -5.0305704e-07 -1.4289794e-06 0.10336763 -5.0736656e-07
0.3963461 -4.972677e-07 0.29374042 -4.8121785e-07 -5.0554047e-07 -6.4552535e-07 5.104249e-06 -5.0658485e-07
0.7320292 5.0518946e-07 -9.8090844e-05 5.07882e-07 5.066674e-07 -7.951357e-08 -4.062044e-05 -4.8805094e-07
0.52593666 -5.0324167e-07 0.00011668878 5.012626e-07 5.060364e-07 1.7534236e-07 -3.6381964e-05 -4.9543667e-07
0.6235753 -4.7245328e-07 0.22007436 5.0673725e-07 -5.033764e-07 -0.030256344 0.11317524 -5.0851213e-07
0.6444643 4.920901e-07 -0.00017784353 4.823978e-07 -4.6721976e-07 -5.1237834e-07 0.013853764 -4.7425647e-07
-1.0683537e-05 -5.0333443e-07 7.635916e-07 -5.028863e-07 -5.020806e-07 -6.9899573e-07 -8.95777e-07 -5.037611e-07
0.021640988 5.039846e-07 8.487099e-06 5.035983e-07 -5.079792e-07 -1.6037271e-06 -8.372232e-06 -4.9368475e-07
-0.00034552137 5.0303987e-07 -5.437615e-05 5.0392345e-07 -4.9672843e-07 -5.4120727e-07 5.0883517e-07 5.039473e-07
0.2086118 5.0554485e-07 6.62972e-05 5.0913553e-07 4.960341e-07 9.861769e-07 1.0847566e-06 4.9425427e-07
-6.2664316e-05 -5.0242596e-07 9.15354e-07 5.0048146e-07 5.019328e-07 -4.546186e-07 -4.955917e-07 5.0127363e-07
-0.0008783901 5.0181114e-07 -0.00022112265 -5.0246507e-07 5.016465e-07 -5.4660734e-07 -6.0618164e-05 -5.03722e-07
-0.00040685516 -5.052438e-07 -0.0013089563 4.984143e-07 5.024505e-07 -1.893204e-06 0.013613813 -5.041189e-07
0.4086247 4.9655023e-07 -0.045984052 4.96122e-07 -4.840273e-07 -1.9461972e-06 9.2545015e-06 5.0693495e-07
-4.1159168e-05 -5.0186753e-07 5.010908e-07 5.018848e-07 5.019394e-07 4.850237e-07 4.7186785e-07 -5.030185e-07
00000000: 1304 9c3c 6e4b 04b5 9165 3abd 408d 07b5
00000010: a6f0 0735 cff2 ae36 653b 183e 3606 06b5
00000020: 0b6a 6c3c b49c f934 0244 a9bb 80cd 0435
00000030: 701a f3b4 d639 40b6 4aff 063a 9e1a 05b5
00000040: b097 f43e e7dc 0735 81d8 5139 2e07 0535
00000050: f554 0735 0873 8eb5 d431 9ab7 ecdd 07b5
00000060: ceaa 78ba ab5c 0835 d998 72ba 8301 08b5
00000070: bb3d 08b5 ab69 08b5 c611 c9b9 1360 07b5
00000080: 6d02 a03e 3466 0635 5d93 bdb9 a74b 02b5
00000090: 7744 08b5 3f65 47b5 39d0 3e3e fb3d 0735
000000a0: 09fd 38ba 83e6 06b5 834d 05b5 6304 0735
000000b0: 9328 07b5 b34a 08b5 f2f6 61b7 932c 07b5
000000c0: b045 4d3f ffdb 0635 b8b4 82bc 3c93 0735
000000d0: 7ff9 0735 16f6 8eb5 dde0 243e f99d 0835
000000e0: a81d 68b9 e36d 0535 de35 ffb4 f39d 0535
000000f0: 8b3f 07b5 5bc1 1135 a5af 06b5 6350 0635
00000100: 853c 423e 1faa 04b5 fb6f ecbb 9f3c 0235
00000110: ff32 0835 d4f3 0db6 1fbb 0c3e d19a 07b5
00000120: 36b4 54ba 438c 08b5 2eb2 ffb4 53d4 06b5
00000130: 83d4 06b5 7bdb 0135 56e1 f234 83c0 06b5
00000140: fc0b 253e 2619 06b5 31f1 d5b8 e73a 08b5
00000150: fed9 07b5 ee39 47b6 60e0 a13d ae2a 08b5
00000160: 4e3e cb3e 4c81 07b5 d42b 8539 c018 08b5
00000170: 811a 0735 fc58 7eb5 e2bd 89b8 3df9 0835
00000180: 49d3 b53e 9ee5 0235 f78c 1db8 dca1 06b5
00000190: 665c 08b5 a869 3e3c 3ce6 1e38 30c9 07b5
000001a0: c107 fe3e 1e56 0735 fdcf 5bb9 f059 08b5
000001b0: 4be7 07b5 5df0 b7b6 b5d1 eabd 90ca fdb4
000001c0: f55f 5c3e cb40 06b5 1a16 56b9 dd6b 07b5
000001d0: c3a5 07b5 52be 0e35 5b42 fb3c ddfb 02b5
000001e0: f051 9bb7 9f67 07b5 4968 78b5 e322 07b5
000001f0: b1e7 06b5 57b4 0035 dd81 0535 03ee 0635
00000200: 7bbe 173d 383a 0735 e1c9 4eba 6ba3 0435
00000210: e71c 08b5 895d 63b6 9e10 ef3d df7f 08b5
00000220: e8b7 1c3f a565 0835 e3d9 85b9 f955 07b5
00000230: d109 07b5 5ccb bfb5 68b2 d33d f731 08b5
00000240: e0ed ca3e fa7b 05b5 2565 963e 0a2d 01b5
00000250: 7ab4 07b5 2a48 2db5 2a45 ab36 3ffc 07b5
00000260: 4466 3b3f 5b9c 0735 1fb6 cdb8 6355 0835
00000270: eb01 0835 0cc1 aab3 de5f 2ab8 9b02 03b5
00000280: c9a3 063f 8116 07b5 d0b6 f438 818e 0635
00000290: 8ed6 0735 be45 3c34 d698 18b8 26fe 04b5
000002a0: a2a2 1f3f 7ca5 fdb4 2c5b 613e b806 0835
000002b0: c31f 07b5 27dc f7bc 6cc8 e73d b080 08b5
000002c0: 9dfb 243f 2d18 0435 827b 3ab9 207e 0135
000002d0: 32d6 fab4 5f8a 09b5 e6fa 623c 509d feb4
000002e0: 713d 33b7 e11c 07b5 9df9 4c35 15fe 06b5
000002f0: b7c6 06b5 9fa2 3bb5 5475 70b5 333a 07b5
00000300: 7148 b13c 8f49 0735 d063 0e37 032f 0735
00000310: 115c 08b5 a53f d7b5 7676 0cb7 c285 04b5
00000320: 1827 b5b9 a308 0735 f211 64b8 5b45 0735
00000330: eb56 05b5 7b47 11b5 e396 0835 ff46 0735
00000340: 559e 553e c7b4 0735 0a09 8b38 87ab 0835
00000350: 3427 0535 c85c 8435 f497 9135 e5ac 0435
00000360: a66a 83b8 73de 06b5 a6b6 7535 d358 0635
00000370: 8fbc 0635 4e12 f4b4 cd08 05b5 438f 0635
00000380: c343 66ba 33b4 0635 29dd 67b9 23e1 06b5
00000390: e3a8 0635 92ba 12b5 4240 7eb8 8337 07b5
000003a0: 2d4f d5b9 17a0 07b5 4991 abba c5ca 0535
000003b0: 23e0 0635 fe19 feb5 780c 5f3c c952 07b5
000003c0: 4237 d13e ac4a 0535 c659 3cbd 3f2d 0535
000003d0: 1aee 01b5 6a9b 02b6 c843 1b37 4e14 0835
000003e0: 52a2 2cb8 13b8 06b5 b382 0635 43b9 0635
000003f0: 03bd 0635 9332 0235 0655 fd34 2b07 07b5

resnet_backbone/level_0/dense_8/MatMul f4 [8, 32]
-6.8567664e-05 -1.9108924e-05 0.08182936 7.010287e-06 -9.188759e-06 -2.3125918e-05 0.006153115 0.0013417401
0.43506244 0.17876956 0.04734705 -1.8997382e-05 0.75932103 0.00033743316 0.6493153 0.7119924
0.20488673 0.19286096 0.5962609 0.09438949 0.15391551 0.4618614 0.102680996 -0.0002465603
0.15586165 -8.763513e-06 0.024060214 -0.00014260256 0.7564776 0.041869428 0.24736342 0.104477696
5.0856397e-07 -5.0121486e-07 4.806629e-07 -4.8518086e-07 -4.9506787e-07 5.0532515e-07 4.75719e-07 5.0387854e-07
-5.064061e-07 -5.0347177e-07 -5.010847e-07 -4.9068285e-07 -4.916381e-07 -4.9673946e-07 -4.938418e-07 5.037387e-07
-4.811715e-07 -4.9607416e-07 -5.074666e-07 -4.9576323e-07 -4.943459e-07 -4.8756215e-07 5.093745e-07 5.063618e-07
-4.974227e-07 -4.975372e-07 4.7401193e-07 -4.920574e-07 -4.836443e-07 -4.8876603e-07 4.784573e-07 5.0916026e-07
1.0662929e-05 -9.979481e-07 0.00017318645 2.084797e-05 1.7436621e-06 1.3781927e-05 5.311628e-05 2.7793058e-06
0.30536336 4.563819e-05 4.2299675e-05 2.9554944e-06 -4.5610333e-05 -3.2619e-06 -0.0007871236 2.1065944e-05
2.856845e-06 -1.13787155e-05 0.00010153221 -3.6101397e-09 3.5675396e-06 3.0848758e-05 -9.384357e-06 1.759116e-06
-5.613181e-06 -1.729108e-07 3.6528563e-06 1.1711936e-06 0.0056561534 -1.8237153e-05 0.00016254271 6.699718e-07
-4.936885e-07 5.0448773e-07 5.065742e-07 5.060758e-07 5.0455566e-07 -4.940097e-07 5.0895267e-07 -4.963346e-07
-4.981187e-07 -5.0702795e-07 5.0469686e-07 5.083014e-07 5.060382e-07 4.9834784e-07 -5.0095787e-07 5.0545276e-07
-4.911576e-07 4.960673e-07 5.0692114e-07 5.029209e-07 -4.9510635e-07 -4.9335495e-07 5.0814396e-07 -5.0813514e-07
-4.9945294e-07 5.023806e-07 -4.9338826e-07 -5.0013944e-07 -4.8612907e-07 -4.964558e-07 5.0879044e-07 5.039014e-07
5.0789225e-07 5.0448585e-07 -4.986992e-07 5.003108e-07 5.0373404e-07 -5.070819e-07 -5.0657223e-07 -5.0903526e-07
5.046588e-07 -5.0553024e-07 -4.9924165e-07 -4.980715e-07 -5.016401e-07 5.050305e-07 -5.108745e-07 5.074179e-07
-5.068646e-07 -5.031596e-07 4.99516e-07 5.06639e-07 -5.0992867e-07 5.052794e-07 5.07221e-07 5.07584e-07
5.055928e-07 5.0269597e-07 5.078286e-07 5.045492e-07 5.072138e-07 -5.1040814e-07 -5.057929e-07 5.039867e-07
-5.575524e-07 3.685583e-07 -6.235096e-06 -1.1233891e-06 7.1350695e-07 -2.637653e-07 -1.7449563e-06 -7.559596e-07
-3.8848393e-05 -1.091948e-06 2.1018625e-06 0.02010548 9.551627e-07 2.1235928e-07 0.01264674 2.4940692e-07
-6.0155514e-07 1.197913e-06 -6.3830316e-07 -3.814397e-07 6.560399e-07 -1.2402455e-07 -7.96752e-07 -3.4980098e-07
-9.67776e-07 9.3025307e-07 -1.2711002e-06 -1.1184079e-07 -5.3047137e-07 6.243623e-07 -4.9965493e-06 -9.378061e-08
5.051111e-05 4.530897e-06 -0.10537802 2.2155222e-05 -3.1196805e-06 5.8993934e-05 -3.5280656e-05 4.388716e-05
-0.057701483 0.406537 -0.018910188 1.4084726e-05 0.00017243171 7.308648e-05 0.17685993 5.444599e-07
5.8097034e-05 7.736232e-05 0.09852141 6.877783e-05 8.69045e-05 1.760326e-05 0.00018294751 3.133423e-05
7.688625e-06 -1.861541e-06 -0.018525314 -8.568092e-06 5.503771e-06 0.00011642535 0.10110533 5.0993873e-05
4.988028e-07 5.0104677e-07 4.963295e-07 -5.006785e-07 5.0039574e-07 5.0693984e-07 4.991656e-07 5.002468e-07
-5.211232e-07 5.00486e-07 -5.010965e-07 5.000003e-07 5.005808e-07 -4.9816816e-07 5.0816357e-07 4.988243e-07
5.0132763e-07 -4.9513403e-07 -5.0253453e-07 4.942681e-07 5.0066154e-07 -5.024565e-07 -4.962808e-07 4.9677436e-07
4.97955e-07 5.011905e-07 -5.0769245e-07 4.986398e-07 -4.9666465e-07 -4.902371e-07 -4.9003665e-07 4.9463597e-07
00000000: fccb 8fb8 1a4c a0b7 2796 a73d e839 eb36
00000010: 6b29 1ab7 88fe c1b7 12a0 c93b 54dd af3a
00000020: 81c0 de3e 5e0f 373e fbee 413d 915c 9fb7
00000030: dd62 423f 83e9 b039 8739 263f 2245 363f
00000040: d4cd 513e 587d 453e 8ea4 183f 474f c13d
00000050: 079c 1d3e 1979 ec3e 6a4a d23d c344 81b9
00000060: 329a 1f3e 0007 13b7 ed19 c53c 9587 15b9
00000070: 84a8 413f 477f 2b3d d64c 7d3e 67f8 d53d
00000080: 4084 0835 398b 06b5 e706 0135 603d 02b5
00000090: cee4 04b5 aea5 0735 5266 ff34 4542 0735
000000a0: f6ef 07b5 5126 07b5 4782 06b5 78b7 03b5
000000b0: 1df9 03b5 ad57 05b5 8d90 04b5 a938 0735
000000c0: db29 01b5 f529 05b5 d738 08b5 9714 05b5
000000d0: 31b3 04b5 04e1 02b5 f3bb 0835 ebec 0735
000000e0: a186 05b5 7f8e 05b5 b47b fe34 ed15 04b5
000000f0: c9d3 01b5 bf33 03b5 566f 0035 3aad 0835
00000100: eee4 3237 3cf1 85b5 6299 3539 ade2 ae37
00000110: c607 ea35 ed38 6737 2cc9 5e38 1c84 3a36
00000120: 9658 9c3e a26b 3f38 ee6a 3138 0257 4636
00000130: b94d 3fb8 04e7 5ab6 f856 4eba c5b6 b037
00000140: 39b8 3f36 36e7 3eb7 b1ed d438 4016 78b1
00000150: dd69 6f36 9a63 0138 8271 1db7 c41a ec35
00000160: dc58 bcb6 5ca9 39b4 9823 7536 e831 9d35
00000170: 4157 b93b fdfb 98b7 3a70 2a39 1dd8 3335
00000180: 0486 04b5 226c 0735 84fb 0735 44d9 0735
00000190: cd70 0735 179c 04b5 f69e 0835 db3b 05b5
000001a0: 75b6 05b5 b21a 08b5 817a 0735 3572 0835
000001b0: aed6 0735 34c6 0535 9079 06b5 73ae 0735
000001c0: 18d8 03b5 7c29 0535 5b13 0835 7600 0735
000001d0: 73e7 04b5 186f 04b5 6367 0835 c866 08b5
000001e0: 2512 06b5 55db 0635 6271 04b5 5241 06b5
000001f0: 897e 02b5 2f44 05b5 d093 0835 d743 0735
00000200: 1756 0835 016c 0735 59de 05b5 194d 0635
00000210: 5738 0735 671e 08b5 61fb 07b5 a3a4 08b5
00000220: e377 0735 c6b3 07b5 a003 06b5 36b3 05b5
00000230: 72a8 06b5 6f91 0735 0723 09b5 7e35 0835
00000240: 780f 08b5 dd10 07b5 7a16 0635 f8ff 0735
00000250: 08e2 08b5 89a2 0735 f627 0835 e840 0835
00000260: 13b8 0735 01f1 0635 b751 0835 5b70 0735
00000270: 7827 0835 fb02 09b5 d3c5 07b5 b449 0735
00000280: b6aa 15b5 44de c534 1137 d1b6 5bc7 96b5
00000290: d387 3f35 a09b 8db4 3e34 eab5 26ed 4ab5
000002a0: 25f1 22b8 0c8f 92b5 b90d 0d36 3fb4 a43c
000002b0: 2433 8035 e004 6434 4634 4f3c 3ae6 8534
000002c0: 8e7a 21b5 fac7 a035 dc57 2bb5 acc8 ccb4
000002d0: b81a 3035 9c2b 05b4 61e0 55b5 48cc bbb4
000002e0: 88e4 81b5 81b6 7935 ac9a aab5 202d f0b3
000002f0: b765 0eb5 da99 2735 08a8 a7b6 7064 c9b3
00000300: e4db 5338 1c08 9836 6ed0 d7bd fad9 b937
00000310: b45b 51b6 4170 7738 51fa 13b8 7b13 3838
00000320: 6458 6cbd 9e25 d03e 8ae9 9abc 704d 6c37
00000330: c9ce 3439 0146 9938 c51a 353e 0027 1235
00000340: 37ad 7338 943d a238 98c5 c93d d13c 9038
00000350: 8040 b638 b7aa 9337 99d5 3f39 e06c 0338
00000360: 65fe 0037 10da f9b5 66c2 97bc adbf 0fb7
00000370: 08ad b836 6229 f438 5010 cf3d 41e2 5538
00000380: 78e5 0535 ac7f 0635 813b 0535 5d66 06b5
00000390: ef52 0635 a414 0835 66fe 0535 b348 0635
000003a0: 50e3 0bb5 2359 0635 1783 06b5 c237 0635
000003b0: a75f 0635 dbb9 05b5 bc68 0835 f2e6 0535
000003c0: f992 0635 5ae9 04b5 e9e5 06b5 d8ad 0435
000003d0: 3365 0635 8ce0 06b5 2838 05b5 135a 0535
000003e0: 35ab 0535 8d89 0635 5c48 08b5 44da 0535
000003f0: 8952 05b5 d698 03b5 108b 03b5 20c7 0435

resnet_backbone/level_0/dense_7/MatMul f4 [32, 8]
-4.6482404e-07 -5.0335046e-07 -5.438321e-07 -4.6742247e-07 4.977889e-07 -9.221639e-05 5.608503e-07 4.5435598e-07
-4.271967e-05 5.0254863e-07 -0.00016796871 -5.83963e-05 -5.0540626e-07 -0.00070355675 -0.00021125059 -1.0004047e-05
0.000100311416 -4.9428854e-07 0.045777343 0.00010884368 -4.8689355e-07 0.0856824 0.3252539 4.3196953e-05
-0.0013503357 5.050162e-07 -0.0012524035 -0.001181125 4.921455e-07 -0.0003169716 -0.00076112786 -0.0012391735
-8.3527884e-05 -5.064309e-07 0.18923016 0.15122789 4.9867094e-07 0.21679398 0.20284787 -5.5519573e-05
-0.0020695473 4.8553835e-07 -0.0031256315 -0.0022455342 4.8231146e-07 -7.785419e-05 -0.0020837123 -0.00084872486
1.3042038e-05 -4.9865736e-07 0.00012197175 2.2771612e-05 -4.989023e-07 0.00038215832 0.00011636505 0.011675468
4.5944614e-07 5.035146e-07 -2.4416138e-05 4.661445e-07 -5.0310854e-07 -0.00016334208 -4.307522e-05 4.641525e-07
5.4868195e-07 4.964997e-07 -4.642431e-07 -5.339119e-07 5.0030866e-07 -6.377431e-05 4.6156794e-07 5.220722e-07
-0.00081790285 -5.100918e-07 -0.0054456447 -0.0006705335 5.044134e-07 0.057403695 0.00530476 -0.0003335973
-7.556211e-05 -4.7309925e-07 -0.0017223145 -2.9837762e-05 5.0976513e-07 0.108228005 0.078066714 2.6579895e-05
0.28273103 5.137993e-07 0.12930116 0.028664466 4.9457407e-07 0.30056873 0.026070496 -0.00017687341
-0.006032892 5.099457e-07 -0.009738106 -0.011545021 5.0142995e-07 0.52503115 -0.00230326 -3.7750866e-05
-4.7756623e-07 5.019087e-07 -3.8333933e-06 -8.477476e-07 5.046613e-07 -2.6279144e-05 -3.686472e-08 7.1327145e-07
4.4511023e-07 5.0429907e-07 4.6823732e-07 5.0677284e-07 5.018432e-07 -3.6482284e-05 6.8098376e-07 -5.061567e-07
-5.4759613e-07 5.015167e-07 -9.1384646e-07 -5.4401926e-07 5.004179e-07 -2.3606966e-05 -7.266707e-07 -9.1695284e-07
0.11670695 4.971207e-07 -0.0009360109 7.1915983e-06 4.6559643e-07 0.048778065 0.033808198 -0.38242394
-0.00028892182 5.0340725e-07 0.063520916 -0.00015119588 5.081908e-07 0.77869666 0.0009166632 -0.00014850133
3.2480748e-06 -4.925041e-07 -1.1285162e-05 -5.5348037e-06 5.0259735e-07 0.0074950326 -2.5295662e-05 7.930298e-07
-1.2697135e-05 5.073867e-07 0.000100780606 -1.2509254e-05 -5.081627e-07 0.69383866 8.354337e-05 4.36777e-06
-5.005561e-07 5.006047e-07 6.347439e-07 5.3550156e-07 5.009212e-07 -5.0577955e-06 6.7687444e-07 -5.36969e-07
0.0022586253 -5.0371636e-07 0.12636551 0.21202706 -4.791432e-07 0.6500865 0.23992032 0.0005521314
-4.6273317e-07 5.006579e-07 -5.4514358e-06 -4.5708032e-07 -5.0002023e-07 -2.3493936e-07 -3.2071794e-06 -8.642632e-07
-0.00011171583 5.071439e-07 -1.7885759e-06 -0.00010539861 -4.843141e-07 0.26842642 0.0463946 0.21277393
-4.6203098e-07 5.0158377e-07 -8.352129e-06 -8.366182e-07 5.0152306e-07 -4.5320616e-05 -1.8110732e-05 -3.0931056e-07
0.00031193293 -5.0141443e-07 0.0018376242 0.30873293 -4.9480553e-07 0.068441324 0.041550845 0.007880748
7.473119e-06 4.9922903e-07 2.3032975e-05 1.1796516e-05 -5.0655495e-07 0.00012415164 3.28532e-05 2.0812213e-06
-7.505082e-06 5.0925246e-07 -0.0037901641 4.762167e-05 5.110069e-07 0.00014396955 0.30995384 3.61931e-05
4.946348e-07 5.0228863e-07 4.861237e-07 -4.9368026e-07 -5.032254e-07 -1.0661203e-05 4.8867304e-07 -4.925866e-07
0.0006735485 4.8270044e-07 0.06803889 0.0013385377 -5.1166575e-07 0.06459776 0.025056075 1.3539848e-06
0.11691804 5.067492e-07 0.3455364 0.0062771714 5.033071e-07 0.13539247 0.29788047 6.5021406e-05
0.028078597 -5.083727e-07 0.02488599 4.8789665e-05 -4.9879617e-07 0.09645647 0.00046179042 -3.6093843e-07
00000000: ee8c f9b4 fb1d 07b5 dbfb 11b5 0ef2 fab4
00000010: cb9f 0535 4c64 c1b8 578d 1635 36ee f334
00000020: e52d 33b8 e1e6 0635 c220 30b9 8dee 74b8
00000030: 41ab 07b5 e56e 38ba 2683 5db9 0ed7 27b7
00000040: 485e d238 40af 04b5 0681 3b3d 0143 e438
00000050: 12b3 02b5 417a af3d ae87 a63e 602e 3538
00000060: bffd b0ba 7390 0735 b027 a4ba facf 9aba
00000070: fb1b 0435 352f a6b9 6d86 47ba c36b a2ba
00000080: b12b afb8 abf1 07b5 8dc5 413e 7cdb 1a3e
00000090: 68dc 0535 3eff 5d3e 5ab7 4f3e b0dd 68b8
000000a0: 3ea1 07bb f155 0235 65d7 4cbb d029 13bb
000000b0: 3178 0135 a645 a3b8 e48e 08bb f67c 5eba
000000c0: 20cf 5a37 79db 05b5 16cb ff38 aa05 bf37
000000d0: 4eec 05b5 6c5c c839 0309 f438 764a 3f3c
000000e0: cca9 f634 4329 0735 42d1 ccb7 6a42 fa34
000000f0: 5b0d 07b5 ce46 2bb9 aaab 34b8 a230 f934
00000100: 2349 1335 3347 0535 163d f9b4 2552 0fb5
00000110: f34c 0635 92be 85b8 6acd f734 8724 0c35
00000120: 8868 56ba 3eed 08b5 6171 b2bb bec6 2fba
00000130: 0667 0735 2320 6b3d 8dd3 ad3b ace6 aeb9
00000140: 1977 9eb8 44fe fdb4 49bf e1ba 1b4c fab7
00000150: cbd6 0835 a5a6 dd3d 71e1 9f3d e4f7 de37
00000160: 1fc2 903e 05ec 0935 8667 043e bed1 ea3c
00000170: dfc2 0435 25e4 993e cb91 d53c 1877 39b9
00000180: 91af c5bb 34e3 0835 948c 1fbc 5427 3dbc
00000190: 019a 0635 7168 063f 4af2 16bb af56 1eb8
000001a0: 1a32 00b5 e7ba 0635 99a0 80b6 c590 63b5
000001b0: 0f78 0735 0872 dcb7 3055 1eb3 a477 3f35
000001c0: 7cf7 ee34 2b5f 0735 0c62 fb34 2a09 0835
000001d0: 67b6 0635 8e04 19b8 d9cc 3635 d3de 07b5
000001e0: 85fe 12b5 f79f 0635 0d4f 75b5 b808 12b5
000001f0: 7554 0635 9307 c6b7 6e10 43b5 8524 76b5
00000200: 0e04 ef3d e071 0535 a15e 75ba 5c4f f136
00000210: 16f7 f934 82cb 473d 777a 0a3d 12cd c3be
00000220: 6e7a 97b9 e221 0735 4117 823d 568a 1eb9
00000230: 9b6a 0835 aa58 473f 3a4c 703a 06b7 1bb9
00000240: 80f9 5936 a034 04b5 6755 3db7 9ab7 b9b6
00000250: 3aea 0635 e498 f53b 0532 d4b7 98e0 5435
00000260: c805 55b7 5933 0835 2d5a d338 d6de 51b7
00000270: ad68 08b5 699f 313f 0134 af38 dc8e 9236
00000280: f45d 06b5 4b61 0635 4563 2a35 63bf 0f35
00000290: 0b77 0635 22b6 a9b6 75b2 3535 3b24 10b5
000002a0: 7205 143b 2037 07b5 f665 013e 9f1d 593e
000002b0: 789e 00b5 126c 263f acad 753e e9bc 103a
000002c0: 906d f8b4 f364 0635 7aeb b6b6 a464 f5b4
000002d0: 2139 06b5 a443 7cb4 ec3a 57b6 b7ff 67b5
000002e0: fb48 eab8 aa22 0835 000f f0b5 7309 ddb8
000002f0: d001 02b5 306f 893e 4408 3e3d 69e1 593e
00000300: 0e0d f8b4 93a4 0635 1f20 0cb7 f793 60b5
00000310: 67a0 0635 a416 3eb8 80ec 97b7 520f a6b4
00000320: ee8a a339 f098 06b5 70dc f03a 3e12 9e3e
00000330: c7d2 04b5 f72a 8c3d 3831 2a3d 411e 013c
00000340: 9ac1 fa36 c202 0635 f036 c137 a7e9 4537
00000350: 31fa 07b5 b42e 0239 dbcb 0938 1cab 0b36
00000360: 2ad4 fbb6 90b3 0835 6764 78bb 61bd 4738
00000370: 202c 0935 88f6 1639 45b2 9e3e 0cce 1738
00000380: 0bc7 0435 03d5 0635 2b7e 0235 7385 04b5
00000390: 6315 07b5 85dd 32b7 5b2d 0335 4b3a 04b5
000003a0: 1391 303a ec92 0135 f957 8b3d df71 af3a
000003b0: 6759 09b5 d54b 843d 6642 cd3c 90ba b535
000003c0: ba72 ef3d 8a07 0835 26ea b03e bbb0 cd3b
000003d0: 001b 0735 53a4 0a3e ca83 983e 1a5c 8838
000003e0: 1605 e63c 1b77 08b5 b4dd cb3c 81a3 4c38
000003f0: 03e5 05b5 f88a c53d 761c f239 00c7 c1b4

resnet_backbone/level_0/dense_6/MatMul f4 [8, 32]
-4.366946e-05 2.5111984e-05 0.021193998 -0.14702207 -0.0892538 7.0268097e-06 7.653978e-05 1.0632935e-05
0.00072348886 0.0007352256 9.022973e-05 5.716108e-05 -0.09175705 -2.051608e-05 0.015445369 4.8367194e-05
-6.5552413e-06 1.4508554e-05 0.00010356392 1.19656015e-05 3.343298e-07 -1.6620054e-06 0.00034705907 -0.08398005
1.417826e-05 0.00020485761 0.0016496703 3.5455385e-05 5.875945e-06 0.20220277 -1.1612726e-06 0.00045305036
4.9534685e-07 5.0229926e-07 4.9564227e-07 5.099168e-07 -4.9882937e-07 4.9774366e-07 4.969527e-07 4.9893396e-07
4.964915e-07 5.1256e-07 -4.843043e-07 -4.718941e-07 -4.925901e-07 -5.0919397e-07 4.8147365e-07 5.052415e-07
5.0132337e-07 5.013412e-07 4.873558e-07 5.030955e-07 4.9940354e-07 4.994464e-07 5.0264214e-07 -4.6877147e-07
5.044341e-07 -4.865535e-07 -5.0537403e-07 5.026006e-07 4.8658046e-07 -4.5795014e-07 5.001228e-07 -4.891636e-07
-4.1910665e-05 -3.883835e-06 -0.00020926195 -7.691411e-06 -0.0012008211 -0.0316495 -7.852383e-06 -1.4805717e-05
-0.0009648628 0.04695964 3.1116586e-05 0.00018492277 -5.8395704e-05 6.9650746e-06 0.04521258 -0.00016142288
-1.5317803e-05 1.1211796e-05 -9.939811e-05 1.458332e-06 -1.5374077e-05 -1.6793242e-06 -0.00014606172 -0.09493178
1.5402657e-07 -0.00063650636 0.0009550592 -1.9787938e-05 -4.6968886e-05 0.43185177 -1.6020799e-06 -0.0003137337
7.871227e-05 -0.015675819 0.08413458 5.8864465e-05 2.5972042e-05 8.976987e-06 4.1279865e-05 3.0132787e-05
0.0012713638 0.043461077 0.00018686078 5.4568598e-05 -1.5645628e-05 5.809618e-06 0.0003523412 -2.7116444e-06
6.135557e-05 0.06322699 0.00012459267 1.6174556e-05 -9.366692e-06 2.0484936e-06 0.000491368 -0.12041029
2.7746188e-05 3.7843452e-05 0.00018322986 0.00013560045 0.15362462 0.13118772 5.825642e-07 0.0004897288
5.061865e-07 5.0442543e-07 4.858465e-07 -4.849281e-07 -4.8965546e-07 5.069707e-07 -5.08071e-07 5.0847666e-07
-4.9907914e-07 5.0507725e-07 -4.9519247e-07 -4.914563e-07 -4.894235e-07 5.069398e-07 4.6888687e-07 5.0444686e-07
-5.090396e-07 -4.82135e-07 5.0527655e-07 5.072384e-07 5.0353214e-07 5.0280806e-07 -5.077003e-07 4.5759356e-07
5.06965e-07 5.071015e-07 4.867271e-07 -4.867423e-07 5.0444197e-07 -4.5355944e-07 5.061036e-07 -4.7647268e-07
-0.0002052361 0.00021602698 0.0022132343 0.024889838 0.12737097 6.006262e-07 0.092857994 0.25958622
0.14319041 0.7517468 0.00039880016 0.047417346 -0.0002935932 -0.00010716946 0.09374641 -0.00044274837
-0.00010818 -4.8429534e-05 -3.3832366e-05 0.000110366724 0.13174938 7.224193e-06 0.0028257086 0.26829624
0.00012778674 0.012335369 0.2131416 0.00022977924 -0.00015967274 0.58120346 8.497701e-06 0.11621011
2.7480983e-06 1.9601673e-06 -6.4974774e-05 0.00012696796 -5.715163e-06 -1.9308773e-06 0.08525877 -3.2944554e-05
0.34321332 0.1581807 -2.877281e-06 0.066313714 -6.212037e-05 -7.2602976e-05 -0.00027109272 1.2260427e-05
-9.467431e-06 3.822706e-05 -2.790794e-05 -1.1931128e-05 2.2578282e-05 -1.9884694e-05 -9.4466945e-05 -0.07144427
-1.0481991e-05 -0.000101071724 0.007234892 3.880354e-05 0.24024552 0.3626746 -2.5150966e-06 8.30747e-07
3.650702e-06 1.2831157e-06 -0.00042909238 0.49084798 0.00016219146 -1.8586229e-07 9.713095e-06 2.7234212e-06
-0.00048206202 -0.019877028 -3.2117005e-05 6.437935e-05 5.1882358e-05 1.7063676e-05 -0.023596287 0.00014848041
1.3028954e-05 0.019789461 -4.89932e-05 3.5225353e-06 1.8451377e-05 3.2195214e-06 -2.739066e-05 -0.01527022
-5.800239e-07 5.8682283e-05 -0.00050052674 0.059781063 -3.2312728e-05 -0.00075365166 5.720026e-07 -9.7427706e-05
00000000: ba29 37b8 93a7 d237 099f ad3c f48c 16be
00000010: b2ca b6bd d6c7 eb36 fb83 a038 1c64 3237
00000020: 84a8 3d3a 28bc 403a b839 bd38 3ec0 6f38
00000030: 1feb bbbd f219 acb7 930e 7d3c e1dd 4a38
00000040: 18f5 dbb6 c469 7337 7530 d938 debf 4837
00000050: f07d b334 1212 dfb5 7bf5 b539 bcfd abbd
00000060: 2adf 6d37 0ccf 5639 c039 d83a eeb5 1438
00000070: fc29 c536 3e0e 4f3e 06dd 9bb5 6487 ed39
00000080: faf7 0435 bed5 0635 470c 0535 37e1 0835
00000090: 4be7 05b5 af9c 0535 5466 0535 7bee 0535
000000a0: a346 0535 db96 0935 2301 02b5 a258 fdb4
000000b0: 893a 04b5 8baf 08b5 9e3e 0135 ee9f 0735
000000c0: ae92 0635 e893 0635 d6d2 0235 760c 0735
000000d0: c00e 0635 b211 0635 4eed 0635 76ab fbb4
000000e0: 7368 0735 b49b 02b5 0aa9 07b5 73ea 0635
000000f0: 8e9d 0235 30dc f5b4 2d40 0635 114f 03b5
00000100: 3cc9 2fb8 e351 82b6 546d 5bb9 5c0a 01b7
00000110: df64 9dba e8a2 01bd babd 03b7 1266 78b7
00000120: d9ee 7cba c058 403d 2e83 0238 d4e7 4139
00000130: e9ed 74b8 89b5 e936 d430 393d a043 29b9
00000140: bb7e 80b7 4c1a 3c37 f473 d0b8 e8bb c335
00000150: 94f7 80b7 2465 e1b5 2528 19b9 986b c2bd
00000160: 8062 2534 38db 26ba f05c 7a3a 46fe a5b7
00000170: 7500 45b8 ad1b dd3e 0c07 d7b5 a07c a4b9
00000180: 5412 a538 936a 80bc c04e ac3d 3de5 7638
00000190: 89de d937 de9b 1637 eb23 2d38 abc5 fc37
000001a0: e4a3 a63a 3e04 323d 0ff0 4339 96e0 6438
000001b0: bb3e 83b7 3df0 c236 6fba b839 b2f9 35b6
000001c0: 05ac 8038 277d 813d 17a5 0239 98ae 8737
000001d0: a325 1db7 da78 0936 26cf 003a ac99 f6bd
000001e0: 7cc0 e837 19ba 1e38 6421 4039 f82f 0e39
000001f0: c64f 1d3e 1356 063e 8261 1c35 2561 003a
00000200: dfe0 0735 da67 0735 1e6b 0235 012c 02b5
00000210: de70 03b5 c316 0835 6062 08b5 407e 0835
00000220: 75f8 05b5 a594 0735 5eed 04b5 9fec 03b5
00000230: ed60 03b5 a314 0835 52bb fb34 5369 0735
00000240: efa4 08b5 116c 01b5 57a2 0735 2829 0835
00000250: 772a 0735 b5f8 0635 e648 08b5 2eab f534
00000260: 5f16 0835 c01f 0835 a2a7 0235 ada8 02b5
00000270: fd68 0735 bc80 f3b4 2ddb 0735 e8cd ffb4
00000280: a534 57b9 4d85 6239 e90b 113b c6e5 cb3c
00000290: 896d 023e b83a 2135 552c be3d 7ce8 843e
000002a0: 82a0 123e 7a72 403f 0d16 d139 b138 423d
000002b0: 6aed 99b9 2ac0 e0b8 1efe bf3d ae20 e8b9
000002c0: b2de e2b8 d120 4bb8 3ae7 0db8 af74 e738
000002d0: 4fe9 063e 5867 f236 862f 393b 205e 893e
000002e0: 7efe 0539 4a1a 4a3c cb41 5a3e e5f0 7039
000002f0: d36d 27b9 c0c9 143f 5991 0e37 91ff ed3d
00000300: f86b 3836 6b8b 0336 1143 88b8 b422 0539
00000310: e0c4 bfb6 3894 01b6 269c ae3d f22d 0ab8
00000320: a8b9 af3e 1ffa 213e 5017 41b6 7ccf 873d
00000330: 9f46 82b8 6d42 98b8 7321 8eb9 22b2 4d37
00000340: 4ed6 1eb7 fe55 2038 d81b eab7 ce2b 48b7
00000350: 7e66 bd37 0ece a6b7 8e1c c6b8 6051 92bd
00000360: cfdb 2fb7 78f6 d3b8 ac12 ed3b fcc0 2238
00000370: ec02 763e 7cb0 b93e 08c9 28b6 8000 5f35
00000380: 95fe 7436 8537 ac35 cef7 e0b9 6d50 fb3e
00000390: f011 2a39 7091 47b4 6df5 2237 05c4 3636
000003a0: 45bd fcb9 26d5 a2bc 5fb5 06b8 6603 8738
000003b0: 429c 5938 f723 8f37 004d c1bc 68b1 1b39
000003c0: ee96 5a37 821d a23c 0c7e 4db8 b264 6c36
000003d0: 08c8 9a37 f50e 5836 ffc4 e5b7 f22f 7abc
000003e0: f0b2 1bb5 9f21 7638 c835 03ba fddc 743d
000003f0: 8787 07b8 b590 45ba b88b 1935 1a52 ccb8

resnet_backbone/level_0/dense_5/MatMul f4 [32, 8]
0.029403236 -1.4369539e-05 -0.00021491617 -0.0848831 -0.017037382 0.10449626 -1.7785342e-06 -0.004515903
-4.916564e-07 -4.856908e-07 4.7530847e-07 4.795872e-07 -5.0697616e-07 -4.8539704e-07 4.978917e-07 -0.00034298308
0.18101892 1.7166808e-06 3.2880005e-06 -1.9629879e-06 0.00011661258 2.689048e-05 -2.0046878e-06 0.44691992
-0.00020781416 -0.00043718817 4.534724e-07 -0.00017496772 -5.0232364e-07 -0.0003298739 4.813648e-07 -0.0008754062
5.4452755e-07 5.4000583e-07 -5.771854e-07 -7.2515064e-07 -8.129707e-06 4.556623e-07 -5.91739e-07 -4.0543735e-05
-0.00040335007 -5.0198736e-07 -0.00010125308 -0.0002937855 -0.00038841154 4.7864495e-07 4.5795713e-07 -0.00042644018
0.3829336 0.10864599 -9.926839e-07 -5.8266487e-05 0.21788491 0.18934518 -1.07711285e-05 0.42513472
0.24596097 4.9657985e-05 0.0003330151 0.23046793 -0.0006873488 -0.0010709305 -7.109682e-05 -0.019046985
-0.358344 -0.052397896 2.4293472e-06 0.04677812 -0.343205 0.39145982 0.7372973 0.12690143
-0.0073314356 -3.403132e-05 7.8917714e-05 -0.002068432 0.05232039 -0.043415785 -0.10958503 0.026518403
0.15129772 -1.136812e-06 1.5329886e-06 4.980945e-05 0.0003300618 0.0002100486 -1.7764255e-07 0.019311195
0.26172382 0.00018497094 0.060902063 -0.01406146 -0.014689339 -0.26787618 0.00041327457 0.46128768
0.40424347 1.6013928e-05 8.7183835e-06 0.0002853728 -0.032346204 0.00041624458 0.00018145869 0.5571997
-7.527001e-05 1.6820379e-05 -3.583383e-05 -0.00018983652 0.09676298 0.048576478 -1.5667295e-06 0.59448314
0.1958401 2.4866738e-05 3.1900916e-05 -2.7885726e-06 0.029405393 0.073559836 -2.84064e-06 0.03251961
-0.00017516597 -4.5323422e-06 5.7179645e-06 -0.000112990405 0.27614105 -4.3264114e-05 8.6355385e-07 0.06028199
-4.213527e-05 5.930822e-07 -4.775273e-07 7.890265e-07 -8.716564e-06 -1.3554089e-05 -5.2058004e-07 -9.475712e-05
0.14397326 -1.3855379e-05 -5.2214855e-05 0.00010234957 0.14614348 0.12554117 -7.530209e-05 0.671965
0.00024983584 -1.2949853e-06 -1.7969727e-06 -1.7807239e-05 -0.00010133766 -7.080312e-05 -4.7171193e-07 0.005575979
0.51756316 -7.203841e-06 -4.2334818e-07 -1.0751257e-05 0.20234989 0.03533709 -1.9222857e-06 0.4802536
1.821553e-05 1.4662533e-07 -1.6438714e-06 6.2379054e-06 4.4876924e-06 1.660621e-05 6.066052e-07 5.444987e-05
-9.958167e-05 -9.462751e-07 -7.1913286e-07 -7.137553e-07 -2.6841315e-07 -1.1658931e-06 9.344898e-07 -1.7018227e-05
0.33523437 1.24045e-06 9.382689e-06 -0.00010151431 0.18369892 0.14456856 -6.997534e-05 0.6187088
-1.8347568e-05 4.5870097e-06 4.373118e-06 -0.026225515 0.0152231185 -0.00039506308 -3.523632e-05 0.2257319
-4.4942285e-06 -9.1587333e-07 8.9790774e-07 6.983463e-07 -2.995318e-06 -1.5336827e-06 5.9154615e-08 -1.6115582e-05
-4.53788e-07 -5.089161e-07 4.7789325e-07 -4.5533187e-07 -8.2570834e-05 -6.998769e-05 -4.8927876e-07 -0.0006938869
0.031010674 -3.345765e-06 5.767957e-06 4.1271483e-05 0.17998214 0.101106964 -1.0684207e-05 0.07551807
-0.108459756 -5.9268436e-06 2.0382797e-06 -0.00015202878 0.016632786 0.061494917 0.046144366 0.11636443
-0.24643004 -4.004887e-06 0.042909194 -0.0001780125 0.05581014 -2.5936453e-05 -2.9681978e-05 0.105168216
7.109716e-07 -4.8228884e-07 4.992235e-07 5.281741e-07 -1.5939504e-05 5.328457e-07 4.7962686e-07 -5.8459173e-05
0.30712685 -4.486075e-06 -2.2390876e-05 7.872941e-05 0.03537136 0.043143846 6.422383e-06 0.3059677
4.958412e-07 -4.965943e-07 4.818514e-07 4.609346e-07 -4.57584e-07 5.245835e-07 -5.092267e-07 -3.5046898e-05
00000000: 0edf f03c b314 71b7 1f5b 61b9 31d7 adbd
00000010: fb91 8bbc 2302 d63d f8b5 eeb5 24fa 93bb
00000020: 5ffa 03b5 6b60 02b5 e62d ff34 fbbc 0035
00000030: 2317 08b5 3b4c 02b5 dba6 0535 69d2 b3b9
00000040: 065d 393e b468 e635 6ba7 5c36 e0bb 03b6
00000050: e78d f438 de92 e137 4688 06b6 b0d2 e43e
00000060: b0e8 59b9 6736 e5b9 c674 f334 8a77 37b9
00000070: 6bd7 06b5 edf2 acb9 2337 0135 847b 65ba
00000080: a62b 1235 ebf4 1035 e1ef 1ab5 f9a7 42b5
00000090: d364 08b7 c0a1 f434 ffd7 1eb5 810d 2ab8
000000a0: bb78 d3b9 4fc0 06b5 d557 d4b8 3907 9ab9
000000b0: b7a3 cbb9 3b7c 0035 26dd f534 d593 dfb9
000000c0: df0f c43e ca81 de3d 5c3c 85b5 2a63 74b8
000000d0: 391d 5f3e b4e3 413e a5b5 34b7 42ab d93e
000000e0: 31dd 7b3e db47 5038 8898 ae39 c9ff 6b3e
000000f0: 322f 34ba 775e 8cba d119 95b8 6c08 9cbc
00000100: dd78 b7be 2d9f 56bd de07 2336 6a9a 3f3d
00000110: 91b8 afbe 6c6d c83e 84bf 3c3f 73f2 013e
00000120: 8a3c f0bb dabc 0eb8 a080 a538 888e 07bb
00000130: e84d 563d c0d4 31bd 1e6e e0bd 1f3d d93c
00000140: caed 1a3e 9094 98b5 16c1 cd35 7dea 5038
00000150: 250c ad39 7e40 5c39 03be 3eb4 8332 9e3c
00000160: aa00 863e c2f4 4139 7174 793d 0a62 66bc
00000170: 8eab 70bc 1127 89be c6ac d839 e62d ec3e
00000180: 00f9 ce3e a655 8637 2c45 1237 179e 9539
00000190: 747d 04bd 673b da39 f245 3e39 a4a4 0e3f
000001a0: 47da 9db8 7d19 8d37 484c 16b8 da0e 47b9
000001b0: ab2b c63d 21f8 463d 6a48 d2b5 0c30 183f
000001c0: 4f8a 483e ea98 d037 59cd 0538 5023 3bb6
000001d0: 94e3 f03c 8aa6 963d d3a1 3eb6 4833 053d
000001e0: c2ac 37b9 8614 98b6 f1dc bf36 43f5 ecb8
000001f0: 5c62 8d3e 7d76 35b8 f8ce 6735 3fea 763d
00000200: 67ba 30b8 4c34 1f35 6d2f 00b5 7dcd 5335
00000210: 5b3d 12b7 5e66 63b7 fdbd 0bb5 57b8 c6b8
00000220: ba6d 133e 6674 68b7 4601 5bb8 82a4 d638
00000230: a3a6 153e dd8d 003e 80eb 9db8 e605 2c3f
00000240: 66fc 8239 5bcf adb5 832f f1b5 c160 95b7
00000250: 3e85 d4b8 237c 94b8 983f fdb4 b4b6 b63b
00000260: 057f 043f 86b8 f1b6 8848 e3b4 4c60 34b7
00000270: cf34 4f3e a0bd 103d 9e00 01b6 cde3 f53e
00000280: 8ecd 9837 1070 1d34 fea2 dcb5 334f d136
00000290: fc94 9636 904d 8b37 98d5 2235 1a61 6438
000002a0: 81d6 d0b8 8803 7eb5 6f0a 41b5 e498 3fb5
000002b0: 6c1a 90b4 c87b 9cb5 a6d9 7a35 5dc2 8eb7
000002c0: d7a3 ab3e 8a7d a635 586a 1d37 15e4 d4b8
000002d0: 921b 3c3e c809 143e b9bf 92b8 b363 1e3f
000002e0: 1ae9 99b7 1dea 9936 ccbc 9236 e4d6 d6bc
000002f0: 636a 793c 7820 cfb9 b6ca 13b8 4326 673e
00000300: 21cd 96b6 56da 75b5 c007 7135 fe75 3b35
00000310: 2c03 49b6 f0d8 cdb5 3011 7e33 f32f 87b7
00000320: 26a0 f3b4 739c 08b5 9348 0035 5674 f4b4
00000330: e129 adb8 5bc6 92b8 fb56 03b5 f6e5 35ba
00000340: 190a fe3c ce87 60b6 608a c136 eb1a 2d38
00000350: 3d4d 383e 2b11 cf3d 5240 33b7 38a9 9a3d
00000360: 2620 debd 33df c6b6 61c9 0836 ea69 1fb9
00000370: 7b41 883c 18e2 7b3d e001 3d3d 7950 ee3d
00000380: 2858 7cbe b861 86b6 8dc1 2f3d dea8 3ab9
00000390: 2c99 643d 1c92 d9b7 90fd f8b7 6f62 d73d
000003a0: 99d9 3e35 a376 01b5 6102 0635 d9c7 0d35
000003b0: d3b5 85b7 e108 0f35 b5bf 0035 0f32 75b8
000003c0: bb3f 9d3e 1787 96b6 0ad4 bbb7 881b a538
000003d0: 8fe1 103d 9ab7 303d da7f d736 cca7 9c3e
000003e0: f319 0535 b34d 05b5 9358 0135 5e76 f734
000003f0: dea9 f5b4 1bd1 0c35 cbb1 08b5 52ff 12b8

resnet_backbone/level_0/dense_4/MatMul f4 [8, 32]
-0.00028165663 0.41125903 0.06511974 0.15078706 0.00017637375 0.013071989 -0.0007415865 5.8828908e-05
0.2635993 0.24693942 -0.24701637 0.5919351 0.05488044 0.33125904 0.0001591638 -0.00049234903
0.24962 0.0025384251 0.22194026 0.00038013255 0.00018719895 0.00030445965 0.02131586 0.00029411496
-8.876934e-05 -8.1731996e-05 -0.0013775103 0.00020002137 0.16242869 -0.4823687 0.11071158 0.0005060328
1.4116886e-06 1.4819242e-06 0.02300728 0.042343635 2.2969956e-05 -1.4203745e-05 -2.0737823e-05 9.025081e-07
1.2506805e-05 -0.00044846357 -7.365481e-05 5.212462e-08 -2.6094222e-06 -1.280523e-07 -2.58485e-07 -1.952075e-05
-1.0619924e-06 -4.0125832e-07 3.9377483e-08 -7.200927e-06 6.0460693e-06 -2.2459294e-06 2.0205614e-06 -1.1400884e-06
-9.37478e-06 -7.6540596e-07 -6.440666e-06 4.846971e-06 0.07889173 -0.00016030448 -3.9274778e-07 5.198236e-06
-0.00011142196 9.329392e-08 -9.878315e-05 0.0003624052 -6.3159096e-06 0.07662618 -3.6649612e-06 -1.3858619e-05
2.0531097e-05 -7.473053e-05 -2.614566e-05 -1.6898564e-05 1.3242761e-05 -0.00023928474 -2.3188339e-05 -1.0407466e-06
1.089726e-05 3.4911664e-05 -0.00020172396 -1.6107027e-05 2.9379758e-05 -4.216663e-06 -2.7991251e-05 1.7231483e-05
2.96638e-05 -7.452004e-07 8.909952e-06 -3.9366605e-05 2.2866684e-06 -0.000117854725 2.483076e-07 2.8720535e-05
-4.80186e-05 -1.0132046e-05 -0.002519723 -0.02447419 -0.054771736 -0.00037051903 -7.707487e-06 -1.2258646e-05
-6.367924e-05 0.19549198 -0.00010512443 -2.6711588e-05 -7.540052e-06 -0.07452335 -1.8710036e-06 -5.9498066e-06
-1.6274622e-05 -1.5678668e-05 -0.008892114 -2.0369407e-05 -3.8286053e-05 0.027238939 -9.679525e-06 -3.96478e-05
-1.712751e-05 -1.4762813e-06 -5.4065003e-06 -9.406192e-06 -1.3455725e-06 -7.325558e-05 -3.4838802e-06 -0.00013000093
-2.0641706e-05 -6.411578e-05 0.28505275 0.2816554 0.0004891207 0.002329246 -0.0002830556 3.0468096e-05
0.027937947 -0.095953554 0.0017955408 0.00012235716 -0.0001948366 0.25833562 7.629931e-06 -0.00029198016
-8.0733764e-05 -0.00015961993 0.3853784 -0.00015656165 -0.0002384633 0.073397875 -2.1396612e-05 -0.00016478292
-0.0003964821 -9.596439e-05 -0.0003719022 0.00052986655 -3.1536358e-05 0.00036545243 0.12030998 -5.9107948e-05
0.020530608 0.065186925 0.032792047 -0.006864745 -0.00012435377 -0.022415664 0.030535858 2.4528064e-05
0.34500408 -1.1232041e-05 -0.0028731618 0.00057730236 -0.071090035 -0.04337611 3.7009362e-05 0.00082636107
0.00039645704 0.0013101674 0.32349977 -3.7851045e-05 0.05541371 -7.6523735e-05 -4.950371e-05 -0.00019998141
0.09930047 7.699846e-05 0.0017800722 -0.05697389 9.029267e-05 0.0918443 0.0001778729 0.18026808
9.832467e-05 0.000559218 -0.080910616 0.0010139571 -0.0013975695 -0.0064785625 0.0012025754 0.00028396843
-0.00022306808 -0.07141008 0.31622127 -0.029815035 -0.00028686115 -0.14081961 -0.06913371 0.0011049228
-0.034250636 -0.0007439381 -0.15438172 0.0014852334 -0.0007598946 0.00060807035 7.3785974e-05 0.0007258942
0.0014040131 0.00056945166 0.0010114149 -0.22685649 0.00023514692 0.15845382 0.00026882917 0.0032188229
0.3401088 0.26355568 0.100776576 0.037825562 -1.4553851e-05 0.071588 3.1749198e-05 -0.00019772946
0.38692725 0.43234727 0.067969404 0.3406967 0.008731246 0.3195911 -2.6147143e-05 9.923394e-05
0.026347525 0.085822105 0.32135323 0.00052207615 0.0009243939 0.0003542928 0.17040037 0.0012166721
0.00072344486 4.5867488e-05 0.0003166258 -0.0016435555 0.00016322394 0.33240464 0.27830547 0.06582987
00000000: 50ab 93b9 8b90 d23e 805d 853d ec67 1a3e
00000010: f8f0 3839 e52b 563c 0767 42ba 0fbf 7638
00000020: 7df6 863e b0dd 7c3e dcf1 7cbe 0f89 173f
00000030: 50ca 603d c99a a93e 35e5 2639 fc10 01ba
00000040: 639c 7f3e b55b 263b 4f44 633e 874c c739
00000050: d64a 4439 e29f 9f39 999e ae3c 7133 9a39
00000060: ad29 bab8 8867 abb8 938d b4ba d4bc 5139
00000070: b553 263e 08f9 f6be c1bc e23d 49a7 043a
00000080: 4079 bd35 87e6 c635 c379 bc3c 8570 2d3d
00000090: 9baf c037 9f4c 6eb7 23f6 adb7 e243 7235
000000a0: 52d4 5137 c31f ebb9 2077 9ab8 a0df 5f33
000000b0: 881d 2fb6 c07e 09b4 e8c5 8ab4 7ec0 a3b7
000000c0: c889 8eb5 866c d7b4 0020 2933 7e9f f1b6
000000d0: 57df ca36 c6b8 16b6 fb98 0736 2405 99b5
000000e0: 6048 1db7 4c76 4db5 e61c d8b6 2aa3 a236
000000f0: fd91 a13d 6817 28b9 d8da d2b4 826c ae36
00000100: 36ab e9b8 e058 c833 cd29 cfb8 3401 be39
00000110: 40ed d3b6 30ee 9c3d 8ef3 75b6 5182 68b7
00000120: 323a ac37 a6b8 9cb8 6153 dbb7 64c1 8db7
00000130: 3a2d 5e37 82e8 7ab9 9484 c2b7 c8af 8bb5
00000140: 60d3 3637 1d6e 1238 dd85 53b9 941d 87b7
00000150: 8d74 f637 dc7c 8db6 c1ce eab7 548c 9037
00000160: 87d6 f837 c809 48b5 f47b 1537 921d 25b8
00000170: aa74 1936 c628 f7b8 234f 8534 e1ec f037
00000180: 9467 49b8 cefc 29b7 f021 25bb 197e c8bc
00000190: 5458 60bd 3942 c2b9 684f 01b7 7caa 4db7
000001a0: 888b 85b8 0d2f 483e 4076 dcb8 b312 e0b7
000001b0: 8e00 fdb6 b39f 98bd 321f fbb5 73a4 c7b6
000001c0: 7c85 88b7 af85 83b7 3bb0 11bc f8de aab7
000001d0: 5695 20b8 3224 df3c 3e65 22b7 804b 26b8
000001e0: 0cad 8fb7 a424 c6b5 7c69 b5b6 49cf 1db7
000001f0: 8599 b4b5 caa0 99b8 9bcc 69b6 dc50 08b9
00000200: ba27 adb7 e675 86b8 6ff2 913e 2335 903e
00000210: 5638 003a 43a6 183b 1467 94b9 bd95 ff37
00000220: 1fde e43c 4c83 c4bd 5a58 eb3a 004d 0039
00000230: 0d4d 4cb9 9144 843e 4e02 0037 ea14 99b9
00000240: 9c4f a9b8 a65f 27b9 5150 c53e b32a 24b9
00000250: 010c 7ab9 a051 963d e07c b3b7 94c9 2cb9
00000260: edde cfb9 7d40 c9b8 defb c2b9 bee6 0a3a
00000270: e845 04b8 329a bf39 1465 f63d adea 77b8
00000280: ce2f a83c b980 853d f450 063d a8f1 e0bb
00000290: f664 02b9 0ea1 b7bc 5626 fa3c 9ec1 cd37
000002a0: 60a4 b03e 4071 3cb7 a84b 3cbb 1b56 173a
000002b0: a797 91bd 26ab 31bd 803a 1b38 27a0 583a
000002c0: 90db cf39 ecb9 ab3a c3a1 a53e 40c2 1eb8
000002d0: 7df9 623d 5e7b a0b8 34a2 4fb8 1ab2 51b9
000002e0: 0b5e cb3d 3c7a a138 5051 e93a 745d 69bd
000002f0: 825b bd38 dd18 bc3d 6583 3a39 3298 383e
00000300: a833 ce38 7c98 123a 77b4 a5bd c1e6 843a
00000310: a72e b7ba 1f4a d4bb bc9f 9d3a 99e1 9439
00000320: 62e7 69b9 733f 92bd c1e7 a13e a93e f4bc
00000330: da65 96b9 0433 10be f995 8dbd 0fd3 903a
00000340: 654a 0cbd d704 43ba 3e16 1ebe 2aac c23a
00000350: aa33 47ba e966 1f3a 8bbd 9a38 ef49 3e3a
00000360: dd06 b83a 4147 153a 7491 843a 114d 68be
00000370: c591 7639 b841 223e a4f1 8c39 e3f2 523b
00000380: be22 ae3e c5f0 863e f363 ce3d faee 1a3d
00000390: 502c 74b7 bb9c 923d 712a 0538 9955 4fb9
000003a0: 541b c63e 9f5c dd3e 8b33 8b3d cc6f ae3e
000003b0: 800d 0f3c 72a1 a33e 9056 dbb7 d11b d038
000003c0: c4d6 d73c 80c3 af3d 6988 a43e f0db 083a
000003d0: 0653 723a 60c0 b939 6f7d 2e3e be78 9f3a
000003e0: 90a5 3d3a d761 4038 cc00 a639 926c d7ba
000003f0: 1827 2b39 f130 aa3e 0e7e 8e3e d0d1 863d

resnet_backbone/level_0/dense_3/MatMul f4 [32, 8]
-4.9163145e-07 5.110839e-07 -5.1042974e-07 0.01479439 5.075334e-07 0.21606553 -0.12749112 -0.03342246
5.075061e-07 -4.704724e-07 5.0757825e-07 0.11464564 5.0531594e-07 0.07836332 -0.000109930595 0.030871777
-5.0313446e-07 -5.0366936e-07 -5.0151317e-07 -2.283186e-05 5.020733e-07 -6.0138825e-07 6.968668e-08 -9.124713e-06
-5.0172883e-07 4.9457975e-07 -5.0002126e-07 -0.0007088519 -4.9990166e-07 -0.00044189073 -0.00035035756 -0.00082302926
-5.0056866e-07 -4.8137616e-07 5.010488e-07 0.3754272 -4.995646e-07 0.032980327 0.0002888093 0.1732021
4.915137e-07 -5.066075e-07 5.0339463e-07 0.0064081736 -4.9388876e-07 -0.048843138 -0.005237428 0.054041233
5.0270813e-07 5.0381215e-07 5.024658e-07 -2.1804155e-05 -5.035573e-07 -5.7673133e-06 -2.4484275e-06 -1.3410916e-05
-5.0402394e-07 5.04157e-07 5.095945e-07 -3.9298873e-05 5.025731e-07 -2.6816306e-05 -2.9436509e-05 -2.3190922e-05
-4.996973e-07 5.0709355e-07 -4.96907e-07 0.09148911 5.023442e-07 -3.8068974e-05 -6.2621475e-05 0.00024472922
4.9670115e-07 4.9216504e-07 -4.8040255e-07 -0.00020325513 -5.046424e-07 4.5767246e-07 4.841401e-07 6.3399006e-07
5.054033e-07 5.018672e-07 5.005891e-07 -4.9187634e-05 5.027135e-07 -8.7628183e-07 6.837932e-07 -2.6083397e-05
-4.632496e-07 -4.4131116e-07 4.888355e-07 0.4102489 4.961073e-07 0.03967306 -0.26256698 0.6300015
-5.0386853e-07 -4.920641e-07 -4.9169097e-07 0.027375774 5.0024465e-07 0.00012585364 7.157707e-05 -2.4850675e-05
5.04521e-07 5.075264e-07 4.97175e-07 -8.117432e-05 5.0356647e-07 -5.372078e-07 -4.6086808e-07 -3.94067e-05
5.007624e-07 5.0152295e-07 5.0126977e-07 -3.423596e-05 -5.027711e-07 6.9252974e-07 7.228439e-07 -3.7048758e-06
-4.8177554e-07 5.0260724e-07 4.797263e-07 0.60258406 4.9856106e-07 0.27607614 0.0006371131 0.0010296665
4.789876e-07 -4.664255e-07 -4.8182403e-07 0.09216928 4.9761945e-07 0.11387187 0.00019922724 0.027797222
4.737537e-07 -5.0897296e-07 5.087249e-07 0.6247706 -5.020602e-07 -0.00037206695 0.0002956952 -0.00034090827
4.9919544e-07 -4.77702e-07 -5.021948e-07 0.13932118 -5.0234604e-07 0.00036513273 -1.0361788e-05 0.0014942753
4.955317e-07 -4.971616e-07 -5.087793e-07 0.3985272 5.0026796e-07 0.0009270353 0.002680791 0.67169213
5.07178e-07 -5.077025e-07 -5.0482396e-07 0.58223724 -5.0316805e-07 0.16505262 -0.00022737235 -0.00018519514
-5.061076e-07 4.9701174e-07 4.9090994e-07 -0.00017600789 5.025565e-07 -5.247694e-07 -7.994734e-07 7.0113225e-07
-4.8152015e-07 -5.0739214e-07 -5.101135e-07 0.9985577 5.033504e-07 0.27900547 0.0022160253 0.15402682
5.0990855e-07 -5.051033e-07 -5.0459613e-07 0.27525762 5.015985e-07 0.079258084 -9.0530804e-05 0.13715018
5.0368925e-07 -5.021672e-07 5.0037823e-07 -2.733809e-06 5.0309285e-07 4.5339664e-07 -5.0963035e-07 8.8397974e-07
4.9084474e-07 -5.022044e-07 5.0694075e-07 0.15989624 4.8545115e-07 -0.006399026 -0.0006598299 0.04233741
4.678575e-07 5.0139363e-07 4.8683034e-07 0.0023937027 4.935723e-07 0.0015883759 0.45375854 -0.0022578351
5.020488e-07 -5.0318187e-07 4.963433e-07 4.025168e-05 -5.028899e-07 7.770325e-06 1.6103627e-08 7.09684e-06
5.0286604e-07 -5.073713e-07 5.0667666e-07 0.11070491 4.9931435e-07 -0.0002001404 -0.0022687693 0.02822819
4.831584e-07 5.067934e-07 4.9934437e-07 0.11143962 4.901935e-07 0.001236373 0.021035101 -0.000245001
-5.0307864e-07 4.94155e-07 4.9233296e-07 -0.00017599412 -5.0367106e-07 -1.6530528e-05 -7.562421e-07 -7.4359516e-05
5.042927e-07 -4.987257e-07 5.0174793e-07 -0.00037346667 -5.029812e-07 4.6308372e-07 4.977746e-07 -5.695023e-05
00000000: a8f8 03b5 6b31 0935 7704 09b5 2b64 723c
00000010: 6e3d 0835 4840 5d3e 088d 02be fde5 08bd
00000020: 8e3b 0835 3c95 fcb4 8340 0835 55cb ea3d
00000030: 0ca5 0735 f37c a03d 8a8a e6b8 cfe6 fc3c
00000040: 230f 07b5 e533 07b5 b99f 06b5 0c87 bfb7
00000050: 37c6 0635 166f 21b5 a8a6 9533 5816 19b7
00000060: 8bae 06b5 43c3 0435 3339 06b5 3fd2 39ba
00000070: fb30 06b5 92ad e7b9 32b0 b7b9 8fc0 57ba
00000080: d15e 06b5 eb37 01b5 d07f 0635 fe37 c03e
00000090: d119 06b5 6116 073d 546b 9739 e45b 313e
000000a0: 90f0 0335 cdfd 07b5 0421 0735 a8fb d13b
000000b0: c793 04b5 be0f 48bd bb9e abbb 575a 5d3d
000000c0: d7f1 0635 b53d 0735 30e1 0635 11e8 b6b7
000000d0: 322c 07b5 d884 c1b6 aa4f 24b6 72ff 60b7
000000e0: 434c 07b5 6855 0735 11cb 0835 d8d4 24b8
000000f0: 8fe8 0635 94f3 e0b7 6cee f6b7 208a c2b7
00000100: f022 06b5 341f 0835 3063 05b5 a45e bb3d
00000110: d5d8 0635 40ac 1fb8 a653 83b8 004f 8039
00000120: 0b55 0535 531d 0435 03f5 00b5 e220 55b9
00000130: c376 07b5 06b6 f534 dbf5 0135 772f 2a35
00000140: 0dab 0735 0db8 0635 3960 0635 d24e 4eb8
00000150: 35f2 0635 a139 6bb5 e98d 3735 abcd dab7
00000160: 8ab4 f8b4 58ed ecb4 8538 0335 250c d23e
00000170: 3c2c 0535 3880 223d 2e6f 86be c747 213f
00000180: 9541 07b5 6316 04b5 bffc 03b5 2943 e03c
00000190: 8d48 0635 94f7 0339 a61b 9638 6b76 d0b7
000001a0: 6b6e 0735 f33c 0835 9b75 0535 223c aab8
000001b0: d32c 0735 a434 10b5 3a6d f7b4 9f48 25b8
000001c0: 216c 0635 65a0 0635 ff8e 0635 9598 0fb8
000001d0: 2bf6 06b5 48e6 3935 7409 4235 48a1 78b6
000001e0: 5d53 01b5 e8ea 0635 8ac6 0035 f342 1a3f
000001f0: dbd4 0535 da59 8d3e f003 273a e0f5 863a
00000200: c793 0035 0869 fab4 b256 01b5 3fc3 bc3d
00000210: 2694 0535 a835 e93d a8e7 5039 00b7 e33c
00000220: 3658 fe34 5ba0 08b5 4f8f 0835 f7f0 1f3f
00000230: 50c5 06b5 fb11 c3b9 8a07 9b39 efbb b2b9
00000240: 7300 0635 6e3b 00b5 90ce 06b5 36aa 0e3e
00000250: f5d8 06b5 496f bf39 8ad7 2db7 8fdb c33a
00000260: ae04 0535 af74 05b5 0c93 08b5 c20b cc3e
00000270: 274a 0635 4904 733a 36b0 2f3b 04f4 2b3f
00000280: 0225 0835 0d49 08b5 3d83 07b5 800d 153f
00000290: 7211 07b5 8e03 293e cd6a 6eb9 f130 42b9
000002a0: 73db 07b5 636a 0535 13c7 0335 c28e 38b9
000002b0: 6be7 0635 e1dd 0cb5 659b 56b5 7135 3c35
000002c0: d041 01b5 b933 08b5 bcee 08b5 7aa1 7f3f
000002d0: fa1d 0735 ced9 8e3e bc3a 113b 35b9 1d3e
000002e0: a6e0 0835 6f96 07b5 9573 07b5 91ee 8c3e
000002f0: 96a5 0635 1052 a23d 5bdb bdb8 1971 0c3e
00000300: 4335 0735 abcc 06b5 bb51 0635 7b76 37b6
00000310: 470c 0735 5c6a f334 88cd 08b5 a04a 6d35
00000320: 98c2 0335 39cf 06b5 b414 0835 d7bb 233e
00000330: f34f 0235 ecae d1bb 6ff8 2cba fe69 2d3d
00000340: d82d fb34 8297 0635 baae 0235 abdf 1c3b
00000350: 087e 0435 0d31 d03a 0a53 e83e 30f8 13bb
00000360: 88c4 0635 6512 07b5 743c 0535 ead3 2838
00000370: 55fe 06b5 4b5d 0237 4054 8a32 6421 ee36
00000380: b1fc 0635 4a32 08b5 8e02 0835 41b9 e23d
00000390: 9f08 0635 c8dc 51b9 a2af 14bb ce3e e73c
000003a0: 64b2 0135 940a 0835 af0a 0635 753a e43d
000003b0: d795 0335 cb0d a23a ce51 ac3c 7a73 80b9
000003c0: 4d0b 07b5 13a6 0435 dd28 0435 108b 38b9
000003d0: 0334 07b5 0aab 8ab7 9000 4bb5 76f1 9bb8
000003e0: bb5e 0735 2be0 05b5 dbaf 0635 d9cd c3b9
000003f0: 9b04 07b5 be9d f834 cf9e 0535 d8dd 6eb8
