bfcnn/pretrained/hydra_resnet_selector_color_1x6_bn_32x32_3x3_64x64_erf_relu/superres_model.tflite (tflite, 266544 bytes, 59 tensors)

superres_head/resnet_backbone/level_0/dense_29/MatMul f4 [32, 8]
0	0xb5066d71	-5.007815e-07
1	0xb50bb789	-5.2048614e-07
2	0xb5638d24	-8.4769476e-07
3	0x358003bc	9.53783e-07
4	0x3da3398f	0.07969963
5	0x3f0a6c40	0.54071426
6	0x3f007547	0.5017895
7	0x3507cfd7	5.0593866e-07
8	0xb5044dc3	-4.928699e-07
9	0x375fa2ca	1.3329738e-05
10	0x3e119627	0.14217435
11	0x35090f26	5.105852e-07
12	0x352cd594	6.438579e-07
13	0x3ec7dcd9	0.3903568
14	0x3f05fdd2	0.52340424
15	0x3503acc8	4.905273e-07
16	0x3507807a	5.0478377e-07
17	0xb7448818	-1.1714197e-05
18	0x354b5538	7.57474e-07
19	0xb49ba810	-2.899328e-07
20	0x35153db4	5.5596615e-07
21	0x3d9bf50b	0.076150976
22	0x3e3efebb	0.1865186
23	0x35080c1f	5.0681587e-07
24	0xb503acb0	-4.9052596e-07
25	0x3f28a11d	0.6587084
26	0xb75a44ae	-1.3009803e-05
27	0xb8de78e3	-0.00010608302
28	0x3caf6c57	0.021413965
29	0x3e3dc4b9	0.18532075
30	0xbdfde262	-0.12396695
31	0x35009d50	4.7912636e-07
32	0x350758eb	5.042081e-07
33	0x352c39f2	6.4159315e-07
34	0xb4279298	-1.5606417e-07
35	0xb50a02a8	-5.141287e-07
36	0xb4f3ffea	-4.544848e-07
37	0x36b7ec6a	5.481347e-06
38	0x3c4fe5e1	0.012689085
39	0x35079000	5.0500967e-07
40	0xb4fe712c	-4.739353e-07
41	0x3984034d	0.0002517946
42	0x37511732	1.2462771e-05
43	0xb681d624	-3.869429e-06
44	0x347bc12c	2.3446472e-07
45	0x3e98f92d	0.29877606
46	0x3dabb44b	0.083839975
47	0xb503c4f1	-4.908789e-07
48	0xb506a4e5	-5.0158843e-07
49	0xb72455b5	-9.795117e-06
50	0xbd05e6ea	-0.03269092
51	0xb425f7b0	-1.545693e-07
52	0xb56715ac	-8.608574e-07
53	0x3ecdb51a	0.40177232
54	0x3d053234	0.03251858
55	0xb503b968	-4.9071105e-07
56	0xb506acb3	-5.01702e-07
57	0x34e12720	4.1937983e-07
58	0x35611a73	8.385752e-07
59	0x35355698	6.7553765e-07
60	0x35263cae	6.192812e-07
61	0xb590c7dc	-1.0787003e-06
62	0x3ad0a9dc	0.0015919763
63	0xb506f59f	-5.0276316e-07
64	0xb5062bb1	-4.998247e-07
65	0x3641d8cc	2.8885433e-06
66	0x3d592cbd	0.05302118
67	0x3635fbf4	2.7117758e-06
68	0x354e8dc2	7.6947265e-07
69	0x3ec3a4b0	0.38211584
70	0x3f4f7db4	0.8105118
71	0x3507d35b	5.059898e-07
72	0x35037146	4.896614e-07
73	0xb73eb256	-1.1366405e-05
74	0x37224bfa	9.673642e-06
75	0xb4f89d80	-4.6308196e-07
76	0x355c3280	8.2029874e-07
77	0x3e303bf1	0.17210366
78	0x3e1b8763	0.15188365
79	0xb50878b6	-5.0839606e-07
80	0xb504c148	-4.9455093e-07
81	0xb446bd60	-1.8509081e-07
82	0x35fcefc6	1.8845246e-06
83	0x35f27f64	1.8067481e-06
84	0x35253ad6	6.155291e-07
85	0x3f126172	0.5717994
86	0x3eb996bd	0.36247817
87	0xb504ad46	-4.942598e-07
88	0xb5076ec5	-5.045261e-07
89	0xbe0c185d	-0.13681169
90	0x36a1d233	4.8226443e-06
91	0xb7cd4869	-2.4471623e-05
92	0x3d00f1b3	0.031480502
93	0x3b812aa8	0.0039418526
94	0x3e7b3da2	0.2453523
95	0xb5053489	-4.962281e-07
96	0x3508045a	5.067028e-07
97	0xbe0aed8a	-0.13567176
98	0xbc649481	-0.013951422
99	0x3b53e94a	0.0032335096
100	0x3595bce0	1.1156335e-06
101	0xbd18b30f	-0.03728014
102	0x3d9009ed	0.07033143
103	0x35081778	5.06981e-07
104	0x3507f0cb	5.064182e-07
105	0x37cb7127	2.4252176e-05
106	0xb58c519c	-1.0454564e-06
107	0x362e4050	2.5965455e-06
108	0x358213f8	9.691566e-07
109	0xb8df12f2	-0.000106369975
110	0x3cc69086	0.024238836
111	0xb500e45d	-4.801603e-07
112	0x35068d6e	5.01247e-07
113	0x35e24ff8	1.6861586e-06
114	0x367aed5c	3.7391064e-06
115	0x35c2087c	1.4456596e-06
116	0x3263be60	1.3256425e-08
117	0x3864dea4	5.4566786e-05
118	0x3c8790b2	0.016548488
119	0x35024c95	4.8540215e-07
120	0xb506542e	-5.004139e-07
121	0xb4f29d7c	-4.5190598e-07
122	0xb3cd69f0	-9.565326e-08
123	0xb5ba4c44	-1.3880276e-06
124	0x3527b1c4	6.247103e-07
125	0x3ef44e1d	0.47715846
126	0x3f015acf	0.5052919
127	0xb508caa5	-5.0958835e-07
128	0xb53d5290	-7.052813e-07
129	0x3c1f229a	0.0097128395
130	0x3b48bf11	0.0030631463
131	0xbacd6b6d	-0.0015672274
132	0x3afcbae0	0.0019281767
133	0x3bb727ed	0.0055894763
134	0x3b9d2e6a	0.0047967928
135	0xb52873c3	-6.275333e-07
136	0x350704ed	5.0298587e-07
137	0xb68372d1	-3.9174706e-06
138	0x351a8094	5.7556576e-07
139	0x364e8b37	3.0777426e-06
140	0x34c5ff8c	3.6880044e-07
141	0x3e92da9d	0.28682414
142	0x3e33523e	0.17511842
143	0x35072c4e	5.035589e-07
144	0x35047343	4.934156e-07
145	0x37d1375b	2.4940518e-05
146	0x3e82f3da	0.2557667
147	0xb56b28e0	-8.7603803e-07
148	0x3594c04c	1.1082825e-06
149	0x3d85e49b	0.06537744
150	0x3ee01552	0.43766266
151	0x35081a90	5.07026e-07
152	0xb507fb68	-5.0657263e-07
153	0x37e67cf5	2.7476324e-05
154	0x38bad04c	8.9079695e-05
155	0x3582f1c9	9.756124e-07
156	0xb56849e5	-8.6534266e-07
157	0x3ee2f8b6	0.44330376
158	0x3e751652	0.23934296
159	0xb50372c5	-4.8968315e-07
160	0x34f5a050	4.575145e-07
161	0xbce2f76c	-0.02770587
162	0xbd267280	-0.04063654
163	0x33adc340	8.091456e-08
164	0xb59717de	-1.1257323e-06
165	0x3da73e62	0.081661955
166	0x3db3e767	0.08784371
167	0x35049192	4.9385665e-07
168	0x3507e547	5.062506e-07
169	0xbdf9e2ef	-0.12201487
170	0x388e6f49	6.791816e-05
171	0x37660cb8	1.371203e-05
172	0x35d3bada	1.5775106e-06
173	0x3e8ed340	0.27895546
174	0x3e94d031	0.29065087
175	0xb5090f23	-5.1058504e-07
176	0x3505a762	4.9789935e-07
177	0xbd52d911	-0.051476542
178	0xb90a8ce7	-0.00013213196
179	0xbda23a72	-0.07921304
180	0xb6c77ef7	-5.945443e-06
181	0x3e3d8834	0.18508989
182	0x3df9274b	0.12165698
183	0x3501b816	4.8324125e-07
184	0xb5078d05	-5.049663e-07
185	0xb8558e8d	-5.0915918e-05
186	0xb4144b34	-1.3810933e-07
187	0x35c32038	1.4538009e-06
188	0x3567239e	8.6106036e-07
189	0xb912cb6e	-0.00013999428
190	0x3d1afb9d	0.037837613
191	0x3505fa6f	4.991079e-07
192	0x3502f46b	4.878445e-07
193	0x382b6d46	4.0871346e-05
194	0x34d23224	3.915203e-07
195	0xb4768060	-2.2957238e-07
196	0x356a865a	8.73673e-07
197	0x3cce0297	0.02514772
198	0x3dacdd8d	0.08440695
199	0xb508c692	-5.0952906e-07
200	0xb50abfc8	-5.1688085e-07
201	0xbbb9cfff	-0.005670547
202	0xbb9cb286	-0.004782024
203	0xbd0d94db	-0.034565788
204	0x3805b52a	3.1878393e-05
205	0x3d567e5c	0.0523666
206	0x3d409e6e	0.04702609
207	0x34fb3f1a	4.6798306e-07
208	0xb50643f4	-5.0017775e-07
209	0xb6f6b74e	-7.352711e-06
210	0x380d7a8f	3.373116e-05
211	0x361b4a42	2.3140024e-06
212	0x34f87784	4.628056e-07
213	0x3eb44fa9	0.35217026
214	0x3d071efe	0.03298854
215	0xb507c244	-5.057411e-07
216	0xb506dc18	-5.023917e-07
217	0x3370f540	5.6102408e-08
218	0xb53fa5eb	-7.1394487e-07
219	0x356104de	8.3826114e-07
220	0xb4fdf212	-4.7301052e-07
221	0x3709ef5f	8.221569e-06
222	0x3ae5037d	0.0017472353
223	0xb50693c4	-5.013392e-07
224	0x350824a1	5.071725e-07
225	0x35a77d1c	1.2478881e-06
226	0xb48a0610	-2.5708914e-07
227	0xb4b167fe	-3.3044483e-07
228	0x35206466	5.9750744e-07
229	0x3c6c441d	0.014420536
230	0x3dce5da0	0.10076451
231	0xb506ed8c	-5.0264566e-07
232	0x34fecff8	4.7462504e-07
233	0x379242b9	1.7435626e-05
234	0x3956f259	0.00020498912
235	0x36f1f3f2	7.2107587e-06
236	0xb5928ad6	-1.0918254e-06
237	0x3daf32b3	0.08554592
238	0x3e5a6931	0.2132919
239	0x35070e65	5.0312366e-07
240	0xb505c97d	-4.9839565e-07
241	0xb650c746	-3.1110408e-06
242	0xb507ccd8	-5.0589506e-07
243	0xb4196e30	-1.4289321e-07
244	0xb4e51146	-4.2667142e-07
245	0x3f1ff6f8	0.6248622
246	0x3e87e198	0.26539302
247	0xb5054482	-4.9646053e-07
248	0x3506fb13	5.028425e-07
249	0x343ee754	1.7779286e-07
250	0xb464ed0c	-2.1320392e-07
251	0xb5272788	-6.2269874e-07
252	0xb50b9ac7	-5.2006766e-07
253	0x3ea33399	0.31875303
254	0x3d654f58	0.05598387
255	0x35073db5	5.0381215e-07

superres_head/resnet_backbone/level_0/dense_28/MatMul f4 [8, 32]
0	0x3504a925	4.941997e-07
1	0xb4eac350	-4.3728005e-07
2	0xb5014339	-4.8154067e-07
3	0x35059ae0	4.9771734e-07
4	0xb4f97f3a	-4.6472434e-07
5	0xb5062686	-4.997495e-07
6	0xb5011c92	-4.809782e-07
7	0xb5176104	-5.639306e-07
8	0xb5082fda	-5.073358e-07
9	0xb50ae878	-5.174729e-07
10	0xb5074f4a	-5.04068e-07
11	0xb50a0748	-5.14196e-07
12	0xb4ff6048	-4.7567505e-07
13	0xb508801e	-5.0850383e-07
14	0x3507bd17	5.056658e-07
15	0xb508d5fc	-5.0975336e-07
16	0x35034fd6	4.891748e-07
17	0xb50139f7	-4.8140595e-07
18	0xb500a4f6	-4.7923766e-07
19	0xb5062319	-4.9969964e-07
20	0x35080789	5.0674913e-07
21	0xb4f62cf4	-4.5853778e-07
22	0xb50b645e	-5.192759e-07
23	0x350593f0	4.976164e-07
24	0xb508fbf1	-5.103057e-07
25	0xb4f72b48	-4.6038826e-07
26	0xb5030c84	-4.8819516e-07
27	0x350765bb	5.0439456e-07
28	0xb5092122	-5.108469e-07
29	0xb507d337	-5.0598777e-07
30	0xb504fe9a	-4.9544326e-07
31	0x3503791f	4.897756e-07
32	0xb948768e	-0.00019117651
33	0x3e3292d0	0.17438817
34	0xb838224c	-4.390096e-05
35	0xb91f7834	-0.00015208201
36	0xbc97df48	-0.018539086
37	0x3d8fe3b4	0.07025853
38	0x37523388	1.25289735e-05
39	0xbeefc8aa	-0.46832782
40	0xb97a26d0	-0.00023856317
41	0x3e098ea9	0.13433327
42	0xb6996acf	-4.5721895e-06
43	0xb92c9c16	-0.00016461345
44	0x3d639ffd	0.0555725
45	0xbaba01d0	-0.0014191214
46	0xb79706d8	-1.800379e-05
47	0xb898d260	-7.28711e-05
48	0xb70a5397	-8.244903e-06
49	0xb756d316	-1.2804541e-05
50	0xb982d52f	-0.00024954366
51	0xb696d006	-4.4945655e-06
52	0xb6e8f7ba	-6.942978e-06
53	0x3eb5c18e	0.35499233
54	0xb9a17aa4	-0.00030799687
55	0x3e3e8f10	0.18609262
56	0xb70d7e62	-8.433681e-06
57	0xbec61c5b	-0.38693509
58	0xb63d16c0	-2.8176437e-06
59	0xb639bd16	-2.767721e-06
60	0xbdcd28d2	-0.100175515
61	0xb969baea	-0.00022290242
62	0xb9f4fef0	-0.0004672925
63	0xbd83e3bd	-0.06439922
64	0xb70d44ed	-8.420303e-06
65	0xbbcd0122	-0.0062562386
66	0xb5f33d8b	-1.8122822e-06
67	0x379c29d5	1.8616129e-05
68	0xb73c5a10	-1.12266425e-05
69	0xb74a3b38	-1.2053926e-05
70	0xb7140216	-8.821973e-06
71	0xbbcbc03d	-0.006217985
72	0xb78e8f08	-1.6994323e-05
73	0xbb82c563	-0.0039908155
74	0xb54c4eb9	-7.611048e-07
75	0xb6c71776	-5.9333934e-06
76	0xb72d76c7	-1.0339259e-05
77	0xbb62f3ce	-0.0034630182
78	0xb61c0e2c	-2.325406e-06
79	0xb5e38f22	-1.6954475e-06
80	0xb6bfb550	-5.713351e-06
81	0xb78829fb	-1.6232012e-05
82	0xb7922e6c	-1.7426173e-05
83	0x34dc7ba6	4.106816e-07
84	0xb504160c	-4.9205914e-07
85	0xbd2d36a8	-0.042288452
86	0xb76412be	-1.3594223e-05
87	0xbc6dcacb	-0.014513682
88	0xb5953857	-1.1117762e-06
89	0xbc37b74c	-0.011213135
90	0xb780e6b8	-1.5366226e-05
91	0xb629020e	-2.5184158e-06
92	0xb8193eb8	-3.6536454e-05
93	0xb73062e0	-1.0513439e-05
94	0xb7ad43f0	-2.0654843e-05
95	0x3e884eb5	0.2662255
96	0x36b77e73	5.4685456e-06
97	0xbc01d740	-0.007924855
98	0x356bbc76	8.781857e-07
99	0xbc597b27	-0.013273991
100	0x3657dabe	3.2164821e-06
101	0xb5d39314	-1.576353e-06
102	0x32ee0f00	2.7713668e-08
103	0xbacdee22	-0.0015711228
104	0x3680b976	3.8362878e-06
105	0xb6e1f1c7	-6.733669e-06
106	0x356b4ee2	8.765911e-07
107	0x36968cca	4.4867384e-06
108	0x35c532a2	1.469238e-06
109	0xbb038864	-0.0020070309
110	0x36793e58	3.714018e-06
111	0x3539e580	6.9251837e-07
112	0x3782beea	1.5586109e-05
113	0x37c6fa46	2.3719982e-05
114	0x36449e76	2.9298512e-06
115	0x356df39e	8.864389e-07
116	0x3591ffdf	1.087781e-06
117	0xbd44b4b5	-0.0480239
118	0x371dc916	9.404748e-06
119	0xbca1ef7f	-0.019767521
120	0x35bfde1d	1.4295252e-06
121	0x3d844ac2	0.064595714
122	0x37e97674	2.7830924e-05
123	0x36eef898	7.121893e-06
124	0x38bfd305	9.146895e-05
125	0x36fd61c6	7.55137e-06
126	0x366c11d2	3.5177113e-06
127	0x390d760c	0.00013490784
128	0xb6bc2a57	-5.6077656e-06
129	0x3b92f657	0.0044849324
130	0xb658a230	-3.2280914e-06
131	0xb6bfd170	-5.7166253e-06
132	0xb6f0c5f9	-7.1756044e-06
133	0x3daa5396	0.08316724
134	0xb70e38c6	-8.477078e-06
135	0xba9954fe	-0.0011698303
136	0xb7047fc2	-7.897559e-06
137	0xb8177a64	-3.611519e-05
138	0xb5b1a860	-1.3236531e-06
139	0xb63e5780	-2.8363138e-06
140	0xb74f30f0	-1.2349556e-05
141	0xbaae1ba8	-0.0013283389
142	0xb4110628	-1.3506417e-07
143	0xb651191e	-3.1158047e-06
144	0xb50eb440	-5.316142e-07
145	0xb5f7bef8	-1.8458513e-06
146	0xb73da1d2	-1.1302955e-05
147	0x350e82d4	5.30895e-07
148	0xb456d3e6	-2.0007391e-07
149	0xb8a714e3	-7.967071e-05
150	0xb698b08d	-4.550506e-06
151	0xbc095d12	-0.008384006
152	0xb5efed9e	-1.7876043e-06
153	0xbaf2cd11	-0.0018524249
154	0xb66802ba	-3.457228e-06
155	0xb591f6f7	-1.0875218e-06
156	0xb77c41e4	-1.5035712e-05
157	0xb6d7e732	-6.434414e-06
158	0xb7824fcb	-1.5534364e-05
159	0xb73505c0	-1.07897795e-05
160	0x38e49027	0.00010898738
161	0x3eb3e2e8	0.35134053
162	0x370f029d	8.524073e-06
163	0x3e0d9d84	0.13829619
164	0x38e73aab	0.00011025866
165	0x3e57a5f5	0.21059401
166	0x3e170f52	0.14751938
167	0x3dd4cde9	0.10390837
168	0x3d1b1699	0.037863348
169	0x3e4b566f	0.1985719
170	0x34bee9ac	3.5560277e-07
171	0x3802bbfa	3.1169482e-05
172	0x3d40d1a2	0.04707492
173	0x3ea759f3	0.32685813
174	0x37df73a4	2.6637521e-05
175	0x37d48b80	2.533733e-05
176	0x3e6632ae	0.2248027
177	0xbab1f258	-0.0013576252
178	0x38c33908	9.3089475e-05
179	0x35fc9d6e	1.8821281e-06
180	0x369d5c4e	4.6897103e-06
181	0x3e22045d	0.15821977
182	0x3996e9e4	0.00028784492
183	0x3e9212d4	0.2852999
184	0xb690681e	-4.3036553e-06
185	0x3dd7d4a4	0.10538605
186	0x3ec0481a	0.3755501
187	0xbd8fd6a2	-0.0702336
188	0x3ec2f6e5	0.3807899
189	0xb75a3a32	-1.3007362e-05
190	0x3cb9fb12	0.022702727
191	0x3d9b3e83	0.075802825
192	0x38bf886d	9.133001e-05
193	0x3d0836a5	0.033255238
194	0x3756a650	1.2794117e-05
195	0x39758f30	0.00023418362
196	0x389c536a	7.454197e-05
197	0x38c80926	9.538447e-05
198	0x38001276	3.053477e-05
199	0x3f21f227	0.6326012
200	0x38ff6808	0.00012178725
201	0xbba2b7dd	-0.004965766
202	0x3da62e9c	0.08114359
203	0x3e3f382c	0.18673772
204	0xb9dcfe8b	-0.0004215132
205	0x3f3eb493	0.74494284
206	0x37b515dd	2.1587062e-05
207	0x3e397065	0.18109281
208	0x3eb75ceb	0.35813078
209	0x37c02c70	2.2908876e-05
210	0x3816c8c2	3.5949757e-05
211	0x360116d0	1.9235777e-06
212	0x3664bfbe	3.4086256e-06
213	0xbd6d0017	-0.057861414
214	0x3921f271	0.00015444473
215	0x3f126b9b	0.5719544
216	0x3579df5e	9.308477e-07
217	0x3e4bc82f	0.19900583
218	0x3e9e34ca	0.3089965
219	0xbd4bb9da	-0.04973779
220	0x3d39eba2	0.045390733
221	0x37f5fa52	2.932284e-05
222	0x3883b8d5	6.2809944e-05
223	0x3df36528	0.118845284
224	0xb4ec42e0	-4.4007083e-07
225	0xb4dab16c	-4.0734756e-07
226	0xb505d32a	-4.9853645e-07
227	0xb5048137	-4.9361864e-07
228	0x34fff282	4.76739e-07
229	0xb4f1e220	-4.5054276e-07
230	0x350110da	4.8080767e-07
231	0xb5048fbe	-4.9383004e-07
232	0x35012f22	4.812483e-07
233	0x34e61ebc	4.28632e-07
234	0x34feb838	4.7445224e-07
235	0x3502957e	4.8646314e-07
236	0xb4ed9170	-4.425051e-07
237	0xb4d8edac	-4.0406064e-07
238	0xb501a22d	-4.829224e-07
239	0x34fe9b56	4.7424209e-07
240	0x34fe0042	4.7311374e-07
241	0x3507794d	5.0467935e-07
242	0x35066370	5.006359e-07
243	0xb507f192	-5.064295e-07
244	0xb500544a	-4.780637e-07
245	0xb50afb16	-5.1774384e-07
246	0x34fcba8e	4.7074394e-07
247	0xb5055ba1	-4.96797e-07
248	0x35065574	5.004324e-07
249	0xb4df189c	-4.1554893e-07
250	0x3501ac73	4.830719e-07
251	0x3504a2b8	4.941062e-07
252	0x35006a33	4.7838256e-07
253	0x3502a56b	4.866949e-07
254	0xb4ecc5bc	-4.4102296e-07
255	0x3502681a	4.858026e-07

superres_head/resnet_backbone/level_0/dense_27/MatMul f4 [32, 8]
0	0xb6c5490c	-5.8795613e-06
1	0xb9ad9f18	-0.00033115665
2	0x350039f8	4.776807e-07
3	0xb5070007	-5.029146e-07
4	0xb506e80f	-5.025658e-07
5	0x35390aab	6.8933394e-07
6	0xb502c2dd	-4.871234e-07
7	0x354e9d93	7.697028e-07
8	0x39722269	0.00023091737
9	0x3ef1917f	0.47181317
10	0x38fba164	0.00011998674
11	0x350606e7	4.9928934e-07
12	0xb5026b5a	-4.858499e-07
13	0xb74a3e12	-1.205459e-05
14	0x3aa7acac	0.0012792549
15	0xb8ade798	-8.2924205e-05
16	0xb7d64378	-2.5542206e-05
17	0x3ed0aa6a	0.40755016
18	0xb75c72c8	-1.3139746e-05
19	0xb50893d5	-5.087907e-07
20	0xb50833c3	-5.073927e-07
21	0xb500c940	-4.7976573e-07
22	0x39f9f6a2	0.00047676737
23	0x3956af7f	0.00020474008
24	0x36d8d8a5	6.4625224e-06
25	0x3df64db2	0.12026538
26	0xb5ff94b8	-1.9042263e-06
27	0xb503963c	-4.901992e-07
28	0xb507b48f	-5.0554166e-07
29	0x361f9c4e	2.3783828e-06
30	0x3a289fa3	0.0006432479
31	0xb799ff2a	-1.8357841e-05
32	0x3d70a626	0.0587522
33	0x3ecd6fed	0.40124455
34	0xb5b3114f	-1.3341577e-06
35	0x3508277e	5.0721417e-07
36	0xb505501f	-4.966295e-07
37	0x35ce6312	1.5377029e-06
38	0xb722b5a4	-9.698244e-06
39	0xb663a2ed	-3.3920471e-06
40	0x392854ba	0.00016053292
41	0x3d1565c4	0.036474004
42	0x36276113	2.4941444e-06
43	0xb5077d42	-5.0473693e-07
44	0x3506a204	5.0154654e-07
45	0x37a3371c	1.9456776e-05
46	0x37fddb85	3.0262172e-05
47	0xb5e5af2d	-1.7112812e-06
48	0xb98ace01	-0.00026474896
49	0x3ed6356c	0.41837633
50	0x3e4e2a06	0.20133218
51	0x3505c4eb	4.9832914e-07
52	0x3501936b	4.8270766e-07
53	0x377dc279	1.5125254e-05
54	0x3c18963a	0.009313161
55	0x3a1653d5	0.0005734538
56	0x36cd420f	6.1171663e-06
57	0x38a8c514	8.047573e-05
58	0x3310c5e0	3.370758e-08
59	0x3507935e	5.0505867e-07
60	0xb5067fe6	-5.0105007e-07
61	0x340919b8	1.2768476e-07
62	0x36398e2e	2.7649908e-06
63	0xb5ebde5d	-1.7573581e-06
64	0x35053957	4.96298e-07
65	0xb822d26a	-3.8819773e-05
66	0x34f9bb86	4.6516305e-07
67	0x3506def3	5.0243324e-07
68	0xb50736c3	-5.037111e-07
69	0x34fee69e	4.7478983e-07
70	0xb4ee3e86	-4.4376446e-07
71	0xb5074c3b	-5.040235e-07
72	0xb6adccfe	-5.179666e-06
73	0x3d0ee64b	0.034887593
74	0xb5242815	-6.115309e-07
75	0x3508258d	5.071859e-07
76	0xb50831fe	-5.0736696e-07
77	0xb3b90330	-8.6153136e-08
78	0xb5ab845e	-1.2779017e-06
79	0x36a5b76a	4.9387354e-06
80	0xb7397436	-1.1053917e-05
81	0xb760d450	-1.3400873e-05
82	0x3482ad50	2.4340488e-07
83	0xb5087186	-5.0829146e-07
84	0xb5048dc9	-4.9380156e-07
85	0x35e932c8	1.7374632e-06
86	0x371805ee	9.061287e-06
87	0xb7eb5cc9	-2.805739e-05
88	0x362aac48	2.5432255e-06
89	0x3df3bc5a	0.119011596
90	0xb54d529c	-7.6488664e-07
91	0x3505e463	4.987871e-07
92	0xb5070b23	-5.0307625e-07
93	0x350eeba8	5.324205e-07
94	0xb920d774	-0.00015339052
95	0xb8d795dc	-0.000102799124
96	0x3d21ea72	0.039530225
97	0x3ec681a5	0.38770786
98	0x383a3c56	4.4402048e-05
99	0x35053be7	4.963353e-07
100	0xb505ed7e	-4.989196e-07
101	0x3811a3aa	3.4723118e-05
102	0x3a61a604	0.0008607807
103	0x3ea9c925	0.33161274
104	0x3ca99585	0.02070118
105	0x3eee244a	0.4651206
106	0x378924ac	1.634875e-05
107	0xb506b4bd	-5.01819e-07
108	0xb506923c	-5.013169e-07
109	0x3dc7c030	0.09753454
110	0xba6d8214	-0.00090602157
111	0xbc85b485	-0.01632143
112	0x3ee9d49b	0.45670018
113	0xbcc11e75	-0.023574093
114	0xb689ccb6	-4.1067497e-06
115	0xb5064e91	-5.003322e-07
116	0x35065c3e	5.005312e-07
117	0x3e444c71	0.19169785
118	0x39dc0b48	0.00041970075
119	0xb9e5814f	-0.00043774626
120	0x3505b8b1	4.981512e-07
121	0xb890a8a5	-6.8978676e-05
122	0xb50618a5	-4.995475e-07
123	0x35073c83	5.0379475e-07
124	0xb505f42b	-4.990167e-07
125	0xb4ee6162	-4.440181e-07
126	0xb52c463b	-6.417719e-07
127	0xb522ae08	-6.060295e-07
128	0x3bd4a278	0.0064890943
129	0x3c8c70bd	0.017143602
130	0x3bca42d6	0.0061725182
131	0xb4e85eb6	-4.328228e-07
132	0x35074f78	5.040706e-07
133	0xbd043ecb	-0.032286447
134	0xba3da416	-0.00072342285
135	0xbc4496ee	-0.011998875
136	0xb795c21a	-1.785257e-05
137	0x3f1202a6	0.5703529
138	0xb6249516	-2.4524684e-06
139	0x35082e3c	5.073123e-07
140	0x3508216b	5.071258e-07
141	0x36801d54	3.8181115e-06
142	0xb881e38b	-6.1935825e-05
143	0x379122f8	1.730163e-05
144	0x37bf9b1e	2.2841206e-05
145	0x3ed514af	0.41617343
146	0x35f2007f	1.8030549e-06
147	0xb506894c	-5.0118683e-07
148	0x3503c0a8	4.9081655e-07
149	0x36723b90	3.609548e-06
150	0x3a28aa79	0.0006434094
151	0x38f165ed	0.00011510761
152	0x35b85b1a	1.3735582e-06
153	0xb9a39995	-0.0003120421
154	0xb4c07a0e	-3.5851593e-07
155	0x3506da4d	5.023656e-07
156	0x3507080b	5.0303123e-07
157	0x3c6f405f	0.01460275
158	0xbe2f946d	-0.17146464
159	0xb6d325c8	-6.2926883e-06
160	0xb4f1a592	-4.5010216e-07
161	0xb90c6028	-0.00013387261
162	0xb510343b	-5.3720186e-07
163	0xb506c3c3	-5.020376e-07
164	0x35059153	4.9757836e-07
165	0xb506fd25	-5.0287264e-07
166	0xba3da028	-0.0007233643
167	0x34f9a2ba	4.6498263e-07
168	0xb88c7eda	-6.699348e-05
169	0x3e67d25d	0.22638841
170	0xb7ae24e2	-2.0759591e-05
171	0x3506dc30	5.0239305e-07
172	0xb5087dc4	-5.084696e-07
173	0xb761804a	-1.3440915e-05
174	0xbb3e4acf	-0.0029036289
175	0xb92f8c22	-0.00016741504
176	0x3a9d5526	0.0012003526
177	0x3db4c2df	0.08826231
178	0xb8ad18ae	-8.25388e-05
179	0x34ffeeb2	4.7671125e-07
180	0x350601dd	4.99216e-07
181	0xb8c2e942	-9.2940885e-05
182	0xbb969582	-0.0045954594
183	0xbe9a3851	-0.3012109
184	0x3e87edad	0.2654852
185	0x3c52be5c	0.012862768
186	0xb89408a3	-7.058799e-05
187	0xb505d8d1	-4.986187e-07
188	0x34f750d6	4.606615e-07
189	0x3862cf23	5.407551e-05
190	0xbf4bc93f	-0.7960395
191	0xbc03e409	-0.008049973
192	0xbe03c4d0	-0.12868047
193	0x3eb1aaf8	0.3470075
194	0x3841bab5	4.618867e-05
195	0x35006509	4.783074e-07
196	0xb506f6c9	-5.027801e-07
197	0xbe138200	-0.1440506
198	0x3b1442dc	0.002262286
199	0xbbb6d181	-0.005579174
200	0x3885dfe7	6.383639e-05
201	0xbabfdedf	-0.0014638564
202	0x3505d853	4.9861154e-07
203	0xb5073923	-5.0374564e-07
204	0xb50589e1	-4.9747e-07
205	0x3c22c71e	0.009935169
206	0x3790e517	1.7272816e-05
207	0xbb74d47f	-0.0037358103
208	0x3d80c0bc	0.06286761
209	0x3e87ea9c	0.2654618
210	0xbdf12e81	-0.11776448
211	0xb502dcd7	-4.875014e-07
212	0xb502748d	-4.859838e-07
213	0x36ed817d	7.078225e-06
214	0x39608e3f	0.00021415295
215	0x36abe4d4	5.1228362e-06
216	0xb3e26600	-1.0542499e-07
217	0x3ce5fae4	0.028073736
218	0x32b22280	2.0737616e-08
219	0xb5068708	-5.0115386e-07
220	0xb506b081	-5.0175737e-07
221	0x3577b973	9.2284535e-07
222	0xb2434d80	-1.1368115e-08
223	0x350bb6ec	5.204772e-07
224	0xb5e701c8	-1.721136e-06
225	0x3dfb9d07	0.1228581
226	0xb5861985	-9.991205e-07
227	0x350707fc	5.030304e-07
228	0x350760c6	5.0432243e-07
229	0x35552780	7.9406163e-07
230	0xb61fc58e	-2.3807838e-06
231	0x360d49ea	2.105366e-06
232	0xb7a9ebc1	-2.0256151e-05
233	0x3c8bb76e	0.01705524
234	0xb7a9de3f	-2.0249861e-05
235	0xb507ea75	-5.06326e-07
236	0xb50583be	-4.973807e-07
237	0x36801b87	3.817902e-06
238	0xbb65516d	-0.003499116
239	0x37c860af	2.388688e-05
240	0x3863643a	5.421436e-05
241	0x3eeb49cc	0.4595474
242	0x353c999c	7.025899e-07
243	0xb5088a78	-5.0865447e-07
244	0x350814a6	5.0693995e-07
245	0x3ded06da	0.115735725
246	0x39072fad	0.00012892364
247	0x353c9b5c	7.0261535e-07
248	0xb689d300	-4.107482e-06
249	0x36601210	3.3389115e-06
250	0x34f38fa6	4.5366795e-07
251	0xb506979b	-5.0139505e-07
252	0xb507087b	-5.030376e-07
253	0xb51d20a2	-5.8534545e-07
254	0xb662132b	-3.3687782e-06
255	0xb55762a0	-8.023726e-07

superres_head/resnet_backbone/level_0/dense_26/MatMul f4 [8, 32]
0	0x378793e2	1.6162117e-05
1	0xbd97e7e9	-0.0741728
2	0x38b5225d	8.637153e-05
3	0x3a10837f	0.00055127585
4	0xb59628d9	-1.1187759e-06
5	0x3842cba5	4.6442863e-05
6	0xb8ecd580	-0.000112931244
7	0xb405c550	-1.2458372e-07
8	0x3689b839	4.1043645e-06
9	0xb528b7a6	-6.285212e-07
10	0x33bbd300	8.746247e-08
11	0xbcacbcbb	-0.021086087
12	0x361451cf	2.2101337e-06
13	0xbd956713	-0.072950505
14	0xb51ac7a8	-5.766001e-07
15	0x388dec76	6.767448e-05
16	0x393a61ca	0.00017774772
17	0x3d04b1cc	0.032396123
18	0x3db2cfe0	0.08731055
19	0xbaab5964	-0.0013072905
20	0x3cda9ea4	0.026686974
21	0xbbad47f2	-0.0052881176
22	0x390eee46	0.00013630939
23	0x37f68610	2.9387913e-05
24	0xb67aa733	-3.7350226e-06
25	0xb5582602	-8.052158e-07
26	0xb713e961	-8.8162205e-06
27	0x3ca0170c	0.01954224
28	0x3ed6d815	0.41961733
29	0x3e163a91	0.14670779
30	0xba22956c	-0.0006202075
31	0x3e96af5d	0.29430667
32	0x3d88a067	0.06671219
33	0x3ba16d77	0.0049263793
34	0x380a792e	3.301462e-05
35	0x35844420	9.854593e-07
36	0xb607a88b	-2.0214673e-06
37	0x39258b74	0.00015787577
38	0x3c416891	0.011804716
39	0xb64290f3	-2.8992624e-06
40	0x351775b8	5.6423187e-07
41	0xb58cc329	-1.0487612e-06
42	0xb654b9ed	-3.1698685e-06
43	0x3f0d4fd7	0.5519995
44	0xb639fb14	-2.7713295e-06
45	0x3f5ad596	0.85482156
46	0xb789e59f	-1.6438598e-05
47	0x38ab2189	8.160162e-05
48	0x3a3099ea	0.0006736802
49	0x3bec346f	0.007208399
50	0xb95a9cfe	-0.00020848584
51	0x3e436742	0.19082358
52	0x3ea47922	0.32123667
53	0x3d64d1a6	0.055864
54	0x3e876f91	0.26452306
55	0x395e9f2c	0.00021230866
56	0xb6e34874	-6.773562e-06
57	0xb604cc05	-1.9788288e-06
58	0xb6ee3f18	-7.100298e-06
59	0x3e9b8f72	0.30382878
60	0x3e989478	0.29800773
61	0xb79d77b7	-1.8771605e-05
62	0x3f201d6a	0.6254488
63	0x3e6fed30	0.23430324
64	0x361ab897	2.3055234e-06
65	0xb8df07b7	-0.000106349056
66	0x38115d4a	3.4657576e-05
67	0xb6a5fa93	-4.946554e-06
68	0xb3549df0	-4.950374e-08
69	0x36bc8398	5.618156e-06
70	0x37fdb5ca	3.0244602e-05
71	0x34b36902	3.341775e-07
72	0xb3c4fdc0	-9.173118e-08
73	0xb51e8c10	-5.9063404e-07
74	0x34b84c7a	3.4328315e-07
75	0xb8b73362	-8.735691e-05
76	0x3509abad	5.12863e-07
77	0xb9abf54e	-0.00032798428
78	0x36cc84ee	6.095149e-06
79	0xb5dc867e	-1.643042e-06
80	0xb7962f5d	-1.7903449e-05
81	0xb8d4f762	-0.000101550264
82	0x36aa980c	5.0840954e-06
83	0x3df76e4b	0.120815836
84	0xb886115d	-6.392852e-05
85	0xb88a75f2	-6.602322e-05
86	0xb8265e2d	-3.9665192e-05
87	0x3700d7ab	7.679609e-06
88	0xb57291b4	-9.036405e-07
89	0x350c8d1a	5.2359394e-07
90	0xb6dc5d3d	-6.5673653e-06
91	0xb8a83dab	-8.022351e-05
92	0xb8cae50f	-9.674776e-05
93	0xb8314cfc	-4.2271786e-05
94	0xb7e8693a	-2.7705555e-05
95	0xb7a7bc7c	-1.9995721e-05
96	0xb5041d70	-4.921667e-07
97	0xb4f33d56	-4.5306905e-07
98	0x3504168c	4.920664e-07
99	0x35048d8d	4.9379815e-07
100	0xb5064f2f	-5.003412e-07
101	0x3503e553	4.9135014e-07
102	0x3505eb6a	4.9888934e-07
103	0x3507f884	5.0653057e-07
104	0xb5063160	-4.999074e-07
105	0x35074b78	5.040124e-07
106	0xb5043d66	-4.926318e-07
107	0xb50534cc	-4.962319e-07
108	0xb504930f	-4.938783e-07
109	0xb4f13618	-4.4929106e-07
110	0xb5081588	-5.069528e-07
111	0xb50189c7	-4.825674e-07
112	0xb503677c	-4.895189e-07
113	0xb4f031d0	-4.4739727e-07
114	0xb5045094	-4.929109e-07
115	0x34f1d024	4.504119e-07
116	0x3500f427	4.8039004e-07
117	0xb4fa7fee	-4.665921e-07
118	0xb4f7e5b0	-4.6174455e-07
119	0xb50838cd	-5.0746604e-07
120	0xb503efe5	-4.9150395e-07
121	0xb5060df6	-4.9939206e-07
122	0xb4f35a84	-4.5328136e-07
123	0x350e1b64	5.293898e-07
124	0xb4ff59e4	-4.7562855e-07
125	0xb4ede2e0	-4.4309763e-07
126	0xb4fe3936	-4.7352813e-07
127	0xb506e7ab	-5.025601e-07
128	0xb5084b3a	-5.0773417e-07
129	0x34ffc682	4.7641885e-07
130	0xb506d2ef	-5.022584e-07
131	0xb505c18a	-4.9828e-07
132	0xb506958b	-5.0136504e-07
133	0x3501fcb6	4.842399e-07
134	0xb505b9f5	-4.9816964e-07
135	0xb5078704	-5.048789e-07
136	0xb507032f	-5.029605e-07
137	0xb5075fe7	-5.0430975e-07
138	0xb506cce6	-5.0217056e-07
139	0xb4f8934c	-4.6300772e-07
140	0xb50626e6	-4.9975495e-07
141	0x350ca864	5.2399105e-07
142	0x3505ad62	4.9798666e-07
143	0x3507fcd9	5.065936e-07
144	0xb4ef695e	-4.4593884e-07
145	0xb4ea50aa	-4.3644587e-07
146	0xb5026b82	-4.858522e-07
147	0x3504a1dd	4.9409374e-07
148	0xb4e43aee	-4.2511186e-07
149	0x34f0fbf8	4.4886815e-07
150	0xb4f954de	-4.6441613e-07
151	0x35044150	4.9268874e-07
152	0xb50627fc	-4.9977075e-07
153	0x3506a4b8	5.015859e-07
154	0xb4fc14de	-4.695384e-07
155	0xb4e73b64	-4.3070315e-07
156	0x351185a1	5.4211165e-07
157	0xb4fbbcb6	-4.6889699e-07
158	0xb4f811e2	-4.620661e-07
159	0xb4f32e60	-4.529602e-07
160	0xb74382b3	-1.16533365e-05
161	0x3ace5183	0.0015740845
162	0x38f160f4	0.000115098344
163	0x38cd33a8	9.7847835e-05
164	0x35a044be	1.1940936e-06
165	0x369c66d8	4.661135e-06
166	0xb85d91aa	-5.2826166e-05
167	0x358ead38	1.0630238e-06
168	0xb6189736	-2.2737781e-06
169	0x354c5d95	7.61321e-07
170	0x3657074e	3.2041748e-06
171	0xbbf55f15	-0.0074881413
172	0x358dc7bf	1.0563452e-06
173	0xbd679d7c	-0.056546673
174	0xb81b0906	-3.6963283e-05
175	0x380bde66	3.3347307e-05
176	0x398558d5	0.00025433922
177	0xbaf1497a	-0.0018408739
178	0x3d631eea	0.055449404
179	0x394110c0	0.00018412154
180	0xb9c45a70	-0.00037451414
181	0xb90f6753	-0.00013676034
182	0xbacaf5e3	-0.0015484657
183	0x392e2fc6	0.0001661173
184	0x372342b4	9.731088e-06
185	0xb4d325f4	-3.9329427e-07
186	0x388a1d0b	6.5857625e-05
187	0xba56d1c1	-0.0008194708
188	0x3998fa2c	0.00029178092
189	0xb6b4ccec	-5.388274e-06
190	0x3a243d62	0.000626525
191	0x3ef6af85	0.48180786
192	0xb6c33608	-5.817743e-06
193	0x3f0a029c	0.5391023
194	0x394f6caf	0.00019781546
195	0xbe5d03b6	-0.21583447
196	0x31bf1d80	5.5621854e-09
197	0x36471734	2.9666817e-06
198	0x395b981c	0.00020942133
199	0x347c97e8	2.3524592e-07
200	0xb580ed6d	-9.605843e-07
201	0xb518f135	-5.6975415e-07
202	0x3c00229a	0.00782075
203	0x3cc163f3	0.02360723
204	0xb75c2715	-1.3122121e-05
205	0x3aa13c17	0.0012301233
206	0xb5395bf2	-6.905167e-07
207	0xb952308b	-0.00020045244
208	0xb8a651ac	-7.9307094e-05
209	0xbe73c20f	-0.23804496
210	0xbbacaff0	-0.005269997
211	0xbe084e02	-0.13311008
212	0x3c75b91f	0.01499775
213	0x3ec03368	0.3753922
214	0x3d120b75	0.035655458
215	0xb646e568	-2.9637831e-06
216	0x37e7a3cc	2.761362e-05
217	0x34663320	2.1439018e-07
218	0x38353608	4.3204083e-05
219	0x3a90f655	0.0011059741
220	0x3d699c12	0.057033606
221	0xbc99fb21	-0.018796505
222	0xba81e833	-0.000991112
223	0x3d64970d	0.055808116
224	0xb57a5af8	-9.3264634e-07
225	0x3a4e8b7e	0.00078790623
226	0x3832aa07	4.2596857e-05
227	0x38c8c94c	9.5742376e-05
228	0x35765fa9	9.1781345e-07
229	0x37011131	7.693002e-06
230	0x3a91dd38	0.001112855
231	0x34bb9671	3.4940925e-07
232	0xb52997ec	-6.317848e-07
233	0x33cbfee0	9.4992856e-08
234	0x3708069b	8.10777e-06
235	0x3e8574e3	0.2606574
236	0x36a9d563	5.061434e-06
237	0xb95ba48a	-0.00020946763
238	0xb7af1da0	-2.087542e-05
239	0x37a6e329	1.9894522e-05
240	0x38db6cbe	0.000104629886
241	0x39c53c21	0.00037619568
242	0xb9ddcacc	-0.000423035
243	0xba5ceb8f	-0.0008427435
244	0xb9884586	-0.0002599174
245	0x392ac397	0.00016285326
246	0xb911f0e0	-0.0001391801
247	0x388d662e	6.7424364e-05
248	0x371ba046	9.2760365e-06
249	0x346588e0	2.1377082e-07
250	0x3864234d	5.4392312e-05
251	0x3975ad95	0.00023429685
252	0xba15003e	-0.0005683935
253	0xb9787b44	-0.00023697043
254	0x38730c98	5.7947444e-05
255	0x3c4531fe	0.012035845

superres_head/resnet_backbone/level_0/dense_25/MatMul f4 [32, 8]
0	0x3907f355	0.00012965252
1	0x361246f8	2.1797005e-06
2	0xb5041f21	-4.921913e-07
3	0xbbf6dd5b	-0.007533712
4	0xb5044aa3	-4.928244e-07
5	0x3d84ce9e	0.064847216
6	0x35086c0a	5.0821166e-07
7	0x381f29f8	3.794764e-05
8	0x3dd76c02	0.10518648
9	0xb7ce6a9c	-2.4606758e-05
10	0xb5060e00	-4.993926e-07
11	0xbad79b5d	-0.00164495
12	0xb5055247	-4.966609e-07
13	0x3edb999c	0.42890632
14	0x34fe2dfe	4.734465e-07
15	0x3830f0b3	4.218584e-05
16	0xb56ef906	-8.9024286e-07
17	0xb505d6b3	-4.985879e-07
18	0x3505c2d7	4.982989e-07
19	0xb829a875	-4.0449628e-05
20	0xb507d8cd	-5.0606906e-07
21	0xb8310173	-4.220144e-05
22	0xb50727bb	-5.0349234e-07
23	0x3514a9ab	5.5381196e-07
24	0xbe90080d	-0.28131142
25	0x3e0c36d8	0.13692796
26	0xb508a666	-5.090609e-07
27	0xb8da3058	-0.00010404055
28	0x3507e2cd	5.062146e-07
29	0x3e83b0e2	0.25720888
30	0x35002755	4.774095e-07
31	0xbe9ae924	-0.30255997
32	0xb70bdd41	-8.33656e-06
33	0x3553d524	7.8913786e-07
34	0xb505f176	-4.9897733e-07
35	0x39e78e37	0.00044165712
36	0xb50632da	-4.999289e-07
37	0x3c8f0c6d	0.01746198
38	0x35073a1a	5.037597e-07
39	0xb60f52e1	-2.1356902e-06
40	0xbd040edf	-0.032240745
41	0x3e2f6555	0.17128499
42	0xb4f87782	-4.6280553e-07
43	0xbf6009c5	-0.8751491
44	0xb50628e5	-4.99784e-07
45	0x3de83866	0.11338882
46	0xb5021127	-4.8453734e-07
47	0x3c6ff162	0.0146449525
48	0x3e03e673	0.12880878
49	0xb8013330	-3.080367e-05
50	0x3504f39e	4.952834e-07
51	0x3bccfde5	0.0062558525
52	0x35021058	4.845256e-07
53	0x3eaecf2e	0.3414244
54	0x35063924	5.000204e-07
55	0xb615e14c	-2.233387e-06
56	0xb7b261dd	-2.1264825e-05
57	0xb4e20e20	-4.2106058e-07
58	0xb507d172	-5.05962e-07
59	0xb9bb8198	-0.00035763974
60	0x3506a565	5.015957e-07
61	0x3e5348c7	0.20633231
62	0xb5080501	-5.067123e-07
63	0xb75caa1d	-1.3152629e-05
64	0x370c4800	8.361414e-06
65	0x36a4efe8	4.9155096e-06
66	0x35056afa	4.970203e-07
67	0xb99fd490	-0.00030485215
68	0xb5082d8e	-5.073024e-07
69	0x3e3294ec	0.17439622
70	0x3507e870	5.062966e-07
71	0xb8d16d8a	-9.9863e-05
72	0x3d4d0f3b	0.050063353
73	0xb91d4496	-0.00014998237
74	0xb508d29c	-5.0970425e-07
75	0x3abed4dc	0.0014559287
76	0xb506a813	-5.016347e-07
77	0x3e3e9bc0	0.18614101
78	0x35055144	4.966462e-07
79	0xb889b3ae	-6.566137e-05
80	0xb9aceee3	-0.0003298438
81	0xb76ccda4	-1.4114576e-05
82	0x350868dd	5.0816544e-07
83	0xbb3bc4b1	-0.0028651173
84	0x350819cc	5.070149e-07
85	0x3e12713a	0.14301005
86	0xb508ce7c	-5.096442e-07
87	0xb8bd2df0	-9.020779e-05
88	0x3e28e439	0.1649331
89	0x385f7ab4	5.328162e-05
90	0xb4ffd414	-4.7651758e-07
91	0x3b05b646	0.0020402833
92	0x3508308f	5.073461e-07
93	0x3ebe6587	0.37186834
94	0xb506da1a	-5.023627e-07
95	0xb78e4206	-1.6958464e-05
96	0x3e5de571	0.21669556
97	0x386ac6db	5.5975146e-05
98	0xb507f400	-5.0646486e-07
99	0x3c6b68de	0.014368264
100	0xb508a5fa	-5.0905476e-07
101	0x3ef7515e	0.48304266
102	0xb502ed8b	-4.8774444e-07
103	0xb863ba89	-5.4294742e-05
104	0x3e207ea1	0.15673305
105	0xb790768e	-1.7221344e-05
106	0xb50835b6	-5.074211e-07
107	0xbc802760	-0.015643775
108	0xb507465a	-5.0393794e-07
109	0x3ee55f37	0.44799206
110	0xb5031dad	-4.8844487e-07
111	0xb655e2e0	-3.1871532e-06
112	0x3a921df7	0.0011147846
113	0xb76f3055	-1.4256763e-05
114	0xb5076f33	-5.0453235e-07
115	0xbadf0337	-0.0017014508
116	0xb5076c19	-5.044872e-07
117	0x3e3cec16	0.18449435
118	0x3504bd70	4.94495e-07
119	0x38eeeb37	0.000113925365
120	0x34624110	2.107156e-07
121	0x353a7af3	6.9469314e-07
122	0x3506477b	5.002291e-07
123	0xb7299a54	-1.0109117e-05
124	0x3506d75b	5.0232273e-07
125	0xb6cd6517	-6.1212445e-06
126	0xb50724fb	-5.034523e-07
127	0x34adecba	3.2396002e-07
128	0xba317d2d	-0.0006770667
129	0xb505b453	-4.980877e-07
130	0x3506edc3	5.026488e-07
131	0xbb1bd44f	-0.0023777669
132	0xb50653eb	-5.0041007e-07
133	0xba85d2ce	-0.001020992
134	0x350696fb	5.0138595e-07
135	0xbb09fb17	-0.0021054202
136	0xb540a050	-7.175886e-07
137	0x351af098	5.771958e-07
138	0x3506e9ac	5.025893e-07
139	0x375039f4	1.2411259e-05
140	0xb506ebb1	-5.0261866e-07
141	0xb7317138	-1.0576383e-05
142	0x35068ee9	5.012685e-07
143	0xb5da6228	-1.6270833e-06
144	0x3862f86f	5.411397e-05
145	0xb78da0af	-1.6883334e-05
146	0xb50836f0	-5.074389e-07
147	0x3be6abc6	0.00703952
148	0x35085031	5.078064e-07
149	0x3e1eee85	0.15520675
150	0x3506e0dd	5.024611e-07
151	0x3733944c	1.07037595e-05
152	0x3734885e	1.07605865e-05
153	0x378e1382	1.6936803e-05
154	0xb507ea8a	-5.063272e-07
155	0xbc0dce38	-0.008655123
156	0x3505b6b9	4.981226e-07
157	0x3d035c70	0.032070577
158	0x350578f2	4.972236e-07
159	0x37201827	9.542367e-06
160	0x3929fafe	0.00016210598
161	0xba2dd6f2	-0.00066314556
162	0xb50176b0	-4.822896e-07
163	0x3a4e4bfb	0.00078695983
164	0xb503df17	-4.912594e-07
165	0x3d304265	0.04303207
166	0xb50685eb	-5.0113766e-07
167	0xbd0b0c61	-0.033947352
168	0xb891fd93	-6.961371e-05
169	0xb790df6a	-1.7270173e-05
170	0x3503113b	4.8826377e-07
171	0x39173806	0.00014421353
172	0xb5076679	-5.0440536e-07
173	0x3e17e307	0.14832698
174	0xb507e791	-5.062839e-07
175	0xb88577d4	-6.364254e-05
176	0x3df2921f	0.11844277
177	0xbdd56180	-0.10418987
178	0x3508499b	5.077106e-07
179	0x3bbddbe4	0.0057940353
180	0xb50843ca	-5.0762594e-07
181	0x3e75801f	0.23974656
182	0x35058e07	4.975304e-07
183	0x34db3100	4.082758e-07
184	0xbb00421f	-0.0019570661
185	0xb7c988a5	-2.4024697e-05
186	0xb5036a6a	-4.8956156e-07
187	0x3b46212f	0.0030232181
188	0xb501f33c	-4.84102e-07
189	0x3e1ea68d	0.15493222
190	0xb4f8a912	-4.6316615e-07
191	0x38b2fe43	8.535061e-05
192	0x3c415846	0.011800831
193	0x376bfec6	1.4066411e-05
194	0xb508b33c	-5.092477e-07
195	0x3bcac63b	0.0061881817
196	0xb506ce0f	-5.0218745e-07
197	0x3e3ad051	0.18243529
198	0xb504058f	-4.918192e-07
199	0x374a76e4	1.206782e-05
200	0xbb3e3034	-0.002902043
201	0xb9db31b6	-0.00041807973
202	0x3505e773	4.9883164e-07
203	0xbaa5d792	-0.0012652746
204	0x35065d03	5.005424e-07
205	0xb8c11ea5	-9.208665e-05
206	0xb50691e3	-5.0131183e-07
207	0xbb05a27a	-0.0020391033
208	0xb9a0d5d3	-0.0003067689
209	0xb74d33d4	-1.2231019e-05
210	0x3507ba14	5.05622e-07
211	0x3c9a3b4d	0.018827105
212	0xb504b035	-4.9430247e-07
213	0x3e3a89d0	0.18216634
214	0x35081cbe	5.0705773e-07
215	0xb89296fc	-6.9899455e-05
216	0x3b4d2442	0.003130213
217	0x38e7fe55	0.000110623114
218	0xb5076553	-5.0438865e-07
219	0x3b678683	0.0035327978
220	0x350651e9	5.0038085e-07
221	0x3e8823de	0.26589864
222	0xb504460e	-4.9275775e-07
223	0x36a7eea1	5.004768e-06
224	0x3d4cb4fa	0.04997728
225	0x3539a9b0	6.91648e-07
226	0x3507c945	5.0584305e-07
227	0xbb028e79	-0.0019921346
228	0xb5078349	-5.0482464e-07
229	0x3e8f3c7e	0.2797584
230	0xb507076d	-5.0302225e-07
231	0x370bd490	8.334537e-06
232	0x3a0d4ee9	0.00053904817
233	0xb88e9222	-6.798307e-05
234	0x3508a34f	5.0901593e-07
235	0x3b425e78	0.0029658359
236	0x3504157f	4.9205113e-07
237	0x3e1db4d1	0.15401007
238	0xb50554e4	-4.9669893e-07
239	0x38e040da	0.00010693232
240	0x3563961f	8.4782545e-07
241	0xb5027fd3	-4.861478e-07
242	0xb5075707	-5.041806e-07
243	0xb761a49e	-1.3449373e-05
244	0x3505f36f	4.9900603e-07
245	0xb7ab11d2	-2.0393087e-05
246	0xb507e597	-5.0625516e-07
247	0xb5771140	-9.203977e-07
248	0x3a1acac9	0.0005904851
249	0x36046280	1.9726867e-06
250	0x35017b20	4.8235415e-07
251	0x3b677e96	0.0035323254
252	0x35074f7e	5.0407095e-07
253	0x3e8cec9d	0.27524272
254	0xb4fecd54	-4.7460583e-07
255	0x3d30215a	0.043000557

superres_head/resnet_backbone/level_0/dense_24/MatMul f4 [8, 32]
0	0x3d96a6ab	0.07356008
1	0xbb8b9fa2	-0.004260973
2	0x368ddcb6	4.2278216e-06
3	0x351332da	5.4835766e-07
4	0x3dbf3181	0.09335614
5	0xb5a897a4	-1.2561109e-06
6	0xb3272bc0	-3.8922508e-08
7	0xba2a3099	-0.0006492227
8	0x35a730bc	1.2456653e-06
9	0x36686d78	3.4634413e-06
10	0x351acb5a	5.7665386e-07
11	0x36a3cea2	4.881834e-06
12	0xb674ed80	-3.6497077e-06
13	0x37eb732e	2.8067818e-05
14	0xb63a2754	-2.7739052e-06
15	0x399de9d8	0.000301196
16	0xbdccfbd1	-0.10008968
17	0xb65bef08	-3.2772678e-06
18	0x359d9709	1.1741369e-06
19	0x3ed33072	0.41247898
20	0xbe3bbb04	-0.1833306
21	0x359f71d0	1.1879547e-06
22	0xb7ad8a0f	-2.0687496e-05
23	0x3915218a	0.00014222242
24	0xb6a2bd48	-4.8500115e-06
25	0x3d401cea	0.046902575
26	0xb4091c1a	-1.2769343e-07
27	0x372dfe3a	1.0370795e-05
28	0xb4122b70	-1.3613112e-07
29	0x36400eae	2.8618774e-06
30	0xb97d1564	-0.00024135929
31	0x3d520102	0.051270492
32	0x34725cd4	2.2571777e-07
33	0x390938a6	0.00013086441
34	0xb5739afb	-9.075008e-07
35	0x34ae93c4	3.251754e-07
36	0xb56a80d1	-8.7359246e-07
37	0xb444fe70	-1.8346486e-07
38	0xb451a270	-1.9523736e-07
39	0x3d8a8bb6	0.06764929
40	0xb5c05894	-1.4330894e-06
41	0x37c7829c	2.3783468e-05
42	0xb36be220	-5.492086e-08
43	0xb6373f50	-2.7305978e-06
44	0x3676803e	3.6731503e-06
45	0xb7d52d3e	-2.5412646e-05
46	0x360379c6	1.9591403e-06
47	0xbd0d083b	-0.034431677
48	0x376c2012	1.4074163e-05
49	0x3534a118	6.728965e-07
50	0x3532711e	6.6474774e-07
51	0xba02a285	-0.0004983324
52	0x3d2ff8e9	0.04296199
53	0x34f8db4e	4.6353165e-07
54	0x37e2df3a	2.7045247e-05
55	0xb8fdd466	-0.000121035424
56	0x3e7c62f5	0.24647124
57	0xbb13177a	-0.0022444413
58	0x3511a27d	5.425316e-07
59	0x3c5eeb92	0.013605969
60	0x3511e50c	5.4350016e-07
61	0xbcdfd933	-0.027325248
62	0x38b1a130	8.470041e-05
63	0x3852c08b	5.024722e-05
64	0xb5073829	-5.037314e-07
65	0xb50292a9	-4.864219e-07
66	0xb5077553	-5.046215e-07
67	0xb5073287	-5.0364946e-07
68	0xb508b0d7	-5.0921284e-07
69	0x3506b31c	5.017953e-07
70	0x3506c2ea	5.020253e-07
71	0x3505aa43	4.9794124e-07
72	0xb5080b9f	-5.068086e-07
73	0xb506aab0	-5.0167273e-07
74	0x3506b277	5.017859e-07
75	0x3505e1db	4.9875024e-07
76	0x35060169	4.992094e-07
77	0x3507f323	5.064523e-07
78	0x35058392	4.973782e-07
79	0xb4fea87a	-4.743377e-07
80	0xb506ef29	-5.0266914e-07
81	0xb508594f	-5.079391e-07
82	0x3506d548	5.0229255e-07
83	0x3505d229	4.9852184e-07
84	0xb508e72e	-5.100036e-07
85	0xb5071b1e	-5.033088e-07
86	0x350736b9	5.037105e-07
87	0x35021b21	4.846825e-07
88	0xb506ba6b	-5.0190164e-07
89	0x34f990d0	4.648523e-07
90	0xb506fbf1	-5.0285513e-07
91	0x35087d81	5.084658e-07
92	0xb507c05f	-5.0571356e-07
93	0xb504c849	-4.9465285e-07
94	0x3501f8f4	4.841852e-07
95	0x350594c2	4.976283e-07
96	0xb81dacbe	-3.7592596e-05
97	0xbe1410fa	-0.14459601
98	0xb9d40413	-0.00040438827
99	0xb76189d3	-1.3443135e-05
100	0x3dd9dcec	0.10637841
101	0xb80e57f2	-3.3937344e-05
102	0xb798b257	-1.8202858e-05
103	0x3f673bcb	0.9032561
104	0xb8df2636	-0.00010640586
105	0x3c83bb1b	0.01608043
106	0xb7facadf	-2.9896792e-05
107	0xb9c3d16a	-0.00037349324
108	0xb7d2cb69	-2.5128671e-05
109	0x3aff41a1	0.0019474515
110	0xb9a263ba	-0.0003097335
111	0xbe34c0bc	-0.17651647
112	0xbb434c29	-0.0029800034
113	0xb8dcc14a	-0.000105264204
114	0x3712057e	8.703557e-06
115	0x3da65af2	0.08122815
116	0x3d919028	0.07107574
117	0x35ce7b4f	1.5384084e-06
118	0xbc08933a	-0.008335883
119	0x3eb1cac5	0.34725013
120	0xbe9b8119	-0.3037193
121	0x3e17a2b2	0.14808157
122	0x36a31c6c	4.8610873e-06
123	0xbd416c02	-0.047222145
124	0xb83020e4	-4.19923e-05
125	0x3df1f126	0.118135735
126	0x3affc621	0.0019514003
127	0xbb98b2de	-0.0046599945
128	0x350775b9	5.046273e-07
129	0xb50755b8	-5.0416156e-07
130	0x3507b305	5.0551927e-07
131	0x350707b5	5.0302634e-07
132	0x3508c5ac	5.09516e-07
133	0xb50664ed	-5.0065756e-07
134	0x35077f9e	5.0477126e-07
135	0x3508d50b	5.0973966e-07
136	0xb5063d66	-5.0008236e-07
137	0xb5076981	-5.044495e-07
138	0x35077b95	5.0471255e-07
139	0x35082630	5.071952e-07
140	0x3506e016	5.024498e-07
141	0xb504802d	-4.936035e-07
142	0xb5066b19	-5.007474e-07
143	0x35040162	4.9175844e-07
144	0xb507cffc	-5.0594076e-07
145	0xb5062452	-4.9971743e-07
146	0xb506d030	-5.022184e-07
147	0xb50424e2	-4.9227503e-07
148	0xb508b42d	-5.092614e-07
149	0x3506f6ec	5.027821e-07
150	0x3506414e	5.001392e-07
151	0xb5084afc	-5.0773065e-07
152	0xb505518a	-4.9665016e-07
153	0x350053a8	4.780545e-07
154	0x3506eeca	5.0266374e-07
155	0x35078f57	5.0500006e-07
156	0xb5067bbc	-5.009895e-07
157	0x3504ba2c	4.944475e-07
158	0xb506d9c7	-5.02358e-07
159	0x3506dc88	5.0239805e-07
160	0x347f3b10	2.3770212e-07
161	0x3e0b5bdd	0.13609262
162	0x3e030f40	0.12798786
163	0x3c609d32	0.013709353
164	0x3e8359b1	0.25654367
165	0x35ee5dc2	1.7759669e-06
166	0xb5b4618a	-1.3439433e-06
167	0x398469df	0.00025255882
168	0xb4d1ebd0	-3.910086e-07
169	0xba12959b	-0.0005591751
170	0xb5ac44a3	-1.2834975e-06
171	0x3e6458dc	0.22299522
172	0x378e9856	1.6998656e-05
173	0x3d4669ad	0.048440624
174	0x3d5416cb	0.05177955
175	0x3ed67abf	0.41890523
176	0x3ed58db9	0.41709688
177	0x3728b038	1.0054609e-05
178	0xb5331fec	-6.672915e-07
179	0x3f1199c0	0.5687523
180	0x3e314cf0	0.17314506
181	0x33d655f0	9.9807835e-08
182	0x3995ae6f	0.00028549458
183	0x3c8acd0c	0.016943477
184	0x3de90693	0.11378207
185	0x3f9489ed	1.1604592
186	0x34a4ce44	3.0697458e-07
187	0x3a16eec8	0.0005757627
188	0x357b35e1	9.358319e-07
189	0x3ea7b36e	0.3275408
190	0x3f6066d8	0.8765693
191	0x3f5ec2fe	0.87016284
192	0x35077f95	5.0477075e-07
193	0x3501e6ea	4.839227e-07
194	0xb504a533	-4.941423e-07
195	0xb5069a98	-5.0143854e-07
196	0x35070d14	5.031045e-07
197	0x3507c915	5.058403e-07
198	0x35077fb3	5.0477246e-07
199	0x3507d4eb	5.0601255e-07
200	0xb508addf	-5.0916964e-07
201	0x3507b6f1	5.0557634e-07
202	0xb5062818	-4.9977234e-07
203	0xb50290bd	-4.8639396e-07
204	0x35077afd	5.047039e-07
205	0x350790e8	5.0502285e-07
206	0x3508bf00	5.094189e-07
207	0xb502f035	-4.877832e-07
208	0xb508359c	-5.074196e-07
209	0x35087628	5.083589e-07
210	0x35076fe1	5.0454224e-07
211	0xb502d5e8	-4.874005e-07
212	0xb503a107	-4.903563e-07
213	0xb506e079	-5.024554e-07
214	0xb50890cd	-5.087466e-07
215	0xb50778fb	-5.046747e-07
216	0xb50156b1	-4.81824e-07
217	0xb504a661	-4.9415945e-07
218	0xb5068b87	-5.012193e-07
219	0xb503f6f1	-4.916065e-07
220	0xb505f079	-4.9896295e-07
221	0x35014256	4.8152776e-07
222	0x35086f25	5.0825685e-07
223	0xb508331d	-5.073833e-07
224	0x350a2fa2	5.147832e-07
225	0xbe57c2b4	-0.21070367
226	0x360a26a6	2.0586099e-06
227	0xb59ae3ee	-1.154023e-06
228	0x3650ed5e	3.1132581e-06
229	0xb553d2f6	-7.8910614e-07
230	0x358b26cf	1.0367602e-06
231	0x379521b4	1.7777878e-05
232	0xb5789d48	-9.2616074e-07
233	0xb695d6ac	-4.465537e-06
234	0xb54d7bf2	-7.6548815e-07
235	0x360213aa	1.9382956e-06
236	0xb78263e2	-1.554372e-05
237	0x37dfe06a	2.6688173e-05
238	0xb696a5ca	-4.4896487e-06
239	0x3d0d1d98	0.03445205
240	0xbe65f3e0	-0.22456312
241	0xb59045fe	-1.0749206e-06
242	0xb50a0bd3	-5.142621e-07
243	0x3e22c009	0.15893568
244	0xbca47adc	-0.020078115
245	0x358b64a5	1.0385598e-06
246	0x380fb876	3.426565e-05
247	0x38f76b1c	0.000117978285
248	0xba5a1191	-0.00083186576
249	0x3e2713cb	0.16316144
250	0xb56ae58d	-8.7505833e-07
251	0xb8ba24a0	-8.875993e-05
252	0xb5bf1682	-1.423716e-06
253	0x37dd335c	2.6369169e-05
254	0xb8c80580	-9.5377676e-05
255	0xb9530d2d	-0.00020127436

superres_head/resnet_backbone/level_0/batch_normalization_14/FusedBatchNormV3 f4 [32]
0	0x40a7dcd3	5.245706
1	0x3f3059f8	0.6888728
2	0x40b8c1a0	5.773636
3	0x403048f4	2.7544527
4	0x40979431	4.73684
5	0x403285ab	2.7894084
6	0x401c9827	2.4467866
7	0x3fc36c13	1.5267357
8	0x408966ea	4.2938128
9	0x3f0aedd4	0.54269147
10	0x410718fa	8.443598
11	0x40710237	3.7657602
12	0x3f2e6d1f	0.68135256
13	0x3ed7bc53	0.42135867
14	0x40af3147	5.4747653
15	0x40812a1f	4.0363917
16	0x3f11843c	0.568424
17	0x3fa58138	1.293006
18	0x40484893	3.1294296
19	0x4169718e	14.590223
20	0x415d4390	13.828995
21	0x3f0300c2	0.5117303
22	0x40a8d531	5.2760243
23	0x3ef850fd	0.4849929
24	0x411ce759	9.806481
25	0x3f0b908e	0.5451745
26	0x3f50fe09	0.81637627
27	0x4094d35e	4.6508017
28	0x3f0660f1	0.5249167
29	0x4088b638	4.2722435
30	0x3f5bbb92	0.85833085
31	0x3f0541ff	0.5205383

superres_head/resnet_backbone/level_0/batch_normalization_14/FusedBatchNormV31 f4 [32]
0	0xbfbb474f	-1.4631137
1	0xbf854b25	-1.0413557
2	0xbf11bb7e	-0.56926715
3	0xbf2ba572	-0.67049325
4	0xbfc621ab	-1.5479025
5	0xbf5fe6ba	-0.87461436
6	0xbf2b679e	-0.6695498
7	0xbfe12fd5	-1.7592722
8	0xbf9911ac	-1.1958518
9	0xbee24e98	-0.44200587
10	0xbe2ddf6f	-0.16979764
11	0xbf5bd00c	-0.8586433
12	0xbea07e88	-0.31346536
13	0xbf11f3de	-0.57012737
14	0xbeb90728	-0.36138272
15	0xbefce26a	-0.4939149
16	0xbe28cf8a	-0.1648542
17	0xbe34636f	-0.17616056
18	0xbfa79c9e	-1.3094671
19	0xbea2d2dd	-0.318015
20	0xbe92201f	-0.2854013
21	0xbf0f64a3	-0.56012934
22	0xbfcbd294	-1.5923638
23	0xbf77ce92	-0.96799576
24	0xbefbc7cf	-0.4917588
25	0xbf5698af	-0.83826727
26	0xbe3199d5	-0.17343839
27	0xbe5d1a70	-0.21592116
28	0xbec6fca0	-0.38864613
29	0xbfab427b	-1.3379663
30	0xbec1bf6e	-0.37841362
31	0xbe9608b0	-0.29303503

superres_head/resnet_backbone/level_0/batch_normalization_13/FusedBatchNormV3 f4 [32]
0	0x4084039e	4.1254416
1	0x3efa53ae	0.48891968
2	0x3f8f671f	1.1203345
3	0x400d0fe2	2.2040944
4	0x4135c22e	11.359907
5	0x40239165	2.5557492
6	0x3f985969	1.1902286
7	0x41453601	12.325685
8	0x40b9271d	5.7860246
9	0x41939e6d	18.452356
10	0x40a19e69	5.050587
11	0x3ea52c53	0.3226038
12	0x40c81335	6.2523446
13	0x3f1ad8a8	0.6048684
14	0x404a62b1	3.1622736
15	0x40572d66	3.362146
16	0x401f464d	2.4886658
17	0x3f53d736	0.8275026
18	0x3fc4fc77	1.5389546
19	0x3f001417	0.50030655
20	0x3f5dddad	0.86666375
21	0x3f81fbe4	1.0154996
22	0x3f6be4f1	0.9214621
23	0x3fe6f5b6	1.8043735
24	0x40d662f4	6.6995792
25	0x413f45e2	11.954561
26	0x40290f33	2.6415527
27	0x3f4e70b6	0.80640733
28	0x3f865529	1.0494739
29	0x3fa153ff	1.2603759
30	0x3f8d6761	1.1047174
31	0x3fa5396d	1.290815

superres_head/resnet_backbone/level_0/batch_normalization_13/FusedBatchNormV31 f4 [32]
0	0xbede2ddc	-0.43394363
1	0xbefb9398	-0.49136043
2	0xbea5df62	-0.3239699
3	0xbf40b941	-0.75282675
4	0xbe9ccb22	-0.30623728
5	0xbeb512a9	-0.353658
6	0xbeb20e9e	-0.34776777
7	0xbed47141	-0.41492656
8	0xbe9e8622	-0.3096171
9	0xbe964f79	-0.29357508
10	0xbef5e31b	-0.4802483
11	0xbeeda5fd	-0.46415702
12	0xbf18d386	-0.5969776
13	0xbf97c01b	-1.1855501
14	0xbe90f07f	-0.28308484
15	0xbece4538	-0.40287185
16	0xbfe50fb9	-1.7895423
17	0xbf1e54a9	-0.6184793
18	0xbf017933	-0.5057556
19	0xbecf9e92	-0.40550667
20	0xbf50729c	-0.8142488
21	0xbed297c4	-0.41131413
22	0xbf37d3c5	-0.7180751
23	0xbed35490	-0.41275454
24	0xbf096115	-0.5366376
25	0xbe9c89c1	-0.30573848
26	0xbf7a316a	-0.9773165
27	0xbf508192	-0.8144771
28	0xbf8b5501	-1.0885316
29	0xbf310158	-0.69142675
30	0xbf3c4439	-0.735416
31	0xbf450bc9	-0.7697111

superres_head/resnet_backbone/level_0/batch_normalization_12/FusedBatchNormV3 f4 [32]
0	0x408fe1f6	4.496333
1	0x3faab155	1.3335367
2	0x4060a57b	3.5101001
3	0x4082fb7a	4.093198
4	0x401525da	2.3304353
5	0x41038908	8.220955
6	0x40928ef0	4.5799484
7	0x3e33d0b5	0.17560084
8	0x403dfa6e	2.96841
9	0x4000b250	2.0108833
10	0x3fec4912	1.8459799
11	0x40136b99	2.3034422
12	0x407c9735	3.946729
13	0x3fa0d35d	1.2564503
14	0x402b52cb	2.6769283
15	0x3e857b86	0.26070803
16	0x3fb1f094	1.3901544
17	0x407a0c84	3.907014
18	0x40764d54	3.8484697
19	0x3e78c48c	0.24293727
20	0x3f56e8a9	0.8394876
21	0x40b93b13	5.788461
22	0x3fb4b97c	1.4119105
23	0x3e85b7de	0.26116842
24	0x3faa966b	1.3327154
25	0x3ee39d40	0.4445591
26	0x40868cb4	4.2046757
27	0x40105ead	2.2557786
28	0x40968896	4.704173
29	0x3fb416b7	1.4069432
30	0x3f598ebd	0.84983426
31	0x3f1415b9	0.57845646

superres_head/resnet_backbone/level_0/batch_normalization_12/FusedBatchNormV31 f4 [32]
0	0xbf164c74	-0.5871041
1	0xbed1b49c	-0.40958107
2	0xbf10f50e	-0.56623924
3	0xbeb3217b	-0.3498648
4	0xbf284e5b	-0.6574456
5	0xbf6bd3ca	-0.9212004
6	0xbef9e0ba	-0.48804265
7	0xbf05cc6f	-0.52265066
8	0xbf1ec893	-0.620248
9	0xbe9c5da4	-0.30540192
10	0xbecb1d7b	-0.3967093
11	0xbf4f6f80	-0.8102951
12	0xbe42b344	-0.19013697
13	0xbeb9ac0e	-0.3626408
14	0xbf1c6220	-0.61087227
15	0xbf5a3b65	-0.8524688
16	0xbec9f126	-0.39441794
17	0xbf6d386c	-0.9266422
18	0xbeb0552a	-0.34439975
19	0xbf03996e	-0.5140599
20	0xbf113fd1	-0.56738
21	0xbea4eb56	-0.32210797
22	0xbf8995f8	-1.0748892
23	0xbeb9da35	-0.3629929
24	0xbe8cec44	-0.27524006
25	0xbfb3a873	-1.4035782
26	0xbebb09ee	-0.36531013
27	0xbe6356ab	-0.2220103
28	0xbf36bfac	-0.7138622
29	0xbf28aec1	-0.65891653
30	0xbfcc0d77	-1.5941609
31	0xbf6d6fe5	-0.9274886
