bfcnn/pretrained/sparse_resnet_5x5_bn_3x3/model.tflite (tflite, 360704 bytes, 248 tensors)

sparse_resnet_denoiser/level_0/batch_normalization_1/FusedBatchNormV3 f4 [16]
0	0x33f567f4	1.14276105e-07
1	0x3b0721f5	0.0020619605
2	0x3c67e6df	0.014154165
3	0x3cbb01da	0.022828031
4	0x3b5a0a11	0.003327016
5	0x356e8ff1	8.887137e-07
6	0x33a5e226	7.7245474e-08
7	0x3cea2417	0.028581662
8	0x3c2d580b	0.010580073
9	0xbce6cce3	-0.02817387
10	0x30bcfa82	1.3749999e-09
11	0xbc5103c7	-0.012757248
12	0xbc719a35	-0.0147462385
13	0xbb2e9e23	-0.002664455
14	0x3bf9fdc5	0.0076291286
15	0x39cf6bfc	0.0003956257

sparse_resnet_denoiser/level_0/batch_normalization_1/FusedBatchNormV31 f4 [16]
0	0x40ee16e9	7.4402966
1	0x3ef081dc	0.46974075
2	0x40c78758	6.2352715
3	0x41490b80	12.565308
4	0x3f34d6f0	0.7064047
5	0x426b0b85	58.76125
6	0x40a0055a	5.0006533
7	0x41ec6424	29.548897
8	0x43833c85	262.4728
9	0x41189bfb	9.538081
10	0x3db58e35	0.088650145
11	0x3ff2d077	1.8969868
12	0x4291a1db	72.816124
13	0x4361bdc3	225.74126
14	0x42215f91	40.343327
15	0x4432bfd5	714.9974

sparse_resnet_denoiser/level_0/batch_normalization_10/FusedBatchNormV3 f4 [16]
0	0xbf13b996	-0.57705057
1	0xbf6b0d4f	-0.9181718
2	0xbf85f040	-1.0463943
3	0xbea4c557	-0.32181808
4	0xbebca324	-0.36843216
5	0xbe92095c	-0.28522766
6	0xbf17b8c2	-0.59266293
7	0xbebad22b	-0.3648847
8	0xbf1412fc	-0.5784147
9	0xbef5e854	-0.48028815
10	0xbf0c2720	-0.547472
11	0xbf2157c3	-0.6302454
12	0xbf341aa6	-0.7035316
13	0xbecbb925	-0.39789692
14	0xbee3a54b	-0.44462046
15	0xbed444b7	-0.41458675

sparse_resnet_denoiser/level_0/batch_normalization_10/FusedBatchNormV31 f4 [16]
0	0x3f88903e	1.0669019
1	0x3f87dc8d	1.0614182
2	0x3ff06e3d	1.8783642
3	0x3f4cdfad	0.800288
4	0x3ed0ad92	0.40757424
5	0x3f4354f9	0.76301533
6	0x3f0a24e7	0.5396256
7	0x3f442963	0.7662565
8	0x3f78ae12	0.9714061
9	0x3f2493bc	0.64287925
10	0x3eb0dcf9	0.3454359
11	0x3f1aae1c	0.6042192
12	0x3efa993e	0.4894504
13	0x3f15cd4b	0.5851638
14	0x3f029afa	0.51017725
15	0x3fabf5d4	1.3434396

sparse_resnet_denoiser/level_0/batch_normalization_11/FusedBatchNormV3 f4 [16]
0	0xbf0db7c5	-0.55358535
1	0xbf02dd94	-0.5111935
2	0xbf3cdc7b	-0.73773926
3	0xbeee2e7e	-0.46519846
4	0xbec583f2	-0.3857723
5	0xbea545a1	-0.32279685
6	0xbf467263	-0.7751829
7	0xbf022168	-0.50832224
8	0xbeabd5ae	-0.33561462
9	0xbf1e5df2	-0.618621
10	0xbf191964	-0.5980437
11	0xbee2f6f9	-0.4432905
12	0xbf5800c5	-0.84376174
13	0xbf3c6254	-0.73587537
14	0xbf0ffeaf	-0.5624799
15	0xbe6f85a3	-0.23390822

sparse_resnet_denoiser/level_0/batch_normalization_11/FusedBatchNormV31 f4 [16]
0	0x40b7bcf6	5.7418165
1	0x4156b011	13.417985
2	0x40780a37	3.8756235
3	0x413270be	11.152525
4	0x40425275	3.0362828
5	0x4105de09	8.366708
6	0x40f7a600	7.7390137
7	0x4106a8c7	8.416205
8	0x3ff396a3	1.9030346
9	0x413308e0	11.189667
10	0x403559ca	2.8336053
11	0x40977551	4.733071
12	0x4150d058	13.050865
13	0x405cda9e	3.4508433
14	0x40a54f3f	5.1659236
15	0x3fe43782	1.782944

sparse_resnet_denoiser/level_0/batch_normalization_12/FusedBatchNormV3 f4 [32]
0	0xbecc7101	-0.39929965
1	0xbee9f6c4	-0.4569608
2	0xbe6258eb	-0.22104232
3	0xbf01f89f	-0.5076999
4	0xbf604d66	-0.876181
5	0xbf2025f3	-0.62557906
6	0xbe936c3d	-0.28793517
7	0xbf323e88	-0.69626665
8	0xbe820b2e	-0.25399154
9	0xbf7bbe64	-0.9833739
10	0xbe8bbe7a	-0.2729376
11	0xbecc5c32	-0.3991409
12	0xbf22cf19	-0.63597256
13	0xbedcb52b	-0.4310697
14	0xbef1fcdc	-0.4726323
15	0xbef90470	-0.48636198
16	0xbec35acf	-0.3815522
17	0xbf11a0d8	-0.56886053
18	0xbf282d5e	-0.65694225
19	0xbee60ee1	-0.44933227
20	0xbefb0bef	-0.49032542
21	0xbedc1903	-0.42987832
22	0xbe5a4172	-0.21314028
23	0xbed9dbc9	-0.42550495
24	0xbf0db9e7	-0.5536179
25	0xc03c2110	-2.939518
26	0xbf0cbcfc	-0.5497587
27	0xbef69389	-0.48159435
28	0xbe1da007	-0.15393077
29	0xbf304435	-0.68854076
30	0xbe89e681	-0.26933673
31	0xbebf42a3	-0.37355527

sparse_resnet_denoiser/level_0/batch_normalization_12/FusedBatchNormV31 f4 [32]
0	0x4093f401	4.6235356
1	0x408940e2	4.2891703
2	0x40aed061	5.462937
3	0x40a5fb21	5.1869054
4	0x409ae9b4	4.841028
5	0x409e3bd7	4.9448047
6	0x400226b7	2.033613
7	0x40bbe743	5.87198
8	0x4014d7aa	2.325663
9	0x40a2e09f	5.0899196
10	0x40e53aca	7.1634264
11	0x4027525f	2.6144025
12	0x408a70b1	4.3262563
13	0x40870a7d	4.2200303
14	0x4004b48c	2.0735197
15	0x4075c2d3	3.8400161
16	0x40855108	4.1661415
17	0x40a74af7	5.227901
18	0x40999532	4.7994623
19	0x405ea6d7	3.478933
20	0x40f9df39	7.808499
21	0x3ff97a84	1.9490514
22	0x3fea5d84	1.8309789
23	0x4075a7f3	3.8383758
24	0x4004fb28	2.0778294
25	0x4071c214	3.7774706
26	0x40ae1241	5.4397283
27	0x40f94fc0	7.790985
28	0x400e65ac	2.2249556
29	0x4099929c	4.7991467
30	0x3fec9e46	1.8485801
31	0x4064763b	3.5697162

sparse_resnet_denoiser/level_0/batch_normalization_13/FusedBatchNormV3 f4 [16]
0	0xbebbc7cf	-0.3667588
1	0xbed491c2	-0.41517454
2	0xbe8eb3c8	-0.27871537
3	0xbe8ac1fe	-0.2710113
4	0xbec54e4a	-0.38536292
5	0xbed71f47	-0.4201605
6	0xbe5d97cc	-0.21639937
7	0xbf4d112c	-0.8010433
8	0xbe9bded9	-0.30443457
9	0xbeeaa2f7	-0.45827457
10	0xbf37e394	-0.7183163
11	0xbf0e6301	-0.5561982
12	0xbeac6bd3	-0.33676013
13	0xbe8ced09	-0.27524593
14	0xbe59e5ed	-0.21279116
15	0xbdaafb21	-0.0834868

sparse_resnet_denoiser/level_0/batch_normalization_13/FusedBatchNormV31 f4 [16]
0	0x3eecd516	0.46256322
1	0x3e83eb36	0.2576539
2	0x3e983d3f	0.29734227
3	0x3ec84716	0.39116734
4	0x3e982fe0	0.29724026
5	0x3f1e1201	0.6174622
6	0x3e300ce8	0.17192423
7	0x3f293121	0.6609059
8	0x3eaa34a4	0.33243287
9	0x3ee38cd9	0.44443396
10	0x3ed48912	0.41510826
11	0x3eda935e	0.42690557
12	0x3e60fd57	0.21971641
13	0x3e656efc	0.22405618
14	0x3e5dee15	0.21672852
15	0x3de2f889	0.110825606

sparse_resnet_denoiser/level_0/batch_normalization_14/FusedBatchNormV3 f4 [16]
0	0xbdd2da51	-0.10295547
1	0xbeac0d7f	-0.33604047
2	0xbe932e98	-0.28746486
3	0xbf08f1f4	-0.5349419
4	0xbeb5c11d	-0.35498896
5	0xbf48ab4a	-0.78386366
6	0xbf0cb114	-0.549577
7	0xbf3620c5	-0.7114375
8	0xbe948372	-0.29006535
9	0xbf055085	-0.5207599
10	0xbed9cb6c	-0.4253801
11	0xbf017b99	-0.5057922
12	0xbeb5bc05	-0.3549501
13	0xbed3a72e	-0.41338485
14	0xbe9dbe1f	-0.30809113
15	0xbf048cdb	-0.5177743

sparse_resnet_denoiser/level_0/batch_normalization_14/FusedBatchNormV31 f4 [16]
0	0x40c2e90b	6.0909476
1	0x40871cda	4.222272
2	0x4033f205	2.8116467
3	0x4134c01f	11.296905
4	0x41386178	11.523796
5	0x408ebadd	4.4603105
6	0x40a651b9	5.197476
7	0x40b0559c	5.5104504
8	0x411de34e	9.867994
9	0x411eaf3c	9.917782
10	0x4117e3ca	9.493113
11	0x40336b66	2.80343
12	0x4073c4ad	3.8088791
13	0x4090dd46	4.527011
14	0x41116212	9.086443
15	0x40c8a17d	6.269713

sparse_resnet_denoiser/level_0/batch_normalization_15/FusedBatchNormV3 f4 [32]
0	0xbeb46436	-0.35232705
1	0xbf0bb99f	-0.5458011
2	0xbe4c2683	-0.19936566
3	0xbe4ceccf	-0.2001221
4	0xbf84b7ed	-1.036863
5	0xbe8d6797	-0.27618095
6	0xbf69779f	-0.9119815
7	0xbec57081	-0.38562396
8	0xbf3030d4	-0.68824506
9	0xbf23beb3	-0.6396286
10	0xbf140d63	-0.57832927
11	0xbf214385	-0.6299365
12	0xbdb350b8	-0.0875563
13	0xbe705333	-0.23469238
14	0xbe4e265d	-0.20131822
15	0xbe4a82bd	-0.19776435
16	0xbe1c0073	-0.15234546
17	0xbe496d04	-0.19670492
18	0xbe13d1f3	-0.14435558
19	0xbf50432b	-0.8135249
20	0xbfb8cad7	-1.4436902
21	0xbebad977	-0.36494038
22	0xbf84a654	-1.0363259
23	0xbd77869b	-0.060431104
24	0xbe06702a	-0.13128725
25	0xbe6e1d30	-0.23253322
26	0xbe0d31ed	-0.13788576
27	0xbe334ce8	-0.17509806
28	0xbe937ca2	-0.28806025
29	0xbf5214c7	-0.82062954
30	0xbd843a16	-0.064563915
31	0xbdb8ea3a	-0.0902905

sparse_resnet_denoiser/level_0/batch_normalization_15/FusedBatchNormV31 f4 [32]
0	0x401f751c	2.4915228
1	0x4082138f	4.0648875
2	0x4046027a	3.0939012
3	0x3f378f29	0.7170282
4	0x41539272	13.223253
5	0x3ff419a7	1.9070328
6	0x408acdca	4.3376207
7	0x40e70c56	7.220256
8	0x40cf700b	6.482427
9	0x409879ee	4.764884
10	0x4031da14	2.7789354
11	0x408bb410	4.3657303
12	0x40bb9684	5.8621235
13	0x4001d390	2.0285378
14	0x4074de3d	3.8260643
15	0x40b59bec	5.6752834
16	0x4076305e	3.846702
17	0x3fee287f	1.8606108
18	0x401471d7	2.3194482
19	0x411b5e83	9.710574
20	0x405698ac	3.3530684
21	0x4059fbc1	3.4059908
22	0x401c5ceb	2.4431713
23	0x3fd96824	1.6984906
24	0x402015dd	2.5013344
25	0x400618f3	2.0952728
26	0x4002de93	2.0448349
27	0x4011b3a4	2.2765894
28	0x40c6756d	6.201834
29	0x41731097	15.19155
30	0x400e08be	2.2192836
31	0x402543e4	2.5822687

sparse_resnet_denoiser/level_0/batch_normalization_16/FusedBatchNormV3 f4 [16]
0	0xbe3ae735	-0.18252261
1	0xbe2f7328	-0.17133772
2	0xbe9407e1	-0.2891226
3	0x38d62dde	0.000102128586
4	0xbdfc9759	-0.12333555
5	0xbdb3ec4e	-0.08785306
6	0xbe1f34c3	-0.15547471
7	0x38d1d116	0.00010004842
8	0xbdf8da58	-0.12151021
9	0xbdec905d	-0.115509726
10	0xbe413a57	-0.18869911
11	0xbdeaa12a	-0.11456521
12	0xbe590ad0	-0.21195531
13	0xbccd7104	-0.025078304
14	0xbe89b056	-0.26892346
15	0xbd8667db	-0.065627776

sparse_resnet_denoiser/level_0/batch_normalization_16/FusedBatchNormV31 f4 [16]
0	0x3e33d40d	0.1756136
1	0x3db578be	0.0886092
2	0x3e79598c	0.24350566
3	0xb91a91ab	-0.0001474085
4	0x3d962249	0.07330758
5	0x3dca08b4	0.09864941
6	0x3de2f668	0.110821545
7	0xb8ad1c54	-8.254559e-05
8	0x3df28457	0.11841648
9	0x3dbfd90b	0.093675695
10	0x3db175bb	0.086650334
11	0x3d9253fe	0.071449265
12	0x3e00ac1d	0.12565656
13	0x3ca7261f	0.02040392
14	0x3e44e009	0.19226088
15	0x3d3f4b41	0.046702627

sparse_resnet_denoiser/level_0/batch_normalization_2/FusedBatchNormV3 f4 [16]
0	0xbe2acc21	-0.16679431
1	0xbcee057d	-0.029055351
2	0xbde1094b	-0.109881006
3	0xbde81c12	-0.11333479
4	0x08976c17	9.113394e-34
5	0xbeacd3f4	-0.33755457
6	0xbd3b83cd	-0.045779992
7	0xbf11ecd4	-0.57001996
8	0xbe761835	-0.24032672
9	0xbd56077c	-0.05225323
10	0xbe1bc7a2	-0.15212873
11	0xbcfbe8fa	-0.03075074
12	0xbefdb7db	-0.49554333
13	0xbe03bfe3	-0.12866168
14	0xbd838f5a	-0.064238265
15	0xbee6553a	-0.44986898

sparse_resnet_denoiser/level_0/batch_normalization_2/FusedBatchNormV31 f4 [16]
0	0x3f7d50ad	0.98951226
1	0x4093daff	4.620483
2	0x3f8a7558	1.081706
3	0x417b71c0	15.715271
4	0xbddcdbd0	-0.107841134
5	0x40569708	3.3529682
6	0x3ff8ffb9	1.945304
7	0x40a6c7e6	5.2119017
8	0x40329a69	2.7906744
9	0x401d3624	2.4564295
10	0x3f32d8f5	0.698623
11	0x405669c9	3.3502066
12	0x400eaacc	2.2291746
13	0x405669e6	3.3502135
14	0x4121c042	10.109438
15	0x416009ad	14.002362

sparse_resnet_denoiser/level_0/batch_normalization_3/FusedBatchNormV3 f4 [32]
0	0xbe9eefab	-0.31042227
1	0xbeb9bb85	-0.3627588
2	0xbf88b74f	-1.0680941
3	0xbf23a6df	-0.639265
4	0xbf188519	-0.5957809
5	0xbe0e9e4a	-0.1392757
6	0xbef319e9	-0.47480705
7	0xbea37e88	-0.31932473
8	0xbe881f3b	-0.26586327
9	0xbf1cfa8b	-0.613198
10	0xa40f1ad8	-3.103092e-17
11	0xbf42a118	-0.7602706
12	0xbe37da0d	-0.17954274
13	0xbe70dcd8	-0.23521745
14	0xbfd84f02	-1.6899111
15	0xbe32e53e	-0.17470261
16	0xbea27491	-0.31729558
17	0xbe8dea5e	-0.2771787
18	0xbe955592	-0.29166847
19	0xbe8a0014	-0.26953185
20	0xbde8dc82	-0.113701835
21	0xbf3c8a0b	-0.73648137
22	0xbf0dd2db	-0.55399865
23	0xbee0e4d8	-0.43924594
24	0xbeb88f91	-0.36047032
25	0xbde350d3	-0.110994
26	0xbeab1e48	-0.3342154
27	0xbf912edb	-1.1342424
28	0xbe10649f	-0.14100884
29	0xbf00b6ca	-0.50278914
30	0xbe4002c4	-0.18751055
31	0xbea6a7f0	-0.3255

sparse_resnet_denoiser/level_0/batch_normalization_3/FusedBatchNormV31 f4 [32]
0	0x4020a7a5	2.5102322
1	0x40af8e6b	5.486135
2	0x3f9c07d8	1.2189894
3	0x3f71ec30	0.9450102
4	0x3f938258	1.1524153
5	0x3fae209a	1.3603699
6	0x3fa31b1c	1.2742648
7	0x400e290a	2.2212548
8	0x3fa9e3c8	1.3272638
9	0x3f53dda3	0.82760066
10	0x3de891e6	0.11355953
11	0x3fc1589e	1.5105169
12	0x40285a00	2.6304932
13	0x3faf0531	1.3673459
14	0x3f8a0913	1.0784019
15	0x3faf646c	1.3702521
16	0x3fbec5b2	1.4904082
17	0x40583be1	3.3786547
18	0x3fe0c415	1.755984
19	0x3ff69178	1.9263144
20	0x405dc1a3	3.4649436
21	0x4080092b	4.001119
22	0x3fd55d5d	1.6669117
23	0x3f973a9a	1.1814759
24	0x3fa41024	1.2817426
25	0x40460516	3.0940604
26	0x3f90c578	1.1310263
27	0x406c40e0	3.6914597
28	0x3f4a09d0	0.7892122
29	0x4007d000	2.1220703
30	0x402ad5e2	2.6693044
31	0x3fa9fa58	1.3279524

sparse_resnet_denoiser/level_0/batch_normalization_4/FusedBatchNormV3 f4 [16]
0	0xbea6185b	-0.32440457
1	0xbeb1ed79	-0.3475149
2	0xbed36301	-0.4128647
3	0xbe5fa4a4	-0.21840149
4	0xbe0d7f7e	-0.13818166
5	0xbe81c1be	-0.25343126
6	0xbf0f9abd	-0.56095487
7	0xbecc9e75	-0.39964643
8	0xbebba1d5	-0.36646906
9	0xbe78b280	-0.24286842
10	0xbf3dec43	-0.7418863
11	0xbf63e032	-0.8901397
12	0xbf64c5a5	-0.8936408
13	0xbe644c5a	-0.22294751
14	0xbefd209f	-0.4943895
15	0xbeb920ae	-0.36157745

sparse_resnet_denoiser/level_0/batch_normalization_4/FusedBatchNormV31 f4 [16]
0	0x3fe66afc	1.8001399
1	0x3f9a2910	1.2043781
2	0x408025ae	4.0045996
3	0x40821991	4.065621
4	0x3f71f64e	0.94516456
5	0x40a81716	5.252818
6	0x3f40811a	0.75196993
7	0x403f4cc6	2.9890609
8	0x403f6ab3	2.9908874
9	0x4015e966	2.3423705
10	0x3f25084c	0.64465785
11	0x3fb38847	1.4025964
12	0x3fac7653	1.347361
13	0x40807162	4.0138407
14	0x3f829ef4	1.0204759
15	0x40c83003	6.255861

sparse_resnet_denoiser/level_0/batch_normalization_5/FusedBatchNormV3 f4 [16]
0	0xbee3bf53	-0.44481906
1	0xbf40640e	-0.7515267
2	0xbf959291	-1.1685354
3	0xbf54b017	-0.8308119
4	0xbebfc8f8	-0.37458014
5	0xbf48af0b	-0.78392094
6	0xbf6b31ba	-0.9187275
7	0xbf30a4d0	-0.69001484
8	0xbf006971	-0.5016089
9	0xbed78220	-0.42091465
10	0xbf39f60b	-0.72641057
11	0xbf245439	-0.64191014
12	0xbf68d462	-0.9094907
13	0xbf04bbda	-0.5184914
14	0xbf1d63c5	-0.6148036
15	0xbea27c88	-0.31735635

sparse_resnet_denoiser/level_0/batch_normalization_5/FusedBatchNormV31 f4 [16]
0	0x416a1f1c	14.632595
1	0x402b9af2	2.681332
2	0x4124c8f9	10.299066
3	0x40612ef2	3.5184903
4	0x4040112d	3.0010483
5	0x40ac8a10	5.3918533
6	0x409ebbc9	4.960423
7	0x3fd784db	1.6837419
8	0x40b9b9bf	5.803924
9	0x401129f5	2.2681859
10	0x40ba82f8	5.8284874
11	0x401d294d	2.4556458
12	0x4062a9f1	3.5416224
13	0x406951ff	3.6456296
14	0x40214399	2.5197508
15	0x403eb8d4	2.980031

sparse_resnet_denoiser/level_0/batch_normalization_6/FusedBatchNormV3 f4 [32]
0	0xbf20f42b	-0.6287257
1	0xbed6d967	-0.4196274
2	0xbf828e89	-1.0199748
3	0xbf46eee5	-0.77708274
4	0xbf1abf33	-0.60447997
5	0xbf0163f2	-0.5054313
6	0xbf41f091	-0.757577
7	0xbf0f2475	-0.55915004
8	0xbef43c13	-0.47702083
9	0xbf1dc3d9	-0.61626965
10	0xbeabb1eb	-0.33534178
11	0xbec9ef3d	-0.39440337
12	0xbf2a9118	-0.66627645
13	0xbf284861	-0.6573544
14	0xbef66a90	-0.48128176
15	0xbeaf2ea1	-0.34215263
16	0xbeb147e9	-0.34625176
17	0xbecc2e0a	-0.39878875
18	0xbe9bfca1	-0.30466178
19	0xbf44e394	-0.76909757
20	0xbf20ffd8	-0.62890387
21	0xbed37872	-0.4130283
22	0xbf073484	-0.5281451
23	0xbf2b3970	-0.6688452
24	0xbf251a32	-0.64493096
25	0xbef792f1	-0.48354295
26	0xbedc67e8	-0.43048024
27	0xbf0b9695	-0.54526645
28	0xbec9ec65	-0.39438167
29	0xbede62ef	-0.43434855
30	0xbee35319	-0.44399336
31	0xbf074550	-0.5284014

sparse_resnet_denoiser/level_0/batch_normalization_6/FusedBatchNormV31 f4 [32]
0	0x40ab0bac	5.345175
1	0x408c8789	4.391545
2	0x408d8d5a	4.423505
3	0x3fcdec45	1.6087729
4	0x40217353	2.5226638
5	0x3f82f275	1.0230242
6	0x403b1e4b	2.923724
7	0x40e663f1	7.1997
8	0x4098b489	4.772038
9	0x40b2c338	5.5863304
10	0x4031080e	2.7661166
11	0x4086e852	4.2158594
12	0x40276c43	2.6159828
13	0x40495341	3.1457064
14	0x40fbcd6d	7.8688264
15	0x409a7e4f	4.8279185
16	0x405b7f1a	3.4296327
17	0x407eee0a	3.9832788
18	0x4069f3b4	3.6554995
19	0x408eeb6f	4.4662395
20	0x40b92a8f	5.786445
21	0x3fd04944	1.6272359
22	0x408f47c2	4.4775095
23	0x401ac752	2.4184155
24	0x3ffd2949	1.9778224
25	0x4041eb65	3.0299923
26	0x4084a77c	4.145445
27	0x4124f102	10.30884
28	0x3ff8d9f3	1.9441513
29	0x404fc42b	3.2463481
30	0x404e0681	3.219147
31	0x407f203f	3.9863431

sparse_resnet_denoiser/level_0/batch_normalization_7/FusedBatchNormV3 f4 [16]
0	0xbe9fa9ce	-0.31184238
1	0xbf4dbf78	-0.80370283
2	0xbeea37ad	-0.45745602
3	0xbf0df502	-0.5545198
4	0xbe91f579	-0.28507593
5	0xbebd2251	-0.36940244
6	0xbf046e4d	-0.51730806
7	0xbedca34c	-0.43093336
8	0xbf088048	-0.5332074
9	0xbf0a6f83	-0.54076403
10	0xbf2b5559	-0.66927105
11	0xbf2ad337	-0.6672854
12	0xbf19c53d	-0.60066587
13	0xbea67cdd	-0.32517138
14	0xbf1ee784	-0.62072015
15	0xbec4b282	-0.3841744

sparse_resnet_denoiser/level_0/batch_normalization_7/FusedBatchNormV31 f4 [16]
0	0x3f80e330	1.0069332
1	0x3fc1b079	1.513198
2	0x3fb26ab5	1.3938814
3	0x40667828	3.6010838
4	0x3f294cce	0.6613282
5	0x400d6b20	2.2096634
6	0x3f0f7878	0.56043196
7	0x3fbc8f43	1.473122
8	0x3fc5aa16	1.5442531
9	0x3fae4a27	1.361638
10	0x3efb9c21	0.49142554
11	0x3f2a09a2	0.6642095
12	0x3efddcc2	0.49582487
13	0x3f92e312	1.1475546
14	0x3f636ca3	0.8883764
15	0x4016b772	2.3549466

sparse_resnet_denoiser/level_0/batch_normalization_8/FusedBatchNormV3 f4 [16]
0	0xbea70c36	-0.32626504
1	0xbf0315a5	-0.512049
2	0xbf831338	-1.024024
3	0xbf1aaeec	-0.6042316
4	0xbf6e07c1	-0.9298058
5	0xbf33e2cd	-0.70267946
6	0xbee34b52	-0.44393402
7	0xbf6428d5	-0.89124805
8	0xbf5267d9	-0.8218971
9	0xbfa7a667	-1.3097657
10	0xbee623fd	-0.44949332
11	0xbedc0d54	-0.4297892
12	0xbf2e7852	-0.68152344
13	0xbecc593c	-0.3991183
14	0xbf1fdac7	-0.624432
15	0x86adb447	-6.534026e-35

sparse_resnet_denoiser/level_0/batch_normalization_8/FusedBatchNormV31 f4 [16]
0	0x40616ef9	3.5223982
1	0x40dba2b0	6.8636093
2	0x40f2eb99	7.5912595
3	0x4082b4ea	4.084584
4	0x408cb984	4.397646
5	0x40eab642	7.3347483
6	0x404862f3	3.1310394
7	0x40ee381f	7.4443507
8	0x40c98f32	6.29873
9	0x40db41fb	6.8518043
10	0x406a44b2	3.6604428
11	0x41036886	8.213018
12	0x40ef3b62	7.475999
13	0x4111ec3f	9.120177
14	0x4097ae7c	4.7400494
15	0x3b2c6268	0.0026303772

sparse_resnet_denoiser/level_0/batch_normalization_9/FusedBatchNormV3 f4 [32]
0	0xbee33504	-0.44376385
1	0xbf12a623	-0.57284755
2	0xbeda8348	-0.42678285
3	0xbf1463d4	-0.57964826
4	0xbef91e75	-0.4865605
5	0xbf31a0c9	-0.69385964
6	0xbf09b845	-0.537968
7	0xbf27cc3f	-0.6554603
8	0xbe563d32	-0.20921782
9	0xbf3e1cf8	-0.7426295
10	0xbf747084	-0.95484185
11	0xbf32c293	-0.69828147
12	0xbf49339f	-0.7859439
13	0xbf2d9938	-0.6781192
14	0xbede5aec	-0.43428743
15	0xbeec921c	-0.46205223
16	0xbf856582	-1.0421603
17	0xbf2b9bb8	-0.6703448
18	0xbea7f6ed	-0.32805577
19	0xbf09257d	-0.5357283
20	0xbf29f573	-0.6639015
21	0xbe5d6f13	-0.21624403
22	0xbf1f84ec	-0.623122
23	0xbeb6d421	-0.35708717
24	0xbef5c80b	-0.48004183
25	0xbf0bf7b0	-0.54674816
26	0xbf032b9a	-0.51238406
27	0xbf0b47c3	-0.54406375
28	0xbf2814b6	-0.656566
29	0xbf606b73	-0.87663954
30	0xbf29d132	-0.6633483
31	0xbf0b7123	-0.5446951

sparse_resnet_denoiser/level_0/batch_normalization_9/FusedBatchNormV31 f4 [32]
0	0x40174fac	2.3642378
1	0x400aa9cc	2.1666136
2	0x40a40f2d	5.1268525
3	0x4050619c	3.2559576
4	0x40809514	4.018198
5	0x4106a266	8.414648
6	0x40ec6227	7.3869815
7	0x4024c985	2.5747998
8	0x4038635a	2.881064
9	0x4121b333	10.10625
10	0x411a8b80	9.659058
11	0x40dec41f	6.9614406
12	0x4074e637	3.8265512
13	0x409d2b45	4.911532
14	0x401bdc7b	2.435332
15	0x409b2099	4.847729
16	0x40e7725f	7.2327113
17	0x40b5a226	5.6760435
18	0x3ffe4b34	1.98667
19	0x4011f9f3	2.2808807
20	0x40dd157d	6.908873
21	0x402a9f49	2.665972
22	0x40248f6e	2.5712543
23	0x4014b836	2.3237433
24	0x40ade976	5.4347486
25	0x40f3679f	7.606399
26	0x403b0b58	2.9225674
27	0x407a473d	3.910598
28	0x40b6f0d0	5.716896
29	0x411691c2	9.410585
30	0x40d2c92b	6.5870566
31	0x405f12a4	3.4855127

sparse_resnet_denoiser/level_1/batch_normalization_18/FusedBatchNormV3 f4 [16]
0	0x31d8c853	6.3092016e-09
1	0x31a86d3a	4.901861e-09
2	0x340c479d	1.3064569e-07
3	0xb118d6c6	-2.2240996e-09
4	0x38bc5a4f	8.98136e-05
5	0xb9f6283d	-0.00046950756
6	0xbb5c454e	-0.0033610645
7	0x39239685	0.00015600964
8	0xb9a3c5ee	-0.00031237252
9	0x38b63801	8.688868e-05
10	0xbb415c32	-0.0029504416
11	0x3a191c2b	0.0005840684
12	0xb18f563c	-4.1716515e-09
13	0x35f72d49	1.8416114e-06
14	0x3ab9094d	0.0014117152
15	0x3a8e08ca	0.001083636

sparse_resnet_denoiser/level_1/batch_normalization_18/FusedBatchNormV31 f4 [16]
0	0x3ef00677	0.46879932
1	0x3ebd3b11	0.36959127
2	0x411d5efb	9.835689
3	0xbe2a14e2	-0.16609529
4	0x442dfbfa	695.93713
5	0x3d55025e	0.05200421
6	0x400b3f88	2.1757526
7	0x43239160	163.56787
8	0x42f09985	120.29984
9	0x443975c7	741.8403
10	0x431067f9	144.40614
11	0x40b34736	5.6024427
12	0xbe9f4c25	-0.3111278
13	0x43294253	169.25908
14	0x3e210318	0.15723836
15	0x3dca82f1	0.09888256

sparse_resnet_denoiser/level_1/batch_normalization_19/FusedBatchNormV3 f4 [16]
0	0x00000000	0.0
1	0xbeb69a92	-0.35664803
2	0xbd90cb3b	-0.07070013
3	0x00000000	0.0
4	0x00000000	0.0
5	0x0729d4e1	1.2776706e-34
6	0xbe8f4f35	-0.27990118
7	0xbeac6afa	-0.33675367
8	0xbe9514a3	-0.29117307
9	0xbe9f1256	-0.31068677
10	0x85297b6c	-7.969011e-36
11	0xbd7547b9	-0.059882853
12	0x00000000	0.0
13	0x00000000	0.0
14	0xbd3c46b9	-0.045965884
15	0xbdca91fc	-0.098911256

sparse_resnet_denoiser/level_1/batch_normalization_19/FusedBatchNormV31 f4 [16]
0	0x3e44fd67	0.1923729
1	0x42cdbaaa	102.86458
2	0x42c1c5c8	96.88629
3	0x3dec068d	0.11524687
4	0xbd479780	-0.048728466
5	0xbe7dfc48	-0.24803269
6	0x427244de	60.567253
7	0x433498e1	180.59718
8	0x43369cbc	182.61224
9	0x42e657d1	115.17152
10	0x3c3f9c7c	0.011695024
11	0x424fd9db	51.96275
12	0xbfe47fa4	-1.7851453
13	0x3d12c682	0.035833843
14	0x413b5877	11.709098
15	0x4202d9f7	32.712856

sparse_resnet_denoiser/level_1/batch_normalization_20/FusedBatchNormV3 f4 [32]
0	0xbed1731c	-0.40908134
1	0xbdb23b0e	-0.0870267
2	0xbe4a26fe	-0.19741437
3	0xbdd43d91	-0.10363305
4	0xab7791ac	-8.795419e-13
5	0xbdfc9769	-0.12333567
6	0xbf6965a1	-0.911707
7	0xbf77aecd	-0.967511
8	0xbdfb7858	-0.12278813
9	0xbf7655b8	-0.96224546
10	0x89ab242d	-4.1200772e-33
11	0xbf3f9aa9	-0.7484537
12	0xbdd8d1c5	-0.10586885
13	0xbf312814	-0.6920178
14	0xbf476366	-0.77886045
15	0xbe08e6a2	-0.1336923
16	0xbdd826e7	-0.10554295
17	0xbe6d89f8	-0.23197162
18	0xbdf09fd6	-0.11749236
19	0xbe021636	-0.12703785
20	0xbf65b25c	-0.8972528
21	0xbf5f6a3e	-0.8727149
22	0xbf5ddef2	-0.8666831
23	0xbe340d61	-0.17583229
24	0xbdcb71a3	-0.09933784
25	0xbe0e7281	-0.13910867
26	0xbf477213	-0.7790844
27	0xbf2bcd7d	-0.67110425
28	0xbe3b1400	-0.18269348
29	0xbf584076	-0.8447336
30	0xbf523bd4	-0.8212254
31	0xbd8003a3	-0.06250694

sparse_resnet_denoiser/level_1/batch_normalization_20/FusedBatchNormV31 f4 [32]
0	0x414117d8	12.068321
1	0x408df5b9	4.4362454
2	0x40595edf	3.3964155
3	0x4057c602	3.3714604
4	0x3cf5b4e7	0.029993488
5	0x40b3061b	5.5944953
6	0x3fecbce9	1.8495151
7	0x4026eb49	2.6081107
8	0x40d0efec	6.5292873
9	0x40aa07d3	5.313455
10	0x3d765d1b	0.060147386
11	0x4121fbe1	10.123994
12	0x40b7ab4d	5.7396607
13	0x415ef1f4	13.934071
14	0x40966abb	4.7005286
15	0x40a4e03b	5.152372
16	0x40c7fa30	6.2492905
17	0x40b042be	5.5081472
18	0x406d6664	3.7093744
19	0x410515eb	8.317851
20	0x40b2b39a	5.584424
21	0x3ff00dd1	1.8754216
22	0x40b4f2b0	5.654625
23	0x4064e90a	3.5767236
24	0x4085adc9	4.177464
25	0x411c0378	9.750847
26	0x408ca5e2	4.3952494
27	0x40748bc9	3.8210318
28	0x40ac45c1	5.383515
29	0x40aa717f	5.3263545
30	0x408c9362	4.392991
31	0x40945b4e	4.6361456

sparse_resnet_denoiser/level_1/batch_normalization_21/FusedBatchNormV3 f4 [16]
0	0xbed271a0	-0.41102314
1	0xbf054b3f	-0.5206794
2	0xbf25a8c8	-0.64710665
3	0xbf2202fa	-0.6328579
4	0xbf7761cb	-0.96633595
5	0xbf0deef9	-0.5544277
6	0xbf0b3084	-0.54370904
7	0xbf153821	-0.5828877
8	0xbf0d6e5d	-0.55246526
9	0xbf441e1b	-0.7660844
10	0xbf54fbda	-0.83196795
11	0xbf330516	-0.69929636
12	0xbf8a73f2	-1.0816634
13	0xbe9fa3a4	-0.31179535
14	0xbf54f03b	-0.8317906
15	0xbfbd8f60	-1.480938

sparse_resnet_denoiser/level_1/batch_normalization_21/FusedBatchNormV31 f4 [16]
0	0x42266391	41.597233
1	0x424ace46	50.70144
2	0x420165cb	32.349407
3	0x41bb6ae6	23.427197
4	0x415ca22b	13.789592
5	0x3fb45e37	1.4091252
6	0x4174b155	15.293294
7	0x428e1a5f	71.051506
8	0x422e7bfe	43.621086
9	0x41d26833	26.300879
10	0x4132dedc	11.179409
11	0x41781382	15.504763
12	0x422d430b	43.31547
13	0x40264b2a	2.5983377
14	0x3ffafeef	1.960905
15	0x3fa6b08f	1.3022631

sparse_resnet_denoiser/level_1/batch_normalization_22/FusedBatchNormV3 f4 [16]
0	0xbf2d9f91	-0.67821604
1	0xbf6b80b9	-0.9199329
2	0xbf3de3dc	-0.7417581
3	0xbf057ce7	-0.5214371
4	0xbf18ab86	-0.59636724
5	0xbf57e5e4	-0.8433516
6	0xbeaee711	-0.34160665
7	0xbe9e3216	-0.30897588
8	0xbf0bd0ce	-0.54615486
9	0xbeefa4d8	-0.46805453
10	0xbf3c98b6	-0.7367052
11	0xbf388e35	-0.7209199
12	0xbf5578ce	-0.8338746
13	0xbef23981	-0.47309497
14	0xbefbc0bc	-0.49170482
15	0xbf19882d	-0.5997341

sparse_resnet_denoiser/level_1/batch_normalization_22/FusedBatchNormV31 f4 [16]
0	0x41d3296f	26.395231
1	0x4102582b	8.146525
2	0x4112b55d	9.169278
3	0x4167bd8a	14.483774
4	0x41870ba2	16.88068
5	0x4139fe34	11.624561
6	0x411fcf4c	9.98811
7	0x40e24172	7.070489
8	0x4184bab8	16.591171
9	0x41850ee3	16.632269
10	0x412b0e3d	10.690976
11	0x41156ecc	9.33955
12	0x40f87278	7.763973
13	0x41935675	18.417215
14	0x40cf1a1a	6.471936
15	0x411d5cb5	9.835134

sparse_resnet_denoiser/level_1/batch_normalization_23/FusedBatchNormV3 f4 [32]
0	0xbf1c158f	-0.60970396
1	0xbf1fc93c	-0.62416434
2	0xbf3c81ce	-0.73635566
3	0xaef628c2	-1.1194025e-10
4	0xbee9376d	-0.455501
5	0xbf1cca34	-0.6124604
6	0xbf0663d6	-0.5249609
7	0xbf0f2a11	-0.55923563
8	0xaf203009	-1.4568981e-10
9	0xbefd59cf	-0.4948258
10	0xbed4038f	-0.41408965
11	0xbf137c3e	-0.57611454
12	0xbf37dc67	-0.7182068
13	0xbf17b1fb	-0.5925595
14	0xbf39e06e	-0.7260808
15	0xbf88dc3d	-1.0692211
16	0xbf37d147	-0.71803707
17	0xbedd533d	-0.43227568
18	0xbf012e26	-0.5046104
19	0xbf4674a1	-0.7752171
20	0xbf445702	-0.76695263
21	0xbf02210e	-0.5083169
22	0xbf261d34	-0.6488831
23	0xbecc520d	-0.3990635
24	0xbf16cd04	-0.5890658
25	0xbf124578	-0.5713725
26	0xbeecc779	-0.46245936
27	0xbf7190ee	-0.9436177
28	0xbe922063	-0.28540334
29	0xbed75033	-0.42053375
30	0xbf8aef24	-1.085423
31	0xbf114cd3	-0.5675785

sparse_resnet_denoiser/level_1/batch_normalization_23/FusedBatchNormV31 f4 [32]
0	0x40eb9b51	7.3627095
1	0x41328364	11.157078
2	0x4183af49	16.460588
3	0x3fbbe2dc	1.4678607
4	0x4113f42c	9.247112
5	0x4115240d	9.321301
6	0x4126950b	10.411387
7	0x411fb0c6	9.980658
8	0x3ff2e49c	1.8976016
9	0x41238ab1	10.22136
10	0x41195585	9.583379
11	0x41197a54	9.592365
12	0x41019631	8.099168
13	0x412b07b6	10.689383
14	0x415b3cdd	13.702359
15	0x409d8d0f	4.923469
16	0x405885fb	3.3831775
17	0x4120c464	10.047947
18	0x410256c7	8.146186
19	0x41453839	12.326226
20	0x411bb033	9.730517
21	0x41185db2	9.522875
22	0x410c7bbf	8.780211
23	0x40ba4ba9	5.821736
24	0x40b09fa7	5.519489
25	0x41017e74	8.093372
26	0x410835bc	8.513119
27	0x4093f5d1	4.623757
28	0x4039c82e	2.902843
29	0x403280a8	2.7891026
30	0x4047f9ce	3.1246219
31	0x41404d70	12.018906

sparse_resnet_denoiser/level_1/batch_normalization_24/FusedBatchNormV3 f4 [16]
0	0xbf35db98	-0.710382
1	0xbf13be8f	-0.57712644
2	0xbf5002dd	-0.8125437
3	0xbf58b3dc	-0.84649444
4	0xbf7d4a0d	-0.9894112
5	0xbf0e8078	-0.5566478
6	0xbf8805bf	-1.0626754
7	0xbf1b5d07	-0.60688823
8	0xbf188873	-0.59583205
9	0xbe730d52	-0.2373555
10	0xbf4f5ee4	-0.81004167
11	0xbfae0a4f	-1.3596896
12	0xbf64a240	-0.89310074
13	0xbed0dc8f	-0.40793273
14	0xbf2fc1df	-0.686552
15	0xbf52f350	-0.82402515

sparse_resnet_denoiser/level_1/batch_normalization_24/FusedBatchNormV31 f4 [16]
0	0x415e9213	13.910663
1	0x4144aa87	12.291633
2	0x414bb58f	12.731826
3	0x4132d89f	11.177886
4	0x40831629	4.096455
5	0x3f415fa4	0.7553656
6	0x40756a56	3.8346152
7	0x41861afa	16.763172
8	0x41730354	15.188313
9	0x402eeb28	2.7331028
10	0x401994b4	2.399701
11	0x411f061e	9.938993
12	0x412ba9de	10.7289715
13	0x40002e3d	2.0028222
14	0x3fad030c	1.3516555
15	0x3f341a9a	0.7035309

sparse_resnet_denoiser/level_1/batch_normalization_25/FusedBatchNormV3 f4 [16]
0	0xbf25ee27	-0.64816517
1	0xbf11b237	-0.5691256
2	0xbf39a708	-0.72520494
3	0x2e0b9a52	3.1742005e-11
4	0xbf0fb689	-0.561379
5	0xbf05affc	-0.52221656
6	0xbf2675c6	-0.6502346
7	0xbf5740bc	-0.8408315
8	0xbf2a5058	-0.66528845
9	0xbeba1886	-0.36346835
10	0xb9a841a8	-0.00032092375
11	0xbf276e5f	-0.6540279
12	0xbf3cf8e6	-0.7381729
13	0xbf4b0776	-0.7930826
14	0xbe81041b	-0.25198445
15	0xbf0eb2ab	-0.55741376

sparse_resnet_denoiser/level_1/batch_normalization_25/FusedBatchNormV31 f4 [16]
0	0x40d0bf25	6.523333
1	0x4198bc5d	19.091974
2	0x40d83504	6.7564716
3	0xbfd71d53	-1.6805824
4	0x41bac729	23.347246
5	0x419845cc	19.03408
6	0x40bd161d	5.9089494
7	0x40c18730	6.0477524
8	0x408a7b5e	4.3275595
9	0x41414270	12.07872
10	0x401708d0	2.3599129
11	0x4103a2bd	8.227231
12	0x411978e7	9.592017
13	0x41276c19	10.463891
14	0x412268ea	10.150614
15	0x4137e250	11.492752

sparse_resnet_denoiser/level_1/batch_normalization_26/FusedBatchNormV3 f4 [32]
0	0xbf5214c1	-0.8206292
1	0xbf89390c	-1.0720534
2	0xaf23a17f	-1.4882139e-10
3	0xbf2856c7	-0.6575741
4	0xbf28a518	-0.65876913
5	0xbf879975	-1.0593706
6	0xbf454ba3	-0.7706854
7	0xbf732f3e	-0.9499396
8	0xbf063db8	-0.52437925
9	0xaf241096	-1.4921606e-10
10	0xbf6b84b6	-0.91999376
11	0xbf3c0b8a	-0.7345511
12	0xbf854449	-1.0411464
13	0xbf420695	-0.75791293
14	0x3a96fb68	0.0011519017
15	0xbf595ff0	-0.84912014
16	0xbf456f24	-0.7712271
17	0xaf3470b3	-1.6410943e-10
18	0xaf2c5891	-1.5674774e-10
19	0xbf8075ef	-1.003599
20	0xbf4809fc	-0.78140235
21	0xbf8253c9	-1.0181819
22	0xbf2d848c	-0.67780375
23	0xbf4fcb56	-0.8116964
24	0xbf0ffb68	-0.5624299
25	0xbf497a47	-0.78702205
26	0xbf5831ed	-0.8445118
27	0xbf51d1d6	-0.8196081
28	0xbf6e7bd9	-0.93157727
29	0xbf3c2574	-0.7349465
30	0xbf36d764	-0.7142241
31	0xbfacabcb	-1.3489927

sparse_resnet_denoiser/level_1/batch_normalization_26/FusedBatchNormV31 f4 [32]
0	0x417ec31c	15.922634
1	0x414af690	12.685196
2	0x40084475	2.1291783
3	0x41820c98	16.25615
4	0x411f2a40	9.947815
5	0x40c176e1	6.0457616
6	0x41689ef5	14.538808
7	0x4161ce9e	14.112944
8	0x40edd038	7.4316673
9	0x4008751d	2.132148
10	0x41582c49	13.510812
11	0x413cbc49	11.795968
12	0x41699258	14.598228
13	0x4187f4b6	16.994488
14	0xc01a46cd	-2.4105713
15	0x419bfb01	19.49756
16	0x4139ce49	11.612863
17	0x40110744	2.2660685
18	0x400dd0fd	2.2158806
19	0x41834b5f	16.411802
20	0x412eb0d1	10.918168
21	0x416f6539	14.962213
22	0x409c34d7	4.88145
23	0x413eed82	11.932985
24	0x41542130	13.258102
25	0x410c289a	8.7599125
26	0x4134ced3	11.300494
27	0x41581d5e	13.50717
28	0x41542984	13.260136
29	0x414cea3e	12.807188
30	0x41251b13	10.31911
31	0x41d2e161	26.360048

sparse_resnet_denoiser/level_1/batch_normalization_27/FusedBatchNormV3 f4 [16]
0	0xbf4673b8	-0.7752032
1	0xbf4f8f04	-0.810776
2	0xbf2f8741	-0.68565756
3	0xbf486a7d	-0.7828749
4	0xbf4d0c46	-0.8009685
5	0xbf1c5147	-0.6106152
6	0xbf844266	-1.0332763
7	0xbef5ff82	-0.480465
8	0xbf04450c	-0.5166786
9	0xbec67d29	-0.38767365
10	0xbf4b54d6	-0.79426324
11	0xbf3d0819	-0.7384048
12	0xbf2c1f44	-0.6723521
13	0xbe567026	-0.20941219
14	0xbf896aa9	-1.0735675
15	0xbf1deadc	-0.6168649

sparse_resnet_denoiser/level_1/batch_normalization_27/FusedBatchNormV31 f4 [16]
0	0x4029b5bf	2.651718
1	0x404adee3	3.169854
2	0x404ea007	3.2285173
3	0x40661ff6	3.5957007
4	0x3fae526e	1.3618906
5	0x3ef97b46	0.48726863
6	0x3ff8fdb8	1.9452429
7	0x404f2c8a	3.2370934
8	0x408279c1	4.0773625
9	0x4044ba02	3.073853
10	0x3fcdfecd	1.6093384
11	0x4054e74e	3.3266177
12	0x4048e3e8	3.1389103
13	0x3e9f99f3	0.3117214
14	0x3fdbe12c	1.7178092
15	0x3ef700ad	0.48242703

sparse_resnet_denoiser/level_1/batch_normalization_28/FusedBatchNormV3 f4 [16]
0	0xbf09b863	-0.53796977
1	0xbed04aef	-0.4068217
2	0xad8fab53	-1.6333301e-11
3	0xbf265bf3	-0.64984053
4	0xbe2f2dda	-0.17107335
5	0xbf48b4d1	-0.78400904
6	0xbf09f243	-0.5388529
7	0xbf17da32	-0.59317315
8	0xbec2d8bb	-0.38055977
9	0xbf2067ad	-0.62658197
10	0xbf0c3514	-0.5476849
11	0xbf45e380	-0.7730026
12	0xbf56fdbb	-0.8398091
13	0xbed353e1	-0.41274932
14	0xbece6234	-0.40309298
15	0xbf169775	-0.58824855

sparse_resnet_denoiser/level_1/batch_normalization_28/FusedBatchNormV31 f4 [16]
0	0x4131ba46	11.107977
1	0x41347af1	11.280015
2	0x3f860ccf	1.0472659
3	0x410e0ee3	8.878634
4	0x41171abd	9.444028
5	0x40da3f13	6.8201995
6	0x40fd63c9	7.918431
7	0x40e6dd7d	7.214537
8	0x4102345a	8.137781
9	0x40da3c84	6.819887
10	0x4170fefd	15.062253
11	0x40b122fd	5.535521
12	0x4089f1e2	4.3107767
13	0x4142a88a	12.166147
14	0x418cdc7f	17.607664
15	0x417a1fd7	15.632773

sparse_resnet_denoiser/level_1/batch_normalization_29/FusedBatchNormV3 f4 [32]
0	0xbf3b01ea	-0.73049796
1	0xbe9b2fb3	-0.3030983
2	0xbacc4fd0	-0.0015587751
3	0xbf14f4f4	-0.5818627
4	0xbfb654c9	-1.4244624
5	0xbee500dd	-0.4472722
6	0xbf6473fb	-0.8923947
7	0xaf5ed33b	-2.0265827e-10
8	0xbf64fc36	-0.89447343
9	0xbf447e28	-0.76755
10	0xbf8731ee	-1.0562112
11	0xbf28170a	-0.65660155
12	0xbf7deb7c	-0.99187446
13	0xbf98f99a	-1.1951172
14	0xbf7e47c7	-0.99328274
15	0x2f65b0dd	2.0890263e-10
16	0xbf796e5d	-0.97434026
17	0xbf87ca2d	-1.0608574
18	0xaf71e369	-2.1999615e-10
19	0x3ab15a9b	0.0013531031
20	0xbdea26f2	-0.114332095
21	0xbf07c1c1	-0.5303002
22	0xaf54a71c	-1.9340657e-10
23	0xbf06ccfe	-0.52656543
24	0xbedc01b5	-0.42970052
25	0xbf12e00a	-0.57373106
26	0xaf673274	-2.1027252e-10
27	0xbf0920e5	-0.5356582
28	0xbe2a6f93	-0.16644125
29	0xbf96035d	-1.1719776
30	0xbf07a67c	-0.5298841
31	0xbfad089b	-1.3518251

sparse_resnet_denoiser/level_1/batch_normalization_29/FusedBatchNormV31 f4 [32]
0	0x410865bf	8.52484
1	0x40ff91b6	7.986537
2	0x406eea54	3.7330523
3	0x40fda5ee	7.926505
4	0x4173cd93	15.237689
5	0x40cccdd9	6.400128
6	0x414e5b68	12.897316
7	0x404cd12c	3.2002668
8	0x40d8c361	6.77385
9	0x415b995e	13.724943
10	0x410e2a1d	8.885282
11	0x406c1932	3.6890378
12	0x4135e0b9	11.367364
13	0x4144a8f8	12.291252
14	0x419c8103	19.562994
15	0xc051162c	-3.2669783
16	0x41b47c16	22.560589
17	0x411314e7	9.192603
18	0x4056e494	3.3577013
19	0xc055dd0b	-3.3416164
20	0x4181498e	16.160915
21	0x4101d812	8.115252
22	0x4042c386	3.0431838
23	0x406f88d7	3.742727
24	0x40e45edc	7.1365795
25	0x418ea8a7	17.83235
26	0x40517d76	3.2732825
27	0x4122f8e3	10.185763
28	0x411a8c36	9.659231
29	0x41275ce4	10.460178
30	0x4112978b	9.161998
31	0x40ffbae6	7.9915648

sparse_resnet_denoiser/level_1/batch_normalization_30/FusedBatchNormV3 f4 [16]
0	0xbf03ca42	-0.51480496
1	0xbe95cfaf	-0.29260013
2	0xbe877ccc	-0.264624
3	0xbeeb7d78	-0.45994163
4	0xbf39371e	-0.7234973
5	0xbea1cd0c	-0.3160175
6	0xbfa9affe	-1.3256834
7	0xbeda6e6e	-0.42662376
8	0xbed96aac	-0.42464197
9	0xbe5272ed	-0.20551653
10	0xbf0f4210	-0.5596018
11	0xbed977f5	-0.42474332
12	0xbf1581c7	-0.5840115
13	0xbe4ed4da	-0.20198384
14	0xbf1d5cd2	-0.6146976
15	0xbf0f4b1f	-0.55974

sparse_resnet_denoiser/level_1/batch_normalization_30/FusedBatchNormV31 f4 [16]
0	0x3f5db4f5	0.86604244
1	0x3f0696f8	0.5257411
2	0x3f33e281	0.7026749
3	0x3f9b7fd0	1.214838
4	0x3f06b12b	0.52614087
5	0x3e51dfaf	0.20495485
6	0x3f5dd035	0.86645824
7	0x3f771d27	0.9652886
8	0x3f51085e	0.8165339
9	0x3f88d56c	1.0690131
10	0x3ed70e15	0.4200293
11	0x3f8a60f9	1.0810844
12	0x3f9ffaad	1.2498375
13	0x3e60829b	0.21924822
14	0x3f3fd199	0.74929196
15	0x3ece89ad	0.40339413

sparse_resnet_denoiser/level_1/batch_normalization_31/FusedBatchNormV3 f4 [16]
0	0x233323db	9.711202e-18
1	0xada547ed	-1.879027e-11
2	0xbf7a74b2	-0.9783431
3	0xbf03c87e	-0.514778
4	0xbf18e64c	-0.59726405
5	0xbf1a7c23	-0.6034567
6	0xad17d33a	-8.630258e-12
7	0xbf4b199d	-0.7933596
8	0xbf9f59b3	-1.2449249
9	0xbfb0d34d	-1.3814484
10	0xbf0c3e4c	-0.5478256
11	0xbf1f9ec4	-0.6235163
12	0xbf0d7cd8	-0.5526862
13	0xbef1c919	-0.47223738
14	0xbec3a9f3	-0.38215598
15	0xbe9b0df2	-0.30284077

sparse_resnet_denoiser/level_1/batch_normalization_31/FusedBatchNormV31 f4 [16]
0	0xbe0e2be0	-0.13883924
1	0x3fb2d487	1.3971108
2	0x40d50ced	6.657828
3	0x415d5ebc	13.8356285
4	0x410ea7ec	8.915997
5	0x411f627e	9.961546
6	0x3f3cabb9	0.7369953
7	0x40da1659	6.815228
8	0x40df8df7	6.9860797
9	0x41261651	10.380448
10	0x418f6a20	17.926819
11	0x40d68c32	6.7046137
12	0x40f03184	7.5060444
13	0x41886f9c	17.054497
14	0x41064032	8.390673
15	0x4180eb9f	16.11505

sparse_resnet_denoiser/level_1/batch_normalization_32/FusedBatchNormV3 f4 [32]
0	0xaebf5566	-8.700844e-11
1	0xbf2c27c8	-0.672482
2	0xbef8cae0	-0.4859228
3	0xbf29673a	-0.66173136
4	0xbf35bd6a	-0.7099215
5	0xbee82bd4	-0.45345938
6	0x2ef8e733	1.13188035e-10
7	0xbf438135	-0.7636903
8	0xbf2cb038	-0.6745639
9	0x2f0e7d5c	1.2959361e-10
10	0xaf06220b	-1.2199323e-10
11	0xbf0e52f9	-0.55595356
12	0xbf521190	-0.8205805
13	0xbf098f91	-0.5373469
14	0xbf42ef40	-0.76146317
15	0xbf68de86	-0.90964544
16	0xbf04927f	-0.51786035
17	0x3a69fe9f	0.0008926186
18	0x2ebd7674	8.6157664e-11
19	0xaf07cfa1	-1.2351943e-10
20	0x2efeb53c	1.15827764e-10
21	0xbf3e93c7	-0.7444424
22	0xbef15329	-0.4713376
23	0xbf25574f	-0.6458635
24	0x2f08e59a	1.2450699e-10
25	0xba61f536	-0.0008619608
26	0xbe9fc4a3	-0.3120471
27	0xaf08c9a8	-1.244077e-10
28	0xbedc69d4	-0.4304949
29	0xaeecf219	-1.0775043e-10
30	0xbf4bbf03	-0.79588336
31	0xbf10cac0	-0.5655937

sparse_resnet_denoiser/level_1/batch_normalization_32/FusedBatchNormV31 f4 [32]
0	0x3f9b2127	1.2119492
1	0x4075a221	3.8380206
2	0x3fdf9ab8	1.7469091
3	0x408f1134	4.47085
4	0x40811d9f	4.034866
5	0x40c60e1c	6.1892223
6	0xbfcaf773	-1.5856766
7	0x407fe3dd	3.9982827
8	0x4091c3ad	4.555136
9	0xbfe14314	-1.7598596
10	0x3fdad25f	1.709545
11	0x4065cbec	3.5905714
12	0x40d65769	6.69817
13	0x410c0a1f	8.752471
14	0x3fd32d90	1.649828
15	0x40464a45	3.098283
16	0x4021240e	2.5178256
17	0xbfee25f4	-1.8605332
18	0xbf9b2506	-1.2120674
19	0x3fd810ef	1.6880168
20	0xbfcdbc8c	-1.6073165
21	0x40988e94	4.7674046
22	0x408b1f6c	4.3475857
23	0x40409701	3.0092165
24	0xbfd70717	-1.6799039
25	0x3feb8572	1.8400099
26	0x40d031e0	6.5060883
27	0x3fddc3d7	1.732539
28	0x40b79b59	5.7377133
29	0x3fc54f84	1.5414891
30	0x417a7bf8	15.655266
31	0x40789e12	3.8846478

sparse_resnet_denoiser/level_1/batch_normalization_33/FusedBatchNormV3 f4 [16]
0	0xb7972cc1	-1.8021443e-05
1	0xb9b32a69	-0.0003417314
2	0x36a519d4	4.92039e-06
3	0xb83808d6	-4.3877248e-05
4	0xbe9544ff	-0.29154202
5	0xbe0b2ed2	-0.1359208
6	0xbf279245	-0.65457565
7	0x388f1bc2	6.823942e-05
8	0x38e1e8db	0.00010772209
9	0xbdb1d356	-0.08682887
10	0xbed855e2	-0.42253023
11	0xba8f497a	-0.0010931932
12	0xbe54eca6	-0.20793399
13	0xbda93ded	-0.082637645
14	0xbea3e89e	-0.3201341
15	0xb805f476	-3.1937343e-05

sparse_resnet_denoiser/level_1/batch_normalization_33/FusedBatchNormV31 f4 [16]
0	0x37fe513b	3.0316985e-05
1	0x3a20f62a	0.0006140197
2	0xb75b33ba	-1.3065461e-05
3	0x38f30b45	0.00011589242
4	0x3e13f3bb	0.14448445
5	0x3d90d3a1	0.07071615
6	0x3e96dd67	0.29465792
7	0xb921e673	-0.00015440006
8	0xb95932b6	-0.00020713624
9	0x3e6d473b	0.23171704
10	0x3e55f7c8	0.20895302
11	0x3b365a0b	0.0027824666
12	0x3e96f9c9	0.29487446
13	0x3d95de16	0.0731775
14	0x3ea167e9	0.3152459
15	0x37c113de	2.3016644e-05

sparse_resnet_denoiser/level_2/batch_normalization_35/FusedBatchNormV3 f4 [16]
0	0xb9fc90d3	-0.00048173088
1	0x3023115e	5.9323735e-10
2	0x38f73789	0.00011788222
3	0xaf9b6bfb	-2.827106e-10
4	0x302e4961	6.340511e-10
5	0xbae0fcea	-0.0017165218
6	0x38e5bc15	0.00010954604
7	0xbaa52456	-0.001259933
8	0xaf88f8ae	-2.4914953e-10
9	0xb83e3e4d	-4.5357552e-05
10	0x3915c9ce	0.00014284925
11	0xb0012623	-4.698412e-10
12	0x38471607	4.746581e-05
13	0xba55ede7	-0.00081607554
14	0x3708bd98	8.150375e-06
15	0xb8b62044	-8.684446e-05

sparse_resnet_denoiser/level_2/batch_normalization_35/FusedBatchNormV31 f4 [16]
0	0x3cfb7b0f	0.030698327
1	0x3d9057f0	0.07048023
2	0x43517da1	209.49074
3	0xbd099198	-0.033586115
4	0x3d9a4969	0.07533533
5	0x3f6d44d4	0.9268315
6	0x4392c37c	293.52722
7	0x42b9c8b0	92.89197
8	0xbcf27c60	-0.029600322
9	0x43bddd28	379.72778
10	0x4395f586	299.91815
11	0xbd64a755	-0.055823643
12	0x43bf105d	382.12784
13	0x414fe671	12.99376
14	0x437733da	247.20255
15	0x43b6e2fc	365.77332

sparse_resnet_denoiser/level_2/batch_normalization_36/FusedBatchNormV3 f4 [16]
0	0x00000000	0.0
1	0xbd0742a1	-0.033022527
2	0x00000000	0.0
3	0x00000000	0.0
4	0xbdd90bf1	-0.10597981
5	0xbdd35d09	-0.103204794
6	0x00000000	0.0
7	0x00000000	0.0
8	0xbd0b0b56	-0.033946358
9	0x872a18dd	-1.2796685e-34
10	0x00000000	0.0
11	0xa3809132	-1.393928e-17
12	0x00000000	0.0
13	0xbe051bd9	-0.12998904
14	0xbe65bfd5	-0.2243646
15	0x00000000	0.0

sparse_resnet_denoiser/level_2/batch_normalization_36/FusedBatchNormV31 f4 [16]
0	0x3e1503b4	0.14552194
1	0x42bc1992	94.04994
2	0x3f145c0b	0.57952946
3	0x3d760ca0	0.060070634
4	0x4311c0d2	145.7532
5	0x42b2df4e	89.43614
6	0xbda19c3b	-0.07891127
7	0xbe82ef99	-0.25573424
8	0x42ed9460	118.789795
9	0x3f47c7c8	0.78039217
10	0xbd5ff75f	-0.05467927
11	0x41c1386c	24.15255
12	0xbe6ed971	-0.23325135
13	0x43104974	144.28693
14	0x42e0aa8f	112.33312
15	0x3e957006	0.2918703

sparse_resnet_denoiser/level_2/batch_normalization_37/FusedBatchNormV3 f4 [32]
0	0xbf63406f	-0.8877019
1	0xbf1a3da5	-0.6025031
2	0x8992d357	-3.5346965e-33
3	0x238630d2	1.4548985e-17
4	0x00000000	0.0
5	0xbf41c8cc	-0.75697017
6	0xbe5c8376	-0.21534523
7	0xa3f76e81	-2.6826594e-17
8	0xbe8637fe	-0.26214594
9	0xbf1da990	-0.61586857
10	0xbf1bc62f	-0.6084928
11	0xbe753596	-0.23946223
12	0xbe776cfe	-0.24162671
13	0x00000000	0.0
14	0xbe090219	-0.13379706
15	0xbd890d06	-0.06691937
16	0xbf9fa709	-1.247285
17	0xa3b3e3c8	-1.9503688e-17
18	0xbf098fd1	-0.5373507
19	0xa34d316f	-1.112354e-17
20	0x898330b7	-3.1582914e-33
21	0xbdd2e94a	-0.102984026
22	0x242bccf4	3.7253316e-17
23	0xbf18b3d7	-0.59649414
24	0xbe6e682c	-0.23281926
25	0xbed07f2b	-0.4072202
26	0xbe85f3a4	-0.26162446
27	0xa432154d	-3.861564e-17
28	0xbe2e0589	-0.16994299
29	0xbe84066a	-0.25786144
30	0xbf388351	-0.7207537
31	0xbedcd783	-0.43133172

sparse_resnet_denoiser/level_2/batch_normalization_37/FusedBatchNormV31 f4 [32]
0	0x419b8269	19.438677
1	0x41319965	11.09995
2	0x3e20bfae	0.1569812
3	0xbe550cff	-0.20805739
4	0xbc1dedc4	-0.009639207
5	0x4183020d	16.376001
6	0x41b69907	22.82472
7	0x3ed1988e	0.40936702
8	0x41ea0359	29.251635
9	0x41f67259	30.805834
10	0x413d84f4	11.844959
11	0x40de4743	6.946199
12	0x410db143	8.855777
13	0xbe607efa	-0.21923438
14	0x41498719	12.595483
15	0x41248e8f	10.284804
16	0x40ba80a8	5.828205
17	0x3e945b98	0.2897613
18	0x41a48538	20.565048
19	0x3e35c9ae	0.17752716
20	0x3e0c2c39	0.13688745
21	0x4143f365	12.2469225
22	0xbf125b00	-0.57170105
23	0x40845fc5	4.1366906
24	0x4137003c	11.437557
25	0x41a564d3	20.67423
26	0x41337762	11.216646
27	0x3f17aed7	0.5925116
28	0x41779727	15.474402
29	0x40fbc691	7.867989
30	0x4055f270	3.3429222
31	0x4106bf70	8.421738

sparse_resnet_denoiser/level_2/batch_normalization_38/FusedBatchNormV3 f4 [16]
0	0xbefd1abc	-0.4943446
1	0xbf37b214	-0.717561
2	0xbf7bee98	-0.9841094
3	0xbf34d826	-0.70642316
4	0xbee8ba8b	-0.4545482
5	0xbeab9dd9	-0.33518866
6	0xbef76edd	-0.4832677
7	0xbf0f6021	-0.56006056
8	0xbf7158a7	-0.942759
9	0xbf2b6ca5	-0.66962653
10	0xbf8d9b6c	-1.1063056
11	0xbf6bb33f	-0.9207038
12	0xbf404b7a	-0.7511517
13	0xbf219486	-0.63117254
14	0xbf2ec02d	-0.68261987
15	0xbf81b8bb	-1.01345

sparse_resnet_denoiser/level_2/batch_normalization_38/FusedBatchNormV31 f4 [16]
0	0x40017ca4	2.0232325
1	0x422032ad	40.049488
2	0x429edb0a	79.42781
3	0x3facb58f	1.3492907
4	0x422150b6	40.32882
5	0x419b18fe	19.387203
6	0x426c5342	59.081306
7	0x42374c5e	45.824577
8	0x412c3f2a	10.765421
9	0x4212f3a6	36.737938
10	0x40fb156a	7.846364
11	0x41aa2189	21.266375
12	0x42084bc3	34.073986
13	0x4257253f	53.786373
14	0x41a3a95f	20.4577
15	0x423cffed	47.249928

sparse_resnet_denoiser/level_2/batch_normalization_39/FusedBatchNormV3 f4 [16]
0	0xbef72795	-0.48272386
1	0x237cd145	1.3705262e-17
2	0xbf25dbb7	-0.64788383
3	0xbed019f2	-0.40644795
4	0xbec00f5a	-0.37511712
5	0xbeba7b0f	-0.3642201
6	0xbea6cccf	-0.32578132
7	0xbed0af84	-0.40758908
8	0xbed1b1d3	-0.40955982
9	0xbe9a5cd0	-0.30148935
10	0xbea5f897	-0.32416221
11	0xbea19651	-0.31559995
12	0xbecf789f	-0.40521714
13	0xbeea94d5	-0.45816675
14	0xbe882b39	-0.26595476
15	0xbed45dcb	-0.41477808

sparse_resnet_denoiser/level_2/batch_normalization_39/FusedBatchNormV31 f4 [16]
0	0x400c10b5	2.1885197
1	0xbdfab9b9	-0.12242455
2	0x40fbb7b4	7.8661747
3	0x4086872d	4.204001
4	0x412e7042	10.902407
5	0x412e75af	10.903731
6	0x411be5b9	9.743585
7	0x40876a61	4.2317357
8	0x41503e26	13.015173
9	0x41291724	10.56815
10	0x40c441a5	6.1330132
11	0x4108f5c8	8.560005
12	0x40ccebb6	6.4037733
13	0x40dc0354	6.8754063
14	0x41101c5f	9.006927
15	0x41250fd6	10.316366

sparse_resnet_denoiser/level_2/batch_normalization_40/FusedBatchNormV3 f4 [32]
0	0xbebd1ab5	-0.36934438
1	0xbe80264d	-0.2502922
2	0xae4829d5	-4.551189e-11
3	0xbea7a3cd	-0.32742158
4	0xbe90eab3	-0.2830406
5	0xbee6d7d3	-0.45086536
6	0x2def3ece	2.7199045e-11
7	0xbe5be200	-0.21472931
8	0x2e4e134e	4.6856123e-11
9	0xbeb38e57	-0.35069534
10	0x2d966304	1.7096997e-11
11	0xae4561cf	-4.4879486e-11
12	0xbeb39250	-0.35072565
13	0xbe8c6039	-0.27417162
14	0xae32f992	-4.0694177e-11
15	0xbe476122	-0.19470647
16	0xae31a23d	-4.0389237e-11
17	0xbedb612b	-0.4284757
18	0xbe9f1b89	-0.31075695
19	0x39acfdf1	0.00032995598
20	0xbedd5be1	-0.4323416
21	0xbe9c005d	-0.30469027
22	0xbe96ee5a	-0.29478723
23	0xbe6e8c11	-0.23295619
24	0xbeb80c0d	-0.35946694
25	0xbec1c103	-0.3784257
26	0xbea2fdb7	-0.31834194
27	0xbe566b7b	-0.20939438
28	0xbe506a18	-0.20352972
29	0xbe536769	-0.20644917
30	0xbeb51be5	-0.35372844
31	0xbe9ac289	-0.30226544

sparse_resnet_denoiser/level_2/batch_normalization_40/FusedBatchNormV31 f4 [32]
0	0x40fa7377	7.826595
1	0x40bb9991	5.862496
2	0x3f84052e	1.0314081
3	0x406f3349	3.7375052
4	0x40da0b87	6.813907
5	0x410516f9	8.318109
6	0xbf22a761	-0.6353665
7	0x40888c2e	4.267112
8	0xbf8393cf	-1.0279483
9	0x41147c82	9.280397
10	0xbecf555d	-0.40494815
11	0x3f802404	1.0010991
12	0x40d52df3	6.661859
13	0x40d546b5	6.664881
14	0x3f694fd0	0.9113741
15	0x40c24837	6.0713153
16	0x3f6b71e8	0.9197068
17	0x403443c0	2.8166351
18	0x40ccfd62	6.4059305
19	0xbf8da7da	-1.1066849
20	0x408802bf	4.250335
21	0x405db40b	3.464114
22	0x410bbdde	8.733854
23	0x40f00433	7.5005126
24	0x40f2401d	7.5703263
25	0x41010d13	8.065692
26	0x40fbdc6f	7.8706584
27	0x40c4904d	6.142615
28	0x41011829	8.068398
29	0x40f0f9b0	7.5304794
30	0x41100d8b	9.003306
31	0x40d51eb2	6.659997

sparse_resnet_denoiser/level_2/batch_normalization_41/FusedBatchNormV3 f4 [16]
0	0xbe6934f2	-0.22774103
1	0xbee1894a	-0.44050056
2	0xbf2376ee	-0.6385335
3	0xbeaeca54	-0.3413874
4	0xbf69d7fc	-0.9134519
5	0xbf03f6b7	-0.5154833
6	0xbf14d0b9	-0.58130985
7	0xbf025306	-0.50907934
8	0xbea80f73	-0.32824287
9	0xbefc1c49	-0.4924033
10	0xbf1c6a3c	-0.610996
11	0xbf54d651	-0.8313952
12	0xbf235748	-0.63805056
13	0xbf552c0b	-0.8327033
14	0xbf11754a	-0.56819594
15	0xbf10d8ac	-0.56580615

sparse_resnet_denoiser/level_2/batch_normalization_41/FusedBatchNormV31 f4 [16]
0	0x3ef4cc36	0.4781205
1	0x408a902a	4.330098
2	0x418e5632	17.792088
3	0x3f0f604c	0.5600631
4	0x417ece38	15.925346
5	0x40f3dd18	7.620739
6	0x41410f49	12.066232
7	0x41606f4d	14.027173
8	0x3fdf48f1	1.7444135
9	0x41282e6a	10.511332
10	0x407cb0f5	3.9483006
11	0x414b2de7	12.698707
12	0x410d7f10	8.843521
13	0x41c1526c	24.165245
14	0x410bb073	8.730578
15	0x41170d98	9.440819

sparse_resnet_denoiser/level_2/batch_normalization_42/FusedBatchNormV3 f4 [16]
0	0xbf6394ca	-0.8889891
1	0x895c91f4	-2.6550164e-33
2	0xbf23266a	-0.6373049
3	0xbf156424	-0.5835593
4	0xbf62ca79	-0.885902
5	0xbf449a19	-0.76797634
6	0xbf3964a8	-0.72419214
7	0xbf352a43	-0.7076761
8	0xbf09a5c9	-0.53768593
9	0xbf1fd9b0	-0.6244154
10	0xbf2d66d4	-0.6773503
11	0xbf22eb89	-0.6364065
12	0xbf3c3c15	-0.7352918
13	0xbf1b1f6e	-0.6059483
14	0xbf287b62	-0.6581327
15	0xbf28ebb5	-0.6598466

sparse_resnet_denoiser/level_2/batch_normalization_42/FusedBatchNormV31 f4 [16]
0	0x41b0c108	22.094254
1	0x3df3d330	0.11905515
2	0x410564bb	8.337092
3	0x418b4f52	17.41373
4	0x4172be8d	15.171521
5	0x41bef5cb	23.870016
6	0x41b81047	23.007948
7	0x417d7d7d	15.843137
8	0x41ad050b	21.627462
9	0x41975e86	18.921154
10	0x41a43c75	20.52952
11	0x4191cd97	18.225386
12	0x415a61d2	13.648882
13	0x4118be5b	9.5464735
14	0x418d361d	17.651423
15	0x42185f44	38.093033

sparse_resnet_denoiser/level_2/batch_normalization_43/FusedBatchNormV3 f4 [32]
0	0x2ef3a6f9	1.1080021e-10
1	0xbec4baa0	-0.38423634
2	0x2e9fb89b	7.2632754e-11
3	0xbf168056	-0.58789575
4	0x2ebfceff	8.722444e-11
5	0x2ebd3af5	8.605198e-11
6	0xaec14ffe	-8.790833e-11
7	0xbf14e077	-0.58155006
8	0xbf06d2db	-0.5266549
9	0x2e96ee88	6.863582e-11
10	0xbf0a479f	-0.54015535
11	0xba3752be	-0.00069932255
12	0xbf97d3e8	-1.1861544
13	0x2ec4f747	8.9569734e-11
14	0xbedf1887	-0.435734
15	0xbf8d3a0b	-1.1033338
16	0x2eb9f7dd	8.4568554e-11
17	0xbecfbc89	-0.40573528
18	0xaecdad7a	-9.353136e-11
19	0xbf14f6ee	-0.58189285
20	0xbf5b02b2	-0.8555099
21	0x2ea5dd49	7.5426394e-11
22	0xbf19be73	-0.6005623
23	0x2eb1f6b6	8.092853e-11
24	0xbf25e865	-0.6480773
25	0xbef15f97	-0.47143242
26	0xbf41e287	-0.7573628
27	0xbf059a04	-0.52188134
28	0xbf2dfaf3	-0.67961043
29	0xbef021aa	-0.46900684
30	0xba35aa19	-0.00069299486
31	0xbf35756b	-0.7088229

sparse_resnet_denoiser/level_2/batch_normalization_43/FusedBatchNormV31 f4 [32]
0	0xbfb4e8d2	-1.4133551
1	0x40cf5ac3	6.4798293
2	0xbf772c72	-0.96552193
3	0x410cdbc0	8.80365
4	0xbf9180c4	-1.1367421
5	0xbf90dddf	-1.131771
6	0x3f902af6	1.1263111
7	0x410c331c	8.762478
8	0x40eab84f	7.3349986
9	0xbf615e14	-0.88034177
10	0x40d1c917	6.555797
11	0x3fb2ad34	1.3959107
12	0x408e255a	4.4420595
13	0xbf95ff57	-1.1718549
14	0x409d06b8	4.90707
15	0x405f9ee3	3.4940727
16	0xbf8d87fc	-1.1057124
17	0x40ca316b	6.3185325
18	0x3f9d6f90	1.2299671
19	0x40cef460	6.467331
20	0x412e6939	10.900689
21	0xbf811d0b	-1.0086988
22	0x40c04808	6.008793
23	0xbf89585e	-1.0730093
24	0x410a61c1	8.648866
25	0x40aa0c21	5.3139806
26	0x41020850	8.127029
27	0x403fc796	2.9965568
28	0x41173ded	9.452619
29	0x40a31070	5.0957565
30	0x3fad5850	1.3542576
31	0x40f13dbd	7.5387864

sparse_resnet_denoiser/level_2/batch_normalization_44/FusedBatchNormV3 f4 [16]
0	0xbe463fcd	-0.19360276
1	0xbf631edd	-0.8871897
2	0xbf262e7b	-0.64914674
3	0xbf0e5fc9	-0.55614907
4	0xbf5ddcbd	-0.86664945
5	0xbf2591e5	-0.6467574
6	0xbf6cca37	-0.92496055
7	0xbf61513f	-0.88014597
8	0xbe929133	-0.28626403
9	0xbf2d5b3b	-0.6771733
10	0xbfe2ed6a	-1.7728703
11	0xbf2a04aa	-0.66413367
12	0xbf023656	-0.5086416
13	0xbf85b977	-1.0447224
14	0xbf661aaa	-0.89884436
15	0xbf530237	-0.82425255

sparse_resnet_denoiser/level_2/batch_normalization_44/FusedBatchNormV31 f4 [16]
0	0x3ec817da	0.39080697
1	0x3fe2f6a1	1.7731515
2	0x40a1a1f2	5.0510187
3	0x3f6156ab	0.8802287
4	0x40c999af	6.30001
5	0x40a2a1b7	5.0822406
6	0x4112a613	9.165545
7	0x411c300f	9.761733
8	0x3fb03b31	1.3768064
9	0x4109cdca	8.612741
10	0x40d42c52	6.63041
11	0x405036a1	3.2533343
12	0x40339c2d	2.8064072
13	0x40a39abb	5.112638
14	0x40b4d116	5.650523
15	0x40f5af53	7.677652

sparse_resnet_denoiser/level_2/batch_normalization_45/FusedBatchNormV3 f4 [16]
0	0xbe3e7236	-0.18598256
1	0xbf5b8a8e	-0.8575829
2	0xbf15a1c8	-0.58449984
3	0xbefd8546	-0.49515742
4	0x2e310846	4.025249e-11
5	0xbf27c326	-0.6553215
6	0xbedd96de	-0.43279165
7	0xbf1da2db	-0.6157662
8	0xbf0a8fcd	-0.5412567
9	0xbf2b5033	-0.6691925
10	0xbf10a447	-0.5650067
11	0xbf51ed04	-0.8200228
12	0xbf123de0	-0.57125664
13	0xbf0bf9cf	-0.5467805
14	0xbf13bdf8	-0.57711744
15	0xbf14e1b4	-0.58156896

sparse_resnet_denoiser/level_2/batch_normalization_45/FusedBatchNormV31 f4 [16]
0	0x4123a4e6	10.227758
1	0x41a436dc	20.526787
2	0x41574f38	13.4568405
3	0x40dcec73	6.9038634
4	0xc00f58a9	-2.2397864
5	0x40e8ccef	7.2750163
6	0x40b051e5	5.509997
7	0x4102bc11	8.170915
8	0x414fc706	12.98609
9	0x4090f88d	4.5303407
10	0x4112ecbc	9.1827965
11	0x41a772b5	20.93101
12	0x416932fc	14.574947
13	0x4109cd68	8.612648
14	0x410b6c03	8.71387
15	0x41415418	12.083031

sparse_resnet_denoiser/level_2/batch_normalization_46/FusedBatchNormV3 f4 [32]
0	0x3a2db6cb	0.00066266645
1	0xbf3cfd56	-0.7382406
2	0xaeefb3a9	-1.0900376e-10
3	0xbd32ae18	-0.04362306
4	0x00000000	0.0
5	0xbe268ce4	-0.16264683
6	0xbf4a7927	-0.79091114
7	0xbeef155d	-0.46695986
8	0xbd5f473c	-0.054511294
9	0xbd5a18bd	-0.05324625
10	0x3a3760bb	0.000699531
11	0xaef990c1	-1.13489225e-10
12	0xbd54126c	-0.05177538
13	0xbf14c336	-0.5811037
14	0xbd36d7c3	-0.04463936
15	0xbeef3a56	-0.46724194
16	0xbf473b99	-0.77825314
17	0xbf323907	-0.69618267
18	0xbf33d052	-0.70239747
19	0xbe5bc6bb	-0.21462528
20	0xbf1039a8	-0.56337976
21	0x2ec8e9f8	9.136508e-11
22	0xbf2197d2	-0.63122284
23	0xbf1d5d46	-0.6147045
24	0xbe87d73e	-0.26531404
25	0xbf1bbb90	-0.6083307
26	0x3a3f3e84	0.00072953873
27	0xaed3f301	-9.638335e-11
28	0xbf3a72d1	-0.72831446
29	0xbd397e42	-0.045286424
30	0xaef4a08a	-1.1124353e-10
31	0xbd6ce225	-0.057832856

sparse_resnet_denoiser/level_2/batch_normalization_46/FusedBatchNormV31 f4 [32]
0	0xbfcdf665	-1.6090819
1	0x418da3d9	17.705004
2	0x3fdc078f	1.7189807
3	0x405bb23d	3.4327538
4	0x3e62b51f	0.22139405
5	0x412797a7	10.4745245
6	0x41035339	8.207818
7	0x41465189	12.394906
8	0x403254d4	2.7864275
9	0x405db8f4	3.4644136
10	0xbfd9f764	-1.7028623
11	0x3fdf8ef2	1.7465498
12	0x40462668	3.0960941
13	0x40927059	4.5762143
14	0x40a9f78d	5.3114686
15	0x40271dee	2.6112018
16	0x40fefa63	7.968065
17	0x40666c45	3.6003582
18	0x41154c21	9.331086
19	0x4096cca5	4.712481
20	0x41242645	10.259343
21	0xbfba1667	-1.4538087
22	0x4128045d	10.501065
23	0x4097c2d5	4.742533
24	0x40a1d0fa	5.05676
25	0x402efc0a	2.7341332
26	0xbfde3339	-1.7359382
27	0x3fc0dbd4	1.5067086
28	0x408b0e73	4.345514
29	0x40323a36	2.784803
30	0x3fdd809f	1.7304877
31	0x4021d4d5	2.5286152

sparse_resnet_denoiser/level_2/batch_normalization_47/FusedBatchNormV3 f4 [16]
0	0xbde92ae5	-0.113851346
1	0xbf40f83f	-0.75378793
2	0xb980a376	-0.0002453585
3	0xbebb5453	-0.36587772
4	0xbf10a81e	-0.56506526
5	0xbf5907f5	-0.84777766
6	0xbe52649d	-0.20546193
7	0xbeccc87d	-0.3999671
8	0xbe05a494	-0.13051063
9	0xbec208c3	-0.3789731
10	0xbef71998	-0.48261714
11	0xbf163c35	-0.5868562
12	0xbf3a23bf	-0.72710794
13	0xbec80595	-0.3906676
14	0xbea98eba	-0.33116704
15	0xbeacea24	-0.33772385

sparse_resnet_denoiser/level_2/batch_normalization_47/FusedBatchNormV31 f4 [16]
0	0x3e136dbc	0.14397329
1	0x3f64074d	0.8907364
2	0x3afa3c07	0.0019091376
3	0x3f0cb857	0.5496878
4	0x4019e851	2.4048045
5	0x4040fac3	3.0153053
6	0x3fa49483	1.2857822
7	0x4004ba48	2.0738697
8	0x3ea56e0b	0.3231052
9	0x40131196	2.2979484
10	0x3f8e2b09	1.1106883
11	0x3fb72a30	1.430975
12	0x3fe9eec0	1.8275986
13	0x3f60007f	0.87500757
14	0x3fae9af3	1.3641037
15	0x3fa4d58b	1.2877668

sparse_resnet_denoiser/level_2/batch_normalization_48/FusedBatchNormV3 f4 [16]
0	0xbf568c3e	-0.8380774
1	0x2e0139ca	2.938253e-11
2	0xb93a3661	-0.000177586
3	0xbec45ea6	-0.3835346
4	0xadeea628	-2.7131256e-11
5	0xbeccc82d	-0.39996472
6	0xbe8202a9	-0.25392655
7	0xb9264b9c	-0.0001585916
8	0xb9291310	-0.00016124197
9	0xade64cb3	-2.6182034e-11
10	0xbe297c43	-0.16551308
11	0xbed73fa9	-0.42040756
12	0xbf566944	-0.8375437
13	0x393169ed	0.00016919496
14	0x2de048b0	2.5498131e-11
15	0xbebfdec5	-0.37474647

sparse_resnet_denoiser/level_2/batch_normalization_48/FusedBatchNormV31 f4 [16]
0	0x40fe8c44	7.9546223
1	0xc06b87ac	-3.6801558
2	0x4060ec5e	3.5144267
3	0x41c8dd28	25.107986
4	0x4060a225	3.5098965
5	0x41a78eb3	20.944677
6	0x41b419e4	22.512642
7	0x404e99b4	3.2281313
8	0x405130b3	3.2685974
9	0x405ba2ee	3.4318194
10	0x41c79694	24.948524
11	0x41ed4861	29.660341
12	0x4128cae0	10.54953
13	0xc05a5b16	-3.4118094
14	0xc0579bf9	-3.3688948
15	0x420ec23d	35.689686

sparse_resnet_denoiser/level_2/batch_normalization_49/FusedBatchNormV3 f4 [32]
0	0x2d7e3ea0	1.4452134e-11
1	0xbec61133	-0.38684997
2	0xa5033380	-1.1379888e-16
3	0xadbbc66d	-2.1347557e-11
4	0xa51dffc9	-1.3704243e-16
5	0xae186128	-3.464709e-11
6	0xbd9cd49b	-0.07657739
7	0xbdb3ee76	-0.08785717
8	0x2382e1a2	1.4190187e-17
9	0xbd9b634c	-0.07587299
10	0xbdbe2f04	-0.09286311
11	0x24537426	4.5851713e-17
12	0xbf314de9	-0.69259506
13	0xa4b7b360	-7.966747e-17
14	0x00000000	0.0
15	0x2426dc7a	3.6182263e-17
16	0x00000000	0.0
17	0xbd5a05dd	-0.053228248
18	0xa498b363	-6.6223385e-17
19	0xad804c2a	-1.4585739e-11
20	0x00000000	0.0
21	0xa43bf6e5	-4.075829e-17
22	0xadbf2e4e	-2.173475e-11
23	0x08e12601	1.355063e-33
24	0xbf40c402	-0.75299084
25	0xbd916415	-0.07099167
26	0x245a9601	4.7398273e-17
27	0x00000000	0.0
28	0x00000000	0.0
29	0x00000000	0.0
30	0xa2f0d6e4	-6.5279655e-18
31	0xbd952a3a	-0.07283445

sparse_resnet_denoiser/level_2/batch_normalization_49/FusedBatchNormV31 f4 [32]
0	0xbedb1b6b	-0.42794356
1	0x413c2e90	11.761368
2	0x3efa9d3a	0.4894808
3	0x3f219e9e	0.63132656
4	0x3f1894ee	0.5960225
5	0x3f821af8	1.016448
6	0x412218b3	10.13103
7	0x404ece90	3.2313576
8	0xbd768ada	-0.060191013
9	0x40a9cfd3	5.306619
10	0x3fd5089e	1.6643255
11	0xbe4dda80	-0.20102882
12	0x40175d9e	2.365089
13	0x3eb1f4f1	0.34757188
14	0x3d073f5c	0.03301941
15	0xbe226743	-0.15859704
16	0xbe246fe4	-0.16058308
17	0x414500ae	12.312666
18	0x3e96e781	0.29473498
19	0x3ee04831	0.43805078
20	0x3e387dad	0.18016692
21	0x3e362c86	0.17790422
22	0x3f222da9	0.6335092
23	0xbca3ec44	-0.020010121
24	0x402449b7	2.5669992
25	0x41241390	10.254776
26	0xbe585026	-0.21124324
27	0x3d6e3a16	0.058160864
28	0xbd905568	-0.0704754
29	0x3df1ce04	0.118068725
30	0x3ceb7505	0.028742323
31	0x4081fa94	4.061838

sparse_resnet_denoiser/level_2/batch_normalization_50/FusedBatchNormV3 f4 [16]
0	0xbd80cf7b	-0.06289574
1	0xbf181cda	-0.59419024
2	0xb8d897ac	-0.00010327934
3	0x379bff94	1.8596453e-05
4	0xbd8f40e3	-0.06994798
5	0xbdcbe291	-0.099553235
6	0xb9aa288b	-0.00032455134
7	0xb87c9d54	-6.0228005e-05
8	0xbd72221d	-0.059114564
9	0xb9768879	-0.00023511228
10	0xbdd0e6ed	-0.102002956
11	0x38cf3ab8	9.8814664e-05
12	0xbe0837a7	-0.1330248
13	0xbd9c0db9	-0.07619805
14	0xbd978676	-0.07398693
15	0xbdbb7239	-0.091526456

sparse_resnet_denoiser/level_2/batch_normalization_50/FusedBatchNormV31 f4 [16]
0	0x3d952a72	0.072834864
1	0x3f033ec4	0.5126765
2	0x3a52a9e0	0.00080361776
3	0xb7ea5e77	-2.7938962e-05
4	0x3e68eb7c	0.2274608
5	0x3eab3682	0.33440024
6	0x3b051b46	0.0020310446
7	0x39a3ba9f	0.00031228826
8	0x3df74d42	0.12075283
9	0x3abadc3f	0.0014256312
10	0x3e1d3df0	0.15355659
11	0xb97ca6c0	-0.00024094712
12	0x3e9468bd	0.2898616
13	0x3e206c21	0.15666248
14	0x3e91828d	0.28419915
15	0x3e826081	0.25464252

sparse_resnet_denoiser/level_3/batch_normalization_52/FusedBatchNormV3 f4 [16]
0	0x2fb6a04f	3.3219513e-10
1	0xb03e3a75	-6.920467e-10
2	0x2f8d569d	2.5709293e-10
3	0xb0fed938	-1.854267e-09
4	0xb0ea7af2	-1.7060684e-09
5	0xbb90c248	-0.0044176914
6	0x30b7820b	1.3351963e-09
7	0xafc3724d	-3.555151e-10
8	0xb91f2171	-0.0001517588
9	0xb0e367f9	-1.6545975e-09
10	0xb0b8a905	-1.34358e-09
11	0xb103ba5b	-1.916894e-09
12	0x3b9ed16e	0.0048467433
13	0x3bdfecf5	0.0068336674
14	0xbc661b94	-0.014044661
15	0xbab7be9e	-0.00140186
