bfcnn/pretrained/sparse_resnet_5x5_bn_3x3/model.tflite (tflite, 304080 bytes, 173 tensors)

sparse_resnet_denoiser/level_0/batch_normalization_1/FusedBatchNormV3 f4 [16]
00000000: 5761 153c a015 933c 00de a633 e735 283d
00000010: 2c8e 88bb 0f23 8e3c ff3f bdba a686 6bbc
00000020: 5e35 a93c a541 1cbc 0f27 c93a 67b6 ca33
00000030: 9ecb d6bc 387c 99bb d482 0fbc 9e97 e939
0.009117446 0.017954648 7.770359e-08 0.04106703 -0.004167339 0.017350702 -0.0014438628 -0.014375364
0.02065533 -0.009537135 0.0015346723 9.439537e-08 -0.02622014 -0.0046839975 -0.008759219 0.00044554187

sparse_resnet_denoiser/level_0/batch_normalization_1/FusedBatchNormV31 f4 [16]
00000000: 2efa 9b42 d1ad b43f 6797 cc41 5f54 0e42
00000010: 0839 013f ed80 8540 86d1 933e ff75 bb41
00000020: 5546 f143 8207 2b3f f9df e73e de96 f841
00000030: d941 1b41 1459 0f3f c575 223f fc08 e543
77.98863 1.4115545 25.573927 35.582394 0.5047765 4.171988 0.2887079 23.432615
482.54947 0.6680833 0.45288065 31.073666 9.703576 0.559953 0.6346095 458.0702

sparse_resnet_denoiser/level_0/batch_normalization_10/FusedBatchNormV3 f4 [32]
00000000: 9e56 66be f52e febe 0b03 86bf 2f38 74be
00000010: 66e9 edbd 9f49 35bf 74fd 30bf 18ea c1be
00000020: 7928 31bf 3e4e 24be cf2d 28be 1353 66be
00000030: 1f2f 18be f82d b539 e14f 83be eef5 eebe
00000040: 9d6b 7f38 8c20 09be 3107 d4be 2d9f cbbd
00000050: 51ae 07bf 6623 1ebf 395d b9be 6bc7 57be
00000060: 49e6 26bf f3b9 0fbf 7c0c 1ebf d927 0dbf
00000070: c9c5 b5be 2099 49be e3d5 0cbf 8ea3 3039
-0.2249398 -0.496452 -1.0469679 -0.23849557 -0.11616783 -0.7081546 -0.6913674 -0.37873912
-0.6920238 -0.16045472 -0.16423725 -0.22492628 -0.14861725 0.0003455726 -0.2564688 -0.46672004
6.089696e-05 -0.13391322 -0.41411737 -0.0994247 -0.5300036 -0.61772764 -0.36203936 -0.21072166
-0.6519514 -0.5614311 -0.617378 -0.5513893 -0.3550246 -0.19687319 -0.55013865 0.00016845597

sparse_resnet_denoiser/level_0/batch_normalization_10/FusedBatchNormV31 f4 [32]
00000000: 09e7 f03f 7f2a 4040 2bd5 4840 dfe8 c73f
00000010: 14b8 eb3f 242f 2c40 db73 d33f f7ed 1840
00000020: 271b 8140 f87a ee3f fa1d a83f ee80 c13f
00000030: 7c00 c43f 9056 babe 6bbe 5640 c366 5740
00000040: a8e0 75bd 44dc bf3f 6492 8540 9fd0 2040
00000050: 4413 d13f ec8f 2040 81cb fd3f 7636 4240
00000060: 54b5 cf40 b75e a93f ceb0 e23f 1817 4040
00000070: c602 dc3f 6c4d 923f f56e a240 26aa 2ebe
1.8820506 3.0025938 3.1380107 1.5617942 1.8415551 2.6903772 1.6519731 2.3895242
4.0345645 1.8631277 1.3134148 1.5117471 1.5312648 -0.36394167 3.3553722 3.365647
-0.060028702 1.4989095 4.17412 2.5127332 1.6334004 2.5087843 1.982773 3.034574
6.490885 1.323203 1.7710207 3.0014095 1.7188346 1.1429877 5.0760446 -0.17057094

sparse_resnet_denoiser/level_0/batch_normalization_11/FusedBatchNormV3 f4 [16]
00000000: 3a9e f3bd affd 1cbe 691c 32be e4ca a1bd
00000010: e4d7 8fbe 752b d0bd 5ca5 d1be f963 99b8
00000020: d255 43be 1f68 243a 07a0 be37 ee73 1cbe
00000030: 57aa 3fbe 4084 bdbd 3c63 eb38 eb7f c0be
-0.11895414 -0.15331148 -0.1739365 -0.079000264 -0.280944 -0.10164539 -0.40946472 -7.31423e-05
-0.19075707 0.0006271619 2.2724284e-05 -0.15278599 -0.18717323 -0.0925374 0.00011224157 -0.37597594

sparse_resnet_denoiser/level_0/batch_normalization_11/FusedBatchNormV31 f4 [16]
00000000: a4b0 133d 620b b63d 77d4 4a3d cf32 033d
00000010: b501 c63d 50c3 453d 780d c73d db91 3f38
00000020: e3a3 733d 7530 91b9 03bf c1b6 5fd0 a63d
00000030: 0625 b23d eff6 f43c c796 06b8 8886 ca3d
0.03605713 0.0888889 0.04951903 0.032030877 0.09668294 0.048281968 0.09719366 4.5673787e-05
0.059482466 -0.00027692658 -5.774085e-06 0.081452124 0.08698468 0.029902903 -3.2088512e-05 0.09888941

sparse_resnet_denoiser/level_0/batch_normalization_2/FusedBatchNormV3 f4 [32]
00000000: adbe f5be 9184 45be aa5a 11be 40cc 3cbe
00000010: 3463 c0be 1c52 02be bf2e 19bf 44a0 12bf
00000020: 3229 94be 0a32 03be 654b a6be e577 22bf
00000030: 0045 dcbe 556e 15be f9ac 38be 0aa0 59bd
00000040: a364 50be 1f86 39be d0ec f2be 64b2 e7be
00000050: e84e d7be a7cc 94be ef2d 7ebe 800a eabe
00000060: 817b 6bbf c475 97be fe5c 8dbe 9ca3 a3bd
00000070: b64f 46be 17d4 adbe a420 2bbf 0a82 9fbe
-0.47997037 -0.19288851 -0.14194742 -0.1843729 -0.37575686 -0.12726635 -0.59836954 -0.57275796
-0.2893768 -0.12812057 -0.32479396 -0.63464195 -0.43021393 -0.1459287 -0.18034734 -0.05313114
-0.2035089 -0.1811757 -0.474463 -0.4525329 -0.42052388 -0.29062387 -0.2482221 -0.45711136
-0.91985327 -0.29582036 -0.2761001 -0.079901904 -0.19366345 -0.33950874 -0.6684668 -0.311539

sparse_resnet_denoiser/level_0/batch_normalization_2/FusedBatchNormV31 f4 [32]
00000000: 0f24 bc3f d767 233f 90da 1c3f eda2 1e3f
00000010: 0e7b 2d40 6e02 ef3f 1cb6 c13f d35a b43f
00000020: ec44 6640 17e0 303f f413 5740 ef6d 0040
00000030: 22e8 8740 7913 463f 6dc1 1240 d7d1 1e3f
00000040: 18a6 233f c23e cc3f 5d90 6640 e53f 913f
00000050: 876e e43f 6c96 8740 7a86 2040 41a9 2a40
00000060: 87f7 883f 3ca5 5540 8aa8 c73f f3c0 8d3e
00000070: f970 d73f f10f 9340 849b f43f 2858 9940
1.4698504 0.6383032 0.61271 0.61967355 2.7106357 1.8672616 1.51337 1.4090217
3.5979567 0.69091934 3.3605928 2.0067098 4.2470865 0.7737346 2.2930558 0.6203894
0.63925314 1.5956652 3.6025612 1.1347624 1.784623 4.237112 2.5082078 2.6665804
1.0700539 3.33821 1.5598309 0.2768627 1.6831352 4.595696 1.910996 4.7920113

sparse_resnet_denoiser/level_0/batch_normalization_3/FusedBatchNormV3 f4 [16]
00000000: a187 4fbf 5cfe cdbe 931a 2dbf 5f9e aebd
00000010: cb71 b1bd 55a0 03bf 6b99 84bf c27f 71bf
00000020: 79e0 0ec0 a0c9 febe a4a6 a5be 4215 26bf
00000030: a586 9abe e119 d1be 3542 2fbf 0dba 83bf
-0.8106633 -0.40233123 -0.67618674 -0.08526301 -0.086642824 -0.5141652 -1.035932 -0.9433557
-2.2324507 -0.49763203 -0.323537 -0.64876187 -0.3018085 -0.40840057 -0.684604 -1.0291153

sparse_resnet_denoiser/level_0/batch_normalization_3/FusedBatchNormV31 f4 [16]
00000000: c39d 463f 4e4b c43f 9fb0 223f 484a 073f
00000010: 749c 7e3e 5359 8a3f 3653 e23e 3865 f53f
00000020: af34 a53f 2187 853f 11ae 473f 4e33 9340
00000030: 1f4b be3f 256e 6b3f b68a 263f 020b fb3e
0.77584475 1.5335481 0.6355075 0.5284772 0.2486437 1.080851 0.4420411 1.9171515
1.2906703 1.0431863 0.7799998 4.600013 1.4866675 0.9196494 0.65055406 0.49031836

sparse_resnet_denoiser/level_0/batch_normalization_4/FusedBatchNormV3 f4 [32]
00000000: 7ef7 efbe e386 b5bf a1b8 08bf 2c53 a5bf
00000010: bf01 3cbe dccf ffbe fa29 04bf 1325 27bf
00000020: e37a 5ebf e644 ccbe 57e0 e5bf 015f 02bf
00000030: 43f0 c0be 8dd9 55bf 212c e3be 319c dabe
00000040: 47ee 0cbf c72d d1be dee2 00bf bec0 00bf
00000050: c334 00bf 42d2 a1bf 9984 f1be 79b7 02bf
00000060: 4021 01bf 0aba 28bf cba2 d2be 615e 44be
00000070: d4f0 50bf 0a7c ccbe 03f5 c9be 323d 24bf
-0.4686851 -1.4181789 -0.5340672 -1.2916007 -0.18360041 -0.49963272 -0.5162655 -0.65290946
-0.8690626 -0.39896315 -1.7959088 -0.50926214 -0.37683305 -0.8353508 -0.44369605 -0.4269729
-0.5505108 -0.40855238 -0.5034617 -0.502941 -0.5008051 -1.264229 -0.47171476 -0.5106121
-0.5044136 -0.65908873 -0.41139826 -0.19176628 -0.81617475 -0.39938384 -0.39444742 -0.64155877

sparse_resnet_denoiser/level_0/batch_normalization_4/FusedBatchNormV31 f4 [32]
00000000: 5dbf 6a40 6c28 3440 dc9b 7440 222f 1b41
00000010: d743 4e3f 7498 3140 0f7d d23f 089c b13f
00000020: 590f 5940 e58b c23f 5da7 3b40 b2c5 ad3f
00000030: 134d 2740 6248 0a40 7f5e e03f 21a2 6740
00000040: 793c 8e40 c614 2140 6cfe a540 1d85 5640
00000050: 11bd bd40 559b 0840 d9bf ee3f bc45 2f40
00000060: 11d8 4040 d8b8 0640 ca6d 1840 c38d b93f
00000070: c18d ee3f 5b4a fe3f 821b 6940 247e 8f40
3.66793 2.8149672 3.822013 9.699007 0.80572265 2.77493 1.6444415 1.3875742
3.3915617 1.5198942 2.93209 1.3575957 2.6140792 2.160668 1.7528838 3.6192706
4.444882 2.516893 5.1873074 3.3518746 5.9293294 2.1344807 1.8652297 2.7386312
3.0131876 2.105032 2.381701 1.4496387 1.863701 1.9866441 3.642304 4.484148

sparse_resnet_denoiser/level_0/batch_normalization_5/FusedBatchNormV3 f4 [16]
00000000: b75a 42bf c3c7 37bf 15f0 68bf 2f6b e2be
00000010: 219f 63bf 6497 0dbf ecce e7bf 14bb afbf
00000020: eb21 bbbf c0ea 52bf 8043 00bf 5ba3 30bf
00000030: 6b13 5cbe a65a 40bf bfaf 2bbf dce3 ccbf
-0.7591967 -0.7178919 -0.90991336 -0.442224 -0.88914686 -0.5530913 -1.8110023 -1.3728967
-1.4619726 -0.8238945 -0.50102997 -0.6899926 -0.21491782 -0.7513832 -0.6706504 -1.6007037

sparse_resnet_denoiser/level_0/batch_normalization_5/FusedBatchNormV31 f4 [16]
00000000: f6ca 1a3f 39b3 a63f e154 e33e 2b04 683f
00000010: ba71 da3e 836b 3e3f b798 183f 2c47 e43f
00000020: 9f5f 473f 2520 533f 5f55 1d3f 0717 0140
00000030: 6758 e33e 14ea 413f 3f38 b93e 4843 143f
0.60465944 1.3023444 0.44400695 0.9063136 0.4266489 0.743828 0.59608024 1.783422
0.7788028 0.82470924 0.6145839 2.0170305 0.44403383 0.757478 0.36175725 0.57915163

sparse_resnet_denoiser/level_0/batch_normalization_6/FusedBatchNormV3 f4 [32]
00000000: 528a 83bf 7f4f 15bf 9439 10bf 48e2 02bf
00000010: 8b04 f1be ddbb 12bf 028c 62bf 7644 22bf
00000020: f6ef 1abf b09c 16bf 4bd8 e7be fd8b 9fbe
00000030: 6506 1ebf 2813 b1be f7be 09bf a819 c6be
00000040: 5504 ebbe 48df 03bf 2e62 94be 7db5 4fbf
00000050: e778 11bf 2453 98be c9df cfbe 01ff fbbe
00000060: b551 c5be 4e01 59bf 6e86 36bf ecfc 05bf
00000070: b172 96be 39dd e0be c638 07bf 12ef 30be
-1.0276587 -0.58324426 -0.5633786 -0.5112653 -0.4707378 -0.57317907 -0.88494885 -0.63385713
-0.605224 -0.58832836 -0.45282206 -0.3116149 -0.6172851 -0.34584928 -0.53807014 -0.3869145
-0.45901743 -0.51512575 -0.28981155 -0.81136304 -0.5682511 -0.2975093 -0.40600422 -0.4921799
-0.385389 -0.84767616 -0.71298873 -0.52339053 -0.29384378 -0.4391878 -0.52821004 -0.17278698

sparse_resnet_denoiser/level_0/batch_normalization_6/FusedBatchNormV31 f4 [32]
00000000: 009d 1640 ca0a 3440 a24d 2140 8379 6040
00000010: 6172 6340 9d21 9b40 dc86 7440 1f89 5d40
00000020: 4888 4740 da17 9840 2305 8940 7c9a 1d40
00000030: dbc9 823f 72d6 ab3f ff6f 3f40 1ae1 1640
00000040: 97da 1240 7960 ab3f b39a 1c40 cd20 353f
00000050: 4ffe 4340 496a ec3f 950b e83f 8319 f53f
00000060: 424f 3140 290e 5140 e2db 4d40 64eb 1d40
00000070: 384a 0f40 20a5 9c3f c715 c33f 6999 9d3f
2.3533325 2.8131585 2.5203633 3.5074165 3.5538561 4.847853 3.8207312 3.4614942
3.117693 4.7529116 4.281877 2.462554 1.0217851 1.3424819 2.9912107 2.357489
2.2945917 1.3388816 2.446942 0.70753175 3.0623968 1.8469936 1.8128535 1.914841
2.7704625 3.2664893 3.2165456 2.467492 2.238905 1.2237892 1.5241021 1.2312442

sparse_resnet_denoiser/level_0/batch_normalization_7/FusedBatchNormV3 f4 [16]
00000000: cdd9 fb37 ca86 18bf b420 eebe 1841 7bbe
00000010: 71c9 00bf ea9b 17bf cc1d 07c0 5c3c bfbf
00000020: 98c5 d8be 822e 04bf 39dc cbbe 0d10 3cbf
00000030: fb73 6dbf dbc3 fdbe 5093 0ebf 242f 97bf
3.0022953e-05 -0.5958067 -0.46509326 -0.2453655 -0.50307375 -0.5922228 -2.1111937 -1.4940295
-0.42338252 -0.51633465 -0.39816454 -0.7346199 -0.927551 -0.49563488 -0.5569353 -1.1811261

sparse_resnet_denoiser/level_0/batch_normalization_7/FusedBatchNormV31 f4 [16]
00000000: 284f 5fb7 b785 403f fd32 3c3e 24ba 223e
00000010: e6f7 5f3e 0324 d73e 0061 133f 5dca ba3f
00000020: f68f 253e 9ea6 a23e e786 8f3e 4e3f 643f
00000030: 7fcd 353f 1f90 643e e322 873e f975 d03e
-1.3310266e-05 0.7520403 0.18378825 0.1589132 0.2187191 0.42019662 0.57569885 1.4593006
0.16168198 0.31767744 0.2803261 0.89159095 0.7101669 0.22320603 0.26393804 0.40715006

sparse_resnet_denoiser/level_0/batch_normalization_8/FusedBatchNormV3 f4 [32]
00000000: 50c6 ccbe 0596 2bbf bc5b 93be b11e e2be
00000010: 6e30 88bf af25 9cbf 9a7f ecbe bd20 d8be
00000020: 6228 9bbe 1531 49bf af0e b9be 3a08 81be
00000030: 9b3d dabe e193 a8be 1446 4fbe 4e66 3ebe
00000040: 9ade 2ebf 34eb 39bf da85 4cbf fd5c 1ebf
00000050: 64fc 28bf 117d 03bf c0b0 93be 88f9 71bf
00000060: 5d8f 54bf 130a 24bf 61fa 67bf 3fcb 19bf
00000070: 7b0e 2abf d565 dbbe c10b 29bf 7416 adbe
-0.3999505 -0.67025787 -0.28780925 -0.4416404 -1.063978 -1.2199 -0.46191102 -0.42212477
-0.30304247 -0.7859052 -0.36144015 -0.2520159 -0.42625126 -0.32925323 -0.20241576 -0.18593714
-0.68308413 -0.72624516 -0.7989174 -0.6186064 -0.6601012 -0.5136271 -0.28845787 -0.9452138
-0.83031255 -0.6407787 -0.9061642 -0.60075754 -0.66428345 -0.4285113 -0.6603356 -0.33806193

sparse_resnet_denoiser/level_0/batch_normalization_8/FusedBatchNormV31 f4 [32]
00000000: 7b31 b23f 88ab 2640 9f69 b93f 8620 3340
00000010: 6c08 9d40 9642 ef40 554d 8440 024b dd3f
00000020: bc94 e43f bf29 f23f 71c9 1b40 0a46 3d40
00000030: b3af 0140 8008 f23f bffa 0440 42ee 413f
00000040: 805a ca40 f998 6140 c326 4540 1b3b 0140
00000050: 6219 5c40 ddd0 5c3f d5bc 0f40 4985 d440
00000060: c842 9140 dc06 2b40 1142 1d41 7fb9 9340
00000070: 5f5b 2140 2f7c 763f 3e43 6a40 1b5a 7740
1.392135 2.6042194 1.4485358 2.79886 4.907278 7.476878 4.13444 1.7288516
1.785789 1.891899 2.43417 2.9573998 2.0263488 1.8908844 2.0778043 0.7575418
6.3235474 3.5249617 3.0804908 2.0192325 3.4390492 0.862562 2.2459004 6.64127
4.539402 2.6722937 9.8286295 4.6163936 2.5212018 0.9628324 3.6603541 3.8648746

sparse_resnet_denoiser/level_0/batch_normalization_9/FusedBatchNormV3 f4 [16]
00000000: 47eb a8be f860 1bbf 465c 8dbe 282d b338
00000010: af6e 89be 141d 60bf 5505 d3bf 455c 40bf
00000020: 76ca 5ab9 9273 26bf 9beb 9ebf d465 09bf
00000030: 1aac 87bf 1652 83be f6b2 e0be b1ca c7be
-0.32992002 -0.6069484 -0.27609462 8.543796e-05 -0.26842257 -0.8754437 -1.6486002 -0.7514079
-0.00020865523 -0.65020096 -1.2415651 -0.53671 -1.0599396 -0.25648564 -0.43886536 -0.3902183

sparse_resnet_denoiser/level_0/batch_normalization_9/FusedBatchNormV31 f4 [16]
00000000: 6e90 eb3d 4a3a ee3e e4e1 ba3d d644 3fb8
00000010: e57e db3d 6933 e33e 345e db3e 473d f03e
00000020: b70b 9938 b8fe 923e b485 a13e 1b3b cc3e
00000030: eba6 1a3f ac1e c03d 3e7a 003e 8c2f e63d
0.11502157 0.46528846 0.091251165 -4.5602057e-05 0.107175626 0.4437516 0.4284531 0.4692175
7.2977906e-05 0.2870996 0.3154732 0.39888844 0.60410947 0.0938085 0.12546632 0.112395376

sparse_resnet_denoiser/level_1/batch_normalization_13/FusedBatchNormV3 f4 [16]
00000000: 367c fcb6 a87e b331 8a76 cbb9 8aee abb8
00000010: 8278 8a31 9e03 bfb1 d6da a831 103e 193b
00000020: 2635 4830 1b0c 8939 389f 99b8 5119 48ad
00000030: 4005 b73a e304 56bb 2c69 e3b0 0d41 3ab7
-7.5246453e-06 5.223985e-09 -0.00038807496 -8.198347e-05 4.0300288e-09 -5.559243e-09 4.9143223e-09 0.002338294
7.2835105e-10 0.00026139696 -7.325265e-05 -1.1374305e-11 0.0013963357 -0.0032656721 -1.6546315e-09 -1.110161e-05

sparse_resnet_denoiser/level_1/batch_normalization_13/FusedBatchNormV31 f4 [16]
00000000: e865 d83c c020 523f 5eca 1d3f b6af 313d
00000010: 4bfe 213f cfa0 5fbf 6b9e 453f 365b a43e
00000020: 7e58 ea3d 1dd2 1d44 0982 e043 ee3d eaba
00000030: 9b03 683f 2e01 8443 fb07 85be 33d7 8b43
0.02641578 0.8208122 0.6163691 0.04338046 0.63278645 -0.8735475 0.7719485 0.32100838
0.1144266 631.283 449.0159 -0.001787124 0.906305 264.00922 -0.2598265 279.68124

sparse_resnet_denoiser/level_1/batch_normalization_14/FusedBatchNormV3 f4 [32]
00000000: 2f19 abbd ef4e 97bd 643f b7bd 2e17 aebd
00000010: 511f 16be 373d d1be dfa4 1dbd 95a4 afbe
00000020: a98b 09bd 72c2 91bd 4df5 77bd aeb7 63bd
00000030: f651 02bd 4645 62bd c5b2 98be c890 78bd
00000040: deba a4bd 386c 45bd a921 56bd c601 a2bd
00000050: 4a89 53bd 6818 78bd e85f dcbc 7fa3 7cbd
00000060: d3b1 44bd 6194 01bd a366 41bd 8fc5 3ebd
00000070: 5736 7dbe 2a97 a8bd 1eed 81bd 5669 e9bd
-0.08354413 -0.07388102 -0.08947638 -0.08500515 -0.14660384 -0.40867016 -0.03848731 -0.34305254
-0.033580456 -0.071171656 -0.06053667 -0.055595092 -0.031816445 -0.055241846 -0.2982389 -0.06068495
-0.080434546 -0.04819891 -0.052278195 -0.079104945 -0.0516446 -0.06057015 -0.0269012 -0.06167936
-0.04802115 -0.031635646 -0.047217023 -0.046575125 -0.2472776 -0.08231957 -0.06344055 -0.11397044

sparse_resnet_denoiser/level_1/batch_normalization_14/FusedBatchNormV31 f4 [32]
00000000: c14c f341 f900 a041 c521 3941 ae0f 0942
00000010: ea6f 2042 8102 1042 a08c ab40 a094 bf41
00000020: ddad fc41 a350 bf41 6469 d441 0dd2 e541
00000030: 61ac 3141 a587 0242 4b74 0742 e106 1b42
00000040: 701a 0642 7bcb d341 afdf d241 7665 fc41
00000050: b97a 0642 d748 fb41 81a9 8a41 3693 be41
00000060: 34e3 f441 23aa e340 a2a6 9341 994f e541
00000070: 9405 8242 77bd 4e41 c8aa ef41 6732 e241
30.412477 20.000475 11.5707445 34.265312 40.10929 36.002445 5.360916 23.94757
31.584894 23.914373 26.55146 28.727564 11.104585 32.632465 33.863567 38.756718
33.525818 26.474356 26.35922 31.549541 33.619846 31.410566 17.332766 23.82188
30.610939 7.1145186 18.456364 28.663866 65.010895 12.921256 29.95839 28.27461

sparse_resnet_denoiser/level_1/batch_normalization_15/FusedBatchNormV3 f4 [16]
00000000: 1a21 5dbe c11f 02c0 2c02 aebe 783a 40bf
00000010: c785 0ebf 2671 cebe 1f49 20be 95be 39be
00000020: 0f2b 9ebe c505 55bf 9cbd b0be e60f 17be
00000030: 6313 d4be e978 71be d852 1cbf 049d 1dbf
-0.21594658 -2.033188 -0.33986032 -0.75089216 -0.5567288 -0.403207 -0.15652893 -0.18139108
-0.30892226 -0.8321193 -0.3451966 -0.14752159 -0.4142104 -0.2358128 -0.6106391 -0.6156771

sparse_resnet_denoiser/level_1/batch_normalization_15/FusedBatchNormV31 f4 [16]
00000000: e4ac e63f c2da 9b40 0393 b83f 753c dc3f
00000010: 6542 2b41 220d 9d41 520d 3741 7078 f840
00000020: 7ce8 0042 7492 e040 b71c 5741 7577 1241
00000030: 7452 4841 9bf4 1241 03b5 7841 698d 3341
1.8021512 4.870454 1.4419864 1.720595 10.70371 19.631413 11.440752 7.764702
32.227036 7.0178776 13.44451 9.154164 12.52013 9.184718 15.544192 11.222024

sparse_resnet_denoiser/level_1/batch_normalization_16/FusedBatchNormV3 f4 [32]
00000000: a0cf 73be 1790 9cbe 4ef5 28bf ea20 b3be
00000010: 782e 47bf 2d11 95be 34d5 a0be e44c acbe
00000020: 269e a5be a2fd f2be 5d4f 96be 74dd a7be
00000030: 56a0 95be ca25 89be c48c 8fbe 1d31 9dbe
00000040: 4d97 8ebe f049 89be e191 91be dea5 89be
00000050: 2184 cfbe 0962 1bba f764 83be bcf4 cfbe
00000060: 3fc7 84be 5a3f debe 3fd6 d4be 6d11 ccbe
00000070: 7487 a4be 231e b439 337e 5ebe d885 a9be
-0.23809671 -0.30578682 -0.65999305 -0.3498605 -0.7780528 -0.29114667 -0.3141266 -0.33652413
-0.3234722 -0.4745913 -0.29357424 -0.32786143 -0.2922389 -0.26786643 -0.28037083 -0.30701533
-0.27849808 -0.26814222 -0.2843161 -0.2688436 -0.40530494 -0.0005927389 -0.25662968 -0.40616405
-0.25933263 -0.43407708 -0.41569707 -0.39857045 -0.32134593 0.0003435473 -0.21727829 -0.33109927

sparse_resnet_denoiser/level_1/batch_normalization_16/FusedBatchNormV31 f4 [32]
00000000: 8d3e 2c40 bf64 2c40 eb62 2740 141b 5e40
00000010: 172e 323f cd91 ed3f d9e6 5d40 71f2 4840
00000020: f2c4 b23f 0199 c33f 45b1 7340 f502 a53f
00000030: 61eb e13f b664 4340 8994 373f 8eea 6a40
00000040: 5c24 3940 2bda 5340 8db1 ee3f 0af0 1a40
00000050: 77a5 d83f 1fce d93e 4b97 1c40 9fa2 8e40
00000060: 7ea3 3b40 5494 1d40 0873 903f 5502 1540
00000070: 4e2d 4940 20ca 80be 9f56 3040 08d7 4940
2.6913178 2.693649 2.6154125 3.4704027 0.6960158 1.856012 3.4672148 3.1397974
1.3966353 1.5281068 3.8076947 1.2891527 1.7649957 3.053022 0.7171102 3.670566
2.8928442 3.310191 1.8647934 2.4209008 1.6925496 0.4254007 2.4467342 4.457351
2.9318538 2.4621782 1.1285105 2.3282673 3.1433902 -0.2515421 2.755287 3.1537495

sparse_resnet_denoiser/level_1/batch_normalization_17/FusedBatchNormV3 f4 [16]
00000000: 1145 32bf e3d6 79bf 555a ecbe c9f0 96bf
00000010: 94e0 31bf 448c 7dbf 44f9 fdbe 0eb3 dfbe
00000020: 5ec3 12bf bc1a 3fbf dcd1 07bf a102 2abf
00000030: e723 1dbf a2db 1abf 8cc9 81bf 2b6e 83bf
-0.69636637 -0.97593516 -0.46162668 -1.1792232 -0.69483304 -0.99042153 -0.49604237 -0.43691295
-0.57329357 -0.7465017 -0.53054595 -0.6641026 -0.6138291 -0.60491383 -1.0139632 -1.0267996

sparse_resnet_denoiser/level_1/batch_normalization_17/FusedBatchNormV31 f4 [16]
00000000: 3f58 b93f 6f42 bb3f d9ae 8e3f 8940 e03f
00000010: 7da0 4c40 6dd6 4041 04b1 be40 4f25 7340
00000020: 4cf0 1441 c90a 4a40 c690 fe40 aeca 1241
00000030: f7d6 4740 0886 9d40 6b5d d140 c58a 1340
1.4480056 1.4629649 1.1147109 1.7519695 3.1972954 12.05235 5.9591084 3.7991521
9.308666 3.1569083 7.9551725 9.174482 3.1224954 4.922611 6.5426536 2.3053448

sparse_resnet_denoiser/level_1/batch_normalization_18/FusedBatchNormV3 f4 [32]
00000000: f81e e6be 9584 33bf afb5 d3be 1183 5bbf
00000010: 2c9f abbe bb6b 8bbe 83db 47bf 3e45 dcbe
00000020: 4581 74b0 83b6 9cbe b136 1fbf 0220 bbbe
00000030: da0b 01bf 1f77 06bf 5190 1ebf 3027 0abf
00000040: 1040 eebe af0b 80b0 1b5c 0cbf 934f 44bf
00000050: 0f11 1dbf e857 e7be 906d 5ebf beec 17bf
00000060: b1e1 18bf e46f 20be b3f1 f7be b14d 37bf
00000070: 370c 98be ef94 0cbf d27b 14bf bbc3 713a
-0.44945502 -0.7012418 -0.4134955 -0.85746866 -0.33519876 -0.2723063 -0.78069323 -0.43021578
-8.8950386e-10 -0.30607995 -0.6219283 -0.36547858 -0.5040871 -0.52525514 -0.6193896 -0.53966045
-0.4653325 -9.316546e-10 -0.5482804 -0.7668392 -0.61354154 -0.45184255 -0.8688593 -0.59345615
-0.5971938 -0.15667683 -0.4842659 -0.7160292 -0.2969682 -0.54914755 -0.58001435 0.00092225865

sparse_resnet_denoiser/level_1/batch_normalization_18/FusedBatchNormV31 f4 [32]
00000000: a1f3 5140 f9b9 8d40 add7 6340 e81f a740
00000010: 4a12 4f40 b3ef 0c40 811b 4640 aea0 5240
00000020: 87f5 a03d c7c8 4740 8113 7440 b20d 1e40
00000030: 217d 2b40 63f5 6f40 09a6 1a40 9e3d 8540
00000040: 6fa8 6340 6bf7 af3d 7d54 b440 102b 7740
00000050: db7f 6440 01ca 9140 0cc3 9540 ff9a 6d40
00000060: 6634 9f3f b01a e93f df0d 5240 ddb7 8940
00000070: 0b86 e43f 2eaf 4d40 b581 3540 3f82 0bbf
3.280495 4.4289517 3.5600388 5.222645 3.2354913 2.20213 3.0954287 3.291057
0.078593306 3.1216295 3.8136904 2.469586 2.6795123 3.7493522 2.416384 4.1637716
3.5571554 0.08592113 5.6353135 3.8620033 3.5703037 4.5559087 4.6800594 3.7125852
1.2437866 1.8211269 3.2820966 4.3036942 1.7853407 3.2138171 2.8360417 -0.54495615

sparse_resnet_denoiser/level_1/batch_normalization_19/FusedBatchNormV3 f4 [16]
00000000: 1162 0dbf 0c5f 73b6 53f2 b7be f88c b0bf
00000010: d9fa 7dbe 6094 1ebf db2e 23bf 9689 3bbf
00000020: 4648 05bf fd95 66bf fd2c f0be 1abd 1ebf
00000030: 84da 1239 c6b6 b1be 450a 2ebf e9f9 49bf
-0.5522776 -3.6265146e-06 -0.35927066 -1.379302 -0.24802722 -0.6194515 -0.6374337 -0.73256814
-0.52063406 -0.90072614 -0.46909323 -0.62007296 0.00014005048 -0.34709758 -0.6798442 -0.7889696

sparse_resnet_denoiser/level_1/batch_normalization_19/FusedBatchNormV31 f4 [16]
00000000: cd5d 6c3f 3fa8 8536 653f 2a3f 4e3d c83f
00000010: c3fb 073f 57a5 4d40 e5fd c33f 057d 0440
00000020: ed5f a93f e2b9 3540 7504 0340 6c4e 3540
00000030: c9d7 c3b9 7a76 603f ce21 d23f 7e46 a93f
0.9233063 3.9832953e-06 0.6650298 1.5643709 0.5311853 3.2132165 1.5311857 2.0701306
1.3232399 2.8394704 2.047147 2.8329115 -0.0003735407 0.8768078 1.6416566 1.3224638

sparse_resnet_denoiser/level_1/batch_normalization_20/FusedBatchNormV3 f4 [32]
00000000: a647 423a 44f7 1e3a a247 06bf ddba 2cbf
00000010: 25b3 4abf 475f 99be e461 28bf 32a1 18bf
00000020: 7d87 1bbf 69e0 a3be 972b 82be 369e 57bf
00000030: 7671 92bf e001 02bf 4d7d 0e3a a0a4 6dbf
00000040: 333d 5abe 51cd 3abf decc 68be 19dc 1d31
00000050: 1f2d 0bbf f029 e6be e851 50ba 1b27 b2be
00000060: 781a 9cbf 612a 133a 22a7 6cbf 5bc3 24bf
00000070: df00 95be d4ab b6be 8649 78bf 4fde 4cb1
0.0007411189 0.0006064067 -0.52453053 -0.6747263 -0.791796 -0.29955503 -0.6577437 -0.59620965
-0.60753614 -0.3200715 -0.2542388 -0.84225786 -1.1440876 -0.5078411 0.00054355414 -0.9282932
-0.21312408 -0.7296954 -0.227344 2.2971618e-09 -0.54365724 -0.4495387 -0.00079467753 -0.3479546
-1.2195578 0.000561392 -0.92442524 -0.6436059 -0.29102227 -0.3567797 -0.9698719 -2.9812275e-09

sparse_resnet_denoiser/level_1/batch_normalization_20/FusedBatchNormV31 f4 [32]
00000000: 5463 2abf a560 11bf 2dbc 4840 6104 0741
00000010: 76ad 8340 ed14 3240 c2d2 e640 821a 6f40
00000020: 42d5 8140 bd0c 4440 2310 3040 2c39 9f40
00000030: 1063 a540 5fca 5240 bac6 00bf 1d6e 9b40
00000040: 97e0 e03f c06c f840 d906 da3f f54a 9ebe
00000050: 8e7d 2040 dc0d 9d40 ba98 393f d345 2240
00000060: 2474 0341 b602 02bf c528 8640 752b 3b40
00000070: 1525 8940 fbd0 9c40 7d00 2e40 3942 ca3e
-0.6655781 -0.5678809 3.1364853 8.438569 4.1149244 2.7825272 7.2132273 3.735993
4.0572824 3.0632775 2.750985 4.975729 5.1683426 3.2936018 -0.5030323 4.8571916
1.7568539 7.763275 1.703334 -0.30916563 2.5076632 4.907942 0.7249867 2.5355117
8.215855 -0.50785387 4.1924767 2.9245274 4.2857766 4.9005103 2.7187798 0.3950365

sparse_resnet_denoiser/level_1/batch_normalization_21/FusedBatchNormV3 f4 [16]
00000000: 2a72 7bbe 3bc5 afbe 6f51 11be a5c0 5abf
00000010: b666 97be 0d94 eebe d1c4 a0be c30d c2be
00000020: c5ff bfbe b6d1 0dbf 00de d5be be57 75be
00000030: d973 00be 0926 3fbe 85dc c8be 32dd adbe
-0.24555269 -0.34330162 -0.1419122 -0.854502 -0.2957055 -0.4659733 -0.3140016 -0.37901124
-0.37499824 -0.5539812 -0.41770935 -0.23959252 -0.12544192 -0.18666853 -0.39230743 -0.3395782

sparse_resnet_denoiser/level_1/batch_normalization_21/FusedBatchNormV31 f4 [16]
00000000: ba73 b73e 7af0 a13e 5bca 4a3e 20b0 343f
00000010: 5bc4 023f 9141 693f fc0c 0b3f d568 0c3f
00000020: 5099 023f a689 803f 3000 4f3f 6702 183f
00000030: 5877 523e 5fc6 953e e1e0 283f c5b8 cd3e
0.3583048 0.31628782 0.19803755 0.70581245 0.51080865 0.9111567 0.5431669 0.5484746
0.51015186 1.0042007 0.8085966 0.59378666 0.20553339 0.29252908 0.6596814 0.4018003

sparse_resnet_denoiser/level_1/batch_normalization_22/FusedBatchNormV3 f4 [32]
00000000: bed2 b639 eaa2 e6bd a520 dabd 66a8 35bf
00000010: bc0a 33ba 5c0b e0be 022c e0be a96c c3bd
00000020: ca1f 02be 5f0a c8bd bda3 ecbe 2f93 84b0
00000030: ca1a dfbe d366 9ebd 15a8 c6be 5bfa c3bd
00000040: 7e2c 13bf 7541 c0be 9cac c7bd 92e4 88be
00000050: 500e 18ba 0d89 e2b9 6bb1 58be 0c94 d6bd
00000060: b3e8 89be fd86 eabd 84e9 d2bd 382d aab9
00000070: 6263 b8bd 07a1 d539 f04f f0be a547 ffbd
0.0003487076 -0.11261542 -0.10650758 -0.7096008 -0.00068299077 -0.43758667 -0.43783575 -0.0954221
-0.12707439 -0.09767603 -0.46218672 -9.646096e-10 -0.43575126 -0.07734456 -0.3880011 -0.09569236
-0.57489765 -0.3754994 -0.097497195 -0.26736885 -0.00058004726 -0.0004320819 -0.2116143 -0.104774565
-0.26935348 -0.11451528 -0.10298446 -0.00032458617 -0.09003331 0.000407465 -0.46935987 -0.12464837

sparse_resnet_denoiser/level_1/batch_normalization_22/FusedBatchNormV31 f4 [32]
00000000: c378 14bf 1906 d640 f798 eb40 e47c a440
00000010: 4eb7 8d3f d22e 9440 d68a dd40 d4f2 0541
00000020: 6ab8 cf40 1036 fc40 381f 9b40 9bcb 7c3e
00000030: 776e a740 9477 0241 fea4 0a41 7151 0541
00000040: 8326 6340 f542 ec40 601a f240 70eb a540
00000050: 43a5 6c3f 91cc 313f 4279 8b40 40a8 eb40
00000060: 62cb ab40 a02d cf40 4fb4 e740 1667 0a3f
00000070: da9a f340 412b 2dbf f195 1540 e643 d840
-0.5799677 6.6882443 7.3624225 5.1402454 1.1071565 4.6307154 6.9231977 8.371784
6.4912615 7.8815994 4.847561 0.24687044 5.2322345 8.154194 8.665281 8.332383
3.5492256 7.3831735 7.5657196 5.18499 0.9243967 0.6945277 4.358552 7.3642883
5.368577 6.4743195 7.2407603 0.54063547 7.612653 -0.67644125 2.3372767 6.7582884

sparse_resnet_denoiser/level_1/batch_normalization_23/FusedBatchNormV3 f4 [16]
00000000: 7a96 ce38 a884 86bd 20f3 5cbd b7fc c8be
00000010: d20c 75bd 581d c9bd 9421 a4b7 1e53 7ebe
00000020: 15b2 42be 66df d0bd 96d9 81be a3e5 04bb
00000030: d233 95bd 3d90 1ebe d969 3738 2bc4 5dbe
9.850874e-05 -0.06568271 -0.0539428 -0.39255306 -0.05982668 -0.0982005 -1.956596e-05 -0.24836394
-0.19013245 -0.1019886 -0.25361317 -0.0020278476 -0.072852746 -0.1548471 4.372918e-05 -0.21656863

sparse_resnet_denoiser/level_1/batch_normalization_23/FusedBatchNormV31 f4 [16]
00000000: 5db9 16b9 b379 363d 7e8f 573d e666 8a3e
00000010: 54e9 763d d588 293e 78f5 0d38 495e 823e
00000020: dfe2 423e e3db 193e f929 c83e 3bae a43b
00000030: e508 c73d 5654 3e3e 6e35 9ab8 68e9 6b3e
-0.00014374168 0.044549655 0.05262708 0.2703163 0.060281113 0.16556104 3.384563e-05 0.2546256
0.19031857 0.15025286 0.39094523 0.0050256527 0.09718493 0.18586859 -7.353244e-05 0.23038256

sparse_resnet_denoiser/level_2/batch_normalization_25/FusedBatchNormV3 f4 [16]
00000000: ab4e 923a 3c40 f9b5 6050 98bc b2e6 8e3c
00000010: a5a2 273c 7610 8ab5 571e e6b6 d062 1db6
00000020: b34c 943b c184 a3b6 4ea9 0c33 409e 04b7
00000030: e2a2 273c 4e3e 2f3c 9f78 f5b5 773d bcb2
0.0011162361 -1.857064e-06 -0.018593013 0.017443988 0.010231649 -1.0286592e-06 -6.858066e-06 -2.345234e-06
0.004525745 -4.873233e-06 3.2750272e-08 -7.904659e-06 0.010231705 0.010696007 -1.8289028e-06 -2.1914031e-08

sparse_resnet_denoiser/level_2/batch_normalization_25/FusedBatchNormV31 f4 [16]
00000000: 0c6b fb3f bd3d 1842 b263 7d3f 27b7 ac3e
00000010: 7ce3 7d3f 77a3 a841 61a4 0c43 9d15 4042
00000020: 712a eb3e 3cbb c742 36c0 2bbf 70d4 2143
00000030: f4cf b543 2826 7c41 fddf 1542 8406 e63e
1.9642043 38.06029 0.9898025 0.33733484 0.9917524 21.079817 140.6421 48.021107
0.45930818 99.86569 -0.67090166 161.82983 363.62463 15.7593155 37.46874 0.44926846

sparse_resnet_denoiser/level_2/batch_normalization_26/FusedBatchNormV3 f4 [32]
00000000: c497 0eb8 1ea7 82be 1491 96bd c3d4 a5be
00000010: acb9 c9be 1fbb 8ebe b595 9dbe 5cfd dbbe
00000020: 32e1 f7be 7c31 a1a7 16f6 db36 4a92 40be
00000030: 050f aabe ec13 a9be e671 7dbe 1921 0bbf
00000040: c6dc 71a5 40c9 26bd ba50 b1be ad54 dcbe
00000050: be62 97be 2459 b2be 2684 8bbe 9037 cdbe
00000060: 7e50 07bf ae80 c62e 6358 6126 c782 babe
00000070: b1b6 00bf 7a4c 9ebe 9a66 84be 6d75 c6be
-3.399678e-05 -0.25518125 -0.0735189 -0.32388887 -0.3939947 -0.27877137 -0.3077828 -0.42966735
-0.48413998 -4.4740128e-15 6.555357e-06 -0.18805805 -0.33214584 -0.33023012 -0.2475048 -0.5434738
-2.0978219e-16 -0.04071927 -0.34631902 -0.43033352 -0.29567522 -0.34833634 -0.2724926 -0.40081453
-0.52857196 9.0268557e-11 7.8182343e-16 -0.364279 -0.50278765 -0.30917722 -0.2585953 -0.38761464

sparse_resnet_denoiser/level_2/batch_normalization_26/FusedBatchNormV31 f4 [32]
00000000: 34eb b53d e17e a540 5712 6c40 34cb fe40
00000010: bc60 0a41 07b6 0741 824a ff40 0c6a b840
00000020: 8bfe 2441 f3c5 7d3e c68c 88bc f38e b540
00000030: dfba 0841 bceb c440 9518 1b41 64fd a340
00000040: 146a 453c 3f4d 1840 4b8c 0e41 2e21 be40
00000050: a606 fa40 6c4f 2341 7eec 0441 f48a 9340
00000060: 124e 4441 fadd 0fbd cfb8 33bd 2985 c240
00000070: 8921 0041 6632 ca40 e403 1141 24ce 1d41
0.08882752 5.171738 3.6886194 7.962305 8.648617 8.48194 7.977845 5.762945
10.312144 0.24782543 -0.016668689 5.6737 8.545623 6.153776 9.693501 5.1246815
0.012049217 2.3797147 8.909251 5.9415503 7.8133116 10.20689 8.307737 4.610712
12.26906 -0.035123803 -0.04387742 6.078755 8.008187 6.318652 9.06345 9.862827

sparse_resnet_denoiser/level_2/batch_normalization_27/FusedBatchNormV3 f4 [16]
00000000: 6944 24be 4245 b6bf c7d6 29be d0e4 e63c
00000010: bbaa 8abe f7e0 64bf 4a0d 5cbf 4af5 66bf
00000020: 1192 23be 1d42 9cbf e6bb acbf ab34 2fbf
00000030: beda a3bf 9e2c 46bf 0906 fcbe 101c 98bf
-0.16041721 -1.4239886 -0.16585837 0.028185278 -0.27083382 -0.8940577 -0.8595778 -0.9021803
-0.15973689 -1.2207676 -1.3494842 -0.6843974 -1.280113 -0.7741183 -0.49223354 -1.1883564

sparse_resnet_denoiser/level_2/batch_normalization_27/FusedBatchNormV31 f4 [16]
00000000: 0fd2 a440 1765 2541 8918 0c40 c463 1a3f
00000010: 83ad fe3f 48d9 b341 3eda 0f41 a0ce 4241
00000020: f065 663f 8e0e 1f41 0ad9 ca40 2859 0741
00000030: 1955 f740 edb4 cf41 9c06 5441 df8e 2541
5.150642 10.33718 2.1889975 0.6030848 1.9896702 22.481094 8.990782 12.175446
0.89999294 9.941053 6.338994 8.459267 7.729138 25.963343 13.251614 10.347381

sparse_resnet_denoiser/level_2/batch_normalization_28/FusedBatchNormV3 f4 [32]
00000000: 4c6a 67bf 6e62 0abb 321a 60bf a08e 7cbf
00000010: 131d 5ebf 60fd 43bf 2138 a4bf 5b38 1dbb
00000020: bc9c 1c3b a5ed 84bb 6df6 5abf 5140 36bf
00000030: 4307 8fbf 1cc8 1abf 5ab4 59bf 7755 36bf
00000040: 188b 59bf 2892 30bf 2176 97bf 70be bcbf
00000050: 038d a3bf 6bb2 59bb 410a d0be 3097 25bf
00000060: 7c58 90ba d5a6 6bbf f0d9 05bf d579 ac3a
00000070: 8607 37bf bc77 42bf 7c17 4abf 6acb 12bf
-0.9039657 -0.0021115798 -0.8753997 -0.9865513 -0.86763114 -0.76558495 -1.2829629 -0.002398989
0.0023897132 -0.0040566497 -0.85532266 -0.7119189 -1.1174091 -0.6046159 -0.8504082 -0.7122416
-0.84977865 -0.68973017 -1.1832925 -1.4745617 -1.2777408 -0.0033217918 -0.40632823 -0.6468382
-0.0011012699 -0.9205144 -0.5228567 0.0013158867 -0.71495855 -0.7596395 -0.78942084 -0.57341635

sparse_resnet_denoiser/level_2/batch_normalization_28/FusedBatchNormV31 f4 [32]
00000000: 1bf8 8840 974f 513f 1c85 6e40 bceb 9d40
00000010: 3148 a640 3c67 9d40 b129 1f40 dd47 823f
00000020: b4ec 80bf fc04 c33f c237 6a40 bd83 6640
00000030: b256 3340 9eb3 4440 2c0d bf40 ed0f 9040
00000040: 81c7 a640 5615 7b40 c91f 3c40 69a6 3840
00000050: d362 9340 8904 a93f 5dfc 4740 eb74 8140
00000060: 629c f93e 8eb2 9440 5ae5 8240 040b 1bbf
00000070: d625 a140 9c45 b640 550f c140 8eb1 8940
4.2802863 0.8176207 3.7268744 4.935026 5.1963124 4.918852 2.4869196 1.0178181
-1.0072236 1.5235896 3.6596532 3.6017907 2.8021665 3.073463 5.970358 4.501944
5.2118535 3.9231772 2.93944 2.8851569 4.6058135 1.3204509 3.124778 4.045522
0.48752123 4.646796 4.090497 -0.60563684 5.0358686 5.695997 6.0331216 4.302924

sparse_resnet_denoiser/level_2/batch_normalization_29/FusedBatchNormV3 f4 [16]
00000000: 4c59 40bf 5617 48bf 4879 cebe f677 a0be
00000010: dc53 c3be fb99 8cbf 4889 cbbf 4822 8fbf
00000020: c11e afbe 7b54 a5bf 3dfa 26bf 4e8b 85bf
00000030: 8498 94bf 6412 23bf 1465 6abf 00d6 6fbf
-0.75136256 -0.7816061 -0.40326905 -0.31341523 -0.38149917 -1.0984491 -1.590127 -1.1182337
-0.3420315 -1.2916406 -0.65225583 -1.0433137 -1.1609044 -0.63699937 -0.9156048 -0.93685913

sparse_resnet_denoiser/level_2/batch_normalization_29/FusedBatchNormV31 f4 [16]
00000000: a38f 1740 bb01 1140 bdef c03f 596c 153f
00000010: d67b c43f 9b5e 5740 cc57 7c40 b2db 2640
00000020: e97a 353f e5ce ba40 4e2b bc3f 4c7f e340
00000030: 58ea 6740 ed50 4540 41d0 3541 f7f7 2840
2.368142 2.2657306 1.5073162 0.5836845 1.5350292 3.3651493 3.9428587 2.6071591
0.7089067 5.8377557 1.4700716 7.109289 3.6236782 3.0830643 11.363343 2.6401346

sparse_resnet_denoiser/level_2/batch_normalization_30/FusedBatchNormV3 f4 [32]
00000000: 11b0 48bf b333 813b 72f9 41bf 43f5 02bb
00000010: 752b 503b e64c a3ba 54b7 85bf f791 8abf
00000020: 6cb3 0f32 c5e2 71bf 9ed9 31be 36eb 2cbf
00000030: 4314 83bb b286 54bb 1922 64bf 6f28 34bb
00000040: a617 53bf b015 89bb 9824 89bf 7c88 643b
00000050: 863b 5e3b c061 5abf 26c6 93bf 9b20 8bbb
00000060: 5cd4 6f3b f265 8dbf c670 0f3b 4f0b 8abb
00000070: 7ae7 113b af1e fabe a6ae 63bb 5994 96bf
-0.78393656 0.0039429306 -0.7577125 -0.0019982613 0.0031764184 -0.0012458831 -1.0446572 -1.0825795
8.364491e-09 -0.9448665 -0.1736817 -0.67546403 -0.004000218 -0.0032428917 -0.8911453 -0.002748992
-0.8245796 -0.0041834936 -1.0714293 0.003487139 0.003390999 -0.85305405 -1.1544845 -0.0042458302
0.0036595082 -1.1046736 0.0021887287 -0.004212774 0.0022263215 -0.48851535 -0.003474155 -1.1764022

sparse_resnet_denoiser/level_2/batch_normalization_30/FusedBatchNormV31 f4 [32]
00000000: 0561 0040 4a97 f9bf d61a 7f40 c967 883f
00000010: 5e3c cbbf 979a 223f 6b99 9940 8027 7840
00000020: 27bf 27bf 8627 0e40 cbdd 8240 14fd e53f
00000030: f15e f93f 01d2 d43f fd17 ce40 c896 bd3f
00000040: 2a20 ec40 1c15 0740 e15b c440 7833 debf
00000050: 981b ddbf 2d7a 0440 19ca c240 1eae 0340
00000060: e472 edbf c3ab c140 38ca 95bf da75 0640
00000070: 99b3 9dbf 9162 6c40 cb7e e63f bbee 5040
2.0059216 -1.9499295 3.986013 1.0656673 -1.5877798 0.63517135 4.799978 3.877411
-0.6552605 2.2211623 4.0895743 1.7967858 1.9482099 1.6626588 6.4404283 1.481164
7.3789263 2.1106634 6.1362157 -1.7359457 -1.7274046 2.069957 6.08717 2.0575023
-1.8550687 6.052217 -1.1702337 2.100943 -1.2320434 3.693516 1.8007444 3.264571

sparse_resnet_denoiser/level_2/batch_normalization_31/FusedBatchNormV3 f4 [16]
00000000: d13f 01bf 5281 1039 03c0 d3be 17f9 14bf
00000010: b226 2bbf f0f9 9fbf b209 7cbf c6b4 93bf
00000020: b8bf e0be 5b48 7ebf 193c 8dbf 938b a4bf
00000030: 3e30 85bf 43af 26bf 1034 c3bf 3635 8fbf
-0.50488 0.00013781086 -0.4135743 -0.5819258 -0.6685592 -1.249815 -0.98452294 -1.1539543
-0.4389627 -0.99329156 -1.1033965 -1.2855095 -1.0405347 -0.6511118 -1.5250263 -1.1188114

sparse_resnet_denoiser/level_2/batch_normalization_31/FusedBatchNormV31 f4 [16]
00000000: c5a7 3d3f c839 66b9 9de3 863f 0951 253f
00000010: 364a bf3f 46a9 d33f 4441 1340 47c8 db3f
00000020: 657d 173f 6bc4 1f40 024e ea3f 248d 5840
00000030: e2f5 b43f c516 963f bbfc 8440 0509 ed3f
0.7408412 -0.00021956034 1.0538212 0.64576775 1.4944522 1.6536033 2.3008585 1.7170495
0.5917571 2.4963634 1.8305056 3.3836145 1.4137537 1.1725699 4.155851 1.8518378

sparse_resnet_denoiser/level_2/batch_normalization_32/FusedBatchNormV3 f4 [32]
00000000: 7c0f 333b 5fc7 06bb 202c e2bf f80c 653b
00000010: e91f 413b ae24 38bf 40ad 2b3b f440 1bbb
00000020: 9ccc 63bb 9aaa 2fbf f34c 48bf 73a2 28bb
00000030: 9549 543b 405e 45bb 5fa0 58bf 345e 93bf
00000040: aa92 bcba 0898 48bb 0759 a1bf 51ed 54bb
00000050: ade9 35bb 6f3e 3d3b ca61 39bb b582 50bb
00000060: 9239 873a 9c9f 4bbb a1c9 54bf 3b9d aeb9
00000070: eeaf 2ebb ae64 a6bf 932d fdba 5ed3 63bf
0.0027322462 -0.0020565612 -1.7669716 0.0034950357 0.0029468483 -0.7193097 0.0026195794 -0.0023689838
-0.0034759408 -0.6861969 -0.78242415 -0.0025731593 0.003239249 -0.0030115992 -0.84619707 -1.1513124
-0.0014386971 -0.0030608196 -1.2605294 -0.0032490084 -0.002775769 0.0028876325 -0.0028287047 -0.0031816189
0.001031684 -0.0031070476 -0.8312016 -0.00033305012 -0.0026655155 -1.2999475 -0.001931595 -0.88994396

sparse_resnet_denoiser/level_2/batch_normalization_32/FusedBatchNormV31 f4 [32]
00000000: 33c9 efbf 8467 b63f c6d9 6d41 4ae7 17c0
00000010: e30e ffbf f92c 0840 ac3e e4bf 8935 d83f
00000020: 5e96 1140 af6c be40 e497 ad40 a92d e93f
00000030: c055 0ac0 3275 fa3f 779e 0941 93de 6140
00000040: 6aca 803f 9ddb 0540 fdc5 be40 1527 0d40
00000050: 7903 f23f 7953 02c0 a0c6 fc3f 4b3c 0c40
00000060: b252 3abf cc22 0640 88b2 0140 08b2 743e
00000070: 84dc e43f 652d fe40 b77e ad3f e1a5 bf40
-1.8733276 1.425034 14.865667 -2.3734918 -1.9926418 2.127745 -1.7831626 1.6891338
2.2748027 5.950767 5.4247913 1.8217059 -2.1614838 1.9567015 8.601188 3.5292099
1.0061772 2.0915291 5.9616685 2.2055104 1.890731 -2.0363448 1.9748116 2.19118
-0.72782433 2.0958738 2.0265217 0.23896039 1.7879796 7.9430413 1.3554295 5.988999

sparse_resnet_denoiser/level_2/batch_normalization_33/FusedBatchNormV3 f4 [16]
00000000: efee 31bf 4aee c4be d312 97b8 931e ffbe
00000010: 2924 02bf feb8 b7bf e5bd acbe 9469 80bf
00000020: 26c5 c2be 330e fdbe 0dc5 28bf fbcb 69bf
00000030: 79b6 37bf 7e0a 2bbf f90a 3cbf 0c81 b8bf
-0.6950521 -0.3846305 -7.2037474e-05 -0.49828014 -0.50836426 -1.435333 -0.33738628 -1.003222
-0.38041037 -0.49424896 -0.65925676 -0.91326874 -0.71762806 -0.66812885 -0.7345424 -1.4414382

sparse_resnet_denoiser/level_2/batch_normalization_33/FusedBatchNormV31 f4 [16]
00000000: 624c 283f 03ea 003f cd36 3f39 685a e93e
00000010: 5b7a 723f 3cb0 be3f f088 263f c9d8 7c3f
00000020: da4f d13e a658 593f a53c 5d3f d269 cd3f
00000030: 1921 2e3f b7dc 453f bc5d 8e3f c788 ce3f
0.6574155 0.50357074 0.00018235594 0.45576787 0.9471795 1.4897532 0.650527 0.9876829
0.40881234 0.8490089 0.8642066 1.6047919 0.68019253 0.7728991 1.1122355 1.6135491

sparse_resnet_denoiser/level_2/batch_normalization_34/FusedBatchNormV3 f4 [32]
00000000: 54b5 90bc a455 dbbe a3aa c2be 7d10 a7ba
00000010: 626b fdbd ed53 88ba 8845 44be 14d4 123a
00000020: 68af 36be ed4a 1f31 8669 fab9 fa7b 813a
00000030: 180a 793a 9686 3fba 1e62 0ebe 36a5 16ba
00000040: 4182 56be cbf8 25b1 a229 583a 1fef 883a
00000050: 27ee 90ba ea04 2e31 5355 c939 ab25 11be
00000060: 3985 32bf 67cc 3d3a 9e0f a73a a8d4 643a
00000070: ce1d ac38 1f24 703a 6b87 11bf 8097 15be
-0.017664589 -0.42838776 -0.3802081 -0.0012746003 -0.12373997 -0.0010400988 -0.19167149 0.000560106
-0.1784035 2.3180136e-09 -0.00047762337 0.0009878867 0.00095001 -0.00073061266 -0.13904616 -0.0005746664
-0.20948125 -2.4152083e-09 0.000824595 0.001044724 -0.0011057303 2.5323126e-09 0.0003840128 -0.14174525
-0.6973453 0.0007240236 0.0012745743 0.0008729198 8.207151e-05 0.0009160656 -0.56847256 -0.14608574

sparse_resnet_denoiser/level_2/batch_normalization_34/FusedBatchNormV31 f4 [32]
00000000: 5e28 cf40 7aa0 a140 3401 ea40 021f ba3f
00000010: d764 4a41 4e73 9b3f 5528 f540 3933 29bf
00000020: 1c70 5c41 eddf d7be 2a13 123f 5fda 8dbf
00000030: e59e 8cbf f08b 573f 1a34 2241 d213 2b3f
00000040: 01d5 0441 0dcf df3e 32e0 71bf ad4a 98bf
00000050: 404a a23f e096 e5be c61f e8be 71ac 2741
00000060: fd71 f23f 2776 5bbf de38 b3bf 6738 82bf
00000070: bb55 c9bd 146e 87bf 7d67 c83f f8aa 0641
6.4736776 5.0508394 7.312647 1.4540713 12.649619 1.2144563 7.6611733 -0.66093785
13.77737 -0.4216303 0.5706049 -1.1082267 -1.0985991 0.841979 10.13772 0.6682712
8.302003 0.43712655 -0.9448272 -1.1897789 1.2678909 -0.4484167 -0.4533674 10.4796
1.8941036 -0.8572716 -1.400173 -1.0173463 -0.09830805 -1.0580468 1.5656582 8.41674

sparse_resnet_denoiser/level_2/batch_normalization_35/FusedBatchNormV3 f4 [16]
00000000: fe03 97be 49e0 49b7 c329 76bc e39f 03be
00000010: b780 a036 3355 2cbe accb 41bb 341a 6cbe
00000020: 5b2f 54b9 a32c 3838 1aba 08b9 6675 7ebe
00000030: 9df2 90be 8c08 64be ba74 07be 3c9e 26be
-0.29495233 -1.2032754e-05 -0.015024605 -0.1285396 4.783356e-06 -0.16829376 -0.002957086 -0.2305687
-0.00020235537 4.391059e-05 -0.00013039299 -0.24849471 -0.283101 -0.22268885 -0.13228121 -0.16271299

sparse_resnet_denoiser/level_2/batch_normalization_35/FusedBatchNormV31 f4 [16]
00000000: 3fbc 7c3e c126 8437 8086 1b3d 5236 e33d
00000010: 0d86 15b7 1e39 1b3e 0dd5 ba3b b420 613e
00000020: ea06 6439 652f 9eb8 903b 3339 4a53 b03e
00000030: a3d9 4a3e 4ca4 393e d300 333e 9fb4 183e
0.24681185 1.5753672e-05 0.037970066 0.11094345 -8.912303e-06 0.15158507 0.005701667 0.21985132
0.0002174635 -7.542855e-05 0.00017092959 0.34438545 0.19809584 0.1812908 0.17480783 0.14912651

sparse_resnet_denoiser/level_3/batch_normalization_37/FusedBatchNormV3 f4 [16]
00000000: e0e3 8eb3 7c94 92b9 6c23 cbb2 9499 7f33
00000010: 7746 813b 9c4b 8f31 3041 25b3 f6cb a8b2
00000020: 9479 a7b7 c178 0534 13fb 89b3 f3e4 c032
00000030: 9b7d 7d33 0aa6 8f39 1e6f 8b3c 743b fb3a
-6.6538405e-08 -0.0002795792 -2.3648418e-08 5.9511493e-08 0.0039451676 4.1704435e-09 -3.8476344e-08 -1.9650525e-08
-1.9964566e-05 1.243052e-07 -6.42523e-08 2.2455856e-08 5.902039e-08 0.00027398794 0.017020758 0.0019167499

sparse_resnet_denoiser/level_3/batch_normalization_37/FusedBatchNormV31 f4 [16]
00000000: efaa 55be 71be 5e3d 2796 9dbd 8333 453e
00000010: f0dc ce3e cc0e 553c 9711 07be c02d 84bd
00000020: 15dc 013e 487c d03e f1ab 59be 1ffe 953d
00000030: 7ab4 443e eea7 2541 d233 f542 13f0 1a44
-0.20865987 0.054380838 -0.07694655 0.19257931 0.40402937 0.013004016 -0.13190304 -0.064540386
0.12681611 0.4071982 -0.21256997 0.073238604 0.19209471 10.353498 122.60121 619.75116

sparse_resnet_denoiser/level_3/batch_normalization_38/FusedBatchNormV3 f4 [32]
00000000: 40d0 a2bd 852f 22be f7e7 09bf fe7e f8a5
00000010: d38e e32e ba89 e525 fb33 aabd a0f3 8ea5
00000020: 76df 8bae 8380 39bd 1d07 89bd 6a74 3d25
00000030: 1214 eabd ed94 98bd 4705 0ba6 96ef f7bc
00000040: fa14 c4bd a5a5 a8be 685d 15bd 4016 e8be
00000050: c26d 8dbd 0788 d524 7a56 32ad 9285 4db8
00000060: b439 6dad 81cc 3e25 df05 1626 4b42 e2bd
00000070: a8b8 ed2e 3261 1025 0b14 152f 5512 1dad
-0.07949877 -0.1583844 -0.53869575 -4.3107195e-16 1.03481355e-10 3.9818495e-16 -0.08310696 -2.479816e-16
-6.360683e-11 -0.045288574 -0.0669081 1.643258e-16 -0.11429609 -0.0745028 -4.8232465e-16 -0.03026561
-0.095743135 -0.32938877 -0.036466032 -0.45329475 -0.069057 9.2604464e-17 -1.013733e-11 -4.9000206e-05
-1.3484703e-11 1.6549162e-16 5.204966e-16 -0.11047801 1.0810314e-10 1.252294e-16 1.3558592e-10 -8.928487e-12

sparse_resnet_denoiser/level_3/batch_normalization_38/FusedBatchNormV31 f4 [32]
00000000: a9c6 8f41 fe5e 0842 4bad 4441 8ff1 293e
00000010: 9d9e a9be 1541 1cbe e1c6 b341 29e4 c73d
00000020: 4ec0 4b3e 91e2 b642 f6fd 9141 ec63 89bd
00000030: c1fc 1541 4f90 1a41 02cb 3e3e 2cc8 0141
00000040: be45 8040 5d99 e741 38bf 7941 84ff 5441
00000050: 5945 8d41 f952 1bbd f389 013d 6833 8f3f
00000060: 3bdf 333d db2b 84bd 8a51 54be b646 3c41
00000070: e806 b7be 157b 51bd a61b e0be 2a34 ee3c
17.972002 34.092766 12.292308 0.16596054 -0.33128825 -0.15259202 22.472109 0.09760315
0.19897577 91.44251 18.249004 -0.06708512 9.3742075 9.660232 0.18632129 8.11137
4.0085135 28.949884 15.609184 13.312382 17.658861 -0.037920926 0.0316257 1.1187563
0.04391406 -0.06453677 -0.2073423 11.767263 -0.35747457 -0.05114277 -0.43771094 0.029077608

sparse_resnet_denoiser/level_3/batch_normalization_39/FusedBatchNormV3 f4 [16]
00000000: 1327 1cb8 f3a3 65bd c1b3 beb8 5cc6 34be
00000010: 255e 83be bc7c 46be 7bee 73bf db55 3938
00000020: aedc 6db7 1388 88be 9f79 abb7 10dd 1638
00000030: 16a1 f0be d285 ba35 77b8 f0b8 643e 5637
-3.722969e-05 -0.056064557 -9.093388e-05 -0.17653793 -0.25657764 -0.1938352 -0.9528577 4.4187396e-05
-1.4177682e-05 -0.26666316 -2.0441423e-05 3.5968667e-05 -0.469979 1.3897027e-06 -0.00011478451 1.276992e-05

sparse_resnet_denoiser/level_3/batch_normalization_39/FusedBatchNormV31 f4 [16]
00000000: 2415 323b a6c4 c33e 1cbd 7c3a e9fd 8941
00000010: 902e 2140 ebb1 6d40 1f13 1240 6ecb b5ba
00000020: 2091 993a da0f 0441 b6bb a83a c4b2 52bb
00000030: ed4d 8c40 6e23 a1b7 7bae e53a e40c f5b9
0.0027173245 0.38235968 0.00096412166 17.24898 2.518467 3.7139843 2.282417 -0.0013869831
0.0011716224 8.25387 0.0012873325 -0.003215001 4.3845124 -1.9209194e-05 0.0017523313 -0.00046739646

sparse_resnet_denoiser/level_3/batch_normalization_40/FusedBatchNormV3 f4 [32]
00000000: a8a9 e4bd 8980 25af 13ab 6039 d164 9dbd
00000010: bdda e935 73cc 17bf 7411 19b0 6029 d1b6
00000020: 7aa8 3d30 fe6f e5af 7674 4dae 9ddb b4bd
00000030: f9e9 82be 64a4 5ebf 37a6 e7ae 40a3 1bbe
00000040: be01 36b9 886c 6bbe fa39 cbbe 46fe c338
00000050: 5517 cab7 b2a8 d6be 0597 4a2f b74e 8d2e
00000060: 3d5c a42f 2c37 a9be 24b6 dab8 64b5 9ebe
00000070: f862 ce2f 6750 2bb0 528c 792f bbf8 fbbd
-0.11165172 -1.5052327e-10 0.00021426035 -0.07685245 1.7423514e-06 -0.5929634 -5.568588e-10 -6.233502e-06
6.899722e-10 -4.1734433e-10 -4.671504e-11 -0.088309504 -0.25569132 -0.8696959 -1.05341895e-10 -0.15198994
-0.00017357522 -0.2299062 -0.3969267 9.345687e-05 -2.4091141e-05 -0.4192558 1.8425446e-10 6.42592e-11
2.9896965e-10 -0.33049905 -0.000104289764 -0.30997765 3.7541503e-10 -6.2323696e-10 2.269627e-10 -0.12303301

sparse_resnet_denoiser/level_3/batch_normalization_40/FusedBatchNormV31 f4 [32]
00000000: 0a52 9140 6e12 2f3d 9fbe c7be a910 0b40
00000010: 9321 4fbb c617 9040 57b2 133e 2672 3c3c
00000020: bec3 39be ca8e e93d 0f7a 473c 385e 3040
00000030: 8524 c340 ed29 0b40 ee0e f13c 52ab af3f
00000040: 2457 a43e a857 c840 4703 8640 fa0c 32be
00000050: 187e 2e3d 4811 3f40 590a 4dbd d889 8bbc
00000060: 0f33 a3bd b24a 9d40 44a8 3c3e 97f7 c53f
00000070: ceef cbbd 72c9 2b3e 146b 7ebd d492 4740
4.5412645 0.042742185 -0.3901262 2.1728919 -0.0031605705 4.502902 0.144235 0.0115018245
-0.18141076 0.11404188 0.012175097 2.7557507 6.098208 2.174434 0.029426064 1.3724158
0.32097733 6.2607 4.1879 -0.17387763 0.04260072 2.9854298 -0.050058696 -0.017033502
-0.07968723 4.915368 0.18423563 1.5466183 -0.099578485 0.16776064 -0.062113836 3.1183367

sparse_resnet_denoiser/level_3/batch_normalization_41/FusedBatchNormV3 f4 [16]
00000000: 1fd1 0ab9 d176 16bd 53ba d938 0ea1 3eba
00000010: 6b03 1cbe 8b93 a8b8 49ff 53be 7ff6 37b9
00000020: 7341 6a37 9549 3439 9156 6abe e6ed 5039
00000030: 6a08 8bbe 3db5 5d39 8c63 04be 1aad 43be
-0.00013238609 -0.036734406 0.00010382072 -0.0007271924 -0.15235679 -8.038346e-05 -0.20702852 -0.00017544067
1.39627255e-05 0.00017193549 -0.22884585 0.0001992505 -0.27154857 0.00021143719 -0.12928599 -0.19109002

sparse_resnet_denoiser/level_3/batch_normalization_41/FusedBatchNormV31 f4 [16]
00000000: 3c07 973a e411 f83d bc9a 2fba 892e 873c
00000010: 7a6c 813f 2c9e e039 ccdf b63e 2161 2a3b
00000020: b514 2cb9 3f67 7dba 9973 bf3f 410a 89bb
00000030: 442c 0540 9758 5fba 3c95 823f 4b9b 913f
0.0011522542 0.12112787 -0.00066987774 0.016501682 1.011123 0.00042842457 0.35717618 0.0025997835
-0.00016410912 -0.0009666569 1.4957153 -0.0041821306 2.0808268 -0.0008519976 1.0201793 1.1375517

sparse_resnet_denoiser/level_3/batch_normalization_42/FusedBatchNormV3 f4 [32]
00000000: 5a61 b4bd da98 80be ff01 0838 21d0 21b8
00000010: d342 0abf 09a1 2eb7 dbce 032f 11d2 56b8
00000020: 5fb5 bcbd 4630 9abd dee9 d7bd c762 85bd
00000030: cc3f 75b8 d59f a2bd 3df7 83bd 3633 6bb8
00000040: 2341 99bd c8a9 00b0 a848 15bd 4e00 0cb0
00000050: 5af5 9fbd 0745 96bd 5e83 6dbe 67b3 af38
00000060: 4608 b22e ea32 c2bd 8181 65bf ed03 71bd
00000070: effb 3fb7 8754 1839 dabe b2b8 30d7 3d36
-0.08807631 -0.25116616 3.2426786e-05 -3.8579226e-05 -0.54008216 -1.0408702e-05 1.198787e-10 -5.1217216e-05
-0.09214281 -0.07528739 -0.105426535 -0.06512981 -5.8471967e-05 -0.07940642 -0.06443641 -5.607606e-05
-0.07483127 -4.68074e-10 -0.036446244 -5.0932136e-10 -0.07810469 -0.07337385 -0.23194644 8.3780666e-05
8.0959725e-11 -0.09482367 -0.8965073 -0.058841635 -1.1443145e-05 0.00014527338 -8.52325e-05 2.828845e-06

sparse_resnet_denoiser/level_3/batch_normalization_42/FusedBatchNormV31 f4 [32]
00000000: 7a0f 8e40 fdce a040 0438 bbbd e821 de3d
00000010: 7991 5a41 abe1 f63c b18d 52bd c59f 0f3e
00000020: 984f 8d40 c402 7040 b787 8540 38ea 8c40
00000030: c3f5 283e ee09 ac40 2cbb 7c40 8fdc 203e
00000040: 9550 8540 25ae 493e 861a d440 ad50 5a3e
00000050: df64 8640 f790 cb40 5226 3541 7533 6ebe
00000060: 4b27 0dbd ffc5 a140 9138 1341 a17d 9f40
00000070: 2065 063d fe45 c9be a1a5 713e 4f9b 03bc
4.439389 5.025267 -0.091415435 0.10846311 13.660516 0.030136904 -0.05140466 0.14025791
4.415966 3.7501688 4.1728168 4.403591 0.165 5.376212 3.948924 0.15709136
4.1660867 0.19695337 6.6282377 0.21319838 4.1998134 6.361446 11.321856 -0.23261817
-0.0344613 5.0554194 9.20131 4.9840856 0.032811284 -0.39311212 0.23598339 -0.008032634

sparse_resnet_denoiser/level_3/batch_normalization_43/FusedBatchNormV3 f4 [16]
00000000: ca7d 48b5 b745 41bd 4824 8dbe a1b3 d036
00000010: f8fa 30be d643 10b8 356e 71be f529 f7bd
00000020: bac5 d9bc 81a1 19be 171a 2abe 8051 8eb9
00000030: 6290 b6be 1673 f3b5 4bc9 ecbd c899 e7bd
-7.4688853e-07 -0.047185626 -0.27566743 6.2197946e-06 -0.17283237 -3.4395453e-05 -0.23577197 -0.120685495
-0.026583541 -0.15003015 -0.16611515 -0.00027145073 -0.3565703 -1.8138405e-06 -0.11561831 -0.11308628

sparse_resnet_denoiser/level_3/batch_normalization_43/FusedBatchNormV31 f4 [16]
00000000: 3b27 7e36 eb44 ca3d 69e2 c43f e678 e4b8
00000010: 3a5b 893f eacb da38 ca01 a63e a1a4 bd3f
00000020: e340 983e 6051 393f 18cf 6b3f 36ed ad3b
00000030: a153 d93f 19d2 9736 6a0e 133f b0fa 1e3f
3.7871785e-06 0.09876426 1.5381595 -0.00010894406 1.0730965 0.00010433032 0.3242324 1.4815866
0.29737005 0.72389793 0.92112875 0.0053078188 1.6978647 4.5246093e-06 0.5744387 0.6210127

sparse_resnet_denoiser/level_3/batch_normalization_44/FusedBatchNormV3 f4 [32]
00000000: 7294 dfaf 8c04 4dbf 1089 532f 6cc8 cabd
00000010: c7c3 b6bf 1547 8aaf e114 a9b8 0b83 b7be
00000020: 526a a2bd 65e1 102d 007e b1ad 12fe e736
00000030: 4785 feaf a26c 1abf 1732 6eaf b167 40bd
00000040: 4acf a4bc 83f9 9cbd 4ed1 28b7 770e 5eae
00000050: c88f 3bbf cd79 0f30 2136 06c0 e9f4 e0ae
00000060: 59ae f22f 8afc e12f 5016 662f e4f5 eb2f
00000070: 70db 0fae 783a 6cb8 8076 8fae fc51 adaf
-4.066894e-10 -0.80085063 1.9239033e-10 -0.09901509 -1.4278497 -2.515256e-10 -8.062437e-05 -0.35842165
-0.07930435 8.2355e-12 -2.0178526e-11 6.913914e-06 -4.629703e-10 -0.6032201 -2.166377e-10 -0.046973888
-0.020118374 -0.07664778 -1.0062313e-05 -5.0489803e-11 -0.7326627 5.2196186e-10 -2.0970538 -1.02298454e-10
4.4143425e-10 4.11067e-10 2.0926305e-10 4.2920967e-10 -3.2709335e-11 -5.6321238e-05 -6.523937e-11 -3.152677e-10

sparse_resnet_denoiser/level_3/batch_normalization_44/FusedBatchNormV31 f4 [32]
00000000: 0db2 2c3e 8d17 2241 74f6 a4bd d113 9640
00000010: 2762 7141 8cd3 dc3d f2d1 5f3e 730d 8f41
00000020: 8266 6440 eef1 6cbb 14e1 143c 21e8 9ebc
00000030: 4923 4b3e fcae c440 e691 c13d a97b 8d40
00000040: f7f6 c840 e118 8340 a11a e63c 1230 b13c
00000050: 34cb 1841 b879 64be 0848 2c41 590e 313d
00000060: b1ff 40be 8344 39be 0312 b6bd 51b1 38be
00000070: 1b32 6c3c 177c 1a3e 37a8 e53c ccc2 073e
0.16864796 10.13075 -0.0805482 4.689919 15.086463 0.10782537 0.21857432 17.881567
3.5687566 -0.0036154944 0.009086866 -0.019397797 0.19837679 6.1463604 0.09451656 4.421345
6.280147 4.096787 0.02808887 0.021629367 9.54961 -0.22312057 10.767586 0.043226574
-0.18847539 -0.18092541 -0.08890154 -0.18036391 0.014416243 0.15086399 0.028034313 0.13257903

sparse_resnet_denoiser/level_3/batch_normalization_45/FusedBatchNormV3 f4 [16]
00000000: 4772 c8bd eaaf 79bd 1833 90be 84cc f3bd
00000010: f38c cebe bf07 95bd 7128 33be a53d c7bd
00000020: 86ab a8bd a6cb 87b8 f28b 19be f04e 68be
00000030: 12ca 79be 9b96 a4bd 634f edbd f666 ecbe
-0.09787422 -0.06095878 -0.2816398 -0.11904243 -0.4034191 -0.07276868 -0.17495896 -0.09728555
-0.082358405 -6.475234e-05 -0.14994791 -0.22686362 -0.2439349 -0.08036538 -0.115874074 -0.46172303

sparse_resnet_denoiser/level_3/batch_normalization_45/FusedBatchNormV31 f4 [16]
00000000: ec00 ab3e fc6a e53d 13bb 883f 49f1 9f3f
00000010: 4a16 f53f 45e1 2e3e bee1 563e 597e 943f
00000020: 3ca3 093f cbcd a339 abc3 393f 8b23 2940
00000030: 2e0f 6c3f 1979 453e d57d f03e e52b 0540
0.3339914 0.11202046 1.068209 1.2495509 1.9147427 0.17078121 0.20984551 1.1601058
0.537647 0.0003124311 0.7256419 2.6427944 0.9221066 0.19284476 0.46971002 2.080804

sparse_resnet_denoiser/level_3/batch_normalization_46/FusedBatchNormV3 f4 [32]
00000000: 26f5 30bd d7aa 65b0 15bd 0739 db52 912e
00000010: 8aba 0ea6 3cee b4af ed03 2730 7a9e ceae
00000020: 23a8 89b7 9047 3430 3ad1 78be 1e45 c4af
00000030: 193f c3b8 46a5 cf38 43a6 02b7 5880 7dbd
00000040: 8a90 b838 5172 d4be ad5a 7abe cad2 7abd
00000050: 88e8 b6a5 687e 60bd 23cd ed2f e3e4 d736
00000060: 58d4 6bbd 1085 36b9 637f 352f f49e 05b9
00000070: 1198 0ea7 9fe5 7ebf f74c deb4 d584 33b0
-0.04320254 -8.355249e-10 0.00012945042 6.608555e-11 -4.9518954e-16 -3.2911085e-10 6.0759825e-10 -9.3959465e-11
-1.6409967e-05 6.5585315e-10 -0.24298564 -3.5701303e-10 -9.3100774e-05 9.901314e-05 -7.787315e-06 -0.061889976
8.800726e-05 -0.41493466 -0.24448653 -0.06123618 -3.1729537e-16 -0.05480805 4.3255807e-10 6.4341452e-06
-0.057575554 -0.00017406442 1.6507111e-10 -0.00012743083 -1.9788894e-15 -0.99569124 -4.1406722e-07 -6.5308586e-10

sparse_resnet_denoiser/level_3/batch_normalization_46/FusedBatchNormV31 f4 [32]
00000000: 253b 8c40 2fcd 753e ca33 81be 20b0 9ebc
00000010: ad30 b13c 5579 d43d a062 3bbe 0a91 eb3c
00000020: 6f35 013d e320 46be a1ac a340 2c01 da3d
00000030: 7d5d 2f3e ee30 47be a050 713c 4b30 9c40
00000040: 314e 25be da49 1c41 418e 0a41 94ae 4140
00000050: 7918 6b3c 2469 7f40 4aca 01be 5c7e 56bc
00000060: 9d12 a840 8822 a93e e7ee 47bd ab3d 723e
00000070: 53ea af3d 8c1f d040 12b0 513a 8c8a 403e
4.38222 0.24004053 -0.25234824 -0.019371092 0.021629656 0.10374705 -0.18299341 0.028755683
0.0315451 -0.19348483 5.114823 0.10644755 0.17125507 -0.19452259 0.014728695 4.880895
-0.16143109 9.76803 8.65973 3.0262804 0.014349096 3.9907923 -0.12674823 -0.01309165
5.252272 0.33034158 -0.04881182 0.23656337 0.08589616 6.503851 0.0007998954 0.18802851

sparse_resnet_denoiser/level_3/batch_normalization_47/FusedBatchNormV3 f4 [16]
00000000: f4b0 59bd ca02 44bd 3e4d 5f39 989e 59bd
00000010: 9704 87be 6966 1bbd 1745 9dbd 6474 2ab8
00000020: 3bb5 3dbd 2bd9 01b8 28c4 0fbd 2ab9 9fb7
00000030: 22c2 7937 04ab 0dbd a450 8bbd da3a 6a37
-0.05314727 -0.047854222 0.00021295712 -0.053129762 -0.2637069 -0.037939463 -0.076791935 -4.0639556e-05
-0.046315413 -3.095825e-05 -0.03509918 -1.90405e-05 1.4886757e-05 -0.03458692 -0.0680249 1.3961189e-05

sparse_resnet_denoiser/level_3/batch_normalization_47/FusedBatchNormV31 f4 [16]
00000000: baf8 233e 8394 a93d 5ebc 53ba b793 fd3e
00000010: 3af8 923f 22f7 b23d 7ff2 b33d 2214 fe39
00000020: 2a64 923e 4ca1 1c39 1093 103e 1795 6839
00000030: ae07 6cb8 4e33 a43d e062 783e a0f2 83b8
0.1601285 0.082802795 -0.000807708 0.4952676 1.1482003 0.08738543 0.08786487 0.00048461655
0.28592044 0.00014937407 0.141186 0.00022180784 -5.6273937e-05 0.08017598 0.24256468 -6.291759e-05

sparse_resnet_denoiser/level_4/batch_normalization_49/FusedBatchNormV3 f4 [16]
00000000: 90ed 12bd 3bec 2e3c 9a6c a63c 2189 0bb7
00000010: 231c 2c38 99f3 2ebb 7587 0b39 674f 8833
00000020: f0ce 4c3c 8b56 b4bb ce1b cc38 15dd 373d
00000030: 610f 5f39 3c3c 49b8 7ec7 85bc 27e2 83bb
-0.03587109 0.010676439 0.020315457 -8.316973e-06 4.10342e-05 -0.0026695488 0.00013306535 6.347437e-08
0.01250051 -0.005503481 9.732657e-05 0.044888575 0.00021272666 -4.7978232e-05 -0.016330477 -0.004024762

sparse_resnet_denoiser/level_4/batch_normalization_49/FusedBatchNormV31 f4 [16]
00000000: e40d 0543 2995 c63f 916a 5b41 d22b 0343
00000010: b8a6 de43 8a68 1b44 fe4e 9e43 688f 80bf
00000020: 44f2 5144 487c 3044 702d f843 e3a2 7f3f
00000030: 5d28 8641 e912 75bc c3be 193e 9780 dd43
133.05426 1.551427 13.713517 131.17117 445.3025 621.6334 316.61713 -1.0043764
839.7854 705.9419 496.35498 0.9985792 16.769709 -0.014958122 0.15014176 443.0046
