bfcnn/pretrained/sparse_resnet_5x5_bn_3x3/model.tflite (tflite, 360704 bytes, 248 tensors)

sparse_resnet_denoiser/level_0/batch_normalization_1/FusedBatchNormV3 f4 [16]
6.6767406e-08 0.0020623195 0.014141905 0.022692895 0.0028441732 5.126947e-07 4.5461654e-08 0.028359741
0.0095916875 -0.028002255 7.6752116e-10 -0.0131308595 -0.014711338 -0.0026408506 0.007814586 0.0003761803
00000000: c561 8f33 fb27 073b 73b3 673c 73e6 b93c
00000010: 4f65 3a3b 1da0 0935 9e41 4333 b052 e83c
00000020: 7426 1d3c fc64 e5bc 80f9 5230 d122 57bc
00000030: d307 71bc 1f12 2dbb c008 003c 113a c539

sparse_resnet_denoiser/level_0/batch_normalization_1/FusedBatchNormV31 f4 [16]
7.563195 0.48104778 6.3826947 12.940603 0.7034532 59.300667 5.115971 30.150524
264.10718 9.729726 0.086094625 1.92528 72.89794 225.67702 38.37848 714.7281
00000000: b205 f240 e54b f63e 093f cc40 b60c 4f41
00000010: 8215 343f e233 6d42 09b6 a340 4634 f141
00000020: b80d 8443 f5ac 1b41 6152 b03d 936f f63f
00000030: bfcb 9142 51ad 6143 9083 1942 99ae 3244

sparse_resnet_denoiser/level_0/batch_normalization_10/FusedBatchNormV3 f4 [16]
-0.5771576 -0.92513436 -1.045057 -0.3231033 -0.37543136 -0.29024345 -0.60215455 -0.37097493
-0.58191967 -0.48439792 -0.55993164 -0.6332155 -0.71386456 -0.39919573 -0.4549119 -0.41863403
00000000: 9ac0 13bf 9bd5 6cbf 6ec4 85bf cc6d a5be
00000010: 8a38 c0be ca9a 94be cd26 1abf 6df0 bdbe
00000020: b0f8 14bf 0103 f8be ae57 0fbf 691a 22bf
00000030: d4bf 36bf 6263 ccbe 36ea e8be 3357 d6be

sparse_resnet_denoiser/level_0/batch_normalization_10/FusedBatchNormV31 f4 [16]
1.0598539 1.0664868 1.866201 0.7999894 0.40944973 0.7677566 0.5376149 0.7718816
0.97778296 0.64576423 0.3470835 0.59450454 0.48785335 0.5852977 0.5130088 1.3469496
00000000: 4ba9 873f a482 883f addf ee3f 1bcc 4c3f
00000010: 65a3 d13e b28b 443f 21a1 093f 089a 453f
00000020: fc4f 7a3f ce50 253f eeb4 b13e 7331 183f
00000030: eac7 f93e 12d6 153f 8b54 033f d868 ac3f

sparse_resnet_denoiser/level_0/batch_normalization_11/FusedBatchNormV3 f4 [16]
-0.5494361 -0.5105471 -0.7428118 -0.47160816 -0.38430253 -0.3237744 -0.7777484 -0.5095271
-0.34220403 -0.62928045 -0.60115176 -0.4374309 -0.84094214 -0.74161893 -0.56347823 -0.23479514
00000000: d8a7 0cbf 37b3 02bf ea28 3ebf a076 f1be
00000010: 4dc3 c4be c2c5 a5be 851a 47bf 5e70 02bf
00000020: 5e35 afbe 8618 21bf 15e5 19bf f1f6 dfbe
00000030: fc47 57bf bdda 3dbf 1c40 10bf 236e 70be

sparse_resnet_denoiser/level_0/batch_normalization_11/FusedBatchNormV31 f4 [16]
5.7000113 13.351596 3.8483925 11.06974 2.9975617 8.386972 7.499209 8.2487135
1.892857 11.207164 2.7902958 4.583051 12.680658 3.363304 5.1341624 1.7503887
00000000: 7e66 b640 23a0 5541 104c 7640 a81d 3141
00000010: 0dd8 3f40 0a31 0641 85f9 ef40 bbfa 0341
00000020: 2349 f23f 8b50 3341 3594 3240 5ba8 9240
00000030: fae3 4a41 5f40 5740 0f4b a440 bd0c e03f

sparse_resnet_denoiser/level_0/batch_normalization_12/FusedBatchNormV3 f4 [32]
-0.40148407 -0.45860842 -0.21401446 -0.5039564 -0.87975675 -0.61529267 -0.28696966 -0.7043883
-0.2562749 -0.98350716 -0.26852685 -0.4045011 -0.633867 -0.4243064 -0.47041357 -0.48188642
-0.38971603 -0.5768374 -0.6582559 -0.44409975 -0.48295152 -0.4310575 -0.21194123 -0.42963198
-0.5587863 -2.9416094 -0.5575912 -0.47750524 -0.14907484 -0.6848174 -0.26906678 -0.37565488
00000000: 528f cdbe b9ce eabe 9b26 5bbe 4903 01bf
00000010: bd37 61bf d283 1dbf b0ed 92be cb52 34bf
00000020: 7736 83be 20c7 7bbf 5a7c 89be c51a cfbe
00000030: 1c45 22bf b03e d9be 0cda f0be d1b9 f6be
00000040: dc88 c7be 9eab 13bf 7583 28bf 0b61 e3be
00000050: 6c45 f7be 92b3 dcbe 1f07 59be b9f8 dbbe
00000060: 9e0c 0fbf 5443 3cc0 4cbe 0ebf 917b f4be
00000070: 13a7 18be 3150 2fbf 1fc3 89be d655 c0be

sparse_resnet_denoiser/level_0/batch_normalization_12/FusedBatchNormV31 f4 [32]
4.5986886 4.262244 5.1774993 5.1690006 4.8490224 4.899261 2.0368297 5.9467006
2.316535 5.0471992 6.9967604 2.623942 4.3030314 4.1737103 2.079568 3.8266072
4.184143 5.246271 4.749983 3.4581547 7.6751 1.924918 1.8199915 3.8877103
2.0661855 3.773906 5.5192246 7.7955127 2.196657 4.740292 1.8280528 3.534202
00000000: 7528 9340 4e64 8840 13ae a540 7468 a540
00000010: 312b 9b40 bfc6 9c40 6b5b 0240 5f4b be40
00000020: 1c42 1440 a882 a140 76e5 df40 aaee 2740
00000030: 6fb2 8940 098f 8540 a417 0540 22e7 7440
00000040: 80e4 8540 74e1 a740 dcff 9740 6852 5d40
00000050: 6b9a f540 b763 f63f 7bf5 e83f 3fd0 7840
00000060: 623c 0440 ad87 7140 7d9d b040 d774 f940
00000070: 0796 0c40 79b0 9740 a2fd e93f 5e30 6240

sparse_resnet_denoiser/level_0/batch_normalization_13/FusedBatchNormV3 f4 [16]
-0.36859286 -0.41466212 -0.27795538 -0.27253786 -0.39098367 -0.42436448 -0.22006316 -0.81530726
-0.3055127 -0.46281424 -0.7331274 -0.5646393 -0.34131822 -0.27725783 -0.21662465 -0.08360463
00000000: 34b8 bcbe 984e d4be 2b50 8ebe 158a 8bbe
00000010: 032f c8be 4d46 d9be 3d58 61be fab7 50bf
00000020: 296c 9cbe fdf5 ecbe 3dae 3bbf 338c 10bf
00000030: 43c1 aebe bdf4 8dbe dad2 5dbe e738 abbd

sparse_resnet_denoiser/level_0/batch_normalization_13/FusedBatchNormV31 f4 [16]
0.46061668 0.2578473 0.29486752 0.3907387 0.2977372 0.61577386 0.17222069 0.66747767
0.33207032 0.44564733 0.41621944 0.4247149 0.21877868 0.22447176 0.21726833 0.11079938
00000000: f3d5 eb3e 9004 843e e0f8 963e e70e c83e
00000010: 0371 983e 5ba3 1d3f 9f5a 303e d1df 2a3f
00000020: 1f05 aa3e e32b e43e b71a d53e 3b74 d93e
00000030: 8507 603e eddb 653e 977b 5e3e c9ea e23d

sparse_resnet_denoiser/level_0/batch_normalization_14/FusedBatchNormV3 f4 [16]
-0.1032301 -0.3416401 -0.29046315 -0.5363309 -0.35446134 -0.78953224 -0.5525062 -0.7176852
-0.2870839 -0.51874775 -0.41896567 -0.5097826 -0.3555414 -0.40954903 -0.31399804 -0.51762927
00000000: 4d6a d3bd 74eb aebe 96b7 94be fb4c 09bf
00000010: f57b b5be c91e 4abf 0c71 0dbf 38ba 37bf
00000020: a9fc 92be a7cc 04bf ab82 d6be 1d81 02bf
00000030: 8609 b6be 69b0 d1be 5ac4 a0be 5a83 04bf

sparse_resnet_denoiser/level_0/batch_normalization_14/FusedBatchNormV31 f4 [16]
6.0304785 4.2610836 2.7940228 11.182172 11.415939 4.4451675 5.217858 5.389979
9.702247 9.789512 9.35789 2.738013 3.7034113 4.474762 9.249368 6.254924
00000000: aef9 c040 cc5a 8840 45d1 3240 2dea 3241
00000010: b0a7 3641 d03e 8e40 b1f8 a640 b57a ac40
00000020: 673c 1b41 d7a1 1c41 ebb9 1541 9b3b 2f40
00000030: b104 6d40 4031 8f40 69fd 1341 5628 c840

sparse_resnet_denoiser/level_0/batch_normalization_15/FusedBatchNormV3 f4 [32]
-0.35386267 -0.55268115 -0.19894363 -0.20256339 -1.0361834 -0.2761019 -0.92841905 -0.39050475
-0.69835854 -0.64474726 -0.5789987 -0.6325061 -0.08261136 -0.236414 -0.19947103 -0.19512542
-0.15630235 -0.19808874 -0.14415742 -0.80439115 -1.4422696 -0.3602358 -1.0430896 -0.060765456
-0.13153954 -0.23624326 -0.13940664 -0.17580488 -0.28768602 -0.81263256 -0.06534919 -0.09153987
00000000: 7d2d b5be 837c 0dbf e1b7 4bbe c76c 4fbe
00000010: a8a1 84bf 3a5d 8dbe dfac 6dbf 3df0 c7be
00000020: a0c7 32bf 280e 25bf 4239 14bf ebeb 21bf
00000030: 2530 a9bd 8316 72be 2242 4cbe f5ce 47be
00000040: b90d 20be c6d7 4abe 019e 13be 94ec 4dbf
00000050: 4a9c b8bf d470 b8be f683 85bf 33e5 78bd
00000060: 4db2 06be c1e9 71be 9dc0 0ebe 3206 34be
00000070: 954b 93be b008 50bf ccd5 85bd 4179 bbbd

sparse_resnet_denoiser/level_0/batch_normalization_15/FusedBatchNormV31 f4 [32]
2.5006826 4.0141606 3.0250695 0.7169092 13.041589 1.9160095 4.321333 7.1493573
6.422547 4.7364187 2.7005508 4.3767505 5.87137 2.023647 3.7973073 5.6822653
3.8203156 1.8487074 2.2835777 9.604346 3.3393915 3.2939498 2.4381058 1.6935326
2.4574318 2.0664856 2.062221 2.2708678 6.1953382 15.015782 2.2303512 2.548475
00000000: 2f0b 2040 0174 8040 bd9a 4140 5d87 373f
00000010: 59aa 5041 cd3f f53f 5c48 8a40 89c7 e440
00000020: 8185 cd40 be90 9740 d3d5 2c40 570e 8c40
00000030: 43e2 bb40 6f83 0140 1507 7340 1ed5 b540
00000040: 0d80 7440 72a2 ec3f 2326 1240 67ab 1941
00000050: 97b8 5540 13d0 5240 ed09 1c40 adc5 d83f
00000060: 9046 1d40 4d41 0440 6efb 0340 e655 1140
00000070: 3640 c640 a540 7041 13be 0e40 371a 2340

sparse_resnet_denoiser/level_0/batch_normalization_16/FusedBatchNormV3 f4 [16]
-0.1827605 -0.1715526 -0.28918365 4.5388983e-06 -0.1256477 -0.08842961 -0.15847883 1.3323006e-05
-0.122099675 -0.116994046 -0.19221233 -0.11646978 -0.21495394 -0.024916377 -0.27528748 -0.065809615
00000000: 9225 3bbe 7cab 2fbe e10f 94be d74c 9836
00000010: caa9 00be 951a b5bd 4648 22be e085 5f37
00000020: 650f fabd 939a efbd 4fd3 44be b587 eebd
00000030: e31c 5cbe 6e1d ccbc 7bf2 8cbe 31c7 86bd

sparse_resnet_denoiser/level_0/batch_normalization_16/FusedBatchNormV31 f4 [16]
0.17446557 0.0888176 0.24180108 -6.507438e-06 0.07368697 0.09861376 0.111471556 -1.090731e-05
0.1181877 0.09407503 0.08692682 0.071441025 0.12532644 0.02016362 0.19355033 0.046886552
00000000: 1aa7 323e 00e6 b53d b49a 773e 775a dab6
00000010: 32e9 963d 03f6 c93d 334b e43d 8afe 36b7
00000020: 650c f23d 69aa c03d b006 b23d ac4f 923d
00000030: 9355 003e 2d2e a53c 0f32 463e 1d0c 403d

sparse_resnet_denoiser/level_0/batch_normalization_2/FusedBatchNormV3 f4 [16]
-0.17379892 -0.029719442 -0.11460896 -0.11869451 4.2352562e-32 -0.34261414 -0.045291178 -0.57394224
-0.24050723 -0.05131078 -0.15918905 -0.032375176 -0.5002469 -0.12917392 -0.06732994 -0.45430225
00000000: 58f8 31be 3076 f3bc 1ab8 eabd 1b16 f3bd
00000010: 36e8 5b0b 1f6b afbe 3e83 39bd e1ed 12bf
00000020: 8747 76be 412b 52bd 7402 23be d59b 04bd
00000030: 2e10 00bf 2b46 04be 48e4 89bd 4e9a e8be

sparse_resnet_denoiser/level_0/batch_normalization_2/FusedBatchNormV31 f4 [16]
1.0281225 4.6773114 1.1253328 16.337112 -0.107841134 3.3828151 1.9825561 5.2055945
2.7641203 2.567343 0.7294211 3.6133075 2.2249832 3.3561902 10.3731575 14.214186
00000000: 8599 833f 89ac 9540 e80a 903f 68b2 8241
00000010: d0db dcbd 0b80 5840 66c4 fd3f 3b94 a640
00000020: 59e7 3040 594f 2440 57bb 3a3f 6e40 6740
00000030: 2066 0e40 d2cb 5640 74f8 2541 4e6d 6341

sparse_resnet_denoiser/level_0/batch_normalization_3/FusedBatchNormV3 f4 [32]
-0.3149439 -0.36418152 -1.0753359 -0.6493898 -0.5956947 -0.14336152 -0.47359446 -0.32453346
-0.26697582 -0.6238825 -1.4421005e-15 -0.76336646 -0.18486205 -0.23665023 -1.6789421 -0.17771207
-0.32055202 -0.27619734 -0.2927914 -0.27319154 -0.112479284 -0.7374804 -0.554965 -0.44481677
-0.36290178 -0.111712046 -0.33515766 -1.1312686 -0.14340818 -0.50408244 -0.1876781 -0.32867107
00000000: 5440 a1be 0076 babe 9ba4 89bf 693e 26bf
00000010: 737f 18bf 5dcd 12be f97a f2be 4029 a6be
00000020: 0eb1 88be c3b6 1fbf 1ed4 cfa6 fc6b 43bf
00000030: 7a4c 3dbe 7054 72be 93e7 d6bf 27fa 35be
00000040: 651f a4be bd69 8dbe c1e8 95be c3df 8bbe
00000050: 8a5b e6bd 84cb 3cbf 3012 0ebf 06bf e3be
00000060: 43ce b9be 49c9 e4bd c999 abbe 69cd 90bf
00000070: 98d9 12be 8c0b 01bf b02e 40be 9347 a8be

sparse_resnet_denoiser/level_0/batch_normalization_3/FusedBatchNormV31 f4 [32]
2.5193017 5.4888816 1.2201933 0.95136464 1.1468049 1.3665124 1.2695515 2.214355
1.3202012 0.83123815 0.11355953 1.4836062 2.648873 1.3775406 1.0606296 1.3651932
1.4959338 3.314508 1.7347838 1.9120121 3.4388933 3.9112 1.6465881 1.1784933
1.2710662 2.9704635 1.131847 3.6513352 0.7930574 2.1159043 2.6662478 1.3134761
00000000: 3d3c 2140 eba4 af40 4b2f 9c3f a28c 733f
00000010: 81ca 923f e1e9 ae3f aa80 a23f feb7 0d40
00000020: 5afc a83f 06cc 543f e691 e83d cfe6 bd3f
00000030: 2387 2940 4053 b03f b6c2 873f a7be ae3f
00000040: c27a bf3f e620 5440 650d de3f d0bc f43f
00000050: d416 5c40 1a51 7a40 66c3 d23f ded8 963f
00000060: 4cb2 a23f 131c 3e40 5de0 903f 7aaf 6940
00000070: cf05 4b3f fa6a 0740 cea3 2a40 fc1f a83f

sparse_resnet_denoiser/level_0/batch_normalization_4/FusedBatchNormV3 f4 [16]
-0.32718897 -0.35127488 -0.41726884 -0.22662863 -0.14018588 -0.25858346 -0.56464183 -0.4014211
-0.36613324 -0.24820301 -0.74228966 -0.8958424 -0.893264 -0.22081009 -0.49672955 -0.365409
00000000: 5085 a7be 4dda b3be 43a4 d5be 5611 68be
00000010: e38c 0fbe 0d65 84be 5e8c 10bf 1187 cdbe
00000020: d175 bbbe ee28 7ebe b206 3ebf ed55 65bf
00000030: f3ac 64bf 0a1c 62be 5653 febe e316 bbbe

sparse_resnet_denoiser/level_0/batch_normalization_4/FusedBatchNormV31 f4 [16]
1.8001931 1.2090027 3.940162 4.0973783 0.9419636 5.2745175 0.74157405 2.9893732
2.999111 2.3347344 0.6326663 1.3791382 1.3201644 4.006513 1.0073148 6.2093277
00000000: ba6c e63f 9ac0 9a3f 9d2b 7c40 b91d 8340
00000010: 8724 713f d9c8 a840 ccd7 3d3f e451 3f40
00000020: 6ff1 3f40 4a6c 1540 6bf6 213f 9a87 b03f
00000030: 26fb a83f 5b35 8040 b1ef 803f d0b2 c640

sparse_resnet_denoiser/level_0/batch_normalization_5/FusedBatchNormV3 f4 [16]
-0.45217308 -0.758878 -1.1727896 -0.8251227 -0.38351232 -0.79084814 -0.9187628 -0.70147866
-0.5056085 -0.42305627 -0.7319382 -0.6455655 -0.9171367 -0.50839305 -0.6146754 -0.31982887
00000000: 3b83 e7be d445 42bf f81d 96bf 3e3b 53bf
00000010: ba5b c4be 0675 4abf 0a34 6bbf 1b94 33bf
00000020: 8f6f 01bf d59a d8be 4d60 3bbf c843 25bf
00000030: 79c9 6abf 0c26 02bf 5e5b 1dbf 9cc0 a3be

sparse_resnet_denoiser/level_0/batch_normalization_5/FusedBatchNormV31 f4 [16]
14.781695 2.7076552 10.28022 3.4699023 3.0495203 5.488526 4.8882914 1.7049379
5.710964 2.2896256 5.8984785 2.4325774 3.5768409 3.5641599 2.5005715 3.0476775
00000000: d381 6c41 394a 2d40 c87b 2441 e112 5e40
00000010: 572b 4340 01a2 af40 e26c 9c40 683b da3f
00000020: 38c0 b640 3a89 1240 56c0 bc40 59af 1b40
00000030: f6ea 6440 321b 6440 5d09 2040 260d 4340

sparse_resnet_denoiser/level_0/batch_normalization_6/FusedBatchNormV3 f4 [32]
-0.6053023 -0.42026207 -1.02047 -0.78952736 -0.6045134 -0.51060164 -0.76397854 -0.5577509
-0.47601774 -0.6145204 -0.33753335 -0.3923342 -0.6692852 -0.66025555 -0.47940883 -0.34724775
-0.34629354 -0.40121284 -0.31069317 -0.7732713 -0.64111793 -0.41439527 -0.5219447 -0.6675222
-0.65251404 -0.49337795 -0.4295151 -0.558977 -0.39507458 -0.43672934 -0.44325948 -0.52994096
00000000: 17f5 1abf 972c d7be c39e 82bf 771e 4abf
00000010: 64c1 1abf cab6 02bf 1994 43bf c3c8 0ebf
00000020: 99b8 f3be 3551 1dbf 2cd1 acbe 07e0 c8be
00000030: 4656 2bbf 8206 29bf 1375 f5be 75ca b1be
00000040: 634d b1be c56b cdbe 2d13 9fbe 1cf5 45bf
00000050: 4e20 24bf 9e2b d4be 2b9e 05bf bce2 2abf
00000060: 290b 27bf 099c fcbe 67e9 dbbe 1e19 0fbf
00000070: 3747 cabe fd9a dfbe e8f2 e2be 36aa 07bf

sparse_resnet_denoiser/level_0/batch_normalization_6/FusedBatchNormV31 f4 [32]
5.13768 4.3286066 4.3676906 1.6075853 2.5032554 1.0217361 2.89446 7.007994
4.7404094 5.474073 2.7939 4.1954756 2.601423 3.123052 7.7305255 4.863013
3.400357 3.9184165 3.719717 4.434864 5.83692 1.6290854 4.4408216 2.380014
1.9766548 3.064558 4.1104436 10.3399315 1.940664 3.2756324 3.219662 3.9127016
00000000: e067 a440 f283 8a40 1fc4 8b40 5bc5 cd3f
00000010: 5635 2040 40c8 823f d53e 3940 7d41 e040
00000020: 6fb1 9740 9b2b af40 42cf 3240 5641 8640
00000030: b77d 2640 15e0 4740 7760 f740 cd9d 9b40
00000040: 739f 5940 56c7 7a40 d80f 6e40 68ea 8d40
00000050: 0cc8 ba40 df85 d03f 361b 8e40 2652 1840
00000060: 0603 fd3f b821 4440 c188 8340 5c70 2541
00000070: ae67 f83f f6a3 5140 f10e 4e40 b469 7a40

sparse_resnet_denoiser/level_0/batch_normalization_7/FusedBatchNormV3 f4 [16]
-0.31341973 -0.81721824 -0.46273294 -0.56256115 -0.29230544 -0.3736114 -0.52396816 -0.43511504
-0.5332867 -0.547037 -0.6785534 -0.67315054 -0.6018807 -0.32638243 -0.6299065 -0.3874869
00000000: 8d78 a0be 3735 51bf 55eb ecbe 0204 10bf
00000010: 0fa9 95be fe49 bfbe c722 06bf 66c7 debe
00000020: 7a85 08bf 9e0a 0cbf adb5 2dbf 9853 2cbf
00000030: db14 1abf 991b a7be 8d41 21bf af64 c6be

sparse_resnet_denoiser/level_0/batch_normalization_7/FusedBatchNormV31 f4 [16]
1.0056084 1.5303706 1.3938906 3.6262393 0.666548 2.1982152 0.556233 1.4649408
1.5481795 1.3713611 0.4888487 0.65575063 0.4871272 1.1439646 0.8870539 2.3616107
00000000: c7b7 803f 2fe3 c33f 026b b23f 4e14 6840
00000010: e4a2 2a3f 8faf 0c40 4965 0e3f 2e83 bb3f
00000020: bf2a c63f c388 af3f 604a fa3e 46df 273f
00000030: bd68 f93e 6f6d 923f f715 633f a124 1740

sparse_resnet_denoiser/level_0/batch_normalization_8/FusedBatchNormV3 f4 [16]
-0.33152273 -0.50812817 -1.016374 -0.6078613 -0.92956805 -0.7072769 -0.44132182 -0.8962898
-0.82402647 -1.3065737 -0.4479168 -0.4358663 -0.6735859 -0.40170988 -0.62823087 -3.0365572e-33
00000000: 59bd a9be b014 02bf 8b18 82bf cc9c 1bbf
00000010: 2cf8 6dbf 1910 35bf eff4 e1be 4073 65bf
00000020: 66f3 52bf cf3d a7bf 5a55 e5be de29 dfbe
00000030: 2070 2cbf ebac cdbe bdd3 20bf 6e44 7c89

sparse_resnet_denoiser/level_0/batch_normalization_8/FusedBatchNormV31 f4 [16]
3.52069 6.7951503 7.519678 4.086948 4.3051777 7.256303 3.1108344 7.3048863
6.2929134 6.734817 3.6833014 8.319102 7.470815 9.055522 4.7711115 0.0026303772
00000000: fc52 6140 df71 d940 34a1 f040 47c8 8240
00000010: 04c4 8940 a233 e840 e917 4740 a1c1 e940
00000020: 8c5f c940 9f83 d740 36bb 6b40 0b1b 0541
00000030: eb10 ef40 6be3 1041 f2ac 9840 6862 2c3b

sparse_resnet_denoiser/level_0/batch_normalization_9/FusedBatchNormV3 f4 [32]
-0.45240262 -0.575957 -0.43370605 -0.58838004 -0.48560783 -0.6918333 -0.536391 -0.65816015
-0.21297097 -0.73046166 -0.9684071 -0.68927383 -0.7813019 -0.67697036 -0.43621317 -0.45824307
-1.0310793 -0.6719 -0.33359495 -0.5284869 -0.6627636 -0.21882895 -0.6271822 -0.36262482
-0.49275315 -0.5447518 -0.50866336 -0.54063 -0.6485879 -0.8840384 -0.6588913 -0.5418079
00000000: 51a1 e7be eb71 13bf b80e debe 13a0 16bf
00000010: 97a1 f8be fd1b 31bf ec50 09bf 2f7d 28bf
00000020: 1015 5abe 89ff 3abf 87e9 77bf 4074 30bf
00000030: 6703 48bf ee4d 2dbf 5557 dfbe d69e eabe
00000040: 68fa 83bf a301 2cbf f5cc aabe eb4a 07bf
00000050: e0aa 29bf b214 60be 038f 20bf f6a9 b9be
00000060: 244a fcbe db74 0bbf c337 02bf ba66 0abf
00000070: db09 26bf 5750 62bf 1aad 28bf ecb3 0abf

sparse_resnet_denoiser/level_0/batch_normalization_9/FusedBatchNormV31 f4 [32]
2.3561015 2.1703653 5.117122 3.2867806 3.9461818 8.251565 7.403467 2.541874
2.8519418 9.962456 9.729841 6.830611 3.7518559 4.900937 2.447042 4.7321997
7.0519757 5.7025347 1.9875432 2.2721417 6.824127 2.6607637 2.579645 2.3523335
5.4390755 7.4838347 2.864638 3.8361704 5.6368647 9.312034 6.471183 3.4740407
00000000: 5eca 1640 44e7 0a40 77bf a340 9d5a 5240
00000010: 3e8e 7c40 6906 0441 34e9 ec40 10ae 2240
00000020: 3786 3640 3866 1f41 6ead 1b41 5e94 da40
00000030: 681e 7040 7ad4 9c40 569c 1c40 2e6e 9740
00000040: c9a9 e140 2a7b b640 d167 fe3f c56a 1140
00000050: 405f da40 f449 2a40 e718 2540 a28c 1640
00000060: e80c ae40 937b ef40 3b56 3740 d183 7540
00000070: 3261 b440 17fe 1441 ee13 cf40 af56 5e40

sparse_resnet_denoiser/level_1/batch_normalization_18/FusedBatchNormV3 f4 [16]
5.571476e-09 4.3680415e-09 1.1237589e-07 -1.774408e-09 9.3244074e-05 -0.00046666997 -0.0033201892 0.00015120745
-0.00038796378 8.618422e-05 -0.0029139007 0.0006706305 -3.5405976e-09 1.6015738e-06 0.0013821383 0.0010870413
00000000: 396f bf31 b315 9631 4d53 f133 6edf f3b0
00000010: 088c c338 62ab f4b9 8897 59bb 718d 1e39
00000020: 9e67 cbb9 cdbd b438 24f7 3ebb 40cd 2f3a
00000030: da4e 73b1 a8f5 d635 de28 b53a 0e7b 8e3a

sparse_resnet_denoiser/level_1/batch_normalization_18/FusedBatchNormV31 f4 [16]
0.4885838 0.38805303 9.9712925 -0.15634678 695.75397 0.05263217 2.1676733 162.59595
120.44183 740.92596 144.32147 5.602053 -0.31154224 169.6898 0.15294284 0.09941843
00000000: a827 fa3e e3ae c63e 6a8a 1f41 5f19 20be
00000010: 41f0 2d44 d594 573d 29bb 0a40 9098 2243
00000020: 38e2 f042 433b 3944 4c52 1043 0544 b340
00000030: 7782 9fbe 97b0 2943 0c9d 1c3e e49b cb3d

sparse_resnet_denoiser/level_1/batch_normalization_19/FusedBatchNormV3 f4 [16]
0.0 -0.36023384 -0.06817151 0.0 0.0 5.9377155e-33 -0.28127375 -0.33573803
-0.2911249 -0.3133265 -3.7034365e-34 -0.05951474 0.0 0.0 -0.046070743 -0.09912029
00000000: 0000 0000 9270 b8be 819d 8bbd 0000 0000
00000010: 0000 0000 9fa4 f609 1d03 90be dbe5 abbe
00000020: 530e 95be 556c a0be b522 f687 bac5 73bd
00000030: 0000 0000 0000 0000 adb4 3cbd 94ff cabd

sparse_resnet_denoiser/level_1/batch_normalization_19/FusedBatchNormV31 f4 [16]
0.1923729 102.49371 96.91619 0.11524687 -0.048728466 -0.24803269 60.378113 180.15337
182.41443 114.74648 0.011695024 52.518677 -1.7851453 0.035833843 11.707845 32.388702
00000000: 67fd 443e c8fc cc42 17d5 c142 8d06 ec3d
00000010: 8097 47bd 48fc 7dbe 3083 7142 4327 3443
00000020: 186a 3643 337e e542 7c9c 3f3c 2013 5242
00000030: a47f e4bf 82c6 123d 5553 3b41 088e 0142

sparse_resnet_denoiser/level_1/batch_normalization_20/FusedBatchNormV3 f4 [32]
-0.3885439 -0.08707494 -0.197536 -0.10395599 -4.087489e-11 -0.12594958 -0.9133971 -0.96968955
-0.12913834 -0.9650804 -1.914719e-31 -0.75143945 -0.107149884 -0.6866109 -0.77147704 -0.13535108
-0.11737883 -0.23294993 -0.11618168 -0.1259098 -0.8902776 -0.87835735 -0.86193657 -0.17864004
-0.09903352 -0.1394118 -0.7845232 -0.68208015 -0.18497373 -0.8480154 -0.82519984 -0.061923772
00000000: 3aef c6be 5954 b2bd e146 4abe e1e6 d4bd
00000010: 09c5 33ae edf8 00be 64d4 69bf 933d 78bf
00000020: d73c 04be 820f 77bf 748b 788c 565e 40bf
00000030: 6671 dbbd bbc5 2fbf 857f 45bf 7999 0abe
00000040: 5064 f0bd 6d8a 6ebe a9f0 edbd 80ee 00be
00000050: 3ce9 63bf 07dc 60bf e0a7 5cbf 6aed 36be
00000060: 16d2 cabd f8c1 0ebe 83d6 48bf ce9c 2ebf
00000070: c169 3dbe 8a17 59bf 4c40 53bf c8a3 7dbd

sparse_resnet_denoiser/level_1/batch_normalization_20/FusedBatchNormV31 f4 [32]
11.750493 4.5414968 3.3915784 3.4202063 0.029993488 5.621666 1.83045 2.5869193
6.5264177 5.276279 0.060147386 9.93668 5.563552 13.405604 4.6319494 5.2609735
6.7222204 5.580207 3.7721586 7.791062 5.514383 1.8785954 5.615099 3.478739
4.035696 9.643707 4.4082417 3.8436744 5.4157953 5.34119 4.3618126 4.5436106
00000000: 0502 3c41 f153 9140 9f0f 5940 a9e4 5a40
00000010: e7b4 f53c b0e4 b340 304c ea3f 1690 2540
00000020: 6ad8 d040 47d7 a840 1b5d 763d a4fc 1e41
00000030: 9e08 b240 5b7d 5641 ee38 9440 e559 a840
00000040: 6e1c d740 0e91 b240 0c6b 7140 6150 f940
00000050: d375 b040 d075 f03f e4ae b340 a9a3 5e40
00000060: 6c24 8140 a04c 1a41 5110 8d40 c3fe 7540
00000070: 324e ad40 07eb aa40 f893 8b40 4265 9140

sparse_resnet_denoiser/level_1/batch_normalization_21/FusedBatchNormV3 f4 [16]
-0.41586977 -0.521439 -0.6472589 -0.64162785 -0.9591506 -0.5532614 -0.55253524 -0.5830739
-0.5509353 -0.76325494 -0.83713937 -0.69795364 -1.0816774 -0.31071645 -0.8342641 -1.4763212
00000000: e2ec d4be 077d 05bf c2b2 25bf b941 24bf
00000010: e58a 75bf 8aa2 0dbf f372 0dbf 5544 15bf
00000020: 190a 0dbf ad64 43bf c44e 56bf 17ad 32bf
00000030: 6874 8abf 3a16 9fbe 5592 55bf 18f8 bcbf

sparse_resnet_denoiser/level_1/batch_normalization_21/FusedBatchNormV31 f4 [16]
41.6732 49.30094 31.650444 23.283892 13.238852 1.4042064 15.083901 68.54721
42.683254 25.592134 10.948591 14.947249 42.36456 2.6097236 1.9508693 1.2900732
00000000: 5bb1 2642 2a34 4542 1c34 fd41 6945 ba41
00000010: 56d2 5341 09bd b33f a957 7141 2c18 8942
00000020: a7bb 2a42 b1bc cc41 6e2d 2f41 ef27 6f41
00000030: 4f75 2942 b605 2740 16b6 f93f 1e21 a53f

sparse_resnet_denoiser/level_1/batch_normalization_22/FusedBatchNormV3 f4 [16]
-0.6782808 -0.9269643 -0.7400635 -0.52949077 -0.5984758 -0.841075 -0.337476 -0.3119397
-0.5446165 -0.46874472 -0.743833 -0.7225663 -0.83271277 -0.47077543 -0.485749 -0.6034452
00000000: cfa3 2dbf 884d 6dbf cd74 3dbf b58c 07bf
00000010: b635 19bf b150 57bf a7c9 acbe 8fb6 9fbe
00000020: fd6b 0bbf 4fff efbe d76b 3ebf 1bfa 38bf
00000030: aa2c 55bf 7a09 f1be 18b4 f8be 627b 1abf

sparse_resnet_denoiser/level_1/batch_normalization_22/FusedBatchNormV31 f4 [16]
26.429626 8.166198 9.14161 14.484733 16.772652 11.367577 9.69498 7.0458136
16.27429 16.309858 10.523772 9.40181 7.5970097 18.554361 6.324325 9.597714
00000000: e06f d341 bfa8 0241 0944 1241 77c1 6741
00000010: 642e 8641 98e1 3541 a31e 1b41 4e77 e140
00000020: bf31 8241 977a 8241 5f61 2841 d06d 1641
00000030: b41a f340 556f 9441 df60 ca40 3d90 1941

sparse_resnet_denoiser/level_1/batch_normalization_23/FusedBatchNormV3 f4 [32]
-0.60312253 -0.61885375 -0.7402721 -5.2021996e-09 -0.46188077 -0.60654706 -0.5237757 -0.5632034
-6.7706414e-09 -0.5002652 -0.4139995 -0.57305384 -0.71572363 -0.59488726 -0.7287075 -1.0742269
-0.71654814 -0.42932123 -0.49799502 -0.77410847 -0.7650114 -0.5092051 -0.653285 -0.4001054
-0.59462386 -0.57131845 -0.47220248 -0.94455785 -0.29218182 -0.42374936 -1.0868211 -0.56553316
00000000: 3d66 1abf 336d 1ebf 7982 3dbf 08bf b2b1
00000010: a37b ecbe ab46 1bbf 2a16 06bf 192e 10bf
00000020: 31a3 e8b1 6111 00bf bef7 d3be a8b3 12bf
00000030: aa39 37bf 884a 18bf 938c 3abf 4480 89bf
00000040: b36f 37bf fecf dbbe 34f9 febe f92b 46bf
00000050: cad7 43bf 445b 02bf b03d 27bf 9dda ccbe
00000060: 4539 18bf ed41 12bf 86c4 f1be 8bce 71bf
00000070: db98 95be adf5 d8be f41c 8bbf c8c6 10bf

sparse_resnet_denoiser/level_1/batch_normalization_23/FusedBatchNormV31 f4 [32]
7.249158 10.965361 16.381401 1.4678607 9.041117 9.080597 10.095863 9.957941
1.8976016 10.181216 9.527976 9.361268 8.03128 10.243809 13.758113 4.926195
3.3573704 9.760071 7.9061675 12.297877 9.448624 9.538568 8.721169 5.9203844
5.467418 7.936573 8.44039 4.6005783 2.8888118 2.7792845 3.1021945 12.027385
00000000: 1af9 e740 1e72 2f41 1c0d 8341 dce2 bb3f
00000010: 6aa8 1041 204a 1141 a888 2141 ba53 1f41
00000020: 9ce4 f23f 43e6 2241 9772 1841 c1c7 1541
00000030: 1f80 0041 a4e6 2341 3b21 5c41 64a3 9d40
00000040: 28df 5640 4029 1c41 53ff fc40 1bc4 4441
00000050: 902d 1741 f99d 1841 e989 0b41 ca73 bd40
00000060: 17f5 ae40 68f8 fd40 d60b 0741 f037 9340
00000070: 4be2 3840 ccdf 3140 5b8a 4640 2b70 4041

sparse_resnet_denoiser/level_1/batch_normalization_24/FusedBatchNormV3 f4 [16]
-0.71370304 -0.5808104 -0.8080932 -0.84328294 -0.9963487 -0.5575527 -1.0614572 -0.6051037
-0.59828866 -0.24320014 -0.81296366 -1.3549623 -0.8909541 -0.4088738 -0.68801725 -0.8219413
00000000: 3eb5 36bf feaf 14bf 32df 4ebf 64e1 57bf
00000010: b510 7fbf c6bb 0ebf d4dd 87bf 13e8 1abf
00000020: 7229 19bf 7509 79be 631e 50bf 686f adbf
00000030: 9115 64bf e857 d1be e621 30bf bf6a 52bf

sparse_resnet_denoiser/level_1/batch_normalization_24/FusedBatchNormV31 f4 [16]
13.685216 12.067413 12.657624 11.076167 4.0707936 0.7571454 3.7969365 16.404078
14.989677 2.724068 2.38947 9.7245455 10.535239 2.0095744 1.348147 0.6974969
00000000: a5f6 5a41 2014 4141 a185 4a41 fb37 3141
00000010: f143 8240 48d4 413f 0201 7340 8d3b 8341
00000020: b8d5 6f41 2157 2e40 14ed 1840 bd97 1b41
00000030: 5790 2841 de9c 0040 1590 ac3f 288f 323f

sparse_resnet_denoiser/level_1/batch_normalization_25/FusedBatchNormV3 f4 [16]
-0.64738363 -0.5707357 -0.7221401 1.4751462e-09 -0.55735666 -0.5234489 -0.65620416 -0.8402378
-0.6634835 -0.3686787 -0.00031597898 -0.65117437 -0.73638016 -0.79748005 -0.2513542 -0.55276954
00000000: efba 25bf bc1b 12bf 2cde 38bf 18be ca30
00000010: edae 0ebf bf00 06bf fffc 27bf d319 57bf
00000020: 0eda 29bf 74c3 bcbe fba9 a5b9 5db3 26bf
00000030: 6983 3cbf a727 4cbf 7fb1 80be 4e82 0dbf

sparse_resnet_denoiser/level_1/batch_normalization_25/FusedBatchNormV31 f4 [16]
6.3363357 18.895025 6.7450757 -1.6805824 23.034143 19.012701 5.794546 6.0653653
4.217798 12.234855 2.2661204 8.32741 9.495234 10.538629 10.011173 11.275263
00000000: 43c3 ca40 0329 9741 a9d7 d740 531d d7bf
00000010: ed45 b841 031a 9841 ec6c b940 7917 c240
00000020: 34f8 8640 f7c1 4341 1e08 1140 123d 0541
00000030: 7aec 1741 399e 2841 c42d 2041 7a67 3441

sparse_resnet_denoiser/level_1/batch_normalization_26/FusedBatchNormV3 f4 [32]
-0.82695556 -1.071637 -6.9161583e-09 -0.6651278 -0.6616684 -1.0567167 -0.7650922 -0.9420383
-0.522129 -6.9344934e-09 -0.91879094 -0.72690976 -1.0438036 -0.7614623 0.0013154626 -0.849171
-0.7816646 -7.626662e-09 -7.2845343e-09 -0.9874166 -0.78460413 -1.0148313 -0.67584896 -0.8228378
-0.5636007 -0.78545886 -0.845196 -0.8197555 -0.9345199 -0.7329464 -0.71239984 -1.3471973
00000000: 5cb3 53bf 672b 89bf 2ca3 edb1 d145 2abf
00000010: 1a63 29bf 7e42 87bf 15dd 43bf 6c29 71bf
00000020: 3faa 05bf 7344 eeb1 e235 6bbf c216 3abf
00000030: 5b9b 85bf 31ef 42bf 9a6b ac3a 4563 59bf
00000040: 2c1b 48bf 6a06 03b2 714b fab1 56c7 7cbf
00000050: d1db 48bf fee5 81bf 7004 2dbf 80a5 52bf
00000060: 2348 10bf d513 49bf c45e 58bf 7fdb 51bf
00000070: b23c 6fbf 60a2 3bbf d65f 36bf f670 acbf

sparse_resnet_denoiser/level_1/batch_normalization_26/FusedBatchNormV31 f4 [32]
16.059752 12.404283 2.1291783 16.17647 9.835137 6.059565 14.394685 13.767498
7.3408737 2.132148 13.291504 11.650948 14.302707 16.87849 -2.5907025 19.10682
11.654712 2.2660685 2.2158806 16.199774 10.87674 14.664621 4.8972173 11.923373
13.128882 8.683424 10.99622 13.518045 13.196505 12.482309 10.105897 25.9916
00000000: 5f7a 8041 f177 4641 7544 0840 6969 8141
00000010: b95c 1d41 f5e7 c140 a150 6641 ac47 5c41
00000020: 70e8 ea40 1d75 0840 00aa 5441 486a 3a41
00000030: e3d7 6441 2607 8741 12ce 25c0 c4da 9841
00000040: b379 3a41 4407 1140 fdd0 0d40 2399 8141
00000050: 2107 2e41 4aa2 6a41 01b6 9c40 23c6 3e41
00000060: e70f 5241 4eef 0a41 84f0 2f41 ea49 5841
00000070: e224 5341 8ab7 4741 c1b1 2141 ccee cf41

sparse_resnet_denoiser/level_1/batch_normalization_27/FusedBatchNormV3 f4 [16]
-0.7708028 -0.80444837 -0.68325406 -0.7793127 -0.80423325 -0.6119837 -1.0302808 -0.4742136
-0.5136945 -0.392219 -0.8005672 -0.7425851 -0.66542655 -0.2099582 -1.0786121 -0.6167349
00000000: 5553 45bf 54f0 4dbf bde9 2ebf 0981 47bf
00000010: 3be2 4dbf f7aa 1cbf 3ee0 83bf 20cc f2be
00000020: 7c81 03bf eed0 c8be f9f1 4cbf 0f1a 3ebf
00000030: 6559 2abf 48ff 56be f60f 8abf 57e2 1dbf

sparse_resnet_denoiser/level_1/batch_normalization_27/FusedBatchNormV31 f4 [16]
2.6368623 3.1292827 3.1776254 3.5638685 1.3621638 0.48691425 1.9258941 3.1804042
4.0141 3.0379088 1.6102922 3.2972443 3.1116552 0.3099646 1.7186322 0.4793904
00000000: 5ac2 2840 2b46 4840 375e 4b40 6c16 6440
00000010: 625b ae3f d34c f93e b383 f63f be8b 4b40
00000020: 8273 8040 196d 4240 0e1e ce3f 0d06 5340
00000030: 5c25 4740 aeb3 9e3e 24fc db3f a972 f53e

sparse_resnet_denoiser/level_1/batch_normalization_28/FusedBatchNormV3 f4 [16]
-0.53872746 -0.40340912 -7.590559e-10 -0.6479483 -0.16687399 -0.7901201 -0.54004663 -0.5903483
-0.3806912 -0.630814 -0.5505222 -0.7758242 -0.84399766 -0.4114317 -0.40078002 -0.58664054
00000000: 0bea 09bf a48b cebe cfa5 50b0 f1df 25bf
00000010: 04e1 2abe 5045 4abf 7f40 0abf 1121 17bf
00000020: f5e9 c2be 077d 21bf 06ef 0cbf 6a9c 46bf
00000030: 3b10 58bf 2da7 d2be 0a33 cdbe 132e 16bf

sparse_resnet_denoiser/level_1/batch_normalization_28/FusedBatchNormV31 f4 [16]
11.112545 11.230422 1.0472659 8.780363 9.347766 6.6618943 7.994715 7.2143254
8.007881 6.654571 15.024472 5.3937807 4.1964693 12.111397 17.674103 15.584181
00000000: fccc 3141 cfaf 3341 cf0c 863f 5e7c 0c41
00000010: 7390 1541 3d2e d540 b5d4 ff40 c1db e640
00000020: 4820 0041 3ff2 d440 3d64 7041 da99 ac40
00000030: 7a49 8640 48c8 4141 9064 8d41 ce58 7941

sparse_resnet_denoiser/level_1/batch_normalization_29/FusedBatchNormV3 f4 [32]
-0.725665 -0.3093728 -0.0015802977 -0.58117414 -1.4306195 -0.4485833 -0.88087577 -9.418144e-09
-0.89126295 -0.7691163 -1.0585163 -0.65615076 -0.99589235 -1.1894388 -0.98911685 9.708331e-09
-0.97182655 -1.0644605 -1.02238475e-08 0.0014940707 -0.11360722 -0.53119826 -8.988191e-09 -0.5262023
-0.42355177 -0.57143134 -9.7719735e-09 -0.53282917 -0.16124198 -1.1631931 -0.522426 -1.3471055
00000000: 2ec5 39bf 1d66 9ebe fe21 cfba d4c7 14bf
00000010: 8a1e b7bf b6ac e5be 1381 61bf 6fcd 21b2
00000020: cf29 64bf cee4 44bf 767d 87bf 7ff9 27bf
00000030: cdf2 7ebf 883f 98bf c336 7dbf b1c9 2632
00000040: a0c9 78bf 3e40 88bf f5a4 2fb2 b2d4 c33a
00000050: e7aa e8bd 9cfc 07bf 7b6a 1ab2 32b5 06bf
00000060: c7db d8be 5349 12bf 98e1 27b2 7e67 08bf
00000070: 9e1c 25be 83e3 94bf b6bd 05bf f46d acbf

sparse_resnet_denoiser/level_1/batch_normalization_29/FusedBatchNormV31 f4 [32]
8.497854 7.931931 3.5958903 7.9753036 15.093454 6.27164 12.817161 3.2002668
6.6865306 13.8070345 8.942006 3.6606848 11.403501 12.269083 19.16216 -3.2669783
22.644264 9.119172 3.3577013 -3.4485447 15.872405 8.129686 3.0431838 3.689496
7.017931 17.328646 3.2732825 10.002109 9.522878 10.2752285 8.933092 8.015663
00000000: 36f7 0741 61d2 fd40 1123 6640 b035 ff40
00000010: ca7e 7141 46b1 c840 1713 4d41 2cd1 4c40
00000020: 0ff8 d540 9de9 5c41 7512 0f41 a948 6a40
00000030: bd74 3641 2a4e 4441 1b4c 9941 2c16 51c0
00000040: 7427 b541 21e8 1141 94e4 5640 f5b4 5cc0
00000050: 5ff5 7d41 3213 0241 86c3 4240 b420 6c40
00000060: e492 e040 11a1 8a41 767d 5140 a308 2041
00000070: b55d 1841 5667 2441 f2ed 0e41 2840 0041

sparse_resnet_denoiser/level_1/batch_normalization_30/FusedBatchNormV3 f4 [16]
-0.5159305 -0.28897068 -0.2646395 -0.45433074 -0.7239469 -0.31806883 -1.3218924 -0.4248755
-0.41867203 -0.20716359 -0.56043667 -0.42497605 -0.58150125 -0.2035331 -0.61863565 -0.5631636
00000000: 0514 04bf f7f3 93be d47e 87be 0a9e e8be
00000010: 9654 39bf ebd9 a2be c533 a9bf 4889 d9be
00000020: 2e5c d6be b122 54be c778 0fbf 7696 d9be
00000030: 44dd 14bf fb6a 50be e85e 1ebf 7d2b 10bf

sparse_resnet_denoiser/level_1/batch_normalization_30/FusedBatchNormV31 f4 [16]
0.8603047 0.5201825 0.69292825 1.1957713 0.526907 0.20491825 0.8641056 0.9608551
0.811029 1.0547882 0.4206389 1.0739453 1.2416569 0.21790715 0.7479655 0.40265632
00000000: ee3c 5c3f ae2a 053f bf63 313f 090f 993f
00000010: 61e3 063f 17d6 513e 0636 5d3f 9afa 753f
00000020: 999f 4f3f 4d03 873f fb5d d73e 0a77 893f
00000030: 9dee 9e3f 0d23 5f3e ab7a 3f3f f828 ce3e

sparse_resnet_denoiser/level_1/batch_normalization_31/FusedBatchNormV3 f4 [16]
4.5130905e-16 -8.732375e-10 -0.9839121 -0.5144429 -0.5998627 -0.60745966 -4.0107404e-10 -0.7947444
-1.2336307 -1.375669 -0.54104084 -0.62383175 -0.54768497 -0.47127673 -0.38048908 -0.3104138
00000000: bb14 0226 a008 70b0 aae1 7bbf 88b2 03bf
00000010: 9a90 19bf 7a82 1bbf 277e dcaf 5e74 4bbf
00000020: 9ce7 9dbf ec15 b0bf a781 0abf 70b3 1fbf
00000030: 1535 0cbf 2f4b f1be 77cf c2be 8fee 9ebe

sparse_resnet_denoiser/level_1/batch_normalization_31/FusedBatchNormV31 f4 [16]
-0.13883924 1.3971108 6.6570745 13.871142 8.937825 9.80032 0.7369953 6.845338
6.8851833 10.417773 17.86699 6.5423865 7.5448885 16.870716 8.306379 15.925782
00000000: e02b 0ebe 87d4 b23f c106 d540 33f0 5d41
00000010: 5501 0f41 1cce 1c41 b9ab 3c3f 020d db40
00000020: 6c53 dc40 33af 2641 98ef 8e41 3b5b d140
00000030: ba6f f140 3af7 8641 eee6 0441 01d0 7e41

sparse_resnet_denoiser/level_1/batch_normalization_32/FusedBatchNormV3 f4 [32]
-4.043542e-09 -0.6752634 -0.4866578 -0.66573405 -0.71278775 -0.44883853 5.260181e-09 -0.7693985
-0.6670708 6.022601e-09 -5.6693863e-09 -0.55201817 -0.82001424 -0.5415656 -0.76984084 -0.9208757
-0.5218744 0.0008610435 4.004004e-09 -5.7402993e-09 5.3828524e-09 -0.74211764 -0.47668958 -0.6450787
5.786195e-09 -0.00084409985 -0.31265843 -5.781585e-09 -0.42188275 -5.00748e-09 -0.7865001 -0.5624386
00000000: 5fef 8ab1 10de 2cbf 362b f9be 8c6d 2abf
00000010: 4279 36bf 2ace e5be 0bbd b431 4df7 44bf
00000020: 27c5 2abf 5cef ce31 73cc c2b1 1051 0dbf
00000030: 74ec 51bf 0ba4 0abf 4a14 45bf 83be 6bbf
00000040: 9099 05bf a7b7 613a 9793 8931 353c c5b1
00000050: 12f4 b831 6cfb 3dbf a810 f4be e123 25bf
00000060: e9cf c631 9546 5dba c414 a0be 5ca7 c6b1
00000070: 0401 d8be 430e acb1 1258 49bf fafb 0fbf

sparse_resnet_denoiser/level_1/batch_normalization_32/FusedBatchNormV31 f4 [32]
1.2119492 3.8588445 1.7405146 4.5619645 4.0396576 6.0713615 -1.5856766 3.9804149
4.4413586 -1.7598596 1.709545 3.5856318 6.704392 8.773466 1.6684865 3.1146898
2.5008461 -1.7729076 -1.2120674 1.6880168 -1.6073165 4.759949 4.309538 2.9886014
-1.6799039 1.7543379 6.4560566 1.732539 5.655695 1.5414891 15.344519 3.8132403
00000000: 2721 9b3f 4ff7 7640 2fc9 de3f 9dfb 9140
00000010: e044 8140 9848 c240 73f7 cabf 1ebf 7e40
00000020: 9c1f 8e40 1443 e1bf 5fd2 da3f fe7a 6540
00000030: 618a d640 1e60 0c41 f790 d53f 1457 4740
00000040: dd0d 2040 a3ee e2bf 0625 9bbf ef10 d83f
00000050: 8cbc cdbf 8151 9840 bce7 8940 3f45 3f40
00000060: 1707 d7bf 258e e03f 0498 ce40 d7c3 dd3f
00000070: 74fb b440 844f c53f 2683 7541 210c 7440

sparse_resnet_denoiser/level_1/batch_normalization_33/FusedBatchNormV3 f4 [16]
0.00016700197 -3.467694e-05 4.4498087e-05 1.4957516e-05 -0.29163465 -0.13674374 -0.6532761 -9.298674e-05
-0.0001506171 -0.08727375 -0.42278993 -0.0003211272 -0.20747304 -0.083446644 -0.32242528 6.618425e-05
00000000: 401d 2f39 1572 11b8 75a3 3a38 0bf2 7a37
00000010: 2351 95be 8d06 0cbe 1a3d 27bf e001 c3b8
00000020: f8ee 1db9 94bc b2bd ec77 d8be f75c a8b9
00000030: d073 54be 13e6 aabd ed14 a5be 66cc 8a38

sparse_resnet_denoiser/level_1/batch_normalization_33/FusedBatchNormV31 f4 [16]
-0.00027847275 6.2422725e-05 -0.000116513154 -3.936729e-05 0.14446849 0.070642844 0.2941941 0.00021028932
0.00029176736 0.22909722 0.20866604 0.0008115117 0.29281664 0.0728171 0.31473008 -4.7321075e-05
00000000: fbff 91b9 f2e8 8238 8658 f4b8 4e1e 25b8
00000010: 8cef 133e 32ad 903d 9ca0 963e 1c81 5c39
00000020: 5af8 9839 7698 6a3e 8dac 553e a1bb 543a
00000030: 10ec 953e 2221 953d 4d24 a13e 9e7a 46b8

sparse_resnet_denoiser/level_2/batch_normalization_35/FusedBatchNormV3 f4 [16]
-0.00047994524 2.0207369e-10 0.000121387144 5.665643e-10 -9.800975e-11 -0.0017409637 0.000111925685 -0.0012441584
1.9827271e-12 -4.5138448e-05 0.00014484796 -1.631246e-11 4.9098126e-05 -0.0008474674 7.77962e-06 -8.80596e-05
00000000: 29a1 fbb9 b02e 5e2f 3a91 fe38 6bbc 1b30
00000010: 9686 d7ae 0c31 e4ba a5b9 ea38 0713 a3ba
00000020: a385 0b2c 0a53 3db8 54e2 1739 657c 8fad
00000030: b6ee 4d38 9328 5eba 3785 0237 a3ac b8b8

sparse_resnet_denoiser/level_2/batch_normalization_35/FusedBatchNormV31 f4 [16]
0.031090047 0.023285318 209.3502 0.06527927 -0.011292936 0.92208546 293.4352 92.97763
0.00022845766 379.23523 299.83417 -0.001879525 381.84232 12.911087 247.1262 365.82584
00000000: 8eb0 fe3c dac0 be3c a759 5143 23b1 853d
00000010: 0206 39bc cb0d 6c3f b5b7 9243 8cf4 b942
00000020: 238e 6f39 1c9e bd43 c6ea 9543 655a f6ba
00000030: d1eb be43 d093 4e41 4f20 7743 b5e9 b643

sparse_resnet_denoiser/level_2/batch_normalization_36/FusedBatchNormV3 f4 [16]
0.0 -0.033636056 0.0 0.0 -0.10651892 -0.103647776 0.0 0.0
-0.032591708 -5.947002e-33 0.0 -6.477998e-16 0.0 -0.1308461 -0.22700262 0.0
00000000: 0000 0000 f6c5 09bd 0000 0000 0000 0000
00000010: 9726 dabd 4945 d4bd 0000 0000 0000 0000
00000020: e27e 05bd 5f07 f789 0000 0000 30b7 3aa6
00000030: 0000 0000 85fc 05be 6073 68be 0000 0000

sparse_resnet_denoiser/level_2/batch_normalization_36/FusedBatchNormV31 f4 [16]
0.14552194 92.86444 0.57952946 0.060070634 145.45135 88.95105 -0.07891127 -0.25573424
117.896835 0.78039217 -0.05467927 24.15255 -0.23325135 144.00098 112.3452 0.2918703
00000000: b403 153e 98ba b942 0b5c 143f a00c 763d
00000010: 8c73 1143 f0e6 b142 3b9c a1bd 99ef 82be
00000020: 2ecb eb42 c8c7 473f 5ff7 5fbd 6c38 c141
00000030: 71d9 6ebe 4000 1043 beb0 e042 0670 953e

sparse_resnet_denoiser/level_2/batch_normalization_37/FusedBatchNormV3 f4 [32]
-0.8684763 -0.6020789 -1.6426793e-31 6.761351e-16 0.0 -0.762905 -0.21169417 -1.24671e-15
-0.25390452 -0.6125459 -0.6182315 -0.24799895 -0.24072833 0.0 -0.13106777 -0.06896029
-1.2482134 -9.063943e-16 -0.5493473 -5.1694257e-16 -1.4677475e-31 -0.10084579 1.7312759e-15 -0.5972721
-0.23341253 -0.41197222 -0.26074427 -1.7945833e-15 -0.1620829 -0.25404766 -0.72534984 -0.43020445
00000000: 7654 5ebf d821 1abf 623b 558c f7e1 4226
00000010: 0000 0000 be4d 43bf 5bc6 58be 7bab b3a6
00000020: c6ff 81be cfcf 1cbf 6b44 1ebf 70f3 7dbe
00000030: 7d81 76be 0000 0000 a136 06be 0d3b 8dbd
00000040: 75c5 9fbf 0ca0 82a6 06a2 0cbf a1ff 14a6
00000050: 4786 3e8c 3d88 cebd cf80 f926 d3e6 18bf
00000060: b203 6fbe 06ee d2be 4680 85be 3850 01a7
00000070: 0ff9 25be 8912 82be 87b0 39bf c243 dcbe

sparse_resnet_denoiser/level_2/batch_normalization_37/FusedBatchNormV31 f4 [32]
19.125835 10.931577 0.1569812 -0.20805739 -0.009639207 16.20272 22.213509 0.40936702
28.341482 30.060724 11.770439 6.990097 8.707574 -0.21923438 12.147277 10.324141
5.743052 0.2897613 20.321028 0.17752716 0.13688745 12.037514 -0.57170105 4.0694904
11.260231 20.624292 11.22865 0.5925116 14.717305 7.6006293 3.3158262 8.166611
00000000: b601 9941 bde7 2e41 aebf 203e ff0c 55be
00000010: c4ed 1dbc 2c9f 8141 44b5 b141 8e98 d13e
00000020: 5bbb e241 5d7c f041 b853 3c41 e0ae df40
00000030: 3952 0b41 fa7e 60be 3f5b 4241 ae2f 2541
00000040: 15c7 b740 985b 943e 7791 a241 aec9 353e
00000050: 392c 0c3e a899 4041 005b 12bf 4439 8240
00000060: e829 3441 8dfe a441 8da8 3341 d7ae 173f
00000070: 157a 6b41 5b38 f340 7f36 5440 70aa 0241

sparse_resnet_denoiser/level_2/batch_normalization_38/FusedBatchNormV3 f4 [16]
-0.49293226 -0.69770545 -0.9799755 -0.7055132 -0.4392731 -0.3336846 -0.48073006 -0.5577903
-0.9519632 -0.66849774 -1.1131582 -0.91686046 -0.7452486 -0.62945956 -0.6798258 -1.0126015
00000000: 9e61 fcbe d39c 32bf addf 7abf 839c 34bf
00000010: 67e8 e0be b5d8 aabe 4022 f6be 58cb 0ebf
00000020: dcb3 73bf ab22 2bbf f87b 8ebf 5eb7 6abf
00000030: 9dc8 3ebf 4324 21bf 1009 2ebf ed9c 81bf

sparse_resnet_denoiser/level_2/batch_normalization_38/FusedBatchNormV31 f4 [16]
2.0259416 38.305363 78.7879 1.3465614 39.550247 18.937052 60.362373 45.114082
10.711175 36.168476 7.843103 21.274326 33.424046 53.580772 20.225693 47.450596
00000000: 07a9 0140 b138 1942 6893 9d42 205c ac3f
00000010: 7433 1e42 157f 9741 1273 7142 d274 3442
00000020: f960 2b41 85ac 1042 b3fa fa40 d231 aa41
00000030: 39b2 0542 b652 5642 38ce a141 69cd 3d42

sparse_resnet_denoiser/level_2/batch_normalization_39/FusedBatchNormV3 f4 [16]
-0.48281285 6.3692547e-16 -0.6520373 -0.41052398 -0.37190014 -0.36268052 -0.32159665 -0.41234934
-0.4092653 -0.30206218 -0.32055318 -0.3135725 -0.4018922 -0.45781267 -0.2721803 -0.4120238
00000000: 3f33 f7be ce94 3726 ebeb 26bf 3330 d2be
00000010: b269 bebe 43b1 b9be 51a8 a4be 741f d3be
00000020: 398b d1be e5a7 9abe 8c1f a4be 938c a0be
00000030: d0c4 cdbe 6c66 eabe 375b 8bbe c9f4 d2be

sparse_resnet_denoiser/level_2/batch_normalization_39/FusedBatchNormV31 f4 [16]
2.1497066 -0.12242455 7.893275 4.180296 10.953568 11.028876 9.72062 4.253899
12.777661 10.481208 6.085977 8.432525 6.275265 6.8078966 8.932997 10.20286
00000000: cb94 0940 b9b9 fabd b595 fc40 fcc4 8540
00000010: d141 2f41 4776 3041 a987 1b41 f11f 8840
00000020: 4d71 4c41 07b3 2741 53c0 c240 9feb 0641
00000030: f9ce c840 4ada d940 8eed 0e41 ea3e 2341

sparse_resnet_denoiser/level_2/batch_normalization_40/FusedBatchNormV3 f4 [32]
-0.36893559 -0.25078523 -2.1150677e-09 -0.32987598 -0.2763434 -0.45611206 1.2640173e-09 -0.21916987
2.1775428e-09 -0.35390908 7.945487e-10 -2.0856794e-09 -0.35973272 -0.27672097 -1.8911794e-09 -0.19407533
-1.8770072e-09 -0.43163934 -0.30779162 0.00033959188 -0.44107953 -0.31193995 -0.28806907 -0.23149481
-0.35765043 -0.37897015 -0.32848907 -0.20938234 -0.20604396 -0.2190749 -0.35587025 -0.30271006
00000000: 20e5 bcbe ec66 80be aa58 11b1 81e5 a8be
00000010: e27c 8dbe 8587 e9be a8b9 ad30 116e 60be
00000020: bda3 1531 9233 b5be 6567 5a30 a953 0fb1
00000030: e32e b8be 5fae 8dbe fbf5 01b1 afbb 46be
00000040: a9fc 00b1 d5ff dcbe dd96 9dbe 400b b239
00000050: 2dd5 e1be 98b6 9fbe ca7d 93be fa0c 6dbe
00000060: f51d b7be 6008 c2be b82f a8be 5368 56be
00000070: 30fd 52be 2c55 60be a034 b6be d0fc 9abe

sparse_resnet_denoiser/level_2/batch_normalization_40/FusedBatchNormV31 f4 [32]
7.8856044 5.74646 1.0314081 3.727078 6.7156363 8.257981 -0.6353665 4.2848043
-1.0279483 9.106198 -0.40494815 1.0010991 6.695377 6.5791335 0.9113741 6.0481906
0.9197068 2.806464 6.2439094 -1.1050692 4.227246 3.4466922 8.516419 7.3368697
7.499173 8.044056 7.910237 6.0114455 8.18398 7.605214 8.885616 6.4362473
00000000: df56 fc40 00e3 b740 2e05 843f 7288 6e40
00000010: 7ee6 d640 b120 0441 61a7 22bf 1e1d 8940
00000020: cf93 83bf fdb2 1141 5d55 cfbe 0424 803f
00000030: 8740 d640 4388 d240 d04f 693f c78a c140
00000040: e871 6b3f 1b9d 3340 1bce c740 e872 8dbf
00000050: 9945 8740 9b96 5c40 4143 0841 a3c7 ea40
00000060: 3af9 ef40 74b4 0041 a920 fd40 c35d c040
00000070: 95f1 0241 ea5d f340 7c2b 0e41 bdf5 cd40

sparse_resnet_denoiser/level_2/batch_normalization_41/FusedBatchNormV3 f4 [16]
-0.2290289 -0.44704965 -0.61409825 -0.3411934 -0.88097686 -0.50836414 -0.57581425 -0.50679064
-0.331336 -0.4874108 -0.61491954 -0.8246612 -0.6406589 -0.8269547 -0.5717106 -0.5553934
00000000: 8d86 6abe b1e3 e4be 8b35 1dbf e7b0 aebe
00000010: b387 61bf 2724 02bf 9068 13bf 08bd 01bf
00000020: dfa4 a9be e98d f9be 5e6b 1dbf ff1c 53bf
00000030: 3902 24bf 4eb3 53bf a05b 12bf 432e 0ebf

sparse_resnet_denoiser/level_2/batch_normalization_41/FusedBatchNormV31 f4 [16]
0.4787817 4.361799 17.013445 0.5582548 15.290854 7.381172 11.99858 13.793437
1.7397201 10.232122 3.9452555 12.682889 8.675483 24.062616 8.697077 9.208269
00000000: e022 f53e db93 8b40 891b 8841 c9e9 0e3f
00000010: 57a7 7441 9032 ec40 2ffa 3f41 ebb1 5c41
00000020: 26af de3f c6b6 2341 117f 7c40 1ded 4a41
00000030: c7ce 0a41 3d80 c041 3a27 0b41 1255 1341

sparse_resnet_denoiser/level_2/batch_normalization_42/FusedBatchNormV3 f4 [16]
-0.87635183 -1.2338642e-31 -0.6357784 -0.58341706 -0.8846363 -0.7673156 -0.7328487 -0.7168442
-0.53651154 -0.61299527 -0.6739585 -0.62124074 -0.7432238 -0.6074457 -0.650142 -0.6618364
00000000: 9858 60bf 2c2a 208c 60c2 22bf d25a 15bf
00000010: 8677 62bf cc6e 44bf f99b 3bbf 1a83 37bf
00000020: d258 09bf 42ed 1cbf 8b88 2cbf a209 1fbf
00000030: ea43 3ebf 9081 1bbf b56f 26bf 1c6e 29bf

sparse_resnet_denoiser/level_2/batch_normalization_42/FusedBatchNormV31 f4 [16]
21.8368 0.11905515 8.340716 17.513319 15.107491 23.575094 23.164434 16.220722
21.44374 18.815836 20.505236 18.00819 13.63358 9.508219 17.380749 37.144844
00000000: c4b1 ae41 30d3 f33d 9373 0541 471b 8c41
00000010: 48b8 7141 cb99 bc41 c350 b941 0ac4 8141
00000020: c88c ab41 d586 9641 b90a a441 c610 9041
00000030: 2523 5a41 aa21 1841 c60b 8b41 5294 1442

sparse_resnet_denoiser/level_2/batch_normalization_43/FusedBatchNormV3 f4 [32]
5.1492064e-09 -0.38526016 3.375452e-09 -0.59141886 4.0535655e-09 3.999098e-09 -4.085359e-09 -0.58300006
-0.5311253 3.189704e-09 -0.5426461 -0.0006137941 -1.1872731 4.1625636e-09 -0.43639418 -1.102722
3.9301518e-09 -0.40894708 -4.3466644e-09 -0.5805342 -0.84616315 3.505277e-09 -0.59900236 3.760991e-09
-0.6274969 -0.47001472 -0.7516708 -0.5214707 -0.67934835 -0.47628757 -0.00070721493 -0.70243424
00000000: e6ec b031 d240 c5be 94f5 6731 3a67 17bf
00000010: 8a47 8b31 7068 8931 335f 8cb1 7e3f 15bf
00000020: d4f7 07bf de31 5b31 dbea 0abf 06e7 20ba
00000030: 91f8 97bf 4c06 8f31 0f6f dfbe ff25 8dbf
00000040: fb09 8731 8361 d1be aa59 95b1 e49d 14bf
00000050: 269e 58bf 7ce1 7031 3858 19bf 073a 8131
00000060: a3a3 20bf c5a5 f0be 7f6d 40bf 1b7f 05bf
00000070: c6e9 2dbf f7db f3be 6464 39ba bbd2 33bf

sparse_resnet_denoiser/level_2/batch_normalization_43/FusedBatchNormV31 f4 [32]
-1.4133551 6.382145 -0.96552193 8.642641 -1.1367421 -1.131771 1.1263111 8.682591
7.344728 -0.88034177 6.5981913 1.2004178 4.399317 -1.1718549 4.7369056 3.497676
-1.1057124 6.2010913 1.2299671 6.488373 10.903106 -1.0086988 6.0006056 -1.0730093
8.461866 5.337652 7.9788594 2.9612312 9.368979 5.1485767 1.367394 7.365448
00000000: d2e8 b4bf 883a cc40 722c 77bf 4248 0a41
00000010: c480 91bf dfdd 90bf f62a 903f e5eb 0a41
00000020: 0308 eb40 145e 61bf 6224 d340 4aa7 993f
00000030: 34c7 8c40 57ff 95bf bb94 9740 ecd9 5f40
00000040: fc87 8dbf 576f c640 906f 9d3f c0a0 cf40
00000050: 1f73 2e41 0b1d 81bf f604 c040 5e58 89bf
00000060: ce63 0741 0cce aa40 d152 ff40 d084 3d40
00000070: 57e7 1541 24c1 a440 c406 af3f c0b1 eb40

sparse_resnet_denoiser/level_2/batch_normalization_44/FusedBatchNormV3 f4 [16]
-0.19451417 -0.8853105 -0.6445511 -0.5568035 -0.85939354 -0.6456058 -0.9092033 -0.86997974
-0.28988993 -0.668283 -1.7662497 -0.6552983 -0.5148906 -1.0380193 -0.9032603 -0.8230763
00000000: b92e 47be b5a3 62bf 4d01 25bf ad8a 0ebf
00000010: 3701 5cbf 6c46 25bf 8cc1 68bf feb6 5ebf
00000020: 746c 94be 9814 2bbf 7814 e2bf a1c1 27bf
00000030: dfcf 03bf d1dd 84bf 113c 67bf 21b5 52bf

sparse_resnet_denoiser/level_2/batch_normalization_44/FusedBatchNormV31 f4 [16]
0.39103475 1.7585799 4.9500456 0.8774004 6.2413692 4.9825315 8.913451 9.495757
1.3752806 8.352629 6.565092 3.2062588 2.7972398 5.071645 5.6098914 7.544395
00000000: b535 c83e 2519 e13f c666 9e40 509d 603f
00000010: 4cb9 c740 e670 9f40 7f9d 0e41 9fee 1741
00000020: 3209 b03f 5ea4 0541 3c15 d240 5833 4d40
00000030: fa05 3340 ea4a a240 3b84 b340 af6b f140

sparse_resnet_denoiser/level_2/batch_normalization_45/FusedBatchNormV3 f4 [16]
-0.1887786 -0.8574052 -0.5803402 -0.49534822 1.870649e-09 -0.65473807 -0.43390426 -0.6187334
-0.5378982 -0.6735528 -0.56220496 -0.8175053 -0.57276344 -0.5447076 -0.57316846 -0.58342224
00000000: 2d4f 41be e87e 5bbf 2d91 14bf 489e fdbe
00000010: ce8c 0031 ea9c 27bf b328 debe 5065 1ebf
00000020: b2b3 09bf f56d 2cbf aaec 0fbf 0748 51bf
00000030: a0a0 12bf f571 0bbf 2bbb 12bf 295b 15bf

sparse_resnet_denoiser/level_2/batch_normalization_45/FusedBatchNormV31 f4 [16]
10.139261 20.301361 13.54393 6.8262925 -2.2397864 7.2939925 5.536871 8.233173
12.884142 4.525217 9.181922 20.71175 14.63665 8.564809 8.631662 12.074208
00000000: 6a3a 2241 3069 a241 f0b3 5841 fd70 da40
00000010: a958 0fc0 6368 e940 0c2e b140 14bb 0341
00000020: 7225 4e41 94ce 9040 27e9 1241 aab1 a541
00000030: b82f 6a41 7509 0941 4a1b 0a41 f52f 4141

sparse_resnet_denoiser/level_2/batch_normalization_46/FusedBatchNormV3 f4 [32]
0.000704755 -0.72934735 -5.06573e-09 -0.044050142 0.0 -0.12801601 -0.78457606 -0.4196234
-0.054710433 -0.053796344 0.00076030183 -5.2741798e-09 -0.05214884 -0.57931614 -0.045391273 -0.46928754
-0.77615774 -0.69589937 -0.6533411 -0.22446787 -0.54627126 4.2460044e-09 -0.63450533 -0.6160364
-0.270383 -0.6109825 0.00078303396 -4.4792206e-09 -0.7254907 -0.045319024 -5.1698112e-09 -0.056723297
00000000: 4fbf 383a 82b6 3abf a20e aeb1 ec6d 34bd
00000010: 0000 0000 a116 03be fad9 48bf e1d8 d6be
00000020: 0c18 60bd 8e59 5cbd fe4e 473a 2d38 b5b1
00000030: 069a 55bd 104e 14bf 33ec 39bd 7546 f0be
00000040: 46b2 46bf 7626 32bf 5d41 27bf e8da 65be
00000050: 6fd8 0bbf 40e4 9131 f16e 22bf 90b4 1dbf
00000060: a46f 8abe 5969 1cbf 8544 4d3a a4e7 99b1
00000070: c2b9 39bf 71a0 39bd 24a2 b1b1 b056 68bd

sparse_resnet_denoiser/level_2/batch_normalization_46/FusedBatchNormV31 f4 [32]
-1.6183469 17.095516 1.7189807 3.3485918 0.22139405 9.4088545 8.153198 11.75962
2.7516885 3.3564942 -1.7420002 1.7465498 3.0457995 4.568571 5.1388907 2.6305115
7.9519653 3.574606 8.921074 4.6808167 9.854897 -1.4538087 10.383334 4.7711368
5.0746074 2.7025723 -1.8051052 1.5067086 4.3317227 2.7313414 1.7304877 2.4358842
00000000: fe25 cfbf 9ec3 8841 8f07 dc3f 544f 5640
00000010: 1fb5 623e ab8a 1641 8073 0241 6727 3c41
00000020: aa1b 3040 cdd0 5640 ddf9 debf f28e df3f
00000030: 61ee 4240 bc31 9240 cb71 a440 4d5a 2840
00000040: 8076 fe40 58c6 6440 b8bc 0e41 40c9 9540
00000050: a8ad 1d41 6716 babf 2322 2641 27ad 9840
00000060: 2f63 a240 f2f6 2c40 b00d e7bf d4db c03f
00000070: 799d 8a40 4cce 2e40 9f80 dd3f 87e5 1b40

sparse_resnet_denoiser/level_2/batch_normalization_47/FusedBatchNormV3 f4 [16]
-0.11506624 -0.75212014 -0.00019153832 -0.36727187 -0.5612837 -0.848949 -0.20299084 -0.408667
-0.13283435 -0.37574157 -0.48343587 -0.57830256 -0.73121876 -0.39132494 -0.33523098 -0.33951157
00000000: d9a7 ebbd f28a 40bf add7 48b9 0f0b bcbe
00000010: 4ab0 0fbf b954 59bf d5dc 4fbe cd3c d1be
00000020: ba05 08be 3361 c0be e884 f7be a30b 14bf
00000030: 2731 3bbf be5b c8be 65a3 abbe 76d4 adbe

sparse_resnet_denoiser/level_2/batch_normalization_47/FusedBatchNormV31 f4 [16]
0.14357558 0.8867102 0.0014709826 0.5486986 2.3744552 3.0125532 1.2464697 2.1105967
0.3217526 2.2399664 1.1078392 1.4116954 1.8309288 0.86954266 1.3655013 1.277598
00000000: 7a05 133e 71ff 623f fccd c03a 8377 0c3f
00000010: 13f7 1740 accd 4040 528c 9f3f 0414 0740
00000020: c2bc a43e 9c5b 0f40 adcd 8d3f 6fb2 b43f
00000030: e05b ea3f 599a 5e3f bfc8 ae3f 5588 a33f

sparse_resnet_denoiser/level_2/batch_normalization_48/FusedBatchNormV3 f4 [16]
-0.83652204 1.3654939e-09 -0.00018976955 -0.38407227 -1.2608709e-09 -0.4049399 -0.25603443 -0.00017301184
-0.00018377716 -1.216756e-09 -0.16500911 -0.4187644 -0.83579266 0.00018914953 1.1849735e-09 -0.3829974
00000000: 4f26 56bf 0cac bb30 e0fc 46b9 1fa5 c4be
00000010: f34a adb0 4854 cfbe f216 83be 836a 35b9
00000020: 4eb4 40b9 cc3a a7b0 26f8 28be 4a68 d6be
00000030: 82f6 55bf 7156 4639 8cdc a230 3c18 c4be

sparse_resnet_denoiser/level_2/batch_normalization_48/FusedBatchNormV31 f4 [16]
7.8519945 -3.6801558 3.652717 25.228226 3.5098965 21.116648 22.336239 3.35752
3.5035205 3.4318194 24.291693 29.410841 10.390835 -3.6091754 -3.3688948 34.998722
00000000: 8a43 fb40 ac87 6bc0 1ec6 6940 68d3 c941
00000010: 25a2 6040 e5ee a841 9eb0 b241 9ce1 5640
00000020: ae39 6040 eea2 5b40 6355 c241 6749 eb41
00000030: dc40 2641 bbfc 66c0 f99b 57c0 b1fe 0b42

sparse_resnet_denoiser/level_2/batch_normalization_49/FusedBatchNormV3 f4 [32]
6.7163264e-10 -0.38044477 -5.288579e-15 -9.920855e-10 -6.3687607e-15 -1.6101533e-09 -0.07461782 -0.08843029
6.594599e-16 -0.07692539 -0.0934141 2.130869e-15 -0.6926625 -3.702389e-15 0.0 1.6814967e-15
0.0 -0.049969662 -3.0776023e-15 -6.7784195e-10 0.0 -1.8941546e-15 -1.0100789e-09 6.2973854e-32
-0.75369126 -0.066199325 2.2027407e-15 0.0 0.0 0.0 -3.0337359e-16 -0.07377987
00000000: f29d 3830 a8c9 c2be 888a bea7 e859 88b0
00000010: 7375 e5a7 3c4c ddb0 3ad1 98bd f11a b5bd
00000020: 8d13 3e26 0f8b 9dbd e44f bfbd 988b 1927
00000030: 5452 31bf 8364 85a7 0000 0000 4754 f226
00000040: 0000 0000 fdac 4cbd bec3 5da7 e352 3ab0
00000050: 0000 0000 fc7c 08a7 fed2 8ab0 4e7d a30b
00000060: e9f1 40bf 8393 87bd 65b9 1e27 0000 0000
00000070: 0000 0000 0000 0000 0ae2 aea5 e719 97bd

sparse_resnet_denoiser/level_2/batch_normalization_49/FusedBatchNormV31 f4 [32]
-0.42794356 11.53125 0.4894808 0.63132656 0.5960225 1.016448 9.892164 3.2114484
-0.060191013 5.2582426 1.6427835 -0.20102882 2.3491457 0.34757188 0.03301941 -0.15859704
-0.16058308 11.694725 0.29473498 0.43805078 0.18016692 0.17790422 0.6335092 -0.020010121
2.5583172 9.93131 -0.21124324 0.058160864 -0.0704754 0.118068725 0.028742323 4.0752034
00000000: 6b1b dbbe 0080 3841 3a9d fa3e 9e9e 213f
00000010: ee94 183f f81a 823f 4e46 1e41 5f88 4d40
00000020: da8a 76bd 8643 a840 bb46 d23f 80da 4dbe
00000030: 6758 1640 f1f4 b13e 5c3f 073d 4367 22be
00000040: e46f 24be 981d 3b41 81e7 963e 3148 e03e
00000050: ad7d 383e 862c 363e a92d 223f 44ec a3bc
00000060: 78bb 2340 a5e6 1e41 2650 58be 163a 6e3d
00000070: 6855 90bd 04ce f13d 0575 eb3c 1168 8240

sparse_resnet_denoiser/level_2/batch_normalization_50/FusedBatchNormV3 f4 [16]
-0.06368511 -0.59241366 8.272194e-05 5.951609e-05 -0.06953462 -0.10076307 -4.57407e-06 5.5372737e-05
-0.06005361 -7.1105016e-05 -0.10192686 -4.9984934e-05 -0.137192 -0.076581076 -0.07459247 -0.09179173
00000000: 576d 82bd 6ca8 17bf 017b ad38 eaa0 7938
00000010: 2b68 8ebd de5c cebd f67a 99b6 0640 6838
00000020: c6fa 75bd 371e 95b8 08bf d0bd eaa6 51b8
00000030: 0f7c 0cbe 8ad6 9cbd f0c3 98bd 4dfd bbbd

sparse_resnet_denoiser/level_2/batch_normalization_50/FusedBatchNormV31 f4 [16]
0.07277609 0.5099625 -0.0006352908 -8.891613e-05 0.22442777 0.33772016 2.8087177e-05 -0.00028597738
0.12012919 0.00042388935 0.15288912 0.00012201831 0.2980543 0.15612012 0.28314131 0.2529175
00000000: a10b 953d e78c 023f a589 26ba 7c78 bab8
00000010: 65d0 653e a8e9 ac3e c19c eb37 3cef 95b9
00000020: 4b06 f63d 773d de39 f78e 1c3e 15e4 ff38
00000030: 939a 983e f4dd 1f3e e6f7 903e 677e 813e

sparse_resnet_denoiser/level_3/batch_normalization_52/FusedBatchNormV3 f4 [16]
9.637907e-10 -7.999557e-10 -1.5833497e-10 -2.4293492e-10 -5.843582e-10 -0.0047499808 1.3948251e-10 -3.3674424e-10
-0.00017717488 -5.3740645e-10 -9.0357216e-10 -9.067986e-10 0.0047683516 0.006859664 -0.014040278 -0.0013680904
00000000: 5f76 8430 e1e3 5bb0 5517 2eaf 0d8e 85af
00000010: 8da0 20b0 baa5 9bbb d65c 192f 8a20 b9af
00000020: 05c8 39b9 9eb8 13b0 3d5f 78b0 4742 79b0
00000030: d53f 9c3b 08c7 e03b 3209 66bc 7f51 b3ba

sparse_resnet_denoiser/level_3/batch_normalization_52/FusedBatchNormV31 f4 [16]
-0.04656559 0.041054003 0.007952868 0.012254283 0.029944899 264.19736 -0.0069935354 0.016844634
252.36147 0.02626954 0.04596203 0.04574167 0.21601732 7.1116676 1.0478538 435.1414
00000000: 8fbb 3ebd 3e28 283d bf4c 023c 30c6 483c
00000010: 014f f53c 4319 8443 072a e5bb c2fd 893c
00000020: 895c 7c43 3833 d73c ae42 3c3d 9e5b 3b3d
00000030: a533 5d3e c892 e340 1320 863f 1992 d943

sparse_resnet_denoiser/level_3/batch_normalization_53/FusedBatchNormV3 f4 [16]
-0.2708862 0.0 -0.076513395 0.0 0.0 0.0 0.0 0.0
-0.010905127 0.0 -0.08037417 0.0 -0.047924582 0.0 0.0 -0.48107705
00000000: 99b1 8abe 0000 0000 0eb3 9cbd 0000 0000
00000010: 0000 0000 0000 0000 0000 0000 0000 0000
00000020: 6bab 32bc 0000 0000 369b a4bd 0000 0000
00000030: 914c 44bd 0000 0000 0000 0000 bb4f f6be

sparse_resnet_denoiser/level_3/batch_normalization_53/FusedBatchNormV31 f4 [16]
46.05188 -0.020198029 117.64912 -0.13415214 0.22229336 0.059250876 0.5667097 0.69857764
68.58375 -0.08990721 37.33352 0.19617052 90.57832 0.45429772 0.6210648 56.81718
00000000: 2035 3842 5676 a5bc 594c eb42 2e5f 09be
00000010: dfa0 633e 0cb1 723d e313 113f fcd5 323f
00000020: e12a 8942 4521 b8bd 8655 1542 ede0 483e
00000030: 1a28 b542 b699 e83e 1afe 1e3f cb44 6342

sparse_resnet_denoiser/level_3/batch_normalization_54/FusedBatchNormV3 f4 [32]
-8.1129377e-16 6.8723383e-16 -1.1618903e-15 -3.567099e-10 0.0 -0.114537835 6.870754e-17 -4.3529534e-11
-0.073232174 -0.5584264 -0.2132722 -0.37669355 -0.17241134 0.0 0.0 2.849124e-15
1.348183e-15 2.6537145e-31 9.740984e-16 -1.4770222 2.656842e-10 -6.4570613e-16 0.0 -0.17050156
0.0 -0.83470464 -0.13115995 -1.8411465e-10 1.3195311e-15 0.0 -0.4067053 -2.7076844e-11
00000000: ead6 69a6 e814 4626 3072 a7a6 751a c4af
00000010: 0000 0000 d092 eabd c66d 9e24 e671 3fae
00000020: c0fa 95bd 08f5 0ebf 0764 5abe fadd c0be
00000030: 998c 30be 0000 0000 0000 0000 104d 4d27
00000040: 2c4b c226 653c ac0c e361 8c26 100f bdbf
00000050: ba0f 922f b41c 3aa6 0000 0000 f697 2ebe
00000060: 0000 0000 34af 55bf cb4e 06be ab6f 4aaf
00000070: 1b2a be26 0000 0000 ad3b d0be a22b eead
