bfcnn/pretrained/resnet_color_laplacian_3x5_non_shared_bn_16x3x3_128x128_skip_input_residual/model.tflite (tflite, 190016 bytes, 150 tensors)

resnet_denoiser/level_0/batch_normalization/FusedBatchNormV3 f4 [16]
-0.47730994 0.7477302 -0.3757165 0.7933515 0.2653986 -0.27451006 2.8762128e-05 -0.49063587
0.005137762 -0.3610288 -0.41519204 -0.56609994 0.19279523 0.056008045 0.65116405 -0.25576377
00000000: f861 f4be 3f6b 3f3f ea5d c0be 1519 4b3f
00000010: 53e2 873e 958c 8cbe 3346 f137 a034 fbbe
00000020: ac5a a83b c4d8 b8be 0d94 d4be edeb 10bf
00000030: 1d6c 453e b168 653d b0b2 263f 78f3 82be

resnet_denoiser/level_0/batch_normalization/FusedBatchNormV31 f4 [16]
0.50322354 0.60892093 0.24757007 0.85055274 0.14470984 0.8566216 -8.081707e-05 0.7696141
0.5457108 0.5780345 0.6528683 0.3178937 0.19321123 0.7117326 0.48362434 0.96284485
00000000: 42d3 003f 3ee2 1b3f 0283 7d3e d3bd 593f
00000010: d12e 143e 8e4b 5b3f 567c a9b8 6e05 453f
00000020: b4b3 0b3f 12fa 133f 6022 273f f7c2 a23e
00000030: 2ad9 453e 1c34 363f 9c9d f73e 007d 763f

resnet_denoiser/level_0/batch_normalization_1/FusedBatchNormV3 f4 [16]
-0.06847526 -0.058982864 -0.0576726 -0.021424782 -0.014578629 -0.077942446 -0.03508575 -0.13515592
-0.25223523 -0.1046429 -0.07345695 -0.12811308 -0.02040716 -0.064743444 -0.08498505 -0.06532356
00000000: c23c 8cbd 0498 71bd 1b3a 6cbd 0683 afbc
00000010: 34db 6ebc 4aa0 9fbd 13b6 0fbd 5066 0abe
00000020: fa24 81be 044f d6bd 9970 96bd 1330 03be
00000030: eb2c a7bc 3698 84bd a40c aebd 5cc8 85bd

resnet_denoiser/level_0/batch_normalization_1/FusedBatchNormV31 f4 [16]
1.7261083 0.8525159 1.2843909 1.3344378 1.5005347 2.0654736 1.306892 1.645701
2.2102199 3.436102 1.3192605 0.97203046 0.88716537 3.0970032 2.4303904 3.4741685
00000000: 1ef1 dc3f 7b3e 5a3f ec66 a43f dcce aa3f
00000010: 8511 c03f b830 0440 3d48 a73f 55a6 d23f
00000020: 3e74 0d40 18e9 5b40 87dd a83f fdd6 783f
00000030: 451d 633f 4d35 4640 848b 1b40 c758 5e40

resnet_denoiser/level_0/batch_normalization_10/FusedBatchNormV3 f4 [16]
-0.06532189 -0.033607636 -0.012290352 -0.092660286 -0.04070095 -0.01449142 -0.060409833 -0.08122286
-0.026025807 -0.010151301 -0.070707396 -0.10053233 -0.035677478 -0.1124759 -0.047174618 -0.05814798
00000000: 7cc7 85bd 29a8 09bd 795d 49bc adc4 bdbd
00000010: 0ab6 26bd 6c6d 6dbc 4d70 77bd 2c58 a6bd
00000020: 1334 d5bc a451 26bc 0acf 90bd e5e3 cdbd
00000030: 8c22 12bd c459 e6bd 2c3a 41bd 942c 6ebd

resnet_denoiser/level_0/batch_normalization_10/FusedBatchNormV31 f4 [16]
7.4354153 0.9769044 1.192513 2.5176682 1.6991804 2.7140205 3.5887363 2.9974792
1.7676308 1.7154707 4.302049 1.7084364 0.54645693 9.244981 4.882201 3.2577865
00000000: ecee ed40 6816 7a3f 44a4 983f 7a21 2140
00000010: be7e d93f 83b2 2d40 dbad 6540 b3d6 3f40
00000020: ba41 e23f 8b94 db3f 63aa 8940 0bae da3f
00000030: 9ae4 0b3f 71eb 1341 fe3a 9c40 937f 5040

resnet_denoiser/level_0/batch_normalization_11/FusedBatchNormV3 f4 [32]
-0.0483184 -0.07959009 -0.0366843 -0.053147487 -0.25766203 -0.19570448 -0.13691352 -0.23211455
-0.055450495 -0.1506456 -0.08385136 -0.24415927 -0.059912514 -0.0961136 -0.08697088 -0.20562965
-0.24249622 -0.18667999 -0.17556226 -0.2342564 -0.11855888 -0.13561806 -0.27165478 -0.05906525
-0.16097061 -0.09928827 -0.1674165 -0.08838482 -0.09612513 -0.19175237 -0.053138327 -0.23867877
00000000: 84e9 45bd 2100 a3bd 4742 16bd 2eb1 59bd
00000010: 47ec 83be c166 48be 0f33 0cbe 70af 6dbe
00000020: 0f20 63bd d742 1abe 43ba abbd e304 7abe
00000030: d366 75bd 35d7 c4bd ca1d b2bd 9490 52be
00000040: ee50 78be 0a29 3fbe 98c6 33be e9e0 6fbe
00000050: 00cf f2bd 76df 0abe 5616 8bbe 67ee 71bd
00000060: 7bd5 24be a657 cbbd 3b6f 2bbe 1a03 b5bd
00000070: 41dd c4bd bc5a 44be 93a7 59bd 3568 74be

resnet_denoiser/level_0/batch_normalization_11/FusedBatchNormV31 f4 [32]
0.4966945 0.47604737 0.295104 0.46963528 1.6480616 1.3001314 0.61419916 1.2854222
0.6926057 1.03697 0.52747715 3.336846 0.56072724 0.34254697 0.71896267 2.4001746
1.1083869 1.6443187 0.8580782 2.8163323 1.5392631 0.7200123 0.782752 1.0014161
1.1778666 1.8278222 1.8377024 0.7532637 1.4219661 3.540597 1.220968 2.0653677
00000000: be4e fe3e 7bbc f33e df17 973e 0974 f03e
00000010: aff3 d23f b56a a63f 283c 1d3f b788 a43f
00000020: 9b4e 313f 6fbb 843f be08 073f e38e 5540
00000030: d28b 0f3f 5162 af3e f00d 383f 769c 1940
00000040: 9fdf 8d3f 0979 d23f 03ab 5b3f ca3e 3440
00000050: 9306 c53f ba52 383f 6f62 483f 672e 803f
00000060: 55c4 963f 14f6 e93f d539 eb3f e4d5 403f
00000070: fc02 b63f 2499 6240 ae48 9c3f fc2e 0440

resnet_denoiser/level_0/batch_normalization_12/FusedBatchNormV3 f4 [16]
-0.2718753 0.1418227 -0.26775792 0.1115264 0.31148145 -0.008813994 -0.03648168 -0.104846336
0.0007226424 -0.07031633 -0.027734138 -0.06628824 0.13726547 0.01110556 0.10537836 -0.021807894
00000000: 3d33 8bbe f839 113e 9117 89be f467 e43d
00000010: 7f7a 9f3e 9268 10bc d06d 15bd adb9 d6bd
00000020: b66f 3d3a 0202 90bd b432 e3bc 21c2 87bd
00000030: 528f 0c3e 18f4 353c 9cd0 d73d 78a6 b2bc

resnet_denoiser/level_0/batch_normalization_12/FusedBatchNormV31 f4 [16]
0.28663564 0.11549462 0.17643315 0.11956753 0.16983674 0.027504489 0.1025078 0.16446254
0.07675601 0.11258179 0.04361051 0.037224203 0.13756165 0.1411259 0.078265294 0.08209771
00000000: e8c1 923e 7188 ec3d e4aa 343e d2df f43d
00000010: afe9 2d3e 1851 e13c 9cef d13d de68 283e
00000020: 4132 9d3d 4891 e63d efa0 323d 6878 183d
00000030: f6dc 0c3e 4f83 103e 8e49 a03d d822 a83d

resnet_denoiser/level_0/batch_normalization_13/FusedBatchNormV3 f4 [16]
-0.04079274 -0.021093816 -0.097012445 -0.042292625 -0.0131180715 -0.025397325 -0.018167973 -0.0034147305
-0.011814572 -0.1339731 -0.028151177 -0.0020586532 -0.011059816 -0.0544834 -0.04347963 -0.0038216403
00000000: 4a16 27bd f0cc acbc 76ae c6bd 083b 2dbd
00000010: 2eed 56bc 0d0e d0bc 00d5 94bc acc9 5fbb
00000020: e891 41bc 3f30 09be 4c9d e6bc 78ea 06bb
00000030: 3b34 35bc fc29 5fbd b217 32bd 7c74 7abb

resnet_denoiser/level_0/batch_normalization_13/FusedBatchNormV31 f4 [16]
0.626982 4.5330644 3.4033506 1.2987002 0.5273793 1.1785939 1.5786966 1.3092477
0.44971418 2.0285628 2.0502982 0.7843539 0.661037 0.8885048 1.4987267 0.70679957
00000000: e481 203f dd0e 9140 7fd0 5940 cf3b a63f
00000010: 5402 073f 2adc 963f bb12 ca3f 6e95 a73f
00000020: f040 e63e f9d3 0140 1638 0340 6bcb 483f
00000030: b939 293f 0d75 633f 47d6 bf3f d1f0 343f

resnet_denoiser/level_0/batch_normalization_14/FusedBatchNormV3 f4 [32]
-0.017893102 -0.004004016 -0.11775677 -0.009569974 -0.019620216 -0.3388177 -0.005897521 -0.01847413
-0.026666557 -0.028046925 -0.13882607 -0.1822026 -0.0037843229 -0.066614136 -0.3552162 -0.26205528
-0.022861592 -0.061414294 -0.3232775 -0.36104077 -0.28277633 -0.094362 -0.019411286 -0.24937612
-0.013139057 -0.053509284 -0.24089508 -0.045132253 0.008129219 -0.14107484 -0.044568304 -0.13279603
00000000: 8e94 92bc 1f34 83bb 762a f1bd 61cb 1cbc
00000010: 93ba a0bc 8379 adbe fe3f c1bb 0f57 97bc
00000020: d373 dabc aac2 e5bc 6c28 0ebe 5293 3abe
00000030: 6702 78bb fe6c 88bd e6de b5be 1c2c 86be
00000040: 3c48 bbbc 8e8d 7bbd a184 a5be 56da b8be
00000050: 0fc8 90be dd40 c1bd 6b04 9fbc 745c 7fbe
00000060: 3345 57bc 8d2c 5bbd 33ad 76be 99dc 38bd
00000070: 6a30 053c ec75 10be 418d 36bd affb 07be

resnet_denoiser/level_0/batch_normalization_14/FusedBatchNormV31 f4 [32]
0.28565645 0.31927696 0.95457757 0.1781742 0.3597865 5.140249 0.7758955 0.24288316
0.50455207 0.59873223 0.6563157 2.1858156 0.24544188 1.0518754 1.6491216 1.1337029
1.59009 1.7976353 3.4903307 3.4470081 3.1101348 3.8427591 0.68319875 2.3381965
0.6741433 0.9898565 3.6799538 1.1707324 0.7393126 1.197083 1.1354494 2.7352138
00000000: 9041 923e 4578 a33e 325f 743f 4c73 363e
00000010: f035 b83e eb7c a440 16a1 463f 5db6 783e
00000020: 532a 013f 8446 193f 4e04 283f 67e4 0b40
00000030: 1e55 7b3e daa3 863f 6b16 d33f 2d1d 913f
00000040: 1288 cb3f ea18 e63f 9461 5f40 c89b 5c40
00000050: 730c 4740 c4ef 7540 1de6 2e3f 03a5 1540
00000060: a894 2c3f 3c67 7d3f 5d84 6b40 8fda 953f
00000070: 9743 3d3f 043a 993f 6856 913f be0d 2f40

resnet_denoiser/level_0/batch_normalization_15/FusedBatchNormV3 f4 [16]
-0.5262 0.16644213 -0.5842629 0.089904964 0.50637025 -0.031533368 -0.048499443 -0.12526143
0.0005632748 -0.13046664 -0.053039618 -0.1455657 0.11097777 0.010053313 0.14922483 -0.049889162
00000000: 0bb5 06bf ce6f 2a3e 4192 15bf 1820 b83d
00000010: 7ba1 013f 2229 01bd 5aa7 46bd 8844 00be
00000020: bba8 133a 0c99 05be 1240 59bd 2d0f 15be
00000030: 5048 e33d a7b6 243c 65ce 183e 9458 4cbd

resnet_denoiser/level_0/batch_normalization_15/FusedBatchNormV31 f4 [16]
0.5547679 0.13554369 0.38498712 0.09638718 0.2761008 0.09840138 0.1362758 0.19648576
0.059828628 0.208887 0.083402075 0.0817425 0.11121722 0.12775429 0.11083039 0.18781208
00000000: 4505 0e3f f7cb 0a3e 081d c53e a466 c53d
00000010: 165d 8d3e aa86 c93d e28b 0b3e 9033 493e
00000020: dd0e 753d 79e6 553e b5ce aa3d 9d68 a73d
00000030: dbc5 e33d 05d2 023e 0bfb e23d cf51 403e

resnet_denoiser/level_0/batch_normalization_2/FusedBatchNormV3 f4 [32]
-0.1618734 -0.15401046 -0.1058779 -0.20944685 -0.117914304 -0.41902006 -0.19939484 -0.11441298
-0.4147039 -0.109348916 -0.08878405 -0.0437197 -0.38861662 -0.09872011 -0.22365592 -0.24492544
-0.43845645 -0.5170681 -0.12278389 -0.22422446 -0.15818687 -0.61097896 -0.19670391 -0.27107033
-0.41376275 -0.22111145 -0.81105417 -0.3795492 -0.19667932 -0.2951939 -0.8917978 -0.52661806
00000000: 24c2 25be ebb4 1dbe 83d6 d8bd 3c79 56be
00000010: 0e7d f1bd cc89 d6be 292e 4cbe 5a51 eabd
00000020: 1254 d4be 53f2 dfbd 69d4 b5bd 6e13 33bd
00000030: c2f8 c6be c52d cabd 0f06 65be bccd 7abe
00000040: 5d7d e0be 935e 04bf 1f76 fbbd 199b 65be
00000050: bdfb 21be 1e69 1cbf c06c 49be bbc9 8abe
00000060: b6d8 d3be 0a6b 62be 3fa1 4fbf 4654 c2be
00000070: 4e66 49be a823 97be dc4c 64bf 71d0 06bf

resnet_denoiser/level_0/batch_normalization_2/FusedBatchNormV31 f4 [32]
0.7304221 0.86021197 0.6242207 0.31184658 1.4757271 0.5248009 0.54363954 0.4420608
0.41187105 0.6385795 0.38797656 0.47661355 0.5600655 0.29887623 0.60121614 0.98509914
0.43186 0.4310838 0.3220239 0.873774 0.6538266 0.41225454 1.1135879 0.5790717
2.2026055 0.73080385 0.97917736 0.7689089 0.6864504 0.8519553 0.6907 1.0488622
00000000: f1fc 3a3f da36 5c3f eecc 1f3f 5baa 9f3e
00000010: a0e4 bc3f 5a59 063f f62b 0b3f cb55 e23e
00000020: c3e0 d23e f279 233f dda4 c63e b106 f43e
00000030: 7460 0f3f 4e06 993e 4de9 193f 752f 7c3f
00000040: c11c dd3e 04b7 dc3e 51e0 a43e a7af 5f3f
00000050: 2e61 273f 0713 d33e 0c8a 8e3f 0b3e 143f
00000060: 7df7 0c40 f615 3b3f 5eab 7a3f 37d7 443f
00000070: 37bb 2f3f be19 5a3f b7d1 303f 1e41 863f

resnet_denoiser/level_0/batch_normalization_3/FusedBatchNormV3 f4 [16]
-0.31127733 0.82699764 -0.76172704 1.1981128 0.602905 -0.22280334 -1.1929629 -1.4802991
0.009089927 -1.2868034 -0.6488857 -1.2592506 0.46817237 0.15507106 -2.159681e-05 -0.1282492
00000000: be5f 9fbe 1eb6 533f 8b00 43bf c35b 993f
00000010: fb57 1a3f 8f26 64be 02b3 98bf 717a bdbf
00000020: ebed 143c f9b5 a4bf 601d 26bf 202f a1bf
00000030: 4ab4 ef3e f3ca 1e3e cc2a b5b7 c253 03be

resnet_denoiser/level_0/batch_normalization_3/FusedBatchNormV31 f4 [16]
0.32817686 0.6734731 0.50192314 1.2844976 0.3287368 0.69526845 3.3520386 2.322005
0.96549237 2.06027 1.0203397 0.7071329 0.46918255 1.9705944 -1.6040112e-05 0.4828052
00000000: cc06 a83e bc68 2c3f 097e 003f 6b6a a43f
00000010: 3150 a83e 1dfd 313f cd87 5640 bb9b 1440
00000020: 822a 773f 77db 0340 7e9a 823f a906 353f
00000030: b238 f03e 703c fc3f e18d 86b7 3e32 f73e

resnet_denoiser/level_0/batch_normalization_4/FusedBatchNormV3 f4 [16]
-0.24550776 -0.15466166 -0.3378221 -0.121089235 -0.3194639 -0.17430466 -0.4074017 -0.6389455
-0.14117521 -0.5341207 -0.11425439 -0.40768448 -0.24031973 -0.16798107 -0.33106434 -0.28675276
00000000: 6366 7bbe a05f 1ebe 05f7 acbe a2fd f7bd
00000010: c690 a3be ec7c 32be f596 d0be ef91 23bf
00000020: 3c90 10be 22bc 08bf 35fe e9bd 05bc d0be
00000030: 6016 76be 3b03 2cbe 4481 a9be 42d1 92be

resnet_denoiser/level_0/batch_normalization_4/FusedBatchNormV31 f4 [16]
1.0522912 0.75766027 0.6921786 0.9601552 0.81346446 0.9599032 0.80725515 0.64873844
0.6541899 0.94514567 2.4151084 0.92204595 2.3116827 1.5148195 0.81258833 1.587179
00000000: 7ab1 863f 06f6 413f 9e32 313f bbcc 753f
00000010: 353f 503f 37bc 753f 46a8 4e3f b913 263f
00000020: fd78 273f 11f5 713f 2391 1a40 340b 6c3f
00000030: 9cf2 1340 9be5 c13f ca05 503f ae28 cb3f

resnet_denoiser/level_0/batch_normalization_5/FusedBatchNormV3 f4 [32]
-0.28808722 -0.1507341 -0.058641907 -0.50831026 -0.23583256 -0.85827744 -0.33157066 -0.14356364
-0.36279976 -0.2756405 -0.34681877 -0.22851346 -0.20792688 -0.103377014 -0.64492565 -0.048344605
-1.2036326 -0.3895583 -0.32730892 -0.85877025 -0.25119892 -0.2643421 -0.8450648 -0.6938799
-0.38510224 -0.12895502 -0.32662204 -0.41612485 -0.75296694 -0.15301393 -0.839242 -0.6439481
00000000: 2b80 93be 0a5a 1abe 7f32 70bd 9f20 02bf
00000010: 177e 71be 12b8 5bbf a1c3 a9be 5902 13be
00000020: e4c0 b9be c020 8dbe 3b92 b1be 6fff 69be
00000030: c9ea 54be 54b7 d3bd d919 25bf fe04 46bd
00000040: a210 9abf 2f74 c7be 0995 a7be 5ed8 5bbf
00000050: 259d 80be d957 87be 2b56 58bf 1da2 31bf
00000060: 1f2c c5be c90c 04be 013b a7be 510e d5be
00000070: 71c2 40bf afaf 1cbe 90d8 56bf c8d9 24bf

resnet_denoiser/level_0/batch_normalization_5/FusedBatchNormV31 f4 [32]
0.4675605 0.48276138 0.3062682 0.754618 0.44940218 0.28288448 0.29633638 0.4132498
0.23403303 0.34840775 0.99372464 0.33216563 0.38185075 0.42786863 0.2886429 0.3159731
0.42398173 0.3984075 0.29508972 0.37860274 0.13796307 0.51306325 0.50291604 0.43096858
0.6713041 0.45866773 0.9348581 0.3284545 0.85769296 0.6212125 0.46739516 0.30425504
00000000: 1764 ef3e 802c f73e 2fcf 9c3e a52e 413f
00000010: 0b18 e63e 3cd6 903e 67b9 973e 7a95 d33e
00000020: 5ba6 6f3e 8062 b23e bd64 7e3f 9d11 aa3e
00000030: f181 c33e 9911 db3e 01c9 933e 3ac7 a13e
00000040: 2214 d93e 11fc cb3e 0016 973e 38d8 c13e
00000050: 3146 0d3e 1d58 033f 1bbf 003f eaa7 dc3e
00000060: 96da 2b3f 7fd6 ea3e dc52 6f3f 302b a83e
00000070: c491 5b3f c807 1f3f 6b4e ef3e 51c7 9b3e

resnet_denoiser/level_0/batch_normalization_6/FusedBatchNormV3 f4 [16]
-0.2787882 0.4358463 -0.87221307 0.4382824 0.14118963 -0.06452824 -0.25053772 -0.5115268
0.004723979 -0.36918697 -0.32851 -0.31303275 0.7237667 0.07492662 -1.0286249e-06 -0.19512755
00000000: 54bd 8ebe 3f27 df3e 5b49 5fbf 8d66 e03e
00000010: 0494 103e 6227 84bd 7b46 80be 6cf3 02bf
00000020: 9ccb 9a3b 1306 bdbe 7632 a8be d445 a0be
00000030: c648 393f 2173 993d 480f 8ab5 84cf 47be

resnet_denoiser/level_0/batch_normalization_6/FusedBatchNormV31 f4 [16]
0.29392388 0.35493547 0.5747255 0.46988288 0.076984316 0.20136346 0.70397174 0.8023837
0.50176084 0.5910964 0.51656514 0.17578372 0.7253283 0.9521437 -7.6396725e-07 0.73457456
00000000: 317d 963e 1aba b53e 3621 133f 7d94 f03e
00000010: f4a9 9d3d 3932 4e3e 7e37 343f 0569 4d3f
00000020: 6673 003f 1852 173f 9d3d 043f a600 343e
00000030: 1eaf 393f b1bf 733f 6e13 4db5 140d 3c3f

resnet_denoiser/level_0/batch_normalization_7/FusedBatchNormV3 f4 [16]
-0.055969343 -0.061093397 -0.084201574 -0.21645512 -0.083049774 -0.103104405 -0.05538177 -0.022486687
-0.075011075 -0.14166778 -0.101143666 -0.061899323 -0.0922869 -0.05942854 -0.14584658 -0.038457178
00000000: 1c40 65bd 123d 7abd e071 acbd 69a6 5dbe
00000010: 0016 aabd 6728 d3bd ffd7 62bd 0036 b8bc
00000020: 689f 99bd 5c11 11be 6924 cfbd 258a 7dbd
00000030: ea00 bdbd 576b 73bd ce58 15be 4685 1dbd

resnet_denoiser/level_0/batch_normalization_7/FusedBatchNormV31 f4 [16]
5.86789 0.9802189 1.9418622 1.0763535 2.430503 1.6403226 1.3035016 1.3763471
1.7702696 0.83259827 0.66209805 1.5277262 1.9756999 1.314011 1.798052 3.221531
00000000: c1c5 bb40 a0ef 7a3f f18e f83f f4c5 893f
00000010: 5c8d 1b40 17f6 d13f 24d9 a63f 242c b03f
00000020: 3298 e23f 2925 553f 427f 293f 888c c33f
00000030: bce3 fc3f 8331 a83f 9126 e63f 902d 4e40

resnet_denoiser/level_0/batch_normalization_8/FusedBatchNormV3 f4 [32]
-0.0457898 -0.108475424 -0.33817422 -0.066523075 -0.4005784 -0.31869954 -0.13938099 -0.30532625
-0.38046616 -0.13096863 -0.78703004 -0.23395488 -0.064148776 -0.109456204 -0.041075967 -0.08376469
-0.1411923 -0.44999984 -0.15069063 -0.17419444 -0.1368112 -0.0711434 -0.2907988 -0.19078977
-0.20223242 -0.38861072 -0.17081432 -0.14823185 -0.3682799 -0.1567707 -0.09627026 -0.19421655
00000000: 168e 3bbd 5d28 debd 2c25 adbe 403d 88bd
00000010: 9d18 cdbe 962c a3be e4b9 0ebe b953 9cbe
00000020: 76cc c2be a41c 06be cd7a 49bf de91 6fbe
00000030: 6f60 83bd 932a e0bd 463f 28bd d28c abbd
00000040: b794 10be 6166 e6be a54e 1abe 0760 32be
00000050: 3c18 0cbe a2b3 91bd 95e3 94be 655e 43be
00000060: 0416 4fbe fcf7 c6be f3e9 2ebe 17ca 17be
00000070: 2f8f bcbe 8088 20be 5829 c5bd b4e0 46be

resnet_denoiser/level_0/batch_normalization_8/FusedBatchNormV31 f4 [32]
0.25821677 1.1124995 1.0285324 0.5135485 1.0619453 0.78848153 0.7613857 0.4520867
0.58302563 2.4553616 2.5594718 1.7174852 0.48212576 0.9619113 1.005014 0.75275844
0.6227514 0.5978047 0.66104203 0.4887439 0.7947127 1.4127544 1.3947784 0.7313827
1.4426389 0.54194313 1.6839483 1.42753 1.6430769 1.2994113 0.9992886 0.56263655
00000000: fd34 843e 6266 8e3f f3a6 833f ea77 033f
00000010: d3ed 873f edd9 493f 2cea 423f e877 e73e
00000020: 2b41 153f a524 1d40 63ce 2340 8ed6 db3f
00000030: 30d9 f63e d23f 763f 4ca4 803f c7b4 403f
00000040: a36c 1f3f bb09 193f 0d3a 293f a43c fa3e
00000050: 4b72 4b3f 23d5 b43f 1988 b23f e63b 3b3f
00000060: 64a8 b83f c9bc 0a3f 9e8b d73f 4eb9 b63f
00000070: 5850 d23f 1c53 a63f 61d1 7f3f f308 103f

resnet_denoiser/level_0/batch_normalization_9/FusedBatchNormV3 f4 [16]
-0.2908657 0.28941825 -0.37180376 0.24971342 0.381713 -0.008475818 -0.08034694 -0.19665675
0.0035328357 -0.22493942 -0.06379721 -0.1401904 0.16758117 0.012868245 0.34847465 -0.06593091
00000000: 59ec 94be a12e 943e 105d bebe e0b4 7f3e
00000010: e36f c33e 28de 0abc f08c a4bd 6360 49be
00000020: 2687 673b 8556 66be 1da8 82bd 128e 0fbe
00000030: 669a 2b3e 55d5 523c 456b b23e c906 87bd

resnet_denoiser/level_0/batch_normalization_9/FusedBatchNormV31 f4 [16]
0.30665705 0.23569041 0.24499184 0.26771796 0.20813084 0.026449192 0.22576231 0.30847684
0.3752426 0.36014512 0.10031786 0.078724 0.16794276 0.16352555 0.25881472 0.24820264
00000000: 2702 9d3e d458 713e 24df 7a3e 5412 893e
00000010: 4020 553e faab d83c 3c2e 673e adf0 9d3e
00000020: cc1f c03e f164 b83e 7373 cd3d 0c3a a13d
00000030: 30f9 2b3e 3e73 273e 5d83 843e d528 7e3e

resnet_denoiser/level_1/batch_normalization_16/FusedBatchNormV3 f4 [16]
-0.2670803 -0.48497102 -0.5044333 0.4924135 -0.56840074 0.63941276 0.4436928 -0.8707026
0.44816333 -0.38995773 0.3312972 0.47180018 0.3394267 -0.29212737 -0.9241944 -0.44296882
00000000: c0be 88be 1f4e f8be 8a22 01bf 9f1d fc3e
00000010: b682 11bf 8eb0 233f b42b e33e 5ee6 5ebf
00000020: aa75 e53e 8aa8 c7be c99f a93e cb8f f13e
00000030: 56c9 ad3e b891 95be 0198 6cbf cfcc e2be

resnet_denoiser/level_1/batch_normalization_16/FusedBatchNormV31 f4 [16]
2.6550531 0.24203278 1.0642444 0.2854125 0.2730125 2.7473905 0.9683784 2.7834065
1.5040667 1.8291805 2.0602834 1.1601071 0.8274936 0.10790477 1.1409987 2.1687343
00000000: 64ec 2940 71d7 773e 2939 883f 9621 923e
00000010: 4bc8 8b3e 3fd5 2f40 a6e7 773f 5523 3240
00000020: 4285 c03f 9622 ea3f afdb 0340 647e 943f
00000030: 9fd6 533f 2dfd dc3d 3f0c 923f 8bcc 0a40

resnet_denoiser/level_1/batch_normalization_17/FusedBatchNormV3 f4 [16]
-0.30950665 -0.056833643 -0.13315459 -0.11372859 -0.058670595 -0.11601041 -0.30621663 -0.21328756
-0.5220248 -0.054263998 -0.1538856 -0.15936184 -0.15900749 -0.3996486 -0.08303913 -0.91077864
00000000: a877 9ebe 65ca 68bd ad59 08be 89ea e8bd
00000010: 9450 70bd de96 edbd 6dc8 9cbe 0e68 5abe
00000020: 6ba3 05bf ed43 5ebd 3094 1dbe c02f 23be
00000030: dcd2 22be be9e ccbe 6b10 aabd ca28 69bf

resnet_denoiser/level_1/batch_normalization_17/FusedBatchNormV31 f4 [16]
1.2054162 2.635691 1.3905294 0.9541769 2.8997526 1.979295 1.4804045 1.1779877
0.96097255 5.157209 1.8726226 1.5239238 2.2460203 0.8774092 3.2669191 0.40479097
00000000: 144b 9a3f 29af 2840 defc b13f f044 743f
00000010: 8c95 3940 8a59 fd3f e57d bd3f 4dc8 963f
00000020: 4c02 763f db07 a540 19b2 ef3f ef0f c33f
00000030: ccbe 0f40 e49d 603f 3415 5140 c340 cf3e

resnet_denoiser/level_1/batch_normalization_18/FusedBatchNormV3 f4 [32]
-0.23971608 -0.07186798 -1.5129905 -0.3982616 -0.31198016 -0.21706103 -0.06929245 -0.4210936
-0.17334373 -0.5676662 -0.68637955 -0.05835458 -0.75642586 -0.08463492 -0.11902735 -0.4879544
-0.18105616 -0.32967407 -0.22910538 -0.08408866 -0.08484946 -0.15729202 -0.18160877 -0.95347345
-0.17156857 -0.16922773 -0.07855935 -0.053644832 -0.28530017 -0.04916545 -0.11503412 -0.09359581
00000000: 2278 75be 852f 93bd aca9 c1bf f2e8 cbbe
00000010: ddbb 9fbe 3f45 5ebe 33e9 8dbd 9599 d7be
00000020: 0581 31be 9252 11bf 92b6 2fbf 3605 6fbd
00000030: 20a5 41bf 1355 adbd 9cc4 f3bd 29d5 f9be
00000040: c966 39be 0acb a8be 9a9a 6abe ad36 acbd
00000050: 8ec5 adbd 2911 21be a6f7 39be d616 74bf
00000060: acaf 2fbe 094a 2dbe b9e3 a0bd afba 5bbd
00000070: dd12 92be b661 49bd 0297 ebbd 29af bfbd

resnet_denoiser/level_1/batch_normalization_18/FusedBatchNormV31 f4 [32]
0.4449657 0.25811812 0.8445894 0.1596552 0.5510057 0.3273252 0.32084116 0.22345386
0.24669039 0.17873898 0.45701382 0.4797118 0.47167775 0.2858942 0.6562374 0.32718825
0.17587544 0.21057889 0.4346643 0.70772743 0.65105057 0.6162204 0.23961942 0.4636622
0.3152312 0.44632605 0.67590714 0.36068207 0.60917455 0.67626053 0.44812116 0.4656626
00000000: 8bd2 e33e 0f28 843e 0337 583f a77c 233e
00000010: b60e 0d3f 2b97 a73e 4b45 a43e 17d1 643e
00000020: 689c 7c3e 5a07 373e b7fd e93e c99c f53e
00000030: bf7f f13e b960 923e 2dff 273f 3885 a73e
00000040: b118 343e fea1 573e 528c de3e a02d 353f
00000050: 40ab 263f 9fc0 1d3f cb5e 753e 2265 ed3e
00000060: fc65 a13e d984 e43e 4008 2d3f 52ab b83e
00000070: ddf2 1b3f 691f 2d3f 2370 e53e 546b ee3e

resnet_denoiser/level_1/batch_normalization_19/FusedBatchNormV3 f4 [16]
-0.3140648 -1.0386951 -0.28939453 0.6665969 -0.8201588 0.4226313 0.4708235 -0.37409595
0.27783793 -0.25188392 0.15883173 0.64433837 0.5375854 -1.0571486 -1.3453231 -0.55444515
00000000: 1acd a0be f6f3 84bf 852b 94be 18a6 2a3f
00000010: edf5 51bf 2163 d83e c70f f13e 8189 bfbe
00000020: c640 8e3e eef6 80be c9a4 223e 5cf3 243f
00000030: 329f 093f a550 87bf 8c33 acbf 1ef0 0dbf

resnet_denoiser/level_1/batch_normalization_19/FusedBatchNormV31 f4 [16]
3.122128 0.5183779 0.6105595 0.3863726 0.39393613 1.8159369 1.0275924 1.1958859
0.9324429 1.1815156 0.9877488 1.5843605 1.3105878 0.39048508 1.6609187 2.7145119
00000000: f2d0 4740 6ab4 043f a14d 1c3f a1d2 c53e
00000010: ffb1 c93e 9f70 e83f 2688 833f ca12 993f
00000020: 94b4 6e3f e73b 973f 1bdd 7c3f 53cc ca3f
00000030: 57c1 a73f a9ed c73e fc98 d43f 90ba 2d40

resnet_denoiser/level_1/batch_normalization_20/FusedBatchNormV3 f4 [16]
-0.27091438 -0.2770651 -0.41537285 -0.7063606 -0.11480242 -0.15088592 -0.15941325 -0.55555046
-0.3250613 -0.1663284 -0.21931617 -0.3629205 -0.2613455 -0.7811211 -0.17532502 -0.23618384
00000000: 4ab5 8abe 7adb 8dbe c0ab d4be 0cd4 34bf
00000010: 881d ebbd d781 1abe 3a3d 23be 8e38 0ebf
00000020: 6f6e a6be fe51 2abe 6b94 60be b7d0 b9be
00000030: 14cf 85be 8df7 47bf 6788 33be 2dda 71be

resnet_denoiser/level_1/batch_normalization_20/FusedBatchNormV31 f4 [16]
0.7145687 0.9878556 0.8368475 0.78598046 2.566242 2.497466 0.68808204 0.8343342
1.108496 0.93358064 1.765535 1.256466 0.87718797 0.87026674 1.8855301 0.56982553
00000000: f9ed 363f 1be4 7c3f a33b 563f 0436 493f
00000010: 4f3d 2440 7cd6 1f40 2526 303f ed96 553f
00000020: 32e3 8d3f 24ff 6e3f 0dfd e13f e1d3 a03f
00000030: 648f 603f cdc9 5e3f 0d59 f13f 16e0 113f

resnet_denoiser/level_1/batch_normalization_21/FusedBatchNormV3 f4 [32]
-0.45084348 -1.2735834 -0.15283166 -0.3813292 -0.625444 -1.0810833 -0.11571301 -0.39225203
-0.3827303 -0.56551754 -0.3585475 -1.0801939 -0.20773491 -0.15223187 -1.0792102 -0.1903656
-0.16757627 -0.21017385 -0.2286924 -0.3015139 -1.4506288 -0.18475865 -0.17763129 -0.12851909
-0.11013002 -0.113203496 -0.36496997 -0.2067889 -0.10059904 -0.10145564 -0.14172463 -0.38435015
00000000: f5d4 e6be c804 a3bf e77f 1cbe 953d c3be
00000010: 191d 20bf f060 8abf f1fa ecbd 42d5 c8be
00000020: 3af5 c3be c2c5 10bf 8a93 b7be cb43 8abf
00000030: 76b8 54be ace2 1bbe 8f23 8abf 33ef 42be
00000040: 1d99 2bbe d037 57be 572e 6abe 0860 9abe
00000050: 34ae b9bf 5f31 3dbe fae4 35be 829a 03be
00000060: d98b e1bd 3cd7 e7bd 58dd babe 78c0 53be
00000070: df06 cebd f9c7 cfbd 4320 11be 8bc9 c4be

resnet_denoiser/level_1/batch_normalization_21/FusedBatchNormV31 f4 [32]
0.7040567 0.4475584 0.3933367 1.7891904 0.5773808 0.23289175 1.2586532 0.9752242
0.2249009 0.49973017 0.42430985 0.4273008 0.5890599 0.7902427 0.45066237 0.1887979
0.4958028 0.3603267 0.36276188 0.71642333 0.3752006 0.35566035 0.28665972 0.45297313
0.8033398 0.69281954 0.59236515 0.5749738 0.38306403 0.3971953 1.0861274 0.26988113
00000000: 0f3d 343f 6026 e53e 6e63 c93e 3104 e53f
00000010: 3acf 133f 2d7b 6e3e 8c1b a13f 4ba8 793f
00000020: 6c4c 663e a2dc ff3e 243f d93e 2cc7 da3e
00000030: a1cc 163f 584d 4a3f 38bd e63e 3d54 413e
00000040: ddd9 fd3e be7c b83e edbb b93e 8567 373f
00000050: 4b1a c03e 1d19 b63e 10c5 923e 18ec e73e
00000060: ada7 4d3f 9f5c 313f 3ea5 173f 7c31 133f
00000070: f820 c43e 2f5d cb3e 3906 8b3f dc2d 8a3e

resnet_denoiser/level_1/batch_normalization_22/FusedBatchNormV3 f4 [16]
-0.022428764 -1.0964767 -0.27387905 0.4070349 -0.19117686 0.123743325 0.2651206 -0.09865798
0.1733707 -0.1240335 0.048235428 0.23360707 0.09199979 -0.12659378 -0.5613631 -0.16916552
00000000: 87bc b7bc 5959 8cbf e039 8cbe e166 d03e
00000010: dec3 43be 246d fd3d e3bd 873e 320d cabd
00000020: 1788 313e 4705 febd 8392 453d b136 6f3e
00000030: 636a bc3d cda1 01be 7eb5 0fbf ba39 2dbe

resnet_denoiser/level_1/batch_normalization_22/FusedBatchNormV31 f4 [16]
0.22296502 0.54721475 0.57782525 0.23592538 0.09182547 0.531693 0.578637 0.31538346
0.58184385 0.5818058 0.2999683 0.57441527 0.22428773 0.046760675 0.69305176 0.8282187
00000000: f150 643e 4416 0c3f 5bec 133f 6c96 713e
00000010: fe0e bc3d 081d 083f 8e21 143f f179 a13e
00000020: b8f3 143f 3af1 143f 7295 993e e10c 133f
00000030: afab 653e 1f88 3f3d d76b 313f 2406 543f

resnet_denoiser/level_1/batch_normalization_23/FusedBatchNormV3 f4 [16]
-0.031823456 -0.0892144 -0.07521454 -0.043376096 -0.058247384 -0.035898115 -0.07843458 -1.5516675e-10
-0.17258057 -0.19498253 -0.04588028 -0.042290486 -0.052111305 -0.09283146 -0.040988985 -0.06677185
00000000: 5059 02bd 0ab6 b6bd 150a 9abd 22ab 31bd
00000010: cf94 6ebd e709 13bd 4fa2 a0bd 8f9b 2aaf
00000020: f6b8 30be 80a9 47be f6ec 3bbd ca38 2dbd
00000030: aa72 55bd 6c1e bebd 11e4 27bd aebf 88bd

resnet_denoiser/level_1/batch_normalization_23/FusedBatchNormV31 f4 [16]
1.7464955 1.0339705 0.9899298 1.0995414 3.431276 1.4425266 0.80223936 0.019856572
1.415237 1.437886 1.3229365 1.7610233 1.1086473 0.95097977 0.9469221 1.2571808
00000000: 2a8d df3f 2559 843f 0a6c 7d3f c6bd 8c3f
00000010: 079a 5b40 b6a4 b83f 8f5f 4d3f 40aa a23c
00000020: 7c26 b53f a60c b83f fc55 a93f 3669 e13f
00000030: 28e8 8d3f 6973 733f 7d69 723f 4deb a03f

resnet_denoiser/level_1/batch_normalization_24/FusedBatchNormV3 f4 [32]
-0.13798232 -0.13635764 -0.29362735 -0.16403085 -0.06449748 -0.06303577 -0.10574556 0.017748479
-0.15954776 -0.38073185 -0.44331855 -0.2530024 -0.27458712 -0.1260187 -0.100215994 -0.07262108
-0.39505294 -0.1202202 -0.0011447888 -0.04856889 -0.15900938 -0.29228216 -0.02557984 -0.048689432
-0.09148847 -0.25058976 -0.14687923 -0.08608425 -0.27507883 -0.099034004 -0.06141419 -0.1353226
00000000: 3d4b 0dbe 56a1 0bbe 5356 96be b4f7 27be
00000010: 4117 84bd e618 81bd 2191 d8bd 4265 913c
00000020: 7d60 23be 49ef c2be a6fa e2be 8889 81be
00000030: af96 8cbe 0c0b 01be 0b3e cdbd 5cba 94bd
00000040: 6144 cabe 0236 f6bd bd0c 96ba 2cf0 46bd
00000050: 5bd3 22be 02a6 95be d08c d1bc 926e 47bd
00000060: 4f5e bbbd 4d4d 80be 8267 16be f04c b0bd
00000070: 22d7 8cbe 57d2 cabd 728d 7bbd 0292 0abe

resnet_denoiser/level_1/batch_normalization_24/FusedBatchNormV31 f4 [32]
3.0507963 2.8642085 1.6356527 1.2359097 0.6560185 1.496601 1.4975809 1.5907902
1.4812127 1.0667368 1.5459573 1.7370625 0.6164702 1.8492963 0.8361668 2.5744648
2.640327 1.2168005 0.82638913 1.138486 0.51537234 0.9023927 0.9491001 1.0022969
2.0576262 2.1355047 0.92303175 0.593325 0.84231913 0.5139348 1.7904891 0.9308567
00000000: 3f40 4340 314f 3740 115d d13f 4a32 9e3f
00000010: d4f0 273f 9f90 bf3f bbb0 bf3f 039f cb3f
00000020: 6198 bd3f d58a 883f eee1 c53f 1058 de3f
00000030: fed0 1d3f beb5 ec3f 070f 563f 08c4 2440
00000040: 1efb 2840 1ec0 9b3f 3d8e 533f e9b9 913f
00000050: 71ef 033f 3503 673f 39f8 723f 444b 803f
00000060: 26b0 0340 1cac 0840 cf4b 6c3f 26e4 173f
00000070: 3aa2 573f 3b91 033f bf2e e53f a04c 6e3f

resnet_denoiser/level_1/batch_normalization_25/FusedBatchNormV3 f4 [16]
-0.036560696 -0.8827671 -0.14743976 0.11675712 -0.19399768 0.19939801 0.071840525 -0.0372639
0.098042786 -0.081794634 0.059135973 0.27994588 0.15242761 -0.29209 -1.3923221 -0.15605395
00000000: abc0 15bd 06fd 61bf 73fa 16be 5b1e ef3d
00000010: 54a7 46be fe2e 4c3e 2021 933d 08a2 18bd
00000020: a8ca c83d f283 a7bd 9038 723d 1155 8f3e
00000030: fc15 1c3e d28c 95be 9c37 b2bf 9bcc 1fbe

resnet_denoiser/level_1/batch_normalization_25/FusedBatchNormV31 f4 [16]
0.36345094 0.44055948 0.31106585 0.067674704 0.09318036 0.8567616 0.15679501 0.11912284
0.32903826 0.38367534 0.36775702 0.68835753 0.37160566 0.10789096 1.7189431 0.7640256
00000000: 3e16 ba3e 0391 e13e 0644 9f3e 0999 8a3d
00000010: 58d5 be3d ba54 5b3f df8e 203e adf6 f33d
00000020: b477 a83e 1871 c43e a64a bc3e 3338 303f
00000030: 1943 be3e f0f5 dc3d 5406 dc3f 2f97 433f

resnet_denoiser/level_1/batch_normalization_26/FusedBatchNormV3 f4 [16]
-0.025887484 -0.17219195 -0.090874724 -0.040354773 -0.025711702 -0.06374685 -0.034322098 -0.0667491
-0.06495049 -0.037246846 -0.07788572 -0.25412875 -0.13320374 -0.04297732 -0.08025475 -0.1302387
00000000: fd11 d4bc 1653 30be 871c babd 0c4b 25bd
00000010: 59a1 d2bc b58d 82bd 5495 0cbd c1b3 88bd
00000020: c304 85bd 2690 18bd 8c82 9fbd 2a1d 82be
00000030: 9066 08be fc08 30bd 9a5c a4bd 4b5d 05be

resnet_denoiser/level_1/batch_normalization_26/FusedBatchNormV31 f4 [16]
1.6111451 2.1385996 2.1751423 1.378998 0.69320047 3.3424826 0.54722506 0.6677914
0.93785846 0.6464079 1.4190655 1.2608682 1.0237178 1.7421031 1.1945132 0.9694077
00000000: 013a ce3f d1de 0840 8835 0b40 0283 b03f
00000010: 9675 313f 3ceb 5540 f116 0c3f 61f4 2a3f
00000020: 7e17 703f fd7a 253f f0a3 b53f 2164 a13f
00000030: 2f09 833f 3cfd de3f cfe5 983f 1a2b 783f

resnet_denoiser/level_1/batch_normalization_27/FusedBatchNormV3 f4 [32]
-0.38925764 -0.51888347 -0.21270464 -0.4131191 -0.11205883 -0.3326538 -0.4040792 -0.16060698
-0.1686869 -0.49001312 -0.24470918 -0.16832104 -0.21127625 -0.8315907 -0.21387409 -0.14026676
-0.04445903 -0.14096652 -0.14295624 -0.58542216 -0.07972788 -0.012114013 -0.10105629 -1.0826756
-0.3393824 -0.08043248 -0.20720783 -0.7064586 -0.09855311 -0.31537813 -0.40906918 -0.7852563
00000000: c74c c7be 8cd5 04bf 3fcf 59be 5984 d3be
00000010: 1a7f e5bd 9951 aabe 78e3 cebe 2876 24be
00000020: 42bc 2cbe 00e3 fabe 0b95 7abe 5a5c 2cbe
00000030: cd58 58be 21e3 54bf cf01 5bbe 17a2 0fbe
00000040: ac1a 36bd 8759 10be 1f63 12be 3ade 15bf
00000050: 5f48 a3bd da79 46bc 9af6 cebd 1d95 8abf
00000060: 88c3 adbe c9b9 a4bd 4a2e 54be 79da 34bf
00000070: 37d6 c9bd 3e79 a1be 8471 d1be 8f06 49bf

resnet_denoiser/level_1/batch_normalization_27/FusedBatchNormV31 f4 [32]
5.5946045 5.111379 1.1933923 3.8865573 1.167423 1.4043261 1.2841533 4.34355
0.9385725 3.4715695 1.3569896 1.0930382 1.733262 2.6988227 1.2566103 1.1878966
0.4714788 2.381126 1.4708616 1.6917361 0.7027438 1.118056 1.7655065 3.2271225
2.5633123 0.8724981 0.96024454 1.3028035 1.3761677 2.9168744 1.1454595 3.2544281
00000000: 0007 b340 6b90 a340 14c1 983f 5bbd 7840
00000010: 1e6e 953f f5c0 b33f 235f a43f 5dfe 8a40
00000020: 4a46 703f 322e 5e40 d6b1 ad3f ade8 8b3f
00000030: 87db dd3f 83b9 2c40 9bd8 a03f ff0c 983f
00000040: ab65 f13e 5e64 1840 3145 bc3f cf8a d83f
00000050: 05e7 333f 761c 8f3f 1efc e13f 2d89 4e40
00000060: 4f0d 2440 095c 5f3f 96d2 753f 44c2 a63f
00000070: 4326 b03f 12ae 3a40 6b9e 923f 8d48 5040

resnet_denoiser/level_1/batch_normalization_28/FusedBatchNormV3 f4 [16]
-0.011648 -0.38323572 -0.06452989 0.22322665 -0.17317733 0.028301833 0.054819446 -0.05152952
0.029404165 -0.025588676 0.03633004 0.08585277 0.08194972 -0.32879978 -0.11855314 -0.03730702
00000000: 41d7 3ebc 7937 c4be 3f28 84bd 8795 643e
00000010: 6655 31be 3fd9 e73c 5b8a 603d 9e10 53bd
00000020: 01e1 f03c 589f d1bc cfce 143d 94d3 af3d
00000030: 41d5 a73d 7258 a8be fdcb f2bd 3fcf 18bd

resnet_denoiser/level_1/batch_normalization_28/FusedBatchNormV31 f4 [16]
0.115793124 0.19126011 0.13614403 0.12938653 0.08317999 0.121605635 0.11964578 0.16472626
0.09868238 0.12002917 0.22593065 0.21110298 0.19978648 0.12145067 0.14636418 0.18265171
00000000: f224 ed3d b1d9 433e 5769 0b3e e77d 043e
00000010: 455a aa3d 600c f93d d908 f53d 00ae 283e
00000020: fd19 ca3d dad1 f53d 5d5a 673e 612b 583e
00000030: d494 4c3e 21bb f83d 7ee0 153e 0d09 3b3e

resnet_denoiser/level_1/batch_normalization_29/FusedBatchNormV3 f4 [16]
-0.01879061 -7.929475e-09 -0.13411541 -0.015775302 -0.0463064 -0.3630375 -0.52144146 -0.022733819
-0.100938015 -0.53482 -0.01779587 -0.12494877 -0.17731765 -0.018456832 -0.53956896 -0.079887725
00000000: c4ee 99bc 333a 08b2 8d55 09be 353b 81bc
00000010: c8ab 3dbd 0de0 b9be 307d 05bf 463c babc
00000020: 97b8 cebd f7e9 08bf a5c8 91bc 24e5 ffbd
00000030: c292 35be c832 97bc 3121 0abf 2d9c a3bd

resnet_denoiser/level_1/batch_normalization_29/FusedBatchNormV31 f4 [16]
3.6973085 0.56937754 3.5472717 0.6862578 0.97755545 2.712075 3.8409526 1.3171351
3.0447707 3.676326 0.53109545 1.1145307 1.2370443 0.68062174 4.2115636 2.1219125
00000000: b4a0 6c40 bac2 113f 8006 6340 97ae 2f3f
00000010: 1341 7a3f a392 2d40 2bd2 7540 e297 a83f
00000020: 86dd 4240 ed48 6b40 dff5 073f f1a8 8e3f
00000030: 7857 9e3f 3a3d 2e3f 21c5 8640 6acd 0740

resnet_denoiser/level_1/batch_normalization_30/FusedBatchNormV3 f4 [32]
-0.14228523 -0.23959668 -0.15258332 -0.12236757 -0.17857395 -0.051548183 -0.04793229 -0.1518623
-0.14217974 -0.026228486 -0.22471134 -0.05326137 -0.07370586 -0.11585183 -0.3832104 -0.088654436
-0.09995779 -0.03180512 -0.0606662 -0.10779063 -0.034935948 -0.03881297 -0.08371069 -0.019838404
-0.012477685 -0.027562944 -0.40362987 -0.13311566 -0.031261154 -0.018969718 -0.030859003 -0.07927616
00000000: 38b3 11be d558 75be cd3e 1cbe d99b fabd
00000010: 17dc 36be 3024 53bd a654 44bd ca81 1bbe
00000020: 9197 11be 1fdd d6bc bb1a 66be 9828 5abd
00000030: 19f3 96bd b943 edbd 2734 c4be 7590 b5bd
00000040: abb6 ccbd 1646 02bd 1f7d 78bd 55c1 dcbd
00000050: ff18 0fbd 59fa 1ebd 8370 abbd 2684 a2bc
00000060: 346f 4cbc afcb e1bc 93a8 cebe 794f 08be
00000070: b20b 00bd 6266 9bbc 05cc fcbc 8a5b a2bd

resnet_denoiser/level_1/batch_normalization_30/FusedBatchNormV31 f4 [32]
1.775345 1.0852325 2.2778132 3.135635 2.0004287 2.8086872 0.4997811 1.3795375
1.190082 0.21381629 1.043187 0.501666 1.3342043 3.9477072 2.4087553 3.0870311
3.8676302 0.7333323 0.61024874 1.8738431 0.230078 0.28597832 2.3794796 0.29263785
0.27601898 0.19137338 2.1074739 0.7674554 1.5138733 0.15072037 0.62727934 2.5511649
00000000: 813e e33f e6e8 8a3f b1c7 1140 3eae 4840
00000010: 0607 0040 88c1 3340 4fe3 ff3e af94 b03f
00000020: 9b54 983f a8f2 5a3e 2787 853f 2f6d 003f
00000030: 35c7 aa3f 3ca7 7c40 0c29 1a40 eb91 4540
00000040: 4187 7740 aabb 3b3f 4339 1c3f 17da ef3f
00000050: 9199 6b3e c06b 923e 6549 1840 a1d4 953e
00000060: 5c52 8d3e 62f7 433e dae0 0640 f577 443f
00000070: 9ac6 c13f 7156 1a3e 6195 203f 4946 2340

resnet_denoiser/level_1/batch_normalization_31/FusedBatchNormV3 f4 [16]
-0.011798312 -0.34749067 -0.03256386 0.24552864 -0.034891587 0.026388612 0.047527116 -0.039896693
0.037397698 -0.022707084 0.029254694 0.090757206 0.09767783 -0.3928597 -0.12731168 -0.054508053
00000000: b54d 41bc 4cea b1be af61 05bd dc6b 7b3e
00000010: 7bea 0ebd ee2c d83c cbab 423d b76a 23bd
00000020: 542e 193d 3504 babc 8aa7 ef3c eade b93d
00000030: 500b c83d e824 c9be fe5d 02be d643 5fbd

resnet_denoiser/level_1/batch_normalization_31/FusedBatchNormV31 f4 [16]
0.11728737 0.17342095 0.06870266 0.1423132 0.016759017 0.11338501 0.103729956 0.1275392
0.1255092 0.10651244 0.18193018 0.22316244 0.2381303 0.14511286 0.15717734 0.2668664
00000000: 5c34 f03d 4395 313e fbb3 8c3d 8dba 113e
00000010: 354a 893c 6636 e83d 5f70 d43d a399 023e
00000020: 7c85 003e 3223 da3d e84b 3a3e b284 643e
00000030: 6ed8 733e 7798 143e 19f3 203e b6a2 883e

resnet_denoiser/level_2/batch_normalization_32/FusedBatchNormV3 f4 [16]
0.33627504 -1.0898843 -0.21484876 -0.5453579 -0.39638364 -0.6135444 -0.5808365 -0.70304507
0.9628062 0.6338384 -0.8131592 -1.3480926 -0.76724005 -0.42486432 -0.64360607 0.11778474
00000000: 3e2c ac3e 5481 8bbf 5001 5cbe 939c 0bbf
00000010: ccf2 cabe 3f11 1dbf b3b1 14bf c3fa 33bf
00000020: 787a 763f 3c43 223f 342b 50bf 4c8e acbf
00000030: d869 44bf d187 d9be 5ec3 24bf 2039 f13d

resnet_denoiser/level_2/batch_normalization_32/FusedBatchNormV31 f4 [16]
6.157311 15.182595 12.672205 15.908881 5.739758 7.568619 23.098564 10.803294
9.645601 3.5359035 3.3704484 4.5078335 16.349201 0.42865658 11.240051 15.954881
00000000: b108 c540 e9eb 7241 5ac1 4a41 c78a 7e41
00000010: 19ac b740 2032 f240 dcc9 b841 4bda 2c41
00000020: 6254 1a41 3e4c 6240 6db5 5740 2c40 9040
00000030: 2acb 8241 e078 db3e 40d7 3341 3147 7f41

resnet_denoiser/level_2/batch_normalization_33/FusedBatchNormV3 f4 [16]
-0.50434667 -4.9499697e-08 -0.048972446 -0.10423607 -0.44228226 -0.457131 -0.091975875 -0.4243861
-0.61298186 -0.18230985 -0.8163831 -0.2641099 -0.067164354 -0.103660025 -0.21839717 -0.28577796
00000000: dd1c 01bf 7e99 54b3 5597 48bd b879 d5bd
00000010: d272 e2be 130d eabe d95d bcbd 2349 d9be
00000020: 61ec 1cbf 6faf 3abe 7cfe 50bf 6a39 87be
00000030: 778d 89bd b54b d4bd 82a3 5fbe 7d51 92be

resnet_denoiser/level_2/batch_normalization_33/FusedBatchNormV31 f4 [16]
1.4662988 1.2363375 6.5791116 3.4554596 0.4355793 1.2916849 7.3667765 0.77776486
0.5147946 2.8423786 2.4030027 0.960936 3.9429622 2.731091 0.7738393 3.5393326
00000000: aeaf bb3f 4f40 9e3f 1588 d240 4026 5d40
00000010: 4004 df3e ee55 a53f a2bc eb40 991b 473f
00000020: 94c9 033f 88e9 3540 ccca 1940 e7ff 753f
00000030: 7e59 7c40 32ca 2e40 551a 463f 6d84 6240

resnet_denoiser/level_2/batch_normalization_34/FusedBatchNormV3 f4 [32]
-0.23593046 -0.08377591 -3.5563778e-07 -0.15221365 -2.213921e-08 -0.19778267 -0.26672518 -0.2353141
-0.19305761 -0.20156506 -0.4958074 -0.2783869 -0.12755488 -0.21582934 -0.11429175 -0.38236865
-0.17614608 -0.22969416 -0.038216643 -0.19644538 2.5021143e-07 -0.7106096 -0.15457752 -0.32450727
-0.17312667 -0.07001731 -0.48932934 -0.3141794 -0.380318 -0.1616835 -0.2523457 -0.2378617
00000000: c197 71be b492 abbd 7cee beb4 e5dd 1bbe
00000010: a32c beb2 8a87 4abe 3490 88be 2ef6 70be
00000020: e5b0 45be 1267 4ebe 78da fdbe ba88 8ebe
00000030: bf9d 02be 5e02 5dbe cb11 eabd d3c5 c3be
00000040: a35f 34be f234 6bbe 0e89 1cbd fa28 49be
00000050: cc54 8634 83ea 35bf 9249 1ebe d125 a6be
00000060: 1e48 31be 3c65 8fbd 6089 fabe 1fdc a0be
00000070: 0ab9 c2be 5c90 25be 7533 81be 0492 73be

resnet_denoiser/level_2/batch_normalization_34/FusedBatchNormV31 f4 [32]
1.5836993 1.1825387 0.88612884 0.3097054 -0.6595818 1.5905163 1.3021228 1.8431385
1.3823158 0.8452756 1.0968773 0.8754518 0.7210198 1.2528106 1.6180007 1.1256161
1.1374379 0.5370222 2.3598576 0.9341796 -0.65483165 0.72056454 0.9088803 1.6140895
0.4814536 0.48929334 0.78670305 1.7977309 0.33448803 0.85456085 0.34448317 1.0468498
00000000: a9b6 ca3f 6e5d 973f 57d9 623f b591 9e3e
00000010: 5ada 28bf 0a96 cb3f f6ab a63f f6eb eb3f
00000020: b9ef b03f fb63 583f 7a66 8c3f 9c1d 603f
00000030: c194 383f 195c a03f a61a cf3f 3014 903f
00000040: 9197 913f 497a 093f e807 1740 6526 6f3f
00000050: 0ca3 27bf eb76 383f 61ac 683f 7c9a ce3f
00000060: 1681 f63e a884 fa3e 5f65 493f 0c1c e63f
00000070: 0442 ab3e 80c4 5a3f 1960 b03e 2dff 853f

resnet_denoiser/level_2/batch_normalization_35/FusedBatchNormV3 f4 [16]
0.22029671 -0.13202941 -0.036573704 -0.07637042 -0.17455423 -0.3060221 -0.038493633 -0.11395255
0.16290787 0.3654942 -0.8425387 -0.50104296 -0.27515373 -1.5962471 -0.055646565 0.0071350755
00000000: 7695 613e b832 07be 4fce 15bd 1868 9cbd
00000010: 58be 32be eeae 9cbe 80ab 1dbd f45f e9bd
00000020: 52d1 263e 0e22 bb3e 9eb0 57bf 5a44 00bf
00000030: f3e0 8cbe d351 ccbf a7ed 63bd 5acd e93b

resnet_denoiser/level_2/batch_normalization_35/FusedBatchNormV31 f4 [16]
4.033708 1.8392313 2.1571896 2.2278357 2.5275993 3.7750564 1.5308055 1.7510438
1.6320463 2.0389302 3.4922228 1.6754175 5.8632803 1.6104947 0.9718215 0.96650296
00000000: 2314 8140 ee6b eb3f 650f 0a40 dc94 0e40
00000010: 30c4 2140 869a 7140 6ff1 c33f 3422 e03f
00000020: e5e6 d03f d57d 0240 9480 5f40 1574 d63f
00000030: fe9f bb40 b124 ce3f 4bc9 783f bd6c 773f

resnet_denoiser/level_2/batch_normalization_36/FusedBatchNormV3 f4 [16]
-0.41064855 -0.17039408 -0.24693671 -0.18469635 -0.20168233 -0.10293095 -0.043465786 -0.26731846
-0.24255161 -0.23267439 -0.20482108 -0.38856146 -0.19134672 -0.36481836 -5.8817268e-08 -0.14811513
00000000: 8740 d2be c97b 2ebe fadc 7cbe 0a21 3dbe
00000010: d085 4ebe 76cd d2bd 2e09 32bd f7dd 88be
00000020: 735f 78be 3242 6ebe 9ebc 51be 87f1 c6be
00000030: 65f0 43be 79c9 babe 459e 7cb3 7eab 17be

resnet_denoiser/level_2/batch_normalization_36/FusedBatchNormV31 f4 [16]
3.4829545 3.6973457 2.0915284 1.7121634 1.7485042 4.7766886 12.162773 3.1029506
1.9999062 1.5654166 1.9452947 2.0606115 5.9994106 4.494219 2.244612 4.623252
00000000: bae8 5e40 50a1 6c40 9adb 0540 2c28 db3f
00000010: fcce df3f a2da 9840 b89a 4241 be96 4640
00000020: edfc ff3f 925f c83f 6bff f83f 0fe1 0340
00000030: 2cfb bf40 a4d0 8f40 b9a7 0f40 aef1 9340

resnet_denoiser/level_2/batch_normalization_37/FusedBatchNormV3 f4 [32]
-0.13230224 -0.22973977 -0.15731205 -7.564221e-07 2.8425785e-07 -4.1964995e-07 -0.1556908 -0.11974349
6.690506e-07 -0.14652117 -0.14087567 -0.12671684 -0.1744103 -1.0677647e-07 -0.19142911 -0.13893847
-0.20618556 -0.058035392 -0.31474832 -0.21124133 -0.075952776 -0.246434 4.3869182e-08 -0.26120102
-0.13227083 -0.041842896 -0.2663588 -0.08719661 -2.2369271e-07 -0.3976777 -5.0421175e-08 -0.42726728
00000000: 3d7a 07be e740 6bbe 6916 21be ee0c 4bb5
00000010: 1a9c 9834 404c e1b4 696d 1fbe 133c f5bd
00000020: cf98 3335 a509 16be b641 10be 0fc2 01be
00000030: 9d98 32be fc4c e5b3 fe05 44be e345 0ebe
00000040: 4f22 53be 85b6 6dbd b126 a1be a64f 58be
00000050: 218d 9bbd 3259 7cbe ad6a 3c33 24bc 85be
00000060: 0172 07be 7563 2bbd 2e60 88be 2394 b2bd
00000070: 2f30 70b4 699c cbbe ab8e 58b3 c7c2 dabe

resnet_denoiser/level_2/batch_normalization_37/FusedBatchNormV31 f4 [32]
1.459546 0.8165247 1.6819495 1.1587769 1.248751 -1.3305984 1.1906623 1.3782359
-1.2627697 1.2264913 2.0028145 1.1462147 1.3550863 -1.4418285 1.3123944 0.43895304
1.3157749 1.6554114 1.019317 1.8018475 2.104586 0.6974447 1.0606517 1.1484903
1.4416995 1.2418295 1.0859431 2.3335977 -1.0784339 0.44931215 1.0679581 0.8578039
00000000: 67d2 ba3f c307 513f 1f4a d73f cd52 943f
00000010: 13d7 9f3f 0c51 aabf 9f67 983f 096a b03f
00000020: 70a2 a1bf abfd 9c3f 1d2e 0040 2ab7 923f
00000030: 7873 ad3f d68d b8bf 8afc a73f 74be e03e
00000040: 506b a83f 85e4 d33f fb78 823f f0a2 e63f
00000050: 89b1 0640 bc8b 323f 6fc3 873f bb01 933f
00000060: 9c89 b83f 45f4 9e3f 2f00 8b3f aa59 1540
00000070: 1f0a 8abf 3e0c e63e dab2 883f 0999 5b3f

resnet_denoiser/level_2/batch_normalization_38/FusedBatchNormV3 f4 [16]
0.14095867 -0.15779725 -0.020053964 -0.029524643 -0.1591814 -0.20277594 -0.019627152 -0.0285631
0.114059456 0.30406865 -0.68303645 -0.7261096 -0.09941984 -0.8917287 -0.039428435 0.0015038638
00000000: 7857 103e 9a95 21be 3648 a4bc aadd f1bc
00000010: 7300 23be 7fa4 4fbe 1fc9 a0bc 2afd e9bc
00000020: 0198 e93d e3ae 9b3e 7adb 2ebf 52e2 39bf
00000030: a19c cbbd 5548 64bf b67f 21bd 4c1d c53a

resnet_denoiser/level_2/batch_normalization_38/FusedBatchNormV31 f4 [16]
2.5810015 2.1981895 1.1828225 0.8612767 2.304996 2.5014226 0.7805277 0.43891293
1.1426723 1.6962641 2.831105 2.428009 2.118548 0.89968807 0.6885851 0.20371033
00000000: 212f 2540 23af 0c40 ba66 973f a17c 5c3f
00000010: 0e85 1340 4f17 2040 aad0 473f 32b9 e03e
00000020: 1643 923f 2f1f d93f d330 3540 8064 1b40
00000030: 4a96 0740 f551 663f 1d47 303f 7199 503e

resnet_denoiser/level_2/batch_normalization_39/FusedBatchNormV3 f4 [16]
-0.072675176 -0.04799561 -0.09822548 -0.1083237 -0.075872645 3.0163122e-08 -0.049855664 -0.07048698
-2.8806411e-08 -0.062346246 -0.106852144 -0.08508804 -3.1394794e-08 -0.020634217 -0.12503773 -0.06366051
00000000: b9d6 94bd 0b97 44bd 712a c9bd d1d8 ddbd
00000010: 1e63 9bbd b48c 0133 7435 4cbd 7a5b 90bd
00000020: f871 f7b2 c75e 7fbd 4cd5 dabd a342 aebd
00000030: f1d6 06b3 1709 a9bc e409 00be 7160 82bd

resnet_denoiser/level_2/batch_normalization_39/FusedBatchNormV31 f4 [16]
1.4407253 6.5595045 5.432421 2.4428978 1.7333808 -1.5055592 3.5290952 4.9607825
1.4348704 4.4326377 2.219607 1.4770384 1.3742929 6.731926 2.1856432 6.4483585
00000000: b069 b83f 76e7 d140 65d6 ad40 7058 1c40
00000010: 6cdf dd3f 2ab6 c0bf b2dc 6140 bbbe 9e40
00000020: d5a9 b73f 2bd8 8d40 0b0e 0e40 980f bd3f
00000030: d4e8 af3f f06b d740 94e1 0b40 f458 ce40

resnet_denoiser/level_2/batch_normalization_40/FusedBatchNormV3 f4 [32]
5.249146e-07 -0.2461693 -4.122658e-07 -0.10049507 -0.13335551 -0.24447425 -0.35200942 -0.07563764
-0.101893865 -0.067911625 -0.21606083 1.0692012e-07 1.7617705e-07 -3.465024e-07 -4.290672e-07 -0.23282921
-0.15869565 -4.926445e-07 -0.30277467 -2.328125e-08 -0.18675227 -0.29686892 -3.0337537e-07 -0.078188024
-0.04027077 -0.11773574 -0.32538652 -0.1280842 -0.13498272 -0.20281641 -0.19924325 -0.5137741
00000000: dbe7 0c35 ce13 7cbe 6155 ddb4 5cd0 cdbd
00000010: 598e 08be 7557 7abe 943a b4be e8e7 9abd
00000020: bbad d0bd 4015 8bbd 0d3f 5dbe f59b e533
00000030: 2e2b 3d34 ed06 bab4 8c5a e6b4 c86a 6ebe
00000040: 1d81 22be 463e 04b5 4805 9bbe 03fc c7b2
00000050: fd3b 3fbe 34ff 97be 98df a2b4 0b21 a0bd
00000060: f7f2 24bd 701f f1bd 1099 a6be 8128 03be
00000070: e938 0abe 1baf 4fbe 6c06 4cbe b386 03bf

resnet_denoiser/level_2/batch_normalization_40/FusedBatchNormV31 f4 [32]
-2.1140041 2.4779575 -2.230802 4.101445 5.6555657 3.1731806 2.2091043 6.1331687
6.330506 12.314491 4.17074 -2.131466 2.1873639 2.1107583 2.146061 3.1286964
1.4636072 1.8348716 1.3036667 1.9523336 2.2441041 1.616594 -1.8918186 1.7753935
4.4960494 2.4053173 1.9319072 3.066664 3.8314054 1.6578854 1.8049661 2.19965
00000000: d84b 07c0 db96 1e40 76c5 0ec0 0a3f 8340
00000010: 65fa b440 6415 4b40 f761 0d40 eb42 c440
00000020: 8193 ca40 2808 4541 b476 8540 f069 08c0
00000030: c5fd 0b40 aa16 0740 1059 0940 903c 4840
00000040: 7b57 bb3f 13dd ea3f 8dde a63f 11e6 f93f
00000050: 679f 0f40 8dec ce3f 1d27 f2bf 1840 e33f
00000060: a3df 8f40 b8f0 1940 bc48 f73f 3944 4440
00000070: bf35 7540 9735 d43f 2109 e73f 11c7 0c40

resnet_denoiser/level_2/batch_normalization_41/FusedBatchNormV3 f4 [16]
0.032812707 -0.04194712 -0.007944274 -0.009664253 -0.021750523 -0.06305575 -0.008071814 -0.020306021
0.13112721 0.07580954 -0.17203106 -0.18224676 -0.041456822 -0.6517882 -0.022442026 0.0028436945
00000000: 9e66 063d bed0 2bbd b328 02bc d156 1ebc
00000010: 272e b2bc 6023 81bd a43f 04bc d058 a6bc
00000020: 3646 063e 0842 9b3d e928 30be e59e 3abe
00000030: a1ce 29bd 97db 26bf 57d8 b7bc 475d 3a3b

resnet_denoiser/level_2/batch_normalization_41/FusedBatchNormV31 f4 [16]
0.60081196 0.58434296 0.46856904 0.28192028 0.3149543 0.77784914 0.32099783 0.31203106
1.3136609 0.4229078 0.71304834 0.60940766 0.88340783 0.6576058 0.3919316 0.385201
00000000: d0ce 193f 8097 153f 48e8 ef3e db57 903e
00000010: b141 a13e 1f21 473f d459 a43e 89c2 9f3e
00000020: 0a26 a83f 5f87 d83e 568a 363f 2402 1c3f
00000030: 0427 623f db58 283f 42ab c83e 1139 c53e

resnet_denoiser/level_2/batch_normalization_42/FusedBatchNormV3 f4 [16]
-0.039865922 -0.019630902 2.2294257e-08 -0.04432783 -3.2595267e-08 1.5386115e-08 -1.6232974e-08 -0.034982357
-0.01299908 -0.061923657 -0.045864217 -0.039481707 -0.012624026 -0.025110548 -0.021080641 -2.3728232e-08
00000000: 734a 23bd fcd0 a0bc 9781 bf32 1991 35bd
00000010: e0fe 0bb3 6d2a 8432 b070 8bb2 a949 0fbd
00000020: 18fa 54bc a9a3 7dbd 1edc 3bbd 92b7 21bd
00000030: 01d5 4ebc a3b4 cdbc 4fb1 acbc efd2 cbb2

resnet_denoiser/level_2/batch_normalization_42/FusedBatchNormV31 f4 [16]
2.6770296 1.0107988 -0.91195935 1.5071839 0.98171806 -0.7742614 0.81142974 1.9629922
2.9000514 2.9184344 1.523482 2.5714257 2.2532356 2.7641613 3.7281492 0.8626412
00000000: 7454 2b40 db61 813f 2b76 69bf 67eb c03f
00000010: e051 7b3f ff35 46bf dcb9 4f3f 5443 fb3f
00000020: 719a 3940 a1c7 3a40 7501 c33f 3d92 2440
00000030: 0335 1040 05e8 3040 ff99 6e40 0ed6 5c3f

resnet_denoiser/level_2/batch_normalization_43/FusedBatchNormV3 f4 [32]
-0.07725952 -0.19638343 -0.034404483 1.9612057e-07 -0.06763474 -0.05658949 -0.10588453 1.2853202e-07
-0.08533516 -0.18039899 -0.068680786 3.228537e-07 -0.054037973 -0.028952833 -0.04333463 -0.24324179
-0.056364387 -0.12636198 -0.08420349 -0.10765884 -0.06442758 -0.142844 -0.11504867 -4.81857e-07
-0.094781354 -0.12064262 -0.002160252 -0.14886697 -0.025824059 6.4503007e-07 -2.0195505e-07 4.8780265e-08
00000000: 3d3a 9ebd bd18 49be b7eb 0cbd 3695 5234
00000010: 1584 8abd 62ca 67bd fdd9 d8bd 9d02 0a34
00000020: 33c4 aebd 83ba 38be 83a8 8cbd ad54 ad34
00000030: ec56 5dbd 7e2e edbc a77f 31bd 6014 79be
00000040: 58de 66bd 0965 01be e172 acbd 3d7c dcbd
00000050: 9bf2 83bd b345 12be a39e ebbd f658 01b5
00000060: ba1c c2bd 7a13 f7bd 0493 0dbb 9570 18be
00000070: fa8c d3bc 2126 2d35 fbd8 58b4 7882 5133

resnet_denoiser/level_2/batch_normalization_43/FusedBatchNormV31 f4 [32]
33.02753 21.634062 5.4692173 3.8740604 12.315772 4.7954173 5.2707796 -3.8062985
15.955901 7.981854 12.709711 -4.005157 16.200802 5.8620243 3.5239968 9.49581
3.1182902 10.624091 3.9695797 8.05219 3.30879 3.4821272 5.522277 -2.9276943
3.8534112 8.202758 10.307699 9.039631 3.4021003 -3.0364428 3.022851 -3.0376487
00000000: 311c 0442 8f12 ad41 d403 af40 9bf0 7740
00000010: 670d 4541 0f74 9940 3aaa a840 659a 73c0
00000020: 5f4b 7f41 596b ff40 fa5a 4b41 3f2a 80c0
00000030: 3e9b 8141 b495 bb40 2a89 6140 d6ee 1741
00000040: 1192 4740 47fc 2941 980d 7e40 c5d5 0041
00000050: 37c3 5340 2cdb 5e40 7eb6 b040 585f 3bc0
00000060: 4a9e 7640 7f3e 0341 56ec 2441 54a2 1041
00000070: 03bc 5940 1455 42c0 6476 4140 d668 42c0

resnet_denoiser/level_2/batch_normalization_44/FusedBatchNormV3 f4 [16]
0.010060143 -0.019046132 -0.002682199 -0.0042038257 -0.027165312 -0.028423637 -0.005815775 -0.007844812
0.0066726785 0.027691139 -0.045612145 -0.048074834 -0.014791748 -0.29200807 -0.010777366 0.0030680003
00000000: 4cd3 243c a206 9cbc d5c7 2fbb 3fc0 89bb
00000010: ca89 debc b0d8 e8bc 4292 bebb 8787 00bc
00000020: 7ca6 da3b 87d8 e23c cdd3 3abd 1eea 44bd
00000030: 1659 72bc 1582 95be 8d93 30bc 8110 493b

resnet_denoiser/level_2/batch_normalization_44/FusedBatchNormV31 f4 [16]
0.18420465 0.26532155 0.1582014 0.12263173 0.39336213 0.35063097 0.23128031 0.12054677
0.06684834 0.1544766 0.18905693 0.16075553 0.31519893 0.29461446 0.18821786 0.41558522
00000000: 25a0 3c3e 3ad8 873e 8cff 213e 5826 fb3d
00000010: c366 c93e e785 b33e bfd4 6c3e 3ae1 f63d
00000020: c8e7 883d 1d2f 1e3e 2498 413e 199d 243e
00000030: c161 a13e b5d7 963e 2fbc 403e 96c7 d43e

resnet_denoiser/level_2/batch_normalization_45/FusedBatchNormV3 f4 [16]
-0.011043965 3.812899e-08 -3.374827e-08 3.28879e-08 3.8332743e-08 -0.013711803 -0.008805189 -0.008284404
-0.006362935 3.1799292e-08 -3.9194465e-08 -0.021293135 -0.010327288 -0.008702691 -3.4940804e-08 -3.8537348e-08
00000000: bff1 34bc 45c3 2333 9ef2 10b3 a140 0d33
00000010: 4ca3 2433 78a7 60bc a443 10bc 4fbb 07bc
00000020: 2b80 d0bb b193 0833 c556 28b3 f16e aebc
00000030: c933 29bc bb95 0ebc d211 16b3 4384 25b3

resnet_denoiser/level_2/batch_normalization_45/FusedBatchNormV31 f4 [16]
6.9769135 -1.464578 1.3979262 -1.4050558 -1.4522275 4.5760875 6.774478 6.787013
1.3651075 -1.3847704 1.4917103 3.5495434 1.3135341 8.484904 1.40821 1.4374787
00000000: e042 df40 4b77 bbbf 3fef b23f ded8 b3bf
00000010: 97e2 b9bf 4f6f 9240 86c8 d840 362f d940
00000020: d8bb ae3f 2840 b1bf 5df0 be3f b82b 6340
00000030: e321 a83f 2bc2 0741 3a40 b43f 4dff b73f

resnet_denoiser/level_2/batch_normalization_46/FusedBatchNormV3 f4 [32]
-0.016991798 3.7012808e-07 -2.2558208e-07 3.935384e-07 -4.2218167e-07 -0.023282507 -0.020408075 -0.011740815
-0.12530437 -0.054343645 -1.2398804e-07 -0.04767222 -0.032640293 -3.4543696e-08 7.4507696e-08 1.490941e-07
-6.642479e-07 -0.04642429 -0.049639177 -0.027624588 -8.564592e-08 -0.012749605 -0.008083103 5.950836e-07
-0.03256908 -0.051236175 -0.03296572 -0.1460616 3.5779647e-07 3.8582936e-08 0.009261437 -6.263728e-07
00000000: 6232 8bbc 04b6 c634 8837 72b4 8147 d334
00000010: 35a8 e2b4 f5ba bebc d62e a7bc 8c5c 40bc
00000020: ca4f 00be 7197 5ebd 9321 05b4 f243 43bd
00000030: d4b1 05bd 325d 14b3 0a01 a033 ad16 2034
00000040: c54e 32b5 6527 3ebd 7352 4bbd f64c e2bc
00000050: 58ec b7b3 b8e3 50bc fe6e 04bc d5bd 1f35
00000060: 2867 05bd 06dd 51bd 1007 07bd 2c91 15be
00000070: 2c17 c034 63b6 2533 48bd 173c 0324 28b5

resnet_denoiser/level_2/batch_normalization_46/FusedBatchNormV31 f4 [32]
7.0116954 -2.8327496 -2.7886095 -2.7693245 2.6909845 3.5526366 1.9739656 4.1618896
22.846624 1.3852148 2.524748 1.2178243 5.4182267 -2.7325416 -2.6718647 2.4578316
2.0866494 2.9092765 3.292799 1.7435905 2.1700869 3.7057319 6.02778 -2.086646
8.510516 10.635422 3.352545 8.337924 2.1995428 -2.1028636 7.6147866 1.9980847
00000000: cf5f e040 c54b 35c0 9478 32c0 9d3c 31c0
00000010: 1739 2c40 665e 6340 e8aa fc3f 332e 8540
00000020: e3c5 b641 b84e b13f 7995 2140 abe1 9b3f
00000030: 1d62 ad40 f6e1 2ec0 d5ff 2ac0 1d4d 1d40
00000040: aa8b 0540 9631 3a40 38bd 5240 f92d df3f
00000050: b4e2 0a40 b62a 6d40 93e3 c040 9c8b 05c0
00000060: 132b 0841 b02a 2a41 1990 5640 2368 0541
00000070: 4fc5 0c40 5195 06c0 55ac f340 3dc1 ff3f

resnet_denoiser/level_2/batch_normalization_47/FusedBatchNormV3 f4 [16]
0.010734016 -0.009187351 -0.00096204074 -0.003231916 -0.006581532 -0.0021367813 -0.001303488 -0.0049105124
-3.8137577e-07 0.02244861 -0.055873122 -0.018153809 -0.0015281624 -0.04725032 -0.0028242273 0.003142807
00000000: badd 2f3c 8b86 16bc 7631 7cba 8ece 53bb
00000010: e4a9 d7bb 3e09 0cbb cdd9 aaba 5de8 a0bb
00000020: e3bf ccb4 26e6 b73c 37db 64bd 4cb7 94bc
00000030: 9f4c c8ba 8d89 41bd ac16 39bb 8df7 4d3b

resnet_denoiser/level_2/batch_normalization_47/FusedBatchNormV31 f4 [16]
0.19654351 0.12798409 0.05674308 0.094279684 0.09530262 0.02635911 0.051836785 0.075457044
-3.820705e-06 0.12523085 0.23158745 0.060703795 0.032563776 0.047672063 0.049322814 0.42571825
00000000: b442 493e 430e 033e 6f6b 683d b515 c13d
00000010: 052e c33d 0fef d73c cf52 543d 3989 9a3d
00000020: 9b33 80b6 843c 003e 4325 6d3e 8ba4 783d
00000030: 9861 053d c843 433d b806 4a3d bef7 d93e

resnet_denoiser/level_2/conv2d_34/Conv2D i1 [16, 5, 5, 3]
12 -8 -7 4 0 -2 6 0
-5 6 0 -3 0 0 -2 19
-1 -15 16 0 -3 4 -3 0
0 0 0 -1 0 0 11 0
-17 3 0 -5 -127 115 -16 -15
-1 74 -5 6 19 2 7 -1
0 0 0 4 -1 2 1 3
0 -4 -1 0 2 0 -1 0
0 0 -1 0 0 0 -1 1
0 -2 0 0 0 0 -2 1
0 1 0 2 -1 0 0 0
-1 0 0 0 0 3 0 0
-7 -4 -11 19 0 6 -6 -2
-5 -3 0 0 -9 4 -2 -127
-7 30 35 6 6 9 7 15
0 0 0 12 -1 -5 9 0
-18 16 0 6 -5 -1 -7 0
0 0 -1 -1 2 -1 -1 2
0 -3 3 2 0 0 -3 1
0 0 3 0 -1 0 0 1
3 0 -3 1 -3 -3 5 0
-1 -4 0 0 -7 -28 0 4
6 -4 0 -1 -7 6 0 -13
21 -4 33 60 -127 0 7 3
4 20 8 -2 3 0 -4 0
14 -11 3 2 0 0 22 -6
0 0 -8 5 1 -5 3 2
-15 9 9 -4 2 5 -9 0
3 0 6 -7 -13 5 -1 -14
16 -3 -3 0 -2 -16 18 0
-2 -9 -2 -7 0 20 -24 0
0 -14 -9 27 -11 0 8 37
00000000: 0cf8 f904 00fe 0600 fb06 00fd 0000 fe13
00000010: fff1 1000 fd04 fd00 0000 00ff 0000 0b00
00000020: ef03 00fb 8173 f0f1 ff4a fb06 1302 07ff
00000030: 0000 0004 ff02 0103 00fc ff00 0200 ff00
00000040: 0000 ff00 0000 ff01 00fe 0000 0000 fe01
00000050: 0001 0002 ff00 0000 ff00 0000 0003 0000
00000060: f9fc f513 0006 fafe fbfd 0000 f704 fe81
00000070: f91e 2306 0609 070f 0000 000c fffb 0900
00000080: ee10 0006 fbff f900 0000 ffff 02ff ff02
00000090: 00fd 0302 0000 fd01 0000 0300 ff00 0001
000000a0: 0300 fd01 fdfd 0500 fffc 0000 f9e4 0004
000000b0: 06fc 00ff f906 00f3 15fc 213c 8100 0703
000000c0: 0414 08fe 0300 fc00 0ef5 0302 0000 16fa
000000d0: 0000 f805 01fb 0302 f109 09fc 0205 f700
000000e0: 0300 06f9 f305 fff2 10fd fd00 fef0 1200
000000f0: fef7 fef9 0014 e800 00f2 f71b f500 0825
