bfcnn/pretrained/resnet_color_laplacian_2x5_non_shared_bn_16x3x3_128x128_skip_input/model.tflite (tflite, 126976 bytes, 101 tensors)

resnet_denoiser/level_0/batch_normalization/FusedBatchNormV3 f4 [16]
000000 a0 13 a1 b8 22 ea e8 37 b0 e1 0f ba b9 63 47 39
       -7.680734e-05 2.7765582e-05 -0.0005488647 0.00019015268
000010 e5 7f 5d b9 10 38 d3 b9 5b d8 ae b7 31 09 67 39
       -0.00021123847 -0.00040286826 -2.0843165e-05 0.00022033301
000020 aa 41 e6 b8 72 f4 af 39 7f f9 3b b8 ea 4f 0d b9
       -0.000109794855 0.00033560727 -4.4816636e-05 -0.00013476578
000030 01 86 9d 37 19 96 8b 39 d0 9a 00 b7 80 84 8c 39
       1.8778259e-05 0.00026623977 -7.66544e-06 0.000268016

resnet_denoiser/level_0/batch_normalization/FusedBatchNormV31 f4 [16]
000000 e8 8e 8e 41 22 72 08 41 fb 4f 79 41 a4 22 46 40
       17.819778 8.527864 15.5820265 3.0958643
000010 44 81 52 41 f6 0e 94 41 34 4b 8e 40 61 12 ba 41
       13.156559 18.507305 4.44668 23.258974
000020 f7 c0 7c 41 ef 8e 18 41 c4 c5 ad 40 07 81 50 40
       15.797111 9.534896 5.4303913 3.2578752
000030 df 52 8a 41 63 e4 04 41 c3 e1 a3 40 bc 73 20 41
       17.290464 8.305758 5.121309 10.028255

resnet_denoiser/level_0/batch_normalization_1/FusedBatchNormV3 f4 [16]
000000 86 9b bb bd 77 31 23 be 46 31 12 be 56 d5 12 be
       -0.09160523 -0.15936838 -0.14276609 -0.14339194
000010 8e 2f 06 bd 52 66 55 bd 29 db 97 bd 68 be 3c be
       -0.032760195 -0.052099533 -0.07414848 -0.18432009
000020 6b 9b cb bd da fd f2 bd 7c de 89 bd 84 a1 d7 bd
       -0.09941753 -0.118648246 -0.06731889 -0.105288535
000030 b1 d6 2f bd bb d6 05 be 98 d8 8f bd ea 9d 73 bd
       -0.042929355 -0.13070194 -0.07023734 -0.05947677

resnet_denoiser/level_0/batch_normalization_1/FusedBatchNormV31 f4 [16]
000000 25 68 df 3f 6b 25 16 40 3a 11 34 3f c5 a4 50 3f
       1.7453657 2.3460338 0.70338786 0.8150142
000010 e5 2f 6a 40 1f 22 58 40 fe 74 dc 3f 22 26 09 3f
       3.6591733 3.3770826 1.7223203 0.5357381
000020 84 3d ef 3f 2f fc c4 3f 9f 92 6d 3f bc 36 01 40
       1.8690648 1.538946 0.9280185 2.0189657
000030 e1 4d 35 40 d3 14 c7 3f cd 04 d2 3f f7 19 12 40
       2.8328784 1.555323 1.6407715 2.2828348

resnet_denoiser/level_0/batch_normalization_10/FusedBatchNormV3 f4 [16]
000000 81 58 e0 bc ff e1 de bc bc 6b 73 bd 67 06 f8 bd
       -0.027385952 -0.027207373 -0.059428915 -0.12110596
000010 1e 56 91 33 5f a7 2c bd 61 b1 20 bd 43 86 b3 bd
       6.767753e-08 -0.042151805 -0.03923166 -0.08765843
000020 a6 bf 42 be 44 c7 5d bd bf 89 82 bd 43 79 f0 bd
       -0.1901842 -0.054145113 -0.06373929 -0.11741879
000030 e2 da 28 bc 09 28 e0 bd 08 94 4a be 46 00 04 bd
       -0.010306092 -0.10945136 -0.19783032 -0.032226823

resnet_denoiser/level_0/batch_normalization_10/FusedBatchNormV31 f4 [16]
000000 13 b0 72 41 ab 78 77 41 5a 50 22 41 20 c8 a2 40
       15.167987 15.46696 10.144617 5.0869293
000010 f7 2a 73 c0 69 7f 79 41 14 ff 13 41 7d 0f 20 41
       -3.7994974 15.593606 9.249775 10.003781
000020 75 2c 7d 41 1d f7 07 41 90 2f d6 40 e9 f1 25 41
       15.823354 8.49783 6.693306 10.37156
000030 87 65 f5 41 57 ae f7 40 f5 9d 42 41 54 2b 6c 41
       30.674574 7.7400317 12.163564 14.760578

resnet_denoiser/level_0/batch_normalization_11/FusedBatchNormV3 f4 [32]
000000 f4 3a 01 b4 cc 87 2f be 5e 54 17 be c2 a9 2a be
       -1.2035508e-07 -0.17141646 -0.14778277 -0.1666632
000010 a4 0c ae be 05 86 90 be 4e 94 4e be bc a6 3b bd
       -0.3399402 -0.2822725 -0.20173761 -0.045813307
000020 13 0e cf bd 73 32 f6 bc 8c 38 84 bd a9 19 15 bd
       -0.10110106 -0.030053353 -0.06456098 -0.036401425
000030 29 61 f1 bd 15 83 d3 bd f0 4d c7 bd c7 b4 eb bd
       -0.1178611 -0.10327736 -0.09731662 -0.1150909
000040 b0 f7 d5 bd 7c 90 5e bd 1d 76 07 bd 1d ff 4f bd
       -0.10447633 -0.05433701 -0.033071626 -0.050780404
000050 58 b3 02 bd fb fc 3c bd 43 42 64 bd 32 cb 1c 34
       -0.031909317 -0.0461397 -0.055727255 1.4602554e-07
000060 26 31 14 be dd b1 ad bd ee 1a 06 be 07 db ba bd
       -0.14471874 -0.0848119 -0.1309621 -0.091238074
000070 10 b6 81 bd 7c 1a a5 bd 14 4d 8c be 2f 97 fb bd
       -0.06333554 -0.08061692 -0.27402556 -0.12284695

resnet_denoiser/level_0/batch_normalization_11/FusedBatchNormV31 f4 [32]
000000 dc 6e 77 3f f8 69 a1 40 5f 53 61 3f 13 6d 56 3f
       0.96653533 5.0441856 0.8801784 0.83760184
000010 a6 7a 76 3f 00 76 62 3f 43 cb 83 3f 8f 45 7d 3f
       0.96280897 0.88461304 1.0296406 0.98934263
000020 85 a8 8f 3f 24 73 bb 3f 7f 5c 83 3f 5e af 79 40
       1.1223303 1.4644513 1.0262603 3.9013286
000030 d1 b0 75 3f 3d d9 5c 3f fc 4c 83 3f db 01 71 3f
       0.95972925 0.8626898 1.0257869 0.94143456
000040 80 f3 47 3f 1c 70 a3 3f 40 ba 74 40 37 b4 fa 3f
       0.78105927 1.2768588 3.8238678 1.9586247
000050 77 d2 0d 40 fd 09 92 3f 00 8f 59 3f 24 ba 5a bf
       2.2159708 1.1409298 0.84983826 -0.8544028
000060 e8 c7 54 3f d0 6d 0b 3f 01 51 79 3f 9f e7 43 3f
       0.8311753 0.54464436 0.9738923 0.765253
000070 e5 ec 58 3f 86 73 26 3f 41 72 b7 3f 59 af 46 3f
       0.8473647 0.65020025 1.4331743 0.7761131

resnet_denoiser/level_0/batch_normalization_12/FusedBatchNormV3 f4 [16]
000000 99 8d be b5 16 b2 0f 35 1d e0 42 b5 f8 48 bb 37
       -1.4197313e-06 5.35308e-07 -7.259676e-07 2.2326116e-05
000010 69 c5 09 b7 2a fd 31 b5 05 72 8c b3 21 53 dc 35
       -8.2117995e-06 -6.630604e-07 -6.539998e-08 1.6415471e-06
000020 a4 68 6c b6 1f d4 b2 37 b8 0c a9 b7 12 93 c6 b5
       -3.522765e-06 2.131803e-05 -2.0152293e-05 -1.4794953e-06
000030 f9 8b 61 34 35 0b a0 37 db 3d 86 b3 ec c2 c9 36
       2.100568e-07 1.9078705e-05 -6.251113e-08 6.0129587e-06

resnet_denoiser/level_0/batch_normalization_12/FusedBatchNormV31 f4 [16]
000000 93 a4 a8 3e 80 61 28 3e 32 d6 a8 3c 66 1b ba 3e
       0.3293806 0.16443443 0.020609949 0.36349028
000010 7a ed 02 3f 7c 88 f9 3c 4d 9b 64 3c 8f 72 31 3e
       0.5114361 0.030460589 0.013953042 0.17328857
000020 13 c1 01 3f e6 0c 1b 3f 61 48 1c 40 4a 7f 12 3d
       0.5068523 0.60566556 2.4419177 0.035765924
000030 0b 00 46 3e e4 5d 18 3f ef 16 2b 3d ed 61 66 3e
       0.19335954 0.59518266 0.041769918 0.22498293

resnet_denoiser/level_0/batch_normalization_13/FusedBatchNormV3 f4 [16]
000000 b0 ef 03 bc 7c 31 67 b3 8c 66 58 b3 0b 8f 9f bb
       -0.008052751 -5.3828884e-08 -5.0384685e-08 -0.004869347
000010 13 72 70 b3 cb 72 83 bb 42 9d df bb 7e b8 fa bd
       -5.5983104e-08 -0.004011487 -0.0068241665 -0.1224222
000020 1c 23 a3 bb 67 cf 67 bc 21 a9 bd ba 74 97 d9 bb
       -0.0049785506 -0.01414857 -0.001446996 -0.006640369
000030 00 c3 7d ba dc a0 1c bc a1 ed 08 bc cf e7 3f bb
       -0.00096802413 -0.009559836 -0.008357436 -0.0029282456

resnet_denoiser/level_0/batch_normalization_13/FusedBatchNormV31 f4 [16]
000000 59 2d bc 41 70 a4 59 40 e5 6d 58 40 83 3e cd 41
       23.522142 3.4006615 3.3817074 25.655523
000010 a5 b8 5c 40 60 9f 4a 41 0f a0 18 41 37 f7 2f 41
       3.4487698 12.66391 9.539077 10.997855
000020 e8 44 8f 41 fb f9 cc 40 cf 43 d3 41 e5 4b d7 40
       17.908646 6.405515 26.40811 6.7280145
000030 4d 0e 42 41 cf cd aa 41 70 0a 44 41 16 3a 66 42
       12.128491 21.350492 12.252548 57.556725

resnet_denoiser/level_0/batch_normalization_14/FusedBatchNormV3 f4 [32]
000000 f0 06 2b bc a1 4c 02 b4 91 4a 06 b4 be fa d9 33
       -0.010438666 -1.2135071e-07 -1.250685e-07 1.015046e-07
000010 c2 95 f0 bc 7a c0 ca bc c7 82 e2 bc 6a b3 39 bc
       -0.029368285 -0.024749983 -0.02765025 -0.01133428
000020 ec da 0b be df 84 05 b4 c0 f7 ff bb 2e 38 17 be
       -0.13657731 -1.2434928e-07 -0.0078115165 -0.14767525
000030 40 9c 13 bd 44 6b 00 34 d9 07 3d bd 24 d7 ea 33
       -0.036037683 1.1959952e-07 -0.046150062 1.0935608e-07
000040 2d c6 ed 33 33 dc 9b ba 0b 54 79 bb fb 48 aa bc
       1.10722205e-07 -0.0011891186 -0.0038044478 -0.020786753
000050 98 86 aa bc bf dd d8 33 c2 3f 06 b4 ac 2d df 33
       -0.020816132 1.0098619e-07 -1.2502917e-07 1.03925544e-07
000060 e4 a2 f8 33 6a 70 a0 bc 90 61 cf bc 33 14 f5 bb
       1.15780296e-07 -0.019584853 -0.025315076 -0.0074792146
000070 6d 44 98 bc fa 79 03 b4 83 b4 f2 33 74 9c da b9
       -0.018587315 -1.22447e-07 1.1301838e-07 -0.00041696767

resnet_denoiser/level_0/batch_normalization_14/FusedBatchNormV31 f4 [32]
000000 0c f8 84 3f 05 0a d8 3f 0b 15 d3 3f 19 e3 cc bf
       1.0388198 1.6878058 1.6490797 -1.6006805
000010 2c ab 4c 3f 93 e9 83 3f f6 34 83 3f 1d 08 27 40
       0.7994869 1.0305656 1.0250537 2.6098702
000020 57 bb 90 3f 51 d1 d0 3f 8c f2 eb 3f e5 90 99 3f
       1.1307172 1.6313878 1.8433394 1.1997343
000030 e6 5b a5 3f 57 e4 d8 bf 0c 6b a4 3f fa 4b cd bf
       1.291867 -1.6944684 1.2845168 -1.6038811
000040 70 f4 b6 bf 77 66 8c 41 6d 0c 6b 3f 86 94 54 40
       -1.4293346 17.550032 0.91815835 3.3215652
000050 ba ed c9 3f b3 f7 b8 bf 69 80 b5 3f ce 54 b8 bf
       1.5775673 -1.4450592 1.4179813 -1.440088
000060 75 76 c0 bf f7 5c 2d 3f 31 1d a4 3f 4b b6 37 3f
       -1.503615 0.6771998 1.2821409 0.7176253
000070 80 9e 5a 3f a8 2a c1 3f d5 fc bf bf b0 3e a2 41
       0.853981 1.5091143 -1.4999033 20.28061

resnet_denoiser/level_0/batch_normalization_15/FusedBatchNormV3 f4 [16]
000000 d7 b3 3e b5 b5 2b 2f 35 de e1 a8 b6 0c 91 9d 37
       -7.1042217e-07 6.525618e-07 -5.0330846e-06 1.8783401e-05
000010 55 60 8d b6 09 1a 81 b5 00 34 36 2e 00 b7 5e 35
       -4.213342e-06 -9.618826e-07 4.1428194e-11 8.2967745e-07
000020 ca 5c 82 b5 d3 43 df 36 9d a0 12 b6 5e 81 d4 b6
       -9.71276e-07 6.6538137e-06 -2.1849185e-06 -6.3331527e-06
000030 b7 e6 ab 33 4e 9b a8 36 2a 11 15 b5 70 e8 f6 36
       8.004775e-08 5.02487e-06 -5.55318e-07 7.3584306e-06

resnet_denoiser/level_0/batch_normalization_15/FusedBatchNormV31 f4 [16]
000000 3f c4 28 3e f3 44 4d 3e cf 50 12 3e 5a 93 9c 3e
       0.16481112 0.20045833 0.14288639 0.3058117
000010 52 5a 86 3e e7 fe 34 3d ba 49 14 b7 e8 5f b3 3d
       0.26240784 0.044188406 -8.838653e-06 0.08758527
000020 35 1a 0f 3e ed 93 41 3e ff 8d 87 3e 38 c6 1c 3e
       0.13974841 0.18904085 0.26475522 0.1530999
000030 39 e8 96 3d e3 84 20 3e e4 00 be 3e 72 f7 8c 3e
       0.07368512 0.15675692 0.37110054 0.27532536

resnet_denoiser/level_0/batch_normalization_2/FusedBatchNormV3 f4 [32]
000000 93 c4 d8 bc cd 8e 22 be b6 6a 88 bd c1 f7 8b bd
       -0.026460921 -0.15874787 -0.066609785 -0.06834365
000010 9e c5 35 bd 25 37 22 bd 28 95 a1 bc 40 be 90 bd
       -0.044377916 -0.03960337 -0.019724444 -0.07067537
000020 77 b4 e7 bc a3 85 3c bd ea c9 d9 bc df d9 b3 bc
       -0.028284295 -0.046025883 -0.026585538 -0.021954475
000030 fd b4 7d bd e8 33 ba bc ca a2 3e bc 9f eb 89 bc
       -0.061940182 -0.022729829 -0.011635492 -0.016835986
000040 24 0f 50 bd f9 0e 05 bd 03 1d 47 bd bf ea 9e bd
       -0.05079569 -0.032484982 -0.048611652 -0.07759618
000050 bd a7 2d bc 46 c8 22 bd 58 12 92 bd fb 51 fd bc
       -0.010599074 -0.039741777 -0.07132405 -0.03092288
000060 ce 7f 08 bd 16 3e e9 bc 7d a8 ca bc 54 1d 84 bd
       -0.03332501 -0.028471988 -0.024738545 -0.064509064
000070 4b fe 34 bd 42 a9 17 bc 0f 5a 43 bc f4 75 56 bc
       -0.044187825 -0.009256663 -0.011923327 -0.013089646

resnet_denoiser/level_0/batch_normalization_2/FusedBatchNormV31 f4 [32]
000000 2b d0 37 40 b8 4a 4b 3f 02 56 be 3f 45 80 74 3f
       2.8720806 0.79410887 1.4869998 0.95508224
000010 f8 b1 b6 3f e4 33 d9 3f ac 13 50 3f 76 58 b5 3f
       1.4273062 1.6968961 0.81280017 1.4167621
000020 b5 25 91 3f a1 0a aa 3f f3 b5 aa 3f 7d 45 8e 3f
       1.1339632 1.3284494 1.3336776 1.1114956
000030 0c be 42 3f 7f ab 84 3f 5c 55 b5 3f c8 53 99 3f
       0.7607124 1.0364836 1.4166675 1.1978693
000040 d2 b1 04 40 64 d3 94 3f e5 79 8d 3f 6f 55 6a 3f
       2.0733533 1.1627011 1.1052824 0.9153661
000050 7d b5 de 3f ad de 47 3f 6b 61 7e 3f 97 9c 2a 3f
       1.7399136 0.7807415 0.993674 0.6664519
000060 c8 11 8b 3f 47 4f 04 3f 51 0e 62 3f 1a 24 30 3f
       1.0864801 0.5168347 0.88303095 0.68805087
000070 fe e5 3c 3f 14 89 34 3f 2a 9f ed 3f 71 81 90 3f
       0.7378844 0.70521665 1.8564198 1.1289502

resnet_denoiser/level_0/batch_normalization_3/FusedBatchNormV3 f4 [16]
000000 65 7e 05 b8 00 67 b6 37 df 65 9c b9 e0 79 19 39
       -3.1827385e-05 2.1744054e-05 -0.0002983054 0.00014636619
000010 a2 5e b2 b8 b9 66 b4 b8 16 a2 a6 b7 43 d1 2c 39
       -8.505328e-05 -8.6022024e-05 -1.986422e-05 0.00016481154
000020 44 00 a5 b8 1f 4d c8 39 a5 12 2c b8 12 25 b1 b8
       -7.8678626e-05 0.00038204432 -4.102536e-05 -8.4469226e-05
000030 ef ac ca 36 af d6 87 39 31 7f 1d b7 e3 d6 1b 39
       6.0402012e-06 0.00025909158 -9.387543e-06 0.00014862003

resnet_denoiser/level_0/batch_normalization_3/FusedBatchNormV31 f4 [16]
000000 65 4c ec 40 57 b4 d5 40 0b 80 07 41 be 82 18 40
       7.3843255 6.678264 8.4687605 2.3829799
000010 21 84 a9 40 a8 e9 7c 40 02 9d 87 40 12 2f 8b 41
       5.297379 3.9517612 4.237916 17.397984
000020 37 1f 35 41 dd aa 2d 41 dd 12 9f 40 eb af 02 40
       11.320121 10.854215 4.9710526 2.0419872
000030 c5 f9 b1 40 ec 52 01 41 e4 b4 c8 40 6c f2 b1 40
       5.5617394 8.082745 6.2720814 5.5608425

resnet_denoiser/level_0/batch_normalization_4/FusedBatchNormV3 f4 [16]
000000 ef c1 80 be c5 80 20 bd 0c 51 8a be c3 c0 a5 be
       -0.2514796 -0.039185304 -0.2701496 -0.32373628
000010 2b 18 82 bd c8 e0 78 be 1c 31 71 be 2b 00 11 be
       -0.06352266 -0.24304497 -0.2355389 -0.1416022
000020 45 d3 67 be 11 40 1a bf 9d 63 5a bd 17 77 04 be
       -0.22639187 -0.6025401 -0.053317655 -0.12936054
000030 ae ee 86 be b0 36 5c be ba b5 65 bd c5 3b d2 bd
       -0.26353973 -0.21505237 -0.05608151 -0.102653064

resnet_denoiser/level_0/batch_normalization_4/FusedBatchNormV31 f4 [16]
000000 95 60 35 40 ae 82 57 41 63 bd 8b 40 44 33 f5 3f
       2.83402 13.469404 4.3668685 1.915627
000010 70 d0 c2 40 e0 df 4a 40 79 41 0a 40 f9 90 06 41
       6.087944 3.1699142 2.1602461 8.410394
000020 48 f4 3b 40 52 bb 41 40 5c 67 c3 40 cc 34 55 40
       2.9367847 3.0270581 6.106367 3.3313475
000030 4f e9 f0 3f e3 75 9a 40 c7 50 df 40 8c 53 20 41
       1.88212 4.8268905 6.9786105 10.020397

resnet_denoiser/level_0/batch_normalization_5/FusedBatchNormV3 f4 [32]
000000 ff 51 ce bd 75 19 e3 bd ae 9f e1 bd b2 30 a2 be
       -0.10074233 -0.1108884 -0.110167846 -0.31677777
000010 50 c1 da bd 25 d8 06 be c6 65 56 bd c3 19 ed bd
       -0.10681403 -0.1316839 -0.052343152 -0.11577179
000020 08 79 2d bd 8a 34 05 be 07 95 fc bd b7 34 0f be
       -0.042351753 -0.13008323 -0.12333112 -0.13984953
000030 3b 6a 15 bd 58 5f b8 bd 7c 3c 4d be 22 e7 0c bd
       -0.036478262 -0.090025604 -0.20042604 -0.034400113
000040 9e 93 ad bc 40 4f 06 be b6 e9 46 bd 93 fd 38 bd
       -0.021188553 -0.13116169 -0.048562728 -0.045163702
000050 d0 e9 c4 bd f4 ca 6e bd 26 3f 1b be 61 43 19 bd
       -0.09614909 -0.05829902 -0.15160808 -0.037417773
000060 a8 a1 59 bd b9 8f 27 be d3 19 5a bd bb 94 ea bd
       -0.053132683 -0.1636342 -0.053247284 -0.11454149
000070 2c 0a 87 bd 22 7e 02 bd de 55 8d bc 94 27 23 be
       -0.06593737 -0.03185857 -0.017252859 -0.15933067

resnet_denoiser/level_0/batch_normalization_5/FusedBatchNormV31 f4 [32]
000000 52 43 9b 3f 8a a4 93 3f df 47 f8 3e 69 81 c4 3f
       1.212992 1.1534588 0.48492333 1.5351993
000010 5b 31 50 3f 3e cc 27 3f bb 23 fc 3f 63 0c a7 3f
       0.8132531 0.65546024 1.9698404 1.3050655
000020 0d fe 87 3f 94 61 59 3f 08 48 eb 3f 42 82 b0 3f
       1.0624405 0.8491452 1.8381357 1.3789752
000030 c4 e1 90 3f b5 7a a8 3f 5a c6 b0 3f 58 ff 53 3f
       1.1318898 1.3162447 1.3810532 0.828115
000040 60 70 39 3f 7f bf c3 3e f3 0f ff 3f 13 00 40 3f
       0.72437096 0.38232037 1.9926742 0.75000113
000050 fe d5 20 3f c1 82 2d 3f de 0f 81 3f d7 f9 98 3f
       0.62826526 0.6777764 1.0082967 1.1951245
000060 85 3d 97 3f f5 f2 78 3f 2b fd 46 3f e1 a2 21 3f
       1.1815649 0.97245723 0.77730054 0.6313916
000070 15 c1 9d 3f 5c cd 1d 3f 5d a0 18 3f 4d 97 4d 3f
       1.2324549 0.6164148 0.59619695 0.8030899

resnet_denoiser/level_0/batch_normalization_6/FusedBatchNormV3 f4 [16]
000000 2e 21 20 b7 b9 10 2e 37 90 72 a6 b8 35 c2 9c 38
       -9.544468e-06 1.0375102e-05 -7.936836e-05 7.4748335e-05
000010 d9 19 95 b7 1c 13 bf b8 37 a6 20 b7 8d 1f 78 38
       -1.777422e-05 -9.111149e-05 -9.575443e-06 5.915719e-05
000020 f1 b6 98 b8 b4 dc 85 39 3a d5 92 b7 a5 e4 ee b8
       -7.282e-05 0.00025532173 -1.7503848e-05 -0.00011391313
000030 b0 2c 16 36 a5 9c 1a 39 4c 99 0c b6 d4 29 b7 38
       2.2377753e-06 0.00014744939 -2.0950856e-06 8.733911e-05

resnet_denoiser/level_0/batch_normalization_6/FusedBatchNormV31 f4 [16]
000000 b6 b6 0d 40 8b f0 4b 40 dc 34 10 40 bf c5 9b 3f
       2.2142768 3.1865566 2.2532263 1.2169722
000010 a8 b2 8d 3f 17 f0 85 40 39 bf 02 40 4b d5 c7 40
       1.1070147 4.185558 2.0429213 6.2447867
000020 8c a2 27 41 13 20 e8 40 8a bd 07 40 ea 3d 30 40
       10.477184 7.2539153 2.1209435 2.753779
000030 c4 dd 03 40 46 32 93 40 08 2d b3 3f bc 25 51 40
       2.0604105 4.599887 1.3998117 3.2679281

resnet_denoiser/level_0/batch_normalization_7/FusedBatchNormV3 f4 [16]
000000 79 df 27 be 1c 43 c7 bd f1 40 a3 bd 9a bc 71 bd
       -0.16393842 -0.09729597 -0.07971371 -0.059017755
000010 e3 be 46 be 15 7b 0d bd 2c 49 59 b3 bc d0 5a be
       -0.19408755 -0.03454121 -5.05908e-08 -0.21368688
000020 28 c9 2e be 85 52 96 bd 70 08 6d bd 20 b1 e2 bc
       -0.17068923 -0.07339958 -0.057869375 -0.02767235
000030 58 85 a0 bd 5d 94 bb be b2 04 68 be cd 82 3e be
       -0.07837933 -0.3663663 -0.22658041 -0.18604584

resnet_denoiser/level_0/batch_normalization_7/FusedBatchNormV31 f4 [16]
000000 21 19 92 41 d8 2e 1b 41 84 45 b0 40 07 79 b6 41
       18.26227 9.698936 5.508486 22.809095
000010 69 b0 ef 40 39 45 88 41 44 c2 87 40 ed 28 af 40
       7.4902844 17.0338 4.242464 5.473746
000020 f2 74 ed 40 13 d8 83 41 4f 37 f1 40 d6 4f 6f 41
       7.4205256 16.480505 7.5380015 14.956991
000030 63 6c 30 41 db 17 87 40 69 6e b6 40 cf 89 c6 40
       11.026462 4.221662 5.700978 6.2043223

resnet_denoiser/level_0/batch_normalization_8/FusedBatchNormV3 f4 [32]
000000 f9 bf df bd 75 f3 0f be 6b cc 16 be fd 1c d3 bd
       -0.10925288 -0.14057715 -0.14726417 -0.103082635
000010 14 77 37 be 52 86 48 bd 17 9c a0 bd c3 11 10 be
       -0.17916518 -0.048956223 -0.07842272 -0.14069276
000020 6d d5 7a bd e2 43 5b be cb 40 ab bd 2c 72 00 be
       -0.061238695 -0.21412614 -0.08361968 -0.12543553
000030 9b 9c 52 be 9a 59 71 be 74 d9 85 bd 7c 02 ab bd
       -0.20567553 -0.23569337 -0.065356165 -0.08350083
000040 b2 37 e8 bd bc d0 a7 bd 38 5e b7 bd 8f 56 2c be
       -0.11338748 -0.0819411 -0.08953518 -0.16829894
000050 b2 b7 16 be 5c c6 86 bd f1 2f a3 bd d4 ed 8f bd
       -0.14718512 -0.06580803 -0.079681285 -0.07027784
000060 eb d0 97 bd 3e f9 a4 bd b2 77 30 bd ff e5 3e bd
       -0.07412895 -0.08055352 -0.0430829 -0.04660606
000070 3f 19 14 be ba 65 dc bd 06 b8 f5 bd f9 96 39 be
       -0.14462756 -0.1076159 -0.1199799 -0.18123998

resnet_denoiser/level_0/batch_normalization_8/FusedBatchNormV31 f4 [32]
000000 19 17 8e 3f b6 66 c9 3f 8b 81 72 3f 61 e8 85 3f
       1.1100799 1.573447 0.94728917 1.0461541
000010 35 6f b2 3f e7 3a eb 3f 75 2c 91 3f b0 0f 00 40
       1.3940188 1.837735 1.1341692 2.0009575
000020 f8 65 a5 3f 37 d5 d2 3f 24 a5 07 40 ca 2f dc 3f
       1.2921743 1.6471318 2.1194544 1.7202084
000030 de 3d 88 3f ae 4b f6 3f 24 df 50 3f 90 1d 44 3f
       1.064388 1.9241846 0.81590486 0.7660761
000040 b0 1e 1f 3f 30 a0 33 3f 92 ca 55 3f 56 c3 53 3f
       0.621562 0.701663 0.8351222 0.82719934
000050 e6 cf a7 3f a9 03 58 3f 55 8f 39 3f 95 7c 46 3f
       1.311032 0.84380585 0.7248433 0.7753385
000060 04 eb 3b 3f de 9a 44 3f 27 04 a9 3f 22 af c8 3f
       0.7340548 0.7679881 1.3204392 1.5678446
000070 ad 11 35 3f 12 fd 19 40 2d f2 5e 3f d8 c6 a0 3f
       0.70730096 2.4060712 0.8708828 1.2560682

resnet_denoiser/level_0/batch_normalization_9/FusedBatchNormV3 f4 [16]
000000 8d db 3d b6 c7 00 2c 36 1b 75 40 b8 ae 8e 6b 38
       -2.829099e-06 2.563045e-06 -4.588543e-05 5.6161247e-05
000010 af 51 3e b7 a5 07 ce b7 f9 05 ae b6 dc 40 52 36
       -1.1343901e-05 -2.4560673e-05 -5.1862994e-06 3.1330192e-06
000020 a6 35 be b7 02 ff b4 38 a4 6e 32 b7 7e c5 97 b8
       -2.2674747e-05 8.630568e-05 -1.0635387e-05 -7.237027e-05
000030 29 fb 9f 35 b4 34 2c 38 cf 82 c3 b5 ab 85 65 38
       1.191952e-06 4.105708e-05 -1.4566702e-06 5.4722343e-05

resnet_denoiser/level_0/batch_normalization_9/FusedBatchNormV31 f4 [16]
000000 1d 07 28 3f 71 8a 49 3f a2 bd a6 3f 80 13 6a 3f
       0.65635854 0.7872687 1.3026621 0.91436005
000010 9c df 34 3f 9c 6b 90 3f 73 a1 8d 3f 5a 56 a9 3e
       0.706537 1.128284 1.1064895 0.33073694
000020 d6 cb 50 40 f3 ed 1c 40 9d f4 a4 3f c7 ef df 3f
       3.2624412 2.4520233 1.288715 1.7495049
000030 31 76 8c 3f 28 f2 a3 3f f6 2c 79 3f 62 0a 03 40
       1.0973569 1.2808275 0.9733423 2.0475087

resnet_denoiser/level_1/batch_normalization_16/FusedBatchNormV3 f4 [16]
000000 46 8a 38 3f 42 dd c4 3e 4b e4 bd be a6 bf 27 3f
       0.7208599 0.38450056 -0.37088236 0.6552681
000010 9c a9 dc 3e e4 a7 e7 be c1 0b 14 bf ea 4f 12 3f
       0.43098152 -0.45245278 -0.57830435 0.5715319
000020 3d 5f 36 3f ba c4 fe be 8d cf bd be 7e 73 8c be
       0.7123907 -0.49759465 -0.3707241 -0.27431864
000030 d7 75 e0 be 11 16 37 bf d3 3a 0f bf 5f 1f e3 be
       -0.43839905 -0.71518046 -0.55949134 -0.44359872

resnet_denoiser/level_1/batch_normalization_16/FusedBatchNormV31 f4 [16]
000000 66 04 75 41 ef bc a4 41 44 d7 3c 41 5b 91 23 41
       15.313574 20.592253 11.802555 10.222987
000010 c9 8a 56 41 80 24 ad 41 53 42 86 40 4b f7 ca 40
       13.408883 21.642822 4.195596 6.342687
000020 0b 09 66 41 d7 1d 8f 41 dd 3a 6b 41 57 22 11 41
       14.377208 17.88957 14.701871 9.070884
000030 50 c0 aa 40 d4 e7 28 41 de fc 9c 40 e2 c8 25 41
       5.3359756 10.556599 4.9058676 10.361544

resnet_denoiser/level_1/batch_normalization_17/FusedBatchNormV3 f4 [16]
000000 4a c9 0b bf 2b a0 ad be 82 b9 31 be 5d ee 28 be
       -0.5460402 -0.3391126 -0.17355922 -0.16497178
000010 19 5d ac be 90 3a 44 bd 33 46 d9 bd db 65 90 be
       -0.33664778 -0.047907412 -0.106090926 -0.2820271
000020 a9 0f 20 bd 32 f8 00 be e7 4f 6a bd 2a 76 38 bd
       -0.039077435 -0.12594679 -0.057205107 -0.045034565
000030 48 a7 05 bd 65 4b 90 bd ef 62 85 be 22 ba 29 bf
       -0.032630235 -0.0704563 -0.26052043 -0.6629964

resnet_denoiser/level_1/batch_normalization_17/FusedBatchNormV31 f4 [16]
000000 a0 7c 7f 3f e9 1e f0 3f fd 40 9a 3f 17 a4 5a 40
       0.9979954 1.8759433 1.2051083 3.4162652
000010 96 6a eb 3f 86 e4 e6 40 87 20 aa 40 28 7b 44 40
       1.8391902 7.215396 5.3164706 3.0700169
000020 0f b8 9f 40 30 68 80 40 82 99 a0 40 be 12 82 41
       4.991218 4.012718 5.0187387 16.259151
000030 be a5 91 41 9b 42 18 41 86 5a dd 3f 00 80 40 3f
       18.205929 9.516261 1.729325 0.7519531

resnet_denoiser/level_1/batch_normalization_18/FusedBatchNormV3 f4 [32]
000000 ce 8d 4a be 21 65 5e bd c8 e8 b3 bc c9 5c 0e be
       -0.19780657 -0.054295663 -0.021961585 -0.13902582
000010 3f 23 a3 bd 4f 78 92 bd 4e bb a2 bd e6 ef 3c be
       -0.07965707 -0.07151853 -0.07945882 -0.18450889
000020 06 1c de bd 9c eb 06 bf 91 c7 04 be db 63 eb bd
       -0.10845189 -0.5270326 -0.12966754 -0.11493655
000030 f6 e3 50 bf 85 ed d2 bd 48 09 bd bc ad 97 6f be
       -0.8159784 -0.102992095 -0.023075715 -0.23397703
000040 03 21 94 bd fb 24 27 bf 65 61 22 be 72 d8 2c bd
       -0.07232859 -0.652908 -0.15857466 -0.042198606
000050 f2 1b 58 be 47 bd 9c bd 14 5e da bd 88 89 a7 bd
       -0.2110441 -0.07653289 -0.10662475 -0.08180529
000060 f1 0d d9 be 88 c8 a9 bd eb 7f 8a bd 81 b1 06 bd
       -0.4239345 -0.082902014 -0.0676268 -0.032884125
000070 ca fa 5c bd 92 2f 0f be 78 39 12 be 54 0a 75 be
       -0.05395011 -0.1398299 -0.14279735 -0.23929721

resnet_denoiser/level_1/batch_normalization_18/FusedBatchNormV31 f4 [32]
000000 f0 59 10 40 da 5e 6b 3f 8d 27 4a 3f 76 a3 90 3f
       2.2554893 0.91941607 0.789666 1.1299884
000010 a2 be 11 40 81 64 1f 40 4f fd c8 3f 6c 04 f6 3f
       2.2772603 2.4905093 1.5702304 1.92201
000020 e3 67 cf 3f ad 35 28 3f 79 16 a9 3f 2a 02 cd 3f
       1.6203579 0.657069 1.3209983 1.6016285
000030 7c 42 b1 3f cf 74 06 40 c0 c2 80 3f 9a 49 2a 3f
       1.3848414 2.1008794 1.0059433 0.6651856
000040 31 50 2f 40 2d f0 a8 3f 3d 97 91 3f 12 9b e3 3f
       2.7392695 1.3198296 1.1374279 1.7781699
000050 3e 7b c4 3f d0 22 03 40 62 94 b6 3f cc ca cc 3f
       1.535011 2.0489998 1.4264033 1.5999389
000060 42 59 e2 3e 41 44 cd 3f 07 7f ac 3f ee 3a 03 3f
       0.44208723 1.6036454 1.3476266 0.51261795
000070 ee a4 03 40 e0 2e 57 3f 97 1a 0a 40 a3 0b c2 3f
       2.0569415 0.840559 2.157873 1.5159801

resnet_denoiser/level_1/batch_normalization_19/FusedBatchNormV3 f4 [16]
000000 09 3b 64 3f cc a1 89 3e 9e f2 2f be bf f1 8b 3e
       0.8915258 0.26881254 -0.17182395 0.27332875
000010 79 c4 65 3e 78 2a 10 be 98 0c b2 bf b0 12 0f 3f
       0.2243823 -0.140787 -1.3910093 0.5588789
000020 52 16 73 3e c9 6c 13 be ad 59 68 be dc da 69 bd
       0.23738983 -0.14396967 -0.22690459 -0.057093486
000030 45 b1 87 bf ab df 08 bf 94 9f 75 bf 54 fb 3b be
       -1.0600973 -0.5346629 -0.9594662 -0.18357593

resnet_denoiser/level_1/batch_normalization_19/FusedBatchNormV31 f4 [16]
000000 4c 83 97 41 01 58 66 41 57 f9 ae 40 da 74 88 40
       18.93911 14.396485 5.467937 4.264264
000010 00 65 df 40 c3 80 d7 40 e2 77 21 41 f9 78 c6 40
       6.981079 6.734468 10.091768 6.202267
000020 2c 4f 99 40 e2 a1 a5 40 6d f9 0f 41 f9 a6 f1 3f
       4.7909145 5.176011 8.998395 1.8879081
000030 9a 72 4e 41 77 8b fc 40 bf 9b 06 41 e7 36 89 40
       12.902979 7.8920245 8.413024 4.287952

resnet_denoiser/level_1/batch_normalization_20/FusedBatchNormV3 f4 [16]
000000 4f ea a6 be 8d 96 24 be 31 1f 1b be d5 ba b0 be
       -0.32600638 -0.16073056 -0.15148617 -0.34517542
000010 d0 c3 10 be 6d 19 71 be 7a cf 00 bf 62 65 34 bf
       -0.14137197 -0.23544855 -0.50316584 -0.704672
000020 91 41 28 be f6 e8 0c bf d6 58 09 be 38 9b 11 bf
       -0.16431262 -0.5504297 -0.13412794 -0.5687747
000030 8d 58 fe bd 18 d8 fb bd 99 81 fa bd 58 d4 9b be
       -0.124192335 -0.12297076 -0.1223175 -0.30435443

resnet_denoiser/level_1/batch_normalization_20/FusedBatchNormV31 f4 [16]
000000 4a cf 07 40 41 9d 71 40 a0 1d 92 40 60 b0 68 3f
       2.122027 3.775223 4.5661163 0.90894127
000010 cf 66 7e 40 67 c3 50 40 30 0b 29 3f 5b 60 90 3f
       3.975025 3.2619264 0.66032696 1.1279405
000020 a2 6e 04 40 20 a5 83 3f 4a f8 1e 40 ef a2 82 3f
       2.0692525 1.0284767 2.4839044 1.0205973
000030 ad e7 be 3f 74 fd 8a 40 0c 71 96 40 a8 26 1c 40
       1.4914452 4.343439 4.7012997 2.4398594

resnet_denoiser/level_1/batch_normalization_21/FusedBatchNormV3 f4 [32]
000000 16 e2 26 be 53 ab 39 be 15 81 15 be f8 ef f7 bd
       -0.16297182 -0.18131761 -0.14600022 -0.12106317
000010 51 ed a3 bd 68 c8 9e bd 38 b9 39 be 45 b3 93 be
       -0.08004249 -0.07753068 -0.18137062 -0.2884771
000020 67 20 6f be 4a 6e 5c be 25 4f bf bd 36 6b 29 be
       -0.23352204 -0.21526447 -0.093412675 -0.16544804
000030 26 2e 01 be d9 82 54 be 68 65 84 be b7 73 d3 bd
       -0.1261526 -0.2075304 -0.25858617 -0.10324805
000040 b0 f5 d9 bd 5b db b1 bd 64 dc e9 bc a2 6b 8d be
       -0.10642564 -0.08684417 -0.028547473 -0.2762118
000050 e4 a0 fa bd c5 75 91 bd 52 9a fa bd c0 65 9b bd
       -0.12237719 -0.07102541 -0.122364655 -0.07587767
000060 81 37 a8 bd b8 be 33 be b8 81 15 be ed fe 29 be
       -0.082137115 -0.17553222 -0.14600265 -0.16601153
000070 6d 53 1d bd 6f 60 f5 bd 7f 9f ea be b9 8a a9 be
       -0.03840964 -0.11981284 -0.4582481 -0.3311365

resnet_denoiser/level_1/batch_normalization_21/FusedBatchNormV31 f4 [32]
000000 fa 8e 5a 40 8e 00 31 40 b0 b7 0c 40 2d 9d 15 40
       3.4149766 2.7656589 2.1987114 2.3377182
000010 96 84 19 40 8d 71 05 40 26 6e c1 3f 64 fb 1b 40
       2.3987174 2.0850556 1.511174 2.4372187
000020 33 2f 3e 40 41 82 83 3f 61 20 8e 40 2e 46 19 40
       2.9716308 1.0274125 4.4414525 2.3949084
000030 41 0a 3b 40 dd 53 2b 40 60 f1 04 40 0b 77 15 40
       2.9225008 2.6769936 2.0772324 2.3353908
000040 28 c4 60 40 83 39 72 40 9d f0 c5 3f eb 98 f8 3f
       3.5119724 3.7847602 1.5464054 1.9421667
000050 ad e4 df 3f 2d 37 94 3f 48 dc 08 40 cb 68 ba 3f
       1.7491661 1.1579338 2.138445 1.456323
000060 b1 4a 42 40 ce 36 49 40 12 47 0f 40 7c 97 a5 3f
       3.0358088 3.14397 2.2387128 1.2936854
000070 7c f2 cc 3f c4 30 8b 3f 31 24 c1 3f 63 a2 1e 40
       1.60115 1.0874257 1.508917 2.4786613

resnet_denoiser/level_1/batch_normalization_22/FusedBatchNormV3 f4 [16]
000000 c8 86 78 3e cb d5 60 3d ea 2e 5c bd df bd 9c 3d
       0.24270165 0.05489139 -0.05375568 0.076534025
000010 91 53 93 3d ab 19 39 bd 0d ab fa be 9d 30 99 3e
       0.071936734 -0.045190495 -0.48958626 0.29919901
000020 73 dc ce 3d 25 39 16 bd 04 82 34 bd 5b 62 86 bd
       0.10100641 -0.03667559 -0.044069305 -0.065617286
000030 73 f1 8c bd 2f a7 0a be f3 3d 0c bf 5a 3d ef bd
       -0.0688199 -0.13540338 -0.54782027 -0.11681624

resnet_denoiser/level_1/batch_normalization_22/FusedBatchNormV31 f4 [16]
000000 8a fc a4 40 f3 24 3c 40 f9 f6 da 3f cf d5 98 3f
       5.1558275 2.9397552 1.710662 1.1940249
000010 78 3d 0f 40 ac 58 0a 40 18 53 63 40 c1 81 54 40
       2.2381268 2.161662 3.5519466 3.3204195
000020 5d 76 02 40 b8 c6 a8 3f 76 b3 df 3f 6b dd 0a 40
       2.0384743 1.3185644 1.7476642 2.1697643
000030 b1 6f 56 3f ed d3 ff 3f 86 b6 99 40 21 a1 2e 40
       0.8376418 1.998655 4.8035307 2.7285845

resnet_denoiser/level_1/batch_normalization_23/FusedBatchNormV3 f4 [16]
000000 ad 44 24 be 34 7d 05 be b4 47 d9 bd 61 66 6e bd
       -0.16041823 -0.13036042 -0.106093794 -0.058203105
000010 50 f5 26 be 38 9d fe 32 74 47 55 bd c9 19 a3 bd
       -0.16304517 2.9640987e-08 -0.052070096 -0.079639025
000020 99 e5 f3 bd 5a da b7 bd a7 d1 f6 b2 61 50 6d bd
       -0.11909027 -0.08977194 -2.8733508e-08 -0.057937983
000030 b1 b0 f0 bd b6 9c 79 be 25 21 c3 bd 2b 4a 5e be
       -0.11752451 -0.24376187 -0.09527806 -0.2170798

resnet_denoiser/level_1/batch_normalization_23/FusedBatchNormV31 f4 [16]
000000 29 10 02 41 a1 42 2f 41 6b 35 10 41 de ec 4c 41
       8.128945 10.953767 9.0130415 12.807829
000010 b7 53 53 41 65 b7 18 c0 5d c8 26 41 b5 bf 25 41
       13.207938 -2.3861935 10.423917 10.359303
000020 a9 1e 33 41 17 84 4d 40 cd b0 14 40 d7 db 67 41
       11.194985 3.2111871 2.323291 14.491172
000030 59 49 1c 41 98 19 d9 40 ae 18 ca 40 d5 9a 74 40
       9.767907 6.784374 6.3155127 3.8219502

resnet_denoiser/level_1/batch_normalization_24/FusedBatchNormV3 f4 [32]
000000 f0 5a 86 be 2f d8 a2 be e9 ae 83 34 3f dd e7 be
       -0.26241255 -0.3180556 2.4527915e-07 -0.45285985
000010 d8 7d a7 bd 1d 24 43 be 9f 5d d1 be 08 10 e2 bd
       -0.081783 -0.19056745 -0.4089174 -0.11038214
000020 96 b9 e7 bd 38 51 04 bf ae 9d 71 bd 81 a2 75 be
       -0.113146946 -0.5168643 -0.058988266 -0.23987772
000030 e6 eb 0c bf a9 e0 72 be df 4c a5 be 1a 72 76 be
       -0.5504745 -0.23718514 -0.3228521 -0.24066964
000040 de f5 b3 b4 0c 47 97 be 80 37 86 be 15 4f c3 be
       -3.352024e-07 -0.29546392 -0.26214218 -0.38146272
000050 28 dc 9c be cc d8 de be bf 5c 11 be e3 b2 f1 bd
       -0.30636716 -0.43524778 -0.14195536 -0.11801698
000060 8d ea 90 be 60 1f a0 be 84 e6 8c be cd 47 0f be
       -0.28303948 -0.31273937 -0.2751962 -0.13992234
000070 6f ce 42 be d3 f4 01 be 69 91 9b be 05 cc 11 be
       -0.1902406 -0.1269105 -0.30384377 -0.14237984

resnet_denoiser/level_1/batch_normalization_24/FusedBatchNormV31 f4 [32]
000000 87 10 81 3f 92 3a 98 40 68 5b 0d c0 32 49 b7 3f
       1.0083169 4.7571497 -2.208704 1.4319212
000010 3d c5 87 40 88 46 03 40 58 3b 13 40 b2 7c f2 3f
       4.242827 2.05118 2.300497 1.8944304
000020 1b f7 9d 40 c8 d5 0c 40 82 1b 9e 40 d5 55 05 40
       4.9364142 2.2005482 4.940858 2.0833638
000030 86 0f f1 3f a7 ad 38 40 b1 cb ac 3f 5d a6 d4 3f
       1.8832862 2.885599 1.3499662 1.661327
000040 f6 20 bd 3f 5c 73 7c 40 6b 78 36 40 dc bc c0 3f
       1.4775684 3.944541 2.8510997 1.5057635
000050 74 cf de 3f 86 ec b1 3f e8 52 e0 40 d4 7f 96 3f
       1.740706 1.3900306 7.0101204 1.175776
000060 e9 fe 64 40 92 1b af 3f f3 2c 03 40 4d 53 e1 3f
       3.5780585 1.3680289 2.0496185 1.7603546
000070 35 be 04 40 33 7e 33 40 8a e5 97 3f 82 85 ae 3f
       2.0741093 2.8045776 1.1866925 1.3634493

resnet_denoiser/level_1/batch_normalization_25/FusedBatchNormV3 f4 [16]
000000 ae 1a 3c 3d 25 20 4a 3d 3d 7a 97 bc 56 ae bf 3c
       0.04592388 0.04934706 -0.018490905 0.02339856
000010 1e 74 92 3c 8b 0f 97 bc 17 06 e9 bd 78 5d f5 3d
       0.017877635 -0.018440029 -0.11378115 0.119807184
000020 4f b9 da 3d 0f 3c 39 bd 69 28 92 bc a8 be f4 bc
       0.10679876 -0.045223292 -0.017841535 -0.029876068
000030 ea bc 82 bd c9 01 0b bd 3f 4e 55 be 63 ca f6 bc
       -0.06383689 -0.03393725 -0.2083063 -0.030125802

resnet_denoiser/level_1/batch_normalization_25/FusedBatchNormV31 f4 [16]
000000 d2 bf 79 3f 06 24 29 40 a5 a3 16 3f 5a e7 ba 3e
       0.9755832 2.6428237 0.5884345 0.36504632
000010 35 64 0e 3f 3d cf 61 3f c7 52 53 3f cc 2f aa 3f
       0.55621654 0.88206846 0.82548183 1.3295836
000020 a3 f1 09 40 94 1c d0 3f aa 21 35 3f b8 e7 7c 3f
       2.1553733 1.6258721 0.7075449 0.98791075
000030 e1 e8 46 3f 8c 3d 00 3f 77 cb e9 3f 1c 24 34 3f
       0.77699095 0.50093913 1.8265218 0.703676

resnet_denoiser/level_1/batch_normalization_26/FusedBatchNormV3 f4 [16]
000000 f8 54 36 bd fd d4 87 bc 99 98 7a bd 0b 04 ec bc
       -0.044514626 -0.016581053 -0.061180685 -0.028810522
000010 e6 95 c4 bc c5 a0 41 bc 0f 16 96 bc 43 9b b3 bc
       -0.023997258 -0.011818116 -0.018321065 -0.02192462
000020 4d 6f 4d bd 70 31 73 bd 79 90 32 bd 6f 78 6f bc
       -0.050154973 -0.05937332 -0.04359481 -0.014616116
000030 e4 d6 c3 bc 29 b3 b4 bc 62 a9 92 bc 07 13 9c bd
       -0.023906179 -0.022058086 -0.017903034 -0.07620817

resnet_denoiser/level_1/batch_normalization_26/FusedBatchNormV31 f4 [16]
000000 3a d3 96 40 67 44 17 41 f2 92 97 40 ae 4a 9f 40
       4.7132845 9.4542 4.7366877 4.977866
000010 5e 9f 5b 41 21 cc 16 41 51 60 bb 40 be 9f de 40
       13.726408 9.424836 5.8555074 6.957
000020 56 f4 ef 40 de 13 0b 41 98 bc bf 40 5a cd 05 41
       7.498576 8.69235 5.9917717 8.362635
000030 44 62 51 41 60 e8 ff 40 03 85 eb 40 6c f0 a7 40
       13.086491 7.997116 7.359987 5.2480984

resnet_denoiser/level_1/batch_normalization_27/FusedBatchNormV3 f4 [32]
000000 be 66 03 bd d1 32 2f be 3d 66 56 be 26 0f d5 34
       -0.032080404 -0.17109229 -0.20937438 3.9685364e-07
000010 59 3b b8 b4 03 eb 43 be 9b e6 8c bd 92 1d f1 33
       -3.4315852e-07 -0.19132619 -0.06879922 1.1227816e-07
000020 e7 d7 86 b4 03 36 d6 bd 0b 11 4a bd f4 06 1b b4
       -2.5116535e-07 -0.10459521 -0.04933266 -1.443803e-07
000030 ff d0 d6 bd 17 db ca bd f8 61 46 be 2d 22 ee b3
       -0.104890816 -0.09905069 -0.1937331 -1.1088955e-07
000040 b5 e3 80 be b0 fa e6 bd f5 ef e9 34 c5 f7 47 be
       -0.25173727 -0.112782836 4.3574224e-07 -0.1952811
000050 b0 1c ff bd df 14 47 be 16 0c e9 bd 6f 2a af bd
       -0.124566436 -0.19441555 -0.11379258 -0.085530154
000060 62 8a ff bd f4 c6 95 bd a2 af c2 bd 30 7f 15 be
       -0.12477566 -0.07313338 -0.095061556 -0.145993
000070 be 84 48 be 2f 47 f1 bd 95 7f b7 bd 14 50 9c bd
       -0.19581887 -0.11781155 -0.08959881 -0.07632461

resnet_denoiser/level_1/batch_normalization_27/FusedBatchNormV31 f4 [32]
000000 be c0 a6 40 47 e4 07 40 76 b5 0c 41 ba 3e 61 c0
       5.211028 2.123308 8.794302 -3.5194535
000010 3e 30 65 40 19 b4 00 40 bd ee 6e 40 69 d4 62 40
       3.5810695 2.0109923 3.7333214 3.5442145
000020 e3 95 61 40 b0 16 65 40 67 0c 2e 40 d5 9a 64 40
       3.5247734 3.5795097 2.719507 3.5719502
000030 bd 8d d5 40 71 51 81 40 87 42 42 41 be c2 4d c0
       6.673552 4.0411916 12.141242 -3.2150111
000040 e3 3c de 3f 1e 7c 24 40 3c 97 29 c0 4e 42 45 40
       1.7362331 2.5700755 -2.6498556 3.082172
000050 f1 4a 42 40 d7 2f 1f 40 10 84 d1 3f 0d 96 15 41
       3.035824 2.487295 1.6368427 9.3491335
000060 5f 5d e0 3f e4 9c 67 40 6d 85 34 41 2b 5d 8f 40
       1.7528495 3.6189508 11.282575 4.480123
000070 40 4d 1b 40 1b c2 64 40 96 a8 80 40 97 24 f2 40
       2.42659 3.5743473 4.0205793 7.5669665

resnet_denoiser/level_1/batch_normalization_28/FusedBatchNormV3 f4 [16]
000000 9f 7a f0 3c ca 19 86 3b 76 a6 db bb 24 f1 14 3d
       0.029355345 0.0040924298 -0.0067031933 0.036362782
000010 14 ef 01 3c 47 aa 9c bc d3 5f 08 bd 45 1a e7 3c
       0.007930536 -0.019124163 -0.03329451 0.028210768
000020 d3 81 b1 3c 04 f7 88 bb 8c 2c a1 bc 9e 0e 3b bc
       0.02166835 -0.004179837 -0.019674562 -0.011417059
000030 76 00 ab bd 9d 44 70 bd 68 82 26 bd 14 15 01 bd
       -0.08349697 -0.058659185 -0.04065171 -0.031514242

resnet_denoiser/level_1/batch_normalization_28/FusedBatchNormV31 f4 [16]
000000 e3 a4 1f 3f 07 6f 60 3e 48 6f 5a 3e d9 3a 11 3f
       0.6236097 0.21917354 0.21331513 0.5673042
000010 f2 a8 7c 3e ea 2f 6a 3f 4b 59 77 3e 4e 4b a0 3e
       0.24673823 0.9147936 0.24155156 0.31307453
000020 26 e6 df 3e 66 e1 19 3e a6 bd 47 3f 47 4b c1 3e
       0.43730277 0.15027389 0.78023756 0.37752745
000030 96 15 82 3f 94 a8 5d 3f e6 80 b6 3e 82 71 3c 3f
       1.0162838 0.86585355 0.35645217 0.736107

resnet_denoiser/level_1/batch_normalization_29/FusedBatchNormV3 f4 [16]
000000 e0 f2 9b 33 fb 3d 87 bb d7 67 12 b3 8b c1 83 bc
       7.261929e-08 -0.0041272617 -3.4087716e-08 -0.0160835
000010 1c 7b 24 bc 12 9f cd bc a2 0e 12 bd 0b 17 6e bc
       -0.010039117 -0.025100265 -0.035658486 -0.014531861
000020 e1 cb 6c bc 81 1e 86 bd e0 6a 23 bd 07 52 27 bc
       -0.014452905 -0.06548787 -0.039896846 -0.010212428
000030 b4 c6 3f bd d8 27 e9 b2 92 e3 1a b3 58 bb 43 33
       -0.046820357 -2.7142889e-08 -3.6062893e-08 4.5572364e-08

resnet_denoiser/level_1/batch_normalization_29/FusedBatchNormV31 f4 [16]
000000 5f f5 c9 bf 91 ef f9 40 73 3f b1 3f 31 d2 b1 40
       -1.5778006 7.810494 1.3847488 5.556908
000010 15 75 cc 40 b2 a7 a7 40 e0 87 37 41 e2 c1 b6 40
       6.3892922 5.2392206 11.470673 5.7111673
000020 89 3d 92 40 7c 53 83 40 19 e3 3a 40 4a d9 a3 40
       4.5700116 4.103941 2.920111 5.1202745
000030 2b 83 35 41 6d 5a 9b 3f da 87 c5 3f 2e 4a c1 bf
       11.344523 1.2136971 1.5432084 -1.5100763

resnet_denoiser/level_1/batch_normalization_30/FusedBatchNormV3 f4 [32]
000000 e9 5c a2 b4 1d 89 f2 bd 0b 1b a5 34 e7 da d4 bc
       -3.0242452e-07 -0.118425585 3.075332e-07 -0.025983287
000010 95 c8 33 35 5f 3f d8 bd 83 f4 1b 33 6e 53 bd bd
       6.697458e-07 -0.10558962 3.6311132e-08 -0.092444286
000020 b9 3a 1d b5 f5 7b eb bd 28 b4 1c b5 33 b9 19 be
       -5.857251e-07 -0.11498252 -5.837669e-07 -0.15012054
000030 62 74 d7 b3 eb 42 95 bd b0 e0 9f bc 06 a4 f5 bd
       -1.00328876e-07 -0.07288154 -0.019516319 -0.119941756
000040 05 7a 86 35 29 98 40 b5 28 59 9e bd 56 fa b3 34
       1.001929e-06 -7.1746996e-07 -0.07731849 3.3523492e-07
000050 5d 1e bc 33 a8 a2 92 bc 46 dc 22 bd 84 11 d1 bd
       8.759955e-08 -0.017899826 -0.03976085 -0.10208419
000060 0f 18 f4 bd ec cd a5 bd 24 0c 66 34 3b 60 1f be
       -0.11918651 -0.08095917 2.1424836e-07 -0.15564053
000070 2b cc 8f bd 9b 16 4b be 93 82 ce b4 79 18 57 bd
       -0.07021364 -0.19832842 -3.8465495e-07 -0.052513573

resnet_denoiser/level_1/batch_normalization_30/FusedBatchNormV31 f4 [32]
000000 ad e3 4c 40 2c ee 99 41 22 39 55 c0 2b e6 47 40
       3.2013962 19.241295 -3.331612 3.1234233
000010 11 72 55 c0 e9 55 a1 41 f8 ef 54 40 f0 81 bd 41
       -3.335087 20.166948 3.3271465 23.688446
000020 67 64 4c 40 72 0c 0d 40 b3 d5 52 40 bf ac 9d 3f
       3.193628 2.2038846 3.2942932 1.2318343
000030 77 68 51 40 8b 03 6d 40 09 43 81 40 d7 13 98 3f
       3.272001 3.7033412 4.039433 1.1881055
000040 3c 64 6e 40 30 92 6a 40 df 4d 8b 41 14 f4 6f 40
       3.7248678 3.6651726 17.413023 3.7492723
000050 06 45 65 40 7b a5 88 40 cb 61 4f 40 54 9b 70 41
       3.5823379 4.2702003 3.2403438 15.037922
000060 a0 d5 7a 41 a9 9b aa 40 9f 12 72 c0 c9 c0 98 41
       15.677155 5.3315015 -3.7823865 19.094133
000070 90 4e 54 40 d3 50 ef 3f d7 84 70 40 da bd 98 40
       3.317295 1.869654 3.758108 4.7731752

resnet_denoiser/level_1/batch_normalization_31/FusedBatchNormV3 f4 [16]
000000 c2 61 45 b5 95 d8 3a 39 1a cc 1d bb 9f 26 66 3c
       -7.3530475e-07 0.00017819025 -0.0024077953 0.014047294
000010 ad 1a ba 3a c4 eb 25 bb 63 d7 5e bc 67 fa 76 3b
       0.0014198624 -0.002531753 -0.013601157 0.0037685873
000020 e2 18 08 3c 5c f2 94 b9 37 38 ad 34 7f 42 bd ba
       0.008306714 -0.00028409332 3.2264663e-07 -0.0014439373
000030 27 a0 17 bb 23 de 8f bb 7d 34 82 bc d5 e8 10 ba
       -0.002313623 -0.0043904944 -0.015894169 -0.0005527859

resnet_denoiser/level_1/batch_normalization_31/FusedBatchNormV31 f4 [16]
000000 9f 08 83 b7 ca 5a 1c 3c 8d ec 9c 3d 31 6a 60 3e
       -1.5620431e-05 0.00954313 0.07662306 0.21915509
000010 37 f1 34 3d e1 05 f8 3d d3 16 ca 3d 36 4e 2b 3d
       0.044175353 0.12110496 0.098676346 0.041822635
000020 a0 aa 2b 3e 91 57 27 3c 32 ab 56 b7 f4 91 43 3d
       0.16764307 0.010213749 -1.27952535e-05 0.047746614
000030 60 b0 e6 3c 87 b9 84 3d 40 b6 0e 3e 8c 8c 53 3c
       0.028160274 0.06480699 0.1393671 0.012911927

resnet_denoiser/level_0/conv2d/Conv2D i1 [16, 5, 5, 3]
000000 00 00 ff fd fd fc 00 00 ff 02 01 01 00 00 ff fc
       0 0 -1 -3 -3 -4 0 0 -1 2 1 1 0 0 -1 -4
000010 fb fc f7 f6 f3 0a 08 07 05 04 01 00 00 00 f9 f9
       -5 -4 -9 -10 -13 10 8 7 5 4 1 0 0 0 -7 -7
000020 fb 00 fa f7 02 81 44 18 19 11 04 05 07 ff fc fa
       -5 0 -6 -9 2 -127 68 24 25 17 4 5 7 -1 -4 -6
000030 00 00 ff 17 1b 17 0c 09 09 03 04 03 ff ff fe fc
       0 0 -1 23 27 23 12 9 9 3 4 3 -1 -1 -2 -4
000040 fd ff 03 04 06 02 03 03 00 02 01 00 00 00 ff 00
       -3 -1 3 4 6 2 3 3 0 2 1 0 0 0 -1 0
000050 fc fc f7 ef fe ff fb 00 00 00 fd ff fb f0 e9 e6
       -4 -4 -9 -17 -2 -1 -5 0 0 0 -3 -1 -5 -16 -23 -26
000060 f6 f1 ef f8 f9 f4 fe 00 00 fd fb f6 00 04 fd 7f
       -10 -15 -17 -8 -7 -12 -2 0 0 -3 -5 -10 0 4 -3 127
000070 72 da 02 01 00 ff ff fa fc ff fd f7 f8 f7 fd ff
       114 -38 2 1 0 -1 -1 -6 -4 -1 -3 -9 -8 -9 -3 -1
000080 fa f1 f3 f6 00 01 00 ff ff fe 00 00 ff 01 01 ff
       -6 -15 -13 -10 0 1 0 -1 -1 -2 0 0 -1 1 1 -1
000090 01 01 ff 04 04 04 ff ff fe 00 ff fe 06 00 01 00
       1 1 -1 4 4 4 -1 -1 -2 0 -1 -2 6 0 1 0
0000a0 00 00 00 00 fe fe ff fe 00 f5 fe 36 31 17 02 00
       0 0 0 0 -2 -2 -1 -2 0 -11 -2 54 49 23 2 0
0000b0 ff fd 00 fe 04 00 ff 34 36 0d 36 07 81 3b 3b 16
       -1 -3 0 -2 4 0 -1 52 54 13 54 7 -127 59 59 22
0000c0 06 03 fe 00 ff fd 00 fc 00 21 3b 08 00 fd fb ff
       6 3 -2 0 -1 -3 0 -4 0 33 59 8 0 -3 -5 -1
0000d0 00 fb ff 00 fe ff fe fc 01 00 fc 00 00 fb 01 02
       0 -5 -1 0 -2 -1 -2 -4 1 0 -4 0 0 -5 1 2
0000e0 00 00 00 00 00 00 00 00 00 00 00 00 00 00 00 00
       0 0 0 0 0 0 0 0 0 0 0 0 0 0 0 0
0000f0 00 00 00 00 00 00 04 04 00 00 00 00 00 00 00 01
       0 0 0 0 0 0 4 4 0 0 0 0 0 0 0 1

resnet_denoiser/level_0/conv2d_1/Conv2D f4 [16, 1, 1, 16]
000000 a6 eb 12 3d 68 d8 79 3e 06 a3 a8 3d 68 ea da bd
       0.035869263 0.24398959 0.08234219 -0.10689241
000010 ff 73 06 3c 5b 60 ef bd 39 25 b0 bd 69 81 1e 3a
       0.008206367 -0.116883 -0.0860085 0.00060465053
000020 ef 85 89 ba 57 8a ea bb cf 67 ef ba 90 4f c4 3e
       -0.0010492186 -0.0071576047 -0.001826519 0.3834195
000030 1c 2f 4a bc 25 b6 8e bc 09 e1 60 bd 39 02 03 3e
       -0.012340333 -0.017420838 -0.05490211 0.12793817
000040 12 df a6 39 f9 f5 b4 39 08 39 ce bc ad 25 a6 bc
       0.00031828188 0.0003451554 -0.025173679 -0.020281637
000050 93 e7 67 3d c7 b7 37 bd 24 fd 95 b7 20 03 33 39
       0.05661733 -0.044852998 -1.7880062e-05 0.00017071934
000060 56 05 00 39 7c fb f3 bd 35 3f 0a 3b ef 44 00 3d
       0.00012209019 -0.11913201 0.0021094803 0.03131574
000070 b2 23 f0 3e 59 fc a3 bc d0 6e 00 be 37 3c 8f 3d
       0.46902233 -0.02001779 -0.12542272 0.06993907
000080 22 f3 3d 3c 4f e0 31 b9 cd 1a a9 be 84 a8 5a 3e
       0.011593612 -0.00016963597 -0.3302826 0.21353346
000090 9f 96 a8 bd 6b 63 7b 3c 3a b5 dd 3d a3 aa 3b 3e
       -0.08231854 0.015343527 0.10825582 0.18326811
0000a0 d4 a0 e6 38 cc 2d 51 3f ff c7 30 bd b0 f2 fa bc
       0.00010997211 0.81710505 -0.04315948 -0.0306333
0000b0 8b cf 47 3d 04 ff 08 3e 3c ab a3 bc 88 d8 3e 3e
       0.048781913 0.1337853 -0.019979112 0.18637288
0000c0 65 13 64 3f 83 86 2b b9 05 b8 e9 3d 0a ad 75 39
       0.89092094 -0.0001635794 0.11412052 0.00023429483
0000d0 c0 de 3f be f9 7b d4 be 54 45 7a 38 5a 50 c9 3e
       -0.18737316 -0.41500834 5.966921e-05 0.39319116
0000e0 53 a2 2f 3f fc 37 5d 38 c1 5e 7f 38 ff 57 f4 bc
       0.6860706 5.2742645e-05 6.0884984e-05 -0.029827116
0000f0 f9 0a 38 39 8c d9 a5 3e 01 38 ec 3b 82 a6 08 bf
       0.00017551695 0.32392538 0.0072088246 -0.5337907
000100 cc 72 44 3e 32 4c 17 be 30 f4 78 bc 3e c6 d2 be
       0.19184417 -0.1477516 -0.015194938 -0.41166872
000110 48 e9 a0 3e f7 5e 50 be d4 2f ce 3d cb b6 a2 3c
       0.3142798 -0.20348726 0.10067716 0.019862553
000120 84 fa 5b 3d 20 9b 8f 3e 93 a2 01 be 8f 57 fd 3e
       0.053705707 0.28048038 -0.12659673 0.49480864
000130 02 ec d4 3a a8 b8 42 ba 77 31 8c 3d 05 9a 3b 3b
       0.0016244652 -0.00074280286 0.06845372 0.0028625738
000140 1b 71 70 bd 0a fd c7 bd fb 6e b2 be 4d e1 a8 3d
       -0.058701616 -0.0976506 -0.34850296 0.08246098
000150 b5 11 b5 3c 28 1a 6f 3e e7 6e 73 3e 54 7c 12 bc
       0.02210317 0.23349822 0.23772775 -0.008940775
000160 56 01 2b 3d 45 be a4 bd 88 3a a2 b7 38 48 a7 bc
       0.04174932 -0.080441035 -1.933916e-05 -0.020420179
000170 a5 94 0c bc e9 d3 14 3e 31 be e9 bd 54 41 ba be
       -0.0085803615 0.14533962 -0.11413229 -0.36377966
000180 9d 1a 6e bd 8c ee 53 39 a9 24 23 bd f8 33 08 bf
       -0.05813085 0.00020211394 -0.039829884 -0.532043
000190 90 cd 06 3d 04 9b 8b ba 6a 01 b0 3c 09 91 2f 3b
       0.032910883 -0.0010651057 0.02148505 0.0026789329
0001a0 34 c0 42 bc 79 ac 89 3d 18 ba 9c be fd 82 8f be
       -0.011886645 0.0672235 -0.30610728 -0.28029624
0001b0 98 0c ae 3b e6 8e a1 3a 89 26 e2 bc ab a7 88 3a
       0.00531156 0.0012325912 -0.027606266 0.0010425946
0001c0 94 54 d6 3c 2b 69 52 be 60 95 f7 3e bd 6f 21 bf
       0.026163377 -0.20547931 0.48356152 -0.63061124
0001d0 4b ab aa 3e 38 15 32 3a 57 e1 56 be 2e 90 81 be
       0.3333381 0.0006793323 -0.20984398 -0.25305313
0001e0 fc ef 68 b8 b5 4a 43 bf 63 b4 84 3b 68 1b 3a 3e
       -5.5536613e-05 -0.7628587 0.004049824 0.18174517
0001f0 aa 97 e6 bd 8d 08 23 bf 69 1f 52 3e 2e f4 78 bd
       -0.112593964 -0.6368492 0.20519795 -0.060779743
000200 72 73 81 bb 0b 44 91 39 d1 23 8a bd 00 7f af 3e
       -0.0039505297 0.0002770725 -0.06745113 0.3427658
000210 9f 24 43 be 4a 2d 33 bc 25 54 36 3d 81 67 6c be
       -0.19056939 -0.010936091 0.04451384 -0.23086359
000220 62 f1 7e bd 85 d5 a1 39 af 38 0a bc 60 21 c2 3e
       -0.06224192 0.00030867397 -0.008436366 0.37916088
000230 32 73 54 bd db f3 18 be d2 d3 8a bc da 6f 62 3b
       -0.05186767 -0.14936773 -0.016946707 0.0034551532
000240 69 db d2 be 00 e0 d3 be e5 9b c3 3b d9 ed 98 3e
       -0.41183022 -0.41381836 0.005969512 0.29868963
000250 01 26 78 be 42 7d 03 bd c2 ef 5a 3e 6f 2f 06 3c
       -0.24233247 -0.032101877 0.21380523 0.00819002
000260 0d ed 17 3f 16 37 1a b9 ce eb 28 3d c7 13 0e ba
       0.59346086 -0.00014707106 0.041240506 -0.0005419817
000270 83 d4 a9 3d ee 42 05 be 63 75 15 3f f4 50 4b be
       0.082924865 -0.13013813 0.5838224 -0.198551
000280 bc f5 2a 3c 3b c0 69 3d b0 a4 2a bd 82 6b b8 3d
       0.010434564 0.05706809 -0.041660964 0.090048805
000290 24 54 87 bd fe 36 de be 28 ba 0b 3d 7a f6 89 3c
       -0.066078454 -0.4340133 0.03411308 0.016841162
0002a0 64 10 c6 bd 2c 87 d9 bd 5c c7 82 ba 92 69 d2 38
       -0.09671095 -0.10621485 -0.0009977627 0.00010033244
0002b0 8b d1 0d be 34 ad 37 ba 17 72 8d 3d 1a 80 53 3e
       -0.13849466 -0.0007006705 0.069065265 0.20654336
0002c0 6b 84 fe 38 d0 52 6a 3d 95 c8 7e 3e c6 6d 1f 38
       0.000121363286 0.057207882 0.24881203 3.801079e-05
0002d0 a0 5e a8 ba 27 5c 16 b9 ec 2d 89 be 21 7f 7f 3d
       -0.0012845583 -0.00014339444 -0.26792848 0.0623771
0002e0 00 96 44 b8 7c 53 3f 3e 53 35 51 39 7a 5a 42 be
       -4.686974e-05 0.1868419 0.00019951658 -0.18979827
0002f0 9f af 1d bd cf 0d db b8 83 3c 74 3c f7 1f 99 be
       -0.038497563 -0.00010445306 0.014907005 -0.299072
000300 4d ab 16 be e0 33 c8 be 3d 48 97 3e bd 38 b2 3d
       -0.14713784 -0.39102077 0.295473 0.08702228
000310 5d 93 8a bc f7 57 1f be 51 36 e7 be 1d e6 90 3d
       -0.016915971 -0.155609 -0.45158628 0.070751406
000320 52 0b c5 bd 78 70 5c bd 97 3e 78 3e 8f f3 ef 3d
       -0.096213 -0.053818196 0.24242626 0.11716377
000330 88 32 68 3c dc 6f 59 3d da 11 da bb 53 7b 05 3e
       0.014172204 0.053085193 -0.00665496 0.13035326
000340 ac ab 25 3c de 3e 33 bc 09 94 68 be 6e 28 ee b9
       0.010111731 -0.010940282 -0.22712721 -0.0004542502
000350 72 10 34 3e b1 05 fa 3d 70 a7 d0 3e d6 21 57 3d
       0.17584398 0.12208117 0.40752745 0.052522503
000360 4b 4e 42 bd 9a 4c a8 bc c6 e5 13 bf 99 a7 f1 3c
       -0.047437947 -0.020544339 -0.5777248 0.029498862
000370 7f 6a 9b bb 9e 9c 17 b9 1f 73 8d 3e 80 4a 0d be
       -0.00474292 -0.00014458827 0.27626893 -0.1379795
000380 0b 2b 87 3c 98 0a 09 b9 f5 a2 22 be 7a b0 40 3a
       0.016500017 -0.00013069285 -0.15882476 0.0007350516
000390 47 88 31 3e 3b 9d 3e 3e a0 d3 cc 3d e3 ae dd 3d
       0.17337142 0.18614666 0.10001302 0.108243726
0003a0 92 47 20 3d 08 f6 08 39 25 95 10 3f 03 38 a7 bc
       0.039130755 0.00013061624 0.56477576 -0.02041245
0003b0 c9 bd 64 ba 92 10 6c ba fb 33 a9 3c 93 ba f5 3c
       -0.000872579 -0.0009005155 0.020654669 0.029996192
0003c0 14 a1 81 be bb b8 a9 3d 54 b2 8e bd 5b 65 ea 3d
       -0.25318205 0.08287188 -0.06967607 0.11445113
0003d0 c6 07 75 be 06 38 45 bc c6 bc b7 3d 95 de 60 3d
       -0.23928747 -0.012037283 0.089715526 0.05489977
0003e0 53 c5 33 bd b4 a7 a6 3c 04 f2 14 bd bc cb ae bd
       -0.043889355 0.020343639 -0.036363617 -0.08534953
0003f0 54 08 ef bc e3 7f 11 3d b4 46 38 b9 aa 36 8b 39
       -0.029178776 0.035522353 -0.00017573946 0.00026552874

resnet_denoiser/level_0/conv2d_2/Conv2D i1 [32, 3, 3, 16]
000000 00 04 00 00 11 18 10 ff 1c 09 00 00 00 02 07 00
       0 4 0 0 17 24 16 -1 28 9 0 0 0 2 7 0
000010 02 0e 00 fa 10 f2 e7 f1 04 0f 00 ee ff 1a ff f5
       2 14 0 -6 16 -14 -25 -15 4 15 0 -18 -1 26 -1 -11
000020 07 03 00 bd 10 03 0e ff 08 f1 d6 e8 13 14 01 ef
       7 3 0 -67 16 3 14 -1 8 -15 -42 -24 19 20 1 -17
000030 00 11 00 00 00 01 00 00 13 04 00 ef f0 07 0f 00
       0 17 0 0 0 1 0 0 19 4 0 -17 -16 7 15 0
000040 b9 05 00 00 ff 81 cf 00 ff 03 be 9f 00 00 11 a9
       -71 5 0 0 -1 -127 -49 0 -1 3 -66 -97 0 0 17 -87
000050 00 f7 cb e9 fd 02 03 f2 f4 01 e5 ba fe 00 00 0a
       0 -9 -53 -23 -3 2 3 -14 -12 1 -27 -70 -2 0 0 10
000060 00 06 0f 00 ff 00 00 00 08 18 ff ff 00 f3 12 00
       0 6 15 0 -1 0 0 0 8 24 -1 -1 0 -13 18 0
000070 0f 08 e6 d9 00 e4 d5 e6 00 45 00 f9 03 00 f9 00
       15 8 -26 -39 0 -28 -43 -26 0 69 0 -7 3 0 -7 0
000080 00 00 00 c0 00 00 0f fd 00 f1 d0 ef 21 00 f0 07
       0 0 0 -64 0 0 15 -3 0 -15 -48 -17 33 0 -16 7
000090 f7 fb 00 e8 00 00 00 ef f9 00 00 fa 00 f1 fb 00
       -9 -5 0 -24 0 0 0 -17 -7 0 0 -6 0 -15 -5 0
0000a0 d4 fd 00 fe e7 07 00 e4 00 fd 08 00 fc f7 f3 00
       -44 -3 0 -2 -25 7 0 -28 0 -3 8 0 -4 -9 -13 0
0000b0 eb fc fd f1 00 00 00 f1 fe 00 00 ff 00 ee f7 00
       -21 -4 -3 -15 0 0 0 -15 -2 0 0 -1 0 -18 -9 0
0000c0 f3 f6 00 fc f8 05 f8 e8 f7 00 03 ff f4 fd f5 05
       -13 -10 0 -4 -8 5 -8 -24 -9 0 3 -1 -12 -3 -11 5
0000d0 ca e9 00 00 e8 43 e1 00 e9 00 00 d3 81 c2 e6 48
       -54 -23 0 0 -24 67 -31 0 -23 0 0 -45 -127 -62 -26 72
0000e0 cc fb f5 cf ff 00 00 00 ff 00 00 00 00 ec fe 00
       -52 -5 -11 -49 -1 0 0 0 -1 0 0 0 0 -20 -2 0
0000f0 00 00 00 e7 00 00 00 e9 fc f6 00 fe 02 f9 00 00
       0 0 0 -25 0 0 0 -23 -4 -10 0 -2 2 -7 0 0
